results of reviewer/XJTU results/3-3/Experiment9/model.pth (torch, 59838 bytes, 14 tensors)

encoder.net.0.weight f4 [60, 17]
0	0xbe420e80	-0.18950844
1	0xbcdadd93	-0.026716983
2	0xbcb5b574	-0.02218125
3	0x3f027a37	0.50967735
4	0xbea2dc2b	-0.318086
5	0x3cb61894	0.022228517
6	0xbe0a076e	-0.13479397
7	0x3e20ae9f	0.15691613
8	0x3d862898	0.065507114
9	0xbe1f74a1	-0.15571834
10	0xbe255fcd	-0.16149826
11	0x3aa46fbd	0.0012545508
12	0x3e92eb0b	0.2869495
13	0xbd93df7a	-0.07220359
14	0xbdee595d	-0.116381384
15	0x3d8a8669	0.06763918
16	0x3d618c45	0.055065412
17	0xbdddfda3	-0.10839393
18	0x3d1e4b22	0.03864587
19	0xbdce74ca	-0.100808695
20	0x3e373ecc	0.17895049
21	0x3e01d864	0.12680203
22	0xbda7a418	-0.08185595
23	0x3d1e6eb6	0.0386798
24	0x3d11f7b1	0.035636608
25	0x3e33db2d	0.17564078
26	0x3e39c74b	0.1814243
27	0xbdfbfedb	-0.12304469
28	0xbba9bfe4	-0.005180346
29	0x3e2a0884	0.16604811
30	0xbe94e02b	-0.29077277
31	0xbe2ba3da	-0.16761723
32	0xbe90dfda	-0.28295785
33	0x3e8597b8	0.26092315
34	0x3dd673c4	0.10471299
35	0x3e2455cd	0.16048355
36	0xbd6d0c21	-0.057872895
37	0xbd84e5b0	-0.06489122
38	0xbe43bfc0	-0.19116116
39	0xbda6b716	-0.081403896
40	0xbe2bf66f	-0.16793226
41	0x3ce9572b	0.028483948
42	0x3cc21e76	0.023696166
43	0xbb46cbb0	-0.003033381
44	0x3e903a62	0.28169543
45	0x3d7621ee	0.06009095
46	0x3e247df2	0.1606367
47	0x3e6a5f61	0.22887947
48	0x3d4101e8	0.04712096
49	0x3d863e09	0.06554801
50	0xbe811b04	-0.25215924
51	0x3d6fc3db	0.05853639
52	0xbca69e13	-0.020339048
53	0xbc3f2e1b	-0.011668707
54	0x3dd6c73f	0.10487222
55	0xbe33b72c	-0.17550343
56	0xbe856f10	-0.26061296
57	0x3e3185d7	0.17336212
58	0x3e477d05	0.19481285
59	0x3e5f5b87	0.21812259
60	0x3df812db	0.121129714
61	0xbea58fe9	-0.32336357
62	0x3c93879d	0.018009001
63	0xbce05cc3	-0.027387982
64	0x3d2d0225	0.042238373
65	0x3e233f07	0.15942012
66	0xbdf5b2bb	-0.11996981
67	0x3c99b26a	0.018761832
68	0xbe034ff4	-0.12823468
69	0xbd1ffa3a	-0.039056994
70	0xbd38b0fb	-0.045090657
71	0xbe107fee	-0.14111301
72	0x3d6ba0aa	0.057526268
73	0xbb7465e1	-0.003729217
74	0x3d524bb7	0.05134174
75	0xbd4afbbe	-0.049556486
76	0x3df0685b	0.11738654
77	0xbe556ac2	-0.20841506
78	0xbcc517f7	-0.024059279
79	0xbe8da2e9	-0.27663353
80	0x3e22ed03	0.15910725
81	0xbcb60dc1	-0.022223355
82	0x3dc4940e	0.09598552
83	0xbe3a82bf	-0.18213938
84	0xbc91a330	-0.01777801
85	0x3d8b87ee	0.06813036
86	0x3e94513b	0.28968224
87	0xbd8f7435	-0.070045866
88	0xbe5838dd	-0.21115442
89	0xbd6536e5	-0.055960555
90	0xbe660723	-0.2246366
91	0xbd488c22	-0.048961766
92	0xbd971e70	-0.07378852
93	0x3ca61cac	0.020277344
94	0xbe277c1b	-0.16355936
95	0x3e8dac1d	0.27670375
96	0xbe0281b7	-0.12744795
97	0x3dc9a25b	0.0984542
98	0x3dac7323	0.08420398
99	0xbe1f2ed7	-0.15545212
100	0xbc079d89	-0.008277305
101	0xba5007d5	-0.00079357374
102	0x3d45c09a	0.048279382
103	0xbd2e912d	-0.04261892
104	0xbc82d90b	-0.015972635
105	0xbd773230	-0.060350597
106	0x3c981ee5	0.01856942
107	0x3e0e441a	0.13893166
108	0xbdfb4177	-0.12268346
109	0x3e29fb84	0.16599852
110	0xbe8d081d	-0.27545252
111	0xbdb7c21c	-0.0897257
112	0x3e1a9e8a	0.1509954
113	0x3e1f47a0	0.15554667
114	0x3d4714b6	0.048603736
115	0xbe6733e9	-0.22578396
116	0xbe94e7a1	-0.2908297
117	0xbe1f2a3b	-0.15543453
118	0xbd4e886d	-0.050423075
119	0x3df2499a	0.11830445
120	0x3cf93470	0.030420512
121	0x3e866ad2	0.26253372
122	0xbd781f04	-0.060576454
123	0xbe2699e4	-0.16269642
124	0xbd908c7f	-0.070580475
125	0xbe95d547	-0.2926428
126	0x3e9d5452	0.30728394
127	0xbe51d7f7	-0.2049254
128	0xbb96c87a	-0.0046015354
129	0xbd6b3af4	-0.05742927
130	0x3d808da5	0.062770166
131	0xbd76a6be	-0.06021761
132	0x3be42587	0.0069624814
133	0xbd83cb10	-0.064352155
134	0x3e232b8c	0.1593458
135	0x3d9b9558	0.075968444
136	0xbd014954	-0.03156407
137	0xbd8aa809	-0.067703314
138	0x3e109e5b	0.14122908
139	0x3d21a79e	0.039466493
140	0xbe31f751	-0.173795
141	0x3e842a49	0.2581351
142	0x3e14c8fc	0.14529794
143	0x3e477084	0.19476515
144	0x3e968972	0.29401737
145	0xbdea577c	-0.114424676
146	0xbe276ce7	-0.16350137
147	0xbd33fdf4	-0.04394336
148	0x3d869bf8	0.065727174
149	0x3cb26f87	0.021781696
150	0x3dfa2963	0.12214925
151	0x3e170e7d	0.1475162
152	0xbd7328bb	-0.059365015
153	0x3aff022e	0.0019455606
154	0xbdaa4ff4	-0.08316031
155	0xbe41ee6d	-0.18938608
156	0xbde7bb80	-0.1131506
157	0x3d742007	0.059600856
158	0xbd68168c	-0.056662127
159	0x3dce0952	0.100603715
160	0x3d91b9bb	0.071155034
161	0xbc336215	-0.010948678
162	0xbd6ee92f	-0.05832785
163	0xbd4b2d81	-0.049603943
164	0xbd91ac1e	-0.07112907
165	0x3e1e58c9	0.15463556
166	0xbe13f684	-0.14449507
167	0xbdc2d805	-0.09513859
168	0xbe341148	-0.17584717
169	0xbe444460	-0.19166708
170	0xbd112a29	-0.035440598
171	0x3e95fed1	0.29295972
172	0x3e136926	0.1439558
173	0xbd81b0f0	-0.06332576
174	0x3ce36b22	0.027761046
175	0xbd30472e	-0.043036632
176	0x3e13d26f	0.14435743
177	0xbddcf75a	-0.10789366
178	0x3e135379	0.14387311
179	0x3d89e788	0.06733614
180	0x3d4335c7	0.047658708
181	0x3c98abc6	0.018636595
182	0x3d242d4f	0.040082272
183	0xbe86981e	-0.2628793
184	0x3e4d4cba	0.200488
185	0x3da9e2b7	0.082951955
186	0xbe3d12d1	-0.18464209
187	0x3ddd6099	0.1080944
188	0x3c9a9311	0.018868955
189	0x3d81c193	0.063357495
190	0x3dc15da3	0.09441688
191	0x3c715729	0.014730253
192	0xbcdedfd4	-0.027206339
193	0x3d9a5ae2	0.07536866
194	0x3c28e9db	0.010309662
195	0x3e8c3517	0.27384254
196	0x3e3f7759	0.18697871
197	0xbe235270	-0.15949416
198	0x3d231294	0.03981264
199	0xbe149282	-0.14509013
200	0x3e64f2ce	0.22358248
201	0x3e0ea0ab	0.13928477
202	0xbe6ec6a2	-0.2331796
203	0xbe94a53b	-0.2903231
204	0x3e2c1d27	0.16807996
205	0x3f1349ac	0.5753429
206	0xbce6c2f5	-0.028169135
207	0x3d444a39	0.047922347
208	0xbda05781	-0.0782919
209	0xbe75efb0	-0.24017215
210	0x3df3ff87	0.11913972
211	0x3e88964c	0.26677167
212	0xbca69768	-0.020335868
213	0x3b711bda	0.0036790282
214	0xbe00e218	-0.12586248
215	0xbd828ed4	-0.063748986
216	0xbdb962d0	-0.0905205
217	0xbe15726f	-0.14594434
218	0x3e45cd80	0.19316673
219	0xbe27f5eb	-0.16402404
220	0x3d75b22c	0.05998437
221	0xbd9104db	-0.07081004
222	0x3ca88e90	0.020575792
223	0x3d1df3e3	0.038562667
224	0xbe29e64c	-0.16591758
225	0x3d6a8dd0	0.05726415
226	0xbd9624b4	-0.07331219
227	0x3dbd8c8e	0.09255324
228	0xbe0eea2d	-0.13956518
229	0x3e402dc4	0.18767458
230	0x3d258850	0.0404132
231	0x3e5fe85d	0.21865983
232	0xbdd6b629	-0.10483963
233	0xbc3994e2	-0.011327
234	0x3da9ef8e	0.082976446
235	0x3e55decf	0.20885776
236	0xbca5a6db	-0.020221164
237	0xbda181a0	-0.07886052
238	0xbe6e0629	-0.23244537
239	0x3e5213a2	0.20515302
240	0xbdfe579e	-0.124190554
241	0x3e512086	0.20422563
242	0x3db9d7cc	0.09074363
243	0x3af64ccc	0.0018791198
244	0x3e564eae	0.20928451
245	0x3dcedb5f	0.101004355
246	0xbc0c4335	-0.008560945
247	0xbe1c56ab	-0.15267436
248	0xbd0a72cc	-0.033800885
249	0x3e2c4660	0.16823721
250	0xbdada62f	-0.08478963
251	0xbd842484	-0.06452277
252	0xbd023a65	-0.03179397
253	0x3c11e097	0.008903644
254	0xbe80b9e6	-0.2514183
255	0xbeaa1209	-0.33216885

encoder.net.0.bias f4 [60]
0	0xbd054e76	-0.03254553
1	0xbd2d6618	-0.042333692
2	0x3cbd16c7	0.02308215
3	0x3d03f2ea	0.032214083
4	0x3d19232c	0.03738706
5	0x3d16a976	0.036782704
6	0xbc8b9235	-0.01703749
7	0xbc68025a	-0.014160717
8	0xbd0e8926	-0.034798764
9	0xbd6eccca	-0.05830077
10	0x3d23b18c	0.039964244
11	0xbd227839	-0.039665435
12	0x3d1b18a4	0.037865296
13	0xbd0b9586	-0.034078144
14	0x3d215c44	0.039394632
15	0x3cbdf058	0.023185894
16	0x3d09089f	0.033455487
17	0x3d19e5fb	0.037572842
18	0x3d11de88	0.035612613
19	0xbd048b72	-0.032359548
20	0x3d1e4d24	0.038647786
21	0xbc98551b	-0.018595269
22	0x3cd83774	0.02639363
23	0xbd1dfa2d	-0.038568664
24	0x3d318205	0.043336887
25	0x3d076db6	0.033063613
26	0x3cd45f01	0.025924208
27	0x3d20c894	0.039253786
28	0xbceb41df	-0.028717933
29	0xbd1fc52b	-0.039006393
30	0xbcc3182f	-0.023815243
31	0xbb1c8838	-0.0023884904
32	0x3c32b9d9	0.010908567
33	0x3d01b657	0.031668033
34	0x3d2b7dfd	0.0418682
35	0xbcfe8386	-0.031068575
36	0xbce238af	-0.02761492
37	0xba0076f7	-0.00049005396
38	0xbd07251c	-0.032994375
39	0xbd419b34	-0.047267154
40	0xbd8ab305	-0.067724265
41	0xbcbecb2a	-0.023290236
42	0x3c996e53	0.018729364
43	0xbd23db44	-0.04000403
44	0x3d36f5ff	0.044668194
45	0x3d14902e	0.036270313
46	0xbd075f18	-0.033049673
47	0xbc9b7190	-0.01897505
48	0xbd2c611e	-0.042084806
49	0xbb72d62a	-0.0037053921
50	0xbd0d1d46	-0.034451745
51	0xbce8aad3	-0.028401768
52	0x3d516919	0.05112562
53	0x3d333904	0.043755546
54	0x3bee0190	0.00726337
55	0xbd357535	-0.04430123
56	0x3c6ac1b5	0.01432841
57	0x3c888741	0.016666057
58	0xbd03505e	-0.032059066
59	0xbd977d99	-0.07397003

encoder.net.2.weight f4 [60, 60]
0	0x3d3b32f6	0.045702897
1	0xbdca7d43	-0.09887173
2	0x3e0e89ad	0.13919707
3	0xbcdbfeed	-0.026854957
4	0xbd8cfbd6	-0.068839714
5	0xbdd9733a	-0.10617681
6	0xbd6cfff6	-0.05786129
7	0x3db1e1b5	0.08685628
8	0x3dca428d	0.09875975
9	0xbd31e631	-0.04343242
10	0xbcd3c50b	-0.025850793
11	0x3c8cab7d	0.017171616
12	0x3dab3435	0.08359567
13	0x3d827919	0.06370754
14	0x3cd4dbaf	0.02598366
15	0xbe1bd9ca	-0.15219799
16	0x3dc7c4c3	0.09754326
17	0xbe27682b	-0.1634833
18	0xbc35dbf2	-0.011099802
19	0x3d1ac469	0.037784968
20	0x3db6b1c9	0.089206286
21	0x3e103612	0.14083126
22	0x3e86b75c	0.26311767
23	0xbd349cde	-0.044094913
24	0xbd5e2c3a	-0.054241396
25	0x3d97e332	0.07416381
26	0x3d5063c2	0.050876386
27	0xbe44ed2b	-0.19231097
28	0xbced46b9	-0.028964387
29	0xbe4790ff	-0.19488905
30	0x3e25ae4b	0.16179769
31	0x3d95025a	0.07275839
32	0x3a6a72b2	0.00089434825
33	0x3d55ed09	0.052228007
34	0xbdc90303	-0.098150276
35	0xbe2a38ea	-0.16623273
36	0xbd929c00	-0.07158661
37	0x3d5e2e0b	0.05424313
38	0xbd85d4af	-0.06534707
39	0x3dd59a72	0.10429849
40	0x3cb16626	0.021655153
41	0xbd1f1c8c	-0.038845584
42	0xbd71188a	-0.058861293
43	0x3d3cdf81	0.046111587
44	0xbcc0d200	-0.023537636
45	0x3b1dd004	0.0024080286
46	0x3d91b29a	0.07114144
47	0xbdf11b81	-0.11772824
48	0xbb7cb73d	-0.0038561367
49	0x3b4eda79	0.0031563325
50	0x3d16d1fd	0.036821354
51	0xbd52c890	-0.051460803
52	0xbd4e2705	-0.05033018
53	0x3ded70bd	0.11593769
54	0x3e2711d9	0.16315402
55	0xbd96b15b	-0.073580466
56	0xbcbf4c12	-0.023351703
57	0xbdf81ba1	-0.12114645
58	0xbdcc08a8	-0.099625885
59	0xbb47ee31	-0.0030506963
60	0xbe38edba	-0.18059435
61	0x3d23295e	0.039834373
62	0xbda840a4	-0.08215454
63	0x3e6302ff	0.22169112
64	0x3e46c7b9	0.19412126
65	0xbdd777bf	-0.10520887
66	0xbdc0aceb	-0.094079815
67	0xbcb55ab4	-0.022137977
68	0xbe451a19	-0.19248237
69	0x3db98846	0.09059195
70	0xbe582a11	-0.21109797
71	0x3ce7b5e2	0.02828497
72	0x3c76a1ef	0.015053256
73	0x3e196b88	0.14982426
74	0x3c1ba4db	0.009499754
75	0xbc7284da	-0.014802182
76	0x3db69f4d	0.08917103
77	0x3d0150dd	0.031571258
78	0xbcae3a1a	-0.02126794
79	0x3d44bb1f	0.048030015
80	0xbd4042d8	-0.046938747
81	0xbd1ab023	-0.037765633
82	0x3d034e91	0.03205735
83	0xbe32ba74	-0.17453939
84	0x3d07911e	0.03309738
85	0xbe0f4254	-0.13990146
86	0xbd078cb0	-0.033093154
87	0x3ac36ef3	0.0014910385
88	0x3d6b4b7b	0.05744503
89	0x3e3bcbd8	0.18339479
90	0x3df66902	0.120317474
91	0xbe23d772	-0.16000155
92	0xbe8f1df8	-0.27952552
93	0xbe92bdf5	-0.2866055
94	0xbea3ba61	-0.31978133
95	0x3d13471b	0.035956483
96	0xbbda8655	-0.0066688457
97	0x3e43b28f	0.19111083
98	0xbe6a1f60	-0.22863531
99	0x3e66f477	0.22554193
100	0x3dc49549	0.095987864
101	0xbcf511e8	-0.029915765
102	0xbd59426a	-0.053041853
103	0x3cde65bb	0.027148118
104	0x3e07a360	0.13245916
105	0xbe2238bd	-0.15841956
106	0xbd2bd25c	-0.04194866
107	0xbd3b4af2	-0.04572577
108	0x3d0f103e	0.0349276
109	0xbdd6506e	-0.104645595
110	0x3e3e68b2	0.18594626
111	0x3d36e996	0.04465636
112	0xbca88193	-0.020569598
113	0xbd5d7b6f	-0.054072794
114	0xbdc00f32	-0.09377898
115	0x3e08b42c	0.1334998
116	0x3e0a9420	0.13533068
117	0x3d27fa92	0.041010447
118	0x3e344edc	0.17608207
119	0x3e46dfbb	0.19421284
120	0xbdbc9359	-0.09207792
121	0x3e73020d	0.23731251
122	0x3d80cff0	0.06289661
123	0xbe06b6f8	-0.13155735
124	0xbe3f7c11	-0.18699671
125	0xbd08e74c	-0.033423707
126	0x3d9edf95	0.07757489
127	0xbde4fe3b	-0.11181303
128	0xbd996d3f	-0.0749154
129	0x3dc8dc50	0.09807646
130	0xbe0622ff	-0.13099287
131	0x3d0f4e99	0.034987066
132	0xbd57e052	-0.052704163
133	0x3d439db8	0.047757834
134	0x3e7280f5	0.23682006
135	0xbc367eef	-0.011138662
136	0x3bd4e247	0.006496701
137	0x3b4d953b	0.0031369466
138	0xbe093337	-0.13398443
139	0x3d58b3d9	0.05290589
140	0x3e0063fb	0.1253814
141	0x3e0c9ae1	0.13730957
142	0xbbbebbd9	-0.005820733
143	0xbc377e0f	-0.011199488
144	0x3e222601	0.1583481
145	0xbe6270e7	-0.22113381
146	0x3d4ba875	0.0497212
147	0x3dfca5db	0.12336322
148	0xbe029820	-0.12753344
149	0x3d346469	0.04404107
150	0x3e0a26d9	0.13491382
151	0x3d085288	0.033281833
152	0x3e560055	0.20898564
153	0xbc9289ab	-0.01788791
154	0x3d9735a9	0.07383282
155	0x3d6d2a00	0.057901382
156	0x3cef6d94	0.029227056
157	0x3e0f8bba	0.14018145
158	0xbe33dfa2	-0.17565778
159	0xbdc8ea64	-0.098103315
160	0x3bc5f4e8	0.006041158
161	0x3cd2fac2	0.025754336
162	0xbc81168d	-0.015757823
163	0xbd2a6842	-0.041603334
164	0x3dbe5dc6	0.092952296
165	0xbded4b0d	-0.115865804
166	0xbe514bb3	-0.20439033
167	0xbe08126f	-0.13288282
168	0x3d71d515	0.0590411
169	0xbdcb2b72	-0.09920396
170	0x3d1e57bc	0.03865789
171	0xbda206fa	-0.07911487
172	0x3d69da5e	0.057093017
173	0xbe8b5d7d	-0.27219763
174	0xbe0aba83	-0.13547711
175	0x3dba9543	0.09110501
176	0xbd2c42fb	-0.042056065
177	0xbe04da15	-0.12973817
178	0x3d9797c8	0.07401997
179	0x3e048b6b	0.12943809
180	0xbe30176f	-0.17196439
181	0xbdb76092	-0.08953966
182	0xbe062db6	-0.13103375
183	0xbe295163	-0.16534953
184	0x3e5346b5	0.20632441
185	0xbd8f6d7d	-0.07003305
186	0xbdb28a46	-0.0871778
187	0x3d010a3f	0.031503912
188	0xbdc471d3	-0.09592023
189	0x3e0fc6a1	0.14040615
190	0x3dcb97ca	0.09941061
191	0xbd22189f	-0.03957426
192	0x3dbb58fb	0.09147831
193	0x3c1ea227	0.009682215
194	0x3d3cf299	0.046129797
195	0x3cfba0b7	0.030716283
196	0x3db605b5	0.08887807
197	0x3e28aaea	0.16471449
198	0x3df6bd78	0.12047857
199	0x3d295cf5	0.041348416
200	0xbc7f9d8e	-0.015601529
201	0xbd651a0e	-0.05593305
202	0x3c86439f	0.016389666
203	0x3d690747	0.056891706
204	0x3e42e304	0.19031912
205	0xbdd1aa7c	-0.102375954
206	0xbcd81d89	-0.026381271
207	0x3e9998c3	0.2999936
208	0xbd9dc153	-0.07702889
209	0x3db39294	0.08768192
210	0xbd95424a	-0.07288034
211	0x3e2afb2f	0.16697381
212	0x3e74c385	0.2390271
213	0x3c9184a6	0.017763447
214	0x3e2197b6	0.1578053
215	0xbd795830	-0.060875118
216	0xbe1830d6	-0.1486238
217	0x3e049025	0.12945612
218	0xbe57b31c	-0.21064419
219	0x3e260bc1	0.16215421
220	0xbd9ec300	-0.07752037
221	0x3c1a15ab	0.00940458
222	0x3e125dc2	0.14293578
223	0xbe12c1a6	-0.14331684
224	0xbcd6fe37	-0.026244266
225	0x3df01951	0.11723579
226	0x3e35798b	0.17722146
227	0xbe0445ab	-0.12917201
228	0x3d863689	0.065533705
229	0xbd4eb035	-0.050461013
230	0xbde776b2	-0.11301936
231	0x3dabc9cb	0.08388098
232	0xbcd4848c	-0.02594211
233	0x3e3672e4	0.17817265
234	0xbdf18d65	-0.11794547
235	0x3d9afe90	0.07568085
236	0xb9a7ee80	-0.00032030419
237	0x3e160300	0.14649582
238	0xbb6f573e	-0.0036520506
239	0xbeafd4ce	-0.34342045
240	0x3ddce0a4	0.10785034
241	0x3e50e2a5	0.20398958
242	0x3d8e80f3	0.06958189
243	0xbdc642a4	-0.096806794
244	0xbdcd3728	-0.10020286
245	0xbce9f356	-0.028558414
246	0x3e025354	0.127271
247	0xba519e4f	-0.0007996307
248	0xbdb7bc05	-0.08971409
249	0xbcb4cab7	-0.022069318
250	0xbdd120b2	-0.10211314
251	0x3ebd0dc1	0.36924556
252	0x3c17ed2e	0.009272857
253	0x3d98378f	0.07432472
254	0xbe602c00	-0.21891785
255	0xbe38807b	-0.18017761

encoder.net.2.bias f4 [60]
0	0x3d4b14fe	0.049580567
1	0xbd32fc4d	-0.043697644
2	0xbd33562f	-0.043783363
3	0x3d14dfae	0.03634613
4	0xbd22fc01	-0.03979111
5	0x3d3dfd09	0.04638389
6	0xbcb7d4dd	-0.022440368
7	0xbd5cab1b	-0.053874116
8	0xbcd3bcc5	-0.025846848
9	0x3cbb9dfe	0.022902485
10	0x3d0ed3a6	0.034869812
11	0x3bc4a343	0.0060009076
12	0xbcae7b78	-0.021299109
13	0x3d1a1daa	0.037625946
14	0xbd808202	-0.06274797
15	0x3d50c11c	0.050965413
16	0xbd430bd3	-0.0476187
17	0xbd206256	-0.03915628
18	0x3cc5c3e0	0.024141252
19	0x3d04c1cc	0.03241138
20	0xbd63fc78	-0.055660695
21	0xbd407258	-0.046984047
22	0x3be95524	0.0071207453
23	0xbd3814b9	-0.044941638
24	0xbd09ff9f	-0.033691045
25	0x3d28bedd	0.041197646
26	0xbca6a665	-0.020343015
27	0xbcc91ca0	-0.024549782
28	0x3ca704a8	0.020387962
29	0x3d2f39d1	0.042779747
30	0xbd0fbcc1	-0.03509212
31	0x3d34dfe4	0.04415883
32	0x3ca5b9a9	0.020230131
33	0x3d1e6cbf	0.038677927
34	0xbd134275	-0.03595205
35	0xbcc0a1b2	-0.023514602
36	0xbd5c0888	-0.053719074
37	0xbcde8541	-0.02716315
38	0x3d4583c0	0.04822135
39	0xbd274204	-0.04083444
40	0x3d59a6aa	0.05313746
41	0xbca52594	-0.02015952
42	0xbb0ba6c7	-0.0021309124
43	0xbd1a92db	-0.03773771
44	0xb98ba156	-0.0002663235
45	0xbd30d105	-0.043168087
46	0xbd15aa24	-0.036539212
47	0xbcadb004	-0.021202095
48	0x3d83078a	0.06397922
49	0xbd062065	-0.032745738
50	0xbd07ed76	-0.033185445
51	0xbcfa5c14	-0.030561484
52	0xbd500d56	-0.05079397
53	0xbd0dc481	-0.03461123
54	0x3d0eeef6	0.03489586
55	0x3d40f037	0.047104087
56	0x3d0dde90	0.03463608
57	0xbccfabe7	-0.025350524
58	0xbce6d24a	-0.028176446
59	0x3d15eb76	0.036601506

encoder.net.5.weight f4 [32, 60]
0	0xbdca30f3	-0.098726176
1	0xbe34b745	-0.17648037
2	0x3da0249c	0.07819483
3	0xbe29110e	-0.16510412
4	0x3dafba2c	0.08580431
5	0xbe99481e	-0.29937834
6	0x3e41340e	0.18867514
7	0x3ca91c3d	0.020643348
8	0x3d824a33	0.06361809
9	0xbe6c3501	-0.23067094
10	0xbcdf0255	-0.027222792
11	0xbcf6a7ea	-0.030109365
12	0x3e88edf4	0.26744044
13	0x3d8ed9e4	0.06975153
14	0x3e7bd9b4	0.24594766
15	0x3e51d4ff	0.20491408
16	0x3dda9c39	0.10674328
17	0xbdd82a83	-0.105549835
18	0xbe91e1bd	-0.28492537
19	0x3e3594d2	0.17732552
20	0x3d8d8c05	0.06911472
21	0x3c8eff19	0.017455624
22	0x3d1ab09e	0.03776609
23	0xbde40f70	-0.11135757
24	0xbe8710d4	-0.26380026
25	0xbc2f3ef4	-0.010696162
26	0x3d304b9a	0.04304085
27	0xbde9e61b	-0.11420842
28	0x3e2a6628	0.16640532
29	0x3e1323b3	0.14369087
30	0x3b85657f	0.004070937
31	0x3dd02ff7	0.101653986
32	0xbc9c6163	-0.019089406
33	0x3e2d3c39	0.16917504
34	0x3e229e0a	0.158806
35	0xbd1d5307	-0.03840926
36	0xbe623ab0	-0.220927
37	0x3d3f994a	0.046777047
38	0xbdd0ce53	-0.10195603
39	0x3e66a553	0.22524004
40	0x3e343513	0.17598371
41	0x3e0eb7cd	0.13937302
42	0xbd5bc5e2	-0.053655513
43	0xbc95c0f7	-0.01828049
44	0xbe7a157d	-0.2442226
45	0x3c465cd3	0.012107092
46	0xbe2af375	-0.16694434
47	0x3c5ddd42	0.0135415215
48	0xbce76358	-0.028245613
49	0xbea2c8fc	-0.31793964
50	0x3d73ab5c	0.059489593
51	0x3ee2a62b	0.442674
52	0xbd77f2cd	-0.060534287
53	0x3d45a407	0.04825213
54	0xbe7813f0	-0.24226356
55	0x3e1c3bba	0.15257159
56	0x3d1f91e9	0.03895751
57	0xbc59a581	-0.013284088
58	0x3d9966f3	0.07490339
59	0x3e64eaa8	0.2235514
60	0x3dc07a20	0.093982935
61	0x3e23c117	0.15991627
62	0xbdda6bc4	-0.10665086
63	0x3c05205b	0.00812539
64	0xbdceab16	-0.10091226
65	0xbd50b8bc	-0.050957426
66	0x3e7318ff	0.23740004
67	0xbbc77e00	-0.0060880184
68	0x3e3606aa	0.1777598
69	0x3e7fcb5d	0.2497992
70	0x3d047d8d	0.032346297
71	0xbd814218	-0.063114345
72	0xbd641061	-0.055679683
73	0xbdd6b880	-0.10484409
74	0x3e74d3f1	0.23908974
75	0xbe001fc1	-0.12512113
76	0xbe0b1915	-0.13583787
77	0xbe4dd0f7	-0.20099245
78	0x3c76bf08	0.015060194
79	0xbd9ac79c	-0.07557604
80	0x3dcffb85	0.101553954
81	0xbd7ed7c6	-0.062217496
82	0xbda3995e	-0.07988237
83	0xbda876e8	-0.082258046
84	0x3e5428d8	0.20718706
85	0x3bfe1aff	0.007754683
86	0xbd8caf02	-0.068693176
87	0xbce3e97f	-0.0278213
88	0x3daff78e	0.08592139
89	0xbe515b49	-0.20444979
90	0xbd23f4e6	-0.040028475
91	0x3c85dd4a	0.01634087
92	0xbe1f4fd6	-0.15557799
93	0xbd7445c3	-0.059636842
94	0xbddcd553	-0.10782876
95	0xbdc90a49	-0.09816415
96	0xbdd389a3	-0.103289865
97	0x3e18e826	0.14932308
98	0x3d9fbc27	0.07799559
99	0x3e046476	0.12928948
100	0x3d758d83	0.05994941
101	0xbce14d28	-0.027502611
102	0xbc47dead	-0.012199086
103	0x3e376a63	0.17911677
104	0xbe23e23f	-0.16004275
105	0xbe196571	-0.14980103
106	0xbc7c25d9	-0.015389883
107	0x3db50556	0.088389084
108	0xbe1650e4	-0.14679295
109	0x3e24bfe7	0.1608883
110	0x3e3b8450	0.18312192
111	0x3ddd8cd8	0.108178794
112	0xbb0f05d4	-0.0021823542
113	0x3e5c8ddf	0.21538495
114	0xbe2dc6b2	-0.16970327
115	0xbe4de68c	-0.20107478
116	0xbe75db28	-0.24009383
117	0x3e824ae7	0.2544777
118	0xbdeea2d2	-0.11652149
119	0x3d87ece8	0.06636983
120	0xbd715818	-0.058921903
121	0x3d4ed8a1	0.050499562
122	0x3d94dfa4	0.072692186
123	0xbdbc860b	-0.09205254
124	0x3d8ec826	0.06971769
125	0xbb2984a0	-0.0025866404
126	0xbe310a68	-0.17289126
127	0x3bbf8349	0.005844508
128	0xbd60f8dd	-0.054924835
129	0x3dd44ced	0.10366235
130	0x3daa7fe5	0.08325175
131	0x3df053cc	0.11734733
132	0x3cf93fcd	0.03042593
133	0xbe1d16fb	-0.15340798
134	0xbdc8f5d9	-0.09812517
135	0xbd0cc351	-0.034365956
136	0x3dda577d	0.10661218
137	0xbc803f61	-0.015655221
138	0x3e042faa	0.12908807
139	0x3d99cc2f	0.07509648
140	0x3e73f057	0.23822151
141	0xbdec7367	-0.11545449
142	0x3b4f711e	0.0031653116
143	0x3e0a7c30	0.13523936
144	0xbe357bb4	-0.1772297
145	0x3d414ec8	0.047194272
146	0xbdce0c45	-0.10060934
147	0x3e7f6a5b	0.24942915
148	0x3d36a4c1	0.044590715
149	0x3e0db0bf	0.13836955
150	0x3c469bca	0.012122104
151	0x3cda440d	0.026643777
152	0xbde45308	-0.111486495
153	0xbd8258b5	-0.06364576
154	0x3b693f4c	0.0035590706
155	0xbe312db0	-0.17302585
156	0x3e98c739	0.29839495
157	0xbe67735e	-0.22602603
158	0xbd7010e1	-0.058609847
159	0xbdf00f2f	-0.11721646
160	0x3b18e712	0.0023331088
161	0xbe33559b	-0.17513125
162	0x3e5a5ef7	0.21325289
163	0xbe11ccd1	-0.14238288
164	0xbd83e078	-0.064392984
165	0xbe00ad2c	-0.1256606
166	0xbda7c988	-0.08192736
167	0x3dd38add	0.103292204
168	0xbe228da4	-0.15874344
169	0xbded2c4b	-0.11580714
170	0x3e26d17f	0.16290854
171	0x3cd5b605	0.02608777
172	0x3e7edaa1	0.24888088
173	0xbd40e876	-0.047096692
174	0x3e1d47f2	0.15359476
175	0xbe04f438	-0.12983787
176	0xbca1fce2	-0.019773904
177	0xbcbd67a6	-0.023120712
178	0x3e380d1c	0.17973751
179	0xbe979f6e	-0.29613823
180	0xbe60fbf4	-0.21971112
181	0x3e081ccf	0.1329224
182	0xbd4ec247	-0.050478246
183	0x3de3023e	0.11084412
184	0x3ea24222	0.3169108
185	0xbe440cd2	-0.19145516
186	0x3d4aa43f	0.049473044
187	0x3e08b8e3	0.13351779
188	0xbdd0fe27	-0.10204726
189	0xbddc24fe	-0.10749243
190	0xbd94343d	-0.07236526
191	0xbd6efe3b	-0.05834792
192	0xbd30a0d5	-0.04312213
193	0x3d11b2eb	0.03557102
194	0x3e6f509a	0.23370591
195	0x3e06226f	0.13099073
196	0xbe28abe1	-0.16471817
197	0xbe262367	-0.16224442
198	0xbe61d07a	-0.22052184
199	0x3e111015	0.14166291
200	0xbc6900cb	-0.01422138
201	0xbd87411a	-0.06604214
202	0xbd663195	-0.05619963
203	0x3c9cc3e7	0.019136382
204	0x3d26ce4b	0.04072408
205	0xbe04216e	-0.12903377
206	0xbbf6a9cb	-0.007527565
207	0x3d4c6b46	0.04990699
208	0xbd495ba2	-0.049159653
209	0xbd1f5c89	-0.038906608
210	0x3e8ffce2	0.28122622
211	0x3db677b0	0.08909547
212	0x3dc1a11c	0.09454557
213	0x3def155d	0.116739966
214	0x3d9984de	0.074960455
215	0xbe1ada5b	-0.15122359
216	0xbeaaa09b	-0.33325657
217	0x3e159988	0.14609349
218	0xbd23d096	-0.039993845
219	0x3cb02cf3	0.021505808
220	0xbd823c1b	-0.063591205
221	0x3e054a9d	0.13016744
222	0x3ddab071	0.10678185
223	0x3d381566	0.044942282
224	0xbe5f9ab0	-0.21836352
225	0x3e0fbe82	0.14037517
226	0xbe498ca2	-0.19682553
227	0xbd026020	-0.031829953
228	0xbdb91031	-0.090362914
229	0xbe395a70	-0.18100905
230	0x3e5a967b	0.21346466
231	0x3e2f8f7a	0.17144576
232	0x3d0ff3d3	0.03514464
233	0x3d2bf7aa	0.041984238
234	0xbe68ce80	-0.22735023
235	0xbda4c4ab	-0.08045324
236	0xbe08e965	-0.13370283
237	0x3db3b499	0.08774681
238	0x3d9b4df7	0.0758323
239	0xbe6e23a9	-0.23255791
240	0xbde4f9d5	-0.11180464
241	0xbc35a62c	-0.011086982
242	0xbed24eac	-0.41075647
243	0x3e537507	0.20650111
244	0x3d709cc8	0.05874327
245	0xbd8f14e8	-0.069864094
246	0xbde5a233	-0.11212578
247	0xbe089e5d	-0.13341661
248	0x3d869bc5	0.065726794
249	0x3e0904e9	0.1338078
250	0xbca4f75c	-0.020137481
251	0xbdcb0d1e	-0.09914611
252	0x3c877f61	0.016540231
253	0x3bc6be25	0.0060651475
254	0x3ce8bb06	0.028409492
255	0x3d6e8f25	0.058241982

encoder.net.5.bias f4 [32]
0	0x3d4ae384	0.049533382
1	0xbd290d48	-0.04127243
2	0xbd7ee02c	-0.062225506
3	0xbd4c5659	-0.049887035
4	0x3d373eeb	0.044737738
5	0x3d2d31f0	0.042283952
6	0x3d4593d9	0.0482367
7	0x3d6c5eb1	0.057707492
8	0xbe134470	-0.14381576
9	0xbd80480f	-0.06263744
10	0x3d3e7988	0.04650262
11	0x3d4a65e9	0.049413595
12	0xbcc125aa	-0.02357753
13	0xbd56f96c	-0.05248396
14	0x3d3b3841	0.045707945
15	0x3d1d19bf	0.03835463
16	0x3d091259	0.033464763
17	0x3d3462aa	0.044039406
18	0x3d732971	0.059365693
19	0xbd5c8e4d	-0.053846646
20	0xbd2aa10d	-0.041657496
21	0x3c955c99	0.01823263
22	0xbd20bfdc	-0.03924547
23	0xbd52dcae	-0.051479988
24	0xbd57d0db	-0.052689414
25	0x3cc87b2f	0.024472801
26	0xbd7456aa	-0.05965296
27	0x3d3d96d5	0.046286423
28	0x3dc0833c	0.09400031
29	0xbd35d408	-0.044391662
30	0xbcd7e84e	-0.026355889
31	0xbd67f51b	-0.056630235

predictor.net.1.weight f4 [32, 32]
0	0x3cb182e5	0.02166886
1	0xbe6bca8b	-0.23026483
2	0x3e809d96	0.2512023
3	0x3dbc286b	0.091873966
4	0xbe54b4b0	-0.20772052
5	0xbde14856	-0.11000125
6	0xbd748f8c	-0.05970721
7	0xbdc812ce	-0.09769212
8	0x3d988d70	0.07448852
9	0x3df45704	0.119306594
10	0xbd9f3327	-0.077734284
11	0x3d4d943a	0.050190188
12	0xbe764ed4	-0.24053508
13	0xbf11fb0b	-0.57023686
14	0xbe15a91c	-0.14615291
15	0xbdc2cc4b	-0.09511622
16	0xbe0b00ac	-0.13574475
17	0x3e146ddf	0.14495037
18	0xbdde1f41	-0.10845805
19	0x3eb9e93c	0.36310756
20	0xba9b32b0	-0.0011840668
21	0xbe901e69	-0.281482
22	0xbdc8a13d	-0.09796379
23	0xbe61750e	-0.22017309
24	0xbd7831ec	-0.060594484
25	0xbb851a83	-0.0040619983
26	0xbd088009	-0.03332523
27	0xbdd776ef	-0.10520732
28	0x3db750e1	0.08950973
29	0x3e6af7fa	0.22946158
30	0x3e1c7736	0.1527985
31	0xbe5fb8fa	-0.21847907
32	0x3e85075c	0.25982177
33	0x3c72e98b	0.014826189
34	0xbdc1ab2f	-0.09456479
35	0x3e73dbe8	0.23814356
36	0xbe1b4f79	-0.15167035
37	0xbe4ec47a	-0.20192137
38	0x3e4466f5	0.191799
39	0xbc81b798	-0.015834615
40	0xbd1dadd0	-0.03849584
41	0xbe97b08e	-0.29626888
42	0x3e0b9936	0.13632664
43	0x3cf40b37	0.029790504
44	0x3dece549	0.1156717
45	0x3dbe2dae	0.092860565
46	0xbb81be7b	-0.0039594746
47	0x3d98fc62	0.07470013
48	0x3d8dc171	0.06921662
49	0xbe99bfb3	-0.30029067
50	0xbe76ee7f	-0.24114417
51	0xbe836671	-0.25664094
52	0xbe7bf8c2	-0.24606612
53	0x3ed774c8	0.42081285
54	0xbd8b4950	-0.068010926
55	0xbead0385	-0.33791748
56	0xbe42ca56	-0.19022498
57	0xbd17be8c	-0.037046954
58	0x3e0aef4d	0.13567849
59	0x3ced40eb	0.02896162
60	0xbda35722	-0.07975604
61	0xbe147eff	-0.1450157
62	0xbcaac05d	-0.02084368
63	0x3e1487d9	0.14504947
64	0xbf113d05	-0.56733733
65	0x3de9a475	0.11408321
66	0x3dce7c0d	0.100822546
67	0x3e684290	0.22681642
68	0x3e7251d7	0.23664032
69	0x3e604610	0.21901727
70	0xbe417cbf	-0.18895243
71	0xbd518756	-0.051154457
72	0xbe21dd0f	-0.15806983
73	0x3e69eca3	0.22844176
74	0x3d9028c8	0.070390284
75	0x3e0d9642	0.1382685
76	0xbe023ee8	-0.1271931
77	0xbbef1a8e	-0.0072968667
78	0x3d6064bb	0.054783564
79	0x3de9e04f	0.114197366
80	0xbc755faa	-0.014976421
81	0x3d7a1418	0.06105432
82	0xbe296116	-0.16540942
83	0xbd88a228	-0.06671554
84	0x3d743f8d	0.05963092
85	0xbe9c3a12	-0.30513054
86	0x3d7a830c	0.061160132
87	0x3df869b4	0.12129536
88	0xbeade436	-0.33963174
89	0xbd457198	-0.048204035
90	0x3daf11fa	0.08548351
91	0x3e477b7c	0.194807
92	0x3e2a9c12	0.16661099
93	0xbe092d01	-0.13396074
94	0xbd90f181	-0.07077313
95	0xbd884924	-0.066545755
96	0x3d5fe52c	0.054661915
97	0x3be67bd2	0.0070338035
98	0x3d43ad46	0.04777267
99	0xbd28cfeb	-0.04121391
100	0x3e291e71	0.16515519
101	0xbddb5852	-0.10710205
102	0x3daebe04	0.08532336
103	0xbd827406	-0.06369786
104	0xbe08b365	-0.13349684
105	0xbc3af8fd	-0.0114119025
106	0x3e8546e9	0.26030663
107	0xbe46e931	-0.19424893
108	0x3d7446fa	0.059638
109	0x3e25e930	0.16202235
110	0x3e0589f9	0.13040914
111	0x3eb15d4d	0.34641495
112	0x3e51914d	0.20465584
113	0xbc319f2d	-0.010841173
114	0x3eb4bc33	0.35299835
115	0xbd136689	-0.035986457
116	0xbd6758bc	-0.056481108
117	0xbd0e173b	-0.034690123
118	0xbd9e6bc9	-0.07735402
119	0xbeaa0b64	-0.33211815
120	0xbddce648	-0.1078611
121	0x3d49330c	0.049120948
122	0x3d45122f	0.048113044
123	0x3e3d075d	0.1845984
124	0x3d4d874e	0.050177865
125	0xbe1e2cee	-0.15446827
126	0x3e81a8e0	0.25324154
127	0x3d85e7e1	0.06538368
128	0x3df123b9	0.11774392
129	0xbd7e1200	-0.062028885
130	0xbe8d3bf9	-0.27584818
131	0x3da17b5b	0.07884856
132	0x3e9dc8c6	0.3081724
133	0x3db8a64a	0.09016092
134	0xbc961e71	-0.018325062
135	0xbd86362a	-0.065533
136	0x3d556e19	0.05210695
137	0xbc913a15	-0.017727891
138	0xbda10e15	-0.07864014
139	0xbd370048	-0.044678003
140	0x3db56d76	0.08858769
141	0xbe9d4129	-0.30713776
142	0x3d04d2ac	0.032427475
143	0x3f076835	0.5289338
144	0x3d943eb8	0.07238525
145	0xbdc35419	-0.09537525
146	0xbc2a1589	-0.010381111
147	0xbdc8ac2e	-0.09798466
148	0xbd91193e	-0.07084893
149	0xbd99628f	-0.07489502
150	0xbe0e93fe	-0.13923642
151	0x3d816e6f	0.06319892
152	0x3e3aa121	0.18225528
153	0x3e278870	0.1636064
154	0x3d44e180	0.048066616
155	0x3e59d19a	0.21271363
156	0x3df55fbb	0.1198115
157	0xbe0906ae	-0.13381454
158	0xbeba0df5	-0.36338773
159	0x3e2c2ba6	0.16813526
160	0x3e6f806d	0.23388834
161	0x3dcf5d66	0.10125236
162	0x3e0b9b41	0.13633443
163	0xbd20eeee	-0.03929036
164	0xbda2f764	-0.07957342
165	0xbe351a7a	-0.17685881
166	0x3dfc2c41	0.12313128
167	0x3e1f894c	0.15579718
168	0xbd38fb74	-0.04516168
169	0x3e5ea333	0.21741943
170	0xbb9f9cc2	-0.004870982
171	0x3dc3795b	0.09544631
172	0xbe132958	-0.1437124
173	0xbd941072	-0.07229699
174	0xbe6f1465	-0.23347624
175	0x3d8a78be	0.06761311
176	0xbdedce4a	-0.11611612
177	0xbe8246a1	-0.2544451
178	0x3e5fb8c0	0.2184782
179	0xbd4759d6	-0.04866966
180	0x3e500f8a	0.20318428
181	0xbd7c6d9b	-0.061627965
182	0x3df163bd	0.11786602
183	0x3e954295	0.2915236
184	0x3e0d2b52	0.13786057
185	0xbe2e1603	-0.17000584
186	0x3e5b582a	0.2142035
187	0x3e08e8bd	0.13370033
188	0x3cced162	0.025246326
189	0x3e2174f4	0.1576727
190	0x3e3b5592	0.18294361
191	0xbe5424ec	-0.2071721
192	0x3e8929a3	0.2678958
193	0xbdb4160e	-0.08793269
194	0xbc49ada4	-0.012309466
195	0xbdb3c622	-0.08778025
196	0xbe0baf81	-0.13641168
197	0x3e8b0155	0.27149454
198	0xbe82011b	-0.25391468
199	0x3eae9a0c	0.34101903
200	0x3dac701d	0.084198214
201	0xbe117eda	-0.14208546
202	0xbe975b1d	-0.295617
203	0xbea1102d	-0.31457654
204	0xbb21c1ce	-0.0024682167
205	0xbc140c68	-0.009036161
206	0x3e61fc20	0.22068834
207	0xbe57fe82	-0.21093181
208	0xbe7787a5	-0.24172838
209	0x3e885d76	0.26633805
210	0x3c75d40d	0.01500417
211	0x3dfb7f9d	0.122802
212	0x3e5ececa	0.21758571
213	0xbf094805	-0.5362552
214	0x3d8d46fb	0.06898304
215	0x3e2942b6	0.16529354
216	0x3e10c024	0.14135796
217	0xbe37ef9a	-0.17962494
218	0x3da592e5	0.080846585
219	0x3e02550c	0.12727755
220	0x3d9aa713	0.07551398
221	0x3e791367	0.24323808
222	0x3dc2ef5b	0.0951831
223	0x3e583348	0.21113312
224	0xbdec5ad4	-0.115407616
225	0xbe092d8f	-0.13396285
226	0x3e278b0b	0.16361634
227	0xbd0efddb	-0.034910064
228	0x3e4385c5	0.19093998
229	0x3b031b0c	0.0020005135
230	0xbe7b852e	-0.24562523
231	0xbddfd543	-0.10929348
232	0xbe4249c2	-0.18973449
233	0x3e73339a	0.23750153
234	0x3d6560b1	0.056000415
235	0x3eb67dda	0.35642892
236	0xbe0307d8	-0.12795961
237	0x3e32585f	0.17416523
238	0x3d81b295	0.0633289
239	0x3ca6c83f	0.020359157
240	0xbd63381c	-0.055473432
241	0x3db9554b	0.090494715
242	0xbe8ce87a	-0.27521116
243	0x3e63b33d	0.22236343
244	0xbeb933b6	-0.36172265
245	0xbe50ac38	-0.20378196
246	0x3e111bd1	0.14170767
247	0x3dc8fb7f	0.09813594
248	0x3db0f86e	0.08641134
249	0xbcc5c4d5	-0.024141708
250	0x3d373828	0.04473129
251	0x3d3692b3	0.044573497
252	0xbe23385c	-0.15939468
253	0xbd97d075	-0.07412807
254	0xbe9823c0	-0.29714775
255	0x3d92ac5b	0.071617804

predictor.net.1.bias f4 [32]
0	0x3e0891d9	0.13336886
1	0x3db74502	0.08948709
2	0x3dad0bb1	0.084494956
3	0xbea26d46	-0.31723994
4	0xbe79bcde	-0.24388453
5	0x3dcadb8d	0.09905157
6	0x3de9a99a	0.11409302
7	0xbdbb79a5	-0.09154061
8	0x3de937f3	0.113876246
9	0xbdb203f6	-0.08692162
10	0x3db79d8d	0.08965597
11	0xbdd46ac5	-0.10371927
12	0xbdd80f51	-0.105497964
13	0x3dbf6e77	0.09347241
14	0x3db49e79	0.08819289
15	0xbdc81353	-0.09769311
16	0xbdb9af52	-0.09066643
17	0xbdc91b27	-0.09819632
18	0x3e1bf3a2	0.15229657
19	0x3dc08bbe	0.09401654
20	0x3d07fbbb	0.033199053
21	0x3dbe9d7c	0.093073815
22	0x3dcc64e4	0.09980181
23	0xbdbec027	-0.09313994
24	0x3dca3af9	0.098745294
25	0x3dbbc310	0.091680646
26	0x3dc16f1d	0.09445021
27	0x3dc4b45c	0.09604713
28	0xbdb9b136	-0.090670034
29	0xbdc56ac2	-0.09639503
30	0x3e1483a1	0.14503337
31	0xbe01b0b7	-0.12665068

predictor.net.3.weight f4 [1, 32]
0	0x3dcabd68	0.098994076
1	0x3e537aaa	0.20652261
2	0x3d9f6ce8	0.07784444
3	0xbe091ec3	-0.13390641
4	0xbe011bb5	-0.12608226
5	0x3ea807b7	0.32818386
6	0x3df3fc11	0.11913312
7	0xbecc3a45	-0.39888206
8	0x3df3ac62	0.11898114
9	0xbe4cb76e	-0.19991848
10	0x3df54713	0.11976447
11	0xbe8d4774	-0.27593577
12	0xbe28201f	-0.16418503
13	0x3e49fa0d	0.19724293
14	0x3ec4c2ea	0.38429958
15	0xbedc19c3	-0.42988405
16	0xbed37ab1	-0.41304544
17	0xbd14af99	-0.036300275
18	0x3e55318d	0.20819683
19	0x3ed0c6f2	0.40776783
20	0x3cb80b8c	0.022466443
21	0x3ee99509	0.45621517
22	0x3dc60631	0.0966915
23	0xbe51fc50	-0.20506406
24	0x3e275205	0.16339882
25	0x3ee201a5	0.4414188
26	0x3e2c976d	0.1685464
27	0x3e24e0c4	0.16101366
28	0xbf010fbd	-0.5041464
29	0xbecb7504	-0.39737713
30	0x3e2e91b4	0.17047769
31	0xbe1de981	-0.15421106

net.0.weight f4 [60, 35]
0	0x3d4da48e	0.05020576
1	0x3dac144d	0.084023096
2	0x3e041b7e	0.12901112
3	0xbe40cc34	-0.18827897
4	0xbdc2db85	-0.09514526
5	0x3b6e8354	0.0036394196
6	0xbe7cf114	-0.24701339
7	0xbd72bd3b	-0.059262495
8	0x3e4b805c	0.19873184
9	0x3dcbb242	0.09946109
10	0xbce12ad1	-0.027486237
11	0x3de3e736	0.11128084
12	0x3d9a55b4	0.07535878
13	0xbe386e52	-0.18010834
14	0x3e2602e6	0.16212043
15	0xbd331eb1	-0.04373044
16	0x3cb34d83	0.021887546
17	0xbdad21e9	-0.084537335
18	0xbdc0407c	-0.093872994
19	0x3ea70dbc	0.32627666
20	0xbdf720fa	-0.12066837
21	0x3dab7f8e	0.083739385
22	0x3dcf038b	0.10108098
23	0x3d4c06e1	0.049811248
24	0x3dd12b4d	0.10213337
25	0xbd9d36b3	-0.07676449
26	0xbe00ca9b	-0.12577288
27	0x3dd44dd5	0.10366408
28	0xbd947b96	-0.07250135
29	0xbd71bc4f	-0.059017476
30	0xbe4cfdaa	-0.2001864
31	0xbcd59757	-0.026073141
32	0xbe05e79a	-0.1307663
33	0x3ddcd333	0.107824706
34	0xbe3c2985	-0.18375213
35	0x3e16f7d3	0.14742975
36	0xbdf210b5	-0.11819593
37	0xbe471d1f	-0.19444703
38	0xbdd28196	-0.10278623
39	0x3e138e25	0.14409693
40	0xbd2bac64	-0.04191245
41	0xbdf919f1	-0.12163151
42	0xbe4eedef	-0.20207952
43	0x3e27bae6	0.1637989
44	0x3dd82f32	0.10555877
45	0x3e5f628e	0.2181494
46	0x3e2ee9ac	0.17081326
47	0xbd254605	-0.04034998
48	0x3dad1073	0.08450403
49	0xbeb00c06	-0.34384173
50	0xbeb145e1	-0.34623626
51	0x3e158a4f	0.14603542
52	0x3e1783ce	0.14796373
53	0x3d0cb915	0.034356195
54	0xbdaa528a	-0.08316524
55	0x3b821aff	0.0039705033
56	0x3d7549db	0.059884887
57	0xbe351357	-0.17683159
58	0xbeab1fe9	-0.33422783
59	0xbdcb3a4b	-0.09923228
60	0xbc9e5915	-0.019329587
61	0xbd20c127	-0.039246704
62	0xbd337afd	-0.043818463
63	0x3e0a0b85	0.13480957
64	0xbe27b837	-0.16378866
65	0xbdadf9d7	-0.08494919
66	0x3cab1bfc	0.020887367
67	0x3dde44ef	0.10852992
68	0xbcfd6d34	-0.030935861
69	0x3cca4414	0.024690665
70	0x3d0d45b6	0.03449031
71	0x3e008163	0.12549357
72	0xbde82b2e	-0.11336361
73	0x3d917f44	0.07104352
74	0xbe0a7472	-0.13520983
75	0xbd508982	-0.050912388
76	0xbdaae4ac	-0.08344397
77	0x3e4febda	0.20304814
78	0xbe6836ab	-0.22677104
79	0xbe8cc153	-0.27491245
80	0xbd913ef1	-0.07092083
81	0xbce3a2e7	-0.027787639
82	0xbd85e0e5	-0.06537036
83	0xbd94b26c	-0.07260594
84	0x3e2b1d56	0.1671041
85	0xbdf45a98	-0.11931342
86	0xbddcfb70	-0.107901454
87	0x3de11263	0.10989835
88	0xbddcff8d	-0.1079093
89	0x3e749c2d	0.23887701
90	0x3e09221e	0.13391921
91	0xbe75fb34	-0.24021608
92	0x3af38e35	0.001858181
93	0x3e721113	0.23639326
94	0x3e589045	0.21148784
95	0xbe001810	-0.12509179
96	0x3d66e964	0.056374922
97	0x3dcda764	0.10041693
98	0x3dcd4bca	0.10024221
99	0x3d8b665b	0.06806632
100	0xbe0eeb93	-0.13957052
101	0xbe661a02	-0.22470859
102	0x3e0a0ca5	0.13481386
103	0x3dc488fc	0.0959644
104	0xbeb82add	-0.35970202
105	0x3e809e78	0.25120902
106	0xbd938ed7	-0.07204979
107	0x3deb950c	0.11503038
108	0xbdfaa5aa	-0.12238629
109	0x3dcdd001	0.10049439
110	0x3d554cfb	0.052075367
111	0xbe14cdcf	-0.14531635
112	0x3e006228	0.12537444
113	0xbe322d35	-0.17400058
114	0xbe1f8134	-0.15576631
115	0x3e33f79e	0.17574927
116	0xbe104f5d	-0.14092775
117	0xbe2846e7	-0.16433297
118	0x3e3de13c	0.18542951
119	0x3e272131	0.16321255
120	0xbe46dd07	-0.19420253
121	0xbe0f0404	-0.13966376
122	0x3d9351df	0.0719335
123	0xbdc37370	-0.09543502
124	0x3dcb8b9a	0.09938736
125	0xbe8bcf23	-0.2730647
126	0x3d255449	0.040363584
127	0xbe5203b1	-0.2050922
128	0xbd46e803	-0.048561107
129	0xbdf051ee	-0.11734377
130	0xbdb67ee4	-0.08910921
131	0x3d71a523	0.058995377
132	0xbe1e201a	-0.15441933
133	0xbe57315e	-0.21014926
134	0xbe25703c	-0.16156095
135	0x3d9310bf	0.071809284
136	0x3d8a6fea	0.06759627
137	0x3c13659b	0.008996393
138	0x3def7d8e	0.116938695
139	0xbc07da97	-0.008291862
140	0xbdc2aad1	-0.09505237
141	0x3e3d03ab	0.1845843
142	0x3d5de2ea	0.05417148
143	0xbe1f2a12	-0.15543392
144	0x3db319ba	0.08745141
145	0xbd98c73a	-0.074598745
146	0x3d04f172	0.032456823
147	0x3cbea2d7	0.023271007
148	0x3e84624a	0.2585624
149	0x3d5a73fa	0.05333326
150	0xbe081b7a	-0.13291731
151	0xbd73e947	-0.059548642
152	0xbb963931	-0.0045844545
153	0xbe103c76	-0.14085564
154	0x3e2871ae	0.16449615
155	0x3df117a8	0.1177209
156	0x3c823576	0.015894633
157	0xbe1feba3	-0.15617232
158	0x3d3a6b92	0.045512743
159	0x3dfec13f	0.124392025
160	0x3e5b6571	0.21425416
161	0xb9810d43	-0.00024614678
162	0x3ca42a49	0.020039694
163	0x3e002cab	0.1251704
164	0xbe046d47	-0.12932311
165	0x3c9dead1	0.019277008
166	0xbd8dd239	-0.069248624
167	0x3e8fa6ef	0.28057048
168	0x3e239c41	0.15977575
169	0x3c9eb9d7	0.019375725
170	0x3dfaa34f	0.1223818
171	0x3dbbd193	0.091708325
172	0x3e94b811	0.29046682
173	0x3cabe03d	0.020980949
174	0xbe219d79	-0.15782727
175	0xbe015987	-0.12631808
176	0x3c826fe9	0.015922504
177	0xbeb1dc6d	-0.34738484
178	0xbd241185	-0.04005577
179	0xbe461fcd	-0.19348069
180	0xbd0c6fd9	-0.034286354
181	0x3da60827	0.08107024
182	0xbdbb9c6a	-0.09160693
183	0x3e8277ed	0.2548212
184	0xbdb258f3	-0.08708372
185	0xbd040ade	-0.032236926
186	0x3e3d90f6	0.1851233
187	0xbe150af6	-0.14554963
188	0xbe6996d6	-0.22811446
189	0xbde67591	-0.11252893
190	0x3defc9b5	0.117083944
191	0xbe1c0f57	-0.15240227
192	0xbe0e7f9b	-0.13915865
193	0x3dd63d90	0.10460961
194	0xbcb690eb	-0.0222859
195	0xbe5e0024	-0.21679741
196	0xbea9e8ef	-0.33185527
197	0xbe70544d	-0.23469658
198	0x3dbfc55f	0.093638174
199	0x3ddc8484	0.10767463
200	0xbdb6fe0d	-0.08935175
201	0x3d33859d	0.043828595
202	0x3dc2e167	0.09515648
203	0xbd719844	-0.058983102
204	0xbe42d39b	-0.19026034
205	0xbe073c5f	-0.13206623
206	0x3e6392fd	0.2222404
207	0xbe308a0d	-0.17240162
208	0xbbde0003	-0.0067749037
209	0xbe15bae9	-0.14622082
210	0xbe13f1f6	-0.1444777
211	0xbc83d912	-0.016094718
212	0x3def9323	0.11697986
213	0xbd787fa7	-0.060668614
214	0x3e2ac7b7	0.16677748
215	0xbdef6bd9	-0.11690492
216	0xbe11a160	-0.14221716
217	0x3db8448d	0.0899745
218	0x3e0eeec1	0.13958265
219	0x3dee2e19	0.11629886
220	0x3eb1747a	0.34659177
221	0x3c860b59	0.016362833
222	0x3e04d27e	0.12970921
223	0xbdc3cdd3	-0.09560742
224	0x3d7dde8e	0.061979823
225	0xbdd0c571	-0.10193909
226	0xbe0e6b46	-0.13908109
227	0x3d6e36d3	0.058157753
228	0xbd6f182d	-0.058372665
229	0x3d8a299f	0.0674622
230	0xbdd6a778	-0.10481161
231	0xbd5e31c5	-0.054246683
232	0xbd18f7e9	-0.0373458
233	0x3c167af9	0.009184592
234	0x3d395c27	0.0452539
235	0xbc4817eb	-0.012212734
236	0xbeaa53ba	-0.33267003
237	0x3e2d2e6c	0.1691224
238	0xbdcffe7e	-0.101559624
239	0xbd00fd9d	-0.031491864
240	0xbd7b1d55	-0.06130727
241	0x3dae0256	0.08496539
242	0x3d4aa31f	0.04947197
243	0x3e911eaa	0.28343707
244	0xbd1819c2	-0.03713394
245	0x3e3224b9	0.17396821
246	0xbbdbd405	-0.0067086243
247	0x3da5586c	0.08073506
248	0xbd94a030	-0.07257116
249	0xbd22d4f7	-0.03975388
250	0xbe0edd18	-0.13951528
251	0x3de70f98	0.11282271
252	0x3d267247	0.040636327
253	0xbe376ca2	-0.17912534
254	0xbdf0b979	-0.11754126
255	0xbec03f24	-0.37548172

net.0.bias f4 [60]
0	0x3d9c9e37	0.076473646
1	0xbda46d6e	-0.080286846
2	0xbe188544	-0.14894587
3	0x3e0350f8	0.12823856
4	0xbd910d2c	-0.070825905
5	0x3bf8c903	0.007592322
6	0xbde759b7	-0.112964086
7	0xbd0533e8	-0.032520205
8	0x3ba753f9	0.005106446
9	0xbdb49a2b	-0.08818468
10	0xbd2bc3bc	-0.041934714
11	0x3a93e7e4	0.0011284319
12	0x3c90124d	0.017586851
13	0x3dfd20df	0.12359785
14	0x3df00142	0.1171899
15	0x3dbd2126	0.09234838
16	0x3da3dc08	0.08000952
17	0x3e0da3de	0.13832042
18	0xbd7ca387	-0.06167939
19	0xbda6ba33	-0.081409834
20	0x3c857773	0.01629231
21	0xbcb8f69e	-0.022578534
22	0xbdc11005	-0.094268836
23	0xbe45a9b9	-0.19303025
24	0xbe0e0d7f	-0.13872336
25	0xbe116ac2	-0.14200881
26	0x3d9929c2	0.07478668
27	0x3dbff038	0.0937199
28	0xbe1afaad	-0.15134688
29	0x3d59432f	0.053042587
30	0x3dcf0556	0.101084396
31	0x3dae0cc1	0.08498526
32	0x3ddc3886	0.107529685
33	0x3d3308cf	0.043709572
34	0x3dce482f	0.10072362
35	0x3cdc826b	0.026917657
36	0x3d8e66de	0.06953214
37	0xbd98f2bf	-0.07468175
38	0x3dda1a52	0.106495515
39	0xbda1d918	-0.079027355
40	0x3da240ba	0.07922502
41	0xbcbcb9b2	-0.023037765
42	0xbda95448	-0.082680285
43	0x3daaa560	0.08332324
44	0xbdf8b4af	-0.12143838
45	0xbe1b0478	-0.15138423
46	0xbe2043c6	-0.15650854
47	0x3ccc3ff3	0.024932837
48	0xbc4f4021	-0.012649567
49	0x3d814abd	0.06313083
50	0xbdc3d189	-0.0956145
51	0x3dc0796b	0.09398159
52	0xbdac8481	-0.084237106
53	0x3dce7f58	0.10082883
54	0xbe06cb42	-0.13163474
55	0xbe0a5f57	-0.13512932
56	0xbd3ebafa	-0.046565033
57	0x3d51d699	0.051230047
58	0xbd887bed	-0.06664262
59	0x3e1a3800	0.15060425

net.2.weight f4 [60, 60]
0	0x3dd62f6a	0.10458262
1	0x3dbd955e	0.09257005
2	0x3cb0346f	0.021509377
3	0xbd4349e7	-0.0476779
4	0xbdd9fc9b	-0.10643884
5	0x3e93b43e	0.2884845
6	0x3c8aeb56	0.01695792
7	0x3e043e46	0.1291438
8	0xbc2fc22d	-0.010727447
9	0xbcc98795	-0.024600783
10	0x3e07188d	0.13192959
11	0xbca25614	-0.019816436
12	0x3e04db51	0.12974288
13	0x3e5712f9	0.21003331
14	0x3df37577	0.11887639
15	0x3e038f36	0.128476
16	0x3cf1032a	0.029420454
17	0xbdaaecdd	-0.08345959
18	0x3b24e43e	0.0025160457
19	0x3e0dee8c	0.1386053
20	0xbd0bd89a	-0.034142114
21	0x3d144071	0.03619427
22	0xbd407891	-0.04698998
23	0x3cc0e127	0.023544861
24	0x3e0e54b6	0.13899502
25	0xbdfa196b	-0.12211879
26	0x3e2897b6	0.16464123
27	0x3e8773d1	0.26455548
28	0x3ca8370c	0.02053406
29	0x3e02b214	0.12763244
30	0x3e4f541c	0.20246929
31	0x3db22af0	0.08699596
32	0xbd28a6aa	-0.04117457
33	0xbde01e62	-0.10943295
34	0xbe0dcc46	-0.13847455
35	0xbe2d6c3a	-0.16935816
36	0xbc0bd203	-0.008533957
37	0xbdb7ff3a	-0.089842275
38	0x3d91fe17	0.07128542
39	0x3d16074b	0.03662805
40	0x3d56fbad	0.05248611
41	0x3df68b35	0.120382704
42	0xbe8f39b1	-0.27973703
43	0x3da1fff7	0.079101495
44	0xbcf58b32	-0.0299736
45	0x3e6ff036	0.23431477
46	0xbd8bb6e7	-0.06821995
47	0xbddf4853	-0.109024666
48	0xbe09bd7f	-0.13451193
49	0xbce2106e	-0.027595725
50	0xbcabf8bf	-0.020992635
51	0x3c9c20ad	0.01905855
52	0xbd9fe138	-0.07806629
53	0xbdf40147	-0.11914306
54	0xbd0941bb	-0.03350995
55	0xbdf805a6	-0.12110452
56	0x3dd33678	0.103131235
57	0x3dfaf740	0.122541904
58	0xbd7501aa	-0.05981604
59	0x3e0133a7	0.1261736
60	0x3e4078b4	0.18796045
61	0xbc3016d7	-0.010747633
62	0x3d04f24c	0.032457635
63	0xbe3cba1b	-0.18430369
64	0x3e1e61c3	0.1546698
65	0xbe71ddf5	-0.23619826
66	0x3e2d8ecc	0.16949004
67	0xbde7782c	-0.11302218
68	0x3db90e61	0.09035946
69	0xbd45db43	-0.048304807
70	0x3ce04fcb	0.027381798
71	0x3eabd79e	0.3356294
72	0x3d91a8e9	0.07112295
73	0x3eabfcac	0.3359121
74	0xbdf83f62	-0.12121464
75	0xbd7c0838	-0.061531276
76	0x3df34e98	0.11880225
77	0x3dcaeec7	0.099088244
78	0xbdc418eb	-0.09575065
79	0x3e049854	0.12948734
80	0x3ddca33e	0.107733235
81	0x3e11d0f7	0.1423987
82	0xbd10a2e7	-0.035311606
83	0xbd6705cd	-0.056402016
84	0xbe1d1311	-0.15339305
85	0x3db37094	0.08761707
86	0xbd7a35b1	-0.06108636
87	0x3c9621e4	0.018326707
88	0xbdb39f13	-0.087705754
89	0x3de6ce2e	0.112697944
90	0x3d7abab0	0.061213195
91	0xbe589a65	-0.21152647
92	0x3b07a067	0.0020694972
93	0xbdb68108	-0.089113295
94	0x3e4028c0	0.18765545
95	0xbea2ab77	-0.31771442
96	0x3e0fbef0	0.1403768
97	0x3e2fb582	0.17159083
98	0x3c0f7b76	0.008757463
99	0xbd7fdf3c	-0.062468752
100	0x3e088a18	0.13333929
101	0x3e277e85	0.16356857
102	0x3d88b810	0.06675732
103	0xbde349cf	-0.11098062
104	0xbd95c0bc	-0.07312152
105	0x3e232b9e	0.15934607
106	0x3d93e0ea	0.07220633
107	0x3db606e7	0.08888035
108	0x3dec484a	0.115372255
109	0xbe2df050	-0.16986203
110	0x3db07ca2	0.08617522
111	0xbe814db5	-0.25254598
112	0x3d07e650	0.033178627
113	0x3be72991	0.0070545156
114	0x3cefa6bc	0.02925431
115	0xbd5d256d	-0.05399077
116	0x3c9e2e75	0.019309262
117	0xbd93a8b1	-0.0720991
118	0x3eace2b0	0.337667
119	0xbd88382d	-0.0665134
120	0x3ca51f44	0.02015651
121	0xbdb71a2a	-0.08940537
122	0xbe44716d	-0.19183894
123	0xbd597e02	-0.053098686
124	0xbe0006b7	-0.12502562
125	0x3d7d5347	0.061846998
126	0xbc460c42	-0.012087883
127	0x3de19e53	0.11016526
128	0xbe58b5f6	-0.21163163
129	0x3e80deeb	0.25170073
130	0xbdb2e270	-0.08734596
131	0xbdeefeb4	-0.116696745
132	0xbeb89d28	-0.360574
133	0x3e289650	0.1646359
134	0xbc94bd75	-0.018156746
135	0x3e34b096	0.17645487
136	0xbe38b702	-0.18038562
137	0xbdbe5d28	-0.09295112
138	0x3dd30f9b	0.10305711
139	0x3e47bb6f	0.19505094
140	0xbe085eb2	-0.13317373
141	0xbdf3b4fc	-0.118997544
142	0x3e2d4041	0.16919042
143	0xbd7189fd	-0.058969487
144	0xbdff6586	-0.12470536
145	0xbcb43487	-0.021997703
146	0x3cccde50	0.02500835
147	0x3e2ceaff	0.16886519
148	0xbd83d899	-0.06437797
149	0x3d69efe6	0.05711355
150	0x3b8ce1de	0.0042993864
151	0xbd9bea46	-0.076130435
152	0xbda57a91	-0.08080018
153	0x3d0ca8a5	0.03434052
154	0x3ca9c6f1	0.020724745
155	0xbd0fde83	-0.035124313
156	0x3e3d1bfb	0.18467705
157	0xbd537ee5	-0.051634688
158	0xbe6e9d26	-0.23302135
159	0xbe208cc1	-0.15678693
160	0x3e4cb997	0.19992672
161	0x3c4aee8f	0.012385978
162	0x3d75be3b	0.05999587
163	0xbce0afbe	-0.02742755
164	0x3d8410cc	0.06448516
165	0xbe3d1431	-0.18464734
166	0x3e1f0a84	0.15531355
167	0xbe47cb4a	-0.19511142
168	0x3e3b8f3f	0.18316363
169	0x3e186ce4	0.14885288
170	0x3e1aa2d6	0.1510118
171	0xbcdabe99	-0.026702212
172	0xbd014ce3	-0.031567466
173	0x3e535d84	0.20641142
174	0x3e2a5344	0.16633326
175	0xbddebbe2	-0.108756796
176	0x3dce94f8	0.10087007
177	0x3e1f26b9	0.15542115
178	0xbe0ae326	-0.13563213
179	0xbdbe0bfa	-0.09279628
180	0xbdc29126	-0.09500341
181	0xbe59d29c	-0.21271747
182	0xbe15a6e3	-0.14614443
183	0x3d154040	0.036438227
184	0x3db8d07c	0.0902414
185	0xbdad69f1	-0.08467472
186	0xbc721415	-0.014775296
187	0x3e253c49	0.16136278
188	0xbdff8572	-0.124766245
189	0x3ded4d70	0.11587036
190	0x3e1c6d98	0.15276182
191	0xbd6ea1e3	-0.058259856
192	0xbd4f80d8	-0.050659984
193	0xbd8e7799	-0.06956405
194	0xbe328b27	-0.17435895
195	0xbd22120e	-0.039568
196	0x3d8ad0cb	0.06778105
197	0x3da24e7b	0.07925125
198	0xbe3c14e4	-0.18367344
199	0x3da501fa	0.080570176
200	0xbe844c76	-0.25839585
201	0x3de9be31	0.11413229
202	0x3d763948	0.06011322
203	0xbd5bf4b7	-0.053700175
204	0x3d20b7ce	0.03923779
205	0xbccbef7e	-0.024894472
206	0x3d87e621	0.066356905
207	0x3e300693	0.17190008
208	0x3c8e2077	0.017349465
209	0xbd15533e	-0.03645634
210	0x3e2005f2	0.15627268
211	0x3e196e19	0.14983405
212	0x3c85d729	0.016337948
213	0x3e88e6b7	0.2673852
214	0x3dbad67f	0.09122943
215	0xbdf34367	-0.1187809
216	0xbd5ebfba	-0.054382063
217	0x3e96cbc8	0.29452348
218	0x3ca5d81f	0.020244656
219	0x3e0e8973	0.1391962
220	0x3e1a812c	0.15088338
221	0x3db0bbb6	0.08629553
222	0xbd318959	-0.043343876
223	0xbdc679ac	-0.09691176
224	0xbcbb3d55	-0.022856394
225	0xbdde303b	-0.10849043
226	0xbd2c4ccb	-0.042065423
227	0x3c70e4dc	0.014703002
228	0x39279d02	0.00015984851
229	0xbd76acee	-0.060223512
230	0x3d983882	0.07432653
231	0x3c384b7a	0.011248464
232	0xbdcd507a	-0.10025115
233	0x3e3a86a4	0.18215424
234	0xbdee8781	-0.11646939
235	0x3e26697c	0.16251177
236	0x3d8175da	0.063213065
237	0xba353ba1	-0.00069134875
238	0xbb6902db	-0.003555468
239	0xbe3055b6	-0.17220196
240	0x3de699b0	0.11259782
241	0x3dbe42e5	0.09290103
242	0xbe0ec4a1	-0.13942195
243	0xbdeadad8	-0.114675224
244	0x3da5a2ab	0.08087667
245	0xbe6b49b0	-0.22977328
246	0x3e5b74c8	0.21431267
247	0xbea03dfb	-0.31297287
248	0xbe3b7101	-0.18304826
249	0x3cfda51c	0.03096252
250	0xbcf980be	-0.030456897
251	0xbd027c04	-0.03185655
252	0xbe0b0d67	-0.13579331
253	0x3d9d4fde	0.07681249
254	0x3e8b84eb	0.27249846
255	0x3dfab625	0.122417726

net.2.bias f4 [60]
0	0x3daf029b	0.08545419
1	0xbcab89e4	-0.020939775
2	0x3dae9b24	0.085256845
3	0x3d08bb66	0.033381842
4	0x3dcaa128	0.09894019
5	0x3d3e25a2	0.04642261
6	0x3cc2a6ba	0.023761142
7	0xbdf12e1f	-0.11776375
8	0x3c07e83a	0.008295113
9	0x3dd137b9	0.102157064
10	0x3d4e4bee	0.05036538
11	0x3c3e09b0	0.011598989
12	0x3d5f510b	0.054520648
13	0xbdddf9a5	-0.108386315
14	0xbdb294ac	-0.08719763
15	0x3cd3b8ca	0.02584495
16	0xbd75502d	-0.059890915
17	0x3d9eac40	0.07747698
18	0xbd44d98f	-0.048059043
19	0xbde4c21d	-0.11169837
20	0xbd1d1895	-0.03835352
21	0xbe14a8c9	-0.14517511
22	0x3db7269a	0.089429095
23	0xbdc22c3b	-0.094810925
24	0x3c98b929	0.018642979
25	0xbc834c5a	-0.016027618
26	0x3b1ef1b1	0.0024252946
27	0xbcd87ef3	-0.026427722
28	0xbccad756	-0.024760883
29	0xbc7e0dd5	-0.0155062275
30	0xba9b98c6	-0.0011871092
31	0xbddd837a	-0.10816093
32	0xbd074844	-0.033027902
33	0x3dc06ee2	0.09396149
34	0xbdce4d6c	-0.10073361
35	0x3de5b13a	0.11215444
36	0x3dab68ec	0.08369622
37	0xbd6851c0	-0.056718588
38	0xbc3db5a7	-0.011578954
39	0xbd2d9bcd	-0.04238491
40	0x3de0f240	0.109837055
41	0x3de61718	0.112348735
42	0xbdb3d15d	-0.08780167
43	0x3d4584e4	0.048222438
44	0xbdd34949	-0.103167124
45	0xbd989fc6	-0.07452349
46	0x3d6e7e02	0.05822564
47	0xbd8c2e06	-0.06844716
48	0x3c097aa3	0.008391055
49	0x3da0dfb9	0.07855172
50	0x3cf6ac02	0.030111317
51	0x3dd0889e	0.10182308
52	0x3d9b9bc3	0.075980686
53	0xbdc9773b	-0.098371945
54	0x3d0dd28f	0.034624632
55	0xbdc6ebef	-0.097129695
56	0x3d93c223	0.07214763
57	0x3de204b6	0.11036055
58	0xbde8f8ee	-0.113756046
59	0xbde906a9	-0.113782234
