results of reviewer/XJTU results/3-3/Experiment1/model.pth (torch, 59838 bytes, 14 tensors)

encoder.net.0.weight f4 [60, 17]
00000000: 224a 88be 9177 91bd 0864 f0bc 8e2b 0bbe
00000010: 7d2e c5bd bf73 203e eb84 c2bd de57 45be
00000020: ab6b 263c 1217 43bd f2bf fabc 4acd 06be
00000030: 28ca 31be 840a 62ba 6679 173e dfe0 533e
00000040: 1adf 08be 29a5 77bd 3f58 7abe b740 293e
00000050: f30e 69bc e2b7 d0bc 7b59 dc3d d804 033d
00000060: 53c8 ce3c bb43 2bbc bfe5 d3bc 38c9 f63d
00000070: fcbb cdbb af14 0d3e a09f fe3d 4dd5 56bb
00000080: bdde f33b c469 d83c d71a 523d 96d4 91be
00000090: 5438 fabd 54c4 b73e 6941 24bd 3067 09bc
000000a0: 37bc 6d3e 6ba9 823e 377d ea3d 093b 0f3e
000000b0: 488e 0abe aed4 e43d 5dab 87bd cdd8 5ebe
000000c0: d6f1 073e 4920 4cbc d0ea c23d bc85 063e
000000d0: 5e3d 233c 00e7 f53d a8df 683b 8c10 12bd
000000e0: 7199 6dbd 8cfc b5bd 0696 e4b9 0979 2dbe
000000f0: 337d adbd 3bac 223e 2df5 c83d 757e e0bd
00000100: 06f4 13bb 8789 ddbc 54ca d43c 2929 ce3d
00000110: 11d9 123e 102c c2bd 3b4c 25be 70b3 90ba
00000120: 80e4 2d3e 81aa 8e3d 533a 963c fb55 2f3e
00000130: 9a38 6c3c d76d 65be e8a5 8d3e 0fc6 303e
00000140: cec1 a33d 75b8 70be 295e a53d 2ca3 8e3e
00000150: 5df7 38be ac5c 183e ca9a 9f3e de91 263e
00000160: 63db 08bc a504 95bd e844 dfbd 73d1 58be
00000170: 495d a4bd 310a 353e b105 253e fea3 363e
00000180: 2400 13be 1c73 91bd cbb8 a03d fd96 51be
00000190: bfc7 38be dfb6 b3bc 5eec 9e3d f01b dcbe
000001a0: b99c 5fbe f609 15bd 9feb 953d 15c1 73bd
000001b0: 2e98 1abe 9a0d d13c e1c1 e4bc 1bd8 3a3e
000001c0: c280 053e 6726 9bbc 5b4c 07bd 2278 00bd
000001d0: c5cb 8f3c af39 e3bd d258 34be d0a1 1b3e
000001e0: 592a 8ebd f9d7 6abe 52eb 29be a071 c2be
000001f0: 5f64 8abc 919e 88bd b743 fe3d a733 b6bd
00000200: 94e4 753e e63f 833d 5383 b0bd 503d b93d
00000210: 8ddc dcbd 2f74 51bc 6042 34be 4083 05bc
00000220: 80ed abbd 61d2 af3d 9284 83bd d09f 5fbe
00000230: a956 c23d b157 323d cca7 87bd 79f0 ba3c
00000240: c3f4 703d f838 023e d695 793e 51f1 01bc
00000250: 26a1 593c a64e babc 007d 38be 78f1 bf3d
00000260: 506d cb3c 262b 4f3d 0131 5cbe 4ba2 83b9
00000270: 65cc 1cbd 8fcd 313d 0870 d63d 7542 32be
00000280: 22ff e13d bff4 abbc a674 4ebd 0c81 f2bd
00000290: 3205 ad3d 050f 303e 35ff 20be 0d95 b3bd
000002a0: dea9 f8bb acf6 1f3e c12c 9cbc 81c9 e03c
000002b0: d457 00bd b961 36be 674f 4dbe ce41 313e
000002c0: b9bf b93c fdf9 5e3d 766a e23d f84b 6e3d
000002d0: 1507 9dbe cbb7 28be 3eeb 5dbe 8f42 c1bd
000002e0: c83d 3f3e 1199 8f3e e685 e53d 5ea3 2f3e
000002f0: 3543 813e 3529 0bbd b7a1 06bd 5a48 113e
00000300: 46fa d73d 0458 213d 688f bdbc b120 39ba
00000310: d105 a8bd 026b 20be aa2c 01bc 93e7 023e
00000320: 3030 13be 4fad cfbd 0beb dcbd 3c95 84bb
00000330: 8b3f fabd af56 773e 85bd 4ebe 833c 783d
00000340: 8a77 233d 1d51 183e 237b 833e f534 6c3d
00000350: 48f0 813d ffad 7e3e 09a8 91be c073 213b
00000360: 3c40 803c 45c7 80be 983a 223d 0662 6ebe
00000370: 30bf 98bc 90a3 43be 7415 39bd 2905 9bbd
00000380: e1e6 a13d 21a3 cf3d bc01 e03c 7bd7 943d
00000390: bbbf 393e ab1f 833d a96d 26bd c73f 5c3d
000003a0: aff7 4fbd c400 943e 309c fa3d cabc b53c
000003b0: 8803 8bbd 4c87 bcbd 9ed6 b53d 6317 d0bd
000003c0: 30d0 dcbd 0866 e13d 4c15 6cbd cebd 62be
000003d0: 4dc1 623e 172d 4d3e 6b01 34be e75d b13d
000003e0: d1cc 30be d6bf 113e f291 efbd 5693 e43d
000003f0: cd9b 333d d1a4 823e 0e73 263d 6a78 a3bd
-0.2661906 -0.071028836 -0.029344574 -0.13590834 -0.096280076 0.15669154 -0.09498008 -0.192718
0.010157506 -0.047629423 -0.030609105 -0.13164249 -0.17362273 -0.0008622783 0.14792404 0.2069125
-0.13366356 -0.060460243 -0.24447726 0.16528593 -0.014224756 -0.025478307 0.107592545 0.03198704
0.025242006 -0.01045316 -0.025866387 0.12050098 -0.006278513 0.13777421 0.1243279 -0.0032780946
0.007442324 0.02641762 0.051295128 -0.28482503 -0.12217775 0.35891974 -0.040101442 -0.008386418
0.2321633 0.2551988 0.11449664 0.13987364 -0.13530838 0.11173378 -0.06624482 -0.2176239
0.13275847 -0.012458869 0.09517443 0.13136953 0.009963362 0.120069504 0.00355337 -0.03566031
-0.05800766 -0.0888606 -0.00043599325 -0.16940702 -0.084711455 0.15886013 0.098123886 -0.1096162
-0.002257587 -0.027043117 0.025975384 0.100664444 0.14340617 -0.094810605 -0.16142361 -0.0011039805
0.16981697 0.06966115 0.018338358 0.17122643 0.014417792 -0.22405182 0.2766564 0.17263053
0.0799595 -0.23507865 0.080746 0.27858865 -0.18063112 0.14879102 0.31172782 0.16266581
-0.008353087 -0.072762765 -0.10901815 -0.21173649 -0.08025605 0.17679669 0.16115452 0.17835996
-0.14355522 -0.071020335 0.078477465 -0.20467754 -0.18044947 -0.021937786 0.07759927 -0.42990065
-0.21837129 -0.036386453 0.07320332 -0.05951031 -0.15097114 0.025519181 -0.02792448 0.182465
0.13037398 -0.01893921 -0.033031803 -0.031364568 0.01755322 -0.11094987 -0.17612007 0.15198445
-0.06941671 -0.2293395 -0.16593674 -0.37977314 -0.016893564 -0.06670869 0.12415259 -0.08896571
0.24012977 0.06408672 -0.08618798 0.090448976 -0.10784254 -0.012784048 -0.17603445 -0.008148968
-0.08394909 0.085850485 -0.0642177 -0.21838307 0.09489185 0.04354066 -0.066238016 0.022819744
0.058827173 0.12717044 0.24373564 -0.0079310695 0.01328305 -0.02274258 -0.18016434 0.093722284
0.024832398 0.05057826 -0.21503069 -0.00025107185 -0.038280863 0.043408927 0.10470587 -0.17408164
0.11034991 -0.020990727 -0.050404213 -0.1184102 0.084482566 0.1719323 -0.15722354 -0.087686636
-0.007588609 0.15621442 -0.01906431 0.027439835 -0.03133376 -0.17810716 -0.20049821 0.17310259
0.022674428 0.054437626 0.11055462 0.05817792 -0.30669466 -0.16476361 -0.21671769 -0.09436523
0.18675911 0.28046468 0.1120718 0.17152163 0.25246587 -0.033974845 -0.032869067 0.14187756
0.10545783 0.03939058 -0.02313967 -0.00070620613 -0.082042344 -0.1566582 -0.007884184 0.12783651
-0.14373851 -0.10140478 -0.107870184 -0.0040461104 -0.12219151 0.24154161 -0.20189483 0.060604583
0.039908923 0.14874692 0.25679883 0.05766769 0.06344658 0.24871062 -0.28448513 0.0024635643
0.01565563 -0.2515203 0.03960666 -0.2327958 -0.018645853 -0.19105363 -0.045186475 -0.075693436
0.07905365 0.10138536 0.027344577 0.07267662 0.18139546 0.064025246 -0.040631924 0.05377176
-0.05077332 0.28906834 0.12236822 0.022184748 -0.06787783 -0.09205493 0.088788256 -0.10160711
-0.10781896 0.11005789 -0.057637498 -0.22142717 0.22144051 0.20036732 -0.17578666 0.086604886
-0.17265631 0.14233336 -0.11697759 0.111609146 0.043849755 0.2551637 0.04063707 -0.079819515

encoder.net.0.bias f4 [60]
00000000: 7e75 5f3b 1d76 12bd cad1 eebc d0e0 2b3d
00000010: 2c6d 08bd f961 17bd cb5f 1dbd acb5 003d
00000020: 5dfd 1fbd 8142 a03c 98f0 f33c 292d 23bb
00000030: eaa6 04bd 0d3b b8bc 03ab c93c 4721 1a3d
00000040: 4630 b33c cc92 a8bc b0b0 19bd 9d31 b53d
00000050: 4f0d fc3c e42f 013d 087f 3d3d 8d0b 2fbd
00000060: 3bc0 0f3d b6bc 19bd 27ea d53c 71dd c13c
00000070: 2dc4 64bb f507 eabc ffff ebbc 90c2 20bd
00000080: 2fa9 133d 482e 18bd cb80 1e3c a443 043d
00000090: 1b9b a13c 6832 d5bc 208f 483c 816f 04bd
000000a0: fe10 1d3d 6f94 ad3b 749c 653d e4cb da3c
000000b0: e1fa 103d b6ed 26bd 2725 8cbc 13d3 163c
000000c0: ae88 ecbc f823 09bd dce8 17bd 90e7 9a3b
000000d0: 8b0c fabc 9a36 ec3c e50b 0ebd 5f5b 11bd
000000e0: 60a9 0cbd b98a 1b3d b0d8 353b 6705 0fbd
0.003409713 -0.035757173 -0.02915277 0.041962445 -0.03330724 -0.03695867 -0.038421433 0.031423256
-0.039059985 0.019562962 0.02977781 -0.0024898744 -0.032385744 -0.022489095 0.024617678 0.037629392
0.021873605 -0.02057781 -0.037522018 0.088473536 0.030768065 0.031539813 0.046263725 -0.042735625
0.035095435 -0.037533484 0.02611263 0.023665162 -0.003490697 -0.028568247 -0.028808592 -0.03924805
0.036050018 -0.037153512 0.009674261 0.03229107 0.01972728 -0.026025012 0.012241155 -0.0323329
0.038346283 0.0052972357 0.05605741 0.02670855 0.035395507 -0.040754043 -0.01710756 0.009205597
-0.028873768 -0.033481568 -0.037087306 0.0047273114 -0.03052356 0.02883463 -0.034679312 -0.03548753
-0.034341216 0.037974093 0.0027747564 -0.03491726

encoder.net.2.weight f4 [60, 60]
00000000: 0d8a 49be cc5f c73c c552 693d d6a7 e2bd
00000010: 700e 063e ba4f 1e3d ab8c 423e c5c2 0e3e
00000020: 63c0 33ba fb53 23be a7ba 553c 2db2 82be
00000030: b491 523e a7f9 22be d0d7 c8bc a535 0a3e
00000040: 53d3 24be bb04 87bd 06ea fe3d 99af c7bd
00000050: f209 b13c fd76 223c cef1 90bd 2f0b b5bc
00000060: da6c 193e 89fd 883d 40d7 063e 6983 eabd
00000070: 916b 203d e600 2e3e b5c4 653e 0f12 75be
00000080: 3f7c cb3d fbcd 09be d61b 00be 4955 4ebd
00000090: c41d b3bd c3cc 03be e315 913e c21d 233e
000000a0: 22ed 423e b9fb 21be b12f bbbd 617a 593e
000000b0: 1516 febd 099c c83d 7e10 9c3d a4dc 8e3d
000000c0: 261e 08be 3134 e1bd 078a f2bd 6cea 553e
000000d0: b9ce 82bd 0e81 663e 1f4f 30be 0c86 dabd
000000e0: 0527 eabc 5f70 1a3c 5ab4 90bd 7afd 983d
000000f0: 5068 02be adc0 8bbd 4b43 ffbd eca0 25be
00000100: c5d6 3ebe 98b1 643e f8b2 923d 11c2 103d
00000110: c0ce f5bd 15dd 1fbe 04ef 033b c9bd 3e3e
00000120: e705 a23c 4dad 9cbb e68f 343d 14f4 1cbe
00000130: 8a5e b73d 764c 3abd 92fa 023b c78e 4abe
00000140: 5f33 753d 7a76 23be f420 a1bc bc2a 293d
00000150: b80a 9d3b e4af f33c b112 9f3c 26a3 8b3d
00000160: def0 adbd df16 eebc a094 67bd 6d82 0d3e
00000170: b7f1 c9bc ae21 163e e33e 0a3d 823e be3d
00000180: 45f0 11be 6deb 223c b857 843e 9c32 1e3c
00000190: cb67 4cbe 4be9 263e 4288 063e ba82 563e
000001a0: f4fb 193d f1a4 b33d 61a5 ad3d 2d2d 99bd
000001b0: 8a95 ebbd 428f 0fbe e639 3e3d cb3f b4bd
000001c0: fbe1 8d3b a75b 1e3e 60f9 84be 53cd 4ebe
000001d0: 3ace 8fbc b4ca 663d 88af cd3d e4ad bfbd
000001e0: f211 413d dc61 d4bd ac3d f53d e047 6fbe
000001f0: 9c0e c83d 9931 733e 40fa d23d 571b 28be
00000200: 38d9 1ebe f372 2abc 0fa4 c2bd a0a1 063d
00000210: 7e56 3d3d 71b6 bb3d f049 64bd 64de 0d3e
00000220: 7c09 3a3e b6ce d33b 2ca9 bdbc bcd8 e33b
00000230: b95b 40bd 9e5c 5d3c 0035 00bd 7279 abbd
00000240: 6981 703c 8f3d bfbd 68cc c8bc 2fac f03d
00000250: 399e 883d 623d 113e 18b9 083e 3680 a43e
00000260: 0fe5 9fbe c220 1f3e 7b92 d8bd 63f3 77bd
00000270: 5afc 11bd 519d 213d 8dea ef3d 9059 683d
00000280: b9f5 15bd 6b59 02bd 18be 013d 7ae2 99be
00000290: 758f 603d 7c11 573e a167 1fbe 8ada 98bd
000002a0: 85a5 b63d 2565 4e3d 8151 c53d 8db0 0dbd
000002b0: a440 a7bb d658 9d3d 0ffb 42be 50a4 853e
000002c0: 6986 be3b e436 c0bd 4007 043e af03 07be
000002d0: dae7 99bd e152 1c3c df3f 1cbd a7a6 31be
000002e0: b31e f7bc 37be 163d 3646 4e3e c2d5 99bd
000002f0: ab71 2fbe 8f72 6c3d c00c 043c 7ebc 94bd
00000300: 8b0f 293d 2192 6abe 520d 1a3d 1790 84bd
00000310: ca7a 35be d6e9 04be c4c6 f93b 9ca6 b2bd
00000320: 868e e73d b63e 22be f57d cf3d 2623 a9bc
00000330: 197e 91be 62d9 893d 713a 193e 2566 e2bd
00000340: 8cef 3d3d b78d 223e aa90 55be ec10 a7bc
00000350: ead9 17ba de64 883d ed57 7abd 60cd 1a3e
00000360: 5fef 0cbe 40bb 2e3e 8518 c73c 6061 863c
00000370: ea13 623d 9d52 433d 1f38 af3d 262d 83bd
00000380: f57c 92be f469 033e b503 8cbe 2f41 43bd
00000390: 1743 26be ffca 2abe 3262 9fbd 676a 283d
000003a0: 775d c9bd 6f82 89bd 9a59 19be 11f0 2c3e
000003b0: 3934 2f3c 4185 103c 0dfe c33b 4824 52be
000003c0: 29dc 8abd 34c0 bb3c 302a ecbd 3a9f 043e
000003d0: 1769 1cbe 3438 24be 4338 0bbe deb5 ccbc
000003e0: 4f1a bc3d 0b42 20be 29c4 afbd 4487 683b
000003f0: dd9c aabd 55b2 173b fed5 c73c 4c44 d0bd
-0.19681568 0.024337672 0.0569637 -0.110671684 0.13091445 0.038650252 0.18998973 0.13941486
-0.0006856976 -0.15950005 0.01304499 -0.25526562 0.20563394 -0.15915547 -0.02451697 0.13497026
-0.16096239 -0.06592699 0.1244698 -0.097502895 0.021611188 0.009916064 -0.070773706 -0.02210006
0.1498293 0.06688983 0.13168049 -0.11450846 0.039165083 0.1699253 0.22438319 -0.2393267
0.099358074 -0.13457482 -0.12510619 -0.050374303 -0.08745912 -0.12871079 0.2833701 0.1592932
0.19035771 -0.15818681 -0.09139956 0.2123809 -0.124065556 0.09795386 0.07620333 0.069756776
-0.1329275 -0.10996283 -0.11842733 0.20890206 -0.063870855 0.22510168 -0.17217682 -0.10670099
-0.02858306 0.009426205 -0.07065649 0.07470222 -0.12735105 -0.06823859 -0.12464007 -0.16174668
-0.18636616 0.22333372 0.07163042 0.035341326 -0.12002325 -0.1561168 0.0020131478 0.18627085
0.019778205 -0.0047814013 0.044082545 -0.15327483 0.08953579 -0.045483075 0.0019985777 -0.19781028
0.059863444 -0.15963164 -0.019669034 0.04130052 0.0047925375 0.029746957 0.019418092 0.068182275
-0.084932074 -0.02906364 -0.056538224 0.13819285 -0.024651391 0.14661285 0.03375138 0.09289266
-0.14251812 0.009943825 0.25848174 0.009655621 -0.19961469 0.16299932 0.13137916 0.20948306
0.037593797 0.087716945 0.08478809 -0.0747932 -0.11503132 -0.14019492 0.046441935 -0.0880123
0.0043299175 0.1546465 -0.25971508 -0.20195512 -0.017554391 0.056345657 0.100432456 -0.09359339
0.047136255 -0.10370228 0.119746536 -0.23367262 0.097684115 0.23749389 0.10301638 -0.1641668
-0.1551255 -0.010403383 -0.09503948 0.03286898 0.046225064 0.09165657 -0.055734575 0.13854367
0.1816768 0.006463851 -0.023151956 0.006953327 -0.046962474 0.013510851 -0.031300545 -0.08372773
0.014679291 -0.09337913 -0.024511531 0.117515914 0.066708036 0.14183572 0.13351858 0.32129067
-0.31229445 0.1553984 -0.10574814 -0.060534846 -0.03564105 0.03945667 0.11714659 0.05672604
-0.036611293 -0.031823557 0.03167543 -0.300556 0.05482431 0.21002764 -0.15566875 -0.07463558
0.08918289 0.050389428 0.09634686 -0.0345922 -0.0051041413 0.0768296 -0.19041084 0.26101923
0.005814363 -0.093854696 0.1289339 -0.13184999 -0.07514925 0.009541244 -0.03814685 -0.17348729
-0.030166006 0.036802497 0.20143971 -0.07511474 -0.17133205 0.05772644 0.00805968 -0.072625145
0.04127459 -0.22907306 0.03761036 -0.064727955 -0.17722622 -0.12979826 0.0076225717 -0.087231845
0.11306481 -0.15844235 0.10131446 -0.020646643 -0.28416517 0.067309156 0.149637 -0.11054639
0.046371028 0.15874372 -0.20855966 -0.020393811 -0.00057926646 0.06659864 -0.06111901 0.15117407
-0.13763188 0.17063618 0.024303684 0.016403854 0.055194773 0.047686208 0.08555626 -0.06405096
-0.2861096 0.12833387 -0.27346578 -0.047669586 -0.1623653 -0.16679 -0.07782401 0.0411171
-0.0983228 -0.06714331 -0.14975587 0.16888453 0.010693603 0.008820833 0.005981213 -0.20521653
-0.067802735 0.022918798 -0.11531484 0.12951365 -0.15274464 -0.16037065 -0.13595681 -0.024989065
0.091847055 -0.15650193 -0.085823365 0.0035481015 -0.083307005 0.0023147066 0.024394032 -0.101692766

encoder.net.2.bias f4 [60]
00000000: 2851 f93c ff01 2abd f26f 18bd f60c f3b9
00000010: 94fd 113d 8942 273d e89c 9cbb bcf9 bdbc
00000020: e109 173d d444 d83c 933c 163d 2db8 0a3d
00000030: 0ea5 10bd c0e2 0abd df82 15bd f35e d6bc
00000040: 9a8b 203d ad80 003c b42c 9abc 8a40 12bd
00000050: 1956 d1bc 0b01 ff3c f282 04bd 88b0 0abd
00000060: f203 083d fe1f 103d 14bc eebc 4218 2bbd
00000070: 923f 0c3d 9d7a cfbc af41 993c 40e8 07bd
00000080: 6d1a b83c 688b b03c 0583 debc b23a 19bd
00000090: 8036 223d e86c 193d d659 90bc 45a6 dbbc
000000a0: cf09 10bd 3e64 df3c 3102 e8bc 99de 87bc
000000b0: fabf 01bd 898f 0f3d 030c dabc fe0c 5fbc
000000c0: 9630 52bd 368d 25bd c95d cfbc 7926 133d
000000d0: c0a7 04bd db73 15bd 81da e2bc 9990 353d
000000e0: 177e 23bd 7b5c 61bc 3495 453d 9e94 d63c
0.030434206 -0.04150581 -0.037216134 -0.00046358228 0.03564222 0.040834937 -0.004779447 -0.023190372
0.036874656 0.026400007 0.03667886 0.03386705 -0.03531366 -0.033907652 -0.03650176 -0.026168322
0.039195634 0.007843179 -0.018820144 -0.03570608 -0.02555375 0.031128427 -0.03235144 -0.03385976
0.033206888 0.03518676 -0.029142417 -0.04177118 0.034240313 -0.025327021 0.018708078 -0.033180475
0.022473538 0.02155085 -0.027162084 -0.03740949 0.039602757 0.037457377 -0.017620962 -0.026812682
-0.035165604 0.027269479 -0.028321357 -0.016585635 -0.031677224 0.035048995 -0.026617056 -0.013613937
-0.051315866 -0.040417872 -0.025313275 0.035925362 -0.03238654 -0.03648744 -0.027692081 0.044327352
-0.03991517 -0.013754959 0.048237994 0.026193913

encoder.net.5.weight f4 [32, 60]
00000000: 486f 623e c35e 53be 61ce 533d f59a e8bc
00000010: 633b 23be d373 13bd 4d71 3ebe 8b2e f5bb
00000020: a24c 4bbe a22e 293e e9be 02be 1d8c 8c3e
00000030: a168 653e ac5e 0bbe ca36 acbb f762 4a3e
00000040: ef25 1a3d 0780 b43e 771e 843d c04e 5e3c
00000050: 57d7 be3c 9e03 bdbd 4fbf 70be d0d8 68be
00000060: a16a da3d 3fea 0ebd b894 6cbd 503e 833d
00000070: 6cc6 9bbd 7d61 263e 83f4 2cbd bcb3 34bd
00000080: a0d2 f3bd 32e6 d33d fd23 09bd 639c abbc
00000090: 01db 27be 0aca 4ebe 32f3 afbe 99d7 66be
000000a0: 5dca 113d 73af 073e cc61 e03c 99e9 043d
000000b0: 7088 a23e 08c4 d23d d221 fcbc 11ef ffbe
000000c0: bf7f bcbd 1c38 463d 87dd 943d 999a 5cbe
000000d0: 4a19 153e 9e32 5d3e 6e8a d6bc 5fcd 803c
000000e0: c04a 323e 7336 42bd 09d7 61be 5047 493e
000000f0: d776 96be 1a09 433e 8513 6a3e e210 aabd
00000100: 379a 38bd bf98 ae3d 19cc 59bd 8422 833b
00000110: 2339 95bd df34 16be 3c8a 383e 56e2 eabc
00000120: 2d40 733d 45aa a83d 908f 53bd 289d c7bd
00000130: 097d 6cbe d56e 87be 4e60 dd3d dd55 fdba
00000140: db0e 14bd f485 92be f3ba 45bd 29ec 78bd
00000150: 5cbf 9abd 0933 383e 5bc2 aa3e d413 b73d
00000160: 8045 99bc ce7e 2d3d 7bab e33d 8e11 8dbb
00000170: a45a df3c 04a1 ad3d 9957 953d b15b e93c
00000180: fbff 89bd 5ca4 bb3d a6b5 e0bd 73dd 7c3d
00000190: bc18 37be 05b4 85be 9cb2 833e 5474 66be
000001a0: 508d d43e 9789 3cbe 8fc1 0a3e 50f4 453e
000001b0: 8220 1ebe 396b b2bb 9a5e 343d b978 f53d
000001c0: 0dff 503d 6de8 3a3d a1cb d9bb ce5e 643e
000001d0: 95c5 983e 1d1f d73d 3fa1 9fba 6329 85bc
000001e0: 9c9f 3b3e 9b22 0f3e 77b2 d03c 1dec 1ebe
000001f0: 143c 20bd aaa8 8b3c 617b 86be 66dd 3c3d
00000200: ccab b93d 6036 05be 5632 aa3d 0bb6 ab3d
00000210: 3087 2d3d f1de 21be 33a5 70ba 345b bdbc
00000220: b820 103e 37f7 46be d55d 3ebd 3c5b 1b3d
00000230: e73e 29bc c433 0c3d 7bd0 24be 7abc e13d
00000240: a32f 1ebd e80e 83bb b70c bf3d 85d4 113d
00000250: d228 38be 75e3 923d ed4f 36be 35c7 a93d
00000260: 068a 6e3d 5cdb 2a3e ed8d 713e 727f 133c
00000270: 9b27 8fbc 7258 963e c812 18bd 3c7c 733e
00000280: 80ce 6b3e f6ba 05bb 8cff 4e3e a4e1 36bd
00000290: 14cc b03e 1388 a63b 7c40 9bbc c9ad c8bd
000002a0: 0a33 41be 4de8 45be 84ce e93c 96dc 46be
000002b0: cae9 c4bc 02bf 54bc 9d1c 833e 9c41 8ebd
000002c0: b2f6 ab3b fa43 e7bd f6c6 453e 1a47 79be
000002d0: 85c0 84bd b9cb c43d 961a 953d 61ca b13b
000002e0: f852 2d3d cd4b 40be ce22 073e 734a c43d
000002f0: 4de9 2d3d ee18 543e 3fdc 4bbe 8530 6abe
00000300: 5019 24be abda a8bd 56f1 943c b171 413e
00000310: 4043 a73e 9182 273e dfb9 6f3c 015f 713d
00000320: ea90 34bd b055 753d a4fe 803c 4b11 28be
00000330: 28c6 583e 3ead 0f3d e44d c9bd 92df 713c
00000340: e498 513d 04cb 40be 1663 9dbe f660 823e
00000350: 3391 86bd d7ac 8c3c 8151 9fbb 8e97 dcbd
00000360: 4206 4dbe 67f6 76bc 09a3 06be c9ae 41be
00000370: d2a3 923d 4c5b f4bd d015 083e c1c2 2d3e
00000380: 64af 9ebe 0a3c 123e a2e0 6cbe 3b4f 1fbd
00000390: 35ad ee3c 3323 8dbd 198f 07bd 1aa6 303e
000003a0: 1a8a 803e 01c0 74be 3e9f 043e 62b9 bc3c
000003b0: dbbd bfbd 826d 3bbd c58e d3bd 1726 04bc
000003c0: de98 3f3c d1eb d63d c42c a0bd 92d3 0dbe
000003d0: 447d 9ebe 42f0 f4bd 40cb 4fbe 9d0c ab3d
000003e0: e2fd c8bd 9cb6 7e3e aace d6bd f3fb da3d
000003f0: a284 bbbc 07ed a23d 5ebb 33bd 1e47 c4ba
0.22112763 -0.20641617 0.05171049 -0.028394202 -0.15940623 -0.03599913 -0.18597908 -0.007482355
-0.19853452 0.16521695 -0.12768139 0.27450648 0.22403194 -0.13610333 -0.005255555 0.19764315
0.037633833 0.35253927 0.06451123 0.01356858 0.023296041 -0.092292055 -0.23510478 -0.22738957
0.10664869 -0.034891363 -0.057759017 0.064083695 -0.07606205 0.16248126 -0.042225372 -0.04411672
-0.11905408 0.10346641 -0.033481587 -0.020948594 -0.16392137 -0.2019426 -0.3436523 -0.22543181
0.03559338 0.13250522 0.027390383 0.03244934 0.3174472 0.10291296 -0.030777846 -0.4998708
-0.09204053 0.048393354 0.072688155 -0.2154335 0.14560428 0.2160134 -0.026189055 0.015722929
0.17411327 -0.047415208 -0.22054686 0.1965611 -0.29387543 0.1904644 0.22859009 -0.083040014
-0.045068946 0.08525228 -0.05317316 0.0040019173 -0.072862886 -0.14668606 0.18021482 -0.028672379
0.059387375 0.08235601 -0.051650584 -0.09746772 -0.23094572 -0.26451746 0.10809384 -0.0019327957
-0.03614698 -0.28617823 -0.04827399 -0.060772095 -0.0755603 0.17988218 0.33351406 0.08939329
-0.018709898 0.04235726 0.11116692 -0.004305071 0.0272649 0.08477977 0.072920986 0.028486105
-0.067382775 0.091622084 -0.10972147 0.061734628 -0.17880529 -0.26113907 0.25722206 -0.22505313
0.41514063 -0.18411861 0.13550399 0.19331479 -0.15442088 -0.005444911 0.04403553 0.11985917
0.051024485 0.045631815 -0.006646589 0.2230179 0.29838243 0.10503981 -0.0012178792 -0.016255086
0.18322605 0.13978045 0.025475724 -0.15519758 -0.039119795 0.017048199 -0.26266006 0.04610958
0.09065971 -0.13009024 0.08310382 0.08384331 0.042365253 -0.15807702 -0.000917989 -0.023114778
0.14074981 -0.19430242 -0.046476204 0.037928805 -0.0103299385 0.034229055 -0.16095154 0.11022277
-0.03861965 -0.0039995797 0.09328597 0.035603065 -0.17984322 0.0717229 -0.17803927 0.08289949
0.0582371 0.16685241 0.23589297 0.009002553 -0.01747494 0.29364353 -0.037127286 0.2377786
0.23027992 -0.0020405627 0.20214671 -0.04464878 0.345307 0.0050821393 -0.018951647 -0.09798772
-0.18867126 -0.19326897 0.028540857 -0.19420084 -0.02403726 -0.012984993 0.25607768 -0.06946108
0.005247914 -0.112922624 0.19314179 -0.2434353 -0.06482033 0.096091695 0.072804615 0.005425737
0.042315453 -0.18778916 0.1319687 0.095845126 0.04245882 0.20712635 -0.19908236 -0.22870071
-0.16025281 -0.082448326 0.018181484 0.18891026 0.32668495 0.16358401 0.0146317175 0.058928493
-0.044083513 0.05989617 0.015746422 -0.16412847 0.2116934 0.035077326 -0.098293096 0.014762776
0.0511712 -0.18827444 -0.3073966 0.254646 -0.06570663 0.01717226 -0.004862011 -0.10771094
-0.20021918 -0.015073395 -0.1314813 -0.18914331 0.071601525 -0.11931476 0.13289571 0.16968824
-0.30993187 0.14280716 -0.23132566 -0.03889392 0.029135326 -0.06891479 -0.033095453 0.17250863
0.25105363 -0.23901369 0.12951371 0.023037616 -0.09362384 -0.04575873 -0.103299655 -0.008065722
0.011694161 0.10494197 -0.07821038 -0.13850239 -0.30954945 -0.11959888 -0.20292377 0.08352015
-0.09814049 0.24874347 -0.10488637 0.10692587 -0.022890393 0.07955366 -0.04387986 -0.0014974808

encoder.net.5.bias f4 [32]
00000000: 8681 59bd 8bf3 24bd 662c d63c 168b 3c3d
00000010: 893d 693d 7d8a 7e3d 174f 22bd d515 95bd
00000020: ba3d d43c 35dc 92bd 6b18 2cbd cde4 4a3d
00000030: cf59 40bd 9ef4 3ebd e29e 2cbd 6af6 363d
00000040: 8721 9bbc af8a 1d3d c2cf bfbc e81f 9b3b
00000050: 2ff1 1c3d 79a7 37bd b144 9ebd c810 b9bd
00000060: 1a00 19bd a85a 3a3d 7cc6 423d dfcd e0bc
00000070: cc3f 313d 1ba6 043d 46b1 2dbd a66b 943d
-0.05310204 -0.040271323 0.026144218 0.04603108 0.05694345 0.06214379 -0.039626207 -0.07279555
0.02590834 -0.071709074 -0.042015474 0.049534608 -0.04696065 -0.046620004 -0.04214371 0.044668593
-0.018936886 0.038462337 -0.023414496 0.004734028 0.038315948 -0.04483745 -0.077279456 -0.09036404
-0.037353612 0.045496613 0.04755257 -0.027441917 0.043273732 0.032384973 -0.04240539 0.07247095

predictor.net.1.weight f4 [32, 32]
00000000: f454 70be f13f 2bbe daa1 373c 1065 3c3d
00000010: a55f 023e ad14 3b3e aaf8 46bc 201c be3d
00000020: 5eb6 90be a1bd 40bd db8b 25bd 4b11 c43e
00000030: eae7 a6bb 4961 8fbe 8844 a43d 704c ae3d
00000040: 47ac e0bd 74d2 573e e4ab 2e3e 64ed babc
00000050: ed75 4a3e 77b8 51be 4d45 19be 9899 60be
00000060: 0abe bfbd 4af8 86bd ea1d 2d3e c38d b73d
00000070: f4c7 253e b8c0 00be 53a6 163e cfc2 673e
00000080: 55b4 81be 9a79 83bd 677b eabd 17b9 2ebe
00000090: 7e78 1e3e bec6 ebbd ec6f 45be 83ae e1ba
000000a0: 759e edbc 7a43 34be 68b9 afbd c0b1 d9be
000000b0: 2870 0bbf d357 863e 2dca 5c3e c132 c33e
000000c0: d7d7 8fbd fd24 933d a2e1 863c 3618 cd3d
000000d0: d5b2 beba 18b5 abbd eaf0 283e e841 d4bc
000000e0: bb55 67bd 5d12 19be bd91 743e dde8 a3bd
000000f0: 719c 093e d7fd edbd c120 2cbd 4a67 db3c
00000100: 8797 43bb 03e2 e9bd da1b 3bbe 47fd e6bd
00000110: 571c 3b3d 025b 9abe 43ed bc3d b9d1 1cbe
00000120: b7a3 2b3d 279e 15be dd57 193d 816a 35bd
00000130: 6e37 c3bc 4f8e e43d 8c17 debc 4a96 8bbe
00000140: 044e 90be 7fcf 963e 21ac 9dbe e92d 723e
00000150: 3b74 943d c5ed 943e 705b 633e f470 693e
00000160: 036b 03bd 0490 ae3d ece7 b13d b6ac 0b3e
00000170: c30e 75bd fbb1 213d ab69 86bd 1228 9b3c
00000180: b85e 45bd 4926 1f3e 7b2d 30bd 1f76 c13d
00000190: ff74 a2bd 88be 253e d9b3 45be 45bf 903d
000001a0: aff5 e4bd 0726 d5bd 3cc4 22be 5fb3 293c
000001b0: 830d 64be 3d22 3d3d 00c0 f5be 4602 97be
000001c0: b411 163e a2a6 aebc e8e6 433d e1b1 7f3d
000001d0: 8f04 0a3e 1be5 95bd 00cc 293d de55 733e
000001e0: ecb0 39bd e9d2 713c 0234 ef3d a9cb a63d
000001f0: 9fbd f23d 6c81 673b 181b 71be 4e44 86be
00000200: 7be8 b0bd f1fe bfbe e4a2 02be d92b 913d
00000210: 6351 3dbe 7135 ef3c f668 053e e9fd e63d
00000220: 9efc 93be 26d5 cc3d b46f 8c3d aac9 583e
00000230: 7a6d d3be 3889 9dbe b733 46bc 2a8a 2cbd
00000240: b005 de3d fdca 31be add1 103e 3ce8 5ebe
00000250: 7d7c 54be 494b b03e 96dd 1fbe 059c a2bd
00000260: a710 d5be 7cbf c63d 773d 93bd 1c3b 673e
00000270: 0d65 c43e ab70 463e 3689 3bbe 14fe fdbd
00000280: 2efc ee3d 6df4 85be 951b aa3d 0a0e c0bd
00000290: 93bb 8abd 6325 44bd 4eb0 3cbe b984 ad3e
000002a0: 9677 20be 74cc 273e 30a7 873e f3e8 5dbe
000002b0: 7404 023e 1f21 2ebd 7d9f fc3d 53b5 8a3c
000002c0: f1fe 813e ea82 ec3d 1c28 533d 513f 833e
000002d0: 387e 4cbc 2e1d 9bbb 8a6a 02be 8451 493c
000002e0: 098e 353d 3856 9bbd 3e58 c43d 80b6 58bd
000002f0: 8351 d43d 6708 d43d c3e2 e3bd e167 5dbe
00000300: 7d92 52be dcfd 5d3b c05b d3bc 3d78 423e
00000310: 05e2 16bd 71d5 d8bc 1fed 383e 7593 78be
00000320: 6cb7 debc 8d04 ef3d 3ad2 e5bd 7b5b b5bd
00000330: 094b 643d f875 5c3d c91b 3dbe 9b29 6a3d
00000340: 86c6 343e bd98 653e e526 e33c 3239 443c
00000350: 563b 273e 05d0 3dbe 7a06 82be a783 7fbe
00000360: 1bad ccbd 5d41 46be ea88 c43d a056 0a3e
00000370: 31fc 4b3d ea88 85be 6474 bcbe 59c9 6bbe
00000380: efec 79bd c24f 3e3d 676b afbd 8e71 49be
00000390: 7866 6a3e 3881 8cbd 7835 663e 1ead 90bd
000003a0: f05b 6b3d c3f0 b03d 95b7 d1bd 4641 95bd
000003b0: c1f9 b9be 1f03 56be de86 5ebe d044 e83d
000003c0: c2c7 25bd f1af c8bd 420e 53be a817 90bd
000003d0: fc8b ac3e 96e9 48be 82c3 fe3a ce81 c0bc
000003e0: b3fe 8fbc aecb 0d3e dd3f 68be 2864 acbd
000003f0: f651 443d eec4 0d3d 7b43 f83d 75b1 203b
-0.23469907 -0.1672361 0.011208022 0.04599482 0.12731798 0.18269606 -0.012144247 0.09282708
-0.28264135 -0.047055844 -0.04041658 0.38294443 -0.0050935643 -0.2800391 0.08020884 0.08510673
-0.10970359 0.21076375 0.17057759 -0.022818275 0.19771548 -0.20480524 -0.14967842 -0.21933591
-0.09362419 -0.06590326 0.16905943 0.08962586 0.16189557 -0.12573516 0.14711885 0.22632907
-0.25332895 -0.06419678 -0.114493184 -0.17062794 0.15475652 -0.115125164 -0.19280976 -0.0017218146
-0.029006222 -0.17603865 -0.08580285 -0.42518425 -0.5446801 0.2623888 0.21561499 0.3812466
-0.0702359 0.07184789 0.016465012 0.100143835 -0.0014549146 -0.0838415 0.16498151 -0.025910333
-0.056478243 -0.14948411 0.2388372 -0.080033995 0.13438584 -0.11620682 -0.042023424 0.02678265
-0.0029844956 -0.114200614 -0.18272343 -0.112787776 0.045681324 -0.30147558 0.092249416 -0.15314378
0.041904178 -0.14611112 0.03743731 -0.044291023 -0.023830142 0.11159956 -0.027110837 -0.272631
-0.2818452 0.29455182 -0.30795386 0.23650326 0.07248732 0.29087654 0.2220285 0.22796994
-0.032084476 0.085235626 0.08686814 0.13640103 -0.05982853 0.039476376 -0.06563123 0.018940005
-0.048186034 0.15541948 -0.043012124 0.09446358 -0.079324715 0.16185963 -0.19306888 0.07067732
-0.11179673 -0.10407644 -0.1589517 0.010357707 -0.2227078 0.04617523 -0.47998047 -0.29493922
0.1465519 -0.021319691 0.04782763 0.062425498 0.13478301 -0.07319089 0.041454315 0.23763224
-0.04533474 0.014759758 0.116798416 0.08144314 0.118525736 0.0035324944 -0.23545492 -0.26223987
-0.08638092 -0.37499192 -0.1275745 0.070884414 -0.18488078 0.029200288 0.1302832 0.11278898
-0.2890367 0.10001592 0.06857243 0.21170679 -0.4129446 -0.30768752 -0.012097291 -0.04212395
0.108409286 -0.1736259 0.14142485 -0.21768278 -0.20750614 0.34432438 -0.15611872 -0.079399146
-0.41614267 0.097044915 -0.07189458 0.22581142 0.38358346 0.19378917 -0.1831406 -0.12401977
0.11669193 -0.26163045 0.08306042 -0.09377678 -0.06774058 -0.047887217 -0.1842663 0.33890322
-0.15670618 0.16386586 0.2649474 -0.21670894 0.12697011 -0.042512055 0.123351075 0.016932165
0.25389817 0.115484074 0.051551923 0.25634244 -0.012481265 -0.004733703 -0.12735954 0.012287501
0.04432491 -0.07584804 0.09587143 -0.05290842 0.103671096 0.10353165 -0.11127236 -0.21621658
-0.20563693 0.0033873236 -0.025800586 0.1899118 -0.036836643 -0.026468964 0.18059205 -0.24275
-0.027187072 0.1167079 -0.11221738 -0.08855339 0.05573562 0.05382344 -0.1846763 0.057168584
0.17653856 0.22421546 0.027728507 0.011976527 0.16331229 -0.18536384 -0.25395566 -0.24952565
-0.09993955 -0.19360872 0.09596427 0.13509607 0.049801055 -0.2608102 -0.3680755 -0.23026027
-0.061016973 0.04646278 -0.08565407 -0.19672224 0.22890651 -0.06860584 0.22481334 -0.070642695
0.057460725 0.08639672 -0.102400936 -0.072878405 -0.3632336 -0.20899628 -0.21731135 0.1134125
-0.040473707 -0.09799183 -0.20610908 -0.07035762 0.3370055 -0.19620356 0.0019436928 -0.023499396
-0.017577505 0.13847229 -0.22680612 -0.08417541 0.047929727 0.034611635 0.12122246 0.0024519835

predictor.net.1.bias f4 [32]
00000000: 5802 dc3d 188b c73d 14fd d33d 76ea b63d
00000010: ca35 ebbd 6d5f 023e eaec f1bd 3cd5 a83d
00000020: ae37 bf3d a4e2 27be 74b0 e03d f01c cbbd
00000030: 04d9 153e 7c2b c6bd 5b3d f33d 9413 dbbd
00000040: 1cd6 dcbd c124 eabd 56d0 e53d 0fd1 ed3d
00000050: 9119 de3d 2ccb f03d abe1 dabd 98f0 f33d
00000060: bb21 cd3d 39f1 c53d ef1d fb3d 912d ee3d
00000070: ea33 dcbd 81c3 143e f027 f73d 4443 c33d
0.107426345 0.09743327 0.10351005 0.089314386 -0.11484869 0.12731715 -0.11812766 0.08243796
0.09336792 -0.1639505 0.10971156 -0.09917629 0.14633566 -0.09676263 0.11876937 -0.106970936
-0.107830256 -0.114327915 0.112213776 0.116121404 0.1084472 0.11757502 -0.10687574 0.11911124
0.10016199 0.0966515 0.12261569 0.11629785 -0.10752089 0.14527704 0.12068164 0.09534314

predictor.net.3.weight f4 [1, 32]
00000000: 8432 0a3f 78f5 9b3e 02a1 ae3e 18ec 753e
00000010: d6ff 3abe a9cc 9b3d ae90 4bbe 3f10 983d
00000020: 2312 e43d f7d3 eebd b4a2 2e3e 9535 82be
00000030: 381c 853e 08ca 94be 543e 013e 2fef adbe
00000040: f352 a1be bb61 02bf 5326 0d3e 6679 f83d
00000050: 6c0d 113e 2235 b63e b44c b5bd 0a50 b43e
00000060: 5b60 d53e 70eb 0b3e 56fc 043e f9d8 6d3e
00000070: 33f9 17be fd81 373e 8f33 4d3e b5e2 e83d
0.5398333 0.30460715 0.34107214 0.24015844 -0.18261656 0.07607395 -0.1987941 0.07424974
0.11136272 -0.11661523 0.17054254 -0.25431505 0.25998092 -0.29060388 0.12621433 -0.33971545
-0.31508598 -0.50930375 0.13784151 0.1213253 0.14165276 0.35587412 -0.088525206 0.35217315
0.41675076 0.13664031 0.12986884 0.232273 -0.14841156 0.1792068 0.200392 0.11371366

net.0.weight f4 [60, 35]
00000000: 4f97 f8bd 4a88 be3a 8613 a0bd e808 0abd
00000010: a6bb 1c3e 2cd3 86bd 5eaa 573e c95a 5c3d
00000020: f6d3 80bc 743c 36bd b0d7 30be 0b04 af3b
00000030: 75f7 343e 1d7f 28bd 8b96 c3bc 2ddf cb3d
00000040: ee10 87bd 2f45 a7bd 8b86 99be 9405 9b3c
00000050: a8cc 653e ed03 343e 159d 483d 6c4e 47bd
00000060: 533a 3bbd c757 a0bd ffca 42be a4a7 0c3e
00000070: 76a4 e23d 5b7e ef3d 9d02 2ebe 4d31 573d
00000080: 14b5 2bbd 3a12 8d3e e9eb aabd 4529 193e
00000090: d97f 893e 79c2 aa3d af16 ed3d 6939 cc3e
000000a0: 574a 7a3e 6cc2 67be a808 bcbe b9af 853c
000000b0: fa02 913d 50ab a7bd 5ffd ce3d d4cf e7bd
000000c0: 1f42 6dbe 09e4 e33d c624 2dbe 5d59 ec3b
000000d0: 4c05 f1bb e682 79bd 369c 6b3e b802 f83d
000000e0: f237 20be 5f4c 6bbe 07d6 ebbd faba bcbd
000000f0: 788c 1abe 562d 44be 4cc7 1cbe 7bff 82bd
00000100: 2867 1abe 2f39 013e e61b 2dbc 762d 47bc
00000110: 078a a5bc 5532 8dbe e00b 053e 60d9 2f3e
00000120: 33d1 22be 3630 443e 8bd8 78be 7a40 d1bd
00000130: 7c4e 9a3b 14f8 28bd b71f 973d a0fd b43c
00000140: f27a 033d 3826 04bc 22f1 2a3e bee7 883d
00000150: 2074 3abe 34e0 50bd 93d6 a03d dadb 0ebd
00000160: 0e35 c8bd ac20 10be 1adf a43c f880 18bc
00000170: 68ec 3c3e 4d74 59bd c57f 7a3d 97c7 c5bd
00000180: 953f e2bd b658 583c 6dee 293d 01d7 ba3d
00000190: 5cf0 9fbe 2fc0 51bd 927f 3fbe eef0 1bbd
000001a0: a20e 89bd 2e43 cd3d 139c 213e 0b45 87bd
000001b0: 7b6c dc3d c841 85bd bd47 703e 589d 7c3d
000001c0: d39a 81be d172 90be 042c 85be 0725 253d
000001d0: cee5 4ebd 4744 b63d 2d5b 0fbe 5ee3 cdbd
000001e0: 26c0 8bbd 9438 a33e 4ee5 0c3d 3b81 7d3e
000001f0: a0ba 5ebd 55d0 af3e b851 a1bd 7d58 01bc
00000200: 4ebe 6ebe 0c34 0cbe 9373 963e b8d5 fe3d
00000210: a59d 5b3e 2821 5e3e 206a 3bbe 08eb bc3c
00000220: c257 cdbe 897d 5abe 5a6e a33c 3bd7 9a3d
00000230: 8c37 543d 6e8a 073e 67c2 8cbd ef06 12be
00000240: d1a5 bc3c 7e4c 84bd 7335 39be de9e 2fbe
00000250: 18db 303c 19e2 14be d4b4 0d3e 7e9b 463d
00000260: add0 adbc b28d 933e 3427 8ebd dca7 9b3c
00000270: be99 6dbe 6e3f 8e3e e4ec 23be b3ff 8f3c
00000280: 7300 eabe 6b58 a0bd 73d5 833d 6496 8bbe
00000290: 5230 e4bd 0a45 a63d 9525 f13c 2ecc 2ebe
000002a0: 1d89 87be 9d79 963d 61e2 11bd 13d6 bf3d
000002b0: a7fe 46bd b0c8 db3d b666 883d cb16 76bd
000002c0: 06cf 62be 5859 b4bc 2270 8ebd 5ec3 0dbd
000002d0: c192 babd 94b4 82be d010 fdbd 5137 cc3e
000002e0: c65e 2d3d 094d 473e 62f3 903d 6af1 c53d
000002f0: 7aa9 763d cb19 053e 49f4 583d 4239 2fbe
00000300: 7fbd 22bd cdee 3b3c 157c 2f3d 40cb e9bd
00000310: 6e27 343e 1500 a0bd 951d f23d 3813 97bd
00000320: ca11 2e3e 1d9a d8bb 4529 303e 1dd6 5b3e
00000330: 4ca3 b43c 51ea 0e3d 7bac 0cbe 7eec ef3d
00000340: af0d a23a 6954 c1bd a720 183d 3a26 223e
00000350: e0f8 3dbe 125f 27be 03d2 13be fe12 173d
00000360: 3876 503d 20d2 683c 8614 ae3d f0b4 7b3d
00000370: 09b7 ea3d 3b41 98bd d895 5f3e a827 80be
00000380: 40ea be3d 5f7c 2cbe c542 a43e 3f33 673e
00000390: abf5 b2be 4d88 2f3d 3de2 68be 2d17 2ebe
000003a0: 81d4 91bd 2a0a 8bbd ed89 c63c 1605 01bd
000003b0: 155a 49be 5816 313d 50ae 44be e2e4 9d3d
000003c0: babd 1abe 3ae2 b6bd efd6 363d 2b7d 733d
000003d0: 3b0e 823e 265d 883e da49 aabd f642 513e
000003e0: 903e 1bbe 0158 a73d 2747 043e a5a8 1bbd
000003f0: 5562 593e 41f4 f5bd 2df1 96be dff4 493e
-0.12138235 0.0014536467 -0.07816224 -0.0336999 0.15305957 -0.065832466 0.21061084 0.053797517
-0.01572607 -0.044491246 -0.17269778 0.005341058 0.17672522 -0.04113685 -0.023875495 0.09954677
-0.06595026 -0.081674926 -0.2998546 0.018923558 0.22441351 0.17579623 0.04897793 -0.048658773
-0.04570992 -0.07829242 -0.1902275 0.13735825 0.11066525 0.11694022 -0.16993184 0.05253725
-0.041920736 0.27552968 -0.083457775 0.1495715 0.26855353 0.08337874 0.11576592 0.3988755
0.24442421 -0.2263276 -0.36725354 0.016319143 0.07080646 -0.08186972 0.101069205 -0.11318937
-0.23169754 0.11127479 -0.16908559 0.0072128014 -0.0073553678 -0.06091585 0.23008808 0.121098936
-0.15646341 -0.22978352 -0.11515432 -0.092153504 -0.15092647 -0.1915792 -0.153104 -0.06396385
-0.15078413 0.1261947 -0.010565734 -0.012156835 -0.020207418 -0.27577463 0.12992811 0.17172766
-0.15900116 0.19159016 -0.24301355 -0.10217376 0.004709063 -0.04125221 0.07379096 0.022093594
0.03209967 -0.008065753 0.16693547 0.06684826 -0.1820836 -0.050995067 0.07853427 -0.034877636
-0.097757444 -0.14074963 0.020125914 -0.009308092 0.18449557 -0.05308943 0.061157007 -0.09657209
-0.110472836 0.013204744 0.041487146 0.0912304 -0.31238067 -0.05120867 -0.18701008 -0.038071565
-0.06692244 0.10022579 0.15782194 -0.06604966 0.107628785 -0.065066874 0.23464866 0.061673492
-0.25313434 -0.28212598 -0.26010144 0.040318515 -0.050512128 0.088997416 -0.13999625 -0.100531325
-0.06823759 0.31879103 0.03439837 0.24756329 -0.0543772 0.34338632 -0.07876915 -0.007894632
-0.23314783 -0.1369173 0.2938505 0.12443107 0.21446855 0.21692336 -0.18302202 0.02306129
-0.40106016 -0.2133695 0.01995008 0.07560583 0.051810786 0.132364 -0.06873017 -0.14260457
0.023028286 -0.06459902 -0.18086796 -0.17150447 0.0107944235 -0.14539374 0.13838512 0.048488133
-0.021217668 0.28819042 -0.06941071 0.01900094 -0.23203179 0.27782768 -0.16008335 0.017577982
-0.45703468 -0.078293644 0.064371966 -0.27263176 -0.11142029 0.08118637 0.029436866 -0.17070076
-0.26471797 0.07347415 -0.035616282 0.09367003 -0.0485827 0.107316375 0.066602156 -0.06008033
-0.22149286 -0.022015259 -0.069549814 -0.034610145 -0.09110022 -0.25528395 -0.12356722 0.39885953
0.04232671 0.1946298 0.070776716 0.09665187 0.06022022 0.1299812 0.052967343 -0.17111686
-0.0397315 0.011470509 0.042842943 -0.1141572 0.17593166 -0.07812516 0.118220486 -0.073767126
0.16998973 -0.0066101686 0.17203243 0.21468396 0.022050522 0.03489143 -0.13737671 0.11715029
0.0012363697 -0.09439928 0.037140515 0.15834895 -0.1855197 -0.1634486 -0.14435582 0.036883347
0.050893992 0.014210254 0.08500008 0.061451852 0.114606924 -0.07434317 0.21834505 -0.25030255
0.093220234 -0.16844319 0.3208219 0.22578143 -0.34953055 0.042854596 -0.22742553 -0.17001028
-0.0712061 -0.06789048 0.02423569 -0.03149899 -0.1966327 0.0432342 -0.1920712 0.077096716
-0.15111437 -0.08929868 0.04463857 0.05944554 0.25401482 0.26633567 -0.08314867 0.204357
-0.15160584 0.08171082 0.12917767 -0.03800263 0.21228917 -0.12009478 -0.29480878 0.19722317

net.0.bias f4 [60]
00000000: 2a3e d1ba a631 acbd 9078 c03d adc6 f9bd
00000010: 9cbd c3bd 389e ec3d 9df8 e13d c1af 9bbd
00000020: a4f9 103e ed83 183e 1053 0cbd 5160 c4bd
00000030: be1c 01bd 7209 863c 21c0 bb3d 72ee 453c
00000040: b8fb 403d f261 2a3e 0a72 d83d c8d0 2c3d
00000050: bd08 533d 5e28 ed3d ff87 1a3d 2792 003e
00000060: ae27 f53d 8029 d83d d108 d03d 80d2 68bd
00000070: 8b62 f9bd 912b 423c f01d be3d 9162 e9bc
00000080: c20c a6bd fe67 103e 8d95 1fbd 9347 123e
00000090: a33d dbbc baf6 cfbd 2755 45bd 551a 1f3e
000000a0: fe6c 0b3c b80e bc3d a87c 2e3e c66d b63b
000000b0: 1d53 70bd 9aa6 303d c0ac 143d 94e3 5a3c
000000c0: 1750 fb3d 56ff 14be d8a7 ab3d ce71 3c3e
000000d0: 44c3 3d3d 68f7 c63d 7385 b5bd cf2e ddbd
000000e0: ec06 9a3d c7c2 a03d 5a3f f0bd 71ca 163b
-0.0015963961 -0.08407907 0.093979955 -0.121960975 -0.095576495 0.11553615 0.11033747 -0.07601882
0.1415773 0.14894076 -0.034258902 -0.095886834 -0.03152155 0.016361926 0.09167505 0.012080776
0.047115058 0.16638926 0.10568626 0.042191297 0.051522005 0.11579965 0.037727352 0.12555753
0.11970459 0.105547905 0.101579316 -0.056841373 -0.12176999 0.011851207 0.09283054 -0.028489383
-0.08107902 0.1410217 -0.038960982 0.14285116 -0.02676279 -0.10154481 -0.04817691 0.15537389
0.0085098725 0.09182495 0.1703974 0.005567285 -0.058673013 0.043127634 0.03629756 0.013359923
0.12271135 -0.14550528 0.08381623 0.18402788 0.046328798 0.09715158 -0.08863344 -0.10799944
0.075208515 0.07849651 -0.11730833 0.0023008848

net.2.weight f4 [60, 60]
00000000: 6d12 e43d 360f a53d 4df0 653e 4b26 a1bd
00000010: a864 4fbe 55f8 4fbd fbef 8f3d d14a ef3d
00000020: 63d7 aabd d439 073e fe16 a5bd f4bd 323e
00000030: 2b9c f63c 1b54 143e d771 233d 2e35 e33d
00000040: 0aa6 833c 61a1 453e 61e4 67be 6930 493e
00000050: 26cf e3bd 9945 fd3d bbcf 13be 24e8 1ebe
00000060: f342 55be 367d ddbd 1e61 413e 7028 d23c
00000070: 936d e8bd 8244 29be 74ab 003e 0aa8 48bd
00000080: 8032 343d d5b8 793c 4f75 7abd 3d41 76be
00000090: 4c85 343c 5907 903d e7f7 c8bd d4f9 6e3e
000000a0: c409 023e 6056 58bd bb70 7abd e891 1d3d
000000b0: f1ef 913d f017 1d3d 1783 ce3b eeb3 3bbe
000000c0: 78d9 1c3e 14b0 99bd 78b3 f83d 43f2 0bbe
000000d0: 059d dc3d 9238 54be 51c6 493d 484e 69be
000000e0: e9e1 9e3b d8a4 423d 46b6 bdbd ceec bc3d
000000f0: d5fd 76bb 9afe 303d 65a3 903d 67cd debc
00000100: 09ba 0c3d c70c 02bd e41f 5fbc 28bd 1d3b
00000110: 6eec 9abd f8ea 473e a348 ed3c f468 2b3e
00000120: e518 44bd 48b8 62bd d88e 81bc 380c f93d
00000130: d416 363e 8dcc 5b3e 7443 16bc 4879 a4bd
00000140: 9e3a 853d bbdf bd3c 3bd2 0a3d 2c08 a43d
00000150: f9e8 123e 60c8 30be e8fb 2e3d 25bc 88be
00000160: 7aac 113e 93a2 563e 03b1 b73d 5e8c c93d
00000170: c817 44bd 95e6 1bbe 1948 23be cfa7 bc3d
00000180: e24d 6ebd a932 e6bd ae4e 7b3d 9696 24be
00000190: 395c b43d 12a1 c83d 78c2 ad3c 28f0 973d
000001a0: c2ae 98bd b0c0 9fbc 205b 1b3d 4bbc 143d
000001b0: bc1a 04bd cdbb 153e 7446 183c eea5 c8bd
000001c0: fd40 bebd 64af 8dbe d1f2 05be 3424 17be
000001d0: 283c 943e 3d67 b93c c78d a83d 1c21 933d
000001e0: 068b 843d 077b b1be 7107 b53d 3777 413d
000001f0: 6e3c 773d b12b e43d 2b0d d6bd e745 e7bb
00000200: 9d7f aabd e4ab 01bd b9fd 8bbd 3bc5 833c
00000210: 272b 9f3e 7d1e a1bd 6eff 5abd aac7 b13d
00000220: f8ec 40bd 7f5e 79bd 97ec 173e 2038 1ebc
00000230: d7c4 96bd d11a 703d e5c3 403e 9efb e0bb
00000240: e557 3d3e 0445 a83d 6fee d7bc 76d8 153e
00000250: a6d3 03be b128 f93d f518 cebc 275e d2bd
00000260: 40ec d9bd 5e0d 613e f39b 6f3c b096 00be
00000270: 5bc1 883d d4e9 3dbe 9edd 86ba a00c 8e3d
00000280: 8ec9 fe3d 0a4b 33be 5a05 53be e5a1 043b
00000290: c037 663d c9c5 813d 9ddc 0b3e 0707 36bd
000002a0: 583e a1bd 643a 743c 0c4d fc3d 3820 553e
000002b0: c49b 223c 2ac6 aa3c 4fde acbd 1d96 2fbe
000002c0: 52cb 29be 6c52 e63d 95de a33c cb40 28bd
000002d0: 254f abbd 18b0 c93d feb2 143d a3c0 a0bd
000002e0: c7a5 36be 44d8 b3bd 5a0f 2b3e dfc9 f2bd
000002f0: df7f 0e3e 3963 fbbd be10 023e 5141 59bd
00000300: 1d54 ef3d fa68 0dbd 9890 cdbd df13 55bc
00000310: fe25 3c3e a1cb 21be 09e2 f43b 21ea 3b3e
00000320: 81f1 893d ff25 09be 3d49 af3d 0fab 613c
00000330: 16a3 183e a2d6 bdbb 4fe5 0f3d 9fd2 713d
00000340: 10d3 ccbd 8342 653d a05e 55bd 78d6 46bd
00000350: 54a2 6a3d 5c68 dc3d ff4b 653d 6dc3 49bd
00000360: 256a 4ebe 26a6 023b 333a 84bd 6806 323b
00000370: d6f5 233e 10f3 5cbc 210d 99bc 6da7 173e
00000380: 03af 25bc 5c3f f63c e12e 7fbb 4f0d ecbc
00000390: 63ac d73d ce25 4ebe 247f 53be 8394 70bd
000003a0: f5b1 d73d 1084 39be ff2c 333c 5b55 c53d
000003b0: 683a 5abe 4da3 f7bc c96e edbd e039 34be
000003c0: 3cd1 553e 5667 83bd 3e72 99bd 8a18 e03c
000003d0: 4e61 303d a9c1 173d bbf6 733d 0589 a23d
000003e0: 3841 053e 043a 853e 5d73 623e d07f a2bd
000003f0: 1571 b53d 353b ffbd 1c52 2d3c f511 10be
0.11136327 0.08059542 0.22454949 -0.07868632 -0.20253241 -0.050773937 0.070281945 0.11684192
-0.08341863 0.13205653 -0.08061026 0.17455274 0.030103764 0.14485209 0.039903488 0.110941276
0.016070385 0.19299842 -0.22645713 0.19647373 -0.11123495 0.1236679 -0.14434712 -0.15518242
-0.2082632 -0.10814898 0.18884704 0.025654048 -0.113490246 -0.1653004 0.12565404 -0.04898838
0.043993473 0.015241821 -0.06114703 -0.24048324 0.011018109 0.070326515 -0.098129086 0.2333749
0.12699038 -0.05281675 -0.061142664 0.038469225 0.07125843 0.038352907 0.006302248 -0.18330356
0.15317333 -0.07504287 0.12143606 -0.13666634 0.107721366 -0.20724705 0.049261395 -0.22783768
0.004848708 0.04752049 -0.092632815 0.092248544 -0.0037687917 0.043211557 0.07062415 -0.027197553
0.034357104 -0.031750467 -0.013618443 0.0024069045 -0.07564627 0.19523227 0.0289653 0.16739255
-0.047875304 -0.055351526 -0.015815184 0.12160534 0.17782146 0.21464749 -0.0091713555 -0.08030945
0.06505321 0.023177972 0.033891898 0.08009371 0.14346685 -0.17263937 0.042720705 -0.26706043
0.14225951 0.20960455 0.08969309 0.09841226 -0.047874242 -0.15224679 -0.15945472 0.092116944
-0.058179744 -0.112401314 0.06135433 -0.16073069 0.088066526 0.09796347 0.021210894 0.07418853
-0.074552074 -0.01950106 0.0379287 0.036312383 -0.03225206 0.14622422 0.009294141 -0.097972736
-0.09289739 -0.27672875 -0.13080908 -0.14759904 0.28952146 0.022632236 0.08230167 0.071840495
0.06471829 -0.34664175 0.0883931 0.047232833 0.060360365 0.11141146 -0.1045173 -0.0070578936
-0.083251216 -0.03165807 -0.06835503 0.016085258 0.3108761 -0.07867143 -0.053466253 0.08680661
-0.04710099 -0.060881134 0.14836346 -0.009656936 -0.07361763 0.058619324 0.18824728 -0.0068659326
0.1849056 0.08216289 -0.026358811 0.14633355 -0.12873706 0.121659644 -0.025158385 -0.102718644
-0.10640764 0.21977755 0.014624584 -0.12557483 0.06677505 -0.1854623 -0.0010289436 0.06936002
0.12440787 -0.17509094 -0.2060751 0.0020238098 0.05620551 0.06336553 0.13658376 -0.044440296
-0.07873219 0.0149065 0.12319383 0.20813072 0.009924833 0.020846445 -0.084408395 -0.17147107
-0.16581467 0.112461895 0.020003596 -0.041077416 -0.08364705 0.0984804 0.036303513 -0.078492425
-0.17836677 -0.08781484 0.16705075 -0.1185491 0.13915966 -0.122747846 0.12701699 -0.053040806
0.11685965 -0.03452394 -0.10037345 -0.013005226 0.18373868 -0.15800335 0.0074732346 0.18351032
0.06735516 -0.133934 0.08558891 0.013773694 0.14905962 -0.0057934085 0.035130795 0.059038755
-0.100011945 0.055971634 -0.052092195 -0.048544377 0.057283714 0.107620925 0.05598068 -0.04925864
-0.20157678 0.0019935458 -0.06456413 0.0027164463 0.16011748 -0.013485685 -0.018683018 0.14809962
-0.010112527 0.030059509 -0.0038937854 -0.02881494 0.10530927 -0.20131609 -0.20653969 -0.05873538
0.105319895 -0.18116784 0.010936021 0.09635421 -0.21311343 -0.030229235 -0.11593396 -0.17600203
0.20880598 -0.06416194 -0.07492493 0.027355451 0.043061547 0.037049923 0.059561472 0.07936291
0.1301316 0.26020825 0.2211432 -0.079345345 0.08859459 -0.12462465 0.010578658 -0.1406935

net.2.bias f4 [60]
00000000: 9aec 3bbd 6461 9cbd f12d a6bc be7f 77bd
00000010: b53c 8dbd bc70 ae3b ee01 c73d 41b4 a6bc
00000020: 3c4b debb a964 a8bd 4d64 bc3d c4fe e039
00000030: 123b 1e3d 57db cd3d 58fe 3abd fd2f a83d
00000040: 88e0 fd3d 3de5 083e 02f2 eb3d eb01 bdbc
00000050: 461a 49bd cd15 053b 985d 13bd fbb1 9abd
00000060: d7fa abbd 9174 93bd d29a b13d 9159 49bd
00000070: 9e3b d23c c455 073e 4875 f83d 15e1 883d
00000080: de6d b4bd e622 9abd 931e b33d 357c 873d
00000090: 4212 ea3d 14c6 24bd 9d6f edbd 02f0 87bc
000000a0: 8b7d 043d f8d7 9e3d d42e 213d e0a2 f13d
000000b0: 8ce2 943d fdb4 bf3d d1df 123d 42fe 493d
000000c0: 166f 7dbd e6ec 8dbd 5e40 7abc 5739 ca3d
000000d0: 61d6 b83d 1688 213c 6025 b93b 8d45 123d
000000e0: 90e9 ba3c d0c7 023c 4244 6ebd 08c9 d93d
-0.045879938 -0.07635763 -0.020285578 -0.06042456 -0.068963446 0.0053234976 0.09717165 -0.020349624
-0.006783871 -0.082223244 0.09198818 0.00042914425 0.038630553 0.100516014 -0.045652717 0.08212278
0.123963416 0.13368697 0.11520769 -0.023072204 -0.049097322 0.0020307184 -0.03597793 -0.07553478
-0.08397453 -0.07199968 0.08672108 -0.049157683 0.025663193 0.1321631 0.121317446 0.06683556
-0.08810018 -0.075261876 0.08746066 0.066154875 0.11429264 -0.040227965 -0.11593554 -0.016593937
0.03234629 0.077560365 0.0393513 0.11798644 0.07269773 0.09360693 0.03585798 0.049314745
-0.061873518 -0.069299504 -0.015274135 0.09874218 0.090252645 0.009859106 0.0056502074 0.03571086
0.02281645 0.007982209 -0.058170564 0.10634047

net.5.weight f4 [1, 60]
00000000: ae3d 4dbe eb52 513e 91f0 72bd 563e 96bb
00000010: 3abe 77bb e5a8 71bd 9750 153e 9835 10be
00000020: 6417 b33b e2b5 303c e32f 503e 77bf a9bd
00000030: a0c9 b03c 4024 533c b115 fc3d f3b4 7e3c
00000040: 3581 003c b183 26bd d19e 90bd 3688 32be
00000050: f710 99bc 9eac 82bc 7963 3abd 9e9a f63d
00000060: abfe 093e 49a2 a53e ff47 e63d 560b 3dbe
00000070: c456 7f3d 7c0e b53c 1a5a a7bc 3332 ed3d
00000080: d970 093d e7ec 97bb f716 af3d b973 0dbe
00000090: 9f27 853a 0e3f 953d 9a1b b6bc 13e7 06be
000000a0: 87cf 503d 46ba 29be 346d 653d b506 1c3d
000000b0: 8b78 313e 8109 213e 8d00 d13e a3b9 a4be
000000c0: 73a7 87bd a71d 41bb 5e37 59bd 909a fc3d
000000d0: 36fb 2c3e 93ed fc3d 6aaa 7d3d 130d 1dbd
000000e0: 0549 68bd 5dd4 f9bc 9cc5 02bd f101 653e
-0.2004306 0.20441787 -0.059311453 -0.0045850677 -0.0037802593 -0.05899896 0.14581524 -0.14082944
0.005465435 0.010785552 0.20330767 -0.08288472 0.021580517 0.012887061 0.12308825 0.015546071
0.007843305 -0.040652934 -0.07061542 -0.17434773 -0.018684847 -0.01595145 -0.04550502 0.1204121
0.13476054 0.32350376 0.11244201 -0.18461356 0.062338606 0.022101633 -0.020428706 0.1158184
0.033554886 -0.0046363953 0.08549302 -0.13813676 0.0010158903 0.07287417 -0.022229958 -0.13174085
0.050979163 -0.16574964 0.056012347 0.038092334 0.1733114 0.15726282 0.40820733 -0.3217288
-0.06623735 -0.0029467137 -0.053031318 0.12334168 0.16892704 0.12350001 0.061930098 -0.038342547
-0.05671026 -0.03049677 -0.031926736 0.22364022
