results of reviewer/XJTU results/5-5/Experiment5/model.pth (torch, 59838 bytes, 14 tensors)

encoder.net.0.weight f4 [60, 17]
0.07176828 0.19035797 0.3277562 0.16047037 -0.18499817 -0.037327915 -0.07190144 0.067638315
-0.06761584 0.092310175 0.19026999 0.07320294 -0.20780624 -0.079603694 -0.03863268 0.028373927
0.18203777 0.023341637 0.09543643 0.011918816 -0.1030177 -0.11634429 -0.014267594 -0.16585873
-0.017449714 0.18079858 -0.11396957 -0.043238144 0.15066461 0.039691325 0.07093946 -0.19052982
0.020670313 -0.28764063 0.13707982 0.18306409 -0.035988927 -0.025481317 -0.11584054 -0.07371271
0.11707611 -0.13664398 -0.089644596 -0.013887871 -0.24789762 -0.029833408 -0.06959941 -0.1843812
0.06300337 -0.18757305 -0.12563838 -0.18425429 -0.048830234 0.0028079215 0.08498936 0.05423136
-0.36148238 -0.21260409 0.109526284 -0.06826635 0.4112743 0.18593761 -0.4000349 0.058330145
-0.07080849 0.40608296 -0.03802224 -0.24167255 0.18220654 0.0038505937 0.026059782 0.09250238
-0.15811329 -0.030414531 -0.100294255 0.22963192 -0.043089375 0.20792185 0.048344545 0.120283246
0.10763375 0.15215807 -0.23277825 0.09324235 0.07940598 0.019214293 0.0065707066 0.1327781
-0.21651718 -0.07096603 0.1319382 0.081804655 -0.058862984 0.12408133 -0.19975524 -0.056623638
0.3869446 -0.02129314 -0.26748902 0.006514041 -0.055374254 0.13074405 -0.22505009 -0.04473142
0.011663419 -0.08629779 0.1617298 -0.07739817 0.0843803 0.09670107 0.20137796 0.0031597347
-0.083243735 -0.014908964 0.06582059 -0.08474068 0.05457965 -0.112964444 -0.17221518 0.00405407
-0.0071787997 0.20301916 -0.08024737 -0.027003428 0.0549467 0.11211962 0.11758328 0.24241616
-0.25849226 -0.061616406 -0.11999716 0.081018806 0.041833654 -0.00991103 0.15390545 -0.0718446
-0.061279587 -0.09848964 0.101871304 -0.41082138 0.13014668 0.019502709 -0.044434745 -0.07606029
-0.018538022 0.1732679 -0.09872087 0.23090675 -0.10136616 -0.13319068 0.39194858 -0.04268525
0.10203 -0.2232401 -0.06368523 0.020009106 0.03081745 0.046443965 0.024502428 0.26625046
0.15377845 0.10049181 -0.0011087243 0.41771463 -0.16927524 0.022094345 -0.022399487 -0.078196034
0.35951245 -0.27678388 0.28686845 -0.30288053 -0.045362484 -0.040008698 0.0064161033 -0.104478985
0.081606485 0.061435364 -0.06770091 -0.012190523 -0.11574948 0.2549976 0.011094749 0.2860947
0.27767727 0.16265097 0.11351865 0.13393043 -0.058016367 -0.032330357 -0.13092963 -0.43845817
0.2833737 -0.047843885 0.023670219 0.054700572 0.20221862 0.12027111 0.29242268 -0.1139666
-0.17218803 0.13605432 -0.008592736 -0.018496895 -0.07948213 0.1011587 -0.26368934 0.024000455
-0.0020378844 0.016744692 0.07489773 -0.08015723 0.30600345 -0.060422216 0.19595806 -0.028094608
-0.35140765 0.021519624 0.08560489 0.21050791 -0.00850962 0.010918943 0.0229958 -0.023020586
0.095880955 0.21185249 0.2526197 0.26127434 -0.06882663 -0.037118807 -0.045802705 -0.30729756
-0.10275386 -0.30797023 -0.20420314 -0.1296968 -0.19233878 0.24453971 -0.123166405 0.15708813
-0.08059387 0.24492401 0.0067604706 -0.12802869 -0.32669786 -0.40051633 -0.113795236 0.28383803
0.17948797 0.22703251 -0.03836785 -0.10026384 -0.021951174 -0.17402197 -0.055132277 -0.09350047
00000000: 3ffb 923d 33ed 423e a9cf a73e 5852 243e
00000010: 2970 3dbe 28e5 18bd 1041 93bd f585 8a3d
00000020: 2c7a 8abd 1e0d bd3d 23d6 423e 6ceb 953d
00000030: 29cb 54be 4307 a3bd 4d3d 1ebd 7070 e83c
00000040: 1c68 3a3e f636 bf3c 2d74 c33d 2347 433c
00000050: f2fa d2bd ea45 eebd a0c2 69bc dfd6 29be
00000060: b4f2 8ebc 4323 393e e168 e9bd 7b1a 31bd
00000070: d347 1a3e 5f93 223d b548 913d 401a 43be
00000080: ca54 a93c a245 93be a75e 0c3e 2775 3b3e
00000090: 2069 13bd 32be d0bc ce3d edbd b0f6 96bd
000000a0: 99c5 ef3d 66ec 0bbe 9697 b7bd f489 63bc
000000b0: e0d8 7dbe 3165 f4bc 238a 8ebd 6dce 3cbe
000000c0: e907 813d 2613 40be 59a7 00be 28ad 3cbe
000000d0: 3602 48bd 1b05 383b e70e ae3d b421 5e3d
000000e0: 3814 b9be e3b4 59be 514f e03d 3acf 8bbd
000000f0: 8c92 d23e 6e66 3e3e 60d1 ccbe 97eb 6e3d
00000100: 0b04 91bd 1bea cf3e 35bd 1bbd 0279 77be
00000110: 5a94 3a3e 3e5a 7c3b 537b d53c e371 bd3d
00000120: 73e8 21be e527 f9bc 1367 cdbd a124 6b3e
00000130: 7c7e 30bd 77e9 543e ee04 463d 1057 f63d
00000140: 156f dc3d 53cf 1b3e 6c5d 6ebe d8f5 be3d
00000150: 9a9f a23d 4b67 9d3c 154f d73b fbf6 073e
00000160: aeb6 5dbe a356 91bd cf1a 073e 3389 a73d
00000170: 501a 71bd 5a1e fe3d a38c 4cbe 30ee 67bd
00000180: 9a1d c63e f36e aebc 52f4 88be bd73 d53b
00000190: 1dd0 62bd c5e1 053e 8873 66be 4b38 37bd
000001a0: ed17 3f3c e5bc b0bd 7f9c 253e ef82 9ebd
000001b0: 94cf ac3d 360b c63d 0636 4e3e 8d13 4f3b
000001c0: b17b aabd ba44 74bc f2cc 863d 868c adbd
000001d0: e98e 5f3d e759 e7bd 2d59 30be 01d8 843b
000001e0: 233c ebbb 41e4 4f3e bc58 a4bd 4b36 ddbc
000001f0: ca0f 613d f99e e53d 81cf f03d f13b 783e
00000200: 1959 84be 7c61 7cbd 12c1 f5bd 30ed a53d
00000210: c459 2b3d df61 22bc 6499 1d3e 4323 93bd
00000220: 4e00 7bbd f0b4 c9bd e7a1 d03d 2e57 d2be
00000230: 2c45 053e 25c4 9f3c 3501 36bd 7fc5 9bbd
00000240: 0ddd 97bc 246d 313e 2b2e cabd d272 6c3e
00000250: 1099 cfbd 2363 08be 7cad c83e bbd6 2ebd
00000260: 1bf5 d03d 0e99 64be 676d 82bd 23ea a33c
00000270: e074 fc3c 073c 3e3d 51b9 c83c fb51 883e
00000280: 1978 1d3e a6ce cd3d 9d52 91ba b1de d53e
00000290: 7d56 2dbe 33ff b43c 217f b7bc 3e25 a0bd
000002a0: 0412 b83e 9eb6 8dbe 6ce0 923e 2813 9bbe
000002b0: 03ce 39bd 29e0 23bd 2d3e d23b 14f9 d5bd
000002c0: 4d21 a73d a6a3 7b3d c6a6 8abd c2ba 47bc
000002d0: 100e edbd 0c8f 823e c0c6 353c 017b 923e
000002e0: b72b 8e3e fa8d 263e 777c e83d 0f25 093e
000002f0: 92a2 6dbd d66c 04bd 6b12 06be 977d e0be
00000300: 5c16 913e f3f7 43bd 0ce8 c13c b50d 603d
00000310: 6612 4f3e b350 f63d 6db8 953e 5267 e9bd
00000320: 0f52 30be d351 0b3e 8cc8 0cbc cd86 97bc
00000330: 87c7 a2bd 4b2c cf3d 4a02 87be 9a9c c43c
00000340: 078e 05bb 2a2c 893c fb63 993d 7929 a4bd
00000350: 7cac 9c3e 497d 77bd 3ba9 483e aa26 e6bc
00000360: b4eb b3be ec49 b03c 9e51 af3d 638f 573e
00000370: ef6b 0bbc 5ee5 323c b061 bc3c ab95 bcbc
00000380: 3c5d c43d dcef 583e 5f57 813e c0c5 853e
00000390: faf4 8cbd e409 18bd 9e9b 3bbd 1b56 9dbe
000003a0: 9e70 d2bd 46ae 9dbe a11a 51be 3dcf 04be
000003b0: 75f4 44be 9e68 7a3e ab3e fcbd b6db 203e
000003c0: 660e a5bd 5ccd 7a3e f086 dd3b f419 03be
000003d0: f144 a7be 7a10 cdbe 7a0d e9bd 3853 913e
000003e0: b2cb 373e 367b 683e 9b27 1dbd 2157 cdbd
000003f0: f3d2 b3bc d132 32be 62d2 61bd 2d7d bfbd

encoder.net.0.bias f4 [60]
-0.020907681 -0.025317857 -0.026759569 -0.046942137 -0.03946814 -0.024248585 -0.016451454 -0.000632237
-0.008536933 0.036538877 -0.029361565 0.027355185 0.04070599 0.03435313 -0.02018055 -0.027362566
0.027327236 -0.025043907 0.014615094 0.012408639 0.010489151 -0.025973313 0.029533042 0.0060854456
-0.011007425 -0.012912394 -0.024929456 0.00784605 0.020904168 0.023778064 0.03017887 -0.037812907
-0.028583698 0.004957548 0.026105827 -0.014310695 0.008411793 -0.0041119917 -0.019770028 0.027233746
0.020117464 -0.015171091 -0.03764799 0.0369767 0.002101146 0.026099185 0.021906748 -0.028199306
0.016039185 0.05547909 0.020200681 0.013651662 -0.03658614 0.0074136658 0.026739437 -0.0067816507
0.020600135 0.010515063 -0.018509824 -0.020854348
00000000: 9646 abbc 6567 cfbc e236 dbbc 6646 40bd
00000010: 58a9 21bd f8a4 c6bc 33c5 86bc b5bc 25ba
00000020: 7ede 0bbc caa9 153d aa87 f0bc fb17 e03c
00000030: 53bb 263d deb5 0c3d ae51 a5bc 7627 e0bc
00000040: 5edd df3c e128 cdbc 2674 6f3c 9b4d 4b3c
00000050: b0da 2b3c fcc5 d4bc 47ef f13c 6b68 c73b
00000060: 7d58 34bc 818e 53bc dc38 ccbc b88c 003c
00000070: 383f ab3c 37ca c23c ad39 f73c b5e1 1abd
00000080: 5c28 eabc ed72 a23b e3db d53c 6877 6abc
00000090: 9ed1 093c e3bd 86bb c1f4 a1bc 4e19 df3c
000000a0: 61cd a43c 2b90 78bc c734 1abd e174 173d
000000b0: 61b3 093b f5cd d53c c875 b33c 3b02 e7bc
000000c0: 9c64 833c 0b3e 633d e67b a53c 38ab 5f3c
000000d0: 59db 15bd 56ee f23b aa0c db3c 9c38 debb
000000e0: 9dc1 a83c 5f47 2c3c eaa1 97bc bdd6 aabc

encoder.net.2.weight f4 [60, 60]
0.07706309 -0.12412542 0.0075874883 -0.12715594 -0.15340813 0.1327233 0.03373993 -0.33406872
-0.034622356 0.25498456 0.011157846 -0.03437529 0.12449461 -0.124115214 -0.13862422 -0.14195374
-0.119232714 -0.066537835 0.14711045 0.1001665 -0.039712958 -0.067549035 0.1632589 0.21894701
-0.13179696 -0.080587596 0.030231116 0.03722743 0.075475134 0.07398061 -0.18117675 -0.08768512
-0.021375038 -0.15831985 0.05313416 -0.20624475 -0.101520374 0.09904853 -0.08213772 0.0017227039
0.25508764 0.029192856 0.24372561 -0.09408793 0.07930181 0.033039093 -0.07813184 -0.03129202
-0.1164226 -0.043409128 0.17036746 -0.2649512 -0.022891477 -0.14962332 0.2440208 -0.16988358
-0.23615979 -0.027795795 -0.04455535 -0.22531423 0.011588727 -0.046924345 0.062062956 -0.06830581
-0.023560114 -0.20553698 -0.008116201 0.054602798 -0.05994442 -0.05606484 -0.090667754 0.14942458
-0.15680367 0.2296586 -0.14245997 -0.029284814 -0.047607455 0.1546569 -0.013129292 -0.07413973
0.00063927326 0.12643571 -0.19427739 0.10018983 -0.056799293 0.13332295 -0.08138752 0.04066088
0.24203236 0.029439857 0.03881651 0.038588516 -0.1840076 0.13789526 -0.05742088 -0.26927754
-0.055237073 -0.12669513 0.116012685 -0.049760357 0.19511597 0.0041222237 -0.08174108 0.07568293
0.1996221 0.03024414 0.118444525 0.01728207 -0.18159606 -0.022471447 0.020333596 -0.001570066
0.040935606 -0.012760691 0.18961748 0.0480243 -0.017638963 0.04014363 0.04285048 -0.13739173
0.0013160335 0.10243387 0.03202685 0.02194482 -0.20662764 -0.009696906 -0.06899711 -0.040886268
0.108150765 -0.09401753 0.008296842 0.05744437 0.04386128 -0.07193266 -0.07126336 0.10938561
-0.039261326 -0.074811436 -0.06745481 0.043901153 -0.0059067877 0.22340804 0.18256392 -0.027346553
-0.15052362 0.18280151 -0.15231042 0.09435115 0.031094028 0.10868104 -0.08571734 -0.023477517
-0.017880442 -0.053364776 -0.0046279766 0.0338554 -0.015047287 0.120840974 0.09730101 -0.13412611
0.072535 -0.083223686 0.045798704 0.050739083 -0.075877786 0.15894336 -0.11899616 -0.09530362
0.1337892 0.16875191 0.21708876 -0.31627595 -0.025510414 0.017839309 -0.03869121 0.045048866
-0.24241008 0.26050588 0.07353108 -0.035221603 -0.16320959 0.20757647 0.102013744 0.032423984
0.12134884 0.14413936 0.050679684 -0.11830103 -0.0630398 0.074916005 0.21707544 -0.262511
0.17058381 -0.06303514 -0.033779494 0.005023121 0.17569904 -0.1139701 -0.009450478 0.19320151
0.02499578 0.10190482 0.09175316 0.009625612 0.15863146 -0.20675378 -0.12086699 -0.13084158
-0.093833655 0.16559245 -0.10563939 -0.14655253 0.120820336 -0.10285287 0.082544826 0.022247795
-0.064518236 0.167432 -0.06912646 -0.0012724296 -0.033570193 0.014582088 -0.02488079 -0.14543915
0.07029492 -0.042926714 -0.17083706 0.019972058 -0.09616682 0.11073152 -0.08924087 0.17973608
0.01765237 0.082648076 -0.21331914 -0.06251372 -0.075804345 -0.08207929 0.06612959 -0.1560831
0.036821418 0.20458438 0.113123775 -0.07911759 0.09306997 -0.1592648 0.07321338 0.2710122
0.04326349 0.15272361 0.06365684 -0.014976321 0.13267696 0.108743615 0.0049488256 -0.06998497
00000000: 41d3 9d3d 7835 febd 77a0 f83b 2b35 02be
00000010: 0517 1dbe 9ee8 073e e132 0a3d 0e0b abbe
00000020: 2cd0 0dbd 568d 823e 66cf 363c 1bcd 0cbd
00000030: 08f7 fe3d 1e30 febd 82f3 0dbe 525c 11be
00000040: 4830 f4bd fd44 88bd 1fa4 163e 1824 cd3d
00000050: 0eaa 22bd 2657 8abd 572d 273e a533 603e
00000060: c8f5 06be 1c0b a5bd 3fa7 f73c ca7b 183d
00000070: b592 9a3d 2583 973d 6686 39be 4294 b3bd
00000080: b41a afbc 991e 22be 34a3 593d d331 53be
00000090: eae9 cfbd f5d9 ca3d d237 a8bd 5acc e13a
000000a0: d99a 823e db25 ef3c 3593 793e 2cb1 c0bd
000000b0: fd68 a23d 0054 073d 9603 a0bd 102c 00bd
000000c0: f96e eebd c5cd 31bd cf74 2e3e afa7 87be
000000d0: e886 bbbc db36 19be 97e0 793e f6f5 2dbe
000000e0: dfd3 71be 02b4 e3bc ac7f 36bd c6b8 66be
000000f0: a5de 3d3c be33 40bd ba35 7e3d ebe3 8bbd
00000100: 2401 c1bc 4978 52be d0f9 04bc 2fa7 5f3d
00000110: 4888 75bd 3fa4 65bd 04b0 b9bd c202 193e
00000120: 2491 20be a02b 6b3e 07e1 11be b5e6 efbc
00000130: 0900 43bd 615e 1e3e 3e1c 57bc 92d6 97bd
00000140: e794 273a 5d78 013e a7f0 46be 5330 cd3d
00000150: 60a6 68bd d085 083e 80ae a6bd 068c 263d
00000160: 55d7 773e db2b f13c 10fe 1e3d fe0e 1e3d
00000170: 7d6c 3cbe 6a34 0d3e 2832 6bbd bfde 89be
00000180: 4540 62bd 5ebc 01be 0f98 ed3d 84d1 4bbd
00000190: 7bcc 473e b813 873b de67 a7bd a7ff 9a3d
000001a0: bc69 4c3e 8fc2 f73c 0b93 f23d 2193 8d3c
000001b0: 51f4 39be 0a16 b8bc a492 a63c acca cdba
000001c0: 18ac 273d 3812 51bc 162b 423e 21b5 443d
000001d0: 967f 90bc a66d 243d fc83 2f3d 6bb0 0cbe
000001e0: c27e ac3a d9c8 d13d 962e 033d a0c5 b33c
000001f0: 3296 53be c6df 1ebc 5b4e 8dbd 5c78 27bd
00000200: 267e dd3d 438c c0bd 7aef 073c ca4a 6b3d
00000210: e3a7 333d 6e51 93bd 86f2 91bd 9005 e03d
00000220: 7cd0 20bd bd36 99bd bf25 8abd b2d1 333d
00000230: ba8d c1bb 14c5 643e 09f2 3a3e e105 e0bc
00000240: dd22 1abe 5230 3b3e 43f7 1bbe 2d3b c13d
00000250: e7b8 fe3c 2a94 de3d 938c afbd ec53 c0bc
00000260: 017a 92bc 0695 5abd 48a6 97bb f6ab 0a3d
00000270: e588 76bc 797b f73d c045 c73d 5b58 09be
00000280: 3b8d 943d 2e71 aabd 6c97 3b3d c9d3 4f3d
00000290: d065 9bbd 0cc2 223e 42b4 f3bd 8b2e c3bd
000002a0: 0900 093e 4dcd 2c3e 844c 5e3e ecee a1be
000002b0: 37fb d0bc be23 923c ad7a 1ebd 2985 383d
000002c0: 593a 78be 0761 853e 7697 963d 8744 10bd
000002d0: 6a20 27be ed8e 543e 95ec d03d 03cf 043d
000002e0: be85 f83d 4599 133e 8095 4f3d cf47 f2bd
000002f0: 031b 81bd 906d 993d 0649 5e3e d767 86be
00000300: 86ad 2e3e 9118 81bd 5e5c 0abd fe98 a43b
00000310: 73ea 333e 2869 e9bd 2dd6 1abc 9ed6 453e
00000320: f3c3 cc3c 79b3 d03d 15e9 bb3d beb4 1d3c
00000330: 4970 223e 43b7 53be 1d89 f7bd 56fb 05be
00000340: dc2b c0bd 1191 293e 7759 d8bd de11 16be
00000350: a770 f73d 87a4 d2bd 430d a93d 0241 b63c
00000360: 2322 84bd 4b73 2b3e 2c92 8dbd a7c7 a6ba
00000370: e680 09bd b6e9 6e3c ccd2 cbbc 00ee 14be
00000380: c8f6 8f3d ecd3 2fbd e9ef 2ebe 719c a33c
00000390: 1cf3 c4bd 35c7 e23d ebc3 b6bd bc0c 383e
000003a0: b49b 903c 6543 a93d 5570 5abe 3107 80bd
000003b0: 4f3f 9bbd 3019 a8bd f36e 873d 40d4 1fbe
000003c0: 0ed2 163d 917e 513e 70ad e73d 6708 a2bd
000003d0: 789b be3d 5016 23be e6f0 953d 1cc2 8a3e
000003e0: 0f35 313d 9463 1c3e 845e 823d 3e5f 75bc
000003f0: 78dc 073e f9b4 de3d c229 a23b 4854 8fbd

encoder.net.2.bias f4 [60]
0.030604787 0.023040043 0.031159937 -0.014176043 -0.02919457 0.021766122 -0.01207588 -0.030255625
0.03165662 -0.009146815 0.022259152 -0.031300772 -0.025089884 0.028875781 -0.03342613 0.022750193
-0.013972096 0.042907182 -0.036619127 0.032035142 -0.024020873 -0.023352057 -0.023358567 0.034817148
-0.018777678 0.030323362 0.02288402 0.027958266 0.0296777 0.025346683 -0.040433187 -0.03313529
-0.021095509 0.039694495 -0.022291606 0.03872219 -0.035443515 0.0213856 0.02552023 -0.01839191
0.022873484 -0.020459296 0.0031484775 -0.02478997 -0.04449993 -0.032132525 -0.023524504 -0.02010658
-0.0028180021 0.029107561 -0.0027137552 -0.015032877 0.022132738 0.004363153 -0.037335146 0.015411756
0.025377182 0.024904002 -0.032286394 0.024256164
00000000: e4b6 fa3c 79be bc3c 2043 ff3c a242 68bc
00000010: 7329 efbc de4e b23c e9d9 45bc a5da f7bc
00000020: 5faa 013d 86dc 15bc d358 b63c 3d35 00bd
00000030: 4d89 cdbc e78c ec3c d6e9 08bd 9d5e ba3c
00000040: 38eb 64bc 71bf 2f3d f0fd 15bd 4837 033d
00000050: 6cc7 c4bc d04c bfbc 775a bfbc 6d9c 0e3d
00000060: a5d3 99bc b368 f83c 4577 bb3c bc08 e53c
00000070: a61e f33c d9a3 cf3c 459d 25bd dfb8 07bd
00000080: 7dd0 acbc b296 223d e39c b6bc 299b 1e3d
00000090: 382d 11bd db30 af3c cd0f d13c a1aa 96bc
000000a0: 2c61 bb3c 419a a7bc b056 4e3b 5614 cbbc
000000b0: 8f45 36bd 659d 03bd 76b6 c0bc 8eb6 a4bc
000000c0: 3bae 38bb fb72 ee3c 42d9 31bb 754c 76bc
000000d0: b74f b53c c8f8 8e3b bdec 18bd 9781 7c3c
000000e0: cfe3 cf3c 7a03 cc3c bd3e 04bd ddb4 c63c

encoder.net.5.weight f4 [32, 60]
0.054470997 -0.141233 0.029579194 -0.10330834 0.14326215 0.22431926 -0.00646 -0.06808509
0.048615303 -0.18740363 0.07936189 -0.026404517 0.050313145 -0.10517892 -0.21697971 0.119895756
-0.022040829 -0.26141536 0.09341674 0.06013668 0.061200395 -0.051652282 0.18573412 0.2868368
-0.088891715 -0.06644974 0.15282798 0.047195494 -0.024395818 0.03168855 0.021312522 -0.12964246
-0.06981991 0.09115015 0.10657544 0.12987764 0.20129675 0.1172165 -0.08647076 -0.14524625
-0.04024037 0.06789407 -0.0064995363 -0.0026324685 0.010735295 0.20733812 0.10263884 -0.14811519
0.057868145 -0.11293353 0.047552623 0.16337138 -0.04949406 0.06871074 -0.08377251 0.12421142
0.020620925 0.091980636 0.06009459 0.27660957 0.17363523 -0.22063361 0.21684672 -0.11472113
0.18586491 0.014217876 0.04752745 -0.23741446 -0.09765648 -0.07811167 0.07592971 -0.050225783
-0.20284599 -0.11475484 -0.060079753 -0.11109617 -0.17720853 -0.0071773254 -0.011208267 -0.03546074
-0.21523482 -0.2880635 0.15638696 -0.08062935 -0.1435249 0.16708936 -0.16115695 0.08602885
-0.14826903 0.041799523 -0.13154832 0.0043184636 -0.011828271 0.17397754 -0.14351946 -0.050853368
0.16916852 0.019539883 0.012439719 0.31161812 0.32874852 0.099708766 -0.43250573 -0.009770342
-0.11722804 0.08715805 0.21763632 0.007869125 0.12699571 0.017570077 -0.119698346 -0.11107609
0.14587538 0.12805358 -0.038108636 0.09769638 0.14527276 -0.058014452 0.067059174 -0.040280145
-0.2692068 -0.34303752 0.044227745 -0.014928249 -0.010951046 -0.14867826 -0.081557706 -0.009255481
0.07879858 -0.047889095 -0.19639398 0.16654944 -0.01988007 0.1032422 0.014524424 -0.103816085
-0.2264377 -0.05541855 -0.048444215 -0.03701869 0.13125305 0.34779188 -0.09412662 -0.13203329
-0.051022723 0.07345855 -0.093955636 0.14541611 0.14643525 -0.0342127 -0.29823393 -0.09117843
0.14121768 0.16342142 0.16162813 -0.13594793 0.010129754 -0.045186594 0.060936604 0.28201503
-0.20060565 0.03718418 -0.1575111 0.13521759 0.0097777955 0.030490797 0.07730412 -0.046426624
0.06353898 -0.0932653 0.12880777 0.012845308 -0.36857548 0.25191033 -0.06881193 -0.18392457
-0.1439517 -0.10075262 0.08349118 0.0045342552 0.115105055 -0.073439516 -0.04858652 -0.016763266
0.20672429 -0.09720473 0.07301263 0.09405266 0.11453565 -0.014026377 0.02411923 -0.1058645
-0.14178666 0.07042187 -0.07466982 -0.063687034 -0.24339552 -0.041904226 -0.000984399 -0.13727672
-0.08150755 -0.23084536 -0.23727068 0.03455014 0.16858134 -0.09735993 -0.04342481 -0.18004712
0.26237428 0.13823433 -0.019757994 -0.11205164 0.014277803 -0.094580196 -0.10514388 -0.02339132
0.11788082 -0.061964944 0.05229395 0.016533438 0.04294676 -0.025765244 0.13004777 0.021387966
-0.14801829 -0.2849198 -0.019712003 0.048683275 0.07076398 -0.029344304 -0.18669924 -0.10062088
0.4136613 0.08896749 0.04385675 0.06036803 0.13967647 0.07358958 -0.05295556 -0.039119452
-0.111465484 -0.011533033 0.14157681 0.0355301 -0.080358796 0.05753934 -0.046694335 -0.20110887
-0.00035971397 -0.08739078 -0.043106765 0.059185375 0.0075701377 0.08354893 0.17155439 0.048619755
00000000: fb1c 5f3d 629f 10be 1150 f23c 5393 d3bd
00000010: 50b3 123e f3b3 653e 68ae d3bb 3270 8bbd
00000020: d720 473d bde6 3fbe 7d88 a23d 494e d8bc
00000030: 2815 4e3d 0c68 d7bd ee2f 5ebe e88b f53d
00000040: f88e b4bc 3cd8 85be 4751 bf3d e151 763d
00000050: 44ad 7a3d 5891 53bd 1631 3e3e 46dc 923e
00000060: dc0c b6bd cd16 88bd f07e 1c3e 1050 413d
00000070: bdd9 c7bc dacb 013d 9997 ae3c fec0 04be
00000080: befd 8ebd eeac ba3d 3944 da3d a5fe 043e
00000090: bc20 4e3e 340f f03d 9517 b1bd 6fbb 14be
000000a0: 16d3 24bd 0c0c 8b3d 10fa d4bb 7e85 2cbb
000000b0: 17e3 2f3c 7250 543e 5034 d23d 82ab 17be
000000c0: 2607 6d3d b249 e7bd 8ac6 423d d44a 273e
000000d0: 49ba 4abd 37b8 8c3d ec90 abbd 8f62 fe3d
000000e0: 37ed a83c 5860 bc3d bf25 763d c59f 8d3e
000000f0: 6fcd 313e c7ed 61be 110d 5e3e e9f2 eabd
00000100: 5f53 3e3e 18f2 683c 25ac 423d c71c 73be
00000110: 1f00 c8bd 03f9 9fbd 0981 9b3d 8db9 4dbd
00000120: dcb6 4fbe 9604 ebbd 3016 76bd 6486 e3bd
00000130: 2776 35be c52f ebbb e1a2 37bc 483f 11bd
00000140: 8466 5cbe 0f7d 93be e723 203e 0021 a5bd
00000150: 31f8 12be 7919 2b3e 5406 25be e52f b03d
00000160: d6d3 17be fa35 2b3d 9ab4 06be e681 8d3b
00000170: 5dcb 41bc 2b27 323e c4f6 12be 9f4b 50bd
00000180: 833a 2d3e 1b12 a03c f7cf 4b3c 698c 9f3e
00000190: ba51 a83e 1c34 cc3d 6471 ddbe c913 20bc
000001a0: 4115 f0bd eb7f b23d 0edc 5e3e 81ed 003c
000001b0: 2a0b 023e 1fef 8f3c 6824 f5bd dc7b e3bd
000001c0: 5b60 153e 7a20 033e cd17 1cbd 0a15 c83d
000001d0: 62c2 143e 90a0 6dbd 5256 893d cbfc 24bd
000001e0: 79d5 89be 9da2 afbe 2728 353d 9d95 74bc
000001f0: 046c 33bc 1d3f 18be ba07 a7bd 4da4 17bc
00000200: 2661 a13d 5b27 44bd 811b 49be f08b 2a3e
00000210: 87db a2bc a670 d33d daf7 6d3c 879d d4bd
00000220: 49df 67be 90fe 62bd 716d 46bd e9a0 17bd
00000230: 3367 063e c711 b23e 75c5 c0bd bc33 07be
00000240: 34fd 50bd 7071 963d d06b c0bd f6e7 143e
00000250: 1ff3 153e 9e22 0cbd 1eb2 98be c2bb babd
00000260: 5e9b 103e f257 273e d881 253e ef35 0bbe
00000270: 45f7 253c 9415 39bd a998 793d 4664 903e
00000280: 916b 4dbe 704e 183d 974a 21be 7b76 0a3e
00000290: 0c33 203c d6c7 f93c 9f51 9e3d d829 3ebd
000002a0: ba20 823d e101 bfbd 2fe6 033e 2075 523c
000002b0: edb5 bcbe 64fa 803e 45ed 8cbd b956 3cbe
000002c0: 1368 13be 6457 cebd 6cfd aa3d 1794 943b
000002d0: 33bc eb3d 7567 96bd a902 47bd 1e53 89bc
000002e0: 88af 533e 4613 c7bd a587 953d ae9e c03d
000002f0: ab91 ea3d e4ce 65bc b195 c53c 7dcf d8bd
00000300: 8630 11be 5739 903d 7eec 98bd 596e 82bd
00000310: ad3c 79be c4a3 2bbd f306 81ba 4592 0cbe
00000320: 6eed a6bd ba62 6cbe 16f7 72be 7384 0d3d
00000330: 96a0 2c3e a564 c7bd 37de 31bd 465e 38be
00000340: ec55 863e 4d8d 0d3e 84db a1bc 557b e5bd
00000350: 72ed 693c 43b3 c1bd ad55 d7bd 279f bfbc
00000360: 806b f13d f4ce 7dbd 2e32 563d 2271 873c
00000370: f1e8 2f3d a211 d3bc 3e2b 053e d135 af3c
00000380: 1b92 17be 02e1 91be 117b a1bc 1d68 473d
00000390: b5ec 903d 7763 f0bc 162e 3fbe 5212 cebd
000003a0: 6acb d33e 9634 b63d 23a3 333d 7844 773d
000003b0: 5907 0f3e 22b6 963d eee7 58bd b83b 20bd
000003c0: 0448 e4bd 0cf5 3cbc 83f9 103e 0388 113d
000003d0: 2793 a4bd 5fae 6b3d 8f42 3fbd 7cef 4dbe
000003e0: fe97 bcb9 f0f9 b2bd b890 30bd 5d6c 723d
000003f0: eb0e f83b b41b ab3d f4ab 2f3e 8225 473d

encoder.net.5.bias f4 [32]
0.023884306 0.037631635 -0.027315792 0.036627263 0.037623174 0.09176729 -0.085404724 0.01960376
-0.05800366 -0.061699864 -0.02713214 0.053499807 -0.0152333435 0.008239325 0.035583578 -0.034760643
0.037564915 -0.033940624 -0.035871085 0.039821345 -0.0377549 0.03492887 -0.00044524245 0.02191442
0.024235535 -0.032651752 0.018685585 -0.03666082 -0.044574983 0.036617324 0.042412765 0.044545565
00000000: 05a9 c33c a123 1a3d 5ec5 dfbc 7806 163d
00000010: c21a 1a3d 7df0 bb3d ace8 aebd 1198 a03c
00000020: 3f95 6dbd ffb8 7cbd 3944 debc 9d22 5b3d
00000030: 4695 79bc 3cfe 063c 16c0 113d 2d61 0ebd
00000040: abdd 193d 5305 0bbd 8fed 12bd b51b 233d
00000050: e2a4 1abd 9311 0f3d 6e6f e9b9 df85 b33c
00000060: 9a89 c63c d8bd 05bd 8312 993c a829 16bd
00000070: 4294 36bd 0cfc 153d 02b9 2d3d 6975 363d

predictor.net.1.weight f4 [32, 32]
-0.2200074 0.06676291 -0.068953894 0.22642955 -0.11280673 -0.3023977 -0.3513922 -0.07615371
0.12538123 -0.42759898 -0.15628988 0.30596808 0.17964916 -0.025453882 0.13446273 0.05007707
-0.025978345 -0.06176434 -0.028880052 -0.1746406 -0.2577164 -0.21910931 -0.25379154 -0.04877834
0.18665026 -0.045540456 0.038612295 0.20390554 -0.1038854 -0.058401633 0.13944162 -0.11956633
0.33730102 0.23853834 -0.08728053 0.14843059 0.10061884 0.059897345 -0.072603405 0.11412349
-0.10463367 -0.09122707 -0.37939504 0.2922424 0.054088365 0.02809114 -0.119597785 -0.06921475
-0.12657732 -0.05566352 0.05584299 -0.3730188 -0.117735095 -0.098307624 0.22056188 -0.16778125
-0.15817708 0.0008416663 0.11484195 0.27762732 -0.12277674 0.08527485 0.24268562 -0.14653863
0.15836619 0.11368003 0.2085149 0.36542404 0.16725679 -0.41085783 -0.24888903 -0.2761164
0.12448207 -0.30131027 0.19823608 0.030435923 -0.35417888 0.16255122 0.09137982 -0.11734274
-0.05225581 -0.1437844 -0.2490875 -0.038713843 -0.030093031 0.37928128 0.19943537 -0.13176335
0.47893685 0.08501639 0.002960965 -0.054211047 0.065881416 0.033649553 0.18715581 -0.027867818
-0.26009038 -0.040370688 -0.12597783 -0.04867949 -0.19130212 -0.10374744 -0.025082879 0.1531021
0.09567708 -0.13063599 0.07706425 -0.062443595 0.10184842 0.31725144 -0.2626568 0.03559369
0.087436125 0.09071442 0.14260375 0.073216096 -0.20478003 0.1830664 0.071257316 0.050337873
-0.035427272 0.07498197 0.047647115 -0.23408192 0.033693556 -0.22836562 0.083565325 0.15218005
0.2200651 -0.11961135 0.3137983 0.14717185 -0.16265027 0.14121069 -0.020373713 0.052130736
0.1719557 -0.13622512 -0.015089354 0.28183085 0.21383744 0.2138906 0.13072987 -0.04079871
0.011289113 -0.26185632 0.17959313 -0.04196782 0.3106737 0.09543298 -0.029037798 0.005474679
0.09177488 -0.015281949 0.051071607 -0.010472586 -0.23142795 0.2707702 -0.18627495 0.10839416
-0.02197064 0.16914575 0.14990842 -0.14430459 -0.2684533 -0.2391441 0.05893555 -0.059353795
0.37037 0.0074760998 -0.19330582 -0.41131714 0.007049416 -0.11079939 0.09898111 -0.2500105
-0.0387893 -0.3191022 0.0741391 -0.1356554 -0.2745548 -0.21901678 0.08886495 -0.09733914
-0.09959904 -0.13331257 0.0011600317 -0.14225985 -0.13742216 -0.19726574 -0.07012779 -0.004560044
-0.16928165 0.2522987 -0.21199623 -0.31354025 -0.06909682 -0.15546924 -0.21194269 0.04281805
0.09888769 0.35279286 -0.15059265 -0.10393975 -0.1126121 -0.08976454 0.25998783 -0.18601006
0.057251602 -0.13948697 -0.020966887 -0.069709435 0.05140355 -0.12074021 0.37690678 0.091115385
0.0054552266 -0.13311394 -0.035877433 -0.16904901 -0.25376323 0.2874498 0.24607211 0.24984019
0.15268628 -0.01884811 0.01220992 -0.26979676 -0.12664963 -0.13948445 0.17476012 -0.013002828
-0.043266363 0.17807062 -0.041135002 -0.26221958 0.3146978 -0.15505692 -0.14978121 0.21993132
-0.38366628 -0.06894238 0.24316579 -0.024949944 0.24634483 -0.16827534 -0.28994605 -0.07571932
-0.023548592 0.32088396 0.0017764774 -0.07525644 0.03001681 -0.11249686 -0.16663025 0.19819584
00000000: 9f49 61be feba 883d b337 8dbd 26dd 673e
00000010: 3707 e7bd dfd3 9abe aee9 b3be 7af6 9bbd
00000020: f063 003e 41ee dabe 740a 20be d9a7 9c3e
00000030: f3f5 373e a984 d0bc 99b0 093e 9d1d 4d3d
00000040: 8ad0 d4bc 9bfc 7cbd dc95 ecbc fcd4 32be
00000050: 67f3 83be 315e 60be f7f0 81be cccb 47bd
00000060: 3f21 3f3e a188 3abd ed27 1e3d 9dcc 503e
00000070: dec1 d4bd 8d36 6fbd c9c9 0e3e 31df f4bd
00000080: b8b2 ac3e 6543 743e 22c0 b2bd 30fe 173e
00000090: 4011 ce3d eb56 753d 18b1 94bd 94b9 e93d
000000a0: 2d4a d6bd 42d5 babd 1140 c2be cca0 953e
000000b0: c38b 5d3d 641f e63c afef f4bd 76c0 8dbd
000000c0: 7c9d 01be 6eff 63bd 9ebb 643d 52fc bebe
000000d0: 191f f1bd 8255 c9bd f9da 613e d9ce 2bbe
000000e0: 2cf9 21be 45a3 5c3a 4232 eb3d 2b25 8e3e
000000f0: 5f72 fbbd 95a4 ae3d 9482 783e 390e 16be
00000100: bf2a 223e 13d1 e83d ee84 553e dc18 bb3e
00000110: 5d45 2b3e f55b d2be c4dc 7ebe 215f 8dbe
00000120: 75f0 fe3d 5745 9abe 66fe 4a3e c254 f93c
00000130: ef56 b5be d473 263e 5825 bb3d 6451 f0bd
00000140: 300a 56bd 383c 13be cb10 7fbe 6892 1ebd
00000150: a985 f6bc 2831 c23e c938 4c3e f9ec 06be
00000160: 3637 f53e 131d ae3d c00c 423b 670c 5ebd
00000170: d6ec 863d 1dd4 093d c6a5 3f3e 0d4b e4bc
00000180: 912a 85be bc5b 25bd 5500 01be 2564 47bd
00000190: b4e4 43be 8a79 d4bd 9c7a cdbc ccc6 1c3e
000001a0: 58f2 c33d 71c5 05be ddd3 9d3d dbc4 7fbd
000001b0: e895 d03d c86e a23e f47a 86be b0ca 113d
000001c0: b611 b33d 7bc8 b93d b806 123e 52f2 953d
000001d0: dbb1 51be c275 3b3e 5bef 913d 162f 4e3d
000001e0: 301c 11bd 2690 993d 9f29 433d 2cb3 6fbe
000001f0: 4102 0a3d add8 69be 4c24 ab3d 16d5 1b3e
00000200: bf58 613e ccf6 f4bd 2caa a03e 38b4 163e
00000210: cb8d 26be 8999 103e c6e6 a6bc 0a87 553d
00000220: 2815 303e 997e 0bbe 5639 77bc 224c 903e
00000230: 34f8 5a3e 2306 5b3e 0dde 053e 8c1c 27bd
00000240: f9f5 383c 0812 86be 43e7 373e 73e6 2bbd
00000250: a010 9f3e 5e72 c33d ade0 edbc f064 b33b
00000260: 78f4 bb3d 2461 7abc 7630 513d 3695 2bbc
00000270: 73fb 6cbe 64a2 8a3e dcbe 3ebe c2fd dd3d
00000280: c6fb b3bc 8b34 2d3e 9881 193e 95c4 13be
00000290: b672 89be 31e2 74be 6766 713d f71c 73bd
000002a0: 23a1 bd3e 12fa f43b f6f1 45be 2998 d2be
000002b0: cafe e63b caea e2bd 9cb6 ca3d 6001 80be
000002c0: 87e1 1ebd 5d61 a3be 3ed6 973d 40e9 0abe
000002d0: 7292 8cbe ef45 60be d4fe b53d be59 c7bd
000002e0: 95fa cbbd 1783 08be 340c 983a 91ac 11be
000002f0: 65b8 0cbe 0800 4abe 299f 8fbd 6c6c 95bb
00000300: 2b58 2dbe 4c2d 813e 8a15 59be 5988 a0be
00000310: a282 8dbd 5433 1fbe 8107 59be fb61 2f3d
00000320: a185 ca3d 44a1 b43e f634 1abe 5dde d4bd
00000330: 2ca1 e6bd 79d6 b7bd 201d 853e 6c79 3ebe
00000340: a880 6a3d acd5 0ebe c0c2 abbc d2c3 8ebd
00000350: 878c 523d a546 f7bd edf9 c03e b49a ba3d
00000360: c2c1 b23b 054f 08be 37f4 12bd 2f1b 2dbe
00000370: 41ed 81be 9f2c 933e 54fa 7b3e 1bd6 7f3e
00000380: cb59 1c3e 5a67 9abc 1e0c 483c cd22 8abe
00000390: 71b0 01be 03d5 0ebe 51f4 323e d009 55bc
000003a0: 1238 31bd 2558 363e 2d7d 28bd a541 86be
000003b0: 1220 a13e 3ec7 1ebe 3f60 19be ad35 613e
000003c0: e86f c4be aa31 8dbd 7400 793e d363 ccbc
000003d0: d241 7c3e 5f50 2cbe cf73 94be bb12 9bbd
000003e0: fae8 c0bc e74a a43e b1d8 e83a 0c20 9abd
000003f0: d0e5 f53c c164 e6bd 1fa1 2abe daf3 4a3e

predictor.net.1.bias f4 [32]
-0.11086253 -0.13340907 -0.09974361 -0.09987191 0.106835894 -0.09784149 -0.1952181 -0.10476664
0.08884355 -0.10149265 -0.3501905 -0.13451721 -0.098417476 -0.11116362 0.09644948 0.09573688
0.098526314 -0.24901742 -0.22872058 -0.09883425 0.09632538 0.09691444 0.09388852 0.09469136
0.09776568 0.11875514 -0.12054685 0.10927142 0.04154029 -0.114373624 0.10818153 0.10197384
00000000: e50b e3bd 639c 08be 6146 ccbd a589 ccbd
00000010: c7cc da3d 1e61 c8bd 41e7 47be e48f d6bd
00000020: 9bf3 b53d 61db cfbd 2b4c b3be e1be 09be
00000030: 1a8f c9bd c1a9 e3bd 4e87 c53d b311 c43d
00000040: 2ac8 c93d 6cfe 7ebe ba35 6abe 9c69 cabd
00000050: 3e46 c53d 147b c63d a048 c03d 8bed c13d
00000060: 5f39 c83d e535 f33d 44e1 f6bd b2c9 df3d
00000070: 2726 2a3d b83c eabd 478e dd3d a9d7 d03d

predictor.net.3.weight f4 [1, 32]
-0.12183848 -0.13889898 -0.21679446 -0.3905757 0.17002906 -0.08415537 -0.17355746 -0.24864617
0.06791995 -0.44652635 -0.18863231 -0.14817007 -0.28024197 -0.33065033 0.27619967 0.4876855
0.2949834 -0.14452896 -0.14204067 -0.14050466 0.31336695 0.17556216 0.24142274 0.2563172
0.4042786 0.23767504 -0.122032546 0.095632955 0.018354205 -0.19471078 0.28505418 0.20923251
00000000: 7486 f9bd 893b 0ebe 5eff 5dbe 8af9 c7be
00000010: 191c 2e3e a759 acbd 0cb9 31be 1a9d 7ebe
00000020: 9d19 8b3d 1a9f e4be d428 41be e5b9 17be
00000030: e07b 8fbe 004b a9be 0b6a 8d3e eab1 f93e
00000040: 1008 973e 66ff 13be 1c73 11be 74e0 0fbe
00000050: a271 a03e 91c6 333e 8637 773e 023c 833e
00000060: 9bfd ce3e 1661 733e 33ec f9bd 36db c33d
00000070: 8f5b 963c 4362 47be 9ff2 913e 0c41 563e

net.0.weight f4 [60, 35]
0.09242406 -0.119836755 0.35930207 -0.04732552 -0.26749983 0.24177153 0.08019466 -0.08560463
0.047224615 0.039432816 0.16894618 -0.23759283 0.11780669 0.25035712 -0.1016659 0.073360085
0.17011076 -0.0106812725 -0.40375188 0.026993738 0.1366202 0.074996196 0.043752253 0.44593045
-0.0018837645 -0.050052613 0.06448775 0.084549665 0.23524183 0.100430205 0.0869899 -0.26732785
-0.17545877 -0.072373636 -0.106252305 0.10351817 -0.1057792 0.09824455 0.18060043 0.0814653
0.06537981 -0.04466396 -0.1054699 -0.28148705 0.039346706 -0.07492249 0.012745075 -0.047708023
-0.09845665 0.009260338 0.21008456 0.1759845 -0.20489696 0.17241861 0.0043691313 -0.13608399
0.067632355 0.06384857 -0.022698142 0.094621904 0.047256187 -0.12524098 0.0023598303 -0.040334016
-0.103263855 -0.06577526 -0.12880623 -0.12910643 -0.064277746 0.21004105 0.07440509 0.061472677
0.37345374 0.20797813 0.29359758 -0.1987992 0.07198802 -0.25792283 -0.12340072 -0.097394995
0.12187494 -0.24217926 0.039273713 0.15585193 0.08933365 0.04814651 -0.15873837 0.109759286
-0.12745309 -0.22399694 0.1347504 0.09396842 -0.13589229 0.109319314 0.033834394 -0.07104696
-0.058123913 0.1444499 0.091072164 0.07673269 0.05193197 0.22925824 0.047665756 -0.005878626
0.13379535 0.11244195 0.14957298 -0.2032448 -0.225807 0.05915091 -0.36843798 -0.0010356095
-0.09690707 -0.07808023 -0.014059018 -0.041917663 -0.034209736 0.017166018 -0.23884279 0.1308496
0.26750833 0.029222535 0.09995709 -0.09602384 0.06620362 0.21871433 0.12033979 0.04707715
0.06575006 0.18088332 -0.0010783331 -0.15416563 -0.33666593 0.052778948 -0.2364429 0.16292854
-0.35838002 -0.005711344 0.026064986 0.23641273 -0.023950439 0.19706655 0.1061602 -0.04248028
-0.09222145 0.06160298 -0.21256222 -0.11237258 0.043173607 0.035402674 0.35167006 -0.107221454
0.0573828 -0.06958183 -0.24639478 0.12789872 -0.08257556 0.23564276 0.018305026 -0.16329703
0.07842783 0.37118763 -0.035366897 -0.07632138 -0.016445495 -0.097014286 -0.008390327 0.23807532
-0.07469298 -0.14779976 -0.046779618 0.02370354 -0.029005537 0.06509081 -0.036691785 0.11834219
-0.052235592 0.13081814 -0.25576276 0.050948866 -0.13695163 0.24836762 0.046779104 0.056493744
-0.028579248 0.06225871 0.21485804 -0.23628908 0.00531786 0.049770985 -0.28947413 0.011522945
0.1665956 0.31513187 -0.08027831 0.16368154 0.04354361 0.0054263636 -0.15405771 -0.2049856
-0.061141316 0.10903532 -0.08784196 0.08882099 0.18513744 -0.105726756 0.20097703 0.1394128
-0.04234291 0.26819384 -0.25892505 -0.0606793 -0.048661657 -0.13128586 0.114891015 -0.06062963
0.0060839923 0.06403305 0.1430025 0.18378614 0.08086872 0.1589718 -0.087616906 -0.16492435
-0.12072344 -0.06172052 0.021358963 -0.07005423 -0.027221264 0.2735866 -0.26164585 -0.052760445
0.008054015 0.14516573 0.12607004 0.08628647 -0.34350738 0.0562955 0.12808539 0.105222665
0.15361607 0.096326366 -0.049364757 0.03215461 0.22018692 -0.20257452 -0.053840443 0.21241707
-0.0002520938 -0.08509214 -0.24474229 -0.107188165 0.055347525 0.14100856 -0.09889884 0.10814322
00000000: d348 bd3d f96c f5bd 71f6 b73e 68d8 41bd
00000010: bdf5 88be f592 773e 193d a43d 7b51 afbd
00000020: 996e 413d 4e84 213d 3a00 2d3e 894b 73be
00000030: a244 f13d cf2e 803e 3636 d0bd d03d 963d
00000040: 8431 2e3e 8100 2fbc 91b8 cebe f921 dd3c
00000050: 2ae6 0b3e 9b97 993d 9035 333d ff50 e43e
00000060: a6e8 f6ba f803 4dbd 2712 843d 6028 ad3d
00000070: 3ce3 703e 5aae cd3d c327 b23d 32df 88be
00000080: 77ab 33be a138 94bd cf9a d9bd 5601 d43d
00000090: c4a2 d8bd 7034 c93d 52ef 383e 47d7 a63d
000000a0: dae5 853d 8ef1 36bd 9a00 d8bd 121f 90be
000000b0: 032a 213d f670 99bd b8d0 503c 7d69 43bd
000000c0: a4a3 c9bd acb8 173c 6820 573e 4835 343e
000000d0: 82d0 51be 818e 303e ee2a 8f3b 9a59 0bbe
000000e0: d582 8a3d 0ac3 823d 74f1 b9bc 21c9 c13d
000000f0: b48f 413d 2c3f 00be 62a7 1a3b 4835 25bd
00000100: 007c d3bd 2eb5 86bd c8e5 03be 7a34 04be
00000110: 0da4 83bd 0015 573e b261 983d c6ca 7b3d
00000120: 5435 bf3e 38f8 543e 6c52 963e 0492 4bbe
00000130: 746e 933d 760e 84be 84b9 fcbd 0777 c7bd
00000140: 9299 f93d d7fd 77be 79dd 203d a697 1f3e
00000150: 90f4 b63d 4635 453d 508c 22be 7ac9 e03d
00000160: 1083 02be 745f 65be 02fc 093e 8472 c03d
00000170: 5927 0bbe cee2 df3d ef95 0a3d 1281 91bd
00000180: 5713 6ebd adea 133e 0b84 ba3d 0726 9d3d
00000190: 9eb6 543d acc2 6a3e 2b3d 433d 7da1 c0bb
000001a0: a601 093e f747 e63d a929 193e 681f 50be
000001b0: f339 67be 3948 723d e7a3 bcbe 4abd 87ba
000001c0: 3777 c6bd 87e8 9fbd cc57 66bc dbb1 2bbd
000001d0: 821f 0cbd c09f 8c3c 3493 74be 70fd 053e
000001e0: daf6 883e 1964 ef3c 4eb6 cc3d 26a8 c4bd
000001f0: c395 873d a6f6 5f3e b574 f63d f8d3 403d
00000200: f8a7 863d 7a39 393e db56 8dba 98dd 1dbe
00000210: 7a5f acbe bd2e 583d 161e 72be bdd6 263e
00000220: 967d b7be 3a26 bbbb 3d86 d53c 2e16 723e
00000230: b633 c4bc d0cb 493e 856a d93d cdff 2dbd
00000240: 99de bcbd 6853 7c3d e9a9 59be 9823 e6bd
00000250: cfd6 303d 6502 113d 190e b43e ec96 dbbd
00000260: 3a0a 6b3d eb80 8ebd ea4e 7cbe e2f7 023e
00000270: 601d a9bd 564c 713e 6cf4 953c 5637 27be
00000280: c59e a03d 4e0c be3e e1dc 10bd 624e 9cbd
00000290: b4b8 86bc 6daf c6bd 9577 09bc 04ca 733e
000002a0: a2f8 98bd d258 17be fc9b 3fbd ed2d c23c
000002b0: 059d edbc 554e 853d 204a 16bd 645d f23d
000002c0: fdf4 55bd 31f5 053e 56f3 82be c2af 503d
000002d0: 0c3d 0cbe 1554 7e3e 729b 3f3d fc65 673d
000002e0: 071f eabc fd02 7f3d bf03 5c3e c4f5 71be
000002f0: 7141 ae3b a9dc 4b3d f435 94be bcca 3c3c
00000300: 0998 2a3e f758 a13e f468 a4bd 229c 273e
00000310: c95a 323d a3cf b13b 4ec1 1dbe bfe7 51be
00000320: 516f 7abd e94d df3d 7ce6 b3bd c7e7 b53d
00000330: ab94 3d3e 4587 d8bd eccc 4d3e 3bc2 0e3e
00000340: c26f 2dbd b450 893e d391 84be dc8a 78bd
00000350: 7251 47bd cd6f 06be fb4b eb3d c656 78bd
00000360: 3a5c c73b c223 833d 3f6f 123e 6f32 3c3e
00000370: 809e a53d 81c9 223e 7e70 b3bd eee1 28be
00000380: da3d f7bd a8ce 7cbd fef8 ae3c 9878 8fbd
00000390: 21ff debc 8b13 8c3e 72f6 85be 561b 58bd
000003a0: fdf4 033c 53a6 143e 8118 013e f6b6 b03d
000003b0: 33e0 afbe 1c96 663d d128 033e fb7e d73d
000003c0: 884d 1d3e c246 c53d b332 4abd 8db4 033d
000003d0: ae78 613e b26f 4fbe cc87 5cbd dc83 593e
000003e0: 752b 84b9 ca44 aebd b99d 7abe 7885 dbbd
000003f0: 16b4 623d 8c64 103e 7a8b cabd 317a dd3d

net.0.bias f4 [60]
-0.12796669 0.011173466 -0.1349044 -0.024155544 -0.11864367 0.09424122 -0.10939967 0.13388029
0.122797914 -0.18725146 0.037974764 -0.09947594 -0.15683065 0.17333382 -0.06991383 0.19912648
0.03885417 0.11213094 -0.015339066 0.096733086 0.05122073 -0.07023624 0.030474912 -0.190809
0.11801722 0.0010996191 0.089737654 0.12004955 0.06285836 -0.09393478 -0.07987239 0.09456657
0.008070388 -0.008548236 -0.062334716 -0.07860136 -0.10093888 0.02700165 -0.007983112 -0.11436991
0.055466745 0.09378916 0.026573405 -0.046175826 0.16271889 0.031270254 0.07615198 -0.054029968
-0.06783637 -0.015940737 0.13112998 0.058150183 0.05552449 -0.02758141 -0.06524396 0.06654234
-0.15909784 -0.022989396 -0.06869295 0.02932167
00000000: b309 03be ea10 373c 6124 0abe d9e1 c5bc
00000010: 74fb f2bd 8a01 c13d ef0c e0bd ea17 093e
00000020: 797d fb3d d9be 3fbe 6d8b 1b3d 0bba cbbd
00000030: 3798 20be 6c7e 313e fb2e 8fbd d0e7 4b3e
00000040: 8d25 1f3d e8a4 e53d b550 7bbc ff1b c63d
00000050: d4cc 513d 05d8 8fbd 86a6 f93c 6f63 43be
00000060: 03b3 f13d 1821 903a 60c8 b73d 8adc f53d
00000070: e2bb 803d e160 c0bd 2394 a3bd 1eac c13d
00000080: a939 043c e70d 0cbc b052 7fbd c0f9 a0bd
00000090: 0bb9 cebd 9032 dd3c 99cb 02bc c53a eabd
000000a0: 1931 633d 8814 c03d 78b0 d93c dd22 3dbd
000000b0: c89f 263e 3d15 003d 92f5 9b3d 874e 5dbd
000000c0: cbed 8abd 2696 82bc f046 063e e32e 6e3d
000000d0: a66d 633d 69f2 e1bc a09e 85bd 5a47 883d
000000e0: 8bea 22be 4254 bcbc e4ae 8cbd 0034 f03c

net.2.weight f4 [60, 60]
0.019995078 -0.15597536 -0.033531573 -0.082041614 0.28431258 0.09001471 -0.16676582 0.046268437
-0.11781314 -0.08441946 0.20411137 -0.0022521932 0.11964497 -0.033125117 -0.057082277 -0.2894753
-0.039060675 0.092238724 -0.14975575 -0.00091455376 -0.019739633 0.009894578 0.14714053 -0.013238662
0.3061075 0.0074449694 0.018181803 -0.11729256 -0.07644529 0.09462057 0.13359906 -0.15207513
-0.24552175 -7.786673e-05 -0.099123605 0.27320468 -0.009238559 0.020966288 -0.09780807 -0.09475367
-0.035863638 -0.25577947 0.036857318 -0.19688262 -0.08578582 0.052090287 0.008884507 -0.11816404
-0.12279039 0.22300772 -0.025949193 0.0356787 0.06537279 0.17334566 -0.01942599 0.11559427
-0.16905452 -0.11293406 0.06603979 0.05801232 0.032533664 0.1275361 -0.024538895 0.04411751
0.13746123 -0.049303982 -0.015072311 -0.2892275 -0.1304803 0.0042761024 -0.12021853 -0.13294369
-0.15773652 -0.06416401 -0.014661709 0.022581859 0.29402015 0.0028753106 0.040510006 -0.0062204883
0.009803852 -0.0638266 -0.12241999 -0.013497674 0.053287845 0.0047172536 0.17831524 -0.03220684
-0.056762755 0.11643691 -0.06932715 -0.03364556 0.2844291 0.14488022 -0.05162231 -0.20607442
-0.1071284 -0.058256667 -0.048532818 -0.063985914 0.03436172 -0.18043415 -0.007436667 0.26372603
-0.09836248 0.09528785 0.0060710087 0.2092946 -0.12961596 0.24549139 0.03422205 0.04994
-0.10687873 0.07335659 -0.04696336 0.05268419 -0.15665849 0.15581134 0.08589612 -0.27556995
-0.22034465 -0.18078552 0.010616334 -0.13148457 -0.17989567 -0.19806068 -0.06716262 -0.25198954
-0.16414519 -0.021977646 0.08681715 -0.23938169 0.007899313 0.21367641 -0.2899 -0.2429379
-0.022963356 -0.037625026 0.18305059 -0.066922225 0.11576109 0.016382223 -0.05222421 0.035793193
0.02403439 0.2658736 -0.0971448 -0.0026099214 0.081659056 0.33043736 0.011961762 -0.10486089
-0.13467887 -0.15535462 -0.025825607 0.10059987 -0.014779031 -0.0398432 0.12881488 -0.0768063
-0.111788206 0.23123294 0.09254893 -0.16468838 0.021297324 0.34582686 0.2189606 0.07567402
0.17797358 -0.02675588 -0.110825494 -0.14332405 -0.076145895 -0.00014774612 -0.08181547 0.10554219
-0.031668585 0.07644712 0.061561268 -0.1350502 -0.09301187 -0.22991246 -0.19633713 0.17572424
0.1625821 -0.076719664 -0.10515327 0.1242952 0.013140826 -0.17298427 -0.05393771 0.08048452
0.15763187 0.029416604 -0.0799855 -0.19108348 0.11698974 0.11682292 -0.05211206 -0.01083137
0.019470775 0.05944848 -0.120317675 -0.01609209 0.015991477 0.22083177 0.07293268 0.08372085
0.21956745 -0.05518987 0.13112164 0.034257386 -0.23552445 -0.056168173 0.085736915 -0.2054464
0.16389932 -0.016759904 0.04306694 -0.04568042 0.12115763 -0.021947877 0.016865877 -0.019093601
-0.15115993 0.0017221251 0.19971867 0.16055946 -0.12665923 -0.22158125 -0.1466569 -0.17990007
0.08605847 -0.20678258 -0.0005493413 -0.08827524 -0.12720557 0.14297111 0.030370157 -0.0840249
0.12553059 -0.19783996 0.14992075 0.15330756 0.03521018 -0.13918829 0.20812252 -0.28326818
-0.036817722 0.16779871 -0.09771202 -0.085771136 -0.05978804 -0.054909673 -0.115296274 0.19010527
00000000: b8cc a33c 01b8 1fbe 6758 09bd 6f05 a8bd
00000010: 6b91 913e a259 b83d a9c4 2abe f983 3d3d
00000020: 0448 f1bd 1ce4 acbd 9202 513e 8899 13bb
00000030: 6c08 f53d 34ae 07bd 1bcf 69bd 1b36 94be
00000040: 16fe 1fbd a8e7 bc3d 9259 19be aabe 6fba
00000050: 03b5 a1bc de1c 223c 02ac 163e f9e6 58bc
00000060: 1fba 9c3e eef4 f33b 01f2 943c 1537 f0bd
00000070: 598f 9cbd 6ec8 c13d 31ce 083e 95b9 1bbe
00000080: 0e6a 7bbe 624c a3b8 5101 cbbd 7ce1 8b3e
00000090: 535d 17bc 7ec1 ab3c 994f c8bd 360e c2bd
000000a0: c0e5 12bd 87f5 82be b3f7 163d 999b 49be
000000b0: 7ab0 afbd a05c 553d 5390 113c fdff f1bd
000000c0: 8779 fbbd 235c 643e 6793 d4bc d423 123d
000000d0: 2be2 853d 8681 313e 4123 9fbc b0bc ec3d
000000e0: a11c 2dbe f949 e7bd df3f 873d 549e 6d3d
000000f0: 0542 053d d398 023e cb05 c9bc 90b4 343d
00000100: a3c2 0c3e f9f2 49bd dbf1 76bc a015 94be
00000110: a19c 05be 8c1e 8c3b 2235 f6bd 6422 08be
00000120: af85 21be 6c68 83bd aa37 70bc 97fd b83c
00000130: cf89 963e b56f 3c3b d2ed 253d 3dd5 cbbb
00000140: 56a0 203c 85b7 82bd 55b7 fabd 5925 5dbc
00000150: 5b44 5a3d 3193 9a3b 4598 363e 52eb 03bd
00000160: 1080 68bd 7a76 ee3d 65fb 8dbd edcf 09bd
00000170: b1a0 913e 7b5b 143e ea71 53bd 2c05 53be
00000180: 2266 dbbd 8b9e 6ebd 59ca 46bd 0c0b 83bd
00000190: e0be 0c3d bbc3 38be 49af f3bb 1907 873e
000001a0: 4572 c9bd 4726 c33d 50ef c63b 5351 563e
000001b0: 0cba 04be 1862 7b3e 6c2c 0c3d e38d 4c3d
000001c0: 3ce3 dabd fb3b 963d a75c 40bd 61cb 573d
000001d0: 156b 20be 028d 1f3e 4eea af3d 8117 8dbe
000001e0: 07a2 61be d71f 39be 22f0 2d3c e4a3 06be
000001f0: 9236 38be 6bd0 4abe 8e8c 89bd c604 81be
00000200: ad15 28be 770a b4bc 31cd b13d 7920 75be
00000210: 1f6c 013c fdcd 5a3e c66d 94be b6c4 78be
00000220: a61d bcbc b31c 1abd 9d71 3b3e 850e 89bd
00000230: 2614 ed3d 0334 863c 0ee9 55bd e29b 123d
00000240: c5e3 c43c 9620 883e daf3 c6bd 370b 2bbb
00000250: dd3c a73d 162f a93e 44fb 433c 4ec1 d6bd
00000260: 42e9 09be 4815 1fbe 3990 d3bc 4e07 ce3d
00000270: c023 72bc a032 23bd 0ce8 033e 9f4c 9dbd
00000280: 37f1 e4bd 54c8 6c3e 4b8a bd3d 12a4 28be
00000290: ba77 ae3c 3810 b13e 3537 603e fbfa 9a3d
000002a0: b53e 363e 262f dbbc 7af8 e2bd 8ac3 12be
000002b0: 61f2 9bbd 4cec 1ab9 de8e a7bd 8126 d83d
000002c0: ebb6 01bd 4f90 9c3d ab27 7c3d 9a4a 0abe
000002d0: 027d bebd 2c6e 6bbe 9a0c 49be 0ef1 333e
000002e0: ec7b 263e 331f 9dbd 995a d7bd 7b8e fe3d
000002f0: 9e4c 573c ca22 31be caed 5cbd 11d5 a43d
00000300: 406a 213e 17fb f03c 70cf a3bd 63ab 43be
00000310: 5198 ef3d db40 ef3d 7573 55bd 0f76 31bc
00000320: 2d81 9f3c 4080 733d 1d69 f6bd 8fd3 83bc
00000330: 8f00 833c b921 623e bb5d 953d d675 ab3d
00000340: 4ad6 603e c60e 62bd c044 063e 7951 0c3d
00000350: 522d 71be 9910 66bd d696 af3d 8b60 52be
00000360: 39d5 273e 114c 89bc f666 303d 641b 3bbd
00000370: 7e21 f83d 09cc b3bc 4f2a 8a3c 2f6a 9cbc
00000380: abc9 1abe eeb8 e13a 0d83 4c3e b369 243e
00000390: f5b2 01be 32e6 62be 3a2d 16be b937 38be
000003a0: 6c3f b03d d0be 53be ac01 10ba a6c9 b4bd
000003b0: 2d42 02be 0567 123e d6ca f83c 3f15 acbd
000003c0: 178b 003e 8f96 4abe d384 193e a8fc 1c3e
000003d0: 8d38 103d 6087 0ebe 121e 553e 8708 91be
000003e0: 2ece 16bd 6dd3 2b3e 3d1d c8bd c7a8 afbd
000003f0: 4ee4 74bd f7e8 60bd 7420 ecbd f5aa 423e

net.2.bias f4 [60]
-0.059368122 -0.09377653 0.09895298 -0.09531132 -0.05140006 -0.004451619 -0.07655015 0.02647421
0.060709693 0.0018032514 -0.079050675 -0.039532226 0.08567422 -0.009270993 -0.07159423 -0.01761507
0.010802307 0.001653991 0.023685314 0.1008037 0.021844376 -0.08857401 -0.047016613 -0.10183683
0.035567686 -0.10942087 -0.019978764 0.043972343 0.09203977 0.11658982 0.11301471 -0.09498303
0.008082345 0.026096513 -0.044813205 0.114431776 -0.10902886 -0.066117406 0.032002423 0.030880408
0.087468624 0.10073655 0.08104025 0.05944383 0.028172383 0.06904372 -0.04493509 -0.0437574
0.044612374 -0.069962375 -0.071958944 0.025431357 0.060442224 -0.010877639 0.014215527 -0.022220494
-0.09994937 -0.057994675 0.008992831 -0.027583078
00000000: fd2b 73bd e90d c0bd dca7 ca3d 9532 c3bd
00000010: df88 52bd e3de 91bb 53c6 9cbd 71e0 d83c
00000020: baaa 783d 145b ec3a 52e5 a1bd 8bec 21bd
00000030: f775 af3d 5de5 17bc ff9f 92bd 7b4d 90bc
00000040: 29fc 303c bbca d83a b407 c23c 2c72 ce3d
00000050: faf2 b23c 4a66 b5bd 7e94 40bd d48f d0bd
00000060: 6caf 113d 0d18 e0bd 81aa a3bc 581c 343d
00000070: 597f bc3d a5c6 ee3d 4274 e73d 7686 c2bd
00000080: d06b 043c 5bc8 d53c 0d8e 37bd 355b ea3d
00000090: 864a dfbd 9068 87bd f914 033d e9f8 fc3c
000000a0: c022 b33d f74e ce3d 6ef8 a53d 607b 733d
000000b0: c5c9 e63c cb66 8d3d db0d 38bd f63a 33bd
000000c0: 77bb 363d 6f48 8fbd 365f 93bd 6c55 d03c
000000d0: 4492 773d 2038 32bc 3ee8 683c c107 b6bc
000000e0: 41b2 ccbd d38b 6dbd ab56 133c e8f5 e1bc

net.5.weight f4 [1, 60]
-0.00792201 0.00071628403 0.09204898 -0.005082196 0.097345784 0.0445973 -0.09561502 0.007190899
-0.12457055 0.08601086 -0.18502174 -0.00069689075 0.040070985 -0.099052444 -0.12637787 -0.1390729
-0.13977225 0.03397141 0.12622815 0.423488 -0.1383663 0.049763042 -0.20230374 0.057848077
-0.11815847 0.14904116 -0.10900486 -0.058596127 -0.17169334 -0.29100782 -0.2027003 -0.25509518
-0.0012936739 -0.11972354 -0.09417653 0.1537716 -0.10321632 0.17786783 -0.119431965 0.24248369
-0.031829253 -0.007916884 0.12741503 0.13174196 0.013958436 -0.022106767 0.15179059 -0.003039116
-0.00011398382 0.0009928463 -0.28890797 0.044473168 -0.08515678 -0.0061200513 0.3057597 -0.32759878
-0.0018150335 0.0638881 -0.23063208 0.15978438
00000000: 51cb 01bc 02c5 3b3a 2d84 bc3d 8d88 a6bb
00000010: 3a5d c73d a9ab 363d cfd1 c3bd a2a1 eb3b
00000020: d81e ffbd 7626 b03d 5776 3dbe 8caf 36ba
00000030: 7921 243d 02dc cabd 3369 01be 2069 0ebe
00000040: 7520 0fbe 9b25 0b3d f441 013e 6bd3 d83e
00000050: e5af 0dbe 55d4 4b3d b628 4fbe 1bf2 6c3d
00000060: 11fd f1bd 3f9e 183e f13d dfbd 7e02 70bd
00000070: 61d0 2fbe fafe 94be ab90 4fbe d69b 82be
00000080: 7e90 a9ba 9e31 f5bd a0df c0bd 4d76 1d3e
00000090: 1463 d3bd fc22 363e bf98 f4bd a54d 783e
000000a0: 645f 02bd d1b5 01bc 1679 023e 5de7 063e
000000b0: edb1 643c 4019 b5bc fe6e 1b3e e82b 47bb
000000c0: 990a efb8 6522 823a bfeb 93be 7f29 363d
000000d0: ae66 aebd b68a c8bb 898c 9c3e 07bb a7be
000000e0: 6be6 edba c4d7 823d d12a 6cbe 849e 233e
