results of reviewer/XJTU results/1-1/Experiment1/model.pth (torch, 59838 bytes, 14 tensors)

encoder.net.0.weight f4 [60, 17]
00000000: 789d 9cbd c77f 923d c11f 7abe 3785 1ebc
00000010: f7f2 0dbe 58b3 30be 1bee 78be dd85 853e
00000020: d00f 13be 04e6 21bc 8334 bd3d 18b3 a33d
00000030: bc4f a1bd faa4 ccbe d51a 243d d4c8 50be
00000040: 3db5 3c3e b4fb a1be e35e f73c be0d 7bbd
00000050: 5ed6 65be 45e3 c03d 9101 b7be 447a d33d
00000060: bda3 e23d b3cb ef3b f0ab 343e db90 cdbd
00000070: dc78 253e f521 b7be 9b35 61be 2e6d 9cbd
00000080: 0d0d 353e 9d13 c1bd 5788 05be ee7b a9bd
00000090: 49ef 49be d5e4 7bbc f598 1a3e 1de1 c43d
000000a0: 2974 993d 953d cfbd df55 493e 7f1b 92bc
000000b0: 166d d5bd 1fdd 103c e2ce 0f3c 259a fbbd
000000c0: 1008 c03d 00e5 5b3d c92b 3f3e e319 753d
000000d0: c581 45be 7bf3 d2bd 2952 573d bd77 79bd
000000e0: d0fa 323e 62a0 72bd 982b 183d 7921 68be
000000f0: 4c4f 493d 54e4 0abc 23f9 09be 3eef 8dbe
00000100: 0b15 96be d6c1 01be f90d c9bd 4fb6 19be
00000110: 0a00 bebd dfe1 8ebd 642e 77bd 56ad 163e
00000120: 729c 2fbe ca4a 223e 91bf 4cbe 4db4 933e
00000130: 7b88 0c3e 5014 44be 2cf4 a0bd 96ce 8d3d
00000140: ef2d c93e 4eae 0a3e 5296 c8bd aa94 b4bd
00000150: 5926 563e 197a 763e 57b3 02be e7f1 913d
00000160: e76e 0bbe 2ada 2d3d 3e51 d23b 8deb 1f3e
00000170: 6c12 2ebe bd92 cfbd d1be 98bd 40d6 e93d
00000180: b4c7 70be 4247 103e c064 613e 8018 663d
00000190: c3ea 84be e6fd 893d 6d99 3e3e 9a72 cfbd
000001a0: 66f7 c5be 39d9 99bd 270e 9d3d e834 233e
000001b0: a240 86be 3861 27bd c2e1 993d 4dcf 8cbc
000001c0: af00 4a3d e535 023d 521a abbc a083 a13d
000001d0: b451 2a3d cbb3 0b3d 5d27 943e 74c1 483d
000001e0: bc5d 41bd 6409 663e 8886 f13c 5ece 003e
000001f0: 1f62 81be 6af0 c13d 47d4 a5be 40c2 313d
00000200: 57d5 03be 240c d83d 3723 dabd 8c93 7a3e
00000210: af49 54bd 356c d93e 6771 0dbd 2d95 833e
00000220: 7887 3dbd 8a71 a6bd 5406 28bd 9e0c ddbd
00000230: 7327 2fbe ae0b 9d3c 350a aebc f8d6 11be
00000240: 0cd3 183d 7671 4f3e 9229 9ebd 7fbf a0bd
00000250: f1b1 eabc 74ac ef3d 24e5 aebc cafd 69be
00000260: b373 d23d 0b19 43bd 5f74 bf3d 0c8c ad3d
00000270: 4bd6 0bbe ac3d 5d3d 7571 dcbd a9ef 53bd
00000280: c328 29bd 5654 853e 0c27 003e 4bfc 30bc
00000290: 353a 9d3d d893 68bd 1120 d3bd b4f5 aa3d
000002a0: c8dc 883d e9b6 a53d e85c bfbe b7a0 38b9
000002b0: 9ca9 fcbe 3d73 4b3d 6855 6a3e 2ba9 d03d
000002c0: 8331 e33d 6ab6 193e 5ea7 223d 8a68 98bc
000002d0: cb03 3a3e d7a7 4d3e 69a7 c1be ae14 bdbd
000002e0: 1bd0 75bc df0f bebd d59b 6fbe 5435 e13c
000002f0: 2700 a4be 58f4 ef3d 89fe 1abe 12a7 9b3d
00000300: 4c61 dabd 5f7c 203e f8e8 a1be ce2e 0fbd
00000310: 6c7e 15be 5517 15be f493 133e da26 c13c
00000320: 5cd9 dbbd 36e8 4c3d 324d 113e 1979 5abc
00000330: e8d5 aabc 900f 97bd a218 98bd 2b91 f93e
00000340: b88c 0dbe 0eb6 5d3e 25e4 5c3e 47da ea3d
00000350: d2e2 903d 5986 25bd 1b99 95bd d428 0abd
00000360: 8d4b d2bc 63bb 8e3d 26f9 7ebe a32c 903d
00000370: 8fb6 ddbd bd46 a13d 3e0f e8bd 5fee 8c3c
00000380: f6c3 523d 047a 61be d11e 19bb c8b3 d83b
00000390: e554 4d3d 7146 92bd cce2 0abe 84ea 9cbd
000003a0: 1d30 c63d c440 acbd a4e5 ebbb feaf ae3e
000003b0: 7e69 33bc 6f92 073e 4ea3 b9bd 562f 6c3e
000003c0: 4d69 0d3e d4f0 633e 185b 6e3d 5c3a 883b
000003d0: 0a28 2fbd e54a 69bd fa0e 17be 75a8 4cbd
000003e0: 7785 de3d ea6c 4b3d 7e0f 8abd cd48 7cbd
000003f0: 8263 a13e 3528 23be 3a3a 933e bf9c 183e
-0.07647222 0.07153278 -0.24426176 -0.009675316 -0.13862215 -0.17255914 -0.2430958 0.26078692
-0.143615 -0.0098815 0.092385314 0.07993144 -0.07876536 -0.39969617 0.04006465 -0.2038911
0.18428512 -0.31637347 0.030196613 -0.061292402 -0.22445056 0.09418348 -0.35743383 0.10326055
0.11066387 0.007317984 0.17643714 -0.100373946 0.16159385 -0.35768095 -0.21993105 -0.07638012
0.1768076 -0.09427569 -0.13040291 -0.08275591 -0.19720186 -0.015374382 0.15097411 0.096132495
0.07492859 -0.10119168 0.19661663 -0.017835377 -0.10421197 0.008841782 0.008777352 -0.1228526
0.09376538 0.05368519 0.18669046 0.05983914 -0.19287784 -0.103003465 0.05256859 -0.060905207
0.1747849 -0.059234984 0.03715095 -0.22669019 0.04914789 -0.008477289 -0.13473944 -0.2772159
-0.2931293 -0.12671599 -0.09817118 -0.15010951 -0.09277351 -0.06976675 -0.060346976 0.1471456
-0.17149523 0.15848842 -0.19994952 0.28848496 0.13723938 -0.19148374 -0.07859072 0.06924169
0.39292857 0.13543054 -0.09794296 -0.08817418 0.20913066 0.24070014 -0.12763725 0.07126217
-0.13616525 0.042444386 0.006418376 0.15617199 -0.16999215 -0.1013541 -0.0745827 0.11417818
-0.2351368 0.14089683 0.2201109 0.05617571 -0.2596036 0.067378804 0.18613215 -0.101292804
-0.38665313 -0.07512135 0.07668715 0.15938151 -0.26221186 -0.0408642 0.07513763 -0.017188692
0.04931706 0.03178968 -0.020886574 0.078864336 0.041581824 0.03410701 0.28936282 0.049012616
-0.047208533 0.2246452 0.029483095 0.12578723 -0.25270173 0.094696835 -0.32388517 0.04339814
-0.12874351 0.10549191 -0.10651248 0.24470347 -0.051828083 0.42465368 -0.034531977 0.2569975
-0.04627177 -0.081271246 -0.04102166 -0.10793422 -0.17104892 0.019170608 -0.021245101 -0.1424216
0.037310645 0.20258126 -0.07722773 -0.07849025 -0.028649302 0.11702815 -0.021349497 -0.22850719
0.10275974 -0.047631305 0.09348368 0.084739774 -0.13655965 0.054013893 -0.10763828 -0.05174223
-0.04129864 0.26040906 0.12514895 -0.010802339 0.07677118 -0.05678162 -0.103088506 0.083476454
0.06682736 0.08091528 -0.3737557 -0.00017607478 -0.49348152 0.049670447 0.22884142 0.10188516
0.11093428 0.15010992 0.039710395 -0.018604536 0.1816551 0.20083557 -0.37823036 -0.0923246
-0.0150032295 -0.09280371 -0.23399289 0.02749125 -0.32031366 0.11716527 -0.1513616 0.076002255
-0.10663089 0.15672444 -0.31623054 -0.034956746 -0.14599007 -0.14559682 0.14411908 0.023578096
-0.107348174 0.05002614 0.14189604 -0.013334536 -0.020853952 -0.07376015 -0.07426573 0.48743567
-0.13823211 0.2165148 0.21571405 0.11467414 0.070745125 -0.040411327 -0.07304593 -0.033730343
-0.025670791 0.06969335 -0.2489973 0.07039764 -0.10825836 0.078748204 -0.11331032 0.017203508
0.051456414 -0.22019202 -0.0023364315 0.0066132285 0.05012979 -0.07142342 -0.13563079 -0.07661918
0.09677146 -0.084107906 -0.007199006 0.34118646 -0.010950444 0.13239454 -0.09064351 0.23064932
0.138097 0.22259837 0.058192343 0.0041573476 -0.042762794 -0.05695619 -0.14751807 -0.04996534
0.108653 0.049664415 -0.06741236 -0.061592866 0.3152123 -0.15933307 0.2875536 0.14903544

encoder.net.0.bias f4 [60]
00000000: 4e7c 60bc 7caf bbbc 5c8d 273d a9db 8f3c
00000010: 9721 9fbc cabc 84bc 2d91 44bb 0d54 eebb
00000020: d536 973d d3e5 333c 5e6d ee3c 02f5 443b
00000030: 4d13 f2bc 2577 783d 89e9 343b 96dd eebc
00000040: 2b46 68bd d648 05bd cc12 773c 8eaa 05bd
00000050: fea2 213d 5a78 a0bc 1f5a 01bd 761f 1c3d
00000060: 1950 4bbc 6f3a 9fbd f4c6 a5bc fe64 10bd
00000070: b7b6 ea3c 34b8 123d aae3 cb3c f195 d53a
00000080: f61a 5bbc 1182 c03c facf b8bc 9985 e7bc
00000090: 7d7d 9d3d fc59 903c 4432 d53c bb74 4d3d
000000a0: b83f bdbc f05f 013d eedf 183d 4faa 893c
000000b0: 61b6 debc fc7b 64bc 1c33 b83c c8d9 3abd
000000c0: ed66 793d e41b c93d 5ece 5bbc 138e d43b
000000d0: 60b3 37bd 5c1b 5bbc 0743 8c3c 4a12 3ebc
000000e0: 3939 b83c a4de 07bd 5b89 dd3c 2bbc 54bc
-0.013701512 -0.022910826 0.040906295 0.017560797 -0.019425197 -0.016203303 -0.0029993758 -0.007273203
0.07383505 0.010980087 0.029104885 0.0030053263 -0.029550219 0.0606605 0.0027605018 -0.029158395
-0.056707542 -0.032540165 0.015080165 -0.032633357 0.039462082 -0.019588638 -0.031580087 0.03811594
-0.0124092335 -0.07774817 -0.02023647 -0.035252564 0.028651578 0.0358202 0.024888832 0.0016295296
-0.013373127 0.02349952 -0.022560108 -0.028261947 0.076899506 0.017621033 0.026024945 0.05016015
-0.023101673 0.031585634 0.03732293 0.016804842 -0.027186574 -0.013945576 0.022485308 -0.04561785
0.060889173 0.09819773 -0.013415901 0.006486663 -0.0448488 -0.013373222 0.017121805 -0.01160104
0.022488223 -0.03317131 0.027043035 -0.012984316

encoder.net.2.weight f4 [60, 60]
00000000: e8ea c4bc 7090 1f3e 1d14 46bd 74cc 8bbd
00000010: 1df7 b93c 1c87 043a 0d92 0dbe d72f 013e
00000020: ec8f 9b3c eae6 433d 7fd5 bcbd 4b8a b13c
00000030: ed17 d0bc b17e 653d 722e cdbc 91ad 063e
00000040: c410 eabd da3b 62be 8c6d 15be c0a9 aa3b
00000050: 82d1 133e 2b87 9fbc 9d24 f13c 51e1 283e
00000060: 9ae7 ab3d 4643 e4bd 48a4 20bd 0c4f 653c
00000070: 7293 6e3d cc03 e8bd 2eb4 293e b6f7 083e
00000080: 341a 093e 39ff 003e 1203 71be b0d0 513d
00000090: af5e 773b 25ba 38bb 748e fdbc 7970 513b
000000a0: 6b6b 4cbd 98d5 82bd 3fce 4c3e 5591 f03d
000000b0: cb60 13bd cc46 d2bd c4f2 28be 516f af3d
000000c0: d1f5 113c fe1f 35bd 5021 2b3d 5d7a 04be
000000d0: cec1 5bbe 335f b13d be5c 8ebe 8ee0 7fbd
000000e0: 418e 6e3c 1dc2 e33b 25c4 0cbe 9037 50bc
000000f0: de3c 263d 5ecd 9d3d 3621 573e e005 fdbd
00000100: c9a5 df3d 0591 5abe cf33 b5bd 9fc9 3b3d
00000110: 6fc9 83bd a46f 0a3e fd41 53bd 73b4 35bd
00000120: f51b 183d 01d1 b93b 8370 823d 11a6 f63c
00000130: 890f 6abc b09f 85bc 008f 1d3c e852 1f3d
00000140: dbba 15bd 268d b53d 1b60 4fbd ecd7 e8bd
00000150: 1725 4e3d 2a3c ac3d 2a65 e3bb f7e1 533d
00000160: 34d7 f0bd e5ba 2dbe 3c61 053e d373 d4bd
00000170: 6766 b73d 0e73 f73d 97db 00bd 8f84 2fbd
00000180: 0239 9f3c 80b4 5f3d 4ce5 8a3e c737 6fbd
00000190: f669 103d fb35 1e3e a69e 843e a128 c2bb
000001a0: e9ba 17be 88d6 a6bd 02ec 58be 43bb b53d
000001b0: 517b 40be 3803 933d bb47 a13c 035a 0abd
000001c0: bd5a 1c3e 45d6 353e 52f3 573e 79aa 71bd
000001d0: 7719 ce3d aaf7 f8bd ee5a 25be ec9b ee3d
000001e0: d7a1 583d 2d3f 58bd f584 d2bb e9cd 8abd
000001f0: dc44 64bd f32c 7c3e fd21 6a3c 2e37 c1bc
00000200: e958 6ebb 52e3 5ebd 4b83 453e 5516 2f3c
00000210: 98f8 8f3d 0d5c 1c3e 29af 4c3d 7a27 1cbd
00000220: fd35 32bc 8fe0 39bc 3108 be3d ed8c 643d
00000230: 7464 7dbe 0f74 8a3d bcfa ee3d 664c 963d
00000240: 380a 443e 859e d43d a9bf b5bd 15c1 55bd
00000250: a579 d73a c89b 8a3b e612 b13d ac95 f43d
00000260: 664e 05be 45be 0dbe b22b 493d c2a3 3bbe
00000270: 752f 33bd 7750 5a3e b976 a8bb 8d9f 27bd
00000280: 0f00 103e 37be e23d d349 ff3c eb73 8abe
00000290: 265d 313e 94ff 6ebd 7453 b73d 2c5d ae3d
000002a0: 3e89 dabd f369 523e 5dec 153d 1267 d03d
000002b0: b49a c13d dd61 5f3d 9262 033e 8d35 71bd
000002c0: a927 2c3e cc0e 4ebd a195 c7bc 3c4b 8bbe
000002d0: 905c 963d 25b8 83bd 780a 523d acd8 d3be
000002e0: b454 853c 9a55 2dbd 8369 83bd a59a 5d3d
000002f0: c712 cbbd 643c fdbc 498d d43d 63a9 d4bb
00000300: 40c6 433c 0ee3 8c3d e5f9 073d 22ee 7c3d
00000310: cafd debd a4b3 dcbd b5f9 b63d 833a 6c3e
00000320: a67d 30bd a436 a83d 3bde 863d 8f1e d03c
00000330: 2aa3 44be dc49 15bc 0e2b 8b3d fe89 25bc
00000340: 3fe7 80bd 8abd fd3c 75a2 963d 4a43 e13d
00000350: 6212 0dbe a812 2dbe 5ed0 453e 0220 be3e
00000360: de98 ab3d 0f5d c6bc 85cc 143e 49b9 8f3d
00000370: 43f3 62be 00cb 7abd 572e 1c3e ece2 9b3c
00000380: 0db2 57be 7c60 3bbe 1b53 c93d 48f0 b9bd
00000390: b83a 89be 6a99 6a3d 5ed2 ea3b 16d3 dc3d
000003a0: 4e23 383e 3d46 f73b d341 84bd 296e 7f3d
000003b0: db03 59be 3e92 ed3d cd72 ffbd 106d 363e
000003c0: 9248 10bd 12bf 963d 6d7a e93c de09 fc3c
000003d0: 49de 0dbd 71de 53be 38c2 a53d eee5 1d3e
000003e0: f8cc ccbc 1404 babd 85a9 54bd 4c70 773e
000003f0: 9032 d8bd 8f62 703c 27bb b6bd 7c5e 093e
-0.024037793 0.15582442 -0.048359025 -0.06826106 0.02270084 0.0005055533 -0.13825245 0.12615906
0.018989526 0.04782764 -0.09220409 0.021672389 -0.025402034 0.056029025 -0.02504656 0.13152148
-0.11428979 -0.22093144 -0.1459257 0.005208224 0.1443539 -0.019473633 0.029436404 0.16492201
0.08393784 -0.11145644 -0.03921917 0.013995897 0.058246084 -0.11328849 0.1657264 0.13375744
0.13388902 0.1259736 -0.23536327 0.05122441 0.0037745645 -0.0028187123 -0.030951716 0.0031957908
-0.04990713 -0.06388396 0.20000552 0.1174647 -0.03598098 -0.1026741 -0.16498858 0.08566154
0.008908705 -0.044219963 0.041779816 -0.12937303 -0.2146065 0.08660736 -0.27805132 -0.06247001
0.014560283 0.0069506303 -0.13746698 -0.01270856 0.04058539 0.07705186 0.21008763 -0.12354636
0.10920293 -0.21344383 -0.08847772 0.045846578 -0.06434905 0.1351915 -0.051576603 -0.044361543
0.037136037 0.005670667 0.06369116 0.030108484 -0.01428593 -0.016311496 0.009616613 0.038897425
-0.036555152 0.088648126 -0.050628763 -0.11369309 0.05032834 0.08409913 -0.00693955 0.05172917
-0.11759797 -0.16965826 0.13025373 -0.10373654 0.089550786 0.12082492 -0.031459417 -0.042851027
0.019436363 0.054615498 0.27128065 -0.058402803 0.035257302 0.1545028 0.2590229 -0.0059252535
-0.14817394 -0.08146387 -0.2118378 0.08873608 -0.18797041 0.07178348 0.019687524 -0.033777248
0.15268989 0.17757519 0.21088913 -0.059000466 0.10063451 -0.12156613 -0.16147968 0.116508335
0.052888718 -0.052794624 -0.006424541 -0.067775555 -0.055729732 0.24626522 0.01429033 -0.023585882
-0.0036368913 -0.05441601 0.19288366 0.010686477 0.07029837 0.1526949 0.049971733 -0.038123585
-0.01087713 -0.011345043 0.09278906 0.05579846 -0.24745351 0.06760418 0.116689175 0.073387906
0.19144523 0.10381798 -0.08874447 -0.05218609 0.0016439451 0.0042299964 0.08646183 0.1194261
-0.13018188 -0.13842113 0.049113937 -0.18324187 -0.04374643 0.21319757 -0.005141106 -0.040923644
0.14062522 0.11071437 0.031163132 -0.27041563 0.1732069 -0.058349207 0.08951464 0.08513865
-0.10670708 0.20548229 0.036602367 0.10175909 0.094533354 0.05453669 0.1283057 -0.05888896
0.16812004 -0.05030708 -0.02436334 -0.27205837 0.07341874 -0.06431607 0.051279515 -0.41376245
0.016275741 -0.042317964 -0.06416609 0.05410256 -0.09915691 -0.030912586 0.103785105 -0.006489919
0.011949122 0.06879245 0.033197302 0.06175054 -0.1088825 -0.10776451 0.089343466 0.23069195
-0.043088578 0.08213547 0.06585356 0.025405196 -0.19202867 -0.009111848 0.067953214 -0.010103701
-0.06294107 0.030974168 0.07355205 0.109991625 -0.13776544 -0.16901648 0.19317767 0.37133795
0.083787665 -0.024214296 0.14531143 0.07017762 -0.2216311 -0.061228752 0.15252052 0.019029103
-0.21064015 -0.18298525 0.09830304 -0.09079033 -0.2680261 0.057275213 0.007166191 0.10782449
0.17982218 0.007546215 -0.064578675 0.062360916 -0.21192877 0.11600159 -0.124730684 0.17815042
-0.03522546 0.073606625 0.02850076 0.030766424 -0.034635816 -0.20690323 0.08093685 0.15419742
-0.02500008 -0.09082809 -0.05191948 0.24163932 -0.10556519 0.014671936 -0.08922415 0.13414949

encoder.net.2.bias f4 [60]
00000000: f54f 50b9 af00 25bd 3df4 043d f86e 97bd
00000010: b280 98bc cbd3 183d aafe 503c 277b 91bc
00000020: aed8 a0bc 1d04 843c 1bd0 a4bc 224c c3bc
00000030: c958 f73c 8dd0 f6bc 343b 35bd 5478 0fbd
00000040: b9c6 bdbc dd02 b73c a1dd 7a3c 71f1 903c
00000050: d73d f4bc 6cfd a53c 8b68 d8bc 9933 e3bc
00000060: 4ec2 f33c 6ca1 22bd 498f 44bb 46e6 f6bc
00000070: 5571 203d 1eec 123d d6c9 ea3c 00aa 8a3c
00000080: 7b4a 84bc 81ac 8f3c fed8 5c3b 64e1 883c
00000090: 2f31 11bd 35e2 5ebd d5f3 a23b a062 9cbc
000000a0: 40f2 1d3d 715e 5d3c f685 d8bc a523 8cbd
000000b0: 611b d43c a0ff 0c3d c545 4b3c e43d f93c
000000c0: f841 e43c 7907 e4bc 5784 043d b5c1 e1bc
000000d0: 918f 9abc 6eb5 033d d5b9 94bc f4f6 12bd
000000e0: df3c d43c dddb c53c cd21 073d 338f e23c
-0.00019866212 -0.040283855 0.032459486 -0.073942125 -0.018616054 0.037311357 0.012756029 -0.017758919
-0.01963457 0.016115243 -0.020118764 -0.023840014 0.030193703 -0.030128742 -0.044245914 -0.035026863
-0.023166047 0.022340233 0.0153116295 0.017693253 -0.029814644 0.020262443 -0.026417037 -0.027734565
0.029755738 -0.039704725 -0.0029992631 -0.0301391 0.03917058 0.03586971 0.028660696 0.016926765
-0.016148796 0.017538311 0.0033698673 0.016709037 -0.035447296 -0.054414947 0.0049729147 -0.019089997
0.038561106 0.013511286 -0.026431065 -0.06842736 0.025891962 0.03442347 0.012406771 0.03042502
0.027863488 -0.027835594 0.03235277 -0.027558187 -0.018867286 0.032155447 -0.018155018 -0.035880044
0.025907932 0.02415269 0.03299122 0.027656173

encoder.net.5.weight f4 [32, 60]
00000000: 3b24 01be ef98 383e 829b d0bb 13ec acbc
00000010: fbf7 2dbd 74e5 693e 8930 d3bb 4301 aebc
00000020: 5683 c83d f076 263d 569f 6d3d 6732 0d3e
00000030: ddd3 d53d f63a 00be 722c 77be a7ca e23d
00000040: fc09 e63d 0893 20bc 92a0 863d 82ed 9d3e
00000050: 41fa b0bd f8f8 30be 1a98 16be 2fc7 ee3d
00000060: d5f0 04be 5414 89bd 0a37 9d3e 533a 7bbd
00000070: d0eb a6bd 15b3 4fbe 2e6d 94bd 650a aabc
00000080: b26c 343e f735 74bc 1459 42be 28e5 22be
00000090: e3ab a8bd 6727 febd f89f 62bd 3e59 f13d
000000a0: aa71 3a3c ddc0 083e f7da ac3c 7b95 1c3d
000000b0: 9af5 cbbb 9d08 2f3e d1a4 133e da45 b03d
000000c0: c2a8 ad3c 25bf ef3b 9b4b d8bd 5dc0 45bd
000000d0: d844 2ebd e18d 843e 211c 68bd 8e7f 453d
000000e0: d7d4 8f3d 273e 0abe d706 4abd bf8c 3a3e
000000f0: 317b 363d baee a73d 13ec 4c3d dba0 f23c
00000100: bcc2 ffbd 06bc 5ebe a91b 00be 2915 373c
00000110: 64c3 d7bd c110 11be 5f4f 15be 9196 f2bd
00000120: a1de a5bc 8be7 82be eaa0 80bd fbaf 0e3b
00000130: 570a a7bd b76d 1d3d a11a 01be 5430 e93e
00000140: 5195 d5bc c3cf 2d3d 3b08 563d 5921 753d
00000150: 9af4 04bc 991d d1bb b2ca 03bd 98e4 8b3d
00000160: 2e9c 8abc 6dcf 553d 7eeb a7bd 0847 b8be
00000170: 767b 133e ff57 fdbd ff32 12be 6858 52be
00000180: 47b9 303e 5a2a 29bc d9b9 643d 41fb 72bc
00000190: c74c cfbc 3270 87be c443 6b3e b18d 83bd
000001a0: d050 cf3d bf5c 3b3e d0e8 013e 4cc8 033d
000001b0: f58d 333e 12dd 13bd d93b c93c c24c 913e
000001c0: c7d7 cdbd 1c3e 50bd 280d f6bd 7d62 a8bd
000001d0: 0394 fcbc 34da 5abe ca83 8d3c 1fdb 8bbe
000001e0: 1d50 a2bc 0aeb a13d 52df c53d 09c4 163e
000001f0: 57d4 8e3c ff2d 19be de88 ee3d 8d33 81bb
00000200: f98e 963d bd45 b9bd 956f 3cbe 041a f9bc
00000210: 3e1a 70bd 1383 d6bd ae3d 8fbd 09af f2bd
00000220: 53c4 59bd b870 02be e37a b03d 4ac2 bfbb
00000230: 6527 60bd 71ca 713e e294 b0bc 80e8 3ebe
00000240: 67c7 d13c d910 473e ffd9 a83d 7275 a8bd
00000250: 18da b5bd edb3 213c 8def 8b3e a312 f63d
00000260: 2721 d63d 8f29 0bbc da01 53bd f5ea 1bbd
00000270: 6c76 42be 9b1e debd 5476 8bbd 6e55 d03d
00000280: 6e7c 45be 7f4b 86be cc1e 88bc aecb 143e
00000290: 9a70 01bd 466f 83be e473 973e 257d 733e
000002a0: 56dc d73d c12d debd d667 133e b90e eb3d
000002b0: 5a21 bc3d 7ba6 0a3e 1c5c d73d 3131 ddbd
000002c0: 924c f93d 8bf6 02bd 3da1 ca3b 0c51 abbe
000002d0: 6f5e cabd 5850 7bbc 6c6d 0ebd 34ab e9bd
000002e0: c9bb adbd b55d 0dbd 1ccb debd 9cd3 efbd
000002f0: a63a dcbd 5445 e0bd 5bc0 43bd b051 053e
00000300: 562a b53c 5462 e8bd 4f0b 8cbd bd8b b43a
00000310: 1ba2 d63d f634 a93c 654c d2bc 99f8 21bd
00000320: 4172 c33c b36d 6a3e 6e77 c8bc 010f 0f3c
00000330: a6ea 5cbe a8b6 a3bd e9c5 0dbe efac d03d
00000340: 2213 2d3b d7d9 84bd b978 fd3c f61c 023e
00000350: b5fe 7ebd cf38 613d 4668 343e 4d40 243b
00000360: 85a5 86bb c2c0 533d 3f09 99be 1cea 763d
00000370: 8823 89bd 9663 e43c ae57 bb3d 61ea 29bb
00000380: 8981 37be ea4d 2c3d 5006 1dbc fa50 93bd
00000390: ce10 2fbe 990c 773d a8dc a63d 4f43 cb3d
000003a0: 7562 6fbc 50d3 a13e 1186 abbd e85c a73c
000003b0: 7745 d13d 9706 4b3e e06d 1c3e 6f89 8fbd
000003c0: a57f 6d3e fbec ab3d e286 2f3e 2a33 363d
000003d0: f128 933c 8018 1c3d 4c2f 903c 371a 0e3e
000003e0: e1c3 8e3c 2a94 313e 0296 203e 4829 4dbe
000003f0: cb4b a83d 6ec4 94bc a550 e33d 946d 453d
-0.12611477 0.1802709 -0.006366194 -0.021108663 -0.04247282 0.22841436 -0.006444995 -0.021240836
0.09790675 0.04064077 0.058013283 0.13788758 0.104408 -0.12522492 -0.24138048 0.11073809
0.11232373 -0.00980068 0.06573595 0.30845267 -0.08641482 -0.17282474 -0.1470646 0.11659085
-0.12982495 -0.066933304 0.30706054 -0.06133492 -0.081504464 -0.20283158 -0.07247387 -0.02075691
0.17619589 -0.014905444 -0.18979293 -0.15907729 -0.0823591 -0.12409859 -0.05532834 0.117846
0.011379639 0.13354822 0.021100504 0.038228493 -0.0062243463 0.1709313 0.14418341 0.08607073
0.021198634 0.0073164874 -0.105612956 -0.048279155 -0.042546123 0.25889495 -0.05666745 0.04821735
0.07023018 -0.13500272 -0.04932293 0.18217753 0.04455108 0.0819983 0.050029825 0.029617717
-0.124883145 -0.21751413 -0.12510552 0.011174479 -0.10535315 -0.14166547 -0.14581059 -0.118451245
-0.02024776 -0.25567278 -0.06280692 0.0021772373 -0.08156269 0.03843471 -0.12607814 0.45544684
-0.026072176 0.042434465 0.052253943 0.059846256 -0.008114958 -0.006381702 -0.032175727 0.0683071
-0.016920175 0.05219977 -0.081992134 -0.35991693 0.14402565 -0.123702995 -0.14277266 -0.20541537
0.17258178 -0.010325039 0.0558413 -0.014830411 -0.025305165 -0.26452786 0.2297507 -0.0642351
0.10122836 0.18297099 0.12686467 0.03217344 0.17534621 -0.0360995 0.02456467 0.28378874
-0.10050922 -0.050840482 -0.12014228 -0.0822191 -0.030832296 -0.213723 0.017274756 -0.27315614
-0.019813592 0.07906158 0.096617356 0.14723219 0.017435236 -0.14958952 0.11647199 -0.003942913
0.073514886 -0.09046505 -0.1840194 -0.030407913 -0.058618777 -0.10474219 -0.06994186 -0.118497916
-0.053165745 -0.12738311 0.08617189 -0.0058520185 -0.05472507 0.23612382 -0.021555368 -0.18643379
0.025607778 0.1944002 0.082447045 -0.08225526 -0.08879489 0.009869558 0.273312 0.120152734
0.10455542 -0.008493795 -0.051515438 -0.03806587 -0.18990487 -0.10845681 -0.06809679 0.101725444
-0.19285747 -0.26229474 -0.016616248 0.14530823 -0.031601526 -0.25670832 0.29580605 0.23778208
0.105400726 -0.108485706 0.14395079 0.114774175 0.09186049 0.1354007 0.10515615 -0.10800398
0.12172808 -0.031973403 0.006183772 -0.3346027 -0.09881293 -0.01533898 -0.03477232 -0.114096075
-0.08483083 -0.034513194 -0.10878584 -0.11710283 -0.10753374 -0.10950723 -0.047790866 0.13019443
0.022114914 -0.113468796 -0.068380944 0.0013774555 0.10480138 0.020655137 -0.025671193 -0.03954372
0.023858191 0.2289341 -0.024471011 0.008731605 -0.21573886 -0.07993823 -0.13845028 0.101892345
0.002640911 -0.06486862 0.030941354 0.1270636 -0.062254626 0.054985818 0.17617902 0.002506274
-0.004109087 0.0516975 -0.29889867 0.060281858 -0.0669623 0.027879518 0.09147583 -0.0025927054
-0.17920507 0.042066492 -0.009584025 -0.071931794 -0.17096254 0.06031475 0.081475556 0.099249475
-0.014610876 0.3160653 -0.083751805 0.020430043 0.102183275 0.19826733 0.15276289 -0.07008635
0.23193224 0.0839481 0.17141297 0.044482388 0.017963858 0.038109303 0.017600678 0.13877188
0.017427387 0.17341676 0.15682223 -0.20035279 0.08217581 -0.018160071 0.11099366 0.048200205

encoder.net.5.bias f4 [32]
00000000: ebfe 17bd 9d56 18bd cf69 f4bc a237 1f3d
00000010: e33a f3bc 7209 2e3d 49d0 77bd b157 063d
00000020: 838e 31bd 4751 363d 4101 26bc c4aa 06bd
00000030: a58e 7fbd 5699 de3c 971c f3bc 92a5 1abd
00000040: 9d25 093d a321 3f3c fab7 373d 990e 4f3d
00000050: a4df c13c 4b95 0bbd f92c 273d a0e7 0cbd
00000060: cc7f dfbc 844c 653d 9b93 28bd ac90 bebd
00000070: d2e2 f93c c35f 52bd 71b3 9abb 3fac 5cbd
-0.037108343 -0.037191976 -0.02983561 0.038871415 -0.029691165 0.042489477 -0.06050137 0.032798473
-0.0433488 0.044511106 -0.010132135 -0.0328777 -0.062391896 0.027172726 -0.029676719 -0.037755556
0.033483136 0.011665734 0.044853188 0.05055103 0.02366621 -0.034077924 0.040814374 -0.034400582
-0.027282618 0.055981174 -0.041156393 -0.09304938 0.030503664 -0.051360857 -0.004721098 -0.053875204

predictor.net.1.weight f4 [32, 32]
00000000: 58b9 efbd 5736 20bd 1caa e63d f9e5 f2bc
00000010: a12c 26be bf7d 82bd aeb1 663e dc79 3d3e
00000020: 700f 2538 1428 1b3e cee4 983d a679 aa3e
00000030: 0323 16be b6fc 5d3d 4787 afbe b033 7b3e
00000040: c272 68be 2f64 af3d 035b d13c f0f1 e1bd
00000050: eae0 3cba 23c9 3bbd f294 babe 860f a43d
00000060: 43cb 863c 219b a1be b80b 733d 20b1 9c3e
00000070: b2f2 fd3e 322f 60be 0456 debd 9bcf d43d
00000080: abbf ce3c 9160 9e3e 1082 4fbe 024a 083d
00000090: f27d 82be 91af c8bc e785 773d ef08 c4bc
000000a0: e565 cfbe 4864 8dbe f4a3 173d cfa8 7ebb
000000b0: b4ff b13c 0982 4c3d 2059 a93d efcf b33d
000000c0: 5da8 7db9 be6d 113e ff1d c93d d2eb 963e
000000d0: 585b c43d 7124 393e 0d75 4fbd 7444 aebe
000000e0: 5a5c 533e a073 a43e 49da e9bd 5a31 f4bd
000000f0: 9308 adbe 1898 dabd ba84 643e 48f1 bb3d
00000100: e98c 32be 709e 703b 1114 7bbd bece 19bd
00000110: 78b2 35be 411d 93be e394 403e 1c9d 763e
00000120: d11d 6abe 1721 7fbe 908c a0bd 2b10 f6bd
00000130: 2ef5 0abd 0a6e 55be 9d75 34be 12c0 d73d
00000140: da0f 00be f82a 853e cc14 6fbe 5554 da3d
00000150: 7465 61bb c6a0 4c3c 5657 aebe 8583 863e
00000160: bb08 68be 220e 7a3e 1ad1 eebe 126c 853d
00000170: 6f08 8f3e 929f 0dbc a427 743e 4d02 58bd
00000180: 88ef a7be dafe a53d 7226 b73d 37eb 20be
00000190: 2131 6f3e 9689 683e 3f8d aebd 4f80 94bd
000001a0: 1e92 bbbe ac1f 9e3e a58b 32bd 41b5 1cbd
000001b0: 8dfe 703e cdad 15bb 64cc 1dbe 580b 2abe
000001c0: 5cfc 6abe 7bad f03a cf66 8bbe 8ac6 503e
000001d0: c7d6 463e 3777 15bd 221a 36bc 1df0 b83d
000001e0: c5d7 883e 1ede f73d 5c55 a3bd 1a85 af3d
000001f0: 1d14 3a3d 787a 363e bf46 d8bc 34df e63d
00000200: 1ace 7a3e 6878 5c3e 6922 16be b08d 053e
00000210: 6e68 4f3e ad12 fa3c 45a1 3ebd 68cb 5c3d
00000220: 0fba 0ebe cecf cf3b d777 b1be b4a0 4c3e
00000230: 0ef7 883e cd2e adbd d1ce 5f3e 2885 663e
00000240: ae3f 523e 9361 c43c 2630 be3e 6384 71bc
00000250: 3386 1cbc a8f1 d93c f5b4 38be 8b1b 1ebe
00000260: e29a 90bd 9b5e 97be 4d4d 12bd 271a 94bd
00000270: e41a 173e b9b2 2abe 227b 9c3d 8462 03bf
00000280: 859c 2bbe d44a e33e 68e0 973e 3d83 82be
00000290: 2762 7c3d 2080 693e b9e4 2b3d 10a4 88bc
000002a0: 6587 3cbe 7dcd 54be adeb 77be 433d 15bd
000002b0: 828e 01bd 7920 3bbe b356 05bd f14c 53be
000002c0: ea72 0b3a 7e89 ae3e aff7 a3bd 807a 86be
000002d0: c218 6fbe 153d 79be 4687 bfbd ea8e 0ebd
000002e0: 3190 13bc aa97 aebd e698 c2ba b84a 203d
000002f0: 5cea 183e 3d09 a9bc c25e ac3c a518 0a3d
00000300: 6ef7 913c 227a f03d 8d28 ca3d d6d0 d83d
00000310: abea 9c3e d4f8 5cbe c7fb 023e 2839 11be
00000320: 6a24 ed3e ab96 49be c704 6a3e 3f10 c3bd
00000330: 4d43 553d f83c adbd 0259 24be 46e2 0cbe
00000340: 4412 b93c c812 49be 6f75 d63c 5c4b f1bd
00000350: 484b 263b 7c74 a03d 464b 483d c864 89bd
00000360: f1fc 93be 4c3c 18be 876a dd3c bc25 1d3e
00000370: fae2 673d 3d8f 04be 3802 19bd 382a acbd
00000380: 06b8 f3bd 697c 833e 3eeb fdbd b5fe abbd
00000390: 29b1 683e 3c21 1cbd ffe4 1fbe d46c c9bc
000003a0: 5b23 4c3d 0410 483e 69b1 293d 7142 a6be
000003b0: bc62 843e 6fb5 dabe 5e61 d93d a160 08be
000003c0: a397 5abe f841 9abe 01d4 81bd 3157 2abd
000003d0: bc49 4f3d 034e ea3d b459 1b3e 1187 823d
000003e0: 53c1 edbd 3671 033e bd0c a6be c73d febd
000003f0: b52e 6dbe e83b 6a3d 1b8c 83be dc58 e8bd
-0.117052734 -0.039114323 0.112629145 -0.029650675 -0.16227962 -0.063716404 0.22528717 0.18503517
3.9353443e-05 0.15152007 0.07465516 0.33295935 -0.14661793 0.054196082 -0.34282896 0.24531436
-0.22700027 0.085640304 0.025556093 -0.11032474 -0.00072051457 -0.045846116 -0.3644176 0.08010773
0.016454345 -0.31563666 0.059337348 0.30603886 0.49599224 -0.21893004 -0.1085625 0.1039116
0.025237879 0.3093305 -0.20264459 0.033273704 -0.25486714 -0.02449778 0.060430434 -0.023930041
-0.40507427 -0.2761557 0.037021592 -0.0038857942 0.021728374 0.0499287 0.08268952 0.087798946
-0.0002419068 0.1420202 0.098201744 0.29476792 0.09587735 0.18080308 -0.050648738 -0.340366
0.20640698 0.32119465 -0.11418588 -0.119234756 -0.33795604 -0.10673541 0.22316256 0.0917688
-0.17436565 0.003671553 -0.061298434 -0.03755068 -0.17743862 -0.28733256 0.18806796 0.2408337
-0.22862937 -0.24914967 -0.0783931 -0.120148025 -0.033925228 -0.20842758 -0.17622991 0.105346814
-0.12506047 0.26009345 -0.23347777 0.10660616 -0.0034392746 0.012489503 -0.34051007 0.26272216
-0.2265958 0.24419454 -0.46643907 0.065147534 0.27936122 -0.008644002 0.23843247 -0.05273657
-0.32799935 0.0810525 0.0894288 -0.15714727 0.23358585 0.22708735 -0.08523034 -0.072510354
-0.36634916 0.3088354 -0.043590207 -0.038258795 0.23534603 -0.002283919 -0.1541 -0.1660589
-0.2294783 0.0018362248 -0.27226874 0.20388237 0.19417869 -0.036490645 -0.011114629 0.09030173
0.2672712 0.12102912 -0.079752654 0.08570309 0.045429338 0.17820156 -0.026400922 0.11273041
0.24492684 0.21530306 -0.14661564 0.1304233 0.2025468 0.030526483 -0.046540517 0.05390492
-0.13938163 0.006341911 -0.34661743 0.19983178 0.26750988 -0.08456192 0.21856238 0.22511733
0.20532104 0.023972308 0.3714611 -0.014741036 -0.00955348 0.026604488 -0.1803778 -0.15440194
-0.070607916 -0.29564366 -0.03571825 -0.07231551 0.14756352 -0.1666974 0.07640673 -0.513222
-0.16758926 0.44393027 0.29663396 -0.25490752 0.061617043 0.22802782 0.041966174 -0.016679794
-0.18411024 -0.20781513 -0.24210997 -0.036435377 -0.031630047 -0.18274106 -0.032553386 -0.2063482
0.0005319553 0.34089273 -0.08006226 -0.26265335 -0.23349288 -0.24339707 -0.09351973 -0.034804262
-0.009006546 -0.085250214 -0.0014846593 0.039133757 0.14933151 -0.020634288 0.021041278 0.03371491
0.017818179 0.11742045 0.09871016 0.10586707 0.30647787 -0.21579295 0.12791358 -0.1418196
0.46316844 -0.19686382 0.22853385 -0.09524583 0.052066136 -0.084588945 -0.16049579 -0.13758191
0.022591718 -0.1963607 0.026179044 -0.11781952 0.002537446 0.07834718 0.04889991 -0.067086756
-0.28903916 -0.14866751 0.027028335 0.15346426 0.056612946 -0.12945266 -0.03735563 -0.0840649
-0.11900334 0.25680855 -0.123983845 -0.08398191 0.22723831 -0.038117632 -0.15614699 -0.024588026
0.049838405 0.1953736 0.041428957 -0.32472566 0.25856578 -0.42716548 0.106142744 -0.13318111
-0.21346907 -0.30128455 -0.06339265 -0.04158706 0.050607428 0.11440661 0.15170938 0.06373418
-0.11609139 0.12836155 -0.32431594 -0.12414127 -0.23162349 0.057186037 -0.2569283 -0.113450736

predictor.net.1.bias f4 [32]
00000000: bdfe ac3d 9bd2 b1bd bb18 cbbd f0fa e5bd
00000010: 39e6 d6bd 9563 b43d e8cb dfbd 1111 b73d
00000020: ac89 dbbd e589 083e d1a3 273e 8e59 d9bd
00000030: 62f8 c23d 2bee e13d a851 f03d f7be d3bd
00000040: aa2c eebd 0d69 cdbd da2c e1bd fc1f cfbd
00000050: fbe6 c03d 6264 06be 1a12 c4bd 006d d43d
00000060: 9cf9 cabd 5717 f5bd 7438 e1bd 1d93 b9bd
00000070: 5aad d5bd 769d cd3d 89d7 e53d 69b1 093e
0.08447025 -0.08682748 -0.09916826 -0.11229503 -0.1049313 0.08808056 -0.10927564 0.08938802
-0.10719618 0.13333853 0.16371085 -0.10612784 0.095200315 0.11031755 0.11734325 -0.10339158
-0.11629613 -0.100298025 -0.10994883 -0.101135224 0.09419056 -0.1312423 -0.09573765 0.103723526
-0.099108905 -0.11967342 -0.10997096 -0.09061263 -0.10433455 0.10039799 0.11222751 0.13446583

predictor.net.3.weight f4 [1, 32]
00000000: e274 de3d 0f86 a0bd f35a 56be ffed 49be
00000010: 45bd 68be 11c5 013e 4d6d 15bf fd72 f53d
00000020: eea9 88be 0856 3e3e 8fed 123e 3eac 05bf
00000030: fc17 893e 10ef 9f3e fa38 863e 0df1 98be
00000040: 95cf 8ebd e8ac d0bc 86bd d8be 4049 63be
00000050: 3bb8 fc3e 3af3 edbc 53e8 abbe 9c3c d43e
00000060: 9695 02bf 90a5 50be 1d6a 57be 2706 04be
00000070: 332c bebe 4c34 263e cf37 4f3e b5bc b83d
0.108621374 -0.0783807 -0.20933132 -0.19719695 -0.2272845 0.12672831 -0.58369905 0.11984823
-0.26692146 0.18587506 0.14348434 -0.52215946 0.2677611 0.31237078 0.26215345 -0.29871407
-0.06973187 -0.025473073 -0.42332095 -0.22195911 0.49359307 -0.029046644 -0.33575687 0.4145249
-0.510095 -0.20375657 -0.21036573 -0.12892972 -0.37143096 0.16230887 0.20236133 0.09020368

net.0.weight f4 [60, 35]
00000000: 4760 5bbd bef6 863e 9ef9 ec3d b5fc 82be
00000010: 747e ab3d fb0f a5bd 5c88 00bd 40f6 34bd
00000020: 17fc 8b3c fb10 b9bc a2e8 c4bd 37b0 c5bd
00000030: f898 50bd d6e7 3ebe 87b9 c53c 280a ddbb
00000040: 59ae fabd 8af3 5abd aa2c 1f3e deda 9f3d
00000050: 1f75 4ebd 9716 10bc 647c e53d 8884 6b3e
00000060: c486 a2bd 26d3 8ebe cb0a e3bb 0352 c4bd
00000070: 9410 ca3c ce19 1abe 5404 e03b 65df 82bc
00000080: 386b 9fbb dd1e bf3d fc50 263e bcee 23be
00000090: 79e4 f6bd 42ac 3e3d f38b 043e 0002 653d
000000a0: 4dcf d93d 03df 2e3c 4883 913d a948 663c
000000b0: 72cd c53d 0951 c5bd 2694 0a3d 1511 163e
000000c0: a268 59bc 531f 8bbe d9d7 bd3d f16a 153e
000000d0: bc7b 143e e5c5 59bd 1400 9a3d ee2c b43d
000000e0: e521 4bbe 30f4 46bd a635 613d a326 2b3e
000000f0: 54d0 7b3d 47b3 cf3d 0bc2 33be 8ab8 27be
00000100: 45f5 9bbe fee9 3fbe 2ba2 e3bd e16c 3f3e
00000110: 048c 423d 1656 373c 82db 353d b161 ea3c
00000120: 469a 6abd 5609 bdbd e4a4 75be 933c 1f3b
00000130: b44c a93d f5b3 f03d 8eea 1cbe e9d0 f03b
00000140: dd84 5c3d cce4 673d 741c 263e 2e05 98bd
00000150: 322a bc3d b095 c93d 121e 923d 458f c6bc
00000160: 9602 093e bd24 5ebd 4e4c 9ebd a5e0 373e
00000170: 8f46 d13d 1cd6 06be 6b76 c43d 4b42 56be
00000180: 9184 84be d036 173e 8936 44be 9894 b9bd
00000190: 5d6b 2abd cc6b 8a3e 0997 14bd ea03 8b3e
000001a0: 27de a33e 6e3a 023e 6865 e7bd f92d 59bd
000001b0: 92e2 d13d 0675 8c3e 7f75 d4bc 5351 833d
000001c0: 833f 9c3c 82d3 5a3e 12f7 a3bd 7f04 61bd
000001d0: 9c74 eb3d 7b3b 273e eea1 82be 4dc4 373d
000001e0: f2e7 b93d e609 27ba f497 9c3d 69a1 b63e
000001f0: 3b59 ec3c 99e2 05be bdef a5bc 385f d73d
00000200: e3fb 12bd 4f84 aabc 350b 22be bac1 513d
00000210: 6e5e 073e 1b80 89bc 1089 22bd b187 3a3e
00000220: 8e2c 46be 3697 033e 2b3b 2abe 4890 d53b
00000230: 0ba4 eb3d 27d1 4fbe 2aa0 983b 0ee8 00bd
00000240: 5f99 21bd 44f2 563d 4429 813d f9cd 613d
00000250: 4675 bebd f3da 9d3e 98fc 0cbe a8c4 39bb
00000260: 1d36 3ebd 3ad5 63be 73c9 70be cbda 2cbe
00000270: 54f4 7bbd a061 97bd d360 b13e 28ad 6dbe
00000280: 6326 10bd d4b3 b2bd bf17 a63d c216 53be
00000290: 1755 1fbe 476b f43d 8198 1b3e e129 83bd
000002a0: e391 7cbd 6d5a c6bd 9937 8a3d f523 63bc
000002b0: 9222 9dbd f2c9 073d 072f 873d 7cc9 8ebd
000002c0: 6301 f6bd 559d f03d 3128 1cbe 0704 19be
000002d0: 5618 783d d0e6 febb f443 0f3e 6caa 06bc
000002e0: 991e 0b3e 013e 1d3d 563f f9bd 5785 e7bd
000002f0: 0a32 143e e70e e0bd 7327 503d e1ae 70be
00000300: a280 51bb cd9f aa3d 540e 32be 070f 633d
00000310: 6ec0 27be 8b33 ba3e 1fd8 94be 5b41 1dbe
00000320: a299 48bd c8f2 ee3d c529 af3d 6607 9c3d
00000330: 1753 03be 4f2c 09be a9c5 4fbe a155 e0bd
00000340: 1d30 e6ba 6521 603d 342b b33e 1b8f 03be
00000350: 1eac 813d 9ed1 05be 66ef c0bc d430 08be
00000360: d08a 1f3e 1d53 b83d 4a93 0f3e ee71 4e3e
00000370: fdee 09bd 8161 90bd 10d8 8fbd fddf 0e3e
00000380: 2a0c 51be 80e7 15bd 8923 98bd d834 cdbd
00000390: fa7e 27bc 496e 23bd d327 7a3d 9c35 013c
000003a0: 0825 b53e 21a4 32be 1345 9fbd 9e51 debd
000003b0: af09 003c 6d93 c6be 7d1e 32be 4ac3 04be
000003c0: 600d 653e 4db5 27be 40c5 edbd 704e 163c
000003d0: dd31 953c 5525 32be 5632 603e 99af 2a3e
000003e0: d136 65be b1fc 6ebd 476d 183e 13a7 063c
000003f0: 25bc 803d ab14 733d 8303 1fbd bb73 f23c
-0.053558614 0.26360124 0.11571048 -0.25583425 0.083737284 -0.08059689 -0.031380042 -0.044180155
0.01708798 -0.022591105 -0.09614684 -0.09652751 -0.050927132 -0.18643126 0.024136318 -0.0067455955
-0.122402854 -0.053454913 0.15544382 0.078054175 -0.050404664 -0.008794448 0.11205366 0.22999775
-0.07935861 -0.27895468 -0.006928777 -0.09585955 0.024666108 -0.15048906 0.0068364535 -0.015975663
-0.0048650764 0.093320586 0.1624183 -0.16009039 -0.120552965 0.046550997 0.12944011 0.05591011
0.106352426 0.010673287 0.07105118 0.0140554095 0.09658326 -0.09634597 0.03383269 0.14654954
-0.013269575 -0.27172336 0.09269685 0.14591576 0.14500326 -0.053167243 0.07519546 0.08797632
-0.19837148 -0.04857272 0.054982804 0.16713957 0.061477974 0.10141616 -0.1755449 -0.1637899
-0.30460563 -0.18741605 -0.111149155 0.18693878 0.04749681 0.011189958 0.044398792 0.028611036
-0.057276033 -0.09230296 -0.23988682 0.002429758 0.08266583 0.11753074 -0.1532385 0.007349123
0.053837646 0.056614682 0.16221792 -0.07422863 0.091877356 0.09843004 0.07134642 -0.024238238
0.13379893 -0.054234255 -0.07729398 0.17956789 0.10218536 -0.13167614 0.09592899 -0.20923726
-0.2588239 0.14767003 -0.19161429 -0.09061545 -0.041606296 0.27035367 -0.03627685 0.27151424
0.32005426 0.12717602 -0.112986386 -0.05302236 0.10248293 0.27433032 -0.025934933 0.06411996
0.019073253 0.21369746 -0.08006109 -0.05493593 0.11496851 0.16331284 -0.25514168 0.04486494
0.09077443 -0.00063720194 0.0764617 0.3567002 0.028851142 -0.13074721 -0.020255918 0.105162084
-0.03588475 -0.020815043 -0.15824588 0.051210143 0.13219616 -0.016784718 -0.039681494 0.18215825
-0.19352934 0.12850651 -0.16624133 0.006517444 0.11505898 -0.20294629 0.004657765 -0.031471305
-0.039452907 0.052477136 0.06306699 0.05512807 -0.09299712 0.30831107 -0.13768232 -0.0028345976
-0.046438325 -0.22249308 -0.23514347 -0.16880338 -0.061512306 -0.07391667 0.34644184 -0.23210585
-0.03519286 -0.08725706 0.08109998 -0.2061415 -0.15559803 0.11934524 0.15194894 -0.06404472
-0.061662566 -0.09685216 0.06748886 -0.013863553 -0.076726094 0.033151574 0.06600767 -0.06972024
-0.12011983 0.11748759 -0.15249707 -0.14942943 0.060570084 -0.00777898 0.13990766 -0.008219343
0.13585891 0.03838921 -0.121702835 -0.113047294 0.14472213 -0.109403424 0.05081887 -0.23504211
-0.003196754 0.08331261 -0.17388278 0.055434253 -0.16382 0.3636745 -0.29071137 -0.15356962
-0.04897464 0.116674006 0.08552889 0.07618599 -0.12824665 -0.13395809 -0.20290245 -0.109538324
-0.0017561946 0.054719348 0.349939 -0.12847559 0.06331657 -0.13068244 -0.023551654 -0.13299876
0.15580297 0.090002276 0.1402103 0.20160648 -0.033675183 -0.070498474 -0.070236325 0.13952632
-0.20414796 -0.03659773 -0.07428653 -0.10019845 -0.010223145 -0.039900098 0.061073136 0.007886317
0.35379815 -0.17445423 -0.07776847 -0.10855411 0.007814809 -0.38784352 -0.17394443 -0.12965122
0.22368383 -0.16377755 -0.11609888 0.009173974 0.018212253 -0.17397054 0.21894202 0.16668548
-0.22384192 -0.058346454 0.14885436 0.008218545 0.06285886 0.059345882 -0.03882171 0.0295962

net.0.bias f4 [60]
00000000: 8691 fabd dbfe 38bd 9b95 a1bd 6f00 c93d
00000010: 2e36 20be f898 853d 8d54 933c 9750 c8bc
00000020: 0467 023e 85f5 033e d4d3 bdbd 6128 893d
00000030: 8ccd 263e 375b 283c 76ef 003d a107 993a
00000040: 6328 0dbd 2084 afbd e567 ae3d 0a39 c3bd
00000050: b59d 723b 5429 c13c 7649 173e 846e adbd
00000060: 61da ae3d 2502 f3bd 8816 263e c637 9b3d
00000070: 022d 08be d6e4 e33d eadd 843d c611 b9bc
00000080: 6d8a ea3a 1fa9 cabd f30e 0b3e 89ab 1ebe
00000090: 943a 30bd 9e9e e5bd 86f1 ab3c 9dbf 943d
000000a0: 7789 fd3d 6e0b 553d ed27 c3bd 0d26 fbbd
000000b0: 2e47 fe3c 7ac7 713c aa0c bbbd e86d ddbd
000000c0: f78a 72bc 7840 a5bd 9d0a 343e 7e22 993d
000000d0: 138c 24bd fa73 e0bd 55fc 4a3b d26b c03c
000000e0: 0470 f9bd 420f 86bd 83a0 b9bd 61f6 6e3d
-0.12234788 -0.045164924 -0.07889863 0.09814536 -0.15645668 0.06523317 0.017984653 -0.02445249
0.1273461 0.12886627 -0.09268919 0.06697155 0.16289347 0.010275654 0.031478368 0.0011675247
-0.034462344 -0.08570123 0.0851591 -0.09532364 0.003702027 0.023579277 0.14774117 -0.08468345
0.08537746 -0.118656434 0.16219532 0.07578997 -0.13298419 0.11127631 0.06487639 -0.022591483
0.0017894037 -0.098955385 0.13579921 -0.15495123 -0.043024614 -0.112118945 0.02098919 0.0726311
0.12379735 0.052012853 -0.095290996 -0.12263117 0.0310398 0.014757032 -0.09133275 -0.108119786
-0.01480364 -0.08068937 0.17582174 0.07477282 -0.040172648 -0.10959621 0.0030973156 0.023488913
-0.121795684 -0.06545879 -0.09063818 0.058340434

net.2.weight f4 [60, 60]
00000000: c800 863e d752 87bd 796d ad3c 63ec 31be
00000010: 7a51 7b3d f57b 393d 642e 0abe 2204 6fb9
00000020: f49c 703e 9203 0dbd 6b7b a73d c4d3 59bc
00000030: b4ac a83d f514 74bc 5eb6 573e 8dd1 f1bd
00000040: 08c3 86bd fbda 2ab8 d533 333b 5ccb 90be
00000050: 5efc 3e3d 9c68 12be 635d 84bb 5593 05be
00000060: 5e2e 0abe c60c 9bbd 9e79 673e 6844 323e
00000070: 7cc4 cdbd 916b 72be 9c2f 5a3e a275 35bd
00000080: 843a 283e ae1b 06be 3a07 bfbc bb7f 6b3e
00000090: 8993 4abe f540 a63c 9991 6cbd ea8c 1b3e
000000a0: 008b c63d 128d 19bd a70c b23c 862e 1bbe
000000b0: 11a2 f7bb f088 043e 6588 053e 63e1 863d
000000c0: f0ad 363d 8f87 1abe efd5 42bd ea97 c53b
000000d0: 770b 16bd 143c 9e3d 7fb9 0c3e ca5e a93c
000000e0: 2072 4bbd e617 703c 985b 993d 9525 1fbd
000000f0: 034a 8a3c d64c 77bc cdf7 f9bd b4fb 683d
00000100: f13b 02bd 44eb 58bd f018 3f3e 5b0b f9bd
00000110: 0d43 c3bd 6cc4 87be e8b5 6ebc 2fde d6bd
00000120: 2987 043e 5120 063d c6f4 33be ec56 103d
00000130: 28ec a13d 50ae a33d 168f 6c3d 3f02 19bd
00000140: 8135 3a3c 56f1 883d ff67 0b3c af51 a83d
00000150: 4162 ffbd a119 533d c3d2 0dbe 2323 fbbd
00000160: bc62 d6bc cb29 3d3e 73f0 533d fa0f 4dbd
00000170: 04ec e7bd 3187 bfbc bed3 a2bd 8bdd 153e
00000180: 1894 81be 4ed0 0c3b db42 9b3d 4166 1fbe
00000190: 5b22 b3bd b876 963e 300a 27bd dde2 39be
000001a0: 0ca9 d3bc 610f 68bd 7abe fe3b 1f63 c4bc
000001b0: a756 313c 4a6b 043d e797 ee3b 0176 00be
000001c0: c690 dcbc fde3 dbbd a3e6 1fbe 52e4 f13d
000001d0: d189 203e 1b48 743e d514 c93b 6d20 993d
000001e0: 5e03 febd 09a8 883d c4e5 ea3d 7bce 71bd
000001f0: cd26 b43e 11de 773c f2d0 9e3d 373e 433e
00000200: ad51 df3c 73c0 9b3e 5ef8 3dbe 3e41 d0bd
00000210: 51b4 5ebd 5e1b 113e fdcb e93b d14f de3d
00000220: 8220 2dbd 19b1 35be 5c24 513e 0335 ce3d
00000230: 2725 7dbd bc86 14bd 24c3 09be 805f 353d
00000240: be13 09be 787e 19bd 081e 903d 8f2b e8bc
00000250: edcc 79be 983d a53d e307 d93d 289e 823e
00000260: 10e5 9ebc a117 f33b 6aed 963b 86e4 59be
00000270: 2bbc 48bd 0b11 2c3e d563 a6bd abb6 3abd
00000280: 59fb d63d e044 1bbe b2c0 0d3d b021 fe3d
00000290: da35 77bd cf0d 19bd f30d f83c 6856 503e
000002a0: 7070 2abe 57df 0ebe 7731 dbbd c199 c2bd
000002b0: 8984 5abd ce33 3d3d 2eef fb3b 303b 36be
000002c0: 34eb 24bd e8ec aabc 178b 32be e3cc 603e
000002d0: 6181 bb3d 1d74 003e fce5 5a3d fbaf dfbd
000002e0: 15f8 42bd 4a98 d83c cce4 04be 32bf 43be
000002f0: 2717 57bd a19b 253e 0586 063e 6611 303d
00000300: 03d9 c93d ad99 44bd 726d c73d 375c 30be
00000310: 7bff 48bd 5e40 ef3d fdce 623c 1a4a 0abe
00000320: a05b 02bd e8f5 87bb af5a 0fbe 9978 5cbd
00000330: fb35 b13d 7359 f03d 595f a9bc 9d16 ee3b
00000340: 7153 e1bd c431 3cbb 5e52 0a3e 5800 963d
00000350: c7b8 383d 748f d2bb 40ba e83d ae28 6fbd
00000360: c605 31be f8e7 0abe e31e e3bd 6a67 593c
00000370: 7900 f33c b068 13be a65b 713d 5c3b 243e
00000380: 1f2f 85bd 169f 69be 8076 f73b 014b f1bc
00000390: 30af 033d 212c 2abd 7f37 d9bd 9d9b f03d
000003a0: 7a27 34bd 6a45 403e 27c5 a4bb f106 303d
000003b0: 33a0 babd 7419 4dbe dc51 55bd 33b1 6abd
000003c0: cd9f 2ebe 4485 9fbd 6862 823d 1678 01bd
000003d0: e801 a6bd 42a7 a53c ff78 28be 4aea 803d
000003e0: df6c c2bd ab1c cfbd c683 0c3d 5166 78bd
000003f0: e95d a03d b332 e43d 1c5c e03d 6058 303d
0.2617247 -0.06607597 0.021170365 -0.1737533 0.061357 0.04528423 -0.13494259 -0.00022794356
0.23497373 -0.034427233 0.08177837 -0.013295118 0.082360655 -0.014897575 0.21065661 -0.11807547
-0.06580168 -4.07351e-05 0.0027344127 -0.2828015 0.046627395 -0.14297718 -0.004039453 -0.13044484
-0.1349425 -0.07570796 0.22604987 0.17408907 -0.10047242 -0.23673846 0.21307224 -0.044301637
0.16428572 -0.13096496 -0.023318876 0.22997944 -0.19782843 0.020294646 -0.05775604 0.15190473
0.09694481 -0.03748805 0.021734549 -0.15154466 -0.0075571616 0.12942863 0.13040312 0.06585958
0.044599473 -0.15090774 -0.047567304 0.0060300725 -0.036632027 0.07726303 0.13742636 0.020675082
-0.049669385 0.014654135 0.07488173 -0.0388542 0.016880995 -0.015094003 -0.122054674 0.056880668
-0.031795446 -0.05295874 0.18661857 -0.12160369 -0.09534273 -0.26517045 -0.014569737 -0.10491597
0.12942185 0.032745663 -0.17573842 0.035239145 0.07906371 0.07992232 0.057753645 -0.037355658
0.011365295 0.06686656 0.008508681 0.08218705 -0.12469912 0.051538114 -0.1384993 -0.12262561
-0.026170127 0.18472974 0.051742982 -0.050064065 -0.11324313 -0.023379894 -0.07950543 0.14635293
-0.253083 0.0021486464 0.07581111 -0.1556635 -0.08746787 0.2938745 -0.0407812 -0.18152948
-0.025837444 -0.05665529 0.0077741714 -0.023973046 0.010823882 0.03232888 0.0072812918 -0.12545015
-0.026924502 -0.10736845 -0.15615325 0.11811127 0.15677573 0.23855631 0.0061365166 0.07476888
-0.12402986 0.06672675 0.114696056 -0.059034806 0.35185853 0.015128628 0.07754697 0.19066702
0.027260626 0.30420265 -0.18551776 -0.10168694 -0.054371182 0.14170596 0.007134913 0.108550675
-0.04226733 -0.17743339 0.20424026 0.10068705 -0.06180301 -0.036261305 -0.13453346 0.04428053
-0.13386437 -0.037474126 0.07036978 -0.028341083 -0.24394579 0.08068389 0.105972074 0.2551129
-0.019396335 0.0074185883 0.0046059387 -0.21278581 -0.049007576 0.16803376 -0.0812451 -0.045584362
0.104971595 -0.15162992 0.034607597 0.12408769 -0.06035409 -0.037366685 0.030280089 0.20345461
-0.16644454 -0.13952385 -0.10702794 -0.095019825 -0.05334905 0.046191983 0.0076884245 -0.17796016
-0.04026337 -0.020864919 -0.17435871 0.21953158 0.091555364 0.12544294 0.053441986 -0.109222375
-0.04759987 0.026439805 -0.12977904 -0.19115904 -0.052512314 0.16172649 0.13137062 0.042985342
0.09855845 -0.04799812 0.09737672 -0.17222677 -0.04907177 0.11682199 0.013843295 -0.1350483
-0.03182566 -0.0041491874 -0.13999437 -0.05382595 0.08652874 0.11735811 -0.020675348 0.0072658793
-0.11002243 -0.0028716186 0.13507983 0.07324284 0.045098092 -0.0064257924 0.11363649 -0.058388405
-0.17287359 -0.13565052 -0.110898755 0.013269285 0.029663311 -0.14395404 0.058925293 0.16038269
-0.06503128 -0.22814593 0.007551968 -0.02945471 0.032149494 -0.04154599 -0.10606288 0.11748431
-0.04398296 0.1877648 -0.005028385 0.04297537 -0.09112587 -0.20029241 -0.05208002 -0.057297897
-0.17053147 -0.0778909 0.06366426 -0.031608663 -0.08105832 0.020221356 -0.16452406 0.06294687
-0.09493422 -0.1011289 0.034305356 -0.06064445 0.07830412 0.111424826 0.109550685 0.04305303

net.2.bias f4 [60]
00000000: 1256 cf3d d114 ddbb b20c 973d fce6 8dbc
00000010: b7c4 83bd e291 ab3b 03b0 bd39 882d 423d
00000020: 4a7f 333d a156 c33d 4707 923d 5b47 ec3d
00000030: 033f a43d 7eea ea3c 7050 c13d 9dcc 9b3d
00000040: 5865 533c 915c 7b3d 3b14 833b b0d5 86bd
00000050: c152 01be 06a9 923d 6bc1 bbbc 7899 d0bd
00000060: a755 abbd f673 e6bc 3e12 00be 899d c13d
00000070: 2b42 e83b 7fbf 4ebc 4a24 9b3d 88af 273d
00000080: 82fb b03d b659 6fbd 1433 2c3d 7772 c4bc
00000090: b4a9 c8bd 849f b0bd 20bc 0d3b 1b05 25bd
000000a0: bbda 023e 479e c5bd 904a 2fbc 452a cabc
000000b0: ded6 6c3d df77 613d 6700 143c 40ec e33d
000000c0: 74c9 ad3b 1e75 5bbc 825c 22bd 18bf 003e
000000d0: 0453 3b3d 8b45 9bbb 67b8 bf3d 72b3 2dbd
000000e0: 9f1f 803b 819a a63c 99aa cc3d 2317 90bd
0.101238385 -0.0067468663 0.07375468 -0.017322056 -0.06434005 0.0052358964 0.00036180028 0.047406703
0.043822564 0.095380075 0.07130294 0.115370475 0.08019831 0.028676268 0.0943917 0.07607386
0.01290258 0.061367575 0.0040002144 -0.065837264 -0.12629224 0.07161145 -0.022919377 -0.10185522
-0.08365946 -0.028131466 -0.12506959 0.094538756 0.007087966 -0.012618898 0.07575281 0.040938884
0.08641721 -0.058435164 0.0420409 -0.023980362 -0.09797993 -0.08624175 0.0021627024 -0.040288072
0.12778752 -0.0964933 -0.010698929 -0.024678359 0.0578221 0.05504596 0.009033299 0.111290455
0.005303556 -0.013394622 -0.039639004 0.12572896 0.045733467 -0.004738515 0.09361344 -0.04240746
0.0039100195 0.020337345 0.099934764 -0.07035663

net.5.weight f4 [1, 60]
00000000: 359b e13c 09e3 eb3d 62a0 cf3c efca 113e
00000010: ae6c 72bb afb5 3d3e 864f 843d 385b 31bd
00000020: 49d6 fe3d 9bd0 263d 18fe 9f3c e72a 5abb
00000030: 69f1 96bd 848d d83c 0192 bc3c 8e70 44be
00000040: 922c 473d cf37 4dbb 5f55 123d a961 053d
00000050: bb79 86bb e0b8 9fbc b436 8abe 9314 853d
00000060: 832a a43e 5e2c de3b 1fe7 f7bd f8db bebe
00000070: 93c7 c63c 08be 923c 0f4c 443e fd57 69bd
00000080: eae1 923e 4eca 11bc 05c5 6bbe ed7d dcbb
00000090: 1823 0b3b 13d2 0e3d 3ad6 f83c 5e2e 8f3e
000000a0: 0a6e 9bbd 7558 ed3d 6d03 31be 88e1 6abd
000000b0: a1dd d1bc ed32 413e 8cda 1cbe bdd3 35bb
000000c0: c3b4 68bb 6aff b6bd d1f9 6a3d ee8f 00bd
000000d0: 216f 0dbc 1c04 0ebb 366f 86be 33a0 0c3f
000000e0: 9711 ccbc 88f1 163e 67fd 8ebc 09a6 823c
0.027539829 0.11517913 0.025345031 0.1423757 -0.0036991048 0.18526338 0.064604804 -0.043299884
0.124432154 0.040726285 0.019530341 -0.0033289732 -0.07370264 0.026434667 0.023018839 -0.19183561
0.04862649 -0.0031313782 0.035725947 0.03256384 -0.004103867 -0.019497335 -0.2699486 0.06498065
0.32063684 0.0067801913 -0.1210463 -0.37277198 0.024265086 0.01791288 0.19169639 -0.056968678
0.28687984 -0.008898331 -0.23024376 -0.0067288787 0.0021230634 0.03486831 0.030375589 0.27965063
-0.07589348 0.115891375 -0.17286463 -0.05734399 -0.025618376 0.18867083 -0.15317744 -0.0027744614
-0.0035508133 -0.08935435 0.05736715 -0.031387262 -0.008632452 -0.002166993 -0.26256722 0.54931945
-0.024910731 0.14740574 -0.017454816 0.015948312
