results of reviewer/XJTU results/1-1/Experiment7/model.pth (torch, 59838 bytes, 14 tensors)

encoder.net.0.weight f4 [60, 17]
0	0x3e0c1b60	0.13682318
1	0x3e1525ec	0.14565247
2	0x3d9d77ea	0.076888874
3	0xbdd7beaf	-0.10534417
4	0xbe253b63	-0.16135935
5	0x3d90105b	0.070343696
6	0x3ce7bf11	0.02828935
7	0x3e067759	0.13131465
8	0xbd118f3a	-0.035536982
9	0xbe5f38a1	-0.21798946
10	0x3cfc9092	0.030830655
11	0x3d00c471	0.03143734
12	0xbd994d58	-0.07485455
13	0x3d7970b0	0.060898483
14	0x3db8737f	0.09006404
15	0xbd9f721c	-0.077854365
16	0x3d54616a	0.051850714
17	0xbe164c0d	-0.14677449
18	0x3de7e7ed	0.11323533
19	0xbd97f6a6	-0.07420091
20	0x3c8c9dff	0.017165182
21	0xbbcb34c8	-0.0062013604
22	0xbdf56beb	-0.11983474
23	0xbebacbe0	-0.3648367
24	0x3e2c6375	0.16834815
25	0x3e41763c	0.18892759
26	0x3d68ab1d	0.05680381
27	0xbd714184	-0.05890037
28	0x3e8391bf	0.25697133
29	0xbd2fdd68	-0.04293576
30	0xbcbd0ffb	-0.02307891
31	0xbe6aba2b	-0.2292258
32	0x3e4a419e	0.19751593
33	0xbdc958bd	-0.098313786
34	0xbe87541c	-0.26431358
35	0x3dd3f6c3	0.103498004
36	0xbd78a20a	-0.060701407
37	0xbdfe6539	-0.124216504
38	0xbbeff63e	-0.0073230555
39	0xbe542822	-0.20718434
40	0xbd89e19f	-0.06732487
41	0xbd7b9f0e	-0.061430983
42	0x3d187e18	0.037229627
43	0xbda3aabe	-0.07991551
44	0x3e673761	0.22579719
45	0xbce32750	-0.027728707
46	0x3d975e67	0.07391053
47	0x3e5bdc58	0.21470773
48	0xbcb0daf5	-0.021588782
49	0x3dd8a984	0.105792075
50	0x3dacc475	0.08435909
51	0xbd099c87	-0.03359654
52	0x3e99b78a	0.30022842
53	0xbd282cf1	-0.041058484
54	0x3dc99b93	0.098441266
55	0xbca1637a	-0.019700754
56	0xbdfd248a	-0.12360485
57	0xbeb88070	-0.3603549
58	0x3e199e28	0.15001738
59	0x3e18c84b	0.14920156
60	0xbdafa0dc	-0.08575603
61	0x3d344264	0.044008628
62	0x3e1fee61	0.15618278
63	0x3e060cd9	0.13090838
64	0xbe28fcb7	-0.16502653
65	0xbe84feaf	-0.25975558
66	0x3de72f8e	0.11288367
67	0xbd877958	-0.06614941
68	0xbeac9f2b	-0.33715186
69	0xbd39021f	-0.04516804
70	0xbd829dcb	-0.06377753
71	0xbe7f3ffa	-0.24926749
72	0x3dbac311	0.09119237
73	0xbc963bfb	-0.018339148
74	0x3d162760	0.036658645
75	0x3e19ba2e	0.15012428
76	0x3d0c7754	0.034293488
77	0xbe7a67d8	-0.24453676
78	0xbea12bbb	-0.31478676
79	0x3cf0dc7a	0.029402006
80	0xbd6f287d	-0.058388222
81	0xbcb6112b	-0.022224983
82	0xbe50f868	-0.2040726
83	0x3e9e3956	0.3090312
84	0xbe161e3d	-0.14659972
85	0x3e85c57d	0.26127234
86	0xbe6ac701	-0.22927476
87	0xbdead28d	-0.114659406
88	0xbe1a95a8	-0.15096152
89	0x3d59bfb3	0.053161334
90	0x3e830628	0.25590634
91	0x3e82c23d	0.25538817
92	0xbda567a5	-0.08076409
93	0xbdbfe0e3	-0.093690656
94	0x3d9e8cea	0.07741721
95	0xbd8d75e8	-0.069072545
96	0xbe871c62	-0.26388842
97	0x3db24f55	0.08706538
98	0xbe6f949d	-0.23396535
99	0x3c12124e	0.008915497
100	0x3edb3fc0	0.42822075
101	0x3cd973b8	0.026544437
102	0x3e9b17d4	0.30291617
103	0xbf00806b	-0.5019595
104	0xbdf19b1a	-0.117971614
105	0xbd69ebe4	-0.05710973
106	0xbc96c9e3	-0.018406814
107	0x3c687866	0.0141888615
108	0x3c822312	0.015885863
109	0x3dd97e71	0.1061982
110	0x3e1c375a	0.1525549
111	0x3d8108cf	0.06300508
112	0x3d1b1a1d	0.0378667
113	0x3d2be201	0.04196358
114	0x3e6708b9	0.22561921
115	0x3dd8a72d	0.10578761
116	0x3d801b97	0.06255262
117	0x3e18b4ed	0.14912768
118	0xbbc3109f	-0.005952909
119	0x3ce34553	0.027743017
120	0xbe8519a4	-0.25996125
121	0x3d56fbe1	0.052486304
122	0xbd84ad8c	-0.06478414
123	0x3d9ed9b4	0.07756367
124	0x3dd810d7	0.10550087
125	0x3c99d9fa	0.018780697
126	0x3df277a7	0.11839228
127	0xbe76ebd5	-0.241134
128	0x3e91054a	0.28324348
129	0x3ce754e9	0.02823873
130	0xbe0437ea	-0.12911955
131	0x3d387b31	0.04503936
132	0x3dd85ff5	0.10565177
133	0x3b982b17	0.0046438086
134	0x3c3e9a12	0.011633413
135	0x3e40761e	0.18795058
136	0xbd92625f	-0.07147669
137	0xbdbd3bc1	-0.09239913
138	0xbe8d0086	-0.27539462
139	0xbd3efec4	-0.046629682
140	0x3ce93242	0.028466348
141	0xbd97cc68	-0.07412034
142	0x3d3c153f	0.0459187
143	0x3a3f167a	0.0007289421
144	0x3be7b730	0.007071398
145	0xbf0a4897	-0.54017013
146	0xbe21c7bf	-0.15798853
147	0xbe73dde0	-0.23815107
148	0x3e1eb12b	0.15497272
149	0x3d832f17	0.06405466
150	0x3e65a568	0.22426379
151	0xbe1a192b	-0.15048663
152	0x3db66c52	0.08907379
153	0xbd992a39	-0.074787565
154	0xbe96d052	-0.2945581
155	0x3e285934	0.16440278
156	0x3d13e6e0	0.03610885
157	0x3c72c2b6	0.0148169305
158	0xbe760cfd	-0.24028392
159	0x3e6079b9	0.21921434
160	0x3de7c185	0.11316208
161	0x3e8b9114	0.27259123
162	0x3d138b26	0.036021374
163	0x3ed51434	0.41616976
164	0x3e438f9a	0.19097748
165	0xbeca4d2c	-0.39512002
166	0xbe08a988	-0.13345921
167	0x3e0fadeb	0.14031188
168	0xbe11b4c1	-0.14229108
169	0x3da62e0d	0.08114252
170	0x3d607aaf	0.0548045
171	0xbdbae3f9	-0.091255136
172	0x3dbc59a2	0.091967836
173	0xbb9372ec	-0.0044997837
174	0x3d9fbb48	0.07799393
175	0xbd315008	-0.043289214
176	0x3c6473bc	0.013943609
177	0xbb82a36b	-0.003986766
178	0x3d6e146f	0.058124956
179	0x3d5fbd5f	0.054623958
180	0xbe917960	-0.28412914
181	0xbbb6cb4e	-0.005578435
182	0x3cc85598	0.024454877
183	0xbdacc506	-0.08436017
184	0xbe561653	-0.20906954
185	0x3daca700	0.0843029
186	0x3cbe876b	0.023257932
187	0xbe0fe33d	-0.14051528
188	0xbe230021	-0.15918018
189	0x3bf6a3f4	0.007526869
190	0xbd952ae0	-0.072835684
191	0xbcb1d3ea	-0.021707494
192	0x3e3da950	0.18521619
193	0xbdf5221d	-0.11969397
194	0x3c6651d4	0.014057595
195	0x3e09ed2e	0.13469383
196	0xbea5fae9	-0.32417992
197	0xbda44724	-0.080213815
198	0x3e909765	0.28240505
199	0x3ebde82f	0.37091205
200	0x3d63a55f	0.055577632
201	0x3e239f0b	0.15978639
202	0x3d968e72	0.07351388
203	0x3dae4082	0.08508398
204	0x3ea152ff	0.31508633
205	0xbe0eee06	-0.13957986
206	0x3dba32b1	0.090917
207	0xbe4fd309	-0.20295347
208	0x3c446b4a	0.01198847
209	0xbe0de09e	-0.13855216
210	0xbe7a076a	-0.2441689
211	0xbde59780	-0.11210537
212	0xbeadb2e5	-0.33925548
213	0x3e134b3b	0.14384167
214	0xbdde4029	-0.10852081
215	0x3e2a46c6	0.1662856
216	0x3ce13e9c	0.027495675
217	0xba2a24f4	-0.0006490492
218	0x3d81715f	0.06320452
219	0x3e0728d2	0.13199165
220	0x3cf74304	0.030183323
221	0xbcc9fb34	-0.024655916
222	0xb9a37511	-0.00031177004
223	0xbe164918	-0.1467632
224	0x3eafc2fa	0.34328443
225	0x3bbbf962	0.005736516
226	0x3dfcd6d3	0.12345662
227	0xbb5f44bc	-0.0034068068
228	0xbd1b5e70	-0.03793186
229	0xbdbe1b2d	-0.09282527
230	0x3d747de3	0.059690367
231	0x3e4d73f9	0.20063771
232	0xbe407d12	-0.1879771
233	0x3def398a	0.116808966
234	0xbdaf073f	-0.08546304
235	0x3e5590bc	0.20855993
236	0xbdbeaf89	-0.093108244
237	0x3d32d9a4	0.04366459
238	0xbdb72599	-0.08942718
239	0xbe064f5d	-0.13116212
240	0x3e385570	0.18001342
241	0xbdba85f1	-0.091075785
242	0x3d1b1a0e	0.037866645
243	0x3d3e103e	0.04640221
244	0x3dbb09f6	0.09132759
245	0x3ceed911	0.02915624
246	0x3e718e6e	0.23589489
247	0x3deafe5e	0.11474298
248	0x3d96fc31	0.073723204
249	0x3e4619a0	0.19345713
250	0x3d88dbb3	0.06682529
251	0xbe0f998d	-0.14023419
252	0x3d81c25f	0.063359015
253	0xbe3344b3	-0.17506675
254	0xbd744881	-0.059639458
255	0xbd9f4306	-0.077764556

encoder.net.0.bias f4 [60]
0	0x3ce85af9	0.028363692
1	0xbbf05568	-0.0073344
2	0xbcc50c95	-0.024053851
3	0x3d080618	0.033208936
4	0x3cc2e0ca	0.023788828
5	0xbd0e8b77	-0.034800973
6	0xbc955328	-0.018228129
7	0x3c6fe75c	0.014642563
8	0x3d10ec0d	0.035381366
9	0x3d3d0a44	0.04615237
10	0xbd1931b5	-0.03740092
11	0xbcbecaec	-0.02329012
12	0x3cdbbb34	0.026822664
13	0xbcdc11d1	-0.026863964
14	0xbcfa45f4	-0.030550934
15	0x3d0a4bb4	0.033763602
16	0x3d0af7a8	0.03392759
17	0x3ca0314f	0.019554762
18	0x3c114113	0.008865613
19	0xbcf6bd21	-0.03011948
20	0xbcf9487b	-0.03043007
21	0x3c1555d1	0.0091146985
22	0x3bf5a9e7	0.0074970606
23	0x3ce40524	0.027834482
24	0xbd05d9ec	-0.03267853
25	0x3d45520b	0.048173945
26	0x3be011db	0.006838066
27	0xbcf49db7	-0.02986036
28	0xbb8af380	-0.0042404532
29	0xbd1dba4c	-0.038507745
30	0x3beb6897	0.007184099
31	0x3d00beae	0.031431846
32	0x3c858bbf	0.016301988
33	0xbcf05500	-0.029337406
34	0x3cc5482f	0.024082271
35	0xbce91e55	-0.028456846
36	0xbce9acba	-0.028524745
37	0x3c472b6d	0.01215635
38	0xbd0c0df3	-0.03419299
39	0xbce72b9d	-0.028219039
40	0x3cd0739b	0.02544575
41	0x3cf81e97	0.030288024
42	0x3ce6ecab	0.028189024
43	0x3d0226c5	0.031775255
44	0x3caa0a76	0.020756941
45	0xbcd9f6dd	-0.026606971
46	0x3d1749f8	0.036935776
47	0xbc426355	-0.011864503
48	0xbcff4cb4	-0.031164505
49	0x3cdcb40f	0.026941327
50	0xbcb54e73	-0.022132134
51	0x3c8bfe52	0.017089043
52	0xbd7fe1de	-0.062471263
53	0xbcf8e3c1	-0.030382039
54	0xbd359dee	-0.044340067
55	0x3d0bc2cb	0.034121316
56	0xbc560761	-0.013063283
57	0xbcd5e429	-0.026109772
58	0x3cc5fc00	0.024168015
59	0xbcfc7383	-0.030816799

encoder.net.2.weight f4 [60, 60]
0	0x3dcb8ee2	0.09939362
1	0xbd980476	-0.07422726
2	0x3d6665e7	0.056249525
3	0xbd502c57	-0.050823536
4	0x3dbc14ea	0.091836765
5	0x3e007d7d	0.1254787
6	0xbd1a8766	-0.037726782
7	0x3e3a9cca	0.18223873
8	0xbe319cda	-0.1734499
9	0x3e33ef41	0.17571737
10	0xbd14206a	-0.036163725
11	0x3d52409b	0.051331144
12	0xbdb4de9c	-0.08831522
13	0xbd4b1c70	-0.049587667
14	0xbd8a61d9	-0.06756944
15	0xbd380e6a	-0.04493562
16	0xbccb3bf2	-0.024808858
17	0x3c5cf968	0.013487197
18	0xbd6743b8	-0.056461066
19	0xbe2b1d44	-0.16710383
20	0xbd894ec5	-0.06704477
21	0x3e384cff	0.17998122
22	0xbb57a615	-0.003290539
23	0xbd9d52ab	-0.07681783
24	0x3d2fde3b	0.042936545
25	0xbdefde41	-0.117123134
26	0x3cd16d1b	0.02556472
27	0xbd3c48b1	-0.04596776
28	0xbe96d42d	-0.29458752
29	0xbed04d33	-0.40683898
30	0x3d4f9726	0.050681256
31	0xbdcb911c	-0.09939787
32	0x3d97ef6f	0.07418715
33	0x3cad9eb3	0.021193838
34	0xbc75b378	-0.014996402
35	0x3e422d4a	0.18962589
36	0xbe3b9571	-0.18318726
37	0x3d045250	0.03230506
38	0x3e13b59a	0.14424744
39	0xbd439edd	-0.047758926
40	0x3cb8017c	0.022461645
41	0x3e11e81a	0.14248696
42	0xbdd9b9d1	-0.10631145
43	0x3c8cca31	0.017186256
44	0x3de7d962	0.11320759
45	0x3cea7698	0.028621003
46	0xbe7f8e78	-0.24956691
47	0x3dfc6fd1	0.12326015
48	0xbd2e3199	-0.04252777
49	0x3dc9378d	0.098250486
50	0xbd5716ed	-0.052512098
51	0xbe8c44eb	-0.2739633
52	0x3de0a518	0.10968989
53	0xbc829ea5	-0.015944788
54	0x3e472c77	0.19450556
55	0x3b0e2028	0.0021686647
56	0xbad7fe33	-0.0016478956
57	0x3e4f89c6	0.202674
58	0xba91a321	-0.0011111238
59	0xbe67f468	-0.22651827
60	0x3a4f44d4	0.00079066795
61	0xbdfc9e0b	-0.12334832
62	0x3d94fce7	0.072748
63	0xbe0730f3	-0.13202266
64	0x3e6a2ab7	0.22867857
65	0x3dcf7ef2	0.10131635
66	0xbd9d8de5	-0.0769308
67	0x3d4b5406	0.049640678
68	0x3d415fac	0.04721038
69	0x3c1be303	0.009514573
70	0xbd9fadce	-0.077968225
71	0x3abc8def	0.0014385561
72	0x3dec82d7	0.11548393
73	0x39fbd666	0.0004803419
74	0x3e1588e1	0.14602996
75	0xbd7f4bc9	-0.062328134
76	0x3d8f3b10	0.06993687
77	0xbe0753d8	-0.13215578
78	0x3e90bee1	0.2827063
79	0x3d97194a	0.073778704
80	0x3cd4803b	0.025940051
81	0x3e6f8031	0.23388745
82	0xbe4aefdf	-0.19818066
83	0x3c40324b	0.011730741
84	0x3d18e1e6	0.03732481
85	0xbdd3870b	-0.10328492
86	0xbdc662ea	-0.09686835
87	0x3e1df183	0.1542416
88	0x3dd832e7	0.10556584
89	0xba94364a	-0.0011307683
90	0xbe244f7b	-0.16045944
91	0xbe799b70	-0.24375701
92	0xbe51665d	-0.20449205
93	0xbe00533c	-0.12531751
94	0x3e2ac733	0.16677551
95	0x3e6a1df3	0.22862987
96	0xbd29eafb	-0.04148386
97	0x3d2a3dc3	0.041562807
98	0x3da34175	0.07971469
99	0x3e342bff	0.17594908
100	0xbe0fb0ce	-0.1403229
101	0xbd6628f7	-0.05619141
102	0xbd82b158	-0.06381482
103	0xbdb612f4	-0.08890334
104	0xbbc9374a	-0.006140624
105	0x3d9a6866	0.07539444
106	0x3e6f3300	0.23359299
107	0xbd6e1b8c	-0.05813174
108	0x3b90c74d	0.0044182898
109	0xbb810425	-0.0039372616
110	0xbd41ed51	-0.047345463
111	0xbe06bddf	-0.13158368
112	0x3e33a6c7	0.1754409
113	0x3e1d75a0	0.15376902
114	0xbd7441cb	-0.059633058
115	0xbd0f7363	-0.03502215
116	0x3da083e3	0.078376554
117	0xbe83b9dc	-0.25727737
118	0x3d3e0fdf	0.046401855
119	0xbcde7e0f	-0.027159719
120	0xbcfb5def	-0.03068444
121	0xba847d25	-0.0010108097
122	0x3e031d68	0.12804186
123	0xbcf5cc88	-0.030004755
124	0xbe4dc60c	-0.2009508
125	0x3d6362b5	0.055514056
126	0x3d287dab	0.04113547
127	0xbe08a41a	-0.1334385
128	0xbd622001	-0.055206303
129	0x3df7358c	0.1207076
130	0x3ea7ba95	0.32759538
131	0x3cac3287	0.021020187
132	0xbca0e93a	-0.019642461
133	0x3e325609	0.17415632
134	0xbc58d18e	-0.0132335555
135	0x3e806642	0.25078017
136	0x3e2fd6b7	0.17171751
137	0xbdeef012	-0.116668835
138	0x3d4139eb	0.047174376
139	0xbe1be45a	-0.15223828
140	0xbd5f3182	-0.054490574
141	0xbdf364c8	-0.11884457
142	0xbdd4df7d	-0.103941895
143	0xbdc2aa2d	-0.09505115
144	0x3dc293b3	0.09500828
145	0xbdf0b445	-0.11753134
146	0x3c09a977	0.00840222
147	0x3e203301	0.15644456
148	0x3be22d73	0.0069023906
149	0xbcc49bac	-0.024000011
150	0x3c9c68eb	0.019092998
151	0xbdfcfb24	-0.12352589
152	0x3caf0c4f	0.021368174
153	0x3e678313	0.22608595
154	0xbb758e52	-0.0037468863
155	0x3dae1c16	0.08501451
156	0xbdabda51	-0.0839125
157	0x3e4b6da4	0.19866043
158	0xbd9a8431	-0.07544745
159	0x3e0def67	0.13860856
160	0xbe50a282	-0.20374492
161	0xbcc05337	-0.02347718
162	0xbd4057d9	-0.046958778
163	0xbd41f43d	-0.047352064
164	0xbe548a28	-0.20755827
165	0xbe0a39ef	-0.13498662
166	0x3d0e27bb	0.03470586
167	0xbbfd5df9	-0.0077321497
168	0x3e732ed2	0.2374833
169	0xbced830c	-0.028993152
170	0x3df79c9b	0.12090417
171	0xbd552334	-0.052035525
172	0x3dbd1053	0.09231629
173	0x3dae3d68	0.08507806
174	0xbdf4c48e	-0.11951552
175	0x3db0fc47	0.08641868
176	0x3b436f87	0.0029821114
177	0x3d856961	0.0651424
178	0xbe6f6798	-0.23379362
179	0x3eb67f45	0.35643974
180	0x3dddcf62	0.10830571
181	0x3d2406d7	0.040045585
182	0xbba003a7	-0.004883248
183	0xbd7c9f0e	-0.061675124
184	0xbdea67b5	-0.11445562
185	0xbde37898	-0.11106986
186	0xbd381bf4	-0.044948533
187	0x3e30e488	0.17274678
188	0x3c84d367	0.016214086
189	0x3d59a0bd	0.053131808
190	0x3da12e42	0.07870151
191	0x3e52e8f1	0.20596673
192	0x3d1782ff	0.036990162
193	0xbca17798	-0.019710347
194	0xbdfc0e1a	-0.12307377
195	0x3dc871bc	0.09787318
196	0xbc9cbca3	-0.019132918
197	0xbd84e928	-0.064897835
198	0xbdd6c0a1	-0.1048596
199	0xbdadd3d6	-0.0848767
200	0x3e0865f8	0.13320148
201	0x3dd0b96a	0.10191615
202	0xbd9e3c9d	-0.07726405
203	0x3cbc5e0b	0.022994062
204	0xba5bf196	-0.0008390186
205	0x3d996569	0.074900456
206	0x3ba80487	0.005127493
207	0x3ddfc01b	0.10925313
208	0xbe30bb5b	-0.1725897
209	0xbd1a3379	-0.037646744
210	0xbe335f29	-0.1751677
211	0x3de78a2e	0.113056526
212	0xbe0f3f00	-0.13988876
213	0xbd1881e0	-0.037233233
214	0x3d3eb22b	0.046556633
215	0x3e91ff96	0.2851531
216	0xbbb656a0	-0.0055645257
217	0xbdb0755c	-0.086161345
218	0x3d4169d6	0.047220074
219	0x3e12788b	0.14303796
220	0x3dde7d63	0.10863759
221	0x3d7912cd	0.060808945
222	0x3e239a81	0.15976907
223	0x3df0e4a5	0.117623605
224	0x3d277865	0.0408863
225	0x3e0e4e4e	0.13897058
226	0xbe803d3c	-0.25046718
227	0x3d66a740	0.056311846
228	0xbe625e01	-0.22106172
229	0x3e355664	0.17708737
230	0xbd846b38	-0.06465763
231	0xbe4bde3f	-0.19908999
232	0xbe5f4770	-0.21804595
233	0x3e0260ed	0.12732287
234	0xbdb5f0f8	-0.08883852
235	0x3dc5648b	0.09638318
236	0x3de39414	0.11112228
237	0x3d9ae824	0.075638086
238	0x3e110cfa	0.14165106
239	0x3d747a7f	0.059687134
240	0xbd0fa53c	-0.03506969
241	0xbe8ffe54	-0.28123724
242	0x3dbc6f3f	0.09200906
243	0x3e260369	0.16212238
244	0xbd6961c8	-0.056978017
245	0x3d1d5f8d	0.038421202
246	0xbd04bfc9	-0.032409463
247	0xbba290c9	-0.0049611074
248	0xbcc98947	-0.024601592
249	0xba0dd958	-0.000541111
250	0x3e4801b8	0.19531906
251	0xbe075635	-0.13216479
252	0x3d6ab68b	0.057302993
253	0xbe7345d0	-0.237571
254	0xbde2ba72	-0.11070718
255	0xbbaae3b8	-0.0052151345

encoder.net.2.bias f4 [60]
0	0x3b864161	0.0040971492
1	0x3cd8e080	0.026474237
2	0xbd3726b8	-0.04471466
3	0x3d48dd0e	0.04903894
4	0xbd0bf25e	-0.034166686
5	0xbd26b1d5	-0.040696938
6	0x3cfd0f2a	0.03089102
7	0xbcc8ece5	-0.024527023
8	0xbd03438a	-0.032046832
9	0xbd096c68	-0.03355065
10	0x3d768bb7	0.060191836
11	0xbce9107d	-0.028450245
12	0x3cabc9e8	0.0209703
13	0x3cfae001	0.030624392
14	0xbccf2b18	-0.025289103
15	0x3d284198	0.04107818
16	0xbcc105dc	-0.023562364
17	0xbcae71c7	-0.021294488
18	0x3d12461c	0.035711393
19	0xbcf55817	-0.029949231
20	0x3d0c4fc9	0.034255777
21	0xbd1245a1	-0.035710935
22	0xbc84cccf	-0.016210942
23	0xbcd89a67	-0.026440812
24	0xbd154c25	-0.03644957
25	0x3d1323c3	0.035922777
26	0x3cc6058c	0.024172567
27	0x3ce64e4c	0.028113507
28	0x3d07ce56	0.03315576
29	0xbcdb1ad8	-0.026746199
30	0x3cc951c5	0.024575124
31	0x3ca6f2df	0.020379482
32	0xbcb1efa0	-0.021720707
33	0xbcfa3c44	-0.030546315
34	0xbd0fdf7e	-0.035125248
35	0x3cf1333d	0.029443378
36	0xbcdd952d	-0.027048672
37	0x3ccbc25b	0.02487295
38	0xb8d2452d	-0.00010026465
39	0xbd15c528	-0.036564976
40	0x3cf61f2f	0.030044166
41	0xbd18b75f	-0.03728425
42	0x3cf0471b	0.02933078
43	0x3cf72b9a	0.030172158
44	0xbcec9523	-0.028879708
45	0xbcff4274	-0.031159617
46	0x3d0bd18c	0.034135386
47	0x3c7b4e6a	0.01533852
48	0x3d72ed67	0.059308436
49	0xbcbb0ccb	-0.022833249
50	0x3d5b00d9	0.053467605
51	0xbcba4c72	-0.02274153
52	0x3c61433f	0.013748943
53	0x3ceb3fb1	0.028716894
54	0x3cb915c0	0.022593379
55	0x3cadb824	0.02120597
56	0xbd0c6f81	-0.034286026
57	0x3d0b68a2	0.034035333
58	0xbcc24d53	-0.023718512
59	0xbca616ee	-0.020274606

encoder.net.5.weight f4 [32, 60]
0	0x3e10e0ad	0.14148207
1	0x3e1d34d0	0.15352178
2	0x3e2d596e	0.16928646
3	0x3d91d130	0.071199775
4	0x3e733456	0.23750433
5	0x3bd4e61a	0.006497157
6	0x3cb27607	0.021784795
7	0x3dcf3093	0.10116687
8	0x3e1026b1	0.1407726
9	0x3deab235	0.114597715
10	0x3df225dc	0.11823627
11	0xbe6a66e2	-0.22890809
12	0xbda8618f	-0.08221733
13	0x3e0d07f8	0.13772571
14	0x3e1c50ff	0.15265273
15	0x3dc8d572	0.098063365
16	0xbe75d866	-0.2400833
17	0x3dc14fe9	0.0943907
18	0x3d545e93	0.051848006
19	0xbdbe14cf	-0.09281313
20	0x3ea21c6b	0.31662306
21	0x3e46335e	0.19355533
22	0x3df22b73	0.118246935
23	0x3dcfd1b6	0.10147421
24	0xbded29e1	-0.115802534
25	0x3dc94a40	0.09828615
26	0x3d015748	0.03157738
27	0x3c93155e	0.017954525
28	0x3e796c39	0.2435769
29	0xbda47137	-0.080294065
30	0xbce603ed	-0.028078044
31	0xbd3d5404	-0.0462227
32	0x3e1b2ad8	0.15153062
33	0xbc36e8af	-0.0111638745
34	0xbc850f14	-0.016242541
35	0xbda9d874	-0.08293238
36	0x3ebb69fa	0.3660429
37	0x3d993f34	0.07482758
38	0xbe791753	-0.24325304
39	0x3b335b23	0.0027367554
40	0xbe607a31	-0.21921612
41	0x3d481652	0.04884941
42	0x3da0308e	0.07821761
43	0xbd6fa7c9	-0.05850962
44	0xbbaa43a7	-0.005196053
45	0x3e81de74	0.2536503
46	0x3e734b65	0.2375923
47	0xbe530c09	-0.2061006
48	0x3da91b73	0.08257189
49	0xbe8b1ac1	-0.2716885
50	0x3d5778a6	0.052605294
51	0xbcc83d37	-0.024443252
52	0x3db35b99	0.08757705
53	0x3e6eef5b	0.23333494
54	0xbd3a185a	-0.04543338
55	0xbe4994b0	-0.19685626
56	0x3ce63b52	0.028104458
57	0xbd8ba261	-0.06818081
58	0x3e22811d	0.15869565
59	0xbd79e9b9	-0.06101391
60	0x3b234958	0.0024915542
61	0x3e9f4302	0.3110581
62	0x3e0c4c5d	0.13701005
63	0xbddb7a1e	-0.107166514
64	0xbdd02194	-0.101626545
65	0xbe34d709	-0.17660154
66	0x3e414a9a	0.18876114
67	0xbd8edcdc	-0.06975719
68	0xbd8c2ee4	-0.06844881
69	0x3e1a9e42	0.15099433
70	0xbe5d351a	-0.21602288
71	0xbe4bb9e0	-0.19895124
72	0x3d0e84fb	0.03479479
73	0x3e85d518	0.2613914
74	0x3d8f4714	0.06995979
75	0x3d1cb34a	0.03825692
76	0xbdc8ae5e	-0.09798883
77	0x3b4d9b65	0.003137314
78	0x3e071a28	0.13193572
79	0x3e57a608	0.2105943
80	0xbdabb5af	-0.08384263
81	0x3cee9403	0.029123312
82	0x3ec2625d	0.3796567
83	0x3c61e37d	0.013787148
84	0xbe8cd564	-0.27506554
85	0x3e09241f	0.13392685
86	0xba9b1f7b	-0.0011834943
87	0x3e1c723e	0.15277955
88	0x3d825aa7	0.06364947
89	0x3dd06568	0.10175592
90	0x3de816b3	0.113324545
91	0x3dc7490d	0.0973073
92	0x3e0bf4f8	0.13667667
93	0x3d8c1d4a	0.06841524
94	0x3d9ff040	0.07809496
95	0xbe349ef1	-0.17638756
96	0x3c16ec71	0.009211645
97	0x3cdd2948	0.026997223
98	0x3e960c4c	0.29306257
99	0x3c7c7760	0.015409321
100	0xbec1a9a0	-0.37824726
101	0x3e4124a8	0.1886164
102	0xbdbf7a97	-0.09349554
103	0x3c471132	0.012150096
104	0xbe40f0c7	-0.1884185
105	0x3e0faae0	0.14030027
106	0x3e15c67e	0.146265
107	0xbd847551	-0.06467689
108	0x3e422c66	0.18962249
109	0x3e056d44	0.13029963
110	0x3dcf9040	0.101349354
111	0xbd3f5d40	-0.04671979
112	0x3e47fc13	0.19529752
113	0xbe171795	-0.1475509
114	0x3e804751	0.2505441
115	0x3e855f65	0.26049343
116	0x3c1d1333	0.009587097
117	0x3d590784	0.052985683
118	0x3e365c7e	0.1780872
119	0xbe1c3b41	-0.15256979
120	0xbdf4e721	-0.11958147
121	0x3d818e3c	0.06325957
122	0x3c44e20b	0.0120167835
123	0xbcf6630e	-0.03007653
124	0x3d6b265b	0.057409626
125	0x3c8b13b0	0.016977161
126	0xbe413cad	-0.18870802
127	0x3d7c46e9	0.061591063
128	0x3da66bd8	0.08126038
129	0xbd845e5c	-0.0646331
130	0xbd91417e	-0.0709257
131	0xbe072307	-0.13196956
132	0x3c771d22	0.015082629
133	0x3d615aa0	0.055018067
134	0x3c01b335	0.007916261
135	0xbdf7eb13	-0.12105384
136	0xbe10a536	-0.14125523
137	0xbe9e474d	-0.30913773
138	0xbcd27544	-0.025690682
139	0x3d1631f0	0.036668718
140	0xbe173555	-0.14766438
141	0xbdb5f307	-0.088842444
142	0x3ce07f05	0.027404318
143	0xbe196cca	-0.14982906
144	0xbe47c400	-0.19508362
145	0x3e7d2d6a	0.24724355
146	0xbdfb180e	-0.122604474
147	0x3e818796	0.25298756
148	0xbe2d49bc	-0.16922659
149	0xbc61ee67	-0.01378975
150	0x3df8825c	0.12134239
151	0xbd22d22f	-0.039751228
152	0x3d8e3429	0.069435425
153	0xbddeef55	-0.10885493
154	0x3e1500c7	0.14551078
155	0xbd8c8868	-0.06861955
156	0xbd8a188d	-0.06742964
157	0xbda68ec1	-0.08132697
158	0x3d6abbf8	0.057308167
159	0xbcd82c84	-0.026388414
160	0x3e8bcaa8	0.27303052
161	0x3c9da947	0.019245757
162	0x3dfc881a	0.12330647
163	0xbe18aa4e	-0.14908716
164	0xbe9e6c6d	-0.30942097
165	0x3e36b6e5	0.17843206
166	0x3e129702	0.14315417
167	0xbe087fb4	-0.13329965
168	0xbde9c34b	-0.11414202
169	0xbe8cbb89	-0.27486828
170	0xbdc9db97	-0.098563366
171	0xbec62d01	-0.3870621
172	0xbdd3f7b4	-0.1034998
173	0xbb201030	-0.002442371
174	0x3e791acc	0.24326628
175	0xbd6c5ea7	-0.057707455
176	0x3d8d3b26	0.06896047
177	0x3d5e4a8c	0.054270312
178	0xbe8b71b4	-0.27235186
179	0xbd9207d9	-0.07130403
180	0xbdecb5bd	-0.11558101
181	0x3ddff347	0.10935073
182	0xbdba1576	-0.090861246
183	0x3d56bdd4	0.052427128
184	0xbcfe87e7	-0.031070663
185	0xbe7ba811	-0.24575831
186	0x3eb83296	0.35976094
187	0x3e5b4504	0.21413046
188	0xbd22c72b	-0.039740723
189	0xbdbee027	-0.093200974
190	0xbb2784e3	-0.0025561384
191	0xbd521c1b	-0.051296335
192	0xbc4b95a8	-0.012425818
193	0xbd5f38bd	-0.05449747
194	0xbcdc2680	-0.026873827
195	0xbe1be016	-0.15222201
196	0x3e721914	0.23642379
197	0x3d4eba60	0.05047071
198	0xbdf6d4a5	-0.120522775
199	0xbe382bc1	-0.17985441
200	0x3cb9b555	0.022669474
201	0xbe07503a	-0.13214198
202	0xbe2ccb61	-0.16874458
203	0x3d9421f2	0.07233037
204	0xbe75968a	-0.23983207
205	0x3dcb8d20	0.09939027
206	0x3d4f9b72	0.050685354
207	0xbcf18036	-0.029480081
208	0xbe7f2877	-0.2491778
209	0x3bbc080d	0.0057382644
210	0xbe0994c8	-0.13435662
211	0xbdd2c2ce	-0.10291062
212	0xbd398484	-0.045292392
213	0x3dc25043	0.09487965
214	0x3e185f76	0.14880165
215	0x3d6087f3	0.05481715
216	0xbddc4449	-0.10755212
217	0x3bbce98e	0.0057651466
218	0xbe05a0cb	-0.13049619
219	0xbbb59b68	-0.0055422075
220	0x3d82a6c7	0.063794665
221	0x3d21dfa3	0.039519917
222	0xbe12df82	-0.14343074
223	0x3ceadca4	0.028669663
224	0xbbc1dde6	-0.005916345
225	0x3d4cd667	0.050009158
226	0x3d7c9283	0.061663162
227	0x3e13f486	0.14448747
228	0xbe97453f	-0.29545018
229	0xbe107ff3	-0.14111309
230	0x3c804bb1	0.015661092
231	0x3e74022c	0.23828954
232	0xbe0a189b	-0.13485949
233	0x3c1aebe8	0.0094556585
234	0xbd5bbde1	-0.05364788
235	0xbc8f566f	-0.01749727
236	0xbe9d7ef6	-0.30760926
237	0xbe20dc79	-0.15709104
238	0xbdfb6bf2	-0.12276448
239	0x3d84064b	0.06446513
240	0xbea8cc4c	-0.32968366
241	0xbea6c8d3	-0.32575092
242	0xbdf2afeb	-0.1184996
243	0xbd8eb725	-0.06968526
244	0xbe4e1132	-0.20123747
245	0xbd359b9a	-0.044337846
246	0x3e2e6fd6	0.1703485
247	0xbe9d2535	-0.3069245
248	0x3cfad34d	0.030618334
249	0x3d40ab2d	0.047038246
250	0xbd808186	-0.06274705
251	0xbe2247e0	-0.1584773
252	0x3e0d85f2	0.13820627
253	0xbc9486d3	-0.018130695
254	0xbc13f8d9	-0.009031498
255	0x3d98f44c	0.07468471

encoder.net.5.bias f4 [32]
0	0xbcf1b7c5	-0.029506573
1	0xbd406fac	-0.0469815
2	0x3d0b328a	0.033983745
3	0x3a334ab7	0.00068394415
4	0x3d34ab1d	0.0441085
5	0x3d16c8ea	0.0368127
6	0x3d1aca35	0.037790496
7	0xbd5e8d48	-0.054333955
8	0x3d1f08d9	0.038826797
9	0x3cc726e4	0.024310537
10	0x3d091e36	0.033476077
11	0x3d24b108	0.040207893
12	0x3cfe95ba	0.031077255
13	0x3d35bb6a	0.044368185
14	0x3c505ef0	0.012717947
15	0x3d14ae18	0.03629884
16	0x3d2a25c4	0.041539922
17	0x3d326732	0.043555446
18	0xbd4a1788	-0.049338847
19	0x3d3c8861	0.0460285
20	0xbd068a53	-0.03284676
21	0xbd12ecc9	-0.035870347
22	0x3d3b3cd2	0.0457123
23	0x3d230ff6	0.039810143
24	0x3d2b0b35	0.041758735
25	0xbd1514cb	-0.036396783
26	0xbd17a32b	-0.037020843
27	0x3d20c560	0.03925073
28	0xbd3132f5	-0.043261487
29	0xbc033477	-0.008008114
30	0xbd1dfc61	-0.038570765
31	0xbd3f704a	-0.046737947

predictor.net.1.weight f4 [32, 32]
0	0x3e2217f7	0.15829454
1	0xbe156ee7	-0.14593087
2	0x3eb509b1	0.35358956
3	0x3e4cd5ad	0.20003386
4	0xbe109b03	-0.14121632
5	0x3dd5146d	0.104042865
6	0x3cab7bf7	0.020933134
7	0xbbcb94ec	-0.006212821
8	0x3e6f6ec0	0.23382092
9	0x3cdd5298	0.027016923
10	0x3d3bdab2	0.04586286
11	0x3e050797	0.12991177
12	0x3da8bb30	0.08238828
13	0xbda963f3	-0.08271017
14	0xbe6f1a10	-0.23349786
15	0xbc5f83a6	-0.013642227
16	0xbd37f725	-0.04491343
17	0xbe330184	-0.17481047
18	0xbdb3efb9	-0.08785958
19	0xbe9189d5	-0.2842547
20	0xbe54879f	-0.2075486
21	0x3d411954	0.047143295
22	0x3e85ca39	0.26130846
23	0x3dac9892	0.08427538
24	0x3df202bc	0.11816928
25	0x3e301e95	0.17199166
26	0xbcbbf540	-0.022944093
27	0xbbadd13f	-0.005304485
28	0x3e4d182a	0.20028749
29	0xbf0e0c67	-0.55487674
30	0x3e16c658	0.147241
31	0xbdabd97b	-0.083910905
32	0x3d447944	0.04796721
33	0xbd619d3b	-0.055081587
34	0x3e889ca5	0.2668201
35	0xbd917b01	-0.07103539
36	0x3e0a1b94	0.13487083
37	0x3dfc84c7	0.12330013
38	0x3e11b7d3	0.1423028
39	0xbbcb5c09	-0.00620604
40	0x3e78d57e	0.24300191
41	0xbe160ea9	-0.1465403
42	0x3e911b82	0.283413
43	0x3e56efd8	0.2098993
44	0x3da4328b	0.08017453
45	0x3e374a98	0.17899549
46	0x3e814e88	0.25255227
47	0x3eb49463	0.3526946
48	0xbe166e79	-0.1469058
49	0x3ecba7c2	0.39776427
50	0x3cd8a7d6	0.026447218
51	0x3e8b6149	0.2722266
52	0x3d206252	0.039156266
53	0x3e273d92	0.16332081
54	0xbe2942e5	-0.16529424
55	0x3eb8028a	0.35939437
56	0xbd923872	-0.07139672
57	0xbe96f66a	-0.29484874
58	0xbd18034e	-0.037112527
59	0x3dfd36a2	0.12363936
60	0xbe00b66c	-0.12569588
61	0xbe1e0844	-0.1543284
62	0xbda99f0e	-0.082822904
63	0xbd24ee22	-0.040266164
64	0x3e9c2ce8	0.3050301
65	0xbb4f7bcd	-0.0031659484
66	0x3dc1f828	0.0947116
67	0xbe895691	-0.26823857
68	0xbd45227c	-0.04812859
69	0xbe05ebc9	-0.13078226
70	0xbc5685a9	-0.0130933905
71	0xbc770e78	-0.015079133
72	0x3e7508ba	0.2392911
73	0x3e093f62	0.13403085
74	0x3dcd73e8	0.10031873
75	0x3e1da04d	0.15393181
76	0xbe8fe283	-0.28102502
77	0x3e4de0d2	0.20105293
78	0xbd9c6a73	-0.07637491
79	0x3e292ae4	0.16520268
80	0x3e7b5020	0.24542284
81	0x3e1166c2	0.14199355
82	0xbafe5c00	-0.001940608
83	0x3cb094fc	0.021555416
84	0x3d4be5e1	0.049779776
85	0xbde34faa	-0.11099179
86	0x3da0b34e	0.078467
87	0xb8b4846f	-8.6077365e-05
88	0x3d626432	0.055271335
89	0x3ea426a9	0.32060745
90	0x3de40903	0.11134531
91	0xbd9bd18f	-0.076083295
92	0xbd5edc9f	-0.05440962
93	0x3e4fff35	0.20312198
94	0xbdac28ed	-0.084062435
95	0x3d1434e0	0.036183238
96	0x3dad2e7d	0.084561326
97	0xbe2f98ff	-0.17148207
98	0xbe586c79	-0.21135129
99	0x3d824a93	0.0636188
100	0x3ece9de9	0.4035485
101	0xbe4e7e85	-0.20165451
102	0x3e632b12	0.22184399
103	0x3d92c504	0.07166484
104	0x3e381ece	0.17980501
105	0x3e88b692	0.2670179
106	0x3b64b538	0.0034898054
107	0x3c31c888	0.010851033
108	0xbd7eed0e	-0.06223779
109	0xbdbe55a8	-0.092936814
110	0xbdd604f7	-0.10450166
111	0x3e4c4d29	0.1995131
112	0xbdff42ad	-0.12463889
113	0x3ddeb776	0.10874836
114	0x3ec714d7	0.38883087
115	0xbe5a5274	-0.21320516
116	0x3d8ace2a	0.06777604
117	0x3e8b8441	0.2724934
118	0x3d938fb9	0.07205147
119	0x3e02c26c	0.12769479
120	0xbb18f65a	-0.0023340196
121	0x3e1e050e	0.15431616
122	0x3ddd4f60	0.10806155
123	0xbe5a9032	-0.21344069
124	0x3de9106c	0.11380085
125	0x3d579cdb	0.052639823
126	0xbcff0da9	-0.031134443
127	0x3ddad9bd	0.106860615
128	0x3e02093f	0.1269884
129	0x3cf1f3c2	0.029535178
130	0x3e08b8f2	0.13351801
131	0xbe2f9364	-0.17146069
132	0x3e925c02	0.2858582
133	0x3bc7f296	0.0061019165
134	0x3db51fba	0.08843942
135	0x3ea79d0f	0.32737014
136	0xbeaf0788	-0.34185433
137	0x3dd76f8a	0.10519321
138	0x3e597ded	0.21239443
139	0xbdee76da	-0.11643763
140	0x3d87030a	0.065923765
141	0x3e532f9c	0.2062363
142	0xbe33a7b7	-0.17544447
143	0xbd871ad9	-0.06596918
144	0xbe85e858	-0.26153827
145	0x3e173f55	0.14770253
146	0xbe8ce753	-0.27520236
147	0x3c3e559d	0.0116170915
148	0xbeac6a7a	-0.33674985
149	0x3e10f168	0.14154589
150	0xba28149b	-0.0006411762
151	0xbd93a087	-0.072083525
152	0x3c652363	0.013985488
153	0x3d63d72a	0.05562512
154	0xbddc6994	-0.10762325
155	0xbab76917	-0.0013993111
156	0x3d330572	0.043706365
157	0x3c987c2b	0.018613895
158	0x3e20e02f	0.15710519
159	0xbd140b24	-0.036143437
160	0x3e34ffe8	0.17675745
161	0x3ea2f1ae	0.31825012
162	0xbdf1cdb9	-0.118068166
163	0x3cc055cc	0.023478411
164	0xbe19957e	-0.14998433
165	0xbd8a4457	-0.06751316
166	0x3db5a1fc	0.08868787
167	0xbd4945f5	-0.04913898
168	0x3e02befd	0.12768169
169	0x3a83d765	0.0010058699
170	0xbd8c461b	-0.06849309
171	0xbd0e2eed	-0.03471272
172	0xbd67a152	-0.05655033
173	0xbcccb840	-0.024990201
174	0xbd7e5ccc	-0.062100217
175	0xbe2968f5	-0.16543944
176	0x3c248baa	0.010043064
177	0x3dffa27d	0.12482164
178	0x3c5e41fb	0.013565536
179	0x3e86d4ce	0.26334232
180	0x3cdb0f1f	0.026740609
181	0x3e85a89f	0.2610521
182	0x3ddee0b1	0.108827
183	0xbe765cbb	-0.24058811
184	0xbd7a2c07	-0.061077144
185	0x3dd8114e	0.105501756
186	0x3d7a114f	0.061051663
187	0xbe0b1d5c	-0.13585418
188	0xbe30bb58	-0.17258966
189	0xbc480466	-0.01220808
190	0xbe290706	-0.16506585
191	0xbeab822b	-0.33497748
192	0x3df20b0d	0.11818514
193	0xbd15237e	-0.0364108
194	0xbdeb5d33	-0.11492386
195	0xbeb67eb3	-0.3564354
196	0x3da12815	0.07868973
197	0xbe3498a5	-0.17636354
198	0xbe578622	-0.21047261
199	0xbe67f9d8	-0.22653902
200	0xbe3dd315	-0.18537553
201	0x3e594433	0.21217422
202	0x3dcbb201	0.09946061
203	0xbe24a8dc	-0.1608004
204	0x3e1bd5cf	0.1521828
205	0xbdb25cc8	-0.08709103
206	0x3e8f414f	0.27979514
207	0x3d8021c7	0.062564425
208	0xbe41e402	-0.18934634
209	0xbe83a86a	-0.25714427
210	0xbe2e9314	-0.17048293
211	0xbd39dbb1	-0.04537553
212	0x3912c140	0.00013995636
213	0x3d5e4a12	0.054269858
214	0xbc8173f7	-0.015802367
215	0xbdc08b8f	-0.09401619
216	0x3f164b46	0.5870861
217	0xbe423c7b	-0.18968384
218	0x3ca5e980	0.020252943
219	0x3e99de02	0.3005219
220	0x3e17b2f2	0.14814356
221	0xbd9ad8b5	-0.07560865
222	0x3e0aa809	0.13540663
223	0x3e35685f	0.17715596
224	0xbd80267d	-0.06257341
225	0x3dd37dab	0.10326704
226	0xbdd391bf	-0.10330533
227	0xbdc59b2b	-0.096487366
228	0x3dd7c1ad	0.105349876
229	0x3df6024e	0.12012158
230	0x3e7b35ab	0.24532191
231	0xbe032184	-0.12805754
232	0x3de4023d	0.111332394
233	0x3c996894	0.018726625
234	0xbe7ace5a	-0.2449278
235	0x3e8adffa	0.27124006
236	0xbe44a66b	-0.19204108
237	0xbe0b29c3	-0.1359015
238	0xbe09d3c1	-0.13459684
239	0xbdcaaefa	-0.098966554
240	0xbde29f04	-0.11065486
241	0x3d8ce44a	0.0687948
242	0xbe909874	-0.28241313
243	0x3c0c2520	0.008553773
244	0xbda5e79d	-0.08100817
245	0x3dbd7cb1	0.092522986
246	0xbda42e6d	-0.080166675
247	0xbdd2051a	-0.10254879
248	0x3dc66963	0.0968807
249	0xbe23347d	-0.15937991
250	0x3ebc953f	0.36832616
251	0xbdd67492	-0.10471453
252	0xbd6ddc66	-0.058071516
253	0x3aeefdbf	0.0018233581
254	0x3e83afbb	0.2572001
255	0x3dc2187d	0.09477327

predictor.net.1.bias f4 [32]
0	0xbd9a2314	-0.07526222
1	0xbea97013	-0.33093318
2	0x3db6013a	0.08886953
3	0x3dcf77a3	0.10130241
4	0xbdbf82f1	-0.09351147
5	0x3de6bcff	0.11266517
6	0xbd943142	-0.07235958
7	0xbdc601ed	-0.09668336
8	0xbe034388	-0.1281873
9	0x3dc8c2da	0.0980279
10	0x3dc60be5	0.096702375
11	0x3dc8f935	0.098131575
12	0x3e5f45da	0.2180399
13	0xbdca979d	-0.09892199
14	0xbdbf0d61	-0.09328724
15	0xbdb445f4	-0.08802405
16	0xbdc10fb7	-0.094268255
17	0x3dc34fb7	0.09536689
18	0xbdd2a90c	-0.102861494
19	0xbdcb95e5	-0.099406995
20	0xbdd2a910	-0.10286152
21	0xbdbfc4dc	-0.0936372
22	0xbdb41f2e	-0.087950096
23	0xbdbcff79	-0.09228415
24	0xbda2f050	-0.07955992
25	0x3ddb8f3a	0.10720678
26	0x3db5acac	0.08870825
27	0xbdbec87c	-0.09315583
28	0x3db62d40	0.088953495
29	0xbdc8e8c6	-0.09810023
30	0x3eb89a6e	0.3605532
31	0x3ddb4010	0.10705578

predictor.net.3.weight f4 [1, 32]
0	0xbc956245	-0.018235335
1	0xbdf3c072	-0.119019404
2	0x3e5c76f6	0.21529755
3	0x3ea3e1cb	0.32008204
4	0xbd3c17e6	-0.04592123
5	0x3e34fb62	0.1767402
6	0xbd034241	-0.032045607
7	0xbeafce4c	-0.3433708
8	0xbd47f070	-0.048813283
9	0x3ea784f8	0.32718635
10	0x3f4024c4	0.750561
11	0x3ec9b5d7	0.39396545
12	0x3db2ff48	0.08740097
13	0xbd0cac32	-0.034343906
14	0xbeeb5086	-0.45959872
15	0xbe612d31	-0.21989895
16	0xbea00d77	-0.31260273
17	0x3e6e1887	0.23251544
18	0xbecb230b	-0.39675173
19	0xbecf7534	-0.40519106
20	0xbec8969a	-0.391774
21	0xbed09e51	-0.40745786
22	0xbe0a3be8	-0.13499415
23	0xbf0af775	-0.5428384
24	0xbcaeff2c	-0.02136191
25	0x3ececb5c	0.40389526
26	0x3dc7c6b4	0.097546965
27	0xbf052564	-0.5201018
28	0x3e31d966	0.17368087
29	0xbe4c3265	-0.19941099
30	0x3db8f794	0.09031597
31	0x3ddc72dc	0.10764095

net.0.weight f4 [60, 35]
0	0x3ce504dd	0.02795642
1	0xbe4deced	-0.20109911
2	0x3d0d6b8a	0.034526385
3	0x3ceee9d3	0.02916423
4	0xbd103bf0	-0.03521341
5	0xbe665132	-0.22491911
6	0xbda67752	-0.08128227
7	0xbe1f6f7f	-0.15569876
8	0x3c0098e1	0.007848949
9	0x3c34da61	0.011038394
10	0x3e159c2f	0.1461036
11	0xbdf52084	-0.119690925
12	0x3e7be86c	0.2460038
13	0x3d2835f4	0.04106708
14	0xbd6db88b	-0.058037322
15	0xbdc42d97	-0.09579008
16	0xbe872ac4	-0.26399815
17	0xbb5c076c	-0.003357376
18	0x3ba6e287	0.005092922
19	0x3dd40623	0.10352733
20	0x3e4d3a91	0.20041873
21	0x3e2f25e8	0.17104304
22	0x3e09fa1f	0.1347432
23	0xbcdcd7f7	-0.026958449
24	0xbe0c0f31	-0.1367767
25	0x3d3cc630	0.046087444
26	0x3e73f646	0.23824415
27	0xbd50cf9f	-0.050979253
28	0xbe0acc79	-0.13554563
29	0x3e11a7b5	0.14224131
30	0xbe3f3510	-0.18672585
31	0x3db9a77a	0.09065147
32	0x3e13b9da	0.14426365
33	0xbdf7c57b	-0.12098213
34	0xbdde1dd8	-0.10845536
35	0x3d9b5a0b	0.07585534
36	0xbd7a1b01	-0.06106091
37	0x3dc39a8f	0.09550964
38	0xbd893937	-0.06700366
39	0x3d15a1cd	0.03653126
40	0x3e801f5c	0.25023925
41	0x3e1892f3	0.14899807
42	0xbdb4a77e	-0.08821009
43	0xbd15840d	-0.036502887
44	0xbd813f00	-0.063108444
45	0xbd39d687	-0.045370605
46	0xbe6a682d	-0.22891302
47	0xbe2fa254	-0.17151767
48	0x3d7ad38a	0.061236896
49	0xbca29744	-0.01984752
50	0x3e74e7cf	0.23916553
51	0xbd03f452	-0.032215424
52	0x3d1c5083	0.03816272
53	0x3d816ecf	0.06319963
54	0x3e35cd7e	0.1775417
55	0x3d0335bc	0.032033667
56	0x3ea5e239	0.32399157
57	0x3cbb8c59	0.022894071
58	0xbe150804	-0.14553839
59	0xbe26a152	-0.16272476
60	0x3d286a59	0.041117046
61	0xbe2bb8ae	-0.16769668
62	0xbe9571ec	-0.29188478
63	0xbe19832f	-0.14991449
64	0x3c8d3d4c	0.017241143
65	0x3d99b9aa	0.07506116
66	0xbe39bb01	-0.18137743
67	0x3e3799f6	0.17929825
68	0x3c8fcb1e	0.017552909
69	0x3def6386	0.116889045
70	0x3d077af5	0.033076245
71	0xbe334bfc	-0.17509454
72	0xbe20fc41	-0.15721227
73	0xbe23e375	-0.16004737
74	0x3e3aeeac	0.18255109
75	0xbe56c274	-0.20972615
76	0xbd2f0ba1	-0.0427357
77	0x3c91b975	0.017788628
78	0xbe04f3d7	-0.12983643
79	0xbdec822e	-0.11548267
80	0xbe0fa8f5	-0.14029296
81	0xbe1a561f	-0.15071915
82	0xbdce0c59	-0.10060949
83	0x3da6c17b	0.08142372
84	0x3db958e9	0.090501614
85	0xbe92904b	-0.28625712
86	0xbdc8bbe6	-0.09801464
87	0xbdf169fe	-0.117877945
88	0xbd2721f5	-0.04080387
89	0x3c9ec444	0.019380696
90	0xbdaed6b7	-0.08537047
91	0x3e329da2	0.17442945
92	0xbe8fb40f	-0.2806706
93	0xbdd2e0c2	-0.102967754
94	0x3cc421d5	0.023941914
95	0xbd60a441	-0.054844145
96	0x3dc6d3af	0.09708344
97	0xbdc7474a	-0.09730394
98	0xbdd6a56b	-0.1048077
99	0x3c512460	0.01276502
100	0xbe35dcd8	-0.17760026
101	0x3d279ea4	0.040922776
102	0x3ce9e951	0.028553637
103	0xbe87bcf7	-0.26511356
104	0x3d5fc431	0.054630462
105	0x3d8a6908	0.06758314
106	0xbdd27281	-0.10275746
107	0xba6d28d5	-0.0009046917
108	0x3d6510e6	0.05592432
109	0x3c312e30	0.010814235
110	0x3e4e19cf	0.20127033
111	0x3b98564f	0.0046489607
112	0xbe1ea65a	-0.15493146
113	0x3e5927a7	0.21206532
114	0xbd5e00cd	-0.054199982
115	0x3de5a923	0.11213901
116	0xbe61b01a	-0.22039834
117	0xbd452707	-0.048132923
118	0xbddcd23b	-0.10782286
119	0x3de9bbf5	0.11412803
120	0xbe101bc0	-0.14073086
121	0x3e7484d9	0.23878802
122	0xbdc548a9	-0.096329994
123	0xbd6e3eee	-0.058165483
124	0xbe0cfae5	-0.13767584
125	0xbe73bdce	-0.23802873
126	0xbd911eae	-0.0708593
127	0xbd93e64d	-0.07221661
128	0xbd8f8b23	-0.0700896
129	0x3d87fb01	0.06639672
130	0xbbec8de1	-0.0072190617
131	0x3d71a8ed	0.05899899
132	0x3b60c890	0.0034299232
133	0x3d6e35dc	0.058156833
134	0xbd406cbc	-0.046978697
135	0x3cf83e95	0.030303279
136	0x3d0417d4	0.032249287
137	0xbd76be08	-0.06023982
138	0xbcb729de	-0.022358831
139	0xbe1cfa26	-0.15329799
140	0xbd0966e4	-0.03354539
141	0x3e68670b	0.22695558
142	0x3d0178ec	0.03160946
143	0x3e183ed1	0.14867713
144	0xbdd1964a	-0.102337435
145	0xbdd6633e	-0.10468148
146	0xbd94e467	-0.07270127
147	0x3d92cfec	0.07168564
148	0xbcbba285	-0.022904644
149	0x3dc059cb	0.09392127
150	0xbdc47530	-0.09592664
151	0xbd2e7038	-0.04258749
152	0xbe0b1487	-0.1358205
153	0xbe5d3a86	-0.21604356
154	0x3d7a6e80	0.061140537
155	0xbe3dc745	-0.18533047
156	0x3e54493c	0.20731062
157	0xbe7bdac5	-0.24595173
158	0xbd653a26	-0.055963658
159	0x3e13573b	0.14388745
160	0x3d86ce66	0.06582336
161	0xbe38bda2	-0.18041089
162	0xbe8834a6	-0.26602668
163	0x3d75a632	0.05997295
164	0xbd87bf43	-0.06628277
165	0xbcb33a0f	-0.02187827
166	0x3dcfefc2	0.10153152
167	0x3e0b4d02	0.13603595
168	0xbd95703c	-0.07296798
169	0xbe236112	-0.15954998
170	0xbd07dd9f	-0.03317034
171	0x3e0fc022	0.14038137
172	0xbbfd98ea	-0.007739176
173	0xbda19bd5	-0.07891051
174	0x3d568160	0.052369475
175	0x3d4b7d1b	0.049679857
176	0x3dc57806	0.09642033
177	0x3e5fe7f8	0.21865833
178	0xbd91328e	-0.07089721
179	0x3e5ae790	0.21377397
180	0x3e3991c5	0.18122013
181	0xbc76e202	-0.015068533
182	0xbeb66ff4	-0.35632288
183	0xbe0cca1c	-0.13748974
184	0xbd8ffc44	-0.07030538
185	0x3e28db7a	0.16489974
186	0xbd889010	-0.06668103
187	0xbde4ddf1	-0.111751445
188	0xbcf947ea	-0.0304298
189	0x3d3ef166	0.046616934
190	0xbcfa22e4	-0.030534215
191	0xbe23202f	-0.15930246
192	0xbd37ae82	-0.044844158
193	0x3cd7f6a0	0.026362717
194	0x3caf0338	0.02136384
195	0xbcb6adad	-0.022299612
196	0xbd9c4fba	-0.07632394
197	0xbcc383b9	-0.023866521
198	0x3d0c95ce	0.034322552
199	0xbc3d086e	-0.011537654
200	0xbd1dc70f	-0.038519915
201	0x3e2af490	0.16694856
202	0x3dbf0b09	0.09328277
203	0x3e04c3b9	0.12965287
204	0x3c7e9df0	0.015540585
205	0x3a650ae9	0.00087372825
206	0xbd1bdac3	-0.038050424
207	0xbe5a6433	-0.21327285
208	0xbde5edaa	-0.112269714
209	0x3d12c82d	0.035835434
210	0xbdbfaed6	-0.09359519
211	0xbdbca155	-0.09210459
212	0xbd09041a	-0.033451177
213	0x3deef79e	0.11668323
214	0xbbf2507a	-0.0073948475
215	0xbea61b12	-0.32442528
216	0xbe186eec	-0.14886063
217	0xbe8a6b1c	-0.27034843
218	0xbe232bb7	-0.15934645
219	0x3d593b95	0.053035337
220	0x3df8bb8d	0.121451475
221	0xbe2caf08	-0.16863644
222	0xbcf595d1	-0.029978665
223	0x3e505ee5	0.203487
224	0xbe332169	-0.17493214
225	0x3e1baa16	0.15201601
226	0x3b810363	0.0039371713
227	0x3e38a82a	0.180329
228	0xbd99a67a	-0.07502456
229	0x3d8993b9	0.06717629
230	0x3d23f211	0.040025774
231	0x3e531047	0.20611678
232	0xbe7dfc72	-0.24803331
233	0x3ea8623c	0.32887447
234	0xbdd5d35c	-0.10440704
235	0xbe0abb75	-0.13548072
236	0xbd2a70f8	-0.04161164
237	0x3c81a5f7	0.015826209
238	0xbe0fba3b	-0.14035885
239	0xbd12eeb9	-0.035872195
240	0x3cebf372	0.028802607
241	0xbe225a1a	-0.15854684
242	0xbd59e907	-0.053200748
243	0x3e07edce	0.13274309
244	0xbe2d085c	-0.1689772
245	0x3d9c0d77	0.07619756
246	0x3e7dfc6d	0.24803324
247	0xbe12c179	-0.14331616
248	0xbe25b937	-0.16183935
249	0x3e164d93	0.1467803
250	0x3ca28c55	0.019842306
251	0xbd668fef	-0.05628961
252	0x3e788ffc	0.24273676
253	0xbd51d228	-0.05122581
254	0x3e0e0a9d	0.13871236
255	0xbd32dc3f	-0.043667074

net.0.bias f4 [60]
0	0xbd5363f4	-0.051608995
1	0x3e20d60c	0.15706652
2	0xbdf7a991	-0.12092889
3	0x3d790a05	0.06080057
4	0xbc8a96b3	-0.016917562
5	0xbc96c6c3	-0.018405324
6	0x3db7f294	0.08981815
7	0x3c8dbe38	0.017302617
8	0x3dd56385	0.104193725
9	0x3d85ba38	0.06529659
10	0x3dcf6d28	0.10128242
11	0xbe1d31f1	-0.15351082
12	0xbc1db693	-0.009626049
13	0x3e0fdec1	0.14049818
14	0x3e3fb0bf	0.18719767
15	0xbdaa8d56	-0.08327739
16	0xbdaba354	-0.08380762
17	0x3e3d7858	0.18502939
18	0x3de2d213	0.11075225
19	0x3da0575f	0.07829165
20	0x3e1cf897	0.15329204
21	0x3d07d60f	0.033163127
22	0xbdb0f357	-0.086401634
23	0xbd788983	-0.060678016
24	0xbbd7aafe	-0.006581663
25	0x3cfca3a2	0.030839745
26	0xbde710a5	-0.112824716
27	0xbd90eae1	-0.070760496
28	0x3d9a7b15	0.07543007
29	0xbd955786	-0.072920844
30	0x3e1fbe4d	0.15599938
31	0x3e062b76	0.13102517
32	0xbc185162	-0.009296747
33	0x3b8b5f80	0.004253328
34	0x3e1132cf	0.14179538
35	0xbe00a4b6	-0.12562832
36	0xbe20e5d9	-0.1571268
37	0x3e5102f7	0.20411287
38	0x3dade84b	0.08491572
39	0x3c1bc506	0.009507423
40	0xbe0f7ec3	-0.140132
41	0x3d3dce35	0.046339232
42	0xbdf308f7	-0.11866944
43	0xbe388f96	-0.18023524
44	0x3de922c1	0.11383582
45	0xbdde0b1a	-0.10841961
46	0x3e25fccb	0.16209714
47	0xbd451418	-0.048114866
48	0xbe09c673	-0.13454609
49	0x3d544c71	0.051830713
50	0xbdf27287	-0.118382506
51	0xbd314a4c	-0.043283746
52	0x3d1509dd	0.03638636
53	0xbcfb2b10	-0.030660182
54	0xbde57f45	-0.11205915
55	0xbde74042	-0.11291553
56	0x3dc09c96	0.094048664
57	0xbe1cde1f	-0.15319107
58	0xbd4520e8	-0.048127085
59	0xbd063513	-0.03276546

net.2.weight f4 [60, 60]
0	0x3e5bc63a	0.21462336
1	0x3d19e078	0.037567586
2	0xbe3c9517	-0.18416248
3	0x3c84650c	0.016161464
4	0xbdb8c462	-0.09021832
5	0x3e124238	0.14283073
6	0x3d495e68	0.0491623
7	0xbe087520	-0.1332593
8	0xbd8d9259	-0.06912679
9	0xbe2533e4	-0.16133076
10	0xbdc9d0d8	-0.09854287
11	0x3d1933eb	0.03740303
12	0xbe2e4354	-0.17017871
13	0xbe303b61	-0.17210151
14	0xbd9e597b	-0.07731911
15	0xbcfdbb44	-0.030973084
16	0x3b41fb1c	0.0029599136
17	0xbd1853a7	-0.037189152
18	0x3dcfa3c1	0.101386555
19	0x3c83448d	0.016023898
20	0x3d7e0bd9	0.062023018
21	0x3d63803d	0.05554222
22	0x3de10019	0.10986347
23	0xbc352b1d	-0.011057642
24	0x3ca216ee	0.019786324
25	0x3dc7e00d	0.09759531
26	0x3dae7da9	0.085200615
27	0x3e257ea6	0.16161594
28	0x3c03a793	0.008035558
29	0xbbb596c2	-0.0055416534
30	0x3e14dbfe	0.14537045
31	0x3e6beae1	0.23038818
32	0x38f202cf	0.000115399824
33	0x3dac4229	0.084110565
34	0x3e05fdc6	0.13085088
35	0xbe077516	-0.13228258
36	0xbd7c3279	-0.061571572
37	0xbe4ba50c	-0.19887179
38	0xbdff7733	-0.12473907
39	0x3e6cce97	0.23125683
40	0x3d1bdc94	0.038052157
41	0x3e0aa9f6	0.13541397
42	0x3e29cd4f	0.16582225
43	0x3c497a1e	0.012297181
44	0x3dcc378e	0.09971534
45	0x3d7a0225	0.0610372
46	0x3e0f6ff5	0.14007552
47	0x3e4984c4	0.19679552
48	0xbdd00f70	-0.101591945
49	0xbcf7d208	-0.030251518
50	0xbe38b832	-0.18039015
51	0xbd95a531	-0.073068984
52	0xbe8fabf4	-0.28060877
53	0x3e80126b	0.25014052
54	0x3ddefbee	0.108878955
55	0xbe203a68	-0.1564728
56	0xbd44cc10	-0.04804617
57	0x3e476a9b	0.1947426
58	0x3c8b172b	0.01697882
59	0x3de141f4	0.10998908
60	0xbd8d3eac	-0.06896719
61	0xbe3c6f44	-0.1840182
62	0xbd579e26	-0.052641056
63	0x3d783dbc	0.06060575
64	0xbe5262be	-0.2054548
65	0x3bc11436	0.005892302
66	0x3c949830	0.018138975
67	0xbd4b1529	-0.049580727
68	0xbd77bd34	-0.060483173
69	0x3d68f3fa	0.0568733
70	0x3df122c0	0.11774206
71	0xbe279335	-0.16364749
72	0xbd8c1130	-0.06839216
73	0xbe05f0a8	-0.13080084
74	0x3e562458	0.20912302
75	0x3d966b6d	0.073447086
76	0xbe6fcdfa	-0.23418418
77	0xbe3da5c8	-0.18520272
78	0xbd9c9fec	-0.0764769
79	0x3c1bd5c7	0.009511418
80	0xbdc0e212	-0.094181195
81	0x3dfd5583	0.12369826
82	0xbdf911c8	-0.12161595
83	0x3e6db474	0.23213369
84	0xbb636207	-0.003469588
85	0x3dfb7969	0.122790165
86	0xbdb994e7	-0.09061604
87	0x3c15d8a2	0.009145888
88	0xbe17b0d6	-0.14813551
89	0x3e02c8d1	0.12771918
90	0xbdabf787	-0.083968215
91	0xbe85240d	-0.26004067
92	0xb970ab73	-0.00022952053
93	0xbd146475	-0.036228616
94	0x3e88d04e	0.26721424
95	0x3d004d3c	0.031323656
96	0xbc40099f	-0.011721044
97	0xbd98efaf	-0.07467591
98	0x3db9f78e	0.090804204
99	0x3b4e1329	0.0031444526
100	0x3cded58e	0.02720144
101	0x3d925a05	0.07146076
102	0xbdbfaf09	-0.09359557
103	0xbe15bffe	-0.1462402
104	0xbe37979c	-0.17928928
105	0x3cd228d5	0.025654236
106	0xbe879757	-0.2648265
107	0xbe41f79d	-0.18942113
108	0x3eaa6b94	0.332852
109	0xbd8851ee	-0.06656252
110	0xbd165ae6	-0.03670778
111	0x3ddbd610	0.107341886
112	0x3e45bd51	0.193105
113	0xbd65ff9c	-0.05615197
114	0x3df5c391	0.12000192
115	0xbd2f87f4	-0.042854264
116	0x3d6dc374	0.058047727
117	0xbdc24810	-0.09486401
118	0x3d69ed35	0.057110984
119	0xbdb17bbc	-0.086661786
120	0x3e197a04	0.14987952
121	0x3b2e4642	0.002659217
122	0xbe16b401	-0.14717104
123	0x3d91c12e	0.07116924
124	0xbd892ef9	-0.066984124
125	0x3ccefb6b	0.02526637
126	0xbdbcb996	-0.09215085
127	0xbdf34f30	-0.11880338
128	0xbca52ec6	-0.020163905
129	0xbd190297	-0.037355985
130	0x3c5a93e5	0.013340925
131	0xbbb26e32	-0.005445265
132	0xbe02a796	-0.12759241
133	0xbd11840e	-0.035526328
134	0xbd42b904	-0.047539726
135	0x3e335e2e	0.17516395
136	0xbdf4f10a	-0.11960037
137	0xbe1786a4	-0.14797455
138	0x3a892878	0.0010464331
139	0x3e1ce95f	0.15323399
140	0x3cd76d64	0.026297279
141	0x3d6b908d	0.0575109
142	0x3da500af	0.08056771
143	0x3e38602c	0.18005437
144	0xbde4f9c9	-0.11180455
145	0xbdd01ef2	-0.10162152
146	0xbe297453	-0.1654828
147	0x3dd7f683	0.10545065
148	0xbd67b975	-0.05657335
149	0x3d4dacfa	0.05021379
150	0xbe6e6d9a	-0.23283997
151	0x3e74ebb7	0.23918043
152	0x3c9e098c	0.019291662
153	0x3ddb6bfe	0.10713957
154	0xbd7a8e09	-0.06117061
155	0x3e4ee443	0.20204262
156	0xbda36f1e	-0.07980178
157	0x3e2f8276	0.1713961
158	0x3e46b6fe	0.19405743
159	0x3df72203	0.12067034
160	0x3c06201f	0.008186369
161	0xbd82b6be	-0.063825116
162	0xbe16d4c6	-0.14729604
163	0x3e0a8460	0.1352706
164	0xbdb3e688	-0.08784205
165	0xbd9d4051	-0.07678283
166	0x3c80f135	0.015740016
167	0xbe0d1184	-0.13776213
168	0x3dea45c0	0.11439085
169	0x3e01b7ff	0.12667845
170	0xbe4a48b4	-0.19754297
171	0x3e0aa8bd	0.13540931
172	0x3e851a65	0.259967
173	0x3d753e30	0.05987376
174	0x3db5dbb1	0.088797934
175	0xbe0dac2d	-0.13835211
176	0x3db35d00	0.08757973
177	0xbcbeba18	-0.023282096
178	0xbc1f0e68	-0.009708025
179	0xbda46511	-0.080270894
180	0x3e04237a	0.12904158
181	0x3e29ca99	0.16581191
182	0x3c88a2cd	0.016679192
183	0x3d470a1a	0.048593618
184	0xbc27fd37	-0.010253242
185	0xbd52cfb4	-0.051467612
186	0x3e19c089	0.15014853
187	0x3d813687	0.063092284
188	0xbda48732	-0.08033599
189	0xbddb5953	-0.107103966
190	0xbe1b33ed	-0.15156527
191	0x3d8c8756	0.06861751
192	0x3d5c9d1f	0.05386078
193	0xbdb2c84d	-0.087296106
194	0xbd211b70	-0.039332807
195	0x3e08bf33	0.13354187
196	0xbe52cd1d	-0.20586057
197	0xbe233298	-0.15937269
198	0x3dc7602a	0.09735139
199	0xbd91edea	-0.07125457
200	0x3de6a135	0.112612166
201	0xbe281cca	-0.16417232
202	0x3e1a5f88	0.15075505
203	0xbb980551	-0.0046393056
204	0x3d0d17c7	0.034446504
205	0xbdab9ba6	-0.08379297
206	0xbe891ec4	-0.26781285
207	0x3d4fd928	0.050744206
208	0xbaef3e8e	-0.0018252896
209	0xbd630697	-0.055426206
210	0x3dbcf15e	0.09225725
211	0x3cc9d7cb	0.02463903
212	0xbdc363f4	-0.09540549
213	0xbe8a6b67	-0.27035066
214	0x3e306736	0.17226872
215	0x3e4680b7	0.19385038
216	0xbdc46a4b	-0.09590586
217	0xbaff765e	-0.0019490232
218	0xbacda2e0	-0.0015688799
219	0x3e03ff17	0.12890278
220	0xbe598ef3	-0.21245937
221	0x3d989e53	0.07452073
222	0xbcd62e90	-0.02614525
223	0xbdefc5aa	-0.11707623
224	0xbedb2c92	-0.42807442
225	0xbc5a42be	-0.013321577
226	0x3d943e96	0.072385
227	0x3e151ba7	0.1456133
228	0xbe083019	-0.13299598
229	0x3d6bd49a	0.0575758
230	0xbd75bb66	-0.05999317
231	0xbdfccf1d	-0.12344191
232	0xbd815dcf	-0.06316721
233	0x3d189bc8	0.03725794
234	0xbdd22e68	-0.102627575
235	0xbbed1d22	-0.007236139
236	0x3ded4ff0	0.115875125
237	0x3d38a06f	0.045074876
238	0xbd0fabc1	-0.035075907
239	0x3e1df079	0.15423764
240	0x3c350502	0.011048557
241	0x3e3dbc20	0.18528795
242	0xbcf09599	-0.029368209
243	0x3e2ec9f2	0.17069224
244	0xbe49903b	-0.19683926
245	0xbd9a1047	-0.07522636
246	0x3d033afe	0.03203868
247	0xbe0f7ab6	-0.14011654
248	0x3e83e0ed	0.25757542
249	0xbc9ef7a0	-0.019405186
250	0xbdb88553	-0.090098046
251	0xbc9d5a73	-0.019208169
252	0xbb172af6	-0.0023066378
253	0xbdcc6788	-0.099806845
254	0x3e3551ad	0.17706938
255	0xbe10ddc7	-0.14147101

net.2.bias f4 [60]
0	0xbd4ff50d	-0.050770808
1	0xbdc45486	-0.09586434
2	0x3dca521c	0.09878942
3	0x3cdad0dd	0.026710922
4	0x3d122c4e	0.035686783
5	0xbd88bd6c	-0.06676754
6	0xbc8a6549	-0.016894
7	0xbcaf3226	-0.021386217
8	0xbd9df8a5	-0.07713441
9	0xbc247a84	-0.010038976
10	0xbb86a2d6	-0.004108767
11	0xbd85ba40	-0.06529665
12	0x3d420dfb	0.047376614
13	0x3dd53023	0.10409572
14	0xbd932e3f	-0.07186555
15	0x3d33a750	0.043860734
16	0xbd9d7d0e	-0.07689868
17	0xbcbd3761	-0.023097696
18	0xbbff16be	-0.0077846935
19	0x3da64c88	0.08120066
20	0x3da3bcf6	0.07995026
21	0x3db48e76	0.08816235
22	0xbdb2ca38	-0.087299764
23	0xbcbdd91f	-0.02317482
24	0x3d857af4	0.06517592
25	0xbb742d00	-0.0037258267
26	0x3d9dff3c	0.07714698
27	0x3ce9f8b6	0.028560977
28	0x3dccc66e	0.09998785
29	0x3b287eeb	0.0025710415
30	0xbd32f902	-0.043694504
31	0xbc8d623e	-0.01725876
32	0x3b44685e	0.0029969434
33	0xbd61db7f	-0.05514097
34	0x3d292327	0.04129329
35	0xbce0687a	-0.027393568
36	0xbd234457	-0.039860096
37	0xbd353f3f	-0.04424977
38	0xbde1ebb2	-0.110312834
39	0x3d2e81a5	0.042604107
40	0xbd6ca37e	-0.057773106
41	0xbde0cefc	-0.10976979
42	0x3ba2162a	0.00494649
43	0xbd2fad58	-0.042889923
44	0x3db5e87a	0.08882232
45	0xbdaa95a0	-0.0832932
46	0x3d23d3f4	0.039997056
47	0xbc06ec03	-0.0082349805
48	0x3d3e9410	0.046527922
49	0x3d958aec	0.07301888
50	0x3d25731c	0.04039298
51	0x3d7e4c33	0.062084388
52	0xbdd7a8e3	-0.105302595
53	0xbc0ad901	-0.008474589
54	0xbd949bff	-0.072563164
55	0x3dfa2137	0.122133665
56	0x3b61056d	0.003433551
57	0xbd97218f	-0.07379448
58	0xbc7fdbc3	-0.01561636
59	0x3cc66c5e	0.024221595
