results of reviewer/XJTU results/0-0/Experiment6/model.pth (torch, 59838 bytes, 14 tensors)

encoder.net.0.weight f4 [60, 17]
00000000: 09ff 1dbe e289 703e 3d60 5ebd faf4 85be
00000010: 9d6f 25be 7614 1f3e 7aeb a1bb b958 9cbe
00000020: b9d6 3f3d fd57 e7bd b7e3 1abd bc8e c0bd
00000030: dd2d 753e b34b d13d c251 0b3e f518 73bd
00000040: e962 9c3d 519e 48be 11d4 5d3e 176e 47bd
00000050: ad7e adbe 0e95 413e 5bcb 35be 4e56 e53c
00000060: 9785 533e bcbe 883e efcb 203e c5cd da3c
00000070: 44e6 96bd af43 2d3e 77dc cb3d cb20 eebd
00000080: 1c20 e43d 6db2 f9bc 2f4c 58be 4e52 bd3d
00000090: 5b73 05bd 5561 433d 153f 5a3d 0644 0abe
000000a0: 222d 7fbe d23e 483d 094d bcbd f016 f73d
000000b0: b724 61bc e84c b43e da2a 813d 197d 8a3d
000000c0: 94cb 823d c280 35be 636f 7cbe eee6 21be
000000d0: 43e5 843b 8df3 003d cc59 cdbb fbad 94bd
000000e0: 69d6 4ebe e1cc 3d3e ebd7 b5bd acfd 2dbe
000000f0: 7ac5 a2bd 025b 443e 04dd 84be bb0f f6bd
00000100: ce1e 97bd 1af8 0abd 2b30 22be dade e33d
00000110: 5216 b9bd f782 653e 9c56 2a3d 22ac edbd
00000120: 4589 923d 31b4 90be 537b 923d 652f 8e3c
00000130: 5527 623e 0b0d b33d d0f0 093e abdd 243c
00000140: d2d5 85bc 0e70 54bc 1182 d53d bfea 5a3e
00000150: 51bf 453d 77fe bf3d 1353 bf3d bd3a ca3d
00000160: a6ce 1b3e 4f2b f43d 46b6 1dbd d96c bd3a
00000170: 915e e5bd 60ac 7e3d 9acd d6be c1e3 3abd
00000180: 41bd a83d 34a1 b43d f8ca f0bc 4839 8f3d
00000190: c9b6 de3c 6504 823e 6ec9 27be d99e 6a3c
000001a0: b08c 02be 7b2f 373e 9d37 43bd 0d8c 1bbe
000001b0: df31 6ebe 625a 2cbe 432c 403e 79a8 0c3e
000001c0: e85d 23bc e453 fb3d e613 5cbe 1e2a 823b
000001d0: 2799 a53c 925b 5d3c 6d53 86bd 932e 9c3e
000001e0: 5532 a1be c2cc 923e c931 15be 0d3c 0ebe
000001f0: 6ac6 80be 20b3 bd3d 55e6 bcbd ac08 29be
00000200: 853e 973d f73d d73d d08d 30be 19c0 fd3b
00000210: 5f41 073d e050 babd 9a2d 6f3e 8b5c e2bd
00000220: 25ae 4c3e 4b29 eb3d 1ef6 25be 2199 143d
00000230: 037e 0cbe 9b18 6dbc bb9d f93d 2a1a 7bbe
00000240: 53fe b4bc 2015 333e 95cf 083e e12c 263c
00000250: 48ed 0bbe dc79 723d ea58 b5bd da1e 613d
00000260: debb 0dbe 58b6 97bc 0a8f 873c 733d a7bd
00000270: cbe2 203e a05a 803e 8c6c 82be b810 66be
00000280: a071 9b3c 34c6 cbbd 0e24 86be 980f 44be
00000290: 01f6 383e d745 b63c 6ae3 653d b627 51be
000002a0: 2fa0 90be 4a3d 123e d95a 86be c6b3 8e3d
000002b0: f0af 233d 3f4b fcbd a6ed 40be e536 693d
000002c0: e5ec 7e3e 9660 d73c b68c 9d3d fc54 afbd
000002d0: ef57 903d 08b6 4dbe 6ef1 803e 54de 173e
000002e0: f487 55bc 9454 97bd 35c9 f1bd 82c1 6cbe
000002f0: ae41 903e 7df7 5fbe 4b9d 07bc 5d11 513d
00000300: 7de4 1ebe 0fc2 36bd 9c6c 16be 8144 503e
00000310: 1817 c33d 8a19 49bd a96f 903d 5fe3 a83d
00000320: 65ac 17bc c3ee 9f3d ad67 b7be d34c 903c
00000330: 6c3d f0bc 2318 ae3e 211a 583e d479 2cbe
00000340: 742e 733e c57d 4ebe d95f 6e3e 1fe0 09bc
00000350: 4910 213e 788d e0bc 7262 8bbc d158 463e
00000360: 8868 103e 5016 80bd 1abd 733d 9cba 513e
00000370: b729 ae3d c82b a2bd d32e 953c fb5d 2e3e
00000380: 7bbe 593d 26ef 513e 66ad 45be 212d 50be
00000390: 55bf b1bd a8e9 9a3c f0fd 653e 48dc 2dbc
000003a0: 8f6c 2d3d 1d5b 13bc 6ddc 83be a4eb 1dbc
000003b0: 11d8 503d 1a3d 38bd 855f 713d 0f5e f83d
000003c0: 5995 583e 9ceb 273d 4962 383e d1a2 c0bc
000003d0: 4330 4bbe 37bf 193d 3868 d03d a0b3 4fbd
000003e0: 1ba9 783c 2963 653d 6e58 72be 4fa8 a43d
000003f0: eed8 07bb fc9e 893e 68b9 34be 5b8b b4be
-0.1542932 0.23490098 -0.054291 -0.26163465 -0.16155858 0.15535149 -0.004941401 -0.3053644
0.046835635 -0.11296079 -0.037814822 -0.094022244 0.23943277 0.102195166 0.13605407 -0.059349973
0.07636053 -0.19591643 0.21662928 -0.048688974 -0.33885708 0.18904516 -0.17753355 0.027995255
0.20656429 0.2670802 0.15702794 0.026709447 -0.073681384 0.1692035 0.0995416 -0.116273485
0.11138937 -0.030480588 -0.21122812 0.09244214 -0.032580715 0.047700245 0.053282816 -0.13502511
-0.2491956 0.048888035 -0.09194381 0.12064922 -0.013741664 0.35214925 0.063070014 0.06762142
0.06386486 -0.17724898 -0.24651866 -0.15810749 0.0040556504 0.031482268 -0.006266808 -0.07259747
-0.20198978 0.18535186 -0.08879074 -0.169913 -0.07947822 0.19175342 -0.25949872 -0.12014719
-0.073789224 -0.033928014 -0.15838687 0.1112649 -0.090374604 0.2241324 0.041586503 -0.11605097
0.07155088 -0.28262475 0.071524285 0.017356584 0.22085316 0.08742722 0.13470769 0.010062615
-0.016337309 -0.012966169 0.10425199 0.21378611 0.048278157 0.09374707 0.09342017 0.09874485
0.15215549 0.11922323 -0.038503908 0.0014451995 -0.11199678 0.06217611 -0.41953737 -0.04562736
0.08239222 0.088198096 -0.029393658 0.069933474 0.027186768 0.25393978 -0.16385433 0.014320099
-0.1274898 0.17889206 -0.04766046 -0.15190144 -0.23261212 -0.16831353 0.18766885 0.13736142
-0.009971119 0.1227186 -0.21491966 0.003972306 0.02021463 0.013510602 -0.06558881 0.30504283
-0.31483713 0.28671843 -0.14569773 -0.13890095 -0.25151378 0.09262681 -0.0922362 -0.16507214
0.073849715 0.10509866 -0.17241597 0.007743847 0.033021327 -0.09097457 0.2335724 -0.110528074
0.19988306 0.114824854 -0.16207168 0.036278848 -0.13719945 -0.014471198 0.12188288 -0.245217
-0.022093927 0.17488527 0.13360436 0.010142536 -0.13664734 0.059198245 -0.0885485 0.054961063
-0.13841197 -0.018519565 0.016547699 -0.081660174 0.15711515 0.2506914 -0.2547344 -0.22467315
0.018975079 -0.099499136 -0.26199383 -0.19146574 0.18062593 0.0222501 0.056125082 -0.20425305
-0.2824721 0.14281192 -0.26241186 0.06967883 0.03996271 -0.123190396 -0.18840656 0.056937117
0.24895056 0.026291173 0.07692854 -0.08561131 0.07048022 -0.2008897 0.25184196 0.14830905
-0.013032902 -0.07389179 -0.11805955 -0.23120692 0.2817511 -0.21871753 -0.008277248 0.05104195
-0.15516849 -0.044618662 -0.14689869 0.20338632 0.09525889 -0.04909662 0.070525475 0.082464926
-0.009257411 0.07809212 -0.35821286 0.017614758 -0.029326163 0.3400279 0.21103717 -0.16843349
0.23748189 -0.20165165 0.2327875 -0.008415251 0.15728869 -0.027411208 -0.017014716 0.19369818
0.14102376 -0.06254256 0.059506513 0.20481342 0.0850405 -0.07918507 0.018210804 0.17028038
0.053160172 0.20501384 -0.19304428 -0.20329715 -0.08679072 0.018910244 0.2246015 -0.010611601
0.042339858 -0.008993891 -0.2575411 -0.009638701 0.050987307 -0.044980146 0.058928985 0.12127315
0.21150722 0.04099618 0.18006243 -0.023515137 -0.19842629 0.037535872 0.10176128 -0.050708413
0.015177037 0.05600277 -0.23666546 0.08039915 -0.0020728665 0.26879108 -0.17648852 -0.3526257

encoder.net.0.bias f4 [60]
00000000: 7a3f c73c 1777 b5bc a426 833c 0764 983b
00000010: 93ba 533c f44b 083d ae1b 08bd 532a 313d
00000020: e827 49bd 58ed bcbc bb87 07bd a045 f33c
00000030: bdc3 8e3d 0765 f23b f261 07bc 37dd fe3c
00000040: 2e5e 1fbd 1840 1ebd 567e 103d bcf1 1fbd
00000050: fb29 183d 943e ee3c d0be 0f3d 6164 a63c
00000060: 0a57 be3a 9420 1f3d 22e7 86bd 1c73 5f3d
00000070: 16a4 f2bc 73a2 ea3c 3636 14bd 0401 50bd
00000080: 1ede 323d 75a0 433c 1758 f03c b20f f3bc
00000090: 2239 a5bc 0ec1 aebc 8030 d83c aa51 9abc
000000a0: b083 26bd 6354 073d ce00 14bc ac73 67bc
000000b0: cfab 44bd 3e98 6bbd afb9 12bd 6e70 5ebd
000000c0: 77a2 6abd 2430 f73c 59bf af3c 3982 9abc
000000d0: 27ff 8cbd 09b1 74bd 5def 11bb 6e52 1bbd
000000e0: 8058 2a3d 8887 4fbc fc65 623d 4e7e 43bd
0.02432226 -0.022151513 0.016009636 0.004650596 0.012922901 0.03327556 -0.033229522 0.043253254
-0.049110323 -0.023062393 -0.033088427 0.029696286 0.06970928 0.0073972973 -0.008263098 0.031111343
-0.038908176 -0.038635343 0.035276733 -0.039048895 0.03714941 0.029082574 0.035094082 0.020311536
0.0014521789 0.03884943 -0.06587054 0.054553136 -0.029619258 0.028641915 -0.036184512 -0.05078222
0.04366886 0.011940111 0.02933888 -0.02967057 -0.020168845 -0.02133229 0.026390314 -0.018837769
-0.04065293 0.03303946 -0.009033395 -0.014126699 -0.048015412 -0.057518236 -0.035821613 -0.05430644
-0.057283845 0.030174322 0.021453546 -0.018860923 -0.06884604 -0.059739146 -0.0022267916 -0.037920408
0.041588306 -0.0126665905 0.05527304 -0.047727875

encoder.net.2.weight f4 [60, 60]
00000000: 39e0 f2bd 5c83 9cbd fbc5 1cbd dc77 9fbd
00000010: f9c4 68bd d3ad 603e 16dd 4bbe 9436 c73d
00000020: 7482 813d a245 9dbd 161d b63d bf50 89bd
00000030: 6cff a7bc fc96 e3bc 5999 3d3e abcd 04be
00000040: 7878 563e 825c b1bc e4d2 30bd 0cb4 003d
00000050: d24a 393e edde a3bd 2e7e c13c bebd ac3c
00000060: 0335 dc3c f436 213e 9252 d43e 39f2 b83d
00000070: 1b03 6c3d 202d 6c3d bb98 4fbe 5567 a03d
00000080: 1197 8ebe 0c81 9b3d d3b9 543e 0ce4 d93d
00000090: d180 9ebe 224a 2fbe b22f d33d 9cc8 b93c
000000a0: db9d fb3d 667c 873d 2950 eabd e68b 62bd
000000b0: 672e 15bd 6457 a83d 6d6a 1e3b b436 173e
000000c0: c44b d7bd f0f1 aa3d 93b2 283e 090d 00be
000000d0: 5bbf 1e3e 7290 cbbd f4a4 043d 57c2 85bd
000000e0: 2a5f f9bc 5a03 7c3c d052 e3bd 7f25 da3c
000000f0: da38 84bb 57a8 96ba 5cd6 683d d6a6 bbbc
00000100: e5f5 32be f95d 3b3d 4fe6 d23c ac9a 00be
00000110: 52a7 863d 8b35 b6bc 0de5 013d d614 a23d
00000120: 367b 8ebd 5a08 7c3e 75eb 9d3c f797 173e
00000130: dd2a aabe 52a0 c9bd 1803 843e f32c e4bd
00000140: 511b 8b3d fa5b 04be 6dfb df3d 5148 1cbe
00000150: 54b6 2abe 5d2a 913d 8c1e aabc 75b4 213e
00000160: cb1f 84bc 3afd 933d e0bb a63d 9490 80bd
00000170: c667 873d 6593 e83d d100 1cbe ae7b 9abd
00000180: 6ff4 ca3d 9acf 89bd 4496 253e 8fb6 e53d
00000190: f34d ab3d 9044 e23b de4b 48bb 35ce 74be
000001a0: f2f4 5a3c 2755 f0b9 38fe 47be 586e 9c3e
000001b0: d7f3 5abd 51bc 01be fb91 fa3c d5ec da3c
000001c0: 9ea1 8c3c 84ed 08be a06f a1be e2d5 39be
000001d0: 71f6 bb3d a4aa 943c b221 f53d 45b9 1e3d
000001e0: a6d7 483c caa9 d63d fbfe 9d3d 4007 133e
000001f0: cdc9 713d 8eb4 9d3d e543 a33d ec43 a63d
00000200: 45e1 8e3d fb14 443d d648 47be 0822 cf3c
00000210: 40cb 0f3e d7c2 233e 6fad 60be a6dd 15bd
00000220: 9090 32bd 561f 0dbd 08f0 383e 6c7f 43bd
00000230: 24c2 37bd 1412 d1bd 80ae dd3c f6fc 11be
00000240: 52e8 3a3e 852f a5bd 2683 493d 170a 9dbd
00000250: 4b9b 8cbd 2871 793c 9292 8e3e f130 a6bd
00000260: 05da 3dbe a45e bf3d 7ada 0abe 2a7c 08be
00000270: c554 f3bc e354 03be 8e31 c5bd 25d2 1d3e
00000280: c997 95bd 8b90 b73d 52bb 58bb f204 ccbc
00000290: 00f2 44be 4eec ea3d 242e ea3d 8519 77be
000002a0: 974f bb3d e0a7 c9bb 58bc 53be 0ada a5bc
000002b0: 6717 f7bd 6530 0a3e 816a fbbd 4ae0 943d
000002c0: be39 2dbd 2816 86bd c95d 0cbe 12f6 b1bd
000002d0: 564c 633e 2764 a53e d27d 67bd 5c51 bf3d
000002e0: 633c c5bd d885 6bbd 882e 6d3e 3cec c9bd
000002f0: c39d 3fbe d01b d73d 9170 743d 0db4 23bd
00000300: 7dd1 063e 9d0d f13d a997 33be 6bb9 e0bd
00000310: 1207 70bb 0078 d23c 7e0a 033d a471 9c3e
00000320: d00d dc3d ed72 e6bb 90c1 99bc c12e e93d
00000330: 29ed 30bd 633e 4dbe 17d6 8ebd ce81 3e3a
00000340: 0c43 00be b421 2fbe 4f1f 45bc 5f3a 913d
00000350: 50d8 023e 6ff7 06be 1dfe 393e 6718 ad3e
00000360: 9b5c 63be 9c82 dcbd f007 023e e06b 66be
00000370: 06c9 e13c 5611 a23d a06f 0b3e d68d 7e3a
00000380: 06ee 32bd bcbc d2be c6f1 753d ba92 a1bd
00000390: e4b8 7abd af59 83bd a2c2 213c 9fc7 51bd
000003a0: 7870 07bd df21 063e 58c4 0dbe 3f98 80bc
000003b0: ba0d d8bd f96e 46be 21c0 4e3d 0393 0e3e
000003c0: 0bf2 9d3d 113d 81be a0bb 3bbe 2f0e 723d
000003d0: 6310 7cbd 33a7 333d 4616 a0b8 1521 c53c
000003e0: efae 903d 5a6d 923c ebe4 103e 9757 b83d
000003f0: ed48 e9bc 1397 d5bd f48f dcbc 79bf 5a3e
-0.11859173 -0.07642242 -0.038274746 -0.07786533 -0.056828473 0.21941309 -0.19908556 0.09727207
0.0632371 -0.07679297 0.088922665 -0.06704854 -0.020507537 -0.027781956 0.18515529 -0.12969081
0.20944393 -0.021650556 -0.04316987 0.031421706 0.18094948 -0.08001504 0.023619737 0.02108657
0.026880747 0.15743619 0.41469246 0.09030575 0.05762015 0.057660222 -0.20273106 0.07832209
-0.2784963 0.07592973 0.20774011 0.106391996 -0.30957654 -0.17118123 0.103118315 0.022678666
0.12285968 0.06615524 -0.114410706 -0.0553092 -0.036421206 0.082197934 0.0024172321 0.14766961
-0.10512498 0.08346927 0.1647437 -0.12504973 0.15502684 -0.0993966 0.032383874 -0.06531208
-0.030440886 0.015381658 -0.110997796 0.026629208 -0.0040350975 -0.0011494261 0.056845054 -0.022906702
-0.17476614 0.045743916 0.025744585 -0.12559003 0.065748826 -0.022242328 0.03171258 0.079141304
-0.06957094 0.24612561 0.019277314 0.14804064 -0.33235827 -0.09845032 0.2578361 -0.11141386
0.067923196 -0.12925711 0.109366275 -0.15261962 -0.16671115 0.07088158 -0.020766519 0.15791495
-0.016128441 0.072260335 0.08141303 -0.06277576 0.0661159 0.11356238 -0.15234686 -0.07543121
0.09909903 -0.0672905 0.16170603 0.11216461 0.08364477 0.006905146 -0.0030562798 -0.23906787
0.013364064 -0.0004583981 -0.1953057 0.30552936 -0.0534552 -0.12669493 0.030587187 0.026724258
0.017166909 -0.13371855 -0.31530476 -0.18147996 0.09177864 0.018147774 0.119693175 0.038750906
0.012258446 0.104816034 0.07714649 0.14358234 0.059030343 0.07700454 0.07971934 0.08118424
0.069765605 0.04787157 -0.19461378 0.025284782 0.14042377 0.15992294 -0.2194116 -0.036588334
-0.043594897 -0.034453712 0.18060315 -0.04772894 -0.04486288 -0.10208526 0.027060747 -0.14256653
0.18252686 -0.08065704 0.04919734 -0.0766794 -0.06865557 0.015224732 0.278462 -0.081148036
-0.18540199 0.09344223 -0.13559905 -0.13328615 -0.029703507 -0.1282535 -0.096285924 0.15412195
-0.07304341 0.08963116 -0.0033070636 -0.024904702 -0.1923294 0.11470853 0.11434582 -0.24130829
0.0914604 -0.0061540455 -0.20677316 -0.02024557 -0.120650105 0.13495024 -0.122761734 0.07269342
-0.042291395 -0.06547195 -0.13707651 -0.08689512 0.22197089 0.32302973 -0.056516476 0.0934169
-0.096306585 -0.05750069 0.23162282 -0.09859511 -0.18712525 0.10503352 0.059677664 -0.03996663
0.13165851 0.11770175 -0.17538323 -0.10972866 -0.0036625308 0.025691986 0.031992428 0.3055545
0.10744822 -0.007032743 -0.018769056 0.11385871 -0.043194924 -0.2004333 -0.06974428 0.0007267267
-0.12525576 -0.171027 -0.01203139 0.070912115 0.12777829 -0.13180326 0.18163343 0.3380768
-0.22203295 -0.10767099 0.1269834 -0.22502089 0.027561676 0.07913463 0.136168 0.0009710466
-0.043684028 -0.41159618 0.060045026 -0.07889314 -0.06121148 -0.0641359 0.009873064 -0.051215764
-0.033066243 0.13098858 -0.1384443 -0.015697597 -0.10549493 -0.1937827 0.050476197 0.13923268
0.07712182 -0.25241902 -0.18333292 0.059095558 -0.061539065 0.043860625 -7.633543e-05 0.024063626
0.07064616 0.017874409 0.14149825 0.090010814 -0.028477157 -0.10429206 -0.026924111 0.21362104

encoder.net.2.bias f4 [60]
00000000: e9d6 41bd 4820 363d cd38 3cbd 9c0a 01bd
00000010: c35e 763d 2f5a 293d 5d09 823c f495 ab3b
00000020: 697f 55bd e317 11bd 5b22 2a3d 20f8 d4bc
00000030: b580 c73c a511 c53c 2ce0 a0bc f40b 473d
00000040: 7076 283d c1bd 4f3d 5544 57bd 3fc5 56bc
00000050: 0407 aebc 3673 e83c 9d84 233d b8c8 5abd
00000060: dc15 96bb 0fd0 71bd 7f11 0b3d eb9a 38bb
00000070: 2498 f43c feac 193d 57f2 2f3d 393a 76bc
00000080: de58 42bd f40a 183d 1e3c 283d 3c73 043d
00000090: b873 783d 9d70 dabc d8cb 463d 047d 3bbd
000000a0: 79e5 063d b802 953d 891d 09bd 5e93 d9bc
000000b0: d282 32bd 61f7 c0bc dc0f 41bd de9e 2abd
000000c0: 37cf 193d 9162 9fbd 62a6 70bc ff71 26bd
000000d0: 9025 40bc 5cd1 e73c 2001 a3bc 0322 25bd
000000e0: 1c60 30bd 1b68 dcbc 8873 233c 08f7 54bd
-0.047324095 0.04446438 -0.045952607 -0.03150426 0.060148966 0.04134577 0.015873605 0.0052363817
-0.05212346 -0.03542317 0.04153667 -0.025997221 0.024353364 0.024056265 -0.019638143 0.048595384
0.041128576 0.050718073 -0.0525554 -0.013108551 -0.02124358 0.02837525 0.03992139 -0.053414077
-0.0045802426 -0.05903631 0.033952232 -0.002816851 0.029857703 0.037518494 0.042955723 -0.01502853
-0.04744803 0.03711982 0.041072957 0.03233646 0.060657233 -0.026665026 0.048534244 -0.04577352
0.032933686 0.07275909 -0.033475433 -0.026559528 -0.04358179 -0.02355546 -0.047134265 -0.041655414
0.03755113 -0.07782472 -0.014688106 -0.04063606 -0.011727706 0.028298073 -0.019897997 -0.04031564
-0.043060407 -0.02690511 0.009976275 -0.0519934

encoder.net.5.weight f4 [32, 60]
00000000: 62cb 55bd 3940 24bd dd23 803d 0e75 5c3c
00000010: 1068 5c3d 3e75 213e ac5d 58bc 8251 1d3d
00000020: 7295 e53b 351a 073e a00f 043e 29f0 0cbd
00000030: 8f57 23bd b6bd 103e 6add 19be b7c3 80bd
00000040: c5fd 053e 8c3c 24bc 7b81 b33d 4298 71be
00000050: 3d15 38bd 874d 1a3e 7519 bd3d 4b8d 363d
00000060: 9eac f6bd 10c2 843d ffd7 6dbe 80d5 963d
00000070: 0720 4bbe df73 59be c5d4 23bc 0aa2 933e
00000080: 9221 393e 64f8 133e 597b cd3d 9343 713e
00000090: a60e eabd 20f0 093e 0a24 59bd b521 783a
000000a0: c8e9 0bbd 4e88 783e f823 f4bd 3dfd 2f3e
000000b0: 33fd 1b3d 42c9 963d a04b 133d 6bed d8bd
000000c0: 394e d03d 2c43 84bd 83cf 4b3d cea2 b5bd
000000d0: dead 153e 3299 913d 227d a2bd 25dd b0bd
000000e0: ccd0 603d 91a9 2f3d 8057 983d d1c7 453d
000000f0: f6e9 c03e 1f6a 183c a56f 21bd 880c 013e
00000100: 1625 50bc 6633 56bd 4bb2 4ebd 2b27 0a3d
00000110: 02e5 113e 6aaa 20be 05c6 8fbd 9f38 adbd
00000120: ea17 403e 14d8 6c3e 6fbb e7bd 3aff 963e
00000130: 3f8a 49be 39ec 78be d3c6 803d 24de d3bd
00000140: 9636 81be 64f4 94bd 50e5 d43e 5273 d33d
00000150: 677b 933b 425a 6dbd cab7 443d 612f c8bd
00000160: 4a4b 9d3d dea4 7b3d 7354 003c 8911 d1bd
00000170: 00dc 55be 5d71 d9bd 0f84 3fbc 6bd7 583e
00000180: 3a71 143d fb5a e6bc 8244 e1bd 4bda 0c3e
00000190: 9d2c f4bd f61a 7ebd 42f6 a7be 2390 393d
000001a0: c4de ebbd 3b89 c3bd f976 9d3d 2a9b 05be
000001b0: b603 2bbd f185 cfbe 2d54 1fbd 6aa0 9c3c
000001c0: 6439 0d3e 6c26 763e 8823 a43e a57f bcbd
000001d0: 1c24 05be d772 333e 7ab3 94be abb7 753d
000001e0: a809 0dbe 086a 9e3d 0023 1e3e 43f0 90bb
000001f0: 47d7 723e 9697 3cbc 34cf 7e3d 07f8 02be
00000200: 9660 94be 5ab5 eabd fbcd 08be ffa9 473d
00000210: 3678 ddbd c8c3 1ebc 50f2 65bd 426c 3b3e
00000220: a950 ed3d 8e68 32be 7ce3 243e 0863 143e
00000230: 02b9 0e3c 66eb 293e 96cf f6bd 743f dbbd
00000240: c4d1 85bd 5e88 063d dcbc be3d acb0 973d
00000250: d7b7 95be a8ad 44be 1606 f2bd e30d c5bd
00000260: e81a 1f3e acc3 073e a22d e93c 6128 31be
00000270: 62a1 e83d 087e b53d 6641 093e b919 0d3d
00000280: 6f8d 9d3e ecf2 973d 8ad1 5a3e db06 20be
00000290: 3932 25be 5ded 17be b05a 09be 767c debc
000002a0: b565 a5bd 850d b63c cc74 7dba 12c5 f6bd
000002b0: d6ec f43d 7ac7 a2bc d53c ef3c 2e2d 06be
000002c0: 8d45 8ebc df93 37bd 1e8f e63d 92bb 13be
000002d0: 6ceb ed3d a959 73bd d228 543e c093 92bc
000002e0: f6fd 8f3e 1c37 b83d 8100 5a3e 1c2e 1a3e
000002f0: 4fef 733c 1549 fd3b e9f8 f73d 7c20 7e3e
00000300: ca0a 493e c61e ad3d 233b e33d a563 e63d
00000310: 0fc4 b63d 2f01 4ebe 5419 c0bd 3362 01be
00000320: 0403 edbd 8e59 08bc 5453 27bd 7f30 573e
00000330: 8aae 2a3d 05aa bbbd e925 7d3d f87f 883e
00000340: 13ca a9be 363a 4cbe a513 383e c571 3dbc
00000350: e1ea 8f3c 9348 fabc 7a11 983d a523 0bbd
00000360: 5250 63be 0f27 8bbe 22c4 913e 8b60 3fbe
00000370: 5d6e 0b3e ade1 443d bebc 263b e0dc b5bd
00000380: fe6d f8bc dd3f f2bc e3b6 dbbd 1bd2 a8bd
00000390: 321a d93c 571e 49bd 321c 96be f966 c63d
000003a0: a0f5 3dbe f553 683e 3f7b 54be 55c8 4e3e
000003b0: 9604 e5bc e8fe 483e 1613 39bd d945 9c3c
000003c0: 4391 003d 5315 193e 6279 57be 39fe 4e3e
000003d0: 42f2 bb3d 5eea 283d 3e79 c5bc 44f3 f23d
000003e0: cd48 cfbd bfe8 3cbd 6ca4 843c ca32 1d3e
000003f0: 7f5b 1a3c f5c7 25be 305d 803d 941f ec3c
-0.052195914 -0.04010031 0.062568404 0.013455642 0.05381018 0.1576738 -0.013205927 0.03840781
0.0070063407 0.13193591 0.12896585 -0.034408722 -0.039878424 0.14134869 -0.15025869 -0.0628733
0.13085087 -0.010024201 0.08764931 -0.23593238 -0.04494213 0.15068637 0.09233371 0.04456834
-0.12044643 0.06482327 -0.23226927 0.07364941 -0.19836436 -0.21235608 -0.009999459 0.28834563
0.18079212 0.14450222 0.10033292 0.23560934 -0.11428575 0.13470507 -0.053012885 0.0009465472
-0.034158498 0.24270746 -0.11920923 0.17186446 0.038083266 0.07362606 0.035960793 -0.10592159
0.1017117 -0.064581245 0.049758445 -0.08868943 0.14617106 0.07109298 -0.079340234 -0.0863593
0.054886624 0.04288632 0.07438564 0.048286263 0.37678498 0.009302645 -0.039413113 0.12602437
-0.0127041545 -0.05229511 -0.050463002 0.03372876 0.14247516 -0.15690008 -0.07020191 -0.08458065
0.18759122 0.23129302 -0.11315047 0.29491597 -0.19681643 -0.24308862 0.06287923 -0.10345104
-0.25236958 -0.07273176 0.41581202 0.1032473 0.0045007947 -0.057947405 0.048026837 -0.09774662
0.07680376 0.061436526 0.007832634 -0.10208423 -0.20884705 -0.106173255 -0.0116892 0.21175925
0.036240794 -0.028119555 -0.10999395 0.13755147 -0.11922572 -0.06203743 -0.32805067 0.045303475
-0.115170985 -0.09547659 0.07688708 -0.13047472 -0.041751586 -0.40531877 -0.038898636 0.01911946
0.13791424 0.24038094 0.32058358 -0.09204034 -0.13002056 0.17524277 -0.2904318 0.059989613
-0.13773215 0.077350676 0.15443039 -0.0044231727 0.23714934 -0.01151075 0.062209323 -0.12789927
-0.2897994 -0.11460371 -0.13359825 0.048746105 -0.10813944 -0.009690233 -0.05613929 0.18303016
0.1158765 -0.17422697 0.16102403 0.14490902 0.0087111015 0.16593704 -0.120513126 -0.10705462
-0.0653415 0.032844894 0.09313366 0.07406744 -0.2924182 -0.1920687 -0.11817567 -0.09621789
0.15537608 0.13258237 0.028464142 -0.1730056 0.11358906 0.08861929 0.13403854 0.03444836
0.30771968 0.074193805 0.21368995 -0.15627615 -0.1613244 -0.1483664 -0.13413501 -0.027158957
-0.0807604 0.022223243 -0.0009668588 -0.12049307 0.11959235 -0.019870508 0.029203812 -0.13103172
-0.017367149 -0.044818755 0.11257766 -0.14427021 0.11617169 -0.05941168 0.20718697 -0.017892718
0.28123444 0.08994886 0.21289255 0.15056652 0.014888599 0.0077296593 0.12108023 0.2481708
0.19633022 0.08453135 0.11095264 0.112494744 0.08924114 -0.20117639 -0.09379831 -0.12635116
-0.11572841 -0.008322133 -0.040850952 0.21014594 0.04167036 -0.09163288 0.061803732 0.26660132
-0.33161983 -0.1994408 0.17976244 -0.011562769 0.017568054 -0.030552184 0.074252084 -0.03396954
-0.22198609 -0.27178237 0.2846995 -0.18689172 0.13616319 0.048066784 0.002544209 -0.08880019
-0.030325886 -0.029571468 -0.10728242 -0.082431994 0.026501749 -0.0491012 -0.29318386 0.09687609
-0.1855073 0.22688277 -0.2075014 0.20193608 -0.027956288 0.19628489 -0.045184217 0.019076275
0.031388532 0.14949541 -0.21042398 0.20214166 0.091770664 0.041239135 -0.024105664 0.118628055
-0.101213075 -0.0461204 0.016191684 0.15351406 0.009421228 -0.16189559 0.06267774 0.028823651

encoder.net.5.bias f4 [32]
00000000: 1bec 5ebd 4e72 363d 1d51 683d 2ca0 1bbd
00000010: fdca b13c 7041 53bd 8a61 523d d6e3 35bd
00000020: 1624 b6bd 36d3 2f3d 9eae 4cbd 26c1 f43d
00000030: 8172 2dbd 975f 263d a993 86bd af8e 5bbd
00000040: 6e3b 8c3d 5c38 62bd 074d 433d de12 15bd
00000050: bee5 153d 85d2 3fbd eedc 583d a8e8 36bd
00000060: 1003 763d 5f79 2c3d 05ae 973d 12a3 673d
00000070: f7b4 59bc 7b4b 393d d39e 71bd ba53 0bbd
-0.054424386 0.044542603 0.05671798 -0.03799455 0.021703238 -0.051576078 0.05136255 -0.044406734
-0.088936016 0.042926036 -0.049971215 0.11950903 -0.042345528 0.040618505 -0.06571133 -0.05360287
0.06847273 -0.05522953 0.04768088 -0.036394946 0.036596052 -0.046831626 0.05294507 -0.044655472
0.060061514 0.042107936 0.074062385 0.056552 -0.013287774 0.045238 -0.058989357 -0.034015395

predictor.net.1.weight f4 [32, 32]
00000000: cf27 203e 7821 a63d aba2 da3e e8aa 133a
00000010: cf6a 7abe 49d5 a5bd f90e 57bc 06b3 673d
00000020: dbcf 9a3d 8364 e03d 995e 053d 5f54 8dbe
00000030: 2356 3b3e 1104 a33e 6b78 ef3c f1c9 323d
00000040: c660 503e 1add 32be 6d52 1ebe ca22 57be
00000050: f34a 00bc a8d6 83bb 2414 953d f1cf 0dbd
00000060: 5b04 043e db70 10be c55d 273e d299 db3d
00000070: ad66 793c a076 30be 459a 32bd daee 9c3b
00000080: 64dd 953c 8cc6 abbc 8969 3abe 59dc 3f3e
00000090: 7005 b1be e082 5cbd d554 6abe 9225 ae3d
000000a0: 9501 213d 599b 9cbe dbc4 063e 6da4 96ba
000000b0: 9955 183c 472b 253e 19e5 10be 0e95 e73e
000000c0: 61f5 213d ba36 843d 6b87 1f3e db19 a83e
000000d0: 8d4a 6dbd bc85 253d f360 1abe bf38 01be
000000e0: 0a25 bbbe dc4a cfbe c359 8b37 6799 e1bb
000000f0: 3999 373d c7e3 cfbd 67ca 5f3e 2961 273e
00000100: bcfb 4bbe c2ab 2abd 8b37 683e 0fd8 6a3d
00000110: faa2 9cbe 7616 f93d a45f 67bd 02a9 30be
00000120: 630e 09be 8ca0 3cbd 6ee3 f23d e963 b2bd
00000130: a70e 17be baf1 f53e b6ae d2be b22c 123e
00000140: 0fcf 823e f803 723e 1f48 6e3c 6fcc 5a3e
00000150: 8c1a 61bc 9f74 4f3d 704c 053e 2163 1cbe
00000160: 6be4 eebd c484 b4bd 7883 1dbe 04f7 87bc
00000170: 5781 9abe f477 72be 70e6 803d 8a3c a83e
00000180: 3b9b d53d cee2 e8bd 326f a2bd b9a7 8d3e
00000190: 630a f5bd 64b2 b6bc f93b 88bd 4608 933e
000001a0: c1ed 0a3e 9063 da3d 7fc6 9fbe f2a8 65be
000001b0: af11 59be 8ec2 823d c1e1 d9bd 9894 193e
000001c0: 768f 9fbe a48e dabd 3d48 f5bd 8f11 5ebd
000001d0: 28ff 54bd cdce 8b3c 9bad 143d 3869 903e
000001e0: 7c17 223e feb4 51bb 1cbc aebd 8213 59bd
000001f0: 8203 65be 23f6 0e3d 1a4e c63d e0f6 553e
00000200: ccd8 6c3e 262d 0fbd 66e6 72bd 3b8c 01bd
00000210: 9e5e 213d e4ab a73e 035d c53c 0cec 133e
00000220: 7268 a6be b53f 283e 747b 4e3e 5306 0c3d
00000230: 6b37 b2bb 5459 47bd b2d2 b93e 0af7 9f3d
00000240: fc40 eabd 9bf9 223e 831c 733e 3da8 243a
00000250: a52a 0c3d 176b 03be 8224 b4bd dab5 623d
00000260: 2cee 083d 4f0b 55bd a4b9 b7bd 8216 3abe
00000270: 0b40 fa3d 45ed 793e 9b04 0fbe 7de4 a7be
00000280: da61 90bd 163f 963d 3446 4abe 5235 bfbe
00000290: 9881 223e 842f 82be 31e9 61bd 8abf 02be
000002a0: 7013 8c3a 6368 b43c 8c17 02be d1c3 a9bd
000002b0: 6ae3 8dbe 1d66 f33d 9648 1cbb ddf8 58bd
000002c0: 4938 733c 9b9c d8bc 9c42 15be 6d43 8e3e
000002d0: 04f9 fdbd 127d 34be f393 ddbd 165a ad3d
000002e0: a73a 57bc a640 ae3d d114 543d 022e 33bd
000002f0: e7c2 c8be a0e5 e53d b975 fe3b b772 4fbe
00000300: 2b23 47be 0dd7 7ebe 7bc0 f5be c90b 793e
00000310: 3f73 dc3d 24da babd 3b74 8e3c aa36 063e
00000320: 0ed6 af3d 3465 88be 692f e6bd 95dd 6b3d
00000330: 10ab b53b b9ef 8cbd bfd0 86bd 9dbf 0e3b
00000340: fa8c 613e d2f1 50be 848a fbbc 352d 6fbe
00000350: d588 20be eb43 dbbd ff2a 003e 42b1 cebe
00000360: 63c2 fabb e868 c9be b949 1f3e fc91 f73d
00000370: 6871 b2bd c942 f3bd b0ce 4bbe 4b93 8a3d
00000380: 8c34 7ebe 45df 833e 7aaf 6fbd 51d9 de3d
00000390: 222c 9fbc 1974 9fbd 09f2 5ebe 870e 243e
000003a0: ce41 bcbc 6d0d 403e ecce e83d 91ef c43d
000003b0: c23d 2cbe 1401 9f3b a491 cdbc 9051 36be
000003c0: 5291 c9bd 9b83 0dbe af58 45be c120 3dbd
000003d0: 6508 96bd 93e9 fabd 510c 993e dff0 f0bc
000003e0: 98ce 443e 0293 843e 0670 4d3e 24af 00bd
000003f0: 2361 273e 2132 32bd b2ad a6bd 697f a53d
0.15640186 0.081118524 0.4270223 0.0005633072 -0.24454807 -0.080973215 -0.013126128 0.056567214
0.075591765 0.10956671 0.03256092 -0.27603433 0.18294577 0.3183904 0.029232224 0.043649618
0.20349416 -0.17467156 -0.1546113 -0.21009365 -0.007830369 -0.0040233918 0.07279232 -0.034622137
0.12892286 -0.14105551 0.16344364 0.10722698 0.015222234 -0.17232752 -0.043604154 0.0047892155
0.018294044 -0.020968698 -0.18204321 0.187364 -0.3457446 -0.05383575 -0.22883923 0.0850326
0.03930815 -0.3058727 0.13161032 -0.0011493094 0.009297752 0.1612979 -0.14149894 0.45230907
0.039540652 0.06455751 0.15579002 0.32832226 -0.057932425 0.040410742 -0.15076046 -0.12619303
-0.36551696 -0.404868 1.661189e-05 -0.006884742 0.04482386 -0.10150867 0.21854554 0.16345657
-0.19920248 -0.041667707 0.22677438 0.057334956 -0.3059309 0.12162487 -0.056487694 -0.17251971
-0.13384394 -0.046051547 0.11859785 -0.087104626 -0.14751683 0.48035985 -0.4114892 0.14274862
0.25548598 0.23634326 0.014543562 0.21367048 -0.013739239 0.050648328 0.1301744 -0.1527219
-0.11664661 -0.088143855 -0.15382183 -0.016597278 -0.30176803 -0.23678571 0.062939525 0.32858688
0.104299985 -0.113713846 -0.07931365 0.27667025 -0.11964872 -0.02230186 -0.06652064 0.2871725
0.13567258 0.10663521 -0.31206128 -0.22427729 -0.21198152 0.063847646 -0.10638762 0.1499809
-0.3116414 -0.10671738 -0.11976669 -0.054215964 -0.05200115 0.017066384 0.036298376 0.28205276
0.15829271 -0.003199875 -0.08531973 -0.05299712 -0.2236462 0.034902703 0.096828654 0.20894957
0.23129576 -0.034955166 -0.059301756 -0.031627875 0.039396875 0.3274833 0.024092203 0.14445513
-0.3250156 0.16430552 0.20164281 0.03418572 -0.0054387352 -0.048669174 0.3629356 0.07810791
-0.11438176 0.1591553 0.23741345 0.0006281173 0.034220356 -0.1283382 -0.08796026 0.05534921
0.033430263 -0.052012738 -0.08970955 -0.18172649 0.122192465 0.24406917 -0.139666 -0.3279151
-0.07049914 0.073362514 -0.19753343 -0.37345368 0.15869749 -0.25426877 -0.05515403 -0.12768379
0.0010686945 0.022022432 -0.12704295 -0.08289302 -0.27712566 0.11884711 -0.0023846976 -0.05297171
0.014844962 -0.026441863 -0.1457619 0.27785817 -0.124010116 -0.17625836 -0.10819235 0.08464448
-0.013136542 0.085084245 0.051777665 -0.04374505 -0.392112 0.11225438 0.0077654985 -0.20258604
-0.1944701 -0.24886723 -0.47998413 0.24320902 0.10764169 -0.09123638 0.017389407 0.1310679
0.085857496 -0.26639712 -0.112395115 0.057584364 0.005544074 -0.06881661 -0.06582784 0.002178169
0.22026435 -0.20404747 -0.030705698 -0.23357089 -0.15677197 -0.10706314 0.12516402 -0.40369612
-0.0076525672 -0.3933785 0.15555467 0.12088391 -0.08713037 -0.11877973 -0.19903064 0.06766375
-0.24824733 0.2575628 -0.058516957 0.108812936 -0.019430224 -0.07785816 -0.21772017 0.16021167
-0.022980597 0.18755122 0.11367592 0.09616006 -0.16820434 0.0048524234 -0.02509386 -0.17804551
-0.09842171 -0.13819735 -0.19272111 -0.046173815 -0.0732582 -0.12251582 0.2989221 -0.029411731
0.19219434 0.25893408 0.20062265 -0.031417027 0.16345648 -0.043504838 -0.081385985 0.08080942

predictor.net.1.bias f4 [32]
00000000: c54d bb3d de07 d93e ca4a c73d 825e da3d
00000010: a9f3 c93d 56ed bd3d 8127 aabd 31e6 00be
00000020: b879 8f3e 33f7 6dbe 92ef ebbd f9c6 bdbd
00000030: bd97 16be 710e ed3d 0349 05be 372d cbbd
00000040: d191 eebd f90f d83d a6c4 d6bd 91ac eebd
00000050: 8e11 db3d 1952 e23d faf5 bcbd b79c 1a3e
00000060: 6612 ca3d e941 063e de24 6c3e cb5b c2bd
00000070: 5aad 083e e04c 00be 083c 1c3e c3d9 bcbd
0.09145693 0.42388815 0.09731062 0.10662557 0.098609276 0.09273784 -0.08308316 -0.12587811
0.28022552 -0.2323883 -0.11520304 -0.09266467 -0.14706321 0.1157502 -0.13016133 -0.099207334
-0.11648906 0.105499215 -0.104867265 -0.11654008 0.10696708 0.11050815 -0.09226604 0.15098844
0.098667905 0.1311108 0.23060939 -0.09490164 0.13347378 -0.12529325 0.15257275 -0.09221222

predictor.net.3.weight f4 [1, 32]
00000000: f95a a83e 0170 223e 3134 3d3e e843 de3d
00000010: ee01 3d3e 392a 743e 934a 99bd 227e 21be
00000020: aecd c33d a2be debd 4ceb a6be 2637 a7bd
00000030: aa22 06be e451 973d 6245 0fbe abfb 4abe
00000040: 64f5 3fbe 9e82 fc3e 9c43 0bbe ab82 b5be
00000050: 28d1 663d 39f3 f73d dd3c 41be c047 003e
00000060: 0223 a53e 7957 b13e 2939 183e 9992 c2be
00000070: a44c 833e c35a 7abe 2294 833d d02e f2be
0.32881907 0.15863039 0.1847694 0.10852796 0.18457767 0.23844232 -0.07484927 -0.15770772
0.09560715 -0.10876204 -0.32601392 -0.081648156 -0.13099161 0.07388666 -0.13991311 -0.19822566
-0.18745953 0.49318403 -0.1360001 -0.35451254 0.05635181 0.12106938 -0.18870874 0.1252737
0.3225327 0.3463705 0.14865555 -0.3800247 0.2564441 -0.24448685 0.064247385 -0.4730134

net.0.weight f4 [60, 35]
00000000: 1c1b ccbd 495b b4bd 02d3 1e3e 7329 bd3c
00000010: 41d7 4b3d 0c2f c93d 1e89 b03e 29b1 193e
00000020: c01d 3e3d 92a2 2cbe 45e1 b53e bdcb d63d
00000030: 28e0 793e aa31 853d dd1f 1c3b 05a5 8fbe
00000040: ac96 b8bc 26d7 2ebe 43b1 00be 47bf 3abd
00000050: 458b acbd 44c8 3b3b eea5 1c3d 9b7c e8bd
00000060: b09e 0f3e 2f48 883d c583 48be 09e0 953e
00000070: 4238 1a3e f1cc 47be 6018 a2bd 7063 2ebe
00000080: 9b37 073d 3bd0 b13d 0ad9 2c3d 55d2 b63d
00000090: 806c a83e 467f eabd 9f69 063e c8b8 0ebd
000000a0: bb51 dabc 5ce4 3cbe 44f1 0d3e 0006 82be
000000b0: 5c21 94bc 1d6a 96be 589f a5be e4cd f63d
000000c0: 1df1 313e 1160 973c ff9a d8bd b133 ebbd
000000d0: aa70 07bd 8eae f7bc 6ba6 92be d0dc 47be
000000e0: 6a51 873e f139 25bd ab2b c5bc dda3 4f3e
000000f0: 7d49 a83d 23c1 9ebe decb 5b3d d759 303e
00000100: 7601 4c3d 0ab7 d33d 8dc8 c63d 3bed 68bd
00000110: 0c8c 093e 53c1 dc3c cf85 2d3e 7593 78bb
00000120: 18f4 dabd 3256 d1bd 4ac4 ebbc 3ad0 643c
00000130: dea2 41bd 6045 013d f67b 233d 70f1 51bd
00000140: 159f 91bd 78a9 983d c731 a63b a939 463e
00000150: 358d 14bd 7930 39bd 3ab3 9dbd 3b9d e6bd
00000160: 20c1 a9bd b800 4cbc 7a25 9d3e 54f9 4dbd
00000170: 61e6 873e ce0f db3d cbf4 3a3d edc5 1abe
00000180: 381f 43bd c0fc 03be a9f9 0bbe 1ec1 753e
00000190: 7a9f 7d3d 2a60 0a3d a09a f0bd ebe7 ed3b
000001a0: 6c91 a43c f77e 5fbe 16b6 433d e678 163d
000001b0: 854d 963d 86e7 08be 0200 253d 483c 293c
000001c0: a3b8 39bd 8fe8 25be 9f29 4bbd 2c0b 663e
000001d0: 3451 b13d d93a 68be 924c 503c 1cdc cd3d
000001e0: 6162 15bd a070 28be 268c 30be 1ede afbd
000001f0: 64fb 9f3e 82d5 483e fff7 0fbe 8535 9b3d
00000200: fc54 f03c 84c9 743d db2d 4abe 956a 1f3e
00000210: fd75 573e 8d06 f6be 7bdb 00bc cb25 0fbc
00000220: 57a5 8fbd f52f 323c c641 04bf 8db8 ae3c
00000230: f41b 31be b1cf e1bd 56fe 06be f66d 5c3d
00000240: 39d3 933e c2a5 423d 8799 48be 0b41 b0bd
00000250: 096e 32be bb4a 3e3e f889 383e 7bbc 073e
00000260: 8774 0fbe c239 34be 448c 8dbb b902 88bc
00000270: ca68 cbbd d2e1 74bd fbcb 043e f165 543b
00000280: 641a b1bd 23ba b83e f17b 14bd 539a e6bd
00000290: b9de 34bd 8759 27bd 57c5 95bd cc72 2cbe
000002a0: 3a36 93be 0db0 453c e1ff a03d a347 d7bd
000002b0: 39f9 c0be e17c 5b3e 8380 b4bd 7a39 b43d
000002c0: 1cb4 b2bd 3e22 aabd a55e 0b3d 0b19 53be
000002d0: 856e 42be 0e09 50be c489 843d 9b36 923e
000002e0: 78e6 6d3d 9786 af3d 812d cf3c d3ec e83d
000002f0: 7349 5bbe 9a5f 49be 4504 1dbe 03ba 803d
00000300: a393 f23d 525d 76bb 52c9 8abd b1a0 673e
00000310: 0e42 b13d 42e9 83bb 88f4 073d 21cf 833e
00000320: 9033 dabd 9447 333d 2b4e e83d 4952 dd3d
00000330: b79a cdbd 6016 98bc 5a6f 923c c45c 633d
00000340: 4b7b 64bd 2b5c e9bd 01f3 763e 197c 2c3e
00000350: 579e 94be 06c4 46be 52ad 513d d853 0a3e
00000360: 2662 983e 11b6 133d 4dfe 42be dd54 6fbd
00000370: e6a4 e63d f96a 033e f9d0 093e c921 2a3d
00000380: 5f56 3a3e 5ad3 a13d b91b 48bd 5144 fd3d
00000390: 90cd 9d3d 477c 0f3e 2c37 db3c 60ea 9e3c
000003a0: a2ab 2bbe 7a57 5bbd 085a 193e 1d67 673d
000003b0: 48de 99be 954d 4f3e f6b6 243e 458e 3abd
000003c0: 9e5e 0e3d bafa fd3d 8785 b9bd 1183 49bd
000003d0: 12ee a9bd b3ad 0e3e 3093 423c fadc 8d3d
000003e0: 234e 63be 77ee 8bbd 4b83 653e 0374 363c
000003f0: 539c 173e a75c a13e 522c 40bd eed3 90be
-0.09966108 -0.08806474 0.1551018 0.023091054 0.04976583 0.098234266 0.34479612 0.15008987
0.04641509 -0.1685889 0.3552343 0.10488079 0.24401915 0.06503613 0.0023822703 -0.28055587
-0.022532783 -0.1707426 -0.1256762 -0.045592573 -0.08425001 0.0028653303 0.03824418 -0.113518916
0.14025378 0.06654393 -0.19581516 0.29272488 0.15060523 -0.19511773 -0.079148054 -0.1703012
0.033012014 0.08682295 0.042199172 0.089268364 0.3289528 -0.11450057 0.13126229 -0.03484419
-0.0266503 -0.18446487 0.13861567 -0.25395203 -0.018082313 -0.29377833 -0.32348132 0.12050989
0.17377134 0.018478425 -0.10576438 -0.11484469 -0.03306643 -0.030234601 -0.28642592 -0.19517827
0.26429302 -0.04033846 -0.024068674 0.20277353 0.08217142 -0.31006727 0.05366122 0.17221771
0.04980608 0.10337646 0.09706221 -0.056866866 0.1343233 0.026947653 0.16945575 -0.0037929688
-0.106910884 -0.102215186 -0.028780121 0.013965661 -0.047274463 0.0315603 0.03991314 -0.051255643
-0.071104206 0.074541986 0.005071852 0.19357933 -0.036267478 -0.045212243 -0.077002004 -0.11260458
-0.08288789 -0.012451343 0.30692655 -0.050286606 0.26542953 0.10696374 0.04564361 -0.15114565
-0.047637194 -0.12889385 -0.13669457 0.2399945 0.061919667 0.033783115 -0.117482424 0.007260313
0.020088874 -0.21825777 0.047781073 0.03673639 0.073390044 -0.13369569 0.04028321 0.010329314
-0.0453421 -0.16201995 -0.04960024 0.22465199 0.086580664 -0.22678699 0.012713568 0.10051748
-0.036470775 -0.16449213 -0.17240962 -0.08587287 0.31246483 0.19612697 -0.14059447 0.075785674
0.029337399 0.059762493 -0.19744055 0.15568002 0.21041103 -0.48051873 -0.007864828 -0.008737038
-0.07013958 0.010875692 -0.5166286 0.021328235 -0.1729582 -0.11025942 -0.13182959 0.053815804
0.28872088 0.04752136 -0.19589816 -0.08606156 -0.17424788 0.18583195 0.18021381 0.13255493
-0.14009295 -0.17600158 -0.0043196995 -0.01660286 -0.09932096 -0.05978567 0.12968437 0.0032409395
-0.08647612 0.3607951 -0.036251012 -0.11259904 -0.044157717 -0.040856864 -0.0731303 -0.16840667
-0.2875231 0.0120659 0.07861305 -0.105117105 -0.37690142 0.21434356 -0.08813574 0.08800025
-0.087257594 -0.083073124 0.034025807 -0.20615022 -0.18987472 -0.20315954 0.06471589 0.28557286
0.05808112 0.08570593 0.025290253 0.11373296 -0.21414737 -0.19665375 -0.1533366 0.06285479
0.11844566 -0.0037592244 -0.0677668 0.22619893 0.08655177 -0.004025609 0.033192188 0.25743964
-0.10654366 0.043769434 0.11343034 0.1080671 -0.10039275 -0.018565357 0.017875362 0.05550839
-0.055781644 -0.11394533 0.24116136 0.16844214 -0.29027054 -0.19410715 0.05119068 0.13508546
0.2976238 0.036062304 -0.1904232 -0.05843054 0.11261921 0.12833776 0.13458623 0.041536126
0.1819701 0.0790164 -0.048854563 0.12366546 0.077052236 0.14012252 0.026759706 0.019398868
-0.16764691 -0.05355022 0.1497575 0.05649482 -0.300524 0.20244439 0.16085419 -0.045545835
0.034758203 0.12401338 -0.090586714 -0.04919726 -0.082973614 0.13933448 0.011875913 0.069269136
-0.22197776 -0.06832593 0.22413366 0.011136058 0.14805727 0.31516 -0.046917267 -0.2828669

net.0.bias f4 [60]
00000000: 92ad fb3d a57b 13be 0dad 2a3e 74ae 56bc
00000010: 13aa ebbd a83e 0b3e 8193 93ba 683d 26be
00000020: 0872 1e3e 8e4d 043c 9b3c 77bd 5291 223e
00000030: a21f 063e 0e61 093d 9b64 533d 0406 003e
00000040: 650a f2bd 5c96 c83d 98a2 4cbd 5529 d13d
00000050: 6b61 13be 235a d53d 9ca4 c93d 19fe cbbc
00000060: 8f52 4e3e 023e 33be 0823 bb3d 577a 383d
00000070: e93a f83d b4c8 ec3d cae1 babd cb6b 0e3e
00000080: 7e59 8e3d 8c3a d3bd 8a70 6abd e19a d1bd
00000090: 6388 cbbd acf7 463d 5cdf 11bd b82a e73d
000000a0: 1524 bf3d 12c9 11be 037e 9bbd 2e03 c63d
000000b0: f3f2 bebd 68e8 dfbd 3341 03be 8115 973b
000000c0: 193e 433e 17a3 09be ac2f afbd d309 ec3d
000000d0: 8152 063c 1d65 fe3d 2cdb d83c 86a1 c8bc
000000e0: 2c49 fbbb 2b56 023e 248e d93d d3c1 9cbd
0.12288965 -0.14402635 0.16667576 -0.013103116 -0.115070485 0.1359812 -0.001125917 -0.16234362
0.15473187 0.008075131 -0.060360532 0.15875748 0.13098004 0.033539824 0.051609617 0.12502295
-0.11818389 0.09794304 -0.04995975 0.102129616 -0.14392631 0.10417583 0.0984585 -0.024901437
0.20148681 -0.17504123 0.09137541 0.045038547 0.12120611 0.115617186 -0.09125097 0.13908307
0.06950663 -0.10313901 -0.057236232 -0.10234619 -0.09938123 0.048576042 -0.035613403 0.11287445
0.09333054 -0.14236858 -0.07592394 0.09668575 -0.09323683 -0.10933 -0.1281784 0.0046107178
0.19066657 -0.1344112 -0.085540146 0.11525311 0.008198381 0.124216296 0.026471697 -0.024491083
-0.007668635 0.12728183 0.10622814 -0.076541565

net.2.weight f4 [60, 60]
00000000: 9bcd c3bd 8cf6 1abd 77a3 da3d da4c 353e
00000010: cb45 e1bc 1b87 8fbd 4ac9 debc 78f1 71be
00000020: 6c8f 353d b842 98bd 36fa f33d 2bd5 f6bc
00000030: c4c3 e83a f4ec 0fbd fe29 84be b24f 1abd
00000040: 02c0 d33d 7434 e5bd 39cb 35be 22c8 32bd
00000050: d73a 76be 62dd 203b a448 e93d 1d74 b8bd
00000060: 92b1 acbd 3eab 03be f8fe 0cbe 4487 2fbd
00000070: 2b73 9fbd 086d 83bc 46d6 3bbd a402 b73d
00000080: 440f d9bc 32b0 8e3d f5b0 e9bc dd3a a7bd
00000090: 5f5e 8dbc 8d7e ff3d f8dc 4ebe 0d65 943d
000000a0: 97f8 26be dda0 33be bc7e e0bd 10d3 ffbd
000000b0: 4d5e 77bd b67c 09be 0fc3 ed3d 40f3 903d
000000c0: 00b1 48be 911f c53c 5edb 3cbe 440e 803e
000000d0: 4d73 e5bd 05ae c63d e6c0 f5bb 7699 6dbd
000000e0: 81f9 4dbe 2bfb 83bd 5f8e 1dbd d98f 293e
000000f0: a511 c4bc 8010 d1bd 66df a33e a39e 1ebe
00000100: 0ad5 203d 367f a5bc 0b85 d4bd cdd8 e63d
00000110: 124b 233d edfa 5cbe f324 9abb c85b a23d
00000120: fd24 cd3d 38d4 a3bd a684 8b3d 3c73 6e3e
00000130: f33c 973d 40b2 70bd 4a3d 643e c022 7c3e
00000140: b338 2d3e 153f 063d bf01 503e 51dd d13d
00000150: 5405 6a3d 2a52 573e 6b92 8d3d 8356 d4bd
00000160: 68ee cd3d ae6f e43d 6290 c73b f8c6 7bbd
00000170: b36e 543d 9a0c dabd a1c5 283e e27f f7bd
00000180: d772 eebd fb62 d73d 10e0 2fbe 2204 b5bd
00000190: 4409 42be 65b7 8c3d e94f f9bc 3ee2 69be
000001a0: bbc7 353e d20c 863d 6da8 3c3e 0210 c1bc
000001b0: 6716 0ebe fccb e1bd 941a 2c3e 81cf b33c
000001c0: e45d 51bd 41cb a8ba a094 3c3d 11f3 1f3e
000001d0: 0165 223e ab5d 943d 670a 96be 1f2a 08be
000001e0: e430 c73d 1114 c9bd 24db 063e 5d77 c63c
000001f0: cd8f 593d 961d 3bbc 6f64 04be 67e9 0abe
00000200: 00fb 923d e9b2 9fbc 949c 8b3e 2423 abbd
00000210: 1333 7cbe 36cc 1bbd 28e6 a0bd b177 10bd
00000220: 15c9 593d ffe1 6fbe cce3 6abd f05e 1d3e
00000230: c59a 4dbc 6948 b8bd 6c00 b63d 11e8 dabb
00000240: 2ab3 103d 9296 25be 2b63 b2bc 3855 58be
00000250: a6a4 643e 8825 d33d 3984 2dbe f705 e43d
00000260: 744b 543d f168 fa3d 9df5 943c 30e3 c63c
00000270: 72d7 7e3d acb7 ba3e 34fb 42bd 281b 5dbe
00000280: f74b 21bc 8b58 d1bd 2bfc 0ebe 6ac7 423e
00000290: 44c3 2c3d eb23 f9bd f422 b4bd c752 993d
000002a0: d085 333e 6296 95bd ec09 ddbd c9d4 49bd
000002b0: 3f48 ba3d af45 5abe bee5 0dbe 2a27 783c
000002c0: b821 f2bd 3357 b7bd e47a 09be 7f9d 023e
000002d0: f448 a53d f7ac 673d 6cc1 46be def7 a7bd
000002e0: 8041 3abd f16f 20bd 0d9f 5abd 7b4d be3d
000002f0: 3701 703c 1400 a63d fab3 33be fa7c ed3d
00000300: 2272 863e 7961 e63c 4b1d a3bd bce0 573d
00000310: 2a25 063d c091 523e 5c4f e5bd a340 8d3d
00000320: e945 703d 1dd8 6a3d 78ff 053e be57 a83d
00000330: f789 9e3d 9ff9 3d3c d7f0 5cbe c68f f7bd
00000340: 112b 523d c194 dd3c ce8a c63b 3968 a6bd
00000350: 8baf 0ebb bfa6 9ebd 3012 5f3c f855 d7bd
00000360: 8c9c c33d ac41 24bd f225 6d3d 64bc 35bd
00000370: e07a 273e b33a 1abc b552 973d a945 66bd
00000380: 36b8 27be fb4c d93d aa10 b0bd e377 df3c
00000390: 0e21 6cbd 86a1 a1bd 352c 15bd 1b0a 04be
000003a0: a881 3bbe c191 06be 23e2 d1bd d103 b3bd
000003b0: 5e5d f23d 0452 70bc 2606 0dbd 74e2 983e
000003c0: d43a 8bbd f5a4 e43d 58bc abbe ce84 0fbe
000003d0: 907d 0ebd 3b13 b6bd 1fd9 ef3d 1e26 873c
000003e0: 249d 33be 1622 963e 4a76 9fbb 2f7f 8e3d
000003f0: 93b8 163e ccdf acbe fe4d 92bb 0e47 2c3e
-0.095607005 -0.03783278 0.1067571 0.17705098 -0.0274991 -0.07008191 -0.027195591 -0.2362727
0.04432623 -0.074346006 0.11912958 -0.030130943 0.0017758538 -0.035138085 -0.25813287 -0.03767366
0.10339357 -0.11191645 -0.17753305 -0.043647893 -0.24045883 0.0024546017 0.11390808 -0.09006522
-0.08432306 -0.12858292 -0.13769138 -0.04285361 -0.077856384 -0.016043201 -0.045858644 0.089360505
-0.026496537 0.069672 -0.028526763 -0.08165524 -0.017256914 0.124753095 -0.2020148 0.072458364
-0.16305767 -0.17541833 -0.10961673 -0.12491429 -0.060392667 -0.1342648 0.1160947 0.07077646
-0.1959877 0.024062904 -0.18443057 0.25010884 -0.112036325 0.0970116 -0.007499802 -0.05800768
-0.2011471 -0.06444391 -0.038465854 0.1655878 -0.023934195 -0.10208225 0.32006377 -0.15490203
0.03926567 -0.02020226 -0.103769384 0.1127182 0.039866515 -0.21580096 -0.0047041117 0.07927662
0.100168206 -0.07999462 0.0681241 0.23286146 0.07384672 -0.058763742 0.22289005 0.24622631
0.1691616 0.032775003 0.20313166 0.10247291 0.057133988 0.21027437 0.06912693 -0.10368063
0.10055238 0.11154114 0.00609021 -0.06146905 0.051863384 -0.10646935 0.1648164 -0.120849386
-0.11642998 0.10516926 -0.17175317 -0.08838679 -0.18948847 0.06870917 -0.030433612 -0.22840211
0.17751972 0.06545414 0.18423624 -0.023567203 -0.13875733 -0.11025235 0.16807014 0.021949532
-0.05111493 -0.0012877957 0.046040177 0.15620066 0.15858842 0.07244428 -0.2930481 -0.13297318
0.09726122 -0.098182805 0.13169533 0.024226839 0.053115655 -0.011420628 -0.12928937 -0.13565598
0.07176781 -0.01949449 0.27267897 -0.08356312 -0.24628858 -0.038036548 -0.07856399 -0.035270397
0.053170282 -0.23426054 -0.05734615 0.15368247 -0.012549107 -0.08998186 0.08886799 -0.0066804965
0.035327114 -0.1617072 -0.021775803 -0.21126258 0.22328433 0.10309893 -0.1694497 0.1113395
0.05182977 0.12227047 0.018183524 0.024278253 0.062217183 0.36468256 -0.047602847 -0.2159239
-0.009844772 -0.10221966 -0.13963382 0.19021383 0.042178407 -0.12165054 -0.08795729 0.07486492
0.17531514 -0.07304074 -0.10792908 -0.049275193 0.09095811 -0.21315645 -0.13857171 0.015146056
-0.118228376 -0.08952179 -0.13425785 0.12755392 0.08070555 0.056561437 -0.19409722 -0.08201574
-0.045472622 -0.039169256 -0.05337434 0.09292122 0.014648727 0.08105484 -0.17549124 0.11596103
0.2625895 0.02812265 -0.079645716 0.052704558 0.032750286 0.20563412 -0.11196777 0.06897094
0.05866042 0.057335008 0.13085735 0.082198605 0.077411585 0.011595159 -0.21576248 -0.120879695
0.051310603 0.02704847 0.0060590273 -0.08125348 -0.0021772112 -0.07746648 0.013615176 -0.10514444
0.09551343 -0.040101692 0.057897516 -0.044369116 0.16355467 -0.009413409 0.07388822 -0.056218777
-0.16378865 0.10610386 -0.085969284 0.027278846 -0.05764871 -0.07892136 -0.036419112 -0.1289448
-0.18311179 -0.13141538 -0.1024821 -0.08740962 0.11834215 -0.014667992 -0.03442969 0.2986027
-0.0679833 0.111642756 -0.33542132 -0.14015505 -0.034787714 -0.08890387 0.117113344 0.016497668
-0.17540413 0.2932288 -0.004866396 0.06957852 0.14718847 -0.33764493 -0.004464864 0.1682398

net.2.bias f4 [60]
00000000: 9532 793d 973e dd3d b811 94bd 15e8 463d
00000010: 8dda 4f3d c061 20bd 0ecd 343d 6651 f73a
00000020: d3b5 823b 3aa0 973c 3d24 a2bd 0c73 f9bd
00000030: 904b b6bd 5b4a 8a3d 54c0 40bd 74e9 fa3b
00000040: 8f6c c33d 0918 e03c 739c abbc 2afe 203d
00000050: fa2b 70bc 5fdf c43c 1c53 223d 8396 aebc
00000060: 321b e43d b48c efbd f65c 1f3d cba6 203c
00000070: 4cab 7cbb 1e88 b53c 16c8 c7bd 4a25 84bc
00000080: 53c1 743d 909b d83d 4c47 703d 986a bf3d
00000090: 180e d13d 0e81 b5bd 61a8 60bd b3a3 a1bd
000000a0: 4fac 6b3d 9e98 f53d f417 333d e787 37bd
000000b0: 37f7 05be 6e45 a73d 4e52 abbc 2c26 c63d
000000c0: 5bea bbbd 48e6 39bd 7052 5cbc f921 f13b
000000d0: 2981 753d 51e1 a83c ad5a 11bb 491f 8b3d
000000e0: 4dd7 bfbd 7081 22bd 30b2 a63d 5666 e7bd
0.060839254 0.10802954 -0.07229942 0.048561174 0.050745536 -0.03915572 0.044140868 0.0018868863
0.0039889603 0.01850902 -0.07917068 -0.121801466 -0.08901131 0.067524634 -0.04705842 0.0076572243
0.0954219 0.02735521 -0.020948624 0.03930489 -0.014658922 0.024032293 0.03963004 -0.021312004
0.111379996 -0.11696759 0.038907014 0.009805392 -0.003855425 0.022159632 -0.0975496 -0.016131062
0.05975468 0.10576546 0.058661744 0.09346503 0.10207766 -0.08862506 -0.05484808 -0.07892551
0.057537373 0.11992 0.043724015 -0.04480734 -0.13082586 0.081675395 -0.02091327 0.096752495
-0.09175559 -0.04538563 -0.013447389 0.007358786 0.05993763 0.020615252 -0.002217929 0.067930765
-0.09367237 -0.039674222 0.08139455 -0.11298816

net.5.weight f4 [1, 60]
00000000: 6322 f9bc cb24 ccb8 4662 b93d 1fd3 303e
00000010: 33c3 24be dd1e 1b3d 3e3f 313e ca10 de3d
00000020: 4a2d b4be 6440 d8bc 11e6 1cbe 6343 683e
00000030: 0029 ce3d 3568 a93d 2e7e 993b 1a8d b7bd
00000040: a522 4bbd 819b 8fbb 4c24 093a 325a 623b
00000050: bb9b f63d c44d bdb7 214b 64be e9d6 ad3e
00000060: f0ea 8e3b 5fa5 1ebd c71d 1b3d dec9 493e
00000070: bc2b d7bd e0f7 1bbe 865a f53d c47f 703e
00000080: f1dd 61be 500e 4b3e 5f8c 003d 4066 9f3d
00000090: 74bf 3bbd 7d30 efbc 55ab 2a3e f3e8 253e
000000a0: 52cc 3bbe 83bf 87be f0da 69bd e8e8 01bd
000000b0: 5586 573e 2b83 61bd d933 96be f2ae ddbd
000000c0: 24e8 623e 4321 26be 93c1 ccbd 5173 203d
000000d0: 4f63 a8bd f9d7 2cbe d725 9c3d 8419 f43d
000000e0: 8a43 06bd 8a06 5bbe eef3 a3ba 3fd9 5cbe
-0.030411905 -9.734331e-05 0.09051947 0.17268036 -0.16090088 0.03787123 0.17309281 0.10843046
-0.35190803 -0.026397891 -0.15322138 0.22681956 0.10066414 0.08271829 0.0046842312 -0.0896246
-0.049593586 -0.004382551 0.0005231544 0.0034538624 0.12041422 -2.2566768e-05 -0.22294284 0.33953026
0.004361503 -0.03873193 0.037870195 0.19705912 -0.105063885 -0.15231276 0.119801566 0.23486239
-0.2205732 0.19829679 0.03138387 0.077831745 -0.04583688 -0.029197926 0.1666692 0.16202144
-0.18339661 -0.265133 -0.05709356 -0.031716257 0.21047337 -0.055056732 -0.29336432 -0.10824384
0.22158867 -0.16223626 -0.09997859 0.039172474 -0.082220666 -0.16879262 0.07624405 0.11918929
-0.032779254 -0.21389213 -0.001250861 -0.21567248
