results of reviewer/XJTU results/3-3/Experiment7/model.pth (torch, 59838 bytes, 14 tensors)

encoder.net.0.weight f4 [60, 17]
00000000: a54e e4bd 0e73 0cbb 86d8 90bd 39c3 05be
00000010: 2eeb 463d 94ec 923d 9330 1a3e 3c4d 18bd
00000020: 16b2 2a3e d668 99bd 8ae4 883d d5e2 163e
00000030: 7d2f bbbe 05ce 093e 850d 893c 0907 a33e
00000040: b881 ad3e 42d5 173c f51d 88be dc8f 8d3d
00000050: 7ffb 13be 1e6b 8bbd ba7c 1fbe db95 d7be
00000060: 8f93 4c3d 7d73 0cbe 7561 873d 3ba0 33be
00000070: 071c 923e ae92 40bd 30cf 38bd 1761 9cbe
00000080: aa0e 363e bff7 96bd 1709 a33d 46a3 e8bd
00000090: fbca 30be b385 053e cf51 6dbe df85 41bd
000000a0: 2929 17be 67cd 49bc 3356 38be e0a0 cbbd
000000b0: 106f 5ebd f868 333d 2c78 debd b42e 8ebc
000000c0: f18b 343a a9f8 783e 9c48 48bd df46 e63d
000000d0: ee9e 19be f0e1 b53d f3da b7bd d31f 10be
000000e0: da85 e63a 1896 8ebe 23d0 5b3e 6ef8 88be
000000f0: 2341 a63d 97ad 2bbd bf28 92be 0d70 17be
00000100: 503a 57bd f987 babd 0431 d83d 4902 073e
00000110: 54c3 a4bd dd35 303e 9664 843e b3e0 42be
00000120: 5411 703d 584d 983e 63d8 103d a69f 28be
00000130: a68a c53c bde7 d43d f613 ddbd 1be8 4fbc
00000140: b638 313e 7c92 fdbd f59c 58bd 3039 f8bd
00000150: 8674 bb3d 6c79 773e 585d e73d e901 03bd
00000160: 99ea 6f3e 314c a6bd 9411 2cbe 445e 1abd
00000170: ea45 0fbe 6f5e ee3d 0238 93bd c24a eebc
00000180: 1af9 043d b6c0 e03c 4ab0 82be 978d 6d3e
00000190: 7097 d6bd 5994 1d3d d285 babd c77b 0e3e
000001a0: 3d8f c9bd f10d 93bd b8b9 c1bd af65 453c
000001b0: 0dcf 663e 436d 9bbd 6178 413c bb64 be3d
000001c0: 2c14 353b 8471 58bc 0ac9 00bd 2e6a 9d3d
000001d0: 472c b73d f635 e23d b500 8e3d 01fc 033e
000001e0: 6ae7 6b3e ad29 e3bd dcfa 053e ba56 89bd
000001f0: ffaa 013d b168 503e fcc9 053e 1136 273e
00000200: 2e4b 0cbe 8ddc 023e 931f a0bd d7a9 5d3e
00000210: f6fe 7bbe 1774 34be 1376 34bd 2276 b63e
00000220: e48c 9fbe 77c9 2c3d de39 2abe f1d0 403e
00000230: 0b1a aebc 215a 973d 02ed 7cbe f298 5ebe
00000240: 0236 16be 651c 413e 6bf7 a0be 50f9 703e
00000250: 5e23 11be f820 373e cdb5 7abd 2320 9a3e
00000260: ad3f 3d3b 2a81 8f3e ecba 16bc 3e57 6c3e
00000270: 3a12 80bc b3db b4bc 14af 193d f989 4b3d
00000280: 7e8e 743e a687 513e 1fc0 533c f9da 223e
00000290: 8dfa 1b3e 6148 fcba 8bf6 0d3e 1c47 bc3b
000002a0: a343 1abe 0031 22be 8054 233e 420c a4be
000002b0: 3ecd c1bc da1b b63e f092 d13d adbc 223d
000002c0: 07ac ebbd 6e3d 37bd c98d 173e 2423 073d
000002d0: 30a1 c3bc f6ad 293e fa76 2e3e 15b5 b7bd
000002e0: 5f38 e33d d140 c43d 397e c4bd 00f6 e8bc
000002f0: 5049 dd3d f78b 61be 0c75 1b3e a092 41bd
00000300: 2437 2e3e b49a ad3d 5058 b2be ad6b 24be
00000310: 2355 8a3e 4a32 df3d ef25 b93c 4ae6 303e
00000320: da32 dfbd 3182 883c c996 1a3d 927e 64bc
00000330: cf7c 8bbe 98c9 0b3e 02b2 b63e 4f61 7e3e
00000340: f4ef 213e 2dcd ba3d ddce 88be 1d4a 76be
00000350: 6d59 d3be 8ec8 e93d 21ef ab3e f797 f9bd
00000360: 833e 97bd 05bb e93d a27e fd3c b04e d03d
00000370: d2aa 0f3c 35e8 17be da26 ddba 40fe b1bc
00000380: 81aa af3b bbff 28be 5197 2ebd 0031 c5bc
00000390: 28a9 0b3e 85da 69bd 291f e43c 28bc 3fbe
000003a0: 4b44 f63d 541b aa3d 312d aa3d c0b8 10be
000003b0: 4a8c 4dbd 1888 03be e345 b5bd f2db 003e
000003c0: 7405 36bd da84 d73d 5f2c 683d a487 78be
000003d0: 45d1 99bd c595 1dbe cbce a93c 4866 2abd
000003e0: 60ed 003d b44d cdbd c6e9 493d c194 053e
000003f0: 2d87 dbbd 3f66 85be d9d2 933c 2980 bdbd
-0.11147813 -0.0021430883 -0.070725486 -0.13062753 0.04856413 0.0717403 0.15057592 -0.03718303
0.16669497 -0.07490699 0.06684215 0.14734967 -0.36559668 0.13457496 0.01673008 0.31841305
0.3388803 0.009267153 -0.26585355 0.069122046 -0.14451407 -0.0680754 -0.15574923 -0.42106518
0.04994541 -0.1371593 0.06610385 -0.17541592 0.28537008 -0.047014885 -0.045119464 -0.30542824
0.17779031 -0.073714726 0.07960718 -0.11359267 -0.17264931 0.13039283 -0.23175739 -0.04724681
-0.14761795 -0.012317038 -0.18001632 -0.09942794 -0.054305136 0.043801278 -0.10862765 -0.017356254
0.0006887308 0.24313606 -0.04889737 0.11243986 -0.15002033 0.08880985 -0.08977308 -0.1407464
0.0017587498 -0.27848887 0.21466117 -0.26752037 0.081178926 -0.041913595 -0.28546712 -0.14788838
-0.052545846 -0.09107966 0.10556224 0.13184465 -0.080450684 0.17208047 0.2585799 -0.19031028
0.058610275 0.2974651 0.035362612 -0.16467151 0.024113964 0.10395763 -0.10794823 -0.012689616
0.1730679 -0.12381455 -0.05288406 -0.12120283 0.091530845 0.24167413 0.11297101 -0.031984244
0.23429336 -0.08120001 -0.1680358 -0.037687555 -0.13991514 0.116391055 -0.07188417 -0.029088382
0.032464124 0.027435642 -0.25525123 0.23198543 -0.10478103 0.038471553 -0.091075554 0.13914405
-0.09841774 -0.071803935 -0.09459251 0.012048169 0.22539921 -0.075891994 0.011808486 0.092965566
0.0027630432 -0.013210658 -0.031441726 0.07686268 0.08943992 0.110454485 0.069337286 0.128891
0.23037496 -0.110919334 0.13083977 -0.06705995 0.031657215 0.20352437 0.13065332 0.16329218
-0.13700554 0.12779446 -0.07818522 0.2164682 -0.24608979 -0.1762241 -0.044057917 0.35637003
-0.3116218 0.04218432 -0.16623637 0.18829705 -0.021252653 0.073902376 -0.24699786 -0.21738032
-0.1466904 0.18858488 -0.31438765 0.23532605 -0.14173648 0.1788367 -0.061208535 0.30102643
0.0028877065 0.28028232 -0.009199839 0.23080155 -0.015633691 -0.022077417 0.037520483 0.049692128
0.23882481 0.20461902 0.012924223 0.15903844 0.15232296 -0.0019247645 0.1386358 0.0057457816
-0.15064864 -0.15839005 0.15950203 -0.32040602 -0.023657437 0.35568124 0.10233104 0.039730716
-0.11507421 -0.04473632 0.1480018 0.032992497 -0.023880571 0.16570267 0.17037573 -0.089700855
0.11094736 0.09582675 -0.095943876 -0.028437614 0.10804999 -0.22026049 0.15181369 -0.047258973
0.17013222 0.08476773 -0.34833002 -0.160567 0.2701808 0.10898264 0.022601096 0.17275348
-0.10898371 0.016663643 0.037741456 -0.013946192 -0.2724366 0.1365112 0.35682684 0.24841808
0.15814191 0.091211654 -0.26720324 -0.2405171 -0.41279164 0.11415206 0.33580878 -0.12187188
-0.0738497 0.11412624 0.030944172 0.101712584 0.008768754 -0.14834674 -0.001687254 -0.021727681
0.005360902 -0.16503803 -0.042624775 -0.024071217 0.13638747 -0.057093162 0.02784689 -0.1872412
0.120247446 0.08305994 0.08309401 -0.14132977 -0.05018262 -0.12844884 -0.088512205 0.12583902
-0.044438794 0.10523386 0.05668294 -0.24270493 -0.07510618 -0.15389164 0.02072849 -0.04160145
0.03147638 -0.10024586 0.04929521 0.13045026 -0.10719142 -0.2605457 0.018044876 -0.0925296

encoder.net.0.bias f4 [60]
00000000: 631c 553d 02b3 05bd 9c7e 1f3d 8c1f 15bd
00000010: afc2 d73b 1db0 f03c 2010 07bd 9358 2d3d
00000020: c368 b73b f42e 9a3c 6836 e23c 9d7a 33bd
00000030: 5750 173d b18d e2bc f254 8d3c 1807 563d
00000040: 0915 fd3c 1421 34bd fb55 573d 529e a13c
00000050: eba4 28bc a680 163d 53ed 0abd 6fc3 e03c
00000060: 4700 14bd 4260 7e3c f30e eabc 2d2a 023d
00000070: df1a 0abd 77f3 11bd 1598 1c3d b6bc f53c
00000080: f581 3b3d 7148 1dbd bb84 90bc fac2 f5bc
00000090: 9760 293d 0088 9d3d b78d ecbc aeb2 b53c
000000a0: 973c 1cbd 12de aebc cc40 92bc ff2d 873c
000000b0: f014 403d 1555 38bd 3145 1bbd f8da 0f3d
000000c0: 212e 05bd c982 1e3d 4bf3 183d 3ba5 ebbc
000000d0: 0eac f83c 4b80 1cbd 5622 0abd 731e 05bd
000000e0: 6917 07bd ef78 183d d162 023d afaf 13bd
0.052029025 -0.03264142 0.038939103 -0.03640704 0.0065844874 0.029380852 -0.032974362 0.0423208
0.0055972054 0.018821217 0.027613834 -0.043818105 0.036941852 -0.027655454 0.01725242 0.05225286
0.03089382 -0.04397686 0.05257223 0.019728813 -0.010293226 0.036743782 -0.033917736 0.02743694
-0.036133077 0.015525879 -0.028571581 0.031778503 -0.033717033 -0.035632577 0.038230974 0.029997211
0.045778234 -0.038399164 -0.017641416 -0.030000199 0.04135188 0.076919556 -0.028876169 0.022179928
-0.03814372 -0.021346126 -0.017853163 0.016501425 0.046894968 -0.045003016 -0.037907783 0.035120934
-0.032514695 0.038698945 0.037341397 -0.028765311 0.03035548 -0.038208287 -0.03372415 -0.03249974
-0.03298131 0.037224706 0.03183252 -0.036056217

encoder.net.2.weight f4 [60, 60]
00000000: 45bd fcbc e9b9 3d3e 8f51 493e 8afb dcb8
00000010: 0906 45bd d3be 62be 9120 f93d 8842 dfbd
00000020: 67f2 7b3e a00c 28be cdec b5bb f2cc 26be
00000030: ae41 143e 6af2 2c3e b792 d13d 8c5e 163d
00000040: ca5c 153c 056f 97bd 0d32 40bd 5cc8 52be
00000050: 6969 09be 8f20 1ebe 34fd 8a3e e8af b03e
00000060: c003 85bc a402 de3c 23d7 fd3d 8033 1fbe
00000070: 3009 323a c762 55bd 1e2f 433e 0c6d 2ebd
00000080: f6e8 2c3e 2b5a ad3d 4e29 6bbe 1534 99bd
00000090: c51e 2b3d 424f 823c 69c6 57bc 0915 ab3d
000000a0: 36ad 793d 3005 693e 319e 863c d6d7 dbbd
000000b0: 658d 953d e6fb ecbc 1675 88be 91c6 d43d
000000c0: 2f14 37bd e4ec bd3d fbfb d6bd d6bf eb3d
000000d0: 3ddf 2ebe 728f 2abd 8cd1 a9bd 9c15 bebd
000000e0: ed50 29bd 7a08 173e 974b 613c dd79 103e
000000f0: 8355 f93c 70a4 563c 2123 32bd 97a8 9d3d
00000100: c456 2c3e 2fd1 363d d917 a6bd 0b48 3b3c
00000110: 46a8 34be 05fe 3d3e 647c 7e3b 49ad 61bd
00000120: 3bd4 e23d 4be8 00be e5b1 ff3d 371f c7bd
00000130: 2a62 1f3e 7bdd 493d 6dff f1bd b2e0 31be
00000140: 1157 6abd 8e34 883e fdeb a33d 1d3f 123d
00000150: 65e4 743e 97e7 05bc c3f1 7dbd 4294 97be
00000160: 6a6b ac3c 34c1 c83d 586e cfbd c191 0bbe
00000170: f14f a7bd a11a 463d 2882 6b3e b838 b13d
00000180: f9ba 44bc 3c5a 4dbd 25f8 25be 4d04 513e
00000190: 573e d53d 4a0a 253e b76e 1c3e bbf4 a1be
000001a0: 6730 8ebd bf17 a8bd fb45 6c3e 8b69 363e
000001b0: 11cf aabd e48b 6ebd 88e8 8e3d 82dd 96bd
000001c0: ca51 30be 4c58 3c3d 2a58 87bd f93d bebd
000001d0: 7c86 743e d038 bebb 0cd8 ebbd 8cf9 143e
000001e0: c0e7 1c3d 0ad8 04be 2b68 b63c 5e10 dbbc
000001f0: 90c0 283e 6ed9 5c3d 99db 9dbd c5f4 5dbe
00000200: dde0 953e da97 7a3e c11f 6d3d 737a f9bd
00000210: 3074 38bd 1347 68bd 7649 283e b982 3d3e
00000220: 3d3e 173e 1d44 103e de3d 06bd 7c6b 063e
00000230: 7e19 33bd 6c29 8c3d eb2d 9bbc 9d32 c23d
00000240: 4879 293e 1ee7 5e3d c483 babd 4c42 26bd
00000250: 7291 00be 71f8 c13c f59b bbbc f462 5fbd
00000260: 831e 6d3d 8402 403d 5d6c bb3d f793 4b3e
00000270: 8f7c 66be 3938 e83d 5330 babd 2418 2dbd
00000280: 0f37 3fbd 4750 d5bd b4f0 493e 2de6 043d
00000290: 9a96 1ebd d7fb a2bd 8ade 4cbd 09f6 003e
000002a0: a559 213e bf22 1d3e 1095 893d b893 c7bb
000002b0: 1497 0a3d 323b dd3d 46fe 07bd bf11 ac3d
000002c0: 8f42 79bd 1007 123e fb4f 163d 024d e93c
000002d0: 8a11 9ebd 2359 90bd 3d0c 9fbd 2c26 b73d
000002e0: 7fd5 b3be eb3c 3a3d 4d5b 2a3b 9753 0fbd
000002f0: 34fd a43d 3be6 f43b 22fa 22be d25d 3dbe
00000300: 19d9 87be 4845 0cbc ab99 a63d 4c44 26bc
00000310: 700c 4cbd 5b4b c93d f973 8b3e e6ca 323c
00000320: 2ccd 10bc cecf 4abd d094 a7bc 32eb 50be
00000330: 392f d0bd 642f 333e 5bcc 0f3d 2da9 38bd
00000340: 1588 5d3d b1c0 973d e9f4 26be 7a40 17bd
00000350: 2752 0a3e 7ae1 483e 7678 4b3e 51ad 9c3d
00000360: ddc1 00be 6b86 443a 4396 31bc 2c7d 273e
00000370: 61de 86be 636c 163e c5e3 04be 4750 19be
00000380: fe88 02be 900e 8c3c e6d3 57be 7e8d 8ebe
00000390: 58e8 16be e4fe 733b 495b ed3d a76e 88bd
000003a0: 269c 5abe aa4c bf3c a545 f63d db83 1dbe
000003b0: af66 e03d 5e05 2f3d 47f6 f1bc 6141 b73d
000003c0: 6f44 083d 2385 15be 0e8d bebd b9b1 1e3e
000003d0: d400 5d3c 6c24 ec3d bfdf 0ebe 868f 9abb
000003e0: 020c 323d 175a cbbc d965 12be 778b 243e
000003f0: 8968 a0bd a172 afbe 72b1 213e ac24 073e
-0.03085197 0.1852795 0.19660018 -0.0001053727 -0.04810146 -0.22143106 0.12164415 -0.10901362
0.24604188 -0.16411066 -0.0055519105 -0.16289118 0.1447818 0.16889349 0.10233062 0.03671126
0.009116361 -0.07394222 -0.046922732 -0.20584244 -0.13419117 -0.15442108 0.27146304 0.34509206
-0.01623714 0.027100869 0.1239455 -0.1554699 0.000679153 -0.052096155 0.19060943 -0.042584464
0.16885743 0.08464464 -0.22964975 -0.07480637 0.04177739 0.015906934 -0.013169863 0.083536215
0.060956202 0.22755885 0.016432853 -0.10734527 0.073023595 -0.028928708 -0.2665183 0.10389436
-0.044696983 0.09273699 -0.1049728 0.11511199 -0.17077346 -0.041640706 -0.08291921 -0.092814654
-0.041336942 0.14749327 0.013750932 0.14108987 0.030436283 0.013100728 -0.043490533 0.076981716
0.16829973 0.044633087 -0.08110017 0.011430751 -0.17642316 0.18553932 0.0038831467 -0.0550969
0.11075636 -0.12588613 0.124851026 -0.09722751 0.1556479 0.049283486 -0.11816297 -0.1737087
-0.05721194 0.26602596 0.080039956 0.03570472 0.2391525 -0.008172891 -0.06199814 -0.296053
0.021047313 0.098024756 -0.10128468 -0.1362982 -0.081695445 0.04836524 0.2299887 0.08653396
-0.012007468 -0.050134882 -0.16207941 0.20411797 0.10412281 0.16117206 0.1527661 -0.31632027
-0.06942826 -0.08207654 0.2307357 0.17813699 -0.08340276 -0.05823888 0.069779456 -0.07366468
-0.172187 0.045982644 -0.06608613 -0.09289164 0.23879427 -0.0058051124 -0.11515817 0.1454832
0.03830695 -0.12973037 0.022266468 -0.026741203 0.16479707 0.053918295 -0.077079006 -0.21675403
0.2927312 0.2447199 0.05789161 -0.121815585 -0.04503268 -0.056708407 0.16434273 0.18506898
0.14769836 0.14088483 -0.032773845 0.1312694 -0.043725483 0.06843838 -0.018942794 0.0948231
0.16550171 0.05441963 -0.091071635 -0.04059057 -0.12555483 0.023678036 -0.022901515 -0.05453773
0.057890426 0.0468774 0.09151528 0.19880663 -0.22508453 0.113388486 -0.09091248 -0.04225935
-0.046683367 -0.10415702 0.19720727 0.032446075 -0.038717844 -0.07958191 -0.050016917 0.12593855
0.15756853 0.15345286 0.067178845 -0.0060906075 0.033835486 0.10802306 -0.03320148 0.08401822
-0.06085449 0.14260507 0.03669737 0.028479103 -0.07718189 -0.070482515 -0.07766006 0.089428276
-0.35123822 0.045468252 0.002599436 -0.034991827 0.08056107 0.0074737347 -0.1591573 -0.18492821
-0.2653282 -0.00856144 0.081347786 -0.010148119 -0.04981655 0.09828826 0.27236918 0.010912633
-0.008837979 -0.049514584 -0.020456702 -0.2040222 -0.10165257 0.17498547 0.035106998 -0.045083214
0.054084856 0.074098 -0.16304363 -0.036926724 0.13507901 0.19617262 0.19870171 0.07650245
-0.12573953 0.00074968365 -0.010839048 0.16356343 -0.26341537 0.14689784 -0.12977512 -0.1497203
-0.12747571 0.017096788 -0.21076927 -0.27842325 -0.1473707 0.0037230784 0.11589677 -0.0666173
-0.21348628 0.023351986 0.120250024 -0.1538233 0.10957085 0.042729728 -0.02953638 0.08948017
0.03326839 -0.14601569 -0.09304248 0.15497483 0.013488967 0.115303844 -0.1395254 -0.0047168164
0.043468483 -0.024823232 -0.14296664 0.16068827 -0.078324385 -0.34267142 0.15790346 0.13197583

encoder.net.2.bias f4 [60]
00000000: c153 823c 2cdd 04bd e314 54bd 0f72 03bd
00000010: e6d6 063d f853 063d 6953 b2bc 9231 223d
00000020: 585f 123d 52b5 ecbc 1252 cb3c 69a6 1f3d
00000030: 4dd5 03bd 68c5 043d 2b48 e3bc 138d 11bd
00000040: dd62 1dbd a34e 253d da2d 303d 34d1 17bd
00000050: 67ef 5a3d bf70 333d 3191 17bd e106 1ebd
00000060: fae2 0cbd e4e9 0ebd b774 02bd 84ed 14bd
00000070: e418 9b3c 2011 003d f25b 523c e708 2bbd
00000080: a622 143d 305e 0b3d dff0 4b3d a588 19bd
00000090: 5da3 b3bc 5ba8 143d 427b 053d 42cc 81bc
000000a0: 1f3e 3cbd 772f 07bd 9503 a83c fc1f 61bc
000000b0: 1872 32bb 46f7 e83c 9831 eabc e2cd 41bd
000000c0: 7733 e6bc 05f0 0bbd 9ec5 c53c 4d86 913c
000000d0: 622e 083d c920 073d f653 1dbd 0034 25bd
000000e0: 854a 0b3d 83d8 f9bc f87e 3a3d 0935 0b3d
0.015909078 -0.03243749 -0.05177773 -0.032091197 0.032919787 0.032794923 -0.021768289 0.039598055
0.035735458 -0.028895054 0.024819408 0.03897706 -0.03218584 0.032414824 -0.027744373 -0.03553493
-0.03842436 0.040358197 0.043012477 -0.037064746 0.053450968 0.043808695 -0.0370037 -0.03858078
-0.03439615 -0.034891024 -0.03184959 -0.036359325 0.018932767 0.03126633 0.012839304 -0.041756537
0.036165856 0.03402537 0.04979026 -0.03748383 -0.021928484 0.03629337 0.03258825 -0.015844468
-0.04595768 -0.03300425 0.02050952 -0.013740536 -0.002722865 0.028438222 -0.028588101 -0.047315486
-0.028100712 -0.034164447 0.024142083 0.017764235 0.03324736 0.03299025 -0.03841015 -0.040332794
0.034006614 -0.030498749 0.045531243 0.033986125

encoder.net.5.weight f4 [32, 60]
00000000: a6bd 62be 0b6b 44be 144c 2cbe 95e5 67be
00000010: 029d 493e 43f8 38bd ce0e f83d a8d3 223e
00000020: 5b26 c33b 6d4b 1e3e 0b42 f2bd 553e e73d
00000030: 31fb ed3c cee9 163d 0f0c c13d 77d1 6f3d
00000040: f661 8fbd da69 88bd e842 30bd 9897 f9bd
00000050: 7860 f9bd 247f 553e ed96 bf3d cae3 cdbc
00000060: 186e 90bd f336 f0bc 0b06 95bd 6439 263e
00000070: 4045 403e 02a2 90bd 81f6 7b3d 841f 39bc
00000080: dd8e 73bd 6ab5 71bd 20d1 e33d 5567 0a3d
00000090: 787b ccbd 723b 2dbc dc32 c9bd 3853 ec3c
000000a0: b0c2 13bd b7de 003e e3e4 763d dded 963d
000000b0: e987 b73d 8c59 44bd 8797 863e 6924 2c3e
000000c0: 1769 bf3c 509b af3d 00c9 7c3e 2f24 82be
000000d0: 16c9 82be b673 3dbe 2d00 3bbc 8b19 943d
000000e0: a365 d0bd 9b50 983e 49cf 56be e0b2 ca3c
000000f0: 4b7f 8bbe 2ce2 9f3d 5cc0 66be 8603 93bc
00000100: fc58 b23e 08fe 9e3d 7b69 893d f66b c83d
00000110: f0ff a63d 8ddc 82be ebf0 463e be71 633e
00000120: c3e2 373d c301 9abd 1ab4 643d a5b9 0cbc
00000130: 92ef 8b3d dff9 b0bd 7c74 d63d 14bf 94be
00000140: b60f 57bd 1441 ee3d bf53 763e 0e9e 8cbd
00000150: 4e4e dd3d 648b debd c1d5 79bd e356 a33c
00000160: 69e5 b4bd 2bf6 38be 802c 9f3c 8af4 89bd
00000170: 0f51 b9bd f9bd adbd f2fe e63d c126 dbbd
00000180: 62bb 88bd da42 a53d c554 86bd 6c2c c83d
00000190: d2c9 31be 52bf efbd 77be 643e 6b79 9b3e
000001a0: 11cf 2d3c c1e1 ebbc fa79 c5bb ddf3 443e
000001b0: 7887 aa3d 888b 47bd 0b5b a53c 15ef 2cbe
000001c0: 124d 953d 027b c7be ea2f 1abe 69cb 463d
000001d0: 345c ddbc 0fa5 8d3e 97c2 a13e b440 0e3e
000001e0: 3a1d 69be 9e40 9cbd c53c ffbb 2135 d6be
000001f0: 4253 053d eb97 a23d 5db7 ebbe cc63 a53d
00000200: 7f5d 12be a8d7 ca3c 6fb5 68bd 3bc3 e0bc
00000210: 18fa a7bd 141f d53c 8e80 543d f43a 223e
00000220: 6e56 85bd 79f3 453d 47db 40be d436 10be
00000230: 2e7a 52bd 88d3 863c 839c 99bd 0457 0a3d
00000240: 5a05 393d aeeb 96be 086d 92be 2295 d73d
00000250: 2311 313e c3c4 2fbe 735f 843d a10a 9fbd
00000260: e587 c53d 36cd 28bc 8bca 7dbd 7b11 3a3e
00000270: 07d9 af3d a9bc c93c 896e 483e f8ee b0bc
00000280: 6ec0 10be 89db 2abe 5e9b 77be 0c4a 953e
00000290: c0b1 b43c 0c04 81bd db3c 30bd ea94 f2bd
000002a0: 2652 463d 0b5c 76ba e467 693e 8472 203e
000002b0: 5e33 38bd a98b 553e b261 9fbd a172 94bd
000002c0: 8082 243e f260 2b3e e950 86bb 005e 9f3d
000002d0: a8c2 683c 3b3d a23d 543c a2be d754 793e
000002e0: a14d 063e edb9 b6be a5ed 58be 0ece 543d
000002f0: d769 52be 1535 0fbd a49d 4f3e 013e dcbd
00000300: e4ad 6a3d a480 b7bd 6f82 8bbb 906b 1e3d
00000310: b963 6fbd 94e1 3f3d 0202 18be 0978 0c3d
00000320: 2cc4 36bd 995c 8a3e 4574 3a3e 1e3e 81bd
00000330: 05c5 0abc 6b0d 893d dab5 5e3e 0c3e 553d
00000340: af87 9ebd 7395 5dbd 9ccb 9abb ab55 47bd
00000350: 1430 4b3e 13b1 be3d 8f25 bc3c 00da 133e
00000360: 8292 983d 0f77 a13d 6cb4 003e f1ff 1dbe
00000370: a70d 343d e895 013e c1ca 7d3e 12ab bebb
00000380: a814 053d 61e6 e9bd 1533 12be ba25 00bd
00000390: 8279 013d 0df4 a53d 63a3 91be 9f90 adbd
000003a0: 9058 b3be f2c2 3abe 6631 b93d 962b ffbd
000003b0: 1ad4 c7be c719 f33d ee39 c33d b2eb 84be
000003c0: 15b5 b7bd c187 d9bd ced0 523c a419 ab3d
000003d0: c1d2 dfbd d3c4 b03c bd40 073e 3765 003e
000003e0: f64e 52be c237 32be 8848 b33a cc55 dcba
000003f0: 90f7 a5bd 3246 7d3d 70fa a03d 16be 0bbe
-0.22142658 -0.19181459 -0.16825897 -0.22646172 0.196888 -0.045158636 0.12112199 0.15901053
0.0059555 0.1545846 -0.11829003 0.11291186 0.029050441 0.036844067 0.09426128 0.05854937
-0.070011064 -0.066608146 -0.043032557 -0.12187117 -0.12176603 0.20849282 0.09354959 -0.025133032
-0.07052249 -0.029323077 -0.07276543 0.1623283 0.18776417 -0.070621505 0.06151438 -0.011299018
-0.059462417 -0.0590109 0.11123872 0.03378995 -0.09984487 -0.010573255 -0.09824154 0.028848276
-0.03607434 0.12584959 0.060276877 0.073695876 0.0896147 -0.04793696 0.2628748 0.16810764
0.02336554 0.085745454 0.2468605 -0.2541823 -0.2554404 -0.18501171 -0.011413616 0.072314344
-0.10175636 0.29748997 -0.2097751 0.024743497 -0.27245554 0.07806811 -0.22534317 -0.017946016
0.34833515 0.07763296 0.06709572 0.09786217 0.08154285 -0.25558892 0.1942784 0.22211358
0.04489399 -0.07519867 0.05583582 -0.008589183 0.06832804 -0.08641409 0.104714364 -0.2905203
-0.052505217 0.116335064 0.24055384 -0.06866084 0.10805951 -0.108664304 -0.060994867 0.019938892
-0.08832819 -0.18062656 0.019430399 -0.06736095 -0.09048664 -0.084835 0.11279096 -0.10700751
-0.066763654 0.080693915 -0.06559137 0.09774098 -0.17362145 -0.11706413 0.22338282 0.30366072
0.0106084505 -0.028794171 -0.0060265036 0.19233651 0.0832662 -0.04871705 0.020185014 -0.16888078
0.072900906 -0.38961035 -0.1505734 0.04853383 -0.027021505 0.27664992 0.31593773 0.1389187
-0.22765055 -0.07629512 -0.0077892267 -0.4183741 0.032550104 0.07939132 -0.46038333 0.08075675
-0.14293478 0.024761036 -0.056813654 -0.027436843 -0.082019985 0.026015796 0.05188041 0.15842801
-0.06510626 0.048327897 -0.18833648 -0.14083415 -0.05138605 0.016458288 -0.07500555 0.03377439
0.04517112 -0.29476684 -0.2859881 0.10526492 0.17291693 -0.17164902 0.06463518 -0.07765699
0.096450604 -0.010302832 -0.06196074 0.18170731 0.085863166 0.024626093 0.19573416 -0.021598324
-0.14135906 -0.16685309 -0.24180362 0.29158056 0.022057414 -0.062996 -0.043026786 -0.11844809
0.048418187 -0.0009397871 0.22793537 0.15668684 -0.044970863 0.20854057 -0.07782306 -0.07248426
0.16065407 0.167362 -0.0040990007 0.07781601 0.014206566 0.07921835 -0.31686652 0.2434877
0.1311555 -0.35688725 -0.21184404 0.05195432 -0.20548187 -0.034962732 0.20274979 -0.10754014
0.05729474 -0.08960083 -0.0042574923 0.0386768 -0.058444712 0.046845987 -0.14844516 0.034294162
-0.044620678 0.2702377 0.18208416 -0.06310676 -0.008469825 0.066920124 0.21749058 0.052061126
-0.07740723 -0.054097604 -0.004723979 -0.048665684 0.19842559 0.09311118 0.022967128 0.14438629
0.07449819 0.07884037 0.12568825 -0.15429665 0.043958332 0.12654841 0.24784376 -0.005818733
0.032490402 -0.114208944 -0.14277299 -0.03128598 0.03161002 0.081031896 -0.28444967 -0.0847485
-0.35028505 -0.18238428 0.09042625 -0.12459485 -0.39029008 0.11870151 0.095325336 -0.2596107
-0.089700855 -0.10621596 0.012867166 0.083545 -0.1092887 0.021578228 0.1320829 0.1253861
-0.20537934 -0.17404082 0.0013678232 -0.0016810237 -0.081038594 0.06183452 0.07860267 -0.13646731

encoder.net.5.bias f4 [32]
00000000: 4b20 3abd aa20 483d bc2d 243d e02d 0ebd
00000010: 8c10 76bd 50ba 3bbd 3e48 35bd a092 183c
00000020: 6592 2c3d ba8c 31bd 4b8b 203d 0a63 413d
00000030: 1625 3c3d 93d9 423d a960 333d f7af 5abd
00000040: fb82 683b 0b98 3fbd 8fe9 75bd 48db 333d
00000050: bb7a 253d f0a4 08bd 240f be3c 0265 3fbd
00000060: 08e3 403d d433 1ebd 9d0b 62bc d8d9 333d
00000070: 2955 343d 8078 2fbd 3edf 8f3c 3040 40bd
-0.045440953 0.048859276 0.04008268 -0.03471172 -0.060074374 -0.04583198 -0.04425835 0.009312302
0.0421318 -0.043347098 0.03919534 0.04721359 0.045933805 0.047570776 0.043793354 -0.05339047
0.003547846 -0.04677586 -0.060037192 0.043910295 0.040400248 -0.03336042 0.023200579 -0.046727188
0.047091514 -0.038623646 -0.013796714 0.043908924 0.044026528 -0.042839527 0.017562505 -0.046936214

predictor.net.1.weight f4 [32, 32]
00000000: 7524 803c b228 203e 53bb 6fbe 87f4 30bd
00000010: a641 9c3e 0cca 423e dc7c 373d 4292 45be
00000020: 227c 2a3e aedc 14be ab57 b73e e9cc 81bd
00000030: 0ad6 433e 6a32 b4bc 18f1 a0bd 7cd2 853d
00000040: ca14 8e3d 6d21 c1bd 6bea e93d c91b 4abe
00000050: 8984 8ebc 5f6a bdbc 82aa b23d 343b 033e
00000060: 7257 82bd da2a 10be c101 c93d c0d9 1dbe
00000070: b6d3 833d 5ac9 923e 7ebe a8bc e8b0 853c
00000080: 9c9c 8abe 69da b23d 160c a6bd bb07 e9b8
00000090: 4068 cc3d bc67 63be c96e e0be ef4f 1f3c
000000a0: 385c 7e3e 4760 62bc 65f3 253e 4b74 fa3b
000000b0: 5c7d 5c3e 80ff 293e fe20 973d 87e2 a73d
000000c0: 361d 3abe 103b 10bc 5787 35be 13b3 113e
000000d0: 7eb3 293e 9e62 bdbd 0d97 873d 3e6c 18be
000000e0: f3eb ea3d 7d0e a7bd af68 4ebe cd02 b9bd
000000f0: 9d2d 42bd dd63 d63d f2fe eebd d0a5 bdbe
00000100: 78f1 91bd 0a34 703d d9f6 f33c 29f8 35bc
00000110: 35d7 1ebe ef19 15bd ff81 5abe 9e2e 31be
00000120: 8f29 1a3e 2f35 7abe d131 0cbe 5971 ca3d
00000130: 3b16 183d ea78 4dbe 3c28 033e 2759 a43d
00000140: e6eb 0bbd 4091 583d 03ef d83c 795f 063e
00000150: e48c a43d a769 34bd 683f c2bd 421e a7bc
00000160: cd22 303e e255 8f3d 7d88 9ebe c3d5 023e
00000170: b12d 463e ddc2 903d 2261 d2bc e0fc 233d
00000180: 0906 00be e625 1ebe c6d5 eb3c 118a 873e
00000190: 4428 4ebe 2d02 d8bd 82cb 253e adda 27be
000001a0: b357 1c3e 2468 ae3b dc2a 0f3e b623 5d3e
000001b0: f856 1a3c b1e3 9c3d e787 b5bd c803 4ebe
000001c0: 9014 d23d 0049 353e 5980 b8bd 25bc 9f3d
000001d0: a589 813d 5b37 a7be 5adb 87be a63d 03be
000001e0: f47f 25bd e9ae 463e b613 803e a0aa 173e
000001f0: e8ca 4f3d f98c 66be 24bf 623d 000d 16bd
00000200: 4517 c0be 9f12 843e e54c 643e 9c3e e8bc
00000210: 4175 043c d28b 3ebe 13fe 02be 6ef1 e7bd
00000220: e03e 343e 2e79 c1bd c0c9 89bd 2447 203e
00000230: ec1e 6d3d 5956 d53c 8c0e 63bd 056a 38be
00000240: 7f10 513e 4b37 23be fda1 24be 558f 773e
00000250: 4e2c b13b 3b84 b43d 5ccf 62be cf40 9ebe
00000260: 24bb 943e 4a9e 373e 446a ba3d c095 8c3d
00000270: e4d4 4a3e b9f5 dcbd 0da1 9cbd 7d0e 23be
00000280: 52a0 3bbe df2d d7be 6f14 88bd 731f 2dbe
00000290: 2658 103e 3f8a a2bd 1bc5 0e3e ce11 5b3d
000002a0: 8815 2b3e 1dd5 943d c6b6 84be 5d74 1a3e
000002b0: be02 5fbd d9b8 2fbe 5726 0abe 9627 a6bd
000002c0: 4da8 5cbe 698f f8bc 152f d4bd fecf 773e
000002d0: 4494 493c 6210 833c 36b2 9d3d c765 b53d
000002e0: 7340 d0bd 934a 8d3e 3a00 b53d 7b47 10be
000002f0: 3b58 043e 343c a23e e6d7 90be 1624 943e
00000300: 4ab8 5e3e 949c cabd 3edb 9c3d 4fbe 24be
00000310: 78e1 3dbe 874a 7a3c 25c2 813e fc46 153d
00000320: aaaf 883c 48f4 413e 9322 823e b172 42be
00000330: 75b7 5bbd c56c d8be 6a60 71be 889a 203d
00000340: 792c 09bf 5175 4cbe ca9c 45bd dc5c 483d
00000350: ea40 393e 50a7 923e e54f 2ebe 40bf 1bbe
00000360: eb12 47be 3708 0abd 18be 9c3d 695d 81bd
00000370: e8bd 5a3e 501d 483e d40a 82bb 7e5f 253e
00000380: 1e20 a13d ee6e c83a 8706 403e 4dd8 95bc
00000390: 7e80 b8bd b826 12be 60a2 0f3e e53a 1ebe
000003a0: a290 493e 4731 9ebe 9fbc 3bbe c9a5 6dbe
000003b0: 8b68 d93e 46e6 73be 37dc 0fbd eebb 353d
000003c0: 1c3b 2e3c 4800 5a3e 656a a0bd eeb6 8f3e
000003d0: 19e1 103e 2153 243d bb1a bb3e 9941 d63d
000003e0: e120 063e e9d1 f7bd c5cb a23d a3cc 91bc
000003f0: 8e97 303e fef2 9e3e df4c 9cbe 2821 3dbe
0.015642384 0.15640524 -0.23411302 -0.04320195 0.30518836 0.19022387 0.04479681 -0.19294074
0.16648915 -0.14537308 0.35809073 -0.06337912 0.19124618 -0.021996696 -0.07858485 0.06534287
0.06937559 -0.094302036 0.11421665 -0.19737162 -0.017397182 -0.02312201 0.08723928 0.12815553
-0.06364335 -0.14078847 0.09814788 -0.15415096 0.06436865 0.28669244 -0.020598646 0.016319707
-0.27072608 0.08733065 -0.08107774 -0.00011111746 0.099808216 -0.2220754 -0.43834522 0.0097236475
0.24839866 -0.0138169 0.16206129 0.0076432577 0.21532196 0.16601372 0.0737934 0.081975035
-0.18175206 -0.008803144 -0.1772741 0.14228468 0.16572377 -0.09247325 0.066206075 -0.14885041
0.11470785 -0.0815706 -0.20157121 -0.09033737 -0.04740678 0.10468266 -0.11669721 -0.37040567
-0.07126135 0.05864338 0.029780792 -0.011106529 -0.15511782 -0.036401685 -0.21338652 -0.1730294
0.15054916 -0.2443435 -0.13690878 0.098849006 0.037130576 -0.20065656 0.12808317 0.08024817
-0.034160517 0.052872896 0.026481157 0.13122357 0.08034685 -0.04404607 -0.0948475 -0.02040017
0.17200775 0.06998803 -0.30963507 0.12776856 0.19353367 0.07068417 -0.025681082 0.040036082
-0.12502302 -0.15444145 0.028788459 0.26472524 -0.20132548 -0.1054729 0.16190913 -0.16392012
0.1526783 0.005322473 0.13981193 0.21595654 0.009420149 0.07660616 -0.08863812 -0.2011863
0.10257828 0.17703629 -0.090088554 0.077995576 0.06325082 -0.3265942 -0.2653454 -0.12816486
-0.04040523 0.1940266 0.25015038 0.14811182 0.050730616 -0.22514714 0.055358067 -0.03663349
-0.37517753 0.25795457 0.22294958 -0.028350167 0.008084596 -0.18608025 -0.12792234 -0.11325346
0.1760211 -0.09446941 -0.06727934 0.15652138 0.057890818 0.02604215 -0.055433795 -0.18009193
0.20416449 -0.15939061 -0.16077419 0.2417577 0.005406893 0.088142835 -0.22149414 -0.3090882
0.29049027 0.17931476 0.091023 0.068645 0.19807774 -0.107890554 -0.076479055 -0.15923496
-0.18322876 -0.42027184 -0.066445224 -0.16906528 0.14096126 -0.079365246 0.13942377 0.053483777
0.16707432 0.07267211 -0.25920695 0.15083452 -0.054445975 -0.17160358 -0.13491188 -0.08113019
-0.21548577 -0.03034182 -0.10360543 0.24200436 0.012303416 0.015999023 0.07700007 0.08857303
-0.10168543 0.27595958 0.08837934 -0.14089768 0.12924282 0.31686556 -0.28289717 0.2893378
0.21749988 -0.09893146 0.07659005 -0.16088222 -0.18543041 0.015276558 0.25343433 0.03644465
0.016685326 0.18940842 0.25417003 -0.18989064 -0.053641755 -0.42270485 -0.23571935 0.039209872
-0.53583485 -0.19966628 -0.04824523 0.048916683 0.18091169 0.28643274 -0.17022665 -0.15209675
-0.1944081 -0.03369924 0.07653445 -0.06316645 0.21361506 0.19542432 -0.003968576 0.16149709
0.07867454 0.0015291849 0.1875249 -0.018291617 -0.09008883 -0.14272583 0.14026785 -0.15452154
0.1968408 -0.3089697 -0.18333672 -0.23207773 0.42462572 -0.23818311 -0.035122123 0.044368677
0.01063421 0.2128917 -0.07832793 0.28069252 0.14148368 0.04011834 0.3654383 0.104617305
0.1309848 -0.12100584 0.07949022 -0.017797774 0.17245314 0.31044763 -0.30527398 -0.1846968

predictor.net.1.bias f4 [32]
00000000: b197 d33d 4c46 fbbd f82f 00be b106 03be
00000010: 8717 cf3d 4e79 c2bd 95f2 c53d 6db0 cebd
00000020: b384 c6bd 793a dabd 3d43 d6bd 95ab cabd
00000030: 405d bdbd 3695 ecbd ce5d bf3d 2f01 78be
00000040: 9dab 0c3e 2251 bb3d 2457 bc3d 6d77 103e
00000050: c58e d8bd d578 cd3d 04b9 b73d 45e2 c63d
00000060: 3d74 a33d 3896 babd ffec b5be 692e b5bd
00000070: 3160 aa3e 1825 d33d 86de b8bd 0c40 c0bd
0.10331667 -0.122692674 -0.12518299 -0.12795521 0.10111909 -0.09495793 0.096654095 -0.10092244
-0.09693279 -0.10655684 -0.104620434 -0.09896008 -0.09246302 -0.11551897 0.09344064 -0.24219202
0.1373734 0.09146334 0.09196308 0.14108057 -0.10574106 0.100328125 0.08970836 0.09711126
0.07981155 -0.09110683 -0.35532376 -0.08846743 0.33276513 0.103098094 -0.09026818 -0.09387216

predictor.net.3.weight f4 [1, 32]
00000000: 9fa7 5e3e 0361 35be 3496 68be 5434 cfbd
00000010: ce56 173f 0c5a bebe fdf7 343e bae1 48be
00000020: 0af7 75be 15bd 67be f74b ecbe 2815 a3be
00000030: b0d9 c6be cf72 84be f9a2 253e 8579 24be
00000040: 4156 1f3e 22e5 343e 5609 303e 33f0 cd3d
00000050: e15e 06be 967d 7a3d 7a64 d13e ef61 b33e
00000060: b69b ce3d 700b edbd fe3c 2dbe 3152 30be
00000070: 9e6d a83d 6cd9 fc3d c6bc 16be 960c 6fbe
0.2174363 -0.17712788 -0.22713548 -0.10117403 0.5911683 -0.37178075 0.17672725 -0.19617358
-0.24020019 -0.22630723 -0.46151707 -0.31852078 -0.38837957 -0.25868842 0.1617545 -0.16061981
0.15560247 0.17665532 0.17191061 0.1005558 -0.13122131 0.061154924 0.4089697 0.35035655
0.10088293 -0.11574447 -0.16917798 -0.17218854 0.08224033 0.123461574 -0.14720449 -0.23344645

net.0.weight f4 [60, 35]
00000000: 1b3d 573d e695 043e b32f ccbc 51ed 2ebe
00000010: 76db 44be 3c3c 9d3e 301a c03d 2fad 15be
00000020: af94 763c cc9d af3e 0c15 e53d 2439 f03d
00000030: 4c5d ac3e d00b 83bd 49a8 afbd 17f2 60be
00000040: e029 14be 4eb5 093e 934e 0cbe c313 d43c
00000050: 9c4c 2f3e acab c3bd 2cfd bb3c 4b0b 6d3c
00000060: f0d8 c0bc 295d 1b3e 6e77 3abe 40b8 b73d
00000070: 1374 333d 2b17 5fbc 8211 273e 2719 d4bd
00000080: cbc7 b6bc 7fc2 9abc 367e bcbd 86cb 003e
00000090: 54d2 abbd 0fb2 89be c1ab 283c 72ef 92bd
000000a0: aec4 ff3d 688e 8b3c faea 09be 2271 41bd
000000b0: e280 033e 6d9e 703d 6a75 d0bc c7c1 07bb
000000c0: 04e3 593e 2b83 cf3a ec51 a83c 78af b7be
000000d0: 03f0 1e3d f980 6a3e 41f4 873e f64a 3fbe
000000e0: b615 313c b0ce 0fbd adae 333e a9b0 253c
000000f0: 7430 ddbd b0e9 98bd 2d14 3dbe 1d8a e23c
00000100: 1b67 d73d e297 91bd fdd2 bfbd 6f77 793c
00000110: 3300 0c3d 330f 47be e307 8d3d ae29 7cbd
00000120: 7932 183e 9133 f1bd 140b 28be d47a 97bd
00000130: 98e6 24be 1832 e73d dab8 673a 4451 9cbc
00000140: a450 1fbd 68b0 9d3d 12e2 1b3c cb71 90bd
00000150: 4eea 403d cb9d f73d e3c4 47bc 7f26 c1bd
00000160: f950 c0bc 445d 303e 44d8 23bd e6f9 38bd
00000170: 6204 b6bd 48a9 543e bb70 ed3c b04d 3d3d
00000180: 2cfa 863d af0f 92be 43ae 39be aa9e 543e
00000190: 6af5 013d 6667 e7bd d811 883e 9038 c63d
000001a0: d1c5 a33d 1db4 8abc 6242 d8bd fc66 873e
000001b0: 238b d03e 6c94 ccbd ef2c 78be c024 483e
000001c0: 9d27 273d 5f65 6e3e 9347 943d 5ed3 963d
000001d0: bfab 813e 5743 2dbe b305 c73c 22ad 223c
000001e0: 930e 4c3d 6e63 86bd 9bbe ad3d b18d 0dbe
000001f0: aaa3 573e 4229 92bd 4073 51be 139f a63d
00000200: 9066 11be a872 b2bd 1396 c93d e4b3 4cbd
00000210: 34ea f03c 7934 1b3e d053 3dbe d10a ccbd
00000220: 9445 303e a0e5 c5bc b582 3e3e 0227 a13d
00000230: 2915 2d3e 3845 1ebd 1535 ff3c a6c4 593d
00000240: 2673 c23e 3724 b2bc 486d 2cbd 66ec 6abc
00000250: d569 dabd 5a19 b53d b64f b7bd 0c53 47be
00000260: 9588 b53d 2a37 37bd 8287 cf3b e178 8cbe
00000270: 4a55 d3bc fb84 993e 5080 95bc d8c3 1d3d
00000280: 93e4 f43d 7975 0f3d b60d b33e 5584 e2bd
00000290: c1c8 123e 11ed 0c3d 8be7 193d 11c2 02bd
000002a0: f819 09be 67df dcbd 694a efbc 2179 d63c
000002b0: ca0a c7bd a618 c13d 562c c6bd eb03 febc
000002c0: 3ffa f33d 8e3a 4a3b 8449 3c3d 9cdf 583e
000002d0: d189 da3d 4fcb 39be 567d 233c da4c 193d
000002e0: 4774 0a3e 5ba7 283e 41dc ee3d fde3 57bd
000002f0: 4d70 0f3d 6dd4 0cbe 9022 803c 8e5f 3abe
00000300: 127e 363e 58c1 e93c 8a99 303e fc48 483e
00000310: c3fb 233e 2422 bdbd 8636 afbd 7044 e6bd
00000320: a185 b4bd cf9f 09bc 8deb a9bd a37a 563e
00000330: a2b7 7d3e f71e 3f3e b621 8ebd e765 dcbb
00000340: e726 973c e0a1 fdbd 63a1 b73e 05cc 463e
00000350: f0c1 8fbd 6c03 03be 7390 0a3d 9553 dc3e
00000360: f4a9 883e 13d9 873d 5728 703d 9bc4 143c
00000370: 5f02 1bbe cf41 f93d 98f5 1f3e 0e7c 6dbc
00000380: df16 053d 3685 ccbc 549d a8bd 853a 89be
00000390: 07d7 d23c e4e8 32be f546 3ebe 2dee 0ebe
000003a0: 60a1 4fbc 7066 1dbd f9b9 a43c 2ca8 0dbd
000003b0: 6d18 4e3e 4118 423e 7245 d43d ed29 9b3d
000003c0: 6b8e a7bd f155 94bd 9d50 cd3d f7a8 a13d
000003d0: 5ab3 dc3b 84ab b9bd 98b1 d4bd fa6e e43d
000003e0: 0444 ea3d b4c7 b3bd 4a94 9bbd fe91 b3bc
000003f0: ccc7 f23d 1a73 c8bc a1dc b2bd 3bf0 203e
0.05254851 0.12947807 -0.024925089 -0.17082717 -0.19224343 0.30710018 0.09379995 -0.14616846
0.015050097 0.34300077 0.11185655 0.11729649 0.3366493 -0.063987374 -0.0857702 -0.2196735
-0.14469099 0.13448068 -0.13701849 0.02588833 0.17119068 -0.09554228 0.02294787 0.0144680245
-0.023540944 0.15172257 -0.18209621 0.0897069 0.04381187 -0.0136163635 0.16315272 -0.1035636
-0.022312066 -0.018891571 -0.0920376 0.12577638 -0.08389726 -0.2689366 0.010294856 -0.07174577
0.124886855 0.017035678 -0.13468543 -0.047227032 0.12842134 0.058744837 -0.025446612 -0.0020714866
0.21278006 0.0015831938 0.020546876 -0.3587606 0.03880311 0.22900762 0.26553538 -0.18680939
0.010808399 -0.035109222 0.17547102 0.01011292 -0.10800257 -0.07466447 -0.18464728 0.027653748
0.10517713 -0.071090475 -0.09366415 0.015226229 0.034179877 -0.19439392 0.0688627 -0.061563186
0.14863004 -0.11777414 -0.16410476 -0.073964745 -0.1610359 0.112888515 0.0008839496 -0.01908172
-0.038895264 0.076996624 0.009514349 -0.07052954 0.04709845 0.120906435 -0.012192938 -0.09431171
-0.02347611 0.17223078 -0.04000117 -0.045160197 -0.08887555 0.207677 0.028984418 0.046216667
0.06590685 -0.2852759 -0.18132882 0.2076365 0.031728186 -0.112990186 0.26576114 0.09678757
0.07996715 -0.016931588 -0.105595365 0.26445758 0.40731153 -0.09989247 -0.24235891 0.19545269
0.040809263 0.23280858 0.07240214 0.07364534 0.25326344 -0.1692022 0.02429471 0.009928973
0.049818587 -0.065619335 0.08483621 -0.13823582 0.21058527 -0.071367756 -0.2045412 0.0813581
-0.1419928 -0.08713275 0.098430775 -0.049976245 0.029408552 0.15156735 -0.18489003 -0.099630006
0.17214042 -0.024157345 0.18604548 0.07868768 0.16902603 -0.03864023 0.031153241 0.053166054
0.37978476 -0.021745784 -0.042096406 -0.014338588 -0.10664717 0.08842726 -0.089507505 -0.19465274
0.088639416 -0.044730343 0.0063332925 -0.27435973 -0.025797505 0.2998427 -0.01824966 0.03851685
0.119576596 0.03502414 0.34971398 -0.110603966 0.14334394 0.03440577 0.037574332 -0.031923357
-0.13388813 -0.10784798 -0.029210286 0.026180806 -0.09718855 0.094285294 -0.09676425 -0.031007728
0.11912965 0.0030857655 0.045968547 0.2117905 0.10670818 -0.18143962 0.009978613 0.037426807
0.13520919 0.16470091 0.11663104 -0.05270766 0.035019208 -0.13752909 0.01564148 -0.18200514
0.1782153 0.028534576 0.1724607 0.19559091 0.16014008 -0.092350274 -0.085553214 -0.11243522
-0.0881455 -0.008399918 -0.08296881 0.2094522 0.24777082 0.18664156 -0.069400236 -0.006726015
0.018451167 -0.12384391 0.35865316 0.19413765 -0.070194125 -0.12794274 0.033829164 0.43032518
0.26692164 0.066332005 0.05863222 0.0090800775 -0.15137623 0.12170755 0.1562103 -0.014494909
0.032492515 -0.024965864 -0.08233133 -0.2680246 0.025737299 -0.17471653 -0.18581755 -0.13958044
-0.012672752 -0.03842777 0.02010821 -0.03458421 0.20126505 0.18954565 0.10364808 0.07576356
-0.08181461 -0.072429545 0.100251414 0.078935556 0.0067352476 -0.09065917 -0.10385436 0.111539796
0.11438754 -0.08778325 -0.07596643 -0.0219202 0.118545145 -0.024468947 -0.08733488 0.1571664

net.0.bias f4 [60]
00000000: 29be 773d e570 243d b84f f73d ed0f 813d
00000010: a2ca b1bd 8320 06be dc55 fbbd 16bc 163d
00000020: fb44 f2bd a0ba 803d b7fa 103e 8baf c6bd
00000030: 594b dc3b 44f4 a2bd 20e7 76bd bd40 f3bd
00000040: 4472 853d 1502 6c3c 0cd7 973d 559c 0dbe
00000050: 6cce 6ebd 654f b2bd bcb5 eabd 9380 d73d
00000060: 4a39 48bc 2fed 6cbc f5fd 90bd ce54 d8bd
00000070: 7971 ce3a 1cc0 1dbe 9cc7 e43c ba71 b1bd
00000080: edbc a5bd d39f 103c 3a9e 1cbe 9db4 74bd
00000090: 331d 91bd 8af8 953c 4412 f0bd b09a afbd
000000a0: cd45 3bbd 5b7a 1fbe b114 a33d e34e 91bc
000000b0: 9dc1 0bbd 8ec6 023e 8ff8 993d c965 dcbd
000000c0: 93e0 e43d 3d9e 1f3e 291b 313e 9ccc 133e
000000d0: 9e70 ad3d f400 37be ae0b 693c 3635 debc
000000e0: b211 8dbd 111c 24bd 084a 25ba 2511 98bd
0.060484085 0.040146727 0.12075752 0.06301866 -0.08681227 -0.1309834 -0.12272236 0.036800466
-0.11829563 0.06285596 0.1415814 -0.09701451 0.0067228493 -0.07956746 -0.06027901 -0.11877582
0.06515935 0.014404793 0.07414064 -0.13829167 -0.058302328 -0.087065496 -0.11460444 0.105225705
-0.01222069 -0.014460846 -0.070796885 -0.1056305 0.001575037 -0.15405315 0.027927212 -0.0866427
-0.08092675 0.008827168 -0.15294734 -0.05974256 -0.070856474 0.01830699 -0.11722234 -0.08574426
-0.045720864 -0.15574019 0.07962931 -0.017737811 -0.03412019 0.12771055 0.07518112 -0.107616015
0.11175647 0.15587707 0.17295517 0.14433521 0.08468746 -0.17871457 0.014223976 -0.027124982
-0.06888141 -0.04006583 -0.0006305282 -0.07425145

net.2.weight f4 [60, 60]
00000000: b069 19be b42b 903e e1d8 1e3d e770 1abb
00000010: f8fe bb3d cc24 b6ba 4b98 803e 6225 a63c
00000020: dea8 20be c839 2dbe a4be 1cbe 0275 73bc
00000030: 10f2 a83d f70d 19be b096 643d fc9e 8e3e
00000040: 441d d53d f9e1 cf3d 7a43 88be f389 443d
00000050: 595d f7bd 95e2 9a3d 2453 e53d 3575 403a
00000060: 0006 463e 8fde ca3d a217 283e 6b9a f8bd
00000070: 1c74 733d d6fa da3d feb5 23be 6044 a3bd
00000080: fe30 8b3d 1bb4 3e3e bd8f f63d 6482 283e
00000090: 3afc f83b be26 10be d24a 46be a00f ff3d
000000a0: 286b c0bd 3134 463e 4c9c 4a3e 8c86 89be
000000b0: 3b53 fbbd d5e4 353e 54c9 02be 3278 4a3e
000000c0: d774 95bc fd97 4ebd 4d9c 163e e24f e8bd
000000d0: 349a dd3c ba75 353e 2471 703e a197 fcbc
000000e0: bf86 f03d 6617 073d 7e51 383c 8400 aebd
000000f0: c2a6 70be 6a9b 5fbc 463e efbd f88c 8c3d
00000100: 211a ec3c 963b 93bd dcea 833e 6419 67bc
00000110: 8e8e 80bd de65 193e ff66 243d 77f2 5f3d
00000120: 6364 103e 88c9 dfbb b6fa 8cbe a2f8 543e
00000130: bd65 3a3e 2ce1 0dbe 79be ff3b e74a 9abd
00000140: 6bbd 153d 07a5 a8bd 2888 0ebc 64b7 21bb
00000150: ee5c 91bd 9958 383d a10a ac3d a400 6abe
00000160: f669 203d 5616 53be 519a 973d 4dcb 1c3a
00000170: 6c21 173e a302 023e 4722 5ebd ba90 1a3e
00000180: 7d8d 3cbe 60ff 0fbd 7c4e 11be 35a6 9fbd
00000190: afed 17bc 838b e33d 3431 793d 514f 44bd
000001a0: fba4 f1bd 0a0e 133e 58e6 dd3c 6842 853d
000001b0: e5c7 703e e0f7 96be dd84 f5bd a78a 7dbe
000001c0: deac d5bd cf1b 16be d2f5 83bd 933b d7bd
000001d0: 8e3b 0cbe 9ea1 8c3e 204a 4c3d 2e59 f43d
000001e0: 2b07 dd3c bf9a 5c3b 997d b3bd 731b 1a3e
000001f0: 119c e6bc 6a16 1dbe 2fb5 0fbe 7908 d6bd
00000200: 8084 09be a7df bf3d 169b a63b 39d2 703d
00000210: 637c f6bd b6d1 683d 8094 233d dbba 16bd
00000220: 221b b9bd 5df1 16be 2454 9fbd 32f6 94bd
00000230: 74ca fcbb 1735 e33d f800 153d 2821 0e3e
00000240: aaa8 043e 9e37 883c 3719 23be 5970 df3d
00000250: 4745 5bbe 3280 5c3d 0bb2 09be b713 893d
00000260: f770 babd a4aa eabd 52ab 3b3e eca7 5bbe
00000270: 184b 3bbd 5e06 073c f469 973c 0649 073e
00000280: 8bec 2cbb f788 593d 299b 2f3e 28fb b3bd
00000290: 13e3 2f3e c003 983d 6061 953d be2f 4c3e
000002a0: 88ef 993d 31b6 c93d 9e1a 0e3e b531 99ba
000002b0: 14c5 dabb 63b5 ee3c d4a9 8ebd caa1 193d
000002c0: d65d 623e 3546 5a3e 6594 d53d dcc4 18be
000002d0: 79f2 e4bd 56d6 11be 6590 04be 11ba d13d
000002e0: b4d0 65bd 2cbb 163e fafe 813d 7696 33be
000002f0: c11e 9cbe b932 5bbd 8eeb 6dbc e0fd 00be
00000300: d93c 453c 3bea 94bd 2097 31bd 5abf e4bd
00000310: 4a3a 663b e2e4 46bd 165d 613d 49ab 49be
00000320: 66fd 0c3e 21de 073d 14c5 6a3d 7b4b e13d
00000330: 72e3 a53e f393 7c3e 24c9 cfbd 8686 ac3d
00000340: cede ec3d 6e9b 24bd eac7 b8bb 1504 f53d
00000350: 4ffa e83b 947a 1c3d 6a00 a3bc 644b 803c
00000360: e406 fb3d 6c8e 63be 4dd8 84bd 7d5c 693e
00000370: 81b5 8ebd 30f1 c3bd ede5 3f3c b581 8fbe
00000380: 23dd 0c3d 0f55 99bd 6705 b9bc 1169 73be
00000390: 1e75 4abe 1f0d e0bd 62c0 dabd b0ad 83bc
000003a0: 84da 4abd 4147 57be b8bc 27bd 9800 1a3d
000003b0: bc1d 303e 4005 7d3e 4a5b 973d 3d7f e1bd
000003c0: b585 49bd 45a0 53bd 0c4b 403e 4f36 dc3d
000003d0: 757e 20bb 42b8 d93c 8285 fa3b dc62 043d
000003e0: c595 f6bd 1e28 f53c d840 ec3d eac2 ff3d
000003f0: 63f1 003e c4f1 693d 169a 243d dc0f 4e3d
-0.14981723 0.28158343 0.03878105 -0.002356583 0.09179491 -0.0013896464 0.2511619 0.020281497
-0.15689418 -0.16916573 -0.15307099 -0.01485944 0.08249295 -0.14946733 0.05580777 0.2785567
0.104059726 0.10150523 -0.2661398 0.04798312 -0.120783515 0.07562748 0.111974984 0.0007341684
0.19338226 0.09905731 0.16415265 -0.12138828 0.059436902 0.106923744 -0.15987393 -0.07972026
0.06796454 0.18623392 0.12039135 0.1645599 0.007598427 -0.14077279 -0.19364479 0.12454152
-0.093954384 0.19355847 0.19786185 -0.26860464 -0.12271734 0.17763074 -0.12772113 0.19772413
-0.01824419 -0.050437916 0.14708062 -0.113433614 0.027051069 0.1772069 0.2348066 -0.030834021
0.11744451 0.0329813 0.011249898 -0.08496192 -0.23501113 -0.013647893 -0.116817996 0.06862825
0.028821053 -0.071890995 0.2576512 -0.014105175 -0.0627719 0.14980265 0.040137287 0.054674592
0.14100794 -0.0068294443 -0.27535027 0.20797971 0.18202873 -0.13855428 0.0078046885 -0.07533818
0.036557596 -0.082346015 -0.008699454 -0.002467596 -0.07097803 0.04500637 0.08400465 -0.22851807
0.039163552 -0.20613989 0.074024804 0.0005981222 0.14758843 0.12696318 -0.05423191 0.15094271
-0.18413348 -0.035155654 -0.14190096 -0.07795373 -0.009272977 0.11110594 0.06083794 -0.047927205
-0.11799046 0.14360824 0.027087376 0.065068066 0.23513754 -0.2948599 -0.11988232 -0.24759923
-0.104333624 -0.14659046 -0.06443371 -0.1050941 -0.13694593 0.27467054 0.04987538 0.11931072
0.026980957 0.0033661572 -0.0876419 0.15049534 -0.02815059 -0.15340582 -0.1403396 -0.10450835
-0.13429451 0.0936883 0.0050844057 0.058794234 -0.12035444 0.05684062 0.039936543 -0.036799293
-0.09038378 -0.1474051 -0.077797204 -0.072735205 -0.007714564 0.110941105 0.036377877 0.13879836
0.12954965 0.016628083 -0.15927587 0.109101005 -0.21413146 0.053833194 -0.13446824 0.066932134
-0.091035776 -0.11458328 0.18327072 -0.21450776 -0.04572591 0.008241264 0.01848314 0.1321145
-0.0026386108 0.053109135 0.17149033 -0.08788139 0.17176466 0.0742259 0.072939634 0.19940087
0.0751639 0.098492034 0.13877341 -0.0011687787 -0.0066763256 0.029139226 -0.06965986 0.03750781
0.22106108 0.21315844 0.10428695 -0.14918846 -0.111790605 -0.14241919 -0.12945707 0.102405675
-0.056107238 0.14719838 0.06347461 -0.17537865 -0.30492213 -0.05351517 -0.014521493 -0.12596846
0.012038433 -0.072712384 -0.043357015 -0.1116931 0.0035129958 -0.048558123 0.055020414 -0.19694246
0.13768539 0.033170823 0.057316855 0.11000725 0.3240009 0.24665813 -0.101457864 0.08424096
0.11565934 -0.04018729 -0.005639066 0.11963669 0.0071099172 0.038202837 -0.019897658 0.015660949
0.12257174 -0.22222298 -0.064865686 0.22789188 -0.06968213 -0.09567487 0.011712533 -0.28028646
0.03439058 -0.07486927 -0.022585584 -0.23770548 -0.19771239 -0.10940003 -0.10681225 -0.016074032
-0.0495248 -0.21023275 -0.04095146 0.037598222 0.17198843 0.24709034 0.07390459 -0.11010597
-0.04919978 -0.051666517 0.18778628 0.10752546 -0.0024489437 0.026577119 0.00764531 0.032320842
-0.12040285 0.029926356 0.115358055 0.12488349 0.12592082 0.05711533 0.04018601 0.050308093

net.2.bias f4 [60]
00000000: b547 b1bb d205 ba3d be61 3cba 2b8c 46bd
00000010: 12e7 923d 4934 b13d d47a d6bc 2e3f dd3c
00000020: 0b77 eaba 3ac3 d63c a0bb a7bd 258d 453d
00000030: ab19 acbd c35e d5bd befc 50bc fa8c 0c3e
00000040: a361 d4bc 875a 9dbd 1768 49bd e96e e1bb
00000050: 327a b63d 3cd0 c43d f765 223d c4e4 ddbd
00000060: a0e6 5abd 8599 f8bc 199a d6bd 669e 08bc
00000070: 3c7b 9cbd 5e73 44bd 09a9 033d 295a 6bbd
00000080: 8b54 ab3d 1181 2fbd 77dd 8c3c f80b acbd
00000090: f8ee 57bd 3b76 abbd 9363 efbc 0a15 993d
000000a0: c1a4 96bd 69ec 58bd fc5c 01be 8de4 a2bd
000000b0: d04c aabd cf8f 533d 023a 793d 5b70 d63d
000000c0: a4c7 d0bd 7d1c b8bd bcc2 f73c 8381 a3bd
000000d0: 27c7 ec3d b03a 83bc 6539 2dbc 4600 d03d
000000e0: 5899 9ebd e438 c3bd e15e f8bc b568 693d
-0.0054101595 0.090831414 -0.00071861956 -0.04847352 0.071729794 0.08652551 -0.026181616 0.027007665
-0.0017888261 0.026216138 -0.081900835 0.04823031 -0.08403333 -0.10418465 -0.012755571 0.13725653
-0.025925463 -0.07683282 -0.049171533 -0.0068796766 0.08910026 0.0961003 0.039648023 -0.10834649
-0.053442597 -0.030346641 -0.104786105 -0.008338546 -0.076406926 -0.047961585 0.032143626 -0.05745903
0.08365735 -0.042847697 0.017195446 -0.0840072 -0.052718133 -0.0837216 -0.029222285 0.07474716
-0.07355643 -0.052959833 -0.12633127 -0.07953749 -0.08315432 0.05165082 0.060846336 0.10470649
-0.101943284 -0.08989809 0.030244224 -0.07983687 0.11561423 -0.016019195 -0.010572766 0.10156302
-0.07744092 -0.095323354 -0.03031868 0.056984622

net.5.weight f4 [1, 60]
00000000: 2516 7c3e 3997 18bd 3d1b e3be f485 cd3e
00000010: 9e8f 59be 3db0 bd3b 7a52 25be aee1 d73c
00000020: 6546 253e 3376 27bd 6507 05be 8e00 50bb
00000030: 36f8 703e 1d66 b3bd 906e 91bc 6377 1dbd
00000040: 450b 8bbe 8762 8d3d 3664 b8be 6ce8 46bd
00000050: 318b 3c3e f1e5 87bd d528 33bd 5a4d 93bd
00000060: 7f06 90be 7af1 703d 4df8 21be 42b4 89bd
00000070: bbdd 72bc 3626 0dbe 9120 f33d 0947 f53d
00000080: 0c69 733b bc7d bb3d 9a19 733e 7a59 c93b
00000090: bb3d 26bc 06f2 543e ddd2 3cbe 497b 693c
000000a0: b642 e53b f13f 8e3d 5581 a8bb 6ebf 9fbe
000000b0: 8a01 0e3b 5127 623e 0d9c 97bb aa56 a5bd
000000c0: 525b 0e3e 6dd0 6fbd 13d5 503e 461b 833e
000000d0: c646 083e 79ca 043d be65 4e3c ae46 73be
000000e0: fa78 7ebe 177c 0fbe 0569 323e c254 a13d
0.24617822 -0.037253592 -0.4435672 0.4014126 -0.21246192 0.0057888315 -0.16144744 0.02635273
0.16140135 -0.040884208 -0.12991102 -0.0031738612 0.23532185 -0.08759711 -0.017752916 -0.038443934
-0.27157035 0.06903558 -0.36013955 -0.0485615 0.18412472 -0.06635655 -0.043740112 -0.07192488
-0.28129956 0.05882404 -0.15817375 -0.067238346 -0.0148233725 -0.13784108 0.11871446 0.119764395
0.003714147 0.09154841 0.23740235 0.0061446996 -0.010146554 0.2079545 -0.18439813 0.014250585
0.006996478 0.069457896 -0.0051423707 -0.31200737 0.0021668398 0.2208531 -0.004626757 -0.080731705
0.13902023 -0.05854838 0.20393781 0.25606745 0.13308248 0.032419655 0.012597499 -0.23757431
-0.24850836 -0.1401218 0.17422874 0.078774944
