results of reviewer/XJTU results/3-3/Experiment10/model.pth (torch, 59838 bytes, 14 tensors)

encoder.net.0.weight f4 [60, 17]
-0.15210302 -0.043630183 -0.17103705 0.14668748 -0.09765063 0.15222734 0.20866948 0.038737614
-0.073116615 -0.09424393 0.27284983 0.013731331 -0.14231436 -0.047258705 -0.24228337 0.28874776
0.02818006 0.05706161 -0.116853945 -0.024836468 -0.0057538766 0.043593712 -0.3423035 -0.020637782
0.21592864 -0.11484916 0.19657145 0.008899185 -0.056961413 0.144026 0.027849087 0.05579555
-0.06449072 -0.3339671 0.05221983 -0.005468 0.046246793 -0.09698122 0.12708418 -0.11625491
0.055636194 0.27288282 -0.17482896 -0.10706099 -0.10464852 -0.20112999 0.011541253 0.00082675816
0.0065017594 -0.0457542 0.17584062 -0.029829314 0.057900194 -0.07052367 -0.05234742 -0.04642745
-0.004607974 -0.055185694 -0.16742373 -0.0037006917 -0.10526727 -0.11235098 0.13737474 0.04455452
-0.08530988 0.059453636 0.19870849 -0.1823028 0.17164524 -0.096105345 0.01483005 0.24894767
0.012072547 0.105276026 0.07172931 -0.0026710338 -0.19222371 0.158168 0.17156015 -0.09718901
0.076354064 -0.2312315 0.16913764 0.17444341 0.09091848 -0.07271013 -0.120758556 -0.082269855
-0.112995684 -0.016477728 -0.08020843 0.30668253 0.273958 -0.016343638 0.10211985 0.0470046
-0.12045533 0.30189058 -0.2425068 0.08667166 -0.18186782 0.18529002 -0.22411898 0.042049482
0.19742294 0.08850057 0.1149446 0.06237507 0.19213907 0.07893053 0.08806186 0.01221988
0.3385996 -0.13234483 0.032337185 -0.092229195 -0.10648104 -0.02043209 -0.082786985 -0.14646229
0.12993298 0.23948929 -0.009019197 0.13309802 -0.32294062 -0.14408639 -0.03158241 0.03631736
-0.22686605 -0.052955758 -0.00045908397 -0.20436668 0.019642692 0.11708038 -0.21279368 -0.20310721
-0.11723826 -0.13986044 -0.046852697 0.07675964 -0.102588326 -0.051637854 0.18681614 -0.2101055
0.05205488 -0.16480146 0.023015562 0.018609092 0.08206992 0.014854239 -0.123475835 0.014249953
-0.026311215 0.10594742 -0.07406237 0.20171484 -0.15392675 0.04965044 -0.075451866 0.17417346
-0.049456235 -0.061636772 -0.08523719 -0.2936566 0.008932591 -0.14624156 0.084801994 0.17210227
0.08834042 0.18183605 0.008745142 -0.009347089 0.025030425 -0.046755433 -0.065856144 0.017152088
-0.11037406 0.0103381 -0.031171333 -0.08802267 0.29172978 0.1219161 0.07645633 -0.07569274
0.0028535575 0.18079965 0.025746634 0.18078803 -0.27826923 0.065900564 0.0072447006 0.054118298
0.07637016 0.3039134 0.037616592 0.19321764 -0.161668 0.05739025 -0.0041583846 0.09288824
-0.17303438 -0.14142492 -0.20416027 -0.10381255 0.040947426 -0.1541517 -0.05076698 0.26744673
0.09313989 -0.1499299 -0.16816969 -0.20256834 -0.24381022 -0.12496328 0.055294536 -0.0045044743
0.27911067 0.014766679 -0.12913345 -0.1429744 -0.029568927 -0.20582184 -0.18038462 -0.10160497
-0.19491008 0.064977124 -0.23163569 0.03189809 -0.11498499 -0.14985096 0.018871093 0.19741705
-0.15549311 0.2062165 0.11648639 0.03535207 -0.1399355 -0.082312554 -0.124180906 -0.106189944
0.1067295 -0.11624469 -0.10624456 0.3051432 0.005449394 -0.026805768 0.015409136 0.092750885
-0.033125527 -0.19738936 -0.06995154 0.10487485 -0.005171664 -0.08030176 0.013059995 -0.11075571
00000000: e5c0 1bbe 90b5 32bd 5624 2fbe 3e35 163e
00000010: 0efd c7bd 7ce1 1b3e 74ad 553e 55ab 1e3d
00000020: 2abe 95bd f602 c1bd f9b2 8b3e 60f9 603c
00000030: dbba 11be 5892 41bd 2219 78be bfd6 933e
00000040: dfd9 e63c 6fb9 693d 1f51 efbd d975 cbbc
00000050: 048b bcbb 528f 323d 6842 afbe 9110 a9bc
00000060: 661c 5d3e 0936 ebbd 074a 493e e3cd 113c
00000070: 5f50 69bd 8d7b 133e c523 e43c e089 643d
00000080: b613 84bd bcfd aabe 76e4 553d e92c b3bb
00000090: 476d 3d3d 179e c6bd 5b22 023e 0e17 eebd
000000a0: c7e2 633d 4cb7 8b3e 5d06 33be cb42 dbbd
000000b0: f751 d6bd 05f5 4dbe 8617 3d3c cdba 583a
000000c0: b60c d53b c268 3bbd 900f 343e 9b5c f4bc
000000d0: c128 6d3d b76e 90bd 406a 56bd b62a 3ebd
000000e0: 7dfe 96bb 650a 62bd 2071 2bbe 4e87 72bb
000000f0: 5e96 d7bd 4518 e6bd f7ab 0c3e cd7e 363d
00000100: f2b6 aebd a885 733d 3d7a 4b3e 96ad 3abe
00000110: c5c3 2f3e e1d2 c4bd bdf9 723c 23ec 7e3e
00000120: efcb 453c f59a d73d d1e6 923d 830c 2fbb
00000130: 4bd6 44be cbf6 213e 77ad 2f3e 080b c7bd
00000140: 855f 9c3d f3c7 6cbe 6b32 2d3e 4ba1 323e
00000150: 7833 ba3d 0ce9 94bd 4350 f7bd 197d a8bd
00000160: 486a e7bd 4dfc 86bc 5144 a4bd 7e05 9d3e
00000170: 3944 8c3e 18e3 85bc 3624 d13d e587 403d
00000180: 49b1 f6bd 6791 9a3e b453 78be e980 b13d
00000190: 8f3b 3abe abbc 3d3e 727f 65be 143c 2c3d
000001a0: 3d29 4a3e c93f b53d 1368 eb3d 007d 7f3d
000001b0: 1bc0 443e 54a6 a13d c759 b43d e435 483c
000001c0: ed5c ad3e 6785 07be ff73 043d a9e2 bcbd
000001d0: bb12 dabd 3361 a7bc 398c a9bd 36fa 15be
000001e0: 270d 053e ae3c 753e 41c5 13bc d94a 083e
000001f0: 7958 a5be 628b 13be 8f5c 01bd 83c1 143d
00000200: 934f 68be 23e8 58bd 35b1 f0b9 8045 51be
00000210: b6e9 a03c d7c7 ef3d 96e6 59be 56fb 4fbe
00000220: 9d1a f0bd 9337 0fbe 9de8 3fbd 2834 9d3d
00000230: d419 d2bd 3782 53bd bb4c 3f3e e525 57be
00000240: 7f37 553d b7c1 28be 228b bc3c 1872 983c
00000250: 4614 a83d 325f 733c e6e0 fcbd a378 693c
00000260: 9e8a d7bc f6fa d83d 03ae 97bd 568e 4e3e
00000270: f99e 1dbe 435e 4b3d 8286 9abd 875a 323e
00000280: 9f92 4abd d776 7cbd d690 aebd 285a 96be
00000290: 015a 123c 59c0 15be abac ad3d 943b 303e
000002a0: d2eb b43d 3b33 3a3e c947 0f3c 8824 19bc
000002b0: 9b0c cd3c a082 3fbd 96df 86bd 8982 8c3c
000002c0: cc0b e2bd 2261 293c 065b ffbc 3b45 b4bd
000002d0: 9b5d 953e 26af f93d 2395 9c3d cc04 9bbd
000002e0: c002 3b3b 8b23 393e 9bea d23c 7f20 393e
000002f0: 4e79 8ebe e0f6 863d f464 ed3b 26ab 5d3d
00000300: f567 9c3d 8a9a 9b3e db13 1a3d d8da 453e
00000310: 4c8c 25be 0a12 6b3d 0f43 88bb 313c be3d
00000320: ed2f 31be b2d1 10be 640f 51be ad9b d4bd
00000330: 7db8 273d f1d9 1dbe 09f1 4fbd c7ee 883e
00000340: 20c0 be3d 3987 19be ad34 2cbe 136e 4fbe
00000350: 63a9 79be c0ec ffbd 867c 623d 459a 93bb
00000360: 98e7 8e3e f1ef 713c 8f3b 04be e267 12be
00000370: 893a f2bc f6c2 52be bfb6 38be 4416 d0bd
00000380: 8296 47be ba12 853d e831 6dbe 92a7 023d
00000390: 407d ebbd 8872 19be 8d97 9a3c b227 4a3e
000003a0: 9639 1fbe 6b2a 533e 6b90 ee3d 55cd 103d
000003b0: 404b 0fbe 7c93 a8bd 8f52 febd 1d7a d9bd
000003c0: ff94 da3d b211 eebd bf96 d9bd bb3b 9c3e
000003d0: d590 b23b c597 dbbc 9a76 7c3c 2df4 bd3d
000003e0: a2ae 07bd 7020 4abe c142 8fbd a0c8 d63d
000003f0: 1077 a9bb 4075 a4bd 97f9 553c e4d3 e2bd

encoder.net.0.bias f4 [60]
0.008063158 -0.043013014 -0.03411632 0.03363648 0.01749076 -0.02206388 -0.038073562 0.035226684
0.037839532 0.03408514 0.03527235 -0.035403967 -0.033140212 -0.01498248 0.02316393 -0.039430387
0.03918071 -0.021335814 -0.046242967 0.033231888 0.035464596 0.010569074 0.026735576 -0.029062105
0.041875556 0.03600728 0.029735258 0.023865327 0.031092329 -0.0030583448 -0.0407989 -0.032270186
-0.052633047 0.027601527 0.025443109 -0.023062766 -0.029157747 -0.030934652 -0.025830254 -0.019998157
0.022644866 -0.027299212 0.026179416 -0.037014637 0.014245355 0.034546226 0.038652245 0.014977631
0.027952239 0.031433444 -0.041780833 -0.03502595 -0.031467307 0.039324217 -0.002189726 -0.036224566
-0.019040072 -0.043710154 -0.041721717 -0.04313447
00000000: 561b 043c 6a2e 30bd 8ebd 0bbd 68c6 093d
00000010: c848 8f3c 4fbf b4bc 06f3 1bbd db49 103d
00000020: a0fd 1a3d dc9c 0b3d bd79 103d c003 11bd
00000030: 08be 07bd 1379 75bc 48c2 bd3c c281 21bd
00000040: f47b 203d 72c8 aebc 4469 3dbd 291e 083d
00000050: 5343 113d e929 2d3c 9104 db3c a713 eebc
00000060: b485 2b3d 5f7c 133d 5b97 f33c 3881 c33c
00000070: 57b5 fe3c 836e 48bb bf1c 27bd be2d 04bd
00000080: c095 57bd 991c e23c 116e d03c 20ee bcbc
00000090: 3adc eebc ab6a fdbc f899 d3bc 2dd3 a3bc
000000a0: ba81 b93c 99a2 dfbc 3776 d63c a99c 17bd
000000b0: 5965 693c 5880 0d3d d151 1e3d bd64 753c
000000c0: 18fc e43c 5bc0 003d 6122 2bbd 5f77 0fbd
000000d0: dde3 00bd 6e12 213d 8281 0fbb 3660 14bd
000000e0: edf9 9bbc 6b09 33bd 64e4 2abd c5ad 30bd

encoder.net.2.weight f4 [60, 60]
0.12925935 -0.069054246 -0.17310475 -0.1304269 -0.103829555 0.020922596 -0.021139994 0.050158437
-0.1811788 -0.06380836 -0.19113989 -0.034266982 -0.047919698 -0.17338693 0.08440313 -0.071376584
-0.14698327 -0.16322927 0.15812477 -0.21234983 -0.020336576 -0.1603934 -0.12761913 0.13218126
0.18246154 -0.005824056 -0.105526 -0.39679995 0.06702555 0.052578334 0.10855377 0.14109604
0.009246677 -0.084958665 -0.12500902 0.17013432 -0.011463855 -0.102475114 0.17585401 -0.14641729
-0.09261437 -0.039482247 -0.22128035 -0.33900318 -0.25794017 0.2569926 0.018698571 0.075245
0.07444929 -0.03484137 -0.046377316 0.059538126 -0.023549255 0.09866545 -0.027251318 0.10774718
-0.08493853 0.03806257 0.16481404 0.085783795 0.17764947 -0.006214744 0.07726784 -0.082971774
-0.09164442 -0.047567755 0.0005545553 0.0669561 0.0029904684 0.054186378 0.053442914 -0.16051172
-0.073937826 0.15461698 -0.092889465 0.041612353 -0.25799444 -0.19682421 0.07099998 0.05667813
-0.1565757 0.103163965 0.111788414 -0.14107032 0.00080188614 -0.010111122 0.08922967 -0.06862401
0.02878922 -0.04755651 -0.2475648 0.054669343 0.17804469 -0.12638706 0.03915797 -0.17497042
0.2033496 -0.14017679 -0.121722385 0.15052173 -0.015389459 -0.30551484 0.09038859 -0.10234217
0.024504023 0.17916726 -0.08968826 0.027368663 0.047494862 0.07395216 0.102705576 0.021294102
-0.08213183 -0.1251626 0.026569633 -0.053417977 0.044927586 0.10659616 0.1367727 -0.1745184
0.0002569596 0.23768723 0.12075704 -0.043559145 0.10744149 -0.035419717 -0.14114496 -0.033720125
0.15133922 -0.015404262 0.2663951 -0.0402164 0.08537745 0.13667123 -0.023444641 0.23677786
0.061017722 0.20272253 -0.32902858 -0.016139818 -0.013627562 0.07540584 -0.11058648 0.037985094
0.1279766 0.1307746 0.1242457 0.024722358 0.012601507 0.12578432 -0.16693561 -0.038847964
-0.075653955 -0.10733355 0.03267118 -0.024080256 -0.06529096 0.10340957 0.013120021 0.0031690223
-0.009599016 -0.022289123 -0.07111537 0.13715789 0.12364987 -0.052461144 -0.08205 -0.14583564
-0.11606993 0.07352077 -0.12575206 -0.24570979 -0.1955616 -0.1162241 -0.13044097 0.10668795
0.1062414 -0.17998125 -0.07869016 -0.09473888 -0.06615293 0.007991519 -0.15588215 -0.04381288
0.08056147 -0.07627868 0.09307053 -0.0030429405 0.0810904 0.1548795 -0.22965539 -0.18788971
-0.075777575 0.03408551 -0.104054324 0.062921666 -0.10303826 -0.10216312 -0.0011608371 0.085079744
-0.1556789 -0.2669397 0.012829299 -0.08483935 0.05664761 -0.14419505 -0.2883185 0.080758296
0.09555062 0.1491163 -0.1393752 -0.03251592 0.2281752 -0.035280135 0.019722627 0.052684385
0.21128403 0.12205636 0.2863606 0.13612454 0.124317296 -0.088141896 0.03820855 0.031961426
-0.024877498 -0.065152586 0.039104242 -0.0044539855 0.0057084565 0.055463724 -0.06815974 -0.046286464
-0.0662516 0.049576566 -0.12976986 -0.080658436 -0.06222007 0.08893809 0.0028136512 0.019009281
0.061938345 -0.017761802 0.1312334 0.11857647 -0.037724007 -0.0602956 0.060811855 -0.063735
-0.068961404 -0.229597 0.16360989 -0.050564837 -0.055900972 -0.06705427 0.025187714 -0.07644274
00000000: 905c 043e 506c 8dbd 5f42 31be a18e 05be
00000010: 97a4 d4bd dd65 ab3c c82d adbc ef72 4d3d
00000020: ef86 39be f5ad 82bd 2dba 43be 895b 0cbd
00000030: 7247 44bd 588c 31be 8cdb ac3d e32d 92bd
00000040: c882 16be 9325 27be 76eb 213e 3c72 59be
00000050: e498 a6bc 2b3e 24be 97ae 02be 865a 073e
00000060: 33d7 3a3e b9d7 bebb 041e d8bd 5d29 cbbe
00000070: b144 893d 615c 573d 7051 de3d 7b7b 103e
00000080: 607f 173c cffe adbd 5d02 00be b137 2e3e
00000090: e5d2 3bbc 79de d1bd 1313 343e 6aee 15be
000000a0: 9aac bdbd 23b8 21bd 5197 62be d391 adbe
000000b0: bc10 84be 8994 833e bf2d 993c 0d1a 9a3d
000000c0: df78 983d d3b5 0ebd 24f6 3dbd 40de 733d
000000d0: 5eea c0bc 1d11 ca3d 283e dfbc 8eaa dc3d
000000e0: 41f4 adbd 7fe7 1b3d 03c5 283e 6aaf af3d
000000f0: bee9 353e 0da5 cbbb 9a3e 9e3d 1bed a9bd
00000100: 12b0 bbbd 68d6 42bd 945f 113a 4820 893d
00000110: bcfb 433b 89f2 5d3d f5e6 5a3d 2f5d 24be
00000120: b76c 97bd ea53 1e3e d53c bebd b771 2a3d
00000130: d917 84be 498c 49be 7068 913d 5427 683d
00000140: 6155 20be a147 d33d 53f1 e43d bd74 10be
00000150: ab35 523a 1fa9 25bc 0cbe b63d bf8a 8cbd
00000160: 5fd7 eb3c 9dca 42bd a081 7dbe f6ec 5f3d
00000170: 5951 363e 9c6b 01be 1c64 203d 722b 33be
00000180: e13a 503e 818a 0fbe 9649 f9bd 5e22 1a3e
00000190: 1224 7cbc 716c 9cbe a71d b93d c698 d1bd
000001a0: a9bc c83c 9f77 373e 7aae b7bd 3f34 e03c
000001b0: f989 423d 3b74 973d 4d57 d23d f870 ae3c
000001c0: bc34 a8bd a02a 00be 8fa8 d93c cfcc 5abd
000001d0: fd05 383d 164f da3d 250e 0c3e f4b4 32be
000001e0: 89b8 8639 4864 733e 784f f73d 136b 32bd
000001f0: 490a dc3d 4414 11bd 4e88 10be 1d1e 0abd
00000200: abf8 1a3e 2862 7cbc f064 883e f4b9 24bd
00000210: 5fda ae3d 8bf3 0b3e fa0e c0bc e575 723e
00000220: b8ed 793d 7f96 4f3e 6f76 a8be a737 84bc
00000230: 2346 5fbc 616e 9a3d 2a7b e2bd 4296 1b3d
00000240: 4c0c 033e c7e9 053e 8874 fe3d 8b86 ca3c
00000250: 8d76 4e3c 9bcd 003e 2bf1 2abe 0b1f 1fbd
00000260: 76f0 9abd b1d1 dbbd 37d2 053d f543 c5bc
00000270: 44b7 85bd 66c8 d33d 5bf5 563c 5faf 4f3b
00000280: 3145 1dbc ae97 b6bc efa4 91bd 1e73 0c3e
00000290: 253c fd3d 7fe1 56bd d509 a8bd f055 15be
000002a0: 12b6 edbd 0f92 963d 26c5 00be 599b 7bbe
000002b0: 4d41 48be e706 eebd 5192 05be 367f da3d
000002c0: 1795 d93d 014d 38be 4e28 a1bd 7506 c2bd
000002d0: 307b 87bd dcee 023c 929f 1fbe 2275 33bd
000002e0: 69fd a43d ff37 9cbd c39b be3d 126c 47bb
000002f0: b912 a63d bb98 1e3e c82a 6bbe 2966 40be
00000300: 4631 9bbd 3f9d 0b3d 6f1a d5bd 13dd 803d
00000310: b905 d3bd e63a d1bd 3b27 98ba 4a3e ae3d
00000320: 4a6a 1fbe 52ac 88be fb31 523c 41c0 adbd
00000330: 5307 683d dea7 13be 7c9e 93be 9b64 a53d
00000340: 0bb0 c33d f1b1 183e 5fb8 0ebe 6a2f 05bd
00000350: c2a6 693e e781 10bd 5991 a13c 95cb 573d
00000360: d75a 583e aff8 f93d db9d 923e 3b64 0b3e
00000370: 119a fe3d bd83 b4bd 9280 1c3d fce9 023d
00000380: e5cb cbbc b86e 85bd c52b 203d bdf2 91bb
00000390: 010e bb3b ee2d 633d 5597 8bbd e096 3dbd
000003a0: ebae 87bd cc10 4b3d 64e2 04be 4030 a5bd
000003b0: 79da 7ebd 2c25 b63d 3c65 383b 5ab9 9b3c
000003c0: 10b3 7d3d 3381 91bc 0c62 063e 38d8 f23d
000003d0: 7d84 1abd 85f8 76bd da15 793d 7f87 82bd
000003e0: a33b 8dbd 7a1b 6bbe 5a89 273e 131d 4fbd
000003f0: 6bf8 64bd c053 89bd 7756 ce3c 038e 9cbd

encoder.net.2.bias f4 [60]
-0.0217248 0.021349028 0.040690273 -0.033851337 -0.0077763726 -0.036254052 0.031942893 -0.030395187
0.062999114 0.036198236 -0.006739129 0.02686123 0.0073234877 -0.038129967 0.0126106115 -0.020488922
0.028748468 -0.034921374 -0.00080195535 -0.037179843 -0.037294053 0.034851525 0.030870738 -0.041542586
0.033647917 -0.028121494 -0.045673307 0.028667282 0.03715084 0.029247867 0.005696387 -0.032091185
-0.03149144 0.024460424 0.025779275 0.013581325 0.0326544 -0.04454087 0.050061792 -0.049238976
-0.013868763 0.044786725 -0.025520856 0.024336502 -0.04612294 0.0014637179 -0.04850021 0.04446681
-0.033462435 -0.03320128 0.0020464675 -0.02600303 0.0378476 -0.03506128 0.034472503 0.006370325
-0.035195593 -0.045360878 -0.03668666 0.035524286
00000000: 35f8 b1bc 28e4 ae3c d8aa 263d b3a7 0abd
00000010: f1d0 febb 217f 14bd 8dd6 023d 54ff f8bc
00000020: ae05 813d 9a44 143d e9d3 dcbb 150c dc3c
00000030: def9 ef3b 2b2e 1cbd bd9c 4e3c 62d8 a7bc
00000040: e881 eb3c b709 0fbd 503a 52ba e449 18bd
00000050: a6c1 18bd 79c0 0e3d a1e4 fc3c 8f28 2abd
00000060: 66d2 093d 0c5f e6bc ef13 3bbd a6d7 ea3c
00000070: 7b2b 183d 3999 ef3c c2a8 ba3b 0c72 03bd
00000080: 2bfd 00bd 3a61 c83c 0f2f d33c 3584 5e3c
00000090: 9fc0 053d 7d70 36bd 980d 4d3d cfae 49bd
000000a0: cf39 63bc 4972 373d 1d11 d1bc 585d c73c
000000b0: 68eb 3cbd 39da bf3a 28a8 46bd d422 363d
000000c0: e80f 09bd 11fe 07bd 071e 063b 4e04 d5bc
000000d0: 1606 1b3d 6b9c 0fbd 0a33 0d3d 29be d03b
000000e0: 4129 10bd 54cc 39bd c044 16bd ea81 113d

encoder.net.5.weight f4 [32, 60]
0.18862863 0.1443734 0.15243684 0.2713587 -0.03859751 0.08139035 0.23204924 0.3235307
-0.21854183 0.2612332 -0.2305485 -0.08136959 -0.15451314 0.11203716 0.01300143 0.386171
0.020993333 -0.08512162 -0.1960542 -0.053479042 -0.025806773 0.24127848 0.0047473805 -0.13539669
-0.11556326 -0.086148575 -0.16194485 0.010885115 0.061939687 0.008145046 -0.08943895 0.045426972
-0.023814678 -0.23771341 -0.06569594 0.030629033 0.051779695 -0.07305303 -0.035603352 0.11140507
0.13876438 -0.03173618 -0.10292801 0.04308323 0.06325948 -0.14929284 -0.041121867 0.027047284
-0.17348288 -0.02933091 -0.06346086 0.020439541 0.16564345 -0.03146741 -0.15478103 0.004202838
-0.102152675 0.055571314 0.013281011 0.17147614 0.024507215 -0.024686515 0.0834503 0.065590546
-0.0304711 0.04215022 -0.33075953 0.03566655 -0.24660115 -0.03710989 -0.005119808 -0.026708437
-0.09289666 -0.16815552 -0.1367517 -0.09177915 0.23996013 -0.050914597 0.09395941 0.1685144
-0.006366251 -0.07085283 -0.1769613 -0.07023896 0.020744842 0.09012716 -0.1793459 -0.2837095
0.050595097 0.05084268 0.07067801 0.054559033 0.05731303 -0.14785996 0.030661765 -0.01639547
-0.060791813 -0.009748801 0.11026475 -0.009420883 0.02622625 0.0419079 -0.053057387 0.3092441
-0.08966163 -0.36333123 0.038636375 -0.077094674 -0.27758217 -0.052713804 -0.16444546 -0.14393559
0.11084592 0.0035961038 0.096721895 0.027592728 -0.08324571 -0.04257687 -0.025508387 0.008857248
0.096376464 -0.40614387 -0.057697017 -0.04985763 0.27072826 0.26780683 0.1024247 0.21945207
-0.3462487 -0.15270133 -0.032614525 0.23294502 -0.15833509 0.20981088 0.34222013 0.06654026
0.008569855 0.13857277 0.11356006 -0.22229153 0.031027053 -0.093519635 0.03527789 0.23188256
-0.06393499 0.28718722 0.13191912 0.052707646 -0.16492955 0.09029693 -0.119943246 0.20155175
-0.1204467 0.17760104 0.07235513 0.06417355 -0.032019645 -0.06173424 -0.3067213 -0.025753345
-0.02010829 0.0039016362 -0.018593214 -0.07377307 0.1922928 -0.11049752 -0.010708836 0.35682747
-0.08157389 0.06153931 -0.09446426 0.17686376 0.122868724 0.07724418 -0.15904076 0.056667775
-0.010634248 -0.036636185 -0.03900595 -0.1398121 -0.05423588 0.058911428 0.094044656 -0.019332621
-0.07980638 0.17408071 0.15196913 -0.019022735 0.10227666 0.044719126 0.0393333 -0.08831406
-0.1466114 0.08316515 0.18430653 -0.24711497 0.038483232 -0.016024277 -0.31747463 -0.021240896
-0.001481204 -0.002490311 0.15581074 -0.0027334944 0.007402031 -0.07958414 -0.1917082 -0.060326755
0.27601504 0.0067247455 0.013451117 -0.22064765 -0.07305201 -0.16918829 -0.11365466 -0.1238305
0.002836499 0.0811576 0.009322602 -0.2207762 -0.008086563 -0.04378815 -0.004234313 0.15873493
-0.0057547675 -0.015205748 0.28035724 -0.039329704 -0.13143644 0.16207361 0.013412364 0.03941165
0.053687282 -0.059149206 -0.09199883 0.105848804 -0.23474365 -0.021588326 -0.19218276 0.063851416
-0.13363257 -0.096613154 -0.18410099 0.1096432 -0.10783416 -0.075258985 -0.04986522 0.11276893
0.20142342 0.19915701 0.045107402 0.09457448 -0.20205507 -0.061782826 0.14194529 -0.33864304
00000000: dd27 413e 9fd6 133e 6718 1c3e 87ef 8a3e
00000010: 6c18 1ebd fcaf a63d 519e 6d3e d1a5 a53e
00000020: 6ec9 5fbe 5cc0 853e e814 6cbe 19a5 a6bd
00000030: b138 1ebe bd73 e53d f303 553c 35b8 c53e
00000040: 36fa ab3c 3e54 aebd 6fc2 48be d70c 5bbd
00000050: ba68 d3bc b511 773e ea8f 9b3b 6ea5 0abe
00000060: 6eac ecbd aa6e b0bd dfd4 25be 7b57 323c
00000070: 78b4 7d3d cd72 053c c52b b7bd a211 3a3d
00000080: 0017 c3bc 256b 73be 988b 86bd bde9 fa3c
00000090: f216 543d d49c 95bd d2d4 11bd 5728 e43d
000000a0: 4018 0e3e ccfd 01bd eccb d2bd 0a78 303d
000000b0: 308e 813d 39e0 18be 676f 28bd 4492 dd3c
000000c0: 7fa5 31be 6047 f0bc c4f7 81bd d370 a73c
000000d0: 709e 293e f9e3 00bd eb7e 1ebe f6b7 893b
000000e0: 6c35 d1bd bf9e 633d 9998 593c 7197 2f3e
000000f0: 5bc3 c83c 603b cabc fee7 aa3d 5654 863d
00000100: 879e f9bc b6a5 2c3d 5059 a9be 1717 123d
00000110: 0385 7cbe 8a00 18bd 10c4 a7bb a7cb dabc
00000120: 9b40 bebd f630 2cbe a308 0cbe b5f6 bbbd
00000130: 1cb8 753e d38b 50bd cb6d c03d 0a8f 2c3e
00000140: fc9b d0bb 4a1b 91bd 5835 35be 72d9 8fbd
00000150: 16f1 a93c 9794 b83d 74a6 37be 5f42 91be
00000160: ce3c 4f3d 6a40 503d a2bf 903d 4b79 5f3d
00000170: 11c1 6a3d 9a68 17be 622e fb3c cb4f 86bc
00000180: d600 79bd 6fb9 1fbc 7cd2 e13d 0c5a 1abc
00000190: 6fd8 d63c 9ea7 2b3d b452 59bd 3e55 9e3e
000001a0: 84a0 b7bd 8d06 babe 2d41 1e3d d0e3 9dbd
000001b0: 401f 8ebe 6eea 57bd 6464 28be da63 13be
000001c0: 3003 e33d 9cac 6b3b 2116 c63d 250a e23c
000001d0: ba7c aabd 1665 2ebd f7f6 d0bc fe1d 113c
000001e0: 0661 c53d 17f2 cfbe b553 6cbd 8437 4cbd
000001f0: e59c 8a3e fa1d 893e 0bc4 d13d 0bb8 603e
00000200: 8247 b1be bd5d 1cbe cf96 05bd 2489 6e3e
00000210: 9822 22be aad8 563e 7a37 af3e 4346 883d
00000220: 9468 0c3c 05e6 0d3e 2d92 e83d 64a0 63be
00000230: 722c fe3c 3987 bfbd 8c7f 103d 9f72 6d3e
00000240: 59f0 82bd 340a 933e ce15 073e f9e3 573d
00000250: 4be3 28be 99ed b83d cea4 f5bd 9563 4e3e
00000260: c2ac f6bd 0cdd 353e ed2e 943d 6c6d 833d
00000270: 0827 03bd 0bdd 7cbd 930a 9dbe aef8 d2bc
00000280: 24ba a4bc 98b2 7f3b cc50 98bc 5616 97bd
00000290: 67e8 443e 864c e2bd 1d74 2fbc 17b2 b63e
000002a0: 3610 a7bd a510 7c3d 7a76 c1bd c61b 353e
000002b0: 99a2 fb3d 3232 9e3d 95db 22be 781c 683d
000002c0: 453b 2ebc d30f 16bd b4c4 1fbd e72a 0fbe
000002d0: 7126 5ebd 1c4d 713d 7c9a c03d 725f 9ebc
000002e0: 8771 a3bd 3742 323e cc9d 1b3e 91d5 9bbc
000002f0: 6d76 d13d 672b 373d f41b 213d 00de b4bd
00000300: 4d21 16be 7d52 aa3d daba 3c3e b50b 7dbe
00000310: 98a0 1d3d 5845 83bc 098c a2be 6301 aebc
00000320: f524 c2ba 7c34 23bb da8c 1f3e 6d24 33bb
00000330: bd8c f23b 02fd a2bd 284f 44be 3019 77bd
00000340: d851 8d3e 415b dc3b 1362 5c3c 75f1 61be
00000350: 4b9c 95bd b23f 2dbe c6c3 e8bd d89a fdbd
00000360: 8ee4 393b f535 a63d d4bd 183c 2813 62be
00000370: 817d 04bc 345b 33bd febf 8abb 698b 223e
00000380: 7d92 bcbb 8821 79bc fc8a 8f3e 2f18 21bd
00000390: 4697 06be a0f6 253e 88bf 5b3c 1c6e 213d
000003a0: 32e7 5b3d 7046 72bd e269 bcbd 42c7 d83d
000003b0: a460 70be 00da b0bc 8fcb 44be 88c4 823d
000003c0: fad6 08be 1edd c5bd f884 3cbe 9d8c e03d
000003d0: 28d8 dcbd 6221 9abd 793f 4cbd 66f3 e63d
000003e0: f141 4e3e d1ef 4b3e 8ac2 383d 44b0 c13d
000003f0: 86e7 4ebe fd0f 7dbd 1b5a 113e 9f62 adbe

encoder.net.5.bias f4 [32]
0.05658712 -0.0261692 -0.04532987 0.04251297 0.07468108 -0.04635963 -0.033065878 0.043920368
-0.058949474 0.0729501 -0.05908262 0.03866534 -0.033995256 0.035441887 -0.0045263516 0.040629447
-0.041207965 0.017117972 0.04310605 -0.04242992 -0.025513155 0.024642928 -0.030588701 0.03860335
0.05733381 0.06926559 -0.04000844 0.05111266 -0.049232487 0.050459858 0.021266604 -0.04589138
00000000: e5c7 673d ca60 d6bc d0ab 39bd 1422 2e3d
00000010: 65f2 983d 98e3 3dbd 1670 07bd d8e5 333d
00000020: 0175 71bd dd66 953d 9e00 72bd 8c5f 1e3d
00000030: 9c3e 0bbd 832b 113d ca51 94bb 106b 263d
00000040: afc9 28bd fd3a 8c3c f88f 303d ffca 2dbd
00000050: f700 d1bc f7df c93c 2895 fabc 8c1e 1e3d
00000060: dbd6 6a3d 1edb 8d3d e4df 23bd 825b 513d
00000070: 01a8 49bd ffae 4e3d 4d37 ae3c 9af8 3bbd

predictor.net.1.weight f4 [32, 32]
-0.14158964 0.11140441 -0.07573444 -0.20202331 -0.20634054 0.08241191 0.21848777 -0.18305908
-0.12505114 -0.062664114 -0.050999045 0.13291161 0.41165584 -0.21357682 -0.038845 0.06581563
-0.30208758 -0.2569411 0.16407466 0.19538875 -0.032357644 -0.08060336 0.045672294 0.28770208
-0.09275074 -0.0968952 -0.2548964 -0.19228607 0.040865414 -0.076715015 0.079124965 0.14302583
-0.30111188 0.048397407 0.08665283 -0.000824499 0.07823672 0.09506883 0.057137564 0.31469584
-0.11926904 0.037196726 0.3356439 0.054682374 -0.13498299 0.013655481 -0.5520215 -0.063664995
0.095487185 -0.12159621 0.071404815 -0.03715994 -0.04601181 -0.1351231 0.1701279 -0.18458849
-0.08275719 0.20358022 0.022389093 0.07070259 -0.3496945 -0.31052905 -0.10031092 0.073311895
-0.11159002 -0.06199821 0.16527532 -0.21756127 0.071349144 -0.30149454 -0.047992043 0.15622592
-0.21211892 0.09104231 0.4699768 -0.056624454 0.15035056 0.03574855 0.07989906 0.12410579
-0.13068743 -0.071386226 -0.07793143 0.027080338 -0.106699795 -0.0042398362 -0.16766803 -0.057358325
0.05553953 -0.1464693 -0.2444787 0.112899065 0.023126345 -0.0014772511 0.09520122 -0.07671328
0.32046804 0.15733367 0.12566279 -0.08202584 -0.011892924 -0.111945085 0.0922681 0.07920064
-0.2188447 0.0015216959 0.1133764 -0.08539057 -0.20313247 -0.032459106 0.18778463 0.16175038
0.12974326 0.08786453 0.0108690355 -0.07170829 0.18611228 0.09951831 0.23948555 -0.12484153
0.18946412 0.010138399 -0.069246225 -0.039341856 0.11948963 0.27872074 0.053642098 -0.04007756
-0.119557716 0.084114335 0.04814857 0.13773224 -0.07123132 0.0055536013 -0.2370535 0.012848127
-0.28611684 0.1880822 -0.17566158 0.07542906 -0.19319217 -0.072867766 -0.008831817 0.43076774
-0.17911397 0.057781953 0.21374 -0.14597991 -0.23772043 0.23018862 0.102405414 -0.03431319
0.25377968 -0.0567055 0.0618945 0.15451497 -0.010648952 0.022282338 -0.08881557 -0.05591183
-0.17852834 0.21810077 0.114613965 0.048007794 0.04467701 -0.34031725 0.16524582 -0.09646955
-0.09361825 -0.025602344 -0.18879412 -0.21879655 0.07259343 -0.19230248 0.038113154 -0.091431454
0.13328387 -0.19128951 -0.10227862 -0.1980639 -0.026879342 0.004247714 0.32255784 0.005573348
0.15955794 0.21653876 0.08449703 0.26750088 0.0684078 0.11974556 -0.061906144 0.31504083
-0.099522434 0.20713733 0.1407946 -0.21057554 -0.01996155 0.09534825 0.03462315 0.07870474
0.14362723 -0.13619347 0.15303975 0.041714508 -0.22799763 0.12908405 0.034444336 -0.1855772
0.0044770357 0.064009555 0.012045864 0.11950835 0.15424195 0.1891927 0.050119296 0.017416397
0.12740654 -0.03769376 0.18171313 -0.032709964 -0.23645644 -0.076973446 0.038732585 0.23128594
-0.16287304 0.15735416 -0.13536134 0.0039013934 0.18722364 -0.08393675 -0.17996483 -0.17419879
-0.023400638 0.12437402 0.00013373858 0.3972782 0.008282776 0.11248272 -0.10035795 -0.1077284
-0.29366466 0.28077406 0.08175363 0.13637422 0.12088191 -0.1156287 0.033844296 -0.026303338
0.2984699 -0.09063558 0.24018751 -0.10462109 -0.244897 -0.012078828 0.116050005 -0.19738619
00000000: e0fc 10be ff27 e43d a81a 9bbd 33df 4ebe
00000010: ef4a 53be 93c7 a83d 42bb 5f3e d773 3bbe
00000020: 680d 00be 0b56 80bd 60e4 50bd fb19 083e
00000030: 8ec4 d23e e2b3 5abe ef1b 1fbd 58ca 863d
00000040: 39ab 9abe c98d 83be 3003 283e fd13 483e
00000050: 7389 04bd 6013 a5bd df12 3b3d b04d 933e
00000060: 1af4 bdbd fe70 c6bd c881 82be a4e6 44be
00000070: 7e62 273d c31c 9dbd 450c a23d 5d75 123e
00000080: 562b 9abe 5c3c 463d 0a77 b13d 3123 58ba
00000090: 933a a03d 72b3 c23d 1409 6a3d d01f a13e
000000a0: 5443 f4bd 985b 183d 84d9 ab3e a0fa 5f3d
000000b0: fb38 0abe 3dbb 5f3c 4851 0dbf cb62 82bd
000000c0: c98e c33d 6f07 f9bd b03c 923d 0535 18bd
000000d0: e176 3cbd b65d 0abe 0236 2e3e c404 3dbe
000000e0: 9a7c a9bd 5577 503e 5569 b73c 85cc 903d
000000f0: 280b b3be aafd 9ebe d06f cdbd 8c24 963d
00000100: 4f89 e4bd d6f1 7dbd ef3d 293e 62c8 5ebe
00000110: 801f 923d 7e5d 9abe 4e93 44bd b0f9 1f3e
00000120: b435 59be 6474 ba3d cda0 f03e 0bef 67bd
00000130: 7ff5 193e 126d 123d 1ea2 a33d 2d2b fe3d
00000140: edd2 05be f132 92bd 839a 9fbd 96d7 dd3c
00000150: 6c85 dabd 53ee 8abb 2bb1 2bbe 90f0 6abd
00000160: 6b7d 633d 0cfc 15be a058 7abe a037 e73d
00000170: 7673 bd3c 52a0 c1ba dbf8 c23d da1b 9dbd
00000180: 6314 a43e 141c 213e bfad 003e 2afd a7bd
00000190: 8ada 42bc 7743 e5bd 0ff7 bc3d f233 a23d
000001a0: d318 60be a473 c73a e331 e83d 40e1 aebd
000001b0: f501 50be d7f3 04bd 9d4a 403e e4a1 253e
000001c0: 6bdb 043e 52f2 b33d 0a14 323c ccdb 92bd
000001d0: 3894 3e3e 41d0 cb3d b33b 753e ebac ffbd
000001e0: e202 423e 871b 263c f7d0 8dbd ed24 21bd
000001f0: fbb6 f43d 7cb4 8e3e d1b7 5b3d 5e28 24bd
00000200: adda f4bd 2344 ac3d 6f37 453d ae09 0d3e
00000210: bae1 91bd fcfa b53b 27be 72be f380 523c
00000220: e87d 92be 9f98 403e a1e0 33be 8d7a 9a3d
00000230: 2bd4 45be b23b 95bd 53b3 10bc 978d dc3e
00000240: a769 37be c5ac 6c3d a9de 5a3e c27b 15be
00000250: fc6c 73be 91b6 6b3e eeb9 d13d fd8b 0cbd
00000260: 69ef 813e 0744 68bd 1685 7d3d 2c39 1e3e
00000270: f178 2ebc 7389 b63c f0e4 b5bd ce03 65bd
00000280: 22d0 36be cf55 5f3e baba ea3d d2a3 443d
00000290: 3eff 363d 103e aebe 3336 293e d491 c5bd
000002a0: edba bfbd 02bc d1bc 3f53 41be 340c 60be
000002b0: ddab 943d f1ea 44be 8a1c 1c3d 6a40 bbbd
000002c0: 917b 083e 66e1 43be 7477 d1bd 43d1 4abe
000002d0: 1132 dcbc 6830 8b3b 4d26 a53e a2a0 b63b
000002e0: 2863 233e 56bc 5d3e c70c ad3d e0f5 883e
000002f0: 6319 8c3d 293d f53d 4c91 7dbd 084d a13e
00000300: 6bd2 cbbd cf1b 543e 762c 103e 1da1 57be
00000310: 6886 a3bc f145 c33d 01d1 0d3d f32f a13d
00000320: 0413 133e 4d76 0bbe 74b6 1c3e d5dc 2a3d
00000330: 3678 69be 9c2e 043e 8115 0d3d f307 3ebe
00000340: 19b4 923b 7117 833d 045c 453c cbc0 f43d
00000350: 9af1 1d3e bbbb 413e e449 4d3d d5ac 8e3c
00000360: dc76 023e c664 1abd 0213 3a3e e2fa 05bd
00000370: a321 72be 41a4 9dbd 0fa6 1e3d 39d6 6c3e
00000380: 31c8 26be 7321 213e 2a9c 0abe 85ae 7f3b
00000390: 8eb7 3f3e 08e7 abbd b348 38be 2b61 32be
000003a0: b2b2 bfbc ceb7 fe3d 2d3c 0c39 0c68 cb3e
000003b0: 7bb4 073c 575d e63d 7888 cdbd b5a0 dcbd
000003c0: 375b 96be 9ec1 8f3e 726e a73d afa5 0b3e
000003d0: ef90 f73d bdce ecbd 51a0 0a3d 197a d7bc
000003e0: 0cd1 983e 269f b9bd b7f3 753e 9543 d6bd
000003f0: 47c6 7abe 47e6 45bc a0ab ed3d 9b1f 4abe

predictor.net.1.bias f4 [32]
0.08429971 -0.079474166 -0.09013781 -0.08590846 0.07703569 -0.08770272 0.08649359 -0.11759638
-0.110129654 -0.096719734 0.14765924 -0.10313264 0.10232779 -0.09221467 0.08506231 -0.089523725
0.1667675 -0.085894525 0.09416428 0.11134001 0.093900345 0.10718417 0.4354117 0.08579305
0.097082496 0.092166126 -0.09079689 -0.73186237 -0.08945759 -0.08920423 0.08865767 -0.120895885
00000000: 54a5 ac3d 5ac3 a2bd 2c9a b8bd c6f0 afbd
00000010: e3c4 9d3d 7c9d b3bd 8d23 b13d 5fd6 f0bd
00000020: a88b e1bd ff14 c6bd fc33 173e 3537 d3bd
00000030: 3b91 d13d 0bdb bcbd 2635 ae3d 3758 b7bd
00000040: 19c5 2a3e 78e9 afbd 34d9 c03d 3b06 e43d
00000050: d34e c03d 6083 db3d 48ee de3e 44b4 af3d
00000060: 30d3 c63d 98c1 bc3d b8f3 b9bd 555b 3bbf
00000070: 8a35 b7bd b5b0 b6bd 2792 b53d 4398 f7bd

predictor.net.3.weight f4 [1, 32]
0.09731438 -0.10330233 -0.20353734 -0.5087558 0.10880861 -0.25802964 0.3218865 -0.1794293
-0.1896268 -0.17497428 0.044031173 -0.12081404 0.12221441 -0.21174891 0.22035028 -0.24937749
0.08753212 -0.48234627 0.02472885 0.15253016 0.13737367 0.12700257 0.09731475 0.30478173
0.5109054 0.26685953 -0.3265434 -0.19723146 -0.24972324 -0.29704115 0.43288502 -0.18862654
00000000: c34c c73d 2c90 d3bd 186c 50be d23d 02bf
00000010: 0cd7 de3d 761c 84be 4fce a43e 50bc 37be
00000020: 872d 42be 752c 33be 085a 343d 5a6d f7bd
00000030: 8c4b fa3d b5d4 58be 81a3 613e d05c 7fbe
00000040: 0a44 b33d 17f6 f6be 2894 ca3c de30 1c3e
00000050: afab 0c3e f60c 023e f54c c73d 5a0c 9c3e
00000060: b2ca 023f d0a1 883e b230 a7be 0bf7 49be
00000070: 73b7 7fbe c715 98be 1ba3 dd3e 5127 41be

net.0.weight f4 [60, 35]
0.21481833 -0.11479355 0.04755844 -0.07206876 0.08561241 0.049776 0.07931329 0.017449046
0.09760605 0.014029482 0.05464342 0.0045797173 0.17046288 -0.04301308 0.05659161 0.24158862
0.23874417 -0.22795142 0.15326692 0.18633561 0.01295498 -0.08550248 0.023728378 -0.18505986
-0.21735658 -0.062305763 0.031926796 0.061040647 0.22637731 0.31963775 -0.024846198 -0.040005576
0.08445088 0.04366044 0.06990402 0.15882298 -0.1092858 0.23531535 0.105397366 0.23863976
0.060542274 0.08089827 0.11886166 -0.2197225 0.0943469 -0.10850869 0.1652673 -0.15497443
-0.14597142 -0.09313906 0.092848144 0.034964297 0.1650413 0.022733232 -0.0925321 -0.30222195
-0.21096052 0.14789215 -0.03921721 -0.09726526 0.04534051 -0.023789868 0.2554662 0.23089854
0.07350743 -0.124564275 -0.10748461 -0.013332952 -0.2017564 0.047579445 0.078687266 0.019830242
-0.032148484 -0.07766689 0.056093164 0.18900612 -0.028456077 -0.28701827 0.14352101 0.04867843
-0.049457025 -0.1570995 0.0070357863 -0.043987755 -0.04935617 0.007934772 -0.1556349 -0.26145718
-0.0714378 0.20964573 -0.052930124 0.1612397 -0.18398787 0.094509944 0.0483757 0.10256978
0.114123784 0.02338643 0.21925086 -0.07232023 0.18730271 -0.06480415 0.1430215 0.1505374
-0.047275122 0.055272687 -0.2558624 0.15669401 0.13843681 -0.26032877 0.23442163 -0.08382538
0.19359505 0.23371238 -0.09340168 -0.036007322 -0.09536945 -0.038410515 0.10714665 -0.172316
0.20793462 -0.09122467 -0.04419894 0.15998283 -0.28805116 -0.2664418 -0.069180995 0.15407121
-0.060324162 -0.11934289 0.19551884 -0.0026649672 -0.2923893 -0.07629792 -0.034270465 0.0063503697
-0.11328715 0.23492132 0.057233024 -0.15770231 -0.13123354 0.080757245 0.052845277 0.13001442
0.030592352 -0.08789698 0.08623158 0.01350103 0.13131881 0.059012987 0.12558807 -0.08104595
-0.009993331 -0.053160716 -0.2006229 0.085053 -0.058318947 -0.03958917 0.20903285 -0.11243508
0.13806841 -0.16154405 -0.025716547 -0.26903492 0.070972815 0.19023426 -0.041582957 -0.21740103
0.07684861 0.054460444 -0.19205032 0.070818186 -0.17326668 0.21410164 -0.09613047 -0.04915394
0.036608677 0.05580796 0.12039607 0.08263064 0.11893061 0.10383267 -0.12937029 -0.06633336
-0.18036368 0.027235772 -0.10351561 -0.16133723 0.41644558 -0.08194685 -0.11589105 -0.1587762
0.19896683 -0.055874962 -0.0074648415 -0.046485838 0.19867878 -0.20316814 -0.019650958 0.21825203
0.20852037 -0.11949699 -0.27650458 -0.3003725 0.242588 -0.19460168 -0.15691522 0.09770119
0.22623043 -0.17521757 0.05505081 0.17559798 0.050644822 0.07057982 -0.11558307 -0.06760784
0.1039241 0.19479913 -0.068168804 0.091438815 -0.057590663 -0.21253544 0.29138207 0.024339579
-0.2564345 0.14820904 -0.10312064 -0.11072871 -0.006580111 0.035766162 0.08564068 -0.38981754
-0.18264085 -0.054451652 -0.09435096 -0.06924163 0.1049691 -0.17792027 0.05415406 -0.1925601
-0.15620452 0.14018574 0.00484675 -0.17514396 0.11365589 0.13103884 0.04463147 -0.038728103
0.03901461 0.19771522 -0.2678566 0.20830749 0.06626912 0.15331727 0.05898454 -0.03425482
00000000: 56f9 5b3e e118 ebbd a4cc 423d c998 93bd
00000010: 8f55 af3d ebe1 4b3d 026f a23d 4df1 8e3c
00000020: aee5 c73d eadb 653c c7d1 5f3d 7411 963b
00000030: d28d 2e3e 7c2e 30bd 9bcc 673d 0263 773e
00000040: 5a79 743e 196c 69be 01f2 1c3e c3ce 3e3e
00000050: 2041 543c ed1b afbd 0462 c23c 5580 3dbe
00000060: b992 5ebe 5434 7fbd acc5 023d c205 7a3d
00000070: 74cf 673e 8fa7 a33e 418a cbbc e3dc 23bd
00000080: 95f4 ac3d 4ad5 323d d729 8f3d 7ea2 223e
00000090: 3cd1 dfbd 82f6 703e 93da d73d fb5d 743e
000000a0: 2dfb 773d fead a53d be6d f33d effe 60be
000000b0: f338 c13d ce39 debd d53b 293e 9eb1 1ebe
000000c0: 8879 15be b1bf bebd 2b27 be3d b936 0f3d
000000d0: 9600 293e 0b3b ba3c 7881 bdbd d6bc 9abe
000000e0: 0906 58be 0a71 173e 3aa2 20bd 0233 c7bd
000000f0: f8b6 393d f8e2 c2bc 77cc 823e ab70 6c3e
00000100: 108b 963d 8e1b ffbd e420 dcbd 7472 5abc
00000110: 3b99 4ebe aae2 423d ca26 a13d 0873 a23c
00000120: 21ae 03bd d20f 9fbd f2c1 653d d28a 413e
00000130: b81c e9bc 0ff4 92be 2cf7 123e 0963 473d
00000140: 7393 4abd b1de 20be 748c e63b 812c 34bd
00000150: b229 4abd d900 023c c15e 1fbe b7dd 85be
00000160: fb4d 92bd 5fad 563e 42cd 58bd 051c 253e
00000170: 5167 3cbe 6e8e c13d 9925 463d 1b10 d23d
00000180: bbb9 e93d e694 bf3c 4c83 603e a11c 94bd
00000190: 48cc 3f3e 0ab8 84bd 3a74 123e 7a26 1a3e
000001a0: 8fa3 41bd 9d65 623d 6600 83be 6574 203e
000001b0: 61c2 0d3e d049 85be 390c 703e a4ac abbd
000001c0: c83d 463e 4c52 6f3e 6149 bfbd 6a7c 13bd
000001d0: 0f51 c3bd 5854 1dbd b46f db3d 9b73 30be
000001e0: d0ec 543e 00d4 babd f309 35bd 8ad2 233e
000001f0: 717b 93be 0f6b 88be c4ae 8dbd d8c4 1d3e
00000200: 7816 77bd 0c6a f4bd 1736 483e bba6 2ebb
00000210: 0db4 95be 1542 9cbd 305f 0cbd c316 d03b
00000220: 1803 e8bd 378f 703e 2d6d 6a3d b77c 21be
00000230: 1662 06be 0e64 a53d 4a74 583d 8022 053e
00000240: d09c fa3c 5503 b4bd 2f9a b03d 6d33 5d3c
00000250: 7078 063e 9ab7 713d 299a 003e 6bfb a5bd
00000260: 11bb 23bc 0dbf 59bd 1770 4dbe 4430 ae3d
00000270: d9df 6ebd 4128 22bd b50c 563e 5d44 e6bd
00000280: ce61 0d3e ce6b 25be 82ab d2bc f2be 89be
00000290: 325a 913d c5cc 423e e452 2abd 609e 5ebe
000002a0: ce62 9d3d ea11 5f3d d7a8 44be 2009 913d
000002b0: d26c 31be 763d 5b3e 0de0 c4bd a455 49bd
000002c0: fbf2 153d e396 643d 3792 f63d 413a a93d
000002d0: e491 f33d 39a6 d43d a579 04be c9d9 87bd
000002e0: 42b1 38be 8e1d df3c feff d3bd 9635 25be
000002f0: 5b38 d53e c0d3 a7bd 4958 edbd 3a96 22be
00000300: f6bd 4b3e 25dd 64bd a19b f4bb ef67 3ebd
00000310: 7372 4b3e 4f0b 50be 0cfb a0bc 767d 5f3e
00000320: 5d86 553e d7ba f4bd 0292 8dbe 6dca 99be
00000330: fd68 783e aa45 47be 62ae 20be 9017 c83d
00000340: f3a8 673e 3c6c 33be f57c 613d f5cf 333e
00000350: f270 4f3d 278c 903d d1b6 ecbd fb75 8abd
00000360: 29d6 d43d 6c79 473e 169c 8bbd 4644 bb3d
00000370: 30e4 6bbd e4a2 59be 0830 953e cc63 c73c
00000380: 624b 83be 1cc4 173e ea30 d3bd bcc5 e2bd
00000390: f99d d7bb 8a7f 123d 6164 af3d 2a96 c7be
000003a0: 3406 3bbe b208 5fbd 133b c1bd 8ece 8dbd
000003b0: 0afa d63d bb30 36be a6d0 5d3d 7a2e 45be
000003c0: 14f4 1fbe da8c 0f3e 7cd1 9e3b f058 33be
000003d0: 6bc4 e83d 0c2f 063e 7dcf 363d 5ca1 1ebd
000003e0: c9cd 1f3d dc75 4a3e 8024 89be 8f4e 553e
000003f0: 1bb8 873d 34ff 1c3e c699 713d c84e 0cbd

net.0.bias f4 [60]
0.0031242443 0.048368804 -0.012981734 0.09009323 -0.1359277 0.054458763 -0.08270354 0.116163395
0.0063297073 0.15385865 -0.08104971 0.0050581526 -0.15537842 -0.14463724 -0.116683 0.14556777
8.290271e-05 -0.057073116 -0.114314094 -0.07222313 -0.12316433 -0.025370857 0.059736338 -0.15776534
-0.0483406 -0.0167516 0.063924 0.082525656 -0.038164727 -0.029631913 -0.14124551 0.00041675792
-0.20115176 -0.014608085 -0.06678276 -0.10744899 -0.14796393 0.07512786 -0.092573576 0.07843381
0.02355084 0.14976774 0.054735705 -0.14748308 -0.06466824 -0.078196965 0.09300127 -0.027171476
-0.15231694 -0.15661216 -0.0031887656 0.09072378 -0.04844567 0.025218755 -0.16854821 0.13874558
0.12361795 -0.1350038 0.07871644 0.05248836
00000000: 1fc0 4c3b 5e1e 463d 57b1 54bc cd82 b83d
00000010: a230 0bbe 2710 5f3d 7960 a9bd 13e7 ed3d
00000020: 6f69 cf3b 1f8d 1d3e 64fd a5bd dcbe a53b
00000030: 851b 1fbe c91b 14be 7ff7 eebd b80f 153e
00000040: 0edc ad38 80c5 69bd 821d eabd b8e9 93bd
00000050: 953d fcbd 8bd6 cfbc 17ae 743d 3d8d 21be
00000060: cb00 46bd a73a 89bc 96ea 823d 3603 a93d
00000070: 9e52 1cbd a0be f2bc aaa2 10be 4d80 da39
00000080: bafa 4dbe c056 6fbc 66c5 88bd 370e dcbd
00000090: db83 17be a3dc 993d 3797 bdbd e8a1 a03d
000000a0: b1ed c03c b75c 193e 8c32 603d ce05 17be
000000b0: c870 84bd bb25 a0bd 7377 be3d b796 debc
000000c0: f9f8 1bbe f05e 20be 9cfa 50bb 64cd b93d
000000d0: f86e 46bd 9097 ce3c e797 2cbe 5213 0e3e
000000e0: 682b fd3d 703e 0abe 1636 a13d 09fe 563d

net.2.weight f4 [60, 60]
0.033937618 0.050243646 0.012636125 -0.042590413 0.04997755 0.016102282 -0.058428098 -0.03288543
0.030190673 -0.06979776 -0.060148265 0.07860201 -0.08067022 -0.039554603 -0.008624507 -0.013399408
0.0065827896 0.10872545 0.034389403 -0.009719609 -0.09528626 -0.13111648 -0.26270214 0.101428874
0.06460198 -0.06320792 0.09139128 0.17806017 -0.039109033 -0.07158323 -0.0020982379 -0.14191896
0.044974584 -0.39072016 -0.12357932 0.03772676 0.005964503 0.14354865 0.08952789 0.039650325
0.011393199 0.1612228 0.18193413 0.17397235 0.2059198 0.022615664 0.025558874 0.13857493
-0.13912079 0.09539873 -0.02828713 -0.05338289 0.010839875 0.007986593 -0.0222376 -0.10891474
-0.059505943 -0.07049168 -0.12043583 0.03367273 -0.047758114 0.03351995 0.104483806 -0.33853278
-0.10458744 0.22042695 0.07815042 -0.09546447 -0.12812053 -0.10705177 -0.13836254 0.2455945
0.06559794 0.21178015 -0.01447302 0.048646186 0.2572289 -0.07948484 -0.10474078 -0.15991445
-0.042671107 0.0008747933 -0.22573082 -0.3025616 0.09019344 0.05336987 -0.028919984 -0.07325082
-0.057447452 -0.1976262 0.015712019 -0.015983172 0.1622395 -0.13699158 -0.051377296 -0.20114517
-0.003944898 -0.05534184 0.06367846 0.087505706 0.17471774 0.0054218047 -0.052766003 0.18955715
0.09352612 -0.104737505 -0.024071349 0.14454876 -0.040419996 -0.14880802 -0.011267404 -0.00553506
0.07189542 0.11153404 -0.014739294 -0.3235997 0.07015589 0.11912448 0.047823142 -0.019614257
0.2275051 0.0017003667 -0.20964897 0.01118926 0.037790533 0.26166612 -0.18526825 0.18879454
-0.1235583 0.0695008 0.08695786 0.019519959 0.29951093 -0.05878607 0.10413828 -0.1777147
0.14378826 0.14526519 0.2374104 -0.19120713 -0.09754184 -0.025121812 0.06322679 0.032066222
0.007626488 -0.005416553 0.039351575 -0.19494803 0.06035501 -0.06552192 0.16683881 -0.108837344
-0.021896075 0.030782588 0.1077695 -0.057302453 -0.0022397675 0.042615656 -0.046582937 0.18142538
-0.13920672 -0.073464796 0.17224199 0.026118908 -0.15520854 -0.14636613 -0.11306026 -0.20693345
0.07817029 -0.021116117 -0.14394735 0.07370078 0.027855879 0.114982836 0.12736943 0.13873222
-0.17074107 -0.008314086 -0.06057894 0.1414889 -0.16465275 -0.022820212 -0.027228948 -0.046729892
-0.16168575 -0.10229734 -0.101928875 -0.1398902 0.06348675 0.16631341 0.10566587 0.13087247
-0.04262069 0.19134232 -0.1460006 -0.20364434 0.11661857 0.023439776 -0.08414802 -0.038522106
0.042464532 -0.15383202 -0.023383498 0.26891863 -0.13536097 -0.07144861 0.11693119 -0.015001739
0.1724499 0.18899892 0.28855902 0.02258086 -0.018735696 -0.028794806 -0.39075658 -0.1042991
-0.15400015 -0.010492502 -0.1877268 0.22066195 0.29154316 -0.10154212 0.02848096 -0.116391316
-0.2470429 0.16753154 0.08230453 0.1040182 0.03846946 0.26654673 -0.11884884 0.041771524
-0.08574795 0.23029189 0.0014352697 0.0038101606 -0.13457583 0.12649664 -0.17538159 0.070776306
0.2253303 0.07249446 -0.012643206 -0.1182325 -0.004644572 0.05535644 0.23044758 -0.30242586
0.33200043 -0.13152592 0.2541691 0.144568 0.010297877 0.060551785 -0.056646172 0.11207327
00000000: 2c02 0b3d 48cc 4d3d c007 4f3c 4973 2ebd
00000010: 42b5 4c3d efe8 833c 4d52 6fbd dfb2 06bd
00000020: 6e52 f73c 21f2 8ebd 075e 76bd 17fa a03d
00000030: 6e36 a5bd 0204 22bd ce4d 0dbc 3189 5bbc
00000040: 71b4 d73b 73ab de3d e7db 0c3d ff3e 1fbc
00000050: 7125 c3bd 6643 06be e580 86be f1b9 cf3d
00000060: 0b4e 843d 2773 81bd 5a2b bb3d 6855 363e
00000070: cb30 20bd 3a9a 92bd 9782 09bb 3453 11be
00000080: 4537 383d 790c c8be 2817 fdbd 6087 1a3d
00000090: e171 c33b 6bfe 123e 665a b73d 6168 223d
000000a0: 8aaa 3a3c 9717 253e f14c 3a3e cf25 323e
000000b0: a4dc 523e 7c44 b93c d860 d13c 96e6 0d3e
000000c0: ae75 0ebe 6960 c33d 69ba e7bc 04a8 5abd
000000d0: bb99 313c 33da 023c a12b b6bc b10e dfbd
000000e0: 81bc 73bd f15d 90bd 0fa7 f6bd 6bec 093d
000000f0: 039e 43bd 374c 093d 9bfb d53d 2b54 adbe
00000100: f131 d6bd 9ab7 613e 540d a03d e082 c3bd
00000110: 0732 03be f53d dbbd e9ae 0dbe 207d 7b3e
00000120: 3658 863d e5dc 583e 3f20 6dbc 3941 473d
00000130: 82b3 833e f3c8 a2bd 5682 d6bd 9dc0 23be
00000140: e6c7 2ebd 6252 653a fb25 67be 5be9 9abe
00000150: 57b7 b83d 5d9a 5a3d 9ae9 ecbc 8704 96bd
00000160: 054e 6bbd 865e 4abe 7eb6 803c 24ef 82bc
00000170: 1d22 263e 8547 0cbe 0071 52bd 00f9 4dbe
00000180: 3444 81bb 20ae 62bd da69 823d 3136 b33d
00000190: 35e9 323e 65a9 b13b 2a21 58bd 451b 423e
000001a0: 9f8a bf3d 9e80 d6bd 4731 c5bc 9704 143e
000001b0: 708f 25bd 2161 18be eb9a 38bc 735f b5bb
000001c0: e83d 933d f56b e43d 147d 71bc dcae a5be
000001d0: e4ad 8f3d 89f7 f33d 33e2 433d 14ae a0bc
000001e0: 19f7 683e d7de de3a 38ae 56be 2853 373c
000001f0: 3fca 1a3d 1af9 853e f6b6 3dbe 5b53 413e
00000200: 220c fdbd 6f56 8e3d f616 b23d 52e8 9f3c
00000210: 7f59 993e aac9 70bd 7346 d53d d8fa 35be
00000220: 3b3d 133e 66c0 143e b61b 733e cdcb 43be
00000230: 04c4 c7bd 42cc cdbc 0c7d 813d df57 033d
00000240: 9ee7 f93b 577d b1bb 1e2f 213d 75a0 47be
00000250: d136 773d 5b30 86bd cbd7 2a3e 1de6 debd
00000260: 665f b3bc c42b fc3c 41b6 dc3d fab5 6abd
00000270: 10c9 12bb c18d 2e3d c0cd 3ebd 93c7 393e
00000280: 358c 0ebe b674 96bd 3460 303e 52f7 d53c
00000290: fdee 1ebe 01e1 15be 238c e7bd 5de6 53be
000002a0: bf17 a03d b5fb acbc ef66 13be 6ff0 963d
000002b0: 0332 e43c 1f7c eb3d 226d 023e d20f 0e3e
000002c0: bfd6 2ebe ce37 08bc 9f21 78bd 77e2 103e
000002d0: bb9a 28be 74f1 babc 3e0f dfbc d867 3fbd
000002e0: f390 25be 4581 d1bd 16c0 d0bd 603f 0fbe
000002f0: 5705 823d 104e 2a3e 5967 d83d 6f03 063e
00000300: 0893 2ebd 3eef 433e 2e81 15be 2488 50be
00000310: b8d5 ee3d c604 c03c cc55 acbd 5bc9 1dbd
00000320: 4aef 2d3d 2486 1dbe c08e bfbc b4af 893e
00000330: 119c 0abe a653 92bd 9f79 ef3d dbc9 75bc
00000340: b596 303e ef88 413e 02be 933e 7ffb b83c
00000350: 9a7b 99bc 16e3 ebbc 3f11 c8be c49a d5bd
00000360: 37b2 1dbe bee8 2bbc 743b 40be 35f5 613e
00000370: 2545 953e 51f5 cfbd e750 e93c 925e eebd
00000380: d0f8 7cbe 638d 2b3e 478f a83d 7e07 d53d
00000390: 2792 1d3d d078 883e 0567 f3bd 9e18 2b3d
000003a0: 9f9c afbd a3d1 6b3e a91f bc3a e3b3 793b
000003b0: 3fce 09be 5688 013e 3b97 33be 2bf3 903d
000003c0: fcbc 663e fa77 943d 7325 4fbc e223 f2bd
000003d0: 7e31 98bb 6fbd 623d 73fa 6b3e 90d7 9abe
000003e0: f6fb a93e bbae 06be 7422 823e a209 143e
000003f0: 6db8 283c 2605 783d d105 68bd ac86 e53d

net.2.bias f4 [60]
-0.101672105 -0.013258422 -0.0423612 0.0907137 0.05806771 -0.06724475 0.09405794 0.037786026
-0.09380844 -0.035633367 0.055979542 0.116406836 0.044175003 -0.018982375 -0.01064178 0.07373637
0.03576452 -0.1000935 -0.09763242 -0.11264821 0.02331628 0.11399227 0.05028259 0.051517155
-0.0067167394 -0.107150935 0.06216472 0.068488 -0.0048831888 0.052286375 0.0745836 0.05211697
0.08855247 0.032657363 -0.04554709 0.02534665 0.094158076 0.09112637 -0.012592056 -0.02553606
-0.09041511 -0.102966584 0.007665022 0.015889484 0.06045522 -0.103093095 -0.021872615 -0.11672426
-0.0041600903 -0.006949239 0.026970519 0.0006027417 0.083622165 0.090845995 -0.087378986 -0.08897035
-0.052775353 0.040670127 -0.05967267 -0.07022883
00000000: 7739 d0bd da39 59bc f082 2dbd 1bc8 b93d
00000010: 68d8 6d3d 9eb7 89bd 73a1 c03d 85c5 1a3d
00000020: a41e c0bd 4bf4 11bd ce4a 653d b566 ee3d
00000030: d9f0 343d ed80 9bbc dc5a 2ebc 1803 973d
00000040: d17d 123d d2fd ccbd 82f3 c7bd 1bb4 e6bd
00000050: c901 bf3c c774 e93d 1ef5 4d3d a703 533d
00000060: 1818 dcbb f371 dbbd 6fa0 7e3d 7043 8c3d
00000070: 2803 a0bb 3d2a 563d 49bf 983d 9b78 553d
00000080: ff5a b53d bac3 053d 968f 3abd c7a3 cf3c
00000090: f3d5 c03d 76a0 ba3d e94e 4ebc 0031 d1bc
000000a0: 8f2b b9bd 25e0 d2bd dd2a fb3b aa2a 823c
000000b0: e59f 773d 7922 d3bd 332e b3bc 210d efbd
000000c0: 5e51 88bb 71b6 e3bb 47f1 dc3c 5001 1e3a
000000d0: 1942 ab3d 770d ba3d c1f3 b2bd 1636 b6bd
000000e0: f82a 58bd b895 263d 546b 74bd 22d4 8fbd

net.5.weight f4 [1, 60]
0.0113997515 0.05207925 0.0030401312 0.1778491 -0.005441837 0.27785927 -0.22040698 -0.004269025
-0.0031206075 -0.24187669 -0.0051943255 0.21437036 -0.31497863 -0.08142189 0.0032955708 0.11785013
-0.025272356 0.06063867 0.000876791 -0.02143189 0.011789688 0.0021189053 0.047478564 -0.00084529695
-0.32825983 0.039710708 0.011349872 -0.093181 0.02360111 -0.10165734 0.1805461 -0.069975086
0.060971342 -0.23896092 -0.2501251 0.044027604 -0.0033819415 -0.11514753 -0.22709917 -0.110398255
0.10589843 -0.06559257 0.01716171 -0.0050444105 -0.056011993 0.1264755 0.16680555 0.17128856
0.06458496 0.02968192 -0.027298238 0.0029409754 -0.5414558 -0.15140228 0.121648274 -0.00052374264
-0.040957857 0.23717074 0.024203997 0.23950222
00000000: 06c6 3a3c 0d51 553d f03c 473b 131e 363e
00000010: 7051 b2bb 9243 8e3e 5eb2 61be 2de3 8bbb
00000020: 1b83 4cbb 86ae 77be 2935 aabb e783 5b3e
00000030: e144 a1be 85c0 a6bd 81fa 573b 695b f13d
00000040: f907 cfbc 4160 783d 73d8 653a ee91 afbc
00000050: 8929 413c 55dd 0a3b e278 423d eb96 5dba
00000060: ac11 a8be b2a7 223d d0f4 393c aed5 bebd
00000070: 1d57 c13c b931 d0bd 14e1 383e 194f 8fbd
00000080: 16bd 793d 2cb2 74be 6610 80be 4a56 343d
00000090: 90a3 5dbb 78d2 ebbd af8c 68be 7b18 e2bd
000000a0: 47e1 d83d 6655 86bd b796 8c3c 954b a5bb
000000b0: d56c 65bd cb82 013e 13cf 2a3e 4566 2f3e
000000c0: 1f45 843d 7f27 f33c 8ea0 dfbc 61bd 403b
000000d0: d99c 0abf 3309 1bbe bb22 f93d c64b 09ba
000000e0: 6dc3 27bd e3dc 723e 7647 c63c 1240 753e
