results of reviewer/XJTU results/0-0/Experiment5/model.pth (torch, 59838 bytes, 14 tensors)

encoder.net.0.weight f4 [60, 17]
00000000: 10ad bb3d 1a3e 4ebe a3fa abbc a8f1 b63d
00000010: e9cd 303d cec1 fbbd 8d01 163d 9b61 e2bd
00000020: 4ac7 7bbe d3d5 443c 568d 00be 9846 d43d
00000030: c074 8cbd cf18 313e ac1e 9d3d 7e27 dabd
00000040: 1591 8cbe b6a3 57be 4503 a0bd d2e6 24be
00000050: 8038 103e 0dd9 503e 7cb0 9f3c 897b 163e
00000060: 8518 e3bd 4603 52be 12ec 07be c623 19bd
00000070: c556 86bd cc7a b0bd 1f8b 02bf eeb8 4c3d
00000080: 76ea 793e 834e a13d 7758 81be f068 eabc
00000090: 23ac 78bc 150b 513c 3651 ea3d 53a9 8fbd
000000a0: 55ba 07be c8d5 243e cb7b 9d3c 5d17 ad3c
000000b0: ca51 a2be 0796 923d 5422 e2bd 538b 303e
000000c0: 2dcb 0b3e b1eb f43b e30b 60be 1d1e fd3d
000000d0: 53e9 e23a 2c1d 7bbe 4d61 babd 36c4 a2bc
000000e0: 496f 4fbe 0063 493e d781 673e b665 dfbe
000000f0: 5a21 703c b740 b5bd 1565 e9bd 6343 813d
00000100: 5be5 23be 09b3 bbbd e00f ecbb faa0 fe3d
00000110: 8fe7 a4be 96ce 02bd ba88 7fbc b34a b43d
00000120: b45e a43d 8a5b 02be ec80 64bd f1ba 973d
00000130: d295 0abe 8248 7abd 629a 09bd 1ed6 f83c
00000140: 0cb9 19bd 64a4 8a3d 4921 b9bc 3d84 fc3d
00000150: 7ef3 203c 80f9 2fbe 482e 8cbe bbe2 173e
00000160: 5868 c1bb 55cd 273e a784 03be ade3 2a3e
00000170: 0159 cbbd b9aa fdbc 834f 993d 2922 963e
00000180: 036f 87bd 62f1 55be ce1f ccbd 1121 bc3d
00000190: b1a8 09be b526 983c 63a7 fa3c 594a 0c3e
000001a0: d7d4 ea3d 7be5 873d 88e5 873d 3589 ad3b
000001b0: dc57 adbe 97af ca3d ed81 4f3e e981 e3bd
000001c0: 189f 4c3d 6089 3bbe 2807 083e 4c79 febd
000001d0: ae4f adbc a25e 4fbd a86c c0bd 0c2d 933d
000001e0: ff67 3b3d 667c 0d3d bd17 b8bd 5ab2 22be
000001f0: ab3f 193e 4e65 43be e2ca 14bd 9109 22be
00000200: c0b8 54be 7e33 df3d 0991 47be 2898 18bd
00000210: f484 863d ab6a 4abd 9ff2 083e 73d0 733e
00000220: f2b0 92bd 2552 6abe d4e3 6d3e 65bd ba3c
00000230: 2422 0b3e 6ac8 ce3b 323a fbbd f41c 5a3c
00000240: 8976 053f 6d01 06be 083f 17bd 784f 693e
00000250: e8df c7bd e200 c63e f509 e83c 65d8 27bd
00000260: 2651 58be b7fa 813d 2b99 81be 336e 4f3d
00000270: 6ee1 6f3c 51ad ba3c 9bc1 7f3e 3514 d0bd
00000280: d000 39be 333e b23d 9cd0 61bd 4745 a8be
00000290: 2a24 7cbe 77f8 e7bd d9c4 a3be 930e 99bd
000002a0: 6526 b33d 58ff 39bc 2d41 d0bd 696b 8abd
000002b0: f889 8fbe b6e0 b0bd 7c45 08bd d374 853d
000002c0: 093a 203e 8c70 7cbd c7d1 073e da42 26bd
000002d0: 1019 ce3d e0c4 25be d124 313e 9870 6d3c
000002e0: 6b98 c63d dc4d 3dbd 2070 f33d d9fd 33be
000002f0: 58f0 c9be ded0 a0bd c5a8 a13b 57d6 163e
00000300: 8cac 573e e1d5 ff3d 76ed 78be bcb2 36bd
00000310: e903 2f3e 229d 06ba 7752 8ebe 2c44 9cbd
00000320: 0f06 a43e 091d 8cbd 0c9a b63d ead9 9cbd
00000330: 7df6 06be f289 ec3c 2092 8d3d c79a 183e
00000340: 68f9 cb3d 9572 c13d a447 6bbd 8990 8d3c
00000350: 53ec 923d 0b43 40bd 776f 7ebd e285 363e
00000360: 75bb 28be 0903 7d3d 8f19 26bd 39f8 aabb
00000370: a037 3a3e c111 f1bd 192a d93d 4dc7 023e
00000380: 6779 573e 2c89 1f3e 0369 68b9 207c 64be
00000390: f847 e7bd 6e64 41be 20c2 32bd 715c bcbd
000003a0: 447d 4d3e 0162 31be 14a9 a6be 7854 673c
000003b0: 61f1 393e 635a 11be bc3d b73d fa32 72bb
000003c0: 55ab 84bd 3e33 35bb 1562 173d be9e 273e
000003d0: 404d 3bbe cfc8 62bd d255 c93c 2e49 53be
000003e0: 6ad2 f33c 26cf f63c e139 613d c7ae a33e
000003f0: c008 b13d 77f0 f3bd 7519 2ebe 6d0b 9abe
0.091638684 -0.20140877 -0.020993536 0.08932811 0.04316512 -0.12292825 0.036622573 -0.11053773
-0.24587741 0.01201387 -0.12553915 0.10365027 -0.06858206 0.1729462 0.07671866 -0.10652064
-0.2745444 -0.21058545 -0.078131236 -0.16103676 0.14084053 0.20395298 0.019493334 0.14695562
-0.11088661 -0.20509061 -0.13273647 -0.03738763 -0.06559519 -0.08617172 -0.5099353 0.04998105
0.24405846 0.07876303 -0.25262806 -0.028614491 -0.015177759 0.01275899 0.11441271 -0.07014718
-0.13254674 0.16097176 0.019224068 0.021129305 -0.31703025 0.07157522 -0.11041704 0.17240648
0.13651724 0.0074743857 -0.21879534 0.12359259 0.0017311968 -0.24522847 -0.0910059 -0.019868951
-0.20257296 0.19666672 0.22608124 -0.43632287 0.014656389 -0.08850234 -0.11396233 0.06311681
-0.16005461 -0.091650076 -0.007204041 0.124330476 -0.32207915 -0.031935297 -0.015596563 0.0880331
0.08025876 -0.12730232 -0.055787012 0.07408703 -0.13533714 -0.061104305 -0.033594497 0.030375537
-0.03752999 0.06769636 -0.02259888 0.1232991 0.009823678 -0.1718502 -0.2737906 0.14832585
-0.0059023313 0.16386922 -0.12843572 0.16688414 -0.099290855 -0.030965196 0.07485869 0.29322937
-0.06612971 -0.20892861 -0.09967004 0.091859944 -0.13443257 0.018573144 0.030597394 0.13700236
0.11466377 0.06635567 0.066355765 0.0052958974 -0.33856094 0.09896772 0.20264407 -0.11108763
0.04995641 -0.18314123 0.1328398 -0.12425479 -0.021156158 -0.05062736 -0.093957245 0.071863264
0.045753475 0.034542464 -0.08988903 -0.15888348 0.14965694 -0.19081613 -0.036326297 -0.15823962
-0.20773602 0.10898493 -0.1948892 -0.037254483 0.065683275 -0.049418133 0.13373803 0.23809986
-0.07162656 -0.22882898 0.23231441 0.022795388 0.13587242 0.0063105123 -0.12266959 0.013312567
0.52133995 -0.13086481 -0.036925346 0.22784221 -0.097595036 0.3867255 0.02832506 -0.040977854
-0.21124706 0.06346648 -0.2531217 0.050642204 0.014641149 0.022787722 0.24976198 -0.10160104
-0.18066716 0.0870327 -0.055130586 -0.32865354 -0.2462317 -0.11326688 -0.3198612 -0.07473483
0.087475576 -0.011352383 -0.10168681 -0.06758768 -0.2803495 -0.0863661 -0.03326939 0.06516423
0.15647139 -0.06163077 0.13263617 -0.0405911 0.10063374 -0.16188383 0.172992 0.0144921765
0.0969704 -0.04621683 0.118866205 -0.17577304 -0.3944118 -0.07852338 0.004933449 0.14730202
0.21061915 0.12491966 -0.24309334 -0.044604048 0.17091335 -0.0005135109 -0.2779729 -0.0763019
0.32035872 -0.068414755 0.08916101 -0.07658751 -0.13179965 0.028874371 0.06912637 0.14902793
0.0995968 0.09445683 -0.05744137 0.017280834 0.071739815 -0.046938937 -0.06211802 0.1782451
-0.16477759 0.061770473 -0.04055172 -0.0052175787 0.18185282 -0.117709644 0.106037326 0.1277134
0.21042405 0.1557967 -0.00022164364 -0.22312975 -0.11293024 -0.18885967 -0.043642163 -0.09197319
0.20067316 -0.17322542 -0.3255087 0.01411926 0.18158485 -0.14194636 0.08947322 -0.0036956654
-0.064779915 -0.002764895 0.036958773 0.16369149 -0.18291187 -0.055367287 0.024577055 -0.20633385
0.02976342 0.030128073 0.05498684 0.31969282 0.08644247 -0.119110994 -0.17001899 -0.30086842

encoder.net.0.bias f4 [60]
00000000: 6823 173d a5cd 1dbd 8ff2 e0bc c9f9 533d
00000010: 83b0 97b9 cf62 823c 0901 0dbd b38d a63c
00000020: 78b6 473d 80d2 403d 7e4c f73c 411f 5a3d
00000030: 2901 14bd 159b d23c 515a 5cbd bec8 3a3d
00000040: ced6 c33c ab4a 0f3d 759d 193c c2e7 e73c
00000050: 82e7 5fbc 4fc3 46bd 1808 86bc ba9a 1f3d
00000060: 0950 a03c 21f5 393d fa0d 73bd 64b5 f13c
00000070: b0c9 50bd 4b51 4dbd dc6a 09bd 220d 013d
00000080: d6db 9bbd 8e78 97bd 23fb 08bd 1301 27bd
00000090: 8b9e 413d 0359 c73c e493 343d f4ac 6fbd
000000a0: 2875 623d cdc4 7fbd 3660 0a3d a954 16bd
000000b0: bb9e 1c3d 7b5a 073d 18bd fcbc 658c 803c
000000c0: f063 07bd 9af7 08bd 5b89 9a3c 900e 7d3a
000000d0: 10f1 0d3d 4910 3bbd 1946 97bc 3bfe 7a3d
000000e0: 8b00 ccbc 958a 60bd 6025 28bd 2af6 7dbd
0.036899 -0.038526196 -0.027459411 0.051751886 -0.00028932476 0.015916256 -0.034424815 0.02033124
0.048758 0.04707575 0.030187842 0.053252462 -0.03613392 0.025708715 -0.05379707 0.0456016
0.023906138 0.03498332 0.00937592 0.028308753 -0.013666036 -0.048526105 -0.016361281 0.038965918
0.019569414 0.04539979 -0.0593395 0.02950544 -0.050973594 -0.050126355 -0.033549175 0.031506665
-0.0761029 -0.07396041 -0.033442628 -0.04077251 0.04727034 0.024334436 0.044086352 -0.05851455
0.05528751 -0.062443543 0.03378316 -0.036701832 0.038237315 0.033045273 -0.030851886 0.015691945
-0.033054292 -0.033439256 0.018864324 0.0009653354 0.034653723 -0.045669828 -0.018466042 0.06127761
-0.024902603 -0.054819662 -0.04105127 -0.06200234

encoder.net.2.weight f4 [60, 60]
00000000: 03f4 02be 4214 883e b5c4 20bd 42dd 51bd
00000010: f0a9 0a3e 207e 49be d900 053e 82d3 2fbe
00000020: fc53 afbd f1a2 4d3d 220c 373c de46 6abc
00000030: 126e 9abc eba7 243d 746d 8c3d e682 05be
00000040: 4a50 8dbd 9e9b 673e 5d21 f3bd 2b78 c2bc
00000050: 4b69 67be 597f f23d aa56 31be 9d30 d03c
00000060: 8c14 ab3b 4f39 393c b0d4 bdbd 9ebc d0bc
00000070: 3e67 ddbc 97ed 88bd 670f 79be 66fb 0fbe
00000080: 209c 03be 38a1 933d e973 6ebd f7b0 13be
00000090: e7aa 6cbe a279 843d 4eb1 0f3d 7234 09be
000000a0: 9ccb f4bd 6b0f 0fbb 04cc 163e 4dc8 8d3d
000000b0: 2f82 2dbc 6535 3a3c 86a5 d03c e3ed d03d
000000c0: af79 be3c 5237 20bc 9308 353d c95f 95be
000000d0: 2fd7 173e 74a2 ffbd 4584 663e 2e35 cbbd
000000e0: 0775 71bd 33fb 613e 7cbd 713d fb77 b0bc
000000f0: 0f39 04be e3c3 3cbb c9c5 fabd 610f 40bd
00000100: 2075 373d 470a f4bc 925f 0dbc 096e be3d
00000110: e1be 87bd c1a5 90bd 71ad e13d 1cf4 f9bd
00000120: c540 0fbe d498 ba3d ae07 78be 2449 963c
00000130: e162 22be 3392 023d 3f14 fb3d cad7 c83d
00000140: 5ced 44be b6a3 0a3e b146 19be 85e1 78be
00000150: c6bb 813d efc2 14be 4ef5 c4bd 78f9 92bd
00000160: 81f5 5fbd 8e16 5f3d d486 1abd 0ae8 9b3d
00000170: 9bfe 57bd 4f41 863c 6438 09be c83d 963d
00000180: b197 c5bd 2212 5cbd 18e1 51bc 12f5 95bd
00000190: 18cc 8fbd 92ba 603d 7235 4abe 2beb ed3d
000001a0: aedb e9bd 34c8 20be 9ee0 75bd 7a4f 973e
000001b0: 00c7 8fbb 5647 58bd f11a df3c 0410 973d
000001c0: 0d22 26bd 439f 3a3e 3e42 39be e197 513d
000001d0: aafe 163e 6ef9 53bd 9a4e a33d 879a d53d
000001e0: 605e 0c3e 4dd1 9dbd 001b 823d 35f0 843e
000001f0: 1afe 18bc e5fe aebc c046 4cbe 4fd9 633c
00000200: 46e4 1b3e 66ec 1f3d 5be6 a03d a831 de3c
00000210: f7e4 5cbc 39a0 31bc 9cc1 b0bd b523 12be
00000220: 1928 123e 6d1b 633e 272e 5ebc 5b0f ba3d
00000230: 0450 3639 b8f4 3d3d 3ad8 c6bd 1267 793d
00000240: ef23 f83c f83a f5bd 206a 3b3c e252 e53d
00000250: ba0c ebbc a612 4fbe ea14 48be d40b 36be
00000260: 8b6e 543d 665d 89bc d51b 533d eef2 6bbe
00000270: 7c9a 12bd bbf3 0dbe 97f3 31be 522d 323e
00000280: e710 9d3e 6a00 a93d 57fd 03be 255a 8a3d
00000290: b832 293e 6af0 b93d 753a 353e 282b 55bd
000002a0: 2d46 5a3e 5b49 06bd b600 213e 68af 1abc
000002b0: b868 493e 627b 253e adf5 de3d 02b9 073d
000002c0: 06bc d5bd 607c 5abd 4d81 aa3d e27f 3f3d
000002d0: 9855 69bd 7c4f a33e ba04 8f3e efbc 6d3e
000002e0: bd11 413d 2804 ec3c b87a dabd 5f11 eabc
000002f0: eb74 bbbd 349f 2bbd 0e06 523d 2bd9 143e
00000300: 9aad f2bb 452d febd b7c7 ceba 5dd7 833b
00000310: f2ba 2f3c d79c c0bc 1c81 18bd 1753 cc3c
00000320: 9615 313e 5a67 873c f25d 2bbd cced 8dbd
00000330: 79e7 0ebd 2121 303e ae0e 61bd 0327 19be
00000340: a224 87be 5e82 6a3e db34 35be 0e4d 64bd
00000350: 29d7 8a3a 7ccc 893e f5b6 95bc 7355 be3c
00000360: ddfc 1ebe 366f 5a3d 03de 4fbe 8889 0cbe
00000370: d0b7 d13c ba41 5c3e 0bb5 513d bf70 9b3d
00000380: 2a19 0a3e 2181 693e 6a2c 0f3e bcde a73e
00000390: 57f3 c33c f4c4 00be ce88 1fbe bcc2 223c
000003a0: c2df 14be f8c2 53bd 7d8e a83e a7ca e3bd
000003b0: 7107 7a3d df15 a9bd 167f 7f3d 9c87 053d
000003c0: 0235 063e 24bf 87bd 6be7 983c d3ef 99be
000003d0: 9c66 e8bd 258c 5dbb 97d1 fe3c 4b6f 113e
000003e0: 7aca 093c 4e7c c13d dfc8 a53d 2d0e fcbd
000003f0: a0cd a13d 3d95 ffbd 3989 98bc a4ce 953e
-0.12788396 0.26577955 -0.039250094 -0.0512364 0.13541389 -0.19677019 0.12988605 -0.17170528
-0.085609406 0.05020422 0.011172326 -0.014299123 -0.018851314 0.0401992 0.06856814 -0.13038215
-0.069000795 0.22617957 -0.11871598 -0.023738941 -0.2259876 0.11840696 -0.17318216 0.025413806
0.0052209552 0.011305167 -0.092690825 -0.025480565 -0.027026769 -0.06685942 -0.24322282 -0.14060745
-0.12852526 0.072084844 -0.05821601 -0.14422975 -0.23112069 0.06468512 0.0350812 -0.13398913
-0.11952898 -0.0021829258 0.14726263 0.0692297 -0.01059012 0.011365269 0.025469553 0.10201623
0.023251383 -0.009778814 0.04419763 -0.2917464 0.1482818 -0.12482157 0.22511394 -0.099222526
-0.058949497 0.22068481 0.059018597 -0.021541586 -0.12912391 -0.002880328 -0.12244756 -0.046889666
0.044789433 -0.029790057 -0.008628743 0.09298331 -0.06628204 -0.07062865 0.110194094 -0.12204763
-0.13989551 0.09111181 -0.2422168 0.018345423 -0.15858032 0.031877708 0.12259721 0.098067835
-0.1923117 0.13539013 -0.14968373 -0.24304779 0.06334643 -0.14527486 -0.09617101 -0.07176489
-0.05467749 0.05446487 -0.03772624 0.07612617 -0.052733045 0.016388563 -0.13400418 0.073360026
-0.096480735 -0.05372823 -0.012810014 -0.07322134 -0.0702135 0.054865427 -0.1974695 0.1161712
-0.11418854 -0.15701371 -0.060028665 0.29552823 -0.0043877363 -0.052802406 0.027234526 0.073761016
-0.040559817 0.18224816 -0.18091676 0.051170234 0.14745584 -0.051751547 0.079739764 0.104298644
0.13707876 -0.077059366 0.06352806 0.25964513 -0.009337926 -0.021361778 -0.19948864 0.013906791
0.15223798 0.039043806 0.07856437 0.027123287 -0.013482324 -0.010841423 -0.08630678 -0.14271434
0.14273109 0.22178431 -0.013560808 0.0908496 0.0001738668 0.04637596 -0.09709211 0.06088931
0.030290572 -0.11974138 0.011438876 0.11197449 -0.028692592 -0.20221958 -0.19539228 -0.1777795
0.051863234 -0.016768169 0.051540215 -0.23041889 -0.03579186 -0.13862507 -0.17378078 0.17400101
0.30676958 0.08252032 -0.1288961 0.06755475 0.16523254 0.090790585 0.17698081 -0.05204311
0.21315832 -0.0327848 0.15722927 -0.009441234 0.19668853 0.16160348 0.10886703 0.03313542
-0.10436253 -0.05334127 0.083254434 0.046752818 -0.056966394 0.3189658 0.27933294 0.23216604
0.047136057 0.028810576 -0.10667938 -0.028572736 -0.0915316 -0.041899875 0.051275305 0.14535968
-0.007405949 -0.12410978 -0.0015776072 0.004023476 0.010725724 -0.023512287 -0.037232503 0.024941964
0.1729339 0.016528774 -0.04183764 -0.06930122 -0.03488872 0.17200138 -0.05494564 -0.14956288
-0.26395136 0.22901294 -0.17695944 -0.055737548 0.0010592687 0.26913822 -0.018275717 0.023234105
-0.15526147 0.053328715 -0.20299534 -0.13724339 0.025600344 0.21509448 0.051198047 0.07589864
0.13486162 0.22803165 0.13981786 0.3278712 0.023919744 -0.12575132 -0.1557953 0.009934124
-0.14538482 -0.05169961 0.3292121 -0.11122637 0.061042253 -0.08256125 0.062377058 0.03260003
0.13106158 -0.06628254 0.018665036 -0.30065784 -0.11347696 -0.0033805456 0.0311058 0.14202611
0.008410091 0.09447537 0.08094954 -0.12307391 0.07900548 -0.12479637 -0.01862012 0.29259217

encoder.net.2.bias f4 [60]
00000000: 62e6 273d c1e5 25bd 3bdb 5b3d ffea c2bc
00000010: fa73 c6bb 9157 40bd e7ba 83bd 6fe0 5c3d
00000020: 53cf 233d 880f 1dbd d2a1 2fbd 3239 1fbd
00000030: c3ac 53bd 54f6 2e3d 852b 0bbd 0e3c 32bd
00000040: eb88 d7bc 071a 22bd dc72 27bd 163e 49bd
00000050: 2f63 09bd 0bda 0bbd f28d 54bd 5f13 da3c
00000060: 360c 233d 0b4a 293d 36c7 423d ae3e 093c
00000070: 9595 053d 8d16 1f3d 4a89 823c d596 2ebc
00000080: d728 30bd a79e 1cbd 20df 323d 5bb7 00bc
00000090: 6ef8 2f3d 1394 253d fd75 21bd 4e56 7d3b
000000a0: db6a 8a3d f8f0 ecbb 5838 51bd 104e dd3c
000000b0: 4e7c 32bd 5e1f 5bbd 4bfc 213d 462e 033d
000000c0: a80f 1c3d b306 eebc ac61 fe3c 5acc 843d
000000d0: 8ac9 11bd cb96 453d 4e9d 383d c043 b13c
000000e0: 2a52 113d 4965 a1bd 25c1 bc3c 28b0 57bd
0.040991195 -0.040502314 0.05367587 -0.023793695 -0.006056306 -0.04695851 -0.06432133 0.053924974
0.03999264 -0.03834489 -0.042878933 -0.038872905 -0.05167843 0.042715386 -0.03397705 -0.043514304
-0.026310405 -0.039575603 -0.040881023 -0.049131475 -0.033541854 -0.03414349 -0.051893182 0.026620565
0.039806567 0.04133038 0.047553264 0.00837676 0.032613356 0.038839865 0.015934605 -0.010656078
-0.043007698 -0.03823724 0.04366982 -0.007856215 0.04296153 0.040424418 -0.039419163 0.0038656178
0.06758662 -0.007230874 -0.051079124 0.027014762 -0.043575577 -0.05349671 0.039547246 0.03202655
0.03810087 -0.029055929 0.031052433 0.064842895 -0.035592593 0.04823951 0.045071892 0.021638751
0.03547875 -0.07880647 0.023041317 -0.05265823

encoder.net.5.weight f4 [32, 60]
00000000: 6133 7f3d 17af 1a3e 22fd 2ebe a3c4 aa3c
00000010: 12fc 943e 9440 893d 1a7a 38be f94b 313e
00000020: 9807 103d 75c2 be3c 3b52 d23c 7f78 453e
00000030: 2cc9 543c f516 6d3d 9930 ba3b c6fa 7b3d
00000040: 3f81 e93d 1be5 773e 920e a13d 3000 0b3c
00000050: b934 aebe 4742 3e3e ff6d 32bd cc53 2c3e
00000060: aa96 75bc 05d0 8f3e 66f9 b83d 1c84 08be
00000070: 9d40 4c3e 385a 383e 3dc3 d13d 1b67 34be
00000080: e63d d1bd 6eed 1d3d c0ec 4b3e ce63 6bbd
00000090: c2a9 f7bd ddb8 05bd 7501 54bd c57c 9e3d
000000a0: 4c2c 4c3c 78bc 20be 02cd 733d 34ae 353d
000000b0: 9a0d 103e be1d 063e f5ff 213d 9b42 90be
000000c0: 678e 983e cfc1 ef3d 78f1 22be 4739 953d
000000d0: b7c6 603d ed8f aabe d6c9 b83d 3a20 f03d
000000e0: f695 3a3e 587c 01be 61f2 79be 63a8 0cbd
000000f0: 5888 fa3d 562b 76bc c048 8b3c 0fc8 4ebc
00000100: 5380 dbbd 70bc 0c3e 38d7 ffbc e176 b43d
00000110: 4fdb c93d f54f 003e 8f8f d2bc 2d10 c03d
00000120: 1ea8 fbbd 0ac9 07be 3cfd a7bd 11d2 393e
00000130: 6542 9bbd ad00 6bbc f187 133e c634 33bd
00000140: 059d 493d 5187 d4bc 10ce 42bd 0290 20bd
00000150: 6b76 11bd 7556 79bd 38f7 1bbd e3c4 bf3e
00000160: 5055 5c3c c331 46bd 4d78 2d3e 3731 f23d
00000170: 9c91 b7bd 62b4 5b3d 8786 2fbd 6835 d3ba
00000180: a38e 06bd cfcd a4be b8e9 6c3d 9e61 c63d
00000190: 99c8 ee3d 42a5 acbc 39a0 29bd 5820 98bd
000001a0: 6236 abbc 73fd 643b 502e a13d 6661 dfbd
000001b0: d3fe 443e 2310 9d3c 1866 f53d 96ad f8bd
000001c0: c314 c3bd d92a 8cbb 2bd4 27bd 9d14 01bd
000001d0: 665a d03e bc55 11be 367f 013c 731a 9a3c
000001e0: 05d8 fd3c be8f 23be d29f 61bd 8534 fb3d
000001f0: 51ca bfbd 2c7e 923d 3aef b1bd 8415 36be
00000200: 1b0b 933e 154e 493e 8b27 07bb 42ac 273e
00000210: deb4 94bd 9ed8 993d 1cc6 10bd ead5 13bd
00000220: 2ed1 86be 2f0f c9bc e16c 313e 2699 83be
00000230: cef7 97bd e056 86bc 22b1 c43d 5de4 fb3c
00000240: 5df9 6f3e 30c6 bdbd 17e2 b2bd 3fa0 84bc
00000250: f96b eb3b c505 95bc 0e38 3dbe 5ca2 b9bd
00000260: 2fb3 e5bd 7cdb 96be 41e7 0f3e 7ab8 a63d
00000270: 2a70 c6bc f41d 4f3e b8ff 8f3e 749a 8bbc
00000280: 38c1 86bd 4048 0c3e e96b 783d 0993 ddbd
00000290: 43a2 b0bd f188 9cbd 7fd1 653e 27f6 47be
000002a0: 18dc d63d d20e 663c ddeb f1bd 7e2f 96bd
000002b0: 7ed7 3e3c 31eb fa3d 5631 6bbd 4928 c7bb
000002c0: bdd6 783d 32e0 4e3d 4cc9 893c f7ef ccbd
000002d0: b79d b5be 38d8 ed3d d784 90bd f2a5 453e
000002e0: 4472 a7bd 977c 1bbd aa1e f1bd 4bb8 f03d
000002f0: 2d23 eabd e1f5 853e 2e46 dbbd 4c3f 523d
00000300: 31a2 fcbd 823e 6b3d 76c9 933d 9c86 bb3c
00000310: 1589 75bd 213e 2bbd c873 eb3d bfa9 0a3c
00000320: c384 833d 2a8c 03be 34d4 a63d b994 a5be
00000330: 5693 adbe 7eec 6dbe 85fe aa3d 5cf8 45bc
00000340: 59e2 2c3e 1d86 0d3d 8a91 303e 4bef d23d
00000350: 88e0 3ebe 6aac 2f3e 775c d7bd 3da6 c0bc
00000360: 2106 a6bd ac44 08be 3249 e2bd 2cc2 d1bd
00000370: 2446 09be 1f3f a6bd ace5 44be 2084 11be
00000380: 37ec 593c 4cd5 b8be 13e1 fd3d 1cb3 d9bc
00000390: 77f8 39be e300 a0be 015d 0e3e 490d d23d
000003a0: a97d 57bd 751b 093e 521b e93c d23b 6f3d
000003b0: 12e5 3abd 5a3f 9abd 3d81 5abe 270e 9a3c
000003c0: f1df 8dbd 592d f6bd ddc0 5f3d 4de5 40be
000003d0: 8734 9a3d ba20 71bc 9810 943c 3e7e dbbd
000003e0: 21c2 5c3d d986 67bd a8a3 b93d cc1c e1bd
000003f0: 254a aabd f0d4 153e ad0e 71bc 8e76 403d
0.062304858 0.15105854 -0.1708875 0.020845717 0.29098564 0.067017704 -0.18015328 0.17314138
0.035163492 0.023286084 0.025673976 0.19284247 0.012987416 0.05788322 0.005682063 0.061518453
0.11401605 0.2420849 0.07864107 0.008483931 -0.340246 0.1857997 -0.04356193 0.16828841
-0.014989534 0.28088394 0.09031944 -0.13331646 0.19946523 0.18003166 0.10242317 -0.17617457
-0.10216884 0.03855651 0.19914532 -0.057468228 -0.120929256 -0.032647002 -0.051759202 0.07738642
0.012461733 -0.15696895 0.059521683 0.044355586 0.14067689 0.13097283 0.03955074 -0.28175816
0.29796144 0.11706888 -0.15912426 0.072863154 0.05487701 -0.33312932 0.09022872 0.11724897
0.18221268 -0.1264509 -0.24408866 -0.034340274 0.12233037 -0.0150249805 0.017002463 -0.01262094
-0.10717835 0.13743758 -0.031230554 0.08811737 0.09856283 0.12530501 -0.02570322 0.09378085
-0.12287925 -0.13260284 -0.082025975 0.1814654 -0.07581023 -0.014343423 0.14407326 -0.0437515
0.04922201 -0.02594343 -0.047559798 -0.039199837 -0.035513323 -0.060873467 -0.038077563 0.374549
0.013448074 -0.0483873 0.16940422 0.11825793 -0.0896332 0.053638823 -0.042852905 -0.0016113939
-0.032850873 -0.3218827 0.05784008 0.09686588 0.11659355 -0.021074895 -0.041412566 -0.07428044
-0.020899955 0.0034941107 0.078701615 -0.10907249 0.19237833 0.019172734 0.119823635 -0.12142484
-0.09525444 -0.004277569 -0.040973824 -0.0315138 0.4069397 -0.14192861 0.007903865 0.01881144
0.030986795 -0.15972802 -0.055084057 0.12265877 -0.09364761 0.071529716 -0.08688207 -0.17781645
0.2871941 0.19658692 -0.0020622935 0.16374305 -0.0726106 0.075120196 -0.03534518 -0.036092676
-0.26331466 -0.024543373 0.1732669 -0.2570278 -0.07420312 -0.016398847 0.09604098 0.03074854
0.23434968 -0.09266317 -0.087345295 -0.016189693 0.007184502 -0.018191228 -0.18478414 -0.09064171
-0.11215817 -0.29464328 0.1405306 0.08140655 -0.024223406 0.2022627 0.28124785 -0.017041422
-0.06579822 0.13699436 0.060649786 -0.1081906 -0.08624699 -0.07643307 0.22443198 -0.19527493
0.10491198 0.014041619 -0.118125655 -0.07333277 0.011648057 0.122518905 -0.057420097 -0.0060778004
0.060751665 0.050506778 0.016819619 -0.10006707 -0.3547189 0.11613506 -0.07056587 0.19301584
-0.08176091 -0.037960615 -0.11773427 0.11753901 -0.114324905 0.26164153 -0.10706745 0.051329896
-0.12335623 0.05743266 0.0721616 0.022891335 -0.059945185 -0.041807298 0.11496693 0.008463322
0.06421807 -0.12846437 0.08145943 -0.3234003 -0.3390147 -0.23234746 0.08349327 -0.012083139
0.1688322 0.03455173 0.17243019 0.10299548 -0.1864034 0.17155614 -0.10515683 -0.023516769
-0.08106638 -0.13307446 -0.11049117 -0.102421135 -0.13405663 -0.08117508 -0.19228238 -0.14210558
0.013300947 -0.36100233 0.12396445 -0.026574664 -0.18161188 -0.31250677 0.13902666 0.1025644
-0.052610073 0.1338938 0.02845541 0.05840666 -0.045628615 -0.075316146 -0.21338363 0.018805576
-0.06927479 -0.12020368 0.054627288 -0.18837471 0.0752955 -0.014717275 0.018074319 -0.10717438
0.053896073 -0.056525085 0.09064418 -0.10991821 -0.08314923 0.1463201 -0.014712972 0.046988063

encoder.net.5.bias f4 [32]
00000000: 6b38 683d eaab 7c3d 4fc0 013d fd11 8d3d
00000010: 9f0b 633d afc0 b33d df7f 5dbd 1529 45bd
00000020: 6de4 573d bc7e 3fbd 438c 5abd 5f76 403d
00000030: d9db a83d bbef 84bd 1a2a a93d 3c75 d23d
00000040: c1e0 6abd 1528 4e3d 5753 43bd 0d54 fabc
00000050: afa6 3a3d c481 85bd 894c 043e 3e9b 62bd
00000060: 57d2 a3bd de8f 783d 3aa3 4abd f5cc 92bd
00000070: ba8f 37bd d8d9 0ebd 4872 4fbd 6699 033e
0.05669443 0.061687388 0.03167754 0.068881966 0.055431005 0.08776986 -0.054077026 -0.048134882
0.05270808 -0.046751723 -0.05335642 0.046987887 0.082450576 -0.064910375 0.08259983 0.10276267
-0.05734325 0.050331194 -0.0476869 -0.030557657 0.045569118 -0.065188915 0.12919821 -0.05532383
-0.079991035 0.060684077 -0.04947207 -0.07167999 -0.044814803 -0.03487572 -0.050646096 0.12851486

predictor.net.1.weight f4 [32, 32]
00000000: ed4d 27be 9759 1e3d 7bf2 2bbd 55de 023e
00000010: 9161 8f3e e9a1 9abd c81c a43e bbe4 023e
00000020: 5154 c4be 6533 223e 9ab4 b6bd a919 28ba
00000030: 6844 3c3e 7e73 233e 2acb 263e ff21 8fbe
00000040: d2e0 063e afa5 b73d 5cb3 c53c d219 003d
00000050: ecb3 02be 2d2d 153e 74b3 02be d91b 84bc
00000060: 8ee8 51be 9f0a 3bbe f9a3 953e 48b8 c53e
00000070: 17b0 c23e 59f2 94be ce0f 4b3e 89f3 90be
00000080: f61a c43d eb5d 15bc 904c 8e3d b185 95bd
00000090: 8999 2c3d 5fa7 ba3c fff1 403d 1e18 54be
000000a0: 3144 7a3e 1dc3 a5be 7179 353e 1069 3ebe
000000b0: 7976 7fbe 5bae 4fbe e330 76be dfd2 81bd
000000c0: 4c91 8c3e 609a a63e 9168 0dbe 2f57 9dbe
000000d0: c77b f2bd cc67 95bd f363 8cbe 1b2b 503e
000000e0: e9a9 7cbe 4f2a 7a3e ce8f 083d 8208 b13d
000000f0: 4dd5 733d 069b 3fbd 2cb5 debd 9a33 a9bd
00000100: b592 193e d120 1bbe 2348 4ebd d128 353e
00000110: 863c 673e d939 23be 0396 c53d d8b6 0fbe
00000120: 5c5f 6d3e 6cf7 d93d fe48 efbb fb41 a1bc
00000130: c1f5 26be fff1 dd3d b492 1b3e 8907 053e
00000140: cb13 393e aa1d 403e 63ce 0e3d 8edd a6be
00000150: a7af aabd ace1 083e 8fde bbbd 6d7d 87be
00000160: 11de 273e cd84 673e 4ce4 c33b 3e88 d0bd
00000170: 283c fabd c815 1b3e fbba dbbd eb41 f8bd
00000180: abdc d03d 3a46 643d ea7c 26bc 1ffb 4fbe
00000190: 96cf 0fbe bc7b 0c3e e398 633d 5b96 5abd
000001a0: b030 88bc bc93 cdbd ee84 13be fd01 a6bd
000001b0: cca0 293e 4b99 1fbe 3bb0 aebe adf6 a5bd
000001c0: 68d9 113e a8e4 95be 7b7e 6a3d 3b2f 7a3e
000001d0: b259 e8bd 00b7 b33d 5eb8 a3bd 9949 2ebe
000001e0: b5df 95bd 976c 88bc c489 b03e 82d0 b93e
000001f0: b934 3f3c 2091 3abc 75a5 233e f48f 82be
00000200: ea88 2abe f87b 8dbe c536 03be d75e 613d
00000210: d8fe b93c 27e0 0a3e baa3 12be d4db 55bd
00000220: bac8 59be 90aa 32be 923d 7a3e fc25 bb3b
00000230: f4d5 f83c 8522 333e e21d 1fbe f8ca 1fbe
00000240: 198d da3c 033c 2dbd 52c2 25bd 0dfc 933e
00000250: 0f6e ac3d 98df 0bbe 29b6 813d 740e 573b
00000260: 2df8 dcbd 126d c53e bd26 d13c 03a7 45bd
00000270: 5ecd 463e 3475 c7bc 0dd8 c2bc f21e 483e
00000280: 5876 e63c 6ee2 16bd c893 18be 75d4 f23c
00000290: e85d 223e 48cb 9d3d fbb8 243e d003 393e
000002a0: 49f8 81bd 66a0 313e 2a49 903d af60 873d
000002b0: 738b 243e 88f0 b63d 6eba 56be a94a 783e
000002c0: 4f95 6e3d 650a 813d 2748 633d 88d7 513e
000002d0: 4af3 f73d e66e d4bd 70fb 6abe 8f47 523e
000002e0: 55bf cdbd 121b 803e 611f 1ebc ba76 5a3e
000002f0: 6eab 543e 7409 b03d 3612 65bd 75d9 c0bd
00000300: 6997 d5bd ed66 df3d fe8c 5cbe c87f 663e
00000310: 6a32 493e 2a94 52bd 687c 6a3e 68c4 afbe
00000320: 958c a23d 8576 8ebd 53d6 8c3d a615 843b
00000330: 6f75 83bd 82ea a0be a1d2 febd ee58 ee3d
00000340: 8051 e83d 5bbc 5b3b 65f6 7a3b c81a d73d
00000350: 43f1 9e3c f76f 3c3d 61ff ee3d 903d 063e
00000360: 1479 92be 51af e0ba 6847 413e 8a8a 563e
00000370: abd5 a9bd f286 d8bd 9049 f4bd 1c54 aebd
00000380: 2cdb 723e 6cfd 91be 61b9 753e 2123 5abe
00000390: 1a9a 2dbe c5a8 e63d a992 833e 468d 8d3e
000003a0: 3b68 763e e6f1 b53d 84f1 ad3b ef9e 81bd
000003b0: 5e0e 04be 4127 a2bd 0f26 29be 9461 a3bc
000003c0: 400b 633e c04f fd3c 1200 9dbd 0839 083d
000003d0: ac48 1a3e f69c a9be d1d1 123d 991e 1f3e
000003e0: a28c aa3d 239d 33bf 215a 8fbd ebaf 93be
000003f0: 7ea7 f03c a900 d5bd 0cb6 55be b637 ebbd
-0.1633832 0.03865966 -0.041979294 0.12780125 0.28004125 -0.07550413 0.32053208 0.12782566
-0.38345578 0.15839918 -0.08921166 -0.0006412515 0.1838547 0.15962026 0.16288438 -0.27955624
0.131717 0.089671485 0.024133377 0.031274624 -0.12763947 0.14568014 -0.12763768 -0.01612656
-0.20498869 -0.1826577 0.29226664 0.38617158 0.3802497 -0.29091147 0.19830248 -0.28310803
0.09575455 -0.00911663 0.06948197 -0.0730089 0.04213861 0.022784887 0.047105785 -0.20712325
0.24440075 -0.32375422 0.17722107 -0.18594766 -0.24947537 -0.20281355 -0.24042086 -0.063390486
0.27454603 0.32539654 -0.1380942 -0.30730578 -0.11840015 -0.07295188 -0.27420005 0.20328943
-0.2467419 0.24430202 0.033340268 0.08644201 0.05952959 -0.0467787 -0.108743995 -0.08261795
0.1499737 -0.15149237 -0.050361764 0.17691351 0.22581682 -0.15940036 0.09647753 -0.14034593
0.23180908 0.10642895 -0.0073024025 -0.019684782 -0.16304685 0.10837173 0.15192682 0.12991156
0.18073957 0.18761316 0.034864794 -0.32590908 -0.08334284 0.13367337 -0.09173309 -0.2646288
0.16393305 0.22609253 0.005978143 -0.10182236 -0.12218505 0.15145028 -0.10729023 -0.12121948
0.10198339 0.055731036 -0.010161618 -0.20310639 -0.14044032 0.13719076 0.055565726 -0.053366046
-0.016624779 -0.10037944 -0.14406177 -0.08105848 0.16565245 -0.1558582 -0.34118828 -0.0810369
0.1424309 -0.29276013 0.057249527 0.2443208 -0.11345233 0.08775139 -0.079941496 -0.17020263
-0.07318059 -0.016653342 0.34480107 0.3629189 0.011670285 -0.01138714 0.15981086 -0.25500453
-0.16653791 -0.27633643 -0.12813862 0.055022087 0.022704527 0.1356207 -0.14320269 -0.052211598
-0.21267977 -0.17447877 0.2443755 0.005711315 0.030375458 0.17493637 -0.15538743 -0.1560477
0.026678609 -0.04229356 -0.04046852 0.28903237 0.084194295 -0.13659513 0.063335724 0.0032815011
-0.10789523 0.38559777 0.025531167 -0.048254978 0.19414279 -0.024347879 -0.023784662 0.19543055
0.028132603 -0.036837034 -0.14900124 0.029642323 0.15856135 0.077047884 0.1608619 0.1806786
-0.06346185 0.17346343 0.07045205 0.06610238 0.1606882 0.089325964 -0.20969555 0.2424723
0.05824786 0.06300811 0.05548873 0.20492375 0.121069506 -0.10372715 -0.22947478 0.2053511
-0.10046259 0.25020653 -0.009651036 0.21334353 0.2076852 0.08595553 -0.05592557 -0.09416477
-0.1042927 0.109083034 -0.21538159 0.22509682 0.19648138 -0.05141083 0.2289902 -0.34329534
0.0793697 -0.069561996 0.068768166 0.004030901 -0.06418883 -0.31428915 -0.12442518 0.11638056
0.1134367 0.0033529017 0.0038293835 0.10503155 0.019402152 0.046005215 0.116698034 0.13109422
-0.28608 -0.0017142092 0.18874896 0.20951286 -0.08292707 -0.10572614 -0.119280934 -0.08512136
0.2371642 -0.28513658 0.23996498 -0.21302463 -0.16953316 0.11262659 0.2569783 0.27646846
0.24063198 0.08884029 0.005308332 -0.06329142 -0.12896106 -0.07917643 -0.16518424 -0.01994399
0.2217226 0.030921817 -0.07666029 0.033257514 0.15066785 -0.33127564 0.035844628 0.15539016
0.08327605 -0.70161647 -0.069996126 -0.28845152 0.029376741 -0.104005165 -0.20870227 -0.114852354

predictor.net.1.bias f4 [32]
00000000: 77d9 91bd f957 fabd 47a5 1cbe daf5 d9bd
00000010: eeee ee3d e9f5 d7bd dabb e73d d9d0 f43d
00000020: d490 033e 3023 09be 4991 f53d 59bc d83d
00000030: 8a4c b0bd fc50 033e a581 1fbe 2f15 d6bd
00000040: e420 6f3e c918 2abe a161 cebd ac40 e23d
00000050: 39d1 d8bd cd50 05be 5e0c efbd 1109 043e
00000060: 2981 05be 08b5 1d3e 530b d33d 441b efbd
00000070: 8424 e13d ef74 d03d 154f d2bd 421f f83d
-0.07121556 -0.12223811 -0.15297423 -0.106425956 0.11666666 -0.105449505 0.11315127 0.11953897
0.12848216 -0.13392329 0.119906016 0.105827995 -0.08608349 0.12823862 -0.15576799 -0.10453259
0.2335239 -0.16611017 -0.10077215 0.110474914 -0.10586781 -0.13019104 -0.11672281 0.12894084
-0.13037552 0.15401089 0.10304894 -0.116751224 0.10993293 0.10178553 -0.1026899 0.12115337

predictor.net.3.weight f4 [1, 32]
00000000: b0fb b6bb a1e6 9fbe 6dae f4bd bf40 38be
00000010: aa8f f43d 0481 8fbe 0261 9a3e 135c 8b3e
00000020: 4131 8e3e fa59 17be c6e3 1e3f 02d2 fc3e
00000030: c7d2 83bd 8f71 213e d123 50bd 4c60 05be
00000040: 8b11 cb3d 647d 7abd 8bac b7bd 595a 9c3e
00000050: e893 3cbe adf0 b3bd 10cb 80be 94e9 ac3d
00000060: 8df0 10be d5c1 e93d e94a eb3d 6031 1dbe
00000070: 15b7 c23e 6de6 e43d 4d5e dcbe 2def c93d
-0.0055842027 -0.31230643 -0.119473316 -0.17993449 0.11941464 -0.2802812 0.30152136 0.27218685
0.27771953 -0.14780417 0.62066305 0.49378973 -0.06436687 0.15765975 -0.050815407 -0.13025016
0.099154554 -0.061154738 -0.08968457 0.3053768 -0.18415797 -0.0878614 -0.25154924 0.08442989
-0.14154263 0.11413924 0.11488897 -0.15350866 0.38030306 0.11176763 -0.43040696 0.09860072

net.0.weight f4 [60, 35]
00000000: a56a c03d 799d c9bd 8dbe 813d 4d12 263e
00000010: 7b7e 28ba 9874 14be d5a4 3ebe b32b 2d3d
00000020: 27d3 d6bd 281e 51bd f29f 65be 4806 c8bb
00000030: aa96 45be 36b0 923e 726a 873d 3e12 a53d
00000040: 2ef9 80bb 943d 973e c34c 2a3e 529c fd3c
00000050: 7d6e a9bd 21e2 643d 13dc 1a3e ffc5 143e
00000060: 4ebe 933d f966 82bd 2c79 63bd 2f6b ce3e
00000070: fd4a 033e 3ce9 1abe ddb6 163d d875 503b
00000080: 1782 343b 5b6d 2dbe 2714 92bd 1277 213e
00000090: 5663 4ebe 4ef0 f63d 8488 73be 9c50 8fbe
000000a0: d66f f43d eccf 0d3c 611f 173e b3bd d73d
000000b0: 0bcd 293d 5af0 3b3d 491a 2f3d 4230 9abd
000000c0: 8f9a 8d3e 0402 1b3d e28c 153e 5e04 57bd
000000d0: 8777 5f3d c21a 253e 9a01 6d3d 9d99 58bd
000000e0: f781 1c3d 9726 433e 17b1 9abd 1ad2 9b3e
000000f0: eaf7 513e b068 39be ffa6 8ebd 6ca5 883e
00000100: f090 103d 75bf 3cbe 2f39 a9bb 6460 cebc
00000110: 6786 4a3e d217 52be 2508 28be daec e0bd
00000120: ce0d 4bbd ef6d 7ebe 2bf0 083e 154d 6dbd
00000130: 3147 75be 0313 5dbe 891f ab3c ae4d c2bd
00000140: 0c28 f4bd a661 da3d 466b b8bd 82e7 8ebd
00000150: 9a07 813e e122 213e 4632 a6be 0ba2 43be
00000160: d268 243e fd9e 903d 9871 19bd b9f2 15bc
00000170: e68b 1b3e aed4 55bc 15b3 edbc c41c 963d
00000180: 1593 1d3c 528e 683e e9fb c4bc d995 f13d
00000190: beaa e539 ab3c 81bd 285a 18be d46d 3dbe
000001a0: dcca e3bd f821 bc3e bfcc 873e 2b36 463d
000001b0: aa89 21bd 51b6 733e f6ec 2dbe ba37 c9bd
000001c0: bbfe 813e 700e 7f3d 62d1 fc3d 6121 eebd
000001d0: 59c1 c93d dd1d 803e bf14 1d3e 6325 d53b
000001e0: c6b0 4ebe 1336 b73d 9e6e 97be dc83 e1be
000001f0: cb28 0c3e 528e d7bd 7f2b 533c 2b8b b43d
00000200: 2c72 d7bd 7c4b 0a3c 898d dfbd 3465 793e
00000210: 4b6f 0d3e cb09 e13d 9eab f6bc 2aa0 133e
00000220: f9d6 adbc 86b5 63bc 9624 74bb 13fe 5ebe
00000230: 98d7 cd3d f98a 203e 52e8 a13c c3fb 1b3d
00000240: adc0 02be 097a 5bbd 5642 aabd c234 b2bd
00000250: 4b3e 363d 4f81 ff3c 92f1 73bd 460b 84bd
00000260: 1dc4 debc 0503 f63d f80d 40bd 3656 643d
00000270: 1b3a 763c 5bba a9bd aaf0 1ebd 29e5 d23d
00000280: fec6 43be 4e38 9b3c 66cb 17bd 1f8e b33e
00000290: b1a1 bfba 5999 813d 948e 7e3e 59ce d9bd
000002a0: a65b 05b9 a101 38be 837c 2ebe 8bb5 323d
000002b0: 2b68 00be 5722 33be 7fcf 47bd 9922 d53d
000002c0: 08f8 a13d 8eb7 4bbe fdf5 3e3e eb5e 1e3e
000002d0: 6973 44be c93d 303e 8137 e53d d375 e93d
000002e0: 94e9 f8bd e295 9b3c 0baa 59be d08f e03d
000002f0: f525 23be 5141 a93c 5496 f13c f01c 29be
00000300: 6039 d33b 7513 9cbd 43f2 223e 643c 41be
00000310: 88cc 89be 098e c03d b747 c13d ed66 683d
00000320: 10ab fbbd 57c4 a33e f96d ba3d 215c 02be
00000330: a16f 09be e7d7 e73d 4081 35be 124d 14be
00000340: ab2b 4abe 3b66 9dbd ff54 25be 344d 0cbe
00000350: 0a26 d13c ea62 943c 233c ddbb f0d8 053e
00000360: 3969 c53d e006 2ebe 7b63 24bb b836 553d
00000370: e8c9 0c3d 63ce 00bd 464e ca3d bb01 7c3e
00000380: 185b 29be 9131 babe b643 1bbe d4f4 2ebe
00000390: d536 af3d d158 c13d 4eec 69bc 8b8e 393e
000003a0: 9e04 693d 21c6 8ebd fd22 b9be 0311 143c
000003b0: 0e11 39be 6726 4fbe 4ac4 ac3c 1d3e 7fbc
000003c0: 33bc 853c 5b61 d7bd 09da 1d3e 5ef7 f1bd
000003d0: 6589 ff3b 209f 01be 341b 4f3d 6a6c 28be
000003e0: 879b a6bd a9fc eabc dec7 3abe 04f3 2d3e
000003f0: fad6 95bd b750 183e f0ae 613e fb65 69be
0.09395341 -0.09844489 0.06335173 0.16217919 -0.00064275385 -0.14497602 -0.18617566 0.042278003
-0.10489493 -0.05105415 -0.22424296 -0.0061042644 -0.19295755 0.28650063 0.066121 0.0806012
-0.0039359545 0.29539168 0.16630845 0.030958328 -0.08273027 0.055879716 0.15123014 0.14528655
0.07214032 -0.06367297 -0.05553548 0.4031615 0.12821575 -0.15128034 0.036795486 0.0031808522
0.002754336 -0.16936247 -0.0713275 0.15768078 -0.20155081 0.12057553 -0.23782545 -0.27991188
0.119353935 0.0086555295 0.14758064 0.10534229 0.04145531 0.045883514 0.042749677 -0.07528736
0.2765698 0.03784372 0.14604524 -0.0524944 0.05455735 0.16123489 0.057862855 -0.052880872
0.03820988 0.1905769 -0.075533085 0.30433732 0.20504728 -0.18106341 -0.06965446 0.26688707
0.035294473 -0.1843241 -0.0051642875 -0.025192447 0.19777833 -0.20516899 -0.16409357 -0.10982676
-0.049573712 -0.24846624 0.13372867 -0.05793484 -0.23952939 -0.21589284 0.02088906 -0.094874725
-0.11921701 0.10663156 -0.09004836 -0.0697775 0.25201112 0.15735961 -0.3246023 -0.19104783
0.16055611 0.070615746 -0.037461847 -0.009152108 0.15190086 -0.013051195 -0.029016057 0.07329705
0.009617587 0.22710541 -0.024045901 0.11796159 0.00043805497 -0.063103996 -0.14878142 -0.18498927
-0.11122677 0.36744666 0.26523396 0.048391502 -0.039437927 0.23800017 -0.16984925 -0.09825082
0.25389656 0.062269628 0.12344624 -0.1162746 0.09851331 0.25022784 0.15339945 0.006504701
-0.20184621 0.08945861 -0.29576582 -0.44045913 0.13687436 -0.10525192 0.012888788 0.08815607
-0.105198234 0.008440848 -0.109156676 0.24355012 0.13811986 0.10988196 -0.03011113 0.14416566
-0.021220671 -0.013898259 -0.0037253252 -0.21776609 0.10050887 0.15678014 0.0197641 0.038081896
-0.12768812 -0.05358318 -0.08313434 -0.08701469 0.044493 0.031189589 -0.05955655 -0.06447463
-0.027193123 0.12012295 -0.04688832 0.05574628 0.015028502 -0.082874976 -0.038803734 0.10297615
-0.19118878 0.018947747 -0.03705921 0.35069367 -0.0014620331 0.06328077 0.24859077 -0.10635061
-0.0001271801 -0.17969371 -0.17039685 0.043630164 -0.12539737 -0.17493568 -0.048781868 0.104069896
0.07908636 -0.1989424 0.18648525 0.15465896 -0.1918465 0.17211069 0.11192227 0.11399426
-0.121539265 0.018992368 -0.21256272 0.1096493 -0.15932448 0.020661028 0.029490627 -0.16514945
0.0064460486 -0.07620899 0.15912728 -0.18870693 -0.26913857 0.09402091 0.09437507 0.056738783
-0.12288487 0.31985733 0.09103007 -0.12730457 -0.1342149 0.11320477 -0.17725086 -0.14482525
-0.1974322 -0.076855145 -0.16145705 -0.13701326 0.025530834 0.018113572 -0.0067515536 0.13071036
0.0963921 -0.1699481 -0.002508371 0.052054137 0.03437224 -0.031446826 0.09878211 0.24610035
-0.16538656 -0.3636594 -0.15162548 -0.17085582 0.0855538 0.094407685 -0.014277531 0.18120782
0.05688917 -0.06971384 -0.36159506 0.009037259 -0.18072912 -0.20229493 0.021089692 -0.015578774
0.016325092 -0.10516616 0.15415205 -0.1181476 0.007798361 -0.12658358 0.050563052 -0.16447607
-0.08135133 -0.02868493 -0.18240306 0.16987234 -0.07316394 0.1487454 0.2203939 -0.22792809

net.0.bias f4 [60]
00000000: b4d4 01be 662c 0c3e e406 be3d 909e b23c
00000010: c5f0 0e3e 0020 613d 3ae3 19bc 33a5 e63d
00000020: c12f 323d 2ccc 86bd 6073 093c 7a62 2d3d
00000030: 7713 f13c 394d d23d 21b3 c23c 9fd9 2fbc
00000040: 9c58 cbbd b092 9ebd 1c30 713d 41bc 103e
00000050: 75d9 9abb c0e3 8f3d b336 f33d 8405 c03d
00000060: 6bf9 cebd ed6c ed3d 88a6 2b3e a523 54bc
00000070: 7688 16be 3abc c0bd 3ccf f8bd 09ed a53d
00000080: 25c7 e0bd 399e 493c 46ad ecbd e793 aebd
00000090: daa0 f0bd 447d 1a3e 0358 c93d 5195 4fbb
000000a0: d345 233e c5a4 a33d ace9 433c 5de1 15bd
000000b0: d156 833d d633 06be 4bf8 2d3d 95ea 75bd
000000c0: cacb 953a 151e 323c a019 793d 8ab7 dabd
000000d0: 685f a93d 1dab 94bd 844d 113e a305 bfbd
000000e0: 43db d03c bea4 313e a130 1dbd afce 10bc
-0.12678796 0.13688812 0.09278658 0.021804124 0.13959034 0.05496216 -0.009392554 0.11261978
0.043502573 -0.065819114 0.008389324 0.042330243 0.029428227 0.10268635 0.023767056 -0.010733037
-0.0992901 -0.07742822 0.05888377 0.14134313 -0.00472563 0.07025862 0.118756674 0.09376052
-0.101061665 0.115930416 0.16762745 -0.012947951 -0.14700493 -0.09410901 -0.12148902 0.081018515
-0.10975484 0.01230579 -0.11556487 -0.08524304 -0.1174943 0.15086848 0.0983124 -0.0031674693
0.15944605 0.07990412 0.011957567 -0.036591876 0.06413043 -0.13105711 0.04247312 -0.060038168
0.0011428532 0.01087143 0.060815454 -0.106795385 0.082701504 -0.072592 0.14189726 -0.09327247
0.025495177 0.17348 -0.038376454 -0.00883834

net.2.weight f4 [60, 60]
00000000: bc42 c5bc 6064 0d3e 2d05 c8bd b073 e8bd
00000010: e8af 70bd 52ee 9f3b 32a5 0b3d 39fd 883c
00000020: 19cd c43c 3814 6a3b dd8d fbbd 5ffc 28be
00000030: 46ad dbbd b859 0cbe ec7f 0a3e 1654 c3bd
00000040: ea16 5a3e 340b 3abc 2c8b 833d 071c fabd
00000050: 014f a63d d441 c23c 180a 8e3d f4ef 4fbd
00000060: 644b f93c d83f 17bd b67e b53d 8a34 7fbe
00000070: 41ef 3a3e 3fcd a7b8 64c4 ca3d 2b38 063d
00000080: 6df6 d6bc 3873 c8bd 8203 c5bc cdaf 04be
00000090: 038f 16be ca72 493d dafa 563e 2e8e 0b3e
000000a0: bd91 9f3b 4523 1fbe b464 61be b472 b33d
000000b0: 2bd4 1b3d 8a9e 853c 806c 6bbd 2b35 fdbc
000000c0: c0bf 91bd b009 e2bd c41b 2cbe 737d c23d
000000d0: 9e29 643d 2f37 393c 1491 3abe 7470 38be
000000e0: 5d0c 00be 9ff1 273e 0f7c a13c 263e 88bd
000000f0: 6170 34be 2ffb 0ab6 a07c 243e ff95 febd
00000100: b71d 803d a54b 34bd afd4 05be 71b9 4b3e
00000110: 3049 1b3c ae86 053e edd5 abbe f63e 1bbd
00000120: 6559 7e3e e7c5 513e 593d 003e 133e b2bd
00000130: 6d74 633e dd83 35bc a1dd 293d bf95 0d3e
00000140: cd36 a03d 7147 6cbe 2bd3 ce3e 39c8 81bd
00000150: eb80 3d3e 06c0 94bd 9852 c1bb 1246 b9bc
00000160: 90f6 f4bd 21d9 b33d 51c4 6e3e 81bb 98be
00000170: 95e3 69be 54e9 0ebe d210 f73d 4f9e 733e
00000180: 1e27 a23d 7708 2f3d a038 68be 39c4 e23d
00000190: 6d03 1b3e 9086 a83d 3d16 ee3d 098e 89bd
000001a0: a967 113e a93d bb3d 0806 5bbd eca5 8fbe
000001b0: 6a91 a0bd 95a4 183e 7517 053e 86c2 64be
000001c0: 5f97 50be e707 47be 5adc 133d 2cea be3b
000001d0: c537 603e 06dc 4cbd 4418 f0bc 5be8 2d3d
000001e0: f463 dc3d ee2f 213e 0f08 d03d f304 c7bd
000001f0: 431b 813e af7b cabd 73b2 babd 9ee1 e0bd
00000200: a71d 09be bcbb 9cbd bb7c 6e3d 5355 933d
00000210: 82b0 9dbe 7b43 5f3d 5857 4cbe d51c c13b
00000220: af36 5a3e 17a0 3bbe 973a 253e 63f5 edbd
00000230: a9f9 eb3c d414 adbd 585b 103c 61ed 7e3e
00000240: 9294 e3bb 01f7 3d3d f5b7 9fbc 29a0 02bc
00000250: d231 cd3c bb9a 5ebe e147 96bd dc8b e9bd
00000260: ffec 3d3e 016c d5bd 875c 9abc 0bb1 213d
00000270: b79e 143e 3be9 a43d 61c7 ee3d 35ea 23bd
00000280: f83f ae3d d3e4 cd3d 540a f03b 8862 103e
00000290: 0bfa 303e 9e36 163d f93a 11be 7cfb ebbd
000002a0: c15b 4b3e 4133 a13e 2fe9 013e b9ce 62be
000002b0: 28ea c9bd f444 5a3e a37e e1bc 0937 c3bd
000002c0: 9e72 02be 9d34 a7bd b041 b0bd 48f2 e4bb
000002d0: 5e6c 81bd cfab ecbd 8ee0 83bd e6e1 0abd
000002e0: 0b8a bd3d 9237 b4bd 96f2 f53c 40dc 11bd
000002f0: 69c7 aebd d0bf 15bd 6dfe cd3d 0ce1 e13d
00000300: 3dca e0bb aa92 9cbd e337 79bc 870d 5d3c
00000310: 08bb 2b3e 1d92 1dbe 3caa 523d 11b6 82bd
00000320: 85c9 393e cbdd b1bd 15bb 123d d481 71bc
00000330: e864 62b7 7db3 eebd 7f7f 793e 1400 77bd
00000340: e3f7 e83d 06a4 283e 3b3c 9fbe fdb9 2b3d
00000350: e60e fc3d d301 f13c 4dd0 003d 8d2d 1b3d
00000360: cceb 32be b678 1f3e 2c80 4e3e c333 6cbd
00000370: 5197 5b3d 0c0d 08bd 622f 65be 3cdb b13d
00000380: 4db2 8e3d a534 d5bd e4a6 52be 3983 513d
00000390: dec8 b3bd e9a9 193e 025c b0be edaf d9bd
000003a0: f4fb 713e 1979 8bbd 1234 f33d 683a 493d
000003b0: 3155 673e 4c8d d13c 06c3 a9bd fc15 083e
000003c0: d2ee c33e d6d9 e33d 1ee2 00be 6851 2bbe
000003d0: 1ecc 3c3c 4e62 6abb ba00 9ebc f11c db3d
000003e0: 243c 89bd 90a1 103e a599 1c3e 7258 dcbe
000003f0: 6084 773e c24c 30bc a28a 5b3e 94bf b3bd
-0.024079673 0.13807821 -0.09766612 -0.11350191 -0.058761507 0.004880705 0.03409309 0.016722308
0.02402358 0.0035717618 -0.12282918 -0.16502522 -0.10726409 -0.137061 0.13525361 -0.095375225
0.21297804 -0.01135521 0.06423029 -0.12212377 0.081205375 0.02371303 0.06935519 -0.050765947
0.030431457 -0.03692612 0.08862059 -0.24922386 0.1825533 -8.0014106e-05 0.0990074 0.03276841
-0.026240552 -0.09787601 -0.024049524 -0.12957688 -0.14702992 0.049181737 0.2099413 0.13628456
0.0048696683 -0.15540798 -0.22011071 0.08762112 0.038044136 0.016310949 -0.05747652 -0.030909142
-0.071166515 -0.11037004 -0.16807467 0.09496584 0.05570375 0.011304661 -0.18219405 -0.18011647
-0.12504716 0.16400765 0.019712476 -0.06652479 -0.17620994 -2.070981e-06 0.16063166 -0.12430953
0.06255668 -0.044017453 -0.13069414 0.19894959 0.0094778985 0.13039657 -0.3356165 -0.03790184
0.24838789 0.2048565 0.12523402 -0.08703246 0.22212382 -0.011078802 0.041471127 0.13826655
0.078229524 -0.23074128 0.40395483 -0.063370176 0.1850621 -0.07263188 -0.0058997385 -0.02261642
-0.119610906 0.087816484 0.23317076 -0.29830554 -0.22840722 -0.13956195 0.12063755 0.23790859
0.07917617 0.042732682 -0.2267785 0.11072583 0.15138026 0.08228791 0.11625335 -0.06716544
0.141997 0.0914262 -0.05347255 -0.28056276 -0.078402355 0.14906533 0.1299723 -0.2233983
-0.20370243 -0.19436608 0.036098816 0.0058262553 0.21896274 -0.05001452 -0.029308446 0.04245792
0.10761252 0.1574094 0.10157787 -0.09717741 0.25216112 -0.09886872 -0.09116068 -0.10980533
-0.13390218 -0.07652995 0.05822442 0.07194009 -0.30798727 0.054507714 -0.19955194 0.0058933296
0.21309923 -0.18322788 0.16135632 -0.116190694 0.02880557 -0.08451238 0.008810841 0.2489524
-0.006945201 0.04637814 -0.019496897 -0.0079727555 0.02504817 -0.21738712 -0.073379286 -0.11403629
0.18547438 -0.10420991 -0.018842949 0.039475482 0.1451367 0.08052298 0.11659122 -0.04001828
0.08508295 0.100534104 0.00732545 0.14100087 0.17282884 0.03667318 -0.14182653 -0.11522576
0.1985922 0.31484416 0.12686609 -0.22149171 -0.09859115 0.21315366 -0.027526205 -0.095319815
-0.12739035 -0.08164332 -0.08606279 -0.00698689 -0.063194975 -0.115562074 -0.06439315 -0.03390684
0.09254845 -0.08799662 0.0300229 -0.035610437 -0.08534128 -0.03655988 0.100582935 0.110292524
-0.006860046 -0.076451614 -0.015211078 0.013491995 0.16770566 -0.15387769 0.05143188 -0.06382383
0.1814328 -0.08684882 0.035822947 -0.014740426 -1.3494144e-05 -0.116553284 0.24365042 -0.06030281
0.11375406 0.1646882 -0.3110064 0.04192542 0.12307529 0.029419815 0.03144865 0.037885237
-0.17472762 0.15573391 0.20166081 -0.05766655 0.053611103 -0.033215567 -0.22381356 0.08684394
0.06967602 -0.10410432 -0.20571476 0.051150534 -0.08778547 0.15006222 -0.34445196 -0.10629258
0.23631269 -0.06810207 0.11875166 0.049127966 0.22591092 0.02558007 -0.08289151 0.13289636
0.38268143 0.11125533 -0.12586257 -0.16730273 0.011523275 -0.003576416 -0.019287456 0.106988795
-0.06700924 0.14124131 0.15292986 -0.43036228 0.24171591 -0.010760488 0.21439603 -0.08776775

net.2.bias f4 [60]
00000000: 53ef dc3a ec66 a03d c9cc 09bd eb0c 87bd
00000010: ff83 91bd ab6f 1b3d cc90 323d 65d4 c0bd
00000020: 1e19 c0bd 30b6 0fbc 8de0 4cbd 6a54 d1bd
00000030: 87e9 053e e5a7 a4bd 4bb8 ca3d 461a 0bbc
00000040: 96f1 37bd 98d2 743d 4ea7 ed3d a281 c5bd
00000050: b290 713d 3807 85bd 204d 67bd 9b5f f7bc
00000060: 65bb c13d d5da 85bc ed06 bb3c 7042 0bbd
00000070: aa38 0cbe d7af 203d 94ec b5bd b54d 89bd
00000080: 2ff8 9e3d 7f5a d63d e373 c13d e706 5f3d
00000090: 2ae7 9dbd 07a1 b13d 79e1 d93d 50e0 c23d
000000a0: 695a 203c dbff 85bc 584a c33c 0a58 ea3d
000000b0: 518a 2d3d e5b4 c0bc 041a 7c3d c0af 11bd
000000c0: f5aa e23c fa1f 6c3d f8b2 e9bc 2519 863d
000000d0: 69b7 39bd c23a d73d 38f3 ceba e0ee cb3d
000000e0: 8a9a 42bd a326 4d3d e70d e43d c2f9 fbbd
0.0016855992 0.07832131 -0.033642564 -0.06594261 -0.071052544 0.03794829 0.04359512 -0.09415511
-0.09379791 -0.008771464 -0.050018836 -0.10221179 0.13077365 -0.08039836 0.09898432 -0.008490151
-0.04490813 0.05977115 0.116041765 -0.09643866 0.058975883 -0.064955175 -0.056470037 -0.030196955
0.09459571 -0.016339699 0.02283045 -0.033998907 -0.1369349 0.039230194 -0.08883014 -0.067042746
0.07762181 0.104664795 0.09445932 0.054449942 -0.07710107 0.08673292 0.106387086 0.095154405
0.00978718 -0.016357353 0.02383916 0.11442573 0.042368237 -0.023523757 0.061548248 -0.035568
0.02766941 0.057647683 -0.028527722 0.06547765 -0.04534093 0.10509254 -0.0015789038 0.09957671
-0.04751066 0.050085675 0.11135464 -0.12303497

net.5.weight f4 [1, 60]
00000000: 8d31 2abe b73b 443e 31a6 2f3e 3862 d63c
00000010: 78e6 063e 85b2 6f3e 05bb 82bd 2acc 9a3d
00000020: e0d1 3cbd 2c19 1f3e a6d7 613e f8fa 6a3d
00000030: 98f3 fbbd 882a 82bd 0f5c 39be a175 e5b9
00000040: 06bf b2bc 23f0 11be 327e a73c 20cb 63be
00000050: 1ee3 353e 5916 ac3d 2c61 853c cbcd c6bd
00000060: 9581 a53e 863b 0cbe fbed 0d3c aa52 123d
00000070: be36 cfbb e214 d2bc b726 cb3b 9df2 813e
00000080: 03a7 cfbe 7763 63bc 427a 1fbd b162 073d
00000090: d918 abbd c4ec 50bd c0b8 0abc 8bdb 373e
000000a0: 8101 53bc 09c5 fcbd acaa df3e 681a 81bd
000000b0: ec73 da3d 9118 e53d f038 3abe e5b9 87be
000000c0: 1d78 fb3d e0f2 3fbe 4014 07be 4445 073e
000000d0: 31a4 e2bd 6088 0bbd 70fe e1bb 5874 e33c
000000e0: 69b0 c63c bd16 233e 92fc 573e b1d1 c9bc
-0.16620465 0.19163404 0.1715324 0.026169881 0.13173854 0.23407944 -0.063833274 0.075584725
-0.04609859 0.15536946 0.2205492 0.05736825 -0.12302321 -0.063557684 -0.18101524 -0.00043765924
-0.021819603 -0.14251761 0.020445917 -0.22245455 0.1776242 0.084027 0.016281687 -0.09707221
0.32325426 -0.13694581 0.008662696 0.035723366 -0.0063236644 -0.025644723 0.0061996835 0.25380412
-0.40557107 -0.013878695 -0.038934954 0.033053104 -0.08354349 -0.051007047 -0.008466899 0.17954843
-0.0128787765 -0.12342269 0.436849 -0.06303865 0.106666416 0.11186326 -0.18185782 -0.26509014
0.12278769 -0.18744993 -0.13191319 0.13210016 -0.11066473 -0.034065604 -0.0068967864 0.027765438
0.02425404 0.15926643 0.21092442 -0.024636121
