results of reviewer/XJTU results/0-0/Experiment9/model.pth (torch, 59838 bytes, 14 tensors)

encoder.net.0.weight f4 [60, 17]
000000 a5 12 a8 3e 61 2f f3 bd 15 df 17 3e 3c 93 2c be
       0.32826725 -0.11874271 0.14831193 -0.1685304
000010 19 d4 bb 3d 50 d8 61 3d 5e a0 28 bc ca fa a6 3d
       0.09171314 0.055137932 -0.010292141 0.08153303
000020 8e d0 0c 3c 10 48 8b 3d ab ca 3b 3e aa d2 88 3e
       0.008594645 0.06800854 0.1833903 0.26723224
000030 49 d8 87 bd 65 a0 d7 bd b1 9e 1d 3e 03 03 ae 3d
       -0.0663305 -0.1052864 0.15392567 0.08496668
000040 47 a9 29 3d 05 7d 2a be 0c 7c 66 be 4d c1 da 3d
       0.0414212 -0.16649254 -0.22508258 0.106814004
000050 0f 59 62 be d8 69 fb bc ba cb d1 3d 3f 9c 1b bb
       -0.22104286 -0.030690119 0.10243936 -0.0023744253
000060 ca 15 08 3e 18 9e 0b 3e 03 09 d4 bc 59 20 8f bd
       0.13289562 0.13634527 -0.025883203 -0.06988592
000070 85 fc 50 3e 54 cb 49 3c 60 52 05 be 27 52 2d bc
       0.20408829 0.012316544 -0.13019705 -0.010578669
000080 34 03 57 be 8b 41 f2 3d 3a cf ef 3c 33 89 36 3e
       -0.20997316 0.118289076 0.029273618 0.17825775
000090 8a 72 ec 3b 0c e4 94 3d 78 1d bc bd 85 bf 85 3e
       0.0072158026 0.07270059 -0.09185308 0.2612268
0000a0 ef f5 ec bd 22 78 92 be f2 d7 2c 3e 52 2e 3c be
       -0.115703456 -0.2860728 0.16879252 -0.18377045
0000b0 2f 58 93 3c dc 18 f4 be 0d 0d 54 3e e5 86 d3 bd
       0.017986385 -0.47675216 0.20708103 -0.103284635
0000c0 38 90 41 3c a0 3f 85 be 0e be 94 bd bf 0c 3e be
       0.01181417 -0.26025105 -0.072628126 -0.1855955
0000d0 71 82 97 3e d7 b4 8a be 29 77 ec 3d 3d 31 89 be
       0.29591706 -0.27091095 0.115461655 -0.26795378
0000e0 fc ff 01 3e 1f 68 01 bd 28 95 84 bd fe a2 00 3c
       0.12695307 -0.03159344 -0.06473762 0.00785136
0000f0 4c 98 60 3e 16 a5 4a 3e 2d a7 ed bd a4 13 ae 3d
       0.21933097 0.19789538 -0.11604152 0.0849984
000100 7d 2c ec bd 07 28 ae bc a3 a7 ff bd 07 d1 52 3d
       -0.11531923 -0.02125932 -0.12483146 0.051468875
000110 1d c1 45 be 1f 0b 0a be 3b 0e b7 bd c3 17 46 3e
       -0.19311948 -0.13480805 -0.08938261 0.19345002
000120 8f 43 40 3e 79 48 18 3e 64 d1 8d 3d c6 f7 ef bc
       0.18775772 0.14871396 0.06924704 -0.029292952
000130 59 b9 1c 3e 42 fc 85 be e8 dc 9b bd 5d 52 aa 3d
       0.1530508 -0.2616902 -0.07610494 0.08316491
000140 3d b9 07 3e 1b 64 b5 bd 69 8a 86 3e 88 c2 ab bd
       0.13254257 -0.08856984 0.26277474 -0.08386713
000150 72 a3 1d be d9 23 74 3d 7c 2e 90 bd b9 71 d9 bd
       -0.1539438 0.0596045 -0.07040116 -0.10617394
000160 9a a6 a2 3d 74 6c fe bd 87 68 02 be 60 c9 47 be
       0.07941933 -0.124230295 -0.12735187 -0.19510412
000170 9f 1f b0 3d ba 1e a3 3d 03 3b 2d be 73 a6 22 3c
       0.08599781 0.07964845 -0.16917042 0.00992738
000180 da 76 aa 3b 4c e9 fb 3c 49 c9 16 3d f1 2b ee 3d
       0.0052021565 0.030750893 0.036813054 0.11629475
000190 d9 14 ee be fc 40 e5 3d 42 6b 14 3e bb 7e e6 3d
       -0.4650028 0.111940354 0.1449404 0.11254641
0001a0 6e c5 f1 3e 47 e8 c7 bd eb d4 5d bc 0c 02 83 3d
       0.4722094 -0.097611 -0.013539533 0.06396875
0001b0 b7 a4 d5 bd 12 99 f1 bd 98 dc 95 3d 3b 2d 83 3d
       -0.104318075 -0.11796774 0.073174655 0.064051114
0001c0 4f e8 b9 3d 13 21 72 3e 1e fa 70 3e 8e 0d 0a be
       0.090775125 0.2364543 0.23532912 -0.13481733
0001d0 e4 98 86 be fa 2f d0 3d e3 b3 ee 3d 4a 1b 30 3e
       -0.2628852 0.10165401 0.116554044 0.1719791
0001e0 78 5c db bd 5c 0b a1 3d 5a 42 0a 3e 0c 15 97 3d
       -0.107109964 0.07863495 0.13501874 0.07377061
0001f0 ba 32 cc bc 2f 32 e0 bd 15 4c 80 3c 25 e0 f6 3d
       -0.024926532 -0.10947072 0.015661279 0.12054471
000200 e6 ac 9b 3d 59 a3 84 be fe f3 36 3e ec c8 78 3d
       0.07601337 -0.25905874 0.17866513 0.06073849
000210 ef 59 08 bc f0 a4 19 bd 8e 42 fb bd 93 2e 40 3d
       -0.008322223 -0.037510812 -0.12268554 0.046919417
000220 c8 ed bd bd b9 fe 5c 3c 1c f6 90 bd 7f 47 8b 3d
       -0.09273869 0.013488465 -0.07078192 0.06800746
000230 16 31 85 3d 2f 07 e4 bd 31 63 40 3c 3b 80 e5 3c
       0.06503503 -0.11134183 0.011742399 0.028015247
000240 7a d0 13 be e3 82 18 be 4e 77 bc bd 36 06 22 3e
       -0.14434996 -0.1489368 -0.09202443 0.15822682
000250 0c a3 54 be 71 5b cf 3d c5 d1 2a be 97 2c ac 3e
       -0.20765322 0.10124863 -0.16681583 0.3362777
000260 8e db 3f 3e 68 f6 33 be 88 e1 1f be 91 19 d3 39
       0.18736097 -0.17574465 -0.15613377 0.00040264105
000270 2a 70 1c be 05 2e af be c3 ba bf 3b ff 4b 46 bd
       -0.15277162 -0.34214798 0.005851121 -0.04841232
000280 b7 cd 7b 3d 34 48 e4 3d c9 ad 62 3d c4 68 b0 3e
       0.06147548 0.11146584 0.055341516 0.3445493
000290 3e 61 aa bc 91 6b e2 3d e7 09 55 be 1e 06 16 be
       -0.020798322 0.11055673 -0.20804559 -0.14650771
0002a0 76 0e 64 3c ed 1b 81 3e 75 83 ad 3c ba 25 bd 3e
       0.013919463 0.25216618 0.021180848 0.36942846
0002b0 e4 5b 78 3d ef 6d 5a be b8 f3 cf bc 86 5b 2c 3e
       0.06063451 -0.21330999 -0.025384769 0.16831788
0002c0 c7 72 04 bd d2 56 2d be f5 48 16 3e 68 54 22 3d
       -0.032336023 -0.1692765 0.14676268 0.039631277
0002d0 3e 19 ac bd 0a d7 67 be 07 f5 91 bd 2b 1a 8f 3d
       -0.08403252 -0.22640625 -0.071268134 0.06987413
0002e0 37 7f 1d 3c 34 fc 4a 3e 27 55 54 bd fc 96 0c 3e
       0.00961285 0.1982277 -0.05183902 0.13729471
0002f0 34 ff 94 be f2 e5 34 3e f9 29 32 3e 07 e2 1c bc
       -0.29100955 0.17665842 0.17398824 -0.0095753735
000300 3e 5e dc bc 2a a8 ac 3d f7 31 a9 3d 06 39 20 3e
       -0.026900407 0.08430512 0.08261483 0.15646753
000310 49 0e 96 3c 0c e0 7c be 2c e1 50 be 61 cb 19 be
       0.018317359 -0.24694842 -0.20398396 -0.15018989
000320 28 36 e3 3b 67 f1 e9 bc db e0 68 be 2b ab 70 bd
       0.006933946 -0.028557492 -0.22742026 -0.05875699
000330 f6 4e 7b 3e 02 76 fe bd ff 9c 25 be 90 1a 02 3d
       0.2454184 -0.12424852 -0.1617317 0.031763613
000340 53 ee dc 3d a2 13 c0 bd fd 25 ff bd 89 8d 07 bb
       0.10787644 -0.09378745 -0.124584176 -0.0020683727
000350 7a f5 65 3d 25 10 11 be d7 61 c1 bc 2f 2e a2 bd
       0.056142308 -0.14166315 -0.023606224 -0.07918965
000360 dc aa 2d 3e 6f 08 7f 3d d9 07 93 3c 30 12 b8 3d
       0.16959709 0.062263902 0.017948078 0.08987844
000370 86 2b 58 3e 75 93 f9 3c aa 76 81 be 4e 08 13 be
       0.21110353 0.03046582 -0.25285846 -0.14358637
000380 ee 4c d8 3d a3 bc 0e bc 29 a3 a4 be 32 cd bc bd
       0.10561548 -0.008711967 -0.3215573 -0.092188254
000390 11 83 a8 bd ed ae 1a 3d a2 d3 25 3e 69 76 c0 3d
       -0.08228124 0.03776448 0.16194013 0.09397585
0003a0 9c 4a b1 3e 8f 4c 32 3e 76 33 72 be 5c a2 ef bd
       0.34627235 0.17412017 -0.23652443 -0.117008895
0003b0 38 50 60 be 1c 0f 06 3e 8f 8e 7c bd 83 17 55 bd
       -0.21905601 0.13091701 -0.061659392 -0.052024376
0003c0 81 fa 4b 3e bf 9b 80 3c ff 7b b6 bd 3b de 00 be
       0.19919778 0.015699266 -0.08910369 -0.12584774
0003d0 8d dd 47 bd 7d 25 c3 bd fb 46 ba 3b 44 a2 bd 3b
       -0.04879527 -0.09528635 0.005684731 0.005787166
0003e0 a8 fc d1 bd de d9 f7 3d 51 40 33 be e6 25 b9 3d
       -0.102532685 0.12102102 -0.17505004 0.09040432
0003f0 60 3e 46 3e 48 10 e7 3d c9 26 0b 3d e7 71 9f 3e
       0.19359732 0.11282402 0.033972535 0.31141588

encoder.net.0.bias f4 [60]
000000 91 6a 2b bd f5 96 ac bc 5c 0d 05 bd 04 5b 02 bd
       -0.041849677 -0.021068076 -0.032483444 -0.03182508
000010 08 a4 19 3d 36 69 2d 3c a9 bf 71 3b 50 c2 db 3c
       0.037509948 0.010584166 0.003688792 0.026826054
000020 47 e5 f4 3c 93 7b 51 3c c0 2d 23 3d 85 99 fe 3c
       0.029894484 0.01278581 0.039838552 0.031079063
000030 ea 6c 45 3d 09 f7 4e bd 73 5d 4e 3d 75 37 10 3c
       0.04819957 -0.05052856 0.05038209 0.0088022845
000040 e4 1e 28 3d e9 06 b0 bc a6 24 ca 3c 94 6d d0 bc
       0.041045085 -0.02148767 0.024675678 -0.025442876
000050 3f 77 c1 3c bc 7d 09 bd f4 f7 20 bd dc 4a 17 bd
       0.023616431 -0.033567175 -0.039298967 -0.036936626
000060 75 00 57 bd a6 0a e2 bc cc a7 1e bd 39 5c 39 bd
       -0.05249067 -0.027592968 -0.038734242 -0.045253966
000070 4f 53 15 bd 09 e1 2d bb a6 0a f7 3c 34 70 02 bd
       -0.036456402 -0.0026531836 0.030156445 -0.031845286
000080 2e 18 48 bd 66 55 41 bd 60 1a fd 3c fd eb 23 3d
       -0.048851185 -0.047200583 0.030896366 0.040019978
000090 22 04 ab bc eb 23 df bc 80 a3 b9 bc 7d 3f b3 3c
       -0.020875994 -0.027238807 -0.02266097 0.02188086
0000a0 02 60 be 3c 8c 20 13 3d b9 47 63 bb 4e 4c 35 3d
       0.02323914 0.03591971 -0.0034680201 0.044262223
0000b0 60 83 22 bd 20 51 1e 3c 0e 94 13 bd 12 09 eb 3c
       -0.03967607 0.009662896 -0.036029868 0.028690848
0000c0 df 7d 8f bc a6 81 39 3d f1 dd e1 bc 50 19 3d 3c
       -0.017516075 0.045289658 -0.02757165 0.0115416795
0000d0 48 f3 1f 3d a6 ca 15 bd ca ef b3 3b da e5 2c bd
       0.03905037 -0.036570214 0.0054912316 -0.04221139
0000e0 3b 05 f8 bc 84 b4 1e 3d 34 c8 e5 3c b1 61 11 bd
       -0.030275932 0.038746372 0.028049566 -0.035493556

encoder.net.2.weight f4 [60, 60]
000000 a5 21 de 3d 5a 01 e6 3d 69 7a 23 3c 31 0d 3d 3e
       0.10846261 0.112307265 0.009977915 0.18462063
000010 8b 23 29 bd 7e 07 59 be 01 62 fb bd 9d b2 da 3d
       -0.041293662 -0.21194264 -0.12274552 0.10678599
000020 6a 75 03 be f3 72 1c 3d 5a 64 08 3e e0 2a c4 3d
       -0.12837759 0.03819556 0.13319531 0.0957849
000030 9e 2f bf 3d 70 54 11 be 6c e1 82 bc e5 7e c4 3b
       0.09335254 -0.14192367 -0.01597663 0.0059965723
000040 92 8a a5 bd 89 69 92 3c 4e c2 d4 3d c0 01 cb bd
       -0.08083071 0.017872589 0.10388623 -0.09912443
000050 cb 95 bd bd 6d f5 ea bd ff 8a b7 bd 55 73 7a bd
       -0.09257086 -0.114725925 -0.08962058 -0.061145145
000060 8c d1 39 3e 1c 69 1f bd 90 9b ee bc 1f 6e 53 3d
       0.18146342 -0.0389186 -0.029126912 0.05161869
000070 f4 f4 18 3d e1 d4 0e be 07 6c 3e be b4 32 a4 be
       0.03734298 -0.13948394 -0.18595897 -0.32069933
000080 70 dc 31 3e 59 55 0b 3d 03 c2 88 bd 58 70 20 3e
       0.17369246 0.03401694 -0.0667763 0.15667856
000090 82 89 42 be ca 97 ba 3c 2b 4b 97 3b ae 5a 72 bd
       -0.18997768 0.022777457 0.004617115 -0.05916851
0000a0 3e 59 73 bd 49 b0 22 3d 96 f2 82 3d 0b a6 a5 bc
       -0.05941128 0.0397189 0.06393926 -0.020220777
0000b0 27 36 40 bc eb 99 87 bd c8 d5 e1 3c 1e c1 03 3e
       -0.011731661 -0.066211544 0.02756776 0.12866637
0000c0 1c 62 3b be 82 97 74 3d 28 85 ad 3d ca d2 02 be
       -0.18299145 0.0597148 0.08472663 -0.12775722
0000d0 a8 b3 12 3d 9c da 3f 3e bc 5d de 3d 07 a8 9b 3e
       0.035815865 0.18735737 0.10857722 0.30401632
0000e0 89 55 00 3d bc 99 49 be 5d 7f f6 3d 3c 3b 80 3d
       0.031331573 -0.19687551 0.12036011 0.06261298
0000f0 06 0a 53 bc 25 a2 b0 3d 7a 08 c9 bd 15 f2 40 bc
       -0.012880808 0.086246766 -0.0981607 -0.011776467
000100 8d 5a 93 3d d1 49 f3 3d 04 e5 d2 bd 98 a0 c1 3d
       0.071950056 0.11879314 -0.102975875 0.09454459
000110 ae bf 81 be fe 5b 1e bd 32 12 0c be 0a be c8 3c
       -0.25341552 -0.03866195 -0.13678816 0.02450468
000120 8a ae 3f 3e 3c 7d cf bd 89 1f c4 bd 04 0b 64 bd
       0.18718925 -0.101313084 -0.09576327 -0.055674568
000130 81 61 f4 bd 3c ef df bd 66 1a c6 3c 38 dc 63 bd
       -0.1193266 -0.10934302 0.02418251 -0.05562994
000140 31 eb 92 bd 4b d1 25 3e 54 5f 54 bd 6c 77 0c 3d
       -0.071737655 0.1619312 -0.051848724 0.034293577
000150 78 be 78 bc 4d 32 80 3d af 2f d7 bd 84 98 6a bc
       -0.01518213 0.06259594 -0.10507142 -0.014318589
000160 82 33 da bb 84 52 5f 3e 80 a5 72 3d 20 e9 2c 3e
       -0.0066589722 0.21808821 0.059239864 0.16885805
000170 39 9b 1a bb e9 25 29 3d 57 15 d6 3d 38 23 8a bd
       -0.0023591055 0.04129592 0.10453289 -0.06744999
000180 92 93 97 bd bb 40 06 3e c5 88 ea 3d 8d cc d6 3d
       -0.07401194 0.1311063 0.11451868 0.10488234
000190 46 cf 55 3c 9c d7 a5 bd e5 cf b1 3b 94 51 3d ba
       0.013049906 -0.08097765 0.0054263943 -0.0007221934
0001a0 58 a1 ff bc 52 8a c4 bd 56 10 c3 3d f2 18 84 bd
       -0.031204864 -0.09596695 0.095246 -0.064500704
0001b0 75 91 26 be 02 6c 28 3e 3c a9 b8 bc 6b 4d 32 3e
       -0.16266425 0.16447452 -0.022541635 0.17412345
0001c0 e4 ae e0 3c 80 af 19 3e 90 77 9c 3d a3 eb 47 be
       0.027427144 0.15008354 0.07639992 -0.19523482
0001d0 dd ce 23 bd af 37 65 bd c3 67 da bc 5c 93 ce bd
       -0.039992202 -0.055961307 -0.026660806 -0.100867
0001e0 87 3d 26 3c c6 f2 a5 3c f1 45 84 3e 8f 2c dc bc
       0.010146505 0.020257365 0.2583461 -0.026876716
0001f0 ae 54 96 bd f8 2f 90 3b 61 05 a0 3c 87 1e 69 be
       -0.0734037 0.0044002496 0.019533815 -0.22765552
000200 49 8d ba 3d 2c b9 cd 3c 53 83 d5 bc 8c 20 6d bd
       0.09108979 0.02511271 -0.026063597 -0.057892367
000210 15 63 81 3e f2 1e 1f bd 05 58 d4 bd 51 2f cc 3d
       0.25270906 -0.03884787 -0.10368351 0.099699624
000220 ff 17 93 bd d2 84 4c 3e 68 bf 6e bd 83 1f 32 3d
       -0.07182311 0.19972542 -0.058288008 0.043487083
000230 2b 5a 42 3d 36 5a 5f 3e e6 5a 06 bd 2b ec 91 3c
       0.047449272 0.21811756 -0.03280153 0.017812809
000240 73 71 a4 be 4b 3a 8d be fa 0e 72 3d ef 06 82 3d
       -0.32117805 -0.27583537 0.059096314 0.06348979
000250 4a 7d 30 3e 33 ed 17 be e6 b3 3c bd ce 9f a3 bc
       0.17235294 -0.14836578 -0.046070002 -0.019973662
000260 02 7a d7 3d 82 3a 24 bd 20 86 39 bd ab 8a 45 bd
       0.10521318 -0.04009486 -0.045293927 -0.048227947
000270 9d 99 44 3e 00 c0 86 3c 98 51 65 bd 6b 00 1f 3e
       0.19199224 0.016448975 -0.055986017 0.15527503
000280 00 d2 1c 3e a5 46 90 3d a0 3d e2 3d 8d 6c d1 3d
       0.15314484 0.070447244 0.1104691 0.102257825
000290 b8 1f f5 3d 3e 04 e3 bd 05 a5 a0 3d f8 75 19 be
       0.119689405 -0.110847935 0.07843975 -0.14986408
0002a0 c2 e6 cb 3c 1e be 87 3d a3 db b3 3c f9 d0 00 bd
       0.024890307 0.06628059 0.021955317 -0.03144929
0002b0 ac 0d 0d 3e 21 63 f4 3d 88 28 bc 3d b1 3c 77 3d
       0.13774747 0.1193297 0.09187418 0.060360614
0002c0 cc 1b fa bc 5e 03 12 3e 6e ab 1d bd 6a dd c4 bd
       -0.030530833 0.14259097 -0.038493566 -0.09612544
0002d0 d3 ee d2 bd 7c aa cc bb 01 f2 8e bd 1c 48 95 bd
       -0.10299458 -0.0062459093 -0.06979752 -0.072891444
0002e0 16 0b 16 be c1 9a 83 3e c4 77 d5 bd 25 c6 19 3e
       -0.14652666 0.25704005 -0.10423234 0.15016992
0002f0 21 8f 49 be 60 0d 9b 3d 25 9e 01 3e dc 71 15 be
       -0.19683506 0.075709105 0.12657984 -0.14594215
000300 b1 a0 c4 3c 27 ca b6 bd 9d ca b2 be df df 96 3d
       0.024002405 -0.08925276 -0.34920207 0.07366919
000310 d3 0b 2e bd d0 74 cb bd 43 29 9c be db de 95 3d
       -0.042491745 -0.099343896 -0.3050023 0.07317897
000320 8b 85 6f 3c 80 e5 82 be 9c bc 95 3e 1e b5 81 bc
       0.0146192415 -0.2556572 0.2924546 -0.015833434
000330 41 e4 af bd 65 b9 b4 bc 95 57 8c 3d 77 a9 fa bd
       -0.08588458 -0.02206106 0.068526424 -0.12239354
000340 cf 3b 01 be 09 db 03 bd 2d f3 0c 3e ec dc e0 bc
       -0.12620471 -0.03219131 0.13764639 -0.027449094
000350 2a cf e0 3c ea ab bf bc 45 be 35 be 8b d8 e9 bd
       0.027442534 -0.023397405 -0.17748363 -0.114182554
000360 38 1b 74 be 37 fb 5b 3d 1a c1 5e 3e 19 3f 25 be
       -0.23838508 0.053706374 0.2175335 -0.16137351
000370 d3 7c 25 3e a7 95 84 be 82 28 d4 bd af 62 4b 3d
       0.16160898 -0.25895426 -0.10359289 0.04965466
000380 30 70 52 3e 2d 75 d9 bd 1f 64 2e 3e d2 61 9d bd
       0.20550609 -0.10618053 0.1703038 -0.07684673
000390 cc d4 87 be a7 ff 9f 3d 16 ce 8e be 70 bd e0 3d
       -0.2652954 0.07812434 -0.27891606 0.10973632
0003a0 08 e1 6f bd f0 1f 65 be 2e 31 ed ba 2c af 8e bd
       -0.058564216 -0.22375464 -0.0018096322 -0.06967005
0003b0 b1 66 9a bd 76 58 90 3d ec fd 97 bc c1 e9 15 bb
       -0.07539118 0.070481226 -0.018553697 -0.0022874924
0003c0 9a 75 65 be 8d aa ff 3d 7b 68 06 bc 11 f4 63 be
       -0.22408143 0.12483702 -0.008203621 -0.22261073
0003d0 0a 07 39 3e 01 60 06 be 88 bd 2c 3e 78 6b 6c 3e
       0.18069091 -0.1312256 0.16869175 0.23087871
0003e0 79 03 94 3c 58 da 05 3d cb 2b bd ba 66 d8 2f 3e
       0.018068062 0.032678932 -0.0014432607 0.17172393
0003f0 0b 77 1d bc 1c 2c 8c 3c d6 f0 88 bb 2e d8 39 bd
       -0.009610902 0.017110877 -0.0041791005 -0.04537218

encoder.net.2.bias f4 [60]
000000 b4 34 19 3d 72 2c 33 3d b9 9f 17 bd 1c 8f 0f 3d
       0.037403777 0.04374356 -0.037017558 0.03504859
000010 de 7e a7 3c e6 9e 38 bd 9c e1 3f 3d e2 e8 f2 3c
       0.020446237 -0.045073412 0.046846017 0.029652063
000020 02 bf 21 3d 5c a6 21 bd 89 1c f5 bc e5 2e 19 bd
       0.0394888 -0.039465293 -0.029920833 -0.037398238
000030 a2 b7 1e bd 90 21 1f 3d 54 e0 4a 3c 9c 3e e4 3c
       -0.038749345 0.038850367 0.012382586 0.027861886
000040 e5 54 ef 3c 67 e6 1f bd 30 2a 37 3d b5 a6 42 3d
       0.029215286 -0.03903809 0.044717968 0.047522265
000050 6b 40 01 3d 0d 70 08 bd 72 39 43 3c f9 e0 44 bd
       0.031555574 -0.033309985 0.0119155515 -0.048066113
000060 0c 3d 1b 3d 6f fe 0c 3d 5a d3 12 bd b5 43 19 3d
       0.037900016 0.034422334 -0.03584609 0.037418086
000070 00 f6 4c 3d af 96 1a 3d 1d 74 04 3d 30 32 04 bd
       0.05003929 0.03774136 0.032337297 -0.032274425
000080 11 65 30 bd 74 c0 c9 bc fb 8f 07 3d ba d2 23 bd
       -0.043065134 -0.024627902 0.033096295 -0.039995886
000090 af 91 13 3d db a0 49 3a 6d 6c fa bb 1a d1 fc 3c
       0.036027607 0.0007691511 -0.00764232 0.030861426
0000a0 65 da 03 3d 0f a7 07 bd 3d 83 fc 3c 15 90 98 bc
       0.0321907 -0.033118304 0.030824298 -0.018623391
0000b0 42 20 2a bd 13 c8 27 bd 9f 0a 36 bd a4 9c 3a 3d
       -0.04153467 -0.04096229 -0.044443723 0.04555954
0000c0 d6 3f 0c 3d 42 94 66 bd 6f 86 3b 39 fb ed 09 3d
       0.034240566 -0.056293733 0.0001788379 0.03367422
0000d0 5c 78 2d 3d 21 af 2c 3d 58 69 d2 3c 8c 37 14 3d
       0.04235111 0.042159203 0.025684997 0.036185786
0000e0 6a 64 08 3d af 92 ca bc 2f 85 e9 bc 98 74 96 3c
       0.033298887 -0.024728147 -0.02850589 0.018366143

encoder.net.5.weight f4 [32, 60]
000000 a0 63 22 3e c8 75 88 3e d5 ef dd bd 7b 39 39 3d
       0.15858316 0.2665236 -0.1083676 0.045220833
000010 ae 60 d4 bd 76 62 9f 3e 09 4e 28 bd 22 af 1b 3b
       -0.10370003 0.31129807 -0.041090045 0.002375551
000020 27 ce 10 3e cb 47 6b 3d 09 65 53 3e 77 34 8b 3e
       0.14141141 0.057441514 0.2064401 0.27188465
000030 9d d2 67 bd c0 58 87 3d 53 61 65 3d 0d ae 6c bd
       -0.05659734 0.066087246 0.05600102 -0.057783175
000040 c0 92 78 bd 13 45 14 be 94 a2 b0 bd ca 48 c5 bc
       -0.060686827 -0.14479475 -0.08624759 -0.02408256
000050 49 f9 6e 3e 8e ac d7 3d af f3 a4 bd 15 e9 c8 3d
       0.23337282 0.10530959 -0.080542915 0.09810082
000060 7b 1e 95 bd 53 cb 7b 3d 8f 4b 33 3d 1b fb 8a 3d
       -0.07281204 0.061473202 0.04377323 0.06786176
000070 61 74 93 bc 6d cb 6b be a5 83 4d bd 0a be f7 be
       -0.01799983 -0.2302682 -0.050174374 -0.48387176
000080 49 08 61 3a e2 96 5e be ea 78 11 bd bd 13 1d 3d
       0.00085843034 -0.21737245 -0.035515703 0.038348902
000090 f3 ce aa 3d 23 88 ae bd f5 2d 05 3e ed 35 9a 3d
       0.08340254 -0.0852206 0.13005812 0.07529817
0000a0 71 8f 7a 3d 79 e2 1c bc 21 47 1d 3d df 70 d6 3d
       0.061171953 -0.00957548 0.038397912 0.10470747
0000b0 42 6a 32 3d ad e9 0e 3c 76 82 83 3e ad 8e 17 bd
       0.043558367 0.008722705 0.2568547 -0.0370013
0000c0 21 e0 91 bd 0f a3 37 3e 01 d0 5e bd b0 33 81 3e
       -0.07122827 0.17933296 -0.054397587 0.25234747
0000d0 0d 97 ce bd ef 83 81 3c c1 d5 d9 3d 22 59 37 be
       -0.100874044 0.015809981 0.106364734 -0.17905095
0000e0 21 fe a7 3d d6 52 15 be 18 5d 20 be 37 64 a6 bc
       0.08202768 -0.1458238 -0.15660512 -0.020311458
0000f0 c3 24 32 be 58 7d b9 bc 29 ee cc 3d ce 1d 3e 3e
       -0.17396836 -0.022642776 0.10006363 0.18566057
000100 62 d4 24 be b6 4e 27 3d 38 6b 7a bb 3a 19 3f be
       -0.16096643 0.04084655 -0.003821088 -0.18661967
000110 c5 00 88 3d 93 b7 fe bb f8 0f d4 3d af e9 de 3d
       0.06640772 -0.0077733486 0.10354608 0.10884415
000120 fd 39 8a 3d 19 c2 46 3d 73 58 87 3e 12 61 40 3e
       0.06749342 0.04852495 0.2643467 0.1878703
000130 15 77 22 be e5 21 98 3d 96 a6 14 3d 98 db af 3e
       -0.15865739 0.0742834 0.03629168 0.34347224
000140 cb 2d ac 3c eb b8 b8 3c c5 77 34 bc 8e 32 6b 3e
       0.02101793 0.022549113 -0.011014883 0.22968504
000150 3f 1c 05 be d4 4f 59 be 83 e4 50 3e 9c 66 0f be
       -0.12999056 -0.21221858 0.2039967 -0.14003986
000160 ab 8e 8d 3e d4 a0 4d be 64 cd 1f bc 00 a7 55 3d
       0.2764791 -0.20080882 -0.009753559 0.052161217
000170 3e 5d 97 3d 02 c7 e5 bc e4 3a ca bd 8a e4 c1 bb
       0.073908314 -0.028048996 -0.09874514 -0.0059171366
000180 84 8a 39 bb 41 ae ca 3c 08 8d cb bd 2c 3c 09 3e
       -0.0028311322 0.024741294 -0.09939009 0.1340186
000190 41 aa c3 bd 2b 9f 23 3c 76 b8 78 3d 65 e4 25 be
       -0.09553958 0.009986679 0.06072279 -0.16200407
0001a0 88 07 c3 bc 6f 25 06 be aa cd c8 3a f3 c7 de bc
       -0.023807302 -0.13100217 0.0015320082 -0.027194953
0001b0 04 42 79 3d 1e 42 40 3e 4e e8 aa bd a9 71 ae bd
       0.060853973 0.18775222 -0.0834509 -0.08517773
0001c0 f2 57 ed 3d 57 01 35 be 9c 29 95 bb 2f eb 48 be
       0.1158904 -0.17676292 -0.0045520794 -0.19620965
0001d0 d2 7f a6 bd 86 f6 64 3e 55 57 50 3e 83 54 2e 3e
       -0.081298485 0.22359666 0.20345815 0.17024426
0001e0 30 0a 80 3e 10 22 82 be 98 0c 24 3d a5 4e 93 3d
       0.25007772 -0.25416613 0.040051073 0.07192735
0001f0 73 a0 83 3d 1e b8 80 3e 10 54 68 3e e0 d7 d4 3d
       0.06427088 0.2514047 0.22688317 0.103927374
000200 8c 1e f3 bc c2 74 54 3e c0 a9 a7 bc 9d 8a 03 3e
       -0.029677652 0.20747665 -0.020466685 0.12845846
000210 28 44 a2 3c b6 f4 9a 3d aa aa db 3d e5 68 49 bd
       0.01980789 0.07566206 0.10725911 -0.0491723
000220 ba 1c 37 3d c6 43 75 bd c8 d7 fb bd 9e 88 57 bd
       0.04470513 -0.059879087 -0.122970164 -0.052620523
000230 41 e3 53 bd 79 a2 51 be e1 c1 45 be 8d 64 d5 bb
       -0.051730398 -0.20472135 -0.1931224 -0.0065122307
000240 a7 94 79 3d 13 03 36 be 67 80 43 be 36 86 35 be
       0.06093278 -0.1777461 -0.1909195 -0.17726979
000250 9f a1 4e 3e 9e 1c 20 be 19 89 31 3e 9a 9f 89 3e
       0.20178841 -0.15635917 0.17337455 0.2687958
000260 de 09 7a 3d 88 74 54 be c3 22 a2 3d c1 2d 0d 3e
       0.061044566 -0.20747578 0.079167865 0.13786985
000270 d8 6c 64 bd 2f 23 ba bd bd 4c e3 bd 4e 80 d4 3d
       -0.055767864 -0.09088742 -0.11098621 0.10376035
000280 bd 18 f3 bd 70 bc 7d 3b bb 5e e8 3b 90 dc 81 3e
       -0.11869953 0.0038717054 0.007091371 0.25363588
000290 b9 d8 20 3e d9 5e a6 3e ba 07 35 3c 54 ef 3f 3e
       0.15707673 0.32494238 0.011049205 0.1874364
0002a0 93 a6 28 bd 8c c3 a3 3c 2c 7c 2a be 08 d7 78 3d
       -0.041174483 0.019990705 -0.1664893 0.060751945
0002b0 4f 35 ca bd 70 1d 15 be b9 e8 a3 bd 15 99 bf 3d
       -0.09873449 -0.14562011 -0.08003373 0.0935537
0002c0 00 2c 6c be a0 a6 55 3e fe 58 d2 3d d1 1f 0e bd
       -0.2306366 0.20864344 0.1027088 -0.03469831
0002d0 26 09 db bd 96 dd 54 3d 77 34 0e 3e 7d bc 02 3e
       -0.10695104 0.051969133 0.13887201 0.12767215
0002e0 59 d7 fb bd db fa b5 3d cd 6b 50 3e d8 2b 4e 3c
       -0.12296934 0.088857375 0.20353623 0.012583695
0002f0 b9 c7 bc bd b7 52 20 be 6d c9 5e be 0b c9 f9 bb
       -0.092177816 -0.15656553 -0.21756525 -0.007622843
000300 4f d7 85 3e b8 3e 69 be be c1 64 bd a5 70 03 3c
       0.2614083 -0.22777832 -0.05584883 0.008022462
000310 0e 88 9f 3e 81 0f de 3d 6d 08 70 3b 8e f6 1c 3e
       0.3115849 0.10842801 0.0036626116 0.15328428
000320 d7 5e 6b 3e 45 b0 27 bd 19 c4 83 3d 8a 22 c1 3c
       0.22985397 -0.040939588 0.06433887 0.02357604
000330 7e 68 b6 3c f1 65 2f ba 11 8c 91 bc 68 e3 13 3e
       0.022266623 -0.00066909107 -0.017766984 0.14442217
000340 9a aa 04 bd 72 5d 10 be e7 e0 85 bd a5 b1 e6 3d
       -0.03238926 -0.14098147 -0.06537037 0.11264352
000350 d0 4c 9f 3d 96 e4 0a 3d 43 a4 1e 3c 81 14 3b 3e
       0.07778323 0.033909403 0.009682718 0.1826954
000360 72 7e f2 3c ec 9f 67 3e d1 4f 9e 3e 5f 5e c8 3c
       0.02960131 0.22619599 0.3092027 0.024459062
000370 ed 9a 29 bc 8c ac 25 3e ba e4 d9 bd 89 8b 5b 3e
       -0.010351879 0.16179103 -0.10639329 0.21439947
000380 ea eb 46 be dd 4b 06 bd de 9d 95 bd 16 a0 76 3d
       -0.19425932 -0.032787193 -0.073055014 0.060211264
000390 07 57 1f 3e 4e 0a a6 be 8e 86 0d 3e 49 02 8f be
       0.15560542 -0.32429737 0.1382086 -0.2793143
0003a0 0c 73 f9 bd e9 ee f1 3d 97 6e 92 3c 2e b3 5e be
       -0.121801466 0.118131466 0.017874999 -0.21748039
0003b0 18 92 d3 3d 81 da 30 3e 65 e3 ad 3e 5f d4 1e bd
       0.103305995 0.17270853 0.3396255 -0.03877675
0003c0 26 8e 02 bd 41 d4 6a 3a c9 e0 64 be 42 5b b0 3d
       -0.031873845 0.000895802 -0.22351374 0.08611156
0003d0 95 13 36 3e f3 29 f5 3d fe 09 c9 3d e3 bb 93 3d
       0.17780907 0.11970892 0.09816359 0.07213571
0003e0 2c 1b 99 bd ff 7d 42 be 9a 81 2d 3d 69 ea 6c bc
       -0.07475886 -0.18993376 0.042359926 -0.014460185
0003f0 90 6f 1b 3e a4 7d 15 3e 44 de 8e be e1 2b e4 bc
       0.15179276 0.1459871 -0.2790395 -0.027852954

encoder.net.5.bias f4 [32]
000000 e1 ab 12 3d ff d2 13 bd 7f fe 43 bd 89 48 37 bd
       0.035808448 -0.036089893 -0.04785013 -0.04474691
000010 3b 3e 33 3d 20 83 63 bd ef 0a d6 bc a3 fc 2c 3d
       0.04376052 -0.055544972 -0.02612826 0.04223312
000020 01 cc 2a 3d 7e 79 54 bd eb 65 68 3d 2b ee ca bc
       0.04169846 -0.051873676 0.05673782 -0.02477177
000030 4e f6 3a 3d 22 29 3b bd b5 bf fd bc f6 0d 37 3d
       0.04564505 -0.045693524 -0.030975202 0.04469105
000040 14 ad ae 3d d3 17 14 ba 38 71 2a bd bc 2c 61 3d
       0.08529106 -0.0005649302 -0.04161188 0.054974303
000050 b6 d9 88 3d b3 98 40 bd 88 b2 6f 3d 25 45 42 3d
       0.0668215 -0.047020625 0.05851987 0.047429223
000060 5b 55 f7 3c 07 d9 b9 3c 08 80 30 3d 6d 17 22 3d
       0.030192068 0.022686495 0.04309085 0.03957312
000070 60 23 31 bd 28 5a ff bc 31 e3 3a 3c f8 dd 9b 3d
       -0.043246627 -0.03117092 0.011406706 0.076106966

predictor.net.1.weight f4 [32, 32]
000000 c5 eb 8c bd e5 41 4a 3d 54 2d 85 bc 15 fa 90 be
       -0.06880907 0.04937925 -0.016256966 -0.28315797
000010 97 ed 05 bc 40 e0 74 3e c6 41 d1 3d ab 3b 18 be
       -0.008174322 0.2391367 0.102176234 -0.14866512
000020 6b 1c d0 be 70 39 c1 bc da b1 48 be e0 9f 28 bd
       -0.4064668 -0.023586959 -0.19599095 -0.041168094
000030 28 67 1a 3e 9a 5f ae bd ce b4 7a 3e 97 72 17 be
       0.15078413 -0.08514328 0.24483034 -0.14789806
000040 d1 ee 44 3e 2c 68 53 3d d0 75 39 3e 88 39 81 3d
       0.19231726 0.051613018 0.18111348 0.06309801
000050 55 0d 7b be 25 09 71 3d 86 e6 da bc 24 8e 2d 3e
       -0.24516805 0.05884661 -0.02672125 0.16948754
000060 30 07 5f 3d 12 e6 00 be a5 f5 0a 3c 78 89 51 3e
       0.054450214 -0.12587765 0.008481418 0.20462596
000070 0b 88 c0 3d 1f 0f c4 bd 2c 10 a4 bc 45 06 1a 3e
       0.09400948 -0.095731966 -0.020027243 0.15041454
000080 e0 0c ee bb a5 3c 02 be 8b 14 5b 3d fc 0f 25 be
       -0.0072647184 -0.12718447 0.05348639 -0.16119379
000090 15 bc 50 bd 6d 19 c7 3e 0c fb 4c 39 9e 8b 8c 3c
       -0.05096062 0.38886586 0.00019548478 0.017156418
0000a0 fa e6 95 3e c7 c6 83 be a1 8d 52 bd 0c 0d f0 3c
       0.29277784 -0.25737593 -0.0514046 0.029303096
0000b0 27 3b 16 3d c6 e8 17 bd 8f e2 4b be ef 7a 3e 3d
       0.036677506 -0.037087224 -0.19910644 0.046503957
0000c0 ad 4b b8 bc b4 01 af be b9 59 87 3e 6b 41 d7 3d
       -0.022497023 -0.34180987 0.2643564 0.10510524
0000d0 1a 78 a2 3d 44 ac 27 3d 98 05 40 be 11 09 d0 3b
       0.07933064 0.04093577 -0.18752134 0.006348737
0000e0 45 f5 72 3e 84 bd b6 be 2f d1 3f be 6f 10 19 bd
       0.23726375 -0.35691464 -0.18732141 -0.037369188
0000f0 34 36 86 3e af 70 c0 be 92 0f 99 3e d6 49 e2 bd
       0.2621323 -0.3758597 0.29894692 -0.11049239
000100 a3 40 4c 3e 33 b5 ad be 9a 8c 5b be 32 e4 fb 3d
       0.19946532 -0.33927307 -0.21440354 0.12299384
000110 f3 87 0a be 7f a6 02 bd 4c 40 75 be fe cf de 3d
       -0.13528423 -0.031897064 -0.23950309 0.10879515
000120 3f 0a 8f be 94 91 87 3d da 64 31 3d 55 f4 98 3d
       -0.27937505 0.06619564 0.04330907 0.07468478
000130 32 c4 14 3e 80 04 45 3d e8 7a 26 3e f6 8b bf bb
       0.14527968 0.048099995 0.16257823 -0.005845542
000140 7d 39 67 bc a0 82 21 be 2a a6 7b 3e 1b 52 98 be
       -0.014112827 -0.15772486 0.24575105 -0.29750142
000150 a3 15 ea 3c 31 a8 20 3e 5f f0 1f 3e fb f2 4a 3d
       0.02857477 0.1568916 0.15619038 0.04954813
000160 fa 19 5b be 80 f1 bb be b5 8a 86 3e 43 5c 84 3e
       -0.21396628 -0.36707687 0.262777 0.2585164
000170 bf e1 6f bd 62 19 df bd 0a 1a a3 3b 12 aa 1e be
       -0.058564898 -0.10893513 0.0049774693 -0.15494564
000180 a4 13 8b be ca f7 14 bf fd 70 e0 bc b6 70 a3 3d
       -0.27163422 -0.58190596 -0.027397627 0.07980482
000190 80 7a 99 be f0 7e 16 bd 84 f2 2a 3d 25 02 19 3c
       -0.29976273 -0.03674215 0.041735187 0.00933889
0001a0 8a 10 5c bd 21 ac cf bd f0 09 0a be 42 df 69 be
       -0.05372671 -0.10140253 -0.13480353 -0.22839072
0001b0 9b 47 25 be 10 69 e9 bc fe b4 82 bd de 9a 74 bc
       -0.16140597 -0.02849248 -0.06382178 -0.014929501
0001c0 75 03 42 bd b9 80 0d be 11 2e 1d be 2d 03 50 3e
       -0.047366578 -0.13818635 -0.15349604 0.20313711
0001d0 4f 14 93 bd 8b 58 38 3e 4e 6a 06 3d cb e6 44 bd
       -0.07181608 0.18002526 0.032816224 -0.048071664
0001e0 df ae 60 3e 58 7f 53 3e a4 7e 68 3d fa d7 e7 bd
       0.21941708 0.20654047 0.0567614 -0.11320491
0001f0 92 f0 a3 be db b4 1c 3d ad d6 3d 3e cb f6 85 be
       -0.32019478 0.038258415 0.18538924 -0.2616485
000200 f7 4f 36 bd 57 c7 93 be fc 03 59 bb 2b be 0f be
       -0.044509854 -0.28863022 -0.0033113947 -0.14037387
000210 09 16 80 3d ce cc 9d bc 6f ba 25 be 01 5d f1 bd
       0.06254203 -0.019262698 -0.161844 -0.11785317
000220 85 ef 1a bc 05 51 94 3d 96 ac 6e bc b9 88 a9 bd
       -0.00945652 0.07242016 -0.014567515 -0.08278031
000230 f0 6b 87 3e 51 f7 bc 3d 88 ba b7 3e 8d df 93 3c
       0.26449537 0.09226859 0.358845 0.018050933
000240 1f dd 4d 3e 60 02 8d bd 8b e6 9a 3d cb b0 95 3e
       0.20103882 -0.068852186 0.07563504 0.29236445
000250 33 ef 09 3e 5a 1f 0a 3d 1a e5 68 3c 31 a6 cd 3e
       0.13470154 0.033721305 0.014214778 0.40165856
000260 86 67 31 3b 3d 79 8a bc ac f4 f2 3c ab 48 89 be
       0.0027069761 -0.016903514 0.029657684 -0.26813254
000270 2c db be be 71 14 70 3e d6 f4 04 3d 25 ce 19 bd
       -0.3727659 0.23445298 0.032460056 -0.03755011
000280 7f db 37 bd 1d da b5 bb c3 d3 ba 3e b2 da 82 3e
       -0.044887062 -0.005549683 0.36489686 0.25557476
000290 ea ae 28 bc d5 f0 08 3d bd fe 18 3c 56 fa 02 be
       -0.010295609 0.0334328 0.009338078 -0.12790808
0002a0 10 e2 b8 3d a9 e4 17 3e 31 e1 9c 3d 59 d3 ff bd
       0.09027493 0.1483332 0.07660139 -0.12491483
0002b0 66 4c f9 bc 29 c1 0f be 3d 02 05 3e 63 23 05 3e
       -0.030431937 -0.14038529 0.12989135 0.1300178
0002c0 93 c0 8b 3d f1 03 09 be e2 8f 04 be ab e5 bb 3c
       0.0682384 -0.1338041 -0.12945512 0.022936663
0002d0 41 7d a5 3e e3 bf 94 bd 0b e4 3d bd b5 15 14 be
       0.32322124 -0.07263162 -0.046360057 -0.14461406
0002e0 5c 95 7a bc 32 86 0f 3e 2f 12 82 bd 99 33 0f 3d
       -0.015294399 0.14016035 -0.063511245 0.034961317
0002f0 ed 35 6b be 17 a5 33 be 8a 27 2d 3d 5e 2f 63 3e
       -0.2296979 -0.17543446 0.042274036 0.22186038
000300 c0 a9 dd bd 65 eb 03 bf fe 62 12 bd b6 33 0e 3d
       -0.10823393 -0.5153106 -0.035738938 0.034717284
000310 3d b9 6a 3d d9 59 00 3d 17 a0 4a be c0 41 fb 3e
       0.057305563 0.031335685 -0.19787632 0.490736
000320 22 d5 f0 3d 8f 2d f2 bd 77 6f 16 3d d3 55 db b9
       0.11759402 -0.11825096 0.036727395 -0.0004183488
000330 52 f2 00 3e 0b 6e 53 3e 48 3f b1 bd 28 58 eb 3d
       0.12592438 0.20647447 -0.08654648 0.11491424
000340 1b 7d 59 be 07 0d a1 bd 11 f8 77 3d 43 e5 31 bd
       -0.2123913 -0.07863813 0.06053931 -0.04343153
000350 8e 08 a6 bd c5 35 e4 3d 13 9a fb 3d 5b 3b 97 3c
       -0.081071004 0.11143068 0.12285247 0.01846092
000360 16 54 62 3e bf 68 58 bd 58 cd 8e 3d 48 88 64 3e
       0.22102389 -0.05283427 0.0697276 0.22317612
000370 c9 d0 96 3e 57 8e 2c be ef d9 82 3e d7 25 7f bd
       0.29456165 -0.16851173 0.25556895 -0.062291946
000380 6b 02 de be 11 92 ed 3d 6b a9 28 be 08 c2 46 3c
       -0.4336122 0.116001256 -0.16470878 0.012131222
000390 b9 1f f0 bc 59 29 7c be 5b c5 65 be cd d9 94 3e
       -0.029312002 -0.24625148 -0.22438566 0.2907242
0003a0 2b 4d cc bd b5 2f 84 3c 1f 31 93 bc 30 8f 3c 3c
       -0.09975656 0.01613603 -0.017967759 0.011508748
0003b0 51 9e ad bd fa 63 a1 3d 24 f1 ef 3d f8 f9 c1 3c
       -0.08477462 0.07880397 0.11715916 0.023678765
0003c0 f0 b2 16 3e 6d 11 1f 3e e7 fe 6b be 64 24 97 3e
       0.14716697 0.15533991 -0.23046456 0.2951995
0003d0 1a 7b 27 be 1d e7 59 3e 48 32 81 3d ca ca 0d be
       -0.16355553 0.21279569 0.063084185 -0.13846889
0003e0 21 61 0a be 47 47 8e 3c ae a2 af bd f3 15 92 3e
       -0.13513614 0.017367972 -0.085759506 0.2853237
0003f0 da bf 08 be 33 6f 94 3e d9 13 d1 3e a0 3c b5 bb
       -0.13354436 0.28991088 0.40835455 -0.0055309087

predictor.net.1.bias f4 [32]
000000 31 07 87 3d a6 0d d1 3d ef 72 bf 3d 88 0e cc 3d
       0.065931685 0.10207681 0.09348094 0.09963709
000010 77 a5 0c be 30 9c d7 bd b5 f6 df bd 95 04 b0 3d
       -0.13734995 -0.10527837 -0.109357275 0.08594624
000020 51 d8 e1 3d 1c ed da bd 91 8b 16 3e 57 a3 cc 3d
       0.11027587 -0.10689756 0.14701678 0.09992092
000030 88 4b c5 3d eb ff c1 bd 8a 0d 11 3e 80 b6 c5 3d
       0.09633547 -0.094726406 0.14165321 0.0965395
000040 50 5e c5 3d 4d 96 d6 3d 49 e4 02 3e cd 78 08 bd
       0.09637129 0.10477886 0.12782396 -0.03331833
000050 fe 16 cf bd cc 69 d1 bd 52 75 d9 bd 9c 58 e8 bd
       -0.10111807 -0.10225257 -0.1061808 -0.11345026
000060 45 3a d1 bd bf fa 18 be f8 7c 34 3e d3 80 ca 3d
       -0.10216192 -0.14939402 0.17625797 0.098878525
000070 85 00 b9 3d 57 62 7c be c2 6b 05 be f7 9a dc bd
       0.09033302 -0.24646889 -0.13029388 -0.10771745

predictor.net.3.weight f4 [1, 32]
000000 cb 51 5b 3c d9 d3 4a 3e cd fd c3 3d 78 95 e3 3e
       0.0133862 0.19807376 0.09569893 0.44449973
000010 7d 10 aa be 9a 46 42 be 4c c5 f3 be 6e e8 98 3d
       -0.33215705 -0.18972245 -0.47611463 0.074662074
000020 18 9d e0 3e 7a be 00 be 1d 25 bc 3d ff a2 85 3e
       0.43869853 -0.12572661 0.09186766 0.2610092
000030 aa 6f cf 3e 32 1a 20 be 73 67 c5 3d 15 49 65 3e
       0.4051488 -0.15634993 0.09638872 0.2239116
000040 8e 5d 57 3e b4 31 be 3e e9 e7 9b 3e c4 9a 91 3b
       0.21031782 0.37147295 0.3045037 0.0044434983
000050 59 b3 d1 be 82 5b 2e bf 92 ff 00 be ad 30 72 be
       -0.40957144 -0.6810838 -0.12597492 -0.23651381
000060 5d 23 28 bd 0f 5d 44 bd dc 30 88 3d e9 cc 6a 3e
       -0.04104935 -0.04794031 0.06649944 0.2292973
000070 a0 ed a9 3d 21 ed b6 bd db 63 39 be 5f 88 ce be
       0.082972765 -0.089319475 -0.18104498 -0.40338418

net.0.weight f4 [60, 35]
000000 86 29 db bd 3d 88 dc 3c ef 5d a2 3d 8d 5d 13 3c
       -0.10701279 0.026920432 0.07928073 0.008994472
000010 10 78 3c 3e 9f 78 09 be 52 79 81 3e 28 54 35 be
       0.18405175 -0.1342492 0.25287873 -0.17707884
000020 c1 6e 94 bd 3f 2d 54 be e8 4c 98 3d 77 b6 94 bd
       -0.07247687 -0.20720385 0.07436544 -0.07261365
000030 ca 89 45 3e cd ed 06 bd 73 93 64 be 19 1e 65 3e
       0.19290844 -0.03294163 -0.22321872 0.22374763
000040 eb 58 da 3b 94 57 a6 3c 4a 48 48 bd 4f 0e 52 3d
       0.006663432 0.020305432 -0.048897065 0.051283177
000050 21 5d ce bc f4 46 d8 3c c6 4c 51 bd 4e b4 c6 bd
       -0.025190892 0.02640102 -0.051098607 -0.09702359
000060 16 da 88 3e 04 aa 8a 3e 3b e4 8b bd 65 f5 a1 bb
       0.26728886 0.27082837 -0.06830641 -0.0049425834
000070 9c 37 63 be 13 7b 91 be 0f 53 a9 3c 5f e6 22 bd
       -0.22189182 -0.2841421 0.020669488 -0.03977048
000080 c6 44 82 be 33 5b fe bd 4f 8b 2a 3d 85 eb 77 3d
       -0.25443095 -0.124197386 0.04163676 0.060527343
000090 5d 18 97 bd 07 27 ca 3c 44 f4 a5 bc f9 0c fa 3d
       -0.07377694 0.024676813 -0.020258076 0.122095056
0000a0 84 c0 44 3d a9 22 50 bd 96 39 ea bd 8c d3 98 3c
       0.04803516 -0.050814305 -0.11436765 0.01865556
0000b0 ef d0 9a 3d 97 11 c4 bd 99 0d 09 3e 6f 90 a6 3d
       0.07559382 -0.095736675 0.13384093 0.08133017
0000c0 62 9b 94 3d 2a 8e fe bc 04 2a ca bb d4 8f e1 3b
       0.072561994 -0.031073648 -0.0061695594 0.0068836007
0000d0 c1 d0 09 3e 90 00 20 be 14 18 95 3d 41 f1 49 bb
       0.1345854 -0.15625215 0.07279983 -0.0030813965
0000e0 cb 09 a7 3d c5 ac b4 bd 50 d8 46 3e 60 3d 61 3e
       0.08156165 -0.08822016 0.19418454 0.21996069
0000f0 6e 2b 5f 3e 4a df d4 bd 77 98 9f bd e4 53 9c bd
       0.21793911 -0.103941515 -0.07792752 -0.07633188
000100 4b cf 98 be 2e ef 77 3e d9 ac 12 bc 0a e8 08 3e
       -0.29845652 0.24212334 -0.008952343 0.13369766
000110 14 41 3f be 4d cc dd 3d b8 e7 b9 bd f1 43 63 be
       -0.18677169 0.10829983 -0.090774 -0.22193886
000120 9a 2d 3b 3c 51 aa b4 be 8d d5 83 3e fd d8 29 be
       0.0114244465 -0.3528619 0.25748864 -0.1658668
000130 1b 38 60 3e 69 13 02 be f0 14 91 3c 9a 2d ce bc
       0.21896403 -0.12702717 0.01771018 -0.025168229
000140 20 d1 ae 3c 83 97 a3 bd ae 33 c3 bd 79 03 43 3e
       0.021339953 -0.07987883 -0.095313415 0.19044293
000150 36 72 85 3c 3d 25 a9 3b 7c bc ff 3d 28 ec de 3d
       0.016289812 0.00516191 0.124871224 0.10884887
000160 3c 0f 4b 3b 56 bb 37 be a5 36 46 3d 22 d6 79 be
       0.0030984422 -0.17942557 0.048391957 -0.24398091
000170 c7 82 9c 3e d0 75 9e be e1 92 79 3d 7f 9f 8c 3d
       0.30568525 -0.3094926 0.06093109 0.06866359
000180 3f bc 07 3d b2 67 95 bd d1 39 ae bd 92 a2 19 3e
       0.03313851 -0.07295169 -0.08507121 0.15003422
000190 5c a9 38 be f7 b2 87 3d c0 27 3a 3c d4 33 f2 3c
       -0.18033355 0.06625932 0.011362016 0.02956573
0001a0 ed e5 18 3e 7d be 5d 3d cf 56 be 3c e8 5b 0c 3e
       0.1493146 0.054136742 0.023234753 0.13706934
0001b0 b4 62 14 3e ee 9b da 3d 61 40 d1 3d b5 40 f2 3d
       0.14490777 0.106742725 0.102173574 0.11828748
0001c0 3f 51 08 be 91 aa da 3d 31 eb 8c 3d 91 14 27 3e
       -0.13312243 0.10677064 0.06880797 0.16316439
0001d0 54 16 ee bd 55 04 6d be 32 a8 46 bd 75 5a b0 be
       -0.116253525 -0.23146184 -0.048500247 -0.34444013
0001e0 27 66 95 be d3 0e c7 3d 29 93 1f 3e 5f e7 12 be
       -0.291795 0.09719624 0.15583481 -0.14346074
0001f0 55 64 3e 3b ac e9 db bb 17 08 5d be 7e 25 2c 3e
       0.0029051502 -0.0067112055 -0.21585117 0.16811177
000200 b7 3f 14 be b1 6a b7 bc 9f eb 44 3d 9a 14 07 bd
       -0.1447743 -0.022389742 0.04807627 -0.03297863
000210 6f cb 51 bd fa 8b ec bd 48 ee ee bd c5 63 d1 3c
       -0.0512194 -0.11550136 -0.11666542 0.02556027
000220 eb a1 2a 3e e8 7e 27 be ff 8e 05 3e 7f 39 89 3e
       0.1666333 -0.16357005 0.1304283 0.2680168
000230 60 39 94 3d a1 f5 59 be 35 3e 81 bd f7 f2 00 3d
       0.07237506 -0.21285106 -0.06310693 0.03148171
000240 7e 3a 5d 3e bc ec 08 3c 78 da d2 bd 0f 9e 84 bd
       0.21604344 0.008357223 -0.10295576 -0.0647546
000250 62 d0 42 3d fb ad 78 bd d2 4c 0b 3e 60 a7 52 3b
       0.04756201 -0.060712796 0.13603523 0.003214322
000260 6d 52 37 be be 5a af bd 86 a2 98 3e 4b 1a 8e bd
       -0.17902537 -0.085622296 0.29811496 -0.06938609
000270 07 fb 96 bd 20 e5 34 3d 2a 80 d8 3c 87 2e b4 bd
       -0.073720984 0.044163823 0.0264283 -0.08797937
000280 3a d3 2a 3d 5c 93 3c bd ae 53 1c 3d fb 7a 8a 3d
       0.041705348 -0.04603897 0.03816574 0.06761738
000290 4c 02 81 bd 09 f1 c6 3d 35 70 88 bd b7 8a 8b 3e
       -0.06299266 0.097139426 -0.06662027 0.2725427
0002a0 82 80 e0 3d 36 cf 78 3d 5f be 11 3b 53 9d 47 be
       0.10962011 0.060744487 0.0022238714 -0.19493608
0002b0 2d 90 a7 bd a2 5f c5 3d 4d 5c 50 3d 3a 98 ce 3b
       -0.08181796 0.09637381 0.050869275 0.006304768
0002c0 d2 7f 31 bd 7c a0 2c be 43 c2 c8 3c 9b 8d c9 3e
       -0.04333479 -0.16858095 0.024506694 0.3936585
0002d0 24 5f c3 bd 64 f6 1d bd 1f c2 df bd 50 2e bc 3d
       -0.09539631 -0.038565055 -0.109256975 0.09188521
0002e0 09 19 21 3d c0 24 f1 3d cc a1 67 bd 69 aa ab bd
       0.039330516 0.11774588 -0.056550786 -0.083821125
0002f0 fa dc ea bb aa 78 89 3c d8 1e 2a be 41 b8 38 3d
       -0.0071674557 0.01678117 -0.16613328 0.045097593
000300 50 0b 5d bd ba 0e 1a 3e aa 8d 00 be 97 9b 3b 3e
       -0.053965867 0.1504468 -0.1255404 0.18321072
000310 15 54 3d 3d ca 72 c9 3d 9f d0 38 3c 65 03 f8 bd
       0.046222765 0.098363474 0.011280208 -0.121100225
000320 7e cb aa be 13 b6 69 3d 5e 47 5d 3d 72 c4 f6 3c
       -0.33358377 0.057058405 0.05402314 0.03012297
000330 02 59 06 3c 8d 89 4b 3d 54 e2 2a be c2 ad f4 bd
       0.008199932 0.049691726 -0.166879 -0.11947204
000340 04 7d 1c bd dd 01 03 3e a4 bf 28 3d bc c2 37 3d
       -0.03820516 0.1279368 0.041198388 0.044863448
000350 cc f7 9e 3e 42 58 57 bd 0b 28 38 bd 66 1a 1a 3e
       0.3104843 -0.052574404 -0.044960063 0.15049133
000360 21 6b 85 3d 0d 8f 12 be 16 fa 33 3e 31 8e 80 3e
       0.06514574 -0.14312382 0.17575869 0.25108483
000370 2f c3 e2 3d ba fe e3 bb fc 2e 06 be 06 16 96 3d
       0.110723846 -0.006957856 -0.1310386 0.073284194
000380 9a 54 6a be 15 4f 00 be 52 48 6c 3d f2 9b d8 3c
       -0.22883835 -0.12530167 0.057686158 0.026441548
000390 7b ce 4e 3e e5 a2 3c 3e 2e 65 31 3e fd 20 af 3d
       0.20195954 0.18421514 0.17323753 0.08551214
0003a0 30 28 af bd 34 6f 90 ba 81 05 a3 3b f2 ee 1e 3e
       -0.08552587 -0.0011019469 0.0049750214 0.15520838
0003b0 94 5f d2 bd ae ab ad bd fa 57 7c 3e 75 59 3f 3d
       -0.10272136 -0.08480011 0.24642935 0.046716172
0003c0 d2 c9 af 3d c0 5a c7 bd 9e 68 2a 3e 49 de 9d 3c
       0.08583416 -0.09734106 0.16641471 0.019271033
0003d0 29 0f 3e bc 98 6f d9 bc 93 7f 4e 3e 30 1b 91 3b
       -0.011600294 -0.02654247 0.20165853 0.00442829
0003e0 33 34 9e bd 9e 53 24 3e c1 d0 36 3e 1e af 88 3e
       -0.077248 0.16047522 0.17853071 0.26696104
0003f0 73 5a fa bc 75 f7 39 3e 06 cb a6 bb 8f be 91 3d
       -0.030560708 0.18160804 -0.0050901202 0.07116424

net.0.bias f4 [60]
000000 13 aa b0 bd 77 c5 14 be 53 c7 18 3e 43 38 90 bd
       -0.08626189 -0.14528452 0.14919786 -0.07041981
000010 20 8e 5c 3c 28 4d 08 bd 13 d5 39 be cc 7f 50 3d
       0.01346162 -0.033276707 -0.18147688 0.050903127
000020 e2 fc 8e bd 4f 92 17 be 57 7f 1a bd c5 65 c6 3d
       -0.06981827 -0.14801906 -0.037719097 0.0968738
000030 da 42 f0 bd bd 86 af 3d e7 b1 bf 3c ec f1 98 3c
       -0.11731501 0.08570621 0.02340026 0.018670045
000040 7f 59 f3 bd c1 e3 ec 3d ca d5 0b bd 5f 16 f2 3d
       -0.118823044 0.11566878 -0.034139432 0.11820673
000050 09 37 0f 3d 47 53 77 3d 68 9d 2e be d0 0d b5 3c
       0.034964595 0.060382154 -0.17052233 0.022101313
000060 5a 1e af 3d 94 9b 0d ba fb a0 19 3e e7 55 1f be
       0.08550711 -0.0005401906 0.15002815 -0.15560113
000070 fb fe de 3d c2 d2 82 bd ca c4 e1 bd e0 e8 3e be
       0.108884774 -0.06387855 -0.11023863 -0.18643522
000080 c0 02 dd 3d 05 be ff bd 25 8c e9 bd 5e 39 20 bd
       0.1079154 -0.12487415 -0.114036836 -0.03911721
000090 0b f0 8c 3d f5 ec 9f bd 9d c5 fd 3c f5 c4 e1 3d
       0.06881722 -0.07808868 0.030978018 0.11023895
0000a0 a8 0f e5 3d e6 6f b6 3d bc f2 1d bd fb a0 b0 3d
       0.11184627 0.08908062 -0.038561568 0.086244546
0000b0 e7 67 f1 bc ce 6b b3 3d 80 6c 9f 3d a7 38 de bd
       -0.02946849 0.087607965 0.077843666 -0.10850649
0000c0 5f 00 86 3d 31 3c a3 bd f4 ce fb bc 07 d1 29 3e
       0.065430395 -0.07970465 -0.030738331 0.16583644
0000d0 65 19 49 3e 40 3f f4 3c 0a 54 eb bd ed 3c 01 3e
       0.19638593 0.029815316 -0.114906386 0.12620898
0000e0 26 79 85 bc a9 70 a9 3d e2 b3 2a be a2 2f bc 3b
       -0.01629312 0.08273441 -0.16670182 0.005742983

net.2.weight f4 [60, 60]
000000 02 cc 9f 3c 4b 3c b1 bd c9 ad 61 3d 58 56 39 be
       0.019506458 -0.08654078 0.055097375 -0.18099344
000010 31 7c d1 bd 01 8a 30 3d 36 42 2d bc 11 e4 a3 bd
       -0.10228766 0.04310036 -0.010574868 -0.080024846
000020 33 a8 de ba e9 8c e0 bc ac 3b ca 3d 2c 6d 27 bd
       -0.0016987383 -0.027410941 0.09874663 -0.0408756
000030 04 6a 13 3e 45 00 c0 3d b7 9a 73 be 4f e3 a6 3e
       0.1439591 0.093750514 -0.23789488 0.32595298
000040 5a c7 a1 3d d1 bd 9f 3d 0a 4b 4b 3e 64 75 5d bd
       0.078993514 0.077998765 0.19852844 -0.05406703
000050 21 66 60 3c 22 a3 8e bd 63 71 0a 3b 7f 5c fe bd
       0.013696224 -0.06964709 0.0021124713 -0.12419986
000060 29 1b ae 3d 88 80 14 3e 9c 65 04 bd 8e ea 57 bd
       0.08501274 0.14502156 -0.032323465 -0.052713923
000070 dc 58 49 3d 84 97 2b bd 90 82 03 3e ea 03 0b be
       0.04915701 -0.041892543 0.12842774 -0.13575712
000080 23 ed ba 3c 3a da ad 3d 65 bf 8b bd 60 86 de bd
       0.022818154 0.08488889 -0.06823615 -0.10865474
000090 26 83 64 3d fe b6 50 3e a0 0b 99 be bc ed 4b bc
       0.055789135 0.20382306 -0.29891682 -0.012446817
0000a0 75 55 9d bd 56 8e f5 3d bc ff 58 bc 5e 39 89 3d
       -0.07682315 0.11990039 -0.013244566 0.06700395
0000b0 6a 2d 61 3e 5b 1c c5 3d 3c a0 ad bc 6b 98 d5 bd
       0.2198998 0.09624549 -0.02119457 -0.10429462
0000c0 3d a4 8d 3d 00 7f d9 3d 34 07 f8 bd 3a 8b 23 3e
       0.069160916 0.106199265 -0.12110749 0.1597108
0000d0 09 c0 62 3d 9c d8 79 be ff 70 4d bc 21 99 e3 3c
       0.05535892 -0.24399036 -0.012539147 0.027782978
0000e0 ef 5c c2 3d ee 1c d7 3d 47 02 61 3e d1 43 26 3d
       0.09490382 0.10503565 0.21973525 0.04059202
0000f0 4e 17 a8 bd 47 71 40 bc ce 7d 0b 3d 12 39 95 3c
       -0.0820757 -0.011745757 0.034055524 0.01821569
000100 a0 bf aa 3d 9b 55 b0 bd cc 9d 6c 3e c2 55 6d 3d
       0.08337331 -0.08610078 0.2310707 0.057943113
000110 24 e7 a4 3d 3d 77 2a 3e ef 45 be bd c7 1d 2a 3e
       0.08051899 0.16647048 -0.092906825 0.16612922
000120 83 c2 40 be 95 ee e3 bc d8 93 f3 3d 45 34 7c be
       -0.188242 -0.027823726 0.11893433 -0.24629314
000130 cd ba 17 bc e4 9a c1 3d 99 e6 5e be 21 74 0d be
       -0.009260845 0.09453371 -0.21767654 -0.13813831
000140 75 76 98 bd 0d 82 6a 3d 1f 78 c5 3d 21 b9 5e 3d
       -0.07444469 0.057252932 0.09642052 0.05437577
000150 f6 31 d0 bd cd a3 84 3d ce 4a ca bd f7 e2 ce bc
       -0.10165779 0.06476555 -0.09877549 -0.02525471
000160 6f ef 54 3e b1 4a 27 bd 97 8f c2 bd 18 93 5d 3e
       0.20794462 -0.040842716 -0.09500044 0.21638143
000170 c5 35 1e bd 20 0d d3 bd 33 ad b3 3d 30 03 70 3a
       -0.038625497 -0.10305238 0.087732695 0.00091557484
000180 8a 01 56 3e d8 33 a1 3d 59 7d 63 bc 69 32 94 be
       0.20899025 0.078712165 -0.013884866 -0.2894471
000190 70 47 b7 bd 5c 34 13 3d 5c 3d 54 3e 7a cf 1e be
       -0.089491725 0.035938606 0.20726532 -0.15508834
0001a0 ca d4 ca 3d 0a 7b 06 3d e5 27 ba 3d 0f 7b e9 3d
       0.099038675 0.032832183 0.090896405 0.11400425
0001b0 ff ab 1a bd c5 35 67 be 72 53 a2 bc b5 34 20 3e
       -0.037761685 -0.22579105 -0.01981518 0.15645106
0001c0 b0 47 fb 3d 24 69 e6 3a 44 52 52 bd 27 c3 98 3b
       0.12269533 0.0017578942 -0.051347986 0.004661936
0001d0 4f d2 ec 3d c1 e5 8c 3d 34 48 9b bc 50 bd ab bc
       0.11563551 0.068797596 -0.018955328 -0.020964295
0001e0 17 fa 49 3d 35 0d 1a 3e 8e 32 23 3e 36 31 fc 3d
       0.04931077 0.150441 0.15937254 0.12314074
0001f0 ed 16 c2 3d 3d 31 05 39 ea 24 4e be df a3 74 be
       0.09477029 0.00012702211 -0.20131269 -0.23890637
000200 ca 71 ad 3e 3d 21 99 3c 99 c5 ba bb 9c cb de 3d
       0.33875877 0.018692607 -0.005699825 0.10878679
000210 c3 65 54 bd 15 27 e7 3d 39 4d 5d 3e b9 21 a3 be
       -0.05185486 0.11286751 0.2161149 -0.31861666
000220 90 ef 62 be 55 b6 1a be ec af 36 be a0 53 c6 3d
       -0.22161698 -0.15108617 -0.17840546 0.09683919
000230 62 d8 f5 3d 17 ef 2e bd f4 f5 3e be e2 df 85 3d
       0.12004162 -0.042708483 -0.18648511 0.06536843
000240 8e 10 36 3e 9e c3 04 be 01 53 70 bd dd 7a 25 be
       0.17779753 -0.12965247 -0.05867291 -0.1616015
000250 f1 f0 3c be 70 10 dc bd 22 71 d1 3d 76 a0 38 3e
       -0.18451287 -0.10745323 0.102266565 0.18029961
000260 7c 0e 2c be 78 44 e7 3b d8 2e 3b be 8e 5f 37 3e
       -0.168024 0.0070577227 -0.18279588 0.17907545
000270 f9 c1 53 3e f4 8a e0 3c 30 8c 21 be 43 80 54 3e
       0.20679463 0.027410008 -0.15776134 0.20752053
000280 b3 7f 4b bc 36 cd 7a 3d 4c 92 d7 bd 13 c0 ba 3d
       -0.012420583 0.06123086 -0.10525951 0.091186665
000290 60 14 21 be 04 44 73 3e 82 ec 29 3d b3 8e ab bc
       -0.15730429 0.23756415 0.041485317 -0.020942068
0002a0 11 a3 62 3d 95 5f e8 3d 11 0d 08 3d 9e 72 d2 bd
       0.055331293 0.11346356 0.033215586 -0.10275768
0002b0 af 89 b1 bd 3e 8f 26 bc 9e 4a a8 3d 47 81 61 be
       -0.08668839 -0.010165988 0.08217357 -0.22021972
0002c0 d3 d6 28 bd 0b cb ff 3d b1 b5 4d 3e ca e8 c9 3d
       -0.041220497 0.12489899 0.20088841 0.09858854
0002d0 57 3c be bd 4f 8b 12 be 7c 00 11 3b f7 c4 c6 3c
       -0.09288853 -0.14310955 0.0022125533 0.024263842
0002e0 58 48 ab 3d e2 4b 8e 3d 54 fd 28 be d9 bb 0f 3e
       0.08363408 0.06948067 -0.16502887 0.14036502
0002f0 8e 8f 0d 3d 17 19 48 be 43 e1 0a 3e ef 99 0c be
       0.034560733 -0.19540821 0.13562493 -0.13730596
000300 33 68 44 3e 34 3d 99 3c 36 50 8b 3e 1f 13 58 3e
       0.19180374 0.018705942 0.27209634 0.21101044
000310 b3 05 dc bd 8f 70 2d 3e f5 46 48 3e 38 59 99 3d
       -0.107432745 0.16937469 0.19558318 0.0748772
000320 f2 2e 48 bd 77 91 95 3e 1c 7a 9c be fb 06 54 bc
       -0.048872896 0.29212543 -0.30561912 -0.012941117
000330 07 c4 e2 bd 9c 30 8d bd f9 d0 e9 3d d7 a8 b5 bd
       -0.110725455 -0.06894037 0.114168115 -0.08870094
000340 68 ca 1b 3e c3 97 92 bc 39 be a8 3c 33 cd 20 3d
       0.1521393 -0.017894631 0.020598518 0.039258193
000350 0a e5 20 bd e0 cd d7 3c 95 8e 3b bd 1b 92 c7 3d
       -0.03928093 0.026343286 -0.045790274 0.09744664
000360 77 6d 0a 3c df 5e a3 3c 20 4c d0 3d c2 ca b6 bc
       0.00844895 0.019942699 0.1017077 -0.02231348
000370 4f 28 39 bd d9 b2 bb bd 70 5c 0e bd c1 93 38 3c
       -0.045204457 -0.09164972 -0.034756124 0.011265696
000380 82 dd 9f bc 2f ad 7a bd ea 46 57 be 0f 6a 70 bd
       -0.019514803 -0.061200317 -0.21023145 -0.058694895
000390 4f 25 b5 3a f1 48 b9 3d e4 89 f5 bd b2 f6 78 bb
       0.0013820323 0.090471156 -0.11989191 -0.0037988839
0003a0 79 0f 12 3e fb 86 ff bd 6a e2 31 3e da aa 41 39
       0.14263715 -0.12476917 0.17371526 0.00018469561
0003b0 2f 5e 05 3e 36 6a 32 3e cc 40 e5 bd a5 86 08 3c
       0.1302421 0.17423329 -0.11194 0.008332883
0003c0 98 a7 18 3d 03 ac 1c be b8 d9 d3 3d 52 8d 09 be
       0.037269205 -0.15299992 0.10344261 -0.13432816
0003d0 19 ac 57 3e 73 f2 8d 3e 02 62 40 3e 2f c3 ae bd
       0.21061744 0.27724037 0.18787387 -0.08533322
0003e0 e3 ab 71 3e 3c 7f bb bc c8 1f 0c bc ec cf ce bd
       0.23600726 -0.022887819 -0.008552499 -0.10098252
0003f0 6f d9 7d bc d5 a6 6e 3d f7 6c 39 3c 09 eb 44 3d
       -0.015493735 0.058264572 0.011317483 0.04807571
