results of reviewer/XJTU results/2-2/Experiment9/model.pth (torch, 59838 bytes, 14 tensors)

encoder.net.0.weight f4 [60, 17]
000000 47 15 20 3d ee ff e8 3d 24 75 dd bd b0 42 18 bd
       0.03908279 0.1137694 -0.108133584 -0.037172973
000010 89 d1 41 bd b5 3e 5d 3e 74 bc 9d bd 17 64 de 3d
       -0.04731897 0.21605952 -0.0770196 0.108589344
000020 b8 11 9e 3e 43 ef cc 3d 6c ed 3e 3e 5e a2 68 3e
       0.30872893 0.10006573 0.18645257 0.22718188
000030 92 e3 92 bd 34 86 0c be 97 41 8a 3d 17 31 dd 3d
       -0.07172312 -0.1372307 0.067507915 0.10800379
000040 00 9d 72 bc ae 21 17 3e ef 72 11 be 97 95 3f 3e
       -0.0148079395 0.14758942 -0.14204 0.18709408
000050 8a eb 8f be 55 0d 14 bd 11 49 b2 bd ea de 8b be
       -0.2810939 -0.036145527 -0.087053426 -0.27318507
000060 6d 88 21 bd 41 e2 56 bd 62 1e 98 3d 58 44 0d 3e
       -0.039436746 -0.052461866 0.0742767 0.13795602
000070 74 f7 ea bd 68 53 a4 3d 94 0a 6d 3c 28 55 0e be
       -0.11472979 0.08023721 0.014467854 -0.13899672
000080 7a 3f 63 3b 1f 0f ac 3c 41 c6 f1 bd 99 ab 57 be
       0.0034675286 0.021003304 -0.11805392 -0.21061553
000090 c5 d1 9d be 19 8c ef 3c c3 82 9e be 4e 91 89 be
       -0.30824104 0.029241608 -0.30959138 -0.2686867
0000a0 46 cb 28 3d 58 9c 2c be 89 ed a8 3d ec 40 71 be
       0.04120948 -0.16856515 0.08248431 -0.23559922
0000b0 2b 5d 14 3e a8 b3 65 3d 94 2e 16 3e 65 e9 13 3e
       0.14488666 0.056079537 0.14666206 0.14444502
0000c0 ec 29 70 be 46 58 8e 3d 49 41 a0 bd 89 2e 90 3e
       -0.23453492 0.069504306 -0.07824952 0.28160504
0000d0 c6 c4 90 bd 42 c5 13 be e9 ae ee 3a 60 3a 82 be
       -0.070687816 -0.14430717 0.0018210086 -0.25435162
0000e0 ba 22 9e bd 1c ba 92 3e 46 11 56 3e 49 78 ce bd
       -0.07721467 0.28657615 0.20905027 -0.10081536
0000f0 fc 8e 6d 3e 09 75 85 bd c3 33 c3 3b 68 90 97 3b
       0.23199075 -0.06516463 0.005957098 0.004625369
000100 af b9 60 bc 1e 06 f6 bd fb ca a3 3d 57 53 8b 3c
       -0.013716145 -0.120128855 0.079977 0.017007513
000110 c3 2f 8b 3c 7a f2 26 3e e8 04 9a 3e 80 82 1d 3e
       0.016990548 0.16303435 0.30081868 0.15381813
000120 bf c4 da 3b 41 6b 01 3e 77 73 f4 bc cf f3 01 bd
       0.006676286 0.1263857 -0.029840214 -0.031726655
000130 b4 81 8e be f0 df 5e 3c b8 60 f0 3d 48 a4 18 be
       -0.2783333 0.013603196 0.11737198 -0.14906418
000140 f7 12 0d 3e 4d 59 d9 bd 3a fe af 3c 08 ea e7 bd
       0.13776766 -0.10612736 0.02148353 -0.11323935
000150 79 2b 1a 3e fa 35 84 bd 14 57 86 bd e2 55 49 3c
       0.15055646 -0.06455608 -0.065595776 0.012288542
000160 e1 ee 0f be ec 44 ae 3d 18 be 2f 3e af 60 a3 3d
       -0.14055969 0.085092396 0.17162359 0.07977425
000170 ae d8 04 3e da 30 15 be 7d 3b cd 3d b2 0f 83 bd
       0.12973282 -0.14569417 0.10021112 -0.06399478
000180 b3 aa f0 bd 2f 36 87 3c 4b 34 c7 bd 3e 2b bd 3d
       -0.11751308 0.016505329 -0.09726771 0.092367634
000190 b7 a5 aa 3d a8 94 89 3e 9b be 55 be db 16 49 3d
       0.08332389 0.26871228 -0.20873491 0.049094062
0001a0 25 f8 92 3d d9 2f 81 3c 04 27 cb bd b1 97 85 3e
       0.07176236 0.015769886 -0.09919551 0.26092294
0001b0 81 9b aa 3e cd f1 b6 bd dd 0a 6a 3e 45 3a b8 bd
       0.33321765 -0.089328386 0.22855707 -0.08995489
0001c0 18 75 28 3d 04 a9 33 be 23 b5 f0 3a c7 12 f9 3d
       0.041127294 -0.17544943 0.001836453 0.121617846
0001d0 71 89 46 3e e0 20 6a 3d 64 85 c7 be 17 44 d8 3c
       0.19388367 0.05716026 -0.38968956 0.026399655
0001e0 a9 f2 64 bd 3f 2a 98 bd 05 76 ac bc 7f 06 c2 bc
       -0.05589548 -0.07429933 -0.02105237 -0.023684738
0001f0 18 17 a5 bd 80 98 09 3c 81 9c a8 3c bb 6e ff bc
       -0.080610454 0.008398175 0.02058244 -0.03118073
000200 ce 6d 73 3b cc f5 42 bd 6e f7 0b bd 23 26 9c bd
       0.0037144306 -0.04759769 -0.034171514 -0.076244615
000210 bc 09 49 be 49 77 87 3d 46 7e 1c 3d 00 2d aa bc
       -0.1963262 0.06614549 0.03820636 -0.02077341
000220 df 8e e8 3d 2a 7a 09 3d 8b 0b 26 be 3d 91 a0 bd
       0.113553755 0.03356377 -0.16215341 -0.07840202
000230 28 5e 8a 3e e4 6e 0d 3d 18 20 4c be 48 d3 1e bd
       0.2702496 0.03452958 -0.19934118 -0.038775712
000240 b0 c0 3b 3e d6 f3 45 bc 1f 80 9e bd a0 6e 3a be
       0.18335223 -0.012082061 -0.07739281 -0.18206263
000250 36 39 db 3d 60 10 48 be 62 f0 84 3e 65 22 29 3e
       0.107042715 -0.19537497 0.25964648 0.16517027
000260 8a 3e ad bc da 17 48 3d a7 a0 8f 3e 40 35 af 3e
       -0.021147985 0.04885087 0.28052256 0.34220314
000270 0e 6c 8c 3a 7a 3e b1 be d4 14 8a 3d 47 5e f9 bd
       0.0010713355 -0.34617978 0.06742254 -0.12176185
000280 b5 65 95 3b 62 c0 7d bd 01 08 d3 bd 00 04 46 bd
       0.0045592436 -0.06195105 -0.10304261 -0.04834366
000290 08 24 89 bd 5e 4a c5 bd 06 7a 6e bd 43 26 b4 bd
       -0.066963255 -0.09633325 -0.05822184 -0.0879636
0002a0 e0 f0 f9 3d 1e 4d af bc 05 1a 9d 3d 01 0f 90 be
       0.122041464 -0.021399077 0.076709785 -0.28136447
0002b0 a8 77 44 3d 34 c2 68 3e ae de 99 3c 24 c4 80 3d
       0.047965676 0.22730333 0.01878294 0.06287411
0002c0 d8 06 85 be 34 db 42 3c 2b 0d da bc 57 0e 15 3e
       -0.25981784 0.011893082 -0.026617607 0.14556251
0002d0 2a d5 60 3e a3 b3 35 3d 08 12 77 be b9 3e 87 3d
       0.21956316 0.044360768 -0.24127972 0.0660376
0002e0 c0 e0 4f 3e 87 45 88 3d 44 ab a9 3d 90 a1 96 3c
       0.20300579 0.06653886 0.082846195 0.018387586
0002f0 21 46 b8 bd a6 a1 45 3d 80 fa c9 bb 81 78 96 be
       -0.08997751 0.048249863 -0.006163895 -0.29388812
000300 37 19 ab bd 4b 13 91 bd e4 ae 6f bd 10 df e0 3c
       -0.08354419 -0.07083758 -0.058516398 0.027450114
000310 7f 42 ba 3c 53 d8 9b 3e f7 bb ba bc e8 2a dc 3d
       0.022736786 0.3043848 -0.022794707 0.10750371
000320 39 63 b7 bd 5c d5 9d 3e d6 d4 ec bd ff 75 88 be
       -0.08954472 0.30826843 -0.11564033 -0.26652524
000330 47 00 12 be 0d 77 10 be 6f 89 4f 3e 05 52 8f 3d
       -0.14257918 -0.14107914 0.2026727 0.06998066
000340 7f 7c 0a 3e ab da ad bd 1d 16 fb 3d 65 d8 24 bd
       0.13524054 -0.08488973 0.12260077 -0.040245432
000350 d9 08 3c 3e 5d 9b 96 3d 87 bf 2a 3e 7e 96 74 3d
       0.1836275 0.07353852 0.16674624 0.059713833
000360 f8 d5 f5 bc 2c bc 12 3e b1 82 46 3e 8f e2 a5 3d
       -0.030009255 0.14329594 0.19385792 0.08099853
000370 c2 7d c7 bd 21 89 12 3b bb 59 cc 3c 48 38 4d 3e
       -0.09740783 0.0022359567 0.02494513 0.20041001
000380 84 e7 09 be 69 68 59 3e bd ff 46 bd 4b c2 0a bd
       -0.13467222 0.21231236 -0.048583735 -0.0338767
000390 70 7d 02 3e b4 84 f9 3d 48 52 9f 3d 57 12 f3 3d
       0.12743163 0.12183514 0.07779366 0.118687324
0003a0 0d d1 5b be 6d d5 17 bd 85 30 1d 3e f2 de e9 bd
       -0.21466465 -0.037068773 0.1535054 -0.114194766
0003b0 91 33 8f 3d 87 9c 3d 3e b3 cd bd 3c ce 5f e8 bd
       0.069922574 0.18516742 0.023169374 -0.11346398
0003c0 b8 d2 03 3e 81 39 8a 3d 5b 48 5e 3e 7e a7 fb 3d
       0.12873352 0.06749249 0.21707289 0.12287806
0003d0 5b 38 0d be 72 c9 6d be 49 56 af 3d 5d 9a 10 bd
       -0.13791029 -0.23221377 0.085613795 -0.035303462
0003e0 eb fc 03 3e be 7b 0f bc 88 73 67 be 01 44 7b 3d
       0.1288945 -0.00875753 -0.22602665 0.06134415
0003f0 ec 3e 80 3d 83 60 14 bc 50 57 75 3e bb a3 f8 3d
       0.062620014 -0.009056213 0.23959088 0.12140604

encoder.net.0.bias f4 [60]
000000 e2 4a cb bc a1 d6 c1 bc d8 be b7 bc 1b c9 a6 bd
       -0.02481598 -0.023661913 -0.022429869 -0.081438266
000010 71 be b9 3d 34 75 02 bd 2d 60 92 bc d8 c9 c1 39
       0.09069527 -0.031850055 -0.017868126 0.00036962214
000020 24 44 28 3c bb 5e 46 bb b0 e0 20 3d 93 54 b2 3b
       0.010270152 -0.0030268866 0.03927678 0.005442211
000030 44 86 ac bc 74 1f d0 3c d0 34 9b bc 26 de aa 3b
       -0.021060117 0.025405623 -0.018946081 0.0052144704
000040 38 81 c8 bc 60 df 2d 3d 03 12 02 bd e0 66 c2 bc
       -0.024475679 0.042449355 -0.03175546 -0.023730695
000050 c3 6b 29 3d 9d ba 9b 3b 23 6b 11 3d 64 dc 6c bc
       0.041362535 0.0047524706 0.035502564 -0.014456842
000060 4a 4e 00 bd 08 1c 8b 3c 36 84 24 bd 6b 51 23 3d
       -0.031324662 0.01698114 -0.04016515 0.039872568
000070 b9 51 15 bd e2 2f d3 bd 06 dd 84 bc 6c 07 30 bc
       -0.03645489 -0.10311867 -0.016218673 -0.010743957
000080 3f 31 fe bc 10 2b 8a 3d ed 32 df bc b7 6b a7 3b
       -0.031029342 0.06746495 -0.027245963 0.005109276
000090 90 62 f0 bc a6 cd 8a 3c 66 9d cd bc 7b 76 c1 bc
       -0.029343873 0.016943764 -0.025099467 -0.023616066
0000a0 cb 6d 36 3d 30 31 86 3c 40 e1 bb 3c 48 54 5e bd
       0.0445383 0.016380876 0.022934556 -0.054279596
0000b0 64 a5 80 3c 02 70 95 3c bc 88 f3 bc 86 ba 07 bd
       0.015703864 0.018241886 -0.029728286 -0.033136867
0000c0 34 0d 08 3d 56 71 84 3a 39 1c 43 3c 26 0b 05 3d
       0.033215716 0.0010104578 0.011908584 0.032481335
0000d0 04 63 2b bd c5 07 25 3d 36 08 33 bc ca 7e f1 bc
       -0.041842476 0.040290613 -0.010927251 -0.029479403
0000e0 54 33 82 bd 23 bb 18 3a 14 91 1e bc 97 8a f2 3c
       -0.06357446 0.00058262254 -0.009678144 0.0296071

encoder.net.2.weight f4 [60, 60]
000000 ca 9e 8e bd f1 c0 8a bc 16 ab 96 bd 1d a3 b7 3c
       -0.0696388 -0.016937705 -0.07356851 0.022416646
000010 ed c8 a5 bd 80 7b 66 3e 2d 1d cf bd 11 bd 31 3e
       -0.08094964 0.22508049 -0.10112987 0.1735728
000020 25 36 f7 3c 0e 41 3f 3e 68 48 d2 bd 08 bd 42 3d
       0.030177185 0.1867716 -0.10267717 0.047543555
000030 c4 a6 ba bd 81 a1 af bd 6b 17 8b bd ec 9e de 3d
       -0.09113839 -0.08575726 -0.06791576 0.10870156
000040 f8 0c ee 3d a2 56 95 3c b6 db 46 bb 14 da 99 bd
       0.11623567 0.018229786 -0.003034336 -0.07512298
000050 26 4c 42 3a bd 9b 10 bd 47 4f ce 3d 6a 6a a8 bd
       0.00074118597 -0.035304774 0.10073715 -0.08223422
000060 c3 9b 50 3e 13 4c 22 bd 19 89 44 be ba 90 89 bd
       0.20371918 -0.03962333 -0.19192924 -0.067170575
000070 9b dd 13 bb 2a c0 00 3e 37 b8 86 bd 55 33 9d bd
       -0.0022562507 0.12573305 -0.06578105 -0.076758064
000080 e2 c2 90 3d ff c3 25 bd d0 38 d0 b9 40 b9 19 bd
       0.07068421 -0.04047012 -0.0003971518 -0.037530184
000090 a3 89 cf 3c 2a ed 4f 3e 04 0c b3 3d 6f 2d 00 be
       0.025334185 0.20305315 0.08742526 -0.12517332
0000a0 f7 45 3c bd 9c 9f 79 3d 53 74 38 be ff ff e3 bd
       -0.04596516 0.06094323 -0.18013124 -0.11132812
0000b0 5c b3 f4 3d de 4c a1 3d da 75 8b 3c 33 fd 43 bd
       0.119482726 0.078759894 0.01702397 -0.04784889
0000c0 65 04 21 be cc e7 1e be da 10 38 3c ad cc 9f 3c
       -0.15724333 -0.15518111 0.0112344865 0.019506777
0000d0 84 06 ec bc 47 be 33 3d 26 d2 f4 bd a7 d4 e7 3c
       -0.0288117 0.043882634 -0.11954145 0.028299643
0000e0 f1 7b 09 bd aa ad 02 3e c9 f1 9c bd 9b f7 02 3e
       -0.033565465 0.1276156 -0.07663304 0.12789766
0000f0 a2 02 86 bd 50 16 4b 3e 5e 91 88 3d 97 3a 8d bd
       -0.06543471 0.1983273 0.066683516 -0.06895941
000100 3d 5c ec 3c b6 ed cc 3d f5 53 66 3d 27 25 7f 3b
       0.028852576 0.10006277 0.05623241 0.0038932057
000110 26 df 2f bd b7 06 98 3c 6b 3b 30 3e d9 38 da bd
       -0.04293742 0.01855789 0.17210166 -0.10655374
000120 67 10 2c be 84 94 aa bd 62 67 97 bd 92 01 17 bd
       -0.16803132 -0.08329108 -0.073927656 -0.036866732
000130 e2 4c 89 bb 1e da 06 bb 6e 19 ec 3b b8 d6 16 be
       -0.0041900733 -0.0020576785 0.00720518 -0.14730346
000140 86 ad 1a be 02 f7 2f bd 54 6f dc bc f6 52 d9 bd
       -0.15105256 -0.042960174 -0.026908554 -0.10611527
000150 d2 d5 4b 3e af 72 52 bd b2 7b 34 bd 2c f0 9c 3d
       0.19905785 -0.051378902 -0.044063278 0.07662997
000160 70 7b 25 3e bb a1 dd bc 78 d5 c0 bd 5a 6c 1c be
       0.16160369 -0.027054658 -0.09415716 -0.15275708
000170 5c a3 0c bc de b3 86 3d e7 d0 85 bd 94 d4 9a bc
       -0.00858387 0.06577276 -0.065339856 -0.018900193
000180 6c e4 30 3a 36 8f b0 3d f2 cf 4a 3d 79 b2 90 3c
       0.00067479047 0.08621065 0.04951472 0.017663227
000190 c4 92 51 bd 47 9f 6a bd f1 e3 d9 3b 0a d5 9a be
       -0.051165357 -0.057280805 0.006649487 -0.3024066
0001a0 ea 06 04 3c 64 67 9c bc 87 b3 7e 3e 5d ef 88 bd
       0.008058289 -0.01909227 0.24873172 -0.0668628
0001b0 a0 da a2 bd c5 fb 2d be 2e db d0 3d 2a 5d e7 bd
       -0.07951856 -0.16990574 0.10198055 -0.112970665
0001c0 2d df 0d be cd d0 85 bd 6d 23 62 be 02 79 46 be
       -0.13854666 -0.06533966 -0.22083826 -0.19382098
0001d0 de 42 08 3d f5 5e 21 be 58 62 ab 3d 44 00 35 3d
       0.033266895 -0.1575888 0.08368367 0.044189706
0001e0 13 83 1e be ec 4f d9 3b 0d 36 32 3e 06 42 03 3d
       -0.15479688 0.006631842 0.17403431 0.032045387
0001f0 ec b3 70 be eb 0e 90 3d 82 1c 14 3e 54 7a 9a 3d
       -0.23506135 0.070340954 0.14464 0.075428635
000200 75 fb 30 bd cf 30 8b 3e bd 0f 9c bd de 22 d5 bd
       -0.043208558 0.27185676 -0.07620189 -0.10407041
000210 44 54 8f bd 77 4e aa 3d fa 4c 85 3d 7c 1b 94 bd
       -0.06998494 0.08315747 0.06508823 -0.07231805
000220 eb c7 c3 3e c7 61 87 be 2e 2f 09 bd 79 99 23 3e
       0.38238463 -0.26441786 -0.03349226 0.15976514
000230 8c 5c 10 3d 53 01 0b be 1c f8 15 be 92 ce e0 bd
       0.03524451 -0.13574724 -0.14645427 -0.109769
000240 88 27 a6 3c 29 ce bb 3d 17 9f a0 3c 7f 0d 16 3e
       0.020282522 0.09170181 0.01960711 0.14653586
000250 98 30 53 bd 75 e8 3d bc 7f bd f9 bd 91 9b 6c bd
       -0.051560014 -0.011591067 -0.12194347 -0.057765547
000260 6f 92 f0 bd 4b 65 23 3d 9d b9 ec 3d 39 72 20 3c
       -0.1174668 0.039891522 0.115588404 0.009792858
000270 06 d1 58 3c 88 ce c1 3c 54 3a 76 3e 9a cd e7 3d
       0.013233429 0.023658052 0.24045688 0.11318512
000280 d1 1a 51 bc 5f c4 4c bc a8 98 5b 3e 48 ea bb bd
       -0.012762741 -0.01249799 0.21444952 -0.09175545
000290 46 46 19 3e 2e 9f b5 3d 2f 7c ea 3d b4 ff 49 3d
       0.14968213 0.08868252 0.114494674 0.049316123
0002a0 3d ee 75 be ee 20 9a be be fc 15 bb 64 96 33 be
       -0.24016662 -0.30103248 -0.0022886242 -0.17537838
0002b0 7d b9 5b 3e be e7 bc bd 35 6d e1 bd 02 41 a6 3d
       0.21457477 -0.09223889 -0.11007158 0.08117868
0002c0 cc 7b 13 3e 63 bb 87 bd f0 2f 8b bd d0 d4 cc bd
       0.14402694 -0.06627538 -0.06796253 -0.10001528
0002d0 95 3f 0b 3e 59 f0 21 3e 8b 81 db bd 52 60 96 bc
       0.13598473 0.15814342 -0.10718068 -0.018356476
0002e0 c7 7a 71 be be 91 b4 3c c5 b3 f5 3d 36 54 ff 3c
       -0.23581992 0.022042152 0.11997179 0.031168085
0002f0 f6 6e bd 3d 32 1c a1 3e 7a f2 db bc af ab 26 be
       0.0924968 0.31466824 -0.02684902 -0.1627643
000300 74 dd 60 bd 4f 83 ce bd 67 f8 06 bd cd b9 86 3b
       -0.054898694 -0.10083639 -0.03295174 0.0041115046
000310 52 12 f4 3c c5 4e a6 3e 95 f0 2d be a9 28 98 3d
       0.029793892 0.3248197 -0.16986306 0.0742963
000320 b5 70 77 be 6c de 15 be 9f dc 1a 3d 29 a4 94 bd
       -0.24164088 -0.14635628 0.037808057 -0.072578736
000330 b1 b8 2f 3e 35 1d 11 be 86 92 32 3e 66 e4 af 3d
       0.17160298 -0.14171298 0.17438707 0.085884854
000340 e8 aa 29 3e a4 3e 81 be 40 8d 37 3d 19 10 45 3e
       0.16569102 -0.25243104 0.04481244 0.19244422
000350 2a f2 35 3d 44 fb 0f be 6e c7 f8 bc 60 34 a9 bd
       0.0444204 -0.14060694 -0.030368533 -0.08261943
000360 07 a1 87 be 9a e7 19 be 60 2c 2f be 6a 47 a1 3e
       -0.26490042 -0.15029755 -0.17106771 0.31499797
000370 3c da 9b 3e 21 33 df bd 29 0f 94 bd 23 6e 1c bd
       0.30439937 -0.10898424 -0.07229454 -0.038190972
000380 9f fb 91 3e 1d 17 57 be 53 52 2d 3d 13 31 a9 bd
       0.28512284 -0.21004911 0.04231484 -0.08261313
000390 08 c5 2b be d7 06 8c 3e 19 8c 2b 3e 39 00 a1 3d
       -0.1677438 0.27348968 0.16752662 0.078613706
0003a0 18 4f 12 3d 33 33 36 bd 86 4e ec 3c be bc 5c 3d
       0.03571996 -0.04448242 0.028846037 0.053890936
0003b0 4c 9d fb bd ba 05 0e be b6 6c 25 be 0d 44 04 3e
       -0.122858614 -0.13869372 -0.16154751 0.12916584
0003c0 67 db 34 3e f8 39 f5 bc 25 5a 91 bd 4c 59 cc 3c
       0.1766182 -0.029934868 -0.07097272 0.024944924
0003d0 8d 42 be bd d6 22 12 3e 5b ff e3 bd b9 47 95 3d
       -0.09290037 0.14271101 -0.111326896 0.07289071
0003e0 aa 40 a3 bd 1b dc 0d be aa 54 44 bd 7e 04 d2 bc
       -0.07971318 -0.13853495 -0.047932304 -0.025636908
0003f0 3d cc a6 bd 79 c3 5a 3e 7b 5c 7a 3d 3a b9 31 3d
       -0.08144424 0.2136363 0.061123352 0.043389536

encoder.net.2.bias f4 [60]
000000 c3 df 66 3c 71 3a db 3c 66 ba 15 bd b4 d6 4e bc
       0.014091435 0.026761265 -0.036554717 -0.012624431
000010 6f c2 8c bc 6b e6 ef bc 4e 82 d2 3c be ff 9c bc
       -0.017182557 -0.029284677 0.0256969 -0.019164916
000020 be f0 17 3b f6 b1 bf bc 58 7c fc 3c b3 5e 88 3d
       0.0023184265 -0.023400288 0.03082101 0.066586874
000030 29 27 0e bd e2 ba bb 3b d6 a7 53 bc 46 c7 08 3d
       -0.034705315 0.0057290653 -0.012918433 0.033393167
000040 5d f1 b9 3c 3e 43 c4 3c f3 3e 9b bc 66 d6 a0 bc
       0.022698099 0.023957845 -0.018950915 -0.019633483
000050 94 30 98 3b 8a ae 01 bd 26 d2 e1 bc e3 a8 af bc
       0.004644463 -0.031660594 -0.027566027 -0.021442836
000060 74 3e 14 bd ec d6 1e 3c f7 52 d8 3c dc c2 12 bd
       -0.036192372 0.009694796 0.026406748 -0.035830364
000070 75 25 dc 3c d5 3b f9 bc 7c da 90 bc 68 82 e1 3b
       0.02687333 -0.030424038 -0.017682306 0.0068820007
000080 5f c1 11 3d cf 85 14 bc 13 a2 6f 3b 10 48 9c 3a
       0.035584804 -0.009065106 0.003656511 0.0011923332
000090 96 57 7e 3d 1b 55 28 3d 29 3e ac 3c bd 53 c0 3c
       0.062095247 0.041096788 0.021025734 0.02347743
0000a0 b8 86 87 3b 30 70 51 bc 76 1d 05 3d 73 c6 0f bd
       0.004135933 -0.012783095 0.0324988 -0.035101365
0000b0 df 98 30 3d 7a a8 80 bc f4 57 11 bd 7c 12 02 3d
       0.04311454 -0.015705336 -0.03548427 0.03175591
0000c0 01 51 27 3d 5b 10 b7 bc 94 32 00 bd ce 83 c3 bd
       0.040848736 -0.022346666 -0.031298235 -0.09546624
0000d0 05 cf e3 bc f4 d1 17 bc 00 36 c2 3c d9 e0 fe 3c
       -0.027808676 -0.009266365 0.02370739 0.031113075
0000e0 80 27 4c 3c f2 7a 83 bc 36 23 3a 3c 9b 69 e2 bc
       0.012460589 -0.016049836 0.011360934 -0.027638247

encoder.net.5.weight f4 [32, 60]
000000 04 fc b2 3d eb 73 83 3a 5b 12 dd 3d 79 d6 f1 3d
       0.087394744 0.0010029053 0.10794517 0.118084855
000010 86 0b 94 3e 86 7d 3e 3d 87 3e 78 bc c9 7a 2f be
       0.28915042 0.046506427 -0.015151626 -0.17136683
000020 b1 85 07 3e 1d 2c 86 bc c4 db 74 be 10 f3 07 bd
       0.13234593 -0.016378457 -0.23911959 -0.033190787
000030 c6 1c a9 3c a2 36 63 be 4a b3 47 bd 18 71 68 3d
       0.020643603 -0.2218881 -0.048754968 0.05674848
000040 4d 37 47 3e cf cf 1e 3e b9 d2 33 bd 3d b3 11 bd
       0.1945469 0.1550896 -0.043902133 -0.035571326
000050 d2 93 02 bd 57 3a ad 3d 55 76 8a bd a3 3b fa bd
       -0.031879254 0.08458393 -0.06760851 -0.12218406
000060 20 9d 87 3d 0c 8d 35 bd 02 bc 2c bd e1 ff 99 be
       0.06621766 -0.044323966 -0.042171486 -0.30078033
000070 05 a6 d3 3c 03 bd 24 be 5f 4b bb 3d 0d 6a 13 bd
       0.025836 -0.16087727 0.09145235 -0.03598981
000080 64 fb bc bb 0e 2d bb 3d e2 da 19 3e 2a bf ef 3d
       -0.005767273 0.09139453 0.15024903 0.117063835
000090 ba 85 13 3d 3f ba 8b 3e 17 27 5b 3c 78 cc 96 bd
       0.036016203 0.27290532 0.013376019 -0.07363218
0000a0 42 1e 71 ba f5 de 73 bd 60 7d db bd 61 af 0d 3e
       -0.0009197929 -0.0595388 -0.10717273 0.13836433
0000b0 8e 68 0e 3e e1 56 8f 3e aa d8 1c 3d 0a df b8 bd
       0.13907072 0.2799597 0.038292564 -0.09026916
0000c0 5d 9f 49 3d 2a c7 4c bd 50 13 2d 3c 71 a5 bb 3d
       0.049224246 -0.049994625 0.0105636865 0.09162415
0000d0 89 db 30 be ae ff 38 3e f3 af 1e be 2b 63 55 3e
       -0.17271246 0.18066284 -0.15496807 0.20838611
0000e0 c1 66 4d bc c3 4a 42 3d eb 01 7c bd 6e d7 f3 bc
       -0.0125367055 0.04743458 -0.061525267 -0.02976581
0000f0 ce 5c 00 bc 13 c7 da 3a 53 48 a8 bd df d8 bb 3d
       -0.007834626 0.0016691409 -0.0821692 0.09172224
000100 53 c8 21 3d b5 0f 27 bd 9a b4 da 3d 59 cf db bd
       0.039497685 -0.040786464 0.10678978 -0.10732908
000110 62 4f 08 3e ee 33 01 bd d9 7e 9c be a0 47 be 3d
       0.13311532 -0.031543665 -0.30565527 0.09291005
000120 ec af f8 bd 15 b1 1e bd 55 63 aa 3d ca 74 2c 3e
       -0.121429294 -0.038743097 0.08319727 0.16841426
000130 83 19 fc 3d b6 de e5 3d 68 ac fc 3d 61 af 3a be
       0.123095535 0.11224119 0.123375714 -0.18230964
000140 06 38 8d 3e a8 25 17 bc b2 16 56 3e 72 ca f9 3d
       0.27581805 -0.009225287 0.20907095 0.121968165
000150 89 46 1a 3d ab 3f 59 3e cf cc 5c 3d 8c 02 05 3e
       0.037664924 0.21215694 0.05390626 0.12989253
000160 0a 12 5d 3d cb 07 3d 3d 0d 4e 51 3e b5 4e d7 3d
       0.05397228 0.04615001 0.2043993 0.10513059
000170 58 c1 67 be 5d 12 c7 bd 2d 75 b8 3e c7 50 fe bc
       -0.22632349 -0.097202994 0.36026898 -0.031044377
000180 98 71 cf bc 79 53 7d 3d bb 62 bd 3d 67 ed 0f be
       -0.02532272 0.061847184 0.09247347 -0.14055406
000190 7b 52 49 3c a5 4c 57 3d 24 b9 dc 3d d6 61 41 3d
       0.012287731 0.05256333 0.107775 0.047212444
0001a0 d7 91 7b 3e fd c8 18 3d 8d 47 cb bd d7 9b 91 bd
       0.24567352 0.037301052 -0.099257566 -0.07109802
0001b0 ed fe 27 3e 10 bc da 3c 4d 5c bb bd 43 25 67 be
       0.1640584 0.026701003 -0.09148464 -0.22572808
0001c0 18 3f 19 3d 5d 7a 85 3e 10 14 b0 3d 73 6f b5 3d
       0.037413687 0.26069918 0.085975766 0.08859148
0001d0 41 67 e1 3d 30 b6 3b 3c 3a b6 d2 3d 6e b4 51 3d
       0.11006022 0.011457011 0.10288663 0.05119746
0001e0 fe 1a 38 3e ef 77 87 bd e6 9b 88 3b c6 bd 5b bd
       0.17979047 -0.066146724 0.004168975 -0.05364778
0001f0 69 b4 84 3d eb 72 00 3e 38 07 50 3e c5 21 52 be
       0.06479723 0.12543838 0.20315254 -0.20520695
000200 2d aa 21 bd 14 1e 0a 3d 09 95 68 bd ed c1 df 3d
       -0.039468933 0.03372009 -0.056782756 0.1092566
000210 d8 38 dd bd 10 4b a9 be 40 4c 15 3c 1d aa 1d 3d
       -0.10801858 -0.3306508 0.009112418 0.03849231
000220 50 40 99 be d9 30 28 3d 0d 83 b3 3d 39 11 53 bd
       -0.2993188 0.04106221 0.0876523 -0.051530097
000230 fe 1c fd 3c 11 f8 88 bc fe f8 c9 bc 40 bb 0f be
       0.030897614 -0.01671985 -0.024654862 -0.14036274
000240 73 64 1d 3c 4a 56 3c 3e 0b 0e 74 be e8 b5 06 bd
       0.0096064685 0.18392292 -0.23833482 -0.032888323
000250 89 82 b9 3e 4f a9 a1 bd 5b 36 89 bd 7e 8a 86 3e
       0.36232403 -0.07893621 -0.066998206 0.26277536
000260 5f 9d c0 3d f8 bc 46 be 6e 27 a5 bd 88 77 48 ba
       0.09405016 -0.19408023 -0.08064161 -0.0007647206
000270 04 60 a7 be 4e e3 09 3b 0e af be 3d 2b d9 a6 3c
       -0.32690442 0.0021040025 0.09310733 0.020367226
000280 c5 9c 64 bd 0c 3d d1 3d 4c bf b3 bd e2 03 85 3e
       -0.05581357 0.10216722 -0.08776721 0.25979525
000290 72 5d f5 3d 6c 56 84 3e 5f 6a 8f 3d 90 f3 ac bc
       0.11980714 0.25847185 0.070027106 -0.021112233
0002a0 8f 09 ce bd 3d b1 e7 bb f6 29 39 3c f5 6b bf 3d
       -0.10060417 -0.007070689 0.011301508 0.09346763
0002b0 a6 8d 06 3e 80 ba 80 3d f3 59 7b bd 51 07 ab bd
       0.13139972 0.06285572 -0.06136508 -0.08351005
0002c0 2b 67 e6 3d 0d fc 67 3d f4 01 93 bd ae ef 53 bd
       0.112501465 0.05663686 -0.07178107 -0.05174225
0002d0 fa 5a ae bd ab 6c c0 bc b9 4d 4f 3d ad 98 6f bc
       -0.08513446 -0.023489317 0.05061123 -0.014623803
0002e0 de ad 62 3d ac 51 ac 3e 1e 7c cd 3d ed ce d8 bd
       0.055341594 0.3365606 0.10033439 -0.10586343
0002f0 19 d1 1d 3e 02 c0 c9 bd 3a 01 9c 3c d6 b9 4d bd
       0.15411796 -0.09851076 0.019043554 -0.050226055
000300 a3 8a 30 3e ac dd 13 3e 58 b8 bc bc d2 58 4b 3e
       0.17240386 0.1444003 -0.02303712 0.19858101
000310 b1 f5 e6 3d 96 e0 e2 3d a8 0f b9 bd eb d9 8c 3d
       0.11277331 0.110779926 -0.09036189 0.06877502
000320 b8 26 d4 bc a3 04 ab be 55 6c 9f 3d 10 3e 45 3c
       -0.025897369 -0.33401975 0.077843346 0.012038723
000330 ec 62 f5 3d 1b 8e 16 bc 31 44 13 3e 1a 12 32 3d
       0.119817585 -0.009189154 0.14381482 0.043474294
000340 7c 2c 02 3e 46 d0 50 3c 6c b9 48 be c2 71 1a be
       0.12712282 0.012744969 -0.19601983 -0.15082458
000350 ef a4 28 be 53 56 bb 3d e2 aa aa bd 0e 46 45 be
       -0.16469167 0.091473244 -0.083333746 -0.19265005
000360 21 e7 82 be 7d d4 59 be 35 30 12 3e dd e1 ce bb
       -0.25566962 -0.21272464 0.14276202 -0.006313546
000370 84 79 6e 3d 37 33 40 3d 4b 57 61 be 34 5c b3 3e
       0.058221355 0.046923842 -0.22005956 0.35031283
000380 77 b9 d4 3c 84 f8 19 3e 5e 94 2d be ba ce 7c bd
       0.025967343 0.15036207 -0.16951129 -0.061720587
000390 f4 bb f4 3c 70 11 4d 3d 84 a9 a9 bd 2b 2d 8a 3d
       0.02987478 0.050065458 -0.08284286 0.06746896
0003a0 ca cd 23 3e a5 6c 55 be 2b 8c 44 3d fb 60 39 be
       0.15996471 -0.20842226 0.047985237 -0.18103401
0003b0 66 d2 17 be 36 e6 b9 3d 97 a6 9c 3d 5e dd 07 be
       -0.14826354 0.090771124 0.07648962 -0.13268039
0003c0 59 9f d3 3c d4 81 56 be ef 58 97 bd 3d 44 9d bd
       0.025832819 -0.20947963 -0.073900096 -0.07679031
0003d0 34 0e 9b 3d 74 64 92 3e 53 7d 73 3d bb 39 ac 3d
       0.075710684 0.28592265 0.05944569 0.08409449
0003e0 e0 49 bc 3c ce cf 16 be 96 33 9a bd 87 f5 95 bd
       0.022984445 -0.14727709 -0.075293705 -0.07322221
0003f0 6b fc 07 3a 89 3e 9c 3d 8c c8 0e bc cf 2a 95 bd
       0.00051874545 0.07629115 -0.008714806 -0.07283556

encoder.net.5.bias f4 [32]
000000 96 11 b4 3d 9b 39 95 bd 05 35 70 3c 1c f3 2e bd
       0.08792417 -0.07286378 0.014661078 -0.042712316
000010 79 3b f4 bc 99 1c ce 3c f8 6b 1b bd f7 fd 0e 3d
       -0.029813515 0.02516012 -0.037944764 0.03491017
000020 d8 2d 43 bd 43 a4 16 3d a6 c5 e1 3c 84 a9 6b bd
       -0.047651142 0.036777746 0.027560066 -0.05753471
000030 9c 4a c9 3c 49 f8 23 3c ed 2a 75 3d 68 46 31 3d
       0.02457171 0.010007926 0.05985539 0.043280035
000040 09 0e b0 3c 8c 85 07 bd 27 ce fb bc b6 20 26 3d
       0.021491067 -0.033086345 -0.03073795 0.04055854
000050 e5 2c 0b bd 4c 62 80 3d 61 b2 3d bd 63 fd 1b 3d
       -0.03397836 0.06268749 -0.046312694 0.038083445
000060 e2 6d 74 3d f2 67 12 bd ce 21 09 bd 91 51 67 bd
       0.059675105 -0.03574366 -0.033479504 -0.056474272
000070 6b cb d7 bc 9e dd 41 bd f7 0e 61 3c df a2 b4 3d
       -0.026342114 -0.04733049 0.013736478 0.08820128

predictor.net.1.weight f4 [32, 32]
000000 45 cb 81 3d f8 62 f2 bd 01 50 70 bd eb 62 ab 3d
       0.06337599 -0.11835283 -0.058670048 0.083684765
000010 c7 3b ef 3d 28 52 36 be de 4e 55 3e 3f bb aa bd
       0.116813235 -0.17804778 0.20830867 -0.083364956
000020 0d 9e db bd 93 25 e2 3d fa 49 2e 3e b4 89 0f be
       -0.10723505 0.11042323 0.17020407 -0.14017373
000030 fd f4 da bd aa fb 07 be 24 50 51 3d 6b d2 05 be
       -0.10691259 -0.13279596 0.05110182 -0.1306855
000040 0c a5 68 3d 21 1e 0c bd 1c 28 d1 3c 57 8a 29 be
       0.056798026 -0.03420842 0.025531821 -0.16556679
000050 72 38 60 3e 58 7d a5 3d c5 47 ae be bc 0f 32 be
       0.21896532 0.08080548 -0.3403913 -0.17388815
000060 83 fb 1e be 4f 95 8e 3e 5e 14 30 3e 05 08 0c be
       -0.15525632 0.27848288 0.1719527 -0.13674934
000070 cc 14 9d bd a4 22 0e bd e5 fe c4 be 63 cd 0c 3e
       -0.07669982 -0.034701005 -0.3847572 0.13750224
000080 94 4d 8e 3d a2 a5 6b be 21 0e 9b bc d6 47 9f bd
       0.069483906 -0.23012403 -0.018927636 -0.077773735
000090 15 3c a1 3e 0e d6 d2 3b c3 f1 09 3c c4 2a 7d 3e
       0.3149115 0.0064342087 0.008419457 0.24723345
0000a0 8a 47 a4 3d b3 51 e9 bd c2 5f db 3b 25 cc 58 bd
       0.080214575 -0.11392536 0.006694765 -0.052929062
0000b0 67 c0 7b bd 62 8f 3e be e7 d1 ce bb 35 11 d4 3d
       -0.061462786 -0.18609384 -0.0063116434 0.103548445
0000c0 39 51 95 bd d2 fb 9f 3d 4b 6f dc 3b 6c b9 6a 3c
       -0.072908826 0.07811703 0.0067271343 0.014326435
0000d0 aa 3f 2d 3e 40 d7 b6 3d 62 0f 43 3e 91 33 b7 be
       0.16918817 0.089277744 0.19048837 -0.3578153
0000e0 0b db 3d be d2 60 00 3e 41 12 04 3c b5 46 8c 3d
       -0.1854059 0.12536934 0.008060993 0.06849424
0000f0 a8 3d cd bd bd 0b 26 be 76 49 8b be 59 53 de bd
       -0.100215256 -0.16215415 -0.27204484 -0.10855741
000100 58 29 9e 3d 9b 9d ac bc 07 95 49 bc 3b d9 0d 3e
       0.077227294 -0.021071246 -0.012303597 0.13852398
000110 36 4e 1d 3d c5 3f 01 3f 13 70 71 be ca 71 4c be
       0.038404666 0.5048793 -0.23577909 -0.19965282
000120 4c e6 85 3e 64 37 e5 3b 42 04 cd 3d ef 20 0b be
       0.26152265 0.0069951285 0.10010578 -0.13586782
000130 e5 3a cb 3d 73 13 f9 bd 24 e6 10 3f 3d 65 6a 3d
       0.099233426 -0.12161913 0.56601167 0.057225455
000140 55 4a 69 be c9 ea 68 3d 67 de 2a bd 45 e0 2f be
       -0.22782262 0.056864534 -0.041716006 -0.17175396
000150 7c e9 04 bb 5d b4 45 bb 5e bc 2d 3e bc 8c 5c 3d
       -0.002028077 -0.003016732 0.16966388 0.053845152
000160 e3 39 86 bd 9a cc 20 be 1a 83 06 3e bc 35 a0 3d
       -0.0655401 -0.1570305 0.13135949 0.07822749
000170 fd 94 15 3e be fb 27 3c a4 e4 0e 3e 8e 61 7a be
       0.14607616 0.010252891 0.13954407 -0.24451277
000180 a7 b8 ca 3d 0c b2 e9 bc 8b b0 80 bd f4 9d 11 3e
       0.09898501 -0.028527282 -0.06283673 0.1422041
000190 48 7f 68 3e f5 1e 03 be f6 5c 19 3e 1e 2d b4 3e
       0.22704804 -0.12804778 0.14976868 0.35190672
0001a0 f8 f6 b9 3d 3d da 4a bd ca 55 91 bd b7 3f 3c be
       0.09080309 -0.049524534 -0.07096441 -0.1838368
0001b0 6a 9b 52 be 7a 49 a9 3d ae 54 2f be 39 09 80 3d
       -0.20567098 0.08265968 -0.17122146 0.06251759
0001c0 02 4d a6 bd ea ea 0d be d0 72 28 3e 19 1d 25 bc
       -0.08120157 -0.13859144 0.16450047 -0.010077738
0001d0 7e 00 50 be be c0 db 3d 07 8b be 3d 7e d6 39 be
       -0.20312688 0.10730122 0.09303861 -0.18148229
0001e0 78 17 65 3d 68 f6 33 3e 2b 71 20 bd a7 b9 ac 3e
       0.055930585 0.17574465 -0.039170425 0.33735391
0001f0 c1 86 2b be 20 c8 0c be cc 6e 8e 3e 31 77 c2 bd
       -0.16750623 -0.13748217 0.27818906 -0.0949539
000200 f3 16 81 3d 73 67 00 3e 7f eb 0c be 0c 20 b7 3d
       0.06303205 0.12539463 -0.1376171 0.08941659
000210 11 e3 03 be aa c2 8d be 42 5f d4 bc cf 0d 36 3e
       -0.12879588 -0.2768758 -0.025924329 0.17778705
000220 71 7c 24 3d 31 9e 85 bd e6 99 8e be d2 b5 93 3c
       0.04015774 -0.06524313 -0.2785179 0.018031035
000230 ea 77 4b 3e f5 eb 4e 3e c0 cd c8 be ac 42 a8 be
       0.19869962 0.20207198 -0.39219475 -0.32863367
000240 ff f8 92 bd ec 81 8f 3d bc 73 61 be f7 26 07 be
       -0.071763985 0.070072025 -0.22016805 -0.13198458
000250 ba 4e 1f bd fe 08 da bb 87 3a 11 3e 50 08 8d bc
       -0.03889344 -0.006653904 0.14182483 -0.017215878
000260 15 46 4a bd cd 46 a2 3d 06 fa 41 bd 59 1c 31 bd
       -0.04938324 0.079236604 -0.04735758 -0.043239925
000270 bb f9 04 3e c9 ef 88 3e a8 74 a7 bc 48 0f 6e be
       0.1298589 0.26745442 -0.020441368 -0.23248017
000280 c2 80 48 be 41 91 13 bd 42 55 9f 3e 8b a6 a9 3e
       -0.19580367 -0.036027197 0.31119734 0.33134875
000290 4a ec 3f bd 02 04 86 3e e7 57 9b bd 0d e4 4c bd
       -0.046856202 0.26174933 -0.075851254 -0.050022174
0002a0 63 f2 26 3e 2a 86 0e 3d 0f 93 02 3f 74 c9 54 bd
       0.163034 0.034795918 0.51005644 -0.051949933
0002b0 75 43 ac 3e 1a ef f1 3d 90 66 ba be ac 6b 31 be
       0.33645216 0.11813183 -0.36406374 -0.1732623
0002c0 d3 70 09 3e 1d 13 56 bd 2a b0 8e bd 33 15 74 bd
       0.13421945 -0.05226432 -0.069671944 -0.05959053
0002d0 f7 b8 ff 3d 01 ab 6d be 68 ac 56 3d a2 9a 60 3d
       0.12486451 -0.23209764 0.052410513 0.05483497
0002e0 86 e3 d5 bd dd a3 17 3e 7b 9f 8d 3e b4 80 bf bd
       -0.10443787 0.14808603 0.27660736 -0.0935072
0002f0 55 d3 26 be 69 ea 0f 3d 89 0e 76 3c 74 bb 2f be
       -0.16291554 0.03513566 0.015018114 -0.17161351
000300 0c 12 56 3e 2a b6 37 be ae 96 5e be 2f 39 1f be
       0.20905322 -0.17940584 -0.21737167 -0.15549158
000310 e7 4f 36 be 05 44 9f be 33 3f d4 bd 1b 69 64 3c
       -0.17803918 -0.31106582 -0.10363617 0.013941075
000320 fc a7 80 be 0d b0 c4 3d e6 ae 97 bd f3 6e 31 be
       -0.25128162 0.096038915 -0.07406406 -0.1732748
000330 b3 cb 01 3e 41 8b c7 bd 06 92 81 3e c9 d7 15 3e
       0.12675361 -0.097433574 0.2530672 0.14633097
000340 ce e2 1a 3c 99 08 07 3d 37 bb 68 be 91 20 8d 3d
       0.0094534885 0.032967184 -0.22727667 0.06890977
000350 18 c8 a1 be ee 42 93 3e 74 21 96 be 05 9f 28 3e
       -0.31597972 0.28762 -0.29322398 0.16466911
000360 94 75 35 3e c2 23 34 be 0f 5a d8 bc 40 8e 87 bd
       0.17720634 -0.17591766 -0.02641013 -0.06618929
000370 80 e8 01 be 33 2b 36 be ee 15 16 bc 28 e3 b6 3e
       -0.12686348 -0.17789917 -0.009160502 0.3572018
000380 75 18 a2 3d 7d ba 37 be 49 8f 02 3c 32 16 18 be
       0.07914821 -0.17942233 0.007968732 -0.14852217
000390 08 04 36 3e 1e 7d b8 be 96 8a 4f 3e 44 dc 6e bd
       0.17774975 -0.36032957 0.2026771 -0.05831553
0003a0 7d ae 8b 3d d9 5f b4 bb 5c b8 25 3e 0d 4a 5c 3e
       0.068203904 -0.00550459 0.16183609 0.21512623
0003b0 0e 85 1f 3e a2 7f ae 3e 1d b9 14 be 90 41 f0 bd
       0.155781 0.3408175 -0.1452374 -0.11731255
0003c0 bd 22 4f 3e 8e b4 f2 bd 79 96 9d bd 3c 65 08 be
       0.20228095 -0.11850844 -0.07694716 -0.13319868
0003d0 40 6d 49 3c 32 de b3 3d 72 54 78 3d a8 fe ee 3d
       0.012294114 0.08782615 0.06062741 0.116696656
0003e0 74 e0 e2 3d 3d 21 ef bc b8 52 75 be df 97 f5 bd
       0.11077967 -0.029190654 -0.23957336 -0.11991858
0003f0 c5 06 03 3d bb dd 93 bd e6 c3 9f 3d 2a 31 6e bd
       0.031988878 -0.07220026 0.078010365 -0.058152355

predictor.net.1.bias f4 [32]
000000 91 12 03 3e d8 7a fe 3d 24 01 d9 3d 1c 94 04 3e
       0.12800051 0.12425774 0.10595921 0.12947124
000010 2a 84 72 3e c3 27 01 3e 7b dc 05 3e 6e 5d e3 3d
       0.23683229 0.12612824 0.13072388 0.11101805
000020 6d 3a da bd 9e 47 fc 3d 8f 9e f3 3d 8f d3 e2 bd
       -0.10655675 0.123183474 0.11895477 -0.11075508
000030 36 3c df bd 57 ef 0f 3e af d1 f6 bd 69 f3 17 3e
       -0.10900156 0.14056145 -0.12051713 0.14838947
000040 08 12 e2 3d ff 52 f6 3d 6a 09 5b be c2 24 e4 3d
       0.110385954 0.12027549 -0.2139031 0.111398235
000050 29 12 f3 3d 07 2f 0a be d8 b6 07 3e 38 a2 f1 3d
       0.11868698 -0.13494502 0.13253343 0.11798519
000060 63 65 e1 bd c0 ab d8 3d 27 20 0e 3e cc 90 f6 3d
       -0.11005666 0.10579634 0.13879453 0.120393366
000070 90 9a e1 bd d8 bb 01 3e 77 fb ed bd db 6f 1c 3e
       -0.110158086 0.12669313 -0.11620229 0.15277044

predictor.net.3.weight f4 [1, 32]
000000 6e fa 93 3e 6f 5b 62 3e 35 0e 32 3e 25 7c 0b 3e
       0.28902 0.22105192 0.17388232 0.13621576
000010 08 5b 11 3e d5 54 a1 3d d4 60 93 3e 75 64 a5 3e
       0.14194882 0.078775086 0.28784811 0.32303205
000020 5b d7 29 be 07 95 9e 3e 8b 19 99 3e 4f 0b 8e be
       -0.16586058 0.30973074 0.299023 -0.27743003
000030 9a 93 3f be a7 c6 dc 3d aa ce 90 be cb 23 8c 3d
       -0.1870865 0.107800774 -0.28282672 0.068427645
000040 fc 41 b8 3e 11 65 aa 3e b9 7c b2 bd 8b ef 42 3e
       0.35987842 0.33280233 -0.08715195 0.19036691
000050 cc 7e b5 3e 68 eb ec bd 00 92 81 3e 35 f6 32 3e
       0.354483 -0.11568338 0.25306702 0.17476733
000060 08 73 86 be ae 02 25 3e 23 94 58 3e 13 53 44 3e
       -0.26259637 0.16114303 0.2115026 0.19172315
000070 b4 ae 4a be 84 8c 65 3e a2 80 cb bd a6 b7 e6 3d
       -0.19793206 0.22416884 -0.09936644 0.11265497

net.0.weight f4 [60, 35]
000000 14 fc 4e be cc bc 65 3d 4a 8c 59 3d 37 f3 9e 3e
       -0.20213348 0.056088254 0.053112306 0.31044933
000010 16 3f 7a bd ac ba a2 bd 61 a3 00 bc a8 15 ff bd
       -0.06109532 -0.07945761 -0.007851453 -0.124553025
000020 21 13 73 bd 0a 6b 36 3e 56 bd a0 3e 85 e3 b7 bd
       -0.059344415 0.1781427 0.31394452 -0.08978943
000030 28 4b 60 3e 8d 11 19 3e a5 d6 00 3e 25 91 e8 3d
       0.2190367 0.14948101 0.1258188 0.11355809
000040 d5 50 5a be 90 5f 39 3e 00 16 50 3e 6b b2 4b be
       -0.21319897 0.1810286 0.20320892 -0.1989228
000050 5a a0 44 3e 4a b4 5d 3e b8 a6 9d 3c 77 38 68 3d
       0.19201794 0.21650806 0.019244537 0.056694474
000060 2a 79 68 bd 54 ce 93 3e 5c d2 c7 3c 3c b1 80 3d
       -0.056756176 0.28868353 0.0243923 0.06283805
000070 8f ae 94 3d 4b ac a1 be 2c 8e 13 be 6a 55 8b 3d
       0.07259857 -0.31576762 -0.14409703 0.06803401
000080 e5 56 32 3b d7 00 36 3e 7d 5e 35 3e f8 f5 4c be
       0.0027212438 0.17773758 0.17711826 -0.20015705
000090 7d f9 5b 3d e2 50 8a be a3 f7 ad 3e dd da 82 3d
       0.053704727 -0.27014834 0.33977994 0.06389401
0000a0 db b0 af bd 10 1f 81 be 34 7b 62 3d d4 66 07 be
       -0.085786544 -0.2521901 0.055293277 -0.1322282
0000b0 ac 31 8c bc 48 49 34 be a6 fa 6b bd 35 a8 e7 bd
       -0.01711353 -0.1760608 -0.057612084 -0.1131138
0000c0 e0 72 0c bc 42 a7 41 bd be c8 b7 bd 96 a1 9b 3d
       -0.00857231 -0.04727865 -0.089738354 0.075991794
0000d0 a7 01 85 be 83 1d 38 3d 65 f9 01 3b 70 47 9e 3d
       -0.25977823 0.04495002 0.0019832489 0.07728469
0000e0 3e 48 5e 3c 56 ec 6f be 7b c3 b2 3d e2 9b 04 be
       0.013567029 -0.23429999 0.08728691 -0.1295009
0000f0 4e 16 9b 3d f8 77 93 bd 4a 95 ea bd fd cd 04 3e
       0.07572614 -0.072006166 -0.11454256 0.12969203
000100 a5 4f 71 bc 56 9f a1 bd 4e 31 19 3e 6f f9 ae 3d
       -0.014728461 -0.07891719 0.14960214 0.085436694
000110 b9 f5 f7 3d 0e 19 09 bb 3d d0 f0 bd 08 d1 bd bd
       0.12107415 -0.0020919475 -0.11758468 -0.09268385
000120 39 e8 2f bd c1 65 de bd af 5e 31 bd 2e 55 5d 3b
       -0.042946074 -0.10859252 -0.043303188 0.0033772695
000130 70 4e 25 3e 0a 07 8d 3d 3b bc 31 3d b7 c5 4f 3c
       0.16143203 0.06886108 0.0433924 0.012681416
000140 1d dd a1 3d 47 bd 58 3e 06 57 80 bd d0 b2 42 3e
       0.07903502 0.21165954 -0.062665984 0.19013524
000150 8c 29 8c 3e 49 ee 42 be dc 4f 30 3c 01 97 6a bd
       0.27375448 -0.19036211 0.010761227 -0.057272915
000160 2e ec 45 3e e2 e4 e0 bd e1 94 83 be 55 5f f1 bd
       0.19328377 -0.10981156 -0.25699523 -0.11785761
000170 ca 0b 35 bd 8a 50 0e 3e 7d 3c 6a bd ab 1f 66 3d
       -0.044200696 0.1389791 -0.057186592 0.056182545
000180 09 9b 80 bd 46 22 bc 3d 74 d8 00 be 8e 58 fe b9
       -0.062795706 0.09186225 -0.1258257 -0.00048512634
000190 f1 2e 3c 3e 00 03 b2 bd 02 f7 ca be 17 fd 32 be
       0.18377282 -0.086919785 -0.39641577 -0.17479359
0001a0 06 d5 b2 3d 3f e6 14 3e b8 fa 07 be 2f 90 55 3e
       0.08732037 0.14540957 -0.13279235 0.20855783
0001b0 7c 41 98 be da 9c d2 3d 1f 0c 37 bd 0c 9c d0 bd
       -0.2973746 0.10283823 -0.044689294 -0.101860136
0001c0 b4 fc 09 3e 83 8e 50 3d dc 0e 18 3d 84 7d 4b bd
       0.13475305 0.05091716 0.037123546 -0.049680248
0001d0 c2 8b c7 3c 9e 43 b9 bd d8 8a 6a 3e 72 c9 d4 3d
       0.024358634 -0.090461 0.22904527 0.10389985
0001e0 cb ec f4 bd 19 b6 0e be db 1d 82 3d d4 cd 25 3e
       -0.11959227 -0.13936652 0.06353351 0.16191798
0001f0 99 59 80 bd 13 96 0f be 25 b8 c5 3d 1f ef 34 3b
       -0.062670894 -0.14022093 0.096542634 0.0027608348
000200 bb 16 a3 bd 6e 56 4f be 6c a8 9f be 40 0e 87 3e
       -0.0796332 -0.20247814 -0.31183183 0.2637806
000210 aa 93 a1 be 6d 87 23 3d 2f 54 c5 bd c6 11 4c 3e
       -0.3155797 0.039924074 -0.09635197 0.19928655
000220 62 bd b9 3d c3 10 b3 3d c3 36 a8 3d 5e 7b 3d bc
       0.09069325 0.087434314 0.0821357 -0.011565058
000230 5a 07 50 be 82 e2 ae bc 15 a6 27 be 1e 70 01 3e
       -0.20315304 -0.021348242 -0.16371949 0.12640426
000240 85 d8 bc bd aa 80 79 3b e3 45 8f be ae 93 df 3a
       -0.09220985 0.0038071075 -0.27983007 0.0017057562
000250 d5 9f 82 3e ba 33 82 be 6c 1d 4c 3e fa b8 3d be
       0.25512567 -0.2543009 0.19933099 -0.18527594
000260 a8 f8 02 be 44 71 44 3c 02 8c 1f 3e 62 84 ac bd
       -0.12790167 0.011989895 0.15580752 -0.084236875
000270 43 24 55 bd a4 1c db bc 6b b0 d9 bd 9f d2 96 bd
       -0.052036535 -0.026747055 -0.10629352 -0.073643915
000280 24 1b fe 3d 9a 10 cf 3d 39 a6 49 be 8b dd d3 bd
       0.124075204 0.10110588 -0.19692315 -0.1034499
000290 ef d4 ef 3c 60 db 76 bd 73 04 73 be fa 57 d7 3e
       0.02927634 -0.060267806 -0.23732166 0.42059308
0002a0 e8 7e 2f bd d7 cd 3c bd 10 41 d5 3d 87 12 da 3e
       -0.042845637 -0.04609474 0.104128 0.4259226
0002b0 61 45 6a 3d b6 15 83 be e2 b7 e0 3d 92 2a 64 be
       0.05719507 -0.25602502 0.10972573 -0.22281864
0002c0 29 3d 2b 3e b9 6b 6d bc 16 2c f4 3d 61 33 2d 3e
       0.1672255 -0.014491015 0.11922471 0.16914131
0002d0 07 23 c8 3d b2 4d 26 3c fb b2 4a be b0 3c 94 bd
       0.09772306 0.01015036 -0.19794838 -0.07238138
0002e0 2c d6 87 3d 96 1c 69 bc 8d 9d b5 3e 7d f5 45 be
       0.06632647 -0.014228007 0.35471764 -0.19331928
0002f0 bf 9a 81 3e 78 19 b1 bd c4 41 a4 bd 71 a6 9f bd
       0.25313374 -0.08647436 -0.08020356 -0.07795418
000300 57 97 4e be 4d 17 04 be 5b 1e 17 be 91 25 e7 bd
       -0.20174919 -0.12899514 -0.14757673 -0.11286462
000310 57 58 7b be 75 ca 25 3e cf fd d4 bd f5 69 46 be
       -0.24545418 0.16190512 -0.10399973 -0.19376357
000320 79 c1 04 be 4a b3 be bd 03 ca 8e 3e 2a 6d 5f bd
       -0.12964429 -0.093115404 0.27888498 -0.054547466
000330 7e 9e 4d 3e 76 5d 30 be e8 ff cb 3d 16 de 5c 3e
       0.20079991 -0.17223153 0.099609196 0.21569094
000340 8f cb 54 3d 5b f3 ac 3d cc c6 ad bc ba 58 f1 3a
       0.05195194 0.08444854 -0.021212958 0.0018413283
000350 d4 92 02 be 07 d0 df 3d 22 8f 76 bd 25 81 43 3e
       -0.12751323 0.1092835 -0.060195096 0.19092233
000360 d0 0b 57 bd bd ad 98 3d 76 21 64 3e 09 9f 3c be
       -0.0525015 0.07455013 0.2227839 -0.18420042
000370 74 d7 f5 3d b0 73 92 3d ad c0 a4 bd 2f c8 1f 3e
       0.12003985 0.07150972 -0.080445625 0.15603708
000380 63 d7 be bd da 89 af 3c 3c ba c9 3c 64 d5 3a be
       -0.093184255 0.021428037 0.024624936 -0.18245465
000390 33 b6 bf 3d b2 96 10 be dd 45 5e 3d a3 4d 82 bd
       0.093609236 -0.14119986 0.054265846 -0.06362464
0003a0 9e 4e e8 3d 10 36 6d 3d 5c ac 80 3d c4 22 1b 3e
       0.1134312 0.057912886 0.06282875 0.15149981
0003b0 38 18 24 bd fe d8 80 3d 6a 30 91 be b4 51 bf bb
       -0.04006216 0.06291388 -0.2835725 -0.005838597
0003c0 b2 5c 4d be 20 c2 93 3e 57 e9 a4 be 2d 59 d3 3d
       -0.20054892 0.28859043 -0.32209274 0.10319743
0003d0 2b a7 ec 3d 3e 49 a1 3e d2 a6 9f 3c 04 51 67 3e
       0.11555322 0.31501192 0.019488726 0.22589499
0003e0 f6 06 9b bd 7b c1 b0 bd 63 b1 d7 3d 80 20 2f 3e
       -0.07569687 -0.086306535 0.10531881 0.17102242
0003f0 73 8c d0 bd 80 d9 87 3c 3b 8f d9 bd 7b b3 75 be
       -0.101830386 0.016583204 -0.10623022 -0.23994248

net.0.bias f4 [60]
000000 78 16 40 be f8 fb 9a bb ab f3 29 3e f0 b0 b2 3d
       -0.18758571 -0.004729744 0.16596858 0.087251544
000010 b8 a4 08 be 74 4e 7a bb 89 35 d6 3d f7 52 dd 3d
       -0.13344085 -0.0038193734 0.1045943 0.1080684
000020 fd 19 de bb d3 41 34 be d6 fe ea bd 0f 2e 1c 3e
       -0.0067780004 -0.17603235 -0.11474387 0.15251945
000030 39 be cd 3c 3a c8 1d 3e 39 ac 26 be 81 f5 56 3d
       0.02511512 0.15408412 -0.16276635 0.052480225
000040 b6 2a 82 bd 30 0b 02 3d da b0 c0 bd fd 69 bd bd
       -0.06355803 0.03174895 -0.09408732 -0.09248731
000050 e2 fd 21 bc 99 7f 93 bd 6d f6 4d bc 08 9c 6d 3c
       -0.009887191 -0.07202072 -0.0125709595 0.014502533
000060 74 8e 1e bd 13 69 c0 bd af 5f a1 bc 84 b2 ac 3d
       -0.038710073 -0.09395041 -0.019698946 0.08432487
000070 5f 12 09 bd 05 21 98 3d b0 f5 0c bd c5 70 a3 bd
       -0.033464786 0.07428173 -0.034413993 -0.079804935
000080 00 4b c5 bd af b8 b2 bc 7b 40 0a be 4a 37 84 3d
       -0.09633446 -0.02181658 -0.1350116 0.06455858
000090 89 bc e0 bd ed 97 ac 3c 13 0b 0f 3e e5 e2 98 3d
       -0.1097346 0.021068538 0.13969068 0.07465152
0000a0 ee ba 09 bd 0a 1d af bd 02 a5 b6 bd 6c de e2 3d
       -0.033625536 -0.08550461 -0.089181915 0.1107758
0000b0 87 18 11 3d 4e c8 dd bd 30 27 88 3d ad e1 b7 3d
       0.03542378 -0.10829221 0.066480994 0.08978591
0000c0 4b f8 ea bd ac dd 00 be 72 4b e8 bd 0e ca 16 3d
       -0.114731394 -0.12584561 -0.11342515 0.036813788
0000d0 84 71 98 bd 47 46 f3 bc 0c 77 ee bd e5 6a e5 3d
       -0.074435264 -0.029696597 -0.116438 0.11202029
0000e0 c5 7b 16 3d 3d 49 b6 bd 53 42 7c bd 33 e1 a9 bd
       0.03673913 -0.08900688 -0.06158669 -0.082949065

net.2.weight f4 [60, 60]
000000 68 59 a5 bd 9c 5c c5 bd 7b e7 c5 bd 06 4c 17 be
       -0.080736935 -0.096368045 -0.09663292 -0.14775094
000010 67 5f 35 be 05 63 22 3e 67 f1 65 be 67 bb 5a be
       -0.17712174 0.15858085 -0.22455369 -0.21360551
000020 91 88 ea bd cd 04 2c 3e 64 05 83 be 4b b4 e6 3d
       -0.11451829 0.16798706 -0.2559005 0.11264857
000030 be 20 f6 3d ff f4 8d bd 9b 72 7b bd 73 f2 46 3e
       0.12017964 -0.06931495 -0.061388593 0.19428425
000040 dd 8e 99 3d 12 6c 15 3e 14 0a eb bd 15 41 b9 3c
       0.07497952 0.14592007 -0.114765316 0.022614041
000050 45 40 c4 3d f5 cb 43 be 60 fa fa bd f5 8e 18 be
       0.09582571 -0.19120772 -0.122547865 -0.14898284
000060 47 e9 14 3d d7 34 5f be be f2 56 3e 99 55 6d be
       0.036355283 -0.217975 0.20991036 -0.23177184
000070 e7 53 23 be 94 89 92 bd d6 25 bf 3b 30 76 10 3e
       -0.15949975 -0.07155147 0.005833368 0.14107585
000080 07 af bf bd 02 2d 4c be 64 ce 17 3e 82 f5 04 be
       -0.09359556 -0.19939044 0.14824826 -0.12984279
000090 d3 df 96 bc 6d ba bd 3d 69 29 91 3d 56 0d 78 3d
       -0.018417275 0.092640735 0.070879765 0.060559593
0000a0 c7 fb c8 3c ea 5f e0 3d 0b e5 1b 3d 50 d9 20 be
       0.02453412 0.10955794 0.03806023 -0.15707898
0000b0 c0 a9 64 bd af 2e 01 be c4 78 e3 3d a4 c2 3f 3e
       -0.05582595 -0.12615465 0.111070186 0.18726593
0000c0 38 5f 5d 3e 73 1a e9 3d 9d 0f 66 bd 42 0c e1 bd
       0.21618354 0.11381998 -0.056167234 -0.10988666
0000d0 7c 0e a9 bd df a0 e2 bd 04 ae 4b bc b3 db 25 3e
       -0.08254716 -0.1106584 -0.012431625 0.1619709
0000e0 bd 50 03 be d6 8d 9f 3d ed cb a2 3e 7e 5a ee 3c
       -0.12823768 0.07790725 0.31796208 0.029095884
0000f0 37 40 23 3e 5e 93 e2 3c 95 da 92 3e 59 1b 8c 3d
       0.15942465 0.02765816 0.2868239 0.06841154
000100 52 b8 83 3d ee 99 d1 3d 6b 8c 03 3e f9 77 db bd
       0.06431641 0.10234438 0.12846534 -0.10716242
000110 cf a2 ad 3c e1 0b 00 be 0c 04 5e bb 5c 00 54 be
       0.021195797 -0.12504531 -0.0033876924 -0.20703262
000120 10 ca b4 3e ee 62 43 be ef ca 19 be 29 8d 32 3c
       0.3531041 -0.19080707 -0.1501882 0.010897913
000130 65 d3 0b 3d 2f b0 1b be 71 09 1a 39 50 de dd 3d
       0.03413715 -0.15203927 0.00014690102 0.10833418
000140 f1 01 41 3d dd af fc bd 37 a8 17 be d6 1f 8d 3e
       0.047120992 -0.12338231 -0.14810263 0.2756335
000150 3d d4 40 be e2 3b d8 3d 13 9c 6a 3e fc c2 43 3d
       -0.18830962 0.10558297 0.229111 0.047793373
000160 c9 d9 9f 3d 01 ad 49 be 14 a8 66 be d1 9a 9c 3d
       0.07805211 -0.19694902 -0.22525054 0.076467164
000170 9f 37 9d bd 61 d2 32 bc 93 80 e8 3d d8 93 f0 3c
       -0.076766245 -0.010914416 0.113526486 0.029367372
000180 81 5b cd bd f3 d1 2a 3e cf 2e fb 3d 96 ef d8 bc
       -0.100272186 0.16681652 0.122647874 -0.026481431
000190 e2 b0 40 3d 39 62 a0 3d eb 97 98 bd 65 e1 23 3e
       0.04704369 0.078312345 -0.07450851 0.1600395
0001a0 43 92 98 b9 bd a1 3b be 2c e1 5b bc 1c 86 a7 bd
       -0.00029100673 -0.18323417 -0.013420384 -0.08179876
0001b0 55 0b 34 3e 3e 15 68 3d c0 2a 97 bd 3c de 17 3c
       0.17582448 0.056660883 -0.07381201 0.009269293
0001c0 e2 74 6a be bb 6b 97 be 9f 58 aa 3e 92 80 15 3e
       -0.2289615 -0.2957438 0.33270738 0.14599827
0001d0 b8 a9 e5 bd 3d e4 e9 3d 3a 5d 26 3e 41 4f e1 bd
       -0.11214012 0.11420486 0.162465 -0.110014446
0001e0 a1 c7 08 3e 7c c7 6c be e7 80 56 bd f4 4e d2 ba
       0.13357402 -0.23122972 -0.052369025 -0.0016045258
0001f0 32 47 52 3d c8 8a 5e bd 67 aa 25 be 3e f7 be bd
       0.05133743 -0.05433157 -0.16178285 -0.093245015
000200 32 92 8f bc 1c e2 a3 bd 03 02 8f 3d e4 f7 b8 3a
       -0.017525766 -0.08002111 0.069828056 0.0014111963
000210 11 05 40 bd a7 fd 47 bc e0 3b e5 3d 38 86 0c bd
       -0.04687983 -0.0122064715 0.11193061 -0.03430769
000220 fe 50 a1 3c 28 ee 26 3e ae e6 32 3e d0 66 42 be
       0.01969194 0.16301787 0.1747081 -0.18984532
000230 c0 dc 45 be c6 c2 e1 3d 87 78 ea 3d af 99 6e bc
       -0.1932249 0.11023478 0.1144877 -0.014563008
000240 a2 af 40 3e b9 d1 45 ba 4c b8 39 3e ab 52 d3 3c
       0.18816999 -0.0007546205 0.1813671 0.025796255
000250 13 f1 05 be 54 6b d2 3c 4f 58 91 3d 5a b4 cd 3d
       -0.13080244 0.025685944 0.07096922 0.10044165
000260 35 4f 3c bd ba 50 be 3d 56 46 29 bd df 2e 37 be
       -0.045973975 0.09292741 -0.041326843 -0.17888974
000270 34 f2 9a 3e 24 69 ee 3d c2 04 87 be bd da c8 3c
       0.3026291 0.11641148 -0.26370817 0.024518365
000280 3d cc 75 3e a5 0c ed 3c 22 d7 1f bd b7 ef ea bc
       0.24003692 0.028936693 -0.039023526 -0.028678758
000290 8c 65 08 be d4 c2 93 bd 93 f9 b7 3d 33 c7 03 3d
       -0.13319987 -0.07214895 0.089831494 0.032172393
0002a0 fd 0e 0e bd 76 a8 7a 3d e2 85 03 be 5d 23 e4 bc
       -0.034682263 0.061195813 -0.12844041 -0.027848894
0002b0 ab bd e5 3d a9 0e 10 3e f7 e8 a8 bd 2e cd 1e 3e
       0.11217817 0.14068092 -0.082475595 0.15507957
0002c0 b6 80 5a 3e f5 18 6d bd a8 ef 05 3c 56 9c 68 3d
       0.21338162 -0.05788513 0.008174814 0.05678972
0002d0 22 78 aa 3d bd 44 c0 bd 85 92 82 3e 5c f2 02 3e
       0.08323695 -0.09388111 0.2550241 0.12787765
0002e0 bd 6b 8e 3c 17 d5 da 3d df 74 6f bd a8 2d 23 be
       0.017385358 0.10685175 -0.058461066 -0.15935385
0002f0 e8 c7 87 bc 28 ef 03 3d e0 74 d1 bd 16 e4 a0 be
       -0.016574815 0.0322105 -0.1022737 -0.31424016
000300 e1 eb 03 bd 60 e8 b1 3d bd c4 36 3d e2 19 91 3d
       -0.032207374 0.086869 0.044621218 0.07085015
000310 40 95 36 3d ec 21 14 3d c3 69 46 3e a4 be 69 3e
       0.04457593 0.036165163 0.19376282 0.2282663
000320 a8 9d 9a bc 9b 63 41 bd 30 89 e5 3d 66 7d 8e bd
       -0.018874004 -0.04721413 0.11207807 -0.069575116
000330 d3 96 06 be 04 60 d2 bd 31 ca 95 3d e2 c1 17 be
       -0.13143472 -0.1027222 0.073139556 -0.14820054
000340 7d 5d 9c 3d be e3 36 bc 59 1f c0 bd 4b d0 80 3e
       0.07635019 -0.011162696 -0.09380979 0.25158915
000350 bc 00 b7 3d 9c 7f 03 be 1b e1 5a bc 65 aa 49 be
       0.08935687 -0.12841648 -0.013359333 -0.19693907
000360 ae 31 a0 bd c1 99 b8 3d b0 8f a4 3d 42 c9 8f 3d
       -0.07821976 0.09013701 0.08035219 0.07020809
000370 70 32 87 bd b9 13 1e be fe 01 24 be a2 26 02 3e
       -0.06601417 -0.15437211 -0.16016385 0.1271005
000380 1f 1a 3f 3e fd aa c5 bd c0 02 31 be c5 7d b6 bd
       0.18662308 -0.09651754 -0.17286205 -0.089107074
000390 5d 39 9c 3d 78 f8 5b 3d e0 f2 27 3d bc a8 2e bd
       0.07628129 0.053703755 0.041003108 -0.042641386
0003a0 44 6c 72 3d f1 3f 5f be c4 e7 07 be a0 1b 67 bd
       0.05918528 -0.21801735 -0.13272005 -0.05642283
0003b0 0c 04 62 be 0b 1f 32 bd cf 95 75 be bb 52 0f 3e
       -0.22071856 -0.043486636 -0.23982929 0.13996403
0003c0 7b 49 c0 bd 8e 32 6a bd c8 d7 14 be f7 97 aa 3e
       -0.09389015 -0.05717712 -0.14535439 0.33319065
0003d0 01 bd 25 be d3 8d 71 3e 4f 61 5e bd 61 9a b8 3c
       -0.1618538 0.23589258 -0.05429202 0.022534551
0003e0 65 c7 96 be 48 62 2b be bf ee 93 bc 2c 2a 2e be
       -0.29449 -0.1673671 -0.018058179 -0.17008275
0003f0 7e eb 6f 3d 75 c1 18 be fd 41 21 3e 1e 61 2d bd
       0.058574192 -0.14917548 0.15747829 -0.042328946
