results of reviewer/XJTU results/4-4/Experiment4/model.pth (torch, 59838 bytes, 14 tensors)

encoder.net.0.weight f4 [60, 17]
0	0xbd5484cb	-0.051884454
1	0xbc3311a9	-0.0109295035
2	0x3ddc67ee	0.107620105
3	0xbdf90377	-0.12158864
4	0x3deb3517	0.114847355
5	0xbac2225c	-0.0014811265
6	0xbdb717be	-0.08940075
7	0x3d388940	0.045052767
8	0x3c8fe574	0.017565466
9	0x3d28da10	0.041223586
10	0x3e71ab8f	0.236006
11	0xbdbf0c69	-0.09328539
12	0x3d74955f	0.059712764
13	0x3d602d4e	0.054730706
14	0x3e15200f	0.1456301
15	0x3df5c2bb	0.120000325
16	0x3e6897f2	0.22714213
17	0x3d738ae1	0.059458617
18	0x3e15514a	0.1458179
19	0x3df14a81	0.117817886
20	0xbe87d415	-0.26528993
21	0x3d866722	0.0656264
22	0xbe4108dd	-0.18851037
23	0x3dd910bb	0.10598894
24	0x3e2239d2	0.15842369
25	0xbd700f13	-0.058608126
26	0xbde44242	-0.1114545
27	0xbcc78bf4	-0.024358727
28	0xbace05ff	-0.001571834
29	0x3b0617f1	0.0020461048
30	0xbe64ddeb	-0.2235028
31	0xbc504b8a	-0.012713322
32	0x3d594276	0.053041898
33	0xbe0dd138	-0.13849342
34	0x3d8661e8	0.06561643
35	0xbc988d78	-0.018622145
36	0xbe9ee23e	-0.31031984
37	0xbe341404	-0.1758576
38	0xbe05da04	-0.13071448
39	0x3e3c3ee4	0.18383366
40	0x3da82b82	0.082114235
41	0x3e787547	0.24263488
42	0x3b8543e1	0.0040669297
43	0x3c8f778c	0.01751306
44	0x3d9ab2d9	0.07553644
45	0x3d708b00	0.05872631
46	0x3e325ba8	0.17417777
47	0xbce54c75	-0.02799056
48	0xbb649797	-0.0034880394
49	0xbd804c7f	-0.062645905
50	0xbe602ecc	-0.21892852
51	0xbd335715	-0.04378422
52	0xbd97527d	-0.0738878
53	0x3e4f027b	0.2021579
54	0xba27427c	-0.00063804514
55	0xbe5ba41d	-0.21449323
56	0xbd09c195	-0.03363188
57	0x3d5eabe0	0.05436313
58	0x3e57298c	0.21011943
59	0x3e845107	0.2584307
60	0xbdd3ab23	-0.10335376
61	0x3daec5e4	0.085338384
62	0xbdd5fad3	-0.104482315
63	0xbd1b636f	-0.037936624
64	0xbe5f5068	-0.21808016
65	0xbe4f1df7	-0.20226274
66	0x3cf6277d	0.030048126
67	0x3e17821b	0.14795725
68	0x3e7c28f0	0.24624991
69	0x3e22fddd	0.15917154
70	0x3e53797f	0.20651816
71	0x3c1b56c0	0.009481132
72	0xbe5878ca	-0.21139827
73	0xbd5e36ab	-0.054251354
74	0x3d65db41	0.0561173
75	0x3bd6c248	0.006553922
76	0xbe28591e	-0.16440246
77	0xbe0d9716	-0.13827166
78	0x3d7eac5c	0.062176093
79	0x3e310560	0.17287207
80	0xbe9a47a3	-0.3013278
81	0x3e2fbaf3	0.17161159
82	0x3d5be792	0.05368764
83	0xbd4cf237	-0.05003568
84	0x3e28e98b	0.1649534
85	0xbd808a4b	-0.06276377
86	0x3d921b49	0.071341105
87	0x3dae6a57	0.085163765
88	0xbcae9ea4	-0.02131588
89	0x3d26ec23	0.04075254
90	0x3dfafb0d	0.122549154
91	0xbd79fed6	-0.061034046
92	0x3e17d29e	0.14826438
93	0xbd9ce158	-0.076601684
94	0x3d0f6b53	0.03501446
95	0xbea12323	-0.3147212
96	0x3b20f109	0.002455773
97	0xbe1fea7e	-0.15616795
98	0xbcbacc9f	-0.022802649
99	0x3e17e3e8	0.14833033
100	0xbddb4aa3	-0.10707595
101	0xbe5869a7	-0.21134053
102	0xbe50cc53	-0.20390444
103	0x3d2d5b49	0.042323384
104	0xbde0e441	-0.10981036
105	0xbe5f7793	-0.21822958
106	0xbea177bc	-0.31536663
107	0xbdc057c3	-0.09391739
108	0x3d7f814b	0.062379163
109	0x3deb13cc	0.11478385
110	0x3e5f41c4	0.21802431
111	0xbce1cd87	-0.027563823
112	0x3d7d4341	0.061831716
113	0x3c0bb84d	0.008527827
114	0xbe93b89b	-0.2885178
115	0x3cddeea6	0.027091336
116	0x3e3df9d7	0.18552338
117	0xbe33f7e1	-0.17575027
118	0x3bf3dd9d	0.00744219
119	0xbdb3ef75	-0.08785907
120	0x3e8c62a8	0.2741902
121	0x3b2d30b4	0.0026426734
122	0x3e838b3a	0.2569216
123	0x3d5d399b	0.054010015
124	0xbd20285b	-0.039100986
125	0xbdf41f2f	-0.1192001
126	0xbabe5af2	-0.0014522953
127	0x3eaf7019	0.3426521
128	0x3e0632be	0.13105294
129	0x3c8b5696	0.01700906
130	0xbd9cdd64	-0.076594144
131	0xbed4ebe9	-0.41586235
132	0xbd61e267	-0.055147555
133	0xbe84ffd6	-0.25976437
134	0x3c8f365d	0.017481977
135	0xbedbaa5b	-0.42903408
136	0xbe5c89ab	-0.21536891
137	0x3da2d495	0.07950703
138	0x3e280f73	0.16412143
139	0xbd1f952f	-0.038960632
140	0x3dd0f43a	0.102028325
141	0x3e79797c	0.24362749
142	0xbd0a154e	-0.033711724
143	0x3c6b92d1	0.0143782655
144	0xbe3e32e8	-0.18574107
145	0x3d5a33ec	0.053272173
146	0x3e3aaecc	0.18230742
147	0xbce13fcc	-0.027496241
148	0xbabbd0ff	-0.0014329253
149	0xbe295d0e	-0.16539404
150	0x3df748b8	0.12074417
151	0x3e8b08fd	0.27155295
152	0xbe050a80	-0.12992287
153	0xbe13edc7	-0.14446174
154	0x3c1adfd6	0.009452781
155	0x3da6707c	0.081269234
156	0x3e73fcde	0.2382693
157	0x3cabeaa6	0.020985913
158	0x3e571df4	0.2100752
159	0x3c2a25e9	0.010385015
160	0x3dd631b8	0.10458702
161	0xbee22e73	-0.44176063
162	0x3e216978	0.1576289
163	0xbcffc318	-0.031220958
164	0xbeb7f35f	-0.35927865
165	0xbd2916dc	-0.041281566
166	0xbc67a94e	-0.0141394865
167	0x3e74d16b	0.23908012
168	0x3df21427	0.1182025
169	0x3e1c8d93	0.15288381
170	0x3d8ba384	0.068182975
171	0x3e0bf556	0.13667807
172	0x3e3b0fca	0.18267742
173	0xbb564e9f	-0.003270067
174	0x3d9bc4d4	0.07605901
175	0x3d6290d0	0.055313885
176	0xbe074a1d	-0.13211866
177	0x3d909317	0.07059305
178	0xbc6b5898	-0.014364384
179	0x3e6415b7	0.22273909
180	0xbca6d19e	-0.020363625
181	0xbe291919	-0.1651348
182	0x3e7b45db	0.24538366
183	0xbe2a0360	-0.1660285
184	0x3df0a75e	0.11750673
185	0x3dbca340	0.09210825
186	0xbd320003	-0.043457042
187	0xbe51f582	-0.2050381
188	0x3bacf108	0.0052777566
189	0x3d5bb384	0.053637996
190	0xbde325b3	-0.11091175
191	0x3e9a7cde	0.3017339
192	0x3c839e2d	0.016066635
193	0xbd4dea68	-0.050272375
194	0xbd9365a3	-0.0719712
195	0xbd351f49	-0.04421929
196	0x3e1d5108	0.15362942
197	0x3e2a3ca5	0.16624697
198	0x3e0cdbd1	0.13755728
199	0x3caae4f7	0.020861132
200	0xbe64bd2a	-0.22337785
201	0xbe74accd	-0.23894043
202	0x3de66708	0.112501204
203	0xbcbb82a8	-0.02288945
204	0x3e0ccd84	0.13750273
205	0x3d51e8ad	0.051247288
206	0xbd89b81a	-0.06724568
207	0x3e6f5b2f	0.23374628
208	0xbeef35e8	-0.46720815
209	0x3e5f76c8	0.21822655
210	0x3cf56caf	0.029959051
211	0x3e4a7a75	0.19773276
212	0x3e8ea4e8	0.27860188
213	0xbd29e60a	-0.041479148
214	0x3de02adc	0.10945675
215	0x3de407ea	0.11134322
216	0xbdcd9d97	-0.100398235
217	0x3e7d17ee	0.2471616
218	0xbea17b5b	-0.31539425
219	0x3d1f8360	0.03894365
220	0x3d055890	0.032555163
221	0x3e237dea	0.15966001
222	0xbcfc69db	-0.030812195
223	0xbe8c31c7	-0.27381727
224	0xbdf60269	-0.120121785
225	0x3e3859fd	0.18003078
226	0xbd3cac48	-0.046062738
227	0x3e0d9236	0.13825306
228	0xbdd8156f	-0.10550963
229	0x3e0b387d	0.13595767
230	0xbe0e16e3	-0.13875918
231	0x3dfbb94a	0.122912005
232	0xbe49a74b	-0.19692723
233	0xbce9e3a7	-0.028550936
234	0xbcced1f2	-0.025246594
235	0x3d800867	0.062516026
236	0xbc889d32	-0.016676519
237	0xbd929984	-0.07158187
238	0x3d670712	0.056403227
239	0x3db2a8f7	0.08723634
240	0x3e810431	0.2519851
241	0xbdf2a3e4	-0.11847666
242	0x3e2ce4f7	0.16884218
243	0xbdf37f8d	-0.11889563
244	0xbbe4d699	-0.00698359
245	0x3e27f193	0.16400747
246	0xbe237fd8	-0.15966737
247	0x3d38c93b	0.045113783
248	0xbe5e8cd9	-0.21733417
249	0x3dcfb341	0.10141612
250	0xbd8eb485	-0.06968025
251	0x3e9b23b0	0.30300665
252	0xbd6b8b20	-0.057505727
253	0xbea62fda	-0.32458383
254	0xbdc37acf	-0.09544908
255	0xbe5d1b50	-0.2159245

encoder.net.0.bias f4 [60]
0	0xbbd141b1	-0.006386005
1	0x3d407b80	0.04699278
2	0x3d357025	0.044296402
3	0x3d6450fe	0.055741303
4	0xbc9a9294	-0.018868722
5	0x3d5a009c	0.053223237
6	0xbca07c08	-0.019590393
7	0xbd63bd07	-0.055600192
8	0xbd24a86c	-0.040199682
9	0xbd90da51	-0.070728905
10	0xbdfcd9c4	-0.12346223
11	0x3d4d2d2a	0.0500919
12	0x3d27c185	0.04095604
13	0x3ca203ad	0.019777143
14	0xbd917e26	-0.07104139
15	0x3b0be591	0.002134655
16	0xbd43e667	-0.04782715
17	0xbd74d89f	-0.0597769
18	0x3d81bbb9	0.063346334
19	0x3be8f8ce	0.007109738
20	0xbd5e0c92	-0.054211207
21	0xbd384dc3	-0.044996034
22	0xbcfffc5e	-0.031248268
23	0xbc92fc6f	-0.017942635
24	0x3cfb8e72	0.030707572
25	0xbcf98144	-0.030457146
26	0x3d3351c4	0.04377915
27	0x3c39fec6	0.011352247
28	0xbd51e4af	-0.05124348
29	0xbc65c225	-0.014023338
30	0x3d770663	0.060308825
31	0x3d2290eb	0.039688986
32	0x3d445924	0.047936574
33	0x3d854454	0.06507173
34	0x3d554c2a	0.05207459
35	0x3d3d7c34	0.046261027
36	0x3daf00bf	0.08545064
37	0xbc6b7972	-0.014372217
38	0x3d1ed632	0.03877849
39	0xbd16cfa2	-0.036819108
40	0xbd9d72ff	-0.076879494
41	0xbd4891ff	-0.048967358
42	0xbd53d7fe	-0.051719658
43	0x3d4bec65	0.04978599
44	0x3cfdb363	0.030969327
45	0xbd3b82e9	-0.045779143
46	0xbc36e778	-0.011163585
47	0xbd28d61b	-0.041219812
48	0x3c440c23	0.011965784
49	0x3d547ab5	0.051874835
50	0xbd44ff95	-0.048095305
51	0xbd347433	-0.04405613
52	0xbd07d6ad	-0.033163715
53	0x3d827a97	0.063710384
54	0x3ce08c49	0.027410643
55	0xbd71d1ef	-0.0590381
56	0xbd58be0c	-0.052915618
57	0xbd61eac1	-0.05515552
58	0x3cd58e21	0.026068749
59	0x3d7ce931	0.061745826

encoder.net.2.weight f4 [60, 60]
0	0xbd1cf891	-0.03832299
1	0xbdb6300f	-0.08895885
2	0xbd463e48	-0.04839924
3	0x3e480ca4	0.19536072
4	0x3e0b6431	0.13612439
5	0x3e3bd98e	0.1834471
6	0x3d175dc2	0.03695465
7	0xbe46015d	-0.19336458
8	0x3dedcff3	0.11611929
9	0x3d7ac263	0.061220538
10	0x3db1960d	0.08671198
11	0xbdf0cedc	-0.11758205
12	0xbb98f302	-0.0046676407
13	0x3d6c79b2	0.057733245
14	0x3da920e8	0.082582295
15	0x3e665f6a	0.22497335
16	0xbd9f7776	-0.07786457
17	0x3e1d1f38	0.1534394
18	0x3df5e5ed	0.120067455
19	0xbd9a06fa	-0.07520862
20	0x3c772f07	0.015086896
21	0x3cc47bd3	0.023984825
22	0xbd823375	-0.06357471
23	0x3c299980	0.010351539
24	0xbe246d61	-0.1605735
25	0x3e399858	0.18124521
26	0x3d885ead	0.06658683
27	0x3d8fe4c2	0.07026054
28	0xbe6f6d8c	-0.23381633
29	0x3daa845f	0.08326029
30	0xbe1f9683	-0.1558476
31	0x3e8f9c13	0.28048763
32	0xbde86ed0	-0.11349261
33	0xbed75826	-0.4205944
34	0xbd888f2e	-0.06667934
35	0xbd30a9e0	-0.043130755
36	0xbe52c9d5	-0.20584805
37	0x3d9df956	0.07713573
38	0xbe78a970	-0.24283385
39	0x3cf1500e	0.029457118
40	0xbe2ab002	-0.16668704
41	0xbe251a87	-0.161234
42	0xbe1c7e2a	-0.15282503
43	0x3c220a31	0.009890125
44	0x3dea12c7	0.11429363
45	0xbd75990d	-0.059960414
46	0x3d3e8a8a	0.04651884
47	0xbdeabd49	-0.114618845
48	0xbe0a24ca	-0.13490596
49	0xbdb61975	-0.08891574
50	0x3c34e651	0.01104124
51	0xbc8fbf46	-0.017547261
52	0x3e1ca085	0.15295608
53	0x3dbda8f5	0.092607416
54	0x3de2caf9	0.1107387
55	0x3d2bcdff	0.0419445
56	0x3ca2aa6f	0.01985666
57	0xbd94eaca	-0.07271345
58	0xbd11d994	-0.03560789
59	0xbdecf48b	-0.1157008
60	0x3dd24d5b	0.10268661
61	0xbe2c3511	-0.16817118
62	0xbd827303	-0.06369593
63	0x3e33fd81	0.17577173
64	0xbdb871e2	-0.090060964
65	0xbdf68394	-0.12036815
66	0x3d0791ae	0.033097915
67	0xbdea4c90	-0.114403844
68	0xbc1575c5	-0.009122317
69	0x3de0fc5b	0.10985633
70	0x3cbb2c54	0.022848286
71	0x3e4019c3	0.18759827
72	0x3c521f24	0.012824807
73	0x3cec3adb	0.028836658
74	0x3dc34f35	0.09536592
75	0x3da5f574	0.08103457
76	0x3d94ba10	0.07262051
77	0x3e18c2a6	0.14918002
78	0xbcd178ba	-0.025570262
79	0xbdcd0745	-0.10011152
80	0xbd83567a	-0.064129785
81	0x3b43be98	0.0029868241
82	0x3d39bc06	0.04534533
83	0x3d2691cc	0.040666386
84	0x3e7ae0ee	0.24499866
85	0x3d8eecbd	0.06978748
86	0xbd9fc6fd	-0.07801626
87	0xbc86f554	-0.016474403
88	0xbda61e03	-0.08111193
89	0x3bc06341	0.005871207
90	0x3c8380a0	0.016052544
91	0x3e4e8f24	0.20171791
92	0x3dac0f9b	0.08401414
93	0xbd747e89	-0.059690986
94	0x3e073ecf	0.13207553
95	0xbb99f671	-0.0046985676
96	0x3d327d00	0.04357624
97	0x3cd834ee	0.026392426
98	0xbdd218e6	-0.10258655
99	0x3d6226a9	0.05521265
100	0xbdfedbc3	-0.1244426
101	0x3b990748	0.0046700574
102	0xbd2b2036	-0.041778766
103	0x3cdc0775	0.026859025
104	0xbe944dfa	-0.2896574
105	0xbb158624	-0.002281555
106	0x3cccad12	0.02498487
107	0xbdd16bc9	-0.102256365
108	0xbdae3768	-0.08506662
109	0x3ddfa5e1	0.10920311
110	0xbe656667	-0.22402345
111	0x383607a7	4.339931e-05
112	0x3e558788	0.20852482
113	0x3ce32561	0.027727785
114	0xbdbe6b05	-0.09297756
115	0xbd80a809	-0.0628205
116	0x3c8f461f	0.017489491
117	0x3ddfecc0	0.10933828
118	0xbe8fb4d8	-0.2806766
119	0x3c17d805	0.009267812
120	0xbdc9c401	-0.09851838
121	0xbd41d423	-0.04732145
122	0x3e530ef9	0.2061118
123	0xbbd7da73	-0.0065873205
124	0xbe3d6ba4	-0.18498093
125	0x3e4b6ded	0.19866152
126	0xbc4edd86	-0.0126260575
127	0xbe4f4704	-0.20241934
128	0xbdd670fc	-0.10470769
129	0xbdeb5eb9	-0.11492676
130	0x3d87a2bc	0.06622836
131	0xbe082ab1	-0.13297535
132	0x3da4e72f	0.08051907
133	0x3e2d0983	0.1689816
134	0x3db328bb	0.08748003
135	0xbdb67c1a	-0.08910389
136	0xbdc59e16	-0.09649293
137	0xbd3f37b8	-0.046683997
138	0x3ec41495	0.38296953
139	0x3dc36be3	0.09542062
140	0xbd397651	-0.04527885
141	0x3dd67e56	0.104733154
142	0x3e225431	0.15852429
143	0xbd81a0f7	-0.0632953
144	0xbdb9d97e	-0.090746865
145	0x3e01a4a0	0.12660456
146	0xbdd880ea	-0.105714634
147	0xbe1da8c3	-0.15396409
148	0xbdf537cf	-0.11973535
149	0x3d7ed237	0.062212195
150	0xbd732a53	-0.059366535
151	0x3be6db25	0.007045167
152	0xbdc891c7	-0.0979343
153	0x3dda4e1a	0.10659428
154	0xbcf56ec0	-0.029960036
155	0x3e13afb3	0.14422493
156	0x3da92876	0.082596704
157	0x3d530afe	0.051524155
158	0x3d1e1aa0	0.03859961
159	0xbb01c05e	-0.0019798498
160	0xbd4d4848	-0.05011776
161	0xbe2e7f34	-0.17040712
162	0xbcaea83e	-0.021320459
163	0x3da87b1a	0.08226605
164	0xbe28d8c3	-0.16488938
165	0xbdd65b80	-0.10466671
166	0x3dac3dba	0.08410211
167	0x3ddb1aed	0.10698495
168	0xbcdd2685	-0.026995907
169	0x3d571216	0.052507482
170	0xbbd5e748	-0.006527815
171	0xbe5bc500	-0.21461868
172	0xbe2e0343	-0.16993432
173	0x3d09898e	0.033578448
174	0xbdc0ad85	-0.09408096
175	0x3e3f9bd1	0.18711783
176	0xbcc3d188	-0.023903623
177	0xbdf03509	-0.11728866
178	0xbc98913f	-0.018623946
179	0xbb17de91	-0.0023173431
180	0xbe1a579e	-0.15072486
181	0xbde06f1d	-0.10958693
182	0x3bf44539	0.007454541
183	0x3e2e982b	0.17050235
184	0xbc900758	-0.017581627
185	0xbc4ad4e8	-0.012379862
186	0xbdc5bf7b	-0.096556626
187	0x3c74c03a	0.0149384085
188	0x3e011f42	0.1260958
189	0xbe1af50b	-0.15132539
190	0x3c7496e5	0.014928554
191	0x3d63a1e7	0.055574324
192	0x3e392add	0.18082757
193	0x3e465cdd	0.19371362
194	0x3e170f92	0.14752033
195	0x3df24da4	0.11831215
196	0xbc9d2be6	-0.019185971
197	0xbd77f305	-0.060534496
198	0x3c809e83	0.015700584
199	0x3e3ce16b	0.18445365
200	0x3c655993	0.013998407
201	0xbe52419f	-0.20532845
202	0x3d92c6e8	0.071668446
203	0x3da71b1f	0.0815947
204	0xbcd6a33e	-0.026200887
205	0x3e1f3c50	0.15550351
206	0x3c665f1a	0.01406076
207	0xbe361033	-0.17779617
208	0xbd5922a7	-0.053011563
209	0xbc8c86e0	-0.017154157
210	0x3dbdc979	0.092669435
211	0xbcbf7239	-0.023369895
212	0x3e5add70	0.21373534
213	0x3de887ee	0.113540515
214	0x3cb1e1d3	0.021714127
215	0xbc81f32e	-0.015863027
216	0xbceddfaf	-0.029037325
217	0x3e1009d7	0.14066254
218	0x3d974b01	0.07387353
219	0x3ce0b622	0.027430598
220	0x3e95f16a	0.29285747
221	0xbd518a2e	-0.05115717
222	0xbdd3f683	-0.10349753
223	0x3e7d445f	0.24733113
224	0x3d5c4530	0.05377692
225	0xbd191a39	-0.037378523
226	0x397d1806	0.0002413691
227	0x3ea9b85f	0.33148476
228	0xbe2f7845	-0.17135723
229	0x3cf214e6	0.02955098
230	0xbdff19d2	-0.12456097
231	0x3e4f3684	0.2023564
232	0xbe009821	-0.12558033
233	0x3d38c2ae	0.045107536
234	0xbdff781d	-0.12474082
235	0xbced649f	-0.028978644
236	0x3d1fdd3b	0.03902934
237	0x3c6aa7db	0.014322246
238	0xbc830d7f	-0.015997646
239	0xbdce65c3	-0.10078003
240	0x3e143199	0.14472045
241	0xbe233474	-0.15937978
242	0xbcde08fe	-0.027103897
243	0x3dc55a43	0.09636357
244	0xbd3479ed	-0.04406159
245	0x3d81e00f	0.06341564
246	0x3e30726a	0.17231146
247	0x3c535515	0.012898703
248	0x3de085a5	0.10962991
249	0xbdc9f127	-0.09860449
250	0xbd7d76f1	-0.06188101
251	0xbddedba8	-0.1088174
252	0x3e6d8b5f	0.23197697
253	0x3d97590e	0.07390033
254	0x3e5d5d5c	0.21617645
255	0xbd67ca8d	-0.05658965

encoder.net.2.bias f4 [60]
0	0xbd850028	-0.064941704
1	0x3d9475ee	0.07249056
2	0x3d51690d	0.051125575
3	0x3c19006b	0.009338479
4	0x3d3f1e01	0.046659473
5	0xbd552c6c	-0.052044317
6	0x3cd971a3	0.026543444
7	0xbd820cb2	-0.06350078
8	0x3d6975fb	0.05699728
9	0xbb1973fe	-0.0023415084
10	0x3d2a3e51	0.041563336
11	0x3d09939e	0.033588044
12	0x3d034133	0.0320446
13	0xbc01ff30	-0.007934377
14	0xbd59c590	-0.053166926
15	0xbd1c2b6c	-0.038127348
16	0xbd843c69	-0.06456835
17	0x3d7ff9c2	0.062494047
18	0x3d10a868	0.035316855
19	0x3d41edba	0.047345854
20	0x3d442101	0.047883037
21	0xbd37d700	-0.044882774
22	0xbd7d76b7	-0.061880793
23	0x3d31941d	0.043354142
24	0x3b0f13de	0.002183191
25	0x3cd796c2	0.026317004
26	0xbc95913f	-0.018257735
27	0xbb900520	-0.004395142
28	0xbd476b1d	-0.048686136
29	0x3d0a43dd	0.033756126
30	0x3cde34cf	0.02712479
31	0x3d173174	0.036912397
32	0x3d289505	0.04115774
33	0xbc0916ec	-0.008367281
34	0xbd233558	-0.039845794
35	0xbcd0e5b3	-0.025500154
36	0xbd175ba3	-0.036952626
37	0xbcfb8889	-0.030704753
38	0xbc22aa53	-0.009928304
39	0xbd1f2492	-0.038853236
40	0xbd6abd9b	-0.057309728
41	0x3d312b58	0.043254226
42	0xbd7f3fb7	-0.062316623
43	0x3d44d663	0.048056018
44	0xbd78f9f9	-0.060785268
45	0xbcf5da50	-0.030011326
46	0xbd1d8401	-0.038455967
47	0x3d68e38d	0.056857634
48	0xbd4bfd86	-0.049802326
49	0x3c90dd21	0.017683567
50	0x3d2fb458	0.0428966
51	0x3d48154e	0.048848443
52	0xbd5878c4	-0.052849546
53	0xbd4b5b64	-0.049647704
54	0xbd19e977	-0.037576165
55	0xbd411bb6	-0.047145568
56	0x3d1e9cae	0.03872364
57	0xbd3dbf5e	-0.04632508
58	0xbceeb974	-0.029141165
59	0xbd154dea	-0.036451258

encoder.net.5.weight f4 [32, 60]
0	0x3e2f3640	0.17110538
1	0x3d36d2b6	0.044634543
2	0xbc7c02c1	-0.015381516
3	0x3e082f6f	0.13299344
4	0x3de9de6b	0.11419376
5	0xbc97d235	-0.018532852
6	0xbd358e23	-0.044325005
7	0xbe0a39c7	-0.13498603
8	0xbc1326b4	-0.0089813955
9	0x3db9d217	0.090732746
10	0x3e29c345	0.16578396
11	0x3e03a5eb	0.12856261
12	0xbd6c2f32	-0.057662196
13	0xbcd51cd9	-0.026014732
14	0x3d45ff87	0.048339393
15	0xbd43702b	-0.047714394
16	0xbe7ac62d	-0.2448966
17	0xbd1483a5	-0.03625836
18	0x3da6acc0	0.08138418
19	0xbe5e689b	-0.21719591
20	0x3da2b78b	0.07945164
21	0x3e3a75a1	0.18208934
22	0x3e158520	0.14601564
23	0xbcb89b21	-0.022534909
24	0xbcb1956e	-0.021677699
25	0x3e0b0b42	0.13578513
26	0x3de1ee05	0.11031727
27	0x3cb235f7	0.021754248
28	0x3da61b8e	0.081107244
29	0x3d16ed06	0.036847137
30	0x3d28b312	0.0411864
31	0xbe419f96	-0.18908533
32	0xbd6e4f23	-0.05818094
33	0xbd7c072c	-0.061530277
34	0xbc9857c3	-0.018596536
35	0x3d0434e4	0.032277003
36	0x3bbe529b	0.005808187
37	0xbe387974	-0.1801508
38	0xbda2459b	-0.079234324
39	0xbd920c36	-0.07131235
40	0x3d7c215f	0.061555263
41	0x3e1b1065	0.15142973
42	0x3ad408ba	0.0016176917
43	0xbc6f1ff7	-0.014595023
44	0x3e20a349	0.15687288
45	0xbe8e7793	-0.27825603
46	0xbe3148e5	-0.17312963
47	0x3e1e6f57	0.1547216
48	0xbe03cc8e	-0.12871
49	0x3e384aaf	0.1799724
50	0xbc0eeb9a	-0.008723164
51	0x3e42ac02	0.19010928
52	0x3dc20d31	0.09475172
53	0xbdd55d7b	-0.104182206
54	0x39e5ee00	0.00043855608
55	0x3ce2c84f	0.027683405
56	0x3ccc6836	0.024952035
57	0x3d2370c0	0.03990245
58	0x3ca6ca5f	0.02036017
59	0x3e250a83	0.16117291
60	0x3e7582a2	0.23975614
61	0xbd225c74	-0.03963895
62	0xbd879521	-0.06620241
63	0x3cea8e18	0.028632209
64	0xbdb7f2ec	-0.089818805
65	0x3c3506ac	0.011048954
66	0xbd8da1ee	-0.06915651
67	0x3e9236d0	0.28557444
68	0x3e9afd93	0.30271587
69	0x3c1044bf	0.008805453
70	0x3dbd3acf	0.092397325
71	0x3d37e4d6	0.04489597
72	0xbca7fe48	-0.020506993
73	0xbe22899c	-0.15872806
74	0x3e3ca9cc	0.18424147
75	0xbe29ec8f	-0.16594146
76	0x3e3e8526	0.1860548
77	0xbd9cacfc	-0.07650182
78	0x3eb86096	0.3601119
79	0xbd5b0481	-0.053471092
80	0x3e175a5b	0.14780562
81	0x3e0c4df5	0.13701613
82	0xbd12374b	-0.035697263
83	0x3dfb764a	0.12278421
84	0x3db60f13	0.08889594
85	0x3dd95790	0.10612404
86	0x3d1c94d4	0.03822787
87	0x3d28fe9d	0.041258443
88	0xbddd7bfb	-0.10814663
89	0x3dee5f59	0.1163928
90	0x3e473889	0.1945516
91	0x3d0d1760	0.03444612
92	0x3d03cb94	0.03217657
93	0xbca0ca38	-0.019627675
94	0xbce03160	-0.027367294
95	0xbe2c850e	-0.16847631
96	0xbe4ed210	-0.2019732
97	0xbdfca24b	-0.123356424
98	0x3dd26d14	0.10274711
99	0xbe7c4b23	-0.24638037
100	0xbdad0b65	-0.08449439
101	0xbea6ca75	-0.32576337
102	0x3e5b1945	0.21396358
103	0xbe037fe8	-0.12841761
104	0x3db5ec75	0.08882991
105	0x3c4541f7	0.012039653
106	0xbcb01337	-0.021493537
107	0xbd76d308	-0.06025985
108	0x3b0e9e07	0.0021761672
109	0x3c823429	0.015894013
110	0x3b6df68a	0.0036310279
111	0x3dd4131d	0.10355208
112	0x3e33c835	0.17556842
113	0xbc59f37d	-0.013302681
114	0xbdf3ac99	-0.11898155
115	0xbd96ad2e	-0.0735725
116	0x3daf580a	0.08561714
117	0xba6748e1	-0.00088228105
118	0x3cf08fb9	0.029365407
119	0x3e37f058	0.17962778
120	0xbe0dde10	-0.13854241
121	0x3d562e70	0.05229038
122	0xbdbaf187	-0.09128099
123	0x3d968d90	0.0735122
124	0x3e2ec5ac	0.17067593
125	0x3e3307fd	0.17483516
126	0xbcf2713f	-0.029595016
127	0x3cd98b9a	0.026555825
128	0x3dcc92f4	0.099889666
129	0xbe58d3d9	-0.21174563
130	0xbe2fc7b3	-0.17166023
131	0x3d75e348	0.060031205
132	0x3ec69149	0.3878272
133	0xbc23ba2f	-0.00999312
134	0xbcc78488	-0.024355188
135	0x3df8e721	0.12153459
136	0xbe487fe9	-0.19580044
137	0x3e44c5e5	0.19216116
138	0xb8b3f9e7	-8.581933e-05
139	0x3da27a01	0.07933427
140	0xbd8a0f6f	-0.06741225
141	0xbe6294e5	-0.22127111
142	0xbd9639dd	-0.07335255
143	0x3d820e04	0.063503295
144	0xbdab50e6	-0.083650395
145	0x3cc28dfc	0.023749344
146	0x3d69c092	0.057068415
147	0x3c664e1f	0.014056711
148	0x3e675d3c	0.2259416
149	0xbceff412	-0.029291186
150	0xbe0d1071	-0.13775803
151	0xbdb27bb1	-0.087149985
152	0x3e319d8d	0.17345257
153	0xbdcfd253	-0.10147538
154	0xbe439326	-0.19099101
155	0xbe1d3c68	-0.15355074
156	0xbe7336e0	-0.23751402
157	0x3e027207	0.1273881
158	0xbe1bcbb2	-0.15214422
159	0xbcde2dd4	-0.027121462
160	0xbddd73ac	-0.10813078
161	0x3da8ec3d	0.08248184
162	0x3df17fea	0.11791976
163	0xbe15552d	-0.14583273
164	0xbd9d60f4	-0.07684508
165	0x3e896257	0.2683284
166	0x3d0c6439	0.034275267
167	0x3c6099af	0.013708516
168	0xbdc0e54d	-0.09418736
169	0xbd0d9452	-0.034565277
170	0xbeae48d5	-0.3403994
171	0xbe2bda00	-0.16782379
172	0x3d70bed4	0.058775738
173	0x3de83c5a	0.11339636
174	0xbee758e3	-0.45185003
175	0x3e448de6	0.19194755
176	0x3c6e1c10	0.014533058
177	0x3ddd0651	0.107922204
178	0xbce09bd7	-0.02741806
179	0x3c548a67	0.012972451
180	0x3e4aadc8	0.19792855
181	0xbd5e734c	-0.054309174
182	0xbe97fd9c	-0.29685676
183	0xbd2689b5	-0.04065867
184	0x3b9fe54e	0.00487963
185	0x3e87fd21	0.2656031
186	0xbce51a85	-0.027966747
187	0x3ea78595	0.32719103
188	0x3d34fb57	0.04418501
189	0x3df499e3	0.11943414
190	0xbd888af8	-0.06667131
191	0xbda04810	-0.07826245
192	0xbdb7851e	-0.08960937
193	0x3c2236b5	0.0099007385
194	0xbceef790	-0.029170781
195	0x3ea7c291	0.3276563
196	0x3e08d40a	0.13362136
197	0x3caa49c0	0.02078712
198	0x3d6473db	0.05577455
199	0xbe2be593	-0.16786794
200	0xbdf94cbf	-0.12172841
201	0xbd64e5a2	-0.055883057
202	0x3b8ac10c	0.0042344388
203	0x3e305f67	0.17223893
204	0xbbe2c1ee	-0.006920091
205	0x3e102dde	0.14079997
206	0xbd21b469	-0.039478693
207	0xbd7256af	-0.0591647
208	0xbe87d6ee	-0.26531166
209	0xbe81e503	-0.25370035
210	0xbd246d5c	-0.040143356
211	0xbe701555	-0.23445638
212	0xbd7d7436	-0.061878406
213	0xbe6a9458	-0.22908151
214	0xbdaaab84	-0.08333495
215	0xbdcc7e79	-0.0998506
216	0x3c0b41e2	0.008499594
217	0x3d53f163	0.051743876
218	0xbe6d79d9	-0.23191012
219	0xbd8ef1b7	-0.06979697
220	0x3e0d9411	0.13826014
221	0xbe20e17a	-0.15711012
222	0x3e690244	0.2275477
223	0x3eadd4e0	0.33951473
224	0xbe84c110	-0.25928545
225	0x3ddfe713	0.10932746
226	0xbdbad07b	-0.09121796
227	0x3e127877	0.14303766
228	0xbe4635e4	-0.19356495
229	0xbe4d698e	-0.20059797
230	0x3dd6f7ea	0.104965046
231	0x3c590da8	0.013247885
232	0x3cfa7c85	0.030576954
233	0x3d1b0fbb	0.0378568
234	0x3da26ce5	0.07930926
235	0x3d0388e0	0.032112956
236	0x3db3ad3b	0.087732755
237	0xbe10c29f	-0.14136742
238	0xbde7e015	-0.11322037
239	0xbd3f1652	-0.046652146
240	0xbc7638be	-0.015028177
241	0xbe56daab	-0.20981853
242	0xbe9f3433	-0.31094512
243	0xbdcb9cf7	-0.09942048
244	0x3e30e51c	0.17274898
245	0x3e47895d	0.19485994
246	0xbd74ce61	-0.05976713
247	0xbd221600	-0.039571762
248	0x3d547610	0.051870406
249	0xbd7891bf	-0.06068587
250	0x3e7de177	0.2479304
251	0x3d7b4b32	0.06135101
252	0x3bab79db	0.005233032
253	0x3e921860	0.28534222
254	0xbdb8fc7c	-0.090325326
255	0xbd3b4748	-0.045722276

encoder.net.5.bias f4 [32]
0	0x3dc93f41	0.09826518
1	0xbdad1b93	-0.08452525
2	0xbd7c4fed	-0.06159966
3	0xbd621bbf	-0.055202242
4	0x3c69e8b4	0.014276672
5	0xbdb802b8	-0.089848936
6	0xbd992e58	-0.074795425
7	0x3d0b2592	0.033971377
8	0xbd561dd3	-0.052274536
9	0x3d53b053	0.051681828
10	0xbd8f8b4d	-0.070089914
11	0xbd9dfb27	-0.07713919
12	0x3d8fab6d	0.07015119
13	0x3da31017	0.07962053
14	0x3d81208a	0.063050345
15	0xbd23ddab	-0.04000632
16	0x3d410bc0	0.047130346
17	0x3d9545e1	0.07288719
18	0x3d378125	0.044800896
19	0x3ca6e401	0.020372393
20	0xbd953006	-0.0728455
21	0xbd39e3cf	-0.04538327
22	0x3d81e7ec	0.06343064
23	0xbd6fc4ad	-0.058537174
24	0xbd6585a1	-0.05603564
25	0xbda2987e	-0.07939242
26	0xbd688e66	-0.056776427
27	0x3d9e8cad	0.077416755
28	0xbd4964f3	-0.04916854
29	0x3d71c73a	0.059027888
30	0xbdac0d6d	-0.08400998
31	0x3d428158	0.047486633

predictor.net.1.weight f4 [32, 32]
0	0xbcc1eac5	-0.023671517
1	0x3cf21699	0.029551791
2	0x3e78a7de	0.24282786
3	0xbe0e53a3	-0.13899092
4	0xbea29a13	-0.31758174
5	0xbe2cf718	-0.16891134
6	0x3e38aea2	0.18035367
7	0xbb904fb7	-0.004404034
8	0x3ec46f01	0.3836594
9	0x3d62119c	0.055192575
10	0x3d8d58d3	0.069017075
11	0x3db18a67	0.08668976
12	0x3e177852	0.14791992
13	0x3e7aeffd	0.24505611
14	0xbdb5d867	-0.08879166
15	0x3de624b3	0.112374686
16	0xbd0a8001	-0.03381348
17	0xbc96c931	-0.018406482
18	0x3c2af42e	0.010434194
19	0xbd97e400	-0.074165344
20	0x3e6ff385	0.23432739
21	0xbebd477b	-0.36968598
22	0xbcee0b29	-0.029058056
23	0xbdd0b5aa	-0.101909
24	0xbe893c2f	-0.2680373
25	0x3dc86dda	0.097865775
26	0xbc14b40a	-0.009076128
27	0x3d8fbae0	0.070180655
28	0xbd886a08	-0.06660849
29	0x3e1828b6	0.1485928
30	0xbea6f62b	-0.32609686
31	0xbc5c8f90	-0.013461962
32	0xbddc2cbf	-0.10750722
33	0x3e013edc	0.12621635
34	0x3e774047	0.24145614
35	0xbe385433	-0.1800087
36	0xbe67ac2e	-0.22624275
37	0x3ded7a1d	0.11595557
38	0x3e3af674	0.18258077
39	0xbc632032	-0.013862656
40	0x3e37f0be	0.1796293
41	0xbe2036f1	-0.15645958
42	0xbcaa7a28	-0.020810202
43	0xbe2727bb	-0.1632375
44	0xbdb0da9b	-0.08635446
45	0x3e8c3f87	0.27392218
46	0x3ead826a	0.3388856
47	0xbe5ff55b	-0.2187094
48	0xbd8477ed	-0.064681865
49	0x3c41b76a	0.0118235145
50	0xbe4d95be	-0.20076653
51	0x3e8de7d0	0.2771592
52	0xbd57d1fd	-0.052690495
53	0x3dfd289e	0.12361263
54	0xbcbde16e	-0.023178782
55	0x3d32793f	0.04357266
56	0xbe02a259	-0.12757243
57	0x3e12e652	0.14345673
58	0x3e451cdf	0.19249295
59	0xbd804208	-0.062625945
60	0x3d382717	0.044959154
61	0x3e0ddae8	0.13853037
62	0x3e6c3361	0.23066474
63	0x3e2a46b4	0.16628534
64	0xbe6af285	-0.22944076
65	0x3df0b6c8	0.11753613
66	0xbe1bea35	-0.15226062
67	0x3e319778	0.17342937
68	0xbc87bc88	-0.01656939
69	0xbe07565d	-0.13216539
70	0xba37a703	-0.00070057827
71	0xbcc1302a	-0.023582537
72	0x3ec209b4	0.37898028
73	0x3e9b52fc	0.3033675
74	0xbc9418e7	-0.01807828
75	0x3e8ea8ba	0.27863103
76	0xbb8e8585	-0.004349413
77	0xbe0eec05	-0.13957222
78	0xbe38c842	-0.18045142
79	0x3ca5690d	0.020191694
80	0xbdda21b0	-0.10650957
81	0xbe19499b	-0.14969485
82	0xbd5f8d5d	-0.054578174
83	0xbdb55d67	-0.08855706
84	0x3d24f36f	0.04027122
85	0x3d50936e	0.05092185
86	0xbe10dd50	-0.14146924
87	0xbe0d234b	-0.13782994
88	0xbdb8e74e	-0.09028493
89	0x3b807539	0.003920224
90	0x3d92c0c6	0.07165675
91	0x3e07ebec	0.13273591
92	0x3e340720	0.17580843
93	0x3ee83e06	0.4535982
94	0xbcb9c85f	-0.022678552
95	0x3deb23a3	0.114814065
96	0x3d897b1c	0.067129344
97	0x3e873428	0.2640698
98	0x3e2b603e	0.16735932
99	0xbddccae4	-0.10780886
100	0x3bd4516c	0.006479433
101	0xbe0f9e91	-0.14025332
102	0xbd89293e	-0.066973194
103	0xbdd8f7fe	-0.10594176
104	0xbd09c7d7	-0.033637848
105	0x3eb7f3a8	0.35928082
106	0x3db35e31	0.087582
107	0x3e96ba75	0.2943913
108	0xbe553b69	-0.20823444
109	0x3dd00dae	0.10158859
110	0x3e1ac3fa	0.15113822
111	0x3e165d42	0.14684013
112	0xbe697684	-0.22799116
113	0x3eab98e3	0.3351508
114	0xbdb351f8	-0.08755869
115	0x3da4edc3	0.08053162
116	0x3e16b554	0.14717609
117	0x3dac2503	0.08405497
118	0x3da7a370	0.0818547
119	0xbebc2651	-0.36747983
120	0x3dd6b509	0.104837485
121	0xbe6667d4	-0.22500545
122	0xbe322adf	-0.17399167
123	0xbe4a0157	-0.19727074
124	0x3e701b8e	0.23448011
125	0xbe495126	-0.19659862
126	0x3ee6cf28	0.45079923
127	0xbe3989fd	-0.18119045
128	0x3e345058	0.17608774
129	0xbe773ddc	-0.24144691
130	0xbd86fb5e	-0.06590913
131	0x3d89f59e	0.06736301
132	0xbe85b276	-0.26112717
133	0x3e15ba56	0.14621863
134	0xbe6510c0	-0.22369671
135	0x3d4feb88	0.05076173
136	0x3df50d26	0.119653985
137	0xbcc3aba7	-0.023885561
138	0xbe35db34	-0.177594
139	0xbef06f64	-0.46959984
140	0xbd80de64	-0.06292418
141	0x3e05f22a	0.1308066
142	0xbe584881	-0.21121408
143	0x3dadfa15	0.08494965
144	0x3e37cdff	0.17949675
145	0xbc699b8d	-0.014258278
146	0xbdf41d30	-0.119196296
147	0xbd12a6f1	-0.03580374
148	0x3d8c3b18	0.06847209
149	0x3cd6e15e	0.02623051
150	0x3da77a15	0.08177582
151	0xbe64d87d	-0.22348209
152	0x3d2b6dec	0.041852877
153	0x3e109c15	0.1412204
154	0x3e40cd7d	0.18828388
155	0xbc52c53a	-0.012864405
156	0xbd4a7a86	-0.049433254
157	0x3d885e18	0.06658572
158	0xbd108b90	-0.035289347
159	0xbe2e7acf	-0.17039035
160	0x3da58b35	0.08083192
161	0x3d9ae742	0.0756364
162	0xbe8f9fd5	-0.2805163
163	0xbd3966b9	-0.04526398
164	0x3e8b3908	0.2719195
165	0xbdfc8887	-0.12330728
166	0xbc0c22e9	-0.008553245
167	0xbd8718c7	-0.06596523
168	0xbea0e0a6	-0.31421393
169	0x3e92d875	0.2868077
170	0xbd6464a9	-0.05576006
171	0x3daa4340	0.08313608
172	0x3eaa1df0	0.33225965
173	0xbe187a6a	-0.14890447
174	0x3e05067b	0.12990753
175	0x3e1cfac7	0.15330039
176	0xbe8fb11e	-0.28064817
177	0xbdc14c6c	-0.094384044
178	0xbea1fc92	-0.31638008
179	0xbd23e9f3	-0.040018033
180	0x3db84173	0.089968584
181	0xbd8d302f	-0.06893956
182	0xbc7e8343	-0.015534225
183	0xbe07d3c7	-0.1326438
184	0x3e072007	0.13195811
185	0x3e605784	0.21908385
186	0x3e3854f6	0.1800116
187	0xbd8450a6	-0.06460695
188	0x3e331a3e	0.1749048
189	0x3ea7dd3f	0.32785985
190	0xbdedd980	-0.116137505
191	0xbe5ed8b0	-0.21762347
192	0xbc0c16d0	-0.008550361
193	0x3e180a23	0.14847617
194	0xbe7c9a25	-0.24668176
195	0xbea268e0	-0.31720638
196	0x3e7ffeb2	0.24999502
197	0xbdbab0b8	-0.09115738
198	0xbea539d8	-0.32270694
199	0xbe7dcaa3	-0.24784331
200	0xbcdc06f4	-0.026858784
201	0xbe24dc74	-0.16099721
202	0xbcd39eb9	-0.02583252
203	0x3eaa4ad6	0.3326022
204	0xbdb87822	-0.090072885
205	0xbbccd43e	-0.006250887
206	0x3e40c8e3	0.18826632
207	0xbe0278d6	-0.12741408
208	0x3b994fe0	0.0046787113
209	0xbe036920	-0.12833071
210	0xbe01bc17	-0.12669407
211	0x3cd85de8	0.026411965
212	0x3d34a8f7	0.04410645
213	0x3dbe6bb3	0.09297886
214	0xbdfe0ffb	-0.12405392
215	0x3d7423db	0.059604507
216	0xbe469225	-0.19391687
217	0x3ab6d179	0.0013947926
218	0xbd8fc188	-0.07019335
219	0xbe401a1b	-0.18759958
220	0xbcf3c50c	-0.029757045
221	0xbe07ae47	-0.13250075
222	0xbd130aef	-0.0358991
223	0x3e622529	0.22084488
224	0x3da5e5e9	0.081004925
225	0xbcc98d33	-0.024603462
226	0x3de71c2a	0.11284669
227	0x3d125ca2	0.035732873
228	0x3e9aba47	0.30220243
229	0x3dd0acec	0.10189232
230	0x3e0a3243	0.13495736
231	0x3dd947eb	0.106094204
232	0xbe83b258	-0.25722003
233	0x3e63a754	0.222318
234	0xbc4b71d5	-0.012417276
235	0x3d796de2	0.060895808
236	0x3e8f86a8	0.28032422
237	0x3da43d09	0.08019454
238	0xbe48a874	-0.1959551
239	0xbe8198fe	-0.25312036
240	0xbe46aed3	-0.19402628
241	0xbe3d0ea6	-0.18462619
242	0xbe65a3d7	-0.22425781
243	0xbdee41f4	-0.11633673
244	0xbeb4c37b	-0.3530539
245	0x3d6f0690	0.058355868
246	0x3e289a7b	0.1646518
247	0xbe43988b	-0.1910116
248	0xbe54cccf	-0.20781253
249	0xbdffc0a5	-0.12487916
250	0xbc8c876d	-0.01715442
251	0x3e4e314b	0.20135991
252	0x3e365c34	0.1780861
253	0x3e5ebcca	0.21751705
254	0xbd8e46d3	-0.069471024
255	0xbee2cc28	-0.44296384

predictor.net.1.bias f4 [32]
0	0xbdc08f03	-0.09402277
1	0xbd10523f	-0.035234686
2	0xbdbdb3e0	-0.09262824
3	0x3dd8cdcb	0.10586127
4	0xbdc8ca4b	-0.09804209
5	0xbdb98a99	-0.090596385
6	0x3dc45e57	0.095883064
7	0x3d8ff2a0	0.07028699
8	0x3e066e4d	0.13128014
9	0x3dbdeda1	0.0927384
10	0xbdc2b417	-0.09507006
11	0xbddf7f29	-0.10912926
12	0x3d9e301e	0.077240214
13	0x3dcde5a2	0.100535646
14	0xbdd76356	-0.10516994
15	0x3de48b30	0.111593604
16	0x3dd1b16b	0.10238918
17	0x3dcbfdb8	0.099605024
18	0x3de6fd0f	0.11278736
19	0x3ddb3381	0.10703183
20	0xbdf38e5b	-0.118923865
21	0xbdc4d1d3	-0.09610333
22	0xbddbd33b	-0.107336484
23	0xbdb2beb2	-0.087277785
24	0xbdbcffbf	-0.09228467
25	0x3dcf4b90	0.10121834
26	0xbdc3946c	-0.095497936
27	0xbdce6d44	-0.100794345
28	0x3f0e5968	0.55605173
29	0x3dcae55b	0.09907027
30	0x3dddd44d	0.10831509
31	0xbdf7073f	-0.12061929

predictor.net.3.weight f4 [1, 32]
0	0xbe2e3fa7	-0.17016469
1	0x3ac75ae3	0.0015209581
2	0xbe300101	-0.17187883
3	0x3dcd853a	0.100351766
4	0xbebecfb4	-0.3726784
5	0xbe180514	-0.14845687
6	0x3e61e437	0.22059713
7	0x3c9c60b4	0.01908908
8	0x3dfd65e0	0.12372947
9	0x3ec197a7	0.37811014
10	0xbe8650db	-0.26233563
11	0xbeea2986	-0.45734805
12	0x3d857e0d	0.06518183
13	0x3d84dc81	0.0648737
14	0xbeb5feb7	-0.35545895
15	0x3e6d5055	0.23175175
16	0x3e58692e	0.21133873
17	0x3e1cb853	0.15304689
18	0x3eacfac0	0.33785057
19	0x3ea0f8b7	0.31439754
20	0xbdc83b4a	-0.097769335
21	0xbefa273e	-0.48858064
22	0xbf408467	-0.7520203
23	0xbd98a63f	-0.07453584
24	0xbde9614c	-0.11395511
25	0x3dae4120	0.08508515
26	0xbda04f93	-0.078276776
27	0xbe8dacd8	-0.27670932
28	0x3db680e1	0.089113005
29	0x3eb74e46	0.35801905
30	0x3e5158d5	0.20444043
31	0xbd469f53	-0.048491787

net.0.weight f4 [60, 35]
0	0x3dfc646a	0.1232384
1	0x3d9408da	0.07228251
2	0x3b6cd64d	0.0036138475
3	0xbd148d3d	-0.036267508
4	0x3d4c50e0	0.049881816
5	0x3b594af0	0.0033156238
6	0xbdd04438	-0.10169262
7	0xbe0d87cd	-0.13821335
8	0x3e6a48ec	0.2287938
9	0x3d1c5d09	0.038174663
10	0x3cb3c7e3	0.0219459
11	0xbdff274a	-0.12458666
12	0x3df8a99a	0.12141724
13	0x3c3379e4	0.010954354
14	0x3e507a46	0.20359144
15	0x3cbbe64f	0.022936968
16	0x3c647997	0.013945005
17	0x3de22b92	0.11043467
18	0x3eb5595f	0.35419747
19	0x3e0017b5	0.12509044
20	0xbca0d8d0	-0.019634634
21	0x3cf7fc27	0.030271603
22	0x3d5ca4b6	0.053868018
23	0x3d6145c2	0.054998167
24	0x3e72d9fa	0.23715964
25	0x3e6fc0d1	0.23413397
26	0xbd8b060d	-0.067882635
27	0x3db006a2	0.08595015
28	0x3e0d077d	0.13772388
29	0x3d91c6b4	0.07117978
30	0xbe335435	-0.17512591
31	0x3e4f6581	0.20253564
32	0xbdf570fe	-0.11984442
33	0xbe1ac493	-0.1511405
34	0x3e409484	0.18806654
35	0xbd493e30	-0.049131572
36	0xbe39eab9	-0.18155946
37	0xbd0ce353	-0.03439648
38	0x3cd32cda	0.025778223
39	0x3d5328ac	0.05155246
40	0xbe49ab4b	-0.1969425
41	0xbdf9d61e	-0.12199043
42	0x3d215149	0.03938416
43	0x3e4769cf	0.19473957
44	0xbc881d27	-0.016615463
45	0xbdccb9d0	-0.099963784
46	0xbc43ca44	-0.011950079
47	0x3d6a7abd	0.05724596
48	0x3d2c8d92	0.0421272
49	0x3d15ee4b	0.036604207
50	0x3d248107	0.040162113
51	0x3d99c895	0.07508961
52	0x3de56af5	0.11202041
53	0xbdb214f5	-0.086954035
54	0xba0c1415	-0.00053435686
55	0x3dfba183	0.12286665
56	0xbd722c40	-0.05912423
57	0x3c1b9238	0.0094953105
58	0xbe9fc004	-0.31201184
59	0xbe979611	-0.2960668
60	0x3e40c1f4	0.18823987
61	0xbe616d74	-0.2201441
62	0xbe3e6323	-0.18592505
63	0x3ddfb6c8	0.10923535
64	0x3d87e791	0.06635965
65	0x3d7c5d97	0.06161269
66	0xbe0d4f2c	-0.13799733
67	0xbda58360	-0.080816984
68	0x3e14a070	0.14514327
69	0x3c280547	0.0102551645
70	0x3e1ab9b0	0.15109897
71	0x3ddc51c4	0.10757783
72	0xbda64da5	-0.08120278
73	0xbdfe21c9	-0.12408788
74	0xbd8bd56c	-0.06827816
75	0x3bf1e73f	0.007382303
76	0x3e08d57f	0.13362692
77	0x3d0da40d	0.03458028
78	0x3ce3cd39	0.027807819
79	0x3d31c49d	0.043400396
80	0x3da6c114	0.081422955
81	0xbe6bf9d2	-0.23044518
82	0x3ccdf20b	0.02513983
83	0x3df6b3b4	0.120459944
84	0xbdff1dc1	-0.12456847
85	0x3d160c50	0.036632836
86	0x3e049147	0.12946044
87	0x3ddef809	0.10887153
88	0xbceb1ae7	-0.028699351
89	0x3c9d69e6	0.019215535
90	0x3ea3f1ac	0.32020319
91	0xbca2c718	-0.019870326
92	0xbe286741	-0.16445638
93	0xbdb6cded	-0.08925996
94	0x3db0ef4a	0.08639391
95	0x3db3cba1	0.087790735
96	0xbd3507ab	-0.044196766
97	0xbe99ab01	-0.30013278
98	0xbb00d936	-0.0019660718
99	0xbd05fb17	-0.03271016
100	0xbc8f2a87	-0.017476333
101	0x3e27ae1b	0.1637501
102	0x3e2f3c29	0.17112793
103	0x3db1f6a9	0.08689625
104	0x3c36d38c	0.011158835
105	0x3c9a3a44	0.018826611
106	0xbc881665	-0.016612241
107	0xbe86c29c	-0.2632035
108	0xbe38ba14	-0.18039733
109	0x3c8a9ed4	0.016921438
110	0xbe24bb81	-0.16087152
111	0xbd542013	-0.0517884
112	0xbe131de0	-0.14366865
113	0x3cf5897c	0.029972784
114	0xbd5617dd	-0.05226885
115	0xbe288975	-0.16458686
116	0x3d2f5a87	0.042810943
117	0xbdad1c12	-0.084526196
118	0x3e50428a	0.20337883
119	0x3c1d5190	0.009601966
120	0xbd32b67f	-0.043631073
121	0x3da1e5aa	0.07905133
122	0xbd5d3776	-0.05400797
123	0xbdcb48dc	-0.09926006
124	0x3e45b778	0.19308269
125	0x3ca5cf77	0.020240529
126	0xbd073432	-0.03300876
127	0x3d1c450e	0.038151793
128	0x3dcf6a13	0.10127654
129	0x3e1bae45	0.15203197
130	0x3ddc74f5	0.10764495
131	0xbe47161e	-0.19442031
132	0x3e76366a	0.24044195
133	0xbe3e59d7	-0.18588959
134	0xbe14bfe1	-0.14526321
135	0xbdcbf8f5	-0.09959594
136	0xbd5ee7dd	-0.05442034
137	0x3e233584	0.15938383
138	0xbd9ccb16	-0.07655923
139	0xbd040653	-0.032232594
140	0x3d107c45	0.035274763
141	0x3e255f4f	0.16149639
142	0xbd8b47ee	-0.06800829
143	0xbe0eba08	-0.13938153
144	0xbdedf9cb	-0.1161991
145	0xbde8a3d0	-0.1135937
146	0x3e5286ed	0.20559283
147	0xbe20b8eb	-0.1569554
148	0x3d205f78	0.039153546
149	0x3d4d1f3a	0.050078608
150	0x3de08613	0.10963073
151	0xbdf88c42	-0.12136127
152	0x3dea4b4c	0.11440143
153	0x3cf84016	0.030303996
154	0xbd5b96ed	-0.05361073
155	0x3c995883	0.018718963
156	0xbe079a6f	-0.13242505
157	0xbdf49e94	-0.11944309
158	0xbc0b1206	-0.008488184
159	0xbe6f30a4	-0.23358399
160	0xbdec6288	-0.11542231
161	0xbd3fda31	-0.046838943
162	0x3d1db084	0.038498417
163	0xbcbff213	-0.02343086
164	0xbdf6fd2b	-0.12060007
165	0x3e619830	0.22030711
166	0x3ddb630e	0.107122526
167	0x3dd5e4a4	0.10444
168	0xbd922427	-0.07135802
169	0x3d2a4840	0.04157281
170	0x3db796e1	0.08964325
171	0x3e729cd3	0.23692636
172	0xbe2c6132	-0.16833952
173	0x3e11066f	0.1416261
174	0xbe8765a6	-0.2644474
175	0xbe6301f5	-0.22168715
176	0xbddf0c21	-0.10890985
177	0xbd4d28b6	-0.050087653
178	0xbe76144f	-0.24031185
179	0x3cc720ac	0.024307571
180	0x3d59719f	0.053086873
181	0x3c108cad	0.008822602
182	0x3e9a3154	0.3011576
183	0xbcccf1bd	-0.025017614
184	0x3dd15f5d	0.10223267
185	0x3de63855	0.11241213
186	0x3df03c24	0.11730221
187	0x3cd0d439	0.02549182
188	0xbddbbaaa	-0.10728963
189	0xbdb0e874	-0.08638087
190	0xbe85d82a	-0.26141483
191	0xbd88e409	-0.06684119
192	0xbe94f6d3	-0.29094562
193	0xbe0eba6a	-0.13938299
194	0xbd839394	-0.06424633
195	0x3d36de33	0.0446455
196	0x3e0a737d	0.13520618
197	0xbd8622db	-0.06549617
198	0x3e8a8ace	0.27059025
199	0x3e4692dd	0.19391961
200	0xbc9fcb1c	-0.01950603
201	0xbd9d1636	-0.07670252
202	0xbeaf3b2d	-0.34224835
203	0xbe2c00e8	-0.1679722
204	0x3e229e10	0.15880609
205	0x3d10dc00	0.03536606
206	0x3e2120df	0.15735196
207	0xbcdd9c77	-0.027052147
208	0x3d9ee7e1	0.07759071
209	0xbc85991b	-0.016308358
210	0xbc996776	-0.018726092
211	0x3d465a60	0.048426032
212	0xbdf8e9d6	-0.12153976
213	0x3e871606	0.2638399
214	0xbe0b91a8	-0.13629782
215	0x3d0b8a65	0.03406753
216	0xbe4e6f41	-0.20159627
217	0xbe9f35a8	-0.31095624
218	0xbe9c2ad6	-0.3050143
219	0x3d6f2ffd	0.058395375
220	0xbedba5ef	-0.42900035
221	0xbe2bed6a	-0.16789785
222	0xbd27ea98	-0.04099521
223	0xbe25d003	-0.16192631
224	0xbe04a525	-0.12953623
225	0xbe89da7e	-0.2692451
226	0x3d628a8e	0.055307917
227	0xbcccd043	-0.02500165
228	0xbea9155c	-0.33024108
229	0xbecc479d	-0.39898387
230	0xbe21a528	-0.15785658
231	0xbca0990d	-0.01960423
232	0xbde51e83	-0.1118746
233	0xbe279aad	-0.16367598
234	0xbdaacd6d	-0.08339963
235	0xbe9ccdd6	-0.3062579
236	0xbe5279e2	-0.20554307
237	0x3dfd8fc2	0.12380935
238	0x3e3422b6	0.17591366
239	0xbe3304f6	-0.17482361
240	0xbde53d43	-0.11193325
241	0xbd8c8160	-0.06860614
242	0x3dd328c6	0.10310511
243	0x3d094420	0.033512235
244	0xbccf163c	-0.025279157
245	0x3d8a4b17	0.067526035
246	0xbd0ebd9a	-0.034848787
247	0x3d8e2b6d	0.069418766
248	0xbdbbd597	-0.091715984
249	0x3e176b21	0.1478696
250	0x3e80b047	0.2513449
251	0xbd0793d7	-0.033099975
252	0xbb0380bf	-0.0020065752
253	0xbb9244c3	-0.0044637634
254	0xbe026273	-0.12732868
255	0x3d53fe77	0.05175635

net.0.bias f4 [60]
0	0x3d1f14e9	0.0388383
1	0xbc6752d8	-0.014118873
2	0xbe1191ae	-0.14215729
3	0x3e04e67c	0.12978548
4	0x3b848bf9	0.0040450064
5	0x3c8ab9ee	0.016934361
6	0x3d0bee83	0.03416301
7	0xbd1b768a	-0.037954845
8	0xbdf9f462	-0.122048154
9	0xbe056941	-0.13028432
10	0xbd833353	-0.06406274
11	0x3c4e41de	0.012588946
12	0x3db7df56	0.08978145
13	0x3d786504	0.06064321
14	0x3cf2b78c	0.029628538
15	0x3c936058	0.017990276
16	0x3e0284d5	0.12745984
17	0x3e42590d	0.18979283
18	0x3d0223a6	0.03177228
19	0xbe14ba71	-0.14524247
20	0x3dbfa0fa	0.09356876
21	0x3d338a88	0.043833286
22	0x3dfb6425	0.122749604
23	0xbe10adbd	-0.14128776
24	0xbd286846	-0.041115068
25	0xbd9e71fe	-0.07736586
26	0xbd043cd9	-0.03228459
27	0xbac48645	-0.0014993629
28	0xbd62b85f	-0.05535161
29	0xbd237e9f	-0.039915677
30	0xbe0fb5b0	-0.14034152
31	0xbdead2d0	-0.114659905
32	0x3e158ab4	0.14603692
33	0x3cb3faa8	0.021970108
34	0x3cd34a98	0.025792405
35	0x3e064fa2	0.13116315
36	0x3e1af7ac	0.15133542
37	0x3e1c489f	0.15262078
38	0x3da54824	0.080704
39	0x3db05c19	0.08611316
40	0x3d80e4a9	0.062936135
41	0x3db966f3	0.09052839
42	0xbdc92e9d	-0.09823344
43	0xbd5a57d5	-0.05330642
44	0xbdb0b54a	-0.08628328
45	0x3ce7a0df	0.028274952
46	0xbd4aee18	-0.04954347
47	0x3d453566	0.048146628
48	0xbd5884b9	-0.05286095
49	0x3d895bbf	0.06706952
50	0x3dd18073	0.10229578
51	0x3dcc496a	0.0997494
52	0x3e117dc8	0.14208138
53	0x3c082d0b	0.00831152
54	0x3dcd9b32	0.10039367
55	0x3d612d5c	0.0549749
56	0x3def7da0	0.11693883
57	0x3da75af0	0.08171642
58	0xbd9cb927	-0.076525025
59	0xbd5f7b6b	-0.05456106

net.2.weight f4 [60, 60]
0	0x3d47194d	0.048608113
1	0x3e31dd54	0.17369586
2	0xbe12e63a	-0.14345637
3	0xbe04997d	-0.12949176
4	0xbd4404b5	-0.04785605
5	0xbd482a01	-0.048868183
6	0x3e240aae	0.16019699
7	0xbd005105	-0.031327266
8	0xbd386ed0	-0.045027554
9	0xbe79724c	-0.24360007
10	0xbdfa2ed8	-0.12215966
11	0x3dc62057	0.09674137
12	0x3e0c1261	0.13678886
13	0x3e0f9cf8	0.14024723
14	0xbdc931f6	-0.098239824
15	0xbde32cf8	-0.110925615
16	0xbe89263c	-0.26786983
17	0x3cc6d12b	0.024269661
18	0x3d0fe913	0.035134386
19	0x3c09500b	0.0083809
20	0x3d433a5d	0.04766308
21	0x3d7aba40	0.061212778
22	0x3da8fa3e	0.08250855
23	0x3d325ee7	0.043547537
24	0x3c91ac95	0.017782489
25	0x3da62c09	0.08113868
26	0x3d2928e3	0.04129876
27	0x3db73e2d	0.08947406
28	0x3c929e1e	0.017897662
29	0xbac00bec	-0.001465199
30	0x3ea955d5	0.33073297
31	0xbd523107	-0.051316287
32	0x3d42391f	0.047417756
33	0x3c995269	0.018716054
34	0x3ec7117c	0.38880527
35	0xbe5447e5	-0.2073055
36	0xbd45c189	-0.048280273
37	0x3e0f7722	0.1401029
38	0xbcd915d4	-0.026499666
39	0xbe8beb23	-0.27327833
40	0xbd7be88c	-0.06150107
41	0x3d8031af	0.062594764
42	0xbc9de0e8	-0.019272283
43	0xbd021a99	-0.031763647
44	0xbd38a31e	-0.045077436
45	0x3ed6fff0	0.4199214
46	0xbe2186fa	-0.15774146
47	0x3d69d383	0.05708648
48	0xbb445293	-0.0029956445
49	0x3c2a7a8e	0.010405196
50	0xbd67c3b0	-0.056583107
51	0x3dc1b522	0.094583765
52	0xbd012dde	-0.031537883
53	0xbde2d2b8	-0.11075348
54	0x3e345573	0.17610721
55	0x3e693c49	0.22776903
56	0x3e2cf931	0.16891934
57	0x3e6c9c89	0.23106588
58	0x39d48e7b	0.00040541947
59	0x3e15ce0d	0.14629383
60	0x3e248299	0.16065444
61	0x3e289e6c	0.16466683
62	0x3d41eb3a	0.04734347
63	0x3d538b3d	0.05164646
64	0x3e9eeaba	0.31038457
65	0x3e1dd6f1	0.15414025
66	0xbe40820f	-0.18799613
67	0x3dd90de4	0.105983526
68	0x3d783205	0.060594577
69	0xbe33c46c	-0.17555398
70	0x3e891145	0.26770988
71	0x3e1e4662	0.15456536
72	0xbe401f17	-0.1876186
73	0x3e3c53e4	0.18391377
74	0x3ddf7ead	0.10912833
75	0x3ce5d454	0.028055348
76	0x3e67ecfe	0.22648999
77	0x3dd65f48	0.10467392
78	0xbe0ae518	-0.13563955
79	0xbd29bece	-0.04144173
80	0x3dec9da3	0.11553504
81	0x3e2c7f89	0.16845526
82	0xbe08e7bf	-0.13369654
83	0x3dec038a	0.115241125
84	0x3db2b25f	0.08725428
85	0x3c7bc413	0.015366572
86	0xbc00641c	-0.007836368
87	0x3da94549	0.08265168
88	0xbe2aee06	-0.16692361
89	0x3dcbdc08	0.09954077
90	0x3db0ec9d	0.086388804
91	0xbde90e12	-0.11379637
92	0xbda929e4	-0.08259943
93	0x3c8887e4	0.01666636
94	0x3e1de464	0.15419155
95	0x3d8ab103	0.067720436
96	0xbd564d26	-0.05231967
97	0xbc3ea0ea	-0.011635045
98	0xbcea9074	-0.028633334
99	0x3b88d55c	0.004175825
100	0xbd1077ef	-0.035270628
101	0xbca5f12d	-0.020256603
102	0x3c900978	0.01758264
103	0x3d2840ab	0.041077297
104	0xbdea6754	-0.114454895
105	0x3c77cf99	0.015125179
106	0xbe86ebac	-0.26351678
107	0x3e89c495	0.26907793
108	0xbd93ed4a	-0.07222994
109	0xbe3427b0	-0.17593265
110	0x3b97bfb1	0.0046310057
111	0xbe800ce4	-0.25009835
112	0x3dedbdbf	0.11608457
113	0x3de8da2f	0.1136974
114	0x3da2221e	0.079166636
115	0xbda2d2ca	-0.07950361
116	0xbe62a396	-0.22132716
117	0x3e1a586f	0.15072797
118	0xbdb35079	-0.08755583
119	0xbe20ae1f	-0.15691422
120	0xbe76bdfd	-0.24095912
121	0x3c1fcb6b	0.0097530885
122	0xbd7c460f	-0.06159025
123	0x3c75460c	0.014970314
124	0xbd26f053	-0.040756535
125	0x3da495e9	0.080364056
126	0x3c6ad202	0.014332296
127	0x3ea03dc4	0.31297123
128	0xbe0d5548	-0.13802063
129	0x3df7ae59	0.12093801
130	0xbc257457	-0.010098538
131	0xbd9d7fb3	-0.07690372
132	0xbdd501b1	-0.10400713
133	0xbb94dc37	-0.004542853
134	0xbdf4c875	-0.11952297
135	0x3ec19181	0.37806323
136	0xbdfa7455	-0.1222922
137	0x3e6a875a	0.22903195
138	0xbdca2a71	-0.09871376
139	0xbce77f3b	-0.02825891
140	0xbdafc97f	-0.08583354
141	0x3d3eddab	0.046598118
142	0xbd3d0e40	-0.046156168
143	0xbce3e17e	-0.027817484
144	0x3e038e15	0.12847169
145	0x3e1d7ca5	0.1537958
146	0xbe0c524f	-0.13703273
147	0x3dc7c806	0.09754948
148	0x3dfd7c93	0.12377276
149	0xbcb274b7	-0.02178417
150	0x3bd8f1d8	0.006620627
151	0x3927c056	0.00015998012
152	0x3e2ba1f3	0.16760997
153	0x3bbc3691	0.0057438095
154	0x3cbf75cd	0.023371601
155	0x3d33ef13	0.04392917
156	0x3dca97ca	0.09892233
157	0x3ea4bf83	0.32177362
158	0xbdda1eb6	-0.10650389
159	0xbca7cb77	-0.020482762
160	0xbdff7f6b	-0.12475475
161	0x3c1f31bd	0.009716448
162	0x3c89e91c	0.016834788
163	0x3e0fa107	0.14026271
164	0x3dc821a8	0.097720444
165	0x3e7b4662	0.24538568
166	0xbd531bd7	-0.051540222
167	0xbdfe0391	-0.12403024
168	0x3e0e76ae	0.1391246
169	0x3bb15624	0.00541188
170	0xbe23a21f	-0.15979813
171	0xbe4b58d5	-0.19858105
172	0xbe3ac438	-0.18238914
173	0x3dcb0a7d	0.0991411
174	0x38f24d50	0.0001155386
175	0xbd8e4f8b	-0.06948765
176	0x3c797920	0.015226632
177	0x3de02578	0.109446466
178	0xbd66d9bf	-0.056360003
179	0xbd723f94	-0.059142664
180	0x3e1d2382	0.15345576
181	0xbde74c91	-0.11293901
182	0xbdc05b46	-0.09392409
183	0xbc08ceb2	-0.008350061
184	0x3dbf3ac9	0.09337384
185	0x3da81b17	0.08208292
186	0x3e1f0b49	0.15531649
187	0x3e65f714	0.22457534
188	0x3e25dede	0.16198298
189	0x3e38aced	0.18034716
190	0xbb091271	-0.0020915533
191	0x3df18f69	0.117949314
192	0xbe022ca0	-0.12712336
193	0x3e4d449d	0.20045705
194	0xbd66a7d9	-0.056312416
195	0xbe7f4016	-0.2492679
196	0x3df2e0c2	0.118592754
197	0x3d2a230d	0.041537333
198	0x3d08c289	0.03338865
199	0xbe089e4f	-0.1334164
200	0x3e6bcae7	0.2302662
201	0x3c0bc89d	0.008531717
202	0x3d4fcb82	0.05073119
203	0x3ccc2be7	0.024923278
204	0x3e195858	0.14975107
205	0x3e8eadca	0.27866966
206	0x3e9eef7b	0.31042084
207	0x3d3167cd	0.043311883
208	0xbe2ddbc1	-0.1697836
209	0x3d6f197c	0.058373913
210	0x3d1f46a2	0.03888572
211	0x3df9687e	0.121781334
212	0x3e837b8f	0.25680205
213	0xbd805a4e	-0.06267224
214	0xbd261654	-0.040548638
215	0x3d3bdbce	0.04586392
216	0x3e7dcea7	0.24785863
217	0x3d98bebd	0.074582554
218	0xbd8193a4	-0.06326988
219	0x3b004bd4	0.0019576447
220	0x3da1f0e1	0.07907272
221	0x3d36264a	0.04447011
222	0x3e2298fd	0.15878673
223	0x3cecd156	0.028908413
224	0xbc9d3610	-0.019190818
225	0xbe875187	-0.26429388
226	0x3d4c49f8	0.04987523
227	0x3d86759f	0.06565403
228	0x3d16c58b	0.036809485
229	0xbd274cab	-0.0408446
230	0xbd20ef90	-0.039290965
231	0x3d1491be	0.036271803
232	0x3dd67c99	0.10472984
233	0xbe78af79	-0.24285688
234	0xbce11f4a	-0.02748074
235	0x3c660def	0.014041408
236	0x3dc821d9	0.09772081
237	0xbdef38e8	-0.11680776
238	0x3e463beb	0.19358794
239	0x3e202a70	0.15641189
240	0x3d26ceda	0.040724613
241	0x3e893859	0.26800802
242	0x3c9ec5dd	0.019381458
243	0x3e29d085	0.1658345
244	0xbca73534	-0.020411111
245	0xbe2f33ec	-0.1710965
246	0x3e1b1c26	0.15147457
247	0x3df81e7a	0.12115188
248	0xbe4993e5	-0.19685324
249	0x3e1ed153	0.15509538
250	0xbd29fc24	-0.041500226
251	0x3dbf4653	0.09339585
252	0x3dd57d6f	0.10424315
253	0xbc8c5527	-0.017130448
254	0xbe205886	-0.15658769
255	0x3dc4f0a0	0.09616208

net.2.bias f4 [60]
0	0xbe105422	-0.14094594
1	0xbdd2955b	-0.102823935
2	0x3de3ba2e	0.11119495
3	0xbdf95fa3	-0.121764444
4	0x3cee9b71	0.029126855
5	0xbc63fa1e	-0.013914613
6	0xbda6675a	-0.081251815
7	0x3c103748	0.008802243
8	0x3cac5d8d	0.021040702
9	0xbd5c9d50	-0.053860962
10	0xbd301589	-0.042989288
11	0x3d137077	0.035995927
12	0xbd8d9d2e	-0.06914745
13	0x3c0bc925	0.008531843
14	0x3d9ea0b9	0.07745499
15	0x3dc1a191	0.094546445
16	0xbcd037ec	-0.02541729
17	0xbd2cf476	-0.042225324
18	0x3db302a7	0.0874074
19	0x3d8a6a93	0.06758609
20	0xbdb790a5	-0.08963136
21	0xbd74e896	-0.059792124
22	0xbdebcc43	-0.11513569
23	0x3d863d84	0.06554702
24	0xbd914d40	-0.070948124
25	0x3db80999	0.089862056
26	0xbd85c9a8	-0.065326035
27	0x3de74d88	0.11294085
28	0xbd498a55	-0.04920419
29	0xbd9753f8	-0.07389063
30	0xbda20992	-0.07911982
31	0x3c8366ec	0.016040288
32	0xbc8c266a	-0.017108161
33	0x3d407d5d	0.046994556
34	0x3da4337d	0.08017633
35	0x3d8e089d	0.069352366
36	0xbd281b65	-0.04104175
37	0x3c617eeb	0.01376317
38	0x3dd44922	0.103655115
39	0xbd87eed6	-0.06637351
40	0xbde7681f	-0.112991564
41	0xbd9d8b5f	-0.076925986
42	0x3d23e63d	0.040014494
43	0xbcfa2825	-0.03053672
44	0x3ddd6f6c	0.10812268
45	0x3de60b0d	0.112325765
46	0xbdb8a9d2	-0.09016766
47	0x3dac96a5	0.08427171
48	0xbbf28e68	-0.00740223
49	0xbd150c51	-0.0363887
50	0xbde9d540	-0.11417627
51	0xbd93e5bf	-0.07221555
52	0x3d414b01	0.04719067
53	0x3d6af738	0.057364672
54	0xbcc5c66a	-0.024142463
55	0xbd43ec1c	-0.047832593
56	0x3c58e2eb	0.013237695
57	0xbd9f617d	-0.07782266
58	0xbdcd7a24	-0.10033062
59	0x3c513b07	0.012770421
