results of reviewer/XJTU results/3-3/Experiment8/model.pth (torch, 59838 bytes, 14 tensors)

encoder.net.0.weight f4 [60, 17]
00000000: 9484 143e e674 9a3c f5d2 c03d a184 4abd
00000010: d5a8 20be 0afc 9abd abd5 84bd 195e a93d
00000020: 95cf 49be 5682 c53c 0d65 bcbd 897b c6bd
00000030: 9988 14be 4e81 313d 33ce 833e b2e5 003d
00000040: a3a6 2dbe 03df 4abd af94 a9be 15a6 163b
00000050: c546 cd3c 5a35 2ebd 5596 8d3e e18a 433e
00000060: 24d9 a9bd ee28 d93d 34de 5ebe 9659 093e
00000070: 79d4 c13c 452a 66be 0bfb 31be 5dd4 10bd
00000080: 6035 403e 9e3c e33c fa08 123d 317a 4ebe
00000090: e113 213b 5d9c 523d c4db babe 926d e8bd
000000a0: 71c9 703c d7d0 e93c b2b9 26bd e7ac 0cbe
000000b0: d7e0 b23e ded4 853d be3f 2bbe 8a8a 203e
000000c0: b5b7 203e d40b 483d 49e8 40be bc1a 983d
000000d0: 35e7 da3b 7d21 d2bd 7483 833e 77a0 f13d
000000e0: 55cc 8bbc 988c 523d 04b4 53be 2638 94bd
000000f0: 0f9e 693e 51ff 243d 3eef af3d 23d7 503e
00000100: 3eef 963e d40c acbe bf70 04be ccda ee3d
00000110: bb27 ad3d 3c11 12be 443b 9bbe edc0 c23e
00000120: d399 66be 8c44 18be b2eb f53d f28c 253e
00000130: 4aa9 ef3d 4e68 d03c 7db5 9bbe daff 113e
00000140: d10f 4fbc 3ebf 943e f9b1 b1bd 2e10 883e
00000150: 72a4 6b3e 8617 933e c28d 953a 289d 6bbd
00000160: a74b 473e 214f 293e 52f0 d0bd 1724 883e
00000170: c62b e73e 0d0d ad3d 49e2 123e df1c cb3d
00000180: d2be a93e 428c 48be 5ac9 85be 063b 54be
00000190: 335e 28bd 587c 21bd 46b0 dabe dfe8 14bc
000001a0: 6794 1bbb d1c1 9a38 6383 953c 5c67 1ebe
000001b0: f8ae 533e 069b ab3d 5479 49be 1e0b 20be
000001c0: cabb b83d a216 833d 8f57 503d 940c 133e
000001d0: fc43 723e cec4 06be 5b8c 723b 9adc bc3c
000001e0: 018f 6ebe 099a 8fbd 6b52 bebd c180 433d
000001f0: 871f 3cbd 8405 103e 5c5c 9e3d e727 fb3c
00000200: 21ad 1c3e ceb5 653e b52e 223e 61d3 06be
00000210: 857b 8a3d 172f 8cbe 8bb3 213e ec21 a9bc
00000220: 435b b73a e229 c2be df62 143c 5039 27be
00000230: d42a 20be 7dd0 2f3e f29b 50bd 7a83 953d
00000240: 99b3 1abd c409 243e f339 8ebd 8355 3ebe
00000250: 976c 8bbd 3973 57bd 1280 043e b3e1 3bbc
00000260: c602 113e 13b6 a1bd 478d 0b3e d4cf 613e
00000270: b6f4 733d 6a55 d7bd 1305 9ebd 72b3 03be
00000280: 4516 9a3e 0999 9ebc 05e9 dabd cac0 0abd
00000290: 33c0 56bb 5e0f bcbc f2ae 233e 1859 dbbd
000002a0: e46c 0e3e 4225 023e 4c9d 24bd de94 fabd
000002b0: 6b8a 45be 2040 003d 9663 1abe 6d23 883c
000002c0: 9307 b63d 7a4c 83bd 8c01 c5be 7700 92bd
000002d0: e886 92be c46f 69be ab68 aebd 33ef f7bd
000002e0: a03f 1c3e fb3f b9bd 5537 1bbe 521e 2a3e
000002f0: 30b1 cdbe 138c 4cbd d79d 53bd 30c6 063e
00000300: 2ebf c4bd f364 8cbe 9b85 6f3d fdbe 2bbd
00000310: 0e15 553c 9b66 92bd 1bc2 21be d1e3 b73d
00000320: 6098 7c3e 1721 32be 53c9 fe3c 2f4b 8ebe
00000330: 6fbe 74bd d2d7 dabd e5cf 9e3e fb23 07be
00000340: f7f9 25be f19c b93b 5e4c a2bd 6534 253c
00000350: b4a6 63bb a6a9 c7bd 9b91 d3be f2b9 b63d
00000360: cfd8 db3c 74f5 023e 7957 2cbe b147 79be
00000370: 35f9 db3c 39f4 83bd 484a 613d 7cb3 b63d
00000380: 67da 333d 264f 443d b534 6cbd 6bd5 283d
00000390: 5417 033d 54fe 273e e250 1fbe 170c 8a3e
000003a0: 9091 db3c d509 613e ac22 513e 3299 623e
000003b0: f5cf 943c 591e 463d 8950 82bd d479 743e
000003c0: a3d3 a43d 1215 943d 59c3 e43d 87ff 91bd
000003d0: 3842 13bd d3ae 72be 1d1e 26bd 37b6 dabd
000003e0: 5594 623d ecc9 e93d 8eef 3d3d f4ba 243d
000003f0: 0d0d 23bd 5f9e 9b3d 98dc f6bd 4d30 4f3e
0.145037 0.01885457 0.09415237 -0.04944289 -0.15689404 -0.07567604 -0.064860664 0.08269901
-0.19708093 0.02411 -0.091989614 -0.09691531 -0.14505233 0.043336205 0.25743255 0.031469055
-0.16958098 -0.049529087 -0.3312125 0.0022987176 0.02505816 -0.04253135 0.27653757 0.19095947
-0.082933694 0.1060351 -0.21764451 0.1341308 0.023660885 -0.22477062 -0.17380922 -0.035358775
0.18770361 0.027738865 0.035653092 -0.201638 0.00245785 0.05141865 -0.36495793 -0.11349024
0.014696465 0.028541965 -0.040704437 -0.13737832 0.34937164 0.06534742 -0.16723534 0.15677848
0.15695079 0.048839405 -0.1883861 0.07426974 0.006680394 -0.10260294 0.25686228 0.11798184
-0.017065207 0.051403612 -0.2067414 -0.07237272 0.22814201 0.04028255 0.08590554 0.20394568
0.29479402 -0.33603537 -0.12933634 0.11662826 0.084548436 -0.14264387 -0.30318654 0.38037816
-0.22519617 -0.14869899 0.12007846 0.16167048 0.11702211 0.025440361 -0.30411902 0.14257756
-0.012638048 0.29052156 -0.08676524 0.26574844 0.2301195 0.28728884 0.0011410045 -0.057522923
0.19462453 0.16534092 -0.102020875 0.26590034 0.45150584 0.08449755 0.14344133 0.09917616
0.33153397 -0.19584754 -0.26130182 -0.2072564 -0.04110546 -0.039425224 -0.4271261 -0.009088724
-0.0023739578 7.379393e-05 0.018251127 -0.15469116 0.20672214 0.08379178 -0.1967519 -0.15629241
0.09020193 0.06400801 0.050864752 0.14360267 0.23658746 -0.13161013 0.0037009928 0.02305441
-0.23296739 -0.07011802 -0.09293064 0.04773021 -0.045928504 0.14064604 0.0773246 0.030658675
0.15300418 0.22432634 0.1583813 -0.13166572 0.06761841 -0.27379677 0.15791146 -0.020646058
0.001398899 -0.3792258 0.009056776 -0.16330457 -0.15641338 0.17169376 -0.05092997 0.07300468
-0.037768934 0.1601935 -0.06944647 -0.18587308 -0.06807821 -0.05260012 0.1293948 -0.011467385
0.14161214 -0.07896056 0.13628112 0.22051936 0.059559546 -0.10514338 -0.077158116 -0.12861422
0.30095115 -0.019360082 -0.10688976 -0.033875264 -0.0032768368 -0.022956546 0.15984705 -0.10710353
0.13908726 0.12709525 -0.040189072 -0.122354254 -0.19291084 0.031311154 -0.15077052 0.016618455
0.088881634 -0.06411071 -0.38477743 -0.07128995 -0.2861855 -0.22796541 -0.085160576 -0.121061705
0.15258646 -0.090454064 -0.15157826 0.16613129 -0.40174246 -0.049938273 -0.0516642 0.1316154
-0.09606777 -0.27420768 0.058477025 -0.041930187 0.013005508 -0.07148477 -0.15796702 0.089789994
0.24667501 -0.17395435 0.031101858 -0.27791736 -0.059751924 -0.10685696 0.31017986 -0.13197319
-0.16208635 0.005664461 -0.07924722 0.010083293 -0.0034736814 -0.09749155 -0.41322026 0.08922185
0.02683678 0.12788945 -0.16830243 -0.24343754 0.02685223 -0.06443066 0.05500248 0.08920953
0.043909457 0.047927044 -0.057667453 0.041219156 0.03200467 0.16405612 -0.15558198 0.2696235
0.026802808 0.21976407 0.20423383 0.22128752 0.018165568 0.048368786 -0.06363017 0.23874599
0.08048179 0.07230581 0.11170072 -0.07128816 -0.035951823 -0.23699503 -0.040556062 -0.10679286
0.05531724 0.11415467 0.046371035 0.040217355 -0.039807368 0.07598566 -0.12053794 0.20233269

encoder.net.0.bias f4 [60]
00000000: 7fa0 d7bc 447d 733d 6adb 1c3d 0fa1 b93c
00000010: 5378 953c 81a2 e9b9 9083 ddbc 0604 37bd
00000020: d4e5 213d da69 373b 3e56 2f3d 76b6 2bbd
00000030: c3de 293d 8ae0 ab3c 6ae3 4fbc 29a8 e83c
00000040: 4df4 973c 895f e53c 0719 46bd 8892 d23c
00000050: 62af 22bc 1e6d 82bb e212 f23c 4f68 193d
00000060: c698 43bd 8dcd 573d a04b 35bd d1f9 09bd
00000070: 3570 f03c 92b4 1abc e325 e33c cab1 173d
00000080: 4536 d5bc 5923 5d3d 158a 183d a778 d6bc
00000090: 6a04 113d eb99 043d df6f 00bd b97d 213d
000000a0: c160 edbc 3822 043d ff5f fcbc bbc1 373d
000000b0: 0afe e23c 3f0d 153d 01dd 1a3c b90f 04bd
000000c0: a341 263d 774c 293d 0023 2d3b 722e be3d
000000d0: 578e 97bc e5f5 08bd bffc 033d c0a6 6b3d
000000e0: 33fd 80bb d1a7 23bd 082a 95bc 8618 08bd
-0.026321648 0.059445634 0.038295187 0.022659807 0.018245852 -0.00044562298 -0.027040273 -0.04468157
0.03952582 0.0027986676 0.042806856 -0.041922055 0.041472208 0.020981092 -0.012688497 0.028400498
0.018549109 0.027999656 -0.04836371 0.025704637 -0.00992951 -0.003980293 0.02955002 0.037452992
-0.047753118 0.052686263 -0.044261575 -0.03368551 0.02935038 -0.009442465 0.027728027 0.037034787
-0.026026854 0.05398879 0.03724106 -0.026180578 0.0354046 0.03237335 -0.03135669 0.03942654
-0.0289768 0.032259196 -0.030807493 0.04486249 0.027709026 0.036389586 0.0094521055 -0.032241557
0.04058994 0.04133269 0.0026418567 0.092862025 -0.01850049 -0.03343763 0.03222346 0.057532072
-0.0039364337 -0.039954964 -0.018208519 -0.033226512

encoder.net.2.weight f4 [60, 60]
00000000: 0e79 523e 16bc ac3c aa10 a23d 8bb0 c9bd
00000010: d053 813e ccfb e43b 491a 933e f8b9 5a3e
00000020: 97bf 803e 7e20 9dbe 7c30 403c 41de 05bc
00000030: bdda 423d faa7 abbc 8eae 4c3e ec90 cbbd
00000040: e2ff 07bd d3d8 a3bd 7b6f 4ebd 29e7 bebd
00000050: a938 87bd 6992 e9bd 78e8 91bd 3c07 30bd
00000060: 291f 0bbe e831 063e b272 273e bf57 59be
00000070: f169 84be 92c8 8a3c b0be e93b 4734 163e
00000080: bacd 893d 541c d33e f464 273d 945e f83d
00000090: 1dea 85bd 596e 2ebe eb97 c63d a885 9e3b
000000a0: 98c4 1a3e 58b6 773d d98c 30bd 666f 22bd
000000b0: 8c5b 7ebe 3ccc 2cbe 92da dc3c b23c a2bd
000000c0: cf8f 85bd 1470 12bb 3cb1 a33d 726d c43d
000000d0: 6ea8 563e ead6 d8bb 4e25 25bc d757 afbd
000000e0: e246 01bc d652 203d abed fe3d 76f3 28bd
000000f0: 2708 2b3c fc49 ef3c 4324 483e bdf3 0dbe
00000100: 856d 81bd 2af3 dbbd 1678 f9bd 42e0 363e
00000110: e282 07be db1d 853c 12bd e2bc 7f7d 6abd
00000120: 3549 a8bd 69b5 9e3d 70dc 37bd 5bc6 a5bc
00000130: f4ee ed3b 7938 7e3d f0af 0f3d 5cc0 bf3d
00000140: 8080 69bd 6747 2bbc 1ab6 213e fdff cc3d
00000150: 5e6f a4bc 7fff 0bbe 4e34 a1bc 98e5 34be
00000160: a378 2c3e 216e 90be c2bb c13d 592b a73c
00000170: ffe1 6bbd 40fa 33be 93e9 00be 4828 41bd
00000180: 358e 1b3d 0530 21be 74d3 f3bb b507 d53d
00000190: 816c 07be 294a eb3d 5c8d b3bd f17c 17bd
000001a0: 3a14 49be 79ee c3bd be51 3ebe a080 3dbe
000001b0: 5567 723a 6ba8 093e e3d0 f9bb 88ee 4f3d
000001c0: ea74 813d d9b5 fd3c c8a8 ebbb 352c 873d
000001d0: d44d 323c 87f2 f63c 9b43 4b3e 6cac f5bd
000001e0: 2272 243d 0dfd 70be 7ce3 223d f6ed 583e
000001f0: 8b84 d6bc f957 713d cff6 ab3c 2b74 553e
00000200: 6b09 9a3d 849f d6bd 5bb9 993c f9ce 9f3c
00000210: c308 293e 49c0 7fbe 2c25 953d 7a59 98bd
00000220: c2fb 6b3d 79b6 cc3d ecb2 04bd e5ed c43c
00000230: 613f 173e 6e68 743d 3a2c 303e fbad 3ebd
00000240: 2ee2 03be 2fc7 22be 60e4 96be c853 e7bd
00000250: 4ca3 2bbe 0a0e c6bc 4070 1e3d 29c5 943d
00000260: 7ce5 84bd 532a ed3d 7960 d4bd 5e80 bc3c
00000270: e676 b23d 02ae 253d ea0c 8bbd 916c 78be
00000280: 973a 87be d571 aa3d 2fc8 c33d 13ff b2be
00000290: cdc2 6f3d c869 a43d 7df9 9a3d 288f b1bd
000002a0: 59a8 fbbd 56db 31be 6a87 753e 11af 0e3e
000002b0: 4c2e b8be 046d 943c 7327 3a3e 0002 053e
000002c0: 8e6d 82be fb37 f53d 6cdf 883d a2b4 2cbe
000002d0: a698 82bd 8b8c 38be 118f a9bd d2f2 0dbe
000002e0: e6d4 0d3e 1a08 fb3d 1a69 cd3d 7f97 bd3c
000002f0: cf9f ecbd 1715 00bc 0352 dd3c ed49 723d
00000300: e578 3ebc d19a 53be ede0 04bd df41 8bbc
00000310: 4ed4 76bc 5f98 1cbe 900b 90be 9679 bebd
00000320: 1bd0 713d fc5c bb3d d0cd 54bd 47d3 18be
00000330: 36f2 9abc 1c07 3fbe 2b52 453d cc5a ad3d
00000340: fdae c6bd 7670 043e 0c25 44bb 5581 173e
00000350: 18d5 95bc efad d13d 75e2 e5bd 3a4b 4fbd
00000360: 6a24 813b b45e 773d 1a8f f3bd 0c4f bbbd
00000370: 48ba 03be 640d 93bd 8397 203e 0e9b 973d
00000380: 237c ab3d cb69 c33d 1138 e33c 3d24 d63d
00000390: 7d2d 32be 041f 38bd f4fc 89bd abd5 b2bb
000003a0: 4855 b93d 5f32 c6bc a5ce 81be 5dba 87be
000003b0: 0910 373e 8436 eebd c815 25bd 9c89 4e3d
000003c0: 8cf8 78be 63d9 573c e839 823b 0780 b8be
000003d0: 6589 b4bd 0033 1bbc 130f 9ebb 8540 b93c
000003e0: 47bb e53d 64c6 5bbe 5fbb 863d e5cf d43d
000003f0: 06c5 643d 1799 66bc 14e0 64bd 2aba 64be
0.20553991 0.02108578 0.07913335 -0.09848126 0.25259256 0.0069880243 0.2873099 0.21360004
0.2514617 -0.30688852 0.01173031 -0.008170665 0.047571886 -0.02095412 0.19988462 -0.09939751
-0.033203013 -0.0800034 -0.050399285 -0.09321434 -0.06602604 -0.11404879 -0.07124418 -0.04297565
-0.13586105 0.13104975 0.16352347 -0.21224879 -0.25862077 0.016941343 0.0071333274 0.1466838
0.06728692 0.4123255 0.04086776 0.12127414 -0.06538794 -0.17034282 0.09696945 0.0048377104
0.15114057 0.06047663 -0.043103073 -0.03965702 -0.2483961 -0.16874784 0.026959691 -0.07921733
-0.0652157 -0.0022344636 0.07992789 0.095911875 0.20962688 -0.0066174166 -0.010079695 -0.08561676
-0.007890435 0.0391415 0.12447675 -0.041247807 0.010438955 0.029210083 0.19545083 -0.1386251
-0.06319717 -0.10739739 -0.12181108 0.17858985 -0.13233522 0.016249588 -0.027678046 -0.05724859
-0.08217088 0.07749445 -0.04488796 -0.020236185 0.0072611514 0.062065575 0.035079896 0.093628615
-0.057007313 -0.010454035 0.15792122 0.100097634 -0.020072635 -0.13671683 -0.019678261 -0.17665708
0.16842894 -0.28209022 0.0945964 0.020406412 -0.057588574 -0.17575932 -0.12589101 -0.047157556
0.037977416 -0.15740974 -0.0074409787 0.104018606 -0.13224985 0.11488754 -0.087671965 -0.036984388
-0.19636622 -0.095669694 -0.1858587 -0.18506098 0.0009246965 0.13443153 -0.007623778 0.05076459
0.06321128 0.0309705 -0.007191751 0.06600229 0.0108828135 0.030144943 0.19850008 -0.119957775
0.040147908 -0.23534031 0.039767727 0.21184525 -0.026186248 0.058921788 0.020991711 0.20845096
0.075213276 -0.10479644 0.018765142 0.019507872 0.16507249 -0.24975695 0.072824806 -0.07438941
0.05761314 0.099957414 -0.032397196 0.024039218 0.14770271 0.059669904 0.17204371 -0.04655264
-0.1287925 -0.15896295 -0.2947111 -0.11295277 -0.16761512 -0.024176616 0.03868127 0.07264168
-0.06489083 0.11580338 -0.10369963 0.023010429 0.08714084 0.04044915 -0.067895725 -0.24260165
-0.26411888 0.08322493 0.09559666 -0.3496023 0.058535386 0.08027989 0.07567117 -0.08669883
-0.12287969 -0.17368826 0.23977438 0.1393397 -0.35972822 0.018118389 0.18179111 0.12989044
-0.2547421 0.11973568 0.06683239 -0.16865781 -0.06376772 -0.18022363 -0.08279241 -0.1386216
0.13850746 0.122574046 0.10029812 0.023143528 -0.115539186 -0.007817528 0.027016645 0.059152532
-0.011625503 -0.20664527 -0.03244107 -0.016999183 -0.015065266 -0.152925 -0.2813382 -0.093005344
0.059036355 0.09148595 -0.05195409 -0.14924346 -0.018914323 -0.18655056 0.048174065 0.08464584
-0.09701345 0.12933525 -0.0029929308 0.1479543 -0.018290088 0.10238253 -0.11224834 -0.05060885
0.0039411085 0.06039305 -0.11892529 -0.09145936 -0.1286403 -0.071802884 0.15682797 0.07402621
0.083732866 0.09541663 0.027736695 0.10456131 -0.17400165 -0.044951454 -0.067377 -0.0054576
0.09049469 -0.02419394 -0.2535297 -0.2650937 0.1787721 -0.11631492 -0.040303975 0.050424203
-0.24313563 0.013174388 0.003974188 -0.36035177 -0.088152684 -0.009472609 -0.0048235743 0.022613773
0.11217361 -0.21462399 0.06578707 0.10391215 0.05585196 -0.014074585 -0.05587776 -0.22336641

encoder.net.2.bias f4 [60]
00000000: 6fb8 843d 8bb3 343c 6ac0 e7bc a5c8 0fbd
00000010: 74a9 e6bc 5906 1ebd 437d 343d 115c 1ebd
00000020: 2441 cfba b553 223d b6c0 083d 7910 1ebd
00000030: bfd8 b8bc 607f 0f3d c136 0a3d 73b0 163d
00000040: f43d 43bd f326 dd3c 45f8 c33c ed95 4f3d
00000050: c43f 423b 5e6d 103d 1e7c 35bd 23c6 0b3d
00000060: 67d0 443d 4bdf 04bd 62e3 123d a6c4 f5bc
00000070: 1bf0 29bd ad48 3b3d abc6 313d 3147 39bd
00000080: cbcf 17bd b6fc 21bd 1344 1dbd cde9 373d
00000090: 096b 853d d485 fa3c dc3a 2a3c f2d7 e2bc
000000a0: cdc6 c73a e7a1 2cbd 2c52 7cbc 03a5 093d
000000b0: a6b7 003d 1533 bf3c 06e2 8dbb 2c7b 1d3d
000000c0: d29b b93b 1d16 da3c ed86 a63c ade6 15bd
000000d0: dfc6 44bd a8b7 22bd 95fa d43b be24 16bd
000000e0: 6da1 37bd 806d 073d 36fb 0fbd 78dd 3b3d
0.064804904 0.0110291345 -0.028289992 -0.03510346 -0.028156973 -0.038580272 0.04406477 -0.03866202
-0.001581226 0.03963061 0.03338691 -0.03858993 -0.02256429 0.035033584 0.033743624 0.03678937
-0.047666505 0.026996111 0.023922095 0.05068009 0.0029640058 0.03526055 -0.04430782 0.034124505
0.04805031 -0.03243951 0.03586138 -0.030000996 -0.041488748 0.045723606 0.043402355 -0.04523391
-0.0370634 -0.039547645 -0.038395 0.044900704 0.06514556 0.030581392 0.01039001 -0.027690861
0.0015241742 -0.04214659 -0.015400451 0.033604633 0.03142514 0.023339787 -0.0043299226 0.038447544
0.005664327 0.026621873 0.02032801 -0.036596943 -0.04804122 -0.03972593 0.0064995983 -0.036656134
-0.044831682 0.03306341 -0.035151683 0.045865506

encoder.net.5.weight f4 [32, 60]
00000000: e882 623e d27a 0e3e 9fd9 21be 6b86 5e3d
00000010: 2001 d53a 781a 603c df9b 303a bcb4 3b3e
00000020: ef9f 843d 038a 6f3e 4b8c 58be 940c cf3d
00000030: b70a 0ebd 3fee 0a3e e18c b63d 729f bf3d
00000040: 1cbf bebd 3185 1bbe 95b7 a23e e9f0 3c3c
00000050: 23f1 743e ba2d 8e3d fdc3 8c3c b4b1 61be
00000060: a588 f83e ca39 603d 3013 08be 0027 d33d
00000070: fc85 29be f241 52be 92c0 9ebe 79c8 a9bd
00000080: 9a35 36be 1273 843d 5afe cdbd 0944 893e
00000090: cd90 353e a13a 263e e8f3 68bd 7829 1abd
000000a0: 46cf 08be 2b65 2e3e 2c96 90bd 6e4a babd
000000b0: 635c b1bc 3505 363d cdea 6b3e 743e ec3d
000000c0: e98e d4bd c8cf aa3a 18ab e3bd 9f83 313e
000000d0: b9f1 06be 09e4 20be bfb4 373e 61e8 3b3e
000000e0: c767 dfbd 9ff1 6cbe fe2e 40be bfe5 ac3d
000000f0: fb7e 403e 5fa4 bbbd c4b3 2c3e 3005 d43c
00000100: 7b79 a9bd 2e50 7fbd 630e 6f3d f2d4 61be
00000110: f7ff adbd f7a2 c1bd 0442 b43b 2ff0 02be
00000120: 5d40 b1bd 3d78 e6bd b456 3c3e 1d1d f73d
00000130: fbb5 4bbd c786 123e 5889 0e3b 1d9b 8c3d
00000140: 91bd da3d fdac 7b3e 9c6b 3cbe d904 55bd
00000150: 9ad3 aebd a0af 0abe 5264 243e 7a8a ebbd
00000160: 18a1 ecbd c472 98bc 210b 19bd 2fd8 4abe
00000170: b44e 003e 17f4 a5be 73d8 9d3e b943 dabd
00000180: de13 813e 0a36 343c 9f27 0fbe 244d 0c3e
00000190: dcd9 70bd 4fe7 9e3e 4a95 803d 474c 9b3d
000001a0: db78 4a3e fa6a 9b3e b947 6dbd ba8d d73d
000001b0: 501c 3cbe 7470 57bc a056 8f3c afdb 9d3d
000001c0: a28e 093e dab4 4abe 3a92 e73d 1207 b4bd
000001d0: 7e55 97bd 9868 333d 9a43 5ebe 58ed 8ebe
000001e0: 2e74 593d 595c 23be a9c3 ec3c c257 35be
000001f0: 4461 81bd f0a2 a1bd 7cdd 903d 5395 723e
00000200: c9d3 32bc b099 12be 0212 14bc 241c 6d3e
00000210: 9aa5 963c 5e23 4e3b 2b3d c83b d2c0 3c3e
00000220: 2b46 13be c59f cabc f71e e4bd 80d2 18be
00000230: 83a9 793d 2f7c cfbe 1d1c 18bd 0b35 09be
00000240: 4447 7bbd add2 c53d 3b35 763d 5d8a 843d
00000250: 78fc 02bc 5410 8ebc eee2 b33d dfd9 01be
00000260: 665e f73d 7b13 7cbe 8802 9c3d 5ba7 72ba
00000270: 95d9 3cbd 46d9 4bbe e7c8 a8bd 611f f6bc
00000280: 22b7 67be 3304 3ebd dd2c 5abd 7123 473d
00000290: 376d 043e 8bd8 a73e f6e2 353e 151e 7ebd
000002a0: 2e73 0bbd 35a4 89be 5f70 f03d ee2b 0d3e
000002b0: b089 88bb dc7b 113d f812 8dbc 566f 0f3e
000002c0: 8dab 22be 955f c9bd 42ac adbd 9320 23bd
000002d0: 0f9f a63d 46da 85be e4ec e8bd 6c0e da3c
000002e0: d0a5 babc c376 533e b340 ff3d 0b4f af3a
000002f0: 11c6 89bd ee70 51bd 42f2 2a3e 589a 243c
00000300: bb02 c8bb c537 a43c 57f6 8fbc 8c41 b4bd
00000310: 394c 71bc c5c9 62be b129 99bc 85a6 763e
00000320: f815 dcbc 5ec8 233e 2dc4 053c bc6a bfbb
00000330: 7897 a2bc b611 3bbd d2a9 9e3e d220 3cbe
00000340: e4e6 10bd ed37 b53d 8f97 2c3e d87b 35be
00000350: d6be 37bd ffbb b9bd f91e 20be 97e1 073e
00000360: 4793 f83d b2f4 013e e0c3 163e 6f1e 0d3e
00000370: 01d8 153c e2bb a2bb 17e2 29be d29c 193e
00000380: 2cf5 c2bd 24a1 1fbd 12d9 86bc 85a0 26be
00000390: 3f16 93bd 509a 8dbe 609e 4a3e 4af6 84be
000003a0: 973d a7bd 4116 85bd cfd9 c7bd 9010 283e
000003b0: c2e1 bc3c 1c29 edbd 25c4 26bd 8ff8 083d
000003c0: 2f75 3f3d 8158 193e c5f3 90bc f5aa 2fbd
000003d0: 0bda e4bc c5a0 41bd 922d 26bd 5412 8cbe
000003e0: 2f39 81bd c447 0d3e 3354 193e d305 bebd
000003f0: 1cc7 123e 251c 02be 213e 0c3c 0855 6a3e
0.2212025 0.1391404 -0.15805672 0.05432741 0.0016250946 0.013678186 0.0006737094 0.18330663
0.064758174 0.23392491 -0.21147268 0.10109821 -0.034678187 0.13567446 0.08913589 0.09356584
-0.09313795 -0.15187527 0.31780687 0.011532047 0.23920111 0.069423154 0.017183298 -0.22040445
0.48541752 0.054742612 -0.1328857 0.10310173 -0.16555017 -0.20532969 -0.31006294 -0.0829019
-0.17793885 0.064672604 -0.10058279 0.2680972 0.17731018 0.16233303 -0.056873232 -0.037637204
-0.13360319 0.1703078 -0.07059893 -0.090962276 -0.021650499 0.04443856 0.23038788 0.115353495
-0.103788204 0.0013031894 -0.11116618 0.17335366 -0.13178147 -0.15711989 0.17940043 0.18350364
-0.10908466 -0.23139046 -0.18767926 0.08442258 0.18798439 -0.09162211 0.1686545 0.02588138
-0.08275124 -0.062332325 0.05836333 -0.22053888 -0.08496087 -0.09454911 0.0055010337 -0.12786935
-0.086548544 -0.112534024 0.1839245 0.120661 -0.049734097 0.14309226 0.0021749344 0.06865523
0.10680688 0.24577709 -0.18400425 -0.052006576 -0.085364535 -0.13543558 0.16053894 -0.11501022
-0.11554164 -0.018609412 -0.03736413 -0.1980903 0.12530023 -0.32412788 0.308292 -0.10657448
0.2521047 0.010999212 -0.13979958 0.13701302 -0.058801517 0.3103585 0.06278475 0.07582908
0.19772665 0.30355054 -0.05792973 0.10525079 -0.18370175 -0.0131493695 0.01749736 0.07707917
0.13433316 -0.19795552 0.113071874 -0.08790411 -0.07389353 0.04380092 -0.21705475 -0.27915454
0.053089313 -0.15953197 0.028901892 -0.17709258 -0.0631738 -0.07892406 0.07073495 0.23689775
-0.010914751 -0.1431644 -0.0090374965 0.23155266 0.018389512 0.0031454186 0.0061108074 0.1843293
-0.14382236 -0.024734387 -0.111387186 -0.1492405 0.060952675 -0.40524432 -0.037136186 -0.1339914
-0.06134726 0.09659324 0.06010936 0.06471703 -0.007994764 -0.01734177 0.08783518 -0.12680767
0.12078552 -0.24616806 0.0761767 -0.0009256505 -0.04610594 -0.19907102 -0.08241444 -0.03004426
-0.22628453 -0.046390723 -0.05326544 0.048617784 0.12932287 0.32782397 0.1776236 -0.062040407
-0.03404539 -0.26883093 0.11740183 0.13786289 -0.0041668043 0.035518512 -0.017220959 0.14007315
-0.15885754 -0.09832684 -0.08480121 -0.039825987 0.08135807 -0.26143092 -0.11373308 0.026618205
-0.022784144 0.20650773 0.12463512 0.0013374997 -0.06727231 -0.05113309 0.16693977 0.010046564
-0.006103841 0.020046124 -0.017573519 -0.088015646 -0.014727646 -0.22147281 -0.018696638 0.2408696
-0.026865944 0.15994403 0.008164448 -0.005841581 -0.019847617 -0.045671187 0.30988938 -0.18371895
-0.035376444 0.088485576 0.1685469 -0.17723024 -0.04485973 -0.090690605 -0.15636815 0.1326965
0.12137466 0.12691 0.14723158 0.1378114 0.009145738 -0.004966245 -0.16590153 0.15001228
-0.09519419 -0.038972035 -0.016460929 -0.16272171 -0.071819775 -0.27656794 0.19786978 -0.25969154
-0.08166044 -0.06498385 -0.097583406 0.16412568 0.023056868 -0.115801066 -0.0407144 0.03344017
0.046742614 0.14975168 -0.017694363 -0.042887647 -0.027936002 -0.047272462 -0.040570803 -0.27357733
-0.06309735 0.13796908 0.14973526 -0.09278455 0.14333767 -0.12706049 0.008559735 0.22884

encoder.net.5.bias f4 [32]
00000000: edbe e1bc 23ea 383d e5bc acbd 515b 523d
00000010: d6d3 633d 460f 3b3d 3c16 9c3d bcb8 5b3d
00000020: 91eb 4b3d af70 403d 3618 febc c1bd 3ebd
00000030: b0cc 2d3d 40f7 e43c 3c08 18bd 79dc 5fbd
00000040: e230 25bd 62ef 2d3d f52c 83bd 2965 60bd
00000050: 7140 123d 4bdf 6abd 5aa9 093d 4341 213d
00000060: 379e e03c 86c1 453d bc30 de3c f373 4dbd
00000070: 5d34 4c3d 27de 173d d1d6 76bd c75d 28bd
-0.02755686 0.045145165 -0.08434466 0.051356617 0.055621944 0.045668863 0.07621428 0.053642973
0.0497852 0.046982463 -0.031017404 -0.046567682 0.042431533 0.02794993 -0.037117228 -0.05465362
-0.04032982 0.04246462 -0.06405059 -0.054783974 0.035705987 -0.057341855 0.03360877 0.03936888
0.027419193 0.04828026 0.027122848 -0.050159406 0.049854625 0.037077095 -0.06026346 -0.041105058

predictor.net.1.weight f4 [32, 32]
00000000: f437 253d 2725 1fbc 3031 e23e 145b a4bd
00000010: 11e0 643e 1165 c43d 228f 86be 8b88 783e
00000020: 792f eabd 1237 173e e921 99bd dff2 07bd
00000030: 503e f3bb 2461 cc3d 339c 1ebe cf12 c43b
00000040: 6fad 3cbe 309f 1d3f 6d66 f2bd bcd4 14bd
00000050: da23 a4bc c152 433e 6a5e babe 9a8c 71be
00000060: 8026 6d3d 6d06 3c3e 8287 a2bd 13db 2bbe
00000070: 23a7 573e b16e 2ebc be2b 26be 04b5 76bd
00000080: c7b3 fd3d eaaf bc3e 5b0e 1b3e cad3 c8bd
00000090: 2442 163e b712 fc3d 886e b5bd 7e4c 2b3c
000000a0: 5b88 b33d 00fc a13e 69f5 7dbe 9c28 23be
000000b0: 3e62 3a3e df11 973e d87b 2ebe 68c1 a1be
000000c0: d680 733d 9b52 69bd cdf3 2c3e 15d0 c7bd
000000d0: 0933 263d 3d41 533e 3cea 82bd f3ae 003d
000000e0: dfb7 77be 6d21 5e3d b082 2abe 571e 413e
000000f0: de47 f4bd 28fe 47bd 3001 cf3d 2c35 2dbe
00000100: bf6c 8fbd 2436 b03e 8635 343e 67b8 dd3d
00000110: ff7f f63b 4cc3 6f3e 75c7 aa3c 1ba2 0f3e
00000120: e3d5 293d 30ac 71bc 09b3 4e3e 21f5 19be
00000130: 4bdd 5c3c 0b14 3ebe 97c7 f9bc 974c 083e
00000140: 31d6 9cbd 7744 073d 2c79 383e 6de8 ebbd
00000150: 2bac 923e de32 a1bd daa0 6abc 3e70 753c
00000160: 0c86 123e c679 0fbe 30f1 ebbc ebcc dbbd
00000170: d7b8 873e cd11 86be 4f39 a3be f2d1 7bbc
00000180: 28b7 b2bd cddc a63d edba 58be 9883 923d
00000190: c3ad a6bd e288 603e 4cfc 3e3d 009d 783d
000001a0: cecc 1dbd 5729 5ebe b69d 15be 3036 39be
000001b0: 4d04 033e 1e20 41bd 0d87 a1be 4fe4 adbe
000001c0: 8a9a b8bd ff61 033d 256e 213e 3340 8d3c
000001d0: 6daf 92be 6918 c83d 5bd0 11bd c775 4e3e
000001e0: 7b83 243e d60f 4bbe d709 e23d 675d 4b3e
000001f0: 37e6 153d efbd 1e3d efe2 903c 0690 ad3c
00000200: aebd 9f3e 2eaa 12be 0534 b2bc 6ef2 533d
00000210: 7578 8a3e af5c 44be 32ae ddbb 8fa3 2abe
00000220: 9975 54be a0f2 d03d 9a42 aa3d f746 87ba
00000230: 7cf1 80bd 9b3a 643d 359a 26be 7cb0 e33c
00000240: de45 11be 21ab fabd 31f9 9d3e 4f02 113e
00000250: 11dd efbc bb6f 283e ed6f c43e 2a59 913d
00000260: 97b9 be3d 7e7f 5ebb 35e0 be3d 93f4 adbe
00000270: e1a7 773e 5893 13bd 1ea9 98be 6945 c53c
00000280: 9613 1fbe 9b6a 553b fafb 023e 5156 09bc
00000290: b206 af3d df30 b13d 89f1 a0be 0a61 ea3d
000002a0: 3b00 2f3e 514a aa3d 9cd5 7dbe cec6 e73d
000002b0: 7cd1 043e 4349 0c3e 843a d2bd 47f6 a0bc
000002c0: babf 77bd 6c5d 863e 1538 d03d 303b 88be
000002d0: 562a 86be 9026 643e f4c2 5e3e 4cf2 fb3d
000002e0: 37ff 5b3e ff34 48bd 7f0f 44bd f19b febd
000002f0: 95b3 e9bd 559b 543d 9ab5 423e 1729 623d
00000300: 1b28 793e aa44 8dbd 4129 463e 432d 653e
00000310: 81b6 c6bd fc83 b3be 91ca 573d 3f12 2f3d
00000320: 443f 3d3e 4bbe 753e af18 43bd 6a66 f4bb
00000330: ddd4 9abd fe4a d0bb 9eb6 073e cca0 933d
00000340: 3921 31be a8cf b0bd ff8b d1bd 4f8b 3e3d
00000350: cfa1 69bd 3dc0 ce3e dfcc e1be f4e0 0e3e
00000360: 2b70 b33d 0dda 4dbe 4b25 22be 2d5a 26be
00000370: 7ee9 babc 4662 1cbd e4a2 303d 1087 553c
00000380: 0bae 993b 91cd 6ebe e5b3 0d3e d289 f8bd
00000390: d505 623d f14a aebd 2f5f 72be 7d9a cfbd
000003a0: ef18 8dbe 0a4e 5b3d 4057 9d3e d121 043f
000003b0: 8797 c43d 4517 873e c220 51be 2efa dabd
000003c0: 5103 b2bc f124 8a3d b88a 453e ea05 ec3d
000003d0: 828a 9f3d 3844 9b3e a9db 233e f965 483e
000003e0: 118d f4bd deeb a2be 9101 08be 4c81 8ebd
000003f0: f981 333e 9984 6abe 4a37 68be 1259 b9bd
0.040336564 -0.009713448 0.44178152 -0.08025184 0.223511 0.095895894 -0.26281077 0.24270837
-0.11434836 0.14767101 -0.07477171 -0.033190604 -0.0074231997 0.099794656 -0.15489273 0.0059836875
-0.18425535 0.61571026 -0.118359424 -0.03633569 -0.020036627 0.19074537 -0.36400157 -0.23588791
0.057898045 0.18361826 -0.07936002 -0.16782789 0.21059851 -0.010646508 -0.16227624 -0.060231224
0.123878054 0.36852962 0.15142195 -0.098060206 0.14673668 0.12308257 -0.08858973 0.010455249
0.08766242 0.31637573 -0.24800648 -0.1593346 0.18201539 0.29505822 -0.1703943 -0.3159287
0.05944904 -0.056963544 0.16889878 -0.097564854 0.040576015 0.20630355 -0.06392333 0.031416845
-0.24191235 0.054231096 -0.16651416 0.1885923 -0.1192777 -0.048826367 0.101076484 -0.16914815
-0.070031635 0.34416306 0.17598543 0.108261876 0.0075225825 0.23414344 0.020847062 0.14026682
0.041463744 -0.014750525 0.20185484 -0.15034916 0.013480495 -0.18562333 -0.03049068 0.13310467
-0.07658041 0.033024278 0.18014973 -0.11518941 0.2864698 -0.0787103 -0.014320577 0.014980374
0.14308947 -0.14011297 -0.02880153 -0.107324444 0.2650821 -0.26185456 -0.3187966 -0.015369879
-0.087263405 0.08147583 -0.21165057 0.07154006 -0.08138611 0.21927217 0.046627328 0.060696602
-0.038525395 -0.21695457 -0.14610943 -0.18087077 0.1279461 -0.04714977 -0.31548348 -0.33963248
-0.09013851 0.03207588 0.15764673 0.017242527 -0.28649464 0.09770281 -0.035599094 0.20162116
0.16065781 -0.1983026 0.11037033 0.19859849 0.036596503 0.038755354 0.017686335 0.02118684
0.31199402 -0.14322731 -0.02175332 0.05174487 0.27045026 -0.19175981 -0.0067651505 -0.16663955
-0.20747985 0.10202527 0.083134845 -0.0010320832 -0.062960595 0.055719953 -0.16269763 0.027794115
-0.14186808 -0.122396715 0.3085418 0.14161037 -0.029280217 0.16448872 0.38366643 0.07097085
0.09312742 -0.0033950503 0.09320108 -0.33975658 0.24185134 -0.03602919 -0.29816526 0.024080949
-0.15534815 0.0032564763 0.12791434 -0.008382396 0.08546199 0.086518995 -0.31434277 0.1144429
0.17089932 0.08314956 -0.24788517 0.11317216 0.12970537 0.13699822 -0.10265067 -0.019648684
-0.06048558 0.2624315 0.10166947 -0.26607656 -0.26204175 0.22280335 0.21754056 0.12302074
0.21484075 -0.048878666 -0.04786634 -0.12432087 -0.11411206 0.05190595 0.19014588 0.055214968
0.24331705 -0.06897862 0.19351675 0.22380547 -0.097027786 -0.35061634 0.052683417 0.04274201
0.18481165 0.23998372 -0.047630962 -0.007458498 -0.07560132 -0.006356596 0.13253257 0.07208404
-0.1729783 -0.08633357 -0.1023178 0.046519574 -0.05703908 0.4038104 -0.44101617 0.13953
0.08761629 -0.20102711 -0.15834539 -0.16245337 -0.022816416 -0.03817966 0.043124095 0.01303269
0.004689937 -0.23320605 0.13838156 -0.12135662 0.055181343 -0.08510388 -0.23669122 -0.10136888
-0.27558085 0.05354122 0.3073063 0.516141 0.09599214 0.2638494 -0.20422652 -0.10692249
-0.021730097 0.06745327 0.19291198 0.115245655 0.0779009 0.30325484 0.16001762 0.1957015
-0.11940969 -0.31820577 -0.13281848 -0.06958255 0.1753005 -0.22902144 -0.22677341 -0.09050192

predictor.net.1.bias f4 [32]
00000000: 7a86 0fbe 0dfe ffbd 06f4 c83d ecae 13be
00000010: 7d7c c0bd 166f c43d a092 cd3d d66a 023e
00000020: d4f2 e73d 923d 013e 17d3 d9bd 2ff5 6f3e
00000030: 4889 c43d 54a5 c1bd f72a d83d 900e e2bd
00000040: e408 c23d 8369 ce3d ef5e c3bd 87fa bd3d
00000050: e7ad c33d f68e cc3d b116 c83d 31b3 c63d
00000060: 3282 c73d 232d cb3d c267 d3bd 90cf e1bd
00000070: 86ec 11be 50b7 a83d ab4e f33d 6737 c5bd
-0.14016142 -0.12499628 0.09812169 -0.14422196 -0.09398744 0.095915005 0.10037732 0.12736067
0.11325613 0.12621143 -0.10635965 0.23433374 0.09596497 -0.09455362 0.1055507 -0.11037934
0.09474352 0.100787185 -0.095395915 0.092763 0.095546536 0.09988205 0.09769953 0.09702147
0.0974163 0.099207185 -0.103225246 -0.110259175 -0.14250383 0.08238089 0.11880239 -0.09629708

predictor.net.3.weight f4 [1, 32]
00000000: 5a41 41be ae34 4ebe b9d4 b13e 4e42 88bd
00000010: 94e9 81be 50d2 d13e 140e da3e 6576 b73d
00000020: 3522 3c3e 591f 803d e5a0 99be 14b4 e03d
00000030: a301 7c3e 605f 79be fdbd ed3d 9232 65be
00000040: d815 633e 85ce de3e 45f4 b6be 4c75 7f3e
00000050: dd91 773e 0c5b 283e 256f 8d3e d3a0 1d3e
00000060: 1a1a d23d 0bbf db3e d4f0 d6be 606e 5ebe
00000070: 0cce 05be c2a5 983d 11dc 4d3e f732 d3be
-0.18872586 -0.20137283 0.34732607 -0.066532716 -0.25373518 0.40980768 0.42588866 0.08958129
0.18372424 0.06255979 -0.30005565 0.10971847 0.2461 -0.24352789 0.11608503 -0.22382572
0.22176301 0.43516937 -0.35733238 0.24947089 0.24176736 0.16440982 0.2762386 0.15393381
0.10258885 0.42919192 -0.41980612 -0.21721792 -0.13066882 0.07453491 0.2010348 -0.4124982

net.0.weight f4 [60, 35]
00000000: 0eda 14bd cc6c febd 22e3 6f3d c269 363e
00000010: 767c 053e 148b a1bd 0ff0 89be a241 f6bd
00000020: 5d2f d0bc fe99 7ebe 645d 813d f3df d33d
00000030: 793d e53d 4df7 513e 5f80 5abd 9ac8 45be
00000040: 0c54 943d e5e0 c7ba 75e2 2ebe 1770 c33e
00000050: d75e 5abe 2006 573c fb07 123e fec1 8cbd
00000060: c4ac a2bd f2af 5f3d 11fc a1be f714 9ebd
00000070: a773 3bbd 9a4d 36be 9755 22be 5c52 f23d
00000080: 4506 20be 0b5f 33be 2547 cb3d 854f 283d
00000090: c7b2 c13d fb5a babc 23c6 bf3d 9ce4 d53d
000000a0: 9b16 6cbe 6690 02bf bf27 623d 6c36 1c3e
000000b0: 3aab 94bd 7262 3abe b52a 693e 3c5c 41be
000000c0: ad66 a43e 4f9b 93bd 33b8 9a3d 4cd1 023d
000000d0: cf90 5d3e 15fe c3bd 5a49 f43c 602a 243e
000000e0: 259e 12be b481 fcbd e8e0 7fbd d1bd c43b
000000f0: 1ff0 053d 79e7 e03d 2b96 053d 9fa5 9bbd
00000100: 5a1e 1b3e c52c 213d 368b 943e dee8 233e
00000110: fec6 143e 0728 933d 2929 91bc af31 09be
00000120: 279a 713e 764b acbd 2f1f 92bd 3baf 5cbe
00000130: 6919 ad3d d59e b03d 4e1c 6fbe b318 47be
00000140: 2d23 903e f9cd cb3d caf9 763d 8be6 613d
00000150: 48e3 60bd 3965 9fbc 3cfa a4bd c36a 5bbe
00000160: 4671 aebc 50c8 cf3d 6558 613c 0b42 8d3e
00000170: 4d6d 813e b23a 05be 9af3 393d 68c6 a1bd
00000180: 5ae8 b8bd 9660 fe3c 2aaa d73d d080 bd3c
00000190: 899b 143e db82 743c eed6 433e 06bd 243d
000001a0: 36f0 113c 12a8 0d3e bfbc d13d 118f 023d
000001b0: 970c abbd 57b7 a7bd 0f5e 58be b0b0 893d
000001c0: 6068 35bd 3333 e4bd 0e07 41be 369f 17be
000001d0: d3a5 81bc 9ee9 96bd 175e 023d 72d4 d43d
000001e0: 41ab 0dbc 3c60 21bd 0041 b6bd 1602 6bbd
000001f0: 7493 b93e 24bb 13bd ec66 453c 00ba 2f3e
00000200: b4fc 843e f1a0 4abd 2fe2 f93c 8c25 f23c
00000210: e35c 97bd 710e bebd a27a 8d3e c5a3 7a3d
00000220: b563 823e 08d7 4dbc 8ca4 a73d baac 94bc
00000230: 8efc b23d 99e2 2c3e f05c b63e 1c81 1abd
00000240: c470 373e 25ff d33d b90a a13d e9ba 3bbe
00000250: d748 dfbc d917 20be 5f70 89bb a3b7 9d3d
00000260: 9cae 993c 7c17 debd a2d2 1f3b 24ee ea3d
00000270: 8c58 d83d 3845 173d 0e4e d63d dfd4 9a3d
00000280: 1676 62be 95d7 90bc e505 13bd fe35 513e
00000290: 4af5 e0bc c7bc b83d 454c 773e fd16 623e
000002a0: acc9 023e a855 68bd 2edf 21bd 7c96 fbbc
000002b0: 34cf 213c 70f2 b2bd 22f6 153e 69c9 21be
000002c0: c729 263e fb83 833e 80cb 373d 8c3a 99bd
000002d0: 19e8 34be abe6 95be a900 17be 4593 a93e
000002e0: e963 febd 97a6 98bb 1744 18bc 4bc7 b7bd
000002f0: 8445 1b3e 69b7 8bbc 81f1 b4bc 5d30 983d
00000300: 3e64 143e 4cab b6be 55f6 153c 73dd 61be
00000310: 02c1 abbd b8a4 d4bd 3030 5dbe 9983 b2bd
00000320: d07f 4d3c f4ea 8ebd d883 ad3d 4bcf c7be
00000330: e1d0 0b3d 8933 22be c029 273d 9e02 5bbe
00000340: 82d3 873d 2405 263e c3b9 0cbe 2d48 953c
00000350: 90af 383d 0e5c 01bd d744 863d cee9 35be
00000360: 001f 76be ea37 73be 74a6 33be b624 5d3d
00000370: 70ad 9abd f68f 723e 33fb 1e3e 9e08 86be
00000380: f6b6 293d 8da8 373d 84bc 0cbe 4fe7 acbd
00000390: 3016 9cbd 0e9f ae3b 9be1 803c 929b 15be
000003a0: 5e5a caba 239e 45be ebd6 febd 18dd d83d
000003b0: 7145 953e 175d 56bd 1537 093d c3c1 7e3e
000003c0: 3dcf 303e 9ee3 9a3e 810e 5bbd 14d7 de3d
000003d0: 161b 043e 9d54 33be 26a4 8bbc 4283 683d
000003e0: b30d b1bd b198 89bd 43e1 703e c481 893d
000003f0: bb73 84bc a50d 3f3e c1e6 9abd 69c7 3b3d
-0.036340766 -0.12423095 0.05856622 0.17813781 0.1303576 -0.07887855 -0.26940963 -0.12024237
-0.02541321 -0.24863431 0.06316641 0.10345449 0.111933656 0.20504494 -0.05334508 -0.19314805
0.07242593 -0.0015249519 -0.17078574 0.38171455 -0.21325241 0.013124019 0.14260857 -0.068729386
-0.07943109 0.054611154 -0.31637624 -0.077188425 -0.04576459 -0.1780304 -0.15852962 0.11832115
-0.15627392 -0.17516725 0.09925679 0.04109146 0.09457927 -0.022748461 0.093639635 0.104439944
-0.23055498 -0.51001585 0.055213686 0.15255135 -0.072592214 -0.18201616 0.22770198 -0.18882841
0.32109585 -0.07207357 0.075546645 0.031937882 0.21637271 -0.09569947 0.029820133 0.1603179
-0.1431814 -0.123294264 -0.062470347 0.006004073 0.0326997 0.1098165 0.032613914 -0.07599949
0.15148297 0.039349336 0.2901246 0.160068 0.14529034 0.07185369 -0.017719822 -0.13397859
0.2359396 -0.084128305 -0.07134854 -0.2155122 0.08452112 0.08624045 -0.23350641 -0.19443016
0.28151837 0.099513955 0.06029681 0.055151504 -0.054904252 -0.019457446 -0.08055541 -0.21427445
-0.021294247 0.101456285 0.013753985 0.2758945 0.25278702 -0.13010672 0.045398332 -0.07899171
-0.090286925 0.031051915 0.10530503 0.023132712 0.14512457 0.0149237765 0.19124958 0.04021933
0.008907368 0.13833645 0.102410786 0.03187472 -0.08352011 -0.08189266 -0.2112963 0.067231536
-0.044288993 -0.11142578 -0.18850347 -0.14806828 -0.015826141 -0.07368778 0.031828012 0.10392083
-0.008646787 -0.039398417 -0.088991165 -0.057375036 0.3624531 -0.036067143 0.012048464 0.17160797
0.25974047 -0.049469892 0.03050336 0.02955892 -0.073907636 -0.09280098 0.27632624 0.06119134
0.25466695 -0.0125634745 0.08185682 -0.018148769 0.08739577 0.16883315 0.3561778 -0.037720785
0.1791411 0.10351399 0.07863373 -0.1833302 -0.027256412 -0.15634097 -0.004194304 0.077010415
0.018760018 -0.10844323 0.0024387022 0.11471203 0.10563764 0.036931247 0.104641065 0.07560133
-0.22115359 -0.017680923 -0.035894293 0.20430753 -0.027460713 0.090203814 0.24150188 0.22079082
0.12772244 -0.056722313 -0.03951948 -0.030711405 0.009876061 -0.087376475 0.14644673 -0.15799488
0.16226874 0.2568663 0.044871807 -0.0748187 -0.17666663 -0.29277548 -0.14746346 0.3312017
-0.124214 -0.004658531 -0.009293578 -0.08973559 0.15163237 -0.01705523 -0.022087814 0.074310996
0.14491364 -0.35677564 0.009152968 -0.22057132 -0.08386423 -0.1038298 -0.21600413 -0.087165065
0.01254268 -0.069784075 0.08472413 -0.3902534 0.03413475 -0.15839972 0.0408113 -0.21387717
0.06632139 0.16212898 -0.13742737 0.018222893 0.045089304 -0.03158193 0.06556099 -0.1776497
-0.24035263 -0.23751798 -0.17543966 0.05399009 -0.07552612 0.23687729 0.15525512 -0.2617845
0.04143425 0.044838477 -0.13743788 -0.08442556 -0.076214194 0.0053290194 0.015732577 -0.14610127
-0.0015438308 -0.19298606 -0.12443336 0.10589045 0.29154542 -0.05233487 0.033499796 0.24878602
0.17266555 0.30251783 -0.05348063 0.10880867 0.12900957 -0.17512746 -0.017046046 0.056765802
-0.08645191 -0.06718577 0.2352343 0.06714204 -0.016168466 0.18657549 -0.07563544 0.04584447

net.0.bias f4 [60]
00000000: e749 aabb e38f aebc de8f ea3b cc89 0b3e
00000010: b76b 0cbe ba7d 78bd ebcd 6abd 79d1 0b3c
00000020: 7729 cb3d d035 243c 17e2 80bd c2de 883d
00000030: d54a f6bb c3d8 f7bc 4426 033d d73b 0dbe
00000040: 6e5b 9f3d 37d8 70bd d58f b33d 5dff b3bd
00000050: fabd 41bd 3da9 00bd f815 86bd 857a 5a3d
00000060: 024d b1bd 0ca0 303d 6709 0fbb b9ea 503d
00000070: 24dd 0abd fafd 8cbb 290f 12be 7c3e d53a
00000080: 1b7a c7bb fcac c3bd 90cc 313d 9a2d 21bd
00000090: 26ed e13d 63f8 23be e587 213e c72b 113e
000000a0: 5b04 1e3d e46b d0bd 7f3f 173e 40c3 833a
000000b0: 83f6 1e3e 5d7f cc3b eebc 903d d660 99bd
000000c0: 78f8 f73d f476 9d3b 28db 113c f9d4 393d
000000d0: 9732 6abd a31d 323d 06c4 803c 016b 83bc
000000e0: 6675 90bd 9002 0f3e dc01 1c3e 216c ca3d
-0.005196798 -0.021308845 0.0071582636 0.13626784 -0.13712965 -0.060666777 -0.057325285 0.008533829
0.09920018 0.0100225955 -0.06293123 0.06683113 -0.007516245 -0.030254727 0.032018915 -0.13792358
0.07781111 -0.05879995 0.08767668 -0.08788941 -0.047300316 -0.0314114 -0.06547159 0.0533395
-0.08657266 0.043121383 -0.0021825673 0.0510051 -0.033902302 -0.0043027373 -0.14263596 0.0016269232
-0.006087554 -0.095544785 0.043407977 -0.03935013 0.110315606 -0.16012721 0.15774496 0.14176856
0.038578372 -0.101768285 0.14770316 0.0010052696 0.15523724 0.006240769 0.070672855 -0.07489173
0.121079385 0.00480544 0.008902349 0.045369122 -0.057177152 0.043485295 0.015718471 -0.016042234
-0.07053642 0.13965821 0.15235084 0.09883905

net.2.weight f4 [60, 60]
00000000: 1afd 83bd 8055 c23d 423f 60bd fc5a b13c
00000010: 6f88 17be a591 883c 5d8c 083e 43e8 883e
00000020: 5942 1ebe 8804 8fbd 138f a8bd 2504 fe3d
00000030: 5ec9 c03d 7033 81be 59b1 263c fe6f 503d
00000040: 7b24 af3b 9910 803d 5b60 883e 336d a33d
00000050: e939 26be 863e 353d 8065 fa3c 7322 33bd
00000060: 6447 d63d dbae b9bd e024 843d d3bc a9b9
00000070: 481a ed3c c12d 04be 45cf b8bd c77d c4be
00000080: 7f0e 65be 49a2 04be 248c f53c 9ff8 853d
00000090: d2ce 32bd 996f cd3c 3389 5d3d 298a e13c
000000a0: 5ccc c7bd 693d f03d a0b9 81bc 70a0 e93c
000000b0: 7b50 2f3e b1d6 d83a 126b c6bd 2723 9c3d
000000c0: 1757 213e 3bf1 473e 54ba 03bd 92e9 9fbd
000000d0: f23c 613d 28ad 853e f26e 0cbe f3fd 373e
000000e0: be51 613d 6662 563e 0d53 953d 4ad8 c0bd
000000f0: 8d84 e4bd fef3 e3bd c757 9b3c c427 3ebe
00000100: f243 253e 65d7 a7bc 1f62 14be a76e f1bc
00000110: d4bf 7c3d e96e e93d 644b 573e 1d13 68be
00000120: 9521 053d dc58 f6bc 8532 abbe eb62 92bd
00000130: 9181 36bd 66d1 ecbd 653d 543c 3995 a33d
00000140: 2735 123d 3af4 9e3e 818c 22be e0ed 14bd
00000150: f03b 143e 8594 74be 640e 57bc 0fed 593d
00000160: 6922 c4bd 653f bc3c 4145 9e3d b5e4 aa3d
00000170: 6465 ff3d 7961 1e3e b1f0 e33c 3ade 043d
00000180: f168 91ba 0a9c f7bc e047 0fbe ebbd a9bd
00000190: 798b 533d 36b5 ecbc f6a7 8ebe 0100 833b
000001a0: b97b 1cbe fa2a 9fbb 0e2d 8f3d 5380 3f3d
000001b0: bd9f 863e 8e82 863c 6e79 6bbe 99bc 213e
000001c0: 6422 ad3a e75b b9bc 0814 0e3e 77d5 563e
000001d0: 5a4a 2f3e 9a0f f03c d309 26bd 7508 47be
000001e0: abef fb3d bc50 e23c cb35 57bd f5c5 1c3d
000001f0: 7fdb abbe 8211 a63d 4347 7f3c 8380 8fbd
00000200: b1e0 5d3e c4b5 41be 21bc 1cbe 7846 703d
00000210: c884 65be 1388 193e bd4b 3abe 984b 973e
00000220: 9ad1 963d 957a 47be d6dc 1b3c a255 30bc
00000230: 79c3 52bb 7a8c e73d 834b 0cbd 86f0 15be
00000240: 3305 123e bd42 8d3d f58a 60be 7e22 30be
00000250: 2e5c ee3c 4ed5 a43d 7716 b1bd d081 9c3d
00000260: 8259 1a3e e0fd 3bbe 9f1d b53c 5e35 4dbd
00000270: b3cc 83bc 33c8 c83d 7b61 e73c ea4e 683e
00000280: 5cf3 183c 15d5 b63c e9d8 313d cf63 00be
00000290: 6d7f c5bd 2a44 dfbc a681 ddbc 5731 1ebc
000002a0: 8435 c6bd 2fab 423c b4b8 c83c b703 72bd
000002b0: 8159 313e d404 c73d 51b9 81bd 0dbc 323d
000002c0: 4ccf 87bd f719 2bbe 5298 c0bd f695 98bc
000002d0: f40f 14be 2da9 7d3d 78cb 0fbd fbc4 aa3d
000002e0: a151 b7bd bcfc ff3c a6ec dc3c b412 4f3e
000002f0: 8641 e03d be12 213d 8c14 cdbd 73c4 de3d
00000300: 6277 45be 5853 ca3c da84 2bbe a8d3 553d
00000310: 6a2d 63bd 6c20 4a3e f81e a93d 2f73 9f3d
00000320: 276d c4bd 8d88 2dbe b26e 0a3e 622d aabd
00000330: 17ea 963d 2e7e be3d c5db 68bd 950f 92be
00000340: 94d2 f8bd b43b 933d 467f 9cbd b0d8 45be
00000350: 5c55 1e3e 7d04 aa3d a830 ea3d d9f7 833d
00000360: 1e1b 3bbc ce7b 523e fbec ac3d 9fc4 b93d
00000370: eb17 473c 6089 e93c 9f90 7c3c 440b 13bd
00000380: 1a6f e53d df95 8abd 517c 153d 120f 91bc
00000390: 2860 773c 4271 8a3d 9c57 793d 9c83 a6bd
000003a0: 3c6e 29be c3a9 1cbd c3ed 19be fb5e 81bd
000003b0: 60f5 2a3e 985c d83d 7f62 d0bd a8a8 343e
000003c0: e368 293e f23f 28bd dfaf 0a3e 07e6 7c3d
000003d0: d3dc ffbd cee3 abbd 3542 793d b3b1 a83d
000003e0: 8a54 573d ec27 5cbd 6237 b4bd b72e b2bd
000003f0: ab12 e13c 97de 013e 765b 59bd c48e 6bbd
-0.0644476 0.09488964 -0.054747827 0.02164983 -0.14798139 0.016671011 0.13334794 0.26739702
-0.15454997 -0.06983286 -0.08230414 0.12403134 0.09413408 -0.25234556 0.010174119 0.050888054
0.005344925 0.06253166 0.26636013 0.079798125 -0.16233028 0.04424908 0.030565977 -0.043734025
0.104628354 -0.09066554 0.06452346 -0.00032374877 0.028943196 -0.12908079 -0.090239085 -0.3837721
-0.22368811 -0.12952532 0.02997405 0.06541561 -0.04365427 0.025077628 0.05408592 0.0275317
-0.09755775 0.11730463 -0.015835583 0.028518885 0.17120545 0.0016543475 -0.09688391 0.07623892
0.15755878 0.19525616 -0.03216012 -0.07808222 0.054989763 0.2610867 -0.13714197 0.17967968
0.055009596 0.20935974 0.07291231 -0.09416254 -0.111580946 -0.11130522 0.018962754 -0.18569857
0.161392 -0.02048845 -0.14490555 -0.029471708 0.06170638 0.113981076 0.21024853 -0.22663541
0.03250273 -0.030071668 -0.3343698 -0.07147773 -0.044557158 -0.11563377 0.012954091 0.07987446
0.03569522 0.31045705 -0.1587391 -0.036359668 0.1447599 -0.2388478 -0.01312599 0.053204592
-0.09576876 0.022979448 0.07728053 0.08344404 0.124705106 0.1546687 0.027824732 0.032438494
-0.0011093897 -0.030225772 -0.13992262 -0.08288177 0.051646683 -0.028895002 -0.2786252 0.003997803
-0.15281571 -0.004857418 0.069910154 0.04675324 0.26293746 0.016419675 -0.2299554 0.157946
0.0013209102 -0.02262683 0.13874829 0.20979868 0.17118207 0.029304314 -0.040536713 -0.1943682
0.123015724 0.027626388 -0.052541535 0.038274724 -0.335659 0.08108808 0.015580955 -0.070069335
0.21667744 -0.18916994 -0.1530614 0.058660954 -0.22413933 0.14993314 -0.18192954 0.2954986
0.07364197 -0.19480355 0.009513101 -0.010762604 -0.0032159968 0.11306091 -0.0342517 -0.14642534
0.14259796 0.06897495 -0.21928008 -0.17200658 0.02909669 0.08048497 -0.08646863 0.07641947
0.15073207 -0.18358564 0.022108851 -0.050099723 -0.01608882 0.0980381 0.028244724 0.22686353
0.009335365 0.022318402 0.043419752 -0.12538074 -0.09643445 -0.027254183 -0.02703936 -0.009655318
-0.09678176 0.011881634 0.024502136 -0.059085574 0.173193 0.09717718 -0.063341744 0.04363637
-0.066313356 -0.16709124 -0.09404053 -0.018626194 -0.1445921 0.061928917 -0.035106152 0.08338352
-0.08951116 0.031248443 0.026968312 0.20221978 0.109499976 0.039324515 -0.10013685 0.108773135
-0.19283822 0.024697945 -0.16749898 0.052203804 -0.055463232 0.1973893 0.0825786 0.077856414
-0.09591132 -0.16946621 0.1351879 -0.08309437 0.07368868 0.093014106 -0.056850214 -0.28527513
-0.121495396 0.07189122 -0.07641463 -0.19320941 0.1546225 0.08301637 0.11435062 0.064437576
-0.011420039 0.2055504 0.08443638 0.090707056 0.012151699 0.028507888 0.01541534 -0.035899416
0.112028316 -0.06766867 0.03649551 -0.017707381 0.015098609 0.067598835 0.060874566 -0.08130571
-0.16545957 -0.038247835 -0.15032105 -0.06316944 0.16695166 0.10564536 -0.10175037 0.17642462
0.16543917 -0.041076608 0.13543652 0.06174281 -0.12493291 -0.0839306 0.060854156 0.082370184
0.052570857 -0.05374901 -0.08799626 -0.087003164 0.027474722 0.12682568 -0.05306574 -0.0575092

net.2.bias f4 [60]
00000000: 857d 143d 1f40 c83d 7749 c53d 5602 06be
00000010: 70a7 b33d 0054 e2bd 30c2 a33c 6856 8a3d
00000020: 9666 ddbd 5fea a5bc 7f2c 9a3d 7460 56bd
00000030: 4555 b63d 2acb 083d 80f0 953d 26c8 40bd
00000040: cdd5 103d 03fb 8fbd d4b0 a43d 8179 75bb
00000050: ea84 b5bd ee15 d3bd db14 80bd b861 edbd
00000060: a45f 92bd bfba 60bd 2cac 943d 5f12 e53d
00000070: 2c31 783b b33a 123e 92c9 353c 4a76 903d
00000080: c22d 40bd 2e41 4f3d 6343 0fbc 1639 3f3d
00000090: 2c8c 543d 6fbe da3d f18c 713d 8aa8 babd
000000a0: bfbb 003c 491a d0bd 8660 8cbd fd43 8dbd
000000b0: 8116 00bd 6e93 ba3c 2dac c5bd 8522 423d
000000c0: 723b 1c3c 478e be3d 6297 9bbd 7f65 eebc
000000d0: 5189 93bc 8a4b 5d3a defe ca3c 25f4 143d
000000e0: 15e0 e13d ea47 c9bd e5b0 c5bd ebce edbd
0.036252517 0.09777855 0.09633153 -0.13086829 0.087721705 -0.11051178 0.019990057 0.06754762
-0.10810582 -0.020253358 0.07528018 -0.05233808 0.089029826 0.033396877 0.07321262 -0.047065876
0.035360146 -0.070302986 0.0804154 -0.0037456455 -0.08863242 -0.10306917 -0.06253978 -0.11590904
-0.07147148 -0.054865595 0.07259402 0.11185145 0.0037871106 0.14280204 0.011095421 0.07053812
-0.046918638 0.05059927 -0.008744094 0.0466853 0.05189149 0.106808536 0.058972303 -0.091141775
0.007857262 -0.101612635 -0.06854348 -0.06897733 -0.03127146 0.022775378 -0.096519805 0.0473962
0.009535657 0.09304481 -0.07597233 -0.029101131 -0.018009814 0.0008441737 0.024779733 0.036365647
0.110290684 -0.0982817 -0.096528806 -0.11611732

net.5.weight f4 [1, 60]
00000000: 00fa bfbe e5b5 3bbe d17e 7e3a 66a1 01bc
00000010: a77e 9dbe cbc3 053c f910 423d 51bf 263e
00000020: df53 163c d8be 3ebd 546d 273a 03a7 b03e
00000030: a20f 4bbd 2f98 15be c0aa 4e3e 06f4 28bc
00000040: 3fdf c03d 0081 2b3e 33e4 fabd cec3 6c3a
00000050: b184 453e 8463 003c e897 353d 24f4 99bd
00000060: 7e5e ab3c a1ff 47bd 61bd 0dbb 22b5 b43c
00000070: 61c2 793e 10ab 943d 0dd3 dabd c247 b63e
00000080: 05c2 423c 1f87 773e db16 2cbc afb3 3a3c
00000090: bfc9 d7bd 0e02 72bd c13f e7bc 986a 1ebe
000000a0: 6abf 8c3d b785 5a3d a9b2 e6bd 60cc c3bc
000000b0: 34c3 523c a06e 22bd a8eb 95be f9f4 babd
000000c0: a824 5abd a573 943c b531 65bd 1d35 703d
000000d0: ac9f a1bd 982e 8339 8c2c c3bd 4b0d d4bd
000000e0: 68bf 513d 5886 273d 9f0c 3fbe 3226 423e
-0.37495422 -0.18331106 0.0009708228 -0.007912016 -0.3076069 0.008164356 0.047379468 0.16283919
0.00917527 -0.04656872 0.00063868356 0.3450242 -0.049575455 -0.14608835 0.20182323 -0.010312086
0.09417581 0.16748428 -0.12250557 0.0009031863 0.19288899 0.007836226 0.044334322 -0.07517269
0.02091908 -0.04882777 -0.0021627771 0.022059027 0.24390556 0.0725919 -0.10684786 0.35601622
0.011887078 0.24172638 -0.010503496 0.011395379 -0.10536527 -0.05908399 -0.028228642 -0.1547035
0.06872447 0.053350177 -0.112645455 -0.023901165 0.012863923 -0.03965628 -0.29281354 -0.09128756
-0.053257614 0.01812155 -0.055955607 0.058644403 -0.07891783 0.00025020982 -0.09529981 -0.10354098
0.05120793 0.040899605 -0.18657158 0.18959883
