results of reviewer/XJTU results/0-0/Experiment4/model.pth (torch, 59838 bytes, 14 tensors)

encoder.net.0.weight f4 [60, 17]
000000 fa d1 b1 3c fa 5f 50 bd 6e 52 24 be ab 6c 0c bd
       0.02170657 -0.05087278 -0.1604707 -0.03428332
000010 e6 ad 80 3c d8 bf 7d 3d 1d dd ec 3d 35 a8 60 be
       0.015707921 0.061950535 0.115656115 -0.21939166
000020 87 2b 86 3e 4d 45 b7 bd 66 79 b8 3d 9b 6c a0 bd
       0.26205084 -0.08948765 0.0900753 -0.07833215
000030 0f f5 ae 3d d6 f1 0f bd e1 13 e7 3d 1a 2f 8c bd
       0.08542835 -0.035142742 0.112830885 -0.068449214
000040 02 5d 96 bd 76 0c c7 3d 14 c1 63 3d 01 73 b4 bd
       -0.073419586 0.097191736 0.055604056 -0.08810998
000050 7b 1b 65 3d b8 9e 8d be da 65 44 be 1d 5d 30 be
       0.05593441 -0.27660155 -0.19179478 -0.1722302
000060 5c af 4d bd 92 96 69 3c 91 99 0c 3e d5 ce a1 3b
       -0.050216064 0.01425709 0.13730456 0.0049379864
000070 ae a6 1b be cb 6f 15 3e 18 48 d5 bc b2 69 1f 3e
       -0.15200302 0.14593427 -0.026035354 0.15567663
000080 e2 45 a1 3d 54 70 d5 bd 5f cc 0e 3d f8 32 54 3e
       0.07874657 -0.104218155 0.034862872 0.20722568
000090 58 ec b3 3e 5a b2 27 be 76 5f 61 be 8f f9 00 be
       0.35141253 -0.1637663 -0.22009072 -0.12595199
0000a0 e7 1f 16 3e 4c 32 94 bd 72 e2 00 be 20 fd 95 bd
       0.14660607 -0.07236156 -0.12586382 -0.073236704
0000b0 da 6b e5 bc d9 3d 9d bd 5e 76 39 3e 7c 69 e8 3d
       -0.02800553 -0.07677812 0.1811156 0.113482445
0000c0 b4 7e 95 be 58 bb 03 3e ee b7 94 3e f1 8c 8b 3d
       -0.2919823 0.12864435 0.29046577 0.06813992
0000d0 ba 75 20 be 87 5a 67 be 6d 80 6f bc 18 6b 67 ba
       -0.15669909 -0.22593127 -0.014618021 -0.0008827909
0000e0 48 2a fe 3d 29 e3 59 3e 95 c5 3c 3d ec 91 11 3e
       0.12410408 0.21278061 0.046086866 0.14215821
0000f0 be a4 a1 be db 57 d3 3d b1 42 15 3c d9 e6 24 be
       -0.31571 0.103194915 0.009110139 -0.16103686
000100 7e 4d 56 3e 12 a3 d1 3d ff 43 62 bb b3 13 13 be
       0.20927998 0.10236181 -0.0034525392 -0.14362983
000110 ae 1c 31 3c d9 33 81 be c1 4f 40 bc 95 f4 61 bd
       0.01081006 -0.2523487 -0.011737765 -0.055164892
000120 da bc ba 3d 19 a9 cb 3d 53 80 18 be fb 56 1c be
       0.09118052 0.09944362 -0.14892702 -0.15267555
000130 5e a2 76 be dd d6 bb 3d 37 f2 e6 3d cd 6c 8b be
       -0.24085376 0.09171841 0.112766676 -0.27231446
000140 1f c1 70 bd c6 c1 21 3e bc df b1 3d 2e 4a 2d bd
       -0.058777925 0.15796575 0.08685252 -0.04230707
000150 5d 94 13 be 6f 6a 15 3e 4d 7d 3a 3d ef 46 0d 3d
       -0.14412065 0.14591382 0.045529652 0.034491476
000160 31 47 0c 3e 77 a0 0f 3e 80 0f 34 3d c5 74 fd 3d
       0.13699032 0.14026056 0.043960094 0.12375788
000170 44 cc bf bd cb 83 d1 3d 6d 2e 35 bd 83 cc 99 3d
       -0.093651325 0.10230216 -0.04423373 0.07509711
000180 6b 69 b5 be 26 4b 3e 3e 28 09 dd 3d 15 d0 57 be
       -0.3543199 0.18583354 0.10792762 -0.21075471
000190 d8 21 69 3e 6f 82 2d be bf 01 a8 3d 94 d3 09 3e
       0.22766817 -0.16944288 0.08203458 0.13459617
0001a0 5f 75 8a 3e 5a 55 22 3e 8d e3 62 be 0e 8f cf 3d
       0.27042672 0.15852872 -0.22157116 0.101347074
0001b0 f6 5c 77 3e fd 46 d6 bd 1c 96 93 bd cf bd 10 3e
       0.24156556 -0.10462759 -0.072063655 0.14134906
0001c0 cf 9a 4e bd ba 34 ed bc b8 77 3b bd a2 5c 65 3e
       -0.050440606 -0.028955806 -0.04576847 0.22398618
0001d0 e0 e3 69 3d 19 2a af bb 99 59 96 3d ed 67 08 be
       0.057102084 -0.0053455946 0.07341308 -0.13320895
0001e0 fc 64 11 3d 53 52 64 3c ed 71 07 be e2 af 8b 3d
       0.035496697 0.013935643 -0.13227053 0.06820656
0001f0 56 60 cd bd 91 04 1f 3e d4 2f 04 bd d9 91 c6 3d
       -0.1002814 0.15529086 -0.032272175 0.09695787
000200 78 20 53 be 44 3e 1a be 30 56 d5 3d 5c 39 f2 3d
       -0.20617855 -0.15062815 0.104168296 0.11827347
000210 2d 1b 63 3e ce 47 b3 3c 06 f1 22 bc a1 f6 c2 3d
       0.22178335 0.021884825 -0.00994516 0.09519697
000220 6f 79 8c bd 92 8b e3 3d 1f b9 ce bd 85 75 72 3e
       -0.06859099 0.11110605 -0.10093903 0.23677643
000230 b5 24 9c 3d d9 6a 7f 3e 3a 24 e9 3d 82 1c 57 bb
       0.07624189 0.24943103 0.11383863 -0.0032823388
000240 61 c3 88 bd 1f 47 27 be b4 24 f0 3c 84 0a a9 be
       -0.066778906 -0.16335724 0.029314376 -0.33015835
000250 c4 87 a0 bc 18 c9 14 3e ac 52 1a bd 89 b7 70 bd
       -0.019595988 0.14529836 -0.0376765 -0.058768783
000260 83 55 a5 3d 0b 7b 60 bc 9f fb d8 3d 73 2a 33 be
       0.08072951 -0.013701211 0.10594868 -0.17496662
000270 a8 b0 90 3d e8 11 04 be 7d 48 31 be 6d a6 d3 3d
       0.070649445 -0.12897456 -0.17312808 0.103344776
000280 78 b5 f3 3c 85 47 f5 3d 7e 0f 34 be 4c 6c 97 3e
       0.029749617 0.11976532 -0.17584035 0.2957481
000290 19 85 27 3e 14 5b 43 3d 91 1f 3a bd 51 5b 16 3d
       0.16359366 0.04769428 -0.04544026 0.03670818
0002a0 51 ef 51 3e 3b 15 37 3e c7 18 85 3d 64 f0 a1 bd
       0.20501448 0.17879193 0.064988665 -0.07907179
0002b0 63 2d ac 3d 04 d0 2f bd f6 bd 0a be cf 11 30 be
       0.08407094 -0.04292299 -0.13549027 -0.17194293
0002c0 98 c5 3f be 05 d2 49 be 0a d5 94 3e 1b e3 ec bd
       -0.1872772 -0.19709022 0.29068786 -0.115667544
0002d0 92 4c 87 3d 97 53 a2 3e 7e 83 a1 bd f5 32 fd 3d
       0.066064015 0.317044 -0.07886408 0.12363235
0002e0 10 0e fe 3d 6d b5 e1 3d 47 ec 49 3d ef 04 71 3e
       0.12405026 0.11020932 0.049297597 0.23537038
0002f0 69 29 56 bd 01 8e 17 be 5c 22 57 3e 27 20 21 3e
       -0.052285586 -0.14800264 0.21009201 0.15734921
000300 1b 63 89 3d db 21 09 be ee 3e ff bd 7a cd 1c 3e
       0.06708356 -0.13391821 -0.12463175 0.15312758
000310 99 83 da bb 4e 14 24 be 2a 26 d1 bd c1 c2 f8 bd
       -0.0066685197 -0.1602337 -0.10212357 -0.12146521
000320 0b d3 87 3e 6e a5 aa bd 2b e6 f7 3d 33 51 bd bb
       0.265282 -0.083323345 0.12104448 -0.005777502
000330 12 d7 af bc ee 09 bb 3c 87 d0 0f be 8a b4 48 3e
       -0.021464858 0.022831883 -0.1404439 0.1960012
000340 9a 2e 80 3c 2e b0 a9 3e cc c1 f0 3d 4a c0 03 3e
       0.015647221 0.33142227 0.11755714 0.12866321
000350 61 97 c3 3c 59 b0 64 3e 34 f3 9f be 78 e0 fc bd
       0.023875894 0.22332896 -0.31240237 -0.123475015
000360 7d a9 c2 3e 28 47 96 3e 50 a9 a2 bb e6 d7 ca bc
       0.38019934 0.29351163 -0.0049640313 -0.024761152
000370 8d 12 90 3d 04 37 72 3e 05 53 7d 3d c7 15 6b 3e
       0.07034788 0.236538 0.06184675 0.22957526
000380 a6 fb 88 3e 39 5f f8 bd 51 1a 4c bc 78 16 c8 bd
       0.26754493 -0.12127537 -0.012457446 -0.097699106
000390 2f 0d 5f be 97 20 50 3e 7e 77 da bd 37 7f d5 bd
       -0.21782373 0.20324932 -0.106673226 -0.10424655
0003a0 2a ab bd 3a fa 21 3f 3e ff 95 8a 3c e8 70 d4 bd
       0.0014470567 0.18665305 0.016917227 -0.10373098
0003b0 e0 ff 1b be c1 5b df 3d dd a8 99 3d 19 2b 34 3d
       -0.15234327 0.109061725 0.07502911 0.043986414
0003c0 10 be a5 bd fd 06 73 be e0 e6 34 3d 32 32 26 be
       -0.08092892 -0.23733135 0.044165492 -0.16230085
0003d0 f3 43 9b bd de a1 d9 bd c8 af 1e 3e 32 90 be 3e
       -0.0758132 -0.10626577 0.15496743 0.37219387
0003e0 5a db a3 bc 7d ee 3a 3e cc 7b 96 3e d9 d2 09 be
       -0.020002056 0.18255039 0.29391325 -0.13459338
0003f0 28 ca a8 3d 6a a8 7a be a8 b6 a9 3d b8 bb 82 be
       0.08241683 -0.24478307 0.08286792 -0.25533843

encoder.net.0.bias f4 [60]
000000 a9 6f ce bb ff fa 40 3d 7f 79 09 bd 0b 63 ef bc
       -0.006299932 0.04711437 -0.033563133 -0.029222032
000010 5b a1 6d bd d1 c1 1d 3d 9b be 08 3b b3 96 26 bb
       -0.05801521 0.038514916 0.0020865563 -0.0025419414
000020 01 67 35 3d 18 f2 fb 3b 2b 48 54 3c 1d 55 1d bd
       0.044287685 0.007688772 0.012956659 -0.03841125
000030 d7 86 0d 3d 69 ac 61 3d c0 7f 61 bd 31 3e 15 bd
       0.03455242 0.055096064 -0.055053473 -0.036436263
000040 45 96 18 bd c6 5f 14 3d df 92 c0 3c 8a c7 1e bd
       -0.037252683 0.03622415 0.023507534 -0.038764514
000050 46 4c db bc ef 2d 22 bd 67 3c 21 3c 65 d0 1d bd
       -0.026769768 -0.039594587 0.009841061 -0.03852882
000060 79 11 16 bd 92 0a 2f 3d 08 d0 00 3d 3f d1 0d 3d
       -0.036637757 0.04273469 0.031448394 0.03462338
000070 de 9e bd bc 15 d4 2b 3d 69 49 cd 3b 1a 53 e0 3c
       -0.023147043 0.041950304 0.0062648547 0.027383376
000080 f0 b0 38 3d f3 ae 13 bd ca 9e 6a 3d 48 13 db bc
       0.045090616 -0.036055516 0.05728034 -0.026742592
000090 96 0e 20 3d e1 e6 29 bd 32 f7 0a bc 59 62 c1 3c
       0.03907641 -0.04147995 -0.0084817875 0.023606466
0000a0 06 f1 12 bd e9 39 3d 3d 8b 4f 30 3d eb d2 ee 3c
       -0.03587439 0.046197806 0.043044608 0.029153308
0000b0 69 44 1d bb c9 99 c4 3c d0 75 76 3d cf 1b dc bc
       -0.0023997074 0.023999112 0.06017095 -0.026868729
0000c0 77 80 38 bd 0e 93 1b bd 17 a5 f9 bc be b6 8c 3c
       -0.04504439 -0.03798204 -0.030474229 0.017176982
0000d0 ec 36 27 bd 14 1b 07 3d ee b9 e0 3b 6a 00 f4 3c
       -0.040823862 0.032984808 0.006858102 0.029785354
0000e0 f0 3a 81 3c c5 2b 3c bd 1a 3e 1f 3d d3 70 b5 3c
       0.015775174 -0.04594018 0.038877584 0.022148525

encoder.net.2.weight f4 [60, 60]
000000 3e 99 b3 3b ca 96 cd 3b f1 5a 64 3e 16 d8 b3 bd
       0.0054809144 0.006274079 0.22300316 -0.087814495
000010 35 44 e8 3d df 2c bd 3c 58 38 34 be 97 39 63 3d
       0.113411345 0.023092685 -0.17599618 0.055474844
000020 3c 60 01 3e 4d 6d 01 3d 87 09 5b be 52 02 8f 3e
       0.12634367 0.031598378 -0.21390353 0.27931458
000030 45 a8 86 3d 64 60 ff 3d f2 98 c7 3d ee 95 2e 3e
       0.065750636 0.12469557 0.09745969 0.17049381
000040 49 95 59 3e dc 21 d7 3d b6 43 40 be ec 15 ce bd
       0.21248354 0.10504505 -0.1877583 -0.10062775
000050 4b 03 cc 3c db 08 b5 3d 1e 76 55 be ef dc 95 3d
       0.024903914 0.0883958 -0.2084584 0.0731753
000060 72 8e b6 be db c0 24 be 06 b8 ef bc 1b 96 cb bd
       -0.35655552 -0.16089194 -0.029262554 -0.0994074
000070 f0 4e 8f bc 42 39 d4 bd 8e 62 db 3c 6b 34 64 3e
       -0.017493695 -0.103624836 0.026780393 0.22285621
000080 bb 2b 4b be 13 29 04 be 75 fb 7a 3a 4c c6 20 3e
       -0.198409 -0.12906294 0.0009574213 0.15700644
000090 f1 79 de bd e4 17 f3 3d 48 86 5f be bb ea 35 3e
       -0.10863102 0.11869791 -0.21828568 0.17765324
0000a0 c5 a7 dd 3c 69 f2 46 bd d6 b4 64 bd 25 b2 0b bd
       0.027057538 -0.048571024 -0.05583652 -0.03410544
0000b0 bd 81 04 3c d2 7c a4 be 8c 00 f2 3c 48 17 11 be
       0.008087573 -0.3212648 0.029541276 -0.14169037
0000c0 08 45 31 bd 4d 1a 0a be d1 89 12 3e fd 63 26 3d
       -0.043278724 -0.13486595 0.14310385 0.0406227
0000d0 e2 34 0e 3e a6 8b f8 3d 81 c7 8c be dd 49 98 3d
       0.1388736 0.12136011 -0.2749596 0.07435963
0000e0 3f a9 1d 3d 59 33 17 3d 43 13 87 3b 21 02 a7 3d
       0.038491484 0.036914203 0.004122169 0.08154703
0000f0 4a 40 46 3d 6f ff a2 bb 91 b2 fb 3d d7 17 77 3d
       0.048401155 -0.0049742977 0.12289918 0.06032547
000100 e5 5c bd 3d b1 45 d2 3d c8 b0 66 3e 30 5d a2 3c
       0.09246234 0.10267199 0.22528374 0.019819826
000110 23 56 ba bd cf 11 9a 3d e5 c5 33 bc bc 2c 6f 3d
       -0.090984605 0.07522928 -0.010972475 0.05839227
000120 7d 23 87 bc 79 55 ea bd 2b 29 87 bc f7 53 e6 3d
       -0.016496414 -0.11442084 -0.016499123 0.11246484
000130 ec d6 e0 bd 59 46 5d 3e 70 e0 95 bd 32 ca b7 3d
       -0.10978493 0.21608867 -0.07318199 0.089741126
000140 81 d3 0a 3d 2b bb b0 3d 58 32 27 be 59 d5 ec bb
       0.033893112 0.086294495 -0.16327798 -0.0072275815
000150 9d 99 52 3d 99 54 8b 3d ba 1d 88 bc e0 c9 02 3e
       0.05141603 0.06803245 -0.016615737 0.12772322
000160 72 7c 05 3e 12 23 04 3c 74 4a 48 be 09 ba 4d be
       0.13035753 0.008065002 -0.19559652 -0.20090498
000170 2b ec 72 bd a7 f9 04 3c d8 17 ff 3d f6 50 02 be
       -0.05930726 0.008116162 0.1245572 -0.12726197
000180 00 66 b5 be 4f ae c5 3a ae 36 74 bc 89 54 48 3e
       -0.35429382 0.0015081855 -0.014905615 0.19563498
000190 cf 8d 36 3e 1a df 48 bd 1d c8 5c be bf a1 26 bd
       0.17827533 -0.04904089 -0.21560712 -0.040681597
0001a0 28 99 17 3c 69 06 ac bd f6 55 c0 bd 39 82 28 3e
       0.009252824 -0.0839966 -0.09391396 0.16455926
0001b0 5b 05 0a be dc 63 37 be 6a 66 ac bd 88 27 b5 3d
       -0.13478605 -0.17909187 -0.084179714 0.088454306
0001c0 f4 e6 22 3e e7 9b b2 bd f3 dc 99 be 64 dd 01 be
       0.15908414 -0.08721142 -0.30051383 -0.1268211
0001d0 41 7e a9 3d f6 fc 65 bd a4 f8 13 be 92 fe 5c 3c
       0.08276034 -0.056149445 -0.14450318 0.013488429
0001e0 63 13 c0 3c 67 32 1c bd ea fb 7b bd 1a f3 c0 bd
       0.023446744 -0.038134005 -0.06151954 -0.09421368
0001f0 03 a1 4a 3d 53 f4 ba bd d0 da 3b be 29 26 e9 bd
       0.04946996 -0.091286324 -0.18345189 -0.113842316
000200 bc 03 0f bc bc 98 15 3e cf 63 0d be c7 58 24 bd
       -0.008728918 0.14609045 -0.13807605 -0.040123727
000210 4c 2c 0c 3e a2 e6 1f be 5c 2d 02 3e df 2d 9b 3c
       0.13688773 -0.15615323 0.12712616 0.018942771
000220 03 b5 ea 3d f4 40 24 be 6c 3b f4 3c 7c 72 87 3e
       0.114603065 -0.16040403 0.02981349 0.26454532
000230 ab 33 9a 3d cc cc af bd a4 22 18 be 7c ee 81 3c
       0.07529386 -0.08583984 -0.14856964 0.015860789
000240 b3 6d 4c bd 18 e9 bd 3d a7 a0 4d bd ee fc a8 3c
       -0.049909305 0.09272975 -0.05020204 0.020628419
000250 c1 81 9b 3e 9e a3 1e be 96 f1 b4 bd 57 82 9b 3e
       0.30372432 -0.15492103 -0.08835141 0.3037288
000260 46 ac 7d bd 3a 0a 04 3b 4b 40 89 3e a1 02 d0 3d
       -0.06193187 0.0020147697 0.26806864 0.101567514
000270 9f d9 b4 bb 8e 51 2c bd bb ea e9 3d d2 bf 01 3e
       -0.0055191065 -0.042069964 0.114217244 0.1267083
000280 2e e9 1a be dd 15 88 3d 55 c0 a9 3c 79 8d ee bd
       -0.15128013 0.06644795 0.020721594 -0.116480775
000290 ac e8 6c 3c d2 32 8a 3e df 6f 98 3e 11 f5 2b 3d
       0.01445977 0.26991898 0.2977285 0.04198176
0002a0 ab 7d 0d 3d c5 4a da 3c 07 40 49 3d 29 75 5c 3e
       0.034543674 0.026646981 0.049133327 0.21529068
0002b0 fd 10 da 39 52 62 0d 3e 54 55 8c 3d 3d 35 72 3d
       0.00041592857 0.13807037 0.068522125 0.059132803
0002c0 34 94 55 3d 69 a1 a8 bb ad 4b 40 3e 8a 71 bc 3d
       0.05214329 -0.0051461947 0.18778868 0.09201343
0002d0 70 f1 d7 3b 8c 6f 88 be 11 72 64 b9 2e f0 a6 3c
       0.006590061 -0.26647604 -0.00021786267 0.020378198
0002e0 f0 76 46 be 74 8c 1b bd b9 2c 8c bd 41 67 22 3d
       -0.19381309 -0.037975743 -0.06844468 0.03964925
0002f0 7a 0b ef bd 25 99 9a bd 58 52 83 3e e2 52 a7 bd
       -0.11672111 -0.07548741 0.2564876 -0.081701055
000300 11 14 1f bd 78 9e 05 3d 80 e9 10 3d 96 5e 46 3e
       -0.038837496 0.03262183 0.035378933 0.19372019
000310 12 5b 0b 3e b6 3b b8 3d c5 db e6 3b cf 05 43 3b
       0.1360896 0.08995764 0.0070452415 0.00297581
000320 32 c1 87 bd 45 82 32 3e 07 55 85 3b 2f 92 67 3e
       -0.06628646 0.17432506 0.004068974 0.22614358
000330 1d d6 7d 3d a4 f9 b4 bd fc 95 99 bb 2d 99 72 3c
       0.061971772 -0.08836678 -0.004687069 0.014807028
000340 a2 b7 42 3e 10 a3 04 be 52 1b aa bd 78 be 11 3d
       0.19015363 -0.12952828 -0.08305992 0.035582036
000350 b9 92 cf bc f7 a7 22 3c ac cb e5 3d fc 04 28 3d
       -0.025338518 0.009927741 0.11220488 0.04102038
000360 d0 ef c8 3d b6 93 08 3d 96 f4 12 3e 3d ec 60 3e
       0.098113656 0.033343993 0.14351115 0.21965118
000370 18 ae e7 3a 9d 3a a1 be a0 1c 8a bd 75 76 5c bd
       0.0017675785 -0.3149003 -0.06743741 -0.053823907
000380 cf 02 86 3a a2 71 05 3e d9 67 a0 3d b1 a5 00 bd
       0.0010224226 0.13031629 0.07832307 -0.031408016
000390 f2 cf 3a be d8 1c 48 3c d7 08 cf bd 9e 72 e6 bd
       -0.18243387 0.012213908 -0.10109108 -0.1125233
0003a0 29 b6 75 3e 02 9e 86 bd 31 0a bc bd 0f 2b 89 3b
       0.2399527 -0.06573106 -0.09181631 0.004186041
0003b0 04 e9 78 3d 42 c6 88 3d 56 f6 6f 3d 28 48 0c be
       0.060769096 0.0667844 0.058584534 -0.136994
0003c0 d4 aa 5d 3e 0d 45 dd bd f6 7e c3 bd 94 64 49 3e
       0.21647197 -0.10804186 -0.095457 0.19667274
0003d0 4a 93 f2 bd 9d d1 59 bd c1 fa 28 3e a0 10 cc bd
       -0.118444994 -0.05317842 0.16501905 -0.099641085
0003e0 8a f8 a8 bd a9 26 d2 bd e0 7f 7c be e5 a6 90 3d
       -0.0825053 -0.1026128 -0.24658155 0.070630826
0003f0 bc 64 ec bd 83 c9 c0 3d 44 bc f7 bd 0b e0 1b 3e
       -0.11542651 0.09413435 -0.12096456 0.15222184

encoder.net.2.bias f4 [60]
000000 75 60 18 bd a1 81 20 bd ab 53 37 bd 70 03 1b bd
       -0.037201364 -0.039186124 -0.044757526 -0.037845075
000010 62 49 13 bd ca 66 e8 3c 9a 43 10 3b d0 fe 22 bd
       -0.035958655 0.028369326 0.002201295 -0.03979379
000020 cc cd f4 bc 8b b8 48 3c 72 7f 01 3d 4f 27 10 3d
       -0.029883288 0.01225103 0.031615682 0.035193738
000030 df 3c 23 3d 06 c1 78 bc 23 0f 0c 3d 97 9a 05 bd
       0.039852973 -0.015182739 0.034194123 -0.03261813
000040 a1 fa 18 3d a1 56 55 3d 39 2d 15 3d 24 26 14 3d
       0.037348393 0.05208457 0.03642008 0.036169186
000050 ac cb 43 3d d1 5e 0f 3d 47 63 2e 3d ff 73 08 bd
       0.04780166 0.035002533 0.042575147 -0.033313747
000060 d9 41 45 3d f2 1e b6 3c 10 33 2e bd 42 89 0b bd
       0.0481585 0.022231553 -0.042529166 -0.034066446
000070 d8 e7 1b bd 29 71 07 bd d2 e4 5c 3c cf e5 8a bc
       -0.0380629 -0.033066902 0.013482289 -0.016955284
000080 f3 6c 1e bd 0b bf 94 3c 22 ff 45 bd 02 2f 19 3d
       -0.03867812 0.018157503 -0.048339017 0.037398346
000090 95 58 30 bd 1a fe 1e bd 65 e8 10 bd 4c b8 4b 3d
       -0.04305323 -0.03881655 -0.03537788 0.049736306
0000a0 03 91 ac bb 3d 27 4f bd f6 fe fd bb f7 07 0b 3d
       -0.00526631 -0.05057453 -0.007751341 0.033943143
0000b0 53 ff 48 3d f3 bd da bc db e2 11 bd e9 8e c7 3c
       0.04907162 -0.026701903 -0.035616737 0.024360137
0000c0 95 33 3b 3d 74 0f 0b 3d 5b 20 4a 3d ba 76 03 bd
       0.04570349 0.033950284 0.049347263 -0.03209565
0000d0 79 a6 16 3d a2 00 13 3d f6 94 ff bc a2 50 d7 bc
       0.036779854 0.035889275 -0.03119896 -0.026283566
0000e0 e4 5a 2c 3d e8 7f da 3c a2 ca 81 bc f6 b8 e8 3c
       0.042078868 0.026672319 -0.015843693 0.028408509

encoder.net.5.weight f4 [32, 60]
000000 7c 15 7c be de 07 e9 3d 21 7a 1c be 5b 56 65 bd
       -0.2461757 0.11378454 -0.15280963 -0.055990558
000010 a0 95 24 be ed cf ec bd 8f e2 e0 bd b1 c1 0d 3e
       -0.16072702 -0.11563096 -0.109807126 0.13843419
000020 bd 9c 6c 3e eb 26 52 be cf 5c bc bd a6 48 22 3a
       0.23106666 -0.20522659 -0.09197389 0.0006190635
000030 50 b3 84 bd d2 2d 91 bd 0a fc 19 be 40 15 b7 3d
       -0.06479514 -0.07088818 -0.15037552 0.089396
000040 e9 4f 08 3d 7f 50 ef 3c 1d 42 c4 3d a0 2e 99 bd
       0.033279333 0.029213188 0.095829226 -0.07479596
000050 f9 57 a3 3a 93 5d 6c 3c 8e aa 59 3e 3f 5c 3d be
       0.0012462131 0.014426607 0.21256468 -0.1849222
000060 47 0b 7e 3d 73 34 f3 3d b5 36 ca bd 23 6d 1c bd
       0.062022474 0.11875238 -0.09873716 -0.03819002
000070 1d eb cb bb 6f 38 97 3e b4 d6 33 3e fb e1 31 bd
       -0.006223096 0.29535243 0.17562371 -0.043428402
000080 56 e1 29 3e cf 98 0d bc 0f e9 05 3e d6 e6 cb bd
       0.16589865 -0.008642389 0.13077186 -0.09956138
000090 b0 be 98 bc 4e ef a9 3d 68 f6 28 be 39 df 0a 3d
       -0.018645614 0.08297597 -0.16500247 0.033904288
0000a0 42 33 85 bc e7 70 04 be 09 95 fb bc 2e bf 47 be
       -0.016259793 -0.12933694 -0.030710714 -0.19506523
0000b0 25 a0 2e 3e 90 6d bf bc dd 7e 94 bb 80 a2 43 bb
       0.17053278 -0.023367673 -0.004531725 -0.0029851496
0000c0 0e b0 51 3e 14 b4 2e bd ba cb b8 3c 41 0e 90 bc
       0.20477316 -0.042652205 0.022558082 -0.017584922
0000d0 5a bf ac bd 99 73 3f be 07 01 ea bd 04 4b d1 3b
       -0.08434935 -0.18696441 -0.11425977 0.0063871164
0000e0 af d2 bc bd 8b 1d d0 be d9 27 23 be 25 b3 be 3d
       -0.09219872 -0.4064754 -0.1593317 0.09311513
0000f0 a1 ea 59 be 93 f0 c1 bc e1 d6 69 3c a1 cb 88 3d
       -0.2128091 -0.023674285 0.0142724225 0.06679464
000100 c8 37 c3 bc cc df 22 3d 0b 5a 8f 3d 1a 14 92 3d
       -0.02383031 0.03976421 0.06999596 0.0713274
000110 99 cd 26 be 86 38 b7 3d f7 2a 45 bd 7e 20 13 be
       -0.16289367 0.08946328 -0.048136678 -0.14367864
000120 e3 5e 40 bd d8 80 c1 3d 90 2f 33 bd d7 61 e8 3a
       -0.04696549 0.09448403 -0.04374653 0.0017729354
000130 39 b8 20 3d b4 f8 cc 3d 3d b2 45 be a5 d9 8f 3e
       0.03923819 0.10008374 -0.19306274 0.28095737
000140 b4 54 b7 bd 99 19 09 be 8a 94 5b bb 16 8d e6 bd
       -0.08951703 -0.13388671 -0.0033505284 -0.11257379
000150 a6 29 b0 bd 0f 66 96 3d 22 7e ac bc 2e 83 4f 3c
       -0.08601694 0.07343685 -0.021056239 0.012665553
000160 1e c3 96 bd 77 37 c7 bd eb 42 66 ba 17 5a b0 be
       -0.073614344 -0.09727376 -0.0008783775 -0.34443733
000170 cf 42 85 3d 11 a1 7e 3c ce 00 fc bb e3 64 94 3c
       0.06506883 0.015541331 -0.0076905256 0.018114513
000180 f3 d8 5a 3d a1 40 39 be 47 93 73 3d 40 91 30 3e
       0.053429555 -0.1809106 0.059466626 0.17242908
000190 7f 1d eb 3d a0 75 0b 3e e6 b2 0f 3e 04 18 79 bc
       0.11480235 0.13619089 0.14033088 -0.01520348
0001a0 b8 82 ab 3b bf 96 a2 bd 4a ea 2c be fa 69 f7 3d
       0.0052340887 -0.07938909 -0.16886249 0.1208076
0001b0 2d 4f 74 3d 31 19 9d b9 27 e7 71 3d 82 05 56 be
       0.05964582 -0.00029964143 0.059058335 -0.20900539
0001c0 78 b8 49 3e 47 88 3f 3d 31 bb 72 be f9 94 b5 bc
       0.19699275 0.046760824 -0.2370422 -0.022165762
0001d0 87 67 55 be 1b b9 ed 3d 8b d0 03 be df 31 40 3d
       -0.20840274 0.11607572 -0.12872522 0.04692256
0001e0 b1 a7 a5 bd 47 b4 ad bd 60 9b 54 3d 74 c9 ab 3d
       -0.08088625 -0.08481651 0.05190599 0.083880335
0001f0 f4 87 57 bd a8 45 48 bd e2 82 53 bd 59 a9 88 3c
       -0.05261989 -0.048894554 -0.05163849 0.016682314
000200 b3 a2 86 be 17 93 93 3b 57 69 6c 3d f0 b4 16 bd
       -0.26296005 0.0045036185 0.057717647 -0.03679365
000210 28 3e f6 3d f2 d0 36 be 37 60 99 3b d2 cc 16 3e
       0.12023574 -0.17853144 0.004680659 0.1472657
000220 d6 a4 50 bd f9 0a 2a 3c e8 58 00 3c 8e fd a7 bd
       -0.05093845 0.010378593 0.007833697 -0.082026586
000230 89 da 2f 3e 60 0e 90 3e ee 8b 54 3d 57 91 a2 bd
       0.17173208 0.28135967 0.05189126 -0.079378776
000240 ab ef 93 bc 3a c7 8e 3e ff f3 4e 3e d0 72 22 3d
       -0.018058619 0.27886373 0.20210265 0.039660275
000250 7a ff 79 3e fd a7 91 3d b8 c0 58 3e 70 70 e4 3d
       0.24413863 0.07112119 0.21167266 0.11154258
000260 05 8b 4e be 45 e9 28 bd 17 7e 83 3d 21 ef 78 bd
       -0.20170219 -0.04123809 0.06420534 -0.060774926
000270 d7 a9 08 3e af fa cc bc a1 be 25 be f6 6d 6c be
       0.13346039 -0.025021879 -0.16186 -0.23088822
000280 b7 89 71 be 93 b3 29 3e 1e 4e bd bc cf ee 42 3e
       -0.2358769 0.16572408 -0.023108538 0.19036411
000290 4a 38 d5 3d e3 61 b4 3d d1 4f 92 3c ff 77 09 be
       0.10411127 0.08807733 0.017860325 -0.13424681
0002a0 1f 81 2d 3d e1 10 b2 bd 1d 3e a6 39 9f 2a bd bd
       0.042359468 -0.08694626 0.00031708265 -0.09236645
0002b0 07 d7 f7 bd ae 7a 28 3e 50 53 96 3d 15 9b 20 3e
       -0.1210156 0.16453049 0.07340109 0.15684159
0002c0 ce 25 84 3e df 11 43 be c5 41 3e be 7d d6 af 3d
       0.25810093 -0.19049786 -0.18579777 0.08585832
0002d0 d7 69 74 3d 7d 8e 19 3e f5 ad 96 bb 1a 3d e7 3c
       0.05967125 0.14995761 -0.004598374 0.028227378
0002e0 61 9d fc 3d ab 8b a3 bd 0d b7 0e 3d 2a c2 8c bc
       0.12334705 -0.07985624 0.03484254 -0.017182428
0002f0 b2 da f9 3d bb 22 8c 3d 88 2c 05 be 38 d9 1d 3e
       0.12199916 0.06842562 -0.13005269 0.15414894
000300 5a 2c a8 3a bb c7 da 3c 32 88 27 3d 1a eb 89 3b
       0.0012830601 0.026706567 0.04090137 0.0042089345
000310 49 1d 23 be 3b d5 8b 3d 94 eb 57 3e e9 c3 41 be
       -0.1592914 0.0682778 0.2108596 -0.1892239
000320 d3 08 97 bd 7c 17 27 3e 41 4b 62 bd 56 33 31 3e
       -0.0737473 0.16317552 -0.05524755 0.1730474
000330 97 42 df 3d 40 aa 5c 3d 46 8d 72 bc 9b 49 54 3d
       0.10901373 0.0538733 -0.01480419 0.05182801
000340 30 6d ae 3d 98 e5 4f 3e 92 88 6a be c9 cf bb bb
       0.085169196 0.20302427 -0.2290366 -0.005731557
000350 31 1f 4e bc 68 25 28 3d 1b 22 82 be bb 8e b1 bd
       -0.012580679 0.0410513 -0.25416645 -0.08669802
000360 dc fb 7d 3e 68 f8 8c be b1 9d c3 bd 1d aa 04 3e
       0.24803108 -0.2753327 -0.095515616 0.12955518
000370 56 40 c2 bd a9 7c 42 3e 19 fe ab bc fa eb a5 bd
       -0.09484927 0.18992867 -0.020995187 -0.081016496
000380 5c aa 47 bd f6 1a d4 3d e1 95 ce bd e4 e5 79 be
       -0.04874645 0.10356705 -0.10087181 -0.24404103
000390 0d 1b ff 3d de eb 03 3e 92 28 09 3e 04 1d 87 be
       0.124563314 0.12882945 0.13394383 -0.26389325
0003a0 8f 0c e6 bd db f8 3a 3d 59 e6 0c bd 32 09 77 3c
       -0.11232864 0.045647483 -0.034399364 0.015077876
0003b0 59 da 36 be 28 9f 1f be ec d1 b6 3b 5b 96 af bd
       -0.1785673 -0.15588057 0.005579224 -0.085736
0003c0 28 c1 06 be dc 60 7f be 24 28 04 be dc f8 75 bd
       -0.13159621 -0.24939293 -0.12905937 -0.060051784
0003d0 54 4d 21 3c 76 0b 8f 3c 97 25 9b bd 69 4c d5 bd
       0.009845097 0.01746152 -0.07575529 -0.10414965
0003e0 37 f4 19 be 7b ac 16 be ff 1b d3 bd 56 0c 33 be
       -0.15034567 -0.14714234 -0.10308074 -0.17485175
0003f0 1d b8 02 3e d8 82 31 be bc 08 e9 bd ee 60 18 3e
       0.12765546 -0.17335069 -0.11378619 0.14880726

encoder.net.5.bias f4 [32]
000000 af 54 4c bd 5d 3d 13 3d 3e 2a 1d 3d c7 9a 3f 3d
       -0.049885448 0.035947192 0.038370363 0.046778467
000010 6e 91 91 3d 8e e4 11 bd 83 21 43 bd 3c 8c 43 bd
       0.07107817 -0.035618357 -0.04763938 -0.04774116
000020 6d c4 64 bd 8a de 2e bd c2 2b 2e bd 55 71 16 3d
       -0.05585139 -0.0426927 -0.0425222 0.036729176
000030 75 18 38 bd e1 e6 8b 3d ec c9 4e bd ac 07 85 3c
       -0.0449452 0.06831146 -0.050485536 0.01623901
000040 d2 f2 37 bd 11 8f bd 3d 90 c6 37 bd 48 d9 5d bd
       -0.044909306 0.092558034 -0.0448671 -0.054162294
000050 20 7a 34 3d 62 75 42 bd 53 d4 12 bd 64 1a 51 3c
       0.04406178 -0.047475226 -0.03584702 0.01276264
000060 40 a6 1c bd 41 24 73 3d 77 91 44 bd ff 0d 52 3d
       -0.038244486 0.059360746 -0.04799029 0.05128288
000070 b5 83 3d 3d 0d 4b 39 bd 95 25 2f bd 9c 4e 1a bd
       0.046268184 -0.04523759 -0.04276045 -0.037672624

predictor.net.1.weight f4 [32, 32]
000000 f6 e2 36 3e 14 06 12 be 3b 38 ab bc c2 c3 54 be
       0.17860016 -0.14260131 -0.020900836 -0.207778
000010 e6 cc 72 3e fe d2 20 3e bb bf 2a bd 67 34 82 bc
       0.23710975 0.15705487 -0.041686755 -0.015894128
000020 fc c8 82 3d c5 6b 91 3e ce e9 c6 3c f9 0f 86 bd
       0.06385991 0.28402534 0.024281409 -0.06546015
000030 9c 76 71 be e7 03 9e 3e 13 5a 25 3e e6 cb 9a be
       -0.23580402 0.30862352 0.16147642 -0.30233687
000040 30 fc 88 3e d2 4f 1d bd 6f 45 17 3e ef 95 54 bd
       0.26754904 -0.0384062 0.1477258 -0.0519008
000050 e9 61 ca be 6f 19 f7 3d 7c b8 9b 3d 21 0e 87 be
       -0.39527825 0.12065398 0.07603547 -0.26377967
000060 3f 93 59 3e fc 7f f6 bd 77 96 28 3e 09 a3 69 be
       0.21247576 -0.1203613 0.16463648 -0.22816099
000070 00 e2 57 bd 13 a3 c6 bd 6b 7e 9d 3d b4 74 87 3e
       -0.052705765 -0.09699073 0.07690128 0.26456225
000080 33 57 90 3c fe 1b 4b 3d 5d 5d bc bb e8 ee c4 3e
       0.017619705 0.049587242 -0.0057484345 0.3846352
000090 88 4b 90 3e cb 96 e6 bd 4e 29 36 bd 3c 0a 54 bc
       0.28182626 -0.1125923 -0.044472985 -0.012941893
0000a0 b0 74 de 3d f6 c3 85 bd 16 c2 92 bd ab 78 18 3e
       0.108621 -0.06531517 -0.07165925 0.14889781
0000b0 ec 7a 8f bd 1b 16 b7 3e 8a 83 58 3e 0d 85 bb be
       -0.07005867 0.35759053 0.21143928 -0.36624947
0000c0 08 aa b4 bd 3d 48 08 be 49 25 32 be 41 48 c8 3d
       -0.088214934 -0.13308807 -0.17397036 0.09779406
0000d0 a9 dd 08 3d f5 23 2f 3d 40 84 01 be cc 36 03 be
       0.033414517 0.0427589 -0.12648106 -0.12813872
0000e0 72 72 1b be 0e 5a 24 3e 82 8f 01 be 49 50 50 be
       -0.15180376 0.16049978 -0.126524 -0.20343126
0000f0 3a 23 19 3e fb 66 86 3d 36 19 37 bd 19 a2 8e bd
       0.14954844 0.06562611 -0.044701777 -0.069645114
000100 43 7b d0 3d 31 52 17 be ed b8 50 3e 35 48 01 3d
       0.1017976 -0.14777447 0.20383044 0.031563003
000110 cb 4b 89 bd ca 94 9f 3d 4b c9 4b 3e 93 99 bf bb
       -0.067039095 0.07792051 0.19901006 -0.005847165
000120 f1 00 fb bd ee 9a 11 3e 11 5c 83 3d 97 0c 1d 3d
       -0.12256039 0.14219257 0.06414045 0.038342085
000130 ae 1c 4f bd 6d db 5f be a9 3a 1b 3e ab 83 cc 3b
       -0.05056446 -0.21861048 0.15159096 0.006241282
000140 5c 13 ef 3c 80 fb db 3d f4 b6 b1 3e 91 fa b5 3e
       0.029184036 0.10741329 0.34709895 0.3554273
000150 6d 80 b2 3e fd 13 17 be e4 8f bc bd 6b cd ca bc
       0.34863606 -0.14753719 -0.092071325 -0.024756154
000160 a2 89 63 3d 6e 77 a1 bd 0a 57 9d be 1e eb c4 bd
       0.05555118 -0.078841075 -0.30730468 -0.096151575
000170 40 24 ee be 6d 8b e2 3c f0 f4 d0 3d 5a 0e 0b 3e
       -0.46512032 0.027654374 0.10202968 0.13579693
000180 9f e2 76 3e a2 b9 85 3c f9 42 1f bd 67 ef 2a 3e
       0.24109887 0.016323868 -0.03888223 0.16692887
000190 4e a5 b2 bd 48 0e 9e be dc 21 88 bc c3 e0 be 3d
       -0.087229356 -0.3087027 -0.016617708 0.09320214
0001a0 42 eb 9d 3e 85 fc 9b be fd 65 b6 3e 39 42 46 3e
       0.3084355 -0.30466095 0.35624686 0.193612
0001b0 46 c4 cd 3e 7d 78 52 be 45 42 e3 3d 55 eb 04 be
       0.40188807 -0.20553775 0.11096624 -0.12980397
0001c0 bd 7f aa 3d e8 f1 5e be 09 3d f6 3d 88 44 3f 3e
       0.083251454 -0.21771967 0.1202336 0.18678486
0001d0 23 47 07 be 2e ba 58 3e f6 86 b0 bd 6f 45 a0 3e
       -0.1321073 0.21164772 -0.08619492 0.31302974
0001e0 a7 47 29 be 5c f0 e9 bd 1f 05 d7 3b 35 89 01 be
       -0.1653124 -0.11422798 0.00656189 -0.12649997
0001f0 95 c5 ea bd 31 73 84 3e 8f cc ef 3d e8 ff 86 bd
       -0.11463467 0.25869134 0.11708938 -0.06591779
000200 3a a6 a2 3d 3a 8f eb bd ba c7 21 3e 6f a7 2e bc
       0.079418615 -0.11501928 0.15798846 -0.0106600365
000210 a8 74 19 3d 98 ab 8b bd 6a 16 48 3e 09 da aa 3d
       0.037464768 -0.06819838 0.195398 0.08342368
000220 84 f1 69 3d f1 fd 98 3e 06 38 3c be 24 ca c0 bc
       0.057115093 0.29881242 -0.18380746 -0.023533888
000230 13 e8 8c bc f3 17 29 3e 5f bd 69 3e cc 9f 5a 3c
       -0.017200505 0.16513042 0.22826146 0.013343763
000240 c9 63 bb bc c1 12 82 bd 98 f0 29 3e aa 3c 19 3e
       -0.02287473 -0.06351233 0.16595685 0.14964548
000250 d0 2e e9 bd 68 23 23 3e b7 a5 94 bd 48 71 37 be
       -0.11385882 0.15931475 -0.0725817 -0.17914307
000260 9a bd a0 3d 7d 60 64 be f6 ea aa bb 11 b0 e6 bd
       0.07848664 -0.22302432 -0.005215998 -0.11264051
000270 ef ee 54 be 4d 85 b3 3d 64 ad ed 3e e8 47 01 3d
       -0.20794271 0.087656595 0.4642135 0.031562716
000280 7a 27 c6 bd 6f 48 6a be 05 b9 50 bd b2 89 89 3d
       -0.09675498 -0.22879194 -0.0509577 0.067157164
000290 1b b5 04 be e6 90 27 3d 9e a9 89 bd a5 bb 22 be
       -0.12959711 0.04090967 -0.06721805 -0.15891893
0002a0 95 fe 8b bd 04 9f 42 3e 23 05 ff bd 52 0f 03 3e
       -0.06835667 0.19005972 -0.124521516 0.12798813
0002b0 ff 13 63 bd 7f d6 7a 3d 81 20 62 3d 60 78 18 3c
       -0.05543899 0.061239716 0.05520678 0.009306043
0002c0 64 4d cf 3b b0 42 7c bd 96 23 8c bd 5a ea 77 bd
       0.0063263644 -0.061587036 -0.06842725 -0.06052623
0002d0 03 1b 68 be f1 36 63 3e 1e 1e 29 be 4f b8 9a be
       -0.22666554 0.22188927 -0.16515395 -0.3021874
0002e0 45 e8 9d bd 10 a8 85 3e 6a 2c 1d 3e 34 f9 27 be
       -0.077103175 0.26104784 0.15348974 -0.16403657
0002f0 cb 72 03 3e 22 dc 90 be f7 de 5b be 80 ae de bd
       0.12836759 -0.28292948 -0.21471773 -0.10873127
000300 e4 bd e7 3c 4f 85 cf bd 4e 6d 08 3e 3a ed 96 b9
       0.02828879 -0.101328485 0.13322946 -0.00028786977
000310 22 da 87 3e b6 08 f9 bd 1f be 66 3d fe 3b 5c 3e
       0.2653361 -0.121598646 0.056333657 0.2150726
000320 22 b6 79 3e b0 74 1d 3e 2d 73 0f 3e c2 7e 8d 3e
       0.24385884 0.15376544 0.1400878 0.2763577
000330 06 2d 69 3b 8b 0e 3e bd 99 64 94 bd 6c 56 c3 3c
       0.0035579815 -0.046400588 -0.0724575 0.02384492
000340 9b be 9f bb 3f 23 a3 be 8a d7 70 3e af a3 4d 3e
       -0.004875017 -0.31862828 0.23519722 0.20081972
000350 17 23 46 3d 8b 46 8e be ab c6 e9 3d 88 10 2a 3e
       0.048373308 -0.27788195 0.11414846 0.16607869
000360 aa bf 1f 3c f3 89 c0 be aa 96 c3 bb 84 60 b4 bd
       0.009750286 -0.37605247 -0.0059688883 -0.088074714
000370 bb a6 47 bc 3b d6 06 3d 47 e5 3d 3c ee 51 2a 3e
       -0.012185748 0.03291915 0.0115903085 0.16632816
000380 90 64 d3 be 53 30 2f 3e e3 63 63 3d 61 d5 fe 3c
       -0.4128766 0.17108278 0.05551518 0.031107606
000390 c2 91 df bd 71 e7 4c be 12 a3 a3 be 9f 4a 1a 3e
       -0.10916473 -0.20010163 -0.3196035 0.15067528
0003a0 24 e4 16 3e 08 fa 10 be fa 37 d0 bd f4 d5 79 bc
       0.14735466 -0.1415788 -0.10166927 -0.015248764
0003b0 f5 14 62 bd 4f 98 8b 3e de 5c 90 3d 6b 88 6f 3e
       -0.055195767 0.2726464 0.07048963 0.23391883
0003c0 f0 5f 4f 3d 3a 7f 66 bd 4c 02 51 3d 64 9c 55 be
       0.050628603 -0.056273676 0.05102758 -0.2086044
0003d0 8e 2b 13 be 52 4d aa bc 4f 6c d7 3d 5c 35 37 3e
       -0.14372084 -0.020788822 0.10518705 0.17891449
0003e0 65 87 3d 3d 6d f3 d2 3d 13 ad 90 3d b9 f6 8a 3e
       0.0462717 0.10300336 0.07064261 0.2714136
0003f0 e8 e7 f8 bd 69 51 66 3e 9a fd 24 3d c3 92 ae 3e
       -0.121536076 0.22491993 0.040280916 0.34096345

predictor.net.1.bias f4 [32]
000000 cf 8e bb bd 05 94 bd 3d 9b 62 cd bd 8d 59 da bd
       -0.09158098 0.09256748 -0.10028573 -0.10661612
000010 68 93 af 3e 67 bf db bd 13 c4 08 3e 20 c1 c9 bd
       0.3429215 -0.107298665 0.13356046 -0.09851289
000020 37 fa c1 3d bd c5 ff 3d a3 7a e9 bd dc 44 ca 3d
       0.09471553 0.124888875 -0.11400344 0.09876415
000030 1f ac c5 bd de f0 f2 3d 80 4e ed 3d 59 a7 71 be
       -0.0965197 0.11862348 0.11587238 -0.23598994
000040 50 8b b2 bd ea 04 18 be 22 23 e2 bd b7 3c d2 3d
       -0.08717978 -0.14845625 -0.11041857 0.10265487
000050 c7 50 b0 bd 01 fc c8 bd 15 3c c5 bd 10 3c 14 3e
       -0.08609157 -0.09813691 -0.096306 0.14476037
000060 8f 54 ca 3d f5 11 ee bd 68 88 e7 bd 7a be c6 bd
       0.098794095 -0.11624519 -0.11305314 -0.09704299
000070 d8 aa cd bd a4 02 bd 3d 29 1c 8b 3d 8c 2a c8 bd
       -0.100423515 0.09229019 0.067924805 -0.0977374

predictor.net.3.weight f4 [1, 32]
000000 08 c9 f9 be a8 08 13 3e 02 56 25 bf 99 97 a7 be
       -0.48786187 0.14358771 -0.6458436 -0.32732847
000010 5e e3 12 3e e3 c6 d6 be 53 08 b6 3d 37 02 84 bd
       0.14344546 -0.41948614 0.088883065 -0.06445735
000020 be 6b 47 3e a9 c7 35 3e de c9 bd be 5f 0e bf 3e
       0.19474694 0.17751946 -0.37068075 0.37315652
000030 28 28 94 be a9 0f d8 3c 82 f4 17 3d 00 8c cd bd
       -0.28936887 0.026374655 0.037098415 -0.100364685
000040 d0 57 dd bd 51 01 19 be c0 fd 2e be fc e2 88 3e
       -0.108077645 -0.14941908 -0.17088985 0.26735675
000050 94 f2 00 bd f5 5e 88 be 9d 28 b2 be 27 36 3f 3e
       -0.03148134 -0.26634946 -0.3479661 0.18673001
000060 28 b8 b3 3e 34 b4 a7 be 0b 46 a4 bd 11 05 a9 be
       0.35101438 -0.32754672 -0.08021172 -0.33011678
000070 eb 6c a6 be dc 7e 06 3e f4 87 09 3d 2f 24 3f be
       -0.32504973 0.1313433 0.03357692 -0.18666147

net.0.weight f4 [60, 35]
000000 1a 4c 42 be 6d f2 6b bd 69 c7 66 3a 24 05 60 3d
       -0.18974343 -0.057604242 0.0008803518 0.054692402
000010 0f 88 c4 3d 92 01 10 be 32 05 95 3e 16 fc 58 3d
       0.095962636 -0.14063099 0.29105526 0.052974783
000020 b7 37 e5 bd ed dc 00 bd 9a 92 61 bd e0 06 11 be
       -0.111922674 -0.03146069 -0.05507145 -0.14162779
000030 03 a5 cc bc 38 fc 3e be 2e de 4a bd 96 02 84 3e
       -0.024981027 -0.18650901 -0.049528293 0.25783223
000040 71 ad 02 3e b3 c8 19 be 8d 1a 0d 3e 2d a4 be 3d
       0.12761475 -0.15017967 0.1377966 0.09308658
000050 76 32 88 3e c3 aa a2 bc 95 76 15 3c a3 83 c6 3c
       0.26601 -0.019856816 0.00912251 0.024232691
000060 3e 6a 19 3c 2a 84 4a bd c3 9b 0d be 59 5c b9 3b
       0.009363709 -0.049442448 -0.1382895 0.0056567607
000070 74 44 87 bc a9 0c b1 bc 41 5f 9c be 70 a1 9d bd
       -0.016512133 -0.021612482 -0.30541423 -0.076968074
000080 67 8d ee bc 2c 64 14 3d 00 05 04 3e 4f 5b 15 be
       -0.02912016 0.036228344 0.12892532 -0.14585613
000090 f8 d7 aa bd 25 2e 95 3c 72 4e 8e 3c cf b1 b5 3b
       -0.08341974 0.01821048 0.01737139 0.005544878
0000a0 2d 99 a9 3d 13 40 6b 3d a7 43 29 3e 04 1c 2b be
       0.08281169 0.057434153 0.16529714 -0.16709906
0000b0 05 83 b0 3c 42 39 01 3e 28 28 7f be d8 4a 2b 3d
       0.02154685 0.12619498 -0.24917662 0.041819423
0000c0 85 f2 ab bd de 44 15 3d ef 50 17 3e 5e e5 93 be
       -0.08395866 0.03644263 0.14776967 -0.2888593
0000d0 a9 c0 31 be b7 69 10 3e 6a b6 0a 3e da c8 54 be
       -0.1735865 0.14102827 0.13546148 -0.20779744
0000e0 20 e4 e0 bc fe 71 fb bc dc 13 97 3d 36 bc 28 be
       -0.027452528 -0.030694004 0.07376835 -0.16478047
0000f0 a8 67 03 3f 72 d5 32 be c2 59 b4 3d f9 19 9a 3d
       0.5133004 -0.17464235 0.088061824 0.07524485
000100 82 99 79 3e 23 61 fc 3d 4c 98 06 be 5b 72 15 3d
       0.24374965 0.12323215 -0.13144034 0.03648601
000110 34 e6 99 bd b6 67 12 be 3d 1e c5 bd d2 32 2b 3d
       -0.07514611 -0.14297375 -0.09624908 0.041796513
000120 fb ce e6 3d 32 7d b6 3d c7 5f da 3c 4b 5a 3b 3d
       0.11269947 0.08910598 0.026656998 0.045740407
000130 f5 85 47 be aa 65 8a 3d c8 ee 20 be 98 fa 01 3e
       -0.19484694 0.06757672 -0.15716088 0.1269325
000140 34 b9 9e 3b fd da 91 bc ff 59 25 bd 3b be a3 be
       0.0048438553 -0.017804617 -0.04036903 -0.31981072
000150 ca cd a0 bd 46 a5 fb bd 12 07 da 3d 10 fd 0f bd
       -0.07851751 -0.12287383 0.1064588 -0.03515345
000160 ac f4 25 3e 85 cf 80 3e cc ef 87 3e ac 50 0d bd
       0.16206616 0.25158325 0.26550138 -0.034500763
000170 1c 05 57 bd a7 4c 43 3b ab 76 ad bd ef e2 8a 3d
       -0.052495107 0.0029800327 -0.084699 0.067815654
000180 fc 84 8c be c0 2f 71 be bb 2a 48 3e 73 dd f6 3d
       -0.2744521 -0.23553371 0.1954755 0.12053957
000190 14 77 d2 3c c7 fa ba bd b9 06 ff 3c 23 c1 1f 3e
       0.025691546 -0.09129863 0.031131135 0.1560102
0001a0 63 4b af 3d 32 0a 2c be 5b 0b cb bd 9c 31 01 3e
       0.08559301 -0.16800764 -0.09914275 0.1261658
0001b0 50 22 a5 be d4 75 15 3c 84 d2 58 3e b2 90 f7 bd
       -0.3225274 0.009122331 0.21174055 -0.12088145
0001c0 6b 63 03 3d 37 3c 7e 3e c2 9b c9 bc e8 13 02 3d
       0.032077234 0.24827658 -0.024610404 0.031757265
0001d0 3c ff 98 bc d2 30 ee 3d 07 2a fc 3c d8 dd 17 be
       -0.018676393 0.116304055 0.030781759 -0.1483072
0001e0 7c 8c 83 bc 6e b2 9c be 0a e1 e0 3e 20 09 20 bd
       -0.0160582 -0.3060488 0.4392169 -0.039071202
0001f0 03 d7 b7 3a 71 17 4e be b7 bf 7d be be 29 c9 be
       0.001402587 -0.2012613 -0.24780165 -0.3928966
000200 2a ad 34 bd 6a 92 cc 3d 72 7d 3f be 59 4d d1 bd
       -0.044110455 0.09988864 -0.18700197 -0.10219831
000210 a8 ab 53 bd a7 73 d8 3d 86 97 25 3e b3 c0 7f 3d
       -0.051677376 0.10568934 0.16171083 0.06243963
000220 2c d3 8c bc 75 39 dc bc 8b f8 c5 3c 41 06 01 3e
       -0.017190538 -0.026882866 0.024166366 0.12600042
000230 9e 0d 5b be e8 8c eb 3d 08 77 37 be 90 29 65 be
       -0.21391913 0.11501485 -0.179165 -0.22379136
000240 ba d2 48 bd 50 ec 12 be d1 d2 99 bc d0 6a c5 bc
       -0.04902909 -0.14347959 -0.018777283 -0.024098784
000250 94 db 2b bd 95 f0 88 bd 91 1d dd 3c 28 d1 31 be
       -0.041957453 -0.066865124 0.026991637 -0.17364943
000260 94 0b 42 3d b7 35 1e be 91 14 74 bd 4d 39 1a 3e
       0.047374323 -0.15450178 -0.059589926 0.15060921
000270 49 1f ad 3d 5e c8 fd bd 93 fc ed 3d 45 19 e6 3d
       0.08453233 -0.12391733 0.1162044 0.112352885
000280 13 72 56 bd 5f 92 94 3c 89 e7 ea bc b5 f8 30 b9
       -0.052354883 0.018136201 -0.028674858 -0.00016877319
000290 8e bf 53 3d 10 13 27 3e b7 46 d9 3b 32 14 b0 3d
       0.051696353 0.16315866 0.0066307443 0.08597602
0002a0 2a 92 b9 3d 6e ee ac bd ff c5 26 3d e8 62 bd 3d
       0.09061082 -0.08443914 0.040716168 0.092473805
0002b0 17 7a fb bd 89 64 2b 3e 4a 6b d1 bd 4d e1 88 bd
       -0.12279146 0.1673757 -0.10225542 -0.06683598
0002c0 6b e2 9e bd 84 e3 a2 3d 86 e5 00 bd c6 dc 44 be
       -0.077580296 0.079535514 -0.03146889 -0.19224843
0002d0 e5 2d 91 be e3 74 12 bd 35 f1 9b bb 90 82 75 bc
       -0.28355327 -0.035756003 -0.0047589787 -0.014984742
0002e0 11 80 84 3e 20 ba 4d 3e bb 33 e3 3b 98 5a 82 bd
       0.25878957 0.20090532 0.006933657 -0.06364936
0002f0 da fa 3d be 86 74 10 3e 88 a9 4b 3c c6 a4 49 3e
       -0.18552724 0.1410695 0.012430556 0.19691762
000300 81 0f c7 3d 0a 3b 32 3d 9e e7 ae 3e 1a 86 85 3e
       0.09719754 0.043513335 0.34161085 0.26078874
000310 aa f9 35 3d 47 04 f8 bd 7f 1a 42 3c 3f 63 5e bd
       0.04442755 -0.12110191 0.0118471375 -0.054293867
000320 88 25 f6 bd 01 72 3e be 93 53 6d bd 5d a1 28 3c
       -0.12018877 -0.18598177 -0.05794103 0.010292378
000330 13 44 67 bd f4 e0 56 3e 60 a8 21 3e 0c 0a cc 3d
       -0.056461405 0.2098425 0.15786886 0.09962854
000340 a0 8d 14 be 44 ca 14 be 07 bb a5 bb a7 0e 85 bd
       -0.1450715 -0.14530283 -0.005057696 -0.06496935
000350 c4 9a bb bd 08 0c 23 be f3 3f 12 be 7f 38 70 3d
       -0.091603786 -0.15922558 -0.14282207 0.05864763
000360 e4 1e c6 bb b7 99 df bd 0a 32 2f 3e a0 c6 2b 3e
       -0.006046163 -0.10917991 0.17108932 0.16774988
000370 b1 16 13 bd b3 ca 41 3d ba 09 87 3c 68 a4 00 be
       -0.035910312 0.04731245 0.01648413 -0.12562716
000380 a7 84 91 3d 83 f4 39 bd 5a d1 82 be cd 9e 8c bd
       0.071053796 -0.0453992 -0.25550348 -0.06866226
000390 6a 35 37 bd 0b 8c fa bc fb 8b 88 be a9 34 a7 bd
       -0.044728674 -0.030584356 -0.26669297 -0.08164341
0003a0 54 15 16 3e 05 6f 8d bc 13 a4 0c be e3 ca c3 bd
       0.14656574 -0.017264852 -0.13734464 -0.09560182
0003b0 cb 4f 13 be 20 9a 1b be 37 98 7a 3e de 2e 41 bd
       -0.14385907 -0.15195513 0.24472128 -0.047163837
0003c0 e4 6d 1e 3b 06 f2 7b 3e b4 30 7b be f9 ea f3 3d
       0.0024174387 0.24604043 -0.24530298 0.11910052
0003d0 3c 77 05 3d 13 05 4f 3b 60 ae 28 3e e0 0b b4 3d
       0.032584414 0.0031588718 0.16472769 0.087913275
0003e0 55 04 d6 3d 06 a4 44 bd cf 9c 65 3c 45 97 56 be
       0.10450045 -0.048007987 0.014014437 -0.20956142
0003f0 5c e8 80 3d 0d 8a 90 be 67 bc d8 3d bd 69 1b be
       0.06294319 -0.28230324 0.1058281 -0.15177055

net.0.bias f4 [60]
000000 ad df a2 bd 08 e7 cf bd fa 7b 48 3e 9c 71 82 3d
       -0.07952819 -0.101514876 0.19578543 0.063693255
000010 2f 1f a1 bd 7c 8f cf bd 13 0b 30 3e cb ab 68 bc
       -0.07867276 -0.10134789 0.17191724 -0.014201115
000020 e1 53 a2 3b 36 39 ce 3d 0b 37 b3 bd 9a 16 a8 bd
       0.004953847 0.10069506 -0.08750733 -0.08207436
000030 de 9d 07 3e a6 47 1b be 90 70 c4 bd 5f f8 0c 3e
       0.13243815 -0.1516405 -0.09591782 0.13766621
000040 82 e0 0a 3e 5a bd 35 3e ed f4 64 3d 89 f1 07 3e
       0.13562205 0.17748013 0.055897642 0.13275732
000050 d3 ba 96 3c d0 a9 11 3d 71 63 74 bd 80 c1 36 bd
       0.018399632 0.035562336 -0.059665147 -0.04461813
000060 0d cb 23 3e 4b a5 12 3d 1a fd 12 be 1d ea 51 bc
       0.15995426 0.035802167 -0.14354363 -0.012812165
000070 b8 b0 a1 bc a0 86 f3 bd b3 d9 96 3d 53 64 18 3c
       -0.019737586 -0.11890912 0.073657416 0.009301263
000080 0e 9b fb bd c3 86 04 3e 11 de b7 bd d1 47 41 3d
       -0.12285434 0.12942033 -0.08977903 0.04718763
000090 54 9e 46 3d 3f 1c a6 3d 5d d6 e4 3d b5 36 88 bc
       0.048490837 0.08110856 0.11173699 -0.016627649
0000a0 84 61 93 bd 85 84 05 3e 31 10 8b bd fc f9 62 bd
       -0.07196334 0.13038833 -0.06790198 -0.055414185
0000b0 1a 30 03 3e c6 8d 97 bb 97 44 1f bd 4c 4c 6a 3d
       0.12811318 -0.004625055 -0.03888377 0.05720167
0000c0 f7 c3 d0 3d 2c 72 c7 3d b2 86 d6 3d 65 ca 86 3d
       0.10193627 0.097385734 0.1047491 0.065815724
0000d0 92 2d 16 3e 50 ec ce bc 04 ac c7 3b b4 5a 04 3e
       0.14665821 -0.025259167 0.006093504 0.12925225
0000e0 a0 4e 89 3d bb a1 df 3d 27 81 ed 3c 27 73 21 3e
       0.0670445 0.109195195 0.028992249 0.15766583

net.2.weight f4 [60, 60]
000000 1c 03 4d be 79 e3 af bd e0 c2 f0 3a 0a 0e 17 3d
       -0.20020717 -0.08588309 0.0018368624 0.036878623
000010 74 3d 30 bd 3b 56 49 bd 12 8f 05 bb 3b 2d 88 bd
       -0.043027356 -0.0491545 -0.0020379466 -0.06649252
000020 59 3e 5b be fe 2b 9c bd c3 43 58 3d 2a 41 89 bc
       -0.21410502 -0.07625578 0.052798998 -0.016754705
000030 54 6b bf bb 76 af f2 bd f9 fb cf bc d0 77 45 be
       -0.005841652 -0.11849873 -0.025388705 -0.19283986
000040 d4 10 a7 3d 21 87 dc 3b 64 b6 63 3e e2 e2 96 bd
       0.081575066 0.006729976 0.22237545 -0.07367493
000050 b0 c6 e1 bc a1 c2 fc bb 23 d9 69 bd cc b2 bc 3b
       -0.027560562 -0.0077136313 -0.057091843 0.005758619
000060 61 df 05 be c1 ec be bc f8 40 9d 3c ef fe a0 bd
       -0.13073494 -0.023306252 0.019196019 -0.07861125
000070 b9 c1 4d bd 60 ea 9c 3c 29 a9 b4 3e ec eb 8e 3c
       -0.050233576 0.019154727 0.3528531 0.01744648
000080 28 55 42 3e b6 1b b4 3d 2d 59 0b be 57 0b 71 bc
       0.18977797 0.08794348 -0.13608237 -0.014712176
000090 4c ed ae 3d 24 86 84 bd 88 54 76 3d 7d 9a b7 bd
       0.085413545 -0.06470898 0.06013921 -0.08965013
0000a0 f3 21 aa bc 6b cd b2 bd b2 cd 98 3d ca cf 03 3e
       -0.020768141 -0.087305866 0.07461108 0.12872234
0000b0 c3 72 47 bd 7d e9 80 be f9 06 dd bd bd 40 9d 3d
       -0.04869343 -0.25178137 -0.107923456 0.076783635
0000c0 ac 36 83 bd bd d5 5c bc ca 6e 04 be a0 74 14 be
       -0.06406912 -0.013478694 -0.12932888 -0.14497614
0000d0 93 bb 1d bd 99 3e 4d 3e f1 3a 2c 3c 8d ea e7 3d
       -0.038508963 0.2004341 0.0105121 0.11324034
0000e0 2f 63 5a be d7 44 04 3d c3 04 bc 3b 38 6a be ba
       -0.21326898 0.032292213 0.0057378723 -0.0014527505
0000f0 22 13 26 be 66 28 10 be 7a 68 01 bc b3 cb 5a be
       -0.16218236 -0.14077911 -0.007898444 -0.21366768
000100 7a 9f 72 3a 17 af 25 3e 34 f0 98 3b 1a f4 04 3d
       0.0009255331 0.16180073 0.0046673063 0.032459356
000110 65 78 d7 bc 14 83 73 3d b5 db 9b 3e e7 bf 80 bd
       -0.026302526 0.059451178 0.3044106 -0.062866025
000120 68 fc 73 3d 58 c7 d9 ba 64 a4 75 bd 0c e5 37 3e
       0.059566885 -0.0016615195 -0.05997123 0.17958468
000130 bb 62 6e 3d e5 41 c6 bd e3 43 8a 3d e7 f5 61 3b
       0.058199625 -0.09680537 0.067512296 0.0034478845
000140 59 80 e7 bd a1 a0 f1 bd b7 fd 04 3e b3 86 e8 3c
       -0.11303777 -0.11798216 0.1298741 0.028384542
000150 51 e0 10 be 73 55 75 3d 4f 0a d1 bd 7f b2 14 bc
       -0.1414807 0.059895944 -0.10207044 -0.00907576
000160 2f ba c4 3d fe c8 59 3c 8d 88 b7 3d 77 d2 90 3e
       0.09605824 0.013292549 0.08961592 0.28285572
000170 db d0 05 be 52 b5 a6 bd ed be 5c 3d e6 54 bb 3d
       -0.13067953 -0.08140053 0.05389302 0.091470525
000180 12 63 b7 3d 09 88 8c 3d d8 47 1e 3e c5 f8 b4 bc
       0.08954443 0.06861884 0.15457094 -0.022091279
000190 5f 9b 50 3b 58 9d 00 3e 77 0b d0 3d 81 81 d9 bd
       0.003183089 0.12560022 0.10158437 -0.10620404
0001a0 9a 51 bc bc 22 33 9d 3d 18 9c b1 bc dc d6 23 be
       -0.02298813 0.076757684 -0.021680877 -0.15999931
0001b0 7a fa 5c bc 1b d8 94 3c ac b7 6a be 39 d4 53 be
       -0.013487453 0.018169453 -0.22921628 -0.20686425
0001c0 4e 4f 16 be c5 c3 43 bd 3d 66 63 3d b5 50 06 3e
       -0.1467869 -0.047794122 0.055517424 0.13116725
0001d0 9d c2 9d 3c 2c da 20 bd 0e 53 ae 3d 1a 2e cb 3d
       0.019257838 -0.039270565 0.08511935 0.099209026
0001e0 60 de 25 be 15 7b e2 bd 7a f6 88 bd fa 4e 4e 3d
       -0.1619811 -0.11058632 -0.06687637 0.050368287
0001f0 ab ce 0d 3e 2f b1 c7 3d 51 fb 9b 3c fa 95 94 bd
       0.13848369 0.09750592 0.019040735 -0.07255168
000200 16 8d 08 be b3 91 c2 3d 59 5d 06 3e 34 36 d5 bd
       -0.1333507 0.09500446 0.13121547 -0.10410729
000210 62 db e6 bb 44 24 17 3e 3b bb 1b 3e ae 2c 71 bc
       -0.0070451954 0.14759928 0.15208142 -0.014720125
000220 37 3d 5a 3d a3 02 55 bc 0b 08 46 bd 0e c2 dc 3d
       0.053281035 -0.013001117 -0.048347514 0.107792005
000230 16 11 65 bd 3c 0d 05 ba fa f1 11 be e0 34 a7 bd
       -0.055924498 -0.00050755194 -0.14252463 -0.08164382
000240 41 7d 2b 3c b3 52 8c bd 5c c9 89 bd 03 fd a5 3e
       0.010466875 -0.06851711 -0.067278594 0.32419595
000250 88 55 a1 3d 01 d0 fa 3c 20 22 06 3e 60 27 15 bb
       0.07877642 0.030616762 0.13098955 -0.0022759065
000260 03 59 8c bd f0 d0 c7 bc 8a 7a bc be 50 26 2f 3e
       -0.06852915 -0.024391621 -0.3681224 0.17104459
000270 cb 1a 18 bd e0 85 d4 bc df f5 40 bd 19 40 68 be
       -0.037134927 -0.025942743 -0.04710948 -0.22680701
000280 37 a2 cd 3c 16 46 98 3d 94 2c 51 3e f1 37 be 3d
       0.025101764 0.07435243 0.20427161 0.09288014
000290 a8 d3 08 be c3 82 84 bd e4 04 69 bd b6 3b 2a 3e
       -0.1336199 -0.06470253 -0.05688943 0.1662434
0002a0 64 7f 96 3d 5b 1f 99 bd 5c 06 3f 3c 77 1f 77 be
       0.073485166 -0.07476684 0.011659231 -0.24133097
0002b0 2d 56 da bc 8c 37 f8 3d 17 ec 9c ba 11 e6 26 bd
       -0.02665242 0.1211997 -0.0011972216 -0.040746752
0002c0 1a 45 bf 3d 34 d8 06 3e 97 75 ab 3c f4 c4 c8 3d
       0.09339352 0.13168412 0.020930095 0.09803191
0002d0 f1 ea 99 3d 87 63 6c bb 0b d5 63 3d fb ce 23 3e
       0.07515515 -0.0036070065 0.055623095 0.15996926
0002e0 aa f4 46 3e 8d 5c 03 be 77 aa a4 bd 5b 67 4b be
       0.1942927 -0.12828274 -0.08040326 -0.19863646
0002f0 28 35 57 3e 01 60 42 bc 44 fc 85 3d df 9d 85 3e
       0.21016371 -0.011863709 0.065422565 0.2609701
000300 ff df 0a 3e d7 b0 06 3e 59 cb 7f 3d f8 17 8f bd
       0.1356201 0.13153397 0.062449787 -0.069869936
000310 ea 41 7c bc e8 7c 81 bd e8 3c df bc 18 b3 91 bb
       -0.0153965745 -0.06322652 -0.027250722 -0.0044463985
000320 aa dd 45 3d 73 8a 12 3e 63 2c ff bc 77 aa 7a bd
       0.0483071 0.14310627 -0.031149095 -0.061197724
000330 fe ec cb 3d 2a 7f 48 3d 2f d5 e0 3b 90 45 51 be
       0.09957312 0.048949398 0.006861351 -0.20436692
000340 d3 b2 96 bc b5 bb 52 bc 03 a0 84 bd 12 20 14 3b
       -0.018395817 -0.012862136 -0.06475832 0.0022602123
000350 17 71 44 3d 03 1b 91 bd d2 b6 24 be 5f 16 c8 bd
       0.047959413 -0.0708523 -0.16085365 -0.09769892
000360 6e 77 1a be dd 41 b8 3d 04 71 96 3b 63 3a 96 3d
       -0.15084621 0.089969374 0.004591109 0.07335355
000370 1c 79 1c be 40 d5 53 39 fe af b5 3b 99 23 ca 3d
       -0.15280575 0.0002020197 0.0055446615 0.09870071
000380 53 47 58 bc 42 a6 ab bd 5a e6 d0 3d e7 49 b2 3e
       -0.013200599 -0.083813205 0.10200186 0.34822008
000390 fb 3c 1e 3e 0b 71 78 bc 42 c3 24 3e d8 6b ed 3d
       0.1545295 -0.01516367 0.1609011 0.11592835
0003a0 38 1a b1 bc 23 a2 42 3e 33 61 06 be 37 de d4 bd
       -0.021618947 0.19007163 -0.13123016 -0.103939466
0003b0 1d 8e 03 3e 47 aa 06 3e b2 60 1d be cb 2b cf 3c
       0.1284718 0.13150893 -0.15368918 0.025289437
0003c0 e2 b6 40 3e fb 7d 16 bd 79 d8 18 3e b1 36 26 be
       0.18819764 -0.036741238 0.14926328 -0.162318
0003d0 d9 15 e3 3d d9 72 3a bd 78 f9 be bd 61 93 9e bd
       0.110881515 -0.045519684 -0.09324926 -0.07742954
0003e0 49 99 9b 3d 41 ce b7 bc 5b 9d e7 3d 3d 77 bd ba
       0.07597596 -0.022437217 0.1130931 -0.0014455091
0003f0 a7 2f 37 be 67 44 c4 3d 29 aa 17 3e 2b da b9 bd
       -0.17889272 0.09583359 0.14811005 -0.09074815
