results of reviewer/XJTU results/5-5/Experiment10/model.pth (torch, 59838 bytes, 14 tensors)

encoder.net.0.weight f4 [60, 17]
0.21491367 0.078445084 -0.11837921 -0.1625016 -0.041926797 0.020947445 -0.11632167 -0.05734422
0.16361506 -0.21254109 -0.06778936 0.17254752 0.0790624 0.1613763 0.1258346 0.035115525
0.035434354 0.20996436 0.061546255 0.059035707 0.095456116 0.021305064 -0.00080407027 -0.05629739
0.25543174 -0.08636095 -0.24901868 -0.24923493 0.113098 0.09659679 -0.2128389 0.15365341
-0.055330493 -0.074932344 0.013269045 0.083704896 -0.34337935 0.08432224 -0.0667039 -0.14150481
-0.30620018 -0.050118055 -0.10411904 0.157916 0.24867724 -0.20802112 0.24838811 0.041878358
-0.27541462 -0.23006462 -0.15218027 0.043223076 -0.16069941 -0.06502511 0.31452486 0.011910121
-0.070431456 -0.123123765 -0.3274546 0.2764383 -0.20081928 0.09226835 -0.050501727 -0.31942213
-0.06441201 0.13657722 -0.044047054 0.061228972 0.2793442 -0.13584648 -0.18691184 0.037054174
0.39915496 0.018639047 0.1297929 0.28432053 -0.020520773 -0.1413331 0.38368627 -0.22577932
-0.23755348 0.2231668 0.19720326 -0.21583903 -0.06287602 -0.1747941 0.055492766 -0.1447167
-0.18357378 -0.09067751 -0.06566844 0.15908343 -0.11069354 -0.09985363 0.006401896 0.025255738
0.080290414 -0.24165213 -0.15124197 -0.15778413 0.22682387 -0.043886952 0.011208085 -0.3269178
-0.21819827 -0.24244061 0.04310909 -0.029349737 0.04381454 0.13762033 -0.15670526 0.12497186
0.16156508 0.16449839 0.047873374 0.017512985 0.020617021 0.048397202 0.08404123 0.121944465
0.17454283 0.2578762 -0.06535182 0.17790236 0.04300644 -0.0033261073 0.012185951 0.09819548
0.043080177 -0.16162543 -0.084487155 -0.18092096 0.032413065 -0.08842948 -0.035810277 0.21430998
0.23762204 -0.0016393645 0.15508445 0.026298355 0.08394384 -0.29253644 0.09173661 0.06247875
-0.077413894 0.041961256 -0.18363069 0.1228196 0.15822858 -0.17761725 0.17727102 -0.07744687
-0.060683355 0.111619 0.056020025 0.055920023 0.13876659 -0.23337904 -0.038622435 0.010496511
0.1933487 0.09062279 0.17593782 -0.03822441 0.46753195 -0.10653798 0.07531442 0.20518354
-0.10219438 0.016410643 -0.0829983 -0.076040104 0.1565068 -0.16135652 -0.015946155 0.19880852
-0.05911934 -0.035657823 -0.06378362 0.029082993 -0.24446055 0.034818713 0.046267778 -0.18512294
-0.017425645 0.110842206 0.002535767 -0.07714598 -0.23100835 -0.046514325 -0.25077048 -0.36100414
-0.116623916 -0.018974721 -0.07779449 -0.17144363 0.39307952 -0.14182663 -0.2970754 0.17937464
0.10678581 0.0073729223 -0.27639595 -0.022390071 -0.09224766 0.15937899 -0.023588985 -0.08846097
0.28884625 0.041036464 0.10115365 -0.13936783 0.11889868 0.121744 0.15217495 0.15599559
-0.0012538792 -0.14147308 -0.10851697 -0.039879177 0.12486495 0.13403724 0.06103012 0.06660095
-0.07555064 -0.009220928 0.087108135 0.017915068 0.23125027 -0.009906958 0.012284435 0.2563381
0.20398088 0.028307317 0.1481459 -0.114428945 -0.09596131 0.11089411 -0.1003595 0.15771914
0.025833733 0.12096842 -0.04786704 -0.33881298 0.04605467 -0.10441747 -0.14926003 -0.13261515
-0.27024183 0.09703459 0.03643572 0.06252738 0.009668976 0.05599486 0.20483947 0.13720351
00000000: 5412 5c3e d1a7 a03d cd70 f2bd d266 26be
00000010: 6fbb 2bbd fa99 ab3c 0e3a eebd c6e1 6abd
00000020: b58a 273e 5fa4 59be 26d5 8abd 4cb0 303e
00000030: 78eb a13d d43f 253e c9da 003e 4cd5 0f3d
00000040: 9d23 113d e600 573e ed17 7c3d 6dcf 713d
00000050: 7f7e c33d f587 ae3c 3ec8 52ba 1898 66bd
00000060: f3c7 823e 02de b0bd c1fe 7ebe 7137 7fbe
00000070: ed9f e73d 8ad4 c53d 71f2 59be 5257 1d3e
00000080: 3aa2 62bd 2176 99bd 6966 593c 796d ab3d
00000090: 6bcf afbe 23b1 ac3d 0e9c 88bd a3e6 10be
000000a0: 45c6 9cbe 9748 4dbd 5d3c d5bd bbb4 213e
000000b0: 3fa5 7e3e 7d03 55be 7459 7e3e a488 2b3d
000000c0: 2503 8dbe 0f96 6bbe 25d5 1bbe ae0a 313d
000000d0: 638e 24be e32b 85bd 6709 a13e ab22 433c
000000e0: 5e3e 90bd 5028 fcbd 21a8 a7be 5289 8d3e
000000f0: 92a3 4dbe 30f7 bc3d e6da 4ebd 4c8b a3be
00000100: 72ea 83bd e6da 0b3e af6a 34bd 3bcb 7a3d
00000110: 3406 8f3e 571b 0bbe d165 3fbe 1ec6 173d
00000120: 0a5e cc3e eab0 983c 6ee8 043e 7692 913e
00000130: 2e1b a8bc a0b9 10be 8772 c43e b232 67be
00000140: 3841 73be d685 643e a7ef 493e e804 5dbe
00000150: 25c5 80bd 39fd 32be 624c 633d 9d30 14be
00000160: c4fa 3bbe 21b5 b9bd 2d7d 86bd c4e6 223e
00000170: 4bb3 e2bd 0f80 ccbd ffc6 d13b 1fe5 ce3c
00000180: 4d6f a43d a873 77be 2ddf 1abe 2a92 21be
00000190: 8444 683e cec2 33bd 1ea2 373c c561 a7be
000001a0: 5e6f 5fbe 5a42 78be 2893 303d dc6e f0bc
000001b0: e076 333d 58ec 0c3e 5877 20be 3ff1 ff3d
000001c0: 5171 253e 4472 283e df16 443d 6477 8f3c
000001d0: 07e5 a83c 253c 463d cf1d ac3d 05be f93d
000001e0: 5bbb 323e 5908 843e 2dd7 85bd 092c 363e
000001f0: 8527 303d d2fa 59bb 95a7 473c b61a c93d
00000200: d774 303d 2381 25be 9a07 adbd 5843 39be
00000210: 90c3 043d 841a b5bd ccad 12bd 1374 5b3e
00000220: 3153 733e f2df d6ba 75ce 1e3e a66f d73c
00000230: bfea ab3d 56c7 95be 67e0 bb3d b8e9 7f3d
00000240: 2d8b 9ebd 91df 2b3d af09 3cbe d888 fb3d
00000250: ac06 223e 4ce1 35be 8986 353e 779c 9ebd
00000260: 1c8f 78bd 8198 e43d 4175 653d 650c 653d
00000270: d418 0e3e eafa 6ebe 8f32 1ebd 8ff9 2b3c
00000280: 34fd 453e 7198 b93d 0b29 343e 3391 1cbd
00000290: 5960 ef3e 9630 dabd 723e 9a3d a21b 523e
000002a0: 494b d1bd 9d6f 863c 03fb a9bd eaba 9bbd
000002b0: 5243 203e a53a 25be 83a1 82bc 7694 4b3e
000002c0: 1f27 72bd f00d 12bd fda0 82bd 753f ee3c
000002d0: de53 7abe 119e 0e3d 4883 3d3d de90 3dbe
000002e0: 3ac0 8ebc 3d01 e33d 1c2f 263b b6fe 9dbd
000002f0: 748d 6cbe ce85 3ebd fd64 80be 89d5 b8be
00000300: 85d8 eebd e070 9bbc b852 9fbd eb8e 2fbe
00000310: b841 c93e 003b 11be 441a 98be fcad 373e
00000320: 85b2 da3d 8e98 f13b c583 8dbe 626b b7bc
00000330: 57ec bcbd 3f34 233e b03d c1bc 062b b5bd
00000340: a8e3 933e da15 283d a529 cf3d 71b6 0ebe
00000350: 2781 f33d eb54 f93d c0d3 1b3e 4fbd 1f3e
00000360: 3459 a4ba 52de 10be 253e debd 5958 23bd
00000370: 32b9 ff3d 0f41 093e b8fa 793d 1466 883d
00000380: 4bba 9abd 6013 17bc c065 b23d 9fc2 923c
00000390: dfcc 6c3e cb50 22bc a844 493c bf3e 833e
000003a0: 5de0 503e bfe4 e73c 8fb3 173e b959 eabd
000003b0: 5d87 c4bd 731c e33d 4889 cdbd 2081 213e
000003c0: 44a1 d33c 4abe f73d 3b10 44bd e578 adbe
000003d0: d2a3 3c3d d4d8 d5bd 9fd7 18be 44cc 07be
000003e0: 235d 8abe 12ba c63d 9f3d 153d 5b0e 803d
000003f0: a06a 1e3c de5a 653d 70c1 513e 147f 0c3e

encoder.net.0.bias f4 [60]
0.033808313 -0.050156713 -0.03753929 -0.012429073 -0.0056597646 0.03068572 -0.009936777 -0.027835548
-0.025772765 0.048352297 0.029829437 -0.03775673 -0.02486348 -0.03863042 -0.0151474625 0.03155069
0.03529447 0.008559835 0.023165913 -0.020808445 0.012420962 -0.03066261 -0.020762764 -0.01571983
0.022420678 -0.008739612 0.021584436 0.01341319 -0.030548777 0.059458945 -0.0010999002 -0.02492271
-0.015227406 -0.042557053 -0.021599205 0.03129804 -0.036967505 0.050951872 -0.012093009 -0.026159383
0.0012281432 -0.01921611 0.026184343 -0.020264281 0.013738308 0.027003434 0.022918262 -0.05153027
0.03255679 0.025212204 -0.011892321 -0.017204057 -0.027260184 -0.044450548 -0.011465453 -0.01971413
-0.0627301 0.024120111 -0.035116643 -0.0069632833
00000000: 967a 0a3d 2071 4dbd ccc2 19bd 50a3 4bbc
00000010: 8c75 b9bb 9e60 fb3c ddcd 22bc 6007 e4bc
00000020: 6821 d3bc 0f0d 463d dd5c f43c cda6 1abd
00000030: 7fae cbbc ee3a 1ebd 102d 78bc 4c3b 013d
00000040: ef90 103d 8d3e 0c3c 71c6 bd3c 7976 aabc
00000050: 4a81 4b3c 2730 fbbc ac16 aabc dfc6 80bc
00000060: 92ab b73c 9730 0fbc d8d1 b03c ffc2 5b3c
00000070: 6e41 fabc 398b 733d 872a 90ba b62a ccbc
00000080: 5f7c 79bc 4e50 2ebd d1f0 b0bc 6032 003d
00000090: 3d6b 17bd e9b2 503d c221 46bc 344c d6bc
000000a0: a6f9 a03a 1b6b 9dbc 8c80 d63c 4701 a6bc
000000b0: a416 613c 4e36 dd3c 14bf bb3c 6811 53bd
000000c0: 455a 053d d389 ce3c 02d8 42bc 86ef 8cbc
000000d0: c050 dfbc c711 36bd 98d9 3bbc 877f a1bc
000000e0: a378 80bd 8a97 c53c 78d6 0fbd 412c e4bb

encoder.net.2.weight f4 [60, 60]
-0.026127512 -0.19687779 0.014133355 0.01767851 0.2182947 0.07078027 -0.0186654 -0.027647827
0.0882177 0.061843194 0.016220653 0.08995709 0.056501087 0.08430044 0.16374822 0.00074883114
0.037042353 -0.007094238 0.07838835 -0.059051335 -0.09213996 -0.16952072 0.035089333 0.014619363
-0.12943397 -0.025652964 -0.03752647 0.035994865 -0.1203766 0.1656372 -0.2105527 -0.021442946
0.057266857 -8.4127505e-06 0.024453204 -0.08076887 0.0844757 0.032680508 0.16416119 -0.10655158
0.17235613 -0.14420912 0.19241533 -0.11450866 0.03723252 -0.059065405 0.07021946 0.030201513
-0.07017788 0.04321709 -0.1294349 0.107607536 -0.15881453 0.046890493 -0.07188812 0.12576824
0.028761227 -0.06297585 -0.08478066 -0.13039212 0.20230016 -0.13469428 0.21769588 0.12604913
0.023533655 -0.16326806 0.04522894 -0.119163774 0.19688472 -0.057267956 -0.02809338 -0.07120769
0.22251932 -0.025094658 -0.0073811547 0.18326105 -0.016887795 -0.07500521 0.053086136 -0.1688903
-0.103269555 0.08105751 -0.016722353 0.14042413 -0.16781935 0.20153625 0.046331447 0.03059683
-0.024019634 -0.05146894 0.1487554 -0.12165326 -0.11918078 0.3252953 -0.019050684 0.01774021
-0.044416767 -0.113858595 -0.016628556 0.16838579 -0.0915507 -0.10548812 -0.021193575 -0.16894808
-0.115204394 0.03996237 -0.012929793 0.094137974 0.13701674 0.09314635 0.18128957 0.041575298
0.11477566 0.05348559 -0.04764707 0.012704311 -0.023225572 0.03843834 -0.03402706 0.0552392
-0.013179867 -0.040492542 0.050304543 -0.07980865 -0.20144407 0.1292738 -0.017416645 0.023650644
-0.2022637 0.036331024 -0.17938991 0.14811903 -0.09880959 0.21869884 -0.16327588 0.04830744
0.15627418 0.2253154 -0.18087369 -0.019780425 0.051866844 -0.060230035 0.020274816 0.116803564
-0.28292197 -0.05729854 -0.017527707 -0.09182054 -0.05954975 0.2975111 -0.26132688 0.03507846
0.20063682 0.104933076 0.042301904 -0.08030895 -0.14704737 0.08851919 0.10185731 -0.08851064
-0.019857839 -0.23547842 -0.22748484 0.2078586 0.11827975 -0.093857415 0.055279095 -0.104972936
0.19879392 -0.14042778 -0.033328686 0.12549213 -0.027561113 0.16108108 -0.08120951 0.050886054
-0.09870402 -0.20768616 -0.07817375 -0.1312305 0.08924072 0.029115291 0.19728138 -0.046218712
0.20031181 -0.01790984 0.079392165 -0.0027004671 0.051466078 0.09095424 0.011150461 0.25779948
0.010290802 0.023111124 -0.031703517 0.16468205 -0.11615911 0.11852107 -0.2525379 -0.05662893
-0.040997677 -0.059232093 0.038800932 0.1434421 -0.13027912 -0.070464164 -0.23011804 0.24530587
-0.14920034 -0.056108646 -0.020125708 -0.16481721 -0.011441788 0.11448842 0.0980867 -0.11523239
0.24660738 -0.15628693 0.102277234 0.060194887 0.03869112 0.01560186 0.0021433216 -0.2057472
0.080522925 -0.19480006 -0.21455346 0.044248637 -0.016819071 0.25895414 0.018190159 0.13209426
0.027908506 -0.2598888 0.2086057 0.033944953 -0.0071940417 0.2641593 -0.21225682 0.07282656
0.016164256 0.083457276 0.21763122 0.13967803 0.121702544 -0.062050335 -0.056437247 0.012139608
0.118129455 -0.20320302 0.021660043 0.09748583 0.06942875 0.17871135 0.02230122 0.05330125
00000000: 5d09 d6bc 559a 49be 968f 673c 86d2 903c
00000010: a588 5f3e 3ff5 903d 2ee8 98bc b27d e2bc
00000020: 7bab b43d 4a4f 7d3d 2de1 843c 6c3b b83d
00000030: af6d 673d b6a5 ac3d 9dad 273e 354d 443a
00000040: b9b9 173d c876 e8bb 128a a03d d0df 71bd
00000050: e0b3 bcbd d796 2dbe d5b9 0f3d 0d86 6f3c
00000060: 578a 04be 2a26 d2bc 5bb5 19bd 5a6f 133d
00000070: 0288 f6bd cc9c 293e 219b 57be 1ea9 afbc
00000080: a790 6a3d 7d24 0db7 1652 c83c 266a a5bd
00000090: 9901 ad3d ffdb 053d df19 283e b737 dabd
000000a0: 207e 303e 8eab 13be 8608 453e 8483 eabd
000000b0: 2081 183d 91ee 71bd 38cf 8f3d 2a69 f73c
000000c0: 6cb9 8fbd 6704 313d 958a 04be 5761 dc3d
000000d0: 47a0 22be 3f10 403d 143a 93bd 64c9 003e
000000e0: aa9c eb3c 7cf9 80bd 7ca1 adbd 8385 05be
000000f0: c627 4f3e 4ced 09be abeb 5e3e 0613 013e
00000100: a7c9 c03c be2f 27be fb41 393d 230c f4bd
00000110: 269c 493e ce91 6abd 1724 e6bc 56d5 91bd
00000120: 1bdc 633e 5093 cdbc 9ddd f1bb c9a8 3b3e
00000130: 4658 8abc 559c 99bd d970 593d 94f1 2cbe
00000140: fd7e d3bd 7b01 a63d 51fd 88bc 58cb 0f3e
00000150: d6d8 2bbe 855f 4e3e 0bc6 3d3d 34a6 fa3c
00000160: d3c4 c4bc 18d1 52bd 5653 183e 5825 f9bd
00000170: 0e15 f4bd 1b8d a63e 2e10 9cbc eb53 913c
00000180: 5bee 35bd b22e e9bd 9c38 88bc 536d 2c3e
00000190: ef7e bbbd 280a d8bd 269e adbc ba00 2dbe
000001a0: 48f0 ebbd 95af 233d 7cd7 53bc 69cb c03d
000001b0: 1e4e 0c3e 83c3 be3d f9a3 393e dc4a 2a3d
000001c0: 800f eb3d b513 5b3d 9329 43bd be25 503c
000001d0: 8e43 bebc 8571 1d3d f55f 0bbd 8042 623d
000001e0: 5ef0 57bc 82db 25bd 230c 4e3d b872 a3bd
000001f0: 5b47 4ebe 5a60 043e 5aad 8ebc ffbe c13c
00000200: 371e 4fbe d7cf 143d fdb1 37be 84ac 173e
00000210: af5c cabd 97f2 5f3e cb31 27be 06de 453d
00000220: 5706 203e 15b9 663e f436 39be 8f0a a2bc
00000230: 5472 543d c5b3 76bd 5f17 a63c b536 ef3d
00000240: 26db 90be e0b1 6abd 4496 8fbc 680c bcbd
00000250: 70ea 73bd 6053 983e a3cc 85be 6eae 0f3d
00000260: bd73 4d3e 27e7 d63d c344 2d3d 0579 a4bd
00000270: 9693 16be 8d49 b53d 919a d03d 1145 b5bd
00000280: e8ac a2bc 4121 71be c9f1 68be e3d8 543e
00000290: a73c f23d 5138 c0bd 556c 623d 0dfc d6bd
000002a0: a290 4b3e 4dcc 0fbe a983 08bd 0281 003e
000002b0: d8c7 e1bc 70f2 243e 2c51 a6bd e56d 503d
000002c0: 5525 cabd aeab 54be 8f19 a0bd 4a61 06be
000002d0: d7c3 b63d 3183 ee3c 2104 4a3e d54f 3dbd
000002e0: 8a1e 4d3e a8b7 92bc 5c98 a23d 52fa 30bb
000002f0: 18ce 523d 3746 ba3d 6cb0 363c 4bfe 833e
00000300: c19a 283c 8a53 bd3c 8cdb 01bd 69a2 283e
00000310: d4e4 edbd 2dbb f23d a64c 81be bdf3 67bd
00000320: 2eed 27bd 5a9d 72bd baed 1e3d 7ce2 123e
00000330: e467 05be 844f 90bd 10a4 6bbe 7631 7b3e
00000340: f9c7 18be 2ed2 65bd abde a4bc d8c5 28be
00000350: 5676 3bbc e878 ea3d aee1 c83d f6fe ebbd
00000360: a586 7c3e ae09 20be ba76 d13d ea8e 763d
00000370: 947a 1e3d f29e 7f3c f876 0c3b 65af 52be
00000380: 34e9 a43d ab79 47be e7b3 5bbe 0f3e 353d
00000390: 26c8 89bc a395 843e 8703 953c b843 073e
000003a0: 61a0 e43c 2510 85be bc9c 553e dd09 0b3d
000003b0: ffbb ebbb e33f 873e da59 59be 1726 953d
000003c0: e76a 843c a6eb aa3d b8da 5e3e c207 0f3e
000003d0: 2f3f f93d 7e28 7ebd be2a 67bd 35e5 463c
000003e0: dbed f13d 7414 50be 6770 b13c a7a6 c73d
000003f0: a930 8e3d 1c00 373e 0cb1 b63c 6952 5a3d

encoder.net.2.bias f4 [60]
0.018446969 -0.0032229738 -0.019135108 -0.020764692 -0.030182187 0.023466228 -0.036971938 0.009664781
-0.056248344 0.025623742 0.021825152 0.028345266 0.024915945 0.058818955 -0.016797433 -0.020603916
-0.039826952 -0.0235677 -0.043936722 -0.01213318 0.023041235 -0.012403751 -0.022317812 -0.0639384
0.030931698 -0.008154343 -0.0005968626 -0.016909279 0.029771557 -0.021395063 -0.027145782 -0.026148554
0.0077298423 0.025149852 0.037301324 -0.028193396 0.031301796 -0.028443402 -0.0052182623 -0.010349879
-0.023061179 -0.029963672 0.02087684 -0.0310392 -0.024711173 0.033250753 0.028216863 0.028777158
0.016858323 -0.017653147 -0.01589617 -0.054078177 0.023954753 0.024881095 0.04025034 -0.029425953
0.028445762 -0.047977146 -0.017602775 0.033329412
00000000: 191e 973c 8738 53bb 3bc1 9cbc b71a aabc
00000010: a240 f7bc 3f3c c03c e36f 17bd 0859 1e3c
00000020: aa64 66bd e2e8 d13c a9ca b23c 5534 e83c
00000030: 861c cc3c 25ec 703d c59a 89bc 8bc9 a8bc
00000040: 9621 23bd 0d11 c1bc fef6 33bd 3fca 46bc
00000050: f9c0 bc3c 1a39 4bbc d8d3 b6bc 23f2 82bd
00000060: 7964 fd3c cb99 05bc c576 1cba 5485 8abc
00000070: 7be3 f33c b344 afbc d560 debc 7e35 d6bc
00000080: 9e4a fd3b 1007 ce3c 46c9 183d d6f5 e6bc
00000090: 5036 003d 2302 e9bc f5fd aabb 8a92 29bc
000000a0: ccea bcbc 6076 f5bc e805 ab3c ec45 febc
000000b0: 166f cabc f131 083d 0d27 e73c 13be eb3c
000000c0: 771a 8a3c 559d 90bc af38 82bc 1481 5dbd
000000d0: c23c c43c 70d3 cb3c 8add 243d b20e f1bc
000000e0: 1607 e93c af83 44bd b233 90bc 6c84 083d

encoder.net.5.weight f4 [32, 60]
0.15175013 0.122580506 -0.059837744 0.03388013 0.030254629 0.033544697 -0.050700366 -0.0044334405
0.023971386 -0.081429414 -0.17198756 -0.12118732 0.10582618 -0.08545063 0.2575224 0.13872743
0.15460844 -0.108104624 0.118639566 -0.052489504 0.30351874 0.13370295 -0.017719332 -0.015332804
-0.050459787 0.003899195 -0.3248346 -0.16530032 -0.006576001 0.007921587 0.11403628 0.13090461
-0.012973363 -0.032507673 0.102875054 -0.27585945 -0.15371466 0.031887602 0.10768575 0.19521087
0.056608997 0.036709413 0.06113188 0.06452241 -0.21081588 -0.070305035 0.115471624 0.022526458
0.058231164 -0.07609332 -0.06221067 0.096910715 -0.10755911 -0.23109421 0.13135865 0.063749745
0.04167847 0.35623622 0.06693458 -0.07076282 -0.079530686 -0.31708634 -0.08368362 -0.21334532
-0.08549932 -0.16491023 -0.075265326 0.036401298 -0.023695946 -0.06274436 -0.0089910505 -0.01932935
-0.13253453 -0.060804136 0.08836665 -0.08231208 -0.18081863 -0.07988851 0.15067744 0.021189881
-0.014783643 -0.12959816 -0.10280388 0.0014953393 -0.34897205 0.01630924 -0.16832736 0.2052606
-0.03846309 0.24516007 0.22646213 -0.10384752 0.1018174 0.006163755 -0.023260493 0.06073802
0.19288146 0.036737494 -0.17199485 -0.024511587 -0.096902765 -0.25807554 0.010129806 0.016957933
0.0010283274 0.056686684 -0.064124905 0.069463804 0.020969238 -0.0441563 -0.10272697 0.35739928
-0.30598193 -0.4467283 -0.17032814 -0.060987007 -0.15063007 -0.23291616 -0.12398375 -0.06795829
0.2151086 -0.019337095 -0.025890075 0.258661 0.1883875 -0.09509259 0.071206644 0.16455746
-0.09678791 0.0981909 0.09855789 0.079908796 -0.1490536 -0.06702356 0.21283239 -0.09965303
0.12028275 0.012605076 -0.00945392 0.1367772 0.10055695 0.03026965 -0.23369169 -0.15459803
0.1359646 -0.20414032 0.0021143712 0.15131423 0.02023841 -0.020538354 0.10674526 0.1389824
-0.03334695 0.22688937 -0.032776564 0.082327396 -0.20346288 0.13955185 0.057408135 -0.19821644
0.081914134 -0.034157887 0.015537674 0.18733814 -0.0042431424 -0.1226295 -0.0286669 0.13609207
0.14959913 -0.22959201 -0.097463526 -0.15667634 0.05285662 -0.100458674 -0.023906369 -0.07085977
-0.05373191 -0.07764734 -0.19683851 0.21332906 0.24955425 0.18600783 -0.059074298 -0.027964406
0.036499012 0.012039484 -0.064740665 0.12338517 0.037169285 -0.12051232 -0.13057248 -0.0512077
0.08799666 0.14987744 0.15447769 -0.00078223913 0.021417517 0.029786699 -0.04860448 0.058486905
0.12996116 -0.0068136277 0.00018553226 0.05077639 -0.19993155 0.263745 -0.06992008 0.3141512
0.0112856375 -0.13879417 0.08799229 -0.003383761 0.29616126 0.17963697 0.12566917 0.14132507
-0.21368848 0.31359592 0.14757746 0.11759297 0.06769534 0.04535065 -0.098020285 0.17576806
-0.0030759007 -0.07694419 0.06426847 -0.0008950298 -0.23765951 -0.016450765 -0.09838122 0.14546771
-0.04085553 -0.05285003 0.082071416 -0.20086914 -0.1869769 -0.26456943 -0.05649365 -0.13922235
-0.17873926 -0.012289783 -0.0371713 0.008147588 0.19210182 -0.081070654 -0.07976994 -0.111263305
0.1327812 -0.037953828 0.16154978 -0.05675101 -0.23337696 -0.11188304 0.08865512 0.012881813
00000000: 6364 1b3e 7d0b fb3d 6c18 75bd e4c5 0a3d
00000010: 8ed8 f73c 2a66 093d 30ab 4fbd 6546 91bb
00000020: a45f c43c 77c4 a6bd 821d 30be 0f31 f8bd
00000030: 65bb d83d bd00 afbd fad9 833e 900e 0e3e
00000040: ad51 1e3e f565 ddbd 4df9 f23d 3cff 56bd
00000050: cf66 9b3e 6de9 083e 2228 91bc 7136 7bbc
00000060: ecae 4ebd a389 7f3b b850 a6be 7d44 29be
00000070: 7f7b d7bb 8bc9 013c da8b e93d dc0b 063e
00000080: 3a8e 54bc c426 05bd 28b0 d23d 733d 8dbe
00000090: 6067 1dbe 939c 023d 598a dc3d 5ce5 473e
000000a0: d6de 673d 9c5c 163d 6c65 7a3d 5324 843d
000000b0: 1ee0 57be 16fc 8fbd 637c ec3d 6889 b83c
000000c0: cd83 6e3d d1d6 9bbd 9ed0 7ebd 2079 c63d
000000d0: f347 dcbd f6a3 6cbe e282 063e 3a8f 823d
000000e0: 0bb7 2a3d 9864 b63e ff14 893d 19ec 90bd
000000f0: fce0 a2bd 2459 a2be 5162 abbd 3277 5abe
00000100: 441a afbd 3ade 28be b524 9abd 8719 153d
00000110: 001e c2bc 1d80 80bd 334f 13bc 9658 9ebc
00000120: 22b7 07be c20d 79bd 93f9 b43d 3c93 a8bd
00000130: 8528 39be 969c a3bd 304b 1a3e 6796 ad3c
00000140: 1837 72bc 61b5 04be d78a d2bd 43ff c33a
00000150: 77ac b2be f59a 853c 025e 2cbe d62f 523e
00000160: 798b 1dbd 3e0b 7b3e b0e5 673e 02ae d4bd
00000170: a485 d03d 53f9 c93b ca8c bebc 6ec8 783d
00000180: b882 453e 0e7a 163d 6b1f 30be 86cc c8bc
00000190: f574 c6bd 7a22 84be 7cf7 253c 5deb 8a3c
000001a0: f1c8 863a 4c30 683d eb53 83bd 0a43 8e3d
000001b0: aec7 ab3c 3ddd 34bd 8562 d2bd 0afd b63e
000001c0: aaa9 9cbe 92b9 e4be 806a 2ebe 83cd 79bd
000001d0: c53e 1abe 9381 6ebe 31eb fdbd b72d 8bbd
000001e0: 6e45 5c3e d468 9ebc 6c17 d4bc 376f 843e
000001f0: a7e8 403e e7bf c2bd cad4 913d c081 283e
00000200: bd38 c6bd 5018 c93d b8d8 c93d 39a7 a33d
00000210: 82a1 18be a643 89bd bcf0 593e e316 ccbd
00000220: cd56 f63d 8585 4e3c 9de4 1abc 530f 0c3e
00000230: cdf0 cd3d 0ff8 f73c e04c 6fbe f24e 1ebe
00000240: 4e3a 0b3e 290a 51be 4391 0a3b 1ef2 1a3e
00000250: 06cb a53c 0d40 a8bc 429d da3d 6751 0e3e
00000260: d096 08bd b055 683e b840 06bd 449b a83d
00000270: 9358 50be aee6 0e3e cb24 6b3d 40f9 4abe
00000280: 99c2 a73d 24e9 0bbd ba91 7e3c 92d5 3f3e
00000290: 0f0a 8bbb 2d25 fbbd d9d6 eabc b85b 0b3e
000002a0: 8430 193e 2b1a 6bbe f59a c7bd c36f 20be
000002b0: 2f80 583d 47bd cdbd 4ad7 c3bc ed1e 91bd
000002c0: fe15 5cbd 9205 9fbd 0990 49be ef72 5a3e
000002d0: 268b 7f3e d678 3e3e e4f7 71bd 9c15 e5bc
000002e0: fd7f 153d 4241 453c c196 84bd 5db1 fc3d
000002f0: d23e 183d 2acf f6bd cbb4 05be 2abf 51bd
00000300: 9837 b43d 7979 193e 662f 1e3e 2e0f 4dba
00000310: ca73 af3c 3c03 f43c 7e15 47bd f78f 6f3d
00000320: 8a14 053e da44 dfbb 708b 4239 e7fa 4f3d
00000330: dbba 4cbe 9609 873e 4232 8fbd 6dd8 a03e
00000340: 65e7 383c 0f20 0ebe 4d35 b43d 17c2 5dbb
00000350: 73a2 973e c1f2 373e 6baf 003e 85b7 103e
00000360: 27d1 5abe a58f a03e 8c1e 173e 95d4 f03d
00000370: dba3 8a3d 9ac1 393d dcbe c8bd 8bfc 333e
00000380: 0d95 49bb ea94 9dbd 309f 833d 6fa0 6aba
00000390: 045d 73be c1c3 86bc 187c c9bd 7df5 143e
000003a0: 2158 27bd 4679 58bd 0f15 a83d a4b0 4dbe
000003b0: df76 3fbe a575 87be e365 67bd 4e90 0ebe
000003c0: 6d07 37be 165b 49bc ef40 18bd 767d 053c
000003d0: 57b6 443e 5f08 a6bd 6c5e a3bd 04de e3bd
000003e0: cbf7 073e 7975 1bbd 4e6d 253e bf73 68bd
000003f0: 5ffa 6ebe ef22 e5bd d190 b53d 3d0e 533c

encoder.net.5.bias f4 [32]
-0.09791189 -0.07479054 -0.01579237 -0.038491767 -0.028929083 0.022957478 0.0399365 0.004140978
0.10967327 -0.07709568 -0.044946596 -0.05012788 0.08113503 0.03464721 0.17316519 0.03596315
-0.029165277 0.047457583 0.05517451 0.050021138 0.009881035 -0.026974251 -0.057710297 -0.019219214
-0.076226264 0.122886 -0.027744284 0.048512366 0.12285542 0.021694805 -0.058402985 -0.03224845
00000000: 0786 c8bd c82b 99bd 005f 81bc 8ba9 1dbd
00000010: affc ecbc 5211 bc3c 7594 233d 0bb1 873b
00000020: 619c e03d 57e4 9dbd ec19 38bd e452 4dbd
00000030: 1f2a a63d 3cea 0d3d 3752 313e 194e 133d
00000040: 05ec eebc e262 423d abfe 613d f7e2 4c3d
00000050: 11e4 213c 1bf9 dcbc a261 6cbd 9d71 9dbc
00000060: 841c 9cbd a8ab fb3d fb47 e3bc e7b4 463d
00000070: 9f9b fb3d 4eb9 b13c f837 6fbd f316 04bd

predictor.net.1.weight f4 [32, 32]
-0.073991075 -0.108474076 0.09049519 0.18443638 0.038843956 -0.27994588 -0.06569472 0.04379744
-0.209839 0.0019764595 -0.39877716 -0.11370022 0.16240807 0.27861306 0.14204496 -0.004651029
-0.04296314 0.19229919 -0.17168602 -0.02177661 -0.031449772 0.18180825 0.19198161 -0.008612707
-0.037725784 0.19939177 0.23280767 -0.02376805 0.4038767 0.08128806 0.08359182 -0.01988605
0.24316035 0.24322452 0.041796718 0.1155651 -0.0055457377 -0.06953387 -0.17137259 -0.069288366
-0.36057368 0.2227562 0.097842485 0.015563922 0.34172544 0.06720169 -0.25884882 0.030954959
0.15819871 0.12862012 0.11957359 0.18826957 0.027295472 0.060113024 0.28339747 -0.051098265
-0.2580544 0.15832539 -0.03196727 0.13219213 0.05123804 -0.08564771 0.08790512 0.13292287
-0.17002237 -0.09609122 0.103902265 -0.1582142 0.026654549 -0.25972286 -0.03588123 0.034538586
-0.09236402 -0.27148658 -0.075195424 0.20779827 -0.12166006 -0.3909505 0.04618387 0.1258921
0.0049639903 -0.06945459 0.06578335 0.11732595 0.09134157 0.079507165 -0.33433318 0.21051723
-0.12852752 0.10316343 -0.18786314 -0.18193577 -0.259091 -0.18408015 0.03944752 0.13814072
-0.077753045 -0.04833566 -0.15788648 -0.3680302 -0.19132166 0.10188147 -0.020533698 0.1104117
0.07995838 -0.05262543 -0.065665565 0.1937962 0.14948638 0.27219608 0.073849246 -0.19992104
-0.13981658 0.09047759 -0.05606062 0.022194546 -0.050595067 0.030986773 -0.13949883 -0.15228403
-0.12331404 -0.11856396 -0.046627846 0.16885255 0.02330276 0.010720919 0.08585281 -0.1879261
0.11780443 0.14853169 0.032393336 0.0838145 -0.22804682 0.117797434 0.017326685 -0.31021422
0.19729085 -0.32009742 0.10906017 -0.16241638 -0.09959916 -0.33200666 -0.086685225 -0.1113132
-0.09779679 -0.32652026 0.262652 -0.03376223 0.2872478 -0.032978825 -0.07587317 0.057578273
0.051185004 -0.08352523 0.26278287 -0.12484298 0.0046546324 0.31397223 0.07387409 0.17461067
-0.1533922 -0.0010957551 -0.00960694 -0.019291569 -0.04728688 0.07214045 0.17231983 0.008157441
-0.14796084 0.047607593 0.014599522 -0.016463598 -0.33004564 0.12021814 0.13479273 0.031265263
0.026049316 0.045824952 0.16648062 -0.18697414 -0.18725099 0.29888847 -0.26411194 -0.07210841
-0.04730336 0.22684523 -0.14971556 0.08032156 -0.01314011 0.27881736 -0.15133701 0.16727349
0.24345824 -0.10118415 -0.3640041 0.097394355 0.2188952 0.053501096 -0.20891246 0.06280094
-0.1532512 -0.10525971 0.09062188 -0.038300928 0.011488595 -0.06544671 -0.043813743 0.063272886
-0.08802312 0.05010291 -0.022079134 0.09223479 0.25918728 0.17546597 0.19138165 -0.19309482
-0.24304295 -0.20736723 0.007974193 -0.15932448 0.025975319 0.35741454 0.17102672 -0.14553155
-0.098466314 0.058821447 0.057519544 0.0875493 0.41099858 0.1740461 -0.3027925 0.18162093
0.075968675 0.1185353 -0.12219689 0.19257626 -0.28459796 0.07380253 -0.23454858 -0.21145351
0.3745842 0.24141368 0.11652903 -0.1354224 0.093568355 0.14465843 -0.00862409 0.091712
0.14860897 -0.045546997 -0.09092754 0.06946361 -0.027555946 0.16794728 0.110862546 0.36969084
00000000: a288 97bd a827 debd 8b55 b93d e4dc 3c3e
00000010: d71a 1f3d 1155 8fbe f48a 86bd f264 333d
00000020: 09e0 56be 7d87 013b 852c ccbe a9db e8bd
00000030: 4d4e 263e 5fa6 8e3e 3c74 113e a967 98bb
00000040: 1efa 2fbd 14ea 443e 76ce 2fbe dc64 b2bc
00000050: 7ad1 00bd f12b 3a3e d496 443e 501c 0dbc
00000060: 5a86 1abd 5b2d 4c3e 2265 6e3e 37b5 c2bc
00000070: edc8 ce3e 5b7a a63d 3032 ab3d 12e8 a2bc
00000080: 07ff 783e d90f 793e 0933 2b3d 65ad ec3d
00000090: 05b9 b5bb c667 8ebd 4c7c 2fbe 0fe7 8dbd
000000a0: 1d9d b8be 341a 643e a461 c83d d2ff 7e3c
000000b0: a3f6 ae3e 0aa1 893d d587 84be 4195 fd3c
000000c0: d8fe 213e feb4 033e 00e3 f43d bdc9 403e
000000d0: c19a df3c 1339 763d 7919 913e 6a4c 51bd
000000e0: b51f 84be 0d20 223e 1df0 02bd 605d 073e
000000f0: fbde 513d 1168 afbd 9907 b43d ef1c 083e
00000100: 581a 2ebe 79cb c4bd b6ca d43d e702 22be
00000110: a45a da3c 65fa 84be 32f8 12bd 5578 0d3d
00000120: 5929 bdbd 4a00 8bbe 0f00 9abd 12c9 543e
00000130: e928 f9bd aa2a c8be 4c2b 3d3d dce9 003e
00000140: f8a8 a23b 353e 8ebd 6cb9 863d 9648 f03d
00000150: 4a11 bb3d a7d4 a23d b82d abbe d491 573e
00000160: b89c 03be 5947 d33d 325f 40be 5f4d 3abe
00000170: 93a7 84be 827f 3cbe b993 213d c374 0d3e
00000180: fd3c 9fbd 9dfb 45bd feac 21be 746e bcbe
00000190: d3e9 43be 3ba7 d03d 4936 a8bc 881f e23d
000001a0: 38c1 a33d c38d 57bd ab7b 86bd 8372 463e
000001b0: f512 193e 495d 8b3e 463e 973d 1ab8 4cbe
000001c0: 142c 0fbe 514c b93d d29f 65bd 56d1 b53c
000001d0: c63c 4fbd f9d7 fd3c c8d8 0ebe 58f0 1bbe
000001e0: 128c fcbd a9d1 f2bd d7fc 3ebd afe7 2c3e
000001f0: 6ee5 be3c cba6 2f3c 99d3 af3d b36f 40be
00000200: 7343 f13d b118 183e e0ae 043d f0a6 ab3d
00000210: 1b85 69be c83f f13d b1f0 8d3c 66d4 9ebe
00000220: 9d06 4a3e cfe3 a3be f05a df3d 7b50 26be
00000230: a5fa cbbd c7fc a9be 0688 b1bd 2df8 e3bd
00000240: af49 c8bd aa2d a7be 537a 863e 444a 0abd
00000250: 2512 933e ce14 07bd 6463 9bbd 32d7 6b3d
00000260: 5ea7 513d 470f abbd 7a8b 863e adad ffbd
00000270: e385 983b f8c0 a03e 4d4b 973d 24cd 323e
00000280: d812 1dbe 719f 8fba 6d66 1dbc 5a09 9ebc
00000290: e3af 41bd 5fbe 933d 9c74 303e caa6 053c
000002a0: 0c83 17be 2e00 433d d532 6f3c abde 86bc
000002b0: befb a8be ee34 f63d 1b07 0a3e 0110 003d
000002c0: 6065 d53c f2b2 3b3d e579 2a3e 2676 3fbe
000002d0: b9be 3fbe e907 993e ae39 87be 93ad 93bd
000002e0: 2bc1 41bd 1e4a 683e 094f 19be a17f a43d
000002f0: 9e49 57bc 26c1 8e3e 17f8 1abe be49 2b3e
00000300: 1e4d 793e a339 cfbd bf5e babe b176 c73d
00000310: 1026 603e f723 5b3d 26ed 55be c79d 803d
00000320: e2ed 1cbe 6792 d7bd f797 b93d 6fe1 1cbd
00000330: a93a 3c3c ed08 86bd 0a76 33bd 3795 813d
00000340: 7745 b4bd b538 4d3d 4ddf b4bc 98e5 bc3d
00000350: 32b4 843e 5aad 333e 8df9 433e a6ba 45be
00000360: 40e0 78be 1358 54be 31a6 023c f525 23be
00000370: 31ca d43c 0aff b63e a121 2f3e 3906 15be
00000380: b5a8 c9bd c2ee 703d 9d99 6b3d 0c4d b33d
00000390: 686e d23e 2439 323e 9e07 9bbe d6fa 393e
000003a0: 7795 9b3d a3c2 f23d 5d42 fabd b632 453e
000003b0: d3b6 91be c825 973d 812d 70be 4587 58be
000003c0: 80c9 bf3e 2635 773e c6a6 ee3d 2bac 0abe
000003d0: c4a0 bf3d 5721 143e 0e4c 0dbc 80d3 bb3d
000003e0: f32c 183e 7d8f 3abd 3838 babd f042 8e3d
000003f0: 02bd e1bc 5ffa 2b3e e70b e33d 1e48 bd3e

predictor.net.1.bias f4 [32]
-0.09592003 0.10633626 -0.09456942 -0.24934222 -0.10192105 -0.17293687 0.10231709 0.16603246
-0.118154526 0.10153 0.088642016 0.09364358 -0.11330294 -0.45281908 0.1054408 -0.110726304
0.3572191 -0.09475268 -0.10168425 -0.16966411 -0.11291579 0.110343024 -0.104646996 -0.101944454
0.11446733 0.1007492 -0.17561519 0.13941865 0.12242579 -0.030378794 -0.08036542 -0.098281644
00000000: b871 c4bd d3c6 d93d 9dad c1bd 9153 7fbe
00000010: fcbb d0bd 5d16 31be 9f8b d13d 6a04 2a3e
00000020: 00fb f1bd f6ee cf3d f289 b53d 35c8 bf3d
00000030: 5f0b e8bd e7d7 e7be 59f1 d73d 79c4 e2bd
00000040: 6ce5 b63e b10d c2bd d53f d0bd 6ebc 2dbe
00000050: 6540 e7bd 86fb e13d 2a51 d6bd 41c8 d0bd
00000060: d96d ea3d 9955 ce3d 78d4 33be c3c3 0e3e
00000070: 5fba fa3d f3dc f8bc a096 a4bd e347 c9bd

predictor.net.3.weight f4 [1, 32]
-0.30558297 0.3279375 -0.22930562 -0.14640778 -0.11688664 -0.14786439 0.19937356 0.20632684
-0.36753622 0.24656071 0.023301955 0.10697657 -0.22816707 -0.11418225 0.3882333 -0.30566615
0.18903814 -0.15976767 -0.15328589 -0.11949302 -0.08704584 0.13053192 -0.21019664 -0.37017277
0.13282798 0.19153656 -0.09345361 0.38878527 0.19678952 -0.027137153 -0.06298782 -0.2316588
00000000: 5f75 9cbe 6de7 a73e 18cf 6abe eceb 15be
00000010: 4362 efbd c369 17be 9528 4c3e 5847 533e
00000020: b52d bcbe 697a 7c3e bee3 be3c 8816 db3d
00000030: a1a4 69be 62d8 e9bd 84c6 c63e 4680 9cbe
00000040: 3793 413e 239a 23be faf6 1cbe c2b8 f4bd
00000050: 1745 b2bd 29aa 053e ca3d 57be 4987 bdbe
00000060: 0f04 083e 2922 443e 9b64 bfbd dd0e c73e
00000070: 3183 493e bc4e debc c2ff 80bd f737 6dbe

net.0.weight f4 [60, 35]
-7.012101e-05 -0.09879081 -0.03851012 -0.10800456 0.0079120435 -0.034937788 0.22734855 0.09173721
-0.046613235 0.1839233 0.07736138 -0.09062432 0.2710222 -0.038217597 0.019162353 -0.20273781
-0.07981105 -0.04389324 -0.10716476 -0.04174898 -0.27579266 -0.08487173 0.15484373 -0.09332829
0.014592667 -0.010834807 -0.041751724 0.16575764 0.2701936 -0.14788325 0.23344016 0.020578068
-0.07347529 -0.19165301 -0.11776087 -0.029271226 -0.14086008 -0.10117817 -0.15845834 0.0311492
-0.19752881 0.04357639 -0.31662846 0.058714576 0.21001308 0.17002706 -0.14938754 -0.11099947
0.12046998 -0.12030906 0.117446676 -0.1861893 0.07876536 0.00074424775 0.0910813 -0.20394494
-0.13277133 0.12861675 -0.028142009 -0.21901281 -0.132668 -0.12141898 -0.1739626 -0.03464028
0.0563579 0.22644229 0.026852917 -0.21641943 -0.033389345 -0.053245883 -0.0483215 -0.23970392
-0.034969278 0.05763644 -0.059284378 -0.07964095 0.15963824 0.07952444 0.0048279865 0.050917696
-0.16340595 0.12261885 0.22436564 -0.18886101 0.17643084 -0.07211524 0.03481229 0.10440216
0.024688136 -0.08215004 -0.15427676 -0.23951252 0.06926449 -0.043173056 -0.022627447 0.23538
0.11507681 -0.24755266 -0.019445613 -0.09291157 0.17089273 -0.07002011 -0.00058386096 -0.1435254
0.031158295 0.059638515 0.022296444 -0.11825391 -0.016089419 -0.20623823 -0.14239557 -0.07685094
-0.08326734 -0.041412767 -0.07440211 -0.0075542605 -0.07372651 -0.1918806 0.18043356 -0.026234085
0.3221996 -0.19405866 0.09216852 -0.0315334 -0.13682066 0.04382243 -0.0036409541 -0.059898518
0.15929289 0.22313529 -0.16074446 0.058307786 -0.007363403 -0.14580671 -0.1321172 0.04907469
0.11839832 -0.020713843 -0.051195893 -0.19020444 0.14350498 -0.09013836 -0.063753664 0.07063639
0.3121829 -0.16865045 -0.0012790709 -0.0636334 -0.06313243 0.14646688 -0.042246975 0.0554345
0.22009239 0.081831686 -0.122823246 -0.08000714 0.016754994 0.09637246 0.09623802 -0.15146303
0.07900658 -0.02743327 -0.20441718 -0.19939463 -0.21193232 0.08692287 0.13604578 0.17608531
-0.09255119 0.010940981 -0.081756175 -0.10669578 -0.1875895 0.13412458 -0.008316774 -0.11274651
0.1767834 -0.08618227 -0.26454303 0.19919106 -0.4675001 -0.14503205 -0.16693762 -0.16084473
0.15927912 -0.16758983 -0.15284836 -0.12930329 -0.037896488 -0.04159198 0.065485306 0.078936175
-0.30666342 0.086776435 -0.02182831 0.03284128 0.20959559 -0.02402979 -0.06492926 0.16039503
0.3011353 0.11808484 -0.13119604 0.0061548036 0.042098407 -0.030275699 0.02374499 -0.0019005813
0.11171882 -0.081366904 0.1471142 -0.13063756 0.029574357 0.026596198 0.1591002 -0.23951803
-0.13559148 0.055873867 -0.1330813 -0.06573275 0.006017494 -0.049214367 0.010229209 0.1396354
-0.19596554 0.11742201 -0.2044645 -0.07015497 -0.012229142 -0.10663455 -0.062328238 0.06305674
-0.006615417 0.13399988 -0.29684973 0.1596925 0.08404026 0.17457016 0.049928207 0.058530178
0.057328843 -0.019129321 -0.19164267 -0.24440351 0.3243395 -0.10363876 -0.17972048 -0.0955918
0.011525675 0.022905836 0.109786004 0.10242445 0.048169862 -0.04368972 0.07436092 0.19012366
00000000: ee0d 93b8 d652 cabd cabc 1dbd 7f31 ddbd
00000010: 84a1 013c ed1a 0fbd 0fce 683e b8e0 bb3d
00000020: 85ed 3ebd 6456 3c3e a56f 9e3d 3e99 b9bd
00000030: 6cc3 8a3e 0e8a 1cbd 5efa 9c3c 809a 4fbe
00000040: fa73 a3bd 66c9 33bd 3379 dbbd fa00 2bbd
00000050: b234 8dbe 3bd1 adbd 5b8f 1e3e e722 bfbd
00000060: 1516 6f3c 7984 31bc db03 2bbd 5fbc 293e
00000070: d156 8a3e b56e 17be f00a 6f3e 5693 a83c
00000080: 367a 96bd b040 44be 9c2c f1bd 36ca efbc
00000090: a03d 10be 8036 cfbd e742 22be 9b2c ff3c
000000a0: fe44 4abe 287d 323d 201d a2be b27e 703d
000000b0: ab0d 573e 931b 2e3e 0cf9 18be b153 e3bd
000000c0: f7b8 f63d 9964 f6bd e287 f03d 68a8 3ebe
000000d0: bc4f a13d 9f19 433a d588 ba3d f1d6 50be
000000e0: 35f5 07be 1cb4 033e 128a e6bc e544 60be
000000f0: 1fda 07be 84aa f8bd 4023 32be f7e2 0dbd
00000100: 8bd7 663d 7de0 673e a6fa db3c 0e9d 5dbe
00000110: 44c3 08bd 5b18 5abd c4ec 45bd f274 75be
00000120: f23b 0fbd 3014 6c3d 2dd4 72bd cb1a a3bd
00000130: 3578 233e b6dd a23d 1634 9e3b 138f 503d
00000140: e453 27be 971f fb3d 1bc0 653e c864 41be
00000150: 49aa 343e 28b1 93bd 5597 0e3d cdd0 d53d
00000160: c63e ca3c 483e a8bd bafa 1dbe c542 75be
00000170: 8ada 8d3d 3bd6 30bd 325d b9bc 7407 713e
00000180: 64ad eb3d 727e 7dbe 684c 9fbc 6c48 bebd
00000190: 81fe 2e3e b466 8fbd 3f0e 19ba 53f8 12be
000001a0: ae3f ff3c 8447 743d 08a7 b63c 1b2f f2bd
000001b0: f5cd 83bc 1d30 53be 25d0 11be 0764 9dbd
000001c0: 1188 aabd 6fa0 29bd 2260 98bd bb89 f7bb
000001d0: edfd 96bd 597c 44be 93c3 383e dde8 d6bc
000001e0: 59f7 a43e 50b7 46be d9c2 bc3d 2b29 01bd
000001f0: b71a 0cbe 267f 333d 139d 6ebb 2658 75bd
00000200: ad1d 233e 947d 643e 329a 24be 25d4 6e3d
00000210: b448 f1bb 5b4e 15be bb49 07be 8b02 493d
00000220: d27a f23d 14b0 a9bc c9b2 51bd f4c4 42be
00000230: f8f2 123e 769a b8bd 4891 82bd d0a9 903d
00000240: 70d6 9f3e b4b2 2cbe 7fa6 a7ba 3a52 82bd
00000250: 934b 81bd 6afb 153e 2a0b 2dbd 490f 633d
00000260: e65f 613e 5f97 a73d c18a fbbd c9da a3bd
00000270: c541 893c ed5e c53d 7018 c53d 2019 1bbe
00000280: 34ce a13d bdbb e0bc bd52 51be 1b2e 4cbe
00000290: c904 59be 9e04 b23d 964f 0b3e b54f 343e
000002a0: 7a8b bdbd cd41 333c c86f a7bd 5183 dabd
000002b0: 7617 40be f457 093e 1443 08bc a4e7 e6bd
000002c0: b506 353e 5480 b0bd 2f72 87be bef8 4b3e
000002d0: 2c5c efbe 4883 14be b2f1 2abe 7bb4 24be
000002e0: 111a 233e ab9c 2bbe 4884 1cbe 1568 04be
000002f0: 5939 1bbd 5a5c 2abd 291d 863d 4aa9 a13d
00000300: fd02 9dbe d8b7 b13d 49d1 b2bc 9484 063d
00000310: 3aa0 563e 1fda c4bc a2f9 84bd 983e 243e
00000320: 682e 9a3e 77d6 f13d 4158 06be 3cae c93b
00000330: 616f 2c3d be04 f8bc da84 c23c ed1c f9ba
00000340: d6cc e43d b1a3 a6bd 1ba5 163e dac5 05be
00000350: ec45 f23c 45e0 d93c 2aeb 223e 3744 75be
00000360: 7ed8 0abe ffdb 643d 7746 08be e49e 86bd
00000370: 662e c53b 0195 49bd 6a98 273c 95fc 0e3e
00000380: 31ab 48be f37a f03d 245f 51be 69ad 8fbd
00000390: bd5c 48bc 3763 dabd e54b 7fbd e423 813d
000003a0: 24c6 d8bb 4437 093e b0fc 97be 6e86 233e
000003b0: 4d1d ac3d 85c2 323e 8581 4c3d 57bd 6f3d
000003c0: a6d1 6a3d 18b5 9cbc fa3d 44be ea44 7abe
000003d0: d40f a63e 8f40 d4bd a508 38be a2c5 c3bd
000003e0: 2fd6 3c3c 05a5 bb3c 7cd7 e03d e9c3 d13d
000003f0: c34d 453d fef3 32bd 8a4a 983d c7af 423e

net.0.bias f4 [60]
-0.089323126 0.027665544 0.09494807 0.0520594 -0.017803099 0.100164816 0.070983514 -0.07951524
0.119044185 0.041003086 0.057438497 -0.10486833 0.019001665 -0.03300839 0.06793233 0.012467445
0.09475682 -0.14524524 0.11569363 -0.0789101 -0.12400561 -0.036672927 0.16985431 -0.08362106
-0.11731634 -0.11719909 -0.15354781 0.080195084 0.059342496 -0.053798467 -0.032079298 -0.06624259
-0.07643766 -0.12674572 -0.11895368 -0.06381558 -0.10795117 -0.03809992 0.13882495 0.09518627
-0.08021434 -0.10519645 0.06909173 -0.15310942 0.1334291 0.1366771 -0.0358591 -0.14190361
0.043905526 -0.03354749 -0.12990117 0.06891155 -0.01273161 0.0008443061 -0.14440554 0.10795436
0.040999297 -0.05405628 -0.046237927 -0.020196289
00000000: 0bef b6bd daa2 e23c 2274 c23d 3d3c 553d
00000010: ced7 91bc 3623 cd3d ce5f 913d e3d8 a2bd
00000020: 70cd f33d daf2 273d a144 6b3d 35c5 d6bd
00000030: 61a9 9b3c ce33 07bd 1b20 8b3d 4144 4c3c
00000040: dd0f c23d 2bbb 14be c8f0 ec3d 9e9b a1bd
00000050: a7f6 fdbd 5a36 16bd 4aee 2d3e 8541 abbd
00000060: 8d43 f0bd 1406 f0bd a33b 1dbe 523d a43d
00000070: 1e11 733d c85b 5cbd 9565 03bd 32aa 87bd
00000080: 598b 9cbd a1c9 01be fd9d f3bd beb1 82bd
00000090: 8115 ddbd a90e 1cbd 2128 0e3e 05f1 c23d
000000a0: 6a47 a4bd 3d71 d7bd f77f 8d3d b7c8 1cbe
000000b0: a3a1 083e 15f5 0b3e fee0 12bd 2e4f 11be
000000c0: 48d6 333d 1869 09bd d004 05be 8021 8d3d
000000d0: 3e98 50bc 6c54 5d3a 0cdf 13be 2d17 dd3d
000000e0: e1ee 273d 1e6a 5dbd fb63 3dbd b072 a5bc

net.2.weight f4 [60, 60]
0.30626616 -0.27675733 -0.08257586 0.022569966 0.02753402 0.20503207 0.12814188 -0.033210948
0.20925559 -0.06058095 0.027651228 0.023096886 0.17539647 0.01380302 0.093452655 0.056391336
-0.063576855 0.14757423 -0.05576981 -0.044182923 -0.044308066 0.12037008 -0.049400494 0.103667066
0.08927336 -0.25100604 0.20169657 -0.1827891 0.041982304 0.007116927 0.0955329 0.13289212
0.00668244 -0.1764136 -0.13897209 -0.21939048 0.0663819 -0.0031697724 -0.013679088 -0.07101005
0.017812047 -0.054534473 0.049220044 -0.03837817 -0.113354534 0.12321219 -0.043050703 0.18436298
0.07347851 -0.083375946 0.27046314 -0.012329313 -0.013732918 0.08720252 0.06994137 -0.1106926
0.18495303 -0.08641982 -0.075061254 0.0516411 -0.049132653 0.06007987 0.113458484 -0.3121316
0.20719595 0.16674793 0.05987588 0.04211907 -0.043161657 -0.005426179 0.09859081 0.18297108
-0.13111745 -0.19418912 -0.06347672 0.004580794 -0.039839324 -0.03934695 0.16582686 -0.115328476
-0.013308376 -0.17493491 0.008158819 -0.052154895 -0.13251829 -0.020026714 0.013763954 -0.07211384
-0.05628997 0.09367465 0.0649652 -0.09065598 0.11869003 0.0072442046 0.034526158 0.08137257
-0.13873276 0.07027393 -0.064031854 -0.0077404995 -0.10591512 0.026978403 -0.16072875 -0.1473725
0.024544524 -0.14413632 -0.11566313 -0.066149905 0.022651093 -0.07167634 -0.14541066 -0.070940584
0.02643382 -0.042493798 -0.24921343 -0.033197954 0.19619964 -0.11380829 0.026587242 -0.112587035
0.14196779 -0.20491849 -0.022521399 -0.08465085 0.29006815 0.1437728 0.19275056 0.08567916
-0.014644163 0.18645155 0.06272624 -0.14297879 -0.07926991 -0.11239139 0.12861091 0.06434941
-0.05829068 0.0037555224 0.1319079 -0.009531674 -0.13863952 -0.10583301 -0.073498 -0.19614471
-0.03974918 -0.204402 -0.0027693051 -0.177371 -0.04415963 -0.05340276 0.006047649 0.29445893
-0.07091223 -0.12570171 -0.11388674 -0.08764698 -0.006756248 -0.12646069 0.0047040693 0.15634142
-0.006086086 0.033527683 0.06732181 -0.10097638 0.20333831 -0.07309936 0.06157791 -0.070740595
0.18557689 0.10019798 0.027186947 0.06777327 0.117165454 0.10046669 -0.08596472 -0.048499852
-0.04229342 0.13400954 0.099108994 -0.16591147 0.21807064 0.122529976 0.23638737 -0.1645673
-0.056111645 -0.030988151 -0.1518212 -0.13514684 -0.12705213 -0.2680455 0.25172096 -0.12667783
0.20134908 -0.016858306 -0.16270958 -0.15156746 0.23265736 -0.06791207 0.10088518 -0.12024246
0.014264775 -0.10302195 0.049461953 -0.05989562 -0.113308415 0.08761006 0.069793604 -0.03373109
0.17596927 0.032712754 -0.014464747 -0.044186097 0.1834505 0.21364005 0.18949227 -0.05386528
-0.014663614 -0.18719089 -0.027265271 -0.06625473 -0.02064318 0.2130162 -0.10806576 -0.15374413
0.096805826 -0.15776668 0.05149999 0.0046542943 -0.19093929 0.10369945 -0.1372619 0.20595144
-0.20988426 0.2574321 0.20696965 0.05693063 -0.03757508 -0.04262482 0.107610464 -0.09137296
-0.093596205 0.034296542 -0.16442034 -0.09249772 -0.071042456 -0.12514515 0.04509602 -0.07988576
0.041763216 0.3184552 -0.035761304 0.10984407 0.092938915 -0.097881675 -0.15022983 0.04089407
00000000: ebce 9c3e 23b3 8dbe 881d a9bd a6e4 b83c
00000010: 068f e13c edf3 513e a037 033e 3408 08bd
00000020: 1947 563e bb23 78bd d484 e23c ae35 bd3c
00000030: 229b 333e 1026 623c 1b64 bf3d 9afa 663d
00000040: 9534 82bd b31d 173e e26e 64bd 27f9 34bd
00000050: 607c 35bd 9784 f63d 2c58 4abd 664f d43d
00000060: f4d4 b63d dd83 80be 8c89 4e3e 112d 3bbe
00000070: a3f5 2b3d 1c35 e93b c1a6 c33d df14 083e
00000080: 5ff8 da3b c4a5 34be b34e 0ebe e6a7 60be
00000090: 3cf3 873d f5bb 4fbb 411e 60bc b86d 91bd
000000a0: 92ea 913c 8a5f 5fbd f59a 493d 6e32 1dbd
000000b0: 6c26 e8bd ac56 fc3d ef55 30bd a6c9 3c3e
000000c0: e77b 963d 02c1 aabd 257a 8a3e e300 4abc
000000d0: 0800 61bc 3c97 b23d 6c3d 8f3d cdb2 e2bd
000000e0: 5464 3d3e e0fc b0bd b7b9 99bd 9e85 533d
000000f0: 523f 49bd 4f16 763d ec5c e83d b7cf 9fbe
00000100: 2d2b 543e f8bf 2a3e 6940 753d 0c85 2c3d
00000110: 47ca 30bd 17ce b1bb fbe9 c93d c55c 3b3e
00000120: a743 06be 83d9 46be 1500 82bd 7c1a 963b
00000130: 8f2e 23bd 442a 21bd 84ce 293e 5631 ecbd
00000140: 600b 5abc 2322 33be 91ac 053c 5fa0 55bd
00000150: e0b2 07be 100f a4bc 3582 613c 6cb0 93bd
00000160: 5090 66bd 7fd8 bf3d 7a0c 853d d8a9 b9bd
00000170: c213 f33d cb60 ed3b 4d6b 0d3d a9a6 a63d
00000180: f60f 0ebe c7eb 8f3d 2223 83bd 04a4 fdbb
00000190: 07ea d8bd d001 dd3c 1496 24be d1e8 16be
000001a0: 9911 c93c 7998 13be cbe0 ecbd 9a79 87bd
000001b0: c98e b93c 0ccb 92bd 88e6 14be 4c49 91bd
000001c0: bd8b d83c fa0d 2ebd ce31 7fbe 94fa 07bd
000001d0: 8fe8 483e 5214 e9bd 7dcd d93c 0894 e6bd
000001e0: 0160 113e 27d6 51be cc7e b8bc 6d5d adbd
000001f0: d083 943e 2d39 133e 6760 453e 8e78 af3d
00000200: 12ee 6fbc 28ed 3e3e 9d76 803d 0869 12be
00000210: 4358 a2bd 752d e6bd 94b2 033e a0c9 833d
00000220: 35c2 6ebd 361f 763b dd12 073e bd2a 1cbc
00000230: 85f7 0dbe fabe d8bd 1f86 96bd 29da 48be
00000240: 09d0 22bd c24e 51be 3b7d 35bb bea0 35be
00000250: bae0 34bd dabc 5abd 5b2b c63b 52c3 963e
00000260: 6e3a 91bd f3b7 00be 733d e9bd 4380 b3bd
00000270: 8463 ddbb e97e 01be 9824 9a3b f717 203e
00000280: ca6d c7bb 5354 093d 04e0 893d b4cc cebd
00000290: eb37 503e 1eb5 95bd 1e39 7c3d 72e0 90bd
000002a0: de07 3e3e 9934 cd3d 29b7 de3c b6cc 8a3d
000002b0: 71f4 ef3d 7bc1 cd3d 450e b0bd c8a7 46bd
000002c0: dd3b 2dbd cc39 093e a8f9 ca3d b2e4 29be
000002d0: e94d 5f3e fff0 fa3d 880f 723e 5584 28be
000002e0: 53d5 65bd ddda fdbc 0477 1bbe ef63 0abe
000002f0: f419 02be 433d 89be 92e1 803e d5b7 01be
00000300: 742e 4e3e 6e1a 8abc 579d 26be 8034 1bbe
00000310: bb3d 6e3e 7c15 8bbd e49c ce3d ae41 f6bd
00000320: ceb6 693c 2cfd d2bd 9e98 4a3d 1c55 75bd
00000330: 3e0e e8bd e76c b33d f3ef 8e3d 9d29 0abd
00000340: 4a31 343e cffd 053d 8cfd 6cbc 7bfc 34bd
00000350: 73da 3b3e 75c4 5a3e 430a 423e d7a1 5cbd
00000360: a83f 70bc f8ae 3fbe 6b5b dfbc 8fb0 87bd
00000370: e31b a9bc eb20 5a3e 9551 ddbd 1a6f 1dbe
00000380: 2242 c63d 978d 21be a7f1 523d 0d83 983b
00000390: 9785 43be 6160 d43d 628e 0cbe efe4 523e
000003a0: e6eb 56be 24ce 833e daef 533e 1830 693d
000003b0: 54e8 19bd 5d97 2ebd e062 dc3d bf21 bbbd
000003c0: 5eaf bfbd 887a 0c3d ce5d 28be 726f bdbd
000003d0: b57e 91bd 0d26 00be 9bb6 383d 259b a3bd
000003e0: e80f 2b3d 8f0c a33e 727a 12bd eef5 e03d
000003f0: c256 be3d 3076 c8bd d9d5 19be 8a80 273d

net.2.bias f4 [60]
0.11898339 -0.12766689 -0.051121626 0.121867344 -0.0352523 -0.066090114 -0.11036599 -0.040796988
0.053774618 -0.08521677 -0.060546327 -0.049023837 -0.08246958 0.05549894 0.12945929 0.048049044
-0.13127251 0.09439402 -7.217557e-05 -0.064993985 0.057966813 -0.04343029 0.03319829 -0.033634145
-0.041775838 -0.091878474 0.008565255 0.022467902 0.070718594 0.09097598 0.09499037 0.035835586
-0.042701486 -0.07334428 0.009913425 -0.09344421 0.09934758 0.03246531 -0.033354964 -0.04459517
0.030757979 0.046467017 0.05996823 0.015450675 0.14121793 -0.10760433 0.01899539 0.058001176
-0.17631932 -0.045594808 0.014408268 -0.12233869 -0.100012355 -0.020399373 -0.05033144 0.08313843
0.0062063816 -0.07819293 -0.09316079 0.06870488
00000000: 90ad f33d 1cbb 02be e964 51bd 9695 f93d
00000010: b764 10bd 415a 87bd 9007 e2bd be1a 27bd
00000020: c642 5c3d 2186 aebd 6dff 77bd 38cd 48bd
00000030: d0e5 a8bd db52 633d fa90 043e 13cf 443d
00000040: 4d6c 06be a751 c13d f75c 97b8 911b 85bd
00000050: 9c6e 6d3d f6e3 31bd eefa 073d f5c3 09bd
00000060: 241d 2bbd c82a bcbd 4955 0c3c 9b0e b83c
00000070: e9d4 903d 9d51 ba3d 508a c23d 56c8 123d
00000080: c1e7 2ebd 8735 96bd eb6b 223c ae5f bfbd
00000090: be76 cb3d 58fa 043d 379f 08bd 6da9 36bd
000000a0: 28f8 fb3c 3354 3e3d 3fa1 753d d424 7d3c
000000b0: 6f9b 103e a95f dcbd 389c 9b3c a492 6d3d
000000c0: 0d8d 34be 9fc1 3abd a810 6c3c b58c fabd
000000d0: 47d3 ccbd 961c a7bc 5728 4ebd 7b44 aa3d
000000e0: e75e cb3b 9d23 a0bd 16cb bebd 25b5 8c3d

net.5.weight f4 [1, 60]
-0.2824737 0.0048860153 0.328032 -0.092357256 0.0001449829 0.037682556 -0.0043578064 0.24221833
-0.09430571 0.17634495 0.0031542573 0.055233397 -0.009341308 -0.16883908 -0.0043810722 0.19559991
0.004241442 -0.050745953 0.005858701 -0.045260157 -0.17501344 0.077791624 -0.16572227 0.053749375
-0.021014893 -0.00023898407 0.0035725709 -0.028753845 0.115993604 0.39433983 0.0034313593 -0.016768545
-0.025079705 -0.13063154 0.0970061 0.13869411 -0.04393566 0.2228255 -0.11571302 -0.03407692
0.015937733 0.1962417 0.24567664 0.26723847 -0.005702162 0.06818304 0.20322071 0.052266143
0.06696202 -0.035728697 0.21098936 -0.15902306 0.010061198 -0.00258424 0.18919559 -0.13345774
3.5715835e-05 0.013935187 -0.0018941434 -0.13651256
00000000: 65a0 90be de1a a03b cff3 a73e cd25 bdbd
00000010: 8d06 1839 0659 1a3d eecb 8ebb 1508 783e
00000020: 5a23 c1bd c593 343e a8b7 4e3b 6a3c 623d
00000030: 490c 19bc 27e4 2cbe 198f 8fbb 584b 483e
00000040: cbfb 8a3b fdda 4fbd 59fa bf3b b762 39bd
00000050: b936 33be 3751 9f3d 19b3 29be 4e28 5c3d
00000060: 6d27 acbc cc97 7ab9 cb21 6a3b 2f8d ebbc
00000070: 0e8e ed3d e9e6 c93e a8e0 603b 305e 89bc
00000080: f473 cdbc 46c4 05be 22ab c63d d405 0e3e
00000090: e1f5 33bd 5e2c 643e f3fa ecbd 3e94 0bbd
000000a0: d98f 823c 96f3 483e a892 7b3e 7bd3 883e
000000b0: 34d9 babb 8da3 8b3d 1719 503e 0615 563d
000000c0: 6223 893d 4158 12bd 980d 583e f1d6 22be
000000d0: b9d7 243c 5a5c 29bb 7dbc 413e 25a9 08be
000000e0: 96cd 1538 6950 643c e844 f8ba f3c9 0bbe
