results of reviewer/XJTU results/3-3/Experiment6/model.pth (torch, 59838 bytes, 14 tensors)

encoder.net.0.weight f4 [60, 17]
-0.17504807 0.109282926 0.16799523 0.08227675 0.055234928 0.037449818 0.06749629 0.13821924
-0.0996037 0.020390054 -0.14592288 -0.28161657 -0.055414934 -0.23860663 -0.16552663 -0.045424838
0.041904353 -0.21564747 0.018893706 0.13121063 -0.09181597 0.036314446 -0.08130443 0.07977921
-0.11949782 -0.23178571 0.11513366 -0.16217376 0.03478737 -0.17224467 0.120804064 0.08872364
-0.35764402 0.06670609 0.20267941 0.18349448 -0.32898077 0.08116497 -0.018758288 -0.047224857
0.19957596 -0.029655607 -0.047450084 -0.09724303 0.044593785 -0.23590894 -0.12240156 -0.050849278
0.059018474 -0.059301812 -0.03933683 0.107116684 0.19303562 0.012273871 -0.09588894 0.19873853
0.17080061 0.010487819 -0.10503897 -0.36109114 -0.088275746 -0.1684572 -0.02509577 0.11707957
0.17794748 -0.47155464 0.031350244 -0.006361717 -0.069218025 0.25690675 0.11295549 0.053856652
0.066847466 -0.06332362 0.08429112 0.17781141 0.03999432 0.20863557 -0.09482865 0.028921148
-0.13322674 -0.20814732 -0.27338144 -0.052786972 -0.08149762 -0.17025004 -0.21159786 -0.14292778
-0.15063733 0.095564544 -0.076606505 0.10599038 -0.07222706 -0.047650114 0.34694177 -0.07792925
0.29892403 -0.2116755 -0.04404056 -0.024100887 0.24217162 -0.11748973 0.12363614 0.059803445
0.07441972 -0.124924436 0.116399735 -0.18948878 -0.2811385 -0.32013202 -0.030988261 -0.12015411
0.063865475 0.10958156 0.15155311 -0.011024076 0.32443097 -0.075387366 0.035695247 0.019668445
0.25010568 0.115905665 -0.059553236 0.053105872 0.18762316 -0.2627504 -0.18019283 0.16999857
0.09166071 -0.0213253 0.031106519 0.09197571 0.5128934 0.06995569 0.14445566 -0.26174226
-0.09744947 -0.120873265 0.27836716 0.24367115 -0.07629441 0.22325462 0.12078164 -0.3569835
0.012031913 -0.06894595 0.028216982 -0.07877338 0.018948136 0.010128111 -0.067112766 -0.19054799
-0.030786643 0.07725923 0.101634175 0.060542315 -0.31456262 -0.11052403 -0.058973033 0.1478718
-0.04669183 0.2638301 -0.0069323145 -0.13326189 -0.058387354 0.18364792 0.02578708 0.09411135
-0.09819084 0.16995217 0.13283068 -0.21626405 0.06385629 -0.090355136 -0.19468026 -0.04513928
-0.14591768 0.16006628 0.05586006 0.12374378 0.03360358 0.02404513 -0.0628783 0.08874737
-0.037898667 0.06627808 0.27840236 0.10169494 0.113488875 -0.015452488 0.07912347 -0.2585755
-0.22412385 0.29021418 0.09698948 -0.1463285 0.22484453 0.04205753 -0.15513438 0.058948886
-0.152935 -0.1430613 -0.19782768 -0.19489443 0.16444255 0.023515066 0.18121795 -0.12601903
0.09053157 -0.13578326 -0.16385795 -0.0611977 -0.10271809 -0.17827953 -0.1576613 0.15800552
0.06839172 -0.07222519 0.13655603 -0.20975885 -0.30797127 0.0038344339 0.013202428 0.06769069
-0.17374347 -0.15214324 -0.21601172 0.058580834 -0.2162987 0.00736453 0.23225994 0.1893706
0.06473041 0.042075034 0.10983761 -0.2504865 -0.42630875 -0.023895642 -0.19347218 0.07049548
-0.13876975 -0.14299802 0.17497635 -0.094221756 -0.26219928 -0.002251853 -0.13629594 -0.12277784
-0.006720007 -0.17467615 -0.076272435 0.10603192 -0.034654208 -0.23006888 0.22082168 0.1927704
00000000: cd3f 33be bacf df3d f106 2c3e b680 a83d
00000010: 053e 623d fb64 193d 7f3b 8a3d 5889 0d3e
00000020: 06fd cbbd 0b09 a73c cf6c 15be 0c30 90be
00000030: c5fa 62bd 4c55 74be d07f 29be 650f 3abd
00000040: e6a3 2b3d b1d2 5cbe f9c6 9a3c 145c 063e
00000050: 030a bcbd 75be 143d f082 a6bd 4863 a33d
00000060: 46bb f4bd 3c59 6dbe 32cb eb3d e110 26be
00000070: 347d 0e3d e860 30be 1f68 f73d bdb4 b53d
00000080: 1e1d b7be 349d 883d 318b 4f3e fae5 3b3e
00000090: 2b70 a8be d239 a63d fbaa 99bc da6e 41bd
000000a0: a45d 4c3e 51f0 f2bc 055b 42bd 5b27 c7bd
000000b0: f9a7 363d 1d92 71be abad fabd 5547 50bd
000000c0: 5bbd 713d 75e6 72bd a81f 21bd fe5f db3d
000000d0: 21ab 453e 5918 493c 6c61 c4bd 1d82 4b3e
000000e0: 5be6 2e3e 1ad5 2b3c ac1e d7bd f0e0 b8be
000000f0: eac9 b4bd 0b80 2cbe a595 cdbc 6ac7 ef3d
00000100: dd37 363e 9c6f f1be 1d69 003d f375 d0bb
00000110: 2ec2 8dbd 4889 833e 3555 e73d cb98 5c3d
00000120: 53e7 883d d0af 81bd d3a0 ac3d 3214 363e
00000130: 16d1 233d 90a4 553e 8635 c2bd 0bec ec3c
00000140: 976c 08be 9224 55be a7f8 8bbe 2737 58bd
00000150: 39e8 a6bd 0756 2ebe 1cad 58be a95b 12be
00000160: ac40 1abe 58b7 c33d dfe3 9cbd 7c11 d93d
00000170: c8eb 93bd c42c 43bd 5aa2 b13e 5f99 9fbd
00000180: 920c 993e 76c1 58be e063 34bd 396f c5bc
00000190: d6fb 773e 759e f0bd f234 fd3d 75f4 743d
000001a0: 5e69 983d 62d8 ffbd fc62 ee3d 5909 42be
000001b0: 63f1 8fbe 58e8 a3be 18db fdbc 5c13 f6bd
000001c0: e7cb 823d 4c6c e03d bd30 1b3e 539e 34bc
000001d0: d11b a63e b164 9abd 2e35 123d b81f a13c
000001e0: da0d 803e f35f ed3d 18ee 73bd 8b85 593d
000001f0: 4920 403e 3887 86be 7884 38be 1b14 2e3e
00000200: 9cb8 bb3d 65b2 aebc 19d3 fe3c c35d bc3d
00000210: fb4c 033f ee44 8f3d 2fec 133e 1503 86be
00000220: 9693 c7bd 678c f7bd 2486 8e3e ee84 793e
00000230: 3e40 9cbd dc9c 643e 5d5c f73d 8bc6 b6be
00000240: 8021 453c 8933 8dbd 4d27 e73c f053 a1bd
00000250: 1f39 9b3c 60f0 253c 6b72 89bd 031f 43be
00000260: 4534 fcbc 163a 9e3d 9425 d03d 38fb 773d
00000270: 5a0e a1be 6c5a e2bd b58d 71bd b56b 173e
00000280: ef3f 3fbd bd14 873e 7828 e3bb ce75 08be
00000290: 9427 6fbd 330e 3c3e 6d3f d33c 74bd c03d
000002a0: 4718 c9bd f107 2e3e c404 083e 5374 5dbe
000002b0: 16c7 823d 1d0c b9bd 435a 47be f7e3 38bd
000002c0: 726b 15be 6ae8 233e 85cd 643d 616d fd3d
000002d0: e8a3 093d 4bfa c43c 57c6 80bd 2ec1 b53d
000002e0: a23b 1bbd cdbc 873d c18a 8e3e 7045 d03d
000002f0: db6c e83d 6f2c 7dbc 7c0b a23d 0264 84be
00000300: b980 65be f496 943e 6ca2 c63d 23d7 15be
00000310: a53d 663e 8444 2c3d 8cdb 1ebe 6374 713d
00000320: fe9a 1cbe a97e 12be 5793 4abe 6892 47be
00000330: a163 283e aba2 c03c 3391 393e 220b 01be
00000340: 9e68 b93d c40a 0bbe 61ca 27be 71aa 7abd
00000350: dd5d d2bd e98e 36be f771 21be 33cc 213e
00000360: f510 8c3d cdea 93bd 58d5 0b3e 06cb 56be
00000370: 69ae 9dbe 204b 7b3b ff4e 583c 6ba1 8a3d
00000380: cfe9 31be 70cb 1bbe 2d32 5dbe 75f2 6f3d
00000390: 687d 5dbe 2852 f13b 8dd5 6d3e 5eea 413e
000003a0: 6191 843d df56 2c3d 8af2 e03d c43f 80be
000003b0: 2445 dabe cbc0 c3bc 921d 46be ef5f 903d
000003c0: a819 0ebe 136e 12be 002d 333e 56f7 c0bd
000003d0: fc3e 86be d393 13bb 2a91 0bbe f372 fbbd
000003e0: 8133 dcbb 4ede 32be b934 9cbd 4327 d93d
000003f0: 92f1 0dbd 2d97 6bbe 141f 623e 9b65 453e

encoder.net.0.bias f4 [60]
-0.03022807 -0.036137573 0.025752516 0.022986747 -0.054654483 0.013732074 0.03131587 -0.033438932
0.022762636 0.044956762 0.013464998 -0.033437155 -0.030058743 -0.03749135 -0.034780968 0.029465832
-0.051900744 -0.020780215 -0.023670513 -0.035216007 0.03516525 -0.032591186 0.038113583 -0.04284173
-0.052264847 -0.030581625 0.034331623 -0.031143777 0.06912294 -0.033571463 -0.05111366 -0.012066293
0.039139908 0.022993568 0.012355761 0.0050954497 -0.030127114 -0.034264382 -0.018499196 0.032007854
-0.02056899 0.031424765 -0.04624301 -0.027259966 0.038594037 -0.025604451 -0.02760518 0.035788085
0.015857944 -0.036761485 0.027096974 0.034434427 -0.047927033 0.012180039 0.029106967 0.028104523
-0.024272889 -0.023391329 0.024899308 0.008068995
00000000: dca0 f7bc fe04 14bd f1f6 d23c b44e bc3c
00000010: 61dd 5fbd 7efc 603c 1245 003d 43f7 08bd
00000020: b578 ba3c 9524 383d 4c9c 5c3c 66f5 08bd
00000030: c13d f6bc 8890 19bd 7d76 0ebd 5462 f13c
00000040: e095 54bd 453b aabc aae8 c1bc a93e 10bd
00000050: 7009 103d 567e 05bd fd1c 1c3d cf7a 2fbd
00000060: aa13 56bd 5186 fabc 519f 0c3d 3c21 ffbc
00000070: 5490 8d3d 3b82 09bd 8f5c 51bd b3b1 45bc
00000080: 2b51 203d 025d bc3c d16f 4a3c bbf7 a63b
00000090: 23cd f6bc cf58 0cbd a08b 97bc ab1a 033d
000000a0: 4c80 a8bc 41b7 003d 4f69 3dbd 4b50 dfbc
000000b0: c814 1e3d 6dc0 d1bc 4224 e2bc 8796 123d
000000c0: 85e8 813c 3693 16bd 79fa dd3c 1d0b 0d3d
000000d0: 234f 44bd c98e 473c bc71 ee3c 753b e63c
000000e0: f0d7 c6bc 2c9f bfbc a2f9 cb3c d133 043c

encoder.net.2.weight f4 [60, 60]
0.25175512 -0.11234516 0.074753866 -0.0588678 0.004584735 -0.07005583 -0.1313754 -0.13480781
0.016199002 -0.06800948 0.07894067 0.14656126 -0.010495622 -0.0385595 0.0038018455 -0.12362974
0.101965435 0.14639452 0.10973212 -0.08811209 -0.24083982 0.005517105 -0.06461399 -0.15044412
-0.120753706 0.02033899 -0.13253273 -0.06363419 -0.30429596 0.12128661 -0.08918875 0.048722997
-0.003911981 -0.07652961 -0.10953025 0.08334763 -0.0017345117 0.10903 0.20053636 -0.0209764
-0.17543563 0.051214322 -0.029710442 0.081320345 -0.041641057 -0.03670532 0.11890624 -0.13999328
-0.30141413 -0.1951724 0.049621392 0.015694465 0.24234955 -0.0937723 0.025826495 0.11884784
-0.037627105 0.20136432 -0.2473983 -0.109245546 -0.16577828 -0.0950486 -0.0014991382 -0.24039736
-0.07072892 0.14210884 -0.008716795 0.076010995 0.10039195 0.07400568 -0.06583925 0.084099874
0.12138831 0.011200608 -0.03422592 -0.119322345 0.08239068 0.1396971 0.06302756 -0.10201457
0.10923367 -0.12601009 -0.18411447 0.18858679 -0.026174165 -0.028821347 -0.075853296 0.1501047
0.16938278 0.09191535 0.0594703 0.0742667 0.087962836 -0.04465342 -0.13836062 0.030964287
-0.09136004 -0.08816032 -0.09754303 0.08351583 -0.12546946 -0.075099036 -0.1469745 -0.122565694
0.05133787 0.06627555 0.021644998 0.16826849 0.2411117 -0.0680002 0.1591411 -0.14841062
0.09208759 -0.12339697 -0.08373705 -0.010221758 0.028178832 -0.26001853 0.017990185 0.19630189
-0.33195475 -0.13180442 -0.18470538 -0.06865608 0.32993463 -0.015814237 -0.05337436 -0.16202477
-0.1576763 0.11935791 -0.02412077 0.09527102 -0.0786948 -0.049980775 -0.030975128 -0.14877981
0.13097976 0.103803694 0.023157839 0.16226079 -0.078397654 0.12529202 0.15995386 0.13414149
-0.09792249 0.07427873 0.011843344 -0.07832727 -0.10547487 0.20336501 0.07406557 0.34255195
-0.102948934 -0.22263896 -0.014121249 0.026510939 0.07910522 -0.003695969 -0.05109446 -0.016571159
-0.067868546 0.19944453 0.39458048 -0.15010253 0.23510768 0.16189463 -0.05311135 0.091740005
0.07461902 0.12990798 -0.10437083 0.019290552 0.07466394 -0.10472897 0.09069713 -0.11170958
0.40354863 0.21789362 0.12496949 0.04857696 -0.007875706 -0.119272776 -0.09690256 -0.26437607
-0.14468656 0.20619503 0.00048858277 -0.06545675 -0.024125772 0.1850843 -0.12330983 -0.09767784
-0.21243492 0.14797485 -0.15051536 -0.17376931 0.12447391 0.19845991 0.05621135 -0.011042872
0.27782127 -0.08557281 -0.103555515 0.08463335 -0.050251417 0.089828186 -0.12671272 0.08694499
0.07230785 -0.006106394 -0.25993514 -0.05372581 -0.051526915 -0.16515037 0.097288184 -0.2597345
-0.064276814 -0.15591574 -0.07589709 -0.024327675 0.043196563 0.08469513 0.106526814 -0.06832379
0.09820158 -0.036166053 0.057967022 0.097249344 -0.017378991 0.027137408 0.10676493 0.0068628658
-0.0233966 0.15371242 -0.035861652 -0.13579386 -0.028371917 0.01740611 -0.033935793 0.14589185
0.010304175 0.15282236 0.19930857 0.14489084 -0.11659016 -0.045368772 -0.098068066 0.18403162
0.067930646 -0.06233144 0.055100136 -0.18114223 0.122102275 0.16878642 0.18196295 0.1464803
00000000: 0ce6 803e 3815 e6bd 8e18 993d 5d1f 71bd
00000010: 8b3b 963b 6e79 8fbd 4687 06be 0f0b 0abe
00000020: c5b3 843c 8e48 8bbd a5ab a13d 2814 163e
00000030: d4f5 2bbc 91f0 1dbd 6228 793b 9731 fdbd
00000040: 41d3 d03d 72e8 153e 3cbb e03d 1d74 b4bd
00000050: b79e 76be d5c8 b43b 5754 84bd 060e 1abe
00000060: b84d f7bd f49d a63c a9b6 07be a452 82bd
00000070: aecc 9bbe 1d65 f83d 97a8 b6bd c491 473d
00000080: 1330 80bb 8ebb 9cbd 6551 e0bd 2ab2 aa3d
00000090: 8e58 e3ba 1f4b df3d 6759 4d3e b3d6 abbc
000000a0: 66a5 33be 1cc6 513d 5063 f3bc 488b a63d
000000b0: d08f 2abd 5158 16bd 1d85 f33d 665a 0fbe
000000c0: f452 9abe 46db 47be cd3f 4b3d ae91 803c
000000d0: 7b2a 783e b10b c0bd 1692 d33c 7f66 f33d
000000e0: e11e 1abd 7332 4e3e fb55 7dbe 21bc dfbd
000000f0: c8c1 29be d7a8 c2bd bb7e c4ba ba2a 76be
00000100: 53da 90bd fb84 113e e3d0 0ebc a7ab 9b3d
00000110: 4b9a cd3d 4a90 973d bbd6 86bd 8e3c ac3d
00000120: 6f9a f83d c182 373c 7a30 0cbd 465f f4bd
00000130: 72bc a83d c20c 0f3e 9814 813d 04ed d0bd
00000140: e7b5 df3d ca08 01be 8188 3cbe e51c 413e
00000150: 346b d6bc bf1a ecbc f958 9bbd 0cb5 193e
00000160: ae72 2d3e 1d3e bc3d 2197 733d 2419 983d
00000170: dc25 b43d 81e6 36bd 68ae 0dbe d1a8 fd3c
00000180: f91a bbbd 668d b4bd a4c4 c7bd 590a ab3d
00000190: 117b 00be 86cd 99bd 7c80 16be b903 fbbd
000001a0: a947 523d 7abb 873d da50 b13c 934e 2c3e
000001b0: fce5 763e b043 8bbd e2f5 223e f4f8 17be
000001c0: 6b98 bc3d 8db7 fcbd 557e abbd 2979 27bc
000001d0: 4bd7 e63c 2621 85be 2760 933c 5d03 493e
000001e0: f9f5 a9be bdf7 06be 6823 3dbe 8f9b 8cbd
000001f0: 31ed a83e dc8c 81bc 139f 5abd d2e9 25be
00000200: e575 21be eb71 f43d ec98 c5bc 741d c33d
00000210: bd2a a1bd a4b8 4cbd 8dbf fdbc bc59 18be
00000220: 8f1f 063e 0897 d43d 82b5 bd3c b127 263e
00000230: f38e a0bd 8d4c 003e f2ca 233e 635c 093e
00000240: 968b c8bd 721f 983d 960a 423c 0c6a a0bd
00000250: 3503 d8bd eb3e 503e b1af 973d f862 af3e
00000260: e4d6 d2bd 78fb 63be d05c 67bc 782d d93c
00000270: eb01 a23d 1238 72bb 6d48 51bd 3dc0 87bc
00000280: aafe 8abd 303b 4c3e 7406 ca3e 7ab4 19be
00000290: 11c0 703e b5c7 253e 498b 59bd 2fe2 bb3d
000002a0: dbd1 983d 9906 053e 60c0 d5bd 3807 9e3c
000002b0: 68e9 983d 247c d6bd 6bbf b93d fec7 e4bd
000002c0: ed9d ce3e 811f 5f3e 01f0 ff3d a2f8 463d
000002d0: 1b09 01bc 4945 f4bd d974 c6bd 4d5c 87be
000002e0: b728 14be ca24 533e 3c14 003a 300e 86bd
000002f0: 69a3 c5bc bd86 3d3e dd89 fcbd 520b c8bd
00000300: 8a88 59be b886 173e b320 1abe 95f0 31be
00000310: 2dec fe3d 1339 4b3e df3d 663d 2aed 34bc
00000320: 973e 8e3e cc40 afbd ea14 d4bd 4054 ad3d
00000330: 6ed4 4dbd d7f7 b73d fbc0 01be 3710 b23d
00000340: 2316 943d 2518 c8bb 3816 85be 980f 5cbd
00000350: e30d 53bd 2e1d 29be 073f c73d ecfb 84be
00000360: 90a3 83bd 60a8 1fbe ef6f 9bbd d54a c7bc
00000370: e1ee 303d a474 ad3d bb2a da3d 58ed 8bbd
00000380: e91d c93d db22 14bd d46e 6d3d aa2a c73d
00000390: 635e 8ebc 454f de3c 92a7 da3d e4e1 e03b
000003a0: 3aaa bfbc ca66 1d3e abe3 12bd 8c0d 0bbe
000003b0: 396c e8bc 4297 8e3c 4200 0bbd ac64 153e
000003c0: d8d2 283c 777d 1c3e 8c17 4c3e 445e 143e
000003d0: d2c6 eebd 9bd4 39bd e9d7 c8bd c972 3c3e
000003e0: 391f 8b3d 414f 7fbd aeb0 613d 597d 39be
000003f0: c210 fa3d 59d6 2c3e 7f54 3a3e effe 153e

encoder.net.2.bias f4 [60]
-0.031969164 0.03586656 -0.02736287 0.036666624 0.033448398 -0.033263452 0.04578076 -0.024501527
0.04264902 -0.03316082 0.030440144 -0.024509503 0.02818581 -0.037456207 -0.024569964 -0.03531851
0.03818699 -0.029504996 -0.03723311 0.04226371 -0.028903767 -0.036068287 0.030175071 -0.032979447
-0.032910123 0.019538505 -0.034445394 0.030942308 -0.045165766 0.05386206 0.030371351 -0.016628137
0.028919062 -0.009169867 -0.03690213 -0.0344624 -0.03361338 0.025506986 -0.033482525 0.047040727
-0.032523986 0.0272639 0.0308668 0.034404527 0.033077452 -0.033745393 0.042494085 0.020761615
0.005514131 0.005569402 0.029230198 -0.0039698924 -0.03202138 -0.03697175 -0.03815447 -0.047619205
0.026074547 0.031077087 0.05896303 0.035897177
00000000: 19f2 02bd d0e8 123d 1928 e0bc be2f 163d
00000010: 3001 093d 423f 08bd 9b84 3b3d 6db7 c8bc
00000020: bdb0 2e3d a4d3 07bd 9c5d f93c 27c8 c8bc
00000030: eee5 e63c ae6b 19bd f346 c9bc 24aa 10bd
00000040: f669 1c3d 76b4 f1bc bf81 18bd b61c 2d3d
00000050: 98c7 ecbc 57bc 13bd b631 f73c 7515 07bd
00000060: c4cc 06bd 370f a03c 9d16 0dbd b97a fd3c
00000070: bdff 38bd 779e 5c3d 57cd f83c bb37 88bc
00000080: abe7 ec3c 363d 16bc b026 17bd 7228 0dbd
00000090: 2fae 09bd 07f4 d03c f924 09bd c7ad 403d
000000a0: df37 05bd 8b58 df3c 5fdc fc3c c3eb 0c3d
000000b0: 397c 073d 9c38 0abd 470e 2e3d 4314 aa3c
000000c0: e2af b43b 887f b63b 2b74 ef3c df15 82bb
000000d0: da28 03bd b16f 17bd dd47 1cbd 5b0c 43bd
000000e0: 4a9a d53c 6095 fe3c 3883 713d eb08 133d

encoder.net.5.weight f4 [32, 60]
-0.27443978 -0.15512104 -0.08721998 -0.15302055 -0.045290597 -0.08017616 -0.0606443 0.14001833
-0.0059672934 0.0023620238 0.1708288 -0.37099364 -0.03550948 0.041259054 0.0889974 0.035493415
-0.22160731 0.16846909 -0.041262865 0.081834085 -0.066059574 -0.19653825 -0.18591796 -0.018903585
-0.110947 -0.029412802 0.16332369 -0.1357346 -0.042671256 -0.042665996 -0.16031955 -0.029656539
0.10594377 -0.12598492 0.046136774 -0.040742557 -0.01703754 -0.1211923 0.081999145 0.11727368
0.020882528 0.075888075 -0.119593985 -0.11455411 -0.0491267 0.10468568 -0.10356378 -0.05434248
0.31440017 0.033652533 -0.04779599 0.08347689 -0.05701694 -0.062219985 0.0057636146 -0.17911007
-0.039720334 0.01619503 0.20634255 0.18789771 0.06323568 -0.07048628 -0.026329847 -0.046194892
-0.119251266 0.2913152 0.13291898 0.012544516 -0.059396878 -0.15915926 0.18609905 0.086671956
-0.30392903 0.038052745 -0.17561148 -0.0014091316 -0.16485976 0.07723213 -0.04479463 0.023850607
0.043389328 0.08074007 -0.21025144 0.013146693 0.014506037 -0.115881406 -0.0027307016 0.201634
0.11377893 -0.0021257687 -0.11016333 -0.06812677 -0.14828709 0.05012521 -0.03302245 0.27863714
-0.033183306 -0.1435704 0.103239544 -0.22608855 0.17850646 0.1810616 -0.022044841 0.16439606
-0.20323142 0.15562455 -0.27062476 -0.16447578 -0.06113069 0.19529477 0.08780496 0.073260486
0.013621188 -0.13320592 -0.018777741 0.0899632 0.17594977 0.27090073 -0.16168097 0.12265808
0.20052372 0.14051418 0.07745952 -0.072526984 -0.1640678 -0.27817816 -0.09768488 -0.08455706
0.08693938 0.1417507 -0.04120497 0.22287826 -0.022236655 -0.2640348 -0.02144442 -0.18901964
0.25051612 -0.17629792 0.027407944 0.12790936 0.077643275 -0.080116615 0.105339035 -0.40595695
0.0353315 0.18170129 -0.27519602 0.08638735 -0.21276443 -0.12735274 0.098215684 0.095705286
0.18010001 -0.1232866 0.16814329 -0.28096503 0.107414976 -0.19442284 -0.06025287 0.07498201
0.07598263 -0.024214474 0.21219616 -0.0340615 0.08358614 -0.014575402 -0.037097342 -0.2814756
-0.09065801 -0.1106331 -0.0016030186 0.24073501 0.1926563 -0.18085885 -0.060476296 -0.22088835
0.0827525 0.22335632 0.06896917 0.22547434 -0.0026174663 -0.40320933 0.23311861 -0.4131391
0.031871878 0.12849772 -0.07753928 0.011803228 0.02174617 -0.048707515 -0.07180703 -0.12436905
0.111479744 -0.032549404 0.023058202 -0.08445145 -0.08181774 0.1672274 -0.04089112 -0.1401575
0.054154117 0.22812289 -0.009163957 -0.064399466 0.18447195 -0.03691187 -0.19623634 -0.032710556
0.025632434 -0.13875319 0.3321384 0.08053154 0.09264133 -0.15862302 -0.1633505 0.07439984
0.19927919 -0.10681668 -0.12811448 -0.06957954 -0.31910664 -3.0024614e-05 0.050729007 0.17480011
-0.14318348 0.04680855 0.07259614 0.011080802 0.040785514 -0.17344943 -0.10018234 -0.0108338455
0.13966702 0.2594477 0.2213884 -0.03546958 -0.060314942 0.0039357077 -0.22278962 -0.20488243
0.026616026 -0.10378172 0.03813483 -0.16595379 0.028522935 -0.15026622 0.12274176 0.25569108
-0.057681292 -0.26494598 -0.10482344 0.1272538 0.069414526 -0.31157434 -0.01589259 0.03815774
00000000: 5f83 8cbe 0dd8 1ebe 64a0 b2bd 6bb1 1cbe
00000010: a282 39bd 6633 a4bd 2866 78bd f760 0f3e
00000020: 4989 c3bb 2fcc 1a3b bfed 2e3e e1f2 bdbe
00000030: 6372 11bd 41ff 283d 4544 b63d 8b61 113d
00000040: 07ed 62be 2983 2c3e 4003 29bd a198 a73d
00000050: 3e4a 87bd 5341 49be 4761 3ebe b1db 9abc
00000060: 2e38 e3bd 1ef3 f0bc 533e 273e 03fe 0abe
00000070: 0ec8 2ebd 8ac2 2ebd cf2a 24be 45f2 f2bc
00000080: 0cf9 d83d 3102 01be eaf9 3c3d abe1 26bd
00000090: 5092 8bbc ab33 f8bd 2bef a73d 2f2d f03d
000000a0: d611 ab3c 356b 9b3d b1ed f4bd 589b eabd
000000b0: 1439 49bd 7265 d63d 3f19 d4bd 3896 5ebd
000000c0: 0ff9 a03e 3dd7 093d bac5 43bd eff5 aa3d
000000d0: 988a 69bd 62da 7ebd b4dc bc3b a168 37be
000000e0: cab1 22bd 71ab 843c 764b 533e 4268 403e
000000f0: b581 813d 1c5b 90bd b1b1 d7bc db36 3dbd
00000100: 023a f4bd 4427 953e ea1b 083e 8387 4d3c
00000110: 244a 73bd a5fa 22be c090 3e3e 1181 b13d
00000120: 969c 9bbe 32dd 1b3d 7fd3 33be 9cb2 b8ba
00000130: ffd0 28be e12b 9e3d 937a 37bd 5962 c33c
00000140: 02b9 313d 0d5b a53d 274c 57be 3a65 573c
00000150: bbaa 6d3c 3b53 edbd 92f5 32bb 2579 4e3e
00000160: ed04 e93d 7b50 0bbb 509d e1bd 0c86 8bbd
00000170: 92d8 17be 1850 4d3d 8c42 07bd 87a9 8e3e
00000180: 38eb 07bd 1e04 13be 416f d33d c283 67be
00000190: 66ca 363e 3668 393e 6297 b4bc 7157 283e
000001a0: e61b 50be 0b5c 1f3e 548f 8abe 576c 28be
000001b0: 2d64 7abd 5afb 473e 16d3 b33d 9809 963d
000001c0: 672b 5f3c 2267 08be c7d3 99bc a03e b83d
000001d0: 2d2c 343e 80b3 8a3e b28f 25be 2934 fb3d
000001e0: 1756 4d3e f3e2 0f3e 19a3 9e3d 0789 94bd
000001f0: 6401 28be 5e6d 8ebe 030f c8bd 402c adbd
00000200: 460d b23d 1827 113e 8bc6 28bd 333a 643e
00000210: a529 b6bc 922f 87be 35ac afbc 5d8e 41be
00000220: a643 803e 7187 34be a086 e03c acfa 023e
00000230: 7003 9f3d 2e14 a4bd febb d73d 97d9 cfbe
00000240: c3b7 103d e70f 3a3e 7ee6 8cbe daeb b03d
00000250: ebde 59be c268 02be 4e25 c93d 2201 c43d
00000260: 236c 383e af7d fcbd c12d 2c3e a6da 8fbe
00000270: 62fc db3d c816 47be b7cb 76bd 2b90 993d
00000280: c89c 9b3d 6f5d c6bc f349 593e 1284 0bbd
00000290: 362f ab3d abcd 6ebc 62f3 17bd 921d 90be
000002a0: e8aa b9bd 9b93 e2bd 611c d2ba 3d83 763e
000002b0: b147 453e 1033 39be feb5 77bd 8e30 62be
000002c0: 257a a93d 85b7 643e b53f 8d3d bfe2 663e
000002d0: cc89 2bbb 7471 cebe a5b6 6e3e f886 d3be
000002e0: 168c 023d e894 033e eacc 9ebd 5462 413c
000002f0: 0625 b23c 8881 47bd 900f 93bd 33b5 febd
00000300: 7e4f e43d 8652 05bd 8ee4 bc3c e2f4 acbd
00000310: 0f90 a7bd a93d 2b3e 727d 27bd 7385 0fbe
00000320: b5d0 5d3d 0c99 693e 6c24 16bc dee3 83bd
00000330: 37e6 3c3e e730 17bd 2ef2 48be 81fb 05bd
00000340: 1cfb d13c 5115 0ebe 0b0e aa3e b8ed a43d
00000350: bdba bd3d 136e 22be 5a45 27be f15e 983d
00000360: d80f 4c3e b4c2 dabd 7130 03be b87f 8ebd
00000370: f261 a3be 5edd fbb7 38c9 4f3d cdfe 323e
00000380: b19e 12be 52ba 3f3d 49ad 943d 418c 353c
00000390: b60e 273d ba9c 31be 662c cdbd 7180 31bc
000003a0: df04 0f3e 54d6 843e a4b3 623e 8d48 11bd
000003b0: cd0c 77bd 1cf7 803b f622 64be b3cc 51be
000003c0: da09 da3c 838b d4bd 4433 1c3d caef 29be
000003d0: eea8 e93c 63df 19be 0860 fb3d f1e9 823e
000003e0: 3843 6cbd 00a7 87be acad d6bd d24e 023e
000003f0: 3429 8e3d ac86 9fbe 2d31 82bc 4a4b 1c3d

encoder.net.5.bias f4 [32]
-0.11318066 -0.04234705 0.038499404 -0.036577135 0.047492158 -0.06341107 -0.07926625 0.03771405
0.03913049 0.030100951 0.032450628 0.002628304 0.032904897 0.030466216 -0.093079716 -0.051715825
-0.0052945153 -0.042020716 0.045529258 -0.032770053 -0.02590432 0.037963167 -0.03818354 0.047338404
-0.027720038 -0.055158988 0.016278192 0.03570039 0.034569465 0.0468307 -0.037179723 -0.05573871
00000000: 43cb e7bd 1a74 2dbd 8db1 1d3d e8d1 15bd
00000010: 2387 423d aadd 81bd 5856 a2bd 0c7a 1a3d
00000020: 4b47 203d 4596 f63c f3ea 043d a03f 2c3b
00000030: 49c7 063d 4994 f93c 94a0 bebd f9d3 53bd
00000040: 9d7d adbb ea1d 2cbd e37c 3a3d e439 06bd
00000050: 4c35 d4bc 447f 1b3d 5866 1cbd eae5 413d
00000060: 2215 e3bc 64ee 61bd d859 853c 923a 123d
00000070: b698 0d3d 8cd1 3f3d c449 18bd 464e 64bd

predictor.net.1.weight f4 [32, 32]
-0.22856943 0.13438785 0.2523208 -0.3118117 -0.13272502 0.33607998 -0.03388819 0.019684028
-0.06496888 0.24471846 -0.018975131 -0.024337523 0.014514425 -0.12101167 -0.0029253084 -0.11436415
0.29610005 -0.06942911 0.25053614 0.5228847 0.0912353 -0.07403889 -0.19074897 -0.13901481
0.44738168 0.058271848 -0.030834123 -0.0530356 0.2276542 0.010769445 -0.015000698 0.13760746
0.09619466 0.13276878 0.53985137 -0.22966908 -0.21317881 -0.043619007 0.07650731 -0.06914446
0.13705279 -0.026906818 -0.18281633 0.23880169 0.14001659 0.07660328 -0.18810941 0.13151912
0.13635528 -0.04318566 0.26143748 -0.0775545 -0.026865067 0.043333996 0.013983189 0.11695959
-0.15390892 0.089123406 -0.30711943 0.029479513 -0.24799962 -0.15256718 -0.04279522 -0.07383898
-0.021375867 -0.043639004 0.086970225 0.10281853 -0.13726567 -0.08228831 -0.0981859 0.08269059
0.2885218 0.38131747 0.18749514 -0.048405003 0.1626364 0.11157615 0.032256007 -0.09176228
-0.19403595 0.038699 0.190738 0.01487288 -0.0411319 -0.004850391 -0.1372243 -0.024218649
-0.13077627 -0.11827003 -0.044973426 0.30963865 -0.26984936 0.18957812 0.14527096 0.22775957
0.07789422 -0.2825611 0.041489705 0.0045862757 -0.0073211896 0.35624537 -0.08695215 0.24277818
0.10000563 -0.0012353217 0.07210335 -0.15321052 -0.015324069 -0.14376871 0.16190617 0.19619294
0.086005256 -0.08835809 0.04525328 0.22257477 -0.071634315 0.0062576816 -0.11665155 -0.03426703
-0.2740598 -0.056231175 0.081264645 -0.07667819 0.124517985 -0.15620539 0.10331335 0.0358677
0.19444782 -0.049737804 0.13349381 -0.20602298 -0.099128224 0.025909426 0.07859246 0.038937826
-0.13908555 0.28231063 0.16931413 0.34419075 0.17004538 -0.04596521 0.042700466 0.27960727
-0.1675878 -0.08666013 -0.13912623 0.09840649 -0.16310008 -0.055277348 -0.059221104 -0.21818052
0.35455245 -0.03631034 0.12946992 0.15880671 0.055411406 -0.04778525 -0.1883219 0.047402844
-0.08613834 0.04191772 -0.08502098 -0.08208891 -0.03560778 0.019017221 -0.22185257 -0.32677788
0.1382165 0.034440685 -0.10653216 -0.17182903 -0.17223597 -0.161981 0.1375212 -0.36285087
0.31175527 0.11194146 0.15317029 0.10634662 0.18978447 -0.08572896 -0.011425847 0.03104381
0.059213873 0.024328895 -0.08998697 0.22545686 0.027111372 0.034811113 -0.27965665 -0.04292868
0.21582757 -0.22545736 -0.08376964 0.022741895 -0.10818431 0.034173485 -0.13654178 -0.11864624
-0.1496795 0.021526223 -0.19122502 0.13682024 0.13906936 -0.015180763 -0.13478535 0.11053212
0.13671586 0.0025803486 -0.012803117 -0.0821271 -0.005344226 -0.17066033 -0.16172725 0.04260311
-0.10751817 -0.282923 -0.1290534 -0.17689607 0.12937783 -0.045127284 -0.14623997 0.05128529
-0.0921588 0.24704492 -0.019236365 -0.11712411 0.18481457 -0.36176148 0.14727657 0.26676822
0.059141472 0.140496 0.051031135 -0.13910441 -0.120166495 0.16694227 0.093449295 -0.023810904
-0.18887345 -0.07670526 0.0927967 0.2392478 -0.0231177 -0.093581244 -0.1276216 -0.07129933
-0.22016698 -0.11665298 -0.029428726 0.112432204 0.05568765 0.1063469 -0.042101067 -0.29180092
00000000: 1b0e 6abe f89c 093e 3130 813e c8a5 9fbe
00000010: 11e9 07be ad12 ac3e 58ce 0abd 6640 a13c
00000020: 670e 85bd 7a97 7a3e bc71 9bbc 7c5f c7bc
00000030: e9cd 6d3c f7d4 f7bd 88b6 3fbb c037 eabd
00000040: 6d9a 973e d930 8ebd 4646 803e c6db 053f
00000050: 93d9 ba3d b4a1 97bd b353 43be e659 0ebe
00000060: 360f e53e 76ae 6e3d d897 fcbc db3b 59bd
00000070: 2f1e 693e 5472 303c 7dc5 75bc f8e8 0c3e
00000080: b501 c53d 8af4 073e b333 0a3f 5f2e 6bbe
00000090: 8c4b 5abe d8a9 32bd ddaf 9c3d 9c9b 8dbd
000000a0: 9157 0c3e b06b dcbc 3434 3bbe 6e88 743e
000000b0: 8260 0f3e 2ee2 9c3d c19f 40be f3ac 063e
000000c0: b8a0 0b3e 72e3 30bd 22db 853e e5d4 9ebd
000000d0: 2114 dcbc fd7e 313d bf19 653c 8288 ef3d
000000e0: 4d9a 1dbe 5586 b63d c23e 9dbe 057f f13c
000000f0: 9df3 7dbe 923a 1cbe 0a4a 2fbd e438 97bd
00000100: 711c afbc d0be 32bd 721d b23d 8592 d23d
00000110: 5f8f 0cbe c686 a8bd b015 c9bd af59 a93d
00000120: 21b9 933e 0b3c c33e bafe 3f3e 5344 46bd
00000130: 288a 263e 0982 e43d e01e 043d dded bbbd
00000140: 5cb1 46be d882 1e3d d350 433e 61ad 733c
00000150: ec79 28bd 07f0 9ebb 8784 0cbe 3066 c6bc
00000160: 37ea 05be 8f37 f2bd 0e36 38bd f588 9e3e
00000170: b229 8abe c420 423e e9c1 143e ce39 693e
00000180: 0187 9f3d d9ab 90be 1cf1 293d 7848 963b
00000190: 97e6 efbb cb65 b63e f813 b2bd d89a 783e
000001a0: c0cf cc3d 85ea a1ba ecaa 933d 38e3 1cbe
000001b0: ce11 7bbc 1b38 13be bbca 253e cde6 483e
000001c0: 8623 b03d 16f5 b4bd 815b 393d a4ea 633e
000001d0: 03b5 92bd 3d0d cd3b 02e7 eebd 965b 0cbd
000001e0: 9151 8cbe a952 66bd 146e a63d 7409 9dbd
000001f0: 4903 ff3d 4ef4 1fbe f395 d33d 02ea 123d
00000200: 541d 473e deb9 4bbd 9ab2 083e b0f7 52be
00000210: bd03 cbbd 0140 d43c 15f5 a03d 457d 1f3d
00000220: 716c 0ebe 058b 903e af60 2d3e c539 b03e
00000230: 6020 2e3e 0446 3cbd afe6 2e3d af28 8f3e
00000240: 239c 2bbe de7a b1bd 1b77 0ebe 5889 c93d
00000250: b503 27be 806a 62bd d491 72bd b76a 5fbe
00000260: e687 b53e 27ba 14bd c393 043e 3a9e 223e
00000270: 12f7 623d 77ba 43bd 75d7 40be 7c29 423d
00000280: 4c69 b0bd eab1 2b3d 7b1f aebd 3b1e a8bd
00000290: 77d9 11bd 01ca 9b3c 522d 63be 6e4f a7be
000002a0: a088 0d3e ad11 0d3d 882d dabd f3f3 2fbe
000002b0: a05e 30be 59de 25be 5cd2 0c3e 97c7 b9be
000002c0: 639e 9f3e 9041 e53d acd8 1c3e 42cc d93d
000002d0: dc56 423e aa92 afbd 7a33 3bbc 974f fe3c
000002e0: 3f8a 723d 644d c73c 174b b8bd 2ade 663e
000002f0: ab18 de3c 1996 0e3d 282f 8fbe fcd5 2fbd
00000300: e701 5d3e 4bde 66be 6b8f abbd 364d ba3c
00000310: bc8f ddbd 7ff9 0b3d 9cd1 0bbe cdfc f2bd
00000320: 9545 19be c357 b03c 7ed0 43be 9b1a 0c3e
00000330: 3368 0e3e bcb8 78bc 2c05 0abe aa5e e23d
00000340: 3eff 0b3e 111b 293b 2ac4 51bc 4132 a8bd
00000350: 9e1e afbb 95c1 2ebe d49b 25be 9980 2e3d
00000360: 7c32 dcbd 49db 90be 9326 04be 3e24 35be
00000370: 9f7b 043e 63d7 38bd eebf 15be 8610 523d
00000380: c1bd bcbd 58f9 7c3e 9595 9dbc c4de efbd
00000390: 0840 3d3e cd38 b9be abcf 163e d895 883e
000003a0: 543e 723d 2fde 0f3e 0606 513d 6371 0ebe
000003b0: da19 f6bd eaf2 2a3e 5862 bf3d 160f c3bc
000003c0: 0b68 41be a617 9dbd 320c be3d 60fd 743e
000003d0: 5561 bdbc 86a7 bfbd 3daf 02be 6205 92bd
000003e0: 7473 61be c2e7 eebd 8314 f1bc db42 e63d
000003f0: bc18 643d 67cc d93d 2b72 2cbd ee66 95be

predictor.net.1.bias f4 [32]
-0.087819375 0.08174653 -0.10310898 0.08271616 0.08266425 0.08517373 0.07627577 -0.09484591
-0.08461295 0.095260665 -0.0964024 0.09124893 0.454404 0.11054746 -0.08552041 -0.084810644
0.08956824 -0.098658934 -0.09179092 -0.09010243 0.08452889 -0.21958365 -0.075882256 -0.08049474
0.079073705 0.08247329 0.10280424 0.090035394 -0.09113921 -0.12329644 0.083750494 -0.1050042
00000000: a5da b3bd ba6a a73d cd2a d3bd 1767 a93d
00000010: e04b a93d 916f ae3d 7936 9c3d 933e c2bd
00000020: 8e49 adbd 0618 c33d 9f6e c5bd b8e0 ba3d
00000030: a4a7 e83e b566 e23d 5325 afbd 34b1 adbd
00000040: 8e6f b73d b20d cabd e1fc bbbd 9f87 b8bd
00000050: 7c1d ad3d 89da 60be 2868 9bbd 6dda a4bd
00000060: 65f1 a13d c2e7 a83d 088b d23d 7a64 b83d
00000070: 32a7 babd d882 fcbd 6185 ab3d 710c d7bd

predictor.net.3.weight f4 [1, 32]
-0.2911995 0.139743 -0.21046904 0.38257965 0.6621854 0.38455653 0.1519626 -0.18360062
-0.3158371 0.52279365 -0.411758 0.49445882 0.10253053 0.100592665 -0.26482326 -0.35961685
0.03491042 -0.27129406 -0.16663061 -0.12608595 0.43320045 -0.13503347 -0.12974197 -0.12623557
0.5361206 0.22139269 0.150441 0.24627334 -0.2427569 -0.14256676 0.40711662 -0.12189491
00000000: 1a18 95be ca18 0f3e 3285 57be 7be1 c33e
00000010: fb84 293f 98e4 c43e 159c 1b3e cd01 3cbe
00000020: 66b5 a1be ced5 053f f2d1 d2be b529 fd3e
00000030: 87fb d13d 8703 ce3d ea96 87be b31f b8be
00000040: 3bfe 0e3d 0ee7 8abe 37a1 2abe ad1c 01be
00000050: 73cc dd3e 3746 0abe 14db 04be e643 01be
00000060: 333f 093f c4b4 623e 350d 1a3e 142f 7c3e
00000070: 4495 78be 05fd 11be 9771 d03e 0aa4 f9bd

net.0.weight f4 [60, 35]
-0.1181997 -0.10594454 0.0671093 0.018523721 -0.1309298 0.173684 -0.025439119 -0.06597105
0.19916852 -0.032027304 -0.0069384114 -0.07826189 0.12027686 -0.0380702 -0.071552314 -0.17397851
-0.10537506 -0.015183864 -0.2443554 0.030596912 -0.0592388 -0.016363591 -0.1930265 0.097411446
-0.2760315 0.15940188 0.14255041 -0.011145329 -0.13405551 -0.01416579 0.3188789 -0.1626142
-0.057107925 -0.1907435 0.27279967 0.13391899 0.17839631 -0.16114652 -0.16074704 -0.0960417
-0.1135847 -0.03851939 0.12692067 -0.19802205 -0.09736424 0.14055604 -0.05436253 0.17441732
-0.16714375 -0.1495766 0.14702721 0.047834404 0.15127818 0.42374563 0.18064362 -0.23922779
-0.10099775 0.12391692 0.11471119 0.058388133 0.05719844 -0.0045847585 0.3404567 0.09383729
0.22660312 -0.11202702 0.30860597 0.029788394 -0.015711138 0.21296322 0.0023519823 0.27850467
-0.024018276 -0.039048705 0.041510936 -0.039825793 0.005732602 -0.104678616 -0.1324621 -0.06382876
-0.22318405 -0.19672243 -0.07870608 0.2223399 0.27920324 -0.1579314 -0.13627234 0.09271935
0.040458795 0.14012408 -0.21316916 -0.20784609 0.051998988 0.14126869 -0.17257886 -0.1267367
0.052679863 -0.26215228 0.153969 -0.14194988 -0.22676092 0.095327005 -0.3003452 -0.08345508
0.16389522 0.20526375 -0.011175181 -0.23528448 -0.046561316 0.1400127 -0.078484684 -0.1233477
-0.1880401 0.04214768 -0.15579253 -0.1872079 0.25055608 -0.058364518 0.22916852 -0.11414013
-0.03462512 -0.022928465 0.016859306 -0.045029063 -0.03034921 -0.01639197 0.042191394 -0.09969478
-0.06912823 0.32824755 0.035542 0.040592257 0.064958945 0.3417662 -0.3027247 -0.17677978
0.04485969 -0.027273295 -0.036440905 -0.21480313 -0.10176062 -0.040162787 0.028387548 0.048908014
-0.025816467 0.07013307 0.0077709374 0.14189339 -0.104617715 -0.068598 0.0019183909 -0.011284319
0.23137042 0.02049515 -0.046911873 -0.21109313 -0.03579309 0.34641325 -0.028566325 0.2283633
0.019925127 -0.050045174 -0.097599015 0.098266564 0.19315949 0.23990352 -0.3042199 0.20578335
0.25507078 -0.17461748 0.22706814 0.017375916 -0.24309748 -0.017443303 0.046625465 0.06964514
-0.20344445 0.14866866 0.21284032 0.047192864 -0.046280608 0.006680623 -0.013219409 -0.040340926
-0.20480412 0.16632515 -0.16248637 -0.14066963 0.031887483 0.08023612 0.010098073 -0.060628664
-0.008833407 -0.13915437 -0.17754756 -0.08768077 0.023548853 -0.0894599 -0.2037526 -0.21855
-0.1283228 0.14196827 -0.020232042 0.0052724597 -0.026420519 0.17074423 -0.014095044 0.021527583
0.09685348 -0.035329986 0.012747939 0.17718557 -0.06018213 0.21525443 0.09683373 0.15235338
0.05624731 0.20653147 -0.23194738 0.2098293 -0.23806903 0.010898157 0.09035013 0.14733309
0.14782444 0.16074422 -0.07049469 0.11491045 0.11608134 -0.07248917 0.050406165 0.0052288305
0.00980298 -0.22885944 0.34736717 -0.032823157 -0.14320801 0.0186306 -0.07286173 0.10479243
0.09240305 0.0367998 0.069790184 -0.14557645 -0.27717385 -0.15803215 -0.03287194 0.07739466
-0.048286833 -0.10830018 -0.12077347 -0.23448612 -0.0030256212 0.06300368 0.016631847 -0.046964247
00000000: af12 f2bd 73f9 d8bd 9a70 893d 0fbf 973c
00000010: 7612 06be 38da 313e b365 d0bc d41b 87bd
00000020: d5f2 4b3e 102f 03bd 9d5b e3bb c547 a0bd
00000030: b753 f63d 7fef 1bbd 058a 92bd 6c27 32be
00000040: e1ce d7bd bec5 78bc 4d38 7abe 60a6 fa3c
00000050: 62a4 72bd f00c 86bc bda8 45be a77f c73d
00000060: 0054 8dbe 3f3a 233e bcf8 113e e69a 36bc
00000070: d945 09be a117 68bc 1844 a33e 5684 26be
00000080: 00ea 69bd 4452 43be 66ac 8b3e 0f22 093e
00000090: 86ad 363e 9803 25be df9a 24be 83b1 c4bd
000000a0: 189f e8bd 82c6 1dbd 7ef7 013e 4bc6 4abe
000000b0: e766 c7bd eced 0f3e 3fab 5ebd 749a 323e
000000c0: bb27 2bbe 9c2a 19be 4d8e 163e 02ee 433d
000000d0: abe8 1a3e 30f5 d83e a4fa 383e 21f8 74be
000000e0: e9d7 cebd 27c8 fd3d b3ed ea3d 6528 6f3d
000000f0: e948 6a3d be3b 96bb 5750 ae3e c42d c03d
00000100: a60a 683e 6c6e e5bd 9a01 9e3e ca06 f43c
00000110: a5b4 80bc 0813 5a3e b723 1a3b 2a98 8e3e
00000120: fac1 c4bc 89f1 1fbd 5f07 2a3d 5f20 23bd
00000130: 8dd8 bb3b be61 d6bd 25a4 07be a7b8 82bd
00000140: 5c8a 64be 9b71 49be a730 a1bd 12ad 633e
00000150: baf3 8e3e c5b8 21be fa8a 0bbe a4e3 bd3d
00000160: 1fb8 253d b07c 0f3e 0449 5abe 9bd5 54be
00000170: e4fc 543d bda8 103e 83b8 30be 44c7 01be
00000180: d7c6 573d d338 86be 0daa 1d3e 4f5b 11be
00000190: 0434 68be ce3a c33d d9c6 99be 7fea aabd
000001a0: 26d4 273e a930 523e 1b18 37bc 6aee 70be
000001b0: 14b7 3ebd 7d5f 0f3e 94bc a0bd b89d fcbd
000001c0: 958d 40be 0ca3 2c3d 1488 1fbe 6eb3 3fbe
000001d0: e348 803e a20f 6fbd 27ab 6a3e 4dc2 e9bd
000001e0: 12d3 0dbd 7ad4 bbbc 871c 8a3c 6570 38bd
000001f0: e89e f8bc 7448 86bc e2d0 2c3d c72c ccbd
00000200: 1a93 8dbd 1010 a83e 7d94 113d 1144 263d
00000210: 3209 853d fbfb ae3e bbfe 9abe c205 35be
00000220: cbbe 373d 3f6c dfbc 0f43 15bd 5af5 5bbe
00000230: df67 d0bd bc81 24bd 018d e83c c553 483d
00000240: 0e7d d3bc eda1 8f3d 59a3 fe3b 804c 113e
00000250: d041 d6bd 1c7d 8cbd 8472 fb3a dde1 38bc
00000260: 5eec 6c3e 72e5 a73c aa26 40bd cc28 58be
00000270: c69b 12bd 145d b13e ed03 eabc 12d8 693e
00000280: 053a a33c 2bfc 4cbd fee1 c7bd fb3f c93d
00000290: 9acb 453e 45a9 753e b6c2 9bbe dfb8 523e
000002a0: a398 823e edce 32be 8d84 683e f057 8e3c
000002b0: 8cee 78be 42e5 8ebc 58fa 3e3d 1ca2 8e3d
000002c0: be53 50be 993c 183e d0f2 593e 4e4d 413d
000002d0: bc90 3dbd 21e9 da3b 3896 58bc 873c 25bd
000002e0: 2cb8 51be 2451 2a3e d462 26be b30b 10be
000002f0: 739c 023d d652 a43d 6372 253c c355 78bd
00000300: ffb9 10bc 7c7e 0ebe 07cf 35be fa91 b3bd
00000310: 86e9 c03c c136 b7bd 86a4 50be 92cb 5fbe
00000320: 0d67 03be 2160 113e abbd a5bc 99c4 ac3b
00000330: d86f d8bc 93d7 2e3e e6ee 66bc 9d5a b03c
00000340: 1e5b c63d 2db6 10bd bbdc 503c 2270 353e
00000350: 8a81 76bd a86b 5c3e c350 c63d 8602 1c3e
00000360: 9463 663d fc7c 533e 9d83 6dbe 7edd 563e
00000370: 5ec8 73be 2f8e 323c 7d09 b93d 7cde 163e
00000380: 4a5f 173e 229a 243e 855f 90bd 2c56 eb3d
00000390: 0ebc ed3d 3475 94bd b276 4e3d 9c56 ab3b
000003a0: ae9c 203c 215a 6abe 1cda b13e 9371 06bd
000003b0: 1fa5 12be 339f 983c 8838 95bd 6a9d d63d
000003c0: cf3d bd3d 63bb 163d 28ee 8e3d fe11 15be
000003d0: bbe9 8dbe 2ed3 21be baa4 06bd 1781 9e3d
000003e0: 6ac8 45bd 7ccc ddbd 1558 f7bd 211d 70be
000003f0: 8049 46bb 1308 813d 833f 883c 955d 40bd

net.0.bias f4 [60]
0.07797735 0.16398007 0.103703804 0.001797523 -0.12738538 6.9055095e-05 -0.17830889 0.08230268
0.019285908 -0.0957469 -0.013419727 0.057429932 -0.080632985 -0.12445676 -0.049958248 0.03599312
0.116409786 0.13419707 0.110999845 0.07619561 -0.007994566 -0.078877755 -0.07176162 -0.10098268
0.0047484697 -0.1408224 -0.14968581 0.1373339 0.0950906 -0.14475296 0.124665014 0.04128718
0.14595278 0.12941474 0.072582394 0.025028178 0.053450447 0.00039268367 0.1503529 -0.002587973
0.047864575 -0.056889605 0.04171712 -0.031109285 -0.09339357 0.04574267 -0.057578806 0.083037905
0.009702579 -0.1683631 -0.048716296 0.06785866 -0.100413516 0.058057956 -0.052722592 0.070885025
0.13848983 -0.06725316 -0.024003964 -0.0014459688
00000000: 97b2 9f3d 64ea 273e a962 d43d dd9a eb3a
00000010: 5071 02be acd1 9038 9b96 36be 4f8e a83d
00000020: 7bfd 9d3c f316 c4bd 6ade 5bbc a63b 6b3d
00000030: e822 a5bd 30e3 febd 05a1 4cbd 866d 133d
00000040: 4168 ee3d f56a 093e e353 e33d 720c 9c3d
00000050: a4fb 02bc a98a a1bd c2f7 92bd 02d0 cebd
00000060: 0d99 9b3b bf33 10be 3d47 19be 42a1 0c3e
00000070: dcbe c23d 1f3a 14be 5f50 ff3d bf1c 293d
00000080: a574 153e 4c85 043e 14a6 943d e507 cd3c
00000090: dbee 5a3d 1ce1 cd39 1cf6 193e fb9a 29bb
000000a0: a50d 443d 1305 69bd 92df 2a3d e6d8 febc
000000b0: 2145 bfbd aa5c 3b3d c1d7 6bbd c70f aa3d
000000c0: 91f7 1e3c 6067 2cbe bd8a 47bd 7bf9 8a3d
000000d0: 9aa5 cdbd 2ece 6d3d a5f3 57bd 2b2c 913d
000000e0: 47d0 0d3e 06bc 89bd f6a3 c4bc a986 bdba

net.2.weight f4 [60, 60]
-0.09193917 0.20405199 0.16325155 -0.29909283 0.030802693 -0.22093864 -0.02795748 -0.043319672
0.18025072 -0.1015032 0.034960505 -0.09856917 0.1786427 -0.013755255 0.23996224 0.049520407
-0.12776195 0.13605542 -0.17980357 0.04297555 -0.09962796 0.088291794 -0.06042401 0.033753835
-0.05014214 0.11229409 0.0063209194 -0.20622839 0.119897276 0.26114222 -0.15815683 -0.015604115
0.14598556 0.16399057 -0.055172425 -0.035517942 0.34822094 -0.13181761 0.045985833 0.007955975
0.104238376 0.046516757 0.20092154 -0.019904884 0.03304502 -0.099552885 -0.17669013 0.044106916
0.061263762 0.0116431555 -0.11021 -0.21416807 -0.055493128 0.16961056 0.13450034 0.082222566
-0.09431335 0.2286682 0.08497135 0.088183604 0.0064418567 0.15022738 0.041392695 -0.039917573
-0.0025808609 0.16294737 -0.05618475 -0.13832472 -0.008270439 0.06372127 -0.08516267 0.16240937
-0.09838305 -0.07642544 0.20945254 0.021328604 0.035194136 -0.22795577 0.19792356 0.009878031
0.072755314 -0.26676977 0.07063802 0.084287785 -0.08716269 -0.015695838 -0.0009771071 0.02369774
0.03747405 0.007469974 0.030977141 0.09587014 0.055987623 -0.19080217 -0.14560883 -0.23578542
0.01848934 -0.032596476 0.06759088 0.05504047 0.1861772 -0.024204215 0.15282375 0.32613257
0.16417594 -0.089274175 0.07053204 -0.110485554 -0.09377543 0.15855193 -0.045010425 -0.044875704
0.14602205 -0.045105077 0.05920128 0.024096632 0.06528158 0.3337612 -0.033317585 0.25649947
-0.110639006 0.24645142 -0.19014564 0.0006904466 -0.0021736613 -0.0053759324 -0.050286066 -0.12727761
-0.14631662 0.053935707 0.07391592 0.09128903 -0.058547232 -0.047667988 -0.10155826 0.077157095
0.04784453 -0.21288128 -0.08005209 0.056691844 0.20638776 0.1710317 0.12716001 -0.012929388
-0.10507545 0.040618263 0.0069207964 -0.030224547 -0.15179425 -0.000114345436 -0.15168095 0.08152455
-0.14677541 -0.20003344 -0.08990081 -0.10489451 -0.15472503 0.13159524 -0.06355564 -0.1214057
-0.018511547 -0.19147179 0.17834122 -0.121118985 0.030179745 0.14407651 0.1428222 0.2392873
0.11039582 0.037141602 -0.18383357 -0.21958858 0.032819416 -0.004473428 -0.08749647 -0.13917679
0.23723258 -0.029538615 0.055909406 -0.24457254 0.24993087 0.03184233 -0.023812367 0.040631376
0.030890973 -0.06735435 0.02801388 0.07231659 0.1773539 0.17260589 -0.12103026 0.14748167
0.21765564 -0.19919121 0.036224164 -0.06499476 -0.049112394 -0.06496683 0.015249945 0.020567078
0.106558494 -0.014469512 -0.27118778 0.07567357 -0.08606732 0.069426544 0.055765714 -0.14679505
-0.13001813 0.07810039 -0.08080392 -0.1089375 -0.14561774 -0.08922818 -0.09868562 0.011347492
-0.12060349 -0.1251384 -0.064717166 -0.045487676 0.02750458 -0.108147904 -0.11716667 0.17361705
0.25461945 -0.068283126 -0.11869957 -0.03887328 -0.025719985 -0.12548125 -0.13149984 0.026127722
0.19007964 -0.02162724 -0.08938525 0.1103871 0.05772971 0.11373691 -0.108209394 0.036394242
0.027833993 0.18345216 -0.014823229 -0.060438644 0.071854204 -0.114993595 -0.024607988 -0.13176885
-0.32286286 0.011768521 -0.1727581 0.2543962 -0.035640232 -0.049049843 -0.24957979 -0.0501265
00000000: 9b4a bcbd 01f3 503e 6a2b 273e b222 99be
00000010: ee55 fc3c bd3d 62be 1607 e5bc f86f 31bd
00000020: a593 383e e9e0 cfbd bf32 0f3d a2de c9bd
00000030: 1dee 363e b95d 61bc a9b8 753e e9d5 4a3d
00000040: 07d4 02be 1d52 0b3e 6d1e 38be 2107 303d
00000050: be09 ccbd 54d2 b43d 2b7f 77bd 7641 0a3d
00000060: d861 4dbd 72fa e53d b71f cf3b 892d 53be
00000070: b48c f53d 6fb4 853e ddf3 21be 67a8 7fbc
00000080: 3d7d 153e 25ed 273e 7bfc 61bd 437b 11bd
00000090: 044a b23e 32fb 06be a45b 3c3d c759 023c
000000a0: ee7a d53d 5b88 3e3d 60be 4d3e 910f a3bc
000000b0: 375a 073d 62e2 cbbd 42ee 34be 74a9 343d
000000c0: b6ef 7a3d efc2 3e3c c8b5 e1bd e04e 5bbe
000000d0: c34c 63bd 64ae 2d3e 75ba 093e 4e64 a83d
000000e0: 5c27 c1bd ff27 6a3e 7605 ae3d 9b99 b43d
000000f0: 3616 d33b 35d5 193e 638b 293d 9c80 23bd
00000100: a923 29bb addb 263e fb21 66bd ffa4 0dbe
00000110: bc80 07bc 4c80 823d c469 aebd a44e 263e
00000120: 0d7d c9bd f184 9cbd ba7a 563e 53b9 ae3c
00000130: ba27 103d 3d6d 69be 79ac 4a3e 77d7 213c
00000140: bd00 953d 0c96 88be abaa 903d 139f ac3d
00000150: 5a82 b2bd 8f94 80bc 4612 80ba c321 c23c
00000160: 647e 193d afc6 f43b c6c3 fd3c 9057 c43d
00000170: 4753 653d a561 43be 7b1a 15be bc71 71be
00000180: f576 973c e283 05bd 166d 8a3d 1e72 613d
00000190: 3ca5 3e3e eb47 c6bc d47d 1c3e d9fa a63e
000001a0: bd1d 283e 61d5 b6bd 1a73 903d 4046 e2bd
000001b0: 550d c0bd 705b 223e da5c 38bd 96cf 37bd
000001c0: ce86 153e 1ac0 38bd 0b7d 723d 4d66 c53c
000001d0: 59b2 853d bfe2 aa3e 0578 08bd e653 833e
000001e0: b496 e2bd c35d 7c3e 8ab5 42be 16ff 343a
000001f0: fc73 0ebb 9728 b0bb c3f8 4dbd 1055 02be
00000200: 06d4 15be b0eb 5c3d 3b61 973d bef5 ba3d
00000210: 39cf 6fbd 823f 43bd c7fd cfbd 8a04 9e3d
00000220: a0f8 433d 8dfd 59be 5af2 a3bd b535 683d
00000230: 5057 533e ef22 2f3e 3c36 023e c9d5 53bc
00000240: cc31 d7bd 565f 263d d9c7 e23b 7899 f7bc
00000250: f46f 1bbe bdcc efb8 4052 1bbe 58f6 a63d
00000260: 4b4c 16be 91d5 4cbe ea1d b8bd efd2 d6bd
00000270: 3d70 1ebe e7c0 063e 7629 82bd 8da3 f8bd
00000280: 87a5 97bc 2e11 44be 159f 363e 3b0d f8bd
00000290: 833b f73c cb88 133e fc3f 123e bb07 753e
000002a0: 3417 e23d cb21 183d de3e 3cbe d4db 60be
000002b0: a76d 063d d595 92bb 5931 b3bd 5c84 0ebe
000002c0: 19ed 723e f7fa f1bc 4301 653d 3971 7abe
000002d0: e1ed 7f3e 1a6d 023d 2712 c3bc 166d 263d
000002e0: 110f fd3c 14f1 89bd 5d7d e53c b81a 943d
000002f0: 439c 353e 99bf 303e b7de f7bd 6f05 173e
00000300: 1fe1 5e3e c8f8 4bbe ca5f 143d f91b 85bd
00000310: 142a 49bd 540d 85bd e8da 793c 4a7c a83c
00000320: 573b da3d 8811 6dbc 20d9 8abe bffa 9a3d
00000330: 1044 b0bd 812f 8e3d 976a 643d 7151 16be
00000340: 7923 05be 19f3 9f3d 877c a5bd a01a dfbd
00000350: d11c 15be 44bd b6bd b01b cabd d5ea 393c
00000360: f6fe f6bd 4824 00be 6f8a 84bd 4951 3abd
00000370: 4951 e13c a67c ddbd 14f5 efbd abc8 313e
00000380: 7b5d 823e 06d8 8bbd c318 f3bd 9739 1fbd
00000390: b8b2 d2bc 287e 00be e5a7 06be ce09 d63c
000003a0: 3da4 423e 9c2b b1bc 9d0f b7bd a212 e23d
000003b0: fd75 6c3d e6ee e83d e39c ddbd 2112 153d
000003c0: 1d04 e43c e2da 3b3e 21dd 72bc 838e 77bd
000003d0: 4c28 933d c381 ebbd b196 c9bc 6aee 06be
000003e0: 484e a5be c1d0 403c 80e7 30be 3840 823e
000003f0: 7efb 11bd 7de8 48bd d891 7fbe 7251 4dbd

net.2.bias f4 [60]
-0.07708395 -0.10266823 0.0065633003 -0.09584065 -0.05118008 0.10531834 -0.02738355 -0.0751574
0.04449055 -0.092482366 -0.12464589 -0.01415799 -0.09367054 -0.022007443 -0.07382388 0.04647847
-0.10931981 -0.08114946 0.05392868 0.047483783 -0.10252647 0.036304526 0.051337298 0.0023111748
0.065980464 -0.10363566 0.020371292 -0.046045512 -0.058944177 -0.014717268 -0.10917091 -0.040166978
-0.04759812 -0.078556485 -0.0012979867 0.06704787 0.053708438 0.116199516 0.002613466 0.0901048
-0.08585199 0.10370865 0.052489564 0.03643817 0.0927013 0.0808958 0.06740833 -0.02299178
-0.06457461 -0.0353474 0.02058143 -0.027781697 0.06652127 -0.12286595 -0.013260662 -0.015525715
0.009354357 -0.002348181 -0.01447444 0.075289845
00000000: 31de 9dbd b943 d2bd f410 d73b 1a48 c4bd
00000010: 34a2 51bd 24b1 d73d 7753 e0bc 1fec 99bd
00000020: b93b 363d 6567 bdbd 5846 ffbd eaf6 67bc
00000030: 57d6 bfbd f448 b4bc f930 97bd 3560 3e3d
00000040: 11e3 dfbd b031 a6bd 52e4 5c3d 5b7e 423d
00000050: 66f9 d1bd 0eb4 143d 0f47 523d 1477 173b
00000060: c420 873d ef3e d4bd b2e1 a63c 389a 3cbd
00000070: 736f 71bd b220 71bc 0095 dfbd 2186 24bd
00000080: 3ff6 42bd 39e2 a0bd 3521 aaba 6550 893d
00000090: 61fd 5b3d 03fa ed3d af46 2b3b de88 b83d
000000a0: 2bd3 afbd 3365 d43d 4cff 563d 3140 153d
000000b0: 2eda bd3d b2ac a53d 610d 8a3d 4259 bcbc
000000c0: b13f 84bd 6fc8 10bd 639a a83c 7196 e3bc
000000d0: 4e3c 883d 25a1 fbbd 3f43 59bc 925f 7ebc
000000e0: 0443 193c f1e3 19bb 3426 6dbc 9031 9a3d

net.5.weight f4 [1, 60]
0.0053454703 0.0010485857 -0.11766341 0.18673345 -0.058058944 -0.009154438 0.1039289 -0.04950296
0.06273022 0.1412556 -0.0648243 -0.07971393 0.004528139 -0.05490641 0.05878382 -0.23508283
0.073332876 0.064871885 0.019663693 0.37589955 -0.049445834 0.122781254 0.056821484 -0.27818635
-0.11914425 0.019936994 -0.02885905 0.11771428 0.24002157 -0.14904658 -0.14128341 0.011393157
0.016803747 -0.1437649 -0.2349048 -0.047408912 0.1771638 0.06063929 -0.092218265 0.00974222
-0.11276402 -0.019091684 -0.00020837052 -0.3673277 -0.09691158 0.10904464 -0.15364578 0.07760712
0.10902966 -0.036553837 0.14586258 -0.28484002 0.10500753 -0.008492092 -0.18803434 -0.16382855
-0.11607614 0.011962446 -0.18495493 0.051085822
00000000: 0e29 af3b b370 893a 84f9 f0bd 0e37 3f3e
00000010: 37cf 6dbd 7ffc 15bc add8 d43d 9ec3 4abd
00000020: b478 803d 4fa5 103e 9ac2 84bd 0f41 a3bd
00000030: c860 943b 8be5 60bd 4ec7 703d 8eb9 70be
00000040: 8c2f 963d 8ddb 843d c115 a13c e875 c03e
00000050: b787 4abd bd74 fb3d a5bd 683d 716e 8ebe
00000060: e701 f4bd e852 a33c d069 ecbc 2f14 f13d
00000070: 37c8 753e ab9f 18be 99ac 10be 5daa 3a3c
00000080: 03a8 893c 1b37 13be e28a 70be d92f 42bd
00000090: 6d6a 353e e760 783d eedc bcbd d59d 1f3c
000000a0: d3f0 e6bd 2a66 9cbc 097e 5ab9 6012 bcbe
000000b0: 9479 c6bd cc52 df3d 5255 1dbe 7bf0 9e3d
000000c0: f14a df3d 7ab9 15bd 005d 153e 8dd6 91be
000000d0: 300e d73d 6a22 0bbc 138c 40be acc2 27be
000000e0: 54b9 edbd 23fe 433c d364 3dbe 5e3f 513d
