results of reviewer/XJTU results/4-4/Experiment8/model.pth (torch, 59838 bytes, 14 tensors)

encoder.net.0.weight f4 [60, 17]
000000 fa d1 9d 3d 12 ab 8d bd c2 09 54 bc 45 b5 35 3d
       0.077060655 -0.06917395 -0.01294178 0.044362325
000010 d9 0c d7 3d fc 64 c3 be 89 ca fe bc 50 2a 04 bd
       0.10500497 -0.38162982 -0.031102436 -0.032266915
000020 c2 e8 c5 3d 22 89 87 bd 4d 67 05 3e 78 3d b1 bd
       0.09663536 -0.06617953 0.13027687 -0.08654302
000030 ae a6 9c 3c 89 16 77 3e c2 bd 1f 3e db 03 f3 bc
       0.019122448 0.2412969 0.1559973 -0.029664924
000040 f1 86 5b 3b b0 5e a6 3d 9a 1d e5 bd d6 7e f4 bd
       0.003349718 0.08123529 -0.11187287 -0.119382545
000050 a1 3d ab bd 9d fd 8e bc e3 d3 9f be c3 90 de 3d
       -0.08361364 -0.017454917 -0.31216344 0.10867455
000060 49 ee 6b be a2 3b 97 3e bd d8 8d 3e 4c 38 5e bd
       -0.23040117 0.29537684 0.2770442 -0.054252908
000070 6d 3c fd 3d f4 ff 10 3d 62 5c e8 3d 52 08 79 bd
       0.12365041 0.035400346 0.113457456 -0.06079895
000080 7e 55 72 be a6 20 5c 3e e5 69 a1 be 94 6a 3d be
       -0.23665425 0.2149683 -0.31526104 -0.18497688
000090 37 ad bb bd 6d 77 29 3e f5 38 e3 bd 27 93 b7 bd
       -0.091638975 0.16549464 -0.11094848 -0.08963614
0000a0 0a c5 7d be 98 b4 01 be aa 11 1b bd 93 82 59 3e
       -0.24782196 -0.12666547 -0.037858643 0.21241216
0000b0 78 16 94 3c 37 6d 5c 3d 85 be 8f be ce 23 ec 3d
       0.01807712 0.053815093 -0.28075042 0.11530267
0000c0 b1 a3 04 bd 0d c3 a9 3c 50 b6 2f be 15 dd 10 3d
       -0.03238267 0.02072289 -0.1715939 0.03536709
0000d0 d8 72 1a 3e 76 14 9e 3e ab aa 5b bd 9c 9e 17 be
       0.15082872 0.30874985 -0.05362956 -0.14806598
0000e0 a4 0b 1b 3d 2c 98 bc 3d fb a3 e8 3d d5 30 b1 bd
       0.0378529 0.09208712 0.11359402 -0.08651892
0000f0 3d d2 9a bd 82 14 81 be 0a 5d cb 3d d9 21 3e be
       -0.07559631 -0.2521096 0.09929855 -0.185676
000100 f6 fe 9d 3e 83 4f bb be 9c f2 a6 bd 0a 29 6c 3d
       0.30858582 -0.365841 -0.08151743 0.057656325
000110 bc 94 bc 3d 3f 5d ea bd 8b 36 c8 bd 3b 03 a6 3d
       0.09208056 -0.114435665 -0.09776028 0.08106085
000120 97 09 4d 3e ef 7f 52 3d 54 4a 45 3d 50 81 89 be
       0.2002319 0.05139154 0.048166588 -0.2685647
000130 7e 78 07 3e 7c 44 ca 3d 41 d1 b1 bd fd 4c 62 3e
       0.13229558 0.098763436 -0.0868249 0.22099681
000140 9c 14 69 3d de 20 ac 3e 7f 98 93 3d 20 09 1a 3d
       0.05690442 0.33618826 0.07206821 0.03760636
000150 18 e7 98 3d 0f de 03 3b 73 f2 70 3e 59 30 2e 3e
       0.07465953 0.002012137 0.23529987 0.1701063
000160 c1 dc aa 3c 28 d6 be bd 90 ee fc 3c da 0e 2b be
       0.020857217 -0.09318191 0.030875474 -0.16704884
000170 b9 1d 75 be b1 eb bd bd 34 2d 6c bd e1 49 32 3d
       -0.2393712 -0.0927347 -0.057660297 0.043527488
000180 07 66 d1 3d cb 6b 84 bc ea b5 94 bd 00 e8 73 bc
       0.10224538 -0.016164681 -0.0726126 -0.014886856
000190 71 93 39 bc 5b 68 ab 3d fa 07 5a 3e 84 1d d1 bd
       -0.011326657 0.083695136 0.21292105 -0.10210708
0001a0 ba 34 73 3d 64 49 4f 3e 62 b1 69 3d b7 2e f5 3b
       0.059376456 0.2024284 0.05705393 0.0074823755
0001b0 5e fc 91 3e f4 15 02 3e f0 69 af 3d 77 f0 bd 3e
       0.28512853 0.12703687 0.08565128 0.37097523
0001c0 2e 5b d9 bd 88 90 63 bd a5 98 03 3c 63 ef f3 bd
       -0.10613094 -0.055557758 0.008031999 -0.11910894
0001d0 49 c1 41 3d be 25 a2 be 6e 7a 84 3e 12 48 22 be
       0.04730347 -0.3166942 0.25874656 -0.15847805
0001e0 b7 ce ca 3d f2 b3 8a 3e f9 73 a8 3e 76 14 c7 3c
       0.09902709 0.27090412 0.3290098 0.024301749
0001f0 22 4e 10 3e 01 70 91 bd 18 64 31 3d 99 3c 1e 3c
       0.14092305 -0.07101441 0.043308347 0.009658002
000200 d1 fa 7b 3e 2f 36 06 3e 9a 65 8e be 27 3d a4 be
       0.24607398 0.13106607 -0.2781189 -0.32077906
000210 71 e0 73 bd 58 d7 a3 3b 29 7a 3f 3c 27 29 0a be
       -0.059540216 0.005000036 0.01168684 -0.13492261
000220 97 88 d4 3d eb b9 c9 be 29 e7 13 3e 57 60 19 be
       0.10377615 -0.39399657 0.1444365 -0.14978157
000230 ed ff 11 3b 53 48 8e be d9 ca 83 3d 98 20 16 3d
       0.0022277788 -0.27789554 0.064351745 0.036652178
000240 ab 46 ba 3c 5a 7e 14 3d 0f c1 37 be 18 23 03 3e
       0.022738775 0.03625331 -0.1794474 0.12806356
000250 78 c6 0b be 80 eb 27 be c0 6a 9d bc 0e 9f 19 be
       -0.13649929 -0.1639843 -0.019215941 -0.15002081
000260 73 cb 8a bd 9c 24 a7 3d 81 1a bb be db 11 7e bd
       -0.06777086 0.081612796 -0.36543658 -0.062028747
000270 32 ac 71 be a8 81 7c 3e 91 93 cb 3d dc 7f 92 3e
       -0.23600844 0.24658835 0.099402554 0.28613174
000280 6d 39 a9 3e ca 79 4d be 88 07 e8 bd 68 00 da bd
       0.33051625 -0.2006599 -0.113295615 -0.10644609
000290 e7 38 30 3e ee 5d 08 3e fa 6d 99 be 06 a7 72 be
       0.17209207 0.13317081 -0.29966718 -0.23696527
0002a0 80 e2 c7 3d 78 8c d0 ba 7a bd 6d 3d 13 63 14 3e
       0.09759998 -0.0015911004 0.058042027 0.14490919
0002b0 3e 96 79 3d b0 da fd 3e 05 89 e6 bd 0c 65 24 be
       0.060934298 0.49580908 -0.11256603 -0.16054171
0002c0 8c 57 d4 bd d3 b9 25 3e 3d cb 06 3d 39 d6 96 bd
       -0.10368261 0.16184168 0.032908667 -0.073650785
0002d0 e7 b2 86 3e 20 5a 84 bd e2 e6 eb be 61 8a 17 be
       0.26308367 -0.064625025 -0.46074587 -0.14798881
0002e0 e6 52 c3 bb 58 21 80 3e 4e 3a 7d bc 09 65 de 3d
       -0.00596081 0.2502544 -0.015455795 0.10859115
0002f0 4a da 74 3c 58 87 a2 3d 3c 8e 88 3e 33 12 86 3e
       0.014944622 0.07935971 0.26671016 0.2618576
000300 6b f5 2c be 31 f5 8c bd 5d f4 8e 3d 8d 53 85 3e
       -0.16890495 -0.06882704 0.06980202 0.26040307
000310 6f b7 06 bc 23 58 27 bd 6a 34 04 3e 26 f8 53 be
       -0.008222445 -0.040855538 0.1291062 -0.2070013
000320 d5 eb 4b be 45 15 9a 3c 9c 07 c6 3d 8d f8 9c bd
       -0.19914182 0.01880897 0.0966942 -0.07664595
000330 35 a0 3a 3e 87 b1 18 3d 21 5e 4e bd 56 cd 97 3d
       0.18225177 0.03727868 -0.050382737 0.074122116
000340 49 53 71 3d 61 0b 84 3d 59 97 15 be 7d ee 80 3e
       0.058917318 0.06447483 -0.14608516 0.25181952
000350 f0 fd 7f bd 99 08 a3 bd b8 56 7a 3e 17 47 f8 bd
       -0.062498033 -0.07960624 0.24447143 -0.12122934
000360 c5 28 e8 3e c2 92 60 3d 0d dc bb bc 4f e5 9f ba
       0.45343605 0.05482746 -0.022932077 -0.0012199077
000370 6e b8 81 bc 01 2c df 3d d5 c1 79 3d 6d 1c 76 3e
       -0.015835013 0.10897065 0.06097587 0.24034281
000380 8c 26 91 bd ef 20 b3 be 36 20 55 3d d0 1b fb 3d
       -0.0708743 -0.34986064 0.052032672 0.12261164
000390 71 96 05 bc 86 14 68 be 72 e1 60 bd 7d 76 cd 3d
       -0.008153544 -0.22664079 -0.0549025 0.100323655
0003a0 3e ea 17 be a2 e5 ca bc 6b 0c e6 bd d7 92 af 3d
       -0.1483545 -0.0247677 -0.11232837 0.08572929
0003b0 3d 67 14 bd 07 2d be 3d de d5 9c be 59 92 32 bd
       -0.03623127 0.09285932 -0.30631918 -0.0435966
0003c0 a4 49 f5 3c 04 45 89 bd 58 00 49 bd 98 ad 5a be
       0.029942341 -0.06702617 -0.049072593 -0.21355283
0003d0 c3 45 80 3e d9 36 3f 3e 27 e8 89 3d db 79 5b 3d
       0.25053224 0.18673266 0.06733733 0.053583007
0003e0 2c 90 90 3b 72 20 74 be bc 6a da 3d dd f6 ad 3d
       0.004411718 -0.23840502 0.10664889 0.08494351
0003f0 a6 00 88 3c b8 ad be 3d 4f 04 02 be 06 2f 3b 3e
       0.016601872 0.09310478 -0.12696956 0.18279657

encoder.net.0.bias f4 [60]
000000 17 d4 3c bd 3e c6 38 bd c3 1c e3 bc d4 60 35 bc
       -0.046100702 -0.045110933 -0.027723676 -0.011070449
000010 16 9b 2e bd 6d 18 c4 bd 39 6b 75 bd 9c 1f a7 3b
       -0.04262837 -0.09574971 -0.05991671 0.0051002037
000020 d4 e0 36 3d bb cb 42 3d cb 66 cc 3d 69 da 53 3d
       0.044648007 0.047557574 0.09980544 0.051721964
000030 ae cc 1e bd ea af c3 bc a4 39 22 3c df 95 63 bd
       -0.038769417 -0.023887593 0.009901438 -0.05556285
000040 6c 2c 87 bc 5d 92 f3 bc fc 32 0b bd c2 e0 52 3d
       -0.016500674 -0.029732877 -0.03398417 0.051483877
000050 8c 3d 62 bd 72 30 88 3d 57 47 37 bd 02 fa 61 3d
       -0.055234477 0.06649865 -0.04474577 0.055170067
000060 f0 ef 45 3d 48 43 69 bd b9 46 b1 3c 8d 38 75 bc
       0.048324525 -0.05694893 0.021640169 -0.014967096
000070 84 65 e8 bc 85 16 d6 bc bc c2 6a 3d 00 cd 6e bd
       -0.028368719 -0.026133785 0.05731462 -0.058300972
000080 21 7c 37 3d a2 63 1a bd 76 fd 48 3d 26 a4 09 3d
       0.044796113 -0.037692674 0.049069844 0.03360381
000090 ed c0 cf bd 68 86 5e 3d 87 30 54 bd 38 24 0f 3d
       -0.101442195 0.0543274 -0.05180409 0.03494665
0000a0 4a 75 f4 3c c1 55 e8 3c b4 a7 ac bc 52 7f 85 bc
       0.029841084 0.028361203 -0.02107606 -0.016296063
0000b0 04 39 0f bd c8 55 b9 ba 47 e5 5c bd b6 42 1f bd
       -0.034966484 -0.0014139945 -0.053929593 -0.03888198
0000c0 5b 1f 0f 3d d1 aa 14 bd b8 96 3a bd 91 27 0f 3d
       0.034942012 -0.036295716 -0.045553893 0.034949843
0000d0 26 bf b7 3a df a7 6b bd 9f b5 09 3d 93 9c 8f 3d
       0.0014018759 -0.05753314 0.033620473 0.07012286
0000e0 82 7a c4 bd e7 75 05 3d 77 64 b4 bd eb ab 3d 3d
       -0.09593679 0.032583144 -0.08808225 0.046306532

encoder.net.2.weight f4 [60, 60]
000000 f3 32 70 bd 4f 6c 56 3d 87 8a 88 3d 18 11 45 3d
       -0.05864234 0.052349385 0.06667047 0.048112005
000010 51 56 6b bd ae c4 58 bd fa 3b 61 3e 78 0c 2d 3e
       -0.057455365 -0.052921943 0.21995535 0.16899288
000020 58 97 fa 3c 15 8a ba 3d da b9 9a bd 7a 84 84 be
       0.030589744 0.09108368 -0.075549796 -0.25882322
000030 ae 84 05 3d 83 77 ea bd 22 43 f4 3d be 7b 8a 3d
       0.032597236 -0.11448576 0.11926867 0.06761883
000040 8f 11 ec 3d 13 bd 9f be 74 ac dc bc 8a b2 f7 3d
       0.115267865 -0.3119894 -0.0269377 0.120946005
000050 7f 3d 36 be 12 3f 7f bd 5c b3 e4 3e 86 9f c1 3c
       -0.17796896 -0.062316008 0.4466809 0.023635637
000060 12 59 c0 3b 67 7b 37 3e 67 4a 95 bc 90 1d e8 bc
       0.005869993 0.17918168 -0.018223954 -0.028334409
000070 6d a9 22 bd 10 28 25 3d e9 09 8e bd 91 df ce bd
       -0.03971236 0.04032141 -0.06935484 -0.10101236
000080 de 17 10 bd 2b d1 19 3d 6d a0 18 be 6c f9 37 3e
       -0.03517901 0.037552994 -0.14904948 0.1796624
000090 11 fb 64 be ae 30 67 be 47 79 4d be 5f 11 11 3c
       -0.22361399 -0.22577164 -0.20065795 0.008854239
0000a0 4d ce e0 bc 5d b8 62 be ec 62 67 be 5c 7c 80 bc
       -0.027442122 -0.22140642 -0.2259633 -0.0156843
0000b0 5b ed 1a bd f8 02 44 3e 39 d4 33 3e 5d c2 57 3d
       -0.037824016 0.19141757 0.17561425 0.052675594
0000c0 37 06 9f 3d c8 29 bd bd 1c 7c 40 3e 75 0a 85 3c
       0.07764857 -0.09236485 0.18797344 0.016240338
0000d0 d7 a1 35 3c 62 01 b9 bd 8b 91 b3 bd 6b 96 9b bd
       0.011085949 -0.09033467 -0.087679945 -0.07597049
0000e0 58 2d 0d bd 9e 21 eb 3d 94 f3 3a 3d e4 01 29 3d
       -0.03446707 0.11481021 0.04564245 0.04126157
0000f0 11 16 85 3d 37 ce 1d 3e 1a 3b 8b be ab ac d9 3d
       0.064983495 0.15410696 -0.27193528 0.10628637
000100 6c b4 4a bd 6d f6 32 3e 21 1b 02 3d fe 59 5d bc
       -0.04948847 0.17476816 0.031764153 -0.013510225
000110 89 05 17 3d 37 68 6b 3e 3c 32 9e 3e 1a 99 28 be
       0.036870513 0.22988974 0.308977 -0.16464654
000120 16 59 17 be 7b 06 57 bd 24 76 2a 3d cd 11 96 bc
       -0.14780077 -0.052496415 0.041616574 -0.018319035
000130 58 f0 34 bd 7b 99 b7 3d 2d 09 05 be 0c 52 8b 3d
       -0.044174522 0.08964821 -0.12991782 0.068027586
000140 6b 64 43 3d 48 61 f6 bd c8 3b bb 3d 73 a7 67 3d
       0.047703188 -0.12030274 0.09142262 0.056556176
000150 ef 1e 8b bd 2f 06 38 be d6 c3 90 bd c5 bc 1a be
       -0.067930095 -0.17971109 -0.07068603 -0.15111072
000160 1a b5 8a 3d bb 9e b3 3d ef c9 df bd 52 e5 18 bd
       0.06772824 0.0877051 -0.10927188 -0.037328072
000170 31 9a d8 3d e0 64 20 3c 0e 44 28 be 89 fb b1 3d
       0.10576285 0.0097896755 -0.16432211 0.08690555
000180 1c cd 94 bd 07 f9 1d 3e 1d b1 bf bd df b0 40 3c
       -0.07265684 0.15427028 -0.093599536 0.011760919
000190 1b 18 f1 3c 5b d1 28 3e c1 a1 8b 3d 20 c3 69 3d
       0.02943044 0.16486113 0.068179615 0.05707085
0001a0 b9 21 10 3e af 3c 4c 3e 70 b1 ce bd a3 37 01 be
       0.14075364 0.19945024 -0.10092437 -0.1261888
0001b0 2e f2 4f be 48 87 c1 bd 12 b0 be 3d 47 80 65 3d
       -0.20307228 -0.09449631 0.093109265 0.056030538
0001c0 b3 d5 4a 3c 44 b4 9a bc 97 44 01 3e 8b fe 28 3d
       0.012380051 -0.018884785 0.12623821 0.041258376
0001d0 b9 54 ca 3c d3 c1 db bc 18 92 ee bd a1 0e 58 3e
       0.024698602 -0.026825821 -0.11648959 0.2109933
0001e0 e4 2b 66 be 58 a6 d2 3c 2c 0c 1d 3e 66 35 c7 3d
       -0.2247768 0.025714085 0.15336674 0.09726982
0001f0 1a 22 90 bc 73 39 84 3e 60 92 89 3d 3f 2a 1a 3d
       -0.017594386 0.2582508 0.06717372 0.037637945
000200 f9 31 b6 bd 3d c7 c2 3d 4f 65 ad bd c2 9d ef bc
       -0.0889625 0.09510658 -0.08466589 -0.02925003
000210 3d f7 3a 3d 72 b2 7b be 20 4f 30 be 12 f3 9e 3d
       0.04564594 -0.2457979 -0.17217684 0.07761206
000220 25 b5 42 3e f0 d7 87 3c 14 4a b0 3c d4 c0 02 3e
       0.19014414 0.01658246 0.021519698 0.1276887
000230 f6 7b 95 bb 37 ca 50 be f8 c7 ff bd f0 9c fd 3b
       -0.0045618964 -0.20389639 -0.12489313 0.0077396557
000240 b8 39 92 3d 8d d9 9d bd 31 02 40 be 59 0d ab 3d
       0.07139915 -0.0770751 -0.18750836 0.08352155
000250 80 21 50 3e e8 a8 8b 3d a5 05 65 be bb 8c 1b 3d
       0.20325279 0.06819326 -0.22365434 0.037976008
000260 d4 e9 c8 bd d8 c9 2b bd 22 a2 80 3c dc e8 e2 bc
       -0.09810224 -0.04194054 0.015702311 -0.027698927
000270 62 ac 8a 3b 98 46 1e 3d 64 5c bc bc b0 b3 19 be
       0.0042319754 0.038641542 -0.022993274 -0.15009952
000280 bb b8 66 bd 14 39 bf bc 1a 3d f2 bd 1f fc cf bd
       -0.056328516 -0.023342647 -0.118280604 -0.1015551
000290 e3 44 80 3d e9 4d 40 bd 57 db 39 3e 6d bd c8 bd
       0.06263139 -0.0469493 0.18150078 -0.09801755
0002a0 22 41 1d be 33 e3 4f 3d 4d 59 08 3e bb 18 32 bb
       -0.15356877 0.050753783 0.13315316 -0.0027175385
0002b0 50 c5 0b 3d 2d 66 6f bb db 2e 1a be d9 36 9d 3d
       0.03412372 -0.0036529407 -0.15056936 0.07676477
0002c0 c2 34 d1 bd bb 40 91 bd 25 03 17 3e c3 20 d7 3c
       -0.10215141 -0.070924245 0.14747293 0.02626074
0002d0 ec e9 37 bc f5 18 6e bc d1 35 c9 3d 48 a7 1b be
       -0.011225205 -0.014532317 0.09824718 -0.15200531
0002e0 8b 55 dd bc bc 95 60 3e d2 67 75 bd 39 e7 6c 3c
       -0.02701833 0.21932119 -0.059913464 0.014459425
0002f0 31 eb 86 bd 5a 52 05 bc 5e 41 c5 bc c0 1c 4c bd
       -0.06587828 -0.00813731 -0.024079021 -0.049832106
000300 37 21 61 3d 71 04 fc bd 17 58 ae bd 7f ef 2c bd
       0.054963317 -0.12305535 -0.085128956 -0.04222059
000310 83 c7 87 3c 4b 7d 2b 3d 8c 5c 31 be 77 9f 49 bd
       0.016574627 0.041867536 -0.1732046 -0.049224343
000320 1a a5 65 3c d5 2c 40 bd 02 46 02 bd b0 f8 b2 3d
       0.014016414 -0.046917755 -0.031805046 0.087388396
000330 5f 80 ec bd 7d a1 69 3e db 08 a2 3d c3 53 14 3d
       -0.11547922 0.22815509 0.07911845 0.036212694
000340 7e ad 54 bc a8 6f 83 bd 1b 32 0a be cc e6 b2 3d
       -0.012980817 -0.06417781 -0.13495676 0.08735427
000350 88 09 31 bc 26 05 65 be e8 b7 8a bd 94 f5 69 bc
       -0.010805495 -0.22365245 -0.067733586 -0.014279742
000360 df 60 00 bd 52 5d ab bd 4e ce dd 3d cf b9 5c 3c
       -0.031342383 -0.08367409 0.10830365 0.013472035
000370 40 12 b7 3d 3d bd 26 3e cd c6 bb bd ff 58 99 3c
       0.08939028 0.16283126 -0.091687776 0.018719194
000380 c8 6d a3 be 9c 6c 5e 3e 92 a9 b9 3d 7b 90 0c be
       -0.31919694 0.21721119 0.09065546 -0.1372699
000390 d4 4f 15 bd 71 04 b1 38 30 fa 3d be 19 b3 f4 bc
       -0.036453083 8.440845e-05 -0.1855247 -0.029870557
0003a0 32 eb 72 3d ef 71 a7 bd 37 a0 dc bd d1 e1 fa bd
       0.05930633 -0.08176028 -0.10772746 -0.12250102
0003b0 f8 af a6 bd 12 3f 80 bd 82 7f ef 3c f4 70 30 3c
       -0.08139032 -0.0626203 0.029235605 0.010769118
0003c0 98 f0 cf 3d 77 ed a1 3c 68 24 f5 bd 3c 2e d7 bc
       0.101533115 0.019766552 -0.119698346 -0.026267163
0003d0 3d 88 cd bd 62 9f 20 bc f6 86 73 3b 8d ab 29 bd
       -0.10035751 -0.009803625 0.00371593 -0.04142337
0003e0 63 17 9f bd ee 9c ea bd a7 ef 8d bd ab 26 39 bc
       -0.077681325 -0.11455713 -0.06930476 -0.011300723
0003f0 5a 38 a5 be 96 92 b5 3a 14 08 19 be de ae a5 bc
       -0.32269555 0.001385289 -0.14944488 -0.020224985

encoder.net.2.bias f4 [60]
000000 be 3e 5c bd 0e 2d df bc 0e ea 32 bd 38 55 c0 3c
       -0.053770773 -0.027243163 -0.043680243 0.023478135
000010 37 77 93 3d 27 20 3f bd af df 94 3d 5e 98 6a 3d
       0.07200473 -0.046661522 0.07269227 0.057274215
000020 1e c4 29 3d 19 67 82 3c 1e c7 2b bd 9b 7e 4b bd
       0.041446798 0.015918301 -0.04193794 -0.049681287
000030 ce 8f 23 3d 7f ba 43 bd cc 18 11 3d b5 47 10 bd
       0.039932065 -0.04778528 0.03542404 -0.035224635
000040 12 47 14 3c e3 78 b0 bd f0 ae 47 3d ef 6f 16 be
       0.009050148 -0.08616807 0.048750818 -0.14691137
000050 1a a5 dc bc aa 88 46 bd 90 5b 0c bd 5e 0f 2e 3d
       -0.026934195 -0.048470177 -0.03426701 0.042495124
000060 10 1c 26 3d f6 7a 43 3d ec 3d 96 bc ea a9 f4 3d
       0.040554106 0.047724687 -0.018340074 0.11946471
000070 71 d8 50 3d 32 78 bd bc 1f a2 f6 bc 64 cd 9d bd
       0.050987665 -0.023128603 -0.030106602 -0.07705191
000080 7d f0 58 bd 19 33 2d 3d 1c 6c 80 bd a6 2f d7 bc
       -0.052963722 0.04228506 -0.0627062 -0.026267838
000090 fd af ee bb 97 32 4c bc c4 54 28 3d a6 05 2c bd
       -0.007284163 -0.012463233 0.041096464 -0.041997574
0000a0 3c 16 2a 3d 4e d1 3f 3c bd 96 05 3d b9 ff f1 3b
       0.04152511 0.011707617 0.03261446 0.007385221
0000b0 4f 51 c6 3c ee 7d 23 bc 5e 1e b4 bc ae f2 bc 3c
       0.024208693 -0.009978754 -0.021987136 0.023064937
0000c0 75 0c 91 3d c0 7f 31 3c 10 94 48 bc 75 65 33 bd
       0.07082454 0.010833681 -0.012242332 -0.04379793
0000d0 77 19 2b bd ac 82 6b 3d 82 2e 04 3d 6b aa 8b bd
       -0.041772332 0.057497665 0.032270916 -0.06819614
0000e0 e9 51 1d 3d 5d dc 24 3d 5b 47 ba 3d 8b b1 2c bd
       0.038408194 0.040249217 0.09095641 -0.042161506

encoder.net.5.weight f4 [32, 60]
000000 e5 d2 f2 3d 2d e9 9d 3d dc ae a8 bc 14 9e 6b 3c
       0.11856631 0.077104904 -0.020591192 0.0143809505
000010 5f 11 bf ba 0f 13 f3 bc 05 77 13 be aa d0 12 3d
       -0.001457732 -0.029672174 -0.14400871 0.03584353
000020 3c 68 18 be 16 59 4d bd 77 a5 7f bd ab f7 78 3e
       -0.14883512 -0.050133787 -0.06241366 0.24313228
000030 73 9c 28 bd 7e 4f c0 bc aa b6 fc bd de 73 60 3d
       -0.041164827 -0.023475405 -0.12339528 0.054798
000040 eb cb 26 bb ca b9 1b bd a6 30 89 be 67 82 ac bb
       -0.0025451134 -0.03801898 -0.26794928 -0.0052645686
000050 18 54 8f 3d e6 ce a9 bd 23 8a 00 be 97 f6 2f 3d
       0.069984615 -0.08291416 -0.12552695 0.042959776
000060 31 26 1f be 55 0a 1a bc 84 20 7a bd da cf 66 be
       -0.15541913 -0.009401877 -0.061066166 -0.22540227
000070 16 d6 06 3e cb 22 e3 3c ca 9c 62 3e 3a 57 03 be
       0.13167605 0.027726552 0.22130123 -0.12826243
000080 35 d6 84 3e 48 39 9b 3e e6 0c 5d bd cc d5 12 3e
       0.25944677 0.3031714 -0.05396738 0.1433937
000090 42 3b f7 bd 3b 93 b6 bd f9 c6 0c be e2 65 9b be
       -0.120718494 -0.08914801 -0.13747777 -0.30351168
0000a0 c6 82 0d 3e 2b 0b c0 bc 7a fa 85 be 1f c8 59 bd
       0.13819417 -0.023442825 -0.2616766 -0.053169366
0000b0 a1 3d 4a be 77 7f 94 bc b8 9e 5d be 12 d3 00 bd
       -0.19750072 -0.018127186 -0.21642578 -0.031451292
0000c0 75 8e 0d be ec 16 a3 be 3d dd 51 3e 5e fa 7d 3c
       -0.13823874 -0.31853426 0.20494552 0.015501587
0000d0 05 1e ee bd 9e a8 1a 3e 6c fa b3 bd 4b 58 fc bc
       -0.116268195 0.15103385 -0.087879986 -0.03080382
0000e0 5d 37 05 3e ed f1 ae 3d b9 14 4b bb d9 a6 4a 3e
       0.130094 0.085422374 -0.0030987693 0.1979021
0000f0 9e 15 4d bc 5b e0 f4 bd c7 10 a1 3d 4a cd 90 3e
       -0.012517361 -0.11956855 0.07864528 0.28281623
000100 1d e0 e8 bb 90 18 c7 bd ff 49 57 3e 6a 21 e1 bd
       -0.0071067945 -0.09721482 0.21024321 -0.10992701
000110 40 88 d3 bd 85 85 88 3e b9 7b c2 3e e1 d5 77 bd
       -0.10328722 0.26664367 0.37985018 -0.060506705
000120 ba 7a 89 be f9 aa 3a bd e9 5a ee 3c 9a a4 e7 3d
       -0.26851445 -0.04557321 0.029096084 0.11310692
000130 af 50 e8 3c 02 e5 6d 3d e0 22 c4 3d ba 8b 77 bd
       0.028358785 0.058079727 0.095769644 -0.060435988
000140 9c d1 b2 3e 4a ac e6 bc a5 92 5d 3d 1d 34 4b 3e
       0.34925544 -0.028158326 0.05409493 0.19844098
000150 e3 96 0e 3c b8 1c 17 be 63 3b 98 3d d6 5e 4f 3d
       0.008702966 -0.14757049 0.07433202 0.050627552
000160 13 94 79 3e 58 51 f2 3b 8c 1e f5 3d 05 50 94 be
       0.24372892 0.007394951 0.11968717 -0.289673
000170 a5 f7 01 be 52 43 02 3e f7 95 f0 bd 76 eb 52 3e
       -0.12692125 0.12720993 -0.117473535 0.20597634
000180 d5 b2 0c be 2c 93 31 be 73 b8 ec bd d8 ec 08 be
       -0.13740094 -0.17341298 -0.115586184 -0.13371599
000190 56 cf c2 bc 69 be 96 be 9d d0 68 3d 28 33 b6 3d
       -0.023780506 -0.29442146 0.056839574 0.08896476
0001a0 93 a4 5a 3d 9d 5a 37 bd b4 75 94 3e 3f 59 49 3e
       0.053379606 -0.04476415 0.2899605 0.19662951
0001b0 53 71 0b 3e 6c 5b 15 be 66 30 11 bd 07 49 41 be
       0.13617449 -0.14585656 -0.035446547 -0.18875514
0001c0 0f 76 94 bd 74 b1 b3 3c 1e fe 1c 3e 50 55 43 3c
       -0.072490804 0.021935202 0.15331313 0.011922196
0001d0 f6 3d 92 3e 8b d0 83 bd 1e c1 f2 bd 06 a7 97 bd
       0.28562897 -0.06436261 -0.118532404 -0.07404904
0001e0 20 66 a9 3d 91 92 8c bc e7 76 e8 bd c2 73 ef bd
       0.08271432 -0.017159732 -0.11350804 -0.11692001
0001f0 25 7c 31 be 96 c5 a6 3d 92 68 4e be da fc 68 be
       -0.17332514 0.08143155 -0.20157078 -0.22752705
000200 7f e4 c2 bd 51 0d ae bd fe 96 db bd e0 0b 19 3e
       -0.095162384 -0.08498634 -0.10722159 0.14945936
000210 10 b0 a1 3c 4d fd 59 3e d5 a3 b5 3d ff 1e 00 3e
       0.019737273 0.21288033 0.08869139 0.12511824
000220 1d 35 09 3e ff 99 43 be 44 38 4e 3d c9 f9 0e bd
       0.13399167 -0.19101714 0.050346628 -0.034906182
000230 24 18 36 3d 5b e8 a3 3d 58 e1 3b bd 6e f9 94 bd
       0.044456616 0.08003303 -0.0458692 -0.072741374
000240 90 b6 53 3e c4 23 71 3d f7 6e 9b 3e 5d 08 49 be
       0.20675111 0.058872 0.30358097 -0.19632097
000250 39 30 ce 3c 6b 67 44 be 3e c7 00 3e ce ed 13 3e
       0.025169479 -0.19180076 0.12576005 0.14446184
000260 50 0f ae 3c 24 1e ef bd 86 e0 2f be d7 86 a0 3e
       0.021247536 -0.11675671 -0.17175493 0.31352875
000270 08 dc 14 be ba 00 4f 3e dd eb 47 be a3 8e 8b bc
       -0.1453706 0.20215121 -0.19523568 -0.017035788
000280 40 3c ba bc 93 b3 00 3e 71 5b 29 3e 10 ee 3c 3d
       -0.022733808 0.12568502 0.16538788 0.04612547
000290 ec 68 83 bd 33 5e 40 3d 21 1e 7c 3e d1 00 90 3d
       -0.06416497 0.046964835 0.24620868 0.07031406
0002a0 cb eb 29 be 19 e7 08 3e 10 f7 4f 3d 69 5b 56 3e
       -0.16593854 0.13369407 0.050772727 0.20933308
0002b0 ff 8f 03 be 45 b8 c7 3d 9d 3b 8d bd 6e 1c 4d be
       -0.12847899 0.097519435 -0.06896136 -0.20030376
0002c0 96 bb 96 be 7b e8 70 bd 79 9b 14 bd 2c 36 a5 3e
       -0.29439992 -0.05881546 -0.036281083 0.32267892
0002d0 d1 e3 d5 bd e7 40 48 bd 3d 48 d2 bc 2e ee 87 3d
       -0.10443843 -0.04889002 -0.025669212 0.06637226
0002e0 f1 34 16 3e 60 a6 22 3e 4b 5f 32 be 9c d8 48 3d
       0.14668633 0.1588378 -0.17419164 0.0490347
0002f0 a1 7d 20 3d 93 40 85 3c 08 20 0c bd f7 33 47 3d
       0.03918231 0.016266143 -0.034210235 0.048633542
000300 71 25 7e 3e eb 3d d4 3e f7 51 d8 bd 24 b0 13 3e
       0.2481897 0.4145349 -0.105625086 0.14422661
000310 fc 37 e7 3c 6e b6 bb 3d 77 e3 1d be 81 68 89 3e
       0.028224938 0.09165655 -0.15418802 0.26837543
000320 74 d7 38 bd bb 40 10 bd b0 e1 65 be 38 f8 e4 3c
       -0.045127347 -0.03521798 -0.22449374 0.027950391
000330 bc aa 92 3e 32 f5 e1 bc fe 2f b6 bc e8 28 19 3e
       0.28645885 -0.027582739 -0.022239681 0.14957011
000340 62 65 3a bd 58 73 13 be 47 4e c2 3d da bf 56 bb
       -0.045506842 -0.14399469 0.094875865 -0.003276816
000350 71 a0 14 bc 7d ff aa 3d 26 aa 05 be 5c a1 f1 bd
       -0.009071455 0.08349512 -0.13053188 -0.11798355
000360 e0 5a cf 3c 8e a8 5a 3d 3d ef aa 3d c4 05 5f 3d
       0.025311887 0.053383403 0.08346412 0.054448858
000370 96 98 a8 bd a4 7e 81 bd 90 cc be 3d df 64 80 bd
       -0.082322285 -0.06322983 0.09316361 -0.0626924
000380 51 80 89 3c 3f d9 03 3d bf 02 9f be c4 85 37 be
       0.016784819 0.032189604 -0.31056783 -0.17922121
000390 b0 7a f4 be 81 a4 86 3d 91 bf 18 3e 5a 0a 47 bc
       -0.47749853 0.065743454 0.14916827 -0.012148464
0003a0 72 bf 5f be 69 0d ab bd be a4 53 ba 5b 80 d0 3b
       -0.21850374 -0.08352167 -0.000807356 0.0063629574
0003b0 b5 0b 41 bb b6 59 59 3b eb 31 5d 3d 8e 82 18 be
       -0.002945644 0.0033165044 0.054002684 -0.14893553
0003c0 27 91 27 3e 1c 50 2d bd e3 9f fd 3d 60 c9 cd bd
       0.16363965 -0.042312726 0.123840116 -0.10048175
0003d0 7a bd 04 be 0c 38 2a 3d 42 64 64 3c 89 12 11 3e
       -0.12962905 0.041557357 0.013939919 0.14167227
0003e0 d2 09 fc bc 3e 5b 8e be 7c 47 36 3e 3c 5d e0 bd
       -0.030766401 -0.27803987 0.17800707 -0.10955283
0003f0 8e db 92 bc 5a 05 ad bd 4b b0 c1 bd 6d 44 c6 3d
       -0.017926957 -0.08448286 -0.09457453 0.0968102

encoder.net.5.bias f4 [32]
000000 c7 83 89 bd dc 5e 79 3d 5e 54 30 bd cf eb b1 bd
       -0.06714588 0.06088148 -0.04304921 -0.08687555
000010 1d 84 33 bd d2 b7 9e 3d 3b 49 50 bd ac c9 00 be
       -0.043827165 0.07749905 -0.050851088 -0.12576932
000020 e6 42 11 3d 19 d1 33 bd a1 95 a9 3c 7a c4 20 3d
       0.03546419 -0.043900583 0.020701231 0.039249875
000030 cb 71 62 3d bb 14 f4 bd 1d 80 3a 3d 25 f2 49 3d
       0.055284303 -0.119180165 0.045532335 0.049303193
000040 fa 28 36 3d e4 0f 5f 3d ce 04 fd bc b4 4f f4 bc
       0.044472672 0.054458514 -0.03088608 -0.029823162
000050 d2 42 6c 3d 71 b2 3f 3d a6 ac 61 3d 51 cd 65 3d
       0.057680912 0.046801034 0.05509629 0.056104008
000060 d8 fe a2 bd 79 7d 45 bd ac df 3b bd e0 97 43 3d
       -0.07958764 -0.048215363 -0.045867607 0.04775226
000070 53 99 86 3d f4 26 e4 3c 88 ba 5d bd 2a 23 5a bd
       0.06572213 0.027850606 -0.05413297 -0.05325619

predictor.net.1.weight f4 [32, 32]
000000 b6 86 6e bd 3e 92 f8 bd 38 4f b9 3e 46 c7 f4 bd
       -0.05823394 -0.121372685 0.36193252 -0.11952071
000010 1a a6 19 be e1 8e 38 bd 13 c2 56 3e 08 0a 8c 3d
       -0.15004769 -0.045058135 0.20972471 0.06837851
000020 1b 2a 5e be b5 ac a1 bc ce 01 5d be 89 f6 43 be
       -0.2169575 -0.019735673 -0.2158272 -0.19137014
000030 23 4d 2e 3e f2 e7 df bc 9a bd 43 3e 9c 6f 8a bd
       0.17021613 -0.02733228 0.19115296 -0.06759569
000040 db 7f a2 bd aa c0 4e be c2 55 44 3e 40 3f 81 be
       -0.07934543 -0.20190683 0.19173339 -0.25243568
000050 f3 9d 99 bd 7b b7 24 3e 05 af f2 3d 47 33 aa 3e
       -0.075008295 0.16085617 0.118497886 0.33242247
000060 13 31 79 be bb 8f 1f be 58 8c 81 3d 2f 06 1c 3e
       -0.24335127 -0.15582173 0.063255966 0.15236734
000070 42 24 de bd a4 59 4a bd 38 f0 a6 3d b1 27 c9 bd
       -0.108467594 -0.049401894 0.08151287 -0.09822024
000080 d1 9c 7f be 99 88 c0 bd 98 bf dd 3d 06 11 71 3d
       -0.24962164 -0.09401054 0.10827559 0.058854125
000090 77 98 52 3e 25 dd d9 be 40 b0 26 3e 2c b7 45 be
       0.20565973 -0.42551532 0.16278172 -0.19308156
0000a0 df 8f 00 3e c4 19 5b 3e d2 2e 2f 3e 56 bf 0c be
       0.12554882 0.21396548 0.17107704 -0.13744864
0000b0 dd 73 03 be 41 4b 46 be 85 09 ff 3c 84 36 4f 3e
       -0.12837167 -0.19364645 0.031132469 0.2023564
0000c0 b7 8f a7 3d 45 28 15 bd e5 7c 87 3e f7 a3 1d 3d
       0.08181708 -0.036415357 0.26462474 0.038486447
0000d0 d8 14 ed 3d 87 5e d0 3d 7e 12 a0 bd 40 7d 19 bd
       0.11576241 0.1017428 -0.07816027 -0.037472963
0000e0 16 26 3f be 12 a4 42 3d 42 03 9e 3d 2c 94 6c bc
       -0.18666872 0.04751975 0.07715465 -0.014439624
0000f0 9f ca 83 3b 91 9d ef bd dd c9 45 be 84 00 46 be
       0.004021957 -0.11699975 -0.19315286 -0.19336134
000100 fc f4 a8 be 91 36 3a be 33 9c 71 3e 02 73 24 bd
       -0.32999408 -0.18184878 0.23594742 -0.040148742
000110 b2 c9 f4 3d 66 49 47 bd 25 21 41 3d 52 27 cd 3d
       0.11952533 -0.048653983 0.04715075 0.100172654
000120 4d b6 46 be b3 46 97 be 02 5b d1 bd cc be 0c be
       -0.1940548 -0.29546127 -0.102224365 -0.13744658
000130 73 31 0e bc 0a 83 06 3b bb c5 5e bd 3b 55 61 be
       -0.008678782 0.0020524883 -0.05438779 -0.22005169
000140 6b 07 c3 bd fc 6c a4 bd cc cb 21 3e ce 55 80 3e
       -0.09522899 -0.080285996 0.15800399 0.25065464
000150 3f 7d 2b 3e 59 69 0b bf 6f ee f5 be 60 eb 04 3e
       0.16746996 -0.5445762 -0.48033473 0.12980413
000160 c4 85 27 be 54 52 2b be 47 32 54 be ca 25 e2 3d
       -0.16359621 -0.16730624 -0.20722304 0.11042364
000170 11 2e 9f bc d2 56 d7 bd 4c 41 10 3e a7 b1 5e 3e
       -0.019431146 -0.105146065 0.14087409 0.21747456
000180 52 6e 3c bd 30 f4 9b bc fd 19 1f be a5 e5 f5 bd
       -0.046003647 -0.019037336 -0.15537257 -0.12006692
000190 5e 12 b9 bd 08 3c 30 3e 58 b5 98 be 44 e1 04 3e
       -0.090367064 0.172104 -0.29825854 0.12976557
0001a0 30 2c 95 bd 8d 96 c7 3b 76 b7 13 be dc db 4d be
       -0.07283819 0.006090945 -0.14425454 -0.20103401
0001b0 3f 77 1b b7 6f 98 67 be cd aa 4f bd ae 42 a8 3e
       -9.266484e-06 -0.22616743 -0.050699998 0.32863373
0001c0 c6 31 b5 3d a6 cd d2 bd 10 70 df bd 3b a3 d1 b8
       0.08847384 -0.102931306 -0.10910046 -9.996301e-05
0001d0 a6 67 13 bc 54 f4 07 be 4f e0 9e be 13 aa 00 3e
       -0.00899688 -0.13276798 -0.3103051 0.12564878
0001e0 4b 5c 88 bd 76 1b e7 bd 1b 03 47 3e 16 98 07 be
       -0.066582285 -0.11284535 0.19434778 -0.1324161
0001f0 fa 5d 7a 3d 18 f0 04 3e eb a4 e3 bd 4b 22 85 3e
       0.06112478 0.12982213 -0.1111544 0.26002726
000200 1f de 50 3e fc 86 81 3d f5 b4 62 3e a2 8e 82 3e
       0.20397232 0.06324574 0.22139342 0.25499445
000210 99 ff f4 3d 58 62 23 3e e0 42 8c bd 4d 3a 60 3d
       0.11962814 0.15955484 -0.06848693 0.0547431
000220 36 b2 33 3c c1 3e e7 3c 74 16 61 be 11 bc dc 3d
       0.010967782 0.028228166 -0.21981221 0.10778058
000230 76 d6 1d 3e 6b 4f c1 bc 42 a2 74 bd 0d 5d aa 3b
       0.15413842 -0.02359744 -0.059725054 0.005199081
000240 ad 8d cb bd 10 7c bb bd ee 4b 23 be 3b 7d 57 3c
       -0.09939132 -0.091545224 -0.15946934 0.013152416
000250 e2 74 1e be 60 21 10 be f3 db 51 3e c0 17 47 be
       -0.15474275 -0.14075232 0.2049406 -0.19442654
000260 43 39 40 be 83 e8 8e bd 33 78 09 3d c2 30 84 bd
       -0.18771844 -0.06977942 0.033561897 -0.06454612
000270 ef b6 54 3d 4b b2 1b 3e 1c 61 5d 3e 93 06 62 3d
       0.05193227 0.15204732 0.21619076 0.05518205
000280 13 c5 df bd 44 9a f4 3d 4f 4b b5 be f8 65 2f 3d
       -0.10926261 0.11943486 -0.35409018 0.042821854
000290 2d e5 74 bd 90 b1 3b bd 64 cf ee 3c e4 60 c7 bd
       -0.05978887 -0.045823634 0.029151626 -0.09735277
0002a0 9a be 69 be 7a 61 24 3e a5 81 f8 3e 0a 11 43 be
       -0.22826615 0.1605281 0.4853641 -0.19049469
0002b0 77 02 09 bd 4f 0c ec be 7d e7 1e 3b cd 2b b4 3d
       -0.033449616 -0.4610314 0.0024246864 0.08797417
0002c0 a7 a2 35 3e 7e 93 b2 3e 34 f6 64 3d 9a 51 2a 3e
       0.17737828 0.34878153 0.05589886 0.16632691
0002d0 52 50 25 3e 6b 65 f2 3c b5 27 93 bc 0b d0 01 3e
       0.16143921 0.029589375 -0.01796327 0.12677018
0002e0 19 ae 62 be e1 42 d1 be b0 13 4a be 6b d6 0a 3d
       -0.22136725 -0.40871337 -0.19734073 0.03389589
0002f0 5f b6 de 3c 39 8f 7b be 37 5b d5 3c 6f b0 f7 bd
       0.02718657 -0.24566354 0.026044471 -0.12094199
000300 fd 90 c4 bd ac 5b 9e bd 04 d4 ef bb a8 cc 85 bd
       -0.09597967 -0.07732329 -0.0073189754 -0.06533176
000310 7e 03 1e be ba cb 92 be 4b 10 45 3e 6f 84 09 3e
       -0.1543102 -0.28671056 0.19244497 0.13429426
000320 8c 51 ad 3d 64 2a 02 be f2 37 9e 3c 38 60 1f bd
       0.084628195 -0.12711483 0.019313786 -0.03891012
000330 8b 18 9f be 5d 30 bb bd 6e 16 69 3e b9 d8 d2 3d
       -0.31073412 -0.09140084 0.22762462 0.10295243
000340 76 29 e3 3e eb a2 69 be 49 fb 30 be 69 16 a4 3e
       0.4436757 -0.22816055 -0.17283358 0.32048348
000350 ce c5 dd 3c 74 b7 7c be 57 49 8c be ab 70 22 be
       0.02707186 -0.24679357 -0.27399704 -0.15863292
000360 3c d6 97 be 31 9c c8 3d 9e 26 b9 3d 80 15 ff 3c
       -0.29655635 0.09795416 0.09040569 0.031138182
000370 9e 73 73 bd 28 3c aa bd 91 2d a7 bd 3b 07 72 be
       -0.059436433 -0.08312255 -0.08162988 -0.2363557
000380 f1 ea a0 be b4 9b cf 3d 4c b0 c2 3d ec d1 70 3d
       -0.31429246 0.1013712 0.09506282 0.058793947
000390 9c 47 22 3e ce 92 aa 3d 0d 02 7e be 12 2f 05 3e
       0.1584763 0.08328782 -0.2480547 0.13006237
0003a0 a3 b3 75 3e 17 2e 03 be a7 6d f6 3c e9 c3 a6 bd
       0.23994307 -0.1281055 0.030081583 -0.08142836
0003b0 9e 7f 91 bc 1d 0c db 3d 76 a7 a0 3c 5d 1f 0b 3e
       -0.017761048 0.1069567 0.019611102 0.13586183
0003c0 fb e9 e3 3c d7 88 2c be 46 34 7b bd ef 5e 9c 3e
       0.027821532 -0.16849075 -0.06132915 0.3054118
0003d0 b4 79 18 3e 01 84 b4 bc b4 16 9c 3e 83 75 63 bd
       0.14890176 -0.0220356 0.3048607 -0.05553199
0003e0 98 bd 81 be 1d dc 94 bd 3e 62 e0 3d 98 5a 53 be
       -0.2533996 -0.07268546 0.10956238 -0.20640028
0003f0 94 be 2e 3e db b6 90 bd 67 28 6c bd 12 6f f9 3d
       0.17064887 -0.07066127 -0.05765572 0.12179388

predictor.net.1.bias f4 [32]
000000 cf a4 8e 3d b5 c3 8c bd 36 d4 98 bd 42 a0 90 3d
       0.069650285 -0.06873266 -0.07462351 0.07061817
000010 74 67 7d 3d 14 3c b0 3d 99 f1 8a 3d 9f 94 7a bd
       0.06186624 0.08605209 0.06784362 -0.061176892
000020 43 4e 85 3d 02 ae 9b bd e8 6d 8f bd 7c da 81 3d
       0.06509068 -0.07601549 -0.07003385 0.06340501
000030 1f 99 a8 3d 69 ac 94 bd 0d 3c 99 3d 9e 11 94 bd
       0.082323305 -0.07259447 0.07482157 -0.07229923
000040 b9 f1 8f 3d 1b 0a 90 bd de 25 93 bd f1 1e 98 bd
       0.07028527 -0.070331775 -0.07184957 -0.074277766
000050 c0 d6 b1 bd 50 3a 2d 3d 88 3e 8a bd 91 1d 8d 3d
       -0.086835384 0.04229194 -0.06750208 0.06890405
000060 9e 53 9a bd bc c8 96 3d 4d 27 df 3d 1e 57 86 3d
       -0.0753548 0.07362506 0.10896168 0.06559585
000070 b5 27 8a bd 20 38 d9 bd 39 bd b6 bd 71 95 83 3d
       -0.06745855 -0.10606408 -0.0892281 0.06424988

predictor.net.3.weight f4 [1, 32]
000000 f5 02 1b 3e 4f 75 b9 be a4 6f 9a be 7e fd 75 3d
       0.15137847 -0.36222312 -0.301633 0.060056202
000010 4e c2 cd 3d e7 e2 92 3e 7e 99 fe 3d a6 b9 77 bd
       0.10046826 0.28688738 0.1243162 -0.060479783
000020 1a 6c 06 3e dc c5 3e bd c0 8f c9 be 50 23 60 3e
       0.13127175 -0.046575412 -0.39367485 0.2188847
000030 0c 33 82 3d 69 21 25 be d4 5c 57 3e 9d a3 5f be
       0.06357393 -0.16126026 0.21031505 -0.21839757
000040 e0 eb 6f 3d 4a 11 9c be 04 b3 3d be 2e 83 64 be
       0.058574557 -0.3048194 -0.1852532 -0.22315666
000050 3b 12 05 bf a7 10 5a 3b 66 30 87 be 6f 5c 6a 3e
       -0.5198094 0.0033274086 -0.26404113 0.22886823
000060 69 c8 98 be 35 a1 8f 3d 1a 6c 91 3d 9f b3 cf 3d
       -0.298404 0.0701317 0.07100697 0.10141682
000070 e8 1f 58 be cf 22 88 bd 1f 30 4c be d7 60 35 3e
       -0.21105921 -0.06647264 -0.19940232 0.17712723

net.0.weight f4 [60, 35]
000000 35 69 ad bd d3 02 98 bd 38 7e b0 3d 6b 57 9e be
       -0.08467332 -0.07422414 0.08617824 -0.3092607
000010 4a 39 d5 3d b1 55 dd 3d c5 8f 62 3c 92 d3 25 be
       0.10411318 0.1080736 0.013828223 -0.16193989
000020 b5 45 d7 bd 11 32 30 be 7a bc 5a bd 42 08 28 3e
       -0.105113424 -0.17206599 -0.0534024 0.164094
000030 a7 bf c9 bd a1 a8 13 3e ae d6 1c be 3a a2 b9 bd
       -0.09851008 0.14419796 -0.15316269 -0.090641454
000040 6d 70 25 be b5 c0 33 bd 18 32 9a be e9 8a 85 3d
       -0.16156168 -0.04388495 -0.30116343 0.06520636
000050 e5 91 14 be ea b6 ff 3d 8b 96 93 3c 33 b3 10 3e
       -0.1450878 0.1248606 0.01801612 0.14130859
000060 6c 0b 16 3e 16 1c 53 be a4 10 50 3e cb 75 44 bd
       0.14652795 -0.20616183 0.20318848 -0.0479639
000070 55 93 94 3e b2 89 22 3d e2 55 8a bd 59 6b b2 bd
       0.29018655 0.039682098 -0.06754662 -0.08711881
000080 f8 c5 34 be 2f e2 c0 bc 06 f5 6c 3e 93 e1 42 be
       -0.17653644 -0.023545353 0.23140344 -0.19031362
000090 c6 0e cd bd 94 b4 db bd 44 26 68 bd b4 68 4d bd
       -0.100125834 -0.10727802 -0.056677118 -0.05014868
0000a0 c1 5c c8 bd aa 6e 31 3e 2b 82 5b 3e 72 d7 b8 bd
       -0.097833164 0.17327371 0.21436374 -0.09025468
0000b0 73 89 38 3c 8a e3 f7 3c 1a 46 14 be 1d 2c 7c be
       0.011263239 0.030259866 -0.14479867 -0.24626203
0000c0 65 bf 39 bd 91 45 ec 3d 55 8a c2 3d eb 41 e2 3d
       -0.045348544 0.11536706 0.09499041 0.11047729
0000d0 61 fc b7 bd 1a 48 42 bd 69 bc a8 3d 18 16 a7 bc
       -0.08983684 -0.047432043 0.082390614 -0.020396277
0000e0 3a af 5a 3e ce c8 5a 3d 20 29 97 3d c1 01 a1 3d
       0.21355906 0.05341416 0.07380891 0.07861663
0000f0 b9 a5 97 3d 32 f8 dd bd 3f af 3a be 01 79 ae 3b
       0.07404656 -0.10838355 -0.18230914 0.0053244834
000100 47 8b 18 be 34 fa 95 be 51 1f 9b 3e 1e 35 43 bd
       -0.1489688 -0.29292452 0.3029733 -0.04765808
000110 f4 e5 5f 3d 01 ea 0f bc 53 08 2b bd e8 1f 51 bd
       0.05466266 -0.008783818 -0.041755985 -0.05105582
000120 c6 c6 28 3b 3d 90 fe bd 6a 68 3b 3d 29 4f 26 be
       0.0025753244 -0.12429855 0.045753874 -0.16241135
000130 46 56 13 be 41 01 93 be 69 98 d7 3d 07 0d 13 bd
       -0.1438838 -0.28711894 0.10527117 -0.035901096
000140 77 e2 89 be 78 ab d8 3e 8b 98 14 3d 3a 2c a9 3e
       -0.2693059 0.4231832 0.03627829 0.33041555
000150 5d 47 92 bd 09 1c a5 3d f0 9e 65 bb f8 3b 81 3d
       -0.07142518 0.08061988 -0.003503736 0.06310266
000160 8f e1 49 be 92 61 a3 be 91 75 bb 3d af 7c 78 be
       -0.1971495 -0.31910378 0.091532834 -0.24266313
000170 ea 03 d9 bc fe a3 4a 3e e8 2d d9 bd aa 6f 64 bd
       -0.026491124 0.1978912 -0.10604459 -0.055770554
000180 51 fa 77 bc 8f 1f 06 bb b1 5a 23 be 88 39 3c bd
       -0.015135364 -0.0020465588 -0.15952565 -0.045953304
000190 6b ec 10 be c3 c7 b6 bd bf 7f 4b 3e f7 bc da 3c
       -0.14152686 -0.0892482 0.1987295 0.026701434
0001a0 68 a0 c5 3c 5f 54 f3 bc eb 35 05 be 61 5c 8a bc
       0.02412434 -0.029703317 -0.1300885 -0.016889753
0001b0 a4 a5 57 be 67 30 fd bc d2 15 cc 3c 2a ce b4 bc
       -0.2105928 -0.03090687 0.024912748 -0.022070963
0001c0 50 00 21 3e ef e5 be 3c c9 53 51 bd e9 a0 09 be
       0.15722775 0.023303 -0.051105294 -0.13440289
0001d0 ca 61 63 3e 24 80 bd bd 2c f1 11 3c fb 8f 24 bc
       0.22205272 -0.092529565 0.0089075975 -0.010044093
0001e0 a9 81 a6 bd 78 4a 94 3e d5 20 cf bd 70 85 05 be
       -0.081301995 0.28963065 -0.10113684 -0.13039184
0001f0 d1 4b e4 3e 50 2b b4 3c c2 91 81 bc 5b b3 3f bd
       0.44589093 0.02199331 -0.015816573 -0.046801906
000200 a5 07 82 bd 65 86 81 be 53 89 b2 bb 51 3a 51 bd
       -0.06349114 -0.25297847 -0.005448499 -0.051081005
000210 33 5d 89 3d ca 27 a9 3e a6 16 0b 3e 87 66 83 bd
       0.067072295 0.3303817 0.13582858 -0.0641604
000220 d2 d4 49 3e 19 3b 09 be ae f3 e0 bd 24 f0 f3 bc
       0.19710091 -0.1340145 -0.10983978 -0.029777594
000230 f4 21 da 3d 5d de 3b be 5c cc ad 3d a6 a1 a1 39
       0.10651007 -0.18346544 0.08486244 0.0003082875
000240 21 11 1b 3e 40 67 22 3b bd fe d1 bd 65 76 bc bd
       0.15143253 0.002478078 -0.102536656 -0.092022695
000250 c8 6f 14 be 95 a0 20 3e 91 a7 95 3e 0b 3c c4 bd
       -0.14495766 0.15686257 0.29229406 -0.09581765
000260 40 51 bd 3d 54 88 cc 3d c5 b0 48 3e 18 96 aa bc
       0.09244013 0.0998694 0.19598682 -0.020823523
000270 10 15 19 3e 9a 45 04 bc 53 5e 83 bd c8 1c 45 be
       0.14949441 -0.008073235 -0.06414475 -0.1924926
000280 e0 ca 8e bd 91 03 9c 3b 5c 2b 8c be a0 36 90 3d
       -0.06972289 0.0047611673 -0.2737683 0.07041669
000290 e0 fc c2 bd bf bb b5 bd 5b 2f 66 3c f4 77 f5 bd
       -0.09520888 -0.088737 0.014049376 -0.1198577
0002a0 f3 4c 73 3d 98 69 bb bd b8 6c 26 3b e3 80 fa bd
       0.059399556 -0.09151 0.0025394391 -0.122316144
0002b0 5e fb 25 3e f2 e7 bb 3b 09 29 9f 3d 96 ae 5a 3e
       0.1620917 0.005734437 0.07771499 0.21355662
0002c0 ed 1c 27 be 92 5a 9a 3e 55 17 1f be c9 5c bb 3d
       -0.16319628 0.30147225 -0.15536244 0.09148557
0002d0 10 66 10 bd df 45 b2 bd 49 91 92 be e7 81 d0 bd
       -0.035253584 -0.08704733 -0.2862647 -0.10181027
0002e0 22 ec b6 bd 50 64 12 3e e7 5b 26 bc 34 36 5c be
       -0.089317575 0.14296079 -0.010153747 -0.21505052
0002f0 96 63 b8 bd d6 28 16 be e7 d9 fc bd 43 4b 4f 3c
       -0.090033695 -0.14664015 -0.12346249 0.012652221
000300 a7 61 c3 bc 03 64 5f bb ac 3a 92 3d bf 90 da 3d
       -0.023850275 -0.0034086711 0.07140097 0.106721394
000310 62 94 b8 3d d8 c6 8e bd d7 ff ee bc 87 70 dc 3d
       0.09012677 -0.0697152 -0.029174728 0.107636504
000320 92 cc 1f 3d 68 7f 75 3d 7b 9a 8d be 89 97 8a 3c
       0.039013453 0.059935957 -0.27656922 0.01691796
000330 28 6a 0b be b0 cb f6 3c c6 da e2 bd c7 b0 af 3d
       -0.13614714 0.030126423 -0.11076884 0.085786395
000340 77 9b 71 bd 1c d2 3b bd 97 d2 08 3c 24 5a 63 3d
       -0.058986153 -0.045854673 0.00835099 0.055505887
000350 48 b8 ce 3d 8a 47 4d bd 61 e5 0c bd 0f 28 4b 3d
       0.100937426 -0.050117053 -0.03439844 0.04959875
000360 cd ea 66 be 13 e9 f2 3d fb d3 0a 3e 5b 9f b6 bd
       -0.22550507 0.11860862 0.13557427 -0.089171134
000370 67 90 39 3b d5 bf 52 be d4 17 0f be 74 2f bc 3c
       0.002831483 -0.2058099 -0.13973933 0.022971846
000380 4e 9b de bd 79 69 22 3d 75 e3 32 3e 2b af e9 3c
       -0.10869466 0.039651368 0.1746958 0.02852591
000390 8b fc e9 bd 9c bf 80 3e 57 6a be bd 5a 3a 74 be
       -0.11425122 0.25146186 -0.092976265 -0.23850384
0003a0 c9 28 3e bd 7f 74 ae bd 05 01 eb be 0b 40 1b be
       -0.046425615 -0.085183136 -0.45899215 -0.15161149
0003b0 8e 43 81 bd 65 56 d3 3d 97 fc 77 3e b8 7b c2 3d
       -0.06311713 0.10319213 0.24217449 0.09496254
0003c0 61 01 2f bc b6 04 11 3e 39 a5 8d 3c 44 76 0b 3d
       -0.010681481 0.14161953 0.017290698 0.034048334
0003d0 6f 46 44 be ff 04 46 3e d9 fc ec 3d 77 39 31 3e
       -0.19167493 0.19337843 0.11571664 0.17307077
0003e0 d6 8b 2c bd 30 73 9f bd 48 10 dc bc 3c 04 03 be
       -0.042125545 -0.07785642 -0.026863232 -0.12794584
0003f0 7b 76 8b bd 67 4e a2 bd 0a f7 82 be e6 54 a4 bd
       -0.06809708 -0.0792511 -0.255791 -0.080240056

net.0.bias f4 [60]
000000 a2 1d 9e bd 18 07 99 bd cf 19 84 bd ef d7 9e bd
       -0.07720496 -0.07472056 -0.06450235 -0.0775603
000010 87 2f 34 3d 3d 50 ad bb 6c 1f eb bd 8e a7 86 bd
       0.043990638 -0.005289106 -0.114806026 -0.06574927
000020 47 9a de 3d 1c 40 36 bd 11 ab de 3b 33 f7 95 bd
       0.1086927 -0.044494733 0.006795295 -0.0732254
000030 18 f6 44 be d7 f7 26 3e f0 1d b9 3d b0 40 c0 3c
       -0.19234502 0.16305481 0.09038913 0.023468345
000040 c1 5c d3 3c 63 b8 94 bd 2b 25 eb bd 6a 45 42 bd
       0.025801064 -0.072617315 -0.114816986 -0.04742948
000050 c0 c6 2f 3d b5 57 0a be a7 e1 f4 bd d8 2b 1e be
       0.042914152 -0.1351002 -0.11957102 -0.15446413
000060 98 16 a2 3d bc f9 c1 bd 25 d2 1c 3e 2b 6b 1c be
       0.07914466 -0.09471461 0.15314539 -0.15275256
000070 3e 3a 6e 3d 46 02 2e 3d e4 b5 11 3e 4d cf 29 3a
       0.058161013 0.042482637 0.14229542 0.00064777286
000080 67 8a a4 3d 6e 64 10 3d 1f 2d 26 bd 06 e4 04 bd
       0.08034211 0.035252027 -0.040570375 -0.032444023
000090 47 f3 ff 3d 2d 9d f7 bd e9 81 95 3c 1d 92 f5 3d
       0.12497573 -0.12090526 0.018250423 0.119907595
0000a0 fa 05 c8 3d a8 b4 37 3d 85 c8 4e bd 8b 40 f6 bd
       0.09766765 0.04485002 -0.0504842 -0.12024029
0000b0 89 a3 13 be 62 0d 27 3e 57 1a b5 3d a5 16 b1 3d
       -0.14417852 0.16313699 0.088429146 0.08646897
0000c0 b3 c2 8b bd e2 20 94 bc ff ea 28 be 52 60 5b bd
       -0.06824245 -0.018082086 -0.16495894 -0.053558655
0000d0 ab 03 92 3d 00 00 a7 3d 16 aa bb 3d 94 b8 f6 3d
       0.07129606 0.08154297 0.09163301 0.12046924
0000e0 30 f7 da 3d 55 40 9e bd 72 c1 95 bc 21 22 96 3d
       0.106916785 -0.07727114 -0.018280718 0.07330728

net.2.weight f4 [60, 60]
000000 0b c8 1b be 97 ca 58 bd a4 25 32 3e 36 e2 97 bd
       -0.15213029 -0.05292758 0.17397171 -0.07416193
000010 93 81 23 be 5f 80 ac bd 0b 79 69 bd 5d 36 4b 3e
       -0.15967397 -0.08422922 -0.0570002 0.19844957
000020 d1 bb 97 bc 1f 48 c8 3d 3d e4 f4 bd e4 77 9b 3b
       -0.018522175 0.09779381 -0.119575955 0.0047445167
000030 21 1f 84 be 27 63 19 be 7b ca 8b bd 11 53 4f be
       -0.25805 -0.1497923 -0.068257295 -0.20246531
000040 01 cf c9 bd 98 3c b8 3d 3f 37 6e 3d b0 7c 5d 3d
       -0.09853936 0.08995932 0.058158156 0.05407399
000050 3a 85 d5 bc f4 af 9d bd 3b bf ec 3d d0 f9 53 3c
       -0.026064504 -0.07699576 0.11559912 0.012937978
000060 ba 79 b9 bc b4 c3 f3 bd ff 1f 25 3d 2c e2 1a 3e
       -0.022641052 -0.11902562 0.040313717 0.1512534
000070 7d 56 ce bd 79 3e e7 bd bb 41 49 bd 07 92 a4 3c
       -0.1007509 -0.112912126 -0.04913495 0.020089163
000080 82 b9 e0 bd 95 8e e6 bd cb 6f 32 be 58 f0 f7 b8
       -0.10972883 -0.11257664 -0.17425458 -0.00011822645
000090 f3 7d c7 3d 34 33 cf bc 9d 79 3d bc 5e 03 24 be
       0.0974082 -0.02529297 -0.011564639 -0.1601691
0000a0 22 7a 33 bd ee d9 f9 bd 49 6c 32 3c fd a9 a7 3d
       -0.043817647 -0.1219977 0.010890075 0.081867196
0000b0 4e 58 36 3e b7 dc b9 bd 6e 8f 97 3b 8f 80 f9 bc
       0.17807123 -0.09075301 0.0046252524 -0.03045681
0000c0 ef bc 48 3d d5 11 9c bd 6b 81 3d be f4 5c da 3d
       0.049008306 -0.07620589 -0.185064 0.10662261
0000d0 62 bf 58 bd 41 90 85 bd 3b 60 a0 3d 9b 88 08 3e
       -0.052916892 -0.06521655 0.078308545 0.13333361
0000e0 96 ac 04 3e 1f db f5 bc fc 98 a8 3d 7b d4 f1 bd
       0.12956461 -0.030011712 0.082323045 -0.118081056
0000f0 e1 c5 8d 3d 0b cb 10 3e de 9c 2d 3e a8 bb ac 3d
       0.06922508 0.14139955 0.16954371 0.0843423
000100 72 1b bf bc 5c 37 6c be 0f a3 81 be 16 fa 46 be
       -0.023328517 -0.23067993 -0.25319716 -0.19431338
000110 91 b5 3f bd 23 8e 4f 3e 12 3c 29 3d 69 d5 1e 3e
       -0.046804015 0.20269065 0.041317053 0.15511097
000120 6a 56 b4 bd 65 f7 e0 3c fc de 88 3b f1 bf d4 3d
       -0.08805545 0.027461717 0.0041769724 0.103881724
000130 81 95 64 bd e1 d6 c7 bc 74 11 1d 3d a1 ba ce 3c
       -0.05580664 -0.024394454 0.038346723 0.025235476
000140 e5 f9 eb 3b 58 c2 9f be 3c d4 ad bd 94 f0 7b bd
       0.0072014206 -0.3120296 -0.08487746 -0.06150873
000150 39 86 a3 3d 8f 84 2b 3d b8 db e8 bb b8 6e 15 3d
       0.07984585 0.041874465 -0.0071062706 0.036482543
000160 96 20 ce 3c 04 b6 d9 3d 74 fa a4 3d 0e e6 b7 3d
       0.025162023 0.1063042 0.08055583 0.08979426
000170 a4 58 54 3d 57 86 aa 3d 25 62 b5 bc 95 74 1a be
       0.051842347 0.083264045 -0.022141526 -0.15083535
000180 0c 33 2e 3e b5 e2 79 3d e6 d7 93 be ff 86 e3 3d
       0.1701166 0.06100722 -0.28875655 0.11109733
000190 86 cf 48 be 3f b1 fb 3d 47 04 78 bd d6 50 90 3d
       -0.19610414 0.122896664 -0.060550954 0.07046668
0001a0 72 bf d5 bd 63 ea f5 bd b2 21 8d 3d 99 05 b2 bd
       -0.10436906 -0.12007596 0.068911925 -0.08692474
0001b0 46 af d5 3d a8 e9 dc 3b 30 65 40 be d8 c2 6f 3e
       0.104338214 0.006741721 -0.187886 0.2341417
0001c0 ef d9 45 be c0 56 14 be 0c ab 0a bd a1 7e 30 bd
       -0.19321416 -0.14486217 -0.03385453 -0.043089513
0001d0 02 a5 97 3d ca 94 34 3e ec 98 c3 3e 84 5e 59 3d
       0.074045196 0.17634884 0.38202608 0.053068653
0001e0 5c 3c 19 bc 48 eb ed 3d 8b 4d 03 be 4e 11 00 be
       -0.00935277 0.11617142 -0.12822549 -0.12506601
0001f0 37 21 70 bd 8c c0 2b 3e d4 f0 10 3e 89 bb 13 be
       -0.058625426 0.1677267 0.14154369 -0.14427008
000200 82 a0 82 3d 07 a9 8e 3e 4d 2e dc bd 7d ba 13 bd
       0.06378271 0.27863333 -0.10751019 -0.03606652
000210 98 ce a6 bd 1c 5f 71 3e a3 e4 0c be 11 f1 de bd
       -0.081448734 0.23571438 -0.13759093 -0.108858235
000220 dc 36 77 3e 3d 6a 60 bd e7 d2 09 3d 00 45 73 bd
       0.24142021 -0.054788817 0.033648398 -0.059391975
000230 1d 3a cd 3d 9f 9f 8c 3d 6f 95 59 3e e0 be 1e be
       0.1002085 0.06866383 0.2124841 -0.155025
000240 e4 39 02 be 02 c2 5a 3d e7 3a a9 3c 4a 64 b3 3b
       -0.12717396 0.053407677 0.02065797 0.005474602
000250 99 5e 7a bd 22 1b 6f bd 73 2d cd 3d 4c c5 9e bd
       -0.06112537 -0.058375485 0.100184344 -0.07752475
000260 16 e5 a3 bd 00 53 57 3d bd 78 50 bd 64 4e fb 3d
       -0.08002679 0.05256939 -0.050896395 0.12270811
000270 69 67 ee bd 31 71 59 3e 89 7a 9f 3c 91 5a 0c 3e
       -0.11640818 0.21234585 0.019467609 0.13706423
000280 16 a7 2b bd 02 2a 37 3d e2 94 30 be 26 d4 a1 bd
       -0.041907392 0.044717796 -0.17244294 -0.07901792
000290 ae 8a 7a 3d 9b d7 2d 3d 6b f5 bb 3d 77 da 5e 3d
       0.06116741 0.042441946 0.09177669 0.054407563
0002a0 c4 85 1b 3e 97 45 b5 3d 60 2e 71 3e 4e 64 da bc
       0.15187746 0.08851164 0.23552847 -0.026659157
0002b0 f1 a3 17 bd ef d6 42 be 0d fa 12 3e c4 87 7e bd
       -0.03702158 -0.19027303 0.143532 -0.062141195
0002c0 2f 9a 80 be 96 8a 9f bc fd 58 21 3e b7 59 6c bc
       -0.25117633 -0.019475263 0.15756603 -0.014425687
0002d0 32 2b 92 3e 9d a0 b3 bd 73 63 49 be 1c 09 f2 bd
       0.2854858 -0.08770869 -0.19666843 -0.11818144
0002e0 28 c4 4a 3e 92 43 a2 bd 9f e3 36 3d bc a4 69 bc
       0.1980139 -0.07923044 0.04465067 -0.014260467
0002f0 e4 d4 bf 3d f2 f6 a1 3b b1 de 87 bd e2 d7 08 be
       0.093667775 0.0049427683 -0.06634272 -0.13363603
000300 68 b7 da 3b 44 30 60 3e cf 37 4c be 4c 01 04 3e
       0.0066746958 0.21893412 -0.19943164 0.1289112
000310 2b 92 87 bc b5 c6 9f bd 3e 1d f9 bd e1 3f f3 bc
       -0.01654919 -0.07801572 -0.12163781 -0.029693546
000320 2d 4f 4d 3d 84 cc c3 bc b0 85 01 bd b0 65 29 3e
       0.050124336 -0.023901232 -0.031621635 0.16542697
000330 99 f8 01 bc c8 0d 27 be f4 5b e0 3d da 9e 1f 3e
       -0.007932805 -0.16313851 0.10955039 0.15587941
000340 92 f4 89 be e1 a9 10 bd 40 ae 94 bd d5 fe 53 3c
       -0.26944405 -0.03531826 -0.07259798 0.012939175
000350 ee be 87 bc 07 11 bd 3d 07 aa 55 3d 3a 9c ae 3d
       -0.016570535 0.09231763 0.052164104 0.085258916
000360 53 0f 36 bd e1 1c a4 3d ae b2 68 be a3 c6 86 bd
       -0.044448208 0.08013321 -0.22724411 -0.06580856
000370 2f 04 0d be f1 24 fd 3d 72 47 9f 3d b5 a6 5b 3e
       -0.13771127 0.12360562 0.07777299 0.21450312
000380 e2 30 f4 3d 6a a1 00 be 58 8a 31 bd 36 89 12 3e
       0.11923386 -0.12561575 -0.043344826 0.14310154
000390 b0 6e c3 bc 72 b5 d8 3d 01 0c b9 bd 21 bc 89 3c
       -0.02385649 0.10581483 -0.09035493 0.01681334
0003a0 b4 11 10 3e 64 95 b7 3d 5c f6 29 3e 77 1a 01 bd
       0.14069253 0.08964041 0.16597885 -0.03151938
0003b0 c8 6c 38 3d 98 25 02 3e a5 98 35 3a e6 c9 1d 3e
       0.045025617 0.12709653 0.0006927348 0.1540905
0003c0 08 49 85 bc e1 c5 7e 3d ad 71 41 3d d0 2c 80 bc
       -0.016270176 0.06220043 0.04722755 -0.015646368
0003d0 71 2f 89 3e 60 46 71 3e eb 7e bb be b1 20 78 3c
       0.26794007 0.23562002 -0.36620268 0.015144513
0003e0 8b 28 cc bd 6a 8b fb 3d 44 70 2c bd fa d1 57 3b
       -0.099686705 0.122824505 -0.042099252 0.0032931552
0003f0 8a 25 55 be 9e 09 9d bd 5f 69 85 bd ef f7 f5 3c
       -0.20815101 -0.0766785 -0.065142386 0.03002545
