results of reviewer/XJTU results/4-4/Experiment2/model.pth (torch, 59838 bytes, 14 tensors)

encoder.net.0.weight f4 [60, 17]
00000000: 87a8 0fbe 8f71 62bd 660f 91bd 06cf 85bd
00000010: 965f 98bd bb06 873c 9123 09bd d3ac 2fbd
00000020: 436f e3bd 68fc d0bc 012c efbd 34c9 353e
00000030: 6c34 133e 4ad9 48be 5802 93bd 2942 efbd
00000040: 340d 9e3d e75c d1be 600e 5ebd a501 1abd
00000050: 2ead ebbd 54ca 233e a7c0 0cbe 46f3 e13c
00000060: 418b 5d3e db89 4abe 75c4 21be 9ca1 e83e
00000070: 7fba 09be 6c78 e43d 332f 683d c088 47be
00000080: c2a6 903e 67f0 79be 6a21 193e 6a14 fcbc
00000090: 6f5b edbd 7903 babd ddc9 543e c1f3 34be
000000a0: 43fc fcbd e123 923d efd9 b3bd bfb7 373e
000000b0: fa27 28bd 48d3 433b a6d9 4fbd 7d69 f03d
000000c0: db93 3f3d 2a36 1e3e a9e8 3cbd a7de 823e
000000d0: a51e 213d 6ca1 26be 768f 1b3c a338 253e
000000e0: 9743 563e ebea 93be cc91 ae3d 314e d7bd
000000f0: 60f4 9abb 38f2 08be 46f9 853d 1d1e b0bd
00000100: bccc e93c c7ea 293e 85b2 05be 12be f3bc
00000110: acf4 043e a483 f8bd cf6f 58bc 2a02 e73d
00000120: eed1 c6ba db61 673d ead8 a3be 6083 1abe
00000130: ba8c b6bd 1149 73be 5961 f23d ca7e 01bb
00000140: c021 81bd 041c 49be 4fa1 833e b472 363d
00000150: 02a1 01be a61a 4f3e 782e 26be 65fe e73b
00000160: ee2f 5e3d cc2a 863d 2dfc a9bd c869 563d
00000170: e6f4 413e 5287 31be 2373 06bc 4bdd f5bd
00000180: 2fe8 d8bc 89ff fc3e 1568 63be 5645 7bbe
00000190: 00de d2bd 0959 1f3e 5f3d 32be c4a2 3e3e
000001a0: c3b3 d2bd f104 18be 95d8 223e d074 143d
000001b0: cc90 0bbe 7824 34bd c7a7 f9bc a20f 3bbe
000001c0: 3f33 3f3e e581 5c3d bf6f b03e 8e37 e8bd
000001d0: 00f0 853d 74be caba 3be5 d0bc a24e 5ebe
000001e0: e728 23be 1cba 7e3b bcfe 893e 6267 45bb
000001f0: 7d7b ee3d 7578 38be 275d 09be 1bbd 093e
00000200: 8ee1 68bd 72d6 7f3e b54a bfbe bdb3 60bd
00000210: 2cc9 4fbe 2487 563d 5c97 54be 16d4 a13e
00000220: b924 54bd 43a3 f8bd 1703 eabc 1c76 3dbc
00000230: 1e79 adbd b859 8d3e 0090 b1bd 537e 0dbe
00000240: 160b ccbd 5895 2a3d 3701 1abd 93c4 bbbc
00000250: e29a b4bd 751b f33d 3466 b93c fb1a 633e
00000260: 7ae1 8abd d03b 79bd 0d28 4d3d 3b06 5b3e
00000270: 9084 87be 8b19 04be 882b 37bd 40b4 273e
00000280: 6df8 b0bd 439c c0bd 70c9 893d 8f03 52be
00000290: 00a2 28be 18ae e53d 2116 e9bc a52b 75be
000002a0: e8d7 2ebe 1dbf 9fbd 0a0f 53be 7cb2 babb
000002b0: 95c9 11be 3018 db3c c2b6 373e fac8 083d
000002c0: 4f94 5a3e cc3a 5f3e ab67 6d3d 3fab 0a3b
000002d0: 9e3e b2be aa1e 193e 5d56 7abd 57fe 97bc
000002e0: 1d7a 253c c60c 95bd 44d4 b8bd 5e6a dabd
000002f0: 16ab e13d 172d 7abd 52dd aebd d73d f23c
00000300: 1c27 38bd 8c16 843d 0a3c bd3d 97ce 94bd
00000310: e70f 26be f115 053d 46e3 b8bd 4f5e 943b
00000320: bba3 6ebe 3ad8 793d 77bd 5bbe 035a 423c
00000330: 1fcb a93e f4c8 0b3e 6e0f a63e 2aa9 78bc
00000340: e56c cebd 66d9 853e aff5 283e 15a7 d2bd
00000350: 7707 eb3d f813 753e 904d 0d3d e758 acbc
00000360: 7aad d63c ed43 32be 1460 033c 5a59 873e
00000370: 6684 efbd c468 95be fed3 46be ea8d dbbd
00000380: 3e83 67be 97bd d0bd 6f64 f8bd 1bab 06bd
00000390: 826c 043e 635b 2c3e 37ff 50be c5cb 6cbd
000003a0: 6fcc 28be 334d 2f3e 929a 2ebe 87b2 dcbd
000003b0: 0596 17be cf7e 8ebe 43d5 b3bd 707c 5ebe
000003c0: f99c 18bd 2acb a2bd 395a 413e f0e9 0ebe
000003d0: 518f 2b3e 695a e2bd b0dd a33d 4268 7abd
000003e0: fddd 983e 6fee a7bd 282a 4a3e 0642 96be
000003f0: b399 46bc 1f6a b13d 40af 07be 9040 02bd
-0.14029132 -0.05528408 -0.07083015 -0.06533627 -0.074401066 0.016482702 -0.033481184 -0.042889427
-0.11105206 -0.025510982 -0.11678315 0.17752534 0.14375466 -0.19614139 -0.071781814 -0.11682541
0.07717362 -0.4089119 -0.054212928 -0.037599225 -0.11507641 0.15995151 -0.13745366 0.027581822
0.21635152 -0.1977915 -0.15797599 0.45435798 -0.13450049 0.11155781 0.056685638 -0.1948576
0.28252226 -0.24408112 0.14954153 -0.030771453 -0.11589705 -0.090826936 0.2078013 -0.1767111
-0.123528026 0.071357496 -0.08781802 0.17941187 -0.04105375 0.0029880572 -0.050744675 0.1173887
0.046771865 0.1545035 -0.04612032 0.25560495 0.039335866 -0.16272515 0.009494653 0.16134886
0.20924221 -0.28890166 0.08523902 -0.10512961 -0.004728839 -0.13373649 0.06541686 -0.08599494
0.028540008 0.16593467 -0.13056381 -0.029753719 0.1298396 -0.121344835 -0.013210251 0.1127971
-0.0015168765 0.056489807 -0.3200143 -0.15089178 -0.0891356 -0.23758341 0.11834974 -0.001975941
-0.063052654 -0.19639593 0.25709006 0.044542983 -0.12659076 0.2022501 -0.16228664 0.0070798867
0.054244928 0.065511316 -0.08300052 0.052346975 0.18941078 -0.17336777 -0.008206162 -0.12005099
-0.026477901 0.49413708 -0.22207673 -0.24538168 -0.102962494 0.15561308 -0.17406224 0.18616778
-0.10288193 -0.14845635 0.15902932 0.036244214 -0.13629454 -0.04398009 -0.03047551 -0.18267682
0.18671893 0.053834815 0.34460256 -0.11338721 0.06539917 -0.0015468136 -0.02549993 -0.21709684
-0.15933572 0.0038868254 0.2695216 -0.0030121435 0.11644647 -0.180147 -0.13414441 0.13451044
-0.05685573 0.24984148 -0.37361684 -0.05485891 -0.20291585 0.052374974 -0.20760864 0.3160712
-0.051792834 -0.12140515 -0.028565926 -0.011563804 -0.08470367 0.27607512 -0.08670044 -0.1381772
-0.09963052 0.04164633 -0.037598815 -0.022920882 -0.08818604 0.118704714 0.022631742 0.22178261
-0.067812875 -0.060848057 0.050087024 0.21389095 -0.26468325 -0.12900369 -0.04471925 0.16377354
-0.086411335 -0.094048046 0.06727874 -0.2050917 -0.16468048 0.112148464 -0.028452935 -0.2394243
-0.17074549 -0.07800124 -0.20611206 -0.0056975465 -0.14237054 0.026744932 0.1794081 0.03339479
0.21345638 0.21799773 0.057960194 0.00211592 -0.34813398 0.14953104 -0.06111752 -0.018553896
0.010099915 -0.07277827 -0.090248615 -0.10664819 0.1101896 -0.061078157 -0.08538307 0.029570503
-0.044959173 0.06449613 0.09239967 -0.072659664 -0.16217004 0.032491628 -0.09027724 0.004527844
-0.23304646 0.060997225 -0.21458994 0.011862281 0.33162782 0.13650876 0.32433647 -0.015177051
-0.10079364 0.26142424 0.16499971 -0.102857746 0.11476033 0.23933399 0.034497797 -0.021038486
0.026205767 -0.17408724 0.008018512 0.26435357 -0.11695175 -0.29181492 -0.19416806 -0.10720427
-0.22608659 -0.101924114 -0.12128531 -0.032878023 0.12932017 0.16831736 -0.20409857 -0.057811517
-0.16484235 0.17119293 -0.17051151 -0.10776239 -0.14803322 -0.27831122 -0.08780911 -0.21727157
-0.037259076 -0.07948907 0.18882073 -0.13956428 0.1675389 -0.110524006 0.08001268 -0.061134584
0.29856864 -0.081997745 0.19742644 -0.29347247 -0.012121606 0.08662819 -0.13250446 -0.031799853

encoder.net.0.bias f4 [60]
00000000: 7256 763d fd81 32bd adaa 29bd f7a4 cbbc
00000010: 9829 d13c 8641 463c eef1 373d c4bc 28bd
00000020: be8d 68bd b5f9 8c3c 060e 263d ab48 43bd
00000030: 0745 4f3c fd48 d93c 22b4 0ebd caf3 2bbd
00000040: 2132 2dbd f514 f63c 4258 37bd c7c0 963c
00000050: 738f 683d 525c 213d ebf0 03bc 0216 193d
00000060: 1a17 4a3d 3c1b 1bbd a3af 20bd 026d febc
00000070: ae47 2d3d 739c 253c d4e5 e8bc d5e9 1f3d
00000080: 3327 1fbd a0b1 95bb cb5d 203c 95b4 4b3d
00000090: b059 12bd 72f6 083d 3eb5 283d 51dc 08bd
000000a0: 5acb 1ebd d4e6 713d 9718 aabc 128c 13bd
000000b0: 8163 20bd f31c 2bbd 2ee8 e83c 6206 2abd
000000c0: 7f6e 253d 3388 273d 8269 2abd 1aec 35bd
000000d0: 90aa 333d 5420 08bd 49ab 81bc f8f9 e63c
000000e0: c6cc 1bbd 7a25 2fbd b749 a53c 7e61 313c
0.060141034 -0.043580998 -0.041422535 -0.024858935 0.025532529 0.012100583 0.044908457 -0.041195646
-0.0567758 0.017208913 0.040540718 -0.047676723 0.012650735 0.026524061 -0.034839757 -0.041980542
-0.042284135 0.03003929 -0.044761904 0.01840247 0.05677743 0.039394684 -0.008053045 0.037374504
0.049338438 -0.03786777 -0.03923 -0.031057838 0.042304687 0.010108101 -0.028429903 0.03904136
-0.038855743 -0.0045682937 0.009787987 0.049732763 -0.035730064 0.033438154 0.04118847 -0.033413235
-0.03876815 0.059058025 -0.020763678 -0.036022253 -0.039157394 -0.041775655 0.028431024 -0.041509993
0.04038858 0.040901374 -0.041604526 -0.044414617 0.043863833 -0.033233956 -0.015828745 0.028195366
-0.038037084 -0.04276035 0.020176752 0.010826467

encoder.net.2.weight f4 [60, 60]
00000000: f746 643d 4f4b 85bd ed45 b3bd b7a5 8c3e
00000010: 9a87 35be 22a1 a8bc ae97 ccbd b841 8cbc
00000020: 1eb9 54be 809c db3c 2068 a63d 9dbe ee3d
00000030: 8bd6 903d 57fa 6e3e 01cb 223e b9da cabd
00000040: 9594 7ebd 3702 9f3b b4a8 d53d e90d 50be
00000050: 36f8 b93c faae 6ebe c144 683e 44a7 afbe
00000060: b48a 58ba 339b b5bd e5e0 023c 6df1 19bb
00000070: 7e6a 563e 0feb 5f3e b2d4 1dbd a8d5 44bc
00000080: 8306 013e 97ff 003e 0b3e b63d b801 313e
00000090: 600a 5b3d 64a3 c1bd 8ef5 8fbe 291a cb3e
000000a0: 3ec7 02be 3db5 98bd 8bed 9bbd 2eca 1a3e
000000b0: c801 ddbc 0af7 47bd 599f f03d 4ef8 08bd
000000c0: 0d41 453e 18a7 a33d 6714 39bd 9390 2dbd
000000d0: 483a a73e 8cac 7dbd b15f 6bbd b7c9 bc3d
000000e0: 36b2 613b da37 94be 8e9e 26be 23cf 5fbd
000000f0: d037 bd3d e57c 033e 961a 04be fa89 0b3e
00000100: 5c4a 2abd 9937 663e 9a1c f93d 3768 683e
00000110: 25bf 813c e19f 863d 651c fa3d a5bc 983c
00000120: f393 c83d 25b6 b439 8e3d 0ebe bf4d 863e
00000130: d6f6 ccbd f67b 52be e3ac 00be 2ebe 9cbe
00000140: 7a14 38bb aed3 813e edfe 76be 7be7 633d
00000150: bf93 11be fba1 b43b c4ef d53d 57be c23d
00000160: f5b5 853d 2892 033e b912 8bbd 78f5 503c
00000170: 8cc1 56be cec4 9b3d 3bdd a93b 81d5 373e
00000180: 3f71 013e cdc1 d3bd aca3 813a 6082 503d
00000190: a538 c73d 38cb 8a3c e902 8a3e 47a8 0b3e
000001a0: 3e10 8dbe 3d5c 21bd 3c6c 4b3c a52f f7bd
000001b0: a67c 8ebc f59f ca3d 323d 0a3d 5f6c 5bbe
000001c0: 4707 433d f352 29bd 3d6f 2bbe c99a 593d
000001d0: 91ac d63c e6f9 e43d a527 68bd 28e3 eb3c
000001e0: a924 2f3d 721b 51be a4ab 5b3c 7e98 2d3c
000001f0: 436b cd3d 234f d5bc 3467 86bd 47e6 61bd
00000200: 246f f3bc 2f06 c1bd d847 f6bd f520 3abc
00000210: b1f0 cabe a5e6 4a3d 02b6 eebc f7d6 94bd
00000220: ff32 223d 69c2 5abe 3845 353e d4ad 243e
00000230: e370 38be 6a88 d7bc 3b9f 133e 043e 2fbc
00000240: 307c 703d 1b46 2f3b 7264 b8bc 7a7e 43be
00000250: dd53 2dbe f662 e73d 1967 833d 3ef1 8a3e
00000260: 6fec 0dbe 9801 373e 000f 9c3b ffdc d73d
00000270: 9681 b1bd 7a48 343e 6196 17be 3da4 413d
00000280: dac4 f83d 3223 8c3d 13fa e3bd 4846 fabd
00000290: 9f9e 30bd 89fd 9f3c 5528 3dbe 8d0d 88bd
000002a0: e3b7 f43d b65d 4d3e b401 4abc 9986 d83d
000002b0: e54e a43e c684 a23e 5959 cebd e6ce cfbd
000002c0: 67d9 c6bd 249e a53d ff8b 83be f81d 9bbd
000002d0: 73ae 7dbd f3da 43bd 75f5 6a3e 9de6 fe3d
000002e0: bd40 303e cd99 c33d 57da 5b3d 584d 9fbd
000002f0: c9c8 11be 52bd c5bd 1a9b 3e3e 29e5 233e
00000300: 40db 063e 99cc 1a3d adf3 fe3c ccb6 5dbd
00000310: fe17 a9bd 67ae 42be 8877 d3bd 7b77 753d
00000320: 4b11 73bd 9d88 c7bc 95a6 85bd 3880 153e
00000330: f369 d6bd e044 b5be 2a2f 053d 5dae fb3d
00000340: 8d25 9abe e861 483c 9068 473b f649 7b3e
00000350: 9c28 5b3e 071f 8f3c e892 22bd 5a55 74bd
00000360: b7b0 053e 7942 343e ac9c 28be ed55 8abd
00000370: 7960 f4bc a45e d7bd 6407 f8bd c15c bebd
00000380: 2057 0a3e a288 0fbe 0036 d2bd 9dc4 163d
00000390: c22f e4bc 30d5 aabd c24a 96bd 1b33 88be
000003a0: 8260 90bd 8a67 5ebd 2b78 acbd f8ee 9c3e
000003b0: 3792 613c ea45 d73d 0239 a5bd 0966 983e
000003c0: 161d ebbd 6a36 813d e762 213e eb2b 3dbb
000003d0: f13a 2ebe 3fb6 4cbe 591a 9e3d dca2 31be
000003e0: 1e3d 30be d988 1cbe 8d5d 223b 6ec6 b8bd
000003f0: 8c02 d83b d1c3 64be 9e36 d93d 7173 b6bd
0.05573174 -0.065085046 -0.08753572 0.2747018 -0.17727509 -0.020584647 -0.09989868 -0.01712118
-0.20773742 0.026808023 0.08125329 0.1165745 0.07072171 0.23337685 0.15897752 -0.09904999
-0.062153418 0.004852559 0.10432568 -0.20317806 0.022701364 -0.23308936 0.22682478 -0.343073
-0.00082604145 -0.088674925 0.007988189 -0.0023489848 0.20939061 0.21867011 -0.03853292 -0.01201383
0.1260014 0.125975 0.088985525 0.17285812 0.05347669 -0.094549924 -0.2811703 0.39668396
-0.12771317 -0.074564435 -0.07613667 0.15116188 -0.026978388 -0.04881958 0.11749143 -0.033439927
0.19263096 0.07990855 -0.045185473 -0.042374205 0.32661653 -0.06193213 -0.057464305 0.092181616
0.0034438497 -0.2894886 -0.16271421 -0.0546409 0.09239161 0.12840612 -0.12900767 0.13626853
-0.04157482 0.22482146 0.121636584 0.22696005 0.015838215 0.06573463 0.12212447 0.01864464
0.09793844 0.00034467984 -0.13890669 0.2623119 -0.10008018 -0.205551 -0.12565951 -0.30613846
-0.0028088377 0.2535681 -0.24120684 0.05564068 -0.14216517 0.0055124736 0.10446122 0.09508961
0.06528846 0.12848723 -0.067906804 0.012753837 -0.2097227 0.07605897 0.0051838434 0.17952539
0.12640856 -0.10339699 0.0009890697 0.050905585 0.09727601 0.016942605 0.26955345 0.13638411
-0.27551454 -0.039394606 0.012415942 -0.12069634 -0.017393421 0.09893791 0.033749767 -0.21428059
0.047614362 -0.041338872 -0.16741653 0.05312613 0.026205333 0.11180477 -0.056678433 0.02879484
0.04275957 -0.20420626 0.0134076215 0.010595439 0.10030224 -0.026038712 -0.06562653 -0.05515125
-0.029716082 -0.094250076 -0.12025422 -0.011360397 -0.39636758 0.049536366 -0.029139522 -0.07267564
0.039599415 -0.21363224 0.17702186 0.16081935 -0.18011813 -0.026310164 0.1441621 -0.010695938
0.058712184 0.0026744667 -0.022508834 -0.19091216 -0.16926523 0.11298172 0.06416149 0.27137178
-0.13859724 0.17871702 0.0047625303 0.105401985 -0.08667295 0.17605773 -0.14803459 0.04727577
0.121469215 0.068426505 -0.11131682 -0.12220436 -0.043120023 0.019530075 -0.18472417 -0.066432096
0.11949136 0.20055279 -0.012329508 0.105725475 0.32091442 0.31741923 -0.100756355 -0.101468846
-0.09709435 0.080868036 -0.25692746 -0.075740755 -0.061933946 -0.047816228 0.22945197 0.1244633
0.17212196 0.095508195 0.053675022 -0.07778424 -0.1423675 -0.096552506 0.18613854 0.16005386
0.13169575 0.037792776 0.031122053 -0.054129407 -0.08256529 -0.19011842 -0.10325533 0.0599284
-0.059342664 -0.024357134 -0.065259136 0.14599693 -0.10469427 -0.3540411 0.032515682 0.122891165
-0.30106774 0.012230374 0.0030427314 0.24539933 0.2140221 0.01747085 -0.039690882 -0.05965171
0.13055693 0.17603482 -0.16466016 -0.0675467 -0.029831158 -0.10516098 -0.12110785 -0.09295035
0.13509798 -0.14016965 -0.10264206 0.0368086 -0.027854804 -0.083414435 -0.07338478 -0.2660149
-0.070496574 -0.05429796 -0.08421358 0.3065107 0.0137677705 0.10511382 -0.08067514 0.29765347
-0.11480157 0.06309207 0.15760385 -0.0028865288 -0.17014672 -0.19991396 0.07719869 -0.17347282
-0.17210814 -0.15286578 0.0024775 -0.090222225 0.0065921005 -0.22340323 0.106061205 -0.089087375

encoder.net.2.bias f4 [60]
00000000: 64c9 463d b1cf 2f3c abe2 303d ee65 2b3d
00000010: 4868 103d 0b53 233d 4af9 6a3d 1e83 0d3d
00000020: f540 36bd 1f96 31bd 3de0 dc3c fcee 2c3d
00000030: 5676 57bd 0a06 2c3d 3417 133d 7efb 403d
00000040: 2b6f 393d 9ebc 08bd 213f 6a3d d55c 813c
00000050: 0223 303d 6034 363d 45fd 243d 2fe7 c53c
00000060: eabb f73b 7181 36bd 3155 20bd d1b2 133d
00000070: 5a43 31bd 7d25 643d 6b5e 37bd 95b2 01bd
00000080: 5a10 3c3d 7c63 50bd 0960 2fbd 6898 473d
00000090: 0032 673d 03e1 27bb d34b 673d 50ff 13bd
000000a0: 2bf2 32bd 45ff 36bd ee94 adbc 1ea7 2abd
000000b0: 8278 3a3d 1516 20bd 106b 5b3d 05aa 033d
000000c0: cb85 28bd a49a d23c feb4 1ebd 7475 123d
000000d0: 666f dbbc f8f9 23bd be65 1bbd 6711 963c
000000e0: e354 553d f2ec 0e3d 60b5 4ebd 33d8 6ebd
0.048531905 0.01073067 0.043184917 0.041845255 0.0352557 0.039874118 0.057366647 0.03454887
-0.04449554 -0.043356057 0.026962394 0.0422201 -0.05260309 0.041997947 0.0359108 0.04711484
0.045272034 -0.033383004 0.05718911 0.015791336 0.043002136 0.044483542 0.0402806 0.024158088
0.007560243 -0.04455704 -0.039143745 0.036059204 -0.043277122 0.055699814 -0.04476778 -0.03166445
0.04591403 -0.050876126 -0.042816196 0.04872933 0.056444168 -0.0025616295 0.056468796 -0.036132157
-0.04368798 -0.044677038 -0.02118918 -0.04166328 0.04552508 -0.03908356 0.0535689 0.032144565
-0.04114322 0.025708504 -0.038746826 0.035756543 -0.026786517 -0.04003331 -0.037938826 0.018318845
0.052082907 0.034893937 -0.05046594 -0.058311652

encoder.net.5.weight f4 [32, 60]
00000000: 6c38 2abe 0df7 f1be d19b 813d c729 c6be
00000010: 7536 d5bd 9a6d 1d3d ae9b 62bd a049 9d3e
00000020: 66db bdbd c412 8abe c0a1 2e3e 4041 ed3d
00000030: f376 253e 52d0 d73d a945 2a3e d948 52be
00000040: 4a14 e33c d8ef 023e 1626 84bd 4f05 543c
00000050: 9bbf 0fbe 88f3 993e 7584 a53d 8037 773e
00000060: 02b6 7b3d fec0 4abc 6b82 3e3e cad3 07be
00000070: 959b c63d c0e7 fa3d b499 233d ed15 c43d
00000080: 7594 fabd 0c59 5e3e a765 913d 329c ca3c
00000090: e28f ef3d e8de fcbd 48ac cdbd 57ca aebc
000000a0: 7a55 7bbd de60 7f3e 2abf 87bd 84bf a43e
000000b0: e3b2 c4bc 4e64 15be e8ad ccbd 4fcc 4dbc
000000c0: db5d 82bd aaed fcbd 79b6 9fbe 9f3f 413d
000000d0: 02ef ccbc 7f4d b03e 2936 163d b56a 1e3d
000000e0: ea95 81bc 6eb9 803c c07d 693d b3de 67bd
000000f0: 3c4f 6c3d 9f13 ad3e 419e ba3c 86cc 7abd
00000100: f2e9 a43c ebe1 583e 7007 f5bb 0ad0 2c3e
00000110: e05d 473e 47e3 3abd 5310 7e3e 355e 13be
00000120: eea3 bcbc 9a67 4f3c c4cc 28be 5f43 6ebc
00000130: 1b89 2d3e 7855 213e 2872 293e b8e0 94be
00000140: 9cbd d13c 427d d7bb 4993 a1bd 261c 0b3e
00000150: 72d9 283d 1131 313e 05a0 f3bd 0fee c83d
00000160: 4123 f03d 5bf7 e5bd 3ab2 10be c9b1 013e
00000170: fe4c e53c 221d 173c cad5 50be 3752 cebc
00000180: d989 023e 4015 a8bd 17d0 a03c 7b00 dabc
00000190: d3aa 483d 87a1 853d 3746 a13e d935 87be
000001a0: 66d3 943e 8ed9 653e 16d1 e03c 95ad d7bc
000001b0: 5a1f 3abe 1c49 05be acb2 f03d 4e23 8e3e
000001c0: 2938 16bd 5147 383e 0523 c13c e240 eebc
000001d0: 1400 93be d449 2bbe f1f6 903d b169 59bd
000001e0: ea2a 18be 3687 30bc a173 e8bd ab9e 9a3e
000001f0: 586e 39bd 5f24 92bd 47aa eebc ee7a 213e
00000200: baad 19be e840 35bc dd1b bc3d b12d 4abc
00000210: 255a 47be cf5b d43d d134 cebb d4ef be3d
00000220: cbdf a33c 86ab 423c e3e9 813c 253a 9abc
00000230: a176 69be 1237 ebbd 51b7 273e b29f 6a3e
00000240: c0e3 87bc 8546 703d f17b 113d a199 cabd
00000250: f141 67be 3b62 f5bd 70de 3fbd 459f 813d
00000260: 8fb7 803d 81c5 babd 6bef 86bd 379f 183e
00000270: 7968 f63d 43fd b6bd aa60 203d acff 6bbd
00000280: a42e 803d 4692 89bd e756 363c 302f 493e
00000290: d13d 87bc 4b7d 733e 2582 b9be 2313 a73e
000002a0: e360 a3be 4155 73bd 9b89 c3bd f049 26bc
000002b0: 18ac 1fbe ccb4 a23c c603 f13d e03f 91bd
000002c0: b09b a6bd 80ab 54be 76cd 88bc 50a5 37bd
000002d0: b40d a5bd 28a6 19be ce98 14be 309c 7abc
000002e0: 3e00 203e 87ec 853d 9fbf 0b3e 5bf1 c1bd
000002f0: cb75 32be d753 bb3d 0cc4 1e3e 08a3 9f3d
00000300: 9af5 dfbd e4d6 4ebc aa6e d9bd a5b0 4339
00000310: f1d4 a6bc fbe5 9c3b 177f b1bd 13f7 da3d
00000320: a864 763e 9fc0 0cbe 01a5 e6bd 2394 73be
00000330: c6fe ff3d 72c1 153d 82c1 39bd 76e0 b13c
00000340: bf5b df3b 8011 ccbd 0b14 8fbd caf9 95bd
00000350: d2e9 283d a653 b93d 0fbe 5d3d b8ad ddbc
00000360: e229 cfbb d1f5 fdbd d662 243e 1c73 50be
00000370: 0f65 863d bcc7 3c3d 8d9d 8d3d 7740 52bd
00000380: fb81 303e 6be3 563d 6de0 4cbe b745 6b3d
00000390: 1bf4 ab3d f428 983a c103 0a3d fbb3 243d
000003a0: c103 be3d 7fd2 173d 59ea 6fbe 98e1 723e
000003b0: bea4 9a3b 6c87 17be 93ac 99be 5281 923e
000003c0: 05ed 78be b844 323c 8ce6 0f3e 943e 7b3e
000003d0: 2b7e 253c c751 27be 5966 36bb 94e4 05be
000003e0: b1cb 6cbc d4ca 953d 0eb3 9e3d ee55 903d
000003f0: 3453 47bd e457 e4bd 8db3 88bd bef1 2b3e
-0.16623086 -0.47258797 0.06328548 -0.3870375 -0.104107775 0.038434602 -0.05532425 0.30720234
-0.092703626 -0.26967442 0.1705389 0.11584711 0.16158657 0.10537781 0.16628136 -0.20535602
0.027719636 0.12786806 -0.06452577 0.012940719 -0.14037935 0.30068612 0.08081905 0.24142265
0.061452873 -0.0123751145 0.18604438 -0.13264385 0.09697644 0.12251234 0.039941505 0.095744945
-0.12235347 0.21713656 0.07099467 0.024732683 0.11697365 -0.123472035 -0.10042626 -0.021336718
-0.061360814 0.24939296 -0.066282585 0.32177365 -0.024011081 -0.14589044 -0.099941075 -0.012560918
-0.06365558 -0.12350018 -0.31193903 0.047179814 -0.025016312 0.34434125 0.036672745 0.038675983
-0.015818555 0.01571342 0.05700469 -0.056608867 0.05769275 0.33804032 0.02278054 -0.061230205
0.020131085 0.21179931 -0.0074776933 0.16876236 0.19469404 -0.045626905 0.24810915 -0.14391406
-0.023027387 0.012658978 -0.16484362 -0.01454243 0.16946833 0.1575526 0.16547453 -0.29077697
0.025603108 -0.006576211 -0.078894205 0.13584957 0.041222997 0.17303874 -0.11895756 0.09811031
0.11725474 -0.1122882 -0.14130488 0.12665476 0.027990814 0.009223254 -0.20394054 -0.025185687
0.12747897 -0.08207178 0.019630475 -0.026611557 0.048991036 0.065249495 0.31498882 -0.2640827
0.29067534 0.22446272 0.02744345 -0.026327888 -0.18176022 -0.1301617 0.11752829 0.2776131
-0.036674652 0.17995955 0.023576269 -0.029083673 -0.28710997 -0.16727382 0.0707835 -0.05307931
-0.1486012 -0.010774424 -0.113501795 0.3019918 -0.045271248 -0.071358435 -0.029133929 0.1576955
-0.15007678 -0.011062838 0.09185002 -0.012339995 -0.19467981 0.103690736 -0.0062929173 0.09323087
0.020004174 0.011881715 0.015858596 -0.018826554 -0.2279916 -0.11485113 0.16378523 0.22912481
-0.016588092 0.058661003 0.03551859 -0.09892584 -0.22583748 -0.119816266 -0.046842992 0.063292064
0.06285011 -0.09119702 -0.06588634 0.14904486 0.12031645 -0.089350246 0.039154686 -0.057616875
0.06258896 -0.067173526 0.011129118 0.19646907 -0.016508969 0.23778264 -0.36232105 0.32631788
-0.31909856 -0.059407476 -0.095477305 -0.010149464 -0.15592992 0.019861601 0.11768298 -0.07092261
-0.08135164 -0.20768547 -0.016699534 -0.04483539 -0.08059254 -0.1500479 -0.14511415 -0.015296027
0.15625092 0.06539255 0.13647316 -0.09469863 -0.17427747 0.091468506 0.15504473 0.077947676
-0.10935517 -0.012624476 -0.106168106 0.00018662454 -0.02036521 0.004788158 -0.086668186 0.10691657
0.24061835 -0.13745354 -0.11261941 -0.23786978 0.12499766 0.036561437 -0.04535056 0.021713477
0.006816357 -0.09964275 -0.06986245 -0.07323034 0.041238613 0.09049158 0.054136332 -0.027060375
-0.0063221315 -0.124004014 0.16053328 -0.2035641 0.06562244 0.04608892 0.06914816 -0.05133101
0.17237084 0.052462976 -0.20007487 0.057439532 0.08396169 0.0011608885 0.033694986 0.040210705
0.0927806 0.03706598 -0.2342924 0.2371887 0.004719346 -0.14797753 -0.30014476 0.2861429
-0.24309166 0.010880642 0.1405279 0.2453559 0.010100882 -0.1633979 -0.0027832 -0.13075477
-0.014452861 0.07314077 0.07748996 0.0704764 -0.048663333 -0.11149576 -0.066748716 0.16791436

encoder.net.5.bias f4 [32]
00000000: 809a 5ebd d7a9 8cbd 8353 0d3d c34e 39bd
00000010: 967c 80bd 7a93 463d 3283 88bd 5562 35bd
00000020: 4836 56bd 2503 98bd fe58 4b3d e5a4 59bd
00000030: c1cf 0a3d deb5 6b3d b31b 603d d344 993d
00000040: afc6 4f3d 3e58 86bd 20ea 523d 4dab 343d
00000050: 53e3 3a3d b4c1 76bd 69d8 793d 66d3 83bd
00000060: 78a8 74bd 252d e9bc 61dd 44bd 6cd3 3e3d
00000070: 425b 653d 5545 5e3d 6b0e 79bd 6c6d 643d
-0.05434656 -0.06868332 0.03450347 -0.04524113 -0.06273763 0.04848049 -0.066656485 -0.04428323
-0.05229786 -0.07422475 0.049645416 -0.05313577 0.033889536 0.05754649 0.054713916 0.0748383
0.05072659 -0.065597996 0.05149281 0.044108678 0.04562695 -0.060243323 0.0609974 -0.064368054
-0.059730977 -0.02846391 -0.048062686 0.046588346 0.055995233 0.05426534 -0.060804766 0.055768415

predictor.net.1.weight f4 [32, 32]
00000000: e44a a3be d2e4 59be b15a 1c3e 7f3e 8bbe
00000010: 9570 c9bd 35eb dcbb 6bd4 073a e373 823e
00000020: 8de4 0dbe 04dd d7bd 3fb0 76be fd88 7bbe
00000030: 5f97 323e cfa4 f4bc b133 5fbc 3ce8 e43d
00000040: 7488 b83e 7023 01be eecd d03d 439d 7b3e
00000050: 5059 8e3c 4482 683d d62f ddbc d910 2abe
00000060: 6f80 583e d392 923e 9a5b ac3d 6100 3c3d
00000070: 2427 9a3d fd4f 353e 864d 48be bab3 af3c
00000080: 51e9 1f3e b994 d3bd 0afa 98bd 0799 49be
00000090: 8d6b 25be 51cc a23d b181 423d a30c 333e
000000a0: 83fd 463e f1bc feba 3983 79be 44f5 c63c
000000b0: b80d 873e a197 393b 4126 c5bd e8ee debd
000000c0: 941a 283d e08b a33d 08c4 b8bd 8718 af3d
000000d0: ba3c a23d 7c8a 84be 9efa 73be 5a10 c6bd
000000e0: 88cb 24be 0c76 653e af76 4d3e a4ad 20be
000000f0: a963 35be 5a8c 3f3e 383d 353e 5f39 d1be
00000100: 4e5c b73d 2fb8 ed3e c9a5 81be 1a44 85be
00000110: b8b1 2d3e 2e71 06be 2d1a 06bc 4153 2cbe
00000120: 622e 5ebd da88 193d 41f1 373d 31a7 643d
00000130: e84b 26be b475 6fbc 874b 98bd 10dd 1a3e
00000140: 09f4 27be 75df c0bd 13c1 20be a773 18be
00000150: a4f2 98bd 05f2 23be e2e5 5c3e 0d81 a3bd
00000160: abaa f8bd 3a37 48bd fb51 47be 32f5 41be
00000170: 5b57 d13d 8d4b 87be 0a76 cdbd 8906 dabd
00000180: 0261 76bd 7ceb 75be 63e5 6cbe 105d d23c
00000190: 1c21 63bd 993d a83e cad8 f4be bdf0 02bf
000001a0: b171 eebe 3b0b 15be eb73 70bc 1cd1 04be
000001b0: 82e3 6d3d 6955 043e 972d 883d 720c 8d3e
000001c0: b198 2f3d 6626 4bbe 0917 8d3e 5b80 2e3e
000001d0: 4bf0 0b3e e15a 39bc 0f6c 093d 6e59 b53d
000001e0: 9beb 7ebe 621c edbc 02f8 8a3e 7716 753e
000001f0: 97c3 fdbd 66a5 203e 9ee9 96be b646 713e
00000200: fe18 86be 497f 74be e2b6 99bd 421a b93d
00000210: 4da1 043e 9ca2 c3be 5a39 96be 357f 6dbe
00000220: e7a9 dabc d300 ea3d cd92 183e d469 263e
00000230: 5adb 14be 64d1 373d b948 d33d aaf4 a73e
00000240: ae7b 6e3d 5b36 19be 4810 d0bd 7bf0 203d
00000250: ded3 59bd bc78 2b3e 0fd0 9f3d 1c96 84be
00000260: 9c59 0ebe 9392 b4be b351 72be a9a2 5c3e
00000270: 8b1d 1f3b e2db 823d ede5 4a3d d682 86bd
00000280: 019f 633e 8831 28be c51b 573e 5925 db3c
00000290: 8ff7 4fbd 70bf 01be ba2e c4bc 9bef 253d
000002a0: c1da 24be 5c1b 27be 4732 cf3e 05c0 01be
000002b0: c61a 87be 1d08 2dbd ad84 08be 0f35 6d3e
000002c0: a7c3 303e beb1 9fbd 2af5 cfbd 657f 8cbc
000002d0: 23da afbe 258d 513e 06d9 3fbe 74f8 49be
000002e0: 9b75 4f3c bf69 5d3e 350f ae3d a75a b33e
000002f0: d4c7 a4bd 2e40 8d3d 7dc4 8bbc 9fb6 883e
00000300: 01be 47bc 0d65 3c3e acb2 b03d 7caf 3f3e
00000310: 6a07 d0bd 10e6 23ba ea74 5dbe 8fe8 bcbe
00000320: 1e12 20be 376c 0abe 52c1 be3d 971c e0bd
00000330: 7a70 8dbe e4e2 5e3e 93c3 9e3e fbe0 06be
00000340: a5aa 553e 8511 60be e38d 0a3d 6ab8 28be
00000350: 206c b2bb dffd 2fbe ecbe 413e 2d89 c7be
00000360: a92a 77be 6e28 833e 989c 2a3d c177 053d
00000370: 3739 c83b a8c0 3d3e 6f28 76bc 0e1d 92bd
00000380: 7520 a73d 5d16 79bc cf89 173e 6610 c7bd
00000390: de33 f7bd 9391 f33c 6d02 e63d ca1f 383e
000003a0: 5e9e f33b 65a6 3fbe 04aa 2c3e da88 04be
000003b0: 2b41 023e 8536 0bba f9af c93e 19f9 fcbd
000003c0: bdeb 75bd 1ba3 473d 71b6 03bd 5a26 a03d
000003d0: e845 90bd 5d1f bebc ab5e 2b3e c760 523d
000003e0: 2db4 4d3e 7858 0b3d 68fc 81bc 5b4c 8b3d
000003f0: 6072 083d 789d 84be 1b03 993d 6dd2 893e
-0.31893075 -0.21278694 0.15268971 -0.27196118 -0.098359264 -0.006741906 0.0005181494 0.2547904
-0.13856716 -0.10540202 -0.2409067 -0.24563976 0.17440556 -0.029863743 -0.013623164 0.11177108
0.36041605 -0.12611175 0.10195528 0.2457171 0.017376572 0.056764856 -0.027000349 -0.1660799
0.21142744 0.28627643 0.08415909 0.0458988 0.07526997 0.17706294 -0.19560823 0.021448005
0.15616347 -0.10331101 -0.07469566 -0.19687282 -0.16154309 0.079491265 0.047486965 0.1748529
0.19432645 -0.0019434971 -0.24366464 0.024286874 0.26377654 0.0028319138 -0.09626437 -0.108854115
0.041040972 0.079856634 -0.09021765 0.085496 0.07921739 -0.25886905 -0.23826072 -0.096710876
-0.16093266 0.22408313 0.20064805 -0.15691239 -0.17713799 0.18705884 0.17699134 -0.40864083
0.089531526 0.46429583 -0.25321797 -0.2602852 0.16962326 -0.13129112 -0.008184952 -0.16828634
-0.054243453 0.037484027 0.044907812 0.05582351 -0.16239893 -0.014615465 -0.07436281 0.15123391
-0.16401686 -0.09417621 -0.15698652 -0.14887868 -0.07468155 -0.16010292 0.21572068 -0.07983599
-0.12141927 -0.048880793 -0.19464867 -0.18941191 0.1022174 -0.26424828 -0.1003228 -0.10645778
-0.060151108 -0.24015611 -0.23134379 0.025679141 -0.055451497 0.32859495 -0.47821647 -0.5114859
-0.46571115 -0.14555065 -0.0146760745 -0.12970394 0.058078296 0.12923206 0.066493206 0.27548558
0.042870227 -0.19838867 0.27556637 0.17041151 0.13665883 -0.011313171 0.03355032 0.08854948
-0.24894564 -0.028944198 0.2714234 0.23934351 -0.123908214 0.15688094 -0.2947511 0.2356213
-0.26190943 -0.2387668 -0.07505585 0.090382114 0.12952156 -0.3821 -0.2934063 -0.23193057
-0.026692344 0.114259385 0.1489975 0.16251308 -0.14536801 0.044877425 0.10316605 0.3280385
0.05822342 -0.14962141 -0.101593554 0.03929184 -0.053180568 0.16745275 0.07803356 -0.25895774
-0.13901371 -0.35268077 -0.23663978 0.21546425 0.0024279084 0.063895956 0.04953568 -0.06567924
0.22228624 -0.16425145 0.21006687 0.026751207 -0.0507732 -0.12670684 -0.023948062 0.04051171
-0.16099073 -0.1631903 0.40468046 -0.12670906 -0.26387614 -0.042244066 -0.13331862 0.23164771
0.17262135 -0.077975735 -0.10154183 -0.01715059 -0.34346113 0.20463999 -0.18735132 -0.19723684
0.012662317 0.2162237 0.08498994 0.350301 -0.08045927 0.06897007 -0.017061466 0.2670183
-0.012191297 0.18397923 0.08627829 0.18719286 -0.10157664 -0.00062522385 -0.2162663 -0.36896178
-0.15631911 -0.13517843 0.09314217 -0.10942953 -0.27624875 0.2176624 0.31008586 -0.1317176
0.20865877 -0.21881683 0.03382672 -0.16476598 -0.0054450184 -0.17186688 0.18920487 -0.38971844
-0.24137367 0.25616783 0.041653246 0.03258491 0.006110336 0.18530524 -0.015024289 -0.07134448
0.081604876 -0.015203086 0.14798664 -0.09719925 -0.1207044 0.029732501 0.112309314 0.17980877
0.0074346503 -0.18715818 0.16861731 -0.1294283 0.12720172 -0.0005310553 0.3939207 -0.12352199
-0.06003927 0.048739534 -0.03215641 0.07819815 -0.070445836 -0.023208315 0.16735332 0.051361825
0.20088263 0.034019917 -0.015867427 0.06801673 0.0333122 -0.2590139 0.074712954 0.26918355

predictor.net.1.bias f4 [32]
00000000: 8a44 d43d 9ca9 c7bd 3419 bbbd 1bb0 21bf
00000010: a93f c93d d466 abbd 2c04 da3d c806 f2bd
00000020: 9f2f 163e 6eae f33d 6fcf d9bd fb10 cebd
00000030: 030e e73d bc77 e2bd 6f8a 163e 3802 5a3e
00000040: 6a57 c8bd e858 e4bd 0904 e4bd f43d d5bd
00000050: 619a f5be de4b f8bd f721 c7bd 52b7 0c3e
00000060: 2eff f43d 5831 d4bd 6308 bb3d 7f63 093e
00000070: 79aa bdbd cdb2 c53d ab60 813d b5f1 cb3d
0.10364635 -0.09749147 -0.091356665 -0.6315934 0.09826595 -0.08369222 0.10645327 -0.118177
0.14666604 0.11898504 -0.10635268 -0.100618325 0.112819694 -0.11057994 0.14701246 0.21289909
-0.09782298 -0.1114977 -0.11133582 -0.10412207 -0.47969344 -0.121238455 -0.09723275 0.13741806
0.11962734 -0.10360974 0.09132459 0.13416861 -0.09261031 0.09653244 0.06317266 0.09958211

predictor.net.3.weight f4 [1, 32]
00000000: 9061 043f f180 83be 4383 6fbe 05f2 71bd
00000010: 81c5 9d3e 6857 36bd 3f32 183f fd38 23be
00000020: 94c8 b33d c220 fd3d be2b 90be 82e1 93be
00000030: 6258 853e 5105 abbe 7941 123e a19e 733d
00000040: 2272 c9be 88b0 5abe 25b9 d9be 650e dfbd
00000050: b885 c5bd e561 3fbe 38ec e4bd f43e fe3d
00000060: 3a85 2f3e 45c6 38be 51cb 113e e585 213e
00000070: eb3f 33be 0095 9a3d 207e b53c 7d21 9b3e
0.5171137 -0.25684312 -0.23389916 -0.0590687 0.30814746 -0.04451695 0.5945167 -0.15939708
0.087784916 0.12359764 -0.28158373 -0.28882986 0.26043993 -0.33402494 0.14282788 0.059477452
-0.3934489 -0.21356404 -0.42524067 -0.108914174 -0.096446455 -0.18689688 -0.11177868 0.12414351
0.17140666 -0.18044384 0.14237715 0.15773733 -0.17504852 0.07547951 0.022154868 0.30298987

net.0.weight f4 [60, 35]
00000000: 3f4b 043c f95e 0dbd 648b c1bd f12d 9639
00000010: 349f a3bd 4b94 c8be 7470 463c 5ebf 57be
00000020: 530a 273e d3b6 dcbc a328 88be b461 ee3d
00000030: d1f4 17bd 9fa3 183e cdd4 323e fb87 50be
00000040: 69c5 62be 0b97 56be e632 5ebd c6cf 6f3d
00000050: 4229 88be 70a7 763e afe0 3abb a31a 9bbe
00000060: 767f 97bd b645 64be 4393 063e 5f83 573d
00000070: be5c 053e 566f 12be ef1b 2cbe fa26 da3d
00000080: 7777 503e 514e 5a3e b79a e73d f04b 073d
00000090: 7dfc 203d a72e 633b b06f c23e 4d71 f6bd
000000a0: dc0a 07bd 483c ab3c 0969 023f dc71 51be
000000b0: 0fe1 323e 2ae9 b3ba 1690 b3bd 34b9 94be
000000c0: 8214 f13d 1353 3bbe bd34 643e 754a 843c
000000d0: 01f4 af3d 2092 983d eb2c 06bd 3997 09be
000000e0: 0735 783e 3e88 0abe 66c5 b23d d18e 8fbd
000000f0: 5569 88bd fbb4 d2bd a8fc 423e 2b46 4b3d
00000100: 10c9 b33d 0447 653d 92cd 463e 9d98 293e
00000110: eab2 67be 6807 043d 13e1 5e3b cd46 0abf
00000120: 889a b3be 3bc3 873c 3154 0b3e c3c0 af3d
00000130: db87 23be 2087 26bd c35a 55be cfd6 04be
00000140: 1276 8c3d 55bf 23bd a122 b839 56e5 5dbe
00000150: 44aa 71bd f6da a6bd 4389 19be 1f34 4ebe
00000160: 77d3 1b3e 99b6 0b3e 07b6 d13e 02c7 603c
00000170: 25a0 2dbe fa58 163d 880e 7a3e 1baf d43d
00000180: 4c86 94bd 4b63 573e 1843 4a3d e7da d83d
00000190: 5d8c e03d 031d 58be 1ed4 1a3b 8c9d 623e
000001a0: 6e9a 1bbe ba51 fc3d d2f3 f63c 2ea0 283d
000001b0: e457 323d 3d02 bc3c c213 823e bafd 923d
000001c0: c953 abbe 1bbf 003e ddfc 6b3e 8f7c e23c
000001d0: 1f64 313d 2997 40bd 50a6 82be fb49 24be
000001e0: b196 ecbd faf1 9dbd bcf3 273e 8627 27bd
000001f0: 454c d33d 08f0 36be 9822 b93d d10a 383e
00000200: 533f 46be 6128 aabd 6192 c7bd eaeb 033e
00000210: f299 09bd b166 41be e9dd debd 9ba0 b5bd
00000220: e863 e23d eaf3 793e 0964 66bd 4673 cd3c
00000230: 59ea 1dbe 64dc d03d 27f7 8f3e 3cfa 9b3c
00000240: 447f 4b3e 4aec c4bd 7827 08be 30be 81be
00000250: d970 d5bc 27a1 083d 1894 f2bd b226 323d
00000260: f6de e33c 0f35 ef3d 13fa 92be 162b 113e
00000270: aeca cdbc dad2 693c 197b 5dbe e0e4 673c
00000280: ba46 d1bd f9a4 4a3e 46f2 a2be 5d78 aa3d
00000290: 4932 19be 4042 40bd 58a5 eabc a4ac a83c
000002a0: 5a0d 853e 09ee 3b3e 20ee 613e a70f da3d
000002b0: 2ebc 5bbe 9438 bd3d 0667 0ebd e641 7f3e
000002c0: 71de db3d 8189 663e 7290 923d a5ae 87bc
000002d0: 0c02 533d 615e 243e 63b7 31be 889f 16bd
000002e0: d217 98bd b82a 3cbd e086 5b3d ea06 b03d
000002f0: 5036 913e a3e0 673e 5d2c 99be 1ec4 2cbd
00000300: 14b2 4c3d 00e2 bbbd d7cb 123e 7e0c dd3c
00000310: 080b febd 3159 08bd 2a24 223e 3493 c8bd
00000320: 5e7c a0bd 2aed f2bc a6bf 583e 1463 04be
00000330: 926d 21bd c9f0 743d adb6 a7bd 88b0 c7bd
00000340: 933a 193d f6bc 033e 3daa 01bd f68b 9c3d
00000350: 6985 16bc e39b babc 0ef4 c13d d37f 9cbd
00000360: 417f cd3c 798f 76bd cf9f 2bbe 00bc 263c
00000370: cda7 f1bd af06 37be cca3 063e a57d d2bc
00000380: 0e7e 143d debc 523e cc78 e13d 3035 013e
00000390: edc5 433e cd7e 693e 2332 cbbb 2cda adbc
000003a0: 486a 643d 6be3 e8bd 7bec 8abc e96a ea3d
000003b0: 0d88 94be b293 8c3e 8681 1abe 5c19 f73c
000003c0: de8f dfbc a59e 253e e7a2 15bc 4715 673a
000003d0: bb6f 4e3e 215b 07bd 9d7d 8dbc f3f0 29be
000003e0: 52be b93d 2dad f5bd 76a5 373e c3dd 0ebe
000003f0: b5e0 163e 38b1 dfbb 83aa 97bb 91a0 5cbe
0.008074581 -0.0345144 -0.09450415 0.00028644459 -0.0798935 -0.3917564 0.012111772 -0.21069095
0.16312532 -0.026942646 -0.26593503 0.11639729 -0.03709871 0.14906166 0.1746399 -0.20364372
-0.22145618 -0.20956056 -0.05424776 0.058547758 -0.26593977 0.2408731 -0.002851527 -0.3029376
-0.07397358 -0.22292218 0.13142113 0.05261552 0.1302366 -0.14300284 -0.16807531 0.106519654
0.20358072 0.21318938 0.113088064 0.033031404 0.03930329 0.0034665258 0.37975836 -0.12033329
-0.03296934 0.020902768 0.5094152 -0.2045359 0.17468666 -0.0013726105 -0.087677166 -0.2904755
0.1177149 -0.18293409 0.22285743 0.016148785 0.08591462 0.07449746 -0.03275768 -0.13436593
0.24238978 -0.13528535 0.08729057 -0.07009662 -0.066607155 -0.102884255 0.19041693 0.049627464
0.08778584 0.05597593 0.19414356 0.16562124 -0.22626844 0.032233626 0.0034008666 -0.54014283
-0.35078835 0.016572585 0.13606335 0.08581688 -0.15969793 -0.04065621 -0.20835404 -0.12972568
0.068584576 -0.03997739 0.00035121015 -0.21669516 -0.05900027 -0.08147232 -0.14993767 -0.2013707
0.15217386 0.13643874 0.40959188 0.013719322 -0.16955622 0.03670595 0.24419606 0.10384961
-0.072521776 0.21033971 0.04938039 0.10588627 0.10964272 -0.21104817 0.0023624967 0.22130412
-0.15195629 0.123202756 0.03014556 0.041168384 0.04354085 0.022950286 0.254057 0.07177301
-0.3346236 0.12572901 0.23045678 0.027647285 0.043308374 -0.047019158 -0.2551751 -0.16043846
-0.115521796 -0.07712169 0.16401571 -0.040809177 0.10317282 -0.17865002 0.09039801 0.17972876
-0.19360094 -0.08308483 -0.097447164 0.12882963 -0.03359408 -0.1888683 -0.1088217 -0.08868524
0.11054212 0.24409452 -0.056247745 0.02507938 -0.15421428 0.10198286 0.2811825 0.01904022
0.19872767 -0.09615381 -0.13296306 -0.25340414 -0.026054787 0.03335681 -0.11844653 0.043493934
0.027816277 0.11680042 -0.28706416 0.14176592 -0.02512106 0.014271462 -0.2162899 0.014153689
-0.10218568 0.19789495 -0.31825465 0.08323739 -0.14960589 -0.04693818 -0.028643295 0.020590134
0.2598675 0.18352522 0.22063494 0.10647517 -0.21458504 0.09239307 -0.03476622 0.24927482
0.10735787 0.22513391 0.07156457 -0.01656277 0.051515624 0.16051628 -0.17355113 -0.036773235
-0.07426418 -0.045939177 0.053595424 0.08595069 0.2836175 0.22644286 -0.2991666 -0.04217922
0.049974516 -0.091739655 0.14335571 0.026983496 -0.12404448 -0.033288185 0.15834108 -0.09793702
-0.07836221 -0.029654104 0.21166858 -0.1292842 -0.039411135 0.059799943 -0.081891395 -0.097504675
0.037409376 0.12865052 -0.031656493 0.07643883 -0.009187081 -0.02277941 0.09470378 -0.07641568
0.025085093 -0.06019542 -0.16760181 0.010176659 -0.117995836 -0.17873643 0.13148421 -0.025694678
0.036253028 0.2057986 0.11009368 0.12617946 0.19118471 0.22802277 -0.006201045 -0.021222197
0.05576542 -0.113715015 -0.016958466 0.11446173 -0.29010049 0.27456433 -0.15088472 0.03016346
-0.02729028 0.161738 -0.009133077 0.0008815121 0.2015981 -0.03304589 -0.017271811 -0.16595821
0.09069504 -0.11995921 0.17934212 -0.13951783 0.14734156 -0.006826546 -0.004628481 -0.21545626

net.0.bias f4 [60]
00000000: ead8 ee3d 7b52 0e3e 93ef d7bd e88a 013d
00000010: 2abe ae3d 974b e3bc 8584 a2bc 0cad b93c
00000020: 4605 4a3d be2f ccbd 33bd 89bc 8b92 c23d
00000030: dd5e 123e e3b8 ec3d efc3 acbd 960a f9bc
00000040: b26c 933d e117 9f3c 1cd0 223d b4fe 1e3e
00000050: d815 0abe edb4 1fbd 856a aa3d 5502 dfbb
00000060: 4e96 42bd c073 0f3e 9f3c e03c 8077 ca3d
00000070: ba28 1f3e 4cb3 b73d 52eb 36bb 402f 72bd
00000080: bddf 9c3d a358 cabd d352 243d a607 fbbd
00000090: 6fe0 283e 5478 f43c dda8 263e 8b22 183e
000000a0: cec3 4d3d c78b 2c3e 65ce 62bd 497c f8bd
000000b0: 6d5f b7bd bed8 953d 62c2 6bbd b6fe e83d
000000c0: f0b9 af3d 24d9 193e 1f6b 073e 6e6e 12be
000000d0: eff9 82bb d2b2 06be a3bf f9bc 1b7a 56bd
000000e0: 3d65 083e a1ea c83d 1fae 2bbd 1ee6 093e
0.11662467 0.13898651 -0.10543742 0.031626612 0.08532365 -0.027746005 -0.01983858 0.022665523
0.049321435 -0.099700436 -0.01681385 0.09500607 0.14294 0.11558702 -0.08435809 -0.030400556
0.07198466 0.019420566 0.03974925 0.15526849 -0.13484895 -0.038990904 0.08321098 -0.006805698
-0.047506623 0.14008999 0.027372656 0.09886074 0.1554288 0.08969745 -0.0027911258 -0.059127092
0.07659862 -0.09880187 0.04011805 -0.12257318 0.16491865 0.029842533 0.16275354 0.14856927
0.050235562 0.16850196 -0.055372614 -0.121330805 -0.08953748 0.07316731 -0.057558425 0.11376707
0.08580387 0.15024239 0.13224457 -0.14299938 -0.0039970796 -0.13154152 -0.030486887 -0.052362543
0.1331987 0.09810377 -0.0419141 0.13466689

net.2.weight f4 [60, 60]
00000000: 0ac5 0e3e f509 46be 0617 af3b 48c4 993d
00000010: a1da 8dbd a27d ec3d 32ac ce3c ee63 fcbc
00000020: f0fd 4ebc 2b31 f13d b246 0abe 74fb 563d
00000030: c545 c5bd a71a a6bd 5ef6 30be 662f a33d
00000040: fba4 43be 6a82 373e dffc cbbd e7f5 2ebe
00000050: daeb b0be 507a 52be ff53 07bd f50f 1fbe
00000060: ba79 18bd 73d4 b23d afc9 693b 34b1 40be
00000070: 91e6 d33c 343a 253a 3ece 33be 01b5 5a3d
00000080: db52 d0bd abc1 543e c886 223e 217a efbd
00000090: 3b4d c1bc b8d8 b63a 7018 93bd 3388 873d
000000a0: d3b5 823e f2f2 2bbd 8662 2cbd 2554 95be
000000b0: aaa3 793e 84b8 67bd 0884 90bc 123a 02bd
000000c0: 0d20 fb3d 9561 22bc 3475 393e 9c38 8f3e
000000d0: c17b 813d c2c2 063e 1b42 a33d 57a1 a6bd
000000e0: 9236 50be d3d7 f4bd e786 c53c 7a8f b8bc
000000f0: 40d2 153c c481 213e 11b0 48bd 81fd bb3b
00000100: 0039 833d 74ae 50be 7716 2d3d d183 143e
00000110: 567c 2e3e c2e6 8f3c 0151 0fbd 037d 3abe
00000120: c730 ac3d aedf aabe 344f 38be ca79 673d
00000130: 0c98 aabd 0c43 d0bb b92d 7a3d 68a2 dbbd
00000140: 27b7 d33c 79f4 7ebe c4e9 033e 3462 f4bd
00000150: 7606 593d 20a8 5bbd 0483 90bd 1a4c a93e
00000160: 19b5 0c3e f17a 073e 4b52 cebd 45e2 2ebc
00000170: 882c d63d da3d 5e3d 757a 77bc 8c6f 873d
00000180: ffcd 1c3e b30c dbbd ceca 603d 8afb babd
00000190: 9d57 9b3d b5dc 443d 4eb8 203e 5882 c0bd
000001a0: 9bb6 a53c e97e 03bd 3e6d 23be 4a56 babd
000001b0: 2020 243c 5cee 7f3c ff77 4ebe 62fd 94bd
000001c0: 3046 7fbd 5300 123d 7039 0ebe ad83 d3bd
000001d0: f35a 07be 2438 edbc 8bb0 1e3e 196a 95bd
000001e0: e001 163d 77d2 883d 64ca 133e 1f72 8fbc
000001f0: d3cf 84be 1434 1ebe 7e86 d53d 376a 01bb
00000200: 7f72 533e f387 3fbe b551 4a3d b578 163e
00000210: 9b60 913d ddeb e9bd 6ec5 09be b033 e03d
00000220: dbbc 1abe 8cc2 73be b259 123e 59db 3dbe
00000230: 4a1e 9a3d c5ce 3cbd 83f9 633e 2d71 503b
00000240: df39 79bd 5c2d 613e 45c8 3dbe 27cf 4f3e
00000250: 0699 03be 2c53 983d 8c1e fb3d 54e0 3abd
00000260: 89af 2f3d 7398 10be 3e6e a73b 2d34 fcbd
00000270: 1a07 37be e5e0 87bd da90 2abd 0c71 cf3c
00000280: 0c6e 0b3e fee2 c4bd 2546 a2be c956 653d
00000290: b7ea 373e f67d 1b3c 57a6 0e3d 9baf 293d
000002a0: d166 b23d 436f 55bd 76ea 643d 9944 19be
000002b0: 02bb cd3d c67b 143e 4931 23be d717 3fbd
000002c0: 2d52 39be fe17 cfbc 66f1 4e3e 9027 05be
000002d0: c3d2 6fbd 0e7f c7bc 2cbc 53be 3315 26be
000002e0: 75c2 2c3e 79d3 8ebd 0f19 133c f57a 213c
000002f0: 07d4 df3d 6ba9 8c3d 2bbe 23bd af21 acbd
00000300: 21e1 753e ee0f 713d fcd7 19bd b235 55be
00000310: e2dc 193c 6435 ac3d a524 70be 50fb 46be
00000320: c018 bf3d c5a8 813d 0c2f 1cbe a4b9 e3bd
00000330: 4b55 3aba 6435 36bc b27e a7bd af48 7c3e
00000340: 2352 363d 0f67 e23d 5c30 ea3c 9c30 793e
00000350: dbaf 3cbe e549 333e 598f ca3d 784e 89bd
00000360: e53a 4fbc fc84 d33c 783f 873d 7d57 01bc
00000370: 91da a13d 60ad 09bb 2405 5c3e 16be 5abd
00000380: d54a 923d 6524 e93c 6a8e c73d f6d7 86bd
00000390: f86a 7cbd bcbc b03d a017 093e 5d81 443d
000003a0: f4e2 243d d4b1 a53d 0fb7 cbbd e506 093e
000003b0: 553f 0b3b 0547 c43d 85ec 84be a90e da3d
000003c0: a855 41bd b0ff 9fbc 7524 ab3d 940d b83d
000003d0: 15e6 aebb d8d3 1c3d 8ae9 223e 2bd6 a4bd
000003e0: 4fe4 78be 73a9 debd 139a 19be b21a 843c
000003f0: 3808 1b3e b73d a3bd 3138 0fbc 7f3c 8c3c
0.13942352 -0.19339736 0.005343321 0.07508141 -0.06926466 0.115474 0.025228593 -0.030809369
-0.012633786 0.11776956 -0.1350353 0.052485898 -0.09632448 -0.08110552 -0.17281482 0.07968025
-0.19105904 0.17920843 -0.09960341 -0.17085992 -0.3455494 -0.20554471 -0.03303909 -0.15533431
-0.037225462 0.08731928 0.0035673191 -0.18817598 0.025866779 0.00063029234 -0.17559144 0.053395275
-0.101720534 0.20777003 0.15871727 -0.11693216 -0.023596397 0.0013950085 -0.071823955 0.06617775
0.25529346 -0.041979738 -0.042086147 -0.2916576 0.24378839 -0.056572452 -0.017641082 -0.03179366
0.122619726 -0.009910961 0.18111116 0.27972877 0.06322432 0.13160232 0.07971593 -0.08136242
-0.20333317 -0.11955228 0.024112178 -0.022529352 0.009144366 0.15772158 -0.048996035 0.005737007
0.06407356 -0.20379049 0.042257752 0.14503409 0.17039618 0.017566089 -0.03498936 -0.1821175
0.08407741 -0.3337378 -0.17998964 0.05651263 -0.08329782 -0.006355649 0.06107876 -0.10724336
0.02584417 -0.24897946 0.12882143 -0.11932793 0.052984677 -0.053627133 -0.07056239 0.33065873
0.13740958 0.13230492 -0.1007429 -0.010674064 0.104577124 0.054258205 -0.01510488 0.06613073
0.15312956 -0.106957816 0.05488091 -0.091300085 0.0758507 0.048062045 0.15695307 -0.09399861
0.020228675 -0.032103453 -0.15959641 -0.090984896 0.010017425 0.015620794 -0.20162962 -0.072748914
-0.062322795 0.03564484 -0.13889098 -0.103278495 -0.13218288 -0.028957434 0.15497033 -0.07295627
0.036622882 0.06680768 0.14432675 -0.017510472 -0.25939807 -0.15449554 0.10426043 -0.0019747147
0.20649146 -0.18704204 0.04939433 0.14694484 0.07098504 -0.114219405 -0.1345422 0.109473586
-0.15111105 -0.23804682 0.14292029 -0.18540706 0.075253084 -0.04609563 0.2226315 0.003180574
-0.060846206 0.2198996 -0.18533428 0.20293866 -0.12851343 0.07437739 0.12261686 -0.045624092
0.042892013 -0.14120655 0.0051095774 -0.12314639 -0.17873803 -0.06634692 -0.041642047 0.02532246
0.13616198 -0.09613608 -0.3169414 0.055990968 0.1796063 0.009490481 0.034826603 0.041427236
0.08711017 -0.05210806 0.055887662 -0.14967574 0.100454345 0.14500341 -0.1593677 -0.046653595
-0.18097754 -0.025279995 0.20209274 -0.13003373 -0.058550607 -0.024352577 -0.2067725 -0.16219024
0.16871054 -0.06973929 0.008978142 0.009855975 0.10929113 0.068682514 -0.03997628 -0.08404862
0.24011661 0.058853082 -0.037559494 -0.20821264 0.0093910415 0.08408621 -0.23451479 -0.19431806
0.093308926 0.06331018 -0.15252322 -0.111193925 -0.00071080466 -0.011121128 -0.08178462 0.24637102
0.044511925 0.11054813 0.028587513 0.2433495 -0.18426459 0.17508657 0.09890623 -0.0670442
-0.012648319 0.025820248 0.066039026 -0.007894394 0.07903016 -0.002100788 0.21486336 -0.053403936
0.07143179 0.028459737 0.0974396 -0.0658416 -0.06162545 0.08629748 0.13387918 0.047974933
0.040255502 0.08090559 -0.09947025 0.13381536 0.0021247466 0.095838584 -0.259617 0.106473275
-0.04720083 -0.019531101 0.08356563 0.08986965 -0.0053374865 0.038287967 0.159094 -0.08048662
-0.24305843 -0.108721636 -0.15000181 0.01612601 0.15139854 -0.079707555 -0.008741424 0.01711869

net.2.bias f4 [60]
00000000: 209a de3d 6a47 d43d 23e0 f6bc 3e12 a9bd
00000010: 6253 c5bc ef3e eebc 4bcf 713d 28dc d73d
00000020: 0aa2 d23d ab81 07bd 655c 353d baad 02bd
00000030: 2208 763d 84de 483d ed16 aabd 9d21 71bd
00000040: bbb9 fb3d 8a2f 45bc 52c4 e83d f2d9 6c3d
00000050: 85f2 653d 0f82 da3d 8d2e e2bd 0162 39bd
00000060: 504c 3fbd 84fe 6c3d 9058 0b3b b383 e6bc
00000070: 7f0f 423d 33f7 c23c 37ef 0dbd 36df c63d
00000080: aae0 d7bc 6af6 88bd 865c 0ebd de77 e5bd
00000090: c036 ba3d bbe0 893d 02f0 69bd 462e e13d
000000a0: 5cdc 093d 4bc2 613d 37cd 77bd 0980 0f3c
000000b0: 82af a73d 4965 48bd d021 05be 31eb f43c
000000c0: 84d2 7b3d 103e cfbd 9b71 973d a489 b7bd
000000d0: e600 c5bd ed65 d73d 9f24 30bd 7f6d bdbd
000000e0: e337 223d 916d dabd 4205 f8bd f9c5 c5bd
0.10869241 0.10365184 -0.030136174 -0.082554325 -0.024087612 -0.029082743 0.05903558 0.10540038
0.10284813 -0.033082645 0.044277567 -0.03190396 0.06006635 0.049040332 -0.08305154 -0.058869947
0.12291285 -0.01203526 0.1136557 0.057825036 0.056139488 0.10669338 -0.11044035 -0.04525948
-0.046703637 0.057859913 0.0021262504 -0.028138971 0.04737806 0.023799514 -0.03465196 0.09710543
-0.026352245 -0.06687625 -0.034756206 -0.112045035 0.09092474 0.06732317 -0.057113655 0.10995154
0.033657417 0.055116933 -0.060498443 0.008758553 0.08187772 -0.048924718 -0.1300118 0.029897304
0.06148006 -0.10119259 0.073947154 -0.089618 -0.09619312 0.10517488 -0.043003675 -0.092494
0.03960408 -0.106654294 -0.12110378 -0.09656901

net.5.weight f4 [1, 60]
00000000: 5424 64bd 4e17 a13c a942 3dbe 4c77 253e
00000010: 6a64 28be 6104 e5bd e946 183d 4108 a23b
00000020: e26d c5bd 8f4c 7bbe 1ba3 c53d 79a7 bf3c
00000030: 1258 debd 51a4 3b3e 9c64 af3e e520 3bbe
00000040: 2064 4cbc f49f 1abd d1a7 f03c b99b 0ebb
00000050: 61ba 373e 51c5 d33c 2e9c 9dbe 7c38 d63c
00000060: e6b8 42bd e85c 9cbc c376 243e 98ab ebba
00000070: ca92 af3e f2e7 1c3e b7d7 31bc ce13 15be
00000080: 13c9 d03b 3d28 55be 0b22 fcbd aa40 633d
00000090: 9f1d 27be 9542 d93d a88b 38bd 9317 663e
000000a0: f6a3 f0bb 525a 4abd 76ea 23be f5d6 f3be
000000b0: d4b3 14be 1744 133e 2731 f63d 77e9 903d
000000c0: b632 44be 4953 973a cd1d 9d39 2408 f3bd
000000d0: dd93 e53b b901 31be 9533 03bd 5e83 c2bd
000000e0: 352c 053d 233a 963d 5096 a9bc fe31 493e
-0.055698708 0.019664433 -0.1848246 0.1615879 -0.16444555 -0.11182476 0.037177 0.0049448316
-0.09640099 -0.24540924 0.096502505 0.023395287 -0.10856642 0.183244 0.34256446 -0.18274267
-0.012475044 -0.0377502 0.029376896 -0.0021760298 0.17942192 0.025850924 -0.30783218 0.02614998
-0.047539614 -0.01908727 0.16060929 -0.0017980216 0.3429168 0.15322855 -0.010854653 -0.14558336
0.006371626 -0.20816131 -0.12311181 0.05548159 -0.16319893 0.10608403 -0.04505506 0.2246993
-0.0073437644 -0.049402542 -0.16007408 -0.47624937 -0.14521724 0.14381443 0.12021094 0.0707578
-0.1915997 0.0011545207 0.00029967577 -0.11866787 0.007006152 -0.17285813 -0.032031614 -0.094977126
0.032512862 0.073353074 -0.020701557 0.19647977
