results of reviewer/XJTU results/1-1/Experiment5/model.pth (torch, 59838 bytes, 14 tensors)

encoder.net.0.weight f4 [60, 17]
000000 6f 35 67 bd 40 ed 85 bd a9 dc 4d 3e 58 82 34 3e
       -0.056447443 -0.065393925 0.20103706 0.17627847
000010 fc 9e 3d be 95 29 ba bd f8 45 3a 3e 95 95 19 3e
       -0.18517679 -0.090899624 0.18190753 0.14998467
000020 5d 3f b9 bc e8 28 70 3e 07 7f 53 be 88 02 1d 3d
       -0.022613222 0.23453104 -0.20653926 0.038332492
000030 f3 61 0e bd f5 e3 ba be 74 5b 43 3e 4a 6a 38 3c
       -0.03476138 -0.36502042 0.19077855 0.01125581
000040 cf 9f 91 be 5c 41 2e be ae a9 9b 3d 8a 03 5c be
       -0.28442237 -0.1701712 0.07600723 -0.21485725
000050 6d 36 29 be 12 c6 87 3e 0c 5a 6e bd f9 d3 ee 3d
       -0.16524668 0.26518303 -0.058191344 0.11661524
000060 8d 34 70 bd c6 ea 96 3d 8e 8d 84 be 37 d0 b2 bc
       -0.058643866 0.07368998 -0.25889248 -0.0218278
000070 9e bb 07 3e af fa 6f be 2d 71 a2 3d 82 16 6d be
       0.13255164 -0.23435472 0.07931743 -0.23153117
000080 03 57 f9 3a a7 13 1a bd 3d f0 5f be 34 c1 98 3d
       0.0019023124 -0.0376164 -0.21868987 0.074587256
000090 d9 e1 fe 3d f6 60 87 be bc 09 7a 3b a3 9c 21 3d
       0.12445421 -0.26441163 0.0038152775 0.03945602
0000a0 13 c2 9f 3e 5a e3 33 3d 3e 30 05 bd 5d 8e 54 be
       0.31202754 0.04391799 -0.03251671 -0.20757432
0000b0 e2 b8 d6 bc cd 75 16 be a4 a2 a4 3d 2c 7f 3e 3c
       -0.026211206 -0.14693375 0.08038834 0.011627
0000c0 29 ce fe bd 58 fa d8 bc 96 c5 ea bd 48 ba 14 3e
       -0.12441666 -0.02648656 -0.11463468 0.14524186
0000d0 7f 93 bf bd a9 58 4d 3e 0f ad 2a 3e 89 bf 5b 3d
       -0.093543045 0.20053352 0.16667579 0.05364946
0000e0 ca cd 00 3e 35 b6 79 3e 22 cf 2a 3e ff 47 6e be
       0.12578502 0.24385913 0.16680577 -0.23269652
0000f0 36 13 e9 bd d6 22 ec 3d 81 52 9d bc 31 50 73 bd
       -0.11380617 0.11530082 -0.01920438 -0.05940265
000100 0a 56 27 be a4 2b 30 3e e1 a4 15 be ba e2 a4 3c
       -0.16341415 0.17204148 -0.14613678 0.020127643
000110 8e 11 9e 3c 4a 30 82 bd 98 b0 57 3e 7b be 4b 3e
       0.01929548 -0.06356867 0.21063459 0.19896881
000120 cc 59 1c bd 58 b4 b7 bc 7b eb 6c 3e 4b dc 23 3d
       -0.038171574 -0.022424862 0.23136704 0.04000501
000130 a9 b8 e6 3d 5e 08 74 3e d2 45 b4 bb e8 40 68 bd
       0.1126569 0.23831317 -0.0055014873 -0.056702524
000140 82 07 d3 3b dc 2b 95 be 99 7a fc 3d 4c 73 53 3e
       0.006440104 -0.29135025 0.12328071 0.20649451
000150 6f d1 3b be f3 67 2f be c1 72 dc bd 9d d8 ab be
       -0.18341611 -0.17129497 -0.10764075 -0.335637
000160 63 48 41 bd 2c 91 61 3d 5b f4 37 3e 2c db 39 be
       -0.047188174 0.055070087 0.17964308 -0.18150014
000170 b3 52 5d be 19 53 c6 3d 0f 8b 61 bd 1b cd b6 3d
       -0.21613578 0.09683818 -0.055064257 0.089258395
000180 ff a1 5d bc 99 6d 96 3d 79 c1 2e 3d 94 0d fc bc
       -0.013527392 0.07345123 0.04266498 -0.030768193
000190 b6 12 7b bd 47 a8 10 be 72 e8 b2 3d 1c 72 92 bd
       -0.06129714 -0.14126693 0.08735742 -0.07150671
0001a0 f1 a2 6a bc 2e 0a 09 bd d9 7c 7b bc 56 c0 a1 3d
       -0.014321075 -0.033456974 -0.01534959 0.07898013
0001b0 fd 46 95 3e d7 a2 f5 3d ce 58 d9 3d 2d 21 1f 3d
       0.29155722 0.1199395 0.10612641 0.03885
0001c0 04 1a 15 bc 7e 5f ca 3d ed 6c 85 3d 7c 30 6c 3e
       -0.009100441 0.09881495 0.065149166 0.2306537
0001d0 b4 7d 5b 3c fb 68 9a bc 94 dd dd 3d 64 bc 41 3e
       0.013396669 -0.018848887 0.10833278 0.18919522
0001e0 f6 0c 6c be 78 7b 8f 3c da 11 92 3d 16 de 52 3d
       -0.23051819 0.01751493 0.07132311 0.05148133
0001f0 f2 b1 4c 3d ca 64 e6 bd 28 63 6e be 87 2d 5a 3e
       0.04997439 -0.11249693 -0.23280013 0.2130643
000200 af 0f a1 bb 98 46 00 be d1 4e a6 3c b0 02 aa bd
       -0.0049151997 -0.1252693 0.020301254 -0.08301294
000210 aa de 47 3e c7 eb a1 bd ec 41 59 3d 34 c4 cb bd
       0.19518533 -0.07906299 0.053041384 -0.09949532
000220 32 85 05 3e 7c cb 97 3d 03 67 7b bd 07 fa e7 3d
       0.13039091 0.074118584 -0.061377537 0.11326986
000230 02 dc bb bd 91 a7 7d 3e 5b 63 23 be 9f 79 1a 3d
       -0.091728225 0.24770953 -0.1595587 0.037713643
000240 6d 15 11 3e e6 47 88 3c c1 74 a1 be f6 67 1a 3e
       0.1416833 0.016635846 -0.3153439 0.1507872
000250 05 42 ef 3d 94 0d 07 be 15 dc c9 3d 43 2f 45 3e
       0.11682514 -0.13188773 0.098564304 0.1925631
000260 8d 89 db 3d 83 5f 89 be f8 cd d6 3d 97 3a 88 bd
       0.10719595 -0.26830682 0.10488504 -0.066518
000270 c3 05 22 be 84 54 63 bd a9 04 b3 3d 3a f4 24 3e
       -0.1582251 -0.055500522 0.08741123 0.1610879
000280 2f 84 0f bd 4b 46 19 be e6 aa b0 3e 98 cb 44 be
       -0.03503817 -0.14968221 0.34505385 -0.1921829
000290 89 b0 ec 3d c8 e9 94 3e 42 6b 46 3e 6a f6 0e be
       0.11557109 0.2908461 0.19376853 -0.13961187
0002a0 be c9 19 3e 3e 37 f1 3c d7 74 af bd 16 46 91 bc
       0.15018365 0.029445287 -0.08567207 -0.017733615
0002b0 e0 de 5a be 59 ba 59 bd e5 a5 92 bd ae db 4c 3c
       -0.21374083 -0.05315623 -0.07160548 0.012503548
0002c0 e9 f4 6e bc 3b 73 d7 3b 6c ab 33 3d 71 38 0c be
       -0.014584758 0.006575016 0.043864653 -0.13693406
0002d0 c4 cc 12 3e 60 f6 04 be 23 7e e0 bd e4 a3 68 be
       0.14335924 -0.1298461 -0.10961559 -0.2271877
0002e0 27 a3 e0 3d 31 6b 94 3c 14 b1 04 be 60 f3 13 3f
       0.10968619 0.01811752 -0.12958175 0.57793236
0002f0 6b a4 0a 3e 2b 0b 28 be 13 ef 6c bd 29 e6 95 be
       0.13539283 -0.1641051 -0.057845186 -0.2927716
000300 0f 36 04 3e 64 a7 75 3b b9 22 97 3c d2 8c 85 bd
       0.12911247 0.0037483806 0.018449174 -0.06521
000310 bd da f3 3d d7 5f 7d be fb 6a 37 3e 11 13 c8 3e
       0.119069554 -0.24743591 0.17911904 0.39077047
000320 7e db 2d 3e d4 ad 5a 3d 17 64 f5 3c 68 fb 2c 3e
       0.16978261 0.05338843 0.029954953 0.16892779
000330 b8 9d 00 3e c7 22 81 be f2 29 30 be bf f4 67 be
       0.12560165 -0.25221846 -0.17203501 -0.22651957
000340 4f e5 36 be 3a 61 55 3e 9d 29 aa 3d e4 44 17 bd
       -0.17860912 0.2083787 0.08308718 -0.036930934
000350 14 5b 4e 3d bd 7c 3a be 30 fc 24 3d 74 03 87 bc
       0.050379828 -0.18211646 0.040279567 -0.016481139
000360 1d a3 21 b9 99 a1 a3 bd d3 2c 1a be e5 6f 2b be
       -0.00015414921 -0.07989807 -0.15056162 -0.16741903
000370 75 a8 b2 bd 77 94 5c bc 4f 92 9b 3c 39 b4 41 be
       -0.08723537 -0.013463131 0.018990664 -0.18916406
000380 04 ce 34 3e a2 f4 8f 3c e8 e4 8e bd 26 4d b7 bd
       0.17656714 0.017572705 -0.06977254 -0.08950262
000390 0d 50 c1 3d b3 92 c5 bd fb 44 c2 3e c7 4f 11 be
       0.094390966 -0.09647121 0.37943253 -0.14190589
0003a0 2d 92 d5 bb b4 9a c1 bd b4 c8 0f 3c 51 5d b5 3d
       -0.0065176697 -0.094533354 0.008775879 0.08855689
0003b0 9f 97 9f 3d bd 5e 81 bd 2a 5b 45 3e 8f d9 3c be
       0.07792591 -0.06316898 0.19273058 -0.18442367
0003c0 1c f8 86 bd de f3 e0 bd d7 f5 9c bd 02 41 9f bc
       -0.06590292 -0.10984014 -0.07664078 -0.019440178
0003d0 1f 06 93 3d 7f 48 f6 bc 7c 8b a2 bc 01 96 2d bd
       0.07178902 -0.030063866 -0.019841902 -0.042379383
0003e0 bf 34 48 3e c5 75 62 be 51 3c 7d be fd b9 b4 3b
       0.19551371 -0.22115238 -0.2473004 0.0055153356
0003f0 ee 6f 23 bc bd 5b 84 3d 46 ab 23 3e d0 23 15 bf
       -0.009975417 0.0646281 0.15983304 -0.5825777

encoder.net.0.bias f4 [60]
000000 61 d4 f0 3c e0 08 2a bd d2 d4 7e bd 0a 94 09 3d
       0.029398145 -0.04151237 -0.06221468 0.033588447
000010 9c e2 49 bd 02 cd 30 bd c3 42 1d bd 97 76 55 3d
       -0.049288377 -0.04316426 -0.038393747 0.05211505
000020 96 c3 3d bd 28 f1 1d bd 2b 44 8d 3d 11 15 3c 3d
       -0.046329103 -0.038560063 0.06897768 0.045918528
000030 ec 32 21 3d 30 c1 eb ba 74 a2 7f 3d 21 8a df 3b
       0.039355204 -0.0017986652 0.062410787 0.006821886
000040 bd b8 1a 3d 1e 10 1d 3d 87 41 5f 3a 9f 20 1c 3d
       0.037773836 0.03834545 0.0008516539 0.038117047
000050 e9 8d 49 bd 38 0b 84 3c 0d af 7e 3d 6b 21 21 bd
       -0.0492076 0.01611863 0.06217866 -0.03933851
000060 30 c6 a0 3d dc ce 40 3d 72 7a fc 3c 6a 7f 38 3d
       0.07850301 0.047072276 0.030820105 0.045043387
000070 71 ec d1 3c 7f 6c 4f bb f9 d7 7c 3d 01 e4 03 3d
       0.02562544 -0.0031650362 0.061729405 0.032199863
000080 a1 d8 10 3d a0 7b 7b 3d 71 d7 75 bd 4f 7d 90 3d
       0.035362843 0.061397195 -0.060019914 0.07055151
000090 15 ee 5f 3d 4f cf ed 3d 77 90 9f 3c e9 73 51 3b
       0.054670412 0.116118066 0.019478066 0.0031959957
0000a0 35 6d 97 bb 5e bb 67 bd a2 34 b0 3d ee ab 79 3c
       -0.004621173 -0.05657517 0.08603789 0.015238745
0000b0 43 7a ce 3c de 3d fe 3c f4 72 5d 3b 26 01 74 3d
       0.025204783 0.03103536 0.0033790441 0.059571408
0000c0 64 67 92 bd 12 bd ef bc db 50 45 bd 13 3f 36 bd
       -0.071486264 -0.02926496 -0.048172813 -0.044493746
0000d0 42 cb 25 bd 5c b8 e2 bc bc e2 1b 3d 52 43 6d bd
       -0.040477045 -0.0276758 0.038058028 -0.05792553
0000e0 8c 24 4a bc 9d 58 82 3d 85 95 51 3c 7a 25 e8 3a
       -0.012337815 0.06364558 0.012791996 0.0017711364

encoder.net.2.weight f4 [60, 60]
000000 a6 8f 83 3d 51 d1 9f 3d 70 4c eb 3c 37 f5 5b bd
       0.06423883 0.07803596 0.028722972 -0.053700652
000010 2f ee 66 be d8 cc 70 be 42 0f 11 3d 41 00 1e bd
       -0.22551797 -0.23515642 0.03541494 -0.03857446
000020 8f 30 d8 bb 7c 9c 6c 3e 8a ce 3a bd 74 b8 a5 3c
       -0.0065975855 0.23106569 -0.045607127 0.020229556
000030 b1 4e 43 3d 4f ce ad 3d 15 46 2e be 3a 5d cb bd
       0.047682468 0.08486616 -0.17018922 -0.09929891
000040 d9 f5 a2 bd 2d c5 31 be 89 cd 89 be 39 7d 6f be
       -0.07957048 -0.17360373 -0.26914623 -0.23387612
000050 83 82 1d be ff 9a fa bd 40 46 c8 bc 5a 91 89 be
       -0.15381818 -0.122365944 -0.02444756 -0.26868707
000060 c3 26 cd bd 32 f2 36 3d 48 c7 81 3d 30 8c b7 bd
       -0.10017159 0.04466457 0.06336838 -0.089622855
000070 41 c8 42 bd f9 be 84 be 0e 93 07 3e 37 18 6b 3e
       -0.04755426 -0.2592695 0.1323969 0.22958456
000080 6a 94 64 3d 07 33 c5 bd 9a ce 8e 3d 68 f5 92 be
       0.0558056 -0.09628873 0.06973 -0.28702855
000090 24 64 ac 3d 24 c3 8b bd 0f 86 57 3d 73 b2 68 3e
       0.08417538 -0.068243295 0.052618083 0.22724323
0000a0 dc 9a 06 3e d5 a8 0e bd c4 4f 83 3d 05 d1 61 be
       0.13145012 -0.03482898 0.064116985 -0.22052391
0000b0 70 b6 80 be e7 27 fe bc 56 0d 28 bd c0 dc 9e 3e
       -0.2513919 -0.031024886 -0.041028343 0.31027794
0000c0 0a 8b f4 3d 5e 0e e2 3d 79 61 ed 3c e8 9b 45 3d
       0.11940582 0.110378966 0.028977143 0.048244387
0000d0 01 2b d4 bd 8e bb 25 be 51 b4 09 3e 70 72 c7 3c
       -0.10359765 -0.16184828 0.13447692 0.02434656
0000e0 38 e5 3d 3e 52 1d 00 3e c4 c3 a3 bd 34 bf 1e be
       0.18544471 0.12511185 -0.07996324 -0.15502626
0000f0 ef 03 31 3e f9 f3 15 3e 71 7a a7 3d a7 3a 89 be
       0.17286657 0.1464385 0.08177651 -0.2680256
000100 ed df 35 bd f1 dc bb 3d a4 f3 cc bd bb d6 39 3e
       -0.044403005 0.091730006 -0.10007408 0.1814832
000110 38 3e 8f bd 77 8e 4c bd 80 96 77 3d bb 78 2e bd
       -0.06994289 -0.049940553 0.060446262 -0.042595606
000120 9b 64 e7 bc c3 75 f9 bd fe b4 90 bd 4e a6 83 3d
       -0.028246215 -0.121806644 -0.070657715 0.064282045
000130 0e bb 91 bd 97 1e 26 3e 9e b8 dd 3d dd bb 93 bd
       -0.07115756 0.16222607 0.108262286 -0.072135665
000140 53 82 ee 3d e8 0d 8d bd 91 20 06 3c da 16 37 3d
       0.11645951 -0.06887418 0.008186475 0.044699527
000150 7c df 25 be 8f fc d3 bd e2 74 c6 3d a0 9c 3d be
       -0.16198534 -0.10350906 0.096902624 -0.18516779
000160 c0 72 09 3d 32 89 b8 3d e1 bc 9c 3b cb 87 6a 3c
       0.0335567 0.09010543 0.0047832583 0.014314602
000170 84 9a 9d bd ad 71 89 bd f1 57 56 bd ba 41 95 be
       -0.07695487 -0.06711135 -0.05232996 -0.29151708
000180 2d 21 aa be 14 37 05 3d 6c 16 68 be d0 fc 56 3d
       -0.33228436 0.03252323 -0.22664803 0.052487195
000190 1f e2 51 be 8b db 54 bc 7d 6b 29 be 79 71 9f bb
       -0.20496415 -0.012991796 -0.1654491 -0.004865822
0001a0 3c fd f1 3b 0b 75 31 3c 55 a0 14 bc 65 ec 13 be
       0.007384924 0.010831128 -0.009071429 -0.14445646
0001b0 e3 6c 64 3e 3f e7 4f 3e 04 64 2c 3e 02 61 7d bb
       0.22307162 0.20303057 0.16835028 -0.0038662557
0001c0 d4 a3 aa 3e 4d 38 cc bd a6 c1 39 3d 1a bc 02 3e
       0.33328116 -0.09971676 0.045350693 0.12767068
0001d0 79 cb ce 3d f4 1e 9d bd 2c 7c 62 bd 0c 9d 8b be
       0.10097403 -0.076719195 -0.0552942 -0.27268255
0001e0 b8 91 c0 bc cc 44 89 bb 2b 97 7a be 01 72 20 be
       -0.023506984 -0.0041891094 -0.24471729 -0.15668489
0001f0 f4 1f fa bd d6 cc b7 bd cf 16 f4 3d 3d 46 c8 bd
       -0.12213126 -0.08974616 0.11918413 -0.09779022
000200 89 8d 53 be e8 ef 71 3e 9b cb cf bd 98 31 cc bd
       -0.2065946 0.23626673 -0.101462565 -0.09970397
000210 7e 8a 06 3e 61 be 6a 3d 92 ea 4e bd f6 4e 4a be
       0.13138768 0.057310466 -0.050516672 -0.19756684
000220 38 29 e5 3a c9 8a 14 be df 3c 84 bd ff 3b e1 bd
       0.0017483598 -0.14506067 -0.06456923 -0.109977715
000230 21 c6 bd bc 2a 3d 87 bc 06 6d 31 3d 95 c6 07 be
       -0.023165764 -0.016508657 0.043316863 -0.13259347
000240 4d 3a 6c 3d d7 36 3e be e0 21 dc bc 5b 60 ac 3c
       0.057672787 -0.18575607 -0.026871622 0.02104204
000250 7e a3 cc bb c9 be 31 bc 58 b1 90 3e 94 b0 8e 3c
       -0.0062450757 -0.010848709 0.28260303 0.017418183
000260 6e dd 13 bd 41 5c ab be 90 e7 85 be c2 70 db bd
       -0.036099844 -0.33468822 -0.2615323 -0.10714866
000270 e4 cf 08 3e 58 43 34 bd cb 10 10 bd cf 99 a8 bd
       0.13360554 -0.044009537 -0.035172265 -0.08232462
000280 12 96 f7 bd 1b ae 39 3d 00 b2 86 3e 5c 4b 0b be
       -0.120891705 0.045332056 0.26307678 -0.13602966
000290 cc bb 32 be e7 37 04 be 5e ba ca 3d 9d 6c 83 3c
       -0.17454451 -0.1291195 0.09898828 0.016043002
0002a0 9e 46 93 3e 16 6e 97 3d 48 9c 58 bd 89 a8 1f 3d
       0.28764814 0.07394044 -0.052883416 0.038979087
0002b0 8d c9 91 3c 30 c5 0a bc c7 d1 0d be 58 db f2 3d
       0.017796302 -0.008469865 -0.13849555 0.11858243
0002c0 d2 97 35 bd c5 ff 49 bd ff 71 d3 bd 7d 16 bd bc
       -0.04433424 -0.049316186 -0.103244774 -0.023082012
0002d0 73 84 46 3e df cd 8e b9 3a bd 22 bd 47 5f 31 be
       0.19386463 -0.00027237737 -0.03973124 -0.17321502
0002e0 79 ec e2 bd 0d b5 dd 3c c5 b4 03 3e 15 3a fe 3c
       -0.1108026 0.02706387 0.12861927 0.031033555
0002f0 ac 25 ea bd 94 c0 27 be 24 ab 36 3e f7 34 05 be
       -0.114329666 -0.16382056 0.17838722 -0.13008486
000300 ee d6 b5 bc f1 4d 51 3d b0 32 ac 3d eb ba 8c bd
       -0.022197213 0.05109972 0.084081054 -0.06871589
000310 5d ef 10 3d c3 9a 3f bd ec 85 50 3e 68 d0 bd bd
       0.035384525 -0.04677845 0.20363587 -0.09268266
000320 a4 8f 07 be 1e 5c 07 be 67 b5 4f be 93 45 6b bd
       -0.13238388 -0.13218734 -0.20284043 -0.057439398
000330 7f 3e 09 be 0c 24 f2 3c b0 78 73 be 05 4b 1d be
       -0.13402747 0.029558204 -0.23776507 -0.15360649
000340 30 0a 6c bc 18 43 71 bd b6 fc be 3c 75 a5 93 bc
       -0.014406726 -0.058901876 0.023313861 -0.018023232
000350 3d 6e 61 3d 48 d8 e0 bd 3a 73 f8 bd 64 d8 43 be
       0.055036772 -0.109787524 -0.12131353 -0.19125515
000360 fc 4d 89 bc 8b ae 10 3c eb e8 49 3e e2 65 31 3e
       -0.016760819 0.008830677 0.19717757 0.17324021
000370 fd f7 99 bd 53 db 4c 3d f0 4e 5f 3e 7e 4e 7c 3e
       -0.07518003 0.05001385 0.21807456 0.24639317
000380 35 3f 63 be 43 5c c4 bd a7 69 08 be 87 4b 58 3e
       -0.2219208 -0.0958791 -0.13321553 0.21122561
000390 4d 1a b4 3d 26 d3 4c 3d f7 1e 52 be 20 65 2d be
       0.08794079 0.050006054 -0.20519625 -0.16933107
0003a0 64 4e 01 bb 0c 00 17 3e 91 29 94 bd 55 38 b0 bd
       -0.0019730562 0.14746112 -0.07234491 -0.086044945
0003b0 1f cd 54 3e f0 3a 8d bd 03 6e e2 3b 98 58 5a bd
       0.20781372 -0.06896007 0.006910087 -0.053307146
0003c0 5b 17 e2 bd 17 1f 88 be ef 25 25 3e 32 4a e6 bd
       -0.11039611 -0.2658622 0.16127752 -0.112446204
0003d0 17 4d 02 be 85 33 40 3c 3e 12 2e 3e b4 cd b8 3d
       -0.1272472 0.011731033 0.16999146 0.0902361
0003e0 0c 86 71 bc e7 64 b8 bd 78 eb 2c bd fa c6 b5 3d
       -0.014741432 -0.090036206 -0.042216748 0.088758424
0003f0 87 4c 04 be 88 ec d7 bc 3d d1 18 3e 5b af 86 3c
       -0.12919818 -0.026357904 0.14923568 0.016441038

encoder.net.2.bias f4 [60]
000000 39 0f 9d 3c 62 2a 8e bd 99 45 2c bd cd 6b 49 3d
       0.019172298 -0.06941678 -0.04205856 0.049175072
000010 93 40 68 3d 5a 11 b0 bd e2 14 35 bc b8 f5 e4 3c
       0.056702208 -0.085970595 -0.011052342 0.0279492
000020 a6 18 60 bd bf 20 03 3d 3a c6 42 3d 07 39 0c 3d
       -0.054711007 0.03201365 0.047552325 0.034234073
000030 a6 b7 33 bd 3b b0 1b 3d 7e 0f 2d 3d 7b b7 4a bc
       -0.043876313 0.038009863 0.042251103 -0.012372847
000040 be 0c 0d bc 06 22 40 bd e3 97 36 bd de 34 54 3d
       -0.008608995 -0.046907447 -0.044578444 0.05180823
000050 a1 4b 39 bd b1 ed 3e bd 62 4a 81 bc e1 eb e7 3c
       -0.04523814 -0.0466134 -0.015782539 0.028310718
000060 0d 8c 2f 3d 1c 13 65 bc 8a 7d 24 3d fe 0e f4 3c
       0.042858172 -0.013981607 0.040158786 0.029792305
000070 bc 49 3e bd 86 e3 73 3d 9c bf 9a 3c ff d6 b6 3d
       -0.046457037 0.059543155 0.018890195 0.08927726
000080 73 4a f2 bc bc 8e 1c bd 49 7c 02 bd e2 c6 bf 3c
       -0.029576516 -0.03822206 -0.03185681 0.023410264
000090 a4 9c 46 3d b7 78 37 bd 43 f1 ff bb b3 26 2e 3d
       0.048489228 -0.044792857 -0.007810743 0.042517375
0000a0 c6 0d fb bc ec cb f5 bc 8f fe 4d 3d 57 5a 39 3d
       -0.030646216 -0.030004464 0.050291594 0.04525217
0000b0 f7 ef 4d bd c0 62 fb 3c 93 8e 65 3d 71 66 8a bd
       -0.050277676 0.030686736 0.056044172 -0.067578204
0000c0 2c 51 86 bd 0b 87 1e 3c bf 54 7e 3d 7f 7f 91 bd
       -0.06558451 0.009675751 0.06209254 -0.07104396
0000d0 06 d8 b2 3c bc f1 0a bd 4f 35 33 3d 4b 4c 25 3d
       0.021831524 -0.033921942 0.04375201 0.04035596
0000e0 0f 2d 3f 3d fe b2 4c bd 95 ea f0 bc c4 c5 54 bc
       0.04667383 -0.049975388 -0.029408732 -0.012986604

encoder.net.5.weight f4 [32, 60]
000000 a5 f5 ab 3d 7b 5d 09 3e 80 e4 16 3e 96 e7 47 be
       0.08396462 0.13414566 0.14735603 -0.19521937
000010 0d 3c 1c 3e 24 d4 23 be 77 68 e2 ba 34 46 c6 bd
       0.15257283 -0.15998894 -0.0017273565 -0.09681359
000020 7e 04 90 be 1f da 01 be d9 2f fd 3d 9d 5c d1 bd
       -0.28128427 -0.12680863 0.12362642 -0.10222743
000030 9a 17 3e 3e 94 21 93 bd da 3d a3 bd 47 f3 d8 3c
       0.18563691 -0.07184139 -0.079707816 0.026483191
000040 ea 7d d3 bd c0 e9 94 3d 10 dc 9a be cb b8 1b 3d
       -0.103267506 0.07271147 -0.3024602 0.03801803
000050 e0 ed 2a bc 0a 63 68 3e 44 72 27 bd 31 92 cb bd
       -0.01043269 0.2269403 -0.040880457 -0.09939993
000060 64 95 16 3e 9b 7a 5e 3e d4 31 88 bd cd 3a 97 bb
       0.14705426 0.21726458 -0.06650129 -0.004615164
000070 17 ed a5 3e 73 41 c6 3e 3e 07 0d be 35 0e fa bd
       0.32407448 0.3872181 -0.13772294 -0.12209741
000080 ce a3 8b 3d 50 ab 4b 3e 98 ff d9 bd 66 8b 3f 3e
       0.06818353 0.1988957 -0.10644454 0.1870552
000090 10 73 1f 3d 66 31 f6 bc 72 b0 48 bc aa 43 3a bb
       0.03892809 -0.030052852 -0.012249099 -0.0028421679
0000a0 83 a5 e0 3b a1 59 3a bd 9a c5 21 3e c5 f3 3c 3d
       0.006855668 -0.045495633 0.15798035 0.046130914
0000b0 03 40 5a 3a bc fe 3d 3e 4d 61 b4 3d 27 42 6e be
       0.00083255785 0.18554205 0.08807621 -0.23267423
0000c0 7d 48 88 be 2c 3e 9e 3e 42 4c 7f 3e e1 75 be bd
       -0.26617804 0.30906808 0.24931434 -0.09299827
0000d0 a9 2d 8e bd 49 40 2a 3e 28 15 d1 3d ef de 66 bd
       -0.06942303 0.16626085 0.10209113 -0.05636495
0000e0 d0 4f 34 3e 0f cf ab bd 0a 62 31 be 42 7f 59 3d
       0.17608571 -0.08389103 -0.17322555 0.053099878
0000f0 06 13 bd 3c dc db ab bc e8 c3 f5 3a 08 65 08 be
       0.02308036 -0.02097886 0.0018750401 -0.1331979
000100 a4 e8 28 3e 49 9b 57 bd 2e 30 0c bd c8 c3 fb bd
       0.16494995 -0.052638326 -0.034225635 -0.12293202
000110 b8 c6 9f bd 9c 9f 7a bc c5 98 d8 3d e6 b8 d5 3b
       -0.078015745 -0.015296843 0.105760135 0.0065222858
000120 32 37 21 3e 9f 51 70 3d ea 93 c8 bd 3b b7 17 bd
       0.15743712 0.05867159 -0.09793837 -0.037039977
000130 12 80 47 be 80 85 60 be ff 28 b2 bd 02 00 36 be
       -0.19482449 -0.21925926 -0.08699226 -0.1777344
000140 bd 1e d5 3c 10 5d cd bd e3 cf b0 bd 07 64 ae bc
       0.026015634 -0.10027516 -0.08633401 -0.021287931
000150 fc a1 ab bd 60 e9 d0 bc ad f9 a1 bd 57 7e 1b be
       -0.083805054 -0.025501907 -0.0790895 -0.15184914
000160 ca 99 0e bc d5 ba 49 be 87 3f 36 3e cb cc 87 3e
       -0.008703658 -0.19700177 0.17797671 0.26523432
000170 75 92 0f 3e ee 53 4b be a5 6b 8a 3e 9d d8 5a bc
       0.14020713 -0.19856235 0.2703525 -0.013357309
000180 f4 d9 70 3d 58 b8 06 bd e4 2f 63 bc bd 00 8b bc
       0.058801606 -0.032890648 -0.0138663985 -0.016968125
000190 78 c6 09 3e d3 c5 dd bd 0b 26 08 3e 00 4e c8 3d
       0.13454616 -0.108287476 0.13295762 0.09780502
0001a0 c8 87 0f 3e 03 77 9b 3d 71 5d a1 bc a1 e2 16 3e
       0.1401664 0.07591059 -0.019697877 0.1473489
0001b0 db 59 36 3e 90 20 cc 3d cc e2 f8 bc 85 dc 22 bd
       0.17807715 0.09967148 -0.030381583 -0.039761085
0001c0 a4 db 65 bd 03 d5 ae 3d 3f d6 a1 3c 5e cb b1 bd
       -0.05611767 0.085367225 0.01975548 -0.08681367
0001d0 a1 99 a5 3d e5 a5 57 bd 2b b0 3e 3e b7 34 54 be
       0.08085943 -0.052648444 0.1862189 -0.20723234
0001e0 84 a5 1e 3d 07 42 85 bc 78 c9 12 3e b4 ef 14 bd
       0.038732067 -0.016266836 0.14334667 -0.03636141
0001f0 9c fe d8 bc d3 17 c2 3c 87 99 e4 bd 5f 8e a9 3c
       -0.026488595 0.023693 -0.111620955 0.02069777
000200 4d 0a 1c 3e fc 30 2e 3e da 0f 8c bd a8 63 aa bd
       0.15238304 0.17010874 -0.06838961 -0.08319789
000210 e9 35 1f 3d 86 c3 76 3d c7 34 11 3e a8 d4 2d bd
       0.038869772 0.06024506 0.14180289 -0.042439133
000220 3d 8a a3 3d 4a 43 72 be 52 77 a8 3c 57 c4 55 3d
       0.07985351 -0.23658481 0.020564709 0.052189197
000230 1d 08 64 be d6 91 09 3d 97 f3 c1 3d 20 e4 fd bd
       -0.2226872 0.033586346 0.09470289 -0.12397027
000240 0a 49 86 bd de 08 30 be e6 d9 82 3e 0d 86 85 3e
       -0.065569 -0.17190883 0.25556868 0.26078835
000250 db 7c 70 3d b4 12 0d bc 8f 1d 0f be 96 dc 1e 3e
       0.05871282 -0.008610416 -0.1397612 0.15513834
000260 33 65 87 3d f3 c0 00 be 43 c4 e2 bb 39 72 a1 3d
       0.06611099 -0.12573604 -0.006920369 0.07883114
000270 66 69 d6 bd 9b 5e 09 be d9 64 16 bd 4f c0 71 bd
       -0.10469322 -0.13414995 -0.03671727 -0.05902129
000280 6c f3 a9 3e c0 ff 8c be 8b ae 96 3d 18 d0 57 bd
       0.3319353 -0.27538872 0.0735751 -0.052688688
000290 cc 86 92 3d ce a5 a9 3d b2 bf dc 3c 76 a9 06 3d
       0.07154617 0.08283578 0.026946876 0.032876454
0002a0 5c 12 ed 3d cf 17 aa 3c 00 0a e8 bc 31 3c c3 3d
       0.115757674 0.020763306 -0.02832508 0.09532965
0002b0 49 de 8f 3d ea e8 9f 3d 0c 95 77 3e fe 67 1c be
       0.070248194 0.07808097 0.2417795 -0.15274045
0002c0 39 46 0c be 91 b5 a3 be 71 3a da 3c 0e 23 9b bd
       -0.13698663 -0.31974462 0.026639195 -0.075750455
0002d0 f6 95 34 3d bd 95 82 3e 84 d5 69 bd 56 ee f4 bd
       0.044088326 0.25504866 -0.05708839 -0.119595215
0002e0 98 94 9d 3d 37 fe 4b bd 03 3f 35 3c 02 df ab bd
       0.07694358 -0.049802985 0.011062386 -0.08392145
0002f0 1a 2d e6 3c 4c fa 3f bd be 3b 47 be 7f 8b 2a be
       0.028097678 -0.04686956 -0.19456384 -0.16654776
000300 10 48 22 3d e7 b9 8d 3d 55 fe 01 3e 16 4e 6a be
       0.039619505 0.06920224 0.12694676 -0.2288135
000310 98 77 27 3d 97 06 09 bd de 3a 58 be bd ac 77 be
       0.040885538 -0.03345355 -0.21116206 -0.24186988
000320 f1 41 c1 3c 2a 2b 2f 3e 7c 36 03 3d 58 11 e4 bd
       0.023591014 0.1710631 0.032034382 -0.111361206
000330 8c 22 82 3d 6c 2f 1b bc 0f ee f4 bc d3 85 48 3e
       0.063542455 -0.0094717555 -0.029898671 0.195823
000340 fd 43 e4 3d 50 f2 04 3e 51 43 46 bc a8 88 ad ba
       0.1114578 0.1298306 -0.01210101 -0.0013239579
000350 b0 6f 30 3e a0 b6 26 bd cb 05 50 3e 4c 3e d1 bd
       0.17230105 -0.04070151 0.2031471 -0.1021696
000360 3e 97 0e be 94 f1 38 3e 3c e2 9f bd 4e 84 39 be
       -0.13924882 0.18060905 -0.07806823 -0.18116876
000370 21 0c c9 3c a8 6f 7c 3d 63 83 b8 bd 9e 88 78 be
       0.024541916 0.06162992 -0.09009435 -0.24270865
000380 84 40 0a 3d c7 0a 81 3d 51 2d 0d 3d 07 c6 15 be
       0.033752933 0.06300884 0.034467045 -0.14626323
000390 3e 1d 46 be 48 7a 80 3d 1b 79 68 3e 53 13 1f 3e
       -0.19347093 0.06273323 0.22702448 0.15534715
0003a0 16 e8 04 be 18 61 b5 be 86 c6 4c 3d 3b db 4f be
       -0.12979159 -0.3542564 0.049994014 -0.20298474
0003b0 89 81 f3 bd 11 73 cb 3d 22 31 72 bd f8 d9 62 be
       -0.11889941 0.099340566 -0.059128888 -0.22153461
0003c0 3e 81 90 3c 13 fe aa bb 27 9a 5e 3e 2e 77 06 bd
       0.017639752 -0.0052182763 0.21738492 -0.032828502
0003d0 52 d7 f8 3d 29 34 39 be 53 a4 22 be 54 ea 1a be
       0.12150444 -0.18086304 -0.15882997 -0.15128452
0003e0 9f 89 fd bd 3a 69 11 3e e9 e3 d7 3d 51 f0 9b 3d
       -0.12379765 0.14200297 0.10541517 0.07614196
0003f0 62 ac 66 3c 75 fe 1e 3d ae 82 93 bd c0 89 25 be
       0.014079185 0.038816888 -0.072026595 -0.16165829

encoder.net.5.bias f4 [32]
000000 18 32 ac 3d 7d 8d d2 bd 0e 8a 7b 3d c8 d6 a1 bd
       0.08407992 -0.10280893 0.061410956 -0.079022944
000010 0a 12 9e 3d 68 99 a2 bd b1 07 8b bd f5 d1 89 3d
       0.077182844 -0.07939416 -0.067885764 0.06729499
000020 a1 d2 71 bd 39 f1 87 bd b8 07 87 bd 8c 67 83 bd
       -0.059038762 -0.066378064 -0.06593269 -0.064162344
000030 15 9d 89 bc 69 d6 59 bd db 36 93 3d 16 23 c1 bb
       -0.016798535 -0.053182993 0.07188197 -0.005894075
000040 89 3b 8d bd ce 09 8d 3d 19 18 6f bd cd bc 39 bd
       -0.06896121 0.06886636 -0.05837259 -0.04534607
000050 bd 6d 1a 3d d7 73 32 bd d3 9d 5c 3d e6 49 4e bd
       0.03770231 -0.043567505 0.05386145 -0.050363444
000060 1e 5e 13 bd 57 d9 8f 3d 5e 87 ac bd c6 99 f2 bc
       -0.03597843 0.07023876 -0.08424257 -0.02961434
000070 31 dd 47 3d f2 6c 86 3d 87 f9 90 bd 53 29 e3 3d
       0.04879493 0.065637484 -0.070788436 0.11091866

predictor.net.1.weight f4 [32, 32]
000000 ac 6f 89 bc 35 a6 18 3e d9 a3 20 bd e9 8b 96 3d
       -0.016776882 0.14907153 -0.039218757 0.073509045
000010 7d 18 99 3e e8 33 2b bc 93 39 cd bd d6 f6 00 bd
       0.29901496 -0.010449387 -0.10020747 -0.0314854
000020 0a 7e 94 3d 2e f5 2c 3e d1 75 e5 bd 4f 12 ce bd
       0.072506025 0.16890404 -0.11204112 -0.10062086
000030 d6 03 e5 be db b1 b8 3c 19 43 eb 3b 3d c9 3f 3e
       -0.4472949 0.022545746 0.0071796295 0.1872911
000040 37 8f c4 3c aa 59 84 3d 6a 52 44 be 00 10 78 bd
       0.023994071 0.064624146 -0.19172063 -0.060562134
000050 18 3e f9 3d fc 3d 87 3d ef 9e 0c bd ae 58 92 3d
       0.121700466 0.066036195 -0.03433126 0.071458206
000060 c6 24 02 be 36 5c 58 be 70 12 64 3d f8 f2 bf bb
       -0.1270934 -0.21128926 0.055681646 -0.0058578216
000070 62 db 13 bd 3e 4b 22 3e 46 84 82 be a0 29 7b be
       -0.03609789 0.15849015 -0.25491542 -0.24527597
000080 de b6 46 3b cf fe bf bc 80 e7 d5 ba 5a 23 19 be
       0.00303214 -0.023436932 -0.0016319603 -0.14954892
000090 c3 f9 29 3e 9e d7 1f bd d7 9f a1 be 52 f8 35 be
       0.16599183 -0.039023988 -0.3156726 -0.17770508
0000a0 52 6d 6f be 58 5b 45 be 11 9b e1 bd 45 28 b9 3c
       -0.23381546 -0.19273126 -0.11015905 0.02260221
0000b0 64 9e e2 3d 6f f6 1f be a3 b6 38 be f3 9d d9 3e
       0.11065367 -0.1562135 -0.1803842 0.42503318
0000c0 da 5e df bd 9d c0 18 be f3 6c fb bc 62 38 71 bd
       -0.109067634 -0.14917226 -0.0306916 -0.05889166
0000d0 99 8f 08 be 9f e1 1b bc 4f 2b 16 3e ed 89 5c 3c
       -0.13336028 -0.0095142415 0.14664958 0.013460618
0000e0 17 83 c1 bd 15 90 03 3d b7 b5 89 be eb eb 18 be
       -0.094488315 0.03211983 -0.2689645 -0.14933746
0000f0 31 4b 1b bd 54 19 2e be ad 80 a5 3c 62 54 5f 3e
       -0.037913505 -0.1700185 0.020202959 0.21809533
000100 37 d7 05 bd 19 18 2b 3d 4f 83 ee 3d 37 3e 4c 3e
       -0.032675948 0.04177103 0.11646139 0.19945608
000110 71 00 31 3e 50 be bb bd 07 a4 a7 bc b7 c5 e0 be
       0.17285325 -0.091671586 -0.020463957 -0.43900844
000120 65 31 b3 3c 93 57 05 3e f5 34 a3 bb dc 83 85 be
       0.02187414 0.13021688 -0.004980678 -0.26077163
000130 ca 86 21 3d e8 41 09 3e 29 39 2a 3e 5d 66 aa bb
       0.039435185 0.13404047 0.16623367 -0.005200191
000140 cb 67 ec 3d bf 39 f2 bb a1 51 da bd 4f 9c 7d be
       0.115432344 -0.007392138 -0.10660101 -0.24766658
000150 81 59 92 3c d6 e7 66 bd e4 1b db 3e f8 4d db 3d
       0.017864944 -0.05637344 0.42794716 0.10708231
000160 e5 20 8e 3c 2a 5e 4b be c1 42 32 be cc 79 98 3d
       0.01734967 -0.1986014 -0.17408277 0.07445106
000170 2b d8 bd 3c fd 5e 3f 3e 4e 61 f4 bd 4d 44 33 be
       0.023174366 0.18688579 -0.11932622 -0.17506523
000180 ea 18 25 be f0 34 90 bc 10 c2 3d be a4 4c 65 3c
       -0.16122785 -0.017603368 -0.1853106 0.013995323
000190 68 8d f9 bd c6 0b 77 39 ce 4c b8 3e 11 e5 67 bc
       -0.12185174 0.00023560142 0.35996097 -0.014153735
0001a0 79 60 39 3d e7 12 23 3d f5 06 94 bb b6 a5 77 bd
       0.04525802 0.03981295 -0.004517431 -0.06046077
0001b0 91 db 16 be 54 85 9b 3d 11 73 81 bd 4f 1d 2a be
       -0.14732195 0.0759379 -0.06320775 -0.16612743
0001c0 07 6e 2d bd 3b b4 ae 3c 16 19 08 3d 15 81 6a 3d
       -0.04234126 0.021326175 0.03322705 0.05725201
0001d0 e6 b1 ef bc c7 b4 92 bd 78 97 44 3e af 97 53 3e
       -0.029259633 -0.07163387 0.19198406 0.20663331
0001e0 c3 db 93 3c 2c 94 06 be 5d af 84 bd 89 59 cf 3d
       0.018049126 -0.1314246 -0.064787604 0.10124499
0001f0 f7 57 5b 3d e9 9d 71 3e 73 21 3c 3e 8f 31 ac ba
       0.053550687 0.23595394 0.18372135 -0.0013137328
000200 16 34 a5 3e 0a b1 9c be 02 07 45 3e 1c 69 fd bd
       0.322663 -0.3060382 0.19240955 -0.12373564
000210 60 97 98 3e f5 05 f8 bd 32 e8 92 3d 30 7a 68 3d
       0.2980299 -0.12110511 0.07173194 0.056757152
000220 dd 13 90 3d e7 4d aa 3d dc fb 89 bd 42 2d bc be
       0.070350386 0.0831564 -0.067374915 -0.3675328
000230 a1 d7 d3 38 83 27 91 3e c6 aa 14 be f5 ce 99 bd
       0.00010101428 0.28350458 -0.1451827 -0.07510177
000240 7c cf 8b 3c 9a 94 e9 bd dc 96 61 be 76 af f5 3d
       0.01706671 -0.114052966 -0.22030205 0.11996357
000250 69 d6 62 3c b4 1a 8c bc 14 e9 0a be 53 a3 a0 bd
       0.013845065 -0.017102577 -0.13565475 -0.078436516
000260 a8 d7 45 be d3 32 75 3d 7b 41 bb bc db 07 26 3e
       -0.19320548 0.059862923 -0.022858372 0.16213934
000270 28 96 ef 3d 49 21 5f 3e 21 9f 87 3d 43 01 7f be
       0.11698562 0.21790041 0.06622148 -0.24902825
000280 17 38 28 be e6 ce 8c bc 1b e6 0f be 96 b0 12 3e
       -0.16427647 -0.0171885 -0.14052622 0.14325175
000290 13 d1 e8 3d 65 c9 68 bd 38 57 59 be b9 43 9d be
       0.11368003 -0.05683269 -0.21224678 -0.3071573
0002a0 f6 e5 57 3e 97 ef 4d be 30 53 aa 3d 5a da 9c bb
       0.21083817 -0.20110928 0.08316648 -0.0047867717
0002b0 9e ab 87 be 87 95 29 be e9 e3 03 3e 0f 4d 1e bc
       -0.2649812 -0.16560946 0.1287991 -0.009661927
0002c0 a9 f5 97 3c b7 9c a1 bd 8c 98 b2 3d ec c7 48 bd
       0.018549757 -0.07891219 0.08720502 -0.049018785
0002d0 07 cd ad bd 55 c0 4d be ac 3d 82 bd 44 2c 74 be
       -0.084863715 -0.200929 -0.06359419 -0.23845011
0002e0 ad b7 7f 3e ff 64 65 be 07 8c 15 3e 25 2a 95 3d
       0.2497241 -0.22401808 0.14604197 0.07283429
0002f0 46 bd 80 3e 34 8a 98 3c 2e 0a d3 bd 1f cd f1 bd
       0.25144404 0.018620588 -0.10304676 -0.11806702
000300 b1 1c 97 be b5 bb cb 3d d4 f7 27 3e 9e 0a 4b bd
       -0.29514077 0.09947912 0.16403133 -0.049570672
000310 ca 9a 59 be 14 97 e1 3e f4 3f 7d 3c 24 08 7b be
       -0.21250454 0.44060576 0.015457142 -0.24514824
000320 c1 85 1f 3e 75 e1 19 be 88 5a 41 be 27 0b c8 be
       0.15578367 -0.15027411 -0.18882191 -0.3907101
000330 7a f8 bc be 49 b5 0a 3e 99 fa 9a 3d a6 46 a8 3d
       -0.36908323 0.13545717 0.07567329 0.082166
000340 8a 52 af 3d 13 fe 4b be 06 e8 ed bc b3 17 9d 3d
       0.08560665 -0.1992114 -0.029041301 0.07670536
000350 4b 06 10 3d 42 45 a3 3e c5 c8 98 3d 04 9b 8a bd
       0.03516225 0.31888777 0.07460169 -0.06767848
000360 54 7b d5 bd 39 0e 7b 3d 4b 97 46 be 0f f6 4c bd
       -0.104239136 0.06129286 -0.19393651 -0.050039347
000370 74 84 f7 bd d6 8c d5 bd 01 b6 34 3e 22 a0 2e 3d
       -0.1208581 -0.10427253 0.17647554 0.042633183
000380 58 9f 55 3c 59 c4 ec 3d 1a 2c 21 be 33 45 f5 bd
       0.013038479 0.11560888 -0.1573948 -0.11976089
000390 91 6f 6b bd 72 97 af 3d 7f 90 54 bc 84 47 09 3e
       -0.057479445 0.08573808 -0.012973904 0.13406187
0003a0 8a c8 77 be 99 cf 66 3e 91 cc 2f 3e 0d cc ba 3d
       -0.24197593 0.2254013 0.1716788 0.09120951
0003b0 c3 7d 53 3e aa da 5f 3c bb c7 a1 3d 90 53 9a bd
       0.20653443 0.013662973 0.07899424 -0.075354695
0003c0 5d e1 ac 3e 59 06 33 3e 13 a0 01 be ff 18 ef bd
       0.3376569 0.1748289 -0.1265872 -0.116746895
0003d0 07 7e 29 be 72 cb 90 3e ae 34 38 bd 77 d4 f8 3d
       -0.16551982 0.28280216 -0.044972114 0.121498995
0003e0 d1 ec c7 bd 6d 4f 9b be 0d 68 8b be 1e da 82 3e
       -0.09761966 -0.30334035 -0.27227822 0.25557035
0003f0 9b 88 fc 3e 3b 43 f6 bd 8c c7 63 bd 19 e3 88 3e
       0.49322972 -0.12024542 -0.055610225 0.26735762

predictor.net.1.bias f4 [32]
000000 58 f2 04 3e 74 f4 1a 3e 53 a6 2c be a9 0d 26 3e
       0.12983072 0.15132314 -0.16860323 0.16216148
000010 69 9b 79 be 18 50 0d be 34 a9 36 3e d4 84 5a 3e
       -0.2437569 -0.13800085 0.17837983 0.21339732
000020 c8 4c 0d be f1 04 0f be d4 1f 21 be f2 56 16 3e
       -0.13798821 -0.13966729 -0.15734798 0.14681605
000030 dd a7 0d 3e f7 b6 27 be f3 bc 0c 3e 4f 94 98 be
       0.13833566 -0.1637839 0.13743953 -0.2980065
000040 0a 53 0f 3d 8a 76 31 be 0f 19 0d be 85 05 92 3e
       0.0349913 -0.17330375 -0.1377909 0.28519836
000050 11 9b 11 3e 1a bc be 3d 9a 91 0d be 9b c9 18 3e
       0.1421931 0.09313221 -0.13825074 0.14920656
000060 c4 33 c5 3e b3 8c 55 3e ed ff f1 3d c1 54 0c 3e
       0.38516057 0.20854454 0.11816392 0.13704206
000070 4d c9 8d 3e 44 4d 2f 3e 94 22 1c be d7 87 c0 bd
       0.27692643 0.17119318 -0.15247566 -0.094009094

predictor.net.3.weight f4 [1, 32]
000000 8d 24 9e 3e b0 80 ec 3d 34 71 b7 bd 82 ad 1a 3e
       0.3088726 0.11547983 -0.08957139 0.1510525
000010 ca 16 1c be 09 60 72 be c0 c6 b5 3d 48 f0 75 3d
       -0.15243068 -0.23669447 0.08875799 0.060043603
000020 43 da e1 bd f4 e4 40 be 73 5b c4 be 86 d8 28 3e
       -0.11027958 -0.18837339 -0.3835102 0.16488847
000030 c4 e5 52 3e 78 e6 db bd 54 2c 2a 3e 0f 24 14 be
       0.20595461 -0.10737318 0.16618472 -0.1446688
000040 04 04 f6 3a eb 0f 85 bd b3 1c d2 bd 98 e8 87 3d
       0.0018769507 -0.06497177 -0.1025938 0.066361606
000050 fb e0 c1 3d 10 bd d6 3c 64 1a 48 be 58 2c ed 3d
       0.0946674 0.026213199 -0.19541317 0.115807235
000060 35 d0 44 3e 0f 08 0a 3e 72 26 03 3e 4d df 4c 3e
       0.1922005 0.13479637 0.12807634 0.20007057
000070 ed ed e2 3d 8a 15 0d 3e 1b 47 82 be b2 6a 07 bd
       0.11080537 0.13777748 -0.25444874 -0.033060737

net.0.weight f4 [60, 35]
000000 d6 ac c0 3b be c4 62 3e f0 d2 1c 3e 41 5f 16 3e
       0.0058799786 0.22145364 0.15314841 0.14684774
000010 06 24 41 3e fe 14 c5 be e5 ca 57 be ee df cc bd
       0.18861398 -0.38492578 -0.21073492 -0.10003649
000020 6f 39 1f be dc 55 15 3e ef d2 70 3e 85 58 0f be
       -0.15549253 0.14583534 0.23517965 -0.13998611
000030 1b 8b 21 3c 20 53 82 3e b4 3e a1 3d 56 b4 b6 be
       0.0098598255 0.25454044 0.07873288 -0.3568446
000040 fe c9 8b 3e fd 3c e0 3c bb 37 09 3e aa 8c 1d 3e
       0.27302545 0.027372831 0.13400166 0.1538569
000050 5e 63 3d 3d e3 78 9a bd 67 4e 32 bd c7 ea 92 3e
       0.046237342 -0.075425886 -0.0435318 0.28694746
000060 10 b2 8d bd 4e 61 be bd 96 6f 8a be bc ef 9d bd
       -0.06918728 -0.09295903 -0.27038258 -0.07711741
000070 1a 33 1c be 8f 87 77 3e d0 cd a0 bd 12 a2 1e be
       -0.15253869 0.24172805 -0.078517556 -0.15491512
000080 fa b9 4c be 24 4d d7 3c 81 e3 b3 bd 69 e1 1d 3d
       -0.1999282 0.0262819 -0.08783627 0.038545046
000090 4e 18 60 3c e9 fe 96 3d 44 e1 af 3d d9 b0 e9 bd
       0.01367767 0.07372839 0.08587888 -0.11410684
0000a0 3c cc 42 3e 52 77 39 3d 03 35 3b 3d 69 1a e4 bd
       0.19023222 0.04527981 0.045704853 -0.1113785
0000b0 92 6d 08 3e 62 cf f1 bd 74 a1 18 3e 92 d1 b7 bd
       0.13323048 -0.11807133 0.1490534 -0.08975519
0000c0 dd 6a d9 3c a7 c4 ad 3d cd 58 6f 3a 4d 80 15 3e
       0.026540214 0.08484774 0.0009130359 0.14599724
0000d0 ec 9a d9 bd ff dd 43 be aa c7 0c bd 9a cc ee 3c
       -0.10625252 -0.19127654 -0.034370102 0.029150296
0000e0 4a bd 18 bd 41 fd f9 bd 30 f5 34 3e 48 37 13 3d
       -0.037289895 -0.122065075 0.17671657 0.035941392
0000f0 f7 12 28 bd 14 ac 0d 3d 94 df b1 3c fa 70 35 be
       -0.04103371 0.034587935 0.021713056 -0.17718878
000100 3a ab 18 3e 67 bc 3d bb 57 a8 46 bd 36 b7 18 be
       0.14909068 -0.0028951408 -0.048500385 -0.1491364
000110 c2 98 49 3d ff fa d4 3c 5a 19 14 bd 8b 91 26 be
       0.049217947 0.02599859 -0.03615699 -0.16266458
000120 0a d4 9e bd 6d 0d 4b be 0a d3 84 bd b7 5b 30 3d
       -0.07755287 -0.1982934 -0.06485565 0.043056216
000130 37 76 27 be f2 9b f8 bd 4b 5f e0 bd b0 87 ac 3d
       -0.16353689 -0.12139119 -0.10955676 0.08424318
000140 f8 37 b1 bd e6 84 ae 3c 89 25 1c 3c 82 e9 16 3e
       -0.08653253 0.021303605 0.009530433 0.14737514
000150 7b 2a c0 bd cd 20 78 bd b8 86 62 bd eb df ad be
       -0.093831025 -0.060578156 -0.05530426 -0.33959898
000160 98 45 6d bc 69 f9 3f bd 5a 15 10 3e 9f 83 4e be
       -0.0144819245 -0.046868715 0.14070645 -0.20167397
000170 b7 a5 86 3d 54 ca 81 3d c7 a2 02 be 75 6e aa 3c
       0.06574576 0.06337419 -0.12757407 0.020804623
000180 06 52 0a 3e dc 08 a0 bd 2f 16 b3 3e fe d5 5b be
       0.13507852 -0.0781419 0.34977862 -0.2146835
000190 a8 ce 4b bc 97 f0 44 3e 58 b8 d6 3d 3c 48 58 3e
       -0.012439407 0.19232403 0.104843795 0.21121305
0001a0 01 d4 40 bd 25 20 98 bd 89 79 5a 3d 4a 16 c9 bd
       -0.047077183 -0.07428006 0.05333856 -0.098187044
0001b0 09 44 dc 3d e5 63 06 3e 00 06 db bd c9 44 a3 bb
       0.10755164 0.13124044 -0.10694504 -0.004982565
0001c0 76 d4 a6 bd e2 5c dd 3d 01 1e 33 bd 40 1f e3 3d
       -0.081459925 0.108087316 -0.043729786 0.11089945
0001d0 4f 71 6f 3b 6f bc b7 3d 30 07 b7 3d 71 b8 24 3d
       0.0036536043 0.08971488 0.08936918 0.04021496
0001e0 a2 5c 3e be 15 12 86 3d 44 b2 06 3e 90 41 ee b9
       -0.18590024 0.065464176 0.1315394 -0.00045443745
0001f0 af 39 c9 bd ec 43 54 be b8 9b b3 bc d3 cd cd be
       -0.098254554 -0.20729035 -0.021924838 -0.40196094
000200 8c 38 cc bd 90 e8 1b 3e 98 9e 33 3e 16 00 96 bd
       -0.09971723 0.15225434 0.17540967 -0.07324235
000210 d5 89 82 3d 9d 0c 10 3e 5c 6e 19 3c 0e d9 16 3e
       0.063739456 0.14067312 0.009364691 0.14731237
000220 bd 0f 08 3e 9f a0 00 bd ac 40 b4 bd b3 37 f6 3d
       0.13287254 -0.03140318 -0.08801398 0.120223425
000230 c3 b5 0b be 82 1f 1a 3e f1 7c 29 be 7a 3a 77 3e
       -0.13643555 0.15051082 -0.16551568 0.24143401
000240 fe 25 98 3d 85 95 1a be 82 fb 84 3d f5 c8 80 3d
       0.074291214 -0.150961 0.06493284 0.062883295
000250 14 ba 20 be 76 5d 8b 3c b4 2f de 3d 35 ce 9e bb
       -0.15695983 0.01701234 0.108489424 -0.004846359
000260 40 06 39 3e 36 39 a0 3b fa 81 10 be 9b ce f4 3b
       0.1806879 0.0048896326 -0.14112082 0.0074709184
000270 51 d1 94 3d 33 04 69 3c fe 7a 80 3e 74 cc 48 bd
       0.072664864 0.014222193 0.25093836 -0.049023107
000280 1d ba b3 3c 0a 01 b0 be df b1 b5 be 99 59 40 bd
       0.021939332 -0.34375793 -0.35487267 -0.046960447
000290 27 c1 64 3d 5f 28 2a 3e 70 c4 05 be 6e 53 25 3e
       0.055848267 0.16616963 -0.13063216 0.16145107
0002a0 e7 55 79 3d b9 d7 b0 bc a8 76 0e 3e 32 f8 0f 3e
       0.06087294 -0.02158724 0.13912451 0.14059523
0002b0 6a 28 8e 3e 47 20 b7 3d 6f 2f cb bd cd 9a a9 be
       0.27765208 0.08941703 -0.099211566 -0.33125916
0002c0 13 f7 ce bd 07 dc 03 bd d2 c0 15 be c0 c7 cd 3d
       -0.101057194 -0.032192256 -0.14624336 0.10047865
0002d0 c1 14 87 3d 15 b9 d1 3d 9b 1c 9c bd 48 29 3a be
       0.06595755 0.1024038 -0.076226436 -0.1817981
0002e0 57 b4 c0 3c d8 3d ec 3c c9 3e 59 bd 10 06 a2 bd
       0.023523493 0.028838083 -0.053038392 -0.079113126
0002f0 83 a0 72 bc 6a 2e f4 bc bb b0 86 3d e9 87 43 bd
       -0.014808777 -0.029807288 0.065766774 -0.047737036
000300 e5 bf 1e 3b e2 0a 13 bd d9 34 08 3e 92 7c 6b 3c
       0.0024223265 -0.03589905 0.1330141 0.014372962
000310 72 0e 77 bd 2f 39 37 bd 00 6c 8f be 3c 48 24 be
       -0.06031651 -0.04473227 -0.28012085 -0.1604318
000320 c8 4e 5b 3e 1b 49 b2 bd 71 50 fc 3c b3 2e 62 be
       0.21416771 -0.0870535 0.030800076 -0.22088127
000330 c1 0e 90 bd 96 0c 98 bd af 6f 9a bd b8 d0 95 3d
       -0.07034064 -0.074242756 -0.07540833 0.073152006
000340 3f 95 5d 3d 2e f1 6b 3e c9 03 30 3e dd cc af bd
       0.05409741 0.23041221 0.17188944 -0.085839964
000350 43 c4 8f bc 4a 64 5e 3e c3 e6 41 be eb 5b 57 bc
       -0.01754964 0.21717945 -0.18935685 -0.013144474
000360 dc 3f 1c be 4c bd fa 3d 46 05 5a bc fe 5f 62 3e
       -0.15258735 0.12243137 -0.013306921 0.2210693
000370 7c 44 0d be 8d a5 46 be 00 73 15 be 0f 96 3f 3d
       -0.13795656 -0.1939909 -0.1459465 0.046773966
000380 d5 ba 1b be 97 9f 4a 3b 90 54 91 3a 72 77 a1 bd
       -0.1520799 0.0030917877 0.0011087824 -0.078841105
000390 1f bc 2d 3e 53 f0 a5 3d ad 3e aa 3d a8 d2 a7 3e
       0.16966294 0.08102479 0.08312736 0.32777905
0003a0 d6 b6 87 bd 04 e9 85 3d 90 e4 1b 3c 70 bb 6c bd
       -0.0662667 0.06538585 0.009514943 -0.05779594
0003b0 a4 8a e8 3d a4 10 ce 3d a8 94 0f bd 21 3f f5 bd
       0.113545686 0.10061768 -0.03505388 -0.119749315
0003c0 3b 64 37 bd fb bc 0a bd 8b d5 43 3d 9c b8 57 3e
       -0.04477332 -0.033871632 0.047811072 0.21066517
0003d0 f2 b5 f9 3c 80 bb bf 3c cc dc 5d be b0 d2 9e 3b
       0.030482266 0.023404837 -0.21666259 0.0048468933
0003e0 22 1d 3b 3d 97 1f 2f 3d 2f 96 96 3c 7a 1d 5a 3e
       0.04568208 0.042754736 0.01838216 0.21300307
0003f0 5f 99 45 3e 4d 3e 64 be 2b 47 0d be 46 04 51 3d
       0.19296788 -0.22289391 -0.1379668 0.051029466

net.0.bias f4 [60]
000000 87 9b 0d 3e dc 4d 7a 3d 55 e4 f4 bd 53 63 37 be
       0.1382886 0.06110941 -0.119576134 -0.17908983
000010 7f 58 97 bd dd b8 e8 bb 0e 3d 11 bd c3 d0 13 3e
       -0.07389926 -0.0071021155 -0.035458617 0.14435105
000020 db 0c 2a 3d 4e 41 0d 3e b3 f8 ff 3d 09 a0 53 bd
       0.041516166 0.13794443 0.124986075 -0.051666293
000030 a3 13 bb 3d d0 10 ee bd e9 aa 17 be fd 32 1c bd
       0.09134605 -0.116243005 -0.14811291 -0.038134564
000040 22 35 0c be fe f5 4e 3d b9 27 de bc 86 34 c7 bd
       -0.13692144 0.050527565 -0.02711855 -0.09726815
000050 00 0d d9 bd de 6c 18 be af cc f0 bc 6b e2 03 be
       -0.10598183 -0.1488528 -0.029394476 -0.1287934
000060 60 66 88 bc 31 49 b8 3d e3 5e 08 be 87 45 ea bd
       -0.016650379 0.08998335 -0.13317446 -0.114390425
000070 65 13 6c 3d ba 0a 3e 3d e7 a5 c9 bd 4a 63 2f be
       0.057635684 0.04639695 -0.098460965 -0.1712772
000080 d7 cf ec 3d d9 14 49 3d 5f c8 46 bc 9f be 3e bd
       0.1156308 0.049092147 -0.012132733 -0.04656851
000090 28 08 ce bd 02 aa 07 bd a1 c4 76 3d 38 61 8a bd
       -0.100601494 -0.033121116 0.060246114 -0.06756824
0000a0 03 0d 59 bd 4a b1 1c be ab 9b 13 be 77 c7 3c bd
       -0.052990925 -0.15302005 -0.14414851 -0.046088662
0000b0 70 e1 a5 bc 13 f2 65 bc 0d cc 1e 3e b4 3c c6 bd
       -0.020249099 -0.014034766 0.15507527 -0.09679547
0000c0 08 88 09 3e 04 7a ec 3d 2d 8c dc 3d 20 5d dc bd
       0.13430798 0.1154671 0.10768924 -0.1075995
0000d0 7f e7 58 3b 16 15 74 bc 4a 64 54 3d f8 22 21 bb
       0.0033096967 -0.014897605 0.051853456 -0.0024587493
0000e0 df 79 b6 bd d2 16 a6 bd 5c 8f f8 3d 31 e1 66 bb
       -0.08909964 -0.081098214 0.12136719 -0.003522944

net.2.weight f4 [60, 60]
000000 bc cb 78 3d d3 7e 90 bd a8 8d 01 be 82 d6 03 bc
       0.06074117 -0.0705544 -0.12651694 -0.008046748
000010 57 66 8c 3d 5f 62 a2 3d 21 68 c0 3d 40 8a 1f 3d
       0.06855457 0.07928919 0.09394861 0.038950205
000020 d3 36 af bd 2f ab 00 3c 19 6b c8 3d 2d a9 a2 bd
       -0.08555379 0.007853313 0.09786052 -0.07942424
000030 34 f8 51 bd aa 26 4b bd ab d9 19 3d 01 19 e7 3d
       -0.051262096 -0.04959742 0.0375611 0.11284066
000040 41 01 8f bc e8 45 df bd 84 db 76 3e cf 26 47 3e
       -0.017456653 -0.109020054 0.24107176 0.19448398
000050 7d 69 0d be 8c f0 cf 3d 0a dc 00 3e a7 00 37 3e
       -0.13809772 0.101533026 0.12583938 0.17871343
000060 68 4f 9d bd 2f 75 e3 bd 7f 46 01 3e 7c f5 f1 3b
       -0.07681161 -0.11106335 0.12624548 0.0073840003
000070 65 38 57 be 51 69 09 be 82 72 4d be b8 17 28 3d
       -0.21017607 -0.13419081 -0.20063213 0.041038245
000080 0d 03 96 3b fa e5 06 3d 46 5c 98 bd d4 98 1e 3e
       0.0045780004 0.032934166 -0.07439475 0.15487987
000090 24 fd ae 3c e4 c1 cc 3d 31 7f 5b 3c da b0 5c bd
       0.021360941 0.09997919 0.013397024 -0.053879596
0000a0 08 0b c7 bd 02 b1 b2 3d 78 0e 1d 3c 4b d4 92 bd
       -0.09718901 0.08725168 0.009585969 -0.07169398
0000b0 cf f6 a5 3d 1d 35 88 bd 91 6b 41 bd ab 34 13 bb
       0.08103716 -0.066507556 -0.047221724 -0.0022461812
0000c0 b6 ae f1 3d b4 98 11 3e e4 21 52 3e 16 a7 32 be
       0.118009016 0.14218408 0.20520741 -0.1744655
0000d0 11 70 b1 3d 24 70 13 3e 72 a3 e0 3d 30 9e 79 3d
       0.08663953 0.14398247 0.10968675 0.060941875
0000e0 92 af 2e 3c af 1a 8b 3d 87 d8 a6 3c 4a 44 58 3e
       0.010661976 0.06792199 0.02036692 0.211198
0000f0 7c 7a 38 be 90 32 33 3d 55 96 f2 3a 2b 54 03 3e
       -0.18015474 0.043749392 0.0018507937 0.12825076
000100 12 72 1c 3e d3 0e b9 3d b9 28 81 3d 0e 6e 9f bd
       0.1527789 0.090360306 0.06306595 -0.07784663
000110 29 e1 3d 3d c5 f6 be bd b0 af c9 3d 83 5a 93 3c
       0.046357308 -0.09324411 0.09847963 0.017987495
000120 e2 f5 81 3b 46 dc 9d 3d c8 b9 b0 3d 16 2b f7 bc
       0.003966079 0.077080294 0.08629185 -0.030171912
000130 ff e0 d8 3d 04 f1 b4 bb ae 44 04 3e f2 43 f1 3d
       0.105897896 -0.0055218954 0.12916824 0.11780538
000140 ed 74 bc bb 57 0e 9e bd 76 07 ad bd a2 77 69 3d
       -0.0057512433 -0.07717579 -0.08448689 0.056998856
000150 1a 4a 71 be 5f dc 28 be 0c 63 10 bc 3f 76 84 3d
       -0.23563424 -0.16490315 -0.008812677 0.06467866
000160 29 b8 23 3d bd 2d c8 3d 9f 62 55 bc f8 6b 74 3d
       0.03997055 0.09774349 -0.013024001 0.05967328
000170 3d 56 e8 3d 23 13 e8 3d 61 f2 42 3e fa 4a 95 bd
       0.11344574 0.11331775 0.19037773 -0.07289691
000180 a8 d7 4e 3e 8c 1c 7e bd 7b 71 93 3d 7d d7 32 bc
       0.20199454 -0.062038943 0.07199379 -0.010915634
000190 4c 61 10 bd 66 a9 16 3d 16 84 b8 bd f7 36 8a 3e
       -0.03524904 0.036782645 -0.090095684 0.2699506
0001a0 17 9e 01 3d 71 19 8a 3d 8f c5 25 3e 3a 05 5a be
       0.031644907 0.06743134 0.16188644 -0.21291056
0001b0 d0 3c 0b 3e a8 1c 9d bd 1a c9 12 bd b9 c1 18 be
       0.13597417 -0.07671481 -0.035836317 -0.1491765
0001c0 32 23 e7 bc a1 7b 07 3e dc 10 35 be 9a 51 ff bd
       -0.028215025 0.13230754 -0.17682213 -0.12466736
0001d0 cc ba 8e 3d 89 6e 94 3c 5c c0 20 3e f4 85 06 3d
       0.069692224 0.018119114 0.1569838 0.03284259
0001e0 b7 cb 1a be 83 69 5a bc e8 47 0d be a1 e3 00 3e
       -0.15116774 -0.01333082 -0.13796961 0.12586834
0001f0 bc e1 86 bd e1 c6 a5 be c6 80 80 3d af b1 74 bd
       -0.06586024 -0.32378295 0.062745616 -0.059739765
000200 c8 38 b4 3d b1 0d d5 bc bf cd 20 bc 85 da b5 3d
       0.08799893 -0.026007505 -0.009814679 0.0887957
000210 9d ac 48 be 3c fa 4c bc fa 40 06 3e 3b 91 02 be
       -0.19597097 -0.012510832 0.13110724 -0.12750714
000220 84 9e f7 bd d4 29 ba bd 42 4e 18 3e 5a 1c 2f 3e
       -0.12090781 -0.09090009 0.14873603 0.17100659
000230 5b a7 32 bc 0e 87 8f be ce 5b dd bd 6f 25 4c 3e
       -0.010904158 -0.28032726 -0.10808526 0.19936155
000240 4d b6 86 3d 00 de 1b bd 7d 8d 3d 3e 32 7c 38 be
       0.0657774 -0.038053513 0.18511005 -0.18016127
000250 f2 03 a3 bd ec 0e bb bd 76 ef 04 be b2 39 ff bd
       -0.07959737 -0.091337055 -0.12981972 -0.124621764
000260 e7 90 12 3e ab f6 70 bd d0 9c 84 3e 2c 75 e4 bd
       0.14313088 -0.05882899 0.25900888 -0.11155161
000270 ba a0 45 be 78 41 51 be 07 76 52 3e d1 f2 4d 3d
       -0.19299594 -0.2043513 0.20552836 0.050280396
000280 ba e1 07 3e bd bc d0 bd 35 4b 2d be 53 05 25 bc
       0.13269702 -0.10192249 -0.1692322 -0.01007207
000290 f3 1a 20 be 73 5f 6f 3e bb 12 3e 3e 69 0f 07 3c
       -0.1563528 0.23376255 0.18561833 0.00824342
0002a0 8d cb 64 3e 8f 69 93 3d 2a 0b a9 bb 72 ad 01 3d
       0.22343273 0.07197868 -0.0051588016 0.03165955
0002b0 93 37 33 3e 0e 61 8c bc fd b4 cd bd 4b 28 3f 3e
       0.17501669 -0.017136123 -0.100442864 0.18667714
0002c0 25 23 ad bd 23 ba a8 bd cd 73 e1 bd be fe 07 3d
       -0.08453969 -0.08238628 -0.11008415 0.033201925
0002d0 bf fd a0 3d 10 a2 1f be c4 53 78 be d4 3d ad bb
       0.07860898 -0.15589166 -0.24250704 -0.0052869115
0002e0 4c a7 77 3d 47 cf d3 3d 00 36 cb bd 63 22 9f 3b
       0.06046228 0.103422694 -0.09922409 0.004856394
0002f0 e5 fe 87 3e d1 09 24 bd 1b 1e 3f 3d 1b 56 fc bd
       0.26561657 -0.040048424 0.04665957 -0.12321111
000300 13 94 18 be 32 36 03 3d 27 67 2a 3e 1a 50 ce 3d
       -0.14900236 0.032034107 0.16640912 0.10073872
000310 34 aa 4b bd 41 bb be be d0 f6 68 bc 19 84 f8 bd
       -0.049722865 -0.37252238 -0.014219001 -0.12134571
000320 f3 56 d4 bd ab 37 fe 3d 87 08 16 be d1 29 f4 3d
       -0.10368147 0.124129616 -0.1465169 0.11922038
000330 d3 32 1e 3c 77 c1 cb bd 07 33 0f 3d cd 1b a1 3d
       0.009655672 -0.0994901 0.034960773 0.07866631
000340 1b c0 12 bd 6d 90 7d be e3 3c 2b be 0e 12 63 3d
       -0.035827737 -0.24762125 -0.16722445 0.05543714
000350 d9 c2 a2 3d 3b 1b 04 3e 30 4f 53 3d 1c e7 d0 3d
       0.079473205 0.12901013 0.05158919 0.102003306
000360 4e ff c9 3d a4 7b 5c be 79 26 4c 3d 85 be 1a bd
       0.09863149 -0.2153154 0.049841378 -0.03777935
000370 cb 3e da be c6 6f 59 bd 5c 4c 0a 3d ab 2e df bc
       -0.42626032 -0.05308511 0.03376423 -0.027243933
000380 31 5c 0b 3e f5 b6 26 be 27 f1 a8 3d b3 0c 04 3e
       0.13609387 -0.1628073 0.08249121 0.1289547
000390 a4 45 d1 3d 93 62 d7 bb 38 da 02 be 3d 49 56 3d
       0.10218361 -0.0065730303 -0.12778556 0.05231594
0003a0 d3 21 48 bd 27 74 4d be d4 2d e4 bd ee 24 8b 3d
       -0.048860382 -0.2006384 -0.111415535 0.06794153
0003b0 6d 72 17 bc 18 f9 de 3c b6 41 3d bc 80 1d ee 3d
       -0.00924359 0.027218387 -0.011551311 0.116267204
0003c0 8a cc ec bd c8 67 f8 3c 2c 42 1d bd da 28 b8 bd
       -0.1156245 0.030322924 -0.038393185 -0.08992167
0003d0 1f 12 92 3d fb fe 4f be c1 6c 53 bd 27 ee 8d bd
       0.071323626 -0.20312111 -0.051617388 -0.069301896
0003e0 2b a6 19 bd d8 32 87 bd 28 00 18 3e df de d8 bd
       -0.037511986 -0.066014946 0.1484381 -0.10589384
0003f0 87 5b 82 bd 8f 0f 97 3e d5 ac 7f 3d 14 e5 75 be
       -0.06365114 0.29504058 0.062420685 -0.24013168
