results of reviewer/XJTU results/4-4/Experiment9/model.pth (torch, 59838 bytes, 14 tensors)

encoder.net.0.weight f4 [60, 17]
00000000: 2233 813e ad30 8f3d 284d 35bd 2ded c2bc
00000010: bc00 31bd 5916 67be 628e 12bd fa30 1c3d
00000020: 757f 0cbe d370 163e ad0a c1bc 9880 a6bd
00000030: 20a7 6cbd 0b51 0b3e f583 c03d daa9 1d3e
00000040: c16b 8b3e 397f 503d 0d5e eabd 2e1b 4b3d
00000050: 8e35 083e 843c 07be 652c e9be cfa8 b33d
00000060: 506f 1a3c 01bb 6abd ec8d ccbd 9170 86bd
00000070: e4c7 df3e 92e0 89be 44f3 b43d d431 b0ba
00000080: f633 913d a841 25be db0e 263e 0539 133e
00000090: cd71 51bd e617 493e db22 bc3d b457 27bd
000000a0: 89db d4bd 1889 44bd d7e7 4b3e 050a 26bd
000000b0: a18d 993d 2a7e 4dbb 77cc 253e 662f b43d
000000c0: 36ad f9bd db46 8fbd 3aa3 d1bd 5dc8 b0bc
000000d0: 71ba 9abd 0a5b 9cbe 4938 8fbe 9313 cabc
000000e0: ea89 6e3d 1105 1abe 791b b1be ab4e f93c
000000f0: d8ed bc3d 9ddc 19bb c395 44be f518 363e
00000100: a07a b83d 1ffb bd3d edaf 4e3e 897e 2b3e
00000110: 3319 06be b3ab 8b3c eae9 8e3c 45bc 06bd
00000120: 3b93 543d 7759 73be f6de d53d 66df 26be
00000130: b0a4 b6bc 6710 373e e7ec c3bd 314b 89be
00000140: 62ca 04be 2087 af3d f868 833d 608a 92bd
00000150: 5351 a3bd a561 993e ea39 8b3e b7e1 e9bd
00000160: 0075 6b3e f89e de3e 8ad9 2dbe 848f c5bd
00000170: a77c bcbd bb46 83be 39e9 443d 22f3 3cbe
00000180: 2c95 e8bd a86d bf3e e817 0dbd c463 52be
00000190: e764 0f3e 7032 92bd be32 a5bd 546c 9a3e
000001a0: 9205 42bd 995d e3bd 3993 1ebd 6b6f 9c3e
000001b0: 558e e3bd 2be2 0ebd 42c5 073d f892 163e
000001c0: 5f72 a13b 41a9 cdbc eed8 a63b bdbb ddbd
000001d0: faf6 59be 0903 1cbe 9154 173e c0fe a1bc
000001e0: 649b ab3c efca aebe 2b89 8c3d d17e 73bd
000001f0: 96a8 7e3e b694 b03d 32c0 e6bc bae2 763b
00000200: 8669 423e 24ac 8c3d 6720 70bc 7cee 1bbe
00000210: 82db d3bc 6240 3e3d 9642 a7be a9c9 2a3e
00000220: 9774 1fbd d147 7f3d 17a2 a73e 4d42 d9be
00000230: 2997 15be 5d43 0c3e 8a51 89bd 9147 db3d
00000240: 6d84 85be 5fbe 913c 7f1d d1bd 85c1 55be
00000250: 966e 45bd a7c5 03be 7668 0d3e 07ce 8b3e
00000260: 2aea 883c f74d 5cbe 4ac9 0bbe 7f1e b33d
00000270: 19a6 3dbe 468f ccbd fd24 94bd 2098 463c
00000280: f890 8dbb 013e b1bd 870b ad3d e615 bc3c
00000290: f66c 0a3e 7f75 6c3e 137d e33c c352 113e
000002a0: 4f9b 67bd 3d59 a0bc 0aea c2bd 3277 32be
000002b0: b8f8 26bd e9df 8ebd 2cba 2dbd 6d87 0b3e
000002c0: 830d ab3d 01cd b43d 8a3c ee3c 1de3 ce3b
000002d0: 808b c93d dd3d 043b 60eb 053e 4e97 4a3c
000002e0: b29e 04be c198 5abe 3b2c 19be 5d46 e93d
000002f0: e870 96bd 2c7e de3d 3844 673e d6e1 9b3d
00000300: 3792 cabb ae38 743d df2b 4b3e 8dc3 0d3d
00000310: 8ee1 9e3d 7922 2abe 5708 683d e187 a83c
00000320: 46e7 2d3b 0af6 55be 1811 243e b7b7 4d3d
00000330: f929 053e 3e9b 09be a8cd 0dbe 20bc 8f3c
00000340: 4567 e13d 2475 39ba d04b a6bd 2275 103d
00000350: 79cb 453e ef20 9dbe 4259 2f3e ae46 883d
00000360: 8799 c6bb c21c 1ebe 83e7 003e 428c 04be
00000370: df5a 26be 2ae5 aa3b 9d47 3f3e 28f9 8d3d
00000380: 6bcb a3bc db11 93bc fae7 44be 8040 59bd
00000390: edbb 8dbd d2b7 3ebe acd6 ccbd 0803 a93d
000003a0: 3f35 b5bd 776d 9d3e 7729 f53d ca18 14bc
000003b0: 995f e23d 7bea 50bd 2b84 813e b88c 3ebd
000003c0: d66c 883d a8fb e03b a893 b03d b589 98be
000003d0: 4005 493e f6b0 0ebd b848 8a3c 3e0d a1bc
000003e0: fa12 8f3d 0182 a1bc 288d 92be 7f9b 823d
000003f0: 55c6 003e 2706 1ebb 63cd bc3d 48dc b0bd
0.25234324 0.06991706 -0.044263035 -0.023794735 -0.04321359 -0.22567119 -0.035780318 0.038132645
-0.13720496 0.14691477 -0.02356466 -0.08129996 -0.05777657 0.13605134 0.09400169 0.15396824
0.27230647 0.05090258 -0.1144372 0.049586467 0.1330168 -0.13206679 -0.45541683 0.08772432
0.009425953 -0.057307247 -0.09988007 -0.06564439 0.43707192 -0.26929146 0.08835462 -0.0013442584
0.07089989 -0.16138327 0.16216604 0.1437722 -0.05113392 0.19638023 0.09186336 -0.040855125
-0.103934355 -0.047982305 0.19912659 -0.0405369 0.07497717 -0.0031355717 0.16191278 0.08798103
-0.121912405 -0.069959365 -0.10236211 -0.021579916 -0.07555092 -0.30538207 -0.2797263 -0.024667537
0.058236994 -0.15040995 -0.34591272 0.03043302 0.092250526 -0.0023477443 -0.19197755 0.17782958
0.09007764 0.09276413 0.20184298 0.16747488 -0.1309555 0.017049646 0.017445523 -0.03289439
0.051898222 -0.23764597 0.10442917 -0.16296157 -0.022295326 0.17877351 -0.0956667 -0.2681518
-0.12967828 0.08570695 0.064165056 -0.07155299 -0.07974496 0.2995731 0.27192622 -0.11420005
0.2299385 0.4348066 -0.16977516 -0.09646514 -0.09203463 -0.256399 0.04807398 -0.18452123
-0.11356577 0.3738835 -0.034446627 -0.2054587 0.14003335 -0.071385264 -0.08066319 0.30160773
-0.047368594 -0.11101837 -0.03871462 0.30553755 -0.11111132 -0.03488366 0.033147104 0.14704502
0.004926964 -0.02510512 0.005091778 -0.10826824 -0.2128562 -0.15235533 0.14778353 -0.019774795
0.02094812 -0.341392 0.068621 -0.059447113 0.24868998 0.08622114 -0.028167818 0.003767176
0.18985566 0.06868771 -0.014656163 -0.15227693 -0.025861505 0.04644812 -0.3266799 0.1667849
-0.038929548 0.06232435 0.32740852 -0.42433396 -0.14608444 0.13697572 -0.067050055 0.107070096
-0.26077595 0.017790971 -0.10210704 -0.20874603 -0.048201166 -0.12868367 0.1380938 0.27305624
0.01671322 -0.21514116 -0.13651004 0.08746051 -0.18520392 -0.09988265 -0.072336175 0.01212123
-0.00432026 -0.086544044 0.08449464 0.02295966 0.13518128 0.23091696 0.027769601 0.14191727
-0.0565446 -0.019573802 -0.09517296 -0.17428282 -0.04076454 -0.06976301 -0.042413875 0.1362588
0.083521865 0.08828164 0.029081602 0.006313695 0.09841061 0.0020178475 0.1307807 0.012365175
-0.12951162 -0.21347333 -0.14958279 0.11390374 -0.07345754 0.10863909 0.22584617 0.07611434
-0.006181981 0.059624366 0.19840954 0.03461032 0.07757865 -0.16614713 0.05664858 0.020572605
0.0026535555 -0.20894638 0.16022146 0.050224032 0.13004293 -0.13438126 -0.13847983 0.01754576
0.11006025 -0.0007074645 -0.08119929 0.035267957 0.193159 -0.3068919 0.17123893 0.06654106
-0.0060607824 -0.15440658 0.12588315 -0.12944129 -0.16245602 0.0052153068 0.18679662 0.069322884
-0.019994458 -0.01795285 -0.19229117 -0.053040028 -0.069206096 -0.1862481 -0.10001883 0.08252531
-0.088480465 0.30747578 0.119707994 -0.009039113 0.1105339 -0.051004868 0.2529615 -0.04652092
0.06661384 0.0068659373 0.08621913 -0.29792562 0.19630909 -0.03483673 0.016880378 -0.019659635
0.06986041 -0.019715311 -0.2862332 0.06377315 0.12575658 -0.0024112554 0.09218862 -0.08635765

encoder.net.0.bias f4 [60]
00000000: e3d9 0fbd 5c3a 3abd c51a 5bbd 2f1d 3c3d
00000010: feef 23bd e598 133d 77ce cfbc 3d78 99bd
00000020: d5be 2fbd 4321 3cbd f26f 2abd 3ee8 adbc
00000030: 0de6 7c3d c513 a03d f6ae 47bd eb5d 43bd
00000040: ce5e 3ebb f199 5abd 3851 873c 43cc 253c
00000050: d57b 5ebd d68b 0cbc d21f 3c3d 9db5 45bd
00000060: 895d 753d 5ab1 80bd 6902 c83d 3fd0 933b
00000070: 8802 af3d e6ed 923c 7c03 843d 49d8 aa3c
00000080: 3d9f 073d 721d 08bd 353c 4b3d 5dfc 51bd
00000090: 68ae 9ebd 37f7 003d a234 2dbd b82e f2bc
000000a0: 2737 a13d e714 843d bac2 35bd e56a 46bd
000000b0: a1df 7b3d df3b 2dbc e1bf da3c 7abc 86bd
000000c0: c45d 9ebc aaf1 5a3d a92d 653d c3c8 b0bd
000000d0: 32d4 cf3c 290f 2fbd 690c 5dbb 7bc2 34bd
000000e0: 6599 383d 4a62 893d ba20 bd3c 593c b03d
-0.035119902 -0.045465812 -0.053492326 0.04592627 -0.040023796 0.036034483 -0.025367005 -0.07493637
-0.0429066 -0.04593016 -0.041610666 -0.021228906 0.06174283 0.07816271 -0.04875084 -0.04769699
-0.0029048207 -0.053369466 0.01651822 0.010119501 -0.054317314 -0.008578261 0.045928784 -0.048268903
0.059903655 -0.06283827 0.09766085 0.004510909 0.08545405 0.017935704 0.06445977 0.020855086
0.033110846 -0.033231206 0.049617965 -0.051266063 -0.07748109 0.031485762 -0.042286523 -0.029563293
0.078718476 0.06449299 -0.04437516 -0.048441786 0.061492566 -0.010573356 0.026702823 -0.06578918
-0.01933182 0.053453125 0.055951748 -0.08632042 0.025369737 -0.042739067 -0.003372932 -0.044130784
0.045068163 0.067082 0.023086894 0.086052604

encoder.net.2.weight f4 [60, 60]
00000000: dffb 51bc ee74 bdbd 6537 6c3c dfce 8b3d
00000010: 9db3 b33d b640 2dbe 8f72 963d 01ba 1e3e
00000020: 2c01 70bc 032d 23be d778 5e3d 8919 bc3d
00000030: 3961 203e 9cda 223e fe94 35bd db33 e93d
00000040: 62ca 853d 5cbf 7d3d ccb1 e53c e80a 89be
00000050: 5731 493d 1d65 73bd fef3 003e 440b 0c3d
00000060: 5002 27be 5ecd 483e 95ea 163d 023d 6b3e
00000070: dffc 673d 49e3 033d 01a6 0b3e 1b62 29bd
00000080: 80e5 03be 8d5c bebc f86a 22bb 7364 e83d
00000090: bad5 ce3d 4d89 c13d 360e abbd 31b8 8ab9
000000a0: e66f c3bd 0cbc 923d 9a44 6cbd 125c 6d3d
000000b0: b5f8 033e 5416 e2bd cc14 c2bd 639c 73be
000000c0: 011f 77bd 4d4c 42bd 6c01 f83d 2c53 783e
000000d0: 5dac c03d fe93 60bd f4a8 243b c22d af3c
000000e0: 2d1a 273d 0598 103e b3fd d93d c06b 2f3d
000000f0: e955 883e 358f acbd 121f bc3d 577f 1b3d
00000100: 412c d1bd df95 23be 847e 8bbd 5373 70bd
00000110: 9678 0fbe 849d 703c 8947 dabd 8863 c43d
00000120: 7dc4 223e 4c26 953d 4b56 ec38 bae3 c5bd
00000130: d3d2 393d 2d76 623e eff5 9f3d 051f 28be
00000140: 0fca 46bd 640e 793d b6fc b6be d6e3 463e
00000150: 41a7 57be 04b6 a6bc 4b65 193d f522 88bd
00000160: d3e7 a5bc 8fd1 d1bb 83ee 0b3e 413c f53a
00000170: 12f1 e3bd 5606 52bd 2717 5dbe 9531 e63c
00000180: e67e cf3d b350 9bbe b8a2 003d 61b3 83be
00000190: b929 2cbe 6348 663d b72f ce3c 91c6 b0bd
000001a0: 92d9 a2bc 5fee 3d3b 02ad 903d 0719 463e
000001b0: b601 7dbd 1f56 dabd 01d8 523e 3015 9bbd
000001c0: ecce d83c 040a 573d 2911 cbbc 41da f33d
000001d0: 1347 04be a25c 8a3e 9d7a af3c 4a64 92bc
000001e0: d53e 483d 6143 8abd 05c5 8b3d c7f8 e43d
000001f0: 04a1 1a3e 3db7 5e3d 0453 cbbd 31b6 b53d
00000200: a14a c7bc 04d8 cf3d 9fa2 903e 2524 4d3e
00000210: 7190 63bd 8d45 07be c9fb 9ebe ca19 f93d
00000220: ee9a da3d 01d7 a03d ea6e ac3d f697 11be
00000230: 44fe 01be ae2b d5bc e5d4 b63d 0e6f 013e
00000240: 160e 52bd c608 bc3d e403 a83d e960 17be
00000250: 09de 373e b70a 863c d736 29bd b66d 9fbd
00000260: f7dd 1e3d 47ab 883c a514 0abe c3ff 263d
00000270: a7a3 8cbd 2aa3 cc3d ab9e b9bc ea6a c53e
00000280: dc33 443e f07f 213e 374f 20be 35bd 18be
00000290: 128c 0b3e 13a6 34be cf57 c23b 0a2b 97bd
000002a0: 65d7 fa3d e9df 52bd f111 e23c 2f6e 6c3d
000002b0: 6a1f 733d bd67 523d 198f a13c 406b 17be
000002c0: bb70 ce3c bf11 463c de59 c83c bcbb 183e
000002d0: c66a 013d 954d 483e cacd 753e bac5 d73d
000002e0: a94e 3d3e 76fc 64be 996a 3abe 7636 2d3e
000002f0: 6ba1 8ebc 55b3 d4bd feac 61bd a75c 843d
00000300: b523 4b3e 8bf7 67bd 0a0e 9dbd 5268 5f3e
00000310: aeaa d83d 0cbb b93d 7c81 6a3d 031f 8dbd
00000320: 2de7 363e 3e37 463c 954d 94bd 98f7 a63d
00000330: 7505 66bd d03b 99be 1611 35bd a415 67bb
00000340: c3f9 3ebd a567 a63c f53e 693e 7ca1 2cbe
00000350: 4dec 29be cf71 393e 6f5c d13d 8ecc bf3c
00000360: 71c1 64bd 2c57 2f3d 8f89 3d3e 4136 f63c
00000370: aa90 b73e 1cb3 5e3e 8fdb 4ebe 3e49 b5bd
00000380: f5ea 6abe 671c 83be 4363 083d a3ce a3bd
00000390: 7982 e3bc 9a15 13be ff73 063d cf7e ff3d
000003a0: 8085 a93c 030d a1bd 9d71 083e 8a16 d03c
000003b0: 6781 c03d 3ac2 bbbd ec48 12be 934d 4e3e
000003c0: a0f4 a8bd b7a4 3a3d d868 d33c 1945 b73d
000003d0: c189 133e 71b2 c13d cc50 8ebc 8f1d f63d
000003e0: 686e da3d dc14 c4bd ef45 9f3e 42ea 46bc
000003f0: fd46 093e 8209 40be 00f9 ecb6 9045 893d
-0.012816398 -0.09250818 0.014417504 0.06826567 0.08774493 -0.16919217 0.07346069 0.15500642
-0.014648717 -0.1593514 0.05431446 0.09184558 0.15662088 0.15903705 -0.044331543 0.11386844
0.06532742 0.061950073 0.028038882 -0.26766133 0.04911932 -0.0594226 0.12593076 0.03419043
-0.16309476 0.19609591 0.03684481 0.22972491 0.05663764 0.032199178 0.13637544 -0.041353326
-0.12880516 -0.023237491 -0.0024782997 0.11347284 0.10099359 0.09450016 -0.0835232 -0.00026458644
-0.09542827 0.07164773 -0.05768261 0.057949133 0.12887843 -0.11039415 -0.09476623 -0.23790126
-0.060332302 -0.047436047 0.12109646 0.24250478 0.09407876 -0.054828636 0.0025125118 0.021384124
0.040796448 0.14120491 0.106440924 0.042827368 0.26628044 -0.08425752 0.09185614 0.037963238
-0.10213519 -0.1597514 -0.0681124 -0.05870373 -0.14010844 0.014685992 -0.106581755 0.095892966
0.15895267 0.07282695 0.0001126943 -0.09662576 0.045367073 0.22115393 0.0781058 -0.16418083
-0.04853254 0.06080474 -0.35739678 0.1942285 -0.21059896 -0.020350464 0.037450116 -0.066472925
-0.020252144 -0.006403155 0.13665204 0.0018709974 -0.11129965 -0.051275574 -0.21590863 0.028099814
0.10131626 -0.30335006 0.03140518 -0.25722793 -0.16812791 0.056221377 0.025169237 -0.086316235
-0.019879136 0.0028981192 0.070642486 0.19345485 -0.06176921 -0.106609575 0.20590211 -0.075724006
0.026465856 0.052499786 -0.024788456 0.11906863 -0.12917738 0.27023798 0.021420771 -0.017870087
0.048888046 -0.06751133 0.06824688 0.11180263 0.15100485 0.05437397 -0.09927943 0.08872641
-0.024327578 0.101486236 0.2824907 0.2003332 -0.055557672 -0.13210125 -0.31051472 0.12163122
0.10674082 0.07853509 0.08419593 -0.14218125 -0.12694651 -0.026021805 0.08927325 0.1264002
-0.051282965 0.09181361 0.08203867 -0.14783062 0.17955793 0.016362531 -0.041312065 -0.077845976
0.0387859 0.016683234 -0.13484438 0.040771257 -0.06867152 0.099920586 -0.022658667 0.3855813
0.19160408 0.1577146 -0.15655218 -0.14915927 0.13627651 -0.17641477 0.0059308778 -0.07381256
0.122481145 -0.05148307 0.027596446 0.057722267 0.05935613 0.051368464 0.019721555 -0.14787006
0.025200238 0.012089192 0.024456915 0.14915365 0.031595968 0.19560845 0.24004284 0.1053576
0.18487038 -0.22361931 -0.18204726 0.16915306 -0.017410954 -0.10385767 -0.05509662 0.064629845
0.1983784 -0.05663256 -0.07668693 0.21817139 0.105794296 0.090688795 0.057252392 -0.06890681
0.17861624 0.012098132 -0.0724136 0.081526935 -0.056157548 -0.29928446 -0.044205748 -0.0035260702
-0.04662491 0.020313093 0.22777922 -0.16858476 -0.16594048 0.18109821 0.102227084 0.023412969
-0.055848543 0.042807743 0.18509506 0.030055167 0.35852557 0.21748012 -0.20200942 -0.088518605
-0.22941191 -0.25607607 0.03329779 -0.07998397 -0.027772175 -0.14363709 0.032825466 0.12475359
0.02069354 -0.0786381 0.1332459 0.025401372 0.093996815 -0.09167905 -0.1428563 0.2014678
-0.082497835 0.04556724 0.02580683 0.08948726 0.14408018 0.09457863 -0.017372511 0.120173566
0.106655896 -0.09574291 0.31108043 -0.012140812 0.13405986 -0.18753627 -7.0623355e-06 0.06702721

encoder.net.2.bias f4 [60]
00000000: 3f26 3bbd 778c bc3c 0087 b23d 6e11 6a3d
00000010: 7479 3bbd 2b61 26bd bf00 2ebd fa21 983d
00000020: cd07 62bd 5be9 13bd f5ad 2cbd b956 243d
00000030: 1abe 7bbd 4111 953d 46f5 ec3c 8601 68bd
00000040: aa88 713d 6c46 14bd 877f 1b3d 6a69 523d
00000050: f787 20bd af06 5fbd 86d4 503d 31d5 babc
00000060: 6ef5 b13d f24a eabc 6a15 a63c 47af 663d
00000070: cc22 5a3d c727 19bd 5bfd 8e3d 8fb9 1cbd
00000080: 7a1e 433d 0c82 53bd 665e b03d 0477 dc3c
00000090: 79f9 49bd 531b d43c 885f a9bd 587c 523d
000000a0: a3d6 873d 69fe 23bd 88de 2e3d f5e3 523c
000000b0: b0b3 44bd b833 083d 5c8b 60bd fe4b 153d
000000c0: 469e a03d 9012 a63d 3988 7b3d ced8 6ebc
000000d0: 225a 4c3d 2790 4b3d cd23 583d e240 9abd
000000e0: 4df3 4a3d 778f 03bd e58e dcbc ff63 363d
-0.04569077 0.023016198 0.087171555 0.05714553 -0.045770124 -0.04062001 -0.04248118 0.074283555
-0.05518322 -0.036111217 -0.042158086 0.040121768 -0.06146059 0.072786815 0.02892555 -0.056642078
0.058968224 -0.036199972 0.037963416 0.051370062 -0.039192166 -0.054449733 0.05098393 -0.022806736
0.0868939 -0.02860019 0.020273883 0.0563195 0.05325584 -0.03739145 0.069819175 -0.0382629
0.047636487 -0.051637694 0.08611755 0.02691222 -0.04931018 0.025891935 -0.08270174 0.051388115
0.066327356 -0.040037546 0.04269269 0.012871732 -0.048022926 0.033252448 -0.054820403 0.036449425
0.07842688 0.08109009 0.06140921 -0.014578057 0.049890645 0.04969802 0.052768517 -0.07531907
0.049548436 -0.03211924 -0.026923606 0.044528957

encoder.net.5.weight f4 [32, 60]
00000000: d20a 99bd c8e6 2cbd 4d36 5bbe 028d a13d
00000010: 3598 33be aa46 04be ee8f 1abd 1d1f ad3d
00000020: b81c 1cbe f13e f73d 1faf bc3c 6204 953b
00000030: 204d 183e a3de 1d3e 18c7 d53d 8d96 873d
00000040: a6b6 d7bc ae23 76bc e904 fd3d ec00 513e
00000050: f4a3 bb3d 6a2a d5bd bbc0 173e a935 3ebe
00000060: bcd0 0e3e be71 4abe 9e96 e5bc 2743 ac3c
00000070: 5b04 6ebe 33dd 3abe d98c 313d 15cb 793d
00000080: c0db 49bd 657e 81bc f0f7 1c3c d9f2 2bbe
00000090: 9744 003e 2c4b 7c3d 9054 a9bd 2dfc 9d3d
000000a0: 9a65 87bd cc5a 3d3e a5e4 67bd e318 eebe
000000b0: 555f 74be 1e65 1d3a feca f8bd 0e7f a73d
000000c0: 6b69 ce3d e780 02be 14c2 12bd 0275 35be
000000d0: d982 d6bd 6ba7 aa3d 76ab f23b ee0b 8ebc
000000e0: e2ee 3a3e 88a4 cbbd 18a1 cd3c f446 9cbd
000000f0: 026b 0e3e d75d 8b3b 1cab 553d cb4c 85bd
00000100: 0bbc 30bd f3e6 5e3e 62a5 aebc 2e53 273e
00000110: caf0 b0bb 6d3e ff3c 3279 073d bdc6 06be
00000120: f1da 9cbd 99cd 0cbd f875 84bd fe8d 24bc
00000130: 0465 92bd 4cb5 80be 5881 823e d994 9d3d
00000140: ed4d 9d3c ad33 193e aba6 0b3e 7c8d 343e
00000150: f4e8 febd 8b24 95bd 8c46 bf3e 2bae dfbe
00000160: d80b 3dbd 645a 31bd 88a5 063e bebf 38be
00000170: 9cb0 71be b460 68bc 1b2d 743e c4ab 743d
00000180: e0e0 433e 8ba0 85be 6408 e63d 7612 6bbe
00000190: 2551 9ebe 0425 033e 9469 423d da12 083e
000001a0: d2e9 e4bd e588 7b3d f7bc 29be d02c 493e
000001b0: 3c5a 5a3e e9ff 95bd e06b 69bd be0e edbd
000001c0: f31a 533e b1ab 56bd cf92 2cbe 1951 073e
000001d0: 0009 103e 92a6 0fbe 420e dbbd 95e1 ccbc
000001e0: 97d7 333d d856 a0bd 1ce2 9b3e b424 f8bc
000001f0: da5c 23bd f12e 873b 5e96 613d d44f 97bc
00000200: 729a 133e fa6b 94bd a259 ea3c 9d9a 42bd
00000210: bbd2 4d3e 1971 a43d 91ad a73c 8a3e f8bd
00000220: ea50 c1bd 0369 d53d 0bb8 c1bd 478d a4bd
00000230: 801d 653e 25f7 ef3c 43bb a93d bc95 a73d
00000240: ecd1 003e 41c9 553e f00f 2bbd 647d e3bd
00000250: abfe 30be 13b8 1a3e ed93 573e 9716 203c
00000260: af77 74bd ab36 24be ccc7 883d 6320 75bd
00000270: 82e9 7f3e 9811 bf3d 61a6 753d f1f9 00be
00000280: 310a 2c3d 0f61 0b3e c5aa 64be f440 2ebe
00000290: 7ac0 04be 318b 02be 1a73 97be 3b69 c5bd
000002a0: 7007 9b3d bfb5 bfbc e61c d5bd 4adf 63be
000002b0: 66d5 bd3d d8e2 e3bd e8da 2abd 851f 92bd
000002c0: f4ef 183e 0e3f e23c d882 193e cf0a a83d
000002d0: 2ec8 62bd e644 8cbc d1df d6bd 4245 703c
000002e0: 815a 263c eaba 08be 1ebf 6fbe 9fb6 5bbe
000002f0: a2c9 b4bd ccfe 123e cb7d 6c3c c8ed 13be
00000300: 4b92 ee3d b0b4 1dbe 1745 da3c 5576 793c
00000310: 9242 573e d956 693e e677 bf3d f318 c63c
00000320: a898 53bd 9fdb 803e bd25 563e d1c7 773e
00000330: caca ab3d 9468 e73d 7bfa 44bb 8119 353e
00000340: dd78 bb3d 774e 41bc 5348 6a3d 1136 703d
00000350: af35 50bd ecbd e63d c967 10bc 31e8 b1be
00000360: c560 eb3d 1339 163b 8a49 05be 0793 32be
00000370: c9e0 f93d 3a39 0f3e d4dc febc 4385 2d3b
00000380: 411f d3bb 4e72 3d3d 10aa 9c3d f291 83bc
00000390: fb05 53bd c465 19be 3918 af3d 29d7 153e
000003a0: 775f 11be 0ce1 773d ea56 abbc 49f9 213a
000003b0: ddf0 3fbd 25b7 f5bc 27e7 e0bc 527e 2d3d
000003c0: 9925 943e 824a d8bc ec28 dabd 0d86 f7bd
000003d0: 147a a63d f5f9 dd3d 80ab d63d 5e88 123d
000003e0: f737 9f3d 9523 b83e 8669 1bbd 2064 bebb
000003f0: 02c3 a9bc fc11 e5bd 157e 2dbe 942b 17be
-0.07472767 -0.042212278 -0.21407433 0.07888223 -0.17538531 -0.12917581 -0.03773492 0.084532
-0.1524533 0.12072552 0.023032723 0.0045476416 0.14873171 0.1541696 0.10438365 0.06620512
-0.02633221 -0.015023155 0.12354452 0.20410508 0.09162131 -0.104084805 0.14819615 -0.18575157
0.13946813 -0.19769952 -0.028025921 0.021028114 -0.23243849 -0.18248443 0.043347213 0.06098469
-0.049281836 -0.01580734 0.009580597 -0.16791858 0.12526165 0.061595127 -0.08268082 0.07714114
-0.06611176 0.18491668 -0.056614537 -0.46503362 -0.23864491 0.00060041423 -0.12148093 0.08178531
0.10078701 -0.12744485 -0.03582962 -0.17720416 -0.10474176 0.08332714 0.0074056936 -0.017339673
0.18255189 -0.09943491 0.02510123 -0.07630721 0.13908008 0.00425313 0.052165136 -0.06508788
-0.04314808 0.21767788 -0.021319095 0.16340324 -0.005399798 0.031157697 0.033074565 -0.1316175
-0.07658947 -0.03437576 -0.06467813 -0.010043619 -0.071481735 -0.2513832 0.25489306 0.07694406
0.019202197 0.14961119 0.13637798 0.17632097 -0.12446776 -0.07282361 0.3735851 -0.43687567
-0.046153873 -0.043299094 0.13149083 -0.18041894 -0.23602527 -0.014183212 0.23845331 0.05973412
0.19128752 -0.26099047 0.11232069 -0.22956261 -0.30921283 0.12807089 0.04746397 0.13288441
-0.1117741 0.06140985 -0.1657599 0.19646001 0.21323484 -0.073242016 -0.056987643 -0.115750775
0.20615749 -0.05240983 -0.16852878 0.1321453 0.14065933 -0.14028385 -0.10696079 -0.02500991
0.043906774 -0.07829064 0.30445945 -0.030290939 -0.039883472 0.004125469 0.055075042 -0.018470682
0.14414385 -0.072471574 0.028607193 -0.047510732 0.20099919 0.08029384 0.020468505 -0.121213034
-0.09439261 0.1042042 -0.094589315 -0.08034759 0.22374535 0.029292652 0.082876705 0.081828564
0.12580079 0.20877554 -0.041763246 -0.11107901 -0.17284648 0.15109281 0.21052523 0.009771011
-0.05968445 -0.16036479 0.06678733 -0.05984534 0.2499142 0.093295276 0.059973124 -0.12595345
0.042001907 0.13611244 -0.22330768 -0.17016965 -0.12964049 -0.1274841 -0.29580003 -0.09639212
0.07569778 -0.023402093 -0.104059026 -0.22253147 0.09269218 -0.111272514 -0.04171267 -0.07134918
0.14935285 0.027617957 0.14991319 0.082051866 -0.055366687 -0.017122697 -0.10491908 0.01466495
0.010153414 -0.13352552 -0.23412749 -0.21456383 -0.08827521 0.1435501 0.014434288 -0.14446175
0.11648997 -0.15400958 0.026644273 0.015225966 0.21021488 0.22787036 0.09349041 0.024181819
-0.051659256 0.25167558 0.20912834 0.24197318 0.08388288 0.112992436 -0.0030056525 0.1768551
0.09153912 -0.011798493 0.05719788 0.05864531 -0.050832447 0.112666935 -0.008813807 -0.3474746
0.11493067 0.0022922202 -0.13016334 -0.17438899 0.122010775 0.13986674 -0.031111158 0.0026477135
-0.0064429347 0.046251588 0.07649624 -0.016060803 -0.051519375 -0.14980227 0.08549542 0.14632858
-0.14196573 0.060517356 -0.020915467 0.0006178809 -0.046860565 -0.029994557 -0.027453972 0.042356797
0.28934935 -0.026402716 -0.106523365 -0.12086115 0.08128753 0.10838691 0.1048193 0.03577458
0.07774346 0.35964647 -0.037942432 -0.0058102757 -0.02072287 -0.11185071 -0.16942628 -0.14762717

encoder.net.5.bias f4 [32]
00000000: ea7b 903d e239 473d a08a 4bbd 635c a4bd
00000010: 52ec 80bd 650c 6a3d 83d9 7f3d 3c40 e1bd
00000020: a0ea 5bbd 5fab 683d 3efe e8bc e368 75bd
00000030: 888f c73d 2407 6a3d d654 57bd 6f61 51bd
00000040: 64ba 6fbd c45d 363d 87c9 03bd 050a 22bd
00000050: d5d3 c8bc 202a 74bd bfd3 1dbd 324a ce3d
00000060: 00fb 2c3d 567c 4f3d e98f c73d 06ca 7e3d
00000070: dc60 523d ab6a c7bc 20c8 ad3c 95eb 42bd
0.07054885 0.048639186 -0.04969275 -0.08025434 -0.062950745 0.057140727 0.062463295 -0.1099858
-0.053690553 0.056804057 -0.028441545 -0.05991448 0.09744173 0.057135716 -0.05257114 -0.05111831
-0.058527365 0.044523016 -0.032174613 -0.039560337 -0.024515072 -0.059610486 -0.038532015 0.100727454
0.04223156 0.050655685 0.097442456 0.062204383 0.051361904 -0.024342855 0.021213591 -0.04758795

predictor.net.1.weight f4 [32, 32]
00000000: 04e6 c83c 7e31 a5bd 4ad0 dd3d f5b9 dfbd
00000010: 4eb2 1c3e 08c0 e8bd 8fd7 db3e 6b60 5ebe
00000020: 37f8 1b3e d8bd e03d 12c0 e9bc 0793 a9bd
00000030: 760e 533d 6544 c33e 0849 ffbd 4789 6c3e
00000040: 5311 ca3d f2ba 023f 6dba 9fbe 6d59 dfbc
00000050: 3746 a4bc b14f 8f3d 2863 20be fe8f 2cbd
00000060: 86d7 dbbd ced0 243d 45c1 283c 65e1 60be
00000070: 59c9 babe 8896 203e a9af 24bc beb0 333e
00000080: 3bf5 333e 01aa 563e 7c4c 91bd bf4d 0e3e
00000090: cdfa 86be 6eaf e33d cfa2 ccbd 29cd a43c
000000a0: 1888 7e3d 713d 9bbe 193e 1abd 74be 9b3e
000000b0: 35e7 c03d 5bd1 00bd 4291 f23c 3968 eabd
000000c0: c7b7 19bd 7d5a 03be be6a b7bd c36b c8bd
000000d0: 09c0 e93d 2769 113d c312 b0bd 89df 15be
000000e0: 277a c73d 444b b9bd a34f 883d 0ba3 05bd
000000f0: 31f9 853d a275 2fbe a9d7 553e 1885 803d
00000100: 26e1 5f3d e68b ac3d b476 183e 98c7 31be
00000110: 8491 babc c4d8 39be 7cc6 fabd 6c0f 41be
00000120: 0b72 933e 502b 88be ce57 8cbe 47f1 1c3e
00000130: 4636 4abd 68cf 10bd 3896 05be 31a7 d23d
00000140: 8fa2 663e 54a6 ca3d 9e69 20bc 07b1 493e
00000150: 26aa 073e b6c6 183e 8af3 98be 3549 f0bd
00000160: c340 5a3d b41d 02be 9a3a a13e 73b4 8c3e
00000170: e0c6 9dbd 9058 f7bc 3ca9 6bbe bcf9 86be
00000180: 757c 0dbe 8ec6 173c 42c2 6a3e 16d7 babe
00000190: 3705 8abd 9133 dd3d 9900 34be 4ddd c7bb
000001a0: 2559 69bd 4b65 16be b4ab cebd 0e96 893e
000001b0: 102f eebd 22c7 a23d aabd 86be db11 80bd
000001c0: 9b19 ebbd 8dc2 92be f0ba 643d b500 0fbe
000001d0: 6afc 74be 2d45 9a3d 53c5 a0bd 9635 febd
000001e0: 8f55 acbe f004 39be 4f23 243e e282 8ebe
000001f0: 0ae9 33be def5 56bc 8e5d a9bd 81fc 1abe
00000200: ca5d 2d3e 5d6d 7ebe 4d70 373d 32a4 9d3e
00000210: 150e a9be ef73 113e f1e9 dfbd d268 613d
00000220: 806f 05be 7595 23be 3dd1 953d 549b b8be
00000230: 4acc 66be 3a03 2b3e ccd6 a3bd 2be7 1fbe
00000240: f891 90bd a132 ef3d c54c afbc 6e34 b6bc
00000250: 4477 0bbe 51e2 64bd 7051 31be 2085 7cbe
00000260: 770d f63c ef40 15be 9eeb 54bc 969d 103e
00000270: f003 a0bd 4507 e2bb e248 5bbe 03af a0be
00000280: ef11 a1be 71b4 e1be 3b58 02be 74e8 8fbe
00000290: a903 b83d 9284 23bd 9a73 76bd f035 c43d
000002a0: ecc3 663d 278e 9fbd f5cc a63c eb0d 3cbe
000002b0: 7746 043e de10 2cbd f7e6 dbbd 21fe 91be
000002c0: 1f8d 3f3e 5bb3 db3e 340e 04bd c189 fe3d
000002d0: 9f11 153e de21 ae3e 6ed6 88be 4c9c b0bb
000002e0: ca2a 8f3c 0f8b b3bd 2f8a fbbd 0dbd 1a3d
000002f0: 7f7d 71bd f933 17be da09 e73d 8c73 ed3c
00000300: b00a 81bd 2645 fdbb be33 3fbd a60b e13e
00000310: 7970 0a3c 6dc9 bebc 497b 833c 46f5 0fbd
00000320: db91 f53c 36e5 a6be db8b 383e 7ee0 78be
00000330: 8289 73bd b2a0 b63d 3f32 efbb 276d 65be
00000340: 1cf9 44be 41ab 233e 77f8 ab3d bff4 5e3c
00000350: 7b71 0c3d 035a a6be 1606 db3d b068 57bd
00000360: 0f32 2c3e e617 9cbe 34aa 2ebd 6d5c 9d3d
00000370: 5094 81be f919 aa3d 307d cdbe 5d76 c43d
00000380: c307 fe3d 35c1 53be 98f1 043e bd5d c53d
00000390: 41be e1bd 60aa 5a3d 449c bfbd 9bb7 b13d
000003a0: 2c3e 9a3d 57ab df3a da06 953d 2633 a23e
000003b0: e756 35bc 92c3 593e e1cb ba3b 5e25 abbd
000003c0: 13f1 4cbe ee47 89be cef4 f13c 5b5e 71bd
000003d0: 07c3 9bbe 9880 183e 208b c03e c04d a0bd
000003e0: 09aa 273e 15cd 17be ce73 f33d d8e3 fe3d
000003f0: 6be0 3a3e 3eae e1bd 2dec cb3b 8508 fbbd
0.024523742 -0.080660805 0.108307436 -0.1092414 0.15302393 -0.11364752 0.42937896 -0.21716468
0.15231405 0.1097371 -0.02853397 -0.08279996 0.051527463 0.38138118 -0.124651015 0.23099242
0.098665856 0.51066506 -0.3119692 -0.027264321 -0.020053012 0.06997622 -0.15662825 -0.04212951
-0.10734467 0.040238194 0.010299985 -0.21960981 -0.3648174 0.15682423 -0.010051646 0.1754789
0.17574017 0.20963289 -0.07094666 0.13896845 -0.2636322 0.11117445 -0.09991991 0.02011736
0.062141508 -0.30320314 -0.037656877 0.30418742 0.09419099 -0.031449657 0.02961028 -0.1144566
-0.03752878 -0.12827487 -0.08955906 -0.09786179 0.11413581 0.03550067 -0.085973285 -0.14636053
0.097400956 -0.09047559 0.066558145 -0.032626193 0.0654167 -0.17134717 0.20883049 0.062753856
0.054658078 0.08425121 0.14889032 -0.17361295 -0.022774465 -0.18149096 -0.12244889 -0.18853539
0.28797945 -0.26595545 -0.2741074 0.15326415 -0.049368165 -0.035354048 -0.13045585 0.102857955
0.22522949 0.09895006 -0.009790806 0.19696437 0.132485 0.14919552 -0.29873306 -0.11732713
0.053284418 -0.12706643 0.31490022 0.27481422 -0.07703948 -0.030193597 -0.23013777 -0.26362407
-0.13817008 0.009263648 0.22925666 -0.36492223 -0.06739276 0.10800851 -0.17578353 -0.006099379
-0.05696978 -0.14687078 -0.100913435 0.26872295 -0.1163007 0.07948138 -0.26316577 -0.06253406
-0.11479493 -0.28664055 0.05584234 -0.13965113 -0.23924413 0.075327255 -0.078501366 -0.124125645
-0.33659026 -0.1806829 0.16029094 -0.2783423 -0.17569366 -0.013120143 -0.08269797 -0.15135385
0.16930309 -0.24846406 0.044784833 0.30789334 -0.33018556 0.14204381 -0.10933293 0.055031605
-0.13030815 -0.15974982 0.073153 -0.36056006 -0.22538868 0.1670045 -0.07999954 -0.15615527
-0.07059091 0.116795786 -0.021398911 -0.022241797 -0.13619715 -0.055879895 -0.17316222 -0.24660158
0.030035717 -0.14575551 -0.012995629 0.14122614 -0.07813251 -0.0068978393 -0.21414521 -0.31383523
-0.31458995 -0.44082978 -0.1272897 -0.28107035 0.08985073 -0.03992135 -0.06016884 0.095806
0.05633919 -0.07790785 0.020361403 -0.18364684 0.12917505 -0.042008273 -0.107374124 -0.28514197
0.18706177 0.42910275 -0.032240108 0.12428618 0.14557503 0.34010214 -0.26726097 -0.005389726
0.017476458 -0.08766758 -0.12282216 0.03777795 -0.058957573 -0.1476592 0.11281176 0.028985761
-0.063008666 -0.0077291904 -0.046680205 0.439542 0.008449667 -0.023289407 0.016049998 -0.03514602
0.029976776 -0.3259675 0.180221 -0.24304387 -0.05945731 0.08917369 -0.007299691 -0.2240492
-0.19235653 0.15983297 0.08397 0.013608157 0.03428791 -0.32490548 0.1069452 -0.052590072
0.16815971 -0.30486983 -0.042642787 0.076836444 -0.25308466 0.08305735 -0.40134573 0.095928885
0.12403824 -0.20679171 0.12982786 0.0963702 -0.11022616 0.05338514 -0.09355977 0.08677598
0.075313896 0.0017064613 0.072766975 0.31679648 -0.011068082 0.2126601 0.005700574 -0.083567366
-0.20013838 -0.2681269 0.029535677 -0.058927875 -0.30422232 0.14892805 0.37606144 -0.0782733
0.16373457 -0.14824326 0.11887322 0.124458015 0.18249671 -0.11019562 0.0062232227 -0.12257484

predictor.net.1.bias f4 [32]
00000000: 22f6 b9bd c0fd ba3d b14f 91bd c602 e93d
00000010: 801a c9bd 9d82 b1bd dc51 b53d 307f b93d
00000020: 645d 1cbd 7714 b7bd 5401 ccbd b46d d7bd
00000030: 5a24 f13d 0b50 adbd 5cd2 83bd b669 043e
00000040: 15df cbbd d1f1 d73d 0648 c7bd a5a1 8dbd
00000050: 0bde b33d f97f b5bd 181b d2bd 59b7 bf3d
00000060: 140a bd3d c2bd 07be 9553 c7bd 1fdd c63d
00000070: 7055 b63d 66d5 aebd 1c2f bbbd 002a b13d
-0.09080149 0.0913043 -0.07095278 0.11377482 -0.098195076 -0.08667491 0.08853504 0.09057462
-0.038175 -0.0893945 -0.09961191 -0.10518971 0.11774512 -0.084625326 -0.06436607 0.1293095
-0.09954659 0.1054417 -0.09730534 -0.06915597 0.08782586 -0.088622995 -0.10259074 0.09361143
0.09230438 -0.1325598 -0.09732739 0.09710144 0.08903015 -0.08536796 -0.09139845 0.08650589

predictor.net.3.weight f4 [1, 32]
00000000: 1bf1 8cbe 4a31 633e 43f6 04bd d065 8a3d
00000010: d073 70be 7c89 90be d707 833e 692e 8a3e
00000020: e7cd 4aba 95f5 f3bd f8b1 82be d436 5abd
00000030: 36da 423e 0ad0 45bd 42cf 97bc 31bc 013e
00000040: 6ed3 52bd 50cd bb3e 324e 74be 89a4 99bc
00000050: 7d8e fe3d c245 88be 6001 cdbe 7c16 6f3e
00000060: 7d1a 613e e5a8 30bd ce47 5abe d9f9 2b3e
00000070: 3f34 a13e 2187 e7bd ec91 55be 02e8 c73e
-0.275277 0.22186771 -0.032461416 0.067577004 -0.23481679 -0.28229892 0.2559192 0.26988533
-0.00077363703 -0.119120754 -0.25526404 -0.053274944 0.19028553 -0.048294105 -0.018531445 0.12669446
-0.051471166 0.36680079 -0.23857954 -0.018755214 0.12429521 -0.2661572 -0.40040112 0.23348421
0.2198276 -0.04312982 -0.21316454 0.16794528 0.31485173 -0.11305071 -0.20856446 0.39044195

net.0.weight f4 [60, 35]
00000000: 2e2e 053c beed 7dbd 66e3 94bd b9ab 4dbc
00000010: 8360 e1bd e28d cfbb 3a0b 173e 0a92 72bd
00000020: 5b32 8b3e 5703 b53c d349 1b3d 145e 01be
00000030: 93e3 473d 627c a53d 0e64 10be 2fd0 c7bc
00000040: 5144 793d ae0e 4fbe dc76 893c 65aa 053e
00000050: 4d82 583d 7aa9 053e 9786 bdbe 17f0 67bd
00000060: 527c cb3d 4a7b 033e 969c a93e 341d f8bd
00000070: cc82 2e3d 691f 323d 94fb 8a3d 32a4 043e
00000080: 0f49 a5bd 95b4 3cbe 1b86 cd3c 1b46 2c3e
00000090: 9e4c 083e a8c0 02be 17da 41be 0774 fcbb
000000a0: 5017 00bd be13 89be 07aa 7abe df7b 5e3b
000000b0: 04b4 a4be 71c5 39bd 8695 463e 6252 d03c
000000c0: f35f 64be f535 14be 747f 05bd ee97 01be
000000d0: 07bf 0fbe 373c 2f3e 37b4 0dbe cd87 9abc
000000e0: 3d7d 9d3e 93b3 d4bd ad0a 8bbe 2588 8c3c
000000f0: 0fd1 d43d 3f7c d33d 6a25 3b3e aeab f4bd
00000100: bea1 5d3e ca5f d83d 6847 a43c a18e 31be
00000110: b64f 9abe f24d 16be 3920 263c 02fd 04bd
00000120: 82d9 6a3e 01ed 33be 3533 143e cfe8 813d
00000130: 539a abbe 1548 51be dcbd a3bd 8b44 363d
00000140: 3bfc 803d 3b30 053e 40d2 0c3e 1fa9 ce3d
00000150: 7824 95bd cc1e 9d3c dae0 a63d b535 f2ba
00000160: eb02 69be 5dcb 59bd fb5e 6dbc dcc2 56be
00000170: 1b7d 1f3c aebb 94bd e467 eb3d 3d46 883c
00000180: fba0 d63d 3b6b aa3d 5dce 363e 354a 4ebd
00000190: 4032 99bd 22c9 3cbe b6e4 5f3e 6fd0 0dba
000001a0: 2be0 4d3e 8a26 273d 253c febb a306 ecbd
000001b0: 67ef 2d3e 07dc f2bd 2d73 d13d da90 0ebe
000001c0: 41d1 50bc dc97 5d3d 5746 ff3d 9007 d53d
000001d0: c034 43bd 558f 91bd e50e 2bbe a7a5 4ebd
000001e0: 5cb0 e53c 2684 d8bc fe54 f9bc 24b2 3bbe
000001f0: fbd8 ffbd d3b4 c03d a84e 69be 34c2 0bbd
00000200: 9882 13be 56f6 e73d 6b4d ffbb 3157 1dbe
00000210: 5202 22be e692 ab3d 1620 b5bc 9f4c 093e
00000220: c58d 0abe 484b 80be cacf 2bbe b52b 873d
00000230: 1fee 1abe 8b7e 123e a87b b13d dc33 e73d
00000240: 0e7d 4bbe cf63 13bd 7b96 34bd 9482 3ebe
00000250: f67a 15bc 8e50 f53d ac97 2bbe 0e75 85be
00000260: 63b8 0d3e 0a44 54bd 35a9 663e 0762 0f3d
00000270: 8f9c 0a3e d234 41be 5738 50bd fbb7 733d
00000280: a029 a5bd 78d3 0fbd fd6e 6bbe 9f90 6abe
00000290: dbf3 263c de05 76bd 1489 693d d23d e9ba
000002a0: ea4e 263e c286 a7bd bdc6 f83d 7666 173e
000002b0: 6e59 08bd c01f 60bd 85ba 8bbd 3180 153e
000002c0: 3984 d63c 6d7b c0bc 8850 11be 3855 6d3c
000002d0: 347e 853d dae3 a6bd 2e8c 6dbe 8326 ce3c
000002e0: 262e 033e e885 09bd a7c8 a53d 7347 df3d
000002f0: 0cbc 9cbd ddb6 803d 5bb1 253e 693e 1a3e
00000300: 17c4 263d e680 0abe c84c a03e b166 2abd
00000310: a663 50be b233 2b3d 6fef 41be dbe4 103e
00000320: 65b5 8f3e 12fe b7bd df83 a7be 7c7c bc3c
00000330: de21 d5ba e261 853d 477c ba3a 53b1 bf3d
00000340: 9088 02be accc bd3d 3d09 5dbb fae9 8ebd
00000350: ee6b 9e3e a8e1 41bd 3030 d9bc 79f2 db3e
00000360: 07c5 fe3d 8d4b 9f3d 5a6d 83bd 70ae 97be
00000370: c3ee fc3d 355c cdbc 504d 63bc 8b07 b7bd
00000380: 9b5b 8dbd c5bd 3dbd 5693 26bd 46f7 ccbd
00000390: 62c4 9b3e 8239 fe3d b758 383c c878 2fbc
000003a0: f2a7 993e b287 1d3e 573b 2dbe d57f 003d
000003b0: d19e 253e 4d8d cfbc f2cd 72bc 26c1 11bd
000003c0: fb99 2bbe 1f15 87be 357c d2bc a583 a63d
000003d0: 061c 203d 1f1c 593e 89f5 93be 4904 3a3d
000003e0: f69f d73d 905b d23d ea55 f13d bda3 d8bc
000003f0: 74ca 3a3d 8a14 233d 0fa6 72bd b55d c3bd
0.008128686 -0.061994307 -0.07269935 -0.012553149 -0.11004736 -0.0063340524 0.14750376 -0.059221305
0.27186856 0.02209632 0.0379122 -0.12633544 0.048801016 0.08080365 -0.14100668 -0.024391262
0.060856167 -0.20220444 0.01678031 0.13053282 0.05285864 0.13052931 -0.37016746 -0.056625452
0.099358216 0.1284 0.33127278 -0.12114945 0.042605206 0.043486986 0.06786266 0.1295326
-0.080705754 -0.18428262 0.02508836 0.16823618 0.13310477 -0.12768805 -0.18930851 -0.007704261
-0.031272233 -0.26772875 -0.24478923 0.0033948345 -0.3216859 -0.04535431 0.19392976 0.025429908
-0.22302227 -0.14473708 -0.032592252 -0.12655613 -0.14037715 0.17112814 -0.13838278 -0.018863583
0.30759612 -0.103858136 -0.27156582 0.017154763 0.10391437 0.103264324 0.18275991 -0.11946808
0.21643731 0.10565145 0.02005358 -0.17339565 -0.3013894 -0.14678171 0.010139518 -0.03246785
0.22934535 -0.17570879 0.14472659 0.06343233 -0.33516178 -0.20437653 -0.07995197 0.04449896
0.06298109 0.1300668 0.13752079 0.10090851 -0.072823465 0.019179724 0.08148356 -0.0018479141
-0.2275502 -0.053172458 -0.014487977 -0.2097277 0.009734417 -0.072623596 0.11494425 0.016635055
0.10479923 0.08321234 0.17852159 -0.050363738 -0.074802876 -0.18436101 0.2186459 -0.0005409782
0.20105045 0.040808238 -0.0077586346 -0.11524703 0.16985856 -0.11858373 0.10227046 -0.13922444
-0.0127452025 0.054099903 0.12464588 0.10401833 -0.04765773 -0.071074165 -0.167049 -0.050450947
0.028038196 -0.0264302 -0.030436035 -0.18329674 -0.124925576 0.094094895 -0.22783911 -0.034120753
-0.14405286 0.11326282 -0.0077912114 -0.15365292 -0.15821198 0.08377628 -0.022110026 0.13408135
-0.13530643 -0.25057435 -0.16778484 0.06600133 -0.15129898 0.14306085 0.08666164 0.11289188
-0.19871923 -0.035983857 -0.04408882 -0.18604499 -0.009123554 0.11978255 -0.16757077 -0.26065868
0.13839869 -0.0518227 0.22525485 0.035005596 0.13536285 -0.18867806 -0.05083498 0.05950163
-0.0806458 -0.03511378 -0.22991557 -0.22906731 0.010189976 -0.06006419 0.057015494 -0.0017794913
0.16241041 -0.0818 0.12147281 0.1478518 -0.03328841 -0.05471778 -0.06822685 0.14599682
0.026186096 -0.023496354 -0.14190876 0.01448565 0.06518212 -0.08148928 -0.23198006 0.025164848
0.12810573 -0.03357497 0.08094912 0.109023 -0.076530546 0.062848784 0.16180937 0.1506287
0.04071435 -0.13525733 0.3130858 -0.04160184 -0.20350513 0.041797347 -0.18938993 0.14149801
0.2806808 -0.08984007 -0.32717797 0.023008578 -0.0016260704 0.0651281 0.0014227711 0.09359994
-0.12747407 0.09267554 -0.003372743 -0.06978221 0.3094172 -0.047334343 -0.026512235 0.4295843
0.12439924 0.07778082 -0.064173415 -0.29625273 0.12350228 -0.025068382 -0.013873413 -0.089369856
-0.06902238 -0.046323556 -0.040667854 -0.10008101 0.30423266 0.124133125 0.01125162 -0.010709949
0.30010945 0.15383795 -0.16917168 0.03137191 0.16173865 -0.025335932 -0.014819609 -0.03558459
-0.16757958 -0.26383302 -0.025693992 0.08130578 0.039089225 0.21202134 -0.28898266 0.045414243
0.10528557 0.102713704 0.11783965 -0.026445264 0.04560323 0.03981451 -0.059240397 -0.095393576

net.0.bias f4 [60]
00000000: b6e5 cfbd c87c 08be a250 7dba f1bf 0a3d
00000010: d2cf b03d 15ec 18be 98f3 753c 9800 1d3e
00000020: 664d a2bd 8413 253e 7be6 2cbe 1a5a 243e
00000030: 815a 8b3d 7f49 36bd 9341 7ebd 6878 a2bd
00000040: ee28 e7bd b130 76bc b396 173e 3832 21be
00000050: 1967 69bd 0c84 1ebe 7638 20bd 9337 c3bd
00000060: 9890 023e 61e8 eabc 1aa0 0abe 84c3 6dbd
00000070: 8da1 0cbe 6b75 833d 6831 fabd c550 2fbd
00000080: fe6b 96bc ddb1 c3bd f87b ed3d 9041 44bc
00000090: 3846 59bd acc8 ba3d 04a2 3d3d 1b44 f6bd
000000a0: 58e6 06be 5012 05be 61e4 933d 004c 053e
000000b0: 4a63 d4bc 42d9 c1bc 503f 57bb cb94 07bc
000000c0: f709 19be c16b 0f3d 53d5 11be ba95 d3bd
000000d0: 1d9f 2cbc 21b2 2f3d e45c fabc d23b e4bd
000000e0: 6b8b e0bc ceb4 dd3b 2660 24be 200a 693d
-0.10151236 -0.1332885 -0.00096631993 0.033874456 0.086333886 -0.14933808 0.015011691 0.15332258
-0.07924919 0.16120726 -0.16884796 0.16049996 0.068043716 -0.044503685 -0.062074255 -0.07933122
-0.112871036 -0.015026257 0.14803581 -0.15741813 -0.056983087 -0.1548006 -0.039116345 -0.09532084
0.1275047 -0.02867526 -0.13537636 -0.058047786 -0.13733502 0.0641888 -0.12216455 -0.042801637
-0.018362042 -0.09555409 0.11595911 -0.011978522 -0.05304548 0.091203064 0.04629709 -0.12024709
-0.13173807 -0.12995267 0.07221294 0.13017273 -0.025926251 -0.023663167 -0.0032844134 -0.008275221
-0.14945208 0.03501487 -0.14241533 -0.103312925 -0.010535982 0.042894486 -0.030561872 -0.11144222
-0.02741023 0.0067659384 -0.16052303 0.05689442

net.2.weight f4 [60, 60]
00000000: 5659 92be e051 a93c ffe1 033e 8a87 f4bd
00000010: eaa8 e73c d820 e83d 193d 30bc f015 123e
00000020: a191 693d dff6 af3c cdb5 493d 7f63 763e
00000030: 1dd9 3b3e e062 8c3d ef50 3a3d cc50 1d3e
00000040: 962e 0e3e 8c22 95be f9b5 84be 71f7 033d
00000050: 0bec 883d b5e3 203d aec6 1f3d 6747 8d3e
00000060: bd77 75bc f6a3 513c 8015 aabc d6ae 19be
00000070: 2d73 643c 528b 1c3e 63fc a43c aa4c d0bc
00000080: 4a77 26bd fdb6 e23d 9dc1 75be baf5 83bd
00000090: 50c5 08bd c41a bc3d 4f75 10be 63d8 ad3d
000000a0: e4a9 053c 450d 5ebe e933 473e 4782 143d
000000b0: 7175 a8bc c590 8c3d d833 b03c fa2a d4bd
000000c0: 9b9a 8d3c fb25 99bd 06b2 8b3b 4042 43be
000000d0: 64d1 4fbd 4b34 573c 2a80 bfbd c4f9 33be
000000e0: 2fb7 edbd eb42 0d3d a0b3 e1bd 6ef9 24be
000000f0: 3acc 223d 6f8a 913d a48d 063d b530 9abd
00000100: 1b69 cabd 987d 66bd 6476 88bd 2249 49be
00000110: 52ae 94bd f186 85be fd50 0d3e 69d3 c1bd
00000120: 1f80 403d 23dd 643d d663 a4bd 2175 473d
00000130: f295 953d 38f0 3bbc b625 4ebd af57 073d
00000140: 1575 d43d 589b d83c bcbd b3bd a19e 91bd
00000150: 0655 aabd f132 b8bb 4701 19be 879c 053e
00000160: f6f3 2bbc ec93 0ebe b077 3abd 2f1d 75be
00000170: a5cb 1d3e 4abc 02bc 92d1 023e 862f 09bd
00000180: 1ba0 dfbc b5a6 913e d3c9 013b cbb7 54be
00000190: de00 743d ff6f b73d 5417 0ebc 3ae2 d9bd
000001a0: 300a f6bc 9510 00bd 4b06 2fbd af07 893e
000001b0: 9f3c 513c 5c86 0d3d 3c0d c3bd 1a4f e1bd
000001c0: 977f 1fbe c8b9 efbd 46e5 f43d 18fe 43be
000001d0: f0b9 ae3c 2766 36be cfca 413e e347 c7ba
000001e0: 058a cb3d 92f3 ad3d 2e7a 203e baaa 14be
000001f0: 6c16 2fbd 774a 65be f7d4 c5bc 6bdf 5fbe
00000200: ec8b 3fbe 5656 113d 3e8f 56be 3016 d03c
00000210: 5db8 513c cf72 bf3d bdda 8c3d cebc 323e
00000220: f646 4dbd a29a 883c 708b 4c3e db77 edbd
00000230: c5f1 18be ca8e 19be abeb 6ebe 15a0 943c
00000240: 996d a4bd 175e 433e c734 c5bd 4039 2cbd
00000250: a800 083e 1d51 333d e2e9 0dbd 321a 65be
00000260: 6d43 113d 8413 763d 78a0 dcbd 2c64 22be
00000270: de7a 7dbd 72ad 3d3e c870 203d 0136 1a3e
00000280: df0d e83c 3db9 163d 8f7c e13d c98e 6e3c
00000290: 8749 d93d ce9c 923d d397 043d 2f84 3abe
000002a0: 4b87 5bbd 47b6 533e 91f2 16bd dc8e 0abe
000002b0: 5f54 bebd 63bf 813c e3ae 483e 3cde 493d
000002c0: 3148 303c 7707 8c3d 59ac d7bc 45d1 a23d
000002d0: 5973 3c3e 71f5 883e 6195 c7bc 45b2 d6bc
000002e0: f72d 383c bd45 d03d 05e8 f33d c68a debd
000002f0: 99b4 4d3d 06af 0fbd fb1c 95be b046 d23c
00000300: 50f6 6a3c e904 abbd a09b 863e 2332 b43d
00000310: c07a 6a3c c5a0 3f3d 4294 5dbd 504f 28be
00000320: 580f e73d 01d2 1b3d 7fc0 15be 4a3f 4abe
00000330: 8dcc ddbc 52a4 843e 7641 a6bd 020e 603d
00000340: cc32 dd3d 184d 063e 0b16 37be f9f0 4bbd
00000350: 9e16 bf3d 7154 3c3c 0f30 27be 6984 ddbc
00000360: ec8e 153d cd03 1c3d 14de 09be 6eba 7f3d
00000370: a124 0f3c c2e3 2e3e 3456 33bd 7dbd 883d
00000380: 0f5d d2bd b278 053e 5f7a e2bc 1110 2d3e
00000390: 0cd5 edbd 3902 743e a7fd a5bd 449e f93d
000003a0: b894 b53d 386c d03d 4976 183e 3ac5 1ebe
000003b0: c8a4 fabc cd21 583e 30ba e33d 0fd1 a2bc
000003c0: eed1 393e 88fb 963c 0c5f 4bbd cfa1 2fbe
000003d0: 884e 06be d84b 4abe 1d0a 173c a94b 80bd
000003e0: 13e9 0a3e 3c5f 02bd 52d9 a2bd 060d 0ebe
000003f0: e58f 673c d5e7 3f3d c815 023e b6c8 a0bd
-0.28583783 0.020668924 0.1287918 -0.119399145 0.028278787 0.113343894 -0.010756754 0.14266181
0.05702365 0.021480022 0.049245644 0.24061392 0.18344541 0.068547964 0.04548734 0.15362853
0.13884959 -0.2912792 -0.25920084 0.0322184 0.066856466 0.03927966 0.039007835 0.27593538
-0.014982161 0.012795439 -0.020762205 -0.15008101 0.013943476 0.15287521 0.020139879 -0.025427181
-0.040641107 0.110700585 -0.23999639 -0.06443353 -0.033391297 0.09184793 -0.1410725 0.08488538
0.008158181 -0.2168475 0.19453396 0.036257055 -0.020563813 0.0686355 0.021509096 -0.1035976
0.017285636 -0.07477947 0.0042631654 -0.19068241 -0.0507368 0.013135026 -0.09350617 -0.17575747
-0.11607205 0.034487646 -0.11020589 -0.16110775 0.039745547 0.07106482 0.032849923 -0.075288214
-0.098833285 -0.05627212 -0.06663206 -0.19656804 -0.072598115 -0.26079515 0.13800426 -0.094641514
0.046997186 0.055874955 -0.08026855 0.048695687 0.073039904 -0.011470847 -0.050328933 0.033042606
0.10373894 0.026441261 -0.08776423 -0.07110334 -0.08316998 -0.005621307 -0.14941894 0.13047992
-0.010495177 -0.13923615 -0.0455243 -0.23936914 0.15409715 -0.007979462 0.12775257 -0.033492588
-0.027298024 0.284475 0.0019804134 -0.20773236 0.05957114 0.089569084 -0.008672554 -0.106388524
-0.030034155 -0.031265814 -0.04273061 0.26763675 0.012770801 0.034551963 -0.09524009 -0.110014156
-0.15576015 -0.11705357 0.11957793 -0.19139898 0.021328896 -0.17812406 0.18925022 -0.0015203919
0.099384345 0.08493723 0.15671608 -0.14518252 -0.042745993 -0.22391687 -0.024149401 -0.21862571
-0.1870572 0.035482727 -0.2095308 0.025401205 0.012800303 0.0934807 0.068776585 0.17454836
-0.0501165 0.016675297 0.19975066 -0.11595126 -0.14935978 -0.14995876 -0.23332088 0.01814274
-0.080287166 0.19078861 -0.09629207 -0.042046785 0.132815 0.043778528 -0.034646876 -0.22373274
0.035464693 0.060077205 -0.107727945 -0.15858525 -0.061884753 0.18523195 0.039170057 0.15059663
0.028326927 0.03679775 0.11010086 0.01456041 0.10609727 0.07158814 0.032371353 -0.18214487
-0.053595822 0.20675002 -0.036852423 -0.13531059 -0.09293436 0.01583833 0.19597964 0.049284205
0.010759399 0.06837361 -0.026327299 0.07950071 0.18403377 0.26749757 -0.024363222 -0.026208052
0.011241428 0.101695515 0.119094886 -0.10866313 0.05022106 -0.035079025 -0.29123673 0.025668472
0.014340952 -0.08350546 0.26290607 0.08798625 0.014311492 0.04678418 -0.054096468 -0.16436505
0.112822235 0.038042072 -0.14624213 -0.19750705 -0.027075076 0.25906616 -0.081179544 0.05470086
0.10800704 0.13115346 -0.17879502 -0.049790356 0.09330486 0.011494742 -0.16326927 -0.027040677
0.036513254 0.038089562 -0.13463622 0.062433653 0.00873676 0.1707907 -0.04378338 0.06676767
-0.10271656 0.13034323 -0.027646242 0.1690066 -0.11612901 0.23828973 -0.08105021 0.1218839
0.088662565 0.10176891 0.14888872 -0.15504923 -0.030596152 0.21106644 0.11119497 -0.019875078
0.18146488 0.018430486 -0.04965119 -0.17151569 -0.13115895 -0.19755495 0.00921872 -0.06264431
0.13565473 -0.031829104 -0.07951607 -0.13872156 0.014133428 0.04685195 0.12703621 -0.078507826

net.2.bias f4 [60]
00000000: cdca c73d 4ec9 3c3d 304c cdbb 52c2 993d
00000010: d228 f73d ef56 bdbc 991e 84bd 009f fa3d
00000020: 5153 da3c bf72 9fbc 351c b63d 43a7 27bc
00000030: b40a a3bb 6560 003e b478 54bd 59eb 31bd
00000040: fabf d2bd fce6 da3d c23a a93d 0175 5ebd
00000050: 9f9f ee3d 9737 0b3c 0f9d 8dbd 8f55 e73d
00000060: f71f d43d 1bec cebd 0ea5 ffbc 13a6 24bd
00000070: 105f aabc 0688 e43c b8f9 883c 2224 0ebd
00000080: cd3a e93d 2b2f b53d aaee 23bc 3842 263d
00000090: 9424 d73d 500a 86bd f54b 833d 92df ba3d
000000a0: b55d d13d dc2c ad3d a118 443d eac9 8e3d
000000b0: d30c b33c 7e54 02bd a6cf ecbd 8266 6c3d
000000c0: c4d1 b2bd 0e41 1dbd 87a2 993c 53c0 3a3d
000000d0: 6671 633c 52ab 3dbd ef4e 97bd be33 9dbd
000000e0: 5773 0ebd 989d 933d fa0e f33c c8bb d13d
0.09755478 0.046090417 -0.006265186 0.07507767 0.12068333 -0.023112742 -0.064511485 0.12237358
0.026651056 -0.019463895 0.08892099 -0.010232749 -0.004975641 0.12536772 -0.051872924 -0.043437336
-0.10290523 0.10688588 0.0826316 -0.054310802 0.11651539 0.00849714 -0.06914722 0.11295616
0.10357659 -0.10103627 -0.031206634 -0.040197443 -0.020797282 0.027896892 0.016720638 -0.034702428
0.113881685 0.08846887 -0.010005632 0.040590495 0.105050236 -0.06544936 0.06410972 0.09124674
0.10222951 0.08455822 0.04787505 0.06972106 0.021856701 -0.03181886 -0.11563043 0.057714947
-0.08731416 -0.03839212 0.018754257 0.04559357 0.013882017 -0.046305962 -0.07388102 -0.07675885
-0.034777965 0.07207793 0.029670227 0.102408946

net.5.weight f4 [1, 60]
00000000: ba5d 61bd b5df 8abc 14d7 b5bd fa71 153e
00000010: 1a9c ba3c 132d 793e 8931 c3bb e313 103e
00000020: d7a1 713d e715 bdbe d717 83bd fd2b 1cbd
00000030: 6acd 21bd dce4 2a3c 2384 9ebc b62d b03d
00000040: bb19 943e 3bbd 2bbd da4e 8abe 7417 083e
00000050: f683 823c 14ed f5bc 7e11 b8be 5e06 c03b
00000060: 4d99 ed3d 6dc3 a2bc a1e5 993e e906 653b
00000070: 869a 0dbe fc1f 64be 9118 8e3d 5f6f f13c
00000080: 44a5 9b3e e456 f4bd 31d7 eabc f12a 5bbe
00000090: b725 40bd 1dba 493d fde5 63be 9855 acbe
000000a0: 1e74 d5bc c374 ffbd 7d3e d2bc 204e 8a3e
000000b0: aa0b e83e adaa 5d3d 1b62 c33c faf4 9b3e
000000c0: 47b7 dabc 3ab0 ee3b 0700 c9be bcc3 28be
000000d0: a329 01be 357a da3d 15b2 193e 0ec0 dc3a
000000e0: 214e 33be 2afc 1d3d 9026 e23d 3428 e5bd
-0.055021025 -0.016952375 -0.088789135 0.1459426 0.022779513 0.243336 -0.005956833 0.14070086
0.058992233 -0.36930773 -0.064010315 -0.038127888 -0.03950254 0.010430541 -0.019350117 0.08602469
0.2892588 -0.04192851 -0.27013284 0.13290197 0.015932065 -0.030020274 -0.35950845 0.005860134
0.116015054 -0.019868577 0.30058005 0.0034946746 -0.13828477 -0.22277826 0.069382794 0.029472051
0.30399525 -0.119306356 -0.028667064 -0.214031 -0.046910968 0.049249757 -0.22255702 -0.33659053
-0.026056346 -0.124734424 -0.025664562 0.2701273 0.453214 0.054117847 0.023850491 0.3046034
-0.026698722 0.0072841914 -0.39257833 -0.16480917 -0.1261354 0.106678404 0.15009339 0.0016841905
-0.17510273 0.03857056 0.110425115 -0.11189309
