results of reviewer/XJTU results/4-4/Experiment5/model.pth (torch, 59838 bytes, 14 tensors)

encoder.net.0.weight f4 [60, 17]
00000000: 6553 c2bd e09b a8be 8401 4abe a704 a23c
00000010: 7d88 043e b5c2 82be db2f 713e 833b c03e
00000020: 1c87 6fbb bd46 f23d d8ed 3b3e b095 a43d
00000030: a86d 543e 03d0 39bd b2bb 47be 2e2a a9be
00000040: a0d6 273d 4679 12bc bc72 37be 0445 773d
00000050: 6d2f b53d e970 59bd 5048 6abe 3d95 b5bd
00000060: 0660 3abd a159 bf3c e7e3 22bd 9b06 803c
00000070: ec35 94bd 2dbc 8abd b941 ff3d b2de 55be
00000080: 8062 203e 7be2 3b3d 3318 d1bd 6d83 7e3e
00000090: 8c93 173e d5c8 133d 64e0 2fbe 216c ca3d
000000a0: 28f7 3f3e d053 b33c f7ed be3d 3511 18be
000000b0: d8e2 84bd 8f3f a2be 5581 463d 8ca4 92be
000000c0: 9428 083e 432b c2be d997 283e 013a 283e
000000d0: c500 7fbb 825d e43c f797 4a3e 84ce 523d
000000e0: 3bce 49be 0674 1cbe dd3f 9dbe 3029 2c3e
000000f0: 5e2d 053d bb44 4d3d dedb fb3d c450 1dbe
00000100: f420 71be b43f ba3e ec2f e43d 8627 94be
00000110: c41c 9f3d ebbd 46bb 1e3c 8c3d 0f28 b23d
00000120: e3d8 483e 4945 a7ba 7d02 533e 1a00 e5ba
00000130: 06af ea3b 90ce a6bd eeee 93be 88a0 143e
00000140: a739 fd3d 0ff7 033d 4f8e 9bbd 319f 8b3e
00000150: 2cd5 a5bc fc00 d23d 46b0 4e3e 52b9 ed3d
00000160: 60a7 3b3e 5ad9 12bd 42bd c23c 41fb 873d
00000170: 7fa2 e73d f62f fabc b00c 0d3e cdb8 8ebc
00000180: dadd 663e 12e2 573c b404 b03d 177c dd3d
00000190: aec9 1d3d b18e 92be cedb 87bc 15da 36bc
000001a0: e44a b3bd 89c8 c4bb fd44 ca3d 71e6 083e
000001b0: 4f7e 30bd fed5 d0bd 1efb a13d 96fd 033d
000001c0: 0ac7 bcbd 558b e23d 902c 04bd 237c 5d3e
000001d0: 895e afbd 722e 973e 4035 6e3d de3b c1bd
000001e0: 2f9b 433d 1bfe 90bd 0e6c 1fbe 1909 e63d
000001f0: fa75 e0bd 8482 ccbd 39b7 f73d 187d 50be
00000200: 5f58 25be 5d46 8e3d d9aa 48bb a80c 19be
00000210: f2e7 a03d 84fa be3c ca0f b9bc a68f 96bd
00000220: d104 943e aed4 9e3d 6b3e 6b3e dd3d 8abd
00000230: f053 25bd 9993 afbe e7c8 5e3d 0775 1ebb
00000240: fc1b 163e 5d2e 6d3e 7378 2f3d e050 423e
00000250: 6155 7b3e 66cc dabc b749 6439 9972 433e
00000260: 790f 803d 6ddc c23d d122 573e 645e de3d
00000270: a6c3 063e 6542 41b9 0fec 0b3e 47b0 d8bb
00000280: b46e 213e 7a1e 36be c1ed 88bb 1e3e 2a3d
00000290: 27a2 09be 04e7 ce3d 2766 0c3c 9a84 8dbc
000002a0: 9be8 11be 9ac8 a0bd 1322 6d3e b202 a6bd
000002b0: 63b1 e53c c297 a7be 32d7 acbb 6649 153e
000002c0: d553 16bc 21df ac3a f128 6cbd 36ae 8fbd
000002d0: 0dbd 403d 55d5 28be a230 e4bc 1610 58be
000002e0: b0c1 7f3d c7c0 d93d 7362 d43d bc2e d7be
000002f0: 0a7e debd 18a8 0fbe 0890 a3bd 441e 11be
00000300: 83d1 10bd 2953 f1bc 358c 8bbe a01e 9bbc
00000310: 00de 313e 6d86 b5bd 93ad b4bd 19f4 b13b
00000320: e596 043e 0b41 e1bd 37f3 9cbd 38f4 4e3e
00000330: 7945 3b3e bae1 283d 292c 0cbe e43b 1abe
00000340: 6f16 483e fcce a33d 4921 263e f5ff d73d
00000350: a40a 103e 8bbe 9a3e f832 05bd 8808 2d3e
00000360: 0b59 553c 20b6 28bb 09ea 30be 8c03 8fbc
00000370: 9d77 9d3c df69 b23c ba5d 893e 28b3 2d3e
00000380: dffc 52bc 3653 09bc ff0f 6ebd 91ac 013e
00000390: 4a24 3e3e a882 b83d 4fe1 cebd 38dd 2abd
000003a0: 3ead 733d abc1 efbd 7015 e5bd 2b1b 43bd
000003b0: d1e3 cf3c e4c8 a7bd 8b4b a7bb 70ba 703c
000003c0: 88e5 853e fee2 65be d55c a7bd 4a11 4c3c
000003d0: cab8 02be 79ed 16be e4b0 23be 6e25 23be
000003e0: 2329 923d 9731 df3d 85b0 86bd e1a2 10bd
000003f0: 296e 023e 9c6f 5a3e ebab c5bd 5c41 883d
-0.094885625 -0.32931423 -0.1972714 0.019777609 0.12942691 -0.25539175 0.23553412 0.37545404
-0.0036549037 0.118298985 0.18352449 0.08036363 0.20744956 -0.04536439 -0.19505194 -0.33039993
0.040976167 -0.008940047 -0.17914861 0.060368553 0.088469364 -0.053086195 -0.22879148 -0.088663556
-0.04550173 0.023358168 -0.039768126 0.01562815 -0.07236847 -0.06774173 0.124637075 -0.20885733
0.15662575 0.045870285 -0.10209694 0.24854822 0.14802378 0.0360802 -0.17175442 0.09883905
0.18746626 0.02189055 0.09322732 -0.14850314 -0.064885795 -0.31689116 0.048463184 -0.28641164
0.1329673 -0.3792363 0.16464175 0.16428377 -0.003891037 0.02787662 0.19784532 0.05146648
-0.19707577 -0.15278634 -0.30712786 0.16812587 0.03251397 0.050114375 0.12297796 -0.15362841
-0.23547727 0.36376727 0.11141953 -0.28936404 0.077691585 -0.0030325602 0.06847404 0.08699047
0.19613986 -0.0012761737 0.20606418 -0.0017471344 0.0071619777 -0.081448674 -0.28893226 0.14514363
0.12364512 0.032218035 -0.075955026 0.2726989 -0.02024325 0.10254094 0.2018443 0.11607613
0.18325567 -0.035851814 0.023771886 0.0663972 0.113102905 -0.030540448 0.13774371 -0.017422104
0.22545567 0.013176458 0.08594647 0.10814684 0.038522415 -0.2862449 -0.016584303 -0.011160393
-0.08754519 -0.006005351 0.0987644 0.13369156 -0.043089207 -0.10197066 0.07909225 0.03222426
-0.09217651 0.11061732 -0.03226906 0.21629386 -0.08562953 0.29527622 0.058156252 -0.09435247
0.047755416 -0.07079717 -0.15568563 0.11232204 -0.10960002 -0.099858314 0.12095494 -0.2036022
-0.16146992 0.069470145 -0.0030619411 -0.14946234 0.0785674 0.023312815 -0.022590537 -0.073516175
0.28909925 0.07755409 0.2297303 -0.06750081 -0.040363252 -0.34292296 0.054390814 -0.002417864
0.14659113 0.23162217 0.04283948 0.18976164 0.24544288 -0.026708793 0.00021771235 0.19086684
0.06252951 0.09514699 0.21009375 0.10857847 0.13160571 -0.00018430648 0.13664268 -0.006612811
0.15764886 -0.17785063 -0.004178733 0.041563146 -0.13440762 0.101026565 0.008569277 -0.017275143
-0.14248888 -0.07850762 0.2315753 -0.08105983 0.028038686 -0.3273297 -0.0052746767 0.1457878
-0.009175261 0.0013189056 -0.057656232 -0.0701565 0.047055293 -0.1648763 -0.027855221 -0.21099886
0.062440574 0.106324725 0.1037034 -0.42027843 -0.10863884 -0.14028966 -0.07986456 -0.14171702
-0.035356056 -0.0294586 -0.27255407 -0.018935502 0.17369843 -0.0886353 -0.08822169 0.00543071
0.12948187 -0.10998734 -0.07663577 0.2021035 0.1828822 0.041230895 -0.13688721 -0.15061909
0.19539808 0.079984635 0.16223635 0.10546867 0.14066559 0.30223498 -0.03251931 0.16897786
0.013021718 -0.002574332 -0.17276777 -0.017457746 0.019222075 0.021778999 0.2682932 0.16962874
-0.012877672 -0.008381655 -0.058120724 0.12663485 0.1856853 0.09009296 -0.10101568 -0.041714877
0.05949139 -0.11706861 -0.111857295 -0.04763333 0.025377186 -0.08192614 -0.005105441 0.014692888
0.2615168 -0.22449872 -0.08172003 0.012455294 -0.12765804 -0.14739026 -0.15985447 -0.15932247
0.071367525 0.108981304 -0.06576637 -0.035311583 0.12737335 0.21331638 -0.096519314 0.06653091

encoder.net.0.bias f4 [60]
00000000: 5984 323d df92 1a3d c093 28bd 1036 32bd
00000010: 08d0 31bd 0d77 3dbd 2b9f 58bd 137d 32bd
00000020: a92a edbc 5875 4b3d f839 633d f134 28bd
00000030: 2858 83bd 067d 793c a2bc 473d c1ca 5fbd
00000040: 14cf 293d b213 943c 7b1d 2fbd 5ff4 d13c
00000050: 0e9c 0fbd 4c48 3fbd 8f7d f5bc 3780 d53a
00000060: 3b41 0bbd 899c 4bbd 619e 6bbd 26e1 f7bc
00000070: 1f7b 133d c0f6 4ebd f393 0b3d 14e0 47bd
00000080: 986d 943c 8a56 1dbd 5e74 20bd 962a e33c
00000090: 294e 593d e790 b33c c45b 1abd 1621 343d
000000a0: 11b8 09bd a2be 60bd f85d c1bc 636e 1fbd
000000b0: 0087 073d 3fd7 d7bc 05e3 52bd 52f1 ef3c
000000c0: dffe 3f3d 749a c43c 6c3d 3b3d 00b8 32bd
000000d0: abbb 09bd 0b60 dfbc 361f 37bd b321 d6bc
000000e0: f6f7 7e3d 5f83 933d 0f70 593d 62b7 7a3d
0.043583248 0.037737723 -0.04115653 -0.04350859 -0.043411285 -0.046256114 -0.05288617 -0.04357631
-0.028951006 0.049672455 0.055475205 -0.041066114 -0.06413299 0.015227562 0.04876388 -0.05463672
0.04145725 0.018075798 -0.042752724 0.02562922 -0.035060935 -0.046699807 -0.029967098 0.0016288821
-0.033997755 -0.04970983 -0.05752409 -0.030258726 0.03600609 -0.050528288 0.034076642 -0.048797682
0.018118665 -0.03841261 -0.039173476 0.027730267 0.053053055 0.02191968 -0.03768517 0.043976866
-0.033622805 -0.0548693 -0.023604378 -0.038923632 0.03308773 -0.026347755 -0.051486034 0.029289875
0.046873923 0.02399943 0.045712873 -0.043632507 -0.03362624 -0.027267477 -0.0447075 -0.026139116
0.062248193 0.072027914 0.053085383 0.061210044

encoder.net.2.weight f4 [60, 60]
00000000: 880b 4c3b f5ce 51be f057 87bd 3dc7 11bd
00000010: de05 a1bb 6f62 e53d 37e1 2f3e b406 2bbe
00000020: 7e35 fcbd 095a 78be 0720 4f3d 9e1f 3e3d
00000030: 7bf2 983b 7b3f 6ebc 681a 9cbd 262e 54be
00000040: 0153 323e 68d1 39bd 15de 39bd 23c6 a63c
00000050: fcbc 9a3d ccbe ecbd fe07 de3d e3e6 67be
00000060: 6c8f 9bbd c5d7 06be 1fc8 1abd 0fb2 153e
00000070: 6d8a 61ba a999 903d 4b32 123d 4482 10be
00000080: 061e 4dbe 6d77 213c 1ae1 a0bd 3cc8 203d
00000090: acd2 613e f8f2 d0bd f515 1c3e 4a1d 0f3e
000000a0: 382c 1e3e 4a24 5cbd bd06 76be 3f41 3d3e
000000b0: 1913 ad3d ad0e b8bd 6b0f 25be 0629 c0bc
000000c0: d185 60be 9939 f33d 0a30 fabd 9db6 06bd
000000d0: 64e5 b53b 1792 7b3e 426e b2bd 1f38 bdbd
000000e0: e9c8 92bd cfe8 0cbd 58c9 223e d10f 6cbd
000000f0: dd19 0e3d 4f4e f63d abc7 7f3c d3ce c13c
00000100: 02f4 043e 1b02 453c 7cff 65be 1655 9d3d
00000110: 378e 133e 0bae 4cbe 1020 fb3d 7c5a c73d
00000120: f79f ea3e e15f bb3c 4ad4 763e 113a a5bd
00000130: 8de9 d13d 7ca6 113c 654a 1cbd 24cf 36bd
00000140: 9dc6 0e3d 4b6a c13b 4a6f 36bc d4dd a73c
00000150: 360c f73c cae5 823d fd7b 5ebd b487 9f3d
00000160: ab40 fa3d ad49 103e 434c c13d a928 71be
00000170: 5162 c1bb 9685 273e 7732 923d 9332 58bc
00000180: 4001 283d 2fb0 0a3e 0bae f1bd 7a07 193d
00000190: 9cee f6bc bc47 a4bd 9b50 0cbe 9272 ee3c
000001a0: 4c10 52be ecf5 93bd 028c b8bd 3e7b 2bbd
000001b0: e7c9 3d3e 9c98 74bd dd02 8f3d fdef 54be
000001c0: 7d47 96bd b0d2 1a3d 6d77 d2bd 420f 833d
000001d0: 60ff 303d 6924 16bc c0eb 62be 051d 243e
000001e0: 9481 a1be f72d 10bc 42b7 a93c ed64 6b3e
000001f0: 76ad eabd 4bf8 223e c520 a0be a253 f03d
00000200: 8657 553d 6c4c 443d c7b7 8ebd 4ae0 d13d
00000210: 8ab5 323d 009a 1fbe d17a 27bd b0f7 10be
00000220: 979c a9bd 960c 3abe dab0 6c3e bcd9 803e
00000230: 62b0 97be 1278 1a3b 7f16 893d 9fea 093e
00000240: fffb 9abc 6bae dabd eaa8 bebc 392d 17be
00000250: 3acb 55be e330 3e3e 9b41 ea3c fc99 743d
00000260: e843 d7bb 0d7d 853d 79bc 2abd e765 a5bd
00000270: 0fe1 1bbe 0aa1 3cbe bb60 07be 66c6 62bd
00000280: a340 e23b 7a6b b33d 4e03 033e afc1 3a3e
00000290: 5441 cd3d 7406 dc3b e35f a63d 3df5 903e
000002a0: 5c5d d5bd b39f 90bd 9bb1 fcbc 4992 623c
000002b0: 68ae 453e a25e b83e 1cda c63d 5c96 973d
000002c0: 99fd 59be bda4 873d 1d3c 283e be72 9a3d
000002d0: 2e18 e1bd 31ff 31be f78b 3d3e 2bf0 e3bc
000002e0: 8db3 fa3d 896d acbd 5b16 cbbd dd49 cfbd
000002f0: a923 fabc 1dff 25bd bd9c 2b3d 0f34 90bd
00000300: 549b 2bbd 9b13 d9bd ad3e 10bd 05f1 b33d
00000310: f1ef aabd 3d31 bc3d dd7e 89bd 4c0c d23d
00000320: 17df 203a e960 3d3d d904 9f3c 46c0 1ebd
00000330: 956f 373c 6623 e73b 47b9 d03c 525e e33d
00000340: a8a0 bdbd 75ba a3bd 68f3 14be 5483 23be
00000350: 9eef 15bc 5bc6 223b baa6 793d 798d 1c3b
00000360: 4396 303e 5641 403d fafd 8cbe 8d5a 873d
00000370: ca44 e03c dd9d 4f3e f96b c83d 8bc0 753e
00000380: 9aff 0c3d 2190 61bd 67b3 a3bc c814 5fbe
00000390: 1a47 bf3d 4f6c e3bd bfe5 b7be edd5 57bd
000003a0: b34c 31bb cb28 28be cc7f 1bbd bf8a 30bd
000003b0: 9c82 c5bb 7422 573d 579b 09be da6d bebd
000003c0: 4db9 8bbd f42f 9cbd 8ab7 de3d d3a1 ebbd
000003d0: cce7 f13c 8589 073d 2d40 033e 92d4 ff3c
000003e0: b7dd 9b3d 09ed 2b3e e8f1 043d e91e 073e
000003f0: 9d24 e7bd 0c7e 9a3c 0435 823e a560 273d
0.0031134803 -0.20489104 -0.066085696 -0.0355904 -0.0049140295 0.11200415 0.17175756 -0.16701776
-0.1231489 -0.24253096 0.050567653 0.04641687 0.004667578 -0.014541502 -0.07622224 -0.20720729
0.17414476 -0.04536572 -0.04537781 0.02035815 0.07555577 -0.11559829 0.10841368 -0.2264667
-0.07595715 -0.13168247 -0.037788507 0.14618705 -0.0008603696 0.07060558 0.035692494 -0.14112192
-0.20030984 0.0098551335 -0.07855435 0.03925346 0.22053021 -0.102025926 0.15242751 0.13976017
0.15446556 -0.053745545 -0.24026008 0.1848192 0.08450908 -0.08987174 -0.16119163 -0.023457061
-0.21926047 0.1187622 -0.12216194 -0.032888997 0.005551027 0.24567448 -0.08712436 -0.0923922
-0.07167227 -0.03440171 0.15897119 -0.05763227 0.034692634 0.12026655 0.015611569 0.023658192
0.12983707 0.012024428 -0.22460741 0.076822445 0.1440972 -0.19988267 0.12261975 0.097340554
0.45825168 0.022872867 0.2410442 -0.08067716 0.102496244 0.008889791 -0.038156886 -0.04463114
0.03485738 0.0059025637 -0.011134932 0.020491518 0.03015719 0.06391485 -0.054317463 0.07789555
0.12219366 0.14090605 0.09438374 -0.23550667 -0.005901613 0.16359553 0.07138532 -0.013195652
0.041016817 0.13543771 -0.11800774 0.037360646 -0.030143075 -0.08021495 -0.13702624 0.029107366
-0.2051403 -0.0722464 -0.09011079 -0.04186558 0.18534051 -0.059715852 0.06982968 -0.20794673
-0.07337854 0.037798584 -0.10276685 0.063993946 0.043212295 -0.009163954 -0.22160244 0.16026695
-0.31544173 -0.008800021 0.020717267 0.22987719 -0.11458866 0.15915029 -0.31275 0.11734702
0.052085422 0.047924444 -0.069686465 0.10247858 0.04363016 -0.1558609 -0.04088861 -0.14156985
-0.0828182 -0.18168864 0.23114339 0.25166118 -0.29626757 0.0023570103 0.06693744 0.13468407
-0.01891899 -0.10677799 -0.023273904 -0.14763345 -0.20878306 0.18573336 0.028595736 0.059717163
-0.0065693744 0.06517992 -0.041683648 -0.08076077 -0.15222572 -0.18420807 -0.13220493 -0.05536499
0.006904678 0.08760734 0.1279423 0.18237947 0.10022226 0.0067146365 0.08123758 0.28312102
-0.104181975 -0.0706171 -0.030846408 0.013828822 0.19304812 0.360097 0.0970957 0.07401726
-0.21288146 0.06623218 0.16429181 0.075414166 -0.1099094 -0.17382504 0.18510424 -0.027824482
0.12241278 -0.0841933 -0.09916373 -0.1012151 -0.030534582 -0.040526498 0.041897524 -0.070411794
-0.04189618 -0.105994426 -0.035216022 0.08786205 -0.083465464 0.09189079 -0.067136504 0.10256252
0.00061367586 0.046235 0.019411491 -0.038757585 0.011196037 0.0070537804 0.025478972 0.111019745
-0.092591584 -0.07994548 -0.14545977 -0.15968066 -0.0091513675 0.0024837467 0.06095002 0.0023888035
0.1724482 0.04693731 -0.2753752 0.06609068 0.027376551 0.20275064 0.09786219 0.2399923
0.03442345 -0.055069093 -0.019983007 -0.21785271 0.093397334 -0.111046426 -0.3591747 -0.05269425
-0.0027053773 -0.16421811 -0.037963673 -0.04310107 -0.0060275327 0.05252309 -0.13438164 -0.09298296
-0.06822453 -0.07626334 0.10874851 -0.11505475 0.029529475 0.033090133 0.1281745 0.031229291
0.07610648 0.1678964 0.032457262 0.13195385 -0.1128628 0.018858932 0.25431073 0.04086365

encoder.net.2.bias f4 [60]
00000000: 7166 12bd d27b 453d 9593 3cbd 8ef1 3ebd
00000010: 4e51 42bd e538 65bb f0ff 61bd 6d60 67bd
00000020: e832 7fbd b811 10bd b73a 36bd e424 013d
00000030: 500a 0f3c 286e 6f3d 46fc 243d 39da 333c
00000040: 3062 09bd 1b9e cebc 446b 5bbd 79ef 7cbd
00000050: b853 39bd 5e40 68bd 73f3 33bd 2362 783c
00000060: 4446 2b3d 9637 50bd 67d5 54bd 7750 6ebd
00000070: 1f20 323d 907d 4cbd 9688 19bd 1b1e e5bb
00000080: ac58 52bd 6f36 21bd bfa1 a23c 53c0 22bd
00000090: 096d 263d 2dfb 333d a877 653d daa3 65bd
000000a0: 0828 573d 342d 32bd 4af5 56bd 5821 353d
000000b0: 20ae 723b 3e39 403d b227 eebc 270d 303d
000000c0: d03c 413d f1e5 f5bc fb41 43bd 8e4e fe3c
000000d0: 2a5c eb3c 49f9 5cbd 734a 743d e014 58bd
000000e0: 0f36 31bd 1c77 2d3d 2a10 3f3d 724c 44bd
-0.035742227 0.048213787 -0.046039183 -0.046617083 -0.04744082 -0.0034976539 -0.05517572 -0.056488443
-0.062304407 -0.035173148 -0.04448959 0.031529322 0.008730486 0.058454663 0.04027965 0.010977321
-0.033540905 -0.025221875 -0.053569093 -0.061751816 -0.045245856 -0.05670201 -0.043933343 0.015160116
0.041815057 -0.05083426 -0.05196133 -0.058182206 0.043487664 -0.049924433 -0.037483774 -0.0069921142
-0.051354095 -0.039358553 0.019852517 -0.039734196 0.040631328 0.04394071 0.056022316 -0.056064464
0.05252841 -0.04350014 -0.05248002 0.044221252 0.0037030056 0.04692959 -0.029071663 0.042981293
0.047177136 -0.030016871 -0.047670346 0.031043317 0.02873047 -0.053948674 0.059641313 -0.052754283
-0.043264445 0.04234992 0.046646275 -0.047924466

encoder.net.5.weight f4 [32, 60]
00000000: fc53 393e f9c3 92be 66ca cc3c 4b39 0fbe
00000010: c31a b33c d11b 0fbe 576f 063e cb6f b7bd
00000020: 3e54 11bd 290e d9bd f51b 1cbe ccc8 80be
00000030: 28d4 253e b499 7c3e b46e d13d d580 24be
00000040: 58b5 9e3e 53e3 f63a 55da 1cbe 0b23 bdbd
00000050: 444a 7bbe d139 9f3e 14be 47bd 4504 7ebe
00000060: e470 86be b200 80be ac3a 903e 3360 36be
00000070: 5f0a e5be cec3 6ebe 05b2 323e 25af 293d
00000080: f68f e0bd a5d5 38bd 0d3e 78bd 588a 21be
00000090: 35cc d73d 94b3 29bd 79f6 233e 48c9 21be
000000a0: 9da7 703d a6f0 283e c57a 633e 15e4 863d
000000b0: e006 123e e0ce 95bc cdb2 273e e8b7 5abe
000000c0: 21ea 5dbe cb6f d3bd 83d2 8bbd db9e 1c3e
000000d0: 939a a6bd 8204 07be d1ac 1abd 1933 d63c
000000e0: c404 ec3d a61f f0bd cd59 37bc 2e29 d9bc
000000f0: 1a91 883d 8dc2 063e a154 f4bd 1346 20be
00000100: d04a 47bd e2d5 ac3c 41c8 03be 69e7 c0bd
00000110: af9e 9d3d 1b14 19bd 3b93 f43d 978a 99bb
00000120: c9ac cf3d 7aff 4fbd 1538 90bd 4d92 62bd
00000130: 82e2 1dbe 12e8 2f3e b0af 623e 5b8d c23d
00000140: cb1e 31bd d434 93bd 6d97 c1bd b183 9b3e
00000150: edf3 07bd 6a09 063e d53c 81be 0932 5f3d
00000160: 0078 46be 83da 08be c6d5 983d f55e 49bd
00000170: 2afa 593c 1875 adbd 700d cd3c a220 903e
00000180: ef1e 4c3d 65ff 88ba 6bd5 79bd d050 203d
00000190: 7c28 07be 1634 263c 1d9b 7cbe b062 113e
000001a0: fb61 59be a08c 86bd 3137 ccbd 08e3 103e
000001b0: 182d 433e dcd4 90bd f81b 79bc 4353 69be
000001c0: 8eec 0e3e c6b4 8a3d dacd 853b 30f7 ed3c
000001d0: 090f cdbb 4fd5 9ebd 8538 763e ea89 f0be
000001e0: fbf3 463e 3f83 14be 5bcb 893d 7a37 493e
000001f0: 5a2a b5bc dc7d 00be 1248 1a3c 2ed6 3b3e
00000200: 6806 d83d 3d21 1ebe 9319 f63d 3482 87be
00000210: 2f49 bbbd ead6 afbd 75db 0cbe 34ee 1f3d
00000220: 4825 54bd 0454 2c3e ff8b 42bc 2848 d63d
00000230: 6fc3 00bc cbf1 02be 051f 2b3e 31fb 42be
00000240: 13fe 88be d5e1 2c3d 11db 203e e4cf f23d
00000250: 6445 eabd aa63 cf3c d650 70bc be32 edbd
00000260: 543f 7abe 75c7 3b3e f151 52be 91e8 303e
00000270: 8b6a b0bd 8236 d4bd 8c48 40be 7a5e bfbd
00000280: 13db e43b 747b b63d 1115 de3d de33 f5bd
00000290: 0a0b 39be 53b0 36be 5096 4c3e 5fea 193d
000002a0: 46d6 533d 12b0 75bd ba51 a6bd 83e6 41be
000002b0: d7a6 9cbe bc77 3bbe 07c7 30be 429c aabd
000002c0: f365 e8bd 3cf3 3abe 2d34 873d 1f2c 883c
000002d0: efa7 2fbd 817a 9fbe 4703 febd 0ba9 88be
000002e0: d9a0 f5bd ac95 65bd 5e77 963d e0ea 0c3e
000002f0: a36e 3bbd c791 32be 811f b3bd 9426 083e
00000300: 7024 5a3b 6f8b 64be 8411 5ebd 1139 9b3d
00000310: d4fb e1bd 8124 c6bc d784 e63c 65e8 9b3e
00000320: b2e7 b03c bb66 32be fbf3 273d 8191 8dbd
00000330: e18d bc3d f157 e03d 1cc1 5b3e 0c84 cdbd
00000340: e5d1 d23d 2ad7 01be 123a b9bd 509b 56be
00000350: 3770 5c3e dc09 4abe c9c9 683c 3bbe ae3d
00000360: 1726 81bd 8eb9 3abe a4b9 4fbe df69 793e
00000370: 73f0 62be 84ee 2e3c 3ddb 28be 1fcd 05be
00000380: 42f8 173b ac3d cbbb 9250 053e edf3 54bd
00000390: 65d2 9fbd 5664 273e eefe f9bd 4b86 a1bc
000003a0: 90e7 94bd 44b2 6c3d 8655 7a3d bb33 b93d
000003b0: c691 bebe 5a4c 2dbe f390 4abd 4c96 a93d
000003c0: 41a9 2cbe a748 afbd 0109 04be 2333 5d3e
000003d0: eaba cd3c 0077 843d f730 023e 0063 3fbc
000003e0: 0c54 ca3d e173 8b3d bdc9 573e fcce a7bc
000003f0: c2ae 123d eb5b 163e 7873 233e f8fa e33d
0.18098444 -0.2866514 0.024998855 -0.139867 0.021863347 -0.13975455 0.1312841 -0.0895687
-0.03548073 -0.10598404 -0.1524504 -0.25153196 0.16194212 0.24668008 0.10226193 -0.1606477
0.3099773 0.0018836058 -0.15317662 -0.092351995 -0.24540049 0.31098798 -0.048765257 -0.24806316
-0.26258004 -0.2500053 0.28169763 -0.17810135 -0.44734475 -0.23316881 0.17450722 0.041426796
-0.10964958 -0.045125622 -0.06060605 -0.1577543 0.10536996 -0.041431025 0.1601199 -0.15799439
0.0587536 0.1649805 0.22214802 0.06586472 0.14260435 -0.018287122 0.16376801 -0.21359217
-0.21671344 -0.10324057 -0.06827261 0.15294974 -0.081349514 -0.13185313 -0.037762467 0.026147412
0.115243465 -0.117247865 -0.011190844 -0.026508894 0.06668301 0.13160153 -0.11930204 -0.15651731
-0.04865533 0.021098081 -0.1286936 -0.09419138 0.07696282 -0.03737269 0.119421445 -0.0046857106
0.10140378 -0.05078075 -0.07041947 -0.055315305 -0.15418437 0.17178372 0.22137332 0.09499618
-0.043242257 -0.071878105 -0.0945271 0.3037391 -0.03319161 0.13089529 -0.25241724 0.054491077
-0.19381714 -0.13364606 0.07462649 -0.049162824 0.013304273 -0.084695995 0.025030822 0.28149897
0.049834188 -0.001045209 -0.060994547 0.03913957 -0.13199037 0.010144254 -0.24668546 0.14197803
-0.21228783 -0.06569791 -0.099714644 0.14149106 0.1906017 -0.0707185 -0.015204422 -0.22785668
0.13957426 0.06772761 0.0040833773 0.029048532 -0.006257896 -0.07755529 0.24044998 -0.4698022
0.19429009 -0.14503191 0.0672824 0.19650069 -0.022114921 -0.12548012 0.009416597 0.18343422
0.10548097 -0.15442367 0.12016597 -0.26466525 -0.09144818 -0.085859135 -0.13755591 0.039045528
-0.051793367 0.16828924 -0.011874198 0.104629815 -0.007859095 -0.12787549 0.16711052 -0.19041134
-0.26756343 0.042207558 0.15708567 0.11856058 -0.114390165 0.025316078 -0.01466771 -0.11581944
-0.2443822 0.18337806 -0.2053907 0.17276217 -0.086140715 -0.10361959 -0.18777674 -0.09344192
0.0069841235 0.089102656 0.10843862 -0.119727835 -0.18070617 -0.178407 0.19979215 0.03757703
0.05171802 -0.059982367 -0.08121057 -0.1893559 -0.3059604 -0.18307394 -0.17263423 -0.08330585
-0.1134757 -0.18256849 0.066017486 0.016622601 -0.042884763 -0.3114815 -0.12402969 -0.2669147
-0.1199357 -0.05605094 0.07346986 0.13761473 -0.04575981 -0.17438422 -0.08746243 0.13295966
0.0033285879 -0.22318815 -0.054215923 0.07579244 -0.110343605 -0.024187328 0.028139515 0.3045074
0.021594856 -0.17422001 0.041004162 -0.06912518 0.09206749 0.109542735 0.21460384 -0.100349516
0.102939405 -0.12679735 -0.09044279 -0.20957685 0.21527182 -0.19730324 0.014208266 0.08532377
-0.06306093 -0.18234846 -0.2028566 0.24356793 -0.22162037 0.010676984 -0.16489883 -0.13066529
0.0023188745 -0.00620242 0.13019016 -0.05199044 -0.078038014 0.16346869 -0.12206827 -0.019717356
-0.072707295 0.057787195 0.061116718 0.0904307 -0.3722059 -0.16923657 -0.04945464 0.0828062
-0.1686144 -0.08558779 -0.1289406 0.21601538 0.025113542 0.0646801 0.12713991 -0.011681318
0.09879312 0.068092115 0.21073051 -0.02048444 0.035811193 0.14683501 0.15962017 0.11131853

encoder.net.5.bias f4 [32]
00000000: 2d8d 87bd 43e0 403d 2653 48bd 11e1 ae3c
00000010: 389c 963c 0aa9 9fbd fb4f 5b3d a7fb 733d
00000020: 1a38 57bd d240 393d 895f 6b3d c4e1 1dbd
00000030: 170c 81bd fc91 ddbc b346 89bd 5d38 5d3d
00000040: 214a 633d 0a01 5e3d 3ac5 6c3d 956c 62bd
00000050: 81b2 1dbd 5d43 183e db65 a63d aa97 7cbd
00000060: 0918 8dbd 7a7a 4ebd d67b a5bc 752d 48bd
00000070: 6b7a 6f3d 508a 493d 01fc 18bd b3bf 663d
-0.06618724 0.047088873 -0.04890742 0.021347554 0.018385038 -0.077959135 0.053543072 0.059566166
-0.052543737 0.045227833 0.057464156 -0.038545385 -0.06301134 -0.02704715 -0.06702938 0.05400883
0.055490617 0.05420021 0.057805277 -0.055279333 -0.038500313 0.14869447 0.08124896 -0.061668076
-0.0688935 -0.05040977 -0.020200651 -0.048871476 0.058466356 0.04920417 -0.037349705 0.056335162

predictor.net.1.weight f4 [32, 32]
00000000: 7e6a 063e 0190 ba3a a2b6 713e 8c56 7d3e
00000010: 4514 623e 2f4b f53d 9d54 96be 243f d1bd
00000020: 8436 ea3d 4014 ce3d 2b54 65bd 9773 16be
00000030: d6d6 883e ed7a 40be 51a0 0b3d 0ba6 52be
00000040: 9d7d 7abe 3936 27be 0135 5bbe d444 f03d
00000050: 112b 30be 5755 b3be 868b 1bbe 21df 573d
00000060: 0673 1d3e 72ec cd3d 0797 29be 7d69 a03d
00000070: 8d3b 96be d5c6 cfbd 338c cebd 5564 09be
00000080: 4d8b 083e 229f 35bd 1fde 573e 94bf 44be
00000090: 0269 dd3c 0e9c 17be a32f a23e cab5 b33c
000000a0: 2247 34be f709 343d 3493 4abe 3833 a8be
000000b0: 629c 073d d862 5c3d 1820 033d d4aa c83d
000000c0: 776c e7bd 4fb5 e1bd b947 57bd b7ee d33c
000000d0: 83dd 20be 3aa6 c3bd 90ef c2be ee62 523e
000000e0: 87ee ee3d ffb7 de3d 819c 8d3c 16cc 7c3d
000000f0: 6f7e 91bd c665 b73d 1e74 1dbb b420 c6ba
00000100: df8c 06bc 5ae2 733c 0fcd 89bd 161a adbb
00000110: 92ae c33d b408 34be 25a0 d1bd cebb 9fbc
00000120: 0826 bbbd 1c94 0f3f 6634 0c3e 16db d6bd
00000130: b78c 8cbe 47ad 9bbe 7fc0 383d 62d8 1b3d
00000140: c52d 70be fca4 51be 0dce 18be b478 fa3d
00000150: f24f cf3d 2118 883e 8ac2 6c3e 8ec0 aebe
00000160: e52a dabe 7d87 283e 1477 1cbd ef99 9bbe
00000170: 274e a9be d705 14bc 03ec 5dbd 21f4 a2be
00000180: d94c 36be 48bb b83e 7d9a 5b3e 0bad 5ebe
00000190: 0a0b 86bd a9de abbd 981a 65bd 00b1 363e
000001a0: 5b16 e9be f653 30bd 1bd1 21be 2253 eb3d
000001b0: 108e 1cbe 3f78 aabd 4bcb 983d c505 a43e
000001c0: eae4 33be 600c a33e 3c63 43be 3683 83bd
000001d0: 2875 9b3e 74f1 733d 7b0c a7bd 93fe 1ebe
000001e0: 894c 273e d36a 453e 4402 263d 82f0 163e
000001f0: 0333 083e 55d1 a0bd fd23 44be 6f63 10be
00000200: f71e c7bb f887 2abd 9e18 c6bc 2d9c 863e
00000210: 0f27 c3bd 6f0a aa3e bb89 d5bc b67b 113b
00000220: 6baf 2b3e 9421 19be d32c 083e c7a0 393c
00000230: cda5 853e 3719 77bd 6218 fabc 314c 22be
00000240: 7bfc a73e 8dcf 1a3e f245 4e3d e77c 10bd
00000250: b9bc 10bd 4439 43be 8133 b2bd 6815 a1bd
00000260: aa66 373e 736d 293c dee2 513d 5976 4b3e
00000270: a149 3d3d 64e2 0dbe 3111 3fbe 417b 97be
00000280: c7e7 343d 33b0 93be 038e 94bc c44c d2bc
00000290: c1b9 8abc adfc 593e 5b52 d1bc c70c 8fbe
000002a0: e1ff 03be 3a2b 3a3e 6cba 9a3d 3227 8cbb
000002b0: fc8a 7f3e bd03 853e c951 87be 20a4 923e
000002c0: 9a3b 91be be0e 7bbd 01e7 a4bd fa1b 873d
000002d0: 92b6 13bd 172d 7cbd cc48 643e f9bc 2bbe
000002e0: 60d1 9b3e c00b 1b3e 5557 993c 19d5 233e
000002f0: f01c 893d 140a 43bd 0382 083d 214a f5bd
00000300: 37dc 7cbe 494f d1bd 0ed3 2bbe 679b d63d
00000310: cd19 8ebe 7111 65bd 59ef b83d c2f4 8d3d
00000320: 37fd 16bb 7105 0b3d ad43 f53e 8a68 5b3e
00000330: 67f2 ec3d f1e1 163d 483b 9d3e 3ad0 c33e
00000340: 3900 afbc a161 8fbe 1cd4 8a3c 9fd7 ea3d
00000350: 434c 56be 42c1 4dbe c152 40bd 0353 a53d
00000360: 80e3 8fbc 8e0f b9bd 06fd 3ebc 29f2 173e
00000370: c517 873a ed3b ebbe b2b1 57be beac e0bc
00000380: f2bc 1abe a7d9 abbe 769a 6b3e a954 b7bd
00000390: 6ac6 333c 58f6 24be 0d83 aa3d c741 883d
000003a0: 5489 bc3d d75b df3d 9aaf 763e fe0d 7c3d
000003b0: 3408 14be 0b51 da3e 23f4 ddbd 142c 1cbe
000003c0: f9e1 7dbe cb7a e7bd 6713 64bd 66ef 2e3e
000003d0: d3f2 a83a 84d4 f3be 4997 a5bd 8d8a 3fbe
000003e0: 9ed3 4cbe 1a5e bebd 72c8 1dbe 8ed6 663d
000003f0: f255 843d faa3 59be 3a38 37be ee00 623e
0.13126561 0.001423359 0.23604825 0.24740046 0.22078045 0.11977231 -0.2936143 -0.10217121
0.11436179 0.10062456 -0.055988472 -0.14692532 0.26726407 -0.18796892 0.034088437 -0.20571153
-0.2446198 -0.16329278 -0.21406938 0.11731878 -0.17203929 -0.35026047 -0.15189943 0.052703027
0.15375909 0.10054864 -0.16561519 0.0783262 -0.2934231 -0.10145346 -0.10085335 -0.1341718
0.13334389 -0.044341214 0.21080826 -0.19213706 0.02702761 -0.14805624 0.3167697 0.02193727
-0.1760526 0.043954816 -0.19782716 -0.32851577 0.033108123 0.053805202 0.03201303 0.09798208
-0.11299985 -0.1102091 -0.052558634 0.025870664 -0.157095 -0.095531896 -0.38073397 0.20545551
0.11666589 0.10874938 0.017286541 0.06171807 -0.071041934 0.089549586 -0.002402551 -0.0015115947
-0.008212297 0.014885509 -0.06728565 -0.0052826507 0.09554781 -0.17581445 -0.10235623 -0.019498732
-0.09138113 0.5608537 0.13691863 -0.10491006 -0.27451107 -0.30405638 0.045105454 0.038048156
-0.2345496 -0.20473093 -0.14922352 0.122300535 0.1012267 0.2658091 0.23121086 -0.34131283
-0.4261085 0.16457935 -0.0381995 -0.3039088 -0.33067438 -0.009034595 -0.054180156 -0.3182688
-0.17802753 0.36080384 0.21445651 -0.21745698 -0.06545074 -0.083920784 -0.055933565 0.17840958
-0.45524868 -0.04304882 -0.15802424 0.11490466 -0.15288568 -0.08323716 0.0746065 0.32035652
-0.17567793 0.3184538 -0.19080824 -0.06421511 0.3036282 0.05955644 -0.08156677 -0.155268
0.1633779 0.19279031 0.040529504 0.14740184 0.1330071 -0.07852427 -0.19154353 -0.14100431
-0.0060766893 -0.041633576 -0.02418166 0.26291028 -0.09528934 0.33211085 -0.026066652 0.0022198982
0.16766135 -0.14954215 0.13298349 0.011329836 0.26103058 -0.06032678 -0.030529205 -0.15849377
0.32809815 0.15118237 0.050359674 -0.035275366 -0.03533623 -0.19064814 -0.0870123 -0.07865411
0.17910257 0.010341036 0.051241748 0.19869365 0.046212796 -0.13855892 -0.18658902 -0.29586223
0.044166353 -0.28845367 -0.018134123 -0.02567137 -0.016934277 0.21287794 -0.025551965 -0.27939436
-0.12890579 0.18180552 0.075550884 -0.0042771334 0.24955362 0.25979415 -0.26429585 0.28640842
-0.28365785 -0.061293356 -0.08051873 0.06597133 -0.036062784 -0.06156644 0.22293395 -0.16771306
0.30433178 0.15141201 0.018718401 0.15999259 0.066949725 -0.047617033 0.033327114 -0.119770296
-0.2469338 -0.102202006 -0.1677973 0.104788594 -0.2775406 -0.055924837 0.09030027 0.069314495
-0.0023039111 0.033940736 0.47903195 0.21426597 0.11569672 0.03683657 0.3070929 0.38244802
-0.02136241 -0.28004172 0.016946845 0.11466908 -0.20927529 -0.20093253 -0.04695392 0.08072474
-0.017564535 -0.0903617 -0.011657005 0.1483847 0.0010306766 -0.45944157 -0.21063879 -0.02742612
-0.1511114 -0.33564493 0.23008141 -0.089516945 0.010972599 -0.16109598 0.08325777 0.06653171
0.09205881 0.10906189 0.24090424 0.06153678 -0.14456254 0.42639956 -0.10837581 -0.1525119
-0.24793233 -0.11302718 -0.055682566 0.17083511 0.001288975 -0.47623074 -0.08085496 -0.18705197
-0.200026 -0.09295292 -0.15408495 0.05635696 0.06461705 -0.21253958 -0.17892542 0.22070667

predictor.net.1.bias f4 [32]
00000000: 8803 e0bd 680c 203e 8af4 df3d 3c11 cc3d
00000010: 511d cc3d 5701 073e 16a6 babd 6625 89bd
00000020: f9fc edbd 0db6 dfbd 5e9a e93d 9a92 e8bd
00000030: a380 d3bd 8c92 d53d 692a 03be 96ff ed3d
00000040: 2c83 cc3d 4afc 043e 6d89 e9bd 72c3 cf3d
00000050: 8501 d03d 6679 c23d e452 163e fc9e cbbd
00000060: 8ab0 97be f290 02be 9b9a 013e 9859 cb3d
00000070: 2d8e 09be ba5b 013e 8d62 cf3d 2ee2 c4bd
-0.109381735 0.15629733 0.10935314 0.09964225 0.09966529 0.13184105 -0.0911371 -0.06696586
-0.11620516 -0.10923395 0.11406396 -0.11356087 -0.1032727 0.10428342 -0.12809147 0.11621015
0.099859565 0.12986866 -0.11403165 0.101447 0.1015654 0.09495811 0.14680058 -0.09942433
-0.29626876 -0.12750605 0.12656634 0.09929198 -0.13433142 0.12632647 0.10126219 -0.09613453

predictor.net.3.weight f4 [1, 32]
00000000: edc7 25bf fc9f 313d 18ee 553e 68e8 6f3d
00000010: a597 af3e ab8e 453d b0cf a6bd 3dae 5abc
00000020: ec22 a6be 89b1 ebbe 5e67 363e b1e0 81bd
00000030: 6455 fdbe 9734 243e 0625 2fbe 3813 903d
00000040: bb70 d13e b978 e23d c0ae 0dbe c954 003f
00000050: d37f 1e3e b50e 993d 30d4 f63d 8410 50be
00000060: 928e d4bd 2c76 1abe 9fed d33d 34a3 cb3e
00000070: f5b8 6abe 1704 983e c76f 603e 3e80 3abe
-0.6475819 0.043365464 0.20891607 0.05857125 0.34295383 0.048231762 -0.08145082 -0.013347206
-0.32448518 -0.46033886 0.17812869 -0.063416846 -0.4947921 0.16035686 -0.17103967 0.07034916
0.4090632 0.11058182 -0.13836193 0.5012937 0.15478449 0.07473508 0.1205219 -0.203188
-0.10378756 -0.15084141 0.10348057 0.39772952 -0.22922118 0.2969062 0.2191764 -0.18212983

net.0.weight f4 [60, 35]
00000000: 61ef 89bd 060b 79be 9c44 aebd 7971 333e
00000010: 49a8 d1bd 2f2d a2bc 1a05 03bd fb35 66be
00000020: 451f d43d acd3 233d 7f1f 1b3e 1548 6cbd
00000030: eed3 593e 2024 8f3d 297d ffbd 16e3 b13d
00000040: 94e9 f1bc 7864 f1bc 153a 4b3e 76cf b7bd
00000050: 4364 07bd b6e8 2dbc a2a9 113e 4ba9 8fbd
00000060: 8d20 433d f076 ee3b 5c9a 4fbd b7c3 84bd
00000070: a25d 9cbd e6b2 ee3c 5dd6 37bc 78e5 07bd
00000080: 90cf 12be 221c 1abe 2578 a5bd ee26 3a3e
00000090: 2db2 823c 9109 613d 8271 653d 41b4 f83d
000000a0: bfca 0c3e 97bc 6cbc 987b eebd 7eed 70bd
000000b0: 5f55 713c 849f 283e 0971 803d 4b61 9f3e
000000c0: 46f6 08be c4d9 a13d e988 893d 83dc 243e
000000d0: 6b90 563d 610b fc3c 986e 9c3d 0374 f1bb
000000e0: 8464 063d 1a8a 31be d682 563d 8101 f73c
000000f0: 69c6 7d3e 383d 2c3d e144 7f3e 0bd1 243d
00000100: b24d a03d bfeb 46be d635 1f3e 3872 f6bd
00000110: 074e a93d d696 093e 8262 90bb 30ba 483d
00000120: cae1 183e 2725 89be 4537 2d3e 11f3 373e
00000130: b847 4f3d 6055 99bd 5590 d7bb 7a9f 62bd
00000140: 7020 ff3d 845c 82bd 5fb2 5dbe eb2e 27be
00000150: 4518 45bd efe9 3cbe 4605 713d aa42 0ebc
00000160: d603 49be 4b51 293d 139d 73bd 3076 34bd
00000170: 6945 653d f9bc 953d 9aa4 88bc 35b8 d03d
00000180: 69e6 34be 59c9 6dbe fd82 41be d444 2f3e
00000190: 3725 e53d ef18 493e 9e15 d83d 29ac e9bd
000001a0: 9c28 c33d c8c6 0dbe 9179 0cbe 7fb4 19be
000001b0: 0240 a03c 44a7 52be db0f dd3e 60bb 503c
000001c0: 41a3 6b3c 86ae 2abc 5260 583e 015d 3abd
000001d0: f43f 47be 9f9d 3f3e de6a 913e eca9 6dbd
000001e0: 29c2 90be 578d 363e 45b2 813e 0923 8fbd
000001f0: b045 a7be fa55 b13d 8b80 1b3e 408f 22be
00000200: 8993 21bd bbeb 493e 0fe8 79bd 6e06 993a
00000210: cfdf d23d 35e5 2fbd d7e0 3ebd 63de cb3d
00000220: a9aa 9fbd 6f5c 2c3e db12 14be c1ef 163c
00000230: 0b28 a73d 2b15 8dbd a2a8 2f3e 915d bb3d
00000240: c878 d93d 0f2d 8fbd d832 73bc 2398 513e
00000250: 2717 0b3d 4bcd 693d ebef 96be 63e8 5a3e
00000260: 9aca b73c 6c7a c83d a804 acbd 1509 54be
00000270: 6938 01be 7d59 39be 2f29 45be 0e94 8cbe
00000280: f2bc f93d f9a4 d33c b732 87bd 36e3 efbd
00000290: 66da 173d 480c f5bc 590d 8b3e a481 12be
000002a0: 689a db3e b032 03be b719 8bbc ba3a 303d
000002b0: d253 61be 68ec dd3d 0a69 fe3c 7ad4 a0bd
000002c0: f597 fe3d 46de acbd 2f10 05bc 6260 51bd
000002d0: 5c74 533d bc6e 90be 8f43 983d 6845 aabd
000002e0: c4c5 7f3d 56ca c6bd 9044 513d 08ca dcbd
000002f0: 6f60 5b3e a562 573d 40d3 133e 4555 43bc
00000300: 7f84 8abd c5b0 0e3e fa49 8ebe 754b 5c3d
00000310: 26ff 50bd 991a 2f3d 89fa 293d a76f 5c3e
00000320: 827c e33d 442d 86be f60f 3fbe e1e0 31be
00000330: 5a72 743e bdcd 25be eacb 83bc d2bd 56bd
00000340: 0b32 a93e a49b 39be 2c27 153e 0616 bf3c
00000350: 29b7 233e cee9 e6bd d286 4dbc 9904 3b3d
00000360: 8fee c33d 5b0a 923c d6d9 ad3d e707 91bd
00000370: 4f84 6a3d 5d97 78bd c54d 5b3d 57c8 1b3d
00000380: 245f ce3c f855 aebd 3ce2 4c3e 954b fa3d
00000390: 741d 983e 12b6 d3bd 3873 fa3d 303c 37be
000003a0: 0424 05bd 8053 4fbe 6cd5 e5bd 9a63 52b9
000003b0: 11df cabd baf5 0dbe 0fc0 58bd 70ca 1abc
000003c0: 1a13 7cbe 699f abbd f7cc a2bd 44cd b13d
000003d0: 966d afbd a413 423e 3de9 86bd 5776 8bbd
000003e0: 7422 4e3d 22e0 09bc a4c8 0b3d f009 a9bd
000003f0: 86c3 863e 9ce9 44bd 947a e53d e2a8 c63d
-0.06735111 -0.24320611 -0.0850918 0.17523755 -0.10237176 -0.019796936 -0.031987287 -0.2248153
0.10357527 0.039996788 0.15148734 -0.05768593 0.21272251 0.06989312 -0.12475044 0.08685891
-0.029530324 -0.029466853 0.19846375 -0.08975117 -0.0330546 -0.010614565 0.14224866 -0.07014712
0.047638465 0.007277362 -0.050684318 -0.06482642 -0.076350465 0.02913804 -0.011220542 -0.033177823
-0.14336991 -0.15049794 -0.080795564 0.18178913 0.015954101 0.054940764 0.056016453 0.12143756
0.13749216 -0.01444926 -0.116446674 -0.05882024 0.014729827 0.164671 0.0627156 0.31128916
-0.13375196 0.079028636 0.06715567 0.16099744 0.05238382 0.030767145 0.076382816 -0.007368566
0.032810703 -0.17337838 0.05237087 0.030152084 0.24782719 0.04205057 0.24928619 0.04023842
0.07827319 -0.19425867 0.1554788 -0.12033504 0.08266836 0.13436446 -0.0044062743 0.049005687
0.14929882 -0.26786157 0.16915615 0.17963816 0.050605506 -0.07486987 -0.006578485 -0.05532787
0.12457359 -0.06365302 -0.21650074 -0.16326492 -0.04811885 -0.18448614 0.05884292 -0.008682886
-0.1963037 0.041337293 -0.05947597 -0.044058025 0.055974398 0.07311434 -0.01668005 0.10191385
-0.1766602 -0.2322134 -0.18897624 0.171161 0.11188739 0.19638418 0.10550998 -0.1140979
0.0952923 -0.1384536 -0.13718249 -0.1501026 0.019561771 -0.2057162 0.4317616 0.012739986
0.0143821845 -0.010417586 0.21130493 -0.04549885 -0.1945799 0.18712471 0.28401846 -0.05802338
-0.28273132 0.17827354 0.2533132 -0.06989104 -0.32670355 0.08658977 0.15185754 -0.15874958
-0.03944734 0.1971883 -0.061012324 0.001167489 0.10296594 -0.0429432 -0.046601143 0.09954526
-0.07796223 0.16832136 -0.14460318 0.009212435 0.081619345 -0.06888803 0.17154172 0.09148706
0.1061874 -0.06991016 -0.014843665 0.20468192 0.033957627 0.05708055 -0.29479918 0.21377711
0.022435475 0.09788975 -0.083993256 -0.2070659 -0.12619175 -0.18100543 -0.19253992 -0.27456707
0.121942416 0.025835501 -0.0660147 -0.11713259 0.037073515 -0.029913083 0.2715862 -0.14307266
0.4289124 -0.12812304 -0.016980035 0.043024756 -0.22004631 0.108361065 0.031055946 -0.07853027
0.12431327 -0.08440833 -0.008121534 -0.05111731 0.05162464 -0.28209484 0.07434761 -0.083140194
0.062444463 -0.09706561 0.051090777 -0.10780722 0.21423505 0.05258431 0.14436054 -0.011922185
-0.06763553 0.1393462 -0.27790815 0.0537829 -0.05102458 0.042749975 0.041498695 0.21526967
0.11107732 -0.2620641 -0.18658432 -0.1737094 0.23871747 -0.16191764 -0.016088445 -0.05242712
0.33045992 -0.18125778 0.14565724 0.023325931 0.15987839 -0.112750635 -0.012544351 0.04565868
0.09566986 0.017827203 0.084888145 -0.070815854 0.057255086 -0.060691226 0.053540964 0.038032856
0.025191851 -0.08512491 0.20008177 0.122214474 0.2970997 -0.103374615 0.122290075 -0.17894053
-0.03250505 -0.20246696 -0.112223476 -0.00020064265 -0.09905828 -0.13863268 -0.052917536 -0.009447679
-0.24616662 -0.083800144 -0.0794925 0.086817294 -0.08565824 0.18952805 -0.065874554 -0.06809681
0.050325826 -0.008415254 0.034126893 -0.082538486 0.26321048 -0.04807435 0.112050205 0.097001806

net.0.bias f4 [60]
00000000: 8c71 383e a3cf c6bd eb8a 0abe ef7b 3b3d
00000010: 5c40 d7bd 87ed 3e3e 5a3d 19bd c7f4 023e
00000020: a531 91bd 1027 89bd 829d d9bc 203b df3d
00000030: ce4a 893d 2374 08bd b7fb 793c eb59 da3b
00000040: 630b 073e 5d73 debd ea80 8c3d 4ec0 acbd
00000050: 980f b13d 7640 d83d 000f 493d a299 9ebd
00000060: 95e5 2ebc 950b 723d 13a8 113e 8f1e 023e
00000070: 61a0 1ebd 1488 d6b8 4840 bcbd 75ef 9ebd
00000080: e96e 1cbe 3c95 db3d 0eab 5f3d 9b07 db3c
00000090: 9f18 f2bd 8bb2 933d c321 573c 0bfa 9a3c
000000a0: 3757 b83c d6ab 05be 776b 8d3d d8fd adbd
000000b0: 965f ab3d b3c6 b63c 3b86 ccbc d909 e73c
000000c0: 42e2 de3d dab6 3c3d 73cb 0abe 4c30 3a3d
000000d0: 3b4a e33c db0c 073e 76b5 df3d 441e 5fbc
000000e0: 5772 553e 0481 473c 5a91 0d3e ca3f 56bd
0.18012065 -0.09707572 -0.13529555 0.04577249 -0.105103225 0.18645297 -0.037412025 0.12788688
-0.07089547 -0.06696904 -0.026564363 0.10899949 0.06703721 -0.03331388 0.015257767 0.006663551
0.13187937 -0.108618475 0.06860526 -0.08435117 0.086455524 0.1055917 0.04908657 -0.07744147
-0.010674854 0.059093077 0.14224271 0.1270697 -0.038727168 -0.00010229662 -0.09191948 -0.077605166
-0.15276684 0.107218236 0.05460649 0.026737025 -0.11821102 0.07211789 0.013130608 0.018918058
0.022502525 -0.13053831 0.06905263 -0.084956825 0.08367841 0.022311544 -0.02496635 0.028202938
0.10882999 0.04607282 -0.13554172 0.045456216 0.027745357 0.13188498 0.10923283 -0.013618056
0.20844398 0.012176756 0.13824978 -0.052306928

net.2.weight f4 [60, 60]
00000000: 5c3b 8a3e 66f9 f13d f6a7 7ebc 2b73 20bd
00000010: 3059 42be a982 013e 65ce aabd 2fa2 893e
00000020: 4cd7 a7bc f57c 173e c5be 683e d411 e1bc
00000030: cb27 87be 7b66 86bd 9753 71bd 70dc e1bd
00000040: 1bae f33d 5671 f9bd f5d6 9ebd 70c1 39be
00000050: 7ca3 063e 4640 fabd fe69 74bd 2226 94bd
00000060: 16ab 7dbd a84f ebbd d290 ef3a 637c e63d
00000070: d652 0b3e a6b1 04be 1228 2a3d 7a52 393e
00000080: 11a9 893d a108 a3bd e934 babd dfac edbd
00000090: 5389 43bd 445c 99be 8550 713d bf1e ebbd
000000a0: 499d 1d3e 183f 423e 0f11 eb3d 2de9 a23d
000000b0: fb1e 943e 7608 14bd 6b1f 20be d8e6 fcbd
000000c0: e400 9e3d 6093 9f3d 867e 18bd 4eb2 f4bc
000000d0: b2dc ed3d 3b8e 05be 5355 123d 5b37 05bd
000000e0: f96e 853d fdee 113c f141 69be 8400 783d
000000f0: 8fd9 7f3d c3ef bb3d d063 86bc 6952 c63c
00000100: bc17 513d 1f03 3e3e 02e6 c23d 46a2 25be
00000110: fd3e 2dbe 568c 313e f89b a8bd df35 8c3d
00000120: 3486 25bd f6c9 27be adce b93d cbed 5abe
00000130: 16e1 bcbd b758 40be 1ec7 b1bd bac5 74bd
00000140: 0891 a43b 178e 3f3e df3f cdbd a8d2 273c
00000150: c4e2 ebbd 6192 a13d fd95 863d 4558 3bbe
00000160: 38d6 abbd 5642 6abc 68ca f23d 48d4 8b3d
00000170: 6ca1 bbbd b4cd 90bd e365 fabd df76 52be
00000180: 1162 a7bd 9542 88bd 1b5d 02bd 4c59 56bd
00000190: d78e a03d f2b3 073e eb0e 40bd 2f8c 14be
000001a0: 23d5 113e ae44 e8bc 2f2d a8bd b683 163e
000001b0: 8a6d 6cbe 1e55 013e cb36 cdba aa64 2b3e
000001c0: 52dd e6bd 0e08 ccbd 1af9 b5bd 4da9 b73e
000001d0: 7cf5 173d dd3d f7bd c8da 2bbe 8ca0 f93d
000001e0: 2249 703e 48b5 ac3e d237 26bd 97d4 7fbd
000001f0: 25a5 5abd 39b9 063d 4151 36bd 9757 4cbe
00000200: 0526 543e f0d8 c93d 5adf 4f3e 70a2 57bc
00000210: f470 c8be 5fa5 663d 4e11 6b3d 7b7d febb
00000220: 4b2f 7b3d 2cc4 a33d 407c d93d cefe eebc
00000230: 5aa1 40be 2a5f 7bbc 63c2 13be e191 8f3d
00000240: 1e17 edbd 5b25 37be d792 a43d 818d 183c
00000250: 1686 ce3d 965d 103e bb46 593e 9f4f 9f3d
00000260: 1f51 2e3e 3279 963c 7e76 adbe 34ef e5bd
00000270: 8c7b ddbd 462d 21be 709f fc3c d549 543e
00000280: 84ce edbc 2af4 993d 73af ee3c b90e 0f3e
00000290: 31b5 bc3d 717f 7dbd 9b0d 5a3e 618a c03d
000002a0: 474b 0abc f84c 79bd fee2 b43d c078 263e
000002b0: 242a 52bd 9005 4abe d287 50bd 9182 8f3e
000002c0: baca 5dbe ea4c 64bd 009c 193e 0dbb 433d
000002d0: f436 e23a b998 c6bd a0ed c63d 5919 4fbd
000002e0: bae5 1fbe 51ca 37be 8de4 4a3d 93ae 013e
000002f0: 6bf8 8bbd 285a 6e3e ab92 9e3c 6de7 62bd
00000300: 7302 d53c 249e bdbc ee97 abbd be49 2ebd
00000310: c4a0 5bbd 282e d0bd 1a9e 943d c131 58be
00000320: d0d3 99be 86df 363e 6014 043e 4104 10bb
00000330: cab7 1c3e 594c 0b3e 8c65 06be d827 02bd
00000340: f282 563e f28c 9a3d d590 42bd 68de d1bd
00000350: 5cee b83d b9e8 1abe ef6e ee3d 883c 41bd
00000360: d960 893d 10b4 d03d 7874 a8bd 8a8a 003e
00000370: b401 cabb c102 763d 0d4a 15be 3e1e 653e
00000380: 9af2 7d3d dc78 8dbc 8d69 263e b182 aabc
00000390: cb0a 9c3d 1de2 9d3e bee8 b0bb 4977 933e
000003a0: 2772 393d d040 a03d 0e79 663b 2c78 ccbd
000003b0: bcc3 163c 30a8 e1bd 4099 ab3c 72d0 acbc
000003c0: c273 993d 999a 88bc 2fcd 1bbd 7cbf 6f3b
000003d0: ad52 debd 1973 093d 4eef d2bd 4221 17be
000003e0: 5956 d13d d587 903d 86af aebd d88c 15bd
000003f0: 6c55 41be f512 0dbd f91c 733d c392 3b3d
0.26998413 0.11815147 -0.015542975 -0.039172333 -0.18979335 0.12647499 -0.08340148 0.2688155
-0.020488404 0.14793761 0.22729023 -0.027474321 -0.26397547 -0.06562515 -0.058917608 -0.11028373
0.11898442 -0.1217982 -0.077558435 -0.18140197 0.13148302 -0.122192904 -0.059671395 -0.07233836
-0.06193074 -0.114898026 0.0018277413 0.11254194 0.13605818 -0.12958393 0.04154212 0.18097869
0.067217 -0.0796063 -0.09092123 -0.11605238 -0.047738384 -0.29953206 0.05891468 -0.11480474
0.15392031 0.18969381 0.11477863 0.07954631 0.28929886 -0.03614088 -0.15636985 -0.123487175
0.077150136 0.077917814 -0.037230037 -0.029870179 0.1161436 -0.13042538 0.035725903 -0.032523494
0.06515307 0.008907077 -0.22779061 0.060547367 0.06246334 0.0917659 -0.016405016 0.024209218
0.051048025 0.18555878 0.09516527 -0.16175184 -0.1691856 0.1733869 -0.08232874 0.068462126
-0.04041119 -0.16385636 0.090726234 -0.21379773 -0.09222619 -0.18783842 -0.08680557 -0.05975888
0.005022172 0.18706547 -0.10021948 0.010243095 -0.115178615 0.07889248 0.06571577 -0.18295391
-0.08390468 -0.014298042 0.11855012 0.06827599 -0.09161648 -0.07070485 -0.122264646 -0.20553158
-0.081730016 -0.066533245 -0.031827074 -0.052331254 0.078397445 0.13252237 -0.046889227 -0.14506601
0.14241461 -0.028353062 -0.08211743 0.14698681 -0.23088661 0.12630126 -0.0015656588 0.16737619
-0.11272682 -0.09962474 -0.08885403 0.35871354 0.037099347 -0.12072346 -0.16782677 0.12188825
0.23465398 0.33732057 -0.04058058 -0.0624586 -0.05338015 0.032891486 -0.044511084 -0.19955288
0.20717628 0.09855831 0.20300046 -0.013161287 -0.39148676 0.056310054 0.05738955 -0.0077664233
0.0613244 0.07996401 0.10619402 -0.029174235 -0.1881155 -0.015342513 -0.14429621 0.07010246
-0.11576675 -0.17885344 0.0803582 0.009311081 0.100841686 0.140982 0.21218388 0.077788584
0.17023133 0.018368337 -0.33879465 -0.11227265 -0.1081458 -0.15739927 0.030837744 0.2073129
-0.029029138 0.07517274 0.029136395 0.1397046 0.09214247 -0.061889116 0.21294253 0.09401394
-0.008440799 -0.06086442 0.08832358 0.16257 -0.05130972 -0.19728684 -0.05091078 0.28029302
-0.21659365 -0.055737413 0.15000916 0.047785807 0.0017258809 -0.09697098 0.09713292 -0.050561283
-0.15614977 -0.17948271 0.04953437 0.12664251 -0.06834491 0.2327658 0.019357046 -0.055396486
0.026002144 -0.023146696 -0.08378588 -0.042550795 -0.053620115 -0.101650536 0.07256718 -0.2111273
-0.30044413 0.17858705 0.12898397 -0.0021975192 0.15304485 0.13603343 -0.13124675 -0.03177628
0.20948389 0.075464144 -0.047501404 -0.10247499 0.090298384 -0.15127839 0.11642253 -0.047176868
0.06707925 0.10190594 -0.0822534 0.12552848 -0.006164754 0.06006122 -0.1457903 0.22374818
0.06199894 -0.017269544 0.16251202 -0.020814272 0.07619246 0.30836573 -0.005398839 0.28801945
0.04527488 0.07824862 0.003516737 -0.099838585 0.00920194 -0.11018407 0.020947099 -0.021095488
0.07492782 -0.01667528 -0.038037475 0.003658264 -0.10855613 0.03355703 -0.1029955 -0.1475878
0.10221548 0.07057158 -0.08529572 -0.036511272 -0.18880242 -0.034441907 0.059353802 0.04579426

net.2.bias f4 [60]
00000000: 595e 6bbc 036d c8bd cc37 a53d 83e1 5e3d
00000010: 16d7 913d 4b55 a1bd 938e a03d 8207 40bd
00000020: a124 a43d d82b cc3d 5b69 c53d 244d 883d
00000030: 98ab 8cbd f172 77bd ce80 b53d 05ae 82bd
00000040: 27d0 d6bd d414 1c3d 8811 23bd 966d c63d
00000050: d6e7 01bd c94f 90bd 0dcf 98bd d049 653b
00000060: 3973 dcbd 9717 63bb 3d7c 1cbd d1d2 073d
00000070: d2de 37bd efdb ae3d d85a 6fbd f635 8abd
00000080: fb3e aebd 30af 32bc 11e4 e0bc aadf 713c
00000090: db90 003d 85d2 b83d e14d 483d c78b 3e3d
000000a0: 2e21 29bc 467c 6dbb 6563 dc3d 3ac6 563d
000000b0: e664 a43d 4fc9 cdbd e6fc 103d b32f d53d
000000c0: 29c8 dc3d ec75 4fba 7c21 093d 23a8 5bbd
000000d0: 9937 a53d 2211 db3c 895b bcbd e552 a0bc
000000e0: 52f2 65bc 015a 5d3d 66e8 2d3d 80f1 823d
-0.014365756 -0.09786417 0.08067283 0.054414283 0.071211025 -0.078775965 0.07839694 -0.04688216
0.08014799 0.099693 0.096392356 0.066553384 -0.068686664 -0.06041235 0.08862458 -0.06380848
-0.10488921 0.0381058 -0.03981164 0.096888706 -0.031715237 -0.07046468 -0.07461367 0.0034986623
-0.107641645 -0.0034651512 -0.03820442 0.033160035 -0.044890232 0.08538043 -0.058436245 -0.067485735
-0.08508106 -0.010906026 -0.0274525 0.014762798 0.031388145 0.090245284 0.048902396 0.04652002
-0.010322852 -0.0036237403 0.107611455 0.052435137 0.08027057 -0.10048162 0.035397433 0.104094885
0.10780365 -0.0007913995 0.0334792 -0.053627145 0.08067245 0.026741568 -0.091971464 -0.019570777
-0.014034824 0.054040913 0.04245796 0.06393719

net.5.weight f4 [1, 60]
00000000: 4659 7d3e 7d29 ef3d c2bb e3bd d8e6 eabc
00000010: 52ea d4bb 9464 9a3e 8e91 d6be 6d85 d43e
00000020: c910 3abe 9177 693e 2feb 3fbe 68ad 9ebe
00000030: 4f52 e9bd a9b3 04be b6b1 99bd 3918 893e
00000040: f58f 69be 98dc b5bb aef4 c9bc ac8a 09bd
00000050: 4d4c a83a 7229 2f3d fa42 ae3c 4305 0dbe
00000060: 6727 aa3e d760 873d 44a9 28be a663 373e
00000070: 31aa 4abc 14d5 793c 2d3e 483e 0cc1 86bd
00000080: 8476 473e b09a 383d 76f9 3dbe 7a20 933d
00000090: 169d 783e 5ad1 103b 3bf7 7abe ed20 163e
000000a0: 5660 08be 680f 25bd 3cb2 053d e7e9 19be
000000b0: c241 e1bd a436 b7bb 2e38 db3a 0014 c4bc
000000c0: 49c7 83bd 10c6 d1ba d640 1cbe 45a0 edbd
000000d0: 08ac 2cbd 6047 d93d 560f 0f3e 0359 3dbd
000000e0: 68c6 0cbc cc0c 9c3b 558e 46be d5ec 293e
0.24741086 0.11677835 -0.11119796 -0.028674528 -0.0064976597 0.3015486 -0.41907924 0.41508046
-0.18170466 0.22799517 -0.18742059 -0.30991673 -0.11392652 -0.1295916 -0.07504599 0.26776293
-0.22808821 -0.0055499785 -0.024652805 -0.033579513 0.0012840122 0.042764135 0.021272171 -0.13771538
0.33233187 0.066102676 -0.1647082 0.17909107 -0.012369678 0.015248556 0.19554968 -0.065797895
0.19478804 0.045069396 -0.18552193 0.07183929 0.24278674 0.002209744 -0.24508373 0.14660998
-0.13317999 -0.040297896 0.03264068 -0.15030633 -0.109988704 -0.0055912305 0.0016725117 -0.023935318
-0.06434495 -0.0016004462 -0.15259108 -0.116028346 -0.04215625 0.10609317 0.13970694 -0.046227466
-0.008592226 0.0047622677 -0.19390233 0.1659425
