results of reviewer/XJTU results/0-0/Experiment8/model.pth (torch, 59838 bytes, 14 tensors)

encoder.net.0.weight f4 [60, 17]
00000000: a739 e3bd cf00 1dbe 8341 f2bd 0e9c 873c
00000010: 262c 243e 715b fabc 524f 21be 087e 0a3e
00000020: 6483 3d3e 7058 903d c1ba 50be 654a 2a3e
00000030: ec43 1d3d daed 873e 1396 14be d98e 0d3e
00000040: f859 8a3e aa91 5f3e b0c2 093e 0291 213d
00000050: c7c7 cb3c f674 2bbc e327 11be e7f6 d9bc
00000060: 552f 763c 0a84 303c 8aa1 293d c2b3 b73e
00000070: e3ec 89be cd95 8e3d 68d7 02bd c909 423e
00000080: 16b6 763e 9c55 bc3d c6f4 063e 44db 44be
00000090: e3be 743e 6469 3abe 62cc 0d3d 0734 bdbc
000000a0: c5c4 4bbe a4f8 86be b455 2abe 739f a5bd
000000b0: 3641 84bd 3d36 0ebe 67a8 d03c 409f 243d
000000c0: c992 06bc fab9 a8bd 79bf 1f3e 0a8a 68bd
000000d0: 18e3 c6bd a0b0 f63d c52e 913e 4b7a a8bd
000000e0: a01d b0bd 01e1 80bd f571 eabd 1692 dfbd
000000f0: 1561 1c3e f106 66bd cd5b 723c 70e0 393d
00000100: 9e10 1fbc 13bf 1cbd e7f1 98be 16e4 c5bc
00000110: 2f4b 39bc 6379 34bd 039a bb3d a6f7 963e
00000120: 0114 a63d 5579 f43c e15b 13be 2142 d93d
00000130: acc8 6bbc 3eaa 21be 3f5a ed3c b0b2 823e
00000140: b098 853e 5882 c7bd f7db d2be 2b24 1c3e
00000150: eec2 a83d b756 443d be1a bf3d 7f6b d4bd
00000160: 18c0 56bd 0de5 ecbd da6c b8bc 7eb2 fabd
00000170: b715 913c db8f f5bd b276 823d 7999 91bc
00000180: 2359 c7bd e25c 71bd f80e 963e 3880 2a3e
00000190: e96e 98bc f66a 4d3d 5f60 423d c0b8 ebbd
000001a0: 62d0 9dbe 3bad 193c 4c73 f1bd f6fa ebbd
000001b0: f60d f23c fd5c 453c 96b1 00be a504 913e
000001c0: 7781 b2bd e124 363e 668c 623e 58b5 9bbe
000001d0: 7f68 223d 3cfc 8d3d 4b05 753d aa8a d6bc
000001e0: a768 0cbe 2824 e03b a85a e13c 29f0 c73d
000001f0: a8dc d73c 9dd6 c7bd 1c29 993e 0307 0d3e
00000200: 3655 6cbb abf1 013e 77bf 923c e122 f8bc
00000210: 4c22 f23c e336 23bd 4a24 523e 3a6d 9d3d
00000220: 52e5 303e 224c 8dbd 5692 1c3e 0090 a63e
00000230: 6278 c73e 5ac9 1c3d d7f8 a13d 8bf9 46be
00000240: d7a2 ac3d b424 c33d 8ed4 c4bc 1e88 723d
00000250: a1b2 053f 81b3 233e 1e63 d8be dedd 57be
00000260: 1ebe a63e ec71 07be a553 2e3e 7742 77bd
00000270: 0fd7 f6bb 6691 cebd 8718 53bd aa42 eb3d
00000280: 49c6 6cbd 5814 043e 96de e1bd 131d c4bd
00000290: 9eff 043e e5d4 dc3d 2016 73be d089 6d3c
000002a0: 47da d13d e76b f73d 585d da3e c53b bdbd
000002b0: a9a8 953e 95fe dbbd 2c81 333e 326d 1ebe
000002c0: 38f3 743e 2d6e 813e 3196 dfbc 797c 17be
000002d0: 47d8 003e 5e97 a3bd ff3a 5f3e 8960 743d
000002e0: c1d4 a2bd 53a9 acbe cbb8 34bd 3afb 8ebe
000002f0: 7797 c03d 030c 29be f41e af3d 98ba 543e
00000300: 91c1 5f3d 4a7b 1bbe 053d 403c b065 703d
00000310: fc5e f53d a7d7 b73d ff1c f0bd 63f7 62be
00000320: 80c0 05be 9031 9dbd 3d60 5d3e 84af 3e3e
00000330: d417 27be 61b2 093e 3c4a a9bd 76d3 3d3d
00000340: 453e aabd 797a 9e3c 84f3 acbd 49db 78be
00000350: 316b 96bd bc2b 82bd 09c5 e1bd 6ff0 e93d
00000360: 240a 7cbe 247e 43be 3ab7 8e3d 65ae ee3b
00000370: 219f 093e 7acb 8b3e 687b 93be 0dbc 69bd
00000380: 1f2f 563e 4371 483d 430d 013e 7387 973d
00000390: 77c1 a3bc 8d7f 87be 9093 093e f041 9ebe
000003a0: 8611 58bd 374d dcbd 2c39 6abe f7e4 cbbd
000003b0: c8a2 4bbd 188f 833c 55d2 0e3e 5d3f bc3d
000003c0: 957a 4a3e 03e0 853e 36c7 f33d 08f8 a53e
000003d0: f99c f1bb f29e 2c3d d19c 9d3d 97c5 8e3d
000003e0: 88c0 943d 7a43 a7bd 085f e6bd 33fa 6e3e
000003f0: b017 3c3d 13c7 b4bd 64b6 18bc 56ea 3cbe
-0.11094981 -0.1533234 -0.118289016 0.016553905 0.16032466 -0.03056118 -0.15752915 0.1352464
0.18507153 0.07048118 -0.20383741 0.16629942 0.038394853 0.26548654 -0.14510374 0.13824023
0.27021766 0.2183291 0.13453174 0.03944493 0.024875535 -0.010464897 -0.14175372 -0.02660699
0.015025933 0.010773668 0.04141382 0.35879332 -0.26938543 0.06962166 -0.03194371 0.18949045
0.24092898 0.09196016 0.13179311 -0.19224268 0.23900943 -0.18204266 0.034618743 -0.023096098
-0.1989928 -0.26361573 -0.16634256 -0.08087053 -0.064577505 -0.13887878 0.025470925 0.040190935
-0.008213707 -0.08238597 0.15600385 -0.05677227 -0.097112834 0.12045407 0.28355995 -0.082264505
-0.085994005 -0.06292916 -0.11447517 -0.109165356 0.15271409 -0.056158964 0.014792395 0.045380056
-0.009708552 -0.03826816 -0.29872057 -0.024156611 -0.011309429 -0.044061076 0.09160235 0.29485816
0.08109284 0.029843012 -0.14390518 0.10608316 -0.014391106 -0.15787598 0.028973697 0.25526953
0.26093054 -0.09741658 -0.41183445 0.15248172 0.08240305 0.04793426 0.093312725 -0.10372066
-0.05242929 -0.115671255 -0.022512842 -0.12241076 0.01771055 -0.11990329 0.063702956 -0.017773377
-0.09733798 -0.05892647 0.29308295 0.16650474 -0.018607574 0.050150834 0.047455188 -0.11509848
-0.30823046 0.00937968 -0.11789569 -0.115224764 0.029547673 0.012046096 -0.12567744 0.28323856
-0.087161 0.17787506 0.2212387 -0.30411792 0.039650436 0.069328755 0.0598195 -0.026189167
-0.13711797 0.0068402477 0.027509049 0.09762604 0.026350334 -0.09757731 0.29914176 0.13772206
-0.0036061532 0.12689845 0.017913563 -0.030290069 0.02955737 -0.039847266 0.20521656 0.07686849
0.17274979 -0.06899287 0.15290198 0.32531738 0.38959032 0.03827796 0.079087906 -0.1943113
0.08429497 0.09528485 -0.024027135 0.059211843 0.5222569 0.15986444 -0.4226312 -0.2108073
0.32566923 -0.13227051 0.17024095 -0.06036612 -0.007532961 -0.10086326 -0.051537063 0.114873245
-0.057806287 0.12898386 -0.11028783 -0.09575858 0.12988135 0.10782794 -0.23738909 0.014498189
0.10246711 0.120811276 0.4264934 -0.09239916 0.2923024 -0.10741917 0.17529744 -0.15471342
0.23920906 0.2527937 -0.027293297 -0.14793576 0.12582503 -0.079878554 0.21799849 0.059662376
-0.07950736 -0.33722934 -0.044121545 -0.27926046 0.094038896 -0.16508488 0.08550826 0.20774305
0.05462796 -0.1518375 0.011733298 0.058690727 0.119810075 0.08976679 -0.117242806 -0.22164683
-0.13061714 -0.07675469 0.21618743 0.18621641 -0.16317683 0.13446952 -0.08266112 0.046344243
-0.08312658 0.019345509 -0.084448844 -0.243024 -0.07344664 -0.06355998 -0.110239096 0.11422812
-0.24613243 -0.19091088 0.069685414 0.007283973 0.13439609 0.27303678 -0.2880509 -0.057064105
0.20916413 0.04893614 0.12602715 0.07398882 -0.019989712 -0.264645 0.13435197 -0.3090968
-0.052751087 -0.10756915 -0.22873372 -0.09955781 -0.049715787 0.016059443 0.13947423 0.09191773
0.19773324 0.2614747 0.11903231 0.32415795 -0.007373449 0.04214377 0.07695926 0.06971281
0.07263285 -0.08167167 -0.112485945 0.23337631 0.045921028 -0.08827033 -0.009320829 -0.18448767

encoder.net.0.bias f4 [60]
00000000: 4db5 613c c934 5d3d ebfa 163d 2df6 88bd
00000010: 5558 1e3d b874 c33c 5620 783c ae08 28bd
00000020: 0e25 ae3b 5ef3 1abd 0da5 cabc 2999 8ebd
00000030: 203f 073d 6acd bcbb da0b 233d ed11 dcbc
00000040: d72e 513d 1db7 c7ba 87a4 613d 44b8 2bbd
00000050: 5ae8 243d 8769 9ebd 682a 6dbd 1aa2 3ebd
00000060: 7e17 6b3d 6e2f 18bd 5a6c 0b3d 8e7b b03c
00000070: 22c3 5d3d 0c6f e63c e812 db3c 8bc2 59bd
00000080: 0cb6 483c 20ef 253d 49e4 f33c eaab 88bd
00000090: 4691 23bd 0b8f 6ebd 41e2 3ebd 36aa 2ebd
000000a0: c7d1 17bd 8e2b aebc dca4 45bd 32d1 343d
000000b0: 9eea 063d 029a 2bbd 0f90 fb3c d61a 193d
000000c0: 692e 58bc 26c3 1c3d 30bf 02bd 4472 dabc
000000d0: 03d3 17bd 9575 4c3d 52cf 393d 0b33 533d
000000e0: f596 56bd 450b 27bd ca32 253d 28ab 1f3d
0.013776136 0.054005418 0.036860388 -0.06687579 0.03865846 0.023859367 0.015144428 -0.041023903
0.005314476 -0.03782975 -0.024736905 -0.06962807 0.033019185 -0.005761792 0.039806224 -0.026864016
0.05107006 -0.0015237067 0.055088546 -0.041923776 0.04026065 -0.077349715 -0.05790177 -0.04654131
0.05739545 -0.037154607 0.03403888 0.02154329 0.05414117 0.028129123 0.026742414 -0.053164046
0.012250435 0.04051125 0.02977194 -0.06673415 -0.039933465 -0.058241885 -0.04660249 -0.042642795
-0.037065294 -0.021261003 -0.048252925 0.044144817 0.032938592 -0.04189492 0.03070834 0.03737911
-0.013194659 0.038272046 -0.03192061 -0.026665814 -0.03706647 0.049916822 0.04536373 0.05156235
-0.052390058 -0.04078223 0.04033164 0.038981587

encoder.net.2.weight f4 [60, 60]
00000000: a1e5 89bd d926 ccbd 6140 df3d 0b44 fbbd
00000010: 384c 1fbe 8b03 6f3e 1635 8cbe d98a 65bc
00000020: d994 bc3b 5a82 e03d 28b5 b43d a1f3 84bd
00000030: ae80 833d e65f 353e 7e1a d5bd e3ef 1f3e
00000040: e624 0abd 7d76 933e 837d 693d f6ee 883c
00000050: f34a e9bd 705c 3dbe 9cd0 2d3e 2580 e1bd
00000060: c10d 33be d885 fd3c 8299 b6bd 5818 71bd
00000070: 4260 83bc 71d8 9fbd 038e 11be bba4 05bd
00000080: e379 4cbd 54ea 803d 3e00 24be db76 883e
00000090: f056 1a3e e370 a0bd a6ab 923c 8640 3b3e
000000a0: 8f0c cb3c cc45 d23b 94ac 6c3c 1188 62bd
000000b0: 5cbe 3ebe a198 64bc 98e7 813e 9c16 0abd
000000c0: 41b5 0cbe 7fc3 20be 2885 e33d e806 a5bc
000000d0: 260e 353e cfa4 b5bd 0320 d7bd df7c 42bd
000000e0: 108b b0bc 9003 b2bd c1dc 273d c298 01be
000000f0: ba36 8c3e 1b4c 66be f71b b0bd f602 86bd
00000100: 42fd e3bc 0e3c 443e 8b50 f23d 1ed1 4abe
00000110: cfdf 8e3d 6b88 b7bd 3289 e63c b126 c5bc
00000120: 5321 4bbe 019d e9bd a555 3bbd 2b03 1abc
00000130: 8691 573e aa2f bbbd efcf fcbd 1941 4f3e
00000140: fbc1 f0bd 1961 923c 0a21 c13d 0d44 a83d
00000150: caef e8bc 3624 e43d bbe5 e73d 3cab 0fbe
00000160: 6f8d fbbd 74ce 7b3e 7d61 22bd 0ce8 28be
00000170: ffd7 bbbd 0eb5 013e 8e66 0fbe 621a 65be
00000180: 1c20 64be 551f 463d 923b 473e 9cd8 6d3e
00000190: 4097 44be 5963 76be 187a b63c 7f38 ffbd
000001a0: 1873 89bd 44be cabd 19bb d7bd 0051 813e
000001b0: 58dc 88bd a4b0 7bbc e07c 9fbd 9f65 903d
000001c0: d394 bcbd 3c1b d03d 0aac e4bd a4a1 103e
000001d0: d493 a73c 3800 f33c 1ba6 443d 4ffb 573d
000001e0: 29f7 a4bd b85b 963c 936e 23bd 60c8 a83d
000001f0: 99b7 833c 47ec a0bc 1240 893d 248f 493e
00000200: 4d60 54be 33e0 bbbc 004b 8c3b 65cc 5bbd
00000210: b139 b6bd 1e7b 9ebd ee0a e1bd 4035 303e
00000220: 37f5 9d3c 16d1 0d3e b3ba 5fbd 07a3 85be
00000230: 8989 283e 332f 33bd 505b 83be ab7d 89bd
00000240: c728 adbd 1f94 c93c 82d0 eb3c a669 2f3d
00000250: d0fa 14bd 8c39 24be 652d aabe cb1e 1abd
00000260: 8f4a 6f3e d305 e53d 7c9d 9dbd b57b e6bd
00000270: e7e1 18bd 69ce 68be 1acd a4bd 691b c53d
00000280: 4515 df3d a806 00be 02b0 923c 0632 ca3d
00000290: 7e1a ba3d 6938 abbb 509b ddbd 936d 143e
000002a0: c9eb 8bbd 6421 6a3d 6774 233e 4844 e03d
000002b0: e704 973d 5b13 35bd ec16 063e b7e4 843d
000002c0: d4a5 61be 4cc4 d8bc 4727 913e 89a6 9dbd
000002d0: 4372 c03d d1c8 533e 09f3 4ebd c29e 8abb
000002e0: 850f b93d 90ec 1fbd 6e73 523e 55f5 16be
000002f0: e7a1 d5bd 37c9 06be 0798 213e 903a debb
00000300: c9bb 8b3b a9b5 2b3e e346 11bd 1e63 a7bd
00000310: e487 373d dbb7 54bc 3435 10bd b0bd 4abe
00000320: f2bf 9abb 5b6f a6be 77fb f23d fca1 073e
00000330: 6df4 7d3d cae4 64be 7e7c 173e 8e13 5bbd
00000340: 8828 f43d 8cc3 a23d f19e 70be 8d10 c33d
00000350: 91cc d1bd 25a3 0d3d 43fe 923e 955c d3bd
00000360: 512e 05be 595c 1cbb 0384 42be 74cc 9a3d
00000370: b0d9 bfbd 1c95 11be 23c3 9ebd 9d2c 643c
00000380: 6df3 36bd 9314 cfbd c9d8 913b 751b 943e
00000390: 1623 43bc 3936 22be cea4 5dbe 9f75 8dbc
000003a0: 9387 3d3d be1c e2bd 6ca8 0a3e 6bdf 8ebd
000003b0: 387d 62be 53d7 a2bb 0abc 09be 2975 68be
000003c0: 8594 dc3d e0da 0b3e 114a 06bc 6621 a23d
000003d0: 0d3f 0cbe a113 973d fb81 16bd a6b7 d53d
000003e0: cb19 773d edd7 ccbc 3a10 d1bd 1154 48be
000003f0: 919b c33d 3b25 e4bd 4193 3f3d b227 46be
-0.06733251 -0.09968347 0.10900951 -0.122688375 -0.15556419 0.23341195 -0.2738425 -0.014010155
0.0057550487 0.109623626 0.08823615 -0.06491781 0.06421028 0.17712364 -0.104054436 0.15618853
-0.033726595 0.28801337 0.057004463 0.016715508 -0.113912486 -0.18492293 0.1697411 -0.1101077
-0.17485715 0.03094761 -0.08915998 -0.058861107 -0.01603711 -0.07804955 -0.1421433 -0.032627802
-0.049920928 0.062946945 -0.16015717 0.2665318 0.15072227 -0.078340314 0.017904114 0.18286332
0.024786262 0.006417012 0.014445443 -0.055305544 -0.18627304 -0.013952405 0.25372005 -0.03371297
-0.13741018 -0.15699576 0.11109382 -0.020144895 0.17681178 -0.08869325 -0.105041526 -0.047482368
-0.021550685 -0.08692086 0.04098201 -0.12655929 0.27385503 -0.2248997 -0.08599084 -0.065435335
-0.027830724 0.19163534 0.118317686 -0.19806334 0.06976282 -0.089615665 0.028141592 -0.024066301
-0.19836931 -0.11406899 -0.045735974 -0.009400169 0.21051607 -0.091399506 -0.12344348 0.20239677
-0.11755749 0.017868565 0.0943013 0.08216105 -0.028434653 0.11139719 0.113231145 -0.14030164
-0.12282836 0.24590474 -0.039643753 -0.16494769 -0.09172057 0.12666723 -0.14003965 -0.22373345
-0.22277874 0.048369724 0.19456318 0.23227161 -0.19198322 -0.24061336 0.022275016 -0.12461948
-0.067114055 -0.098995715 -0.10533733 0.2525711 -0.06682652 -0.015361939 -0.0778749 0.07050633
-0.092080735 0.101614445 -0.11165626 0.14124161 0.020456232 0.02966319 0.048009973 0.0527299
-0.080549546 0.018354282 -0.039900374 0.082413435 0.016078757 -0.019643916 0.067016736 0.1968351
-0.20739861 -0.022934055 0.0042814016 -0.053661723 -0.088977225 -0.077383265 -0.10988413 0.17207813
0.019281967 0.13849291 -0.05462141 -0.26100942 0.16458715 -0.043746185 -0.25655603 -0.067134224
-0.08455043 0.024606762 0.028785948 0.042825364 -0.036372006 -0.16037577 -0.33237758 -0.037627023
0.23368286 0.111827515 -0.076960534 -0.11254064 -0.037324812 -0.22734989 -0.080469325 0.09624369
0.10892729 -0.12502539 0.017906193 0.098728225 0.09087084 -0.0052252305 -0.10820639 0.14494924
-0.06832082 0.05716075 0.15962373 0.109505236 0.07373982 -0.044207912 0.13094682 0.064889364
-0.22035915 -0.02646079 0.2835028 -0.0769778 0.09396794 0.20682074 -0.050524745 -0.004230351
0.09036163 -0.039043963 0.20551845 -0.14742024 -0.10431271 -0.13162695 0.1578065 -0.0067818835
0.004264329 0.16768517 -0.035467993 -0.08173202 0.04480733 -0.012983288 -0.03520699 -0.19798923
-0.0047225887 -0.32506832 0.11864369 0.13245386 0.06200068 -0.22352901 0.14793584 -0.053485446
0.11921793 0.07947454 -0.23498131 0.09524641 -0.10244096 0.034579415 0.2870961 -0.10320393
-0.1300595 -0.0023858754 -0.18995671 0.075585276 -0.093676925 -0.14217037 -0.07752063 0.013926652
-0.044665743 -0.10111346 0.0044508916 0.28927198 -0.011910221 -0.15840997 -0.21644899 -0.017268
0.04627187 -0.110406384 0.1354081 -0.06976207 -0.2211808 -0.0049695163 -0.13450637 -0.22700943
0.10770515 0.13657713 -0.00819637 0.079165265 -0.13695927 0.07376791 -0.036745053 0.10435419
0.060327332 -0.025005305 -0.10208173 -0.19563319 0.09551156 -0.11139914 0.04677129 -0.1935108

encoder.net.2.bias f4 [60]
00000000: fd1d 0bbd 69ea 3f3d bd6c 983d cfc2 253d
00000010: 529a 113d 2d34 6abd 487a 32bd b3f6 c7bc
00000020: c13e fb3c cec8 83bd 44ea 41bd 92d0 5fbc
00000030: 295f 36bd 4d5a 00be 8f42 25bd 3acc 6a3c
00000040: e8a4 8cbc dbc1 29bd 00ca 6abd 6dec 283d
00000050: c764 193d 1ab5 03bd 0d1b 103d 372a 263d
00000060: debc c3bd 7baa b1bc b4c5 bc3c 12c0 5c3d
00000070: 6908 733c 6421 58bd 726c 173d cdcc fdbc
00000080: c79d e43c 2d81 863c 2428 283d c9c4 603d
00000090: c04a 173d fd92 033d 120c 95bd 399c 073c
000000a0: d110 193c e949 68bd 7a32 1a3d fb0f 223d
000000b0: c5ec 0dbd 3dd6 613d 8e17 82b8 eb1f 62bd
000000c0: 2fdf 943b fce6 fdbc 8280 fd3b 38f5 dbbc
000000d0: 8154 1b3d 4c24 293d 3fee 2a3d 2f07 563d
000000e0: f3b2 c5bc 57a5 993d 0fa3 103d a9d6 6fbd
-0.033964146 0.04685441 0.07442615 0.040468987 0.035547562 -0.057178665 -0.043573648 -0.024409628
0.030669572 -0.06434785 -0.047342554 -0.013660567 -0.044524346 -0.12534447 -0.04034668 0.014330918
-0.017168477 -0.04144464 -0.05732155 0.0412411 0.037449624 -0.032155134 0.035182048 0.040567603
-0.09557508 -0.021687737 0.023043491 0.05389411 0.014833548 -0.05276622 0.036968656 -0.030981446
0.027907265 0.016419018 0.041053906 0.05487517 0.03693652 0.0321226 -0.07277693 0.0082769925
0.009342388 -0.05671111 0.037645794 0.03956602 -0.03464963 0.055135954 -6.2032705e-05 -0.05520622
0.004543207 -0.030993931 0.0077362666 -0.026850328 0.037922386 0.04129438 0.041731115 0.052252945
-0.024133181 0.07502239 0.035311755 -0.058554325

encoder.net.5.weight f4 [32, 60]
00000000: f828 5f3b 64c4 b5bc 0048 843d 18d4 073e
00000010: e341 433e f73b 90be 4375 fdbd 1685 523e
00000020: 12d6 f03d e923 84be a79a 70be 4e88 823c
00000030: 3d4e f2bd e4f2 3f3e 4007 5abe 1497 e6bd
00000040: 9773 143e 6fc8 33bd a5fc f8bd f003 613e
00000050: 2dc3 653d 33ab 68bc 7172 0ebd 01b5 f3bd
00000060: 2473 9b3d 9d63 06be 9c21 743e 9a04 60bd
00000070: 47ba 95be 2ee4 123e c48d 653e a192 2b3e
00000080: 99fa 213e 903a 6bbd 328c 7fbd ac04 9db7
00000090: 0c5b 133e 2a8c 0c3e 3760 76bd 059c 06be
000000a0: 2e58 a0bd bc6f 38be b0e6 3b3e ef96 04be
000000b0: d176 0dbe b5fa 0d3c d329 37bd 7be2 ba3d
000000c0: dc0b 873d c108 143e d380 8f3e 00b3 28bd
000000d0: 5187 10be 3e65 4fbd 42f7 3d3e a08b 363d
000000e0: c34c 773e 0225 9bbd 9136 cbbd a8da 003e
000000f0: dc81 f93d f1af a3bc 533a 1b3e 01e9 293d
00000100: e18e 073e 2493 f6bd 0b1e c5ba 625f 313e
00000110: 8b91 4ebd 1039 883e 32ff 6fbe 53a0 333e
00000120: 53c9 8ebd 3fdd 653e e36d fabd 6e84 6b3e
00000130: 71a5 5e3e 5099 3d3d cc09 1d3e 6674 c93d
00000140: fe5c 0e3e ab60 01bc b678 223e 303b e8bd
00000150: 3f03 423e 389d 1f3e 1381 b7bd d1db fb3d
00000160: d8e2 f33d 1749 26be 119b d8bd 8618 683e
00000170: 8ebb a4bd e0a6 3dbb 7980 013e 5b49 74be
00000180: d714 763d 913f 423d 80ec 693d 903f ca3d
00000190: 21b5 0c3e 0001 273e 3fd2 87bb c25d ddbd
000001a0: acae f3bd 648f fd3d c697 fd3c 4939 d7bd
000001b0: 8b43 923d 0e9d c9bc 9793 0bbe 37b6 2abe
000001c0: 7457 bf3e f8ea 9dbd 264c 35bd 2d78 84be
000001d0: 5eac 553d 45e8 6cbd 8de8 e8bd 1c00 c8bd
000001e0: 9f30 07be 0ea2 0cbe 6d55 25be b55e 62bd
000001f0: 3836 70be 22f1 ccbd 5381 4cbe b6f2 0b3e
00000200: 5a54 9fbd 90d3 5d3d d872 3a3e d05e 3b3e
00000210: 3117 c8bc 5a0e 3c3d bc0e 153e 068c 123e
00000220: 093f 5d3d fc5f c9bd eadc 45be bbba 6ebe
00000230: e601 4bbe 7a5f b73d c4bd 04bc 3976 463d
00000240: c14e 31b9 55f0 75be 8e19 90be cbc1 be3d
00000250: 61fb d8bd e702 023e 3f7d 33bd 9b45 5e3e
00000260: cd1d e13d 7ee6 f73d aeb1 48bc 535a 2f3d
00000270: e37e 31be 4d5f babe 293a d0bc 3078 69be
00000280: 116e 133e db3b 1f3d ac3e f1bd 4d3a 95be
00000290: cdb9 283e 16f7 21be 7bd7 3abd b744 e63c
000002a0: ba16 1a3d 27a9 ba3c a4ad 97be 34dd 1d3e
000002b0: a54c fc3c 7411 3a3e ebfa fcbd efe6 55be
000002c0: 1803 bfbe bd46 e5bd 5cdf 2f3e d4b1 103e
000002d0: e1fd 2e3e 52af 67bc bae4 2f3e c546 1c3d
000002e0: b4b8 8abe e0b4 3ebe 84c2 0f3e ae24 ed3b
000002f0: 1c5b 54be 8bd8 7cbe 5e43 16be a9c3 ab3e
00000300: 9b01 bcbd bd56 a8be c80c 933b ef44 2f3c
00000310: e22f cd3d fb1b a5bd c236 af3d 419a d13a
00000320: 6c4d 903d a93c 0e3d e3ab 973c 7bbe 82bd
00000330: 55b9 a4bd ea8c 0dbd 4f28 5dbd 5783 923d
00000340: e789 3fbb fb8d d33d 5944 a13d 3005 06be
00000350: c7a1 703e 1df3 b93d 65ff 1fbe 40d0 e13d
00000360: 8c20 6ebc fb77 b3bd 56d1 d0be 4703 093b
00000370: ea41 a2bd ace5 1cbe 1f3e 553d e960 9abe
00000380: 0009 e73c 8660 823e dcec 343d 1816 1b3c
00000390: 4e73 603d f9f9 973c 6d8c 6e3d 7444 063e
000003a0: 15dc 683d 0fdd 673c b354 fc3d d7cc 07be
000003b0: 38c6 133e 9bfd 173d f45f f1bd d814 d6bc
000003c0: 6cc1 c6bd 6e8a d3bd a12b 113e b6d4 973e
000003d0: bfe9 82be 4db6 63be f51e 993c adb4 cdbd
000003e0: 019c dbbd c974 e6bd 7b62 f73d b663 4abe
000003f0: 956a 883c 8aa7 24bd c54d 32be b0ef abbc
0.003405152 -0.022188373 0.064590454 0.13264501 0.19068103 -0.2817075 -0.123758815 0.20558581
0.11759581 -0.25808647 -0.23496495 0.015934136 -0.11831329 0.18744999 -0.21291828 -0.112592846
0.14497219 -0.04389232 -0.12157563 0.21974158 0.056094337 -0.014200973 -0.03477711 -0.11899758
0.07590321 -0.13123937 0.23840946 -0.05469189 -0.2924368 0.14344856 0.2241736 0.16755153
0.15818252 -0.057428896 -0.06238956 -1.8718034e-05 0.143902 0.13725343 -0.06015035 -0.13145454
-0.07829319 -0.18011373 0.18349719 -0.12948202 -0.13814856 0.00866573 -0.04471762 0.09125229
0.06594059 0.14456464 0.28027973 -0.041186333 -0.14114119 -0.05063366 0.18551353 0.04456675
0.24150376 -0.07575418 -0.09922517 0.1258341 0.12182972 -0.019981356 0.15158968 0.041481975
0.13238098 -0.120397836 -0.0015038861 0.17321542 -0.05043177 0.26606035 -0.23437193 0.17541628
-0.06971993 0.2244768 -0.122279905 0.22999737 0.21742798 0.04628879 0.15335768 0.09836654
0.13902661 -0.007896583 0.1586636 -0.11339414 0.18946551 0.15587318 -0.08960166 0.12297786
0.119085014 -0.16238819 -0.105764516 0.22665605 -0.08043586 -0.0028938577 0.12646665 -0.23856108
0.06007847 0.047423903 0.05711031 0.09875405 0.1374097 0.16308975 -0.0041449363 -0.108088985
-0.118985504 0.12380865 0.03095616 -0.10508973 0.07141789 -0.024611022 -0.1363052 -0.16671072
0.3737141 -0.07710832 -0.044262074 -0.25872937 0.052166335 -0.057838697 -0.113724805 -0.09765646
-0.13202141 -0.13733694 -0.16145869 -0.0552661 -0.23458183 -0.1000693 -0.19971208 0.13666806
-0.07779761 0.05415684 0.18207872 0.18297887 -0.024425121 0.045912124 0.14556402 0.14311227
0.054015193 -0.09832761 -0.19322553 -0.2331342 -0.19824943 0.089537576 -0.008101884 0.04845259
-0.00016909374 -0.2401746 -0.28144497 0.09314307 -0.10594822 0.1269642 -0.043820616 0.2170624
0.10992012 0.1210451 -0.012249393 0.04281075 -0.1733356 -0.36400834 -0.025418358 -0.22799754
0.14397456 0.038875442 -0.11779532 -0.29146042 0.16477127 -0.15816912 -0.045615654 0.028108938
0.03761933 0.022785736 -0.29624665 0.15416414 0.030798266 0.1817072 -0.12352546 -0.20888875
-0.37307048 -0.11195133 0.17175049 0.14130336 0.17089035 -0.014140921 0.17177096 0.03815343
-0.27094042 -0.18623686 0.14039046 0.0072370386 -0.2073788 -0.2469198 -0.14674136 0.33547714
-0.09179994 -0.32878676 0.0044876076 0.010697587 0.100188985 -0.080619775 0.08555366 0.0015991406
0.07046017 0.03472582 0.01851458 -0.063839875 -0.08043162 -0.034558214 -0.05399352 0.07153957
-0.0029226483 0.10329815 0.078743644 -0.13087916 0.23499213 0.09079573 -0.15624769 0.11026049
-0.014534127 -0.08763119 -0.4078471 0.0020906494 -0.07922728 -0.15321988 0.052061196 -0.30152062
0.028202534 0.25464267 0.0441712 0.009465717 0.054797463 0.018551813 0.05823939 0.1311205
0.05685051 0.014151826 0.123208426 -0.13261734 0.14431083 0.03710709 -0.1178588 -0.026132986
-0.09704861 -0.10329138 0.141768 0.29654473 -0.2556896 -0.22237511 0.01869152 -0.10044227
-0.10723115 -0.11252744 0.120793305 -0.19764599 0.016652385 -0.04019884 -0.17412479 -0.020988315

encoder.net.5.bias f4 [32]
00000000: 4a7e 0abc 02bd b1bd a3a2 42bd f416 7e3d
00000010: 627c 1d3d 5fbf 3fbd 45e9 4cbd a864 873d
00000020: 10fe 16be 7126 54bd e6f3 9bbc 7ca1 863d
00000030: e989 5abd 0ca4 b2bd 30a1 94bc ddc9 35bd
00000040: 878e 403d a2c9 8ebd 4832 313d 14ff 90bc
00000050: 13c8 41bd 580a 67bd ccd3 413d 5813 9f3d
00000060: d624 01be f4e4 35bd e3f5 623d 469a cabd
00000070: 5150 253e ffca 25bd 833f 2e3d d20c 863d
-0.008452961 -0.086786285 -0.047518384 0.06203361 0.0384487 -0.046813365 -0.05002715 0.066109955
-0.14745355 -0.051794473 -0.019037198 0.065737695 -0.053354178 -0.08722696 -0.018143266 -0.044381965
0.047010925 -0.06972052 0.043260843 -0.017699756 -0.047309946 -0.05640635 0.047321126 0.077673614
-0.12611708 -0.0444078 0.055410277 -0.098927066 0.1614392 -0.040476795 0.04254104 0.06545414

predictor.net.1.weight f4 [32, 32]
00000000: 766f bb3d 0204 debd 8334 0dbe 585c c33d
00000010: 3d8b 2c3e 7ac6 c2bd e8bc d23e a502 2bbd
00000020: d425 513d 6091 8fbe 7517 02be d23b 733e
00000030: 1076 9c3c 2e5a 063e 99eb a33d d33c 09be
00000040: dd69 ae3e 6e67 33bb 8cc8 f6bd a5d3 ba3b
00000050: df50 48bb fc91 a5bd 1618 773e f44c 6f3e
00000060: 5ecc 8fbe 565a 4f3c 7d51 d8bd dd30 0a3e
00000070: cfc4 55bc 550a b6bd 9683 88be 3155 c73d
00000080: 74cd babe 5349 923e 80a6 8c3e d5ee 6dbe
00000090: 3a2c 1ebc bda7 d2bc 47e7 603e f770 e0bd
000000a0: 3ede b23e 6723 073e 076f 59bd 7e03 3bbd
000000b0: 9c42 c33e 358b cd3d 47d5 81be 82fb d43d
000000c0: a8ef 05bc f945 983e 754a 603b f1e8 543d
000000d0: 7c94 2d3e fcfd 533e 6f80 1dbb 3c98 67be
000000e0: 0635 673e 9b23 103d 1c9a 29be 52f0 513e
000000f0: 7164 aabe 9514 fbbd ec6e 173d 0712 61be
00000100: ff10 3fbe 76fd 54bd 74a1 203e 7cb7 ad3e
00000110: de69 1cbe 20e7 153e 6fd8 503e 4dc9 883d
00000120: 9eb5 3dbd 172a 84bd 15bd 46be 9c64 ccbc
00000130: 96c8 eb3e b0b1 c6bd 7efd 1fbc d142 ff3b
00000140: 62e2 5e3d a628 0fbe 170e 97bd e51c da3d
00000150: 5c1f 9b3d e1ee a03d 8f0b ecbd 8b65 183e
00000160: b24c 3cba 55ce 52bd a272 f53d 2344 923e
00000170: 8ff0 e33e a3ed 9e3d 9c93 9e3b c170 383d
00000180: 1c5b a1be 36e1 b2be 645a 6c3d 7e5d 423e
00000190: 7c7a 33bd 2df4 cebd c7cf 31be 8968 043e
000001a0: 360c eb3c 2b3e 053e bb1d 723d 915f 923d
000001b0: 5526 c7bd 54ba 52be 5442 08bb fc2e 2e3d
000001c0: 44bc 3dbd 20f6 9e3d a6a7 26be ba86 673e
000001d0: 424f 863d 29ff 883e a3a3 b5bd 1ef1 0d3e
000001e0: 388f ed3d f07f dfbd 8b42 f1bc 873f 383c
000001f0: ff72 8b3e dcda 8b3e bd68 043e a99b 3cbe
00000200: 519f fc3d 2d63 013d f57d fe3d f0bc 243d
00000210: 5332 48be 349c be3c dd39 07be a3a1 db3d
00000220: db98 5e3e c5d9 61bd dda9 5b3e 5688 1d3e
00000230: 112b 903e eb08 723c 2ace 1dbd eeec a4be
00000240: 7ae0 8bbd 33ac b43d 0c97 e13d b3df 343e
00000250: 23d0 563e 5eab 84bd 7d21 453e c080 6cbd
00000260: 5e1b 2fbe 46b8 273b dbfe 30be 8f9d 1fbe
00000270: e221 e13d 9f96 fbbc 8d46 abbd 1120 28be
00000280: ce88 ffbd 965e 87bd 8e80 4cbe a526 d5be
00000290: 9a51 6d3d 9314 b9be aa39 823d 4b24 3fbd
000002a0: a65a 2c3e ff35 32be 1479 89be a7c3 663d
000002b0: f572 6fbe a4e2 a13c f0b7 92be 424e 5f3e
000002c0: c6e9 783e 1f2e 393e 8b32 93bd fa75 093e
000002d0: 96ae 5c3d afa8 56be 2cfb b7bd d6f6 bdbd
000002e0: 6466 843d e654 1b3d f1b3 10be cc60 563e
000002f0: 8811 823c d776 4b3c b590 f93b 67ec 3c3e
00000300: b94d 14bd b508 f8be 2fed e1be ac20 69bc
00000310: 8007 04bd 359a 2f3d 4054 41be ef50 d73c
00000320: 5732 6a3e 95d7 03be 4d19 ec3d eb2a f73d
00000330: 4375 95b9 0d26 693e d586 a8be f9ef 383e
00000340: 772b cdbd 2e1a a8bd fedb 1a3e c5f0 7b3e
00000350: afe7 b0bd 89b8 8f3d 15bc 893e fd97 54bd
00000360: c784 d23d cc33 583e 7b11 2a3e 9c7b 3b3e
00000370: 3cf1 9bbe bca8 353e e743 8b3d 68aa f33d
00000380: 310e 0dbd 4726 92be d271 54be 3a2b a7bb
00000390: deb9 49be 8cfc 1fbe 718e 28bc d46c 463e
000003a0: 18c8 03be 141d 27be 04b5 26bd 30e1 bfbd
000003b0: d4d0 41bd 827c 40be 9b68 123e 3623 df3e
000003c0: 5fdd d73c 1b06 773e d476 1bbe a709 383e
000003d0: 7d7c fbbb de07 6cbd b386 a83d d142 1fbe
000003e0: 6244 f33d 9094 cc3d 39ff 103e c490 803e
000003f0: 3a19 48be 1c69 85be 7b93 01be c59f 1dbe
0.09152119 -0.10840608 -0.13789563 0.095390975 0.1684999 -0.09510513 0.4115975 -0.04175057
0.051061466 -0.280406 -0.1270426 0.23753288 0.019099265 0.13120338 0.08003921 -0.13402109
0.34065142 -0.0027374881 -0.1204997 0.0057014995 -0.003056578 -0.08084485 0.24130282 0.23369199
-0.28085607 0.012655815 -0.10562418 0.13495202 -0.013047411 -0.088886894 -0.26662892 0.09733046
-0.36484873 0.28571567 0.2747078 -0.23235638 -0.009654099 -0.02571475 0.21963225 -0.10959046
0.34935182 0.13197099 -0.0530844 -0.045657627 0.38136756 0.10036317 -0.2535803 0.10399534
-0.008174814 0.29740885 0.0034224067 0.051979963 0.16951174 0.20702356 -0.0024032851 -0.22616667
0.2257882 0.035190206 -0.16562694 0.20501831 -0.33279756 -0.12259785 0.036971018 -0.21979533
-0.18658827 -0.05199953 0.1568659 0.3392905 -0.1527476 0.14638948 0.20395063 0.0667902
-0.04631578 -0.064533405 -0.19408067 -0.024950318 0.46051472 -0.0970186 -0.009765027 0.0077899476
0.054415114 -0.1398035 -0.07375734 0.106500424 0.07574341 0.078580625 -0.11525642 0.14882486
-0.00071830594 -0.051466305 0.11984755 0.2856761 0.4451947 0.07760169 0.0048393738 0.045029406
-0.31514823 -0.34937447 0.05770339 0.18980977 -0.043817982 -0.101051666 -0.17364417 0.12930502
0.028692346 0.13011996 0.059110384 0.07147134 -0.09724108 -0.20578891 -0.0020791488 0.042525277
-0.046322122 0.07761788 -0.1627489 0.22609988 0.06558086 0.26757172 -0.08869102 0.1386151
0.115995824 -0.10913074 -0.029450675 0.011245615 0.27236173 0.27315414 0.1293058 -0.18418755
0.12335075 0.031588722 0.12426368 0.040219247 -0.19550447 0.023267843 -0.13205667 0.10724189
0.21737997 -0.05513932 0.21451516 0.1538404 0.28157857 0.014772634 -0.03852669 -0.32212013
-0.06829925 0.08821907 0.11015138 0.1766346 0.20977835 -0.06477998 0.19251056 -0.057739973
-0.17100284 0.0025592013 -0.1728472 -0.15587448 0.10992791 -0.03071147 -0.08363066 -0.16418482
-0.12477265 -0.06609838 -0.19970915 -0.41631046 0.05793915 -0.3614851 0.06358655 -0.04666547
0.16831455 -0.1740341 -0.26850188 0.056338932 -0.23383696 0.019761391 -0.28655958 0.21807197
0.24307927 0.18084 -0.07187375 0.1342391 0.053877436 -0.20962785 -0.08983454 -0.09275596
0.06464842 0.037922762 -0.14131142 0.20935363 0.0158775 0.01241847 0.0076161274 0.18449555
-0.036206935 -0.48444143 -0.4412627 -0.014228981 -0.032233715 0.042871673 -0.18879795 0.02628371
0.22870766 -0.12875207 0.11528263 0.12068733 -0.0002850686 0.22768421 -0.3291537 0.18060292
-0.10018056 -0.082081184 0.15122983 0.24603565 -0.0863794 0.07017619 0.26901308 -0.05190276
0.102792315 0.21113509 0.16608231 0.18308872 -0.30457485 0.17740148 0.06800061 0.11897737
-0.034437362 -0.28544828 -0.20746544 -0.0051015886 -0.19699809 -0.15623683 -0.010287867 0.19377452
-0.12869298 -0.16319686 -0.040699974 -0.09369123 -0.047318295 -0.18797496 0.14297716 0.4358155
0.026350675 0.24123423 -0.15182048 0.17972432 -0.0076747523 -0.05762469 0.08228817 -0.15552832
0.11878277 0.099892735 0.1415986 0.25110447 -0.19540873 -0.26056755 -0.12653916 -0.15392978

predictor.net.1.bias f4 [32]
00000000: 8389 ecbd fbcc 00be fea6 ed3d ba44 b1bd
00000010: fe96 f33d 0224 cf3d 4d37 debd fa74 ed3d
00000020: 68ee d63d 9179 e63d 2b79 2dbe 07b4 c53d
00000030: c555 c63d fe27 be3d 1468 cabd 633b d2bd
00000040: 605c c53d 3d22 e33d fed2 d7bd 3511 cf3d
00000050: 9781 debd 3957 023f 9534 fb3d dec0 cf3d
00000060: 114c 083e 1c6b cf3d bd9f 23be 414f f1bd
00000070: 412a cfbd 4d4a c9bd d250 b43d 7e1f 113e
-0.11549666 -0.12578194 0.11604117 -0.08655687 0.11894034 0.1011429 -0.108503915 0.11594577
0.10494691 0.11253656 -0.16940753 0.09653478 0.09684328 0.09284972 -0.098831326 -0.10265233
0.0963676 0.11090515 -0.105382904 0.10110704 -0.10864561 0.5091434 0.122658886 0.10144208
0.13310267 0.10127851 -0.15978904 -0.117826946 -0.10115481 -0.09828625 0.08804478 0.1417217

predictor.net.3.weight f4 [1, 32]
00000000: 0300 19be 7665 a5be 5b50 f03d 813e 0cbe
00000010: e683 d53c 674d ac3e 7f9d 36be d2eb 4a3e
00000020: 5b8d a93e 7f43 4c3e 5f64 5fbd d9c0 883e
00000030: 9702 c13e 1032 383e 53fd 81be 5ead 92be
00000040: 34ea f43d bd19 613e 685f 98be cce5 5a3e
00000050: d837 84be ca9a ac3d fc41 443d 97b6 283e
00000060: 55e3 bd3d 87f2 3b3e 05da 2dbe 6cec 71be
00000070: 2e6b 86be cfa5 ecbd 4beb 933d d373 d43d
-0.1494141 -0.3230397 0.117340766 -0.13695718 0.02606387 0.33652803 -0.17833517 0.19816521
0.33115658 0.19947623 -0.05453908 0.2670963 0.37697288 0.17987847 -0.25388584 -0.28647894
0.11958733 0.21982475 -0.2976029 0.21376723 -0.25823855 0.08427961 0.04791449 0.16475902
0.09271876 0.18354236 -0.16977699 -0.23625344 -0.26253647 -0.11555063 0.07222613 0.10373654

net.0.weight f4 [60, 35]
00000000: 88a4 7d3c f24d 24be 477e 14bc cf26 24be
00000010: 2e4b 9cbd 6ad8 c93c 2ec8 25be a490 53bd
00000020: a37c ae3d 3e8b d33c e82e fe3d 9e52 8fbc
00000030: 27e3 95be e742 28be 06e7 c3bd ef81 d33c
00000040: e02a 3e3e 69aa 55be 0144 23bc f1ed 24be
00000050: 28dd 09be a1bb bb3d 2ce3 173e 982e 983d
00000060: c932 acbb 3ecb e73d 86a0 0a3e fbfd 9dbc
00000070: f511 643d 4da6 09be 5834 ab3d adb4 5d3d
00000080: f7a5 95bd 699a 083e 757f 4a3c a7d1 113e
00000090: 4b87 2e3d 85a1 8dbd 2bac 5a3d ea24 15be
000000a0: 7a25 25be 4bd9 91bd 688b 0d3e 56d4 1a3e
000000b0: a065 263e f2af febd b56b ad3b 7933 a93d
000000c0: 6032 5a3d 0a41 4bbe d491 cabd f2b7 2ebe
000000d0: 5189 69bd 5ce9 a0bd bba6 993e 7292 8dbe
000000e0: e72f fc3d 62dc af3c 5345 86bd 18a6 c13d
000000f0: 7e2e 81bd 5df0 d5bc cb53 a63c 4f2a 5f3d
00000100: 8147 fabc 61ed 7fbd 288a 413e 0739 aa3c
00000110: 2653 b2bb 2ea7 c7bd 6949 883d 899e 75be
00000120: 0082 80bc 715d 8fbe d504 53bd 01e9 603e
00000130: 953c da3c 70ac 92bd 0c97 1abe 4cb8 dd3c
00000140: 9f8d 003e 57ea 97be 1585 413e 2a29 10be
00000150: 23b7 f93d ffd4 ecbd ff9a f9bd 949c 2d3d
00000160: 6bd7 933e 2270 adbd 0f98 f73d b267 84be
00000170: de89 52be c246 ef3d 7641 b03d 8245 ebbd
00000180: c3f5 3e3e 926e 2c3d d0cf b23d fdd2 083d
00000190: e097 7a3e d595 413e 1aa0 4bbe 9291 313d
000001a0: 3ff5 433d e022 6ebe 5760 03be 7eac 53be
000001b0: a872 fc3c 7136 093e eb10 cf3d 82de 553c
000001c0: 1eff 46bd 49b2 63bd 8583 a7bd a112 84bd
000001d0: f855 3f3e f511 823d 1db0 8b3d c441 d0be
000001e0: 5fa3 01be a1a9 25bd bf0c dbbd be9a cfbd
000001f0: 7166 153d 23a5 81be 8ea6 52bd 383e ecbc
00000200: 8fc6 473d 4345 313e 241e f5bd 2c8c 443b
00000210: 8aa6 7d3c 04a6 49bd 274f bebd e301 c1b8
00000220: ae35 10be 890f a7be 8ff9 3bbe 2ad8 6f3d
00000230: 2020 cb3d edb6 7ebe 5d67 e23c 7182 883a
00000240: 4b6a d0bb b41c 19bd 5149 66bd 4c33 643c
00000250: 3311 cbbd d174 063e a920 a3be 2716 6abd
00000260: ef27 53be 3b6c 5cbb 19df 293d 8216 823e
00000270: 8d31 84bd 3900 f13d c7a2 4bbd 6ace 853e
00000280: f686 1a3e c8c4 df3e 8ceb 11be f2de 62bd
00000290: 3188 d43d 1c0b c53c 5967 e63c 66f2 b83e
000002a0: be1a 163e 841e 16be 0ff8 7cbe 55ff 0c3d
000002b0: e81a f03d 8248 d53d 8c09 43bc 70df 34be
000002c0: 282c e53c 85e2 9a3d 686b de3d 10d3 363d
000002d0: 5b64 c5bd a95b 6ebd ad07 ea3d 8ffc 4abd
000002e0: 57ea 8d3c 935c 053e 0364 83be 6081 353d
000002f0: 4790 a93d 7eb8 95bd 0256 37bd 1c3f cfbd
00000300: 6f89 e4bd fd32 3ebe b1c2 fdbd 3870 883d
00000310: f32f 5cbe 85ea 0abe ad55 56be 5d58 be3c
00000320: 904c db3d 717b fb3d c77c e43d cc48 513d
00000330: 0765 cd3d 9182 403e df80 393e 3351 b93c
00000340: 4a4b 5e3c b4c3 27be a742 40bd f8c5 d8bc
00000350: c748 68bd 11a8 77bc b003 8cbd f44c aebd
00000360: e865 cabd 4bbb 12be 7022 023e d344 c83c
00000370: 5fdc a5bd af6d adbe 0549 65be 262c 3cbd
00000380: 173c b63d 2e54 03bd 58e2 afbd 37f5 f8bc
00000390: 301a b73d 564b e93d 0dd9 923d 48cd 82bd
000003a0: ddbc d03d c9e6 6d3e b828 723d 0288 c7bd
000003b0: e233 76bc 60a6 103e b72c 21be da26 14bd
000003c0: ff5f 953d 2c0e 9ebc 6ca7 85be 5a35 113e
000003d0: 5a98 31be b4a8 e03b 9ccf c93c bea1 de3b
000003e0: 9850 cfbd a701 eebd 97d2 10be 85c4 8b3e
000003f0: 3340 e03d 5d7a 893d 4e2e 20bd 2a19 8cbd
0.015481122 -0.16045359 -0.00906331 -0.1603043 -0.07631527 0.024639327 -0.16189644 -0.051651612
0.08519866 0.025823232 0.124112904 -0.01749545 -0.29274866 -0.16431771 -0.095655486 0.025818793
0.18571043 -0.20865788 -0.009964944 -0.16106392 -0.1346327 0.09166647 0.14832753 0.07430762
-0.0052550775 0.11318062 0.13537797 -0.019286146 0.055681188 -0.13442345 0.08359593 0.054127384
-0.07307046 0.13340153 0.01235949 0.14240132 0.042609494 -0.06915573 0.05338685 -0.14564863
-0.16127577 -0.071215235 0.1382271 0.15120062 0.16249704 -0.12435903 0.0052923807 0.08261771
0.053270698 -0.19849029 -0.09891096 -0.17062357 -0.05701572 -0.0785701 0.30010018 -0.2765079
0.12313824 0.021467391 -0.06556191 0.09455508 -0.06307696 -0.02611559 0.020303627 0.054483708
-0.030551674 -0.06248224 0.18900359 0.020779146 -0.005442041 -0.09748684 0.06654627 -0.23986258
-0.015686989 -0.28000978 -0.05151828 0.21963884 0.026640216 -0.07161796 -0.15096682 0.027065419
0.12554024 -0.29670975 0.18898423 -0.14078203 0.12193134 -0.11564063 -0.12187766 0.042385653
0.28875288 -0.08468653 0.1208955 -0.25860363 -0.20560405 0.11683418 0.08606236 -0.11487867
0.18648438 0.042097636 0.08731043 0.03340434 0.24471998 0.18904813 -0.19885293 0.043351717
0.047841307 -0.23255491 -0.1282972 -0.2067127 0.030816391 0.13399674 0.10110649 0.013053538
-0.048583142 -0.055589948 -0.08179382 -0.06448866 0.18685138 0.06351081 0.068207 -0.40675175
-0.12659977 -0.040444974 -0.106957905 -0.101369366 0.03647465 -0.25321302 -0.05142837 -0.028838262
0.048773345 0.17311577 -0.119686395 0.0029990776 0.015481601 -0.04923059 -0.09292441 -9.2033086e-05
-0.14082977 -0.3262904 -0.18356918 0.05855576 0.09918237 -0.24874468 0.027637178 0.0010414851
-0.0063603274 -0.03738089 -0.056222264 0.013928246 -0.0991539 0.131305 -0.31860855 -0.057150032
-0.20620702 -0.0033633846 0.041472528 0.25407797 -0.064547636 0.117676206 -0.049715783 0.26134044
0.15090546 0.4370482 -0.1425001 -0.0553884 0.10377539 0.024053149 0.028125452 0.36122435
0.14658639 -0.14660078 -0.24704002 0.03442319 0.11723882 0.104142204 -0.011904132 -0.1766336
0.027975157 0.075627364 0.1086033 0.04463488 -0.09638282 -0.058192883 0.11427245 -0.049557265
0.017323656 0.13023596 -0.2566224 0.044312835 0.08279472 -0.0731058 -0.044759758 -0.10119459
-0.11159026 -0.18574138 -0.1239065 0.06662029 -0.21502666 -0.13566025 -0.2093112 0.023235494
0.107079625 0.12279404 0.11156612 0.051094815 0.10029035 0.18799807 0.18115567 0.022621727
0.013567755 -0.16383249 -0.046938565 -0.026461586 -0.05671003 -0.015115754 -0.06836641 -0.085107714
-0.09882718 -0.14329259 0.1270845 0.02444688 -0.08098673 -0.33872744 -0.22391136 -0.04594054
0.0889818 -0.032062702 -0.085880935 -0.030390365 0.08940542 0.11391322 0.071703054 -0.063868105
0.10192273 0.23232569 0.059120864 -0.09742738 -0.015027018 0.14125967 -0.15739714 -0.036169864
0.072937004 -0.019293867 -0.26104295 0.14180508 -0.17343274 0.0068560485 0.024635129 0.0067941835
-0.10122794 -0.11621409 -0.14142834 0.2729837 0.10949745 0.06712792 -0.03910666 -0.06840737

net.0.bias f4 [60]
00000000: 7d49 f8bd f2f6 dfbc 31e0 b7ba 7e9e c23d
00000010: dea2 303d d657 1dbd f387 63bd 58a9 d0bd
00000020: 4324 193c a85d fd3d 0613 383d e8cf 0cbc
00000030: f592 5c3d ddf7 0d3e 3a1d 693d b1c0 8839
00000040: 3eaa f53d a542 0ebd 09ed 2ebd c147 3d3d
00000050: b1d4 15bd 9457 c1ba 5f88 183d 530f ab3d
00000060: 4d2c c5bd 7b77 ad3c 5a32 cdbd 655b d63d
00000070: 61e6 103e a9a7 45bc 6ad0 0abe 05ef 213b
00000080: c4a0 2c3e 7461 f83d bb5d f4bd 82a5 893d
00000090: 3a71 c03c 372f 0cbc 22e7 063d 1ef5 6e3d
000000a0: 9139 51bc df2e fcbd d4d3 8fbd fa8c 1c3d
000000b0: 9d5f 243e 79b0 b4bc 4e57 823d 8a66 073d
000000c0: 1de7 f8bc d086 b4bd 8fd3 d5bc 99ee 48bd
000000d0: 9c50 a6bd 1e5e 123e a36a 90bd 6647 fc3d
000000e0: 49e5 dd3d 0d24 bb3d c716 0e3e 0f88 a1bc
-0.12123392 -0.027339432 -0.0014028606 0.09502886 0.043124072 -0.038413845 -0.055549573 -0.1018855
0.009347024 0.12371379 0.044940017 -0.008594491 0.053851087 0.13864084 0.05691264 0.00026083508
0.11995362 -0.034731526 -0.042706523 0.046211008 -0.03657979 -0.0014750832 0.03723943 0.08352532
-0.0962759 0.021175137 -0.100193694 0.10466651 0.14150383 -0.012063899 -0.13556066 0.0024709117
0.16858202 0.12127963 -0.1193194 0.06721021 0.02349149 -0.008556179 0.03293527 0.05833923
-0.012770073 -0.123136275 -0.07022825 0.038220383 0.16052099 -0.022056805 0.06364308 0.033056773
-0.03038364 -0.08814776 -0.026101856 -0.04905567 -0.08120844 0.14293715 -0.07051589 0.12318306
0.10834748 0.091377355 0.13875876 -0.019718198

net.2.weight f4 [60, 60]
00000000: 098d c3be 39b4 8abe 42ab f5bd d3b0 9fbd
00000010: d324 c23d 9e40 cdbc c58d 383d 7db9 933d
00000020: 815b c0bc ca07 463e 1c1a 0a3e c785 b5bd
00000030: bdcf cd3d 5a5b 10be b479 de3d 69c6 153d
00000040: 5be0 c43c 8bfc 8a3d 24cd dfbd 6171 20be
00000050: be35 07be b9ac 46bd 7ef2 91bc 950f 33be
00000060: f01d 0d3e 271a e63d df1e a03d df47 aabc
00000070: b3bc cbba 2253 cb3c 15a4 7f3d bc3e 67bd
00000080: 8a1b e53c 3e83 853e 4b19 9d3d c6c0 243e
00000090: ecaf 8a3d f5b7 ea3a b962 923e 9295 9abd
000000a0: 741f d03c 6eda 013c a0ce dc3d bdce a3bd
000000b0: ba89 133e bb5b 16be 9812 b33d 5aa3 87bd
000000c0: ac08 44bd e7f1 f23d 22ac 2cbe 3ed4 143d
000000d0: 281a 543e c2fa 043e 1424 e23d 5fb1 19be
000000e0: 6947 e0bd 2073 29be 1cc8 c3bc 485c 483d
000000f0: 937d fdbd aba1 a0bd 6fad 423d 88f7 e9bc
00000100: 43a3 073e fa11 403e abcd cb3d 30af 943d
00000110: da49 e9bc 736a d53d 166e b23c 462f 1abe
00000120: d540 5bbe 43c7 6bbd 99a6 3f3e ef86 0dbe
00000130: 953d ddbd 5497 77bc 6519 24be df39 0dbd
00000140: 89fb b7bc 1240 47be 97d0 993e 0c0e b53b
00000150: 1cad b63d df02 b3bb 5b9f 38be dd78 163e
00000160: 338a c23d 38cd 6a3e 6ece 94bd 6bdd f7bd
00000170: 1dd3 38be bdc3 593d dd3c a6bd bace 1bbe
00000180: 2a5e 78bc 257c db3d 37b7 b53c e2cd 363d
00000190: 4f2d 8d3d 7e2a 003e 2b0c 85bd 92c8 aabd
000001a0: 7441 bf3d d3cc 08bd d466 2f3d b249 663e
000001b0: c7e3 573e 489a 083e c777 3c3e 9b5a f73d
000001c0: dfc9 2dbc 00c6 6f3c d018 083c bf40 c03d
000001d0: 265a 22be 48ec b3bd 8fc2 b1be 88a6 c7bc
000001e0: 5704 dcbc be65 58be 4c0b 7f3e 1c90 883e
000001f0: 3b62 133e 7ef9 70bc 4e08 683e 99bc dc3d
00000200: 90e0 00be d117 01bd a856 f1bd 220b 75be
00000210: fde9 1b3e dace 41be 2c33 b6bc ba55 ebbc
00000220: b3c3 94bd 7ecc 393e e25d 3f3c ad15 9f3d
00000230: 7a1b f2bd 4300 5fbe 95fe 5dbd 9080 e4bd
00000240: 957c 313e fccf ddbd 233d e0bd 601c 79bd
00000250: a57e 393d b4a6 b13d ee38 153c d9cf 10be
00000260: 1448 6d3e 0cbe 203e 413e 943d 4574 0e3e
00000270: b4cc a03c 3a91 a53d 1aad 443e 11d4 16bd
00000280: ab86 37be d658 093d 714b ebbb fbed 95be
00000290: 785c 3a3c 96a3 f0bc d041 8a3d c325 78be
000002a0: 032f 31bd dfef fb3d d138 413c 193a 37bd
000002b0: a24e ca3d c5e9 723e 98b5 0ebc d0a2 21bd
000002c0: 7e45 c1bd f85d 233d c779 083e a7ca 21be
000002d0: 4feb c83d 9303 d13d a131 40bd 508c cebd
000002e0: 1446 73bd e0c7 7bbd 1b68 13bd 28be f43c
000002f0: fb95 a53d c6fe a8bd 5e2b 1dbd fe84 3e3e
00000300: ca82 f1bc 0e3a a03c 02ec 723b ed69 b7bd
00000310: 255c 303e 387a 813d 7040 4c3d 79e0 4dbe
00000320: 634b cdbd 691b febd bbdd 34be b237 cebd
00000330: 102f e9bc 5c1f c4be 1f60 f0bd 180e 033d
00000340: 5d3c 24be 045d c03d c510 083e 78e4 2abe
00000350: 3dfc c2bd 7d6f e33d 8a33 cbbd bcc0 453d
00000360: 1ba2 04be 9e19 0b3e cb01 053e 2791 c33d
00000370: f9c4 80be 2147 573d e5fc 3e3e c986 90be
00000380: 49bb 7a3e 2ca8 1c3e 478a 89bc 7097 5b3d
00000390: 3373 a0be 4235 54be 7b43 1abe af18 16be
000003a0: 59fe 15bc b089 1b3e b7a4 2fbe 0cc8 853e
000003b0: 5df4 39be 82fe c53c 238c 7bbc a0fe 633e
000003c0: 753f cebd c3a4 3fb9 7525 1abe 4ce9 013d
000003d0: 7ae2 b93d f805 a1bc 89d2 c73d fdb8 663e
000003e0: 44e6 073e 7ec1 703e e27b 68bd 5a03 133d
000003f0: b518 883c 8e49 0abe 0c3d 533e 83d3 133e
-0.3819354 -0.27090624 -0.119955555 -0.077973984 0.0947968 -0.025055226 0.045057077 0.072131135
-0.023481132 0.19338909 0.13486522 -0.08863407 0.100493886 -0.14097348 0.10863057 0.03656617
0.024032762 0.0678645 -0.10927799 -0.1566825 -0.13204095 -0.048504565 -0.017815825 -0.17486413
0.13780951 0.11235457 0.07818388 -0.020786224 -0.0015543908 0.024819914 0.06241234 -0.056456313
0.027967233 0.26076692 0.0767084 0.16089162 0.06771836 0.0017907607 0.28590944 -0.075480595
0.025405623 0.007925613 0.10781598 -0.079984166 0.14408007 -0.1468343 0.08743781 -0.06622954
-0.047859833 0.118625455 -0.16862538 0.036335222 0.20713103 0.12986282 0.110420376 -0.15009068
-0.109511204 -0.16547823 -0.02389913 0.04891613 -0.12377467 -0.07843336 0.04752868 -0.028560415
0.13245873 0.18756858 0.099513374 0.07259977 -0.028477598 0.10420694 0.021781009 -0.15057096
-0.2141145 -0.057563078 0.18715896 -0.13821004 -0.108027615 -0.015111763 -0.16025312 -0.03447902
-0.022458808 -0.19458035 0.30041954 0.005525356 0.08919737 -0.0054629887 -0.1802954 0.14694543
0.09499016 0.22929847 -0.07265936 -0.12102779 -0.18049283 0.053165186 -0.081170775 -0.15215579
-0.015159169 0.10717038 0.02218209 0.04462994 0.068934076 0.1251621 -0.064964615 -0.08339037
0.09338656 -0.03339846 0.042822674 0.2248905 0.21082984 0.13340104 0.18405066 0.120778285
-0.010607212 0.014634609 0.008306697 0.09387349 -0.15854701 -0.087853014 -0.3471875 -0.0243714
-0.026857538 -0.21132562 0.24906653 0.26672447 0.1439294 -0.014707921 0.22659418 0.1077816
-0.12585664 -0.031516854 -0.117841065 -0.23930028 0.15225978 -0.18926564 -0.022241198 -0.028727401
-0.07263889 0.18144414 0.011680098 0.07767806 -0.11821647 -0.21777444 -0.054197866 -0.11157334
0.1733268 -0.108306855 -0.10949161 -0.060818076 0.045286793 0.08674374 0.009107811 -0.14141788
0.23172027 0.15697497 0.072384365 0.13911541 0.01962886 0.080843404 0.19206658 -0.036823336
-0.17922466 0.033531986 -0.007180624 -0.29283127 0.011374585 -0.029374879 0.06750834 -0.24233155
-0.043257724 0.12301611 0.011793331 -0.04473314 0.09878279 0.23721988 -0.0087102875 -0.03946191
-0.09437083 0.039884537 0.13327704 -0.15799962 0.098105066 0.1020576 -0.04692233 -0.10085356
-0.059393004 -0.061469913 -0.035987955 0.02987583 0.08085247 -0.08251719 -0.038371436 0.1860542
-0.02948131 0.019558933 0.003706694 -0.089557506 0.1722265 0.063221395 0.04986614 -0.20105161
-0.100241445 -0.12407572 -0.17662708 -0.10069217 -0.028464824 -0.38305175 -0.11737084 0.031995863
-0.16038652 0.09392741 0.13287647 -0.16688716 -0.09520767 0.11105249 -0.0992194 0.04827951
-0.12952463 0.13583991 0.12988965 0.0954917 -0.25150278 0.05255807 0.18651159 -0.28227833
0.24485506 0.15298527 -0.016789569 0.05361122 -0.3133789 -0.20723441 -0.15064804 -0.14657854
-0.0091548795 0.15189242 -0.17152677 0.26129186 -0.18159623 0.02416921 -0.015353235 0.222651
-0.10070697 -0.00018276558 -0.15053351 0.03171663 0.090764 -0.019656166 0.09756953 0.22531505
0.13271433 0.23511311 -0.05675877 0.03589187 0.016613344 -0.13504621 0.20628756 0.14436154

net.2.bias f4 [60]
00000000: 15cd d2bc 43c8 35bc fcca da3b 747f b93d
00000010: ef33 493d 2632 a53d ad33 ae3d c514 933d
00000020: 7396 b9bd 3df7 693c 2483 2a3d 52b1 e43d
00000030: 18c5 f0bd 4e42 933d 92b7 d43d e0e1 813c
00000040: d19c c43d b4ce 89bd 0dfe 00be 48b1 b03d
00000050: 9a74 b53c 827f 553d bac9 f63d 0b23 013c
00000060: 8dd6 093d 03ca c23d 5594 973d 73bd 41bd
00000070: 6a10 753d 9c4f 9fbc 5fcc a43d 3258 003d
00000080: e000 abbd 8b76 803c bbc3 babd 807d 59bd
00000090: 0c84 b0bd 3d12 b5bd b8c9 a53c 9d7d 00be
000000a0: c27a b13d 723b e3ba afc9 fbbc 015e ee3c
000000b0: 45f4 083d 1e1a a2bd cb38 dfbc 7d3e 1e3d
000000c0: 44bc 3f3d e9e3 5e3b b1bd 1e3d 4c1e fb3d
000000d0: 8ab7 bd3c fbdd a2bd c533 a8bd 615e a53d
000000e0: 00b3 8e3d 93c9 423d 9524 6b3d 491a d4bd
-0.025732556 -0.011095109 0.0066770297 0.09057513 0.049121793 0.08066206 0.0850595 0.07181696
-0.09061899 0.014280138 0.04162897 0.11166634 -0.11756343 0.07190381 0.10386576 0.015854776
0.09600223 -0.067288786 -0.12596913 0.08627564 0.022150327 0.052123554 0.12050195 0.00788189
0.033651877 0.09511187 0.07401339 -0.047299813 0.059830107 -0.01944714 0.08046793 0.03133411
-0.08349776 0.015681526 -0.09119364 -0.0530982 -0.08618936 -0.08841369 0.020237789 -0.12547918
0.08665992 -0.0017336442 -0.030735819 0.029097559 0.03343608 -0.07915138 -0.02724876 0.038633812
0.046810403 0.0034010357 0.038755123 0.12261638 0.023158807 -0.07952496 -0.08212999 0.08074642
0.06967735 0.047555517 0.057407934 -0.10356576

net.5.weight f4 [1, 60]
00000000: 2063 803c 361d 36bd 527e 4f3e 0051 a73d
00000010: eed6 bb3d 95d7 833d 8bac b33e cec1 6dbe
00000020: 63cd bdbc d768 7c3e 4609 3a3e ad1c fc39
00000030: 400a e73e 3cfd 9d3a 8b5b fb3d cf86 55bc
00000040: f31b a43c 3fc3 c73d f57c 1dbe 870e aa3e
00000050: 299e 2bbe 8ebe 0fbe ab98 643d f5b5 fb3c
00000060: a9d4 78be ff74 f13d 8fc0 493e d671 243d
00000070: 84f5 b9bd 0a9f 4fbe c538 bcbe 2d93 a23e
00000080: 2ccf 7b3b fd97 513e 2777 1abe 23ac 1e3e
00000090: f66a 9bbc 2cd4 073e 4619 8abd e0e5 a93d
000000a0: 084f 913e 8fac 9abd 6576 85bc efc2 ab3d
000000b0: 4076 79be a137 213d ec1e b0bd 62c6 d03a
000000c0: 3b38 1d3e 3279 4fbe ad8f cabc 8c71 2e3c
000000d0: 1114 39bc 65cd ef3d 72c3 0cbe d5a1 50be
000000e0: c75e 193f ffa1 863e 48ac 2b3e d8e8 82be
0.015672266 -0.04446145 0.20263031 0.081697464 0.09171854 0.064376034 0.35092577 -0.23218462
-0.023169225 0.24649368 0.181676 0.0004808655 0.45125008 0.0012053619 0.1227332 -0.013032629
0.020032858 0.09754037 -0.15379699 0.33214208 -0.16759552 -0.14037535 0.055809658 0.030726412
-0.24299873 0.11789893 0.19702362 0.040147625 -0.090800315 -0.20275512 -0.36762062 0.3175291
0.0038423045 0.20468135 -0.15084516 0.15495352 -0.018971901 0.13264531 -0.06743102 0.08295798
0.2838061 -0.07552444 -0.016291806 0.0838679 -0.24361515 0.039359692 -0.08599648 0.0015928263
0.15353481 -0.20261076 -0.024726713 0.010647189 -0.011296288 0.11709098 -0.13746431 -0.20374234
0.59910244 0.26295468 0.16764939 -0.2556827
