results of reviewer/XJTU results/2-2/Experiment10/model.pth (torch, 59838 bytes, 14 tensors)

encoder.net.0.weight f4 [60, 17]
00000000: 2189 2ebe 6bdb 8f3d 7407 403e 800d 90bd
00000010: 401a 103e 227d 5dbd 0192 93bd e37c 813e
00000020: bd88 f33d 630f aa3d 1b41 3d3c acf0 823d
00000030: 3da9 453e f705 ee3d 31d5 bdbe 9ea8 9bbd
00000040: fca0 573c 1067 a6be 7356 943c f553 c43d
00000050: ad90 81be 92d4 2c3e 6469 bbbe 1dc5 ae3e
00000060: fcb8 85be b5c4 8cbd 0073 82bd eb46 edbd
00000070: 2eb2 32be 2540 5ebe 121b 76bb 41a8 123e
00000080: 3bcc 27bd b9c9 7b3b 91b5 633d aa9f 3cbe
00000090: 0d39 313d 6087 2f3d 7a32 c2bd 3ff7 a93c
000000a0: 5194 8e3d b9e9 4ebd 0f0b 68bd 435d c2bd
000000b0: befb f83e a270 04be c74a 49be d7a1 063e
000000c0: 5496 103e 5c8d c73d a8f5 50be 73b0 26be
000000d0: 9acb 69be 8f9f c4bd ffb5 33be 6927 843b
000000e0: 8c90 afbe f2d3 e6bd f28a 9fbd be1b fabd
000000f0: f3c7 ba3d f387 853d f27d eb3d 24ff 58bd
00000100: 84c0 ef3d dfe6 cbbd d345 1e3d 6c0d d43d
00000110: a1c4 823c 43dc cc3d 2d52 823e 3543 443c
00000120: 054f ef3d eb53 93bd c408 56be a771 363b
00000130: a5fa 273e 5687 c1bc c0b3 ea3d 39fe 213d
00000140: b772 4a3c 6334 0dbe 0a0e 2ebe 06fb 9b3d
00000150: c5f9 9e3c d654 91bd 85f2 193e d200 223d
00000160: dd2b 373e 4edb b73e f107 10bd 767e 893e
00000170: 972b 3dbd 73d0 003e 21e4 563d 279c cd3d
00000180: a982 8c3e 7366 24be 96f3 6fbe 9ca4 9d3e
00000190: 1385 a23e cf82 893d 89ea 32be e817 2b3e
000001a0: b3ed 8e3e b808 0bbe 4111 17be 8215 253e
000001b0: 1b42 953d 121f 933e 1bf8 873e 07be 0b3e
000001c0: 69a3 9cbe 335a 363e 4b5a 05be 1b59 3d3d
000001d0: 0353 0b3e db8f 453e 0bb0 d93d b069 f53d
000001e0: f986 76bd 4a9a 5e3d b7c2 ab3d 856f d63d
000001f0: 663b 6b3d c150 b1be 8c68 62be 11ed 22be
00000200: 2978 1e3e 8845 e4bd a666 12bd c77d 603e
00000210: c731 aa3d c8dd b03c d7e5 ee3d 0406 b5bc
00000220: 3490 a53e da2c 953c 2503 21be 06bd de3d
00000230: 36ec e23d 0581 24bc 152f 143e 489b 0fbe
00000240: c0c1 293e 5085 5b3d 0afb a43d fbfb 5c3e
00000250: a980 533c 02dd fcbd 904c cd3c 8823 cbbd
00000260: b811 083e 837e 793d db43 ffbd e3e8 673d
00000270: 6073 e9bb c331 8c3c 472d d63b bb12 22be
00000280: e5e1 f13d 61c1 a53c 59b8 92bd 29d3 2e3e
00000290: 201e 3fbe 690f 44bd c728 b1bd d80b ba3d
000002a0: 6360 693d ea78 6fbe 6c51 9fbd 13ab 553c
000002b0: fb0c 853d 9d36 793c d99e 07be ff09 83bd
000002c0: 0da7 8fbd 125e e63d 50f7 db3d 4d48 2ebe
000002d0: 941c 31be 09b7 433e e2a3 b53d 97b4 00be
000002e0: 8a34 0abc ef8a 493d 0262 013e b9b3 433d
000002f0: c888 d03d d453 383e bf0c de3d 1f95 ee3c
00000300: 932d c33d 3951 cabd 009f 40be 56f3 9a3d
00000310: d442 ae3b 7b7e 61be 04e0 903e 52ea 7c3c
00000320: a09a 8dbd e33c ca3d 0fd5 253e 07a5 4bbd
00000330: 9d1c babc ca6e ffbd 03d1 c53c 6e23 2fbc
00000340: de56 1a3d cec9 98be b3e0 f0bd be4e fc3d
00000350: 276d f73d 6be0 6eba 1cd2 fa3d 84e9 32be
00000360: 875c 893d 0ce7 1c3e 0da8 94bd cfcf 703e
00000370: a9ad f73d 3a10 aebd 1c5b b53d d7a7 f2bc
00000380: 69fa e8bb 3b6e 993d 9f2a 9a3e 52d7 903e
00000390: cb9d dbbd 9954 ef3d e39a 203d 4863 41bd
000003a0: f639 1a3e aa0b 62bd b9aa bebd d5e4 283e
000003b0: d65a 81be efec 6dbe f2dd 393d 838a 81be
000003c0: 6f1b 67be fba9 453d 6355 e03d 2d9a 5cbd
000003d0: f086 07be 6889 1abe 0c1f 003c a120 2bbe
000003e0: 90fa 193e f001 1abe c586 af3d 684a d1bd
000003f0: 1fbd 9cbe 3437 103e cf76 6f3d 15e9 a03c
-0.17044498 0.070242725 0.18752843 -0.07033825 0.14072514 -0.054074414 -0.072055824 0.25290594
0.11891315 0.08303716 0.011551167 0.06393561 0.1930284 0.116222315 -0.37076715 -0.076005206
0.01316094 -0.32500505 0.018107628 0.09586326 -0.2530569 0.16877964 -0.36603844 0.3413476
-0.26117694 -0.068734564 -0.06369591 -0.11585792 -0.17450783 -0.21704157 -0.0037552756 0.14321996
-0.040966254 0.0038419797 0.055593077 -0.18420282 0.0432673 0.042853713 -0.09482284 0.020747779
0.06961883 -0.050515864 -0.05665117 -0.094904445 0.48629564 -0.12933591 -0.19657432 0.13147675
0.14119846 0.09743759 -0.2040621 -0.16278248 -0.22831574 -0.09600746 -0.17549895 0.0040330184
-0.34289968 -0.11270894 -0.077901736 -0.12212323 0.091201685 0.06520071 0.114986315 -0.052977696
0.11706641 -0.099561445 0.03864081 0.103541225 0.0159629 0.10002949 0.2545332 0.011978914
0.11684994 -0.071937405 -0.20901781 0.0027838738 0.16404207 -0.023624104 0.11460066 0.039549086
0.012356452 -0.13789515 -0.16997543 0.07616238 0.019406209 -0.07096259 0.1503392 0.039551564
0.17887826 0.35909504 -0.035163824 0.26854295 -0.04618415 0.12579517 0.052463654 0.10039549
0.27443436 -0.16054706 -0.23432764 0.3078965 0.31742153 0.06714403 -0.1747228 0.16708338
0.27915725 -0.13577545 -0.14752676 0.16121486 0.07287999 0.28734642 0.26556477 0.13646708
-0.30593422 0.17807846 -0.13022725 0.046227556 0.13605885 0.19293158 0.10629281 0.11983049
-0.060187314 0.05434636 0.08386748 0.104704894 0.057429694 -0.34631923 -0.22110194 -0.15910746
0.15475525 -0.111460745 -0.035742424 0.2192298 0.083102755 0.021590129 0.11664932 -0.022097595
0.3233658 0.018209863 -0.15723856 0.10875897 0.1108021 -0.010040526 0.14471085 -0.14024079
0.16577816 0.053593934 0.080556944 0.21580498 0.012909093 -0.123468414 0.025060922 -0.099188864
0.13288009 0.060911667 -0.12464114 0.056618582 -0.0071243495 0.017113572 0.006536159 -0.15827458
0.11810664 0.020233812 -0.07164068 0.17072739 -0.18663836 -0.04786626 -0.08650356 0.0908429
0.056976687 -0.23385969 -0.07779202 0.013041276 0.064966165 0.015210775 -0.1324419 -0.06398391
-0.07014284 0.11248411 0.107405305 -0.17019768 -0.17296058 0.19112791 0.08869149 -0.1256889
-0.008435378 0.049204763 0.12635043 0.04777882 0.10182339 0.18000728 0.10842275 0.02912384
0.09530177 -0.09878773 -0.18810654 0.07565944 0.005318025 -0.22020905 0.2829591 0.015436726
-0.06914258 0.098748945 0.16194557 -0.04971793 -0.022718722 -0.12472303 0.024147516 -0.010689599
0.0376805 -0.29841465 -0.11761608 0.123197064 0.12081366 -0.00091124204 0.122471064 -0.17471892
0.06707101 0.15322512 -0.07258616 0.23516773 0.1209367 -0.08499189 0.08855268 -0.029621048
-0.0071099293 0.07491728 0.30110642 0.28289276 -0.10723456 0.116860576 0.03921021 -0.047213823
0.15061173 -0.055186905 -0.093099065 0.16493542 -0.25264615 -0.23234914 0.04537768 -0.2530099
-0.22569059 0.04825781 0.10953786 -0.05385797 -0.13235068 -0.15091479 0.007819902 -0.16711666
0.15036988 -0.15039802 0.08570627 -0.1021927 -0.30613038 0.14083558 0.058462914 0.019642392

encoder.net.0.bias f4 [60]
00000000: c381 273d 6630 753c 3180 e8bc 6f04 be3c
00000010: aa06 a13b bba8 6bbc 5115 75bc f2ff 233d
00000020: 8d55 273d 4711 2cbc 4a02 efbc 7b7c be3c
00000030: 4c4a 8ebc 19df 0cbc 92ae 44bb 2aeb acbc
00000040: 9228 8fbc c316 58bc 9337 2fbd 7b31 b93c
00000050: e590 37bc 167b 8f3c 6ce9 afbc 76cc a3bc
00000060: a3a9 8d3c 5db3 38bc dba2 babb 1ba0 7e3d
00000070: 8a1e 87bc adc9 62bc de24 d7bc c623 b93c
00000080: fc43 253d 5735 bfbc 7888 a33c cda0 b63c
00000090: 52f6 6d3c 9e34 d0bc a1ff f7bb 28d6 a33c
000000a0: bbd3 4bbd fd38 19bd 8e9c f4bc 7879 563d
000000b0: 8ade c0bc 6dda f8bc 34e3 0bbd 704a d0bb
000000c0: c4e7 edbc ba91 2c3d 0bf7 50bc 9d6b 3e3c
000000d0: abbf 1fbc 7f44 ebbc 8b7a 69bd 1df9 45ba
000000e0: 626a a93b b19a ee3c 183c e03c 3113 07bb
0.040895235 0.014965152 -0.028381439 0.023195473 0.0049141245 -0.01438349 -0.0149586955 0.04003901
0.040853072 -0.010502166 -0.029175896 0.023252716 -0.017369412 -0.0085981125 -0.0030011279 -0.021108229
-0.0174754 -0.013189021 -0.04277761 0.022606602 -0.011203979 0.017514747 -0.021473609 -0.019994956
0.017292803 -0.011273232 -0.0056956834 0.062164407 -0.016494054 -0.013842029 -0.026262697 0.022600066
0.040348038 -0.023340864 0.019962534 0.022293473 0.014524059 -0.025415715 -0.007568315 0.019999579
-0.04976247 -0.037407864 -0.029859807 0.052361935 -0.023543615 -0.030377591 -0.034152225 -0.00635653
-0.029041179 0.042131163 -0.012754212 0.011622337 -0.009750287 -0.028719185 -0.05700163 -0.00075520744
0.0051701525 0.029126497 0.027372405 -0.0020610804

encoder.net.2.weight f4 [60, 60]
00000000: 87b7 823e 788f 9ebd 3d54 afbd 05b8 d63d
00000010: d02d a43b a622 d53d f2ed efbd 37eb 923d
00000020: 8d9e 0d3d 47ca c3bd b359 2b3d e298 fabd
00000030: 73d8 3a3d f4c1 9c3b a7cf f13d f89d 583d
00000040: 96d2 80bd 6170 ee3b dc35 31be ec46 b4bc
00000050: 1828 843d 5f87 f53d a848 09be faae 1abd
00000060: 5911 0cbe 8947 d03d b168 94bd d158 94bc
00000070: a580 51bd 0e20 87be ace1 913d b554 0a3d
00000080: 6251 96bd 5f14 963d 9be3 8cbd 6d34 59be
00000090: 77db 03be 22f8 48be 9a08 83bb 25ad 9a3d
000000a0: 943c 02be 12b5 533d 9f3c 5bbc 906b 4dbd
000000b0: fd8d a23d 3c50 633b af87 d03d b47c 0fbe
000000c0: 7be3 3abe 7c6d 063c 227c 2abe 8ae0 0abd
000000d0: 6199 003c 300d 2e3e 7fd2 a0bb fb81 f739
000000e0: 759d 913d 2cb9 983c 40a8 0dbe 069e 84bc
000000f0: 10df 563b 2297 4fbc 5b2a 9a3c 0ec3 bcbd
00000100: df0d 043e ba8f ac3d 4582 f6bd be45 90bc
00000110: e09f 2a3e 4efd 383d 6e37 5d3e 3f44 d1bd
00000120: c8d7 983d d482 243e 7c28 41bd cd0c bf3e
00000130: 70cd cabc 5279 3bbd 711c 213e 6369 d43c
00000140: ba21 f43c c9b6 353e e3b8 3f3e 01d7 80bd
00000150: bf2f cfbd 191a c13b afbd da3c 2765 073e
00000160: 7ee9 12be 903d be3c c025 1bbd 7138 403d
00000170: 14c0 353e 5c2f a8bd d415 25be fab5 993d
00000180: 6528 ff3c ee10 62bd 4d7a 27be 98d8 19bc
00000190: d353 363d cee3 12be 0230 c0bd c83f 913d
000001a0: e12c 973e 4ae2 403c a730 48be 3ab7 de3d
000001b0: 13c9 2fbb 9a3f f53a 6053 47be 4471 dbbd
000001c0: cbcb 79bc d95d 60bd 70a0 5d3e c049 d9bc
000001d0: 6041 463c 156f ffbc d819 af3d 4d3d ec3d
000001e0: 0096 b63d 0774 a5bd 7633 3a3e bc01 4dbd
000001f0: 33af dabc d5d1 ca3d 6ab6 1dbd 5858 393e
00000200: d0d2 41bd 2719 cd3c 72f8 b7bd 2043 93bd
00000210: 8b21 d63c 9104 eabc a53c a63d dbc8 61be
00000220: c7f7 f7bd b697 b13c e7ca 93bc 5a7e 51bd
00000230: c2c9 fc3a da22 543d caae 8cbc a036 383d
00000240: 193b 4e3c 5da3 863d b158 1cbe be91 b2bd
00000250: e514 4f3e 0e7f bcbd b31d 1cbe d680 5ebd
00000260: 3c9d f1bd a54e cfbd ea62 a2bd 18b1 d13d
00000270: 907e f53d dd77 bdbe 8d11 563e 5ecb 02bd
00000280: 58b1 c63d 479c 663e bea8 e63d 8332 223e
00000290: 0f69 4d3d e8f0 03be e64b b13d 0bcc 9bbd
000002a0: 9075 113d eb50 70be a888 6abd a382 1d3e
000002b0: e534 6c3d a2a8 923d a079 733e 98b7 55bb
000002c0: 5422 223d c7ad 323d dada 813e cddd 2fbe
000002d0: b1b6 febc cae3 03bd 880d a63d 531f 6b3e
000002e0: 134b fcbd 3b3d 063e 1dbd 303e bc5e a3bd
000002f0: b630 3abd 6da9 50be fda0 a1bd af6e c23d
00000300: a7a2 223d 2a0d 86bd 33cf 813d f010 4c3d
00000310: bc08 babd e603 2c3d 81d1 963e dd17 11be
00000320: cfce fa3a 97cc cc3d 3e0f 8abd 0a2b bd3d
00000330: 3c72 4fbc 4361 3dbe d5a7 3c3d 3f40 3dbe
00000340: d3df c23d f95c 703d 1da7 1e3e b115 10bd
00000350: 2aeb 4cbe f36f e1bd 4831 c2bd dc38 513e
00000360: 91ab 603d 9dd0 0e3e 0b76 d93d 95e0 a73d
00000370: 6053 83bc 5355 b53e 5d62 a3bc 1e90 b03d
00000380: 310e 723d 3ac9 73bd c458 103e 3387 86be
00000390: 303c d7bd c856 0bbe 148c 523e a942 033e
000003a0: 74a7 8abe 27f2 57be 2370 9d3e d01b bf3c
000003b0: 74e5 5dbe 2792 04be 271e 8abe e6f5 463e
000003c0: bdeb 30be 0378 a03d 1e46 d83b bde2 a13a
000003d0: bfca c53d 9ef3 833d e567 1abe 34ca 8fbd
000003e0: 1808 e23d 1217 a8bc f91f 26be 03a5 2b3e
000003f0: e504 a63b f776 ce3c 58c8 a33c 65aa 443d
0.25530645 -0.07742208 -0.08560989 0.10484318 0.005010344 0.10406999 -0.11715306 0.0717377
0.034575034 -0.09560066 0.04183359 -0.12236191 0.04561658 0.004783863 0.11807185 0.052885026
-0.06290166 0.00727658 -0.17305702 -0.022006474 0.0645296 0.119887106 -0.13406622 -0.037764527
-0.13678493 0.10169894 -0.07246531 -0.018108757 -0.051148076 -0.26391643 0.071231216 0.03377219
-0.07339741 0.07328104 -0.0687935 -0.21211405 -0.12876688 -0.19625905 -0.003998828 0.07552556
-0.12718421 0.051686354 -0.013381152 -0.050151408 0.07937238 0.0034685275 0.101821296 -0.14012414
-0.1825084 0.008204814 -0.16648915 -0.033905543 0.007849068 0.16997218 -0.0049079056 0.00047208354
0.07110111 0.018642984 -0.13833714 -0.016188633 0.0032786764 -0.01267031 0.018819025 -0.09216891
0.12895916 0.08425851 -0.12036566 -0.01761138 0.1666255 0.045163445 0.21603176 -0.10218095
0.07463032 0.16065532 -0.04715775 0.37314454 -0.024756163 -0.045769997 0.15733506 0.025929159
0.029801238 0.17745508 0.18722872 -0.06291009 -0.10116529 0.0058930037 0.026701776 0.1322218
-0.14346883 0.023222715 -0.037877798 0.046928827 0.17749053 -0.08212158 -0.16121608 0.075054124
0.031147191 -0.055191927 -0.16355248 -0.009390019 0.044513535 -0.14344713 -0.09384157 0.070922434
0.29526427 0.0117727015 -0.1954981 0.108747914 -0.002682273 0.0018710971 -0.19465399 -0.10714963
-0.015246342 -0.054777 0.21643233 -0.026524425 0.012100548 -0.031180898 0.08549851 0.1153513
0.08915329 -0.08078771 0.18183693 -0.050050482 -0.02669487 0.099033035 -0.03850404 0.18100107
-0.047320187 0.025036408 -0.08982934 -0.071905375 0.026139041 -0.02856663 0.08117036 -0.22049277
-0.12107807 0.021678787 -0.018041087 -0.05114589 0.0019286203 0.05179105 -0.01717319 0.04497397
0.012587332 0.06574128 -0.15268208 -0.08719204 0.20222814 -0.09203921 -0.15245704 -0.054322086
-0.11797568 -0.10122422 -0.079290226 0.10238856 0.119870305 -0.3700551 0.20905133 -0.031932227
0.097017944 0.22520553 0.11262654 0.15839581 0.05014902 -0.12884867 0.086570546 -0.076072775
0.035512507 -0.23468368 -0.05725923 0.15381865 0.05766763 0.071610704 0.23776865 -0.003261065
0.03958352 0.04362276 0.25362283 -0.17174454 -0.031092973 -0.03219966 0.0810805 0.22961168
-0.12319007 0.13109295 0.17259641 -0.079770535 -0.04545661 -0.20377131 -0.07892034 0.094937675
0.0397059 -0.065454796 0.06338348 0.04982084 -0.09083697 0.041995905 0.29456714 -0.1416926
0.001913512 0.0999996 -0.067411885 0.09236725 -0.012661513 -0.18494134 0.046058495 -0.18481539
0.09515347 0.058682416 0.15493436 -0.035176937 -0.20011583 -0.11007681 -0.09482056 0.20431846
0.05485112 0.13946767 0.10618218 0.081971325 -0.016030967 0.3541666 -0.019944364 0.08621238
0.059095565 -0.059518076 0.14096361 -0.26275024 -0.10509527 -0.13607323 0.20561248 0.12818398
-0.27080882 -0.21088468 0.30749616 0.023328692 -0.2166956 -0.12946378 -0.2697613 0.1942974
-0.17277427 0.078353904 0.0066001555 0.0012350898 0.096578114 0.06442951 -0.15078695 -0.07020989
0.110367 -0.020518813 -0.16223134 0.16762166 0.0050665014 0.025203211 0.019992992 0.048014063

encoder.net.2.bias f4 [60]
00000000: 28ca d23c 0f4c c5bc e21f a13c 3f79 683c
00000010: 6d7a 223d ab75 c23c 29f2 9bbc 2b83 b83c
00000020: 446d c4bc d6ce ba3b 7e37 9abc 6e3e bd3c
00000030: 042b 8abb 3dd9 27bc 603e 3d3c 3914 b13c
00000040: c8bd 07bd b761 fa39 001d c7bc dcef 8cbc
00000050: f478 abbc 880a a23c b752 21bc 5215 cd3c
00000060: fbd5 173c 84b1 953c 2222 1a3b b31f 5a3c
00000070: bb28 733c 1198 36bc 261d 013c ff4e cbbc
00000080: c504 7a3c ef52 bd3c 38f8 873c 2cb3 bcbc
00000090: c950 c1bc 1bbe 893c fa0d b0bc 39c4 a8bc
000000a0: 5f6f 403c 9bfd c5bc 9b19 6abc db77 763c
000000b0: e4e7 a73c cc31 15bd 16f3 81bc cd9b 7dbc
000000c0: 85f7 09bb 093e 2ebd 957a df3c 26b2 9bbc
000000d0: 9c82 bdbc 6c62 153d 879f 0d3c 12e9 073d
000000e0: 3cb6 33bc 9f96 94bc 5862 843d cd2d 5e3c
0.025731161 -0.02408412 0.019668523 0.014189064 0.039667536 0.02373775 -0.01903637 0.022523483
-0.023977883 0.0057009263 -0.018825289 0.023101058 -0.0042165536 -0.010244665 0.011550516 0.021616088
-0.033139974 0.0004775652 -0.02430582 -0.017204218 -0.020931698 0.019780412 -0.009846381 0.02503458
0.0092673255 0.018273123 0.002351888 0.013313222 0.014841254 -0.011144654 0.007880485 -0.024817942
0.015259926 0.023110835 0.016597852 -0.023034655 -0.023598092 0.016814282 -0.02149104 -0.020601379
0.011745303 -0.02416878 -0.014288331 0.015043224 0.020496316 -0.036424443 -0.015862983 -0.01547904
-0.0021052074 -0.04253963 0.027280131 -0.019005846 -0.023133568 0.036470816 0.008643991 0.033181258
-0.010968741 -0.018138228 0.0646407 0.013560724

encoder.net.5.weight f4 [32, 60]
00000000: c3b8 17be b8fb a13d 2117 5cbd aecd 9fbd
00000010: 289b 283e 2774 a63d 04b9 43be 5e78 e93d
00000020: ed28 14be 13a1 1a3e 4e64 b63c 41e7 96bc
00000030: 26db dbbd f399 8c3c ddfe e8bd 98a3 efbc
00000040: c9fb 8e3d 0a35 83bd f03f 68be 8bbf 6c3e
00000050: 36fd d4bd c0b3 9e3d 5a47 2e3d af40 453d
00000060: 38fb 57bd b740 d8bd 3b5e 3a3d f612 83be
00000070: 62b7 bbbc da6b d13c 963b 7ebd 10f7 713e
00000080: e847 493d e618 993e 0b78 21be 443c 9abd
00000090: 234c 953d 8f7e a03c 58d4 25be bc98 383d
000000a0: 7ec0 073e cd74 a1bd 3641 debc 0c1c a5ba
000000b0: 6cd9 c03d 3bf1 053d e001 9ebe 95a2 0d3e
000000c0: 7387 ac3d 903b 3d3e e207 61be fe7a f4bd
000000d0: 7ac9 85bd 1352 a53b 2318 5abd a6ae 593d
000000e0: f345 58bd 408c 5a3e c150 23be 96af 453d
000000f0: 338a 913e e9f9 00bd 9493 d1bd 095c 79be
00000100: 2450 22be 153e 873e 9944 523e 638b 28bc
00000110: 4590 c23e cedb 8039 a564 8fbc 78a6 a9bd
00000120: 8bd8 c9bd fbfb 5cbd 89c2 98bd fafb 553d
00000130: 2a3f 48be c33c 84bd 84b6 82bd d5c4 cb3d
00000140: 26d0 07be f0b3 183d 229e 193e 8102 a73d
00000150: a33d abbe 5bc4 f83b 40da 773e 1c58 7a3e
00000160: 9324 b1bd 904b e73d 77a6 3c3c 28f5 7b3e
00000170: 38b9 4dbe bbfc 46be 77bd 11bd 91a5 49bd
00000180: 5df4 2fbd 7259 b63a 5e61 44be f5c2 053e
00000190: 92ec 5cbe 8da9 73bd df16 88bd 3607 0f3e
000001a0: 290a a3bc 8c66 0ebc 6960 d43e f338 75be
000001b0: 0e11 243e 4926 e8bc 3e46 053e e93f b33a
000001c0: 62f7 8fbc adbc 323b bc32 72be 2e30 283e
000001d0: eace 3e3d 355b 46bc 9700 9ebe c457 e6bd
000001e0: 9971 b6bd 9697 a1bd 8c34 f63d 4a86 da3d
000001f0: 270a 293e 98d7 093e 6a6d a9bd 45de cf39
00000200: f883 1e3d f6da 05be 9161 ed3c 485b 613d
00000210: 32ae 8a3d 4543 f93c 2fea 433e e91f 8f3e
00000220: d4f0 93bc faee 903d 6ae7 51bc 353c 7f3e
00000230: 3e42 553e ba99 fa3d f366 393e 2dee c4bd
00000240: e005 96be da7a 2d3e 1d44 243e f901 353d
00000250: 7634 a33e 7e8b 173e c68a 853e d77c 163e
00000260: 6dc9 86bd 62d0 453d 2838 8f3d 6db4 243d
00000270: 6526 f6bd 6897 80be b78e 05be 36b0 80bd
00000280: 81d9 5d3d ea1b 45be 63a0 0dbe 4e93 95be
00000290: ed99 2dbe 61d5 f63c e45b df3d d71b 723d
000002a0: 2c69 03b9 3264 0cbe 6ae7 87bd e15f 01be
000002b0: 739f b73b 7703 cbbd 7bf5 c43d 6efe 673e
000002c0: 9223 bdbd 2e7a 783d dc6b 56be b50a 5dbe
000002d0: dc2c 05be 493f aabd c1c0 193d e9c9 63be
000002e0: e5ef 65be 2843 7e3d 9145 9ebe d522 513d
000002f0: cafe 9d3d cd28 323e 34ef d2bd f465 813d
00000300: f87a 7ebe 330a 4cbd fc6a 093e 1143 a6bd
00000310: 03c8 23bd 8a60 36be 3d96 e2bd b189 8c3e
00000320: e70f 983d a5ab ef3d 5432 2d3c 8d44 9abd
00000330: 344e 2f3b a6c4 823d 2094 d23e 5271 f53d
00000340: 0c64 d5bd 98cd 29bd 6fc3 bf3d dc97 603d
00000350: fcc2 f23e 334c 9ebe b5c8 cbbb 0958 3ebd
00000360: 87ce 36be 9768 eb3d 34ed 42ba fd97 babd
00000370: 7e87 75bd cefc 883c 4b39 e23d 89b3 dcbd
00000380: 5a39 503e 04cd f7bd 2a6d f93d bcd8 913e
00000390: 4ccb 2c3e 7829 22be 723e d63e 6a75 063e
000003a0: bf7d 5b3e 0781 bfbc c653 38bd a131 14be
000003b0: 707b 96bd f426 00be f18e 09be ddb4 eb3d
000003c0: 31fb f3bd c792 853d d7e2 88bc ed5f a6bc
000003d0: 22f8 d13d 7e11 403e fb30 5fbe 9135 00bd
000003e0: ad54 43be 371b 043d ca3d 59bc babf 243d
000003f0: 66de f9bd 7ee1 40bd 631b a5bd f522 b1bd
-0.14816575 0.0790934 -0.053732995 -0.07802902 0.16465437 0.08127623 -0.19113547 0.11399911
-0.14468737 0.15100507 0.022264626 -0.018420817 -0.107351586 0.017163252 -0.11376736 -0.029252812
0.06981618 -0.06406601 -0.2268064 0.23119943 -0.10399859 0.07749128 0.042548515 0.04815739
-0.052729815 -0.105592184 0.04550002 -0.25600404 -0.022914592 0.025564123 -0.062068544 0.23629403
0.04914084 0.29901809 -0.15768449 -0.07531026 0.072899126 0.019591598 -0.16194284 0.045067534
0.13257024 -0.07883606 -0.027130704 -0.001259686 0.0941647 0.03270076 -0.30860806 0.13831551
0.084242724 0.18479753 -0.21975663 -0.119375214 -0.06532569 0.0050451844 -0.053245675 0.053145073
-0.052801084 0.21342564 -0.15948774 0.048263155 0.2842575 -0.031488333 -0.102332264 -0.24351515
-0.15850884 0.26414552 0.2053398 -0.010287139 0.38000694 0.0002457783 -0.017504046 -0.082837045
-0.098557554 -0.053951245 -0.0745898 0.052242257 -0.19555345 -0.06456902 -0.06382468 0.09949652
-0.13262996 0.037280977 0.15001729 0.081547745 -0.33445463 0.007591767 0.2420435 0.24447674
-0.08649554 0.11293709 0.011514298 0.24605238 -0.20090187 -0.19432347 -0.03558108 -0.049230162
-0.042957652 0.0013912155 -0.19177768 0.13062651 -0.2157462 -0.059487868 -0.06644987 0.13967595
-0.019902306 -0.008691441 0.41479805 -0.23947506 0.16022131 -0.028338568 0.13015077 0.0013675663
-0.017574016 0.0027273104 -0.23652166 0.16424629 0.046584047 -0.012106706 -0.30859825 -0.11247209
-0.08908386 -0.07890241 0.12021741 0.10670145 0.16507779 0.13461149 -0.08272822 0.0003964772
0.038700074 -0.13071808 0.028977187 0.055018693 0.06771506 0.030427584 0.19132303 0.27954033
-0.018059172 0.07076831 -0.012811521 0.24925311 0.2082605 0.12236352 0.18105678 -0.09615741
-0.29301357 0.16941395 0.16041608 0.044191334 0.31875962 0.14799306 0.26082438 0.1469606
-0.06581388 0.048294432 0.06993133 0.04021113 -0.12019042 -0.25115514 -0.13042723 -0.062836096
0.054162506 -0.1924893 -0.13830714 -0.29213947 -0.1695325 0.030131044 0.109061986 0.05910858
-0.00012532313 -0.13710096 -0.066359356 -0.12634231 0.0056037246 -0.0991277 0.09617134 0.22655651
-0.092353 0.060663395 -0.20939583 -0.21586116 -0.13005394 -0.08312852 0.03753734 -0.22244991
-0.22454794 0.062075764 -0.3091245 0.05105861 0.07714613 0.17398377 -0.102995306 0.06318274
-0.24851596 -0.049814414 0.13419718 -0.08118261 -0.039985668 -0.17810264 -0.11063812 0.274488
0.07424908 0.117026605 0.010571081 -0.07532606 0.0026749494 0.06385164 0.41128635 0.11984505
-0.10419473 -0.041455835 0.09363448 0.054832324 0.47414386 -0.3091751 -0.0062189945 -0.046470676
-0.17852221 0.11494558 -0.0007435859 -0.09111021 -0.05994367 0.01672211 0.11046084 -0.10776431
0.20334378 -0.120996505 0.121790245 0.28485668 0.16874427 -0.15836132 0.41844517 0.13130727
0.21434687 -0.023376955 -0.045001768 -0.14472057 -0.073477626 -0.1251486 -0.13433434 0.11509106
-0.11913145 0.06522136 -0.016709728 -0.020309413 0.10252406 0.18756673 -0.21796028 -0.031301085
-0.1907527 0.032252517 -0.013259361 0.040221907 -0.12200622 -0.047090046 -0.08061864 -0.08649246

encoder.net.5.bias f4 [32]
00000000: 6917 03bd def9 03bd 0279 363d 38cb 133d
00000010: f4e3 173d 564f 0d3d d237 1c3d 454c 5d3c
00000020: 70d7 11bd 155d 0b3d e109 233d 05fb d2bc
00000030: cd73 c9bc 10e7 e33c a62a b93c a755 c5bc
00000040: 226e b7bc cef4 0e3d cc87 a53b a55e 23bd
00000050: 3a1e 05bd 3144 54bd d006 1fb7 dbec d5bc
00000060: 8662 0abd bcfa fd3c 5fa5 23bd 6b14 30bd
00000070: 5760 0a3d b0b2 153d 85e3 fd3c 9254 48bc
-0.032004748 -0.032220714 0.044548996 0.036082476 0.037082627 0.03449949 0.038139172 0.013506954
-0.035605848 0.034024317 0.039804343 -0.025754461 -0.02459135 0.02782014 0.022603344 -0.024088694
-0.022391383 0.034901433 0.0050515886 -0.039885182 -0.03249953 -0.051822845 -9.478725e-06 -0.026113918
-0.033785366 0.031003349 -0.039952632 -0.042988222 0.033783283 0.036547363 0.030992279 -0.012227194

predictor.net.1.weight f4 [32, 32]
00000000: e6ae db3c 2815 4abb eba4 1ebd 506e 8f3e
00000010: 70a2 b4be 2d25 8ebe b6ec 613e c52e 2bbd
00000020: 20ae bfbe 800c 1abe 9317 3fbe 013b a2be
00000030: 7488 ebbc f217 3f3c 8b9b 34be bff0 da3d
00000040: 07d2 b0be 49b5 68bd 04d0 983d 206f a43d
00000050: 1151 5dbe 94dc 123d ecfb cb3c d647 07be
00000060: 6061 d23e 48b6 693e 5296 51be 1d48 e9be
00000070: 0852 44be eeab 303e 4a99 1bbe 8261 ba3d
00000080: 7a97 91be bdf1 aebd 0360 ee3d 026e 6abd
00000090: 8cd3 bbbe 8279 e9bd a66a 0ebe 9572 a4be
000000a0: 8858 acbe e23c 0bbe 0c53 5c3d 8871 97be
000000b0: c438 93bd 7fac 023f 652c bdbd e4e7 61bd
000000c0: c848 57bd 3379 833c c791 d3bd 105a f3bd
000000d0: 0618 edbd ef3d 70be 60a5 2abe bef5 d63c
000000e0: 55f2 66bd 4d2d 8f3e b2da 093e 5a93 2abe
000000f0: fb47 5bbd e854 043f d512 bebc 32a8 6b3e
00000100: 6afb ca3d 108a 4b3e bdc8 23bc b5f8 1c3e
00000110: e37d 9dbd 6883 373e f0a7 bc3d 1942 603e
00000120: aeba f83a 362f 983e e071 763e 0870 813d
00000130: a9d5 c5bc 4e24 a83e 66b3 50be bb6f e4bb
00000140: 6df8 a93a 7992 853e fce2 df3c acca c33d
00000150: 82ee 023d 654c 12bc faf4 23be 5b24 573e
00000160: 7efd babd c50e 68be d6bc 98bb dbd4 4dba
00000170: c0d7 293e f8a2 5b3d 453c 373d 54b3 f3bd
00000180: c339 193e e39b a23e 34b3 64be e02a 69be
00000190: 2ceb 59bd 9ee4 d63d ef04 c03e 73ba c9bd
000001a0: 9f00 2a3d 716b 363e 414c 0b3d ad59 d9be
000001b0: 91a6 4ebd c3f7 1f3e ca15 873e f249 dabd
000001c0: 8edd 2abe 526b d83d a37a dd3a 1f99 88be
000001d0: 465c 3fbe acc7 383e 7790 a7bd bd63 01be
000001e0: c9be 0abe 3e03 b93e 6d5e 63bd 93e8 783e
000001f0: 0c05 053e bd89 b3bd 3599 25be a80e be3d
00000200: ff1f ab3d 335b 42be c024 1bbd b5a1 c0bc
00000210: f19d bfbd 723b a73d 5e7c 9fbe 7e78 1fbe
00000220: c5fe 5e3e 767d 343e c465 9a3c 3645 13be
00000230: a0c0 9f3e 5676 f33c 68b7 33be c354 16be
00000240: 5c5c 1abe 7b5e 943e 0c13 a3be bdac 633e
00000250: 790c e63d f591 073e c1cc 803d 6162 28be
00000260: 0aed 8c3e 9f8c 2d3e ab76 89be 6831 3e3e
00000270: b701 f03d 061c 4e3d 4562 38be 1394 74be
00000280: 15fe 8ebc 10f4 563e 07af 8dbe cc41 773d
00000290: c0c1 c13e c0ff f0bd c56d 03be c5c4 c5bb
000002a0: aead e43d 7d30 ab3d 081d 803d 3062 e4bc
000002b0: a10f 3c3e a564 a3be 18ec 64be cca0 33be
000002c0: de65 78bc 3dd2 f33d 95ef a43d bb82 42be
000002d0: 63f0 073e 6f68 863d b00f be3b 9de8 e03c
000002e0: 65b7 44be da6e e93d eace f4bb 4d4a 073e
000002f0: f551 5c3e 0f53 0abe b6b0 1ebc 4eba 853e
00000300: bd01 45be a216 9c3d 321c 833e 501f 1c3e
00000310: 2947 87bc 933f f1bd c14a 3abe 6696 3e3e
00000320: fe32 533b 27e1 b23e 3241 8dbe e21b 43be
00000330: 0754 c1bd 5330 a9bd 66d1 74bd 4fce 263e
00000340: 695a 2ebd 8732 6fbd dca6 86be dae2 503e
00000350: e870 b53c 382d a63d 9628 273d 6fd6 c53d
00000360: fb02 4a3d ecb6 fcbc 1aad f73d eb50 98bd
00000370: b7a4 64bd 4459 4abe 6805 053e e11e 413e
00000380: 1cea 163e aeec 613e 7599 c83b a4fd b33e
00000390: df13 483e b82b 95be 6296 c33b 1472 bf3d
000003a0: b545 acbb 56e9 fa3d 2962 ee3d 10a1 25bc
000003b0: e407 a13d fa2b a7bd 6e48 6cbd b894 7c3e
000003c0: 72e4 8d3d 8944 6cbe 4a15 733d 4168 543e
000003d0: 5dea ed3a 8fae 903b 4411 913b c4a0 453e
000003e0: 596f bbbd d17a 1dbe 8977 003e c99a eabd
000003f0: 8c7d 2dbd 20c4 3fbc 134e 47bc 9cc7 14be
0.026816797 -0.0030835364 -0.038731497 0.2801385 -0.3528018 -0.27762738 0.22062954 -0.04179265
-0.37437534 -0.15043831 -0.18661337 -0.3168564 -0.02875159 0.011663424 -0.1763746 0.1069045
-0.34535238 -0.056813512 0.07461551 0.08029008 -0.21612956 0.03585489 0.0249004 -0.13210997
0.41089916 0.22823441 -0.20467499 -0.4556283 -0.19171917 0.17253086 -0.15195194 0.091006294
-0.2843588 -0.08542202 0.116394065 -0.057233818 -0.36684835 -0.11400129 -0.1390787 -0.3211867
-0.33661294 -0.13597444 0.053790137 -0.29578805 -0.071885616 0.5104446 -0.09236983 -0.05515279
-0.052559644 0.016049003 -0.10330539 -0.118824124 -0.11576848 -0.23461126 -0.16664648 0.026240226
-0.05638345 0.2796425 0.13462332 -0.16657773 -0.053535443 0.51692057 -0.02320234 0.2301338
0.09911235 0.19876885 -0.00999659 0.15329249 -0.076900266 0.17921221 0.09211719 0.21900214
0.0018976533 0.2972352 0.24066877 0.063201964 -0.024149733 0.32840198 -0.20380935 -0.006971327
0.0012967713 0.26088312 0.027329914 0.09560141 0.03196574 -0.008929347 -0.1601142 0.21009962
-0.09130381 -0.22661884 -0.004661183 -0.00078518473 0.16586208 0.053622216 0.044735212 -0.118994385
0.1496344 0.31759557 -0.22333986 -0.22770262 -0.053202793 0.10492824 0.37503764 -0.098500155
0.0415045 0.17814423 0.03400827 -0.4245123 -0.05045182 0.15621857 0.2638381 -0.10658635
-0.16686079 0.10567345 0.001689751 -0.26679322 -0.18687543 0.18044919 -0.08181851 -0.12635703
-0.13549341 0.36135286 -0.055509973 0.2430747 0.12990206 -0.08766506 -0.16171725 0.09280139
0.08355712 -0.18980102 -0.037876844 -0.023514608 -0.09356297 0.08165635 -0.31149572 -0.15573308
0.21776874 0.17625985 0.018847354 -0.1438187 0.3120165 0.029719513 -0.17550433 -0.14680772
-0.15074295 0.28978333 -0.3185047 0.22233863 0.11232848 0.13239272 0.06289054 -0.16443779
0.27524596 0.16948174 -0.2684835 0.18573534 0.11719077 0.050319694 -0.18006237 -0.23884611
-0.01745514 0.2099154 -0.27672598 0.060365483 0.37843132 -0.117675304 -0.12834843 -0.0060354196
0.11165939 0.08358858 0.06255537 -0.02787885 0.18365337 -0.31912723 -0.22355688 -0.17541808
-0.015161006 0.11905334 0.08053509 -0.18995182 0.13275294 0.06562888 0.00580021 0.027454669
-0.19210584 0.113980964 -0.007470955 0.13211937 0.21515639 -0.13508247 -0.009685686 0.26118702
-0.19238944 0.07621504 0.2560745 0.1524632 -0.016513424 -0.11779704 -0.18192579 0.1861206
0.0032226439 0.34937403 -0.27588803 -0.19053605 -0.09439855 -0.0826117 -0.05977001 0.16289638
-0.04256669 -0.058397796 -0.2629918 0.20399037 0.022148564 0.081140935 0.04081019 0.096600406
0.04931925 -0.030848943 0.120935634 -0.07437309 -0.055821147 -0.19760615 0.12990344 0.18859436
0.14737743 0.22062942 0.006121809 0.3515445 0.1953883 -0.29134917 0.0059688548 0.093479306
-0.005257333 0.122515365 0.11639816 -0.010109201 0.07862833 -0.08162685 -0.05768626 0.24666107
0.06928338 -0.23073019 0.059346475 0.20742895 0.0018151511 0.0044153403 0.004427107 0.19299608
-0.09152097 -0.15378882 0.12545599 -0.11455304 -0.04235606 -0.011704475 -0.01216461 -0.1452927

predictor.net.1.bias f4 [32]
00000000: ab5c c73d ba67 08be 9f86 c03d 0dc0 13be
00000010: 8b9a 943d 7cae d13d ee59 ce3d ba4b cebd
00000020: 6792 d5bd b823 ed3d b108 053e a4fa 1fbe
00000030: 3bdd e33d 5063 e83d fad2 103e f4bc 013e
00000040: 46c4 c2bd 6239 e2bd 8986 403e 20dd debd
00000050: 4998 de3d 130f d93d f676 e1bd 5a3a 2b3e
00000060: 3d4d 0b3e d879 c33d 6f9f b5bd 8b51 0f3e
00000070: d51d 083e 74b8 ffbd cb73 c4bd a8cd c73d
0.09734472 -0.13320819 0.09400677 -0.1442873 0.07256039 0.102383584 0.100757465 -0.100730374
-0.10428315 0.115790784 0.12991597 -0.15622956 0.11126181 0.11347067 0.14142981 0.12669736
-0.095100924 -0.11046101 0.18801321 -0.1088202 0.1086889 0.10598578 -0.11009018 0.16721478
0.13603683 0.09544724 -0.088683 0.1399595 0.1329263 -0.124863535 -0.09592398 0.09756023

predictor.net.3.weight f4 [1, 32]
00000000: 8f00 853e de53 2abe d882 a43e c898 ecbd
00000010: 99d8 c83a e53d 9c3e b855 503f f1b7 1bbf
00000020: d904 11be d4db 833e 6764 ad3d dbe7 e5bd
00000030: c788 153e 3b44 153e cfbd f23d 503a e13d
00000040: 4d03 02bf 1262 c4bc aaae a43c 32f3 97be
00000050: ccbf 903e 64e2 bf3e 4583 b8be 670c 2f3d
00000060: 40d8 5f3e dda7 8a3e 1c0a 01be 7317 963d
00000070: 3bab 513e a4e1 afbe ad83 cdbe 1b70 143f
0.2597699 -0.16633555 0.32131076 -0.11552578 0.001532334 0.30515972 0.81380796 -0.6082755
-0.14162005 0.25753653 0.08466416 -0.112258635 0.14602958 0.14576809 0.11852609 0.1099745
-0.50786287 -0.023972545 0.020102818 -0.2967773 0.2827133 0.3747741 -0.3603765 0.042736437
0.21859837 0.27081195 -0.12601513 0.07328691 0.20475475 -0.34351838 -0.40139523 0.5798356

net.0.weight f4 [60, 35]
00000000: f4ea 75be 7849 043d 37d3 58bd df2b 09be
00000010: 5d47 35be 574c a2be a523 13be 009d 363e
00000020: b97e 8abd 8080 57be a288 84bd 06da d6bd
00000030: 2ff2 01be 5874 adbd 60c2 833c 0d11 86bd
00000040: 6409 963d 75f6 d1bd 9524 68bd 0643 35be
00000050: e3d7 313e 10f3 9c3e b1bd 09bc 78d5 b0bd
00000060: 0465 b8bd c348 00be cc65 d5bd 528a b83d
00000070: a82d 18bc b308 a9bd 0785 c9bd 0f6a 4e3e
00000080: dd15 f03d 9949 18be baca 07be 1a01 bf3c
00000090: 702e da3b 77f0 af3d 66de f1bd a0fb 583e
000000a0: aa8b 87bc 9de1 533d e1e8 37bd 8eec 95be
000000b0: 4506 9bbd 3d97 043e 7386 0bbe 8337 1a3e
000000c0: 99ce 193d 3282 51bd 1b6a 0bbe 59e3 b8bd
000000d0: 8cdf 583e 2427 023d dce1 393d b8cd 323d
000000e0: 4994 b43d 4ce1 2c3e 4112 c03e a1fb 4dbd
000000f0: fab1 313e 7a2b 293c bd0f 3dbe 51cd ab3d
00000100: 433b 5d3e a536 733e 55d2 b93c 91e7 69be
00000110: e018 1a3e fbca c8bd 90d7 313d 87e9 573d
00000120: 4457 4fbc 1568 b53d 2464 03be 1021 74bd
00000130: 757a b73d 1d9b 993c 3b43 acbe c3a3 263e
00000140: 6d9f 2dbe 4328 a9bd 16ee 5c3d 9797 2cbe
00000150: 0595 36bd 0e59 90be e7cc 89bd 2fa4 b4bc
00000160: 7e7a 5c3e 1589 723d 7963 42be 5e11 37bd
00000170: 7eef 473e eef3 353e 7bf6 36bd 554e 9fbd
00000180: a8aa a03d e6ac acbc 61a0 013c 2058 4a3e
00000190: b49b f9bc 84e5 00bd e87f cebd 8b0b 2a3d
000001a0: dfaf f7bd 6b6c 583c 574a af3c 60f3 03be
000001b0: b655 393e e4f9 133e b86c 50bd 60fd 3cbc
000001c0: 054f 553d 997c c23d 2d99 a1bd b6ac edbd
000001d0: 5454 f6bb 094f 3f3e fdae b83b eb11 a3be
000001e0: 5ad1 df3d 49c2 18bd 96a7 573e f688 fe3d
000001f0: e8e9 70bd fa71 263d 6059 e2bd d56d 343e
00000200: 6ee6 8c3e 63ff 543e 075b b33d f480 20bc
00000210: 6d2c 0d3e 7f5c 803e 810a 51bd a648 40bd
00000220: a9b5 783e 763f 8bbe 0946 86bd 4b05 3abd
00000230: b108 243e bd7a f73d dd40 c7bd 5675 d0bd
00000240: 91fb dcbc 0e2b d93d ce4b dc3d 9036 85bd
00000250: b0e3 40bb 90ab 87bd a172 8d3d fd6b 3a3e
00000260: 8bf6 27be 0201 8fbd cc49 1c3e 7d0e 193e
00000270: d6d4 3b3e 5e8e ac3d 670f 81bd 8c20 103c
00000280: df5c 9f3c 94b2 9a3e 2fac 72bc 173d 4f3d
00000290: 704a 1c3e 3d5a 20be b626 1fbd b31f 1abe
000002a0: 0072 c3bd c573 8dbc 89be 9dbd bce5 443e
000002b0: 428b 163e e480 973e 692e 863d e706 8bbe
000002c0: c560 253e 6424 e43c 4bb6 dc3d 5bb8 81bb
000002d0: 5b10 bebe dbc0 36be a833 0b3c 5913 013e
000002e0: 4ea9 683b 4f11 d3bd 623f 27bd b586 c0bd
000002f0: 7b99 863e 3918 7dbd 0cd4 5cbe 673c 873b
00000300: 23d6 963b 1ebb 9dbd 1c26 67be 9faa 863e
00000310: 768d 323e 40f2 86bc 6b55 243d f16b f93d
00000320: 5c2e eebc ed76 cabd cdd3 48be a4c4 863d
00000330: 5715 1e3d 0b31 a8be 6bb1 d43c 6b11 8bbd
00000340: 1724 2fbe 2b37 7d3d 2371 0cbe 43e4 873e
00000350: f1ad eb3d b3a6 1d3e 9b77 c0bd 5188 473e
00000360: 708f 333e 2821 583d 35a9 b23d 0d51 3ebd
00000370: 9c21 08be e3b8 913b e323 483d 170a d7bd
00000380: 6f2c 1d3e 64a7 7b3e 23db 57be 5536 0e3e
00000390: 6de9 87bd a5ee 2cbe 60f9 bdbd 21c3 3abe
000003a0: b7cc 18bd a52a 2d3e 062d dc3d 83ec d63d
000003b0: 03dc b23d ebef a73d 9de8 7d3e 5fd4 4b3d
000003c0: 7e64 d73d 637c 6f3c fb1d f8ba 5714 693e
000003d0: f60e 8e3d a1a3 a23d 829a 88bd 983d 50be
000003e0: f772 8e3d 4e51 93bc cf45 ebbc 6020 2e3c
000003f0: 62c7 2a3d 7933 093e 2cae 7fba b519 003d
-0.24015409 0.032296628 -0.052935805 -0.13395642 -0.17703004 -0.31698868 -0.14369066 0.17833328
-0.06762452 -0.21045113 -0.06471373 -0.104908034 -0.12690042 -0.084694564 0.016083896 -0.06546221
0.0732601 -0.10252086 -0.056675512 -0.17701349 0.1736751 0.30654192 -0.008407042 -0.08634466
-0.09003642 -0.12527756 -0.10419807 0.090107575 -0.009288229 -0.08253612 -0.09839826 0.20157646
0.1172292 -0.14871825 -0.13260928 0.023315955 0.006658368 0.08590787 -0.11809997 0.21189737
-0.01654609 0.051728833 -0.044899825 -0.2928204 -0.07569555 0.12948318 -0.13625507 0.15060239
0.037550543 -0.051149555 -0.13614695 -0.09027738 0.21179026 0.03177561 0.045381412 0.04365322
0.08817346 0.16882819 0.37513927 -0.0502888 0.17353049 0.010325307 -0.18463035 0.0838877
0.21604638 0.23751314 0.022683302 -0.22842242 0.15048552 -0.098043405 0.043418467 0.052712943
-0.012655083 0.08857743 -0.1283117 -0.059601843 0.08958904 0.018750722 -0.33645043 0.16273408
-0.16955347 -0.082596324 0.053937994 -0.16854702 -0.04457571 -0.28192943 -0.06728535 -0.022050945
0.21531102 0.059212763 -0.18983258 -0.044694297 0.19524953 0.17768833 -0.044668656 -0.077786125
0.0784505 -0.021078538 0.0079117725 0.1976018 -0.030469753 -0.031468883 -0.1008299 0.041514914
-0.120940916 0.013209443 0.021397753 -0.12885809 0.18099102 0.14450794 -0.050884932 -0.011535019
0.052077312 0.09496421 -0.07890544 -0.116052076 -0.007517377 0.18682493 0.0056360946 -0.31849608
0.109286025 -0.03729466 0.21060023 0.12428467 -0.05881682 0.04063604 -0.11052203 0.17620023
0.27519554 0.20800547 0.087575965 -0.00979637 0.13786478 0.2507057 -0.051035408 -0.046944283
0.24288048 -0.27196854 -0.06556327 -0.045415204 0.1601894 0.12083957 -0.097291686 -0.1017863
-0.026975425 0.10603915 0.10756646 -0.065045476 -0.0029432587 -0.0662452 0.06906629 0.18205257
-0.16402642 -0.06982614 0.15262526 0.14946933 0.18342909 0.08425592 -0.06301766 0.008796822
0.019453464 0.3021437 -0.01481156 0.05059537 0.1526277 -0.15659423 -0.038855277 -0.15051155
-0.09543228 -0.017267117 -0.07702357 0.19228262 0.1470156 0.29590523 0.06551821 -0.27153704
0.16150196 0.027849384 0.10776957 -0.0039587445 -0.37121853 -0.17847006 0.0084962025 0.12605037
0.0035501304 -0.10306036 -0.04083193 -0.09400693 0.2628897 -0.06179068 -0.21565264 0.0041270736
0.004603164 -0.077017054 -0.22573131 0.2630205 0.17436776 -0.016472936 0.040120523 0.12178791
-0.02907484 -0.098859645 -0.19612046 0.06580475 0.03859457 -0.32849917 0.025963506 -0.067904316
-0.17103611 0.06182019 -0.13715033 0.26541337 0.11507786 0.15395622 -0.09397813 0.19485594
0.17535186 0.052765995 0.0872368 -0.046464015 -0.13294071 0.004447089 0.04886235 -0.10499971
0.15348981 0.24575573 -0.21079688 0.13887914 -0.06636319 -0.1688791 -0.0927608 -0.18238498
-0.037304606 0.16910799 0.10750775 0.1049433 0.0873337 0.082000576 0.24795766 0.04976308
0.10517214 0.014617058 -0.0018929833 0.22761665 0.06936447 0.07941366 -0.06670095 -0.20335996
0.069555216 -0.017983105 -0.02871981 0.010627836 0.041694053 0.13398542 -0.00097534317 0.031274516

net.0.bias f4 [60]
00000000: 1dc4 afbd e6af a9bd 1a31 05bd e358 c43c
00000010: ef66 0b3d 69b9 53bd afdf 34be 350f 65bd
00000020: ee0d fabc 7663 473d d0c4 17be 190c e1bd
00000030: 44a5 203e 4dbd 903d 4467 003e 9478 1e3e
00000040: 8bbb fabc 72e3 07be 9355 ba3d 002e 973c
00000050: 85e0 0e3d fcc3 03be 1351 6dbd b599 afbd
00000060: 43e7 203e a806 933c d1bb e3bd ac37 823b
00000070: 0821 913d 9c6d f9bd 2f79 143e 3e12 683d
00000080: 4438 77bd 4c0b 2d3e c2a4 a53d 18a1 f8bd
00000090: 3d46 cabd fedf 463e 73a9 8bbd 42ca 1b3e
000000a0: 4b68 08bd 7ea6 1a3d bf30 7ebd 70ab ecbd
000000b0: 8c30 02be 3417 34be eff7 ecbd 434e 66bd
000000c0: df59 50bd 1718 7cbd 324d 30bd 78a8 b2bb
000000d0: 01eb 073e dc9e 22bb 7eb1 0b3e f3df f03d
000000e0: dd69 b6bc 8e03 613d ca05 70bd 0501 96bd
-0.085823275 -0.08285503 -0.03251753 0.023968166 0.034033712 -0.051690493 -0.17663454 -0.055922706
-0.03052422 0.048678838 -0.14821172 -0.109886356 0.15688044 0.07067356 0.12539393 0.15475684
-0.030607006 -0.13270357 0.09098353 0.018454552 0.034882087 -0.12867731 -0.057938647 -0.08574239
0.1571322 0.01794751 -0.111198075 0.0039739218 0.07086378 -0.121791095 0.14499353 0.056658022
-0.060356393 0.1689884 0.08088066 -0.12140101 -0.09876678 0.19421384 -0.06819429 0.15213874
-0.033302587 0.037756436 -0.062058207 -0.115561366 -0.12713832 -0.17586976 -0.11570727 -0.05622698
-0.050866958 -0.06154641 -0.04304237 -0.005452212 0.1327324 -0.0024813926 0.13641927 0.11761465
-0.022267276 0.05493503 -0.05859927 -0.07324413

net.2.weight f4 [60, 60]
00000000: 920d 8bbb 6740 f0bd 687e b6bb 5185 d23d
00000010: c77d 0a3e 4410 a4bd 10d9 043e c1fc b93d
00000020: 291d 06bd ce0b 43bd 8f42 03be 102f 5d3d
00000030: 37b5 b43d 14f1 4fbd f117 31be af02 143e
00000040: b043 8f3d b2ae a9bd 4104 2b3e 9b17 6bbd
00000050: 2424 213e d254 1dbb aaab aebe c745 9a3d
00000060: 7cde f6bd 8894 063e 54f1 9f3d 84d8 e13c
00000070: 923d 8c3d 8611 8c3e ab0f 063d 4942 de3d
00000080: 3242 32bd 4077 c8bd 6cca 52be 83ed 313e
00000090: 4fc8 22be 7bdf b8bd 5662 c9bd 30a3 843d
000000a0: 0ab1 8fbd 3a5b e03c 27fe 733d 2584 2cbe
000000b0: 56bc 42bd c031 c43d 3301 563e 7d8b 07bd
000000c0: 1cc5 e63c 4cd9 31be 4b3f abbd d532 813e
000000d0: 8643 9e3a d4ca c5bd 4f1a 18be 5a2f 6bbe
000000e0: ce78 033d 5157 f4bd 6f2b 393d a499 633c
000000f0: 82b5 0dbd 5df6 d83d df79 8b3e 5e36 183d
00000100: 85a2 d3bd 0c44 80be 27c6 113e 761b 3c3e
00000110: 8968 0bbd 4281 e0bd bd53 a93d 802b 9fbe
00000120: 20ed b5bd 1aad 553d ec76 763d 94a3 52bd
00000130: ff18 063e f6cb bdbd 261e 92bd 3b54 e1bc
00000140: c6a7 0b3d 3452 853d 9c1f 8fbe 47d3 56bc
00000150: da49 e43c 5109 10be a791 023e 07f9 7c3d
00000160: 5d61 a1bd 7dde 033e c0fb a43c be87 4d3d
00000170: dc22 bf3e d068 04be 3d03 513d 5759 e23d
00000180: 4fa9 21be f821 23be 7773 8dbc b829 a9bd
00000190: 6cac 29be c173 333d 8c74 57bd 450f 573e
000001a0: aa56 323c ab92 923c 06ff ff3d 1abe 2a3e
000001b0: 1d88 4f3e f94c ec3d 42c1 8bbc 472a 073b
000001c0: 4e4c 323d cfdb 403d 3246 d33d 5015 33be
000001d0: a874 c63d 4052 413e eac5 ddbd 65e2 f43d
000001e0: 4a48 2d3e d05c e53d e324 5a3c 13e2 963e
000001f0: 28bd 08be 86b4 7c3d 6659 003e 0ebe dc3d
00000200: dd01 583e 48b4 6fbd 9f8c edbe fb5b 013e
00000210: d803 e1bd 4937 cdbc 30da 17be 0b24 be3c
00000220: faba 57bd 05a0 a23d 8966 473e b155 a9bd
00000230: 456e aabd 77b4 4dbe 2f5b 343d ce7f a5bd
00000240: bcb0 47bc 774b 58bd 830b 83bd 93e1 513e
00000250: f285 fd3c af55 b5bd a73a 603d 58b1 e0bd
00000260: 7a08 7c3d af31 333e ecee a43c 72a5 2b3e
00000270: c410 a9bd 678c 393d a4e6 363d 2ac4 9d3d
00000280: 74cb e5bd 6ec3 f73d 6843 803d 9f22 dd3d
00000290: 8475 ba3d f72f c33d 5f11 253d 31bc c63d
000002a0: 1d22 84be 0484 99be 179d 61bc 8a65 003b
000002b0: 3628 b6bd bfb4 e3bd d5bd 61be 44a8 3abc
000002c0: 56c7 e53d 3cf6 e4bc 574c 973c 9315 9fbe
000002d0: 4c86 8f3e e657 3bbd ad5a 47be f625 60be
000002e0: eee8 5d3e 623f 28bd a677 ccbb 9e5f 303c
000002f0: c196 833d b15d e33d ba1c f6bd a216 a73b
00000300: a61c e4bd a269 2a3e 9e88 783e adb8 d2bd
00000310: 5188 383e b828 e53d 5b03 ac3d be01 39bc
00000320: 1780 50be ee19 3a3c c7e0 2d3e 5d1e 193c
00000330: 297c 1ebe 9f63 10be cd8e e2bd 120a 53bd
00000340: 9400 66bd 83d7 343e f803 46be 3625 143d
00000350: ff13 d73d fb50 933d 5f9f a93d a942 b9bd
00000360: d08b d73d a6af f83d b3c5 f3bc f348 3c3e
00000370: 6c4a 093c 2b73 513c ee70 c13d f993 383d
00000380: f6b3 ea3c abe4 193e 3925 c73d 6951 6e3b
00000390: 252a dcbd 2a59 f6bd 7306 4c3e 1a4a 403e
000003a0: 460b 1b3d 6686 1ebb 556f 683d 9caf 13be
000003b0: f427 26be e01d 71bd 2bc5 363e 976a 3fbe
000003c0: 7fd5 013d 9b74 bcbd ceb6 0f3d bbd3 febd
000003d0: 812c ba3d 6f9a 0e3c 2927 653e 14f2 b13c
000003e0: 92f0 39bd 012f 3abe 4d4c 013e 246f 8dbd
000003f0: afef ff3d fc1e 3dbe 24de 2a3c 5316 823c
-0.004243561 -0.11731034 -0.005569268 0.10279334 0.13524543 -0.08010915 0.12973428 0.09081412
-0.032742653 -0.04761868 -0.12818359 0.05399996 0.088236265 -0.05076702 -0.17294289 0.14454149
0.06995332 -0.082852736 0.16700841 -0.05739556 0.15736443 -0.0024006856 -0.34115344 0.0753284
-0.12054154 0.13142598 0.078097016 0.027569063 0.06847681 0.2735712 0.032729786 0.10852487
-0.04352016 -0.0978837 -0.2058503 0.1737576 -0.15896724 -0.090270005 -0.09833209 0.06476438
-0.070161894 0.02738725 0.05956855 -0.16847284 -0.047542892 0.095798016 0.20898895 -0.03309201
0.028170161 -0.17368048 -0.083616816 0.25234094 0.0012074567 -0.09657827 -0.14853786 -0.22967282
0.03209763 -0.11930717 0.045207437 0.013891611 -0.034596927 0.10593865 0.27241418 0.037161224
-0.103337325 -0.25051916 0.14235745 0.1836985 -0.03403524 -0.10962154 0.08267925 -0.31087875
-0.08883119 0.052167036 0.060172006 -0.05142553 0.13095473 -0.09267418 -0.071346566 -0.027505985
0.034095548 0.065098196 -0.27953804 -0.013111896 0.027867246 -0.14066054 0.12750874 0.06176093
-0.07879899 0.12877841 0.020139575 0.050178282 0.37331283 -0.12930608 0.05102848 0.110521965
-0.15787242 -0.15930927 -0.017266972 -0.0825991 -0.1656968 0.043811563 -0.052601382 0.21001919
0.01088492 0.017892202 0.12499814 0.1667408 0.20266767 0.11538119 -0.017059926 0.0020624564
0.0435298 0.047084626 0.10316123 -0.17488599 0.09690219 0.18879032 -0.10828765 0.11957244
0.16922107 0.11199343 0.013314459 0.29469356 -0.13353407 0.061695598 0.12534103 0.107784376
0.21094461 -0.05852154 -0.46396348 0.12632744 -0.10987061 -0.025050776 -0.14829326 0.023210546
-0.05266855 0.079406776 0.19472708 -0.082682975 -0.083218135 -0.20088373 0.044032272 -0.080810174
-0.012188133 -0.052806344 -0.0639868 0.20496206 0.03094766 -0.088542335 0.054743435 -0.10971326
0.06153152 0.17499422 0.020133458 0.16762331 -0.08255151 0.045299914 0.04465355 0.07703431
-0.11220446 0.12097822 0.06262857 0.10797619 0.091044456 0.09530633 0.04029977 0.097038634
-0.25807276 -0.29983532 -0.013770363 0.0019591772 -0.088943884 -0.11118459 -0.22045071 -0.011392657
0.11219661 -0.027949445 0.018469019 -0.31071147 0.28032148 -0.045738123 -0.19468184 -0.21889481
0.21670887 -0.04107607 -0.006239849 0.010764984 0.064252384 0.111018546 -0.12017198 0.0050991336
-0.11138277 0.16641858 0.24270865 -0.1028913 0.1802075 0.11189407 0.083990775 -0.011291919
-0.20361362 0.011358721 0.16980277 0.009345618 -0.15477051 -0.14100502 -0.11062393 -0.051523276
-0.056152895 0.17660336 -0.19337451 0.0361683 0.10501861 0.0719318 0.08282351 -0.090459175
0.10524714 0.12142877 -0.029757356 0.18387203 0.00837956 0.012783806 0.09445368 0.045062993
0.028650265 0.15028636 0.097238965 0.0036364442 -0.10750226 -0.120287254 0.19924335 0.18778268
0.037852548 -0.0024188994 0.0567468 -0.14422458 -0.16226178 -0.05886638 0.17848651 -0.18693005
0.031697746 -0.09201928 0.035086446 -0.12442728 0.0909052 0.008703812 0.2237822 0.021721877
-0.04539544 -0.18181993 0.12626763 -0.06905964 0.12496888 -0.18468851 0.010428939 0.015879786

net.2.bias f4 [60]
00000000: f838 c5bd 8274 dfbc eaa2 273d 4fc8 ad3d
00000010: 704a 8a3d cf24 ee3d ed1f 993c c24f 3ebc
00000020: 405e 4abd 7acb 6c3b 965c 68bd b85a c93d
00000030: 3c29 9fbd ac48 f73c b530 8e3d 5879 d6bb
00000040: e024 52bd 07dd 96bd 1884 8cbc 3b4a 313c
00000050: 93b9 cc3d 437a abbd 355e b1bd e31d 10bd
00000060: 1b5e 983d d2c2 8bbd d9da f43d 359d cd3d
00000070: 6f1b 1b3d ccb4 013d 8807 f13d 51ca ba3d
00000080: 45d1 213d 6e2d 3c3d e7b2 1b3d ad59 37bb
00000090: 0f70 b03d ad54 b23d 3a42 90bd c34c b03d
000000a0: 61a1 2d3d 31d8 90bd 9d69 883d 3359 c33c
000000b0: f242 7b3b 09c0 35bc 6524 3bbb 6c20 93bd
000000c0: 33d4 b43d d24b cabd 0201 b3bc 53e5 bf3d
000000d0: ff54 4ebd 43be 9d3d eedb c73c 4f8c aabd
000000e0: 11fc 7c3d 6c08 493d f32f b73d 1936 bb3d
-0.096300066 -0.027277235 0.04092685 0.084854715 0.06752479 0.116281144 0.018691981 -0.011615695
-0.04940629 0.0036132024 -0.05672892 0.09831756 -0.07771537 0.03018602 0.06942884 -0.006545227
-0.051304698 -0.07366376 -0.017152831 0.010820921 0.09996333 -0.08372929 -0.08660547 -0.035184752
0.07439824 -0.068242684 0.119558044 0.100397505 0.03786796 0.031666562 0.117690146 0.0912062
0.039506216 0.045941763 0.03801241 -0.0027977035 0.086151235 0.08707557 -0.07043882 0.08608391
0.04239023 -0.07072485 0.06660769 0.023846244 0.0038339463 -0.011093148 -0.0028555628 -0.07183918
0.08829536 -0.09877743 -0.021851066 0.09369912 -0.050374027 0.07702305 0.024396863 -0.08327543
0.061763827 0.049080297 0.089446925 0.09141178

net.5.weight f4 [1, 60]
00000000: 6f54 413d 5746 c4be 53c0 4f3a 5e54 6ebd
00000010: 2415 383d 496d d4ba 4284 c1bc 4844 71b9
00000020: d7d7 66bd 0210 00be 66e3 bf3d ae0d 1abd
00000030: d0ef 0c3d 4627 22bd 45d8 e53d c71a 0d3a
00000040: 3c5a 003e 31a1 65bd a84b e53d e85f 82b7
00000050: 7585 24bc d9eb ccbc 49ef 443a 77f0 3b3e
00000060: 2725 df3d c15a 0b3e c235 153e c574 68be
00000070: 1f2c 61bd 21cc 1f3d 9234 0f3b d795 2b3b
00000080: 40c6 d4bd 9594 453e 2ccd 64be 91d2 ae3e
00000090: 5031 f03b 3795 a33d fe41 623d 5b2d 563e
000000a0: 345a e8bd 318a 66be 3097 e43d c712 edbd
000000b0: 3f06 873d fc91 e43d 6344 963b d565 523e
000000c0: 9b77 41be 8499 c0bd 77c9 a63d 9513 95bd
000000d0: c77b 933a bcac 343d dd2e 44be 6588 d9b9
000000e0: 202f 0a3e e30b 063e 4c6a 91be 103b 6dbb
0.047199663 -0.38334915 0.0007925082 -0.058185928 0.044942036 -0.0016206886 -0.023622636 -0.00023008988
-0.056358185 -0.12506106 0.09369545 -0.037610702 0.03440839 -0.039588235 0.11222891 0.0005382713
0.12534422 -0.056061927 0.11196071 -1.5541867e-05 -0.010041584 -0.025014805 0.0007512463 0.18353449
0.10895758 0.13608839 0.14571288 -0.22700794 -0.054973718 0.039013032 0.0021851403 0.002618184
-0.10389376 0.19294961 -0.22343892 0.34145024 0.0073300973 0.07987445 0.055238716 0.20915739
-0.1134533 -0.22513653 0.11161649 -0.11575847 0.06592988 0.11160657 0.004585789 0.20546658
-0.18893282 -0.09404281 0.08143895 -0.072791256 0.0011252098 0.044110045 -0.19158502 -0.00041491087
0.1349454 0.13090472 -0.2840141 -0.0036198534
