results of reviewer/XJTU results/5-5/Experiment2/model.pth (torch, 59838 bytes, 14 tensors)

encoder.net.0.weight f4 [60, 17]
-0.10262384 0.102006614 -0.07924799 0.14716136 -0.29155108 0.16086899 0.33611795 -0.15504381
0.07670767 0.10018096 -0.20714493 0.031020522 -0.0031861404 -0.09473604 0.06881465 0.2624954
-0.1349098 0.18357475 0.050969534 -0.19046733 0.009131247 0.0717017 0.07567629 0.05135728
0.17371552 0.17986806 0.30675882 -0.027296329 -0.02389733 -0.07928426 0.19021645 0.015485256
-0.06879792 0.029467471 0.14501803 -0.25672585 0.08117329 0.021618525 0.33257252 0.22018911
0.084646456 0.053502437 -0.056357663 0.051676985 0.10220337 -0.18262108 -0.24478315 0.022105671
-0.08534371 0.3441364 -0.03148256 -0.11365351 0.2626961 0.05204184 0.38069612 -0.007313902
0.18928783 0.16690077 -0.033765186 -0.29063523 -0.030803023 -0.020888802 -0.06747643 -0.18409209
-0.10894877 -0.012071747 -0.06943766 -0.11216435 0.04285264 0.03398871 0.0543376 -0.0583978
0.12743872 -0.09562109 -0.124646045 -0.27634427 0.025697567 0.13316102 -0.18639085 -0.022209322
-0.19293866 0.040126618 -0.015807463 0.15408184 0.0017563838 0.16423053 0.06034761 0.10784968
0.20335963 0.08633919 -0.018686755 -0.05702826 0.053630516 -0.063143775 0.10744557 -0.009965236
-0.13338651 -0.24712898 0.06667274 -0.018461239 -0.06515422 0.029368844 0.015042102 -0.0568936
0.10044208 0.24974148 0.0016091118 -0.04575389 0.34436792 0.310449 0.13520163 -0.039938018
0.11672473 -0.18126167 -0.0687357 0.06334902 -0.055640623 -0.04246849 -0.15850773 -0.020290134
0.12735018 0.012409132 -0.09932771 -0.17804717 -0.013235572 0.062293224 -0.06960725 0.2617322
0.0018871275 -0.025611734 0.09988992 -0.15087977 0.094054565 -0.3460883 0.13231333 -0.096845694
0.20144361 0.07546645 -0.08254001 -0.082231924 0.038813397 -0.037278004 -0.06732927 0.1351854
0.0075506475 -0.053157 -0.13814214 -0.17179346 0.27117988 0.24030621 -0.00374218 -0.011234238
-0.18884581 0.16558884 0.0856619 0.13976778 0.1594219 0.012494512 -0.24561088 0.20931536
-0.0638503 -0.14809586 0.14295287 -0.03437042 0.07947357 0.22061601 0.005831621 -0.18078777
0.011612479 -0.107533514 -0.12397014 0.15709673 0.2656981 0.24498129 -0.096839115 0.24339297
0.1585156 0.21731135 -0.17394632 0.025976844 0.14619046 0.012074342 -0.08050283 -0.13523513
-0.174011 0.040279433 0.083271176 0.06853956 -0.4066694 0.21338452 -0.050672952 0.010945911
0.16489266 0.092587054 0.04861831 0.18905765 -0.16264956 0.12679897 -0.15151486 0.03313839
0.38859832 0.13938664 -0.20794469 -0.21527171 0.14497456 0.110650405 -0.2609763 -0.051643763
-0.078611985 0.24509321 -0.03569929 0.0246362 0.09411933 0.10646194 0.026248325 0.1371602
0.40702072 0.09236987 -0.14716515 -0.11844556 8.997993e-05 0.07145736 -0.08923618 0.26613063
-0.039915856 0.14216724 -0.16132571 0.070075795 0.20983565 -0.14456542 0.08993727 -0.23358089
-0.12463316 -0.085305266 -0.10078457 0.25780395 0.011624201 -0.007576236 0.12760656 0.30782837
0.29527712 0.045445755 0.04415533 -0.022044213 0.18918657 -0.0076057366 -0.2152622 0.21911427
-0.12597068 -0.15614069 -0.0009720174 -0.096029334 0.46630308 0.08051214 -0.039392967 -0.03897792
00000000: 732c d2bd d8e8 d03d c54c a2bd 78b1 163e
00000010: 2f46 95be d7ba 243e a717 ac3e cec3 1ebe
00000020: e918 9d3d ad2b cd3d cd1d 54be c01e fe3c
00000030: 91ce 50bb f804 c2bd b2ee 8c3d cc65 863e
00000040: cb25 0abe 05fb 3b3e 6ec5 503d de09 43be
00000050: 3a9b 153c 57d8 923d 2cfc 9a3d 035c 523d
00000060: 7be2 313e 552f 383e 7e0f 9d3e 8d9c dfbc
00000070: 55c4 c3bc c95f a2bd 1ac8 423e dfb5 7d3c
00000080: ede5 8cbd c465 f13c 9b7f 143e 9271 83be
00000090: 2f3e a63d 5519 b13c f246 aa3e 4179 613e
000000a0: 1f5b ad3d 5f25 5b3d 4bd7 66bd 3fab 533d
000000b0: 0050 d13d 0501 3bbe 6fa8 7abe f416 b53c
000000c0: afc8 aebd a532 b03e dbf3 00bd 2cc3 e8bd
000000d0: 1a80 863e d329 553d 9aea c23e 75a9 efbb
000000e0: abd4 413e 09e8 2a3e 5d4d 0abd 24ce 94be
000000f0: 9f56 fcbc fe1e abbc 1531 8abd a382 3cbe
00000100: 8820 dfbd 94c8 45bc 5535 8ebd 6cb6 e5bd
00000110: 4086 2f3d bf37 0b3d 1a91 5e3d 8832 6fbd
00000120: 4c7f 023e fdd4 c3bd 6d46 ffbd ff7c 8dbe
00000130: b483 d23c 5d5b 083e 3edd 3ebe 53f0 b5bc
00000140: b691 45be cf5b 243d a77e 81bc a1c7 1d3e
00000150: 7636 e63a 0c2c 283e 0e2f 773d 4be0 dc3d
00000160: 823d 503e 9ad2 b03d f714 99bc 7796 69bd
00000170: acab 5b3d 8651 81bd 6c0c dc3d 3b45 23bc
00000180: 7996 08be 610f 7dbe b88b 883d 063c 97bc
00000190: 936f 85bd ee96 f03c 2673 763c 4309 69bd
000001a0: 94b4 cd3d 3bbc 7f3e d5e8 d23a 6e68 3bbd
000001b0: fe50 b03e 2cf3 9e3e 4c72 0a3e 0c96 23bd
000001c0: 600d ef3d a99c 39be 4dc5 8cbd 22bd 813d
000001d0: 6ce7 63bd 70f3 2dbd da4f 22be 7f37 a6bc
000001e0: 1668 023e ac4f 4b3c 546c cbbd ff51 36be
000001f0: 03da 58bc 2e27 7f3d 3f8e 8ebd c301 863e
00000200: 7e59 f73a b3cf d1bc 1693 cc3d 3a80 1abe
00000210: ae9f c03d 7c32 b1be 257d 073e 0957 c6bd
00000220: 3c47 4e3e 278e 9a3d bd0a a9bd 3669 a8bd
00000230: ccfa 1e3d d2b0 18bd eee3 89bd 0b6e 0a3e
00000240: 6c6b f73b 28bb 59bd 2275 0dbe a0ea 2fbe
00000250: 17d8 8a3e d512 763e 5d3f 75bb cf0f 38bc
00000260: cc60 41be 1f90 293e 826f af3d 491f 0f3e
00000270: 7f3f 233e c8b5 4c3c 6b81 7bbe c456 563e
00000280: f2c3 82bd 71a6 17be 3d62 123e ffc7 0cbd
00000290: 0ac3 a23d 2ae9 613e 2f17 bf3b 6e20 39be
000002a0: 4442 3e3c 883a dcbd 0fe4 fdbd f7dd 203e
000002b0: 9509 883e 60dc 7a3e 9653 c6bd 023c 793e
000002c0: ea51 223e de86 5e3e fc1e 32be 64cd d43c
000002d0: f4b2 153e 76d3 453c abde a4bd 147b 0abe
000002e0: f12f 32be 0cfc 243d 148a aa3d 785e 8c3d
000002f0: f936 d0be 7981 5a3e 718e 4fbd 7a56 333c
00000300: 9fd9 283e 489e bd3d fe23 473d 5498 413e
00000310: 9b8d 26be 97d7 013e b626 1bbe 1fbc 073d
00000320: 5cf6 c63e 5fbb 0e3e 74ef 54be 3070 5cbe
00000330: 3674 143e ae9c e23d b09e 85be 6988 53bd
00000340: 52ff a0bd b7f9 7a3e 6b39 12bd dbd1 c93c
00000350: a3c1 c03d b808 da3d ba06 d73c b973 0c3e
00000360: 0565 d03e 6a2c bd3d 76b2 16be 9693 f2bd
00000370: 9bb3 bc38 3d58 923d 75c1 b6bd 4642 883e
00000380: cf7e 23bd 4a94 113e 9132 25be e683 8f3d
00000390: 28df 563e f508 14be 0831 b83d d42f 6fbe
000003a0: ac3f ffbd 87b4 aebd 2468 cebd e1fe 833e
000003b0: 6f73 3e3c 1342 f8bb 4bab 023e ae9b 9d3e
000003c0: 902e 973e 5425 3a3d 38dc 343d 1196 b4bc
000003d0: 20ba 413e 8b39 f9bb b26d 5cbe 7e5f 603e
000003e0: 75fe 00be 58e3 1fbe fcce 7eba 07ab c4bd
000003f0: 47bf ee3e 8de3 a43d 855a 21bd 50a7 1fbd

encoder.net.0.bias f4 [60]
-0.01899756 -0.020425469 -0.03883462 0.031556934 0.033540167 0.036614474 0.022895632 0.008020304
-0.02457077 0.016043797 -0.04619087 -0.0323153 -0.024417834 -0.023480427 -0.0007961766 0.0034056134
-0.031051055 -0.022063695 -0.0024660646 -0.01379735 -0.02285438 -0.032773748 0.0103394855 0.027921036
-0.017197737 0.029834706 0.027179914 0.039068993 -0.020628313 0.012003459 -0.027182808 0.02856719
0.019862318 -0.026020426 0.03498932 0.009066754 -0.03260981 -0.022802513 0.05559649 -0.015233785
0.018958436 -0.021978881 -0.016750045 0.0019468429 0.009124797 0.013282708 -0.021214988 0.006302272
0.0030930245 -0.020461213 0.042528335 -0.03351732 -0.033062287 0.030281913 -0.019491011 -0.027943995
0.024089083 0.0062369485 0.026563572 0.022176413
00000000: c5a0 9bbc 5053 a7bc 0d11 1fbd d841 013d
00000010: 6a61 093d 0ff9 153d 9f8f bb3c 9867 033c
00000020: a448 c9bc 486e 833c a332 3dbd 0c5d 04bd
00000030: e907 c8bc 065a c0bc 82b6 50ba b630 5f3b
00000040: c85e febc ecbe b4bc b39d 21bb 480e 62bc
00000050: 1c39 bbbc c43d 06bd f266 293c a8ba e43c
00000060: 45e2 8cbc ea67 f43c 69a8 de3c cf06 203d
00000070: b5fc a8bc 28aa 443c 7bae debc bd05 ea3c
00000080: 4db6 a23c ca28 d5bc f650 0f3d b98c 143c
00000090: dd91 05bd 56cc babc 25b9 633d 2097 79bc
000000a0: b94e 9b3c 0e0d b4bc 6437 89bc 352d ff3a
000000b0: 2c80 153c b79f 593c 0ecb adbc 4a83 ce3b
000000c0: 57b4 4a3b 469e a7bc 3132 2e3d 7549 09bd
000000d0: 526c 07bd c611 f83c 9dab 9fbc ceea e4bc
000000e0: 7856 c53c 515f cc3b d99b d93c 4fab b53c

encoder.net.2.weight f4 [60, 60]
0.013005891 0.025842467 -0.18684831 0.08541603 0.08348311 -0.10035477 0.09735017 -0.120021604
0.27973965 0.0009848059 0.031559054 0.17815255 0.18941534 -0.11454236 -0.011682133 0.01251407
0.02283833 0.09389993 0.046415243 -0.17375125 -0.2218546 -0.044936303 0.06624085 0.049792178
-0.28376794 -0.023510871 -0.020480277 0.12023481 -0.023102663 0.06270057 -0.0052882014 -0.04561137
0.07841557 0.0078733275 -0.19838145 -0.15868779 0.23638749 0.23161577 -0.03750402 0.01910261
0.0009716785 0.1844005 -0.09688757 -0.090054445 0.097833514 -0.0006555909 -0.14304295 -0.009783925
0.0051266267 0.08190866 0.05517961 -0.19401202 -0.0013544745 0.14156286 0.08738009 0.116399564
-0.12979142 0.29086384 0.14891733 0.1332453 -0.052238815 0.22459726 -0.11139593 -0.013346253
-0.13877498 0.09298672 -0.11263356 -0.1407136 0.039418112 -0.040864915 0.11312304 -0.04502936
0.08719599 0.152683 -0.03619576 0.029617876 -0.06984878 -0.17565838 0.0041383607 -0.039379306
-0.09617588 -0.25864097 -0.09148721 -0.013695828 -0.1457293 0.14877579 0.28612125 -0.09491458
0.120993525 -0.028707217 -0.028642079 -0.12901217 0.11432842 0.06771523 -0.06377288 -0.044224832
0.08372776 0.005513865 0.09514327 0.0075621284 0.15300822 0.12031112 0.07192883 -0.1782009
0.03155924 -0.16145088 -0.050592717 0.00552578 -0.40025932 0.12505382 -0.13060486 0.09307312
0.013414045 -0.07651226 0.097237356 0.04151905 0.027471906 0.23933035 -0.3487377 -0.16077256
-0.19147898 0.052681707 0.013811829 0.0219009 0.068569176 0.0651613 -0.07552167 -0.064968735
0.1174646 -0.25959107 0.28908613 -0.16601312 -0.16235915 -0.21158585 0.085545614 -0.19318737
-0.040641397 -0.07313553 -0.009564812 -0.03157567 -0.0944793 -0.0230952 0.08701841 0.062679484
0.03916294 -0.0005827302 0.10201367 -0.042936154 -0.030553723 -0.060788605 -0.08391701 -0.07859893
0.13314196 -0.01228253 -0.00686003 -0.07965465 0.029635226 -0.04361637 -0.013574401 -0.300812
0.14766438 -0.065381885 0.099372715 -0.031207254 -0.02566046 0.09617549 0.08375838 0.024310216
0.09486021 0.042603288 0.29558167 0.16786744 0.040733486 0.0807491 0.038852792 0.06619903
-0.02319241 -0.1857164 0.32417732 0.13091975 0.04729382 -0.14779188 0.16385473 0.033119194
0.100011535 0.2669913 -0.14269055 0.1639978 0.05471476 0.1140634 -0.077181384 -0.11958803
-0.34529796 -0.031120384 -0.08581485 0.1630945 0.23433019 -0.081651405 0.13662393 0.05901961
-0.015865434 0.0807333 -0.21608078 0.16897345 -0.03484327 -0.09636699 -0.11172472 -0.02402395
-0.23001924 0.12389119 -0.2489647 0.030106409 -0.07576154 -0.02862684 -0.10013661 0.0034750775
0.082013674 0.01519292 -0.28710127 -0.0183363 -0.0013261441 -0.023177607 0.15835087 0.060453035
-0.033464335 0.117173955 -0.08004167 0.057155922 0.035302635 -0.06790728 -0.00024792235 0.049782403
0.19738966 0.20150153 -0.34620073 0.11035707 -0.20080939 -0.15221988 0.020636909 -0.06288489
0.13671364 -0.06064101 0.19506556 -0.12693046 -0.12273735 0.01704548 -0.079535946 0.05320725
0.042721927 0.07200439 0.008120512 -0.1704715 0.11691631 -0.049104497 0.059548303 0.017457241
00000000: a916 553c 95b3 d33c 2a55 3fbe 99ee ae3d
00000010: 31f9 aa3d cd86 cdbd 875f c73d e3cd f5bd
00000020: 093a 8f3e 9a14 813a 1144 013d 9f6d 363e
00000030: 18f6 413e 2f95 eabd 6b66 3fbc d007 4d3c
00000040: 7317 bb3c 9b4e c03d e91d 3e3d d9eb 31be
00000050: da2d 63be 210f 38bd 48a9 873d e2f2 4b3d
00000060: 084a 91be df99 c0bc 41c6 a7bc ab3d f63d
00000070: cc41 bdbc 2869 803d a648 adbb fdd2 3abd
00000080: 5898 a03d 21ff 003c 8224 4bbe 0d7f 22be
00000090: 900f 723e af2c 6d3e d19d 19bd 147d 9c3c
000000a0: 3eb8 7e3a 7cd3 3c3e fe6c c6bd 776e b8bd
000000b0: f05c c83d f6db 2bba da79 12be c14c 20bc
000000c0: 43fd a73b babf a73d 0404 623d 16ab 46be
000000d0: 9f88 b1ba dbf5 103e 55f4 b23d e562 ee3d
000000e0: 0be8 04be 1bec 943e c97d 183e 7571 083e
000000f0: 5ef8 55bd d3fc 653e 8d23 e4bd 3eaa 5abc
00000100: 071b 0ebe d26f be3d 6dac e6bd 3a17 10be
00000110: e374 213d f861 27bd 0dad e73d b570 38bd
00000120: d093 b23d ef58 1c3e 0142 14bd 30a1 f23c
00000130: e10c 8fbd cadf 33be 169b 873b 324c 21bd
00000140: dcf7 c4bd 976c 84be a55d bbbd 7764 60bc
00000150: 103a 15be ae58 183e 7c7e 923e 9362 c2bd
00000160: 74cb f73d 662b ebbc cba2 eabc c41b 04be
00000170: 0525 ea3d 48ae 8a3d 5b9b 82bd 1925 35bd
00000180: 7679 ab3d a7ad b43b 7ada c23d bbcb f73b
00000190: 30ae 1c3e ad65 f63d 6c4f 933d 4c7a 36be
000001a0: 4344 013d 6153 25be 4f3a 4fbd 9a11 b53b
000001b0: caee ccbe 1c0e 003e 48bd 05be 1f9d be3d
000001c0: 95c6 5b3c 76b2 9cbd 6124 c73d e10f 2a3d
000001d0: c30c e13c 0413 753e bf8d b2be 90a1 24be
000001e0: 1113 44be c6c8 573d 024b 623c 8469 b33c
000001f0: ff6d 8c3d 4a73 853d 1bab 9abd 540e 85bd
00000200: 4891 f03d 1fe9 84be 1903 943e 58ff 29be
00000210: 7a41 26be f6a9 58be 8a32 af3d e9d2 45be
00000220: 9877 26bd 15c8 95bd bbb5 1cbc 7d55 01bd
00000230: 5d7e c1bd 2532 bdbc b536 b23d 1a5e 803d
00000240: 5269 203d 5dc2 18ba 8bec d03d d2dd 2fbd
00000250: cd4b fabc 79fd 78bd aedc abbd 7af8 a0bd
00000260: 5e56 083e aa3c 49bc 1aca e0bb fa21 a3bd
00000270: 93c5 f23c 14a7 32bd 2a67 5ebc 0804 9abe
00000280: 5535 173e f0e6 85bd ec83 cb3d 5ba6 ffbc
00000290: e335 d2bc a8f7 c43d 8389 ab3d 3826 c73c
000002a0: 1246 c23d c980 2e3d 7b56 973e 71e5 2b3e
000002b0: 28d8 263d c95f a53d 1b24 1f3d 5b93 873d
000002c0: 02fe bdbc 712c 3ebe 92fa a53e d40f 063e
000002d0: 2ab7 413d c156 17be 89c9 273e fea7 073d
000002e0: d9d2 cc3d 15b3 883e 791d 12be 0aef 273e
000002f0: 961c 603d 129a e93d 4611 9ebd 92ea f4bd
00000300: e5ca b0be 2df0 febc b2bf afbd 3f02 273e
00000310: 41f4 6f3e da38 a7bd 25e7 0b3e 8cbe 713d
00000320: 3af8 81bc 8057 a53d 4844 5dbe 6007 2d3e
00000330: d1b7 0ebd 0e5c c5bd eecf e4bd e0cd c4bc
00000340: 2a8a 6bbe aaba fd3d 9af0 7ebe b7a1 f63c
00000350: de28 9bbd d682 eabc 6c14 cdbd 20be 633b
00000360: c9f6 a73d baeb 783c f0fe 92be 0236 96bc
00000370: 03d2 adba f7de bdbc bb26 223e 9a9d 773d
00000380: e611 09bd e6f8 ef3d e3ec a3bd 541c 6a3d
00000390: 7f99 103d f912 8bbd 93fb 81b9 a2e8 4b3d
000003a0: 8420 4a3e 6b56 4e3e 3941 b1be e302 e23d
000003b0: faa0 4dbe 87df 1bbe bc0e a93c cbc9 80bd
000003c0: a9fe 0b3e b562 78bd 44bf 473e 0ffa 01be
000003d0: b85d fbbd f6a2 8b3c bee3 a2bd d8ef 593d
000003e0: 30fd 2e3d 0a77 933d e50b 053c 1590 2ebe
000003f0: d171 ef3d cc21 49bd ece8 733d 7d02 8f3c

encoder.net.2.bias f4 [60]
-0.020697057 -0.017632257 0.018712487 0.049018234 -0.024976743 -0.03120707 0.018338066 -0.00529914
-0.039708193 -0.027017593 -0.015382503 -0.017413221 0.028907318 -0.05426472 0.026012387 0.029019998
0.023326969 0.014630382 0.0066572553 0.05115456 -0.022080751 0.026819503 0.05510557 -0.03802072
0.006171466 -0.026926102 -0.039168075 -0.030526338 0.026423678 0.025724456 0.01740343 0.025285596
0.07206933 0.03850591 0.028659513 0.020882407 -0.0012024431 0.029846158 0.008516288 -0.037294675
0.008028072 -0.023597235 0.027554194 0.012702029 -0.008315747 -0.025921917 0.017416596 0.007368046
0.018526845 0.03169569 0.019769676 -0.0054668235 0.024060464 0.01294987 0.023871891 0.012556364
0.014318638 -0.0467081 0.029075067 0.0531129
00000000: e08c a9bc 8671 90bc ee4a 993c 58c7 483d
00000010: 079c ccbc f8a5 ffbc b639 963c 68a4 adbb
00000020: 0fa5 22bd 0054 ddbc e506 7cbc 2ca6 8ebc
00000030: 0acf ec3c af44 5ebd ee17 d53c 59bb ed3c
00000040: 3318 bf3c 45b4 6f3c 1b25 da3b 7287 513d
00000050: b1e2 b4bc 93b4 db3c 61b6 613d 9dbb 1bbd
00000060: 023a ca3b 2194 dcbc b46e 20bd 5f12 fabc
00000070: 7876 d83c 18bc d23c a391 8e3c bd23 cf3c
00000080: 1699 933d 60b8 1d3d 5bc7 ea3c 9511 ab3c
00000090: 4c9b 9dba ee7f f43c e787 0b3c 4dc2 18bd
000000a0: 2d88 033c fd4e c1bc 55b9 e13c 2c1c 503c
000000b0: c53e 08bc 335a d4bc 40ad 8e3c a66f f13b
000000c0: 9cc5 973c 57d3 013d 04f4 a13c 0a23 b3bb
000000d0: 731a c53c b12b 543c fc8e c33c 35b9 4d3c
000000e0: b898 6a3c fe50 3fbd d62e ee3c ea8c 593d

encoder.net.5.weight f4 [32, 60]
-0.08524053 -0.20466724 -0.026804056 -0.029219935 -0.1754006 0.078314036 0.24687569 -0.20364696
-0.04797908 -0.087039635 0.04929036 0.23778898 -0.046807542 -0.046623725 -0.06048909 -0.07825394
-0.03541017 0.1338429 -0.107517794 -0.06908861 0.09496787 0.02747108 0.0652984 -0.19269936
-0.12577511 -0.2185859 -0.21724668 -0.267083 0.23981538 -0.407182 0.054232296 0.046936657
0.1762069 -0.16869545 0.18970138 0.07990449 -0.038313307 0.10138463 0.16052787 0.004602032
-0.08382295 0.07630786 0.026521532 -0.1210248 -0.010631913 0.1064039 -0.019749997 0.11315588
-0.0841339 -0.061453015 -0.12350075 -0.11318942 -0.0022236241 -0.13605344 -0.0423482 -0.06427437
-0.020403264 -0.062339358 -0.22568186 -0.081559435 -0.12527247 0.091396734 0.1816511 0.1885748
-0.013547108 -0.0022196134 0.06451037 -0.026531367 -0.040556926 0.022060905 0.33990508 0.0606627
0.018602978 -0.05213285 -0.058562092 0.09894509 -0.07680502 0.16531461 -0.19621493 0.03273683
-0.16070524 0.27745295 -0.05794504 -0.22058448 0.14589486 -0.04353164 -0.09551022 0.06689289
0.1353872 0.18100312 -0.0636164 -0.032077577 0.02359595 0.05936849 -0.04681926 0.37301937
-0.13395435 0.04411719 -0.18984574 -0.06916086 -0.20585318 0.1135669 0.24134059 -0.19618689
0.08846321 -0.07453826 0.020637268 0.008249631 0.22848707 0.13473769 -0.048391663 -0.11329034
-0.036773153 -0.1212253 -0.12842198 -0.053852078 0.19675432 -0.09747366 -0.09655355 0.047026105
0.012416342 -0.07498953 -0.20817468 0.08122924 -0.03837105 0.10275316 0.11429611 -0.02216553
0.05110749 0.06608399 -0.09409656 -0.1086452 0.022806235 0.094177246 0.04569645 -0.19734606
0.14449923 0.007612441 -0.06756552 -0.084442794 0.11274554 0.119924694 -0.13021374 -0.055823393
-0.031704858 -0.1400001 -0.102547534 -0.17533973 0.1490409 0.11650369 0.2014477 0.18232055
0.029207801 -0.014483489 0.084605426 0.013408386 -0.036278255 -0.17640917 0.10432853 0.020559983
0.20951043 0.01762244 0.1977648 -0.1445384 -0.056109864 -0.041656155 0.061995327 -0.29376614
-0.035768103 0.048402566 -0.022445908 0.24639831 -0.031131119 -0.062907964 -0.011970107 0.14384001
-0.08506245 -0.014557561 -0.086287595 -0.023069033 0.11502804 -0.25752282 -0.017203942 -0.108235955
0.24396786 0.0045461925 0.12411065 -0.05409158 0.11556613 -0.16727518 0.1354592 -0.113989584
0.066681705 -0.04780684 -0.019267978 -0.05170566 0.23051085 0.019090287 -0.04836223 0.27309686
0.24451227 -0.23751092 0.08418362 0.121062174 0.051336776 -0.09082452 0.062866285 0.09960427
-0.09538863 0.09239543 -0.026389562 0.23383425 0.11887204 0.17340022 -0.23755863 -0.23844159
-0.008989225 0.0045578065 0.07759469 -0.09955068 0.18458761 0.03895778 -0.051834475 -0.048983335
-0.03561531 -0.011693953 0.15029794 -0.15254554 0.08877293 0.014758517 0.11964991 -0.08889692
-0.23963007 0.0490183 0.04509189 -0.039647225 -0.05957508 -0.16374849 -0.13788523 -0.065110944
0.14129561 0.10125226 0.25050056 0.16204976 0.029836465 0.30281377 0.042406797 0.06478876
0.031816766 0.23248343 0.12450337 0.25955442 0.10747132 0.24395695 -0.09225872 0.08047262
00000000: 9692 aebd 4a94 51be 2e94 dbbc a55e efbc
00000010: 379c 33be 1c63 a03d fbcc 7c3e d488 50be
00000020: b685 44bd d641 b2bd b0e4 493d f47e 733e
00000030: 44b9 3fbd 85f8 3ebd 68c3 77bd 9a43 a0bd
00000040: 410a 11bd 1d0e 093e 4a32 dcbd 547e 8dbd
00000050: 847e c23d 080b e13c 2bbb 853d fb52 45be
00000060: 31cb 00be fbd4 5fbe ea75 5ebe 1abf 88be
00000070: 2a92 753e 297a d0be af22 5e3d a740 403d
00000080: 956f 343e 80be 2cbe 1441 423e f7a4 a33d
00000090: 6aee 1cbd bfa2 cf3d 6b61 243e a4cc 963b
000000a0: 5eab abbd 4c47 9c3d af43 d93c dadb f7bd
000000b0: 7a31 2ebc 4aea d93d bfca a1bc 45be e73d
000000c0: 654e acbd 28b6 7bbd f6ed fcbd dbcf e7bd
000000d0: 39ba 11bb 9851 0bbe 4e75 2dbd 48a2 83bd
000000e0: bf24 a7bc 8e57 7fbd 2519 67be a208 a7bd
000000f0: 6d47 00be 362e bb3d bf02 3a3e c119 413e
00000100: b0f4 5dbc ef76 11bb 031e 843d 4f58 d9bc
00000110: 051f 26bd 12b9 b43c 0a08 ae3e 7479 783d
00000120: 4665 983c 4189 55bd cede 6fbd b9a3 ca3d
00000130: f34b 9dbd 3c48 293e 91ec 48be 0e17 063d
00000140: ea8f 24be 500e 8e3e c757 6dbd e6e0 61be
00000150: 7665 153e 3c4e 32bd dd9a c3bd 24ff 883d
00000160: f1a2 0a3e e258 393e 5149 82bd c763 03bd
00000170: 4b4c c13c 602c 733d 8dc5 3fbd 65fc be3e
00000180: 542b 09be 3ab4 343d ec66 42be 35a4 8dbd
00000190: 2dcb 52be c395 e83d fd21 773e 37e5 48be
000001a0: 332c b53d 84a7 98bd 7d0f a93c 7629 073c
000001b0: 84f8 693e adf8 093e 5636 46bd c404 e8bd
000001c0: 729f 16bd f844 f8bd 0d81 03be ff93 5cbd
000001d0: f779 493e 45a0 c7bd debd c5bd 729e 403d
000001e0: ea6d 4b3c 1c94 99bd be2b 55be 845b a63d
000001f0: f62a 1dbd 4070 d23d 1414 ea3d 7c94 b5bc
00000200: 1656 513d 0b57 873d b2b5 c0bd 6081 debd
00000210: 24d4 ba3c 00e0 c03d 332c 3b3d 1615 4abe
00000220: 9bf7 133e c971 f93b cb5f 8abd 58f0 acbd
00000230: 22e7 e63d 149b f53d c056 05be 12a7 64bd
00000240: f4dc 01bd 305c 0fbe 7104 d2bd 428c 33be
00000250: 2d9e 183e 7d99 ee3d 4e48 4e3e 3db2 3a3e
00000260: 3345 ef3c 284c 6dbc 9c45 ad3d d9ae 5b3c
00000270: 8298 14bd 9ba4 34be 32aa d53d 696d a83c
00000280: e789 563e ef5c 903c db82 4a3e e001 14be
00000290: 75d3 65bd a59f 2abd d0ee 7d3d 8468 96be
000002a0: 9381 12bd c541 463d 7be0 b7bc d74f 7c3e
000002b0: b006 ffbc e4d5 80bd 451e 44bc cc4a 133e
000002c0: 3935 aebd d682 6ebc 8db7 b0bd 45fb bcbc
000002d0: d293 eb3d 08da 83be 48ef 8cbc d0aa ddbd
000002e0: b6d2 793e 3af8 943b b92d fe3d 228f 5dbd
000002f0: efad ec3d 2f4a 2bbe d1b5 0a3e 5f73 e9bd
00000300: 6b90 883d 1bd1 43bd e1d7 9dbc 50c9 53bd
00000310: 090b 6c3e 3c63 9c3c 7917 46bd 5ad3 8b3e
00000320: 6d61 7a3e 1036 73be 7668 ac3d 72ef f73d
00000330: 8346 523d 3502 babd 0ac0 803d 53fd cb3d
00000340: 1d5b c3bd d139 bd3d ec2e d8bc 3f72 6f3e
00000350: 2f73 f33d d48f 313e 9242 73be 082a 74be
00000360: 8b47 13bc a759 953b f7e9 9e3d 3ae1 cbbd
00000370: 8904 3d3e 3192 1f3d 6350 54bd c0a2 48bd
00000380: 5ce1 11bd fe97 3fbc b4e7 193e e634 1cbe
00000390: 95ce b53d b5cd 713c 030b f53d 970f b6bd
000003a0: 9661 75be 6ac7 483d 46b2 383d 2165 22bd
000003b0: 0005 74bd afad 27be c931 0dbe e358 85bd
000003c0: ccaf 103e 585d cf3d 9c41 803e 5ff0 253e
000003d0: 9a6b f43c 680a 9b3e c0b2 2d3d f8af 843d
000003e0: 4c52 023d 2310 6e3e 9ffb fe3d 51e4 843e
000003f0: ec19 dc3d dacf 793e 24f2 bcbd d4ce a43d

encoder.net.5.bias f4 [32]
0.039804824 0.0430459 0.037150986 -0.041915882 -0.035772994 -0.039013557 0.019570624 0.034580786
0.009349531 -0.0066950005 -0.061331764 0.050498296 -0.03734295 -0.071423754 0.016746497 -0.05561511
0.0035173008 -0.046191566 0.00042371682 -0.03296517 0.08713872 0.07243384 0.04279161 0.08611418
0.045944575 0.034733735 -0.052882418 -0.041127767 0.03210141 -0.004833663 -0.05309892 0.035891287
00000000: 620a 233d e650 303d a22b 183d fdaf 2bbd
00000010: b486 12bd aecc 1fbd 9352 a03c 95a4 0d3d
00000020: c62e 193c bc61 dbbb 0437 7bbd 4dd7 4e3d
00000030: ecf4 18bd 9e46 92bd f32f 893c abcc 63bd
00000040: 8482 663b 5e33 3dbd 4f26 de39 7c06 07bd
00000050: c975 b23d 3158 943d 4146 2f3d a25c b03d
00000060: 6130 3c3d f644 0e3d 3c9b 58bd 9775 28bd
00000070: c57c 033d b463 9ebb 417e 59bd be02 133d

predictor.net.1.weight f4 [32, 32]
-0.038893875 0.08936886 0.088287026 0.15070133 -0.221395 -0.1139349 -0.11703792 0.063714236
0.06985034 0.007540697 -0.08529412 -0.09339088 0.19366015 -0.4826603 0.0625926 -0.2222958
-0.09920597 -0.30189633 0.011403987 0.01925067 0.19605264 0.12201668 0.07622256 0.22709328
0.2084464 0.0172169 -0.18024333 -0.10188025 0.0898275 0.111652546 -0.25074607 0.19475546
0.06645401 -0.055296768 0.4694696 -0.027903153 0.049263675 -0.26011205 0.30164206 0.123703435
-0.21921442 0.16021372 0.12755093 0.09109451 -0.21014223 0.11202825 0.08646997 0.14501457
-0.107878275 0.19843061 -0.047097217 0.043683324 -0.09509994 -0.1659727 -0.23038849 -0.049745835
-0.13619311 0.18921822 0.13878363 0.08864219 0.12623589 -0.11173433 -0.08906394 -0.1081805
0.17512779 0.13931547 -0.042850226 0.053632557 0.29438114 0.10404763 0.02721702 -0.019647531
-0.22868213 -0.18805754 -0.020194583 0.10974145 -0.20868418 0.11894599 -0.276723 0.1860853
-0.08567788 0.28778997 -0.21648045 -0.279318 0.057112765 0.20003673 -0.17849204 0.07596879
-0.011359675 -0.26794395 -0.24676919 0.20996147 -0.3042252 -0.06402883 0.22987571 -0.38724282
0.34223613 -0.02188662 0.10129375 -0.27363887 -0.0028740112 -0.06773359 -0.21785104 -0.19593894
-0.28221974 -0.082292326 0.016801722 -0.08260002 0.037250586 -0.12252173 -0.022520136 -0.10706379
-0.12178822 0.0615662 0.007604637 0.15778455 -0.17932361 -0.24955465 -0.059335914 0.05864043
0.3250051 -0.13740596 0.2794885 0.1587362 0.12060446 0.015009319 -0.19242378 -0.41986984
-0.03506098 0.0018702275 -0.37364614 -0.066846214 -0.18427852 0.0915591 0.19060425 -0.027371282
0.110423036 0.06834169 -0.13154048 0.077403486 -0.011158436 0.2582297 -0.07445745 0.10226292
-0.0045158127 -0.05367572 0.030795095 4.1236683e-05 -0.27953 -0.031019706 -0.2653336 -0.118732706
0.13480252 0.18170139 0.042412315 -0.12468806 -0.08995678 -0.11370254 0.08692932 0.21051033
0.02638442 -0.031945273 0.12875396 0.33017415 -0.051757753 0.06535926 -0.20814806 -0.0012908912
0.095472075 -0.085843764 0.13000831 0.05972694 0.22623253 0.11756833 0.06892103 -0.031566508
0.04875302 -0.19640586 0.018430991 0.22721088 0.12760985 -0.14700854 -0.043080147 -0.15911785
-0.17461552 0.13604207 -0.27565125 -0.19660342 0.048854876 0.10122651 -0.19905978 -0.027256815
0.25591093 -0.07752525 -0.15144353 -0.02311644 -0.107867606 0.12692231 -0.17797324 0.19978632
-0.18931665 0.11143883 0.47099945 0.08781436 -0.25927153 -0.23504728 -0.22375643 -0.30059785
0.0041988804 -0.029645951 0.2982967 0.113699615 -0.07539356 -0.26122138 -0.27179158 0.1326991
-0.45626622 0.085522234 -0.06201211 -0.022943629 0.110495195 0.15425342 0.21828207 0.08306628
-0.41974497 0.057660837 0.16190232 0.17149946 -0.2491442 -0.2019803 -0.2666581 0.25572792
0.07589699 -0.020596478 -0.23440729 -0.08258013 -0.20009825 0.13955377 -0.054236062 -0.3376941
0.26543856 0.06348237 -0.06867268 0.3650287 -0.122800015 -0.028962392 0.05228269 -0.04468444
0.11090646 -0.16775103 0.019564604 -0.062572114 0.17167854 -0.24365881 -0.059539694 -0.051738385
00000000: 2f4f 1fbd 0507 b73d d4cf b43d 7351 1a3e
00000010: 5fb5 62be b356 e9bd 94b1 efbd 9c7c 823d
00000020: b20d 8f3d f417 f73b afae aebd b843 bfbd
00000030: d94e 463e 401f f7be 8d30 803d 83a1 63be
00000040: 802c cbbd 2892 9abe cad7 3a3c 95b3 9d3c
00000050: 06c2 483e e2e3 f93d 931a 9c3d 248b 683e
00000060: f972 553e 750a 8d3c b591 38be 98a6 d0bd
00000070: 7bf7 b73d 17aa e43d ca61 80be fa6d 473e
00000080: 0a19 883d dd7e 62bd 525e f03e 2795 e4bc
00000090: b5c8 493d 682d 85be d470 9a3e 3a58 fd3d
000000a0: bf79 60be 110f 243e b69c 023e c28f ba3d
000000b0: 862f 57be 116f e53d 2b17 b13d b37e 143e
000000c0: 49ef dcbd 6531 4b3e 03e9 40bd 49ed 323d
000000d0: c2c3 c2bd bff4 29be f6ea 6bbe 4ac2 4bbd
000000e0: 3576 0bbe 6cc2 413e 4c1d 0e3e 098a b53d
000000f0: fb43 013e f8d4 e4bd 2867 b6bd bd8d ddbd
00000100: b354 333e b7a8 0e3e b883 2fbd d0ad 5b3d
00000110: 20b9 963e ed16 d53d 3af6 de3c dcf3 a0bc
00000120: a62b 6abe 2892 40be 1c6f a5bc 20c0 e03d
00000130: 4eb1 55be f599 f33d a3ae 8dbe 258d 3e3e
00000140: e277 afbd 3559 933e 0dad 5dbe c502 8fbe
00000150: 13ef 693d 6ed6 4c3e 9ec6 36be 8695 9b3d
00000160: ee1d 3abc f32f 89be 10b1 7cbe 2400 573e
00000170: 68c3 9bbe 8c21 83bd 8a64 6b3e b144 c6be
00000180: 9339 af3e 924b b3bc 1973 cf3d 651a 8cbe
00000190: e859 3cbb e9b7 8abd 5814 5fbe 38a4 48be
000001a0: 1b7f 90be e188 a8bd c4a3 893c 332a a9bd
000001b0: 1294 183d acec fabd 267c b8bc 4344 dbbd
000001c0: 1a6c f9bd d72c 7c3d 5230 f93b 4692 213e
000001d0: 9ca0 37be 418b 7fbe 370a 73bd f330 703d
000001e0: 1267 a63e 26b4 0cbe 1e19 8f3e be8b 223e
000001f0: 79ff f63d a6e9 753c bd0a 45be 2ef9 d6be
00000200: 1a9c 0fbd 6c22 f53a 8c4e bfbe abe6 88bd
00000210: 82b3 3cbe 5683 bb3d c32d 433e bd39 e0bc
00000220: 7925 e23d baf6 8b3d 8cb2 06be b885 9e3d
00000230: dfd1 36bc af36 843e 267d 98bd 396f d13d
00000240: 62f9 93bb 12db 5bbd ff45 fc3c 8df5 2c38
00000250: 8e1e 8fbe 0a1d febc ced9 87be 222a f3bd
00000260: ac09 0a3e ee0f 3a3e 89b8 2d3d 745c ffbd
00000270: 433b b8bd e1dc e8bd 0008 b23d 0590 573e
00000280: 2424 d83c 0cd9 02bd 14d8 033e 960c a93e
00000290: f0ff 53bd 13db 853d c424 55be 1f33 a9ba
000002a0: dd86 c33d dbce afbd e620 053e 3ca4 743d
000002b0: 80a9 673e aac7 f03d 7826 8d3d e24b 01bd
000002c0: 3fb1 473d 9e1e 49be 97fc 963c f8a9 683e
000002d0: 28ac 023e 6889 16be cf74 30bd caef 22be
000002e0: 69ce 32be 9d4e 0b3e 2922 8dbe 6852 49be
000002f0: 0d1c 483d d84f cf3d 54d6 4bbe af49 dfbc
00000300: c206 833e 8fc5 9ebd 0314 1bbe b05e bdbc
00000310: b1e9 dcbd ecf7 013e 9e3e 36be c994 4c3e
00000320: 39dc 41be 0b3a e43d d726 f13e 04d8 b33d
00000330: 3dbf 84be 3cb0 70be 6820 65be f6e7 99be
00000340: c396 893b 11dc f2bc 58ba 983e 58db e83d
00000350: f067 9abd cfbe 85be 4428 8bbe 46e2 073e
00000360: ba9b e9be 4826 af3d 6900 7ebd 47f4 bbbc
00000370: 4e4b e23d 9cf4 1d3e 5685 5f3e a71e aa3d
00000380: d0e8 d6be c52d 6c3d b9c9 253e 8e9d 2f3e
00000390: a81f 7fbe ecd3 4ebe 6987 88be c5ee 823e
000003a0: e26f 9b3d f2b9 a8bc 7708 70be c51f a9bd
000003b0: 8ee6 4cbe 2fe7 0e3e a226 5ebd 3ee6 acbe
000003c0: 90e7 873e 0b03 823d 43a4 8cbd 0be5 ba3e
000003d0: 937e fbbd 8a42 edbc 6026 563d 0807 37bd
000003e0: ed22 e33d edc6 2bbe f345 a03c cf25 80bd
000003f0: 80cc 2f3e b281 79be e5df 73bd a1eb 53bd

predictor.net.1.bias f4 [32]
0.1245967 0.0960741 0.13396767 0.11816917 0.100796364 0.107559405 -0.092248015 -0.1259111
-0.10512731 -0.10400256 0.13132681 -0.10992748 0.40560743 0.11190229 0.10986788 -0.13899325
0.122268625 0.1458233 -0.12672238 0.1324421 0.10830491 0.13596518 0.096384384 -0.117643535
0.054805897 0.12664792 -0.105418146 -0.11637682 -0.10481955 0.11938309 0.109836586 0.113417566
00000000: 8e2c ff3d 7fc2 c43d d22e 093e ae02 f23d
00000010: 536e ce3d 1b48 dc3d 87ec bcbd d7ee 00be
00000020: fd4c d7bd 4bff d4bd 897a 063e a921 e1bd
00000030: c7ab cf3e 072d e53d 6902 e13d 3f54 0ebe
00000040: f967 fa3d b452 153e 83c3 01be e79e 073e
00000050: f7ce dd3d 753a 0b3e 2d65 c53d 18ef f0bd
00000060: 267c 603d feaf 013e 78e5 d7bd f856 eebd
00000070: a2ab d6bd 1f7f f43d 01f2 e03d 7847 e83d

predictor.net.3.weight f4 [1, 32]
0.403918 0.26299772 0.23179626 0.08799587 0.092622064 0.32255253 -0.19861381 -0.19206318
-0.21125749 -0.23686151 0.20496526 -0.4056611 0.052314904 0.20517184 0.52945226 -0.121723846
0.35058102 0.029022276 -0.15388109 0.15295956 0.07863723 0.13278973 0.24432524 -0.26949254
0.0113137625 0.21798207 -0.4161565 -0.14545394 -0.28499007 0.18936047 0.33101496 0.4084869
00000000: 57ce ce3e a3a7 863e 005c 6d3e 2e37 b43d
00000010: a3b0 bd3d 9b25 a53e 6b61 4bbe 36ac 44be
00000020: e253 58be d38b 72be 6ae2 513e d0b2 cfbe
00000030: 2748 563d 9118 523e 2f8a 073f 5a4a f9bd
00000040: 5b7f b33e 20c0 ed3c 0193 1dbe 6ea1 1c3e
00000050: 8e0c a13d 08fa 073e 6530 7a3e edfa 89be
00000060: 5c5d 393c b136 5f3e 7712 d5be e1f1 14be
00000070: 38ea 91be b6e7 413e cb7a a93e 3225 d13e

net.0.weight f4 [60, 35]
-0.18872018 -0.027705329 -0.048627693 0.06668855 -0.03300229 0.20344917 -0.030526739 -0.17762822
0.034092676 -0.081926 0.04088658 0.033447184 -0.19266185 0.13514367 0.14955233 -0.20422924
0.07991644 -0.013568105 -0.0037110408 -0.30282456 0.18533435 0.12434047 -0.1077309 0.08078324
0.12672135 -0.06424788 0.04245721 0.0037284219 -0.07333061 0.0034823706 -0.04251607 0.09385334
-0.31079018 0.057626694 0.14696866 -0.0791 -0.08299429 -0.023099933 -0.037498232 0.049595788
0.12866765 -0.016504887 0.19856241 0.09528557 -0.2883216 -0.14858922 0.099043615 -0.06306063
0.13488854 0.053912167 -0.038839128 0.21780157 0.06062265 -0.14334267 -0.0055839163 0.08208503
0.09624626 0.15144739 0.1223673 0.17657712 0.05912677 -0.20135945 -0.009170496 0.0949072
-0.19442998 -0.16597699 -0.1175039 -0.13583255 -0.20278233 0.12272858 -0.122440435 -0.042001236
0.21161154 -0.20509318 0.0154637415 -0.09751938 -0.00883242 -0.13302869 -0.058358714 0.027291909
-0.011343163 0.13311924 -0.097888395 -0.16134778 0.01172375 0.35372037 0.022458589 0.20809078
-0.04829323 0.06576699 -0.011493982 -0.052447695 -0.10392816 0.06368322 0.24878664 0.13479021
0.09897059 0.18707322 -0.28523016 0.064011075 -0.034374956 -0.2997513 -0.15818915 0.22968657
-0.10096704 -0.06689364 0.15287244 -0.1519439 0.14537753 0.21650046 -0.13540225 -0.046762593
-0.055599757 0.16642168 -0.111419864 0.0822715 -0.21984749 0.0495648 -0.06626298 0.06630331
-0.002764929 0.008956179 0.020349948 -0.11058626 0.008843138 0.0759007 0.30628702 -0.077580616
-0.13606645 0.13717605 0.113275535 0.17762347 0.059589885 0.00052485586 -0.38361222 -0.026524696
-0.013118769 0.062265333 -0.060479656 0.5184689 0.09013184 -0.13005053 -0.10043787 0.056530498
0.03206359 0.105377726 -0.039145343 0.002575593 0.08121695 -0.020533493 0.13290092 -0.16690953
0.03722388 -0.06266577 -0.08567856 0.115774505 -0.086791016 0.025157746 -0.14672273 -0.0030242933
0.104513936 0.08178897 -0.078174114 -0.0861805 0.19921026 -0.18162312 0.02698277 -0.13808435
0.1526781 -0.24359637 -0.01847273 0.021099783 -0.16690874 0.17716336 -0.04283861 0.17707643
0.08705117 0.05035279 -0.0024974656 -0.13166066 0.21873406 0.10877186 -0.104898386 0.017060436
-0.061794184 -0.07042206 -0.104892276 -0.0796229 0.007226576 0.09535474 -0.08405069 0.16583928
-0.024417412 -0.05449464 -0.06740893 0.032276653 2.217754e-05 0.050749462 -0.03772442 0.009806129
0.08238484 0.052560825 -0.26181164 0.1468335 -0.109538406 0.27899137 -0.032069396 0.3502836
-0.027757067 -0.02065743 0.059122104 0.19866088 -0.13536002 0.20632356 -0.23446533 0.17990163
0.18265621 -0.030886646 0.28843868 0.09516922 0.116514266 0.08604493 0.12186535 -0.10259437
-0.16355969 0.13940288 0.02496464 0.117013566 0.116314225 0.13720442 -0.2029703 -0.054150894
-0.14071612 -0.06505837 -0.22075091 -0.032940738 -0.13010143 0.006227035 0.13163018 0.1573776
-0.1305817 0.40863636 -0.3014764 0.09389715 0.015037387 0.14664307 -0.03220234 -0.15106046
0.053786296 0.22901556 -0.18541938 0.2821797 0.07785383 0.09296459 -0.109936334 -0.15013458
00000000: dd3f 41be 49f6 e2bc d52d 47bd 0294 883d
00000010: 692d 07bd fb54 503e 3613 fabc 2ce4 35be
00000020: c3a4 0b3d d2c8 a7bd b078 273d eaff 083d
00000030: 2649 45be 1a63 0a3e 3f24 193e 7821 51be
00000040: 3bab a33d c24c 5ebc ef34 73bb d20b 9bbe
00000050: 4ac8 3d3e 37a6 fe3d 05a2 dcbd af71 a53d
00000060: 3ec3 013e 6494 83bd 9de7 2d3d 8a58 743b
00000070: 5c2e 96bd 7c38 643b 5525 2ebd 2e36 c03d
00000080: e41f 9fbe f809 6c3d f47e 163e 2eff a1bd
00000090: e9f8 a9bd 123c bdbc bf97 19bd f424 4b3d
000000a0: 74c1 033e 4235 87bc f253 4b3e 1525 c33d
000000b0: e49e 93be c627 18be 61d7 ca3d ee25 81bd
000000c0: 3920 0a3e 01d3 5c3d c715 1fbd 6007 5f3e
000000d0: 754f 783d 6cc8 12be 49f9 b6bb 321c a83d
000000e0: c21c c53d 0615 1b3e b59b fa3d a2d0 343e
000000f0: e92e 723d 2c31 4ebe d93f 16bc b55e c23d
00000100: a718 47be dff5 29be e2a5 f0bd b017 0bbe
00000110: 2ca6 4fbe 1f59 fb3d 0dc2 fabd 7d09 2cbd
00000120: b2b0 583e f203 52be a25b 7d3c 3eb8 c7bd
00000130: dbb5 10bc ac38 08be 8c09 6fbd 4893 df3c
00000140: add8 39bc 6950 083e b679 c8bd 5a38 25be
00000150: f914 403c d61a b53e 13fb b73c c015 553e
00000160: 1fcf 45bd d8b0 863d 4151 3cbc 65d3 56bd
00000170: 4ad8 d4bd 596c 823d edc1 7e3e 7206 0a3e
00000180: 18b1 ca3d 1f90 3f3e b009 92be 3d18 833d
00000190: c1cc 0cbd 0179 99be 56fc 21be f532 6b3e
000001a0: cfc7 cebd 88ff 88bd 988a 1c3e 2f97 1bbe
000001b0: d9dd 143e 4cb2 5d3e e3a6 0abe 228a 3fbd
000001c0: 92bc 63bd 726a 2a3e 1930 e4bd f67d a83d
000001d0: b31f 61be 7604 4b3d e3b4 87bd 08ca 873d
000001e0: d033 35bb f0bc 123c efb4 a63c 0d7b e2bd
000001f0: cfe2 103c d471 9b3d a7d1 9c3e 96e2 9ebd
00000200: 0155 0bbe e177 0c3e 01fd e73d ede2 353e
00000210: 8614 743d 7b96 093a d268 c4be 524a d9bc
00000220: 1bf0 56bc ef09 7f3d 84b9 77bd 61ba 043f
00000230: 0b97 b83d f72b 05be 5fb2 cdbd 868c 673d
00000240: 1c55 033d 47d0 d73d de56 20bd 48cb 283b
00000250: 1355 a63d db35 a8bc 2e17 083e 55ea 2abe
00000260: 1178 183d e956 80bd 3e78 afbd 2f1b ed3d
00000270: 7dbf b1bd 9e17 ce3c 7c3e 16be 3933 46bb
00000280: 670b d63d fa80 a73d c019 a0bd 677f b0bd
00000290: c6fd 4b3e 69fb 39be f80a dd3c fc65 0dbe
000002a0: a657 1c3e 5471 79be 1f54 97bc 74d9 ac3c
000002b0: 20ea 2abe 506a 353e 8a77 2fbd 8653 353e
000002c0: e247 b23d ba3e 4e3d 85ac 23bb 0dd2 06be
000002d0: d2fb 5f3e c8c3 de3d f7d4 d6bd 54c2 8b3c
000002e0: e61b 7dbd 7139 90bd c3d1 d6bd 5511 a3bd
000002f0: eacc ec3b 5949 c33d c522 acbd c6d1 293e
00000300: 0607 c8bc c635 5fbd b10d 8abd 8634 043d
00000310: e809 ba37 abde 4f3d ec84 1abd e3a9 203c
00000320: 62b9 a83d 054a 573d 2d0c 86be 855b 163e
00000330: ac55 e0bd f5d7 8e3e 335b 03bd 5f58 b33e
00000340: ca62 e3bc c539 a9bc 052a 723d c26d 4b3e
00000350: d19b 0abe 7c46 533e ae17 70be 2238 383e
00000360: 3b0a 3b3e fe05 fdbc 3cae 933e 14e8 c23d
00000370: 089f ee3d 5338 b03d 8a94 f93d ff1c d2bd
00000380: 317c 27be a1bf 0e3e a582 cc3c cfa4 ef3d
00000390: 2736 ee3d 517f 0c3e 72d7 4fbe 54cd 5dbd
000003a0: e317 10be 533d 85bd 870c 62be deec 06bd
000003b0: 4f39 05be 280c cc3b 10ca 063e 9827 213e
000003c0: 36b7 05be c938 d13e 1d5b 9abe 264d c03d
000003d0: 5f5f 763c 9a29 163e 9ae6 03bd 98af 1abe
000003e0: 054f 5c3d 0e83 6a3e 94de 3dbe dc79 903e
000003f0: d471 9f3d 3864 be3d 4d26 e1bd e1bc 19be

net.0.bias f4 [60]
-0.0049868426 0.05525903 -0.11709895 -0.034065116 -0.020564696 -0.06694952 0.076599024 0.1406388
-0.13052571 0.1001442 0.1268376 0.02604528 -0.14237139 -0.19362654 0.016190102 0.12523355
0.13007206 -0.057804927 0.04002263 0.030401452 -0.091008216 -0.0073139435 0.06619624 0.13694662
-0.17167996 -0.13751122 0.03541459 -0.12970518 -0.057053898 0.10097001 0.16356544 0.07444385
-0.17680907 -0.070821516 0.13226683 -0.026573764 0.16092898 -0.15089361 -0.11019143 0.110717826
0.101273224 -0.05369226 -0.035486214 -0.02779991 0.08095928 -0.05683029 0.044248693 -0.07328195
-0.1730327 -0.0797419 0.030118145 0.114326045 0.029476753 0.09847162 0.15064035 0.09699662
-0.12233899 -0.14758496 0.0087056095 -0.0924659
00000000: ab68 a3bb 4b57 623d 93d1 efbd dd87 0bbd
00000010: 4b77 a8bc d41c 89bd f3df 9c3d 9e03 103e
00000020: 88a8 05be 6718 cd3d b7e1 013e e95c d53c
00000030: cec9 11be 0946 46be 1ba1 843c 393d 003e
00000040: 9c31 053e dcc4 6cbd c5ee 233d 770c f93c
00000050: 8462 babd cea9 efbb e591 873d bc3b 0c3e
00000060: dfcc 2fbe becf 0cbe e40e 113d 6fd1 04be
00000070: 59b1 69bd 5dc9 ce3d b37d 273e 0476 983d
00000080: 700d 35be df0a 91bd f570 073e 39b1 d9bc
00000090: 91ca 243e db83 1abe 0bac e1bd 07c0 e23d
000000a0: 5668 cf3d 6aec 5bbd fe59 11bd a3bc e3bc
000000b0: fbcd a53d e1c6 68bd 1e3e 353d d914 96bd
000000c0: 7c2f 31be b94f a3bd 54ba f63c c623 ea3d
000000d0: 3b79 f13c 7dab c93d 7741 1a3e 2aa6 c63d
000000e0: dd8c fabd 8320 17be f9a1 0e3c c35e bdbd

net.2.weight f4 [60, 60]
-0.04817164 -0.07926259 -0.074795775 3.457744e-05 0.019019127 -0.00717155 0.052657645 0.028353455
0.0029511007 -0.017335057 0.026331645 0.11270388 0.18881552 0.16842054 0.14322692 -0.11859246
0.26276082 -0.054221764 -0.22189347 -0.06646564 -0.05324819 -0.043140512 -0.008805352 -0.268548
0.18907331 -0.08280654 -0.044013232 -0.09826376 -0.14391416 0.11689 0.03783555 0.03537343
0.047044158 -0.06979223 0.06251536 -0.11964225 0.082402706 -0.13547167 0.09416643 0.008679989
-0.027268758 -0.059114557 -0.048483264 0.25250313 -0.11601934 0.027837474 0.17473555 0.10292072
0.11747916 -0.17274892 -0.072836146 -0.21938218 -0.04500526 0.04605137 -0.012663011 -0.16672558
-0.10156451 0.021446066 0.20168787 0.063484594 0.018052835 -0.19499668 0.021925937 0.09924844
-0.10436266 -0.14469068 0.02275923 0.019355634 0.058999132 0.27360106 0.036068883 0.11903627
-0.03288562 0.07278536 -0.23367184 -0.021960307 -0.014991658 -0.07703256 -0.0074796067 0.019908795
0.14462021 0.10934513 0.0036413094 0.014574113 0.111283 0.10391846 0.076910794 -0.177538
-0.121942155 -0.06380631 0.105758205 -0.1014417 0.2897181 -0.010536503 -0.054778967 0.084407754
0.0818952 0.46001107 0.04055415 -0.071638964 -0.03201336 0.011964666 0.072087124 -0.16296527
0.030341318 0.039336476 -0.17885332 0.027431728 0.17688502 -0.09896286 0.20023419 0.075274974
0.06951066 0.20044184 0.10442414 -0.088352636 -0.19867867 -0.045311563 0.03982758 -0.09568452
-0.044571575 0.028679328 -0.06456398 0.059384532 0.06554135 -0.19345778 -0.13288891 0.18147162
0.20758034 0.08217438 -0.15137751 0.34138423 0.12080141 0.16284652 0.06897786 0.14648485
-0.24375094 -0.101049915 -0.16518785 -0.063321896 0.0973379 0.069227435 -0.040883556 -0.05987894
0.20206818 -0.017587736 -0.24207886 -0.009376246 0.068957746 0.093226925 -0.1182854 0.07791081
-0.16625026 -0.020933019 -0.0097779585 -0.18323301 -0.105732545 0.07369418 -0.02463853 -0.12714368
-0.04607548 -0.041509036 -0.08901051 0.23267362 0.11382438 -0.052153125 -0.03019266 -0.25067073
0.13549142 0.011088544 -0.13864125 0.07443082 0.23705608 0.067738846 -0.009035763 -0.19770904
0.093063556 0.032161426 0.20166226 -0.03552574 0.11936255 0.1953594 0.26596266 -0.09844548
-0.17560793 0.16254696 0.07497027 0.20945714 -0.1318589 0.034795314 0.15222079 0.049388118
0.04740756 -0.017438944 -0.05637311 0.021874087 0.17575856 0.21825641 -0.29034612 -0.10390676
0.034683216 -0.07480376 0.03104162 0.070253216 -0.21343602 -0.10573766 -0.03947009 -0.023106258
-0.04481824 0.20069918 0.011857424 -0.006338775 0.11336931 -0.18985903 -0.10571159 -0.08745821
0.23133366 -0.121313915 -0.07887509 -0.10308472 -0.20504487 -0.11357456 0.071461 -0.11238983
-0.17116933 -0.023069404 0.029039754 -0.21683073 -0.34578016 0.21744122 -0.07855956 -0.0128196785
0.03752717 0.19077449 0.12609439 0.040812954 -0.07225323 -0.23813866 0.15409622 -0.14468771
-0.010693879 -0.08439163 -0.06896117 0.07037293 0.045785956 -0.0692575 -0.0033960233 -0.18539366
0.05430316 0.040611625 0.33432227 -0.1031328 -0.08851494 0.17038247 -0.020754293 -0.15229586
00000000: a04f 45bd 6d54 a2bd 872e 99bd 3e07 1138
00000010: 00ce 9b3c 52ff eabb 8baf 573d 8145 e83c
00000020: 4167 413b 4002 8ebc 76b5 d73c 4bd1 e63d
00000030: db58 413e 6f76 2c3e 14aa 123e 9be0 f2bd
00000040: 9688 863e a417 5ebd 0b38 63be 231f 88bd
00000050: c61a 5abd 1bb4 30bd 5344 10bc 207f 89be
00000060: 6f9c 413e 7a96 a9bd 3847 34bd 833e c9bd
00000070: 3c5e 13be 0664 ef3d 73f9 1a3d bbe3 103d
00000080: 60b1 403d 3bef 8ebd 0e08 803d ff06 f5bd
00000090: c0c2 a83d 16b9 0abe 54da c03d 8336 0e3c
000000a0: bb62 dfbc 1b22 72bd 6396 46bd 1748 813e
000000b0: 8c9b edbd 6a0b e43c e0ed 323e 19c8 d23d
000000c0: ea98 f03d 18e5 30be 1e2b 95bd b9a5 60be
000000d0: 6f57 38bd 5da0 3c3d 8578 4fbc 1cba 2abe
000000e0: 0e01 d0bd a9af af3c 4487 4e3e 3604 823d
000000f0: 8ae3 933c 36ad 47be 069e b33c c442 cb3d
00000100: 17bc d5bd cb29 14be 9171 ba3c b58f 9e3c
00000110: 13a9 713d 7015 8c3e f7bc 133d 4ac9 f33d
00000120: 12b3 06bd 7e10 953d ac47 6fbe 1ae6 b3bc
00000130: 929f 75bc 3fc3 9dbd 7d17 f5bb c517 a33c
00000140: 5217 143e 57f0 df3d 09a3 6e3b 43c8 6e3c
00000150: 57e8 e33d 34d3 d43d 6883 9d3d 85cc 35be
00000160: cfbc f9bd e2ac 82bd c297 d83d aac0 cfbd
00000170: ee55 943e 4ca1 2cbc e95f 60bd f9dd ac3d
00000180: acb8 a73d 9286 eb3e 1c1c 263d 73b7 92bd
00000190: 7120 03bd 7207 443c 6aa2 933d 5ee0 26be
000001a0: 5b8e f83c 491f 213d 5325 37be 81b8 e03c
000001b0: 5921 353e 0aad cabd 310a 4d3e c429 9a3d
000001c0: 9b5b 8e3d a040 4d3e 53dc d53d 3af2 b4bd
000001d0: 6c72 4bbe 9e98 39bd 3f22 233d 3ff6 c3bd
000001e0: af90 36bd e9f0 ea3c 1f3a 84bd 323d 733d
000001f0: 8b3a 863d cc19 46be 0814 08be b2d3 393e
00000200: f18f 543e 0b4b a83d b502 1bbe eac9 ae3e
00000210: bb66 f73d 3dc1 263e 4444 8d3d 2000 163e
00000220: d999 79be 42f3 cebd 0127 29be e9ae 81bd
00000230: 1859 c73d 1dc7 8d3d 8475 27bd 9f43 75bd
00000240: f6ea 4e3e 2814 90bc 85e3 77be d39e 19bc
00000250: b839 8d3d c2ed be3d 9e3f f2bd b48f 9f3d
00000260: 823d 2abe b97b abbc bb33 20bc 6fa1 3bbe
00000270: 4e8a d8bd f9ec 963d bed6 c9bc f431 02be
00000280: a4b9 3cbd 6105 2abd 244b b6bd fe41 6e3e
00000290: c21c e93d 849e 55bd 9956 f7bc ea57 80be
000002a0: 43be 0a3e b9ac 353c f9f7 0dbe 306f 983d
000002b0: d4be 723e aaba 8a3d bd0a 14bc 3d74 4abe
000002c0: 1b98 be3d b3bb 033d 8d80 4e3e 7083 11bd
000002d0: 5a74 f43d 4b0c 483e 422c 883e c99d c9bd
000002e0: 91d2 33be b672 263e 038a 993d ef7b 563e
000002f0: 0506 07be 8885 0e3d c4df 1b3e 324b 4a3d
00000300: 6e2e 423d 1edc 8ebc 7de7 66bd 4931 b33c
00000310: 0dfa 333e 9c7e 5f3e 3fa8 94be 11cd d4bd
00000320: fd0f 0e3d b732 99bd ff4a fe3c ebe0 8f3d
00000330: f98e 5abe fc8c d8bd 64ab 21bd 5649 bdbc
00000340: 5593 37bd 1684 4d3e a445 423c 80b5 cfbb
00000350: 2b2e e83d 686a 42be 517f d8bd 4a1d b3bd
00000360: bbe2 6c3e 6e73 f8bd 4389 a1bd 151e d3bd
00000370: 48f7 51be c799 e8bd 255a 923d a42c e6bd
00000380: 0347 2fbe 0cfc bcbc c7e4 ed3c e008 5ebe
00000390: 190a b1be e9a8 5e3e d6e3 a0bd a109 52bc
000003a0: 17b6 193d 635a 433e e31e 013e 7c2b 273d
000003b0: 80f9 93bd 9fda 73be 66cb 1d3e 0429 14be
000003c0: 6135 2fbc 85d5 acbd 843b 8dbd af1f 903d
000003d0: 0e8a 3b3d e0d6 8dbd d18f 5ebb d6d7 3dbe
000003e0: fe6c 5e3d 6058 263d 4a2c ab3e 4a37 d3bd
000003f0: 5247 b5bd be78 2e3e e804 aabc 72f3 1bbe

net.2.bias f4 [60]
0.04222384 -0.037243616 -0.06739218 0.0037366196 0.107483864 0.030809117 0.0039345515 0.020117741
-0.03974095 0.09920787 0.028503275 -0.07792902 0.00044352218 0.069732435 -0.09810955 -0.061331224
-0.0007973669 0.092326745 0.102268174 0.11508791 0.05878682 -0.07859877 -0.09668899 0.055414103
-0.012000903 0.06602642 -0.09684126 -0.016557923 -0.05850537 -0.010328515 0.075680576 0.041110575
-0.06701999 0.03570612 0.047576893 -0.02861094 0.0071219867 -0.056179207 -0.1134838 0.08850041
-0.08406885 -0.006958714 -0.020220876 0.012560502 0.098189354 -0.057191554 0.010128972 -0.038758352
0.07872277 -0.137727 -0.081501245 0.069078706 -0.070669346 0.071738325 0.12852614 -0.11815511
0.0776199 -0.06744098 0.021824861 -0.050218366
00000000: e8f2 2c3d c38c 18bd e904 8abd 13e2 743b
00000010: 8020 dc3d 6763 fc3c 69ed 803b f6cd a43c
00000020: 68c7 22bd 7f2d cb3d b37f e93c 4099 9fbd
00000030: 8a88 e839 e1cf 8e3d a9ed c8bd 7336 7bbd
00000040: 6306 51ba ce15 bd3d fa71 d13d 36b3 eb3d
00000050: 73ca 703d 64f8 a0bd e104 c6bd e6f9 623d
00000060: 6f9f 44bc dc38 873d b654 c6bd 7ba4 87bc
00000070: 54a3 6fbd ef38 29bc 6bfe 9a3d 9063 283d
00000080: c741 89bd 9540 123d fddf 423d 7d61 eabc
00000090: 8e5f e93b 2b1c 66bd 326a e8bd b43f b53d
000000a0: 4a2c acbd ed05 e4bb 40a6 a5bc 90ca 4d3c
000000b0: 8017 c93d b141 6abd fdf3 253c 14c1 1ebd
000000c0: 6739 a13d 4f08 0dbe 20ea a6bd 2379 8d3d
000000d0: 17bb 90bd 8beb 923d 5b9c 033e 4efb f1bd
000000e0: 2ff7 9e3d 7f1e 8abd 0dca b23c c6b1 4dbd

net.5.weight f4 [1, 60]
-0.1551892 0.0060880715 0.09814964 -0.0014564175 0.2765559 0.044766407 0.042838667 0.07857192
0.0008786774 0.13644022 0.23223953 -0.011285744 0.005352684 0.036272388 0.012360712 0.11341483
0.17335129 0.032727182 -0.19613528 0.0018739166 -0.100773856 0.23926608 -0.10874043 -0.0024012723
-0.11355122 0.045610517 0.009288742 0.05712587 -0.09086905 0.084804535 0.12247699 0.022934012
-0.16205904 0.1293829 0.15087968 -0.102291904 -0.12823021 0.010230961 -0.13961715 -0.1676839
0.071335904 -0.051489946 -0.06796202 -0.1267341 0.0005037641 0.21297802 0.01112501 -0.2191875
0.009005087 0.0029422962 0.05726359 0.17809328 0.048260387 -0.10868492 0.16145886 0.18606804
0.12398104 -0.005908287 -0.10271976 -0.001181933
00000000: ebe9 1ebe 727e c73b ae02 c93d 43e5 beba
00000010: bc98 8d3e fb5c 373d 9977 2f3d 51ea a03d
00000020: 0b57 663a fcb6 0b3e 33d0 6d3e d7e7 38bc
00000030: 9165 af3b 5b92 143d 9584 4a3c 0946 e83d
00000040: 0083 313e f00c 063d b0d7 48be 359e f53a
00000050: 8662 cebd 2b02 753e 4db3 debd aa5e 1dbb
00000060: 8b8d e8bd 18d2 3a3d cf2f 183c d1fc 693d
00000070: 8d19 babd 00ae ad3d 37d5 fa3d 1ce0 bb3c
00000080: cef2 25be f37c 043e 3480 1a3e 6b7e d1bd
00000090: c84e 03be c39f 273c ccf7 0ebe 54b5 2bbe
000000a0: 8f18 923d 1fe7 52bd ac2f 8bbd 95c6 01be
000000b0: 090f 043a e916 5a3e ad45 363c b072 60be
000000c0: 138a 133c 8ad3 403b 3a8d 6a3d 165e 363e
000000d0: afac 453d 3396 debd 7955 253e 9f88 3e3e
000000e0: c6e9 fd3d 4e9a c1bb bd5e d2bd 17eb 9aba
