results of reviewer/XJTU results/0-0/Experiment7/model.pth (torch, 59838 bytes, 14 tensors)

encoder.net.0.weight f4 [60, 17]
0	0x3d3f669f	0.046728726
1	0xbadce0b2	-0.0016851632
2	0x3e048fa2	0.12945417
3	0xbe793885	-0.24337967
4	0x3b6a00e0	0.0035706088
5	0xbdddadeb	-0.10824188
6	0x3d646f2d	0.055770088
7	0xbdc555d8	-0.09635514
8	0xbdc74b62	-0.09731175
9	0xbe271a56	-0.1631864
10	0x3dd93e07	0.10607534
11	0xbcd181cc	-0.025574587
12	0x3e839575	0.25699964
13	0xb9365292	-0.00017387632
14	0xbdb9d6c1	-0.09074164
15	0xbd9bd366	-0.076086804
16	0xbcdbf5db	-0.026850631
17	0x3e60fe58	0.21972024
18	0x3d29d1e9	0.04145995
19	0xbdcbf855	-0.09959475
20	0x3dcda290	0.10040772
21	0xbd628ece	-0.05531197
22	0xbe3fc5d4	-0.18727809
23	0x3e0179e7	0.12644158
24	0xbde97563	-0.11399343
25	0x3d85548c	0.06510267
26	0x3e2f7211	0.17133357
27	0xbea01de2	-0.312728
28	0x3e88cfa4	0.26720917
29	0x3c7252ca	0.014790246
30	0x3da3bc66	0.079949185
31	0xbd32a81b	-0.04361735
32	0xbd41ed60	-0.04734552
33	0xbde9de50	-0.11419356
34	0xbe0d540d	-0.13801594
35	0xbda2488e	-0.07923995
36	0x3b5eef9e	0.0034017335
37	0x3b22a1d1	0.0024815688
38	0x3bfe1c1f	0.007754817
39	0xbba7a524	-0.005116122
40	0xbde7b426	-0.113136575
41	0xbd26ef96	-0.04075583
42	0x3bd50c2d	0.0065016956
43	0xbe41a091	-0.18908907
44	0x3e04c023	0.1296392
45	0x3e2dbf0e	0.16967413
46	0xbe1d3503	-0.15352254
47	0x3d90dd62	0.070734754
48	0xbdd9b9ef	-0.10631167
49	0xbddf57c5	-0.109054126
50	0xbe731d74	-0.23741704
51	0x3db9ef84	0.09078887
52	0x3d199591	0.037496153
53	0xbc909a3d	-0.017651672
54	0xbe5252fe	-0.20539472
55	0x3e0f7ce6	0.14012489
56	0xbf01ecce	-0.5075196
57	0xbe6f98f3	-0.23398189
58	0x3e609c14	0.21934539
59	0xbc1352d5	-0.008991917
60	0x3dda6ed3	0.10665669
61	0xbe143dbc	-0.14476675
62	0xbdf8ee82	-0.12154867
63	0xb963d25b	-0.0002172677
64	0xbde73305	-0.11289028
65	0x3d16eb34	0.0368454
66	0x3d0a94d8	0.033833355
67	0xbdfc63ae	-0.123237
68	0x3e0cc47e	0.13746831
69	0xbda58898	-0.08082694
70	0x3c02e923	0.007990154
71	0xbcc8e4a6	-0.02452309
72	0x3d2a521e	0.04158222
73	0xbd94089c	-0.072282046
74	0x3cec0630	0.028811544
75	0xbd00a64e	-0.0314086
76	0x3c8a2eeb	0.016868075
77	0xbe98cc62	-0.29843432
78	0xbd9a525c	-0.0753524
79	0xbd193efe	-0.03741359
80	0xbe248fb2	-0.1607044
81	0xbe5286ef	-0.20559286
82	0x3e5c0c82	0.21489146
83	0xbd547023	-0.051864754
84	0xbd7f72df	-0.06236541
85	0xbe0a4c6e	-0.13505718
86	0xbe8ad5cd	-0.27116242
87	0xbd6f6d04	-0.058453575
88	0xbd53da43	-0.051721822
89	0xbd4eae19	-0.050459
90	0x3e6c276c	0.23061913
91	0x3e476e25	0.1947561
92	0xbb1a40dc	-0.0023537194
93	0xbe229add	-0.15879388
94	0xbc8f7135	-0.017510036
95	0x3d253cc9	0.040341172
96	0x3d66a87c	0.056313023
97	0xbc39980a	-0.011327753
98	0xbdf3277c	-0.118727654
99	0xbe16c95e	-0.14725253
100	0x3d2179c4	0.039422765
101	0x3de27303	0.11057093
102	0xbcc88018	-0.024475142
103	0xbc83311a	-0.016014624
104	0xbe47d277	-0.1951388
105	0x3e7fa832	0.24966505
106	0x3e3cfd5e	0.18456027
107	0x3d89274e	0.0669695
108	0x3cffd29f	0.031228362
109	0xbe4e31f4	-0.20136243
110	0x3ea89273	0.32924232
111	0x3e2fce63	0.17168574
112	0x3d1851d2	0.037187405
113	0xbee9e0aa	-0.45679218
114	0x3dd870c6	0.10568385
115	0x3c479285	0.012180929
116	0xbb9ec598	-0.0048453324
117	0x3ded0962	0.11574055
118	0xbe803de8	-0.2504723
119	0xbda5de3a	-0.08099027
120	0xbd56c845	-0.052437086
121	0xbea7b21f	-0.32753083
122	0x3dd2d841	0.102951534
123	0xbe1fa23f	-0.15589236
124	0xbddcc098	-0.10778922
125	0xbd1bd369	-0.038043413
126	0x3d49f332	0.049304195
127	0x3b3a52c8	0.002843069
128	0xbce8afff	-0.028404234
129	0xbe828f58	-0.25499988
130	0xbc17646a	-0.009240249
131	0x3ecdfe49	0.40233067
132	0xbd3136d9	-0.043265197
133	0xbdb76898	-0.089554965
134	0xbdf37de4	-0.11889246
135	0x3e2c17ae	0.16805908
136	0xbd206c78	-0.039165944
137	0xbe085758	-0.13314569
138	0xbd958204	-0.07300189
139	0x3e4520e4	0.19250828
140	0xbd36d59c	-0.044637308
141	0xbe1febeb	-0.1561734
142	0xbda9b2e2	-0.08286072
143	0xbdaa9590	-0.08329308
144	0xbe620509	-0.22072233
145	0x3e2f7905	0.17136009
146	0x3d4eb2ef	0.050463613
147	0xbe11dc67	-0.14244233
148	0xbe0ec989	-0.13944067
149	0x3e5c685c	0.21524185
150	0xbe132081	-0.14367868
151	0xbcb53a11	-0.022122415
152	0x3d44d881	0.048058037
153	0x3e309f96	0.17248377
154	0xbe4621e1	-0.19348861
155	0x3d88f296	0.066868946
156	0xbdfb8dfc	-0.12282941
157	0xbda0ff3e	-0.078611836
158	0xbe9c87cc	-0.30572355
159	0x3d2312d0	0.039812863
160	0x3d892a74	0.066975504
161	0xbda47dbc	-0.080317944
162	0x3d912e16	0.07088868
163	0x3e6da663	0.23208003
164	0xbdeba50d	-0.1150609
165	0xbe04a605	-0.12953956
166	0x3e0ed5bd	0.13948722
167	0xbe1907e3	-0.14944415
168	0x3e186e21	0.14885761
169	0x3e735948	0.23764527
170	0x3d4e8cf5	0.050427396
171	0x3dce7099	0.1008007
172	0xbd74ca7d	-0.05976342
173	0x3c3e0309	0.011597403
174	0x3e193ec2	0.14965346
175	0xbe232d79	-0.15935315
176	0xbdf51ae6	-0.11968021
177	0xbe87070a	-0.26372558
178	0x3e38e8b2	0.18057516
179	0xbca26842	-0.019825105
180	0x3cdb9c40	0.026807904
181	0xbdb44b93	-0.08803477
182	0x3e15724b	0.1459438
183	0xbd84e506	-0.06488995
184	0x3dfccd90	0.123438954
185	0x3ed8188f	0.42206237
186	0x3df187f1	0.11793507
187	0x3e4c166e	0.19930431
188	0xbe0ee185	-0.13953216
189	0xbdca7c73	-0.09887018
190	0x3e4f1697	0.20223461
191	0x3e17f0e6	0.14837989
192	0xbe12839d	-0.14308019
193	0xbe0da0a8	-0.13830817
194	0xbbe163f6	-0.0068783714
195	0xbec554ec	-0.38541353
196	0x3e3da9a6	0.18521747
197	0xba80fd7e	-0.0009841172
198	0xbe4a9858	-0.19784677
199	0xbeca37e3	-0.39495763
200	0x3e905055	0.28186288
201	0x3c3d97ef	0.011571868
202	0xbcfe673e	-0.03105509
203	0x3e13514a	0.14386478
204	0x3bdf016d	0.00680559
205	0x3d940f8b	0.07229527
206	0xbe64aa42	-0.22330573
207	0x3b415e4e	0.0029505673
208	0xbcbf6500	-0.02336359
209	0x3e798b0f	0.24369453
210	0xbce393de	-0.02778047
211	0xbd988f79	-0.0744924
212	0xbda3d4d0	-0.07999575
213	0xbd0954f4	-0.033528283
214	0xbdf725da	-0.120677665
215	0xbda44d6a	-0.08022578
216	0x3daef5e3	0.08542993
217	0xbd011689	-0.03151563
218	0xbd8c0414	-0.06836715
219	0xbd88fbd6	-0.06688659
220	0x3cead379	0.028665291
221	0x3d1efcf6	0.03881546
222	0x3de76a47	0.11299568
223	0xbce0253a	-0.027361501
224	0xbcfcd414	-0.030862845
225	0x3d0469d9	0.032327507
226	0x3d120e6c	0.035658285
227	0x3dff5752	0.12467827
228	0x3d9da892	0.07698168
229	0xbdcb4dfc	-0.09926984
230	0x3deaa9e4	0.11458185
231	0x3dfffe5a	0.124996856
232	0xbe32ca7e	-0.17460057
233	0x3de94ba7	0.11391383
234	0xbe876251	-0.26442197
235	0x3ddcbf39	0.1077866
236	0x3e1a4479	0.15065183
237	0x3e19611b	0.14978449
238	0x3dfc1b63	0.12309911
239	0xbe3d3664	-0.1847778
240	0xbd1f94a9	-0.038960133
241	0x3ed2a626	0.41142386
242	0xbe409228	-0.18805754
243	0xbd1572ea	-0.036486544
244	0x3e8af919	0.2714317
245	0x3d5ac2bf	0.05340838
246	0x3d08d00e	0.03340154
247	0xbe1310e7	-0.14361916
248	0xbe5c4cb6	-0.21513638
249	0xbe13caac	-0.14432782
250	0x3e5fac12	0.21842983
251	0x3bce863e	0.006302624
252	0xbe19cd9d	-0.15019841
253	0xbd2fbdbb	-0.04290555
254	0xbe6e0814	-0.23245269
255	0xbdb853e9	-0.090003796

encoder.net.0.bias f4 [60]
0	0xbcc676e6	-0.024226617
1	0x3ccbce64	0.024878688
2	0x3d183cfd	0.037167538
3	0x3d14dea5	0.036345143
4	0x3b399198	0.002831554
5	0xbd9ddd19	-0.07708187
6	0xbd2e0474	-0.042484716
7	0xbd9b9241	-0.07596255
8	0xbd6a79eb	-0.057245176
9	0x3cce7f6c	0.025207244
10	0xbd3c9a8d	-0.04604583
11	0x3d243555	0.040089924
12	0x3d204d99	0.039136503
13	0xbcfda85f	-0.030964075
14	0x3d6de9a1	0.058084134
15	0x3d25dbed	0.04049294
16	0x3d1493e3	0.03627385
17	0xbd48f506	-0.049061798
18	0xbd13c6da	-0.03607831
19	0x3d136b25	0.035990853
20	0xbce734e0	-0.028223455
21	0x3d7cc77e	0.061713688
22	0x3d4224ea	0.047398485
23	0x3da4a627	0.080395035
24	0x3d104b47	0.03522804
25	0xbd370001	-0.044677738
26	0xbd43e89c	-0.047829255
27	0x3d3f8a43	0.046762716
28	0xbd8a4fd2	-0.06753506
29	0x3d546901	0.051857952
30	0x3d1c3502	0.03813649
31	0x3d158d8f	0.036511954
32	0x3c939fde	0.018020567
33	0xbd09ff89	-0.033690963
34	0x3d924924	0.07142857
35	0xbd42b652	-0.047537155
36	0xbd196b21	-0.03745568
37	0xbcff5555	-0.03116862
38	0xbc4a49a5	-0.01234666
39	0xbd2199ab	-0.03945319
40	0xbd006075	-0.03134199
41	0xbc851b23	-0.016248291
42	0x3d1da2d3	0.03848536
43	0x3d0985a1	0.033574704
44	0xbd57d9eb	-0.052698057
45	0x3cfe6715	0.031055013
46	0x3d577449	0.052601133
47	0xbd0fc144	-0.03509642
48	0xbd045baf	-0.032314
49	0xbd0e2f23	-0.03471292
50	0xbd2027b9	-0.039100382
51	0x3d10d33c	0.0353577
52	0x3d40c463	0.04706229
53	0xbd99e1e0	-0.07513785
54	0x3d1106d1	0.03540689
55	0xbca22823	-0.01979453
56	0xbc88e3a7	-0.016710116
57	0xbd1f4573	-0.03888459
58	0x3bfcd23a	0.0077154906
59	0x3d0b8ea4	0.03407158

encoder.net.2.weight f4 [60, 60]
0	0x3ea19c9b	0.31564793
1	0x3d92e6e2	0.07172944
2	0xbd15baf2	-0.036555238
3	0xbe42f5d9	-0.19039096
4	0xbda2ba9f	-0.079457514
5	0x3c8d9d68	0.017286971
6	0x3cbbde65	0.022933194
7	0xbc322b01	-0.010874511
8	0xbcce8813	-0.02521137
9	0xbce569f1	-0.028004618
10	0xbe3ca0ab	-0.18420665
11	0xbe83ed0f	-0.257668
12	0xbe39ebbf	-0.18156336
13	0xbccb58c8	-0.024822608
14	0xbe08ce52	-0.13359955
15	0x3cd77fca	0.026306052
16	0xbb7cb77b	-0.0038561511
17	0x3d9cd600	0.07658005
18	0x3cb289db	0.02179425
19	0x3d4c82ab	0.049929302
20	0xbdff2500	-0.12458229
21	0xbd511c01	-0.051052097
22	0xbd75ef79	-0.060042832
23	0x3c69d66a	0.014272312
24	0x3e5915e1	0.21199752
25	0xbd69a69f	-0.057043668
26	0xbdcaa7a8	-0.09895259
27	0xbdc0477d	-0.09388635
28	0xbd1ba3cc	-0.037998006
29	0xbd01c0a1	-0.031677846
30	0xbe017f6f	-0.12646268
31	0xbd3dd809	-0.046348605
32	0xbd682d50	-0.05668384
33	0xbdc4e52d	-0.09614024
34	0xbcb88560	-0.022524536
35	0x3d6afe71	0.05737156
36	0x3d60dce9	0.054898176
37	0xbcb22f76	-0.021751147
38	0xbe75b29f	-0.2399392
39	0x3ddb76fe	0.10716055
40	0x3d2d9269	0.042375956
41	0xbd32a769	-0.043616686
42	0xbd1ea388	-0.038730174
43	0xbcbf0411	-0.023317369
44	0x3d91de45	0.07122473
45	0x3ddb64b5	0.10712568
46	0x3cf5610f	0.029953508
47	0xbe294ebd	-0.16533943
48	0x3cb2b188	0.02181317
49	0x3d10bf40	0.03533864
50	0xbce91ffd	-0.028457636
51	0xbea2398d	-0.31684533
52	0x3d324756	0.043525063
53	0xbd0e44a0	-0.034733415
54	0xbd860a0b	-0.06544884
55	0xbd82a973	-0.06379976
56	0xbde085ec	-0.109630436
57	0x3d11cfb0	0.035598457
58	0xbe98ada5	-0.2981998
59	0xbc473784	-0.012159232
60	0x3dbd5b40	0.0924592
61	0xbe0ff9d9	-0.14060153
62	0xbd1b984d	-0.037987042
63	0x3db5b797	0.088729076
64	0xbdfec927	-0.124407105
65	0x39d377a8	0.00040334207
66	0xbd7a8019	-0.06115732
67	0x3bfe6571	0.0077635576
68	0xbe18a8e9	-0.14908184
69	0x3dd5592a	0.10417397
70	0xbc6fd499	-0.01463809
71	0xbe6385b4	-0.22218972
72	0xbe13683c	-0.14395231
73	0xbdbfeaa7	-0.09370928
74	0xbd9f1e91	-0.07769502
75	0xbb2160fc	-0.0024624458
76	0x3da46d00	0.080286026
77	0x3d292f40	0.041304827
78	0xbcb45b1b	-0.022016099
79	0x3e713ebf	0.23559092
80	0xbcd84688	-0.02640082
81	0xbd08687a	-0.03330276
82	0xbd19e9fc	-0.03757666
83	0xbd8fbcff	-0.0701847
84	0x3ded00d1	0.11572421
85	0xbd8797df	-0.06620764
86	0x3d1d2ee0	0.03837478
87	0x3de028b0	0.109452605
88	0x3e73a24b	0.23792379
89	0xbe504879	-0.20340146
90	0x3e465614	0.19368774
91	0x3d9db4f4	0.0770053
92	0xbdeb2203	-0.114810966
93	0xbdc3a730	-0.09553373
94	0x3dfba339	0.122869916
95	0x3d013aa5	0.03155007
96	0xbd22e667	-0.03977051
97	0xbcf6b95d	-0.030117685
98	0x3e5ecc62	0.21757653
99	0x3dcc618f	0.09979545
100	0xbd838846	-0.064224765
101	0x3e18497a	0.14871779
102	0xbd7683f2	-0.060184427
103	0xbdbea248	-0.093082964
104	0x3d565c78	0.05233428
105	0x3cbb321e	0.022851046
106	0xbe7fe2c2	-0.24988845
107	0x3cdec7ee	0.027194943
108	0x3e8f106e	0.27942222
109	0x3d9ff892	0.07811083
110	0x3d8614b0	0.065469146
111	0xbcd8dc38	-0.026472196
112	0xbe67f7fb	-0.22653191
113	0xbe4c723e	-0.19965455
114	0xbe85cb1e	-0.2613153
115	0x3e46f4cd	0.19429322
116	0x3d139a71	0.03603596
117	0xbe1837de	-0.14865062
118	0x3de4c053	0.111694954
119	0x3a010fb5	0.00049233
120	0x3dd53f07	0.10412412
121	0x3e5d43f2	0.2160795
122	0xbe03d083	-0.1287251
123	0xbd84c125	-0.06482152
124	0xbe07fa53	-0.13279085
125	0x3de4e6a7	0.11176806
126	0x3e57e401	0.2108307
127	0x3c934712	0.017978225
128	0xbd06fd72	-0.032956548
129	0xbe2402c9	-0.16016687
130	0x3e4f70d4	0.20257884
131	0x3e72668d	0.23671933
132	0x3d024a22	0.03180898
133	0x3e2fc6bc	0.17165655
134	0x3ba0137c	0.004885135
135	0xbe479dab	-0.1949374
136	0x3d994566	0.0748394
137	0x3d017359	0.031604145
138	0x3e3f9f14	0.18713027
139	0x3e5407d9	0.20706119
140	0xbc4cc426	-0.012497937
141	0x3c8d7f77	0.017272694
142	0x3dae936d	0.08524213
143	0x3d4c8a8e	0.049936824
144	0x3e50e223	0.20398764
145	0xbe29a09a	-0.16565171
146	0xbe5731ef	-0.21015142
147	0xbe403bce	-0.18772814
148	0xbdcc7026	-0.09982328
149	0x3dbfb646	0.09360938
150	0x3d56d1ba	0.052446105
151	0xbdb38d9b	-0.087672435
152	0x3bfab95d	0.0076514916
153	0x3d9d6cd3	0.07686772
154	0xbe0fb7c1	-0.1403494
155	0xbe3ae9e6	-0.18253288
156	0xbd5cee3a	-0.053938128
157	0x3e3440ba	0.17602816
158	0x3d1f3783	0.0388713
159	0xbe18bf92	-0.14916828
160	0x3d9ab7a2	0.075545564
161	0x3c2776ba	0.010221178
162	0xbd19d86b	-0.037559908
163	0xbd90203b	-0.070373975
164	0xbd4b8689	-0.04968885
165	0xbd680f97	-0.056655493
166	0xbe213813	-0.15744047
167	0xbda99662	-0.08280636
168	0xbd2cfc07	-0.04223254
169	0xbdd46aeb	-0.103719555
170	0x3c9917d3	0.018688118
171	0xbce4a398	-0.027910039
172	0x3d668d24	0.056286946
173	0xbc681449	-0.014164993
174	0xbe0c00ef	-0.13672231
175	0xbe58e3f9	-0.21180715
176	0x3cbf06d1	0.02331868
177	0xbd3bff8b	-0.045898
178	0x3d88255c	0.06647751
179	0xbe628da7	-0.22124349
180	0xbdba6e1b	-0.09103032
181	0xbd372797	-0.04471549
182	0x3ea8b639	0.32951525
183	0x3e2971fa	0.16547385
184	0xbe5e2486	-0.2169362
185	0x3e3caf94	0.18426353
186	0x3e8708d5	0.26373926
187	0xbe5453a2	-0.20735028
188	0x3e724ed7	0.23662888
189	0xbd63ac6a	-0.05558435
190	0xbccfbd1b	-0.025358727
191	0xbd13cff7	-0.036087003
192	0x3e18dbc5	0.14927585
193	0xbd35fc79	-0.04443023
194	0x3ce553f2	0.02799413
195	0x3e515c65	0.20445402
196	0x3dd77a8d	0.105214216
197	0x3e8449a4	0.25837433
198	0x3e13b9d9	0.14426364
199	0xbde36bcb	-0.11104544
200	0x3e354c31	0.17704846
201	0xbdf79c46	-0.12090354
202	0x3d911ed5	0.07085959
203	0x3dc49d24	0.09600285
204	0x3dd266ef	0.10273539
205	0xbdc069cc	-0.09395179
206	0x3e9cdcb7	0.30637142
207	0xbc4a3cb9	-0.012343579
208	0x3d99d56f	0.07511412
209	0xbe0a5112	-0.13507488
210	0x3d889a5a	0.06670065
211	0x3e0390ce	0.12848207
212	0x3c117a6e	0.008879287
213	0xbe0f1379	-0.13972272
214	0x3ae4cf2d	0.0017456763
215	0xbe0fa131	-0.14026333
216	0x3e34709e	0.17621085
217	0x3dbe0948	0.09279114
218	0x3ce87330	0.028375238
219	0xbddeb1ce	-0.10873757
220	0x3d95cc02	0.07314302
221	0xbdea1615	-0.11429993
222	0xbd194abe	-0.037424795
223	0xbd917f20	-0.07104325
224	0x3deebd71	0.11657227
225	0x3e43631e	0.19080779
226	0x3d925bc9	0.07146413
227	0x3c36d082	0.011158111
228	0x3d9b14b0	0.07572305
229	0x3dc161d6	0.09442489
230	0x3e199f10	0.15002084
231	0xbea13d24	-0.3149196
232	0x3e58b8e7	0.21164285
233	0xbde6ba81	-0.112660415
234	0xbe7206b5	-0.23635371
235	0xbe1f2b73	-0.15543918
236	0x3e9ddcd3	0.30832538
237	0xbe22c1f7	-0.15894304
238	0xbdca93f3	-0.098915
239	0x3e46cc83	0.19413953
240	0xbd2b24de	-0.041783206
241	0x3d3ffd29	0.04687229
242	0xbdfb691c	-0.122759074
243	0xbe5fea58	-0.21866739
244	0xbe01691d	-0.12637754
245	0xbd2430fa	-0.04008577
246	0x3d810a26	0.06300764
247	0xbe4ebc1c	-0.20188946
248	0xbdc486d2	-0.095960274
249	0x3e7166da	0.23574391
250	0x3cdcb2a1	0.026940646
251	0x3e018ae9	0.12650646
252	0x3d06151a	0.032734968
253	0x3d5f2f0c	0.054488227
254	0x3d19f047	0.037582662
255	0xbdb63662	-0.088970914

encoder.net.2.bias f4 [60]
0	0xbd32bc84	-0.043636814
1	0xbd4de07d	-0.050262917
2	0x3d768784	0.06018783
3	0xbd0f4427	-0.034977105
4	0xbcdaaac8	-0.026692763
5	0xbcb42f9f	-0.021995364
6	0x3cec7e20	0.028868735
7	0xbd4454fe	-0.047932617
8	0xbd0a8ffb	-0.033828717
9	0x3d318d52	0.043347664
10	0xbd27803d	-0.040893782
11	0x3d38561b	0.04500399
12	0xbd3f3a88	-0.04668668
13	0x3d6b267b	0.057409745
14	0x3c548419	0.012970948
15	0xbd33e689	-0.043921027
16	0x3d5f9ec0	0.054594755
17	0x3d1f0944	0.038827196
18	0xbc5a799b	-0.013334657
19	0x3d2dfa15	0.042474825
20	0xbcf1772c	-0.02947577
21	0xbcf72f84	-0.030174024
22	0xbd57528e	-0.052568965
23	0x3ce396c6	0.027781855
24	0xbda530c4	-0.08065942
25	0xbd187ea6	-0.037230156
26	0x3d71f866	0.05907478
27	0x3d3c342a	0.045948185
28	0xbc919847	-0.017772807
29	0x3d8f3cb2	0.069939986
30	0xbd76cb3b	-0.06025241
31	0xbd5d2cf7	-0.05399796
32	0xbd534c56	-0.05158647
33	0x3d61efb9	0.055160258
34	0xbc381511	-0.011235491
35	0xbd3d33b6	-0.046191894
36	0xbd4ae095	-0.049530584
37	0xbd917f0e	-0.07104312
38	0xbd30ab72	-0.043132253
39	0xbd34567b	-0.044027787
40	0x3c1c3556	0.009534201
41	0x3d32ca58	0.04365
42	0x3d4bfa30	0.049799144
43	0x3cf0c5c6	0.02939118
44	0xbb6e7118	-0.0036383327
45	0xbd99e233	-0.07513847
46	0xbcb7e5f2	-0.022448514
47	0x3ce41ffa	0.027847279
48	0xbc79efcb	-0.015254925
49	0xbd2fc835	-0.04291554
50	0x3cf8f5da	0.030390669
51	0x3d2f70c6	0.04283216
52	0x3d2625ee	0.040563516
53	0x3d3d50b0	0.046219528
54	0x3c22da18	0.009939693
55	0x3d6f1dd1	0.058378045
56	0x3bb47236	0.005506779
57	0x3d340804	0.043952957
58	0xbd24c14a	-0.040223397
59	0x3d2f8c3b	0.042858344

encoder.net.5.weight f4 [32, 60]
0	0xbe846e6e	-0.258655
1	0x3c9ba2fe	0.01899862
2	0xbe26e877	-0.16299616
3	0xbbc92e5d	-0.00613956
4	0x3db1e832	0.08686866
5	0x3d2215a9	0.039571438
6	0x3dd86874	0.10566798
7	0xbb81f07c	-0.0039654355
8	0x3e0c4a7e	0.13700292
9	0xbe8c2ca6	-0.27377814
10	0x3db84d2d	0.08999095
11	0xbccd4a8f	-0.025059966
12	0x3d4ba952	0.049722023
13	0xbe256fc6	-0.1615592
14	0x3dfdcdd5	0.12392775
15	0xbe6f0de5	-0.23345144
16	0x3dfd6bfa	0.123741105
17	0x3de90c78	0.11379331
18	0x3e70b4e0	0.23506498
19	0xbddc3735	-0.107527174
20	0xbe8f7a0a	-0.28022796
21	0x3c7fdce2	0.015616627
22	0x3e9a991e	0.30194944
23	0xbe2048f5	-0.15652831
24	0xbd97cd12	-0.07412161
25	0x3e42d1db	0.19025366
26	0xbd762e88	-0.06010297
27	0x3e417007	0.18890391
28	0x3e7eae44	0.24871165
29	0x3daf55bc	0.085612744
30	0xbe3747a3	-0.17898421
31	0x3dfed484	0.12442878
32	0xbdcf6265	-0.10126189
33	0xbd8ae914	-0.067827374
34	0x3de0d12e	0.10977398
35	0x3e18a35f	0.14906071
36	0x3d207849	0.039177213
37	0x3db66ab6	0.08907072
38	0xbc2975fb	-0.01034307
39	0x3d8ffd3c	0.070307225
40	0xbd87bd6c	-0.06627926
41	0xbe98a9ac	-0.2981695
42	0xbe5a191e	-0.21298644
43	0x3dc9cba0	0.098532915
44	0x3dce8157	0.10083263
45	0x3e0227b3	0.12710457
46	0x3c0d7b01	0.008635283
47	0x3e3c30c1	0.18377973
48	0x3da0aa97	0.078450374
49	0xbde4e41b	-0.1117632
50	0x3dce7e54	0.10082689
51	0x3d6480a1	0.055786733
52	0xbd87cd62	-0.066309705
53	0xbd3bf1f3	-0.045885038
54	0x3df615ab	0.120158516
55	0x3ca006a6	0.01953442
56	0x3cb7801a	0.02239995
57	0x3c56561d	0.013082054
58	0xbea5f08d	-0.32410088
59	0x3d9f47d5	0.07777373
60	0x3d857627	0.065166764
61	0x3a7e7236	0.000970635
62	0x3dd1fefd	0.10253713
63	0xbd8e3539	-0.06943745
64	0x3e33cfae	0.17559692
65	0x3e395182	0.18097499
66	0x3eb57b95	0.35445848
67	0x3e269d9b	0.16271059
68	0xbbe0408e	-0.006843633
69	0xbd113b8d	-0.035457183
70	0x3d8a09b1	0.0674013
71	0xbb2b5549	-0.0026143363
72	0xbde05fb2	-0.109557524
73	0xbdba9818	-0.09111041
74	0xbe70efd7	-0.23528992
75	0x3d3c5360	0.04597795
76	0xbe6106ab	-0.219752
77	0x3e4c6319	0.19959678
78	0xbe1371bc	-0.14398855
79	0x3e104ce3	0.1409183
80	0x3df71bf9	0.12065882
81	0xbe68b48b	-0.22725122
82	0xbe548785	-0.20754822
83	0xbd439ffa	-0.047759987
84	0x3e696e80	0.22796059
85	0xbe065259	-0.1311735
86	0x3d9fdcfb	0.078058206
87	0x3e3c4a9e	0.18387839
88	0xbdb9f0d0	-0.090791345
89	0x3bfc3215	0.0076964
90	0xbd394f27	-0.0452415
91	0xbde76138	-0.1129784
92	0x3e1dbb4b	0.15403478
93	0xbdac10e4	-0.08401659
94	0xbd307c52	-0.04308731
95	0x3e5e8563	0.2173057
96	0x3ceda715	0.029010335
97	0xbd9c6d4e	-0.07638036
98	0x3d513c1b	0.05108271
99	0xbe0b152a	-0.13582292
100	0xbdb58190	-0.08862603
101	0xbca26308	-0.019822612
102	0xbe23018d	-0.1591856
103	0x3d87f198	0.06637877
104	0xbc8a766d	-0.016902173
105	0x3d9bb519	0.07602901
106	0xbdce2535	-0.100656904
107	0x3ad715ee	0.0016409734
108	0xbe8fd112	-0.28089195
109	0x3db420fb	0.08795353
110	0x3ca3121f	0.019906102
111	0xbdf69ea0	-0.12041974
112	0x3c658344	0.014008347
113	0xbdf7a413	-0.120918415
114	0xbda5297f	-0.080645554
115	0xbd8ecc66	-0.0697258
116	0xbc57c437	-0.01316934
117	0xbdcc6599	-0.09980316
118	0x3cab254d	0.02089181
119	0x3bb1d8c0	0.00542745
120	0x3dd28348	0.10278946
121	0xbd271cf2	-0.04079909
122	0xbdfa7b68	-0.12230569
123	0x3d9ca876	0.07649319
124	0x3c7d4c98	0.015460156
125	0x3dae2e85	0.08504967
126	0x3e8a11c3	0.26966676
127	0x3dde0a6f	0.10841834
128	0xbe56b17d	-0.20966144
129	0xbe21bacd	-0.15793915
130	0x3e41fc18	0.18943822
131	0xbcfefdf8	-0.031126961
132	0xbdb46f92	-0.08810343
133	0xbd93942e	-0.072059974
134	0xbbee094b	-0.0072642914
135	0xbdf1f76c	-0.1181477
136	0xbe857c8a	-0.26071578
137	0xbd459a7d	-0.048243035
138	0x3df74292	0.12073244
139	0x3e161a7a	0.14658538
140	0x3d56b26d	0.052416254
141	0x3d279a62	0.040918715
142	0x3dffc02a	0.12487824
143	0x3e971db9	0.29514864
144	0xbd081c75	-0.033230264
145	0x3ea500b9	0.32227114
146	0xbe9f3990	-0.31098604
147	0x3dbd3f8a	0.09240635
148	0xbd6ea041	-0.0582583
149	0xbc0e17d8	-0.008672677
150	0x3e02665b	0.12734358
151	0x3ddd6530	0.108103156
152	0xbdb2c548	-0.08729035
153	0xbcbc2743	-0.02296794
154	0x3d9efdb2	0.07763232
155	0x3b72ad6f	0.0037029644
156	0xbd884146	-0.06653075
157	0x3d1b9d75	0.03799196
158	0xbda51df7	-0.08062356
159	0x3d359483	0.044331085
160	0x3c951c4a	0.018201966
161	0x3dbb3895	0.091416515
162	0x3d82b19d	0.06381533
163	0x3e2053a1	0.15656902
164	0xbd6acd11	-0.057324473
165	0x3e1bd816	0.15219149
166	0x3ee5a4bd	0.44852248
167	0xbd973c6c	-0.073845714
168	0x3de247ef	0.110488765
169	0x3bf077d9	0.0073385057
170	0xbe47632a	-0.19471422
171	0x3dba4af1	0.09096325
172	0xbd328a71	-0.04358906
173	0xbe48d20e	-0.1961138
174	0xbe09e9eb	-0.13468139
175	0x3e068409	0.13136305
176	0x3e19387d	0.14962955
177	0xbe9fd2f0	-0.3121562
178	0xbd967529	-0.07346565
179	0xbd5ff4f7	-0.054676976
180	0x3d6ab5e6	0.057302378
181	0xbcaf2931	-0.021381946
182	0xbd6f7686	-0.058462642
183	0x3d9beb4d	0.076132394
184	0xbe204883	-0.15652661
185	0xbd8d8cb7	-0.06911605
186	0x3ce55bf6	0.027997952
187	0xbda587c9	-0.080825396
188	0x3dde4115	0.10852257
189	0x3d7b503a	0.061355807
190	0x3e70fd77	0.23534189
191	0xbe1975a4	-0.14986283
192	0x3dfac70f	0.12244999
193	0xbdc86c06	-0.09786229
194	0x3dbcffdc	0.09228489
195	0x3cc91fab	0.024551233
196	0xbdf4f0a5	-0.11959962
197	0x3e2415b5	0.16023906
198	0x3d9364c8	0.07196957
199	0xbebca2ca	-0.36842948
200	0x3dc075da	0.093974784
201	0xbdb02c8b	-0.08602246
202	0x3e04f1cd	0.12982865
203	0x3cf011b7	0.029305322
204	0x3dad371e	0.084577784
205	0xbe1114ea	-0.14168134
206	0x3c56991a	0.013098026
207	0xbdd948ce	-0.106095895
208	0xbdcd7327	-0.10031729
209	0x3e825163	0.25452718
210	0x3e5a08ba	0.21292391
211	0x3ab49135	0.0013776185
212	0xbd240967	-0.04004803
213	0x3e18f9a5	0.14938982
214	0xbcd48205	-0.025940904
215	0xbe2d892e	-0.16946861
216	0xbc14ddb3	-0.00908606
217	0x3c442594	0.01197185
218	0xbc0d8682	-0.008638026
219	0x3c75d552	0.015004473
220	0xbdc1be27	-0.09460097
221	0x3d9938e4	0.07481554
222	0x3c8e328c	0.017358087
223	0xbdb292f3	-0.087194346
224	0x3ea166a4	0.3152362
225	0xbe3e8c72	-0.18608263
226	0x3d86a074	0.06573573
227	0x3e4b04d0	0.19826055
228	0xbc9c01dc	-0.019043855
229	0xbc9ecc4f	-0.019384531
230	0x3e586ab2	0.21134451
231	0x3d3a08ce	0.045418553
232	0xbe076d87	-0.13225375
233	0xbe1ea152	-0.15491226
234	0xbca18e6b	-0.01972123
235	0x3d32f9f9	0.043695424
236	0x3e15addb	0.14617102
237	0xbe07dbf3	-0.13267498
238	0x3df8c525	0.12146977
239	0xbd217205	-0.039415378
240	0xbd9e0dee	-0.077175006
241	0x3e089a06	0.13340005
242	0x3ed0bcc4	0.40769017
243	0xbd778277	-0.060427155
244	0x3e7de145	0.24792965
245	0x3b000786	0.0019535734
246	0x3ddf1d8b	0.10894307
247	0xbde3fa6d	-0.11131749
248	0xbc4ea793	-0.012613195
249	0xbe4feb4b	-0.20304601
250	0x3ddb372c	0.107038826
251	0x3d53424b	0.051576894
252	0x3c42364a	0.011853764
253	0x3df085d6	0.11744277
254	0xbe2b12e0	-0.16706419
255	0xbde7b972	-0.11314668

encoder.net.5.bias f4 [32]
0	0xbdb4c9bf	-0.088275425
1	0x3d35d787	0.044394996
2	0xbd5481c3	-0.051881563
3	0xbd572946	-0.052529596
4	0x3d94ed47	0.072718196
5	0xbe157e10	-0.1459887
6	0xbda90159	-0.0825221
7	0xbd57a8ee	-0.05265134
8	0x3d4e607d	0.050384987
9	0x3d4e693d	0.05039333
10	0x3cc51ab4	0.024060585
11	0xbd85fb9b	-0.065421306
12	0xbd70f3ab	-0.05882613
13	0xbd5fc25a	-0.054628707
14	0xbd527e67	-0.051390078
15	0xbd1cdadf	-0.03829467
16	0x3a80e017	0.0009832409
17	0x3d8824de	0.06647657
18	0xbd1e8c1d	-0.03870784
19	0x3d9329ed	0.07185731
20	0xbd452156	-0.048127495
21	0x3d23ed13	0.040021013
22	0xbd289331	-0.041155998
23	0x3d8f83e4	0.07007578
24	0xbd733fc9	-0.059387002
25	0xbd494a8d	-0.049143363
26	0x3d66ea16	0.056375585
27	0x3d4a267b	0.049353104
28	0x3d092bc7	0.033489015
29	0x3d617585	0.055043716
30	0x3d983ae1	0.07433105
31	0xbdd88b62	-0.1057346

predictor.net.1.weight f4 [32, 32]
0	0x3ecdf5b9	0.40226534
1	0xbdcf0120	-0.101076365
2	0x3e00b968	0.12570727
3	0xbc22b802	-0.009931566
4	0x3e97d911	0.29657796
5	0x3d99144f	0.07474577
6	0x3cd25a56	0.025677841
7	0x3caedfe0	0.021346986
8	0x3e101896	0.14071879
9	0xbe4a014d	-0.19727059
10	0x3dccbe32	0.099972144
11	0xbde5572e	-0.11198269
12	0x3f0683f1	0.52545077
13	0xbd6ae6f0	-0.057349145
14	0x3e8a9519	0.27066877
15	0x3d89a15b	0.06720229
16	0x3e154c39	0.14579858
17	0x3e1500b0	0.14551044
18	0xbdc7a0cd	-0.09747467
19	0x3e34fdc2	0.17674926
20	0xbd6116d7	-0.054953422
21	0xbdea6a66	-0.11446075
22	0x3ea8d3be	0.32974046
23	0xbdcdcdda	-0.10049029
24	0xbe91431a	-0.28371507
25	0x3e12be7d	0.14330478
26	0x3c6f69ca	0.014612624
27	0x3e06ebb7	0.13175856
28	0xbeb6a804	-0.3567506
29	0xbd32918d	-0.04359584
30	0xbe010e5a	-0.12603131
31	0x3e582dc5	0.2111121
32	0xbd302aa3	-0.04300941
33	0x3ddd35e1	0.10801292
34	0xbdbac91b	-0.09120389
35	0xbdaf2f09	-0.08553893
36	0xbd0ba49a	-0.034092523
37	0xbca50456	-0.02014367
38	0x3c335414	0.010945339
39	0xbe1c0852	-0.15237549
40	0xbd3009f9	-0.04297826
41	0x3b774ff0	0.0037736855
42	0xbcd90c9a	-0.026495267
43	0x3b625ad6	0.0034539006
44	0x3d0d89e7	0.034555342
45	0xbdc08f03	-0.09402277
46	0xbe1cafc6	-0.15301427
47	0x3df91fa8	0.12164241
48	0x3e66a90e	0.22525427
49	0x3e313f1d	0.17309232
50	0x3d3b04b0	0.045658767
51	0x3d96395a	0.07335158
52	0xbd5f6331	-0.054537956
53	0xbbfaa8b8	-0.0076495074
54	0x3da78ac9	0.08180768
55	0x3d9e7aa3	0.07738235
56	0xbd02c6a0	-0.031927705
57	0xbda1dc60	-0.07903361
58	0x3e0b6298	0.1361183
59	0xbe773aef	-0.24143575
60	0x3dea5d0d	0.11443529
61	0x3e400c2f	0.18754648
62	0xbe6270a1	-0.22113277
63	0x3d8d4be4	0.068992406
64	0x3db40a28	0.08791
65	0x3dbf81ea	0.09350951
66	0xbb9bffe7	-0.0047607305
67	0x3d4ca7cb	0.049964707
68	0x3e01f566	0.12691268
69	0xbcaea682	-0.021319631
70	0xbdc7385b	-0.09727546
71	0x3e8d72c2	0.27626616
72	0x3d98ae5e	0.07455133
73	0x3e8572d8	0.2606418
74	0xbd6e29d5	-0.058145363
75	0xbe0b5331	-0.13605954
76	0x3d5e8904	0.054329887
77	0xbe879a89	-0.26485088
78	0xbd1f8f5e	-0.038955085
79	0x3d195f38	0.037444323
80	0x3e08028f	0.13282226
81	0x3dcdb097	0.100434475
82	0xbe122436	-0.14271626
83	0x3e25ed70	0.16203856
84	0x3e2e3384	0.17011839
85	0x3e88b590	0.2670102
86	0xbd010a52	-0.031503983
87	0x3da126f5	0.078687586
88	0xbd2b81e7	-0.04187193
89	0x3cf1cc58	0.029516384
90	0xbc7676be	-0.015042959
91	0xbdd6d922	-0.104906335
92	0x3dff8497	0.124764614
93	0x3eaedf7c	0.3415488
94	0x3dee01b9	0.11621422
95	0xbea84907	-0.32868215
96	0xbc9465bb	-0.018114915
97	0xbe85066d	-0.25981465
98	0xbdd7866d	-0.105236866
99	0x3f163985	0.5868152
100	0xbe363638	-0.1779412
101	0xbcbf94d9	-0.023386406
102	0x3cc12615	0.02357773
103	0xbcf1e626	-0.029528689
104	0xbe329a64	-0.17441708
105	0x3e92f771	0.28704408
106	0x3dd301dc	0.10303089
107	0x3e30028c	0.17188472
108	0x3e9c281c	0.3049935
109	0x3e78554a	0.24251285
110	0x3d7a3b35	0.06109162
111	0x3e83daeb	0.2575296
112	0x3e6ffba3	0.23435836
113	0xbe529f4a	-0.20568576
114	0x3eb4b481	0.35293964
115	0xbd7356f0	-0.059409082
116	0x3db2237a	0.08698173
117	0xbe17c604	-0.1482163
118	0x3e8491f6	0.2589261
119	0x3c90922b	0.017647823
120	0xbe74482e	-0.2385566
121	0xbdd89207	-0.105747275
122	0x3dcaf7f5	0.09910575
123	0xbe37c699	-0.17946853
124	0x3e42cca7	0.19023381
125	0xbde2ad84	-0.11068252
126	0xbe00ee6d	-0.12590952
127	0x3d5c75d0	0.053823292
128	0x3e277bc9	0.16355814
129	0xbde8f39b	-0.11374589
130	0xbe5b7bdb	-0.21433966
131	0x3e3349e9	0.17508663
132	0xbd7dc1a7	-0.06195226
133	0x3c3202c6	0.010864919
134	0x3be800e6	0.007080185
135	0x3ebc13ec	0.3673395
136	0xbe237eec	-0.15966386
137	0x3e75b861	0.23996116
138	0xbb823221	-0.003973261
139	0x3de53a71	0.111927874
140	0xbd9ec3ea	-0.077522114
141	0x3d9f6961	0.07783771
142	0x3d8e5080	0.06948948
143	0xbe780c35	-0.24223407
144	0x3cd55260	0.026040256
145	0x3e4242cc	0.18970793
146	0xbded8f6e	-0.11599623
147	0x3ddab24e	0.1067854
148	0xbe4e5796	-0.20150599
149	0x3e639ea4	0.22228485
150	0xbe0b918c	-0.1362974
151	0xbc855919	-0.016277837
152	0xbf164906	-0.58705175
153	0xbe6b01e4	-0.2294994
154	0xbd8c04f3	-0.068368815
155	0xbe302d82	-0.1720486
156	0xbe53ae1b	-0.20671885
157	0xbd8ade4a	-0.067806795
158	0x3da22b01	0.079183586
159	0x3e41f584	0.18941313
160	0x3bc9eaa0	0.0061620027
161	0x3de3642e	0.11103092
162	0x3dfb4891	0.122697
163	0xbe18cc3e	-0.14921662
164	0x3e75f7e4	0.24020344
165	0x3e2dd5bd	0.16976066
166	0xbe7c7ff4	-0.24658185
167	0xbcedc15f	-0.02902287
168	0x3c275b60	0.010214657
169	0xbde4d214	-0.11172882
170	0xbe9c301a	-0.3050545
171	0x3c6f28db	0.014597143
172	0x3ea2e649	0.3181632
173	0xbe9220c7	-0.28540632
174	0xbdfe6d0f	-0.12423145
175	0x3e0a75b1	0.13521458
176	0xbd166651	-0.03671867
177	0x3dd496da	0.10380335
178	0xbca98f31	-0.020698162
179	0xbe2b2fb3	-0.16717415
180	0x3e965718	0.29363322
181	0xbd9f1836	-0.0776829
182	0x3eba97fd	0.36444083
183	0x3e5ece8c	0.21758479
184	0xbd8529f3	-0.06502142
185	0x3e6265da	0.22109166
186	0xbdf9e860	-0.12202525
187	0xbe9aa9f1	-0.3020778
188	0xbe83762d	-0.25676098
189	0x3ebb8f56	0.36632794
190	0xbe28382c	-0.16427678
191	0x3d0b8e70	0.034071386
192	0xbd7f4210	-0.06231886
193	0x3e5878b6	0.21139798
194	0x3bf4c025	0.0074691945
195	0x3e731ef8	0.23742282
196	0xbe5841bf	-0.2111883
197	0xbdecf065	-0.11569289
198	0x3e187d6e	0.14891598
199	0x3de2c344	0.110724
200	0x3dc71ecd	0.09722672
201	0x3e13a96e	0.14420101
202	0xbcab286f	-0.020893304
203	0x3c2b95b6	0.010472706
204	0x3e7d675e	0.24746463
205	0x3b8d6d62	0.004316018
206	0xbe92df21	-0.2868586
207	0xbdec2faa	-0.11532529
208	0x3e060664	0.13088375
209	0x3e324517	0.17409168
210	0x3d83229b	0.06403085
211	0xbe37a640	-0.17934513
212	0xbe2adf8d	-0.1668684
213	0x3d82a210	0.06378567
214	0xbe90ed66	-0.2830612
215	0xbe104334	-0.14088136
216	0xbe323e07	-0.17406474
217	0x3cddc746	0.02707256
218	0x3d4a195c	0.04934059
219	0x3e54519f	0.20734261
220	0x3e9ef8dc	0.3104924
221	0x3f002e68	0.5007081
222	0x3e208f23	0.15679602
223	0xbd18be38	-0.03729078
224	0xbe80e7c9	-0.25176838
225	0xbd92cb4b	-0.07167681
226	0xbd8cc197	-0.06872862
227	0xbe8e0c37	-0.27743694
228	0xbe4f6d30	-0.20256495
229	0x3e2ac97f	0.16678427
230	0x3caadf0a	0.020858306
231	0xbe8c92c0	-0.2745571
232	0xbcd130e3	-0.025536006
233	0xbe0e1b9c	-0.1387772
234	0x3e1ee8f1	0.15518548
235	0x3e0178e0	0.12643766
236	0x3c346baa	0.011011997
237	0xbe91ad3e	-0.28452486
238	0xbdc28bbb	-0.09499308
239	0xbd9782f6	-0.07398026
240	0x3db928db	0.09040996
241	0x3e856776	0.26055497
242	0xbd5e6644	-0.054296747
243	0x3e971b6c	0.2951311
244	0x3deb8fc1	0.11502028
245	0x3ca6ec83	0.02037645
246	0xbdf194f8	-0.11795992
247	0x3eafa807	0.34307882
248	0xbe270ba3	-0.16313033
249	0xbcded3b2	-0.027200554
250	0x3e3de700	0.18545151
251	0xbd227736	-0.03966447
252	0xbe9b9f4e	-0.30394977
253	0x3e1407ff	0.14456175
254	0xbe54e46b	-0.2079026
255	0x3d8bd081	0.06826878

predictor.net.1.bias f4 [32]
0	0x3e012ec3	0.12615494
1	0xbe34a2ab	-0.17640178
2	0x3dde939f	0.10868
3	0x3e0a5088	0.13507283
4	0xbe083ddb	-0.13304846
5	0xbdd559c4	-0.10417512
6	0xbe030e1c	-0.12798351
7	0xbe389663	-0.18026118
8	0xbdf5846b	-0.11988147
9	0x3dcd613a	0.1002831
10	0x3e0206cc	0.12697905
11	0xbddc9812	-0.107711926
12	0x3de64206	0.11243062
13	0x3e42ec7c	0.19035524
14	0xbe0b1971	-0.13583924
15	0xbdda6437	-0.10663646
16	0xbe39e071	-0.18152024
17	0xbdd1d16f	-0.102450244
18	0x3de9e9cb	0.114215456
19	0xbdd27a81	-0.10277272
20	0x3dddf5bc	0.10837886
21	0xbdf111ed	-0.11770997
22	0x3dcc3f84	0.09973052
23	0x3de58781	0.11207486
24	0x3dc79d8b	0.09746846
25	0xbe00db1d	-0.12583585
26	0x3e6a943c	0.2290811
27	0x3e108e3d	0.1411676
28	0xbdde80fe	-0.10864447
29	0xbdd49ed3	-0.10381856
30	0xbe52e221	-0.20594074
31	0xbddcd132	-0.10782088

predictor.net.3.weight f4 [1, 32]
0	0x3e0e3746	0.13888273
1	0xbdf4f754	-0.119612366
2	0x3ebf709d	0.37390605
3	0x3e3c6e14	0.18401366
4	0xbd144b43	-0.036204588
5	0xbeb6ca15	-0.3570105
6	0xbe3b6dc7	-0.18303595
7	0xbd882a7a	-0.06648727
8	0xbe510d10	-0.20415139
9	0x3db5eb17	0.088827305
10	0x3e310777	0.17288004
11	0xbea7253b	-0.32645592
12	0x3d8535de	0.06504415
13	0x3dc8cc05	0.09804539
14	0xbd777834	-0.06041737
15	0xbe7b36d9	-0.24532641
16	0xbdc34c51	-0.095360406
17	0xbdf80be9	-0.12111647
18	0x3ef698d0	0.48163462
19	0xbe3b8448	-0.1831218
20	0x3e6ef5e4	0.23335987
21	0xbe9067ac	-0.28204095
22	0x3cb808d6	0.02246515
23	0x3e971161	0.29505447
24	0x3e40329f	0.1876931
25	0xbde0daa6	-0.10979204
26	0x3e7e3230	0.24823833
27	0x3defa3b5	0.117011465
28	0xbe64aca0	-0.22331476
29	0xbe875374	-0.26430857
30	0xbd65f1bc	-0.05613874
31	0xbec58640	-0.38578987

net.0.weight f4 [60, 35]
0	0xbcacf8ca	-0.021114726
1	0xbcf7b08c	-0.030235551
2	0xbdd58826	-0.10426359
3	0x3cc9cf79	0.024635063
4	0x3e8b87d9	0.2725208
5	0xbd68f672	-0.056875654
6	0x3d0fac25	0.03507628
7	0xbd2b93bf	-0.04188895
8	0xbd85b78d	-0.0652915
9	0x3d841105	0.06448559
10	0xbda96945	-0.08272032
11	0x3d0042b2	0.031313606
12	0x3e445d4e	0.19176218
13	0xbddb4132	-0.107057944
14	0x3d1a3c91	0.037655417
15	0x3eb9a6de	0.36260122
16	0x3c27dbfd	0.01024532
17	0xbd45f75e	-0.04833161
18	0xbe5a0d60	-0.21294165
19	0xbddf5a4e	-0.10905896
20	0xbdf39d1c	-0.118952006
21	0xbe7724ec	-0.24135178
22	0x3bd8d36f	0.0066170017
23	0xbe3c8d91	-0.18413378
24	0x3dad3eb1	0.08459223
25	0x3da73aaa	0.08165486
26	0xbc7578c1	-0.014982403
27	0xbe18b147	-0.14911376
28	0xbe6b62a5	-0.22986849
29	0xbe4f023f	-0.202157
30	0x3db7e5d1	0.08979381
31	0xbe449e62	-0.19201043
32	0xbe517663	-0.20455317
33	0x3d40ff0d	0.047118235
34	0x3e7dde38	0.24791801
35	0xbe8192e9	-0.25307396
36	0xbda0b683	-0.07847311
37	0xbd90c4b6	-0.0706877
38	0xbdbe0a96	-0.09279363
39	0x3d3ae6eb	0.045630377
40	0xbbe9de5f	-0.0071371044
41	0xbe1da857	-0.15396248
42	0x3e0adb13	0.13560133
43	0x3e1e3a7f	0.15452002
44	0xbe3069f3	-0.17227916
45	0xbe50e70e	-0.2040064
46	0xbd8da859	-0.069168754
47	0x39b0b285	0.00033702343
48	0xbe0a7e74	-0.135248
49	0x3dff63e8	0.124702275
50	0xbe6340b1	-0.22192647
51	0x3d37c1d1	0.044862572
52	0x3e556944	0.20840937
53	0xbd0e2c9c	-0.03471051
54	0xbde301ab	-0.110843025
55	0x3d925e15	0.07146851
56	0xbd8eca72	-0.06972207
57	0xbea9b0f7	-0.33142826
58	0x3d8e561a	0.06950016
59	0xbe83525e	-0.2564878
60	0xbe2e0216	-0.16992983
61	0xbdbfc786	-0.09364228
62	0x3cdbada8	0.026816204
63	0x3c85c4a0	0.01632911
64	0x3e1660f8	0.14685428
65	0x3eb81047	0.3594992
66	0x3e03365a	0.12813702
67	0x3e1798be	0.1480436
68	0xbe46adf7	-0.194023
69	0xbe0d4a6e	-0.13797924
70	0x3e0142cd	0.12623139
71	0xbd648887	-0.055794265
72	0x3e2a7b99	0.16648711
73	0xbd532712	-0.051550932
74	0x3ceb0c48	0.02869238
75	0xbd4e2c9a	-0.050335504
76	0xbdb28708	-0.087171614
77	0xbdaa15ee	-0.08304964
78	0xbe2d2821	-0.16909839
79	0x3dbb4e69	0.09145815
80	0xbda14b35	-0.07875673
81	0xbe21c1ac	-0.15796536
82	0xbd84e87e	-0.06489657
83	0x3d3d7b76	0.04626032
84	0x3d6f7352	0.058459587
85	0xbda59177	-0.08084386
86	0x3e420c1c	0.18949932
87	0xbe0e76b9	-0.13912477
88	0x3e17a56e	0.148092
89	0x3ea678c6	0.32514018
90	0x3da54711	0.080701955
91	0xbd6bdeb1	-0.057585422
92	0x3df0ee10	0.11764157
93	0xbce4bc02	-0.02792168
94	0x3e92dc58	0.28683734
95	0xbe30122a	-0.17194429
96	0x3d34c14e	0.044129662
97	0x3ddc5f59	0.107603736
98	0xbd969df0	-0.07354343
99	0xbe93ebf4	-0.28890955
100	0xbdd8c2fb	-0.105840646
101	0x3e62e5aa	0.22157922
102	0xbd32dfc8	-0.043670446
103	0x3d507ded	0.050901342
104	0xbd308dda	-0.04310403
105	0x3d701a52	0.05861885
106	0x3ea0e21a	0.31422502
107	0xbd8441db	-0.064578734
108	0xbe177b06	-0.14793023
109	0x3d38c594	0.0451103
110	0xbdb392aa	-0.08768208
111	0x3cf270e3	0.029594844
112	0xbe95b336	-0.2923829
113	0xbe0416df	-0.1289935
114	0xbce55b91	-0.027997764
115	0xbe37fe44	-0.17968088
116	0x3d9a5c91	0.07537187
117	0xbd7225b0	-0.059117973
118	0xbe1c087f	-0.15237616
119	0xbe1e7301	-0.15473558
120	0x3e02a6e0	0.1275897
121	0x3dcde48d	0.10053358
122	0xbea31a60	-0.3185606
123	0x3e1c66c3	0.15273575
124	0x3b954227	0.004555005
125	0x3e30b22d	0.17255469
126	0x3bb869f8	0.005627867
127	0xbe0473e3	-0.12934832
128	0x3e142383	0.14466672
129	0xbd7695c1	-0.06020141
130	0xbec3201e	-0.3811044
131	0xbd5c595d	-0.05379616
132	0xbe543a41	-0.20725347
133	0x3cbb4887	0.022861732
134	0x3d3d14a6	0.04616227
135	0xbe04b00e	-0.12957785
136	0xbe24ee06	-0.16106424
137	0xbce9251a	-0.028460074
138	0xbe692439	-0.22767724
139	0xbdcfde77	-0.10149854
140	0xbc74df44	-0.014945809
141	0x3e39b37d	0.18134876
142	0x3e5359a8	0.2063967
143	0x3cff7200	0.03118229
144	0xbe301ee1	-0.1719928
145	0x3e0bdb71	0.13657929
146	0x3e55fa46	0.20896253
147	0xbe326c5e	-0.17424151
148	0xbe224bd9	-0.15849246
149	0x3cb8a4dc	0.022539549
150	0xbd7a54db	-0.06111608
151	0xbe3e37f9	-0.1857604
152	0x3e691517	0.22761951
153	0xbb86a269	-0.0041087163
154	0x3d625f49	0.055266652
155	0xbe833ac0	-0.2563076
156	0x3d75fac9	0.06005362
157	0xbe7e785a	-0.24850598
158	0x3e774a0d	0.24149342
159	0x3dedc7ec	0.11610398
160	0xbe3bd198	-0.18341672
161	0xbbd0b959	-0.0063697514
162	0xbe38dedd	-0.18053766
163	0xbde56398	-0.112006366
164	0x3e45c110	0.19311929
165	0x3e2e741d	0.17036481
166	0xbd661a48	-0.056177408
167	0x3e854daa	0.26035815
168	0xbe28582f	-0.1643989
169	0x3d981100	0.074251175
170	0xbdc2b21d	-0.09506629
171	0xbe358e03	-0.17729954
172	0x3e2b319d	0.16718145
173	0xbeab7b04	-0.3349229
174	0x3bcf92c3	0.006334634
175	0xbd299843	-0.041404974
176	0x3e8cae6a	0.27476817
177	0x3e22b847	0.15890609
178	0x3d2fedd8	0.042951435
179	0xbdec9fb9	-0.11553902
180	0xbeb0ea68	-0.34553838
181	0x3dc868f2	0.09785642
182	0x3dde0357	0.10840481
183	0xbb9959b2	-0.004679882
184	0x3cd46951	0.025929125
185	0xbd41768b	-0.047232192
186	0xbbe3f9aa	-0.0069572525
187	0x3e9886e4	0.29790413
188	0xbd7c5ea1	-0.061613683
189	0x3dca5a74	0.09880534
190	0x3d569294	0.05238588
191	0x3bde2554	0.006779352
192	0xbbdc8cef	-0.006730668
193	0xbc06a8eb	-0.008218984
194	0xbe12e098	-0.14343488
195	0x3e5dad1d	0.21648069
196	0x3e0bdaac	0.13657635
197	0x3e4679a6	0.19382343
198	0x3db1a0e5	0.08673266
199	0xbd0c2c07	-0.034221675
200	0x3dbe9f6d	0.09307752
201	0xbe3c216f	-0.18372129
202	0x3d29b1fa	0.041429497
203	0x3da1424a	0.07873972
204	0xbdc63f8d	-0.0968009
205	0x3c6c1812	0.014410036
206	0x3e1e9274	0.15485555
207	0xbe4ff87e	-0.20309636
208	0x3c2a90e3	0.01041052
209	0xbc9e15a6	-0.019297432
210	0x3d33d6d8	0.043906063
211	0xbd812e41	-0.0630765
212	0xbe522227	-0.2052084
213	0xbab0af5e	-0.0013479998
214	0x3d36f1f9	0.044664357
215	0xbd2a2131	-0.04153556
216	0xbd117eeb	-0.03552143
217	0xbdcf7355	-0.1012942
218	0x3e087050	0.13324094
219	0xbba23b8e	-0.004950947
220	0x3e359342	0.17731956
221	0xbdac705e	-0.0841987
222	0xbca4b59e	-0.020106133
223	0x3e2694c8	0.16267693
224	0xbe235c40	-0.1595316
225	0xbd08a9a8	-0.03336492
226	0xbca8e3d2	-0.020616446
227	0xbdb20529	-0.086923905
228	0x3dd8f3fe	0.10593413
229	0xbd7bb9f9	-0.061456654
230	0x3e26660f	0.1624987
231	0x3e7db854	0.24777347
232	0x3d0989be	0.033578627
233	0x3c9bcb48	0.01901783
234	0x3e2e6847	0.17031966
235	0xbe342933	-0.17593841
236	0x3d58a453	0.052891087
237	0xbe0508e2	-0.1299167
238	0x3e2db746	0.16964445
239	0x3d60440f	0.054752406
240	0xbe04fb7d	-0.1298656
241	0x3d70585b	0.058678012
242	0xbd929e0c	-0.07159051
243	0xbcfdb068	-0.030967906
244	0x3e1ea44b	0.1549236
245	0x3defb27d	0.11703966
246	0xbdf079c8	-0.11741978
247	0xbe709380	-0.23493767
248	0xbde9272d	-0.11384425
249	0x3daafa77	0.08348554
250	0xbde76be1	-0.11299873
251	0x3e533146	0.20624265
252	0xbd91f31e	-0.07126449
253	0x3d10eb17	0.03538045
254	0xbda6a17c	-0.081362695
255	0xbc4a593e	-0.012350379

net.0.bias f4 [60]
0	0x3e2d5a65	0.16929014
1	0xbd361c89	-0.044460807
2	0x3d61a6eb	0.055090826
3	0xbcfa6f76	-0.030570727
4	0x3e224bc6	0.15849218
5	0xbe30200f	-0.1719973
6	0x3dfad737	0.1224808
7	0xbc35db43	-0.011099639
8	0xbe149aff	-0.14512251
9	0xbda6ea93	-0.0815021
10	0xbbf486b6	-0.007462348
11	0x3d8b89d4	0.06813398
12	0x3cc71a3a	0.024304498
13	0xbd50351f	-0.05083191
14	0x3dc8feb5	0.098142065
15	0x3e025f86	0.12731752
16	0xbe678d85	-0.22612579
17	0xbd802ac7	-0.06258159
18	0x3df2f606	0.118633315
19	0x3e2418df	0.16025113
20	0xbdbc1541	-0.09183741
21	0xbd9237cd	-0.071395494
22	0x3e04049b	0.12892382
23	0x3e19dd1e	0.15025756
24	0x3e267c4b	0.16258352
25	0xbe344062	-0.17602685
26	0x3dddd76d	0.10832105
27	0x3dc74a39	0.09730954
28	0xbd980c72	-0.07424249
29	0xbe017bef	-0.12644933
30	0x3c9e3468	0.019312099
31	0x3e0e544d	0.13899346
32	0xbd8cb660	-0.06870723
33	0x3d3e243f	0.046421286
34	0x3defae42	0.11703159
35	0xbe050d5c	-0.12993377
36	0xbd4916a3	-0.049093854
37	0xbd36fc0f	-0.044673976
38	0x3dd5eb4f	0.10445272
39	0x3df89e64	0.121395856
40	0x3d4b3782	0.049613483
41	0xbdf5de52	-0.12005295
42	0xbddd0c98	-0.10793418
43	0xbcd38fab	-0.025825342
44	0x3d313fa5	0.043273587
45	0x3ceddac4	0.02903498
46	0xbd825458	-0.063637435
47	0x3dd723ef	0.10504901
48	0x3e002733	0.12514953
49	0xbdbd4812	-0.09242262
50	0x3d111116	0.035416685
51	0xbd0d5beb	-0.034511488
52	0xbe0e3b7e	-0.13889882
53	0x3e0b27ba	0.13589373
54	0xbe0d7d34	-0.13817292
55	0xbc17be56	-0.009261688
56	0x3dbea6b9	0.093091436
57	0xbe04b19a	-0.12958375
58	0xbe35b7dc	-0.17745918
59	0x3d345b73	0.044032525

net.2.weight f4 [60, 60]
0	0x3d1ad669	0.037802134
1	0x3d884def	0.0665549
2	0xbc881484	-0.016611345
3	0x3da2ef25	0.079557694
4	0xbd9c2b8c	-0.076254934
5	0xbdac7e62	-0.08422543
6	0x3e2f0a86	0.17093858
7	0xbd8a1833	-0.06742897
8	0xbde7b068	-0.11312944
9	0x3d3f1393	0.046649527
10	0x3dc9532a	0.098303154
11	0x3c8a8830	0.016910642
12	0xbe1a12a7	-0.15046178
13	0x3e97b7d9	0.29632452
14	0x3e10697d	0.1410274
15	0x3e1cd7ee	0.15316746
16	0xbe2d1865	-0.16903837
17	0xbb9aec48	-0.004727874
18	0xbdd66a82	-0.104695335
19	0x3dcdfa9e	0.10057567
20	0x3d29297a	0.04129932
21	0xbdeeb81f	-0.11656212
22	0x3d231e7f	0.039824005
23	0xbe000d5b	-0.12505095
24	0x3d82b1d1	0.06381572
25	0xbdc1cfb1	-0.09463442
26	0xbe1de7a2	-0.15420392
27	0x3d062c02	0.032756813
28	0x3e7f9629	0.24959625
29	0xbe1ed853	-0.15512209
30	0xbe363325	-0.17792948
31	0xbe567073	-0.20941333
32	0xbdf639ad	-0.120227195
33	0x3e853df6	0.26023835
34	0xbde858e9	-0.11345083
35	0x3d044a92	0.03229768
36	0x3decad87	0.11556535
37	0xbb33e044	-0.0027446905
38	0x3e296a6e	0.16544506
39	0x3e66556f	0.22493528
40	0xbdc5868b	-0.09644803
41	0x3e2ad967	0.16684495
42	0xbd581cc5	-0.05276181
43	0xbe393607	-0.18087016
44	0x3db8b0c4	0.0901809
45	0xbd90553d	-0.07047508
46	0xbd6ff941	-0.058587316
47	0x3cfd6ed1	0.03093663
48	0x3d80d6b6	0.06290953
49	0x3d7200d9	0.05908284
50	0x3d81f89d	0.06346247
51	0xbdd07c9a	-0.10180016
52	0x3dc99f26	0.09844808
53	0x3cbf9fe1	0.023391666
54	0xbc9289a9	-0.017887907
55	0xbd6031b8	-0.054734915
56	0xbbef4a2e	-0.007302544
57	0x3e519b7f	0.20469473
58	0x3cbc4b11	0.022985013
59	0xbd602de5	-0.05473127
60	0xbdd5b91e	-0.10435699
61	0xbb9bc6ca	-0.004753922
62	0xbd3a750b	-0.045521777
63	0xbd892eda	-0.06698389
64	0x3dc5bc8f	0.09655105
65	0x3c7ad652	0.015309887
66	0xbe0259a9	-0.12729515
67	0x3ce0f408	0.027460113
68	0x3d2926bd	0.04129671
69	0xbd25f1fc	-0.040513977
70	0xbe1674ae	-0.14692947
71	0x3baa19ca	0.0051910626
72	0xbdde1e63	-0.108456396
73	0x3ddeeeee	0.10885416
74	0xbd1a5921	-0.037682656
75	0x3d90ecfd	0.07076452
76	0x3d129128	0.035782963
77	0xbd464128	-0.04840198
78	0x3d3505c0	0.044194937
79	0x3e64b743	0.22335534
80	0x3dc9857d	0.09839914
81	0x3d806de8	0.06270963
82	0x3c90bbda	0.0176677
83	0x3dfe88b0	0.12428415
84	0x3c5f5294	0.013630528
85	0xbe2f1ef2	-0.17101648
86	0xbe707136	-0.23480687
87	0x3dbbb820	0.091659784
88	0xbe8d7d5a	-0.27634698
89	0x3dbbbed3	0.09167256
90	0x3c004e17	0.007831118
91	0xbe23fbed	-0.16014071
92	0xbe32cb41	-0.17460348
93	0x3d421aa1	0.047388677
94	0xbd8570a9	-0.06515629
95	0xbe9537e4	-0.29144204
96	0xbdb54a90	-0.08852112
97	0x3e3b7b28	0.18308699
98	0x3b8b90e9	0.004259218
99	0xbd2abd55	-0.041684467
100	0x3e5086f1	0.20363976
101	0xbdea1f6d	-0.11431775
102	0x3dc8d4cb	0.09806212
103	0x3d8615af	0.065471046
104	0x3c13a62d	0.009011787
105	0xbe023ace	-0.12717745
106	0xbe5a282f	-0.21304391
107	0xbdfa2c14	-0.122154385
108	0xbd9f7531	-0.07786024
109	0x3e5e20ce	0.21692201
110	0xbdacba99	-0.08434028
111	0xbbb252dd	-0.005442007
112	0xbe909fd2	-0.28246933
113	0xbde6086b	-0.11232074
114	0xbe0666b1	-0.13125111
115	0xbd412ae3	-0.04716004
116	0x3e1f8b00	0.15580368
117	0x3e6ceb88	0.23136723
118	0x3e4fc44d	0.20289727
119	0x3d5cd41d	0.053913224
120	0x3df0adb9	0.11751885
121	0xbd047159	-0.03233466
122	0x3e4297c8	0.19003212
123	0xbe0dd78c	-0.13851756
124	0xbd3135fd	-0.043264378
125	0x3bebe5bd	0.007199018
126	0xbd4d4bd5	-0.050121147
127	0x3c64b844	0.013959948
128	0xbd8cfc84	-0.06884101
129	0xbd9c5c1a	-0.076347545
130	0xbd8dcb33	-0.06923523
131	0x3e035b3a	0.12827769
132	0x3ccf59e5	0.02531142
133	0x3d5bd06a	0.053665556
134	0xbe214a35	-0.15750964
135	0x3d3c42f1	0.045962278
136	0x3b66c099	0.0035210012
137	0x3d39556d	0.045247484
138	0x3d72f3d1	0.059314553
139	0x3e3bfa06	0.18357095
140	0x3d438662	0.04773558
141	0xbe10a4b0	-0.14125323
142	0xbc103b8d	-0.0088032605
143	0x3e0a7be5	0.13523825
144	0x3de4eb1d	0.11177657
145	0x3d861fae	0.06549011
146	0xbdff838e	-0.12476264
147	0x3d8653c4	0.06558946
148	0x3d4f0967	0.050546076
149	0xbd05e1d4	-0.03268607
150	0xbcf57daf	-0.029967157
151	0xbdae0f71	-0.08499039
152	0x3da95b30	0.08269346
153	0x3d8ab37b	0.067725144
154	0xbe3cdc3c	-0.18443388
155	0x3b558547	0.003258066
156	0x3e16b08a	0.14715782
157	0x3e5a2534	0.21303254
158	0xbcf13e2d	-0.029448593
159	0x3e5f5861	0.21811058
160	0x3eaa5a2c	0.3327192
161	0xbe261507	-0.16218959
162	0x3d32c88c	0.043648288
163	0x3e178155	0.1479543
164	0xbe0392cf	-0.12848972
165	0xbd26aa7f	-0.04068994
166	0x3e4e7a0d	0.20163746
167	0xbd0c9a60	-0.03432691
168	0x3c3e4c7e	0.011614917
169	0x3aba7218	0.0014224676
170	0x3c01fb1c	0.007933404
171	0xbd4bf00e	-0.04978948
172	0x3df58615	0.11988465
173	0x3d51fb06	0.051264785
174	0x3cbb9e14	0.022902526
175	0xbcf3fa3c	-0.029782407
176	0x3cf5b8b9	0.02999531
177	0x3db5e881	0.08882237
178	0x3ecfd929	0.40595368
179	0x3d856bf2	0.065147296
180	0xbada66b4	-0.0016662688
181	0x3db2157c	0.08695504
182	0xbce2d2fb	-0.027688494
183	0x3d36a85e	0.04459416
184	0xbde05d0f	-0.109552495
185	0xbdadbde5	-0.08483485
186	0x3d3ba05a	0.04580722
187	0x3b866b1f	0.0041021253
188	0xbe3c5189	-0.18390478
189	0xbdbc5a17	-0.09196871
190	0x3d42bcc6	0.04754331
191	0x3e06440a	0.13111892
192	0x3cb8b4d0	0.022547156
193	0x3c9bf0df	0.019035755
194	0xbcc76a3e	-0.024342652
195	0xbdc6fb15	-0.09715859
196	0x3dc71192	0.09720148
197	0x3b5e6804	0.003393651
198	0x3e4b155c	0.19832367
199	0xbb489728	-0.0030607674
200	0x3e1c0c42	0.15239051
201	0x3c9c913f	0.019112227
202	0x3d18ce2a	0.03730599
203	0x3e24b4fc	0.16084665
204	0xbea64f4a	-0.32482368
205	0x3df5be38	0.11999172
206	0xbe703a4c	-0.23459738
207	0xbe28258f	-0.16420577
208	0x3cc60f8d	0.024177337
209	0xbe5c151b	-0.21492426
210	0x3e8fa71b	0.2805718
211	0x3c540eeb	0.01294301
212	0x3df3370d	0.118757345
213	0x3e87231f	0.26393983
214	0xbe0b9be5	-0.13633688
215	0x3dbcc8bf	0.09217977
216	0xbd016ec0	-0.03159976
217	0xbe2782ae	-0.16358444
218	0xbe192d84	-0.14958769
219	0x3d83842b	0.064216934
220	0xbd8b8e5b	-0.068142615
221	0xbdc0dd27	-0.094171815
222	0x3e80d1bb	0.25160012
223	0xbdd4bc26	-0.10387449
224	0xbc6c4dc6	-0.0144228395
225	0xbcb01704	-0.02149535
226	0xbd3103d1	-0.04321653
227	0x3b95fc4f	0.0045771967
228	0x3df145d7	0.11780899
229	0xbdfc1485	-0.12308601
230	0x3dd47f61	0.10375858
231	0xbe9020ff	-0.28150174
232	0xbe173de5	-0.14769705
233	0xbe1e6609	-0.15468611
234	0x3d19b7a0	0.037528634
235	0x3d9f9a94	0.07793155
236	0xbd777072	-0.06040997
237	0x3c9b7e84	0.018981226
238	0xbeb14cf8	-0.34629035
239	0x3d6c0fbe	0.0576322
240	0x3d9e5282	0.07730581
241	0x3d3b69d6	0.04575523
242	0xbd193c93	-0.037411284
243	0x3acfae43	0.0015844781
244	0xbd03d7a0	-0.032188058
245	0xbc1c2cb6	-0.009532144
246	0xbea417d2	-0.32049423
247	0xbde3854b	-0.11109408
248	0xbe1b0806	-0.1513978
249	0x3d8298a0	0.06376767
250	0xbe01e474	-0.12684804
251	0x3e293528	0.16524184
252	0x3adf941e	0.0017057692
253	0x3ca74077	0.020416481
254	0x3c11f6b0	0.008908913
255	0xbda9b56e	-0.08286558

net.2.bias f4 [60]
0	0x3ce3303e	0.027732965
1	0x3d431223	0.04762472
2	0x3bc28ad7	0.005936961
3	0xbc6709b2	-0.014101433
4	0xbd58b727	-0.052909043
5	0xbc6aec2c	-0.014338534
6	0xbc0cbedf	-0.008590429
7	0x3d77e582	0.06052161
8	0xbd866d64	-0.06563833
9	0xbd965624	-0.07340649
10	0x3d3e1d96	0.046414934
11	0x3dd4b24e	0.103855714
12	0xbdb35dcb	-0.08758124
13	0xbd2724ff	-0.040806767
14	0xbaaef718	-0.0013348786
15	0xbdbcdea4	-0.09222153
16	0x3d620830	0.05518359
17	0x3db04b34	0.08608094
18	0xbceafaf2	-0.028684113
19	0xbd2154c8	-0.039387494
20	0x3da65b4e	0.08122884
21	0xbdaad933	-0.08342209
22	0x3dc07f33	0.09399261
23	0xbd60b812	-0.054863043
24	0x3dad2d01	0.084558494
25	0x3ddd71b9	0.108127065
26	0x3d492a35	0.049112517
27	0xbdde2c05	-0.1084824
28	0x3cb1e677	0.02171634
29	0xbd07f969	-0.03319684
30	0xbdb03d67	-0.086054616
31	0xbcc2083a	-0.023685563
32	0x3be9e765	0.00713818
33	0x3dd99420	0.10623956
34	0xbdf763aa	-0.12079556
35	0x3dca51d9	0.098788925
36	0x3c9e0918	0.019291446
37	0x3dd64271	0.104618914
38	0xbb2c6805	-0.0026307118
39	0xbdb4cbf5	-0.08827964
40	0x3d4e7ef6	0.050414048
41	0xbd48e241	-0.049043898
42	0xbd9e7f8b	-0.07739171
43	0xbdd46563	-0.103709005
44	0xbd811853	-0.063034676
45	0xbdc8387e	-0.097764
46	0x3d3d54a1	0.046223287
47	0xbdc2df7a	-0.09515281
48	0x3d28b2e9	0.041186247
49	0xbdcc497a	-0.09974952
50	0xbe04eb53	-0.12980394
51	0x3dac2370	0.08405197
52	0xbdc7f338	-0.09763187
53	0xbbf93a60	-0.007605836
54	0x3d6c4c96	0.057690226
55	0x3dad7af1	0.08470715
56	0x3cf1c61b	0.02951341
57	0xbbf1fca2	-0.0073848525
58	0xbdb6827e	-0.08911608
59	0xbd1209e2	-0.035653956
