results of reviewer/XJTU results/2-2/Experiment7/model.pth (torch, 59838 bytes, 14 tensors)

encoder.net.0.weight f4 [60, 17]
0	0x3d7598ab	0.05996005
1	0xbdb764fd	-0.08954809
2	0xbd572f72	-0.05253548
3	0x3d7f58fe	0.06234073
4	0xbea26c56	-0.3172328
5	0x3d27f295	0.04100283
6	0x3c4c86c7	0.012483305
7	0x3ecd2df7	0.4007413
8	0xbb5b1a93	-0.0033432588
9	0xbe4a42e8	-0.19752085
10	0x3da2f672	0.07957162
11	0x3e4ae075	0.19812186
12	0xbd6ddb51	-0.058070485
13	0x3dd28597	0.102793865
14	0xbdd8ece5	-0.10592059
15	0x3e013b77	0.1262034
16	0x3da59ea1	0.08086897
17	0x3e1c1709	0.15243162
18	0x3e47bb2d	0.19504996
19	0xbe0b6635	-0.13613208
20	0x3ded3be2	0.11583687
21	0x3d1e2f98	0.038619608
22	0xbe6b4ee7	-0.22979318
23	0xbd0c8988	-0.034310848
24	0xbebe719a	-0.37196046
25	0x3dc0ca8d	0.094136335
26	0xbe3cbd48	-0.1843158
27	0x3e8b3136	0.27185982
28	0xbe5c63d8	-0.21522462
29	0xbdc651a9	-0.09683544
30	0x3e9f2ca2	0.3108874
31	0x3e93a5fc	0.28837574
32	0xbdd3504d	-0.103180505
33	0x3dadf2e1	0.08493591
34	0x3e27ee00	0.16399384
35	0xbe6de0fb	-0.23230354
36	0xbd27afd0	-0.040939152
37	0xbe31e505	-0.1737252
38	0xbe578963	-0.21048503
39	0x3d1e3701	0.038626675
40	0x3dc9737f	0.09836482
41	0xbe76fa9e	-0.2411904
42	0x3e3fac24	0.1871801
43	0xbe172644	-0.14760691
44	0x3dcfdd81	0.101496704
45	0x3df81196	0.12112729
46	0x3d88a285	0.06671623
47	0x3dcabe3b	0.09899565
48	0x3e84e6aa	0.25957233
49	0x3dd0974e	0.10185109
50	0x3daeb950	0.08531439
51	0xbd428e42	-0.04749895
52	0x3da68ead	0.08132682
53	0x3ebc76ad	0.36809292
54	0x3c8911e2	0.01673216
55	0xbd7325e3	-0.059362303
56	0x3de360e6	0.11102466
57	0x3e37f9ef	0.17966436
58	0xbe85fc2a	-0.26168948
59	0xbd4f283e	-0.050575487
60	0xba4f9989	-0.0007919302
61	0x3df93325	0.12167958
62	0x3dcdc5f8	0.10047525
63	0x3e11e984	0.14249235
64	0x3db2f93f	0.08738946
65	0x3c4194e8	0.011815287
66	0x3c9b2c0c	0.018941902
67	0x3c268efb	0.010165925
68	0xbe0009cd	-0.12503739
69	0xbcfe78ce	-0.031063464
70	0xb99c1f6c	-0.0002977805
71	0xbe189d2c	-0.14903706
72	0xbd988573	-0.074473284
73	0xbe6ff19f	-0.23432015
74	0x3cb7a51b	0.022417596
75	0x3e6be1b6	0.2303532
76	0xbe2e8a81	-0.17045023
77	0x3bb63ef0	0.005561702
78	0xbdc5c47b	-0.09656616
79	0x3e1fb10c	0.15594882
80	0x3cb96d9c	0.022635274
81	0xbddca018	-0.10772723
82	0xbdb88503	-0.09009745
83	0xbe40bd5f	-0.1882224
84	0xbd873054	-0.06601015
85	0x3e5a57e4	0.2132259
86	0xbea451e4	-0.32093728
87	0xbe87acc3	-0.26498994
88	0xbd8a044f	-0.06739103
89	0x3e647fdf	0.22314404
90	0xbcaafeae	-0.020873394
91	0xbd940ac3	-0.07228615
92	0x3db228bf	0.08699178
93	0xbc79b09c	-0.015239861
94	0x3e116603	0.1419907
95	0x3df53639	0.11973233
96	0x3e16b33a	0.14716807
97	0x3d05d2b5	0.03267165
98	0xbd6646fe	-0.056220047
99	0x3e303a04	0.17209631
100	0x3e42eec3	0.19036393
101	0xbdb0ed4d	-0.086390115
102	0xbe545e23	-0.20739035
103	0x3dc1038f	0.09424507
104	0xbd3d4c92	-0.0462156
105	0x3d149c18	0.036281675
106	0x3d96640a	0.073433
107	0xbdc58edc	-0.09646389
108	0xbc4b483a	-0.012407357
109	0x3deb1ea1	0.114804514
110	0xbe40d4a5	-0.18831117
111	0xbe4f02ad	-0.20215864
112	0x3da48480	0.08033085
113	0xbd070d70	-0.0329718
114	0x3e2e52e8	0.17023814
115	0xbbd630b0	-0.0065365657
116	0xbd8e0e06	-0.069362685
117	0x3e53f4cd	0.20698853
118	0x3d7255cd	0.059163857
119	0x3d8ff986	0.07030015
120	0xbc3a42d7	-0.011368475
121	0x3e22cc3d	0.15898223
122	0xbea3832a	-0.31936008
123	0x3da0a3e7	0.07843762
124	0xbde6f02e	-0.112762794
125	0x3eb741c9	0.35792378
126	0x3e6d33e0	0.2316432
127	0x3d8c449f	0.06849026
128	0x3cf01afb	0.02930974
129	0x3d141832	0.036155887
130	0x3dd2242b	0.10260805
131	0xbe783507	-0.24238978
132	0x3af161e9	0.001841602
133	0xbe3785b7	-0.17922102
134	0xbe130bf0	-0.14360023
135	0xbcd49feb	-0.025955161
136	0x3c9fbe32	0.019499872
137	0xbe262165	-0.16223677
138	0xbe557000	-0.20843506
139	0x3d922113	0.07135215
140	0xbe684601	-0.22682954
141	0xbb78e2bf	-0.0037976948
142	0xbda4212d	-0.0801414
143	0xbe2650f6	-0.16241822
144	0x3dba3d57	0.09093731
145	0x3dbaaaab	0.091145836
146	0xbcfc2520	-0.030779421
147	0xbdadc4c4	-0.08484796
148	0xbe86567b	-0.26237854
149	0x3e89a5d5	0.26884332
150	0xbd9f854c	-0.07789096
151	0xbd0786b3	-0.033087444
152	0x3dbccd25	0.09218816
153	0x3e01a235	0.12659533
154	0x3e1af3ff	0.1513214
155	0xbe1a3147	-0.1505786
156	0x3d77c98a	0.060494937
157	0xbe2dbe93	-0.1696723
158	0xbd0116f2	-0.031516023
159	0x3c1513a4	0.009098921
160	0xbe81df7a	-0.25365812
161	0x3e2125eb	0.15737121
162	0xbeb0e515	-0.34549776
163	0x3e2a2839	0.16616906
164	0xbe281b6c	-0.1641671
165	0x3dd0e535	0.10199968
166	0xbd2b2b14	-0.04178913
167	0xbd99c8ae	-0.0750898
168	0x3d8aa4c4	0.06769708
169	0x3dd34a72	0.10316934
170	0xbdabfc65	-0.0839775
171	0xbccc86ac	-0.02496656
172	0xbd7413ef	-0.059589323
173	0xbe575d88	-0.21031773
174	0xbebf6f4c	-0.373896
175	0x3cc16a85	0.023610363
176	0x3e950d0d	0.2911152
177	0xbe256e67	-0.16155396
178	0xbd9aacd7	-0.07552498
179	0x3d1c4646	0.038152955
180	0x3d8ff65c	0.07029411
181	0x3dc3a583	0.09553053
182	0x3cb6d7e8	0.022319749
183	0x3e724095	0.23657449
184	0x3e118288	0.1420995
185	0x3caf5a5a	0.021405388
186	0xbd669853	-0.05629761
187	0x3e24e735	0.16103823
188	0xbe153c4c	-0.14573783
189	0x3def9548	0.11698395
190	0x3e4d98ed	0.20077868
191	0x3da906d3	0.08253255
192	0xbe00369f	-0.12520836
193	0x3d9a1ecc	0.07525405
194	0x3bca710f	0.0061780284
195	0x3dd9e295	0.1063892
196	0x3e736bb8	0.2377156
197	0xbe095eb7	-0.13415037
198	0xbde19b4d	-0.110159494
199	0x3eb06127	0.3444912
200	0xbdb37be3	-0.08763864
201	0xbc499f1f	-0.012306004
202	0x3e07c0b7	0.13257109
203	0x3e094287	0.13404284
204	0xbe412300	-0.18861008
205	0x3d4f2a7d	0.05057763
206	0xbe2ae1a0	-0.16687632
207	0x3c884a16	0.01663689
208	0x3dce40aa	0.100709274
209	0xbcc9ad79	-0.024618851
210	0xbdded208	-0.10879904
211	0x3e1ac158	0.15112817
212	0x3e449f74	0.19201452
213	0xbe0a5042	-0.13507178
214	0x3e1a087c	0.15042299
215	0x3c57aee5	0.013164257
216	0xbe96006e	-0.29297203
217	0x3e071b38	0.13193977
218	0x3ce9f2f7	0.028558237
219	0x3d8efda1	0.069819696
220	0xbe065079	-0.13116635
221	0x3dcb6f95	0.09933392
222	0x3e07de3f	0.13268374
223	0x3e8a8497	0.27054283
224	0xbde028bf	-0.10945272
225	0x3e440046	0.1914073
226	0x3ce93f20	0.028472483
227	0xbdef788c	-0.11692914
228	0x3e857fe0	0.26074123
229	0x3dd86ebb	0.10567995
230	0x3df2ce46	0.1185575
231	0xbc8d4ee2	-0.017249528
232	0x3e646c18	0.2230686
233	0xbe2a01ee	-0.16602299
234	0xbe784fc3	-0.24249177
235	0xbe5b9682	-0.21444133
236	0x3d7c8822	0.061653264
237	0x3dbda487	0.09259897
238	0x3e858551	0.26078275
239	0x3e517e22	0.20458272
240	0xbd03a132	-0.03213615
241	0xbe08ec30	-0.13371348
242	0xbea88f44	-0.32921803
243	0x3caef4cf	0.021356968
244	0xbe5abe72	-0.21361712
245	0xbd9db3bb	-0.077002965
246	0x3e6f253c	0.23354048
247	0x3dc1c7b9	0.09461922
248	0x3dacdf3e	0.084410176
249	0xbc7f47e5	-0.015581106
250	0x3d310d95	0.043225843
251	0xbb2e0025	-0.002655038
252	0x3dedbe88	0.116086066
253	0xbe757da9	-0.23973717
254	0x3dcfcbb1	0.10146273
255	0x3e17fd80	0.14842796

encoder.net.0.bias f4 [60]
0	0xbd123478	-0.03569457
1	0xbc07a35d	-0.008278695
2	0x3c9519df	0.018200813
3	0xbd3199cc	-0.043359563
4	0x3abb2007	0.0014276513
5	0x3c713b93	0.014723676
6	0xbc8ec75e	-0.01742905
7	0x3c9763ad	0.018480146
8	0xbd0099e9	-0.03139678
9	0xbca72d0e	-0.020407226
10	0xbc79ded3	-0.015250879
11	0xbcc61d2c	-0.024183832
12	0xbc9a1c04	-0.018812187
13	0xbcd9b76a	-0.026576716
14	0xbd206789	-0.03916124
15	0xbcde23f1	-0.027116748
16	0x3ccfb43f	0.025354503
17	0x3d3115a4	0.04323353
18	0x3b8f1de2	0.004367576
19	0x3d145c63	0.03622092
20	0xbcca680c	-0.024707817
21	0xbc6757be	-0.01412004
22	0xbc437f28	-0.011932172
23	0xbc1d5ce1	-0.009604664
24	0xbb0ad62e	-0.002118479
25	0x3c2c03f9	0.010498994
26	0xbd5bc2c8	-0.053652555
27	0x3cf6da4f	0.030133395
28	0xbd340b86	-0.043956302
29	0x3cb8ec1f	0.022573529
30	0xbc5c2a20	-0.013437778
31	0xbbf5767a	-0.00749093
32	0xbbb74c59	-0.005593818
33	0xbce79097	-0.028267188
34	0xbca2e57c	-0.019884817
35	0xbc9f6883	-0.019459015
36	0xbd1e7dc6	-0.038694166
37	0xbcc07700	-0.023494244
38	0xbae02609	-0.0017101179
39	0xbd130d0e	-0.03590112
40	0xbd1a80ed	-0.03772061
41	0xbd003acc	-0.031306073
42	0xba8329ca	-0.0010006961
43	0x3d3d684e	0.04624205
44	0xbd904dff	-0.070461266
45	0x3c443e4c	0.011977743
46	0x38dfa25c	0.000106637104
47	0xbc07cc49	-0.0082884515
48	0x3d1651f4	0.03669925
49	0x3cdff036	0.027336221
50	0xbbed459b	-0.0072409636
51	0x3c107d06	0.00881887
52	0xbc94399d	-0.018093878
53	0xbd3897f0	-0.045066774
54	0xbd2a1949	-0.04152802
55	0x3bf5622d	0.00748851
56	0xbcc7b58a	-0.024378557
57	0x3c05db4d	0.008169961
58	0x3c9eaaf9	0.019368635
59	0xbc21599b	-0.009848024

encoder.net.2.weight f4 [60, 60]
0	0xbde19ca4	-0.11016205
1	0x3e77cd10	0.24199319
2	0xbb284e02	-0.0025681262
3	0x3e5159ca	0.20444408
4	0xbbaa139f	-0.0051903273
5	0x3e0ae7c2	0.13564971
6	0x3d0ffe16	0.035154425
7	0x3e112323	0.1417356
8	0xbe0db035	-0.13836749
9	0xbe28cbcb	-0.16483991
10	0x3d1c6e11	0.038190905
11	0x3b98f630	0.0046680197
12	0xbe131682	-0.14364055
13	0xbda229b7	-0.07918113
14	0x3bf40e79	0.0074480143
15	0xbd78652f	-0.06064337
16	0xbd44cc0e	-0.048046164
17	0x3e1c877e	0.15286061
18	0xbe1da11c	-0.1539349
19	0x3d4c8901	0.049935345
20	0xbe49ef28	-0.19720137
21	0xbe6c03af	-0.2304828
22	0x3de396f9	0.1111278
23	0x3d371c3b	0.044704657
24	0x3d2d2f83	0.04228164
25	0xba835f77	-0.0010022958
26	0xbd349041	-0.044082884
27	0xbcac62eb	-0.021043262
28	0xbb89092f	-0.004182003
29	0xbc97a752	-0.018512402
30	0x3dc9236a	0.09821208
31	0xbe0e59f3	-0.139015
32	0x3e25358a	0.16133705
33	0x3e834e52	0.2564569
34	0x3d69f37e	0.057116978
35	0xbd529eb5	-0.051420886
36	0xbe8813aa	-0.26577502
37	0xbde57438	-0.112038076
38	0x3d654aa2	0.05597938
39	0xbe994eba	-0.29942876
40	0xbe8d7e2f	-0.27635333
41	0xbda11a55	-0.078663506
42	0x3ca1b38e	0.019738939
43	0x3df626db	0.1201913
44	0xbe12086d	-0.14261027
45	0x3dabf72a	0.08396752
46	0xbe792cee	-0.24333546
47	0x3cb39557	0.021921797
48	0xbd41cf96	-0.04731711
49	0xbe9820de	-0.29712576
50	0xbe301fc5	-0.17199619
51	0x3e3eb0a1	0.18622066
52	0xbc7103bd	-0.014710364
53	0x3c90e9cc	0.017689608
54	0xbd8488a4	-0.06471375
55	0x3dd87f67	0.10571175
56	0xbd64185b	-0.05568729
57	0xbd60d88b	-0.05489401
58	0x3df0df5c	0.117613524
59	0xbe002227	-0.12513028
60	0x3c23427e	0.009964583
61	0xbd6caf59	-0.057784412
62	0xbe1b2dc1	-0.15154172
63	0xbcd1ea49	-0.025624411
64	0x3deba3d1	0.11505855
65	0x3d7775f2	0.060415216
66	0x3c34e204	0.011040214
67	0x3d8e472f	0.06947171
68	0xbd211a95	-0.03933199
69	0x3dd162bd	0.10223911
70	0x3da8e644	0.08247045
71	0xbd77232d	-0.06033628
72	0xbd070870	-0.03296703
73	0xbde454b3	-0.111489676
74	0xbbdce7b4	-0.0067414884
75	0x3e2733a1	0.16328289
76	0xbd22a179	-0.039704774
77	0xbe297610	-0.16548944
78	0x3d0abc85	0.033871192
79	0x3de87fd5	0.11352507
80	0x3dbb67ed	0.09150682
81	0x3e309f4f	0.17248271
82	0x3cb5b14c	0.022179268
83	0x3d09a2b4	0.03360243
84	0x3dbb2e85	0.09139732
85	0x3d928b5a	0.071554855
86	0xbe6ae578	-0.22939098
87	0xbc28bf15	-0.010299464
88	0x3dc92256	0.09821002
89	0xbdc9c742	-0.098524585
90	0x3ddf5d8d	0.10906515
91	0xbcf047de	-0.029331144
92	0x3e9fc860	0.31207561
93	0x3e11d41d	0.14241071
94	0x3c44b855	0.012006839
95	0xbea3a9cf	-0.3196549
96	0x3e0e9560	0.1392417
97	0x3df71403	0.12064364
98	0xbe666cfc	-0.22502512
99	0xbc80a0d6	-0.015701693
100	0xbc04be7c	-0.008102056
101	0x3c63a73d	0.013894853
102	0xbd27a6fd	-0.040930737
103	0xbd8fc548	-0.0702005
104	0x3cad3a42	0.021145944
105	0x3dcf8154	0.10132089
106	0xbdb189ed	-0.086688854
107	0x3cf0961a	0.029368449
108	0xbd4c4902	-0.049874313
109	0x3d2257ff	0.0396347
110	0xbdacbd80	-0.08434582
111	0x3e40062f	0.18752359
112	0xbd116763	-0.035498988
113	0x3ddf797a	0.10911842
114	0xbe1e05f8	-0.15431964
115	0x3e09787f	0.13424872
116	0x3d90e679	0.07075209
117	0x3d0bad2b	0.034100693
118	0xbdbdb755	-0.092634834
119	0x3da0c283	0.078496
120	0xbd810b66	-0.06301002
121	0xbe210891	-0.15725924
122	0x3d0eb2d5	0.034838516
123	0xbd325e15	-0.043546755
124	0x3ddf5962	0.1090572
125	0x3d7e9b31	0.06215972
126	0x3ea0130d	0.31264535
127	0x3e8380c9	0.25684193
128	0x3d254ef6	0.040358506
129	0x3e8ea71d	0.27861872
130	0xbbd9d55a	-0.006647748
131	0x3e6dfb48	0.23240387
132	0x3d536974	0.05161424
133	0x3e10a101	0.14123918
134	0x3cc6a538	0.024248704
135	0x3db64f6b	0.089018665
136	0xbde9c52a	-0.11414559
137	0xbdd6ce59	-0.104885764
138	0xbe6bb97b	-0.23019974
139	0x3e2a3012	0.166199
140	0x3e165a55	0.14682896
141	0xbd7b99f8	-0.061426133
142	0xbca138c5	-0.01968039
143	0x3e41465f	0.188745
144	0xbdd49b5c	-0.10381195
145	0x3d78ef05	0.06077482
146	0xbe08adf7	-0.13347612
147	0xbe070d98	-0.1318878
148	0x3e407d00	0.18797684
149	0x3ceb1a54	0.028699078
150	0xbd997994	-0.07493892
151	0xbbf94e17	-0.007608186
152	0xbe120f93	-0.14263754
153	0x3e3921f0	0.18079352
154	0x3e4c9dbe	0.19982049
155	0xbde252eb	-0.110509716
156	0xbdc9971d	-0.09843276
157	0x3d9d79f1	0.07689274
158	0x3d84bb12	0.06480993
159	0x3d371eba	0.044707038
160	0x3d212273	0.039339494
161	0xbdef9edd	-0.11700223
162	0x3e463815	0.19357331
163	0xbd49b89e	-0.04924833
164	0xbe03498f	-0.12821029
165	0x3c824b20	0.015904963
166	0xbe687807	-0.22702037
167	0x3e33942b	0.1753699
168	0x3db616e0	0.08891082
169	0x3d8b4c82	0.06801702
170	0xbea36c39	-0.31918505
171	0x3c04c3b9	0.008103305
172	0xbd9094a1	-0.07059599
173	0x3c899482	0.016794447
174	0xbcc8bc50	-0.024503857
175	0xbe352e74	-0.17693502
176	0x3e521c86	0.20518693
177	0x3da66901	0.08125497
178	0xbe584949	-0.21121706
179	0xbde76c45	-0.11299948
180	0x3c98c2b4	0.01864753
181	0x3d81bda5	0.06335
182	0xbd336b7b	-0.043803673
183	0x3edb8d42	0.4288121
184	0xbced047b	-0.0289328
185	0xbd2f5b9f	-0.042811986
186	0x3ea7289d	0.32648173
187	0x3ddb1213	0.10696807
188	0x3d26c70e	0.040717177
189	0xbdc19c13	-0.09453597
190	0xbe6a5d0b	-0.22887056
191	0xbc124fcf	-0.008930161
192	0xbd025125	-0.031815667
193	0xbde17fff	-0.110107414
194	0x3cc7f71b	0.024409821
195	0x3ae59528	0.0017515766
196	0xbd5d496c	-0.0540251
197	0xbdc7e598	-0.097605884
198	0xbe2bae86	-0.16765794
199	0xbd821b65	-0.06352881
200	0xbe8be246	-0.2732107
201	0x3d21c87e	0.039497845
202	0xbdb68457	-0.089119606
203	0xbddc9466	-0.10770492
204	0xbd1f45d7	-0.038884964
205	0xbd23eca9	-0.04002062
206	0x3d31de18	0.043424696
207	0xbcb57833	-0.022152042
208	0xbd437a6b	-0.04772417
209	0x3e3b6f09	0.18304075
210	0xbd978000	-0.07397461
211	0xbe87298c	-0.26398885
212	0x3ba960a7	0.0051689926
213	0x3da63ae2	0.081167
214	0x3c22eb60	0.009943813
215	0x3dc0f4f2	0.094217196
216	0x3bd300f9	0.006439325
217	0xbe1fd13a	-0.15607157
218	0x3cfea3f8	0.031084046
219	0xbdf5ed7a	-0.12008186
220	0xbd48ebb4	-0.04905291
221	0xbc8758ab	-0.016521772
222	0x3e353614	0.1769641
223	0x3d89bfc4	0.067260295
224	0xbc506d61	-0.01272139
225	0xbdfe9ec0	-0.12432623
226	0xbe151a3d	-0.1456079
227	0x3a83964f	0.0010039302
228	0xbd914fdc	-0.0709531
229	0x3d5fb015	0.054611284
230	0x3d5cc756	0.05390104
231	0x3e0e08c3	0.1387053
232	0x3e074225	0.13208826
233	0xbc6ef4df	-0.014584749
234	0x3e443dfe	0.19164273
235	0x3d53ec45	0.051738996
236	0x3e93e459	0.28885153
237	0x3e065bf2	0.13121012
238	0xbe455f80	-0.19274712
239	0x3d07be5f	0.033140536
240	0x3e09794b	0.13425176
241	0x3d4a7386	0.049426578
242	0x3c3df2a8	0.011593498
243	0xbd814f9b	-0.06314012
244	0x3dbda68d	0.09260283
245	0xbdcb3485	-0.09922127
246	0xbd436254	-0.047701195
247	0xbe1719f2	-0.14755991
248	0x3d15169e	0.036398523
249	0x3d58b872	0.052910276
250	0x3a0039a8	0.0004891404
251	0x3c12104b	0.008915017
252	0xbdd5d4b9	-0.10440964
253	0x3d614fff	0.05500793
254	0xbe88ceae	-0.26720184
255	0xbd973df1	-0.07384861

encoder.net.2.bias f4 [60]
0	0x3cdec78f	0.027194766
1	0xbca1cb5a	-0.019750286
2	0xbd01395c	-0.031548843
3	0x3cf81ac1	0.030286195
4	0xbc2fbda1	-0.010726363
5	0xbcc65595	-0.02421073
6	0x3caf8f31	0.021430584
7	0xbd08c3b4	-0.033389762
8	0xbd37e815	-0.044899065
9	0xbcac448c	-0.02102878
10	0x3c81ffa0	0.015868962
11	0x3ccdae70	0.025107592
12	0xbccd213d	-0.025040263
13	0x3cb1ff19	0.021728085
14	0xbcb2d9fc	-0.021832459
15	0x3cf1141b	0.029428532
16	0xbc93d71c	-0.018046908
17	0xbd01049a	-0.03149853
18	0x3c3920a1	0.011299283
19	0x3cc5c591	0.024142059
20	0xb8fc23da	-0.00012022974
21	0x3cf6d95d	0.030132944
22	0x3c903e4b	0.017607829
23	0xbc0667fa	-0.008203501
24	0x3cbfa70a	0.02339508
25	0x3ca9f145	0.02074493
26	0x3ca7c76d	0.020480836
27	0xbbe1c990	-0.006890483
28	0xbd43a151	-0.047761265
29	0x3c843c88	0.016142145
30	0xbcf8c861	-0.030368986
31	0x3c1c436e	0.009537561
32	0x3c5e7f28	0.013580121
33	0xbcdb8773	-0.026797986
34	0x3a82cda6	0.0009979501
35	0xbcc54f55	-0.02408568
36	0xbcdb17c8	-0.026744738
37	0x3cd26de0	0.025687158
38	0xbc868b93	-0.016423976
39	0x3c725eb4	0.014793087
40	0xbc8580a3	-0.01629669
41	0x3d156deb	0.03648178
42	0x3c8aff49	0.016967433
43	0x3b9b97bb	0.0047483123
44	0xbcad0821	-0.02112204
45	0x397f06c2	0.00024321213
46	0xbac44be1	-0.0014976227
47	0xbc8de283	-0.017319923
48	0x3bb49395	0.005510757
49	0xbc4682e2	-0.012116166
50	0xbd3f0546	-0.04663589
51	0x3d1880e4	0.037232295
52	0x3cd79cba	0.02631985
53	0x3d027fcf	0.03186017
54	0xbd14db47	-0.03634193
55	0xbcb0e630	-0.021594137
56	0xbd45017c	-0.04809712
57	0xbc05a054	-0.008155901
58	0xbca6d1c8	-0.020363703
59	0x3d0a1f20	0.03372109

encoder.net.5.weight f4 [32, 60]
0	0x3d6b5292	0.057451792
1	0x3e60446e	0.21901104
2	0xbe6216b0	-0.22078967
3	0x3de151d7	0.11001938
4	0x3e81ae89	0.25328472
5	0xbe3437ae	-0.17599365
6	0xbd2c1a25	-0.04201712
7	0xbde071ad	-0.10959182
8	0xbde68b48	-0.112570345
9	0x3d8361e3	0.06415155
10	0xbe4d034b	-0.20020787
11	0x3d0fd680	0.035116673
12	0xbd472585	-0.048619766
13	0xbb88a25a	-0.0041697444
14	0xbd82dea5	-0.06390122
15	0x3dda609b	0.10662957
16	0x3e0ce89f	0.13760613
17	0xbe29921d	-0.16559644
18	0x3dfc8306	0.12329678
19	0x3db2b8bc	0.087266415
20	0xbcfffb8d	-0.031247878
21	0x3e206d86	0.1566678
22	0xbe278319	-0.16358604
23	0xbe979577	-0.2960622
24	0xbd81a822	-0.06330897
25	0xbd6a5b69	-0.05721608
26	0xbd7680f0	-0.060181558
27	0x3dcc1316	0.09964578
28	0x3e1eb7dd	0.15499826
29	0x3b0dcb1c	0.0021635955
30	0x3dd4079a	0.103530124
31	0xbe192caf	-0.14958452
32	0xbe6ce679	-0.23134793
33	0xbe824f74	-0.25451243
34	0xbd253f3f	-0.04034352
35	0x3e27c4f2	0.16383722
36	0xbdf45e2a	-0.11932023
37	0x3dc8214c	0.09771976
38	0xbe61383b	-0.21994106
39	0x3d8b1520	0.06791139
40	0x3d45e4fb	0.048314076
41	0xbda7195a	-0.08159132
42	0x3e08a8bb	0.13345616
43	0x3e046223	0.12928061
44	0xbd0d5abd	-0.034510363
45	0x3c0b2b3d	0.0084941955
46	0xbd5c42a6	-0.0537745
47	0xbdbb3eba	-0.091428235
48	0xbe4c7131	-0.19965054
49	0x3d5e0e40	0.05421281
50	0x3e9a77db	0.30169567
51	0x3e0cfb1c	0.13767666
52	0xbd7e8dc0	-0.062146902
53	0xbd876c44	-0.06612447
54	0x3e15466f	0.1457765
55	0x3ebb9371	0.36635926
56	0x3e032578	0.12807262
57	0xbe3e5094	-0.18585426
58	0x3ddb4f10	0.10708439
59	0x3dedf03e	0.11618088
60	0xbe0e9e83	-0.13927655
61	0x3c552148	0.013008423
62	0xbe42b250	-0.19013333
63	0x3d2dae62	0.042402633
64	0xbd9bfcd6	-0.07616584
65	0x3e4b6205	0.1986161
66	0x3e4ab11a	0.19794121
67	0xbe2a8368	-0.1665169
68	0x3c202224	0.009773765
69	0x3d89d0e2	0.06729294
70	0xbd30424e	-0.043031983
71	0x3dafd261	0.085850485
72	0x3d7bd877	0.061485734
73	0xbd57a145	-0.052644033
74	0xbdcbb8d1	-0.0994736
75	0xbd89707a	-0.06710906
76	0x3e1e4d7d	0.15459247
77	0xbe736668	-0.23769534
78	0x3d4ff8e3	0.050774466
79	0xbdfb9fce	-0.1228634
80	0xbdce889e	-0.100846514
81	0x3e1efecc	0.15526885
82	0xbe1045cf	-0.1408913
83	0xbd6d2522	-0.05789674
84	0x3cc2aa23	0.023762768
85	0x3dcd6db1	0.100306876
86	0xbe836b76	-0.25667924
87	0x3d03761e	0.032095067
88	0xbdf7d5d7	-0.121013336
89	0xbd92612d	-0.07147441
90	0xbd908c2f	-0.07057988
91	0xbde8b40d	-0.11362467
92	0x3e001aae	0.12510177
93	0x3ddfa4cf	0.109201066
94	0x3e49c898	0.19705427
95	0x3e347588	0.1762296
96	0xbe80d98a	-0.2516597
97	0xbd550467	-0.05200615
98	0x3d79b5f2	0.060964532
99	0xbe49c94e	-0.19705698
100	0x3df63d8f	0.1202346
101	0xbe0588c6	-0.13040456
102	0xbe9e3ff6	-0.30908173
103	0xbdb74147	-0.089479975
104	0xbe659423	-0.22419791
105	0xbea5e5cf	-0.32401893
106	0x3e0c2888	0.13687336
107	0xbca5e41a	-0.020250369
108	0xbd170664	-0.03687133
109	0xbe01e695	-0.12685616
110	0x3d41a75e	0.047278754
111	0xbd557ee3	-0.05212296
112	0x3e2dbb14	0.16965896
113	0xbbf0f062	-0.0073528746
114	0x3c5e59d7	0.013571224
115	0xbe3fc863	-0.18728785
116	0x3db3d7f2	0.08781423
117	0x3e22b650	0.15889859
118	0x3d114fdd	0.035476554
119	0xbc4440d9	-0.0119783515
120	0xbd285d93	-0.041104864
121	0xbd7404e2	-0.05957497
122	0x3d1325c0	0.035924673
123	0xbe0c62c0	-0.13709545
124	0x3e5bea38	0.21476066
125	0x3de00b6c	0.109396785
126	0xbddde4c5	-0.1083465
127	0x3d603225	0.05473532
128	0xbd4201a9	-0.047364864
129	0xbdbc7826	-0.09202604
130	0x3e0e1f86	0.13879213
131	0x3d2b025e	0.041750304
132	0x3e427059	0.1898817
133	0xbe39c979	-0.18143262
134	0x3d1756e6	0.036948107
135	0x3e0d59c6	0.13803777
136	0x3db0d4d4	0.08634344
137	0x3c68ec8a	0.014216552
138	0xbe331bd6	-0.17491087
139	0x3e6a9021	0.22906543
140	0xbe139373	-0.14411716
141	0x3d91bae2	0.07115723
142	0xbd8ae227	-0.067814164
143	0x3d9199b6	0.07109396
144	0xbdbde72c	-0.09272608
145	0xbd06cf3e	-0.032912485
146	0xbe2dd6a7	-0.16976415
147	0xbbaf6396	-0.0053524477
148	0xbd98d30d	-0.0746213
149	0xbdbe5ef1	-0.092954524
150	0x3ce8fc10	0.028440505
151	0xbe56107a	-0.20904723
152	0xbdcaa82e	-0.09895359
153	0x3e10fc53	0.14158754
154	0xbeb85726	-0.3600399
155	0x3c834756	0.016025227
156	0x3befa426	0.007313269
157	0xbc024ff0	-0.007953629
158	0xbdf64d8b	-0.12026509
159	0xbe337e4d	-0.17528649
160	0x3df00f9c	0.11721727
161	0xbc3962f5	-0.011315097
162	0xbd09c432	-0.033634372
163	0xbaf98a26	-0.0019038364
164	0x3e363b6d	0.17796107
165	0x3df63f80	0.120238304
166	0x3db4c4cf	0.08826601
167	0xbcf9a338	-0.030473337
168	0x3e81e0b0	0.25366735
169	0x3d865280	0.065587044
170	0xbe50f217	-0.2040485
171	0x3dc3fa21	0.09569193
172	0xbe7df41f	-0.24800156
173	0x3e2ac3c8	0.16676247
174	0xbe014dfb	-0.12627403
175	0x3ddd0602	0.107921615
176	0xbddd82e7	-0.10815983
177	0xbd1500d8	-0.036377758
178	0xbd3be815	-0.045875628
179	0x3e0d3693	0.1379035
180	0xbc2f4eda	-0.010699952
181	0x3e04f014	0.12982208
182	0x3da6cc7c	0.08144471
183	0xbdd14d8c	-0.10219869
184	0xbb34512d	-0.0027514205
185	0xbd17b758	-0.037040085
186	0x3e8139e2	0.25239474
187	0xba431e4f	-0.0007443176
188	0x3d2b1f03	0.041777622
189	0xbe755b7e	-0.23960683
190	0x3e31b01b	0.17352335
191	0x3bdb6419	0.006695282
192	0xbe0d6538	-0.13808143
193	0x3e4e9cee	0.20177051
194	0xbc54e787	-0.012994654
195	0xbe1e21f8	-0.15442646
196	0x3d645520	0.055745244
197	0x3caab015	0.020835916
198	0x3d652c8f	0.055950698
199	0xbe639325	-0.222241
200	0xbd0ab854	-0.033867195
201	0x3e521395	0.20515282
202	0xbda54083	-0.08068945
203	0xbde339a0	-0.110949755
204	0xbdc57051	-0.09640563
205	0xbcae0ee6	-0.021247339
206	0x3d70a17b	0.05874775
207	0x3dc24722	0.09486224
208	0x3d7d5e7e	0.061857693
209	0x3d683d1c	0.056698903
210	0x3d36ca25	0.044626374
211	0xbdb7560d	-0.0895196
212	0xbd9ec8f8	-0.077531755
213	0xbdd94500	-0.10608864
214	0xbdc205e2	-0.09473778
215	0xbe96fd04	-0.2948991
216	0x3df53258	0.11972493
217	0x3da466f8	0.08027452
218	0xbe534db0	-0.20635104
219	0xbcdee2f3	-0.027207827
220	0x3cb9d9de	0.022686895
221	0xbd96d40b	-0.07364663
222	0x3e196f79	0.1498393
223	0x3edae4b0	0.427526
224	0xbb50286c	-0.0031762375
225	0xbe51d2ec	-0.20490617
226	0xbc9b6d81	-0.018973114
227	0xbe26110f	-0.16217445
228	0x3e0f0691	0.13967349
229	0x3e24bd6f	0.16087888
230	0xbd0cfc9d	-0.0344206
231	0xbe0e53a0	-0.13899088
232	0xbe95527c	-0.29164493
233	0x3d8f454f	0.069956414
234	0xbd3b8afb	-0.04578684
235	0xbdd9e43f	-0.106392376
236	0x3bf088b6	0.007340516
237	0x3dc62314	0.09674659
238	0x3dfa9d8b	0.1223708
239	0xbd75f268	-0.06004563
240	0x3dd327cb	0.10310324
241	0xbda24517	-0.07923334
242	0xbe1eee95	-0.155207
243	0xbd8f731e	-0.07004379
244	0xbdd5636f	-0.10419356
245	0xbd52f88b	-0.05150656
246	0xbd40f479	-0.047108147
247	0x3d42c8b1	0.047554675
248	0x3de2e47c	0.11078736
249	0x3d5914c5	0.052998323
250	0x3d157b72	0.03649468
251	0x3e5cee61	0.2157531
252	0xbc8da650	-0.017291218
253	0xbd9534d6	-0.07285468
254	0x3e06fc4a	0.13182178
255	0x3da875d1	0.08225597

encoder.net.5.bias f4 [32]
0	0xbd3781b3	-0.044801425
1	0x3d1d7b7f	0.038447853
2	0xbcf8450c	-0.030306362
3	0x3d2249ce	0.039621167
4	0xbd32d622	-0.043661244
5	0x3c2d9897	0.010595462
6	0xbd283d5b	-0.041074138
7	0xbd5b794e	-0.053582482
8	0xbca6c3b7	-0.020356996
9	0x3d15049c	0.03638135
10	0xbd148c38	-0.036266536
11	0xbd14a575	-0.036290605
12	0xbc6814a4	-0.014165077
13	0x3cb8411e	0.022491988
14	0xbd25b12b	-0.040452164
15	0x3d2f40db	0.04278646
16	0x3d0b1ead	0.0339648
17	0x3d251a23	0.04030813
18	0xbd6ff5fd	-0.058584202
19	0xbd18afd0	-0.037277043
20	0x3cf78d29	0.030218678
21	0xbd3ad5bc	-0.04561399
22	0xbcff8639	-0.031191932
23	0x3d14dbf3	0.036342572
24	0xbd1ffccf	-0.039059456
25	0x3d3db3fe	0.046314232
26	0x3cc7b8aa	0.024380047
27	0xbd207740	-0.039176226
28	0xbd400a2c	-0.0468847
29	0x3d10014e	0.035157494
30	0xbd289364	-0.041156188
31	0x3d6e9172	0.058244176

predictor.net.1.weight f4 [32, 32]
0	0xbdf0ff0f	-0.117673986
1	0xbdfe5ce3	-0.124200605
2	0x3e0f4991	0.13992907
3	0x3dbd22d6	0.0923516
4	0xbd548d9d	-0.051892865
5	0x3d79d45d	0.06099354
6	0x3e5b9b46	0.21445951
7	0xbe490d12	-0.19633892
8	0xbdd09cf8	-0.101861894
9	0x3eed6d13	0.4637228
10	0x3e187ece	0.14892122
11	0xbcf42302	-0.02980185
12	0xbdd74d24	-0.1051276
13	0x3e6c4a7e	0.23075292
14	0x3dc02ff4	0.09384146
15	0x3e4f5881	0.20248605
16	0xbe375992	-0.17905262
17	0x3dbab71c	0.091169566
18	0x3e3e6467	0.18592988
19	0xbc968781	-0.01837516
20	0xbe16863c	-0.14699644
21	0xbe40bbeb	-0.18821685
22	0x3e4e2847	0.20132552
23	0x3da96ae2	0.082723394
24	0xbe0dafff	-0.13836668
25	0xbd8ab693	-0.067731045
26	0x3d9deb36	0.077108786
27	0x3ec32fd7	0.38122436
28	0x3df052b2	0.11734523
29	0x3e2d3a11	0.16916682
30	0xbe4e7578	-0.20161998
31	0x3e4b358e	0.19844648
32	0xbcc836bf	-0.024440167
33	0x3db4a47a	0.08820434
34	0x3993570c	0.0002810288
35	0xbe291771	-0.16512848
36	0x3e975ab0	0.29561377
37	0xbda76c3d	-0.08174942
38	0x3d48b47e	0.049000256
39	0x3c29bc01	0.010359765
40	0x3e84e39c	0.25954902
41	0xbe2f8dfe	-0.1714401
42	0x3e43439a	0.19068757
43	0x3e4c6c26	0.1996313
44	0x3ee860f3	0.45386466
45	0x3d524f7c	0.051345333
46	0xbbeede3a	-0.007289675
47	0xbd9d1492	-0.07669939
48	0xbe4cd79c	-0.20004123
49	0xbd9b400d	-0.07580576
50	0xbdc64a60	-0.09682155
51	0x3e6c8da9	0.23100914
52	0xbe62de4f	-0.22155116
53	0xbe119379	-0.14216413
54	0xbe257731	-0.16158749
55	0xbd4fd47d	-0.050739754
56	0xbd22737b	-0.039660912
57	0x3e1e57d9	0.15463199
58	0xbe06c828	-0.13162291
59	0x3e0f9a31	0.14023663
60	0xbe42b16a	-0.1901299
61	0x3da95368	0.082678616
62	0x3ea72525	0.32645527
63	0xbe8797e7	-0.2648308
64	0x3de5c4d9	0.11219186
65	0xbb06173a	-0.0020460621
66	0x3b73266c	0.0037101759
67	0xbe19c6aa	-0.1501719
68	0xbd4fca07	-0.050729778
69	0x3c887ee0	0.016662061
70	0xbddd085d	-0.10792611
71	0x3e73d05f	0.23809956
72	0x3d9cd854	0.07658449
73	0xbddeaaa3	-0.1087239
74	0xba5560ce	-0.000813973
75	0x3d1dcd57	0.038525905
76	0xbe1e4cc5	-0.15458973
77	0xbe738917	-0.23782764
78	0x3e8a9466	0.27066344
79	0x3e1910e3	0.14947848
80	0xbe1d9e64	-0.15392452
81	0xbdc171f0	-0.0944556
82	0x3c5351b9	0.012897902
83	0x3e5768a9	0.21036018
84	0xbe8a4ed2	-0.2701326
85	0xbe54b9bd	-0.20773979
86	0x3dec9b2a	0.11553033
87	0xbec0032e	-0.37502426
88	0xbd77b65f	-0.060476657
89	0xbe0c4991	-0.13699938
90	0xbd78d7a1	-0.060752515
91	0xbdf5fcd5	-0.120111145
92	0xbd925c8a	-0.07146557
93	0x3e5264de	0.2054629
94	0xbcc80458	-0.024416134
95	0xbc54c492	-0.012986319
96	0xbbf1ed0e	-0.0073829954
97	0x3dd3f79a	0.103499606
98	0x3daa99ee	0.08330141
99	0x3eb1122d	0.3458418
100	0x3aa35cbd	0.0012463551
101	0xbdf42baf	-0.119223945
102	0xbe0931ae	-0.13397858
103	0xbd1f1b01	-0.038844112
104	0x3e2463cc	0.16053694
105	0x3dd404eb	0.103525005
106	0xbe2a061f	-0.16603898
107	0xbd89cbef	-0.0672835
108	0xbdc1b5ba	-0.0945849
109	0x3dcba1dd	0.09942982
110	0x3d6e5d73	0.05819459
111	0x3e3e789a	0.18600693
112	0x3e192f03	0.1495934
113	0xbddee278	-0.10883039
114	0xbe81d1d1	-0.2535539
115	0xbd79b076	-0.060959302
116	0x3d5e0b30	0.054209888
117	0x3e1edc77	0.15513788
118	0x3ba37e40	0.0049894154
119	0x3e541a75	0.20713218
120	0xbecffcec	-0.40622652
121	0x3e168761	0.1470008
122	0x3e696dee	0.22795841
123	0x3cdc10d1	0.026863487
124	0x3ca94add	0.02066558
125	0xbe8782a9	-0.26466873
126	0x3d988319	0.0744688
127	0x3e1fc768	0.15603411
128	0x3e464c4d	0.19365044
129	0xbba4a72a	-0.0050248103
130	0x3d9b5a18	0.075855434
131	0x3e9c5aa8	0.30537915
132	0xbc8f00bd	-0.017456407
133	0xbce159c4	-0.027508624
134	0x3f1e89b0	0.61928844
135	0xbce63392	-0.028100763
136	0xbe9f912a	-0.3116544
137	0xbed02212	-0.40650994
138	0x3e11db70	0.14243865
139	0xbe7f6c29	-0.24943604
140	0xbdc5ef4b	-0.09664782
141	0x3e3fa86d	0.18716593
142	0x3e4fad61	0.20280983
143	0xbca1bd65	-0.01974363
144	0x3e67e6fd	0.22646709
145	0xbdb9d600	-0.090740204
146	0x3dd8233c	0.105535954
147	0xbee0854a	-0.4385169
148	0x3ac90052	0.0015335178
149	0xbd1ca640	-0.038244486
150	0x3e57515b	0.21027128
151	0x3d8967fc	0.067092866
152	0x3de5cf78	0.11221212
153	0x3d516981	0.051126007
154	0x3ea619ae	0.32441467
155	0x3d68b8be	0.05681681
156	0xbdea40dd	-0.11438153
157	0x3e455f68	0.19274676
158	0x3e0e1ca6	0.13878116
159	0xbebc0cd2	-0.3672853
160	0x3d838ba8	0.06423122
161	0x3e005935	0.1253403
162	0x3e3a9be4	0.1822353
163	0xbce4aa10	-0.027913123
164	0xbdcb2d32	-0.0992073
165	0x3caa3681	0.020777943
166	0x3d5b397f	0.05352163
167	0xbd3067db	-0.043067794
168	0xbdf6624c	-0.120304674
169	0x3e124e2f	0.14287637
170	0xbe150419	-0.14552344
171	0xbe862ceb	-0.26206145
172	0xbd4514fd	-0.04811572
173	0xbd587387	-0.05284455
174	0x3d84d519	0.06485958
175	0xbeda0964	-0.4258529
176	0x3f0e9367	0.5569367
177	0xbe116827	-0.14199887
178	0x3ddf3800	0.10899353
179	0x3a376577	0.00069960154
180	0x3e403782	0.18771175
181	0x3e19b77b	0.15011398
182	0xbdf7dac7	-0.12102275
183	0xbcdc9d09	-0.026930349
184	0xbde7519e	-0.11294864
185	0x3e337776	0.1752604
186	0x3e87ab84	0.26498044
187	0x3e77901b	0.24176066
188	0x3debda2b	0.115162216
189	0x3e50731e	0.20356414
190	0x3e30918a	0.17243019
191	0xbe028035	-0.1274422
192	0x3d9768ff	0.07393073
193	0x3e966cdb	0.29379925
194	0xbe69d7c2	-0.22836211
195	0xbe04b3a3	-0.12959151
196	0xbcc25164	-0.02372045
197	0xbda30569	-0.07960016
198	0x3bb9e63e	0.005673199
199	0x3e922de2	0.2855063
200	0x3b29c0c1	0.0025902244
201	0x3d548043	0.051880132
202	0x3e00ee5f	0.12590931
203	0x3e61d7f0	0.2205503
204	0xbe9409ef	-0.2891383
205	0xbe31fa9d	-0.17380758
206	0xbc7d5e2c	-0.015464347
207	0xbe339052	-0.17535523
208	0xbe673932	-0.22580412
209	0xbde2535d	-0.110510565
210	0xbc0bb8d5	-0.008527954
211	0x3d8750b1	0.066071875
212	0x3e0798a8	0.13241827
213	0x3c268dab	0.010165612
214	0xbe02e668	-0.12783206
215	0xbe1e474c	-0.15456885
216	0xbb4ba11e	-0.0031071375
217	0x3de021ea	0.109439686
218	0xbe80b759	-0.25139883
219	0xbe87b527	-0.26505396
220	0x3d99ab08	0.07503325
221	0x3e67f65b	0.22652571
222	0xbd877219	-0.06613559
223	0x3e8bd2b2	0.27309185
224	0xbe405f35	-0.18786319
225	0x3e065cc6	0.13121328
226	0x3d8acc12	0.067772046
227	0xbdabac71	-0.083825
228	0xbd9c274d	-0.076246835
229	0xbd32505e	-0.043533675
230	0xbeb3cecf	-0.3511872
231	0xbde7b5c0	-0.11313963
232	0xbe057865	-0.13034208
233	0x3da9f379	0.08298392
234	0xbd96e00a	-0.07366951
235	0xbe29d301	-0.16584398
236	0x3de79498	0.11307639
237	0xbdecafe1	-0.11556984
238	0xbd9cc9f6	-0.076557085
239	0xbda40680	-0.08009052
240	0x3e928922	0.2862025
241	0xbe39a18f	-0.18128036
242	0xbd20a712	-0.03922183
243	0xbcebf4f3	-0.028803324
244	0xbda7c0bd	-0.08191059
245	0x3e42fe12	0.19042233
246	0x3dcbac30	0.099449515
247	0x3d39b086	0.04533436
248	0xbe3d2fba	-0.18475237
249	0x3db982bd	0.090581395
250	0x3e9f58a6	0.3112232
251	0xbe7e3a57	-0.24826942
252	0x3df37c7a	0.118889764
253	0x3e877530	0.26456594
254	0xbe3dfa7f	-0.18552588
255	0x3d983afa	0.07433124

predictor.net.1.bias f4 [32]
0	0x3df3f371	0.11911667
1	0x3e13daa1	0.14438869
2	0xbdfdeb9e	-0.12398456
3	0x3de69181	0.112582214
4	0xbd893ea9	-0.067014046
5	0xbdf86e99	-0.1213047
6	0x3d92a788	0.0716086
7	0x3def18a6	0.11674623
8	0x3e0c2adf	0.13688229
9	0x3dc66b76	0.09688465
10	0x3df8deef	0.12151896
11	0xbe19c12c	-0.15015095
12	0xbdd335cf	-0.103129975
13	0xbde0092d	-0.1093925
14	0x3de9704e	0.113983735
15	0xbe20e050	-0.15710568
16	0xbde99daf	-0.11407029
17	0x3ded385e	0.11583017
18	0xbe321384	-0.17390257
19	0xbe036339	-0.12830819
20	0xbe0cf48b	-0.1376516
21	0x3df2bca0	0.118523836
22	0xbdd6280b	-0.10456856
23	0xbe079d45	-0.13243587
24	0x3deef8ef	0.11668574
25	0x3df3c7b7	0.11903327
26	0x3e3fecba	0.18742648
27	0xbe20f25e	-0.15717456
28	0xbded83dc	-0.11597416
29	0x3e013d30	0.12620997
30	0xbde97530	-0.11399305
31	0xbe6a90db	-0.2290682

predictor.net.3.weight f4 [1, 32]
0	0x3e9efeb7	0.31053707
1	0x3e0dddae	0.13854095
2	0xbeaee356	-0.3415782
3	0x3e38b68b	0.18038385
4	0xbc5ac783	-0.013353231
5	0xbe5b25b2	-0.21401098
6	0x3c90f6b7	0.017695768
7	0x3ebbdac5	0.36690345
8	0x3eaf3fd9	0.342284
9	0x3dfbb5c8	0.122905314
10	0x3edb0b8c	0.42782247
11	0xbda720a1	-0.0816052
12	0xbe89683b	-0.26837334
13	0xbefd53ff	-0.49478146
14	0x3dd16d89	0.1022597
15	0xbe120752	-0.14260605
16	0xbe0db9ff	-0.13840483
17	0x3e858141	0.26075175
18	0xbde2cb48	-0.11073929
19	0xbdfcd176	-0.12344639
20	0xbe9665ae	-0.2937445
21	0x3cf2b373	0.029626584
22	0xbe65ef17	-0.22454487
23	0xbec5f553	-0.3866373
24	0x3e79e113	0.24402265
25	0x3e89584c	0.26825178
26	0x3d847d21	0.06469179
27	0xbdb6ab29	-0.08919365
28	0xbd38d43a	-0.04512427
29	0x3eb1c59f	0.34721085
30	0xbe8b1409	-0.27163723
31	0xbe1031c1	-0.1408148

net.0.weight f4 [60, 35]
0	0x3e4fb533	0.20283966
1	0x3e1ce0d1	0.15320136
2	0x3dd5e15a	0.10443373
3	0x3e0ca5b1	0.13735081
4	0xbc4496f9	-0.011998885
5	0xbdf37211	-0.11886991
6	0xbce2e8cf	-0.027698902
7	0xbe413bb5	-0.18870433
8	0x3d317616	0.043325506
9	0xbdac348b	-0.08408459
10	0x3d3b0294	0.045656756
11	0xbdf704a7	-0.12061434
12	0x3e9c7413	0.30557308
13	0x3eb2ba87	0.34907934
14	0xbe88680b	-0.26641878
15	0xbe383aa2	-0.17991117
16	0x3c6c4fcf	0.014423325
17	0xbe307cc9	-0.17235102
18	0xbd6fb45d	-0.058521617
19	0xbd9b1153	-0.07571664
20	0xbdad8efa	-0.08474536
21	0xbd000493	-0.031254362
22	0xbd6602cd	-0.056155015
23	0x3e42ba9c	0.19016498
24	0xbc16f8d1	-0.009214596
25	0xbdd1796b	-0.10228237
26	0xbc5013cb	-0.0127000315
27	0x3e0cffe0	0.13769484
28	0xbd81e600	-0.06342697
29	0xbaa47d88	-0.0012549618
30	0x3e37027e	0.17872044
31	0x3d915297	0.07095831
32	0x3e761e49	0.2403499
33	0xbd524350	-0.051333725
34	0x3e1abff9	0.15112294
35	0xbe013a44	-0.12619883
36	0x3d9576cb	0.072980486
37	0xbe0d7e7b	-0.1381778
38	0xbe7cfd57	-0.24706016
39	0x3e6efa60	0.23337698
40	0x3db27dca	0.087153986
41	0x3e1af6fc	0.1513328
42	0xbd1c3de6	-0.03814497
43	0x3d3a07d4	0.04541762
44	0x3d226fa0	0.039657235
45	0x3d4b8c15	0.04969414
46	0xbde701fa	-0.11279674
47	0xbc92ee6d	-0.017935956
48	0x3d5f08ed	0.05445187
49	0x3e1b034a	0.15137973
50	0xbdfd6212	-0.12372221
51	0x3e2c2764	0.16811901
52	0x3d4d97f2	0.050193734
53	0x3e9f9647	0.3116934
54	0xbe9db989	-0.30805615
55	0xbd8b3d3b	-0.06798788
56	0xbe6386af	-0.22219346
57	0x3dd8a477	0.10578244
58	0x3d1560cf	0.036469277
59	0xbdadd84e	-0.084885225
60	0x3e91bcdd	0.28464404
61	0x3d88c5ce	0.06678353
62	0x3d05d384	0.03267242
63	0xbd7cd3dd	-0.061725486
64	0xbdf7ce31	-0.12099875
65	0x3e1c6644	0.15273386
66	0xbe19dc29	-0.1502539
67	0xbc01255d	-0.007882443
68	0x3de425d5	0.111400284
69	0x3e3fd210	0.18732476
70	0xbe3f25c1	-0.18666746
71	0x3b2f5fff	0.00267601
72	0x3c5f5d8f	0.013633146
73	0x3c74fb99	0.014952564
74	0xbd37005e	-0.044678085
75	0x3e0f1db2	0.13976172
76	0xbdbdad6f	-0.092615955
77	0x3d110769	0.035407458
78	0x3ea05761	0.31316665
79	0xbc8a5a95	-0.016888896
80	0xbd972343	-0.073797725
81	0xbe86e65f	-0.26347634
82	0x3da76a4e	0.08174573
83	0x3e2ac54f	0.1667683
84	0x3e4137aa	0.1886889
85	0xbe82c534	-0.2554108
86	0x3e1e5593	0.15462331
87	0xbe091739	-0.13387765
88	0x3de93287	0.113865905
89	0xbd52bc4f	-0.051449116
90	0xbddef3de	-0.10886358
91	0x3dd92d28	0.10604316
92	0x3e1d7277	0.15375696
93	0xbdf5d8d1	-0.12004245
94	0x3e1f162b	0.155358
95	0x3e187001	0.14886476
96	0x3d870771	0.06593216
97	0x3e6a5e91	0.22887637
98	0xbbe24542	-0.006905229
99	0xbdbc8b9e	-0.09206317
100	0xbe600dc8	-0.21880257
101	0x3c50af6b	0.012737135
102	0x3e669d92	0.22521046
103	0x3e713d29	0.23558487
104	0xbd7c7ce9	-0.06164256
105	0x3e29abfa	0.1656951
106	0xbe83251d	-0.25614253
107	0xbd8b5b6c	-0.06804547
108	0xbda7fabc	-0.08202121
109	0x3d7f6863	0.06235541
110	0xbd291073	-0.041275453
111	0xbe470131	-0.19434048
112	0xbdb211c9	-0.086947985
113	0x3dc289d4	0.09498945
114	0xbe0436cc	-0.12911528
115	0xbd94c6e2	-0.072644964
116	0x3d8b7eea	0.06811316
117	0xbe475a5c	-0.19468063
118	0x3db9ad01	0.09066201
119	0x3e6e42be	0.23267648
120	0xbd70ae2c	-0.058759853
121	0xbe92b2b1	-0.28651956
122	0xbe8440cd	-0.2583069
123	0x3e5c9504	0.2154122
124	0xbe51d089	-0.20489706
125	0x3e2dc597	0.16969906
126	0xbe17728a	-0.14789787
127	0xbaa012ae	-0.0012212598
128	0x3e7c6dfd	0.24651332
129	0x3e0846a1	0.13308193
130	0xbeb17711	-0.34661153
131	0x3e9405b5	0.28910604
132	0x3c700f17	0.014652035
133	0xbc693b3f	-0.014235317
134	0x3db6392b	0.08897623
135	0xbdc33e68	-0.095333874
136	0x3d3315c3	0.043721925
137	0x3da9b7a8	0.08286983
138	0x3d72a895	0.059242804
139	0x3c9bde1c	0.019026808
140	0x3c14a493	0.009072441
141	0xbc61ce52	-0.013782101
142	0xbcc6a2f7	-0.02424763
143	0xbe7ac0a1	-0.24487545
144	0x3d9a948c	0.07547864
145	0x3ccdf2d2	0.0251402
146	0xbb02e285	-0.0019971442
147	0xbe1590b3	-0.1460598
148	0xbd78e9fe	-0.060770027
149	0xbe0a23b6	-0.13490185
150	0xbe2b7e70	-0.16747451
151	0x3e39f5e6	0.18160209
152	0x3d3b4be3	0.045726668
153	0xbde9df96	-0.11419599
154	0x3e2eaafb	0.17057411
155	0x3dec091e	0.115251765
156	0x3d43dd7f	0.047818657
157	0x3e220fe6	0.15826377
158	0xbe2120ac	-0.1573512
159	0x3de1b1a9	0.11020214
160	0xbcc879c6	-0.024472129
161	0x3e7e1117	0.24811207
162	0xbd412add	-0.04716002
163	0xbe3431bc	-0.17597097
164	0x3da1595a	0.078783706
165	0xbe45d964	-0.19321209
166	0x3d0856ba	0.033285834
167	0xbcc547df	-0.024082122
168	0xbde809e2	-0.1133001
169	0xbe132884	-0.14370924
170	0x3e097828	0.13424742
171	0xbdf93874	-0.12168971
172	0x3d7b310e	0.06132608
173	0x3e209b35	0.15684207
174	0xbd9a305d	-0.07528756
175	0xbdd7bc4f	-0.10533964
176	0x3e529683	0.20565228
177	0x3cf63580	0.030054808
178	0xbcbd8f32	-0.02313957
179	0xbe10aa73	-0.14127521
180	0x3df45f2b	0.11932214
181	0x3da03122	0.07821871
182	0xbd7f7496	-0.062367044
183	0x3d6d5259	0.05793986
184	0xbd81ed23	-0.06344058
185	0x3d9ce790	0.076613545
186	0x3c4c1851	0.012456969
187	0xbdd3780c	-0.103256315
188	0x3e6a4b41	0.2288027
189	0xbd546c94	-0.05186136
190	0x3e724cbc	0.23662084
191	0xbe1695d7	-0.14705597
192	0xbdd376d3	-0.10325398
193	0x3dc3cfc7	0.09561115
194	0xbe88f20b	-0.26747164
195	0xbcd546e5	-0.026034782
196	0xbd8571b1	-0.065158255
197	0xbe33572f	-0.17513727
198	0x3bbb59e9	0.0057175052
199	0x3e6b4c05	0.22978218
200	0x3df38c35	0.11891977
201	0xbde61610	-0.11234677
202	0x3ea5e675	0.32402387
203	0x3d979777	0.074019365
204	0xbdac03d5	-0.083991684
205	0x3e164e4f	0.1467831
206	0x3e49a479	0.19691648
207	0xbe224d2f	-0.15849756
208	0x3ed1e22a	0.40992862
209	0x3e100d69	0.14067616
210	0x3d0923f4	0.033481553
211	0xbd7ffc4a	-0.06249646
212	0xbe113680	-0.14180946
213	0xbad49b5d	-0.0016220618
214	0xbd9def2f	-0.07711636
215	0x3c801000	0.01563263
216	0x3d9f937c	0.07791802
217	0x3cb13acd	0.021634484
218	0x3e7f85c5	0.24953373
219	0xbe0acd74	-0.13554937
220	0xbc5abe7d	-0.01335108
221	0xbc2017a7	-0.009771264
222	0x3d81c045	0.06335501
223	0x3bdb7392	0.0066971267
224	0xbe15cc2b	-0.14628665
225	0xbe2d416f	-0.16919492
226	0xbe694192	-0.2277892
227	0x3d978011	0.073974736
228	0x3e77cfee	0.24200413
229	0xbdafbaed	-0.08580575
230	0x3db82723	0.0899184
231	0xbe26056e	-0.16213009
232	0xbe194cd0	-0.14970708
233	0x3e4be765	0.19912489
234	0xbe265db0	-0.16246676
235	0x3bd7e0d2	0.00658808
236	0xbe0bfffd	-0.1367187
237	0x3da2b681	0.07944966
238	0x3e16fdb0	0.14745212
239	0xbe0a9391	-0.13532855
240	0x3e9a0074	0.3007847
241	0xbe37d851	-0.17953612
242	0xbc3222cc	-0.010872554
243	0xbe231563	-0.15926127
244	0x3cd5797b	0.026058903
245	0x3dfb5a89	0.122731276
246	0x3d3aeb19	0.045634363
247	0x3c41b205	0.011822228
248	0xbcb42cea	-0.021994073
249	0x3df2e99d	0.118609644
250	0x3d9ccc8c	0.07656202
251	0x3e424b58	0.18974054
252	0x3d5b8be2	0.0536002
253	0xbeae603f	-0.34057805
254	0xbd91c7d6	-0.07118194
255	0xbe191833	-0.14950638

net.0.bias f4 [60]
0	0x3d954378	0.07288259
1	0x3d918604	0.071056396
2	0xbdc3e158	-0.09564465
3	0x3df8a557	0.12140911
4	0xbe06160a	-0.13094345
5	0x3c7fc838	0.015611701
6	0x3cb4c135	0.022064785
7	0xbdd92a65	-0.10603789
8	0x3c58755a	0.013211573
9	0xbab0b74a	-0.0013482359
10	0x3d83f932	0.064440146
11	0xbb32d69d	-0.0027288564
12	0x3df0c580	0.1175642
13	0x3debbf49	0.11511094
14	0x3d972efa	0.07382007
15	0x3dffad92	0.12484278
16	0xbd453fe9	-0.048156653
17	0xbe18020f	-0.14844535
18	0xbde3abd8	-0.11116761
19	0x3e14a6c7	0.14516746
20	0xbda3b7bc	-0.07994029
21	0x3d5ccb64	0.053904906
22	0x3e290704	0.16506582
23	0xbddf6cd3	-0.109094284
24	0xbe07ddb1	-0.13268162
25	0xbd9e6208	-0.07733542
26	0xbd968c88	-0.07351023
27	0xbdb4472a	-0.08802636
28	0xbe1f0a2a	-0.15531221
29	0x3c2f0b7d	0.010683891
30	0xbde4775b	-0.11155578
31	0xbe1f1cf5	-0.1553839
32	0x3db6d0bc	0.08926532
33	0x3c724ef5	0.014789333
34	0x3e04e198	0.12976682
35	0x3d442181	0.047883514
36	0xbe1027a7	-0.14077626
37	0xbd910d92	-0.070826665
38	0x3d425188	0.047441036
39	0xbdf5398b	-0.11973866
40	0xbd1dbbc8	-0.03850916
41	0x3d3d7fac	0.046264336
42	0x3e1c25a9	0.15248741
43	0xbdfb3ade	-0.122670874
44	0xbe0565d8	-0.13027132
45	0xbdf4d07c	-0.11953828
46	0xbd44825a	-0.047975875
47	0x3d6b9859	0.057518337
48	0xbde00f0c	-0.1094037
49	0xbe11be50	-0.14232755
50	0x3c8b13eb	0.016977271
51	0x3c721105	0.014774566
52	0xbd8ad162	-0.06778218
53	0x3d6afa05	0.057367343
54	0xbe0ec983	-0.13944058
55	0xbda1e5f4	-0.07905188
56	0xbdcf05ee	-0.10108553
57	0x3d71edd2	0.059064694
58	0xbe056a06	-0.13028726
59	0xbc8a8298	-0.016907975

net.2.weight f4 [60, 60]
0	0xbcc02394	-0.023454465
1	0xbeadf3e8	-0.33975148
2	0x3dce1174	0.10061923
3	0x3e335cf9	0.17515935
4	0xbeb6ae7f	-0.35680005
5	0xbdd1bd97	-0.102412395
6	0xbdb2aba5	-0.08724145
7	0x3e66abc2	0.22526458
8	0x3ddeb611	0.1087457
9	0xbe313a1b	-0.17307322
10	0xbb9f2548	-0.004856739
11	0xbdca21e4	-0.098697454
12	0xbda591c5	-0.08084444
13	0x3e675226	0.22589931
14	0x3d9a5461	0.07535625
15	0x3d55918f	0.05214077
16	0xbc552517	-0.013009331
17	0xbd105ce2	-0.03524483
18	0x3e41a6cb	0.18911283
19	0xbd45ae37	-0.048261847
20	0x3c8c15bb	0.017100206
21	0x3dc9534a	0.09830339
22	0x3dcc616f	0.099795215
23	0xbe4bd422	-0.19905141
24	0xbd97a200	-0.07403946
25	0x3e434aaf	0.19071458
26	0x3d81f75c	0.06346008
27	0xbde3c1dd	-0.11120961
28	0xbe22cd99	-0.15898742
29	0xbdcc9d70	-0.09990966
30	0x3e086278	0.13318813
31	0x3ded96fd	0.11601064
32	0x3d385dc4	0.045011297
33	0x3d0cb012	0.0343476
34	0x3e135cab	0.14390819
35	0x3e862077	0.26196644
36	0x3e24445e	0.16041705
37	0xbde729d0	-0.11287272
38	0x3d70f507	0.058827426
39	0xbe560cd2	-0.20903328
40	0x3db7c297	0.08972662
41	0xbcf10885	-0.029423008
42	0x3d9a513b	0.07535025
43	0xbe7acbeb	-0.24491851
44	0xbbaad78b	-0.005213683
45	0x3d20d65f	0.03926694
46	0xbe0e0bae	-0.13871643
47	0x3d2d2070	0.042267263
48	0xbe4f3385	-0.20234497
49	0x3d91f882	0.07127477
50	0xb998ba9a	-0.00029130728
51	0x3d4075f2	0.04698748
52	0xbd1785d4	-0.036992863
53	0xbd493845	-0.04912593
54	0xbcf2386c	-0.02956792
55	0xbdb334a4	-0.08750275
56	0x3d96daee	0.07365976
57	0x3d219a1c	0.03945361
58	0xbcc878a0	-0.024471581
59	0xbe2eb32a	-0.17060533
60	0x3d5b3de0	0.053525805
61	0x3e042fe5	0.12908895
62	0xbd3274b6	-0.043568335
63	0xbe418082	-0.18896678
64	0x3cb68d74	0.022284247
65	0xbe010a9f	-0.12601708
66	0x3ec00c8d	0.37509575
67	0xbda76883	-0.08174231
68	0xbd06b7f5	-0.03289028
69	0xbcdd1b51	-0.026990565
70	0xbd825bb4	-0.06365147
71	0xbd347b68	-0.044063002
72	0x3d958f46	0.07302718
73	0xbd92ea1c	-0.07173559
74	0xbde37da6	-0.1110795
75	0x3d09f795	0.03368338
76	0xbd619d72	-0.055081792
77	0xbdc495c7	-0.0959888
78	0xbdc54c50	-0.09633696
79	0x3d4202ea	0.04736606
80	0x3dd9f92c	0.10643229
81	0x3e95183d	0.29120055
82	0x3b1f8fc9	0.0024347177
83	0x3e08aa34	0.13346177
84	0xbd383747	-0.04497459
85	0xbda49591	-0.0803634
86	0xbd422715	-0.047400553
87	0x3d0f54a3	0.034992825
88	0x3d589521	0.052876595
89	0xbd626bc0	-0.05527854
90	0xbdfbfe33	-0.12304344
91	0xbd983d4b	-0.07433566
92	0xbcdcb856	-0.026943367
93	0x3d7354c1	0.059407
94	0xbe52272c	-0.20522755
95	0x3df694a2	0.12040068
96	0x3d0e5dfe	0.034757607
97	0x3ded2b11	0.1158048
98	0x3d7264ab	0.059178036
99	0x3e878e29	0.26475647
100	0x3d495f0a	0.049162902
101	0xbc985f52	-0.01860014
102	0xbd9e8578	-0.07740301
103	0xbdd9556f	-0.10611998
104	0x3de9586d	0.11393819
105	0xbddd9f2e	-0.10821377
106	0x3e40a87b	0.1881427
107	0x3d67db0b	0.05660538
108	0x3d8aa7bc	0.06770274
109	0x3e640f76	0.22271523
110	0xbda78d52	-0.081812516
111	0xbc5bdef4	-0.013419855
112	0xbe20361d	-0.15645643
113	0x3be63e03	0.0070264353
114	0xbdaa3d7a	-0.08312507
115	0x3be152a8	0.0068763085
116	0xbd99d7f7	-0.07511895
117	0x3e005560	0.12532568
118	0xbd8b450f	-0.06800281
119	0xbd8dde4d	-0.06927166
120	0xbc43f939	-0.011961275
121	0xbe03ddd3	-0.12877588
122	0xbc7dc04d	-0.015487743
123	0x3dbc193c	0.091845006
124	0x3d15d6b0	0.036581695
125	0x3de663ee	0.11249529
126	0x3d171fa8	0.036895424
127	0xbe2c8e35	-0.16851123
128	0xbd35dc46	-0.044399522
129	0x3cd1cbf6	0.025609951
130	0xbc846d49	-0.016165392
131	0x3df22c14	0.118248135
132	0x3d890c04	0.06691745
133	0x3d5fe056	0.054657303
134	0x3e106bda	0.14103642
135	0xbe02c697	-0.12771069
136	0x3d177d77	0.036984887
137	0xbe301eb5	-0.17199214
138	0xbdad9fe1	-0.0847776
139	0xbdba13de	-0.090858206
140	0xbcbebaa8	-0.023282364
141	0xbc220665	-0.00988922
142	0x3ce20a7d	0.027592892
143	0x3e2202df	0.15821408
144	0xbe44598f	-0.19174789
145	0xbdac20f3	-0.08404722
146	0x3d8f94de	0.07010816
147	0xbb280751	-0.0025639127
148	0x3d29aac6	0.041422628
149	0x3ca27e85	0.01983572
150	0xbe0070ae	-0.12542984
151	0x3d82ed3e	0.063929066
152	0x3d6783ca	0.05652217
153	0xbe79acb8	-0.24382293
154	0x3e198f46	0.1499606
155	0xbc6f454c	-0.014603924
156	0xbdf50da8	-0.11965495
157	0x3c4008b8	0.011720829
158	0x3dcb81b5	0.09936849
159	0x3dd93d03	0.1060734
160	0xbea33dea	-0.31883174
161	0x3dd4282a	0.10359223
162	0xbdddf0cb	-0.10836943
163	0xbe5ad83f	-0.21371554
164	0xbbf0da34	-0.0073502306
165	0xbdf4eece	-0.11959611
166	0x3dcc85ca	0.09986456
167	0x3daa3d56	0.0831248
168	0xbe29b21e	-0.16571853
169	0x3cb3cccd	0.021948243
170	0xbd5537d9	-0.052055214
171	0x3cbec2d9	0.02328627
172	0x3d48c285	0.049013633
173	0xbe3f1575	-0.18660529
174	0x3e097776	0.13424477
175	0xbe3e3935	-0.1857651
176	0x3dc88f4a	0.09792955
177	0xbe3487a4	-0.17629868
178	0x3e0de813	0.1385806
179	0xbe2f8d13	-0.1714366
180	0x3cd9ffad	0.026611174
181	0x3d8b0201	0.067874916
182	0xbd8827ea	-0.06648238
183	0xbe02193b	-0.12704937
184	0xbe028b19	-0.12748374
185	0x3e811652	0.25212342
186	0xbe10a7fb	-0.1412658
187	0xbd8a59ec	-0.067554325
188	0xbd840538	-0.06446308
189	0x3e8288e8	0.25495076
190	0xbe0e49d9	-0.13895358
191	0x3c8c079e	0.017093476
192	0xbe7dc45e	-0.2478194
193	0x3dbe0b4c	0.092794985
194	0xbc5960c8	-0.013267703
195	0xbe194bd0	-0.14970326
196	0x3e2013c5	0.15632541
197	0xbd9990f3	-0.0749835
198	0xbe27ff75	-0.16406043
199	0xbd3d1082	-0.04615832
200	0xbe32c5d4	-0.17458278
201	0xbdecadeb	-0.1155661
202	0x3c960c74	0.018316485
203	0x3dbdb291	0.092625745
204	0xbdd0cf05	-0.10195736
205	0x3d4d8afb	0.05018137
206	0xbd4d2eff	-0.050093647
207	0x3e193ac8	0.1496383
208	0x3ddd4d8b	0.10805806
209	0xbe298a5c	-0.16556686
210	0xbd824a49	-0.06361825
211	0x3e1799f4	0.14804822
212	0xbdf199f8	-0.11796945
213	0xbe061573	-0.1309412
214	0xbd3c5621	-0.045980576
215	0xbd400046	-0.04687526
216	0x3d05acc7	0.032635476
217	0xba9ccf12	-0.0011963567
218	0x3db9d68d	0.090741254
219	0x3da6dabc	0.08147189
220	0xbe0d0e49	-0.1377498
221	0x3df59f12	0.11993231
222	0xbe332b05	-0.1749688
223	0xbc3fef88	-0.011714824
224	0x3d6dd5ae	0.05806511
225	0x3dbd4cba	0.0924315
226	0xbe31b7d8	-0.17355287
227	0xbb9e5a55	-0.0048325458
228	0xbde3efb4	-0.11129704
229	0x3cce9c4a	0.025221009
230	0xbd8289e9	-0.063739605
231	0xbdbe07a7	-0.09278803
232	0x3c462d53	0.012095767
233	0xbe553546	-0.20821103
234	0xbe631696	-0.22176585
235	0x3da0bae4	0.078481466
236	0x3e002fd4	0.12518245
237	0x3da85fe9	0.082214184
238	0x3db51710	0.088422894
239	0x3e517b32	0.20457152
240	0x3d964430	0.073372245
241	0x3d5cac87	0.053875472
242	0xbdb928de	-0.09040998
243	0x3e1c5362	0.15266183
244	0x3de0b26b	0.109715305
245	0x3de8aca5	0.11361054
246	0xbcda40a1	-0.026642146
247	0xbcbdde8e	-0.023177411
248	0xbe61be33	-0.22045211
249	0x3bb54b81	0.0055326824
250	0xbc8837a5	-0.016628096
251	0x3d3f11da	0.046647884
252	0xbc5dff37	-0.0135496175
253	0xbd81c63a	-0.06336637
254	0x39b04ec9	0.00033628035
255	0x3d92da69	0.07170565

net.2.bias f4 [60]
0	0xbd38a351	-0.045077626
1	0x3cd9d4c0	0.026590705
2	0xbd916d77	-0.07100957
3	0xbd3ab41c	-0.045581922
4	0x3db80f1f	0.08987259
5	0xbc537618	-0.012906574
6	0x3cc2d9e3	0.023785537
7	0xbdbf1167	-0.09329491
8	0xbbe60d50	-0.00702063
9	0xbcf27b9f	-0.029599963
10	0x3db39977	0.087695055
11	0xbcdade99	-0.026717471
12	0xbd4249d1	-0.047433678
13	0xbcb0ad42	-0.02156699
14	0x3db2e86c	0.08735737
15	0x3c6ca5b1	0.014443801
16	0x3c5a0c19	0.013308548
17	0x3da2959b	0.07938691
18	0x3dbe896b	0.09303554
19	0xbce2862a	-0.027651865
20	0x3d1cb386	0.038257144
21	0xbc29a140	-0.010353386
22	0xbdee66da	-0.11640711
23	0xbbc917e6	-0.006136882
24	0xbd739b53	-0.0594743
25	0xbdf98b29	-0.12184746
26	0xbdcf5595	-0.10123745
27	0xbc95cc2b	-0.018285831
28	0xbda164be	-0.07880543
29	0xbd2796d0	-0.04091531
30	0xbd2bb3ed	-0.041919637
31	0x3dd6e0cf	0.104920976
32	0xbd089642	-0.033346422
33	0x3df50892	0.11964525
34	0x3c9614fb	0.018320551
35	0x3cae2360	0.021257102
36	0x3d297fd9	0.04138169
37	0xbd2efbb4	-0.04272051
38	0x3d2d5687	0.042318847
39	0xbdf1529a	-0.11783333
40	0x3d8738a4	0.066026
41	0x3d88f0f6	0.06686585
42	0xbb1441e4	-0.0022622282
43	0x3d524d6b	0.051343363
44	0xbdd25b83	-0.10271361
45	0x3d900990	0.07033074
46	0xbdda712d	-0.10666118
47	0x3e11b490	0.14229035
48	0x3dbbabdc	0.09163639
49	0x3de5361d	0.11191962
50	0x3ce9689e	0.028492268
51	0x3b962787	0.0045823487
52	0x3da2c34c	0.07947406
53	0xbdc64d2a	-0.096826866
54	0xbdbc7e24	-0.09203747
55	0xbd5dc346	-0.054141305
56	0x3d171cc7	0.03689268
57	0x3dd32d85	0.103114165
58	0xbd893463	-0.06699445
59	0xbcd980b1	-0.026550623
