results of reviewer/XJTU results/2-2/Experiment5/model.pth (torch, 59838 bytes, 14 tensors)

encoder.net.0.weight f4 [60, 17]
0	0x3c7a6db8	0.015284948
1	0xbd4326c9	-0.04764441
2	0xbe514830	-0.20437694
3	0x3e2e45e5	0.1701885
4	0x3e486ece	0.19573519
5	0x3da996d6	0.08280723
6	0x3d619756	0.055075966
7	0xbd3128f9	-0.043251965
8	0x3d1f78d1	0.03893358
9	0x3c811ff0	0.0157623
10	0x3dd4d537	0.1039223
11	0xbd62fde4	-0.05541791
12	0xbecb81bc	-0.39747417
13	0x3e2fe39f	0.17176674
14	0x3d774ad2	0.06037409
15	0xbde5070d	-0.111829855
16	0xbe805f84	-0.25072873
17	0x3da5288f	0.080643766
18	0xbe77cfa2	-0.242003
19	0xbd8ecdfc	-0.06972882
20	0xbe537b35	-0.20652469
21	0x3e085da2	0.13316968
22	0xbd0db740	-0.03459859
23	0xbe687648	-0.2270137
24	0xbe939c4d	-0.28830186
25	0x3c793e55	0.015212615
26	0x3e0ed74a	0.13949314
27	0xbc52d490	-0.012868062
28	0xbe421ee9	-0.18957104
29	0xbe9043a3	-0.28176603
30	0xbd0a4f46	-0.033767007
31	0xbd8bdf05	-0.06829647
32	0xbe1f229b	-0.15540545
33	0x3e1b9ae9	0.15195812
34	0xbe7afd75	-0.24510749
35	0x3da53254	0.0806624
36	0x3d322399	0.04349098
37	0x3de205ae	0.110362396
38	0xbdcaa6f9	-0.09895129
39	0x3c816cbd	0.01579892
40	0xbdc2f771	-0.09519852
41	0xbe0b7b10	-0.13621163
42	0x3df0c2e4	0.117559224
43	0x3d19209c	0.037384614
44	0x3e88e1c7	0.26734754
45	0x3d5d0eab	0.053969067
46	0xbe3d9336	-0.18513188
47	0xbd1fac5e	-0.03898274
48	0xbe36da9a	-0.17856827
49	0x3eb76cfe	0.35825342
50	0x3e7822dd	0.2423205
51	0x3e454ab7	0.19266783
52	0xbd091daf	-0.033475574
53	0x3e78efbc	0.24310201
54	0xbe232162	-0.15930703
55	0x3d9fa474	0.07795039
56	0xbe1fa6e8	-0.15591013
57	0xbe2b4830	-0.16726756
58	0xbad0f355	-0.0015941659
59	0x3e19295d	0.14957185
60	0xbdc9dc15	-0.098564304
61	0xbd352988	-0.04422906
62	0x3dc2c34c	0.09509906
63	0x3e5484aa	0.20753732
64	0xbe7bdbcd	-0.24595566
65	0x3d407541	0.046986822
66	0x3e1b5eab	0.15172832
67	0x3dfa52a0	0.12222791
68	0x3e0c5b22	0.1370664
69	0xbe398a1b	-0.1811909
70	0xbe1f117b	-0.15534012
71	0xbdfd3f01	-0.12365533
72	0x3e03975d	0.1285071
73	0xbdfeb950	-0.12437689
74	0xbd83571d	-0.064131
75	0xbd1300d4	-0.03588946
76	0x3df4bc1f	0.11949944
77	0xbe9d2ccc	-0.3069824
78	0x3ea627d4	0.3245226
79	0xbecc3354	-0.3988291
80	0xbe01171f	-0.12606476
81	0xbdcaecfe	-0.09908484
82	0x3cb47a15	0.02203087
83	0x3e2d0f00	0.16900253
84	0xbdd97b6e	-0.106192455
85	0x3db0cb47	0.08632522
86	0xbc1a2f6f	-0.009410723
87	0x3d13fcbb	0.036129694
88	0x3d283cde	0.041073672
89	0x3e4ea690	0.20180726
90	0xbd6efcd8	-0.0583466
91	0x3dcdf904	0.100572616
92	0xbe76aa0e	-0.24088308
93	0xbd66d7f6	-0.0563583
94	0x3e154945	0.14578731
95	0xbe910a35	-0.283281
96	0xbc4598ad	-0.0120603265
97	0x3dea3831	0.11436499
98	0xbdb6b1d9	-0.089206405
99	0x3e103835	0.14083941
100	0x3dd0048f	0.101571195
101	0x3dad82e7	0.08472233
102	0xbe419910	-0.18906045
103	0xbe42ba56	-0.19016394
104	0x3e192717	0.14956318
105	0x3ee8edec	0.4549402
106	0x3e9deadc	0.30843246
107	0x3e6be368	0.23035967
108	0xbe99bd01	-0.3002701
109	0xbb555358	-0.0032550897
110	0x3e387ad3	0.18015604
111	0xbe322c5d	-0.17399736
112	0xbe815088	-0.25256753
113	0x3cb3d111	0.021950277
114	0x3e8ee193	0.27906474
115	0xbe0f5a3d	-0.13999267
116	0x3e1f092b	0.15530841
117	0xbeaca746	-0.3372137
118	0xbccfcc93	-0.025366103
119	0x3e026caf	0.12736772
120	0x3e3be249	0.1834804
121	0xbe0cff54	-0.13769275
122	0x3e5a0d54	0.21294147
123	0xbded5c8d	-0.11589918
124	0x3e8ce097	0.27515098
125	0x3d9dc9ff	0.07704543
126	0x3e281f5d	0.16418214
127	0xbe186d4d	-0.14885445
128	0x3d85d3c8	0.06534535
129	0xbedf5d4e	-0.43625873
130	0xbe1e2db2	-0.15447119
131	0x3dc4fe57	0.09618824
132	0xbcb873fe	-0.022516247
133	0xbea04cdb	-0.31308636
134	0x3e4d9e72	0.20079973
135	0x3e1f385e	0.15548846
136	0xbd009d4e	-0.031400017
137	0x3dde0fb7	0.10842841
138	0xbd83cdcf	-0.06435739
139	0xbcfd014f	-0.030884413
140	0xbde94148	-0.113894045
141	0xbd0a7496	-0.03380259
142	0x3d93f020	0.072235346
143	0xbd347d46	-0.044064783
144	0x3e4a0a89	0.19730581
145	0xbe2767de	-0.16348216
146	0xbcfc5cc4	-0.030805953
147	0x3e706e15	0.23479493
148	0xbd9108bb	-0.07081743
149	0xbcc974d6	-0.024591845
150	0xbe0a67f1	-0.13516213
151	0xbe552838	-0.20816123
152	0x3e1d77a0	0.15377665
153	0x3e592cce	0.21208498
154	0xbd3f4932	-0.046700664
155	0xbc600d5f	-0.013675063
156	0xbd9d8748	-0.076918185
157	0x3debcc75	0.115136065
158	0xbb1f9103	-0.0024347908
159	0x3d5a4b22	0.05329431
160	0x3d357516	0.044301115
161	0xbc8612ed	-0.016366446
162	0x3e1186e9	0.1421162
163	0xbe298753	-0.16555528
164	0xbdb64851	-0.08900512
165	0x3cdeed96	0.0272129
166	0xbe124cfc	-0.1428718
167	0x3d0bb96b	0.034112375
168	0x3c6cd75c	0.014455643
169	0x3dce5f8e	0.10076819
170	0x3df065a8	0.117381394
171	0xbd396a4d	-0.045267392
172	0xbec00a77	-0.37507984
173	0xbd1956ab	-0.03743617
174	0x3e44c852	0.19217041
175	0xbed7a562	-0.42118365
176	0x3d708968	0.05872479
177	0xbe950231	-0.29103234
178	0x3b8bc95c	0.0042659473
179	0x3dda496a	0.10658534
180	0x3e30c4e3	0.17262606
181	0xbc5d2f0f	-0.013499989
182	0x3dc56905	0.096391715
183	0x3a80382f	0.0009782369
184	0x3c49c916	0.012316009
185	0x3e41f91d	0.18942685
186	0x3da242d4	0.07922903
187	0xbe057f46	-0.13036832
188	0xbd0b9257	-0.034075107
189	0x3e4c5a6d	0.1995637
190	0xbe21c8fb	-0.15799324
191	0xbd95b2cf	-0.07309496
192	0xbe52e727	-0.2059599
193	0x3e7b60d9	0.24548663
194	0x3e309c18	0.17247045
195	0xbd0c3e28	-0.034238964
196	0x3d8f72a5	0.070042886
197	0x3e27f75a	0.16402951
198	0x3e810cdd	0.25205126
199	0xbda9fdca	-0.083003595
200	0x3e41fe04	0.18944556
201	0xbdc1f4eb	-0.094705425
202	0x3e8c5faf	0.2741675
203	0xbcccd900	-0.025005817
204	0xbddb5f5d	-0.107115485
205	0xbc8f3899	-0.017483043
206	0x3c345e11	0.011008755
207	0x3e2f5ad5	0.17124493
208	0xbd409d01	-0.04702473
209	0x3d806122	0.062685266
210	0xbcf1accc	-0.029501341
211	0xbe0a2646	-0.13491163
212	0xbea234d0	-0.31680918
213	0xbe6e15a5	-0.23250444
214	0xbe4badc3	-0.19890504
215	0xbd38115e	-0.044938438
216	0x3dde6697	0.10859411
217	0x3b2d48ef	0.0026441177
218	0x3e2d9088	0.16949666
219	0x3dc01afe	0.09380148
220	0xbda6aca6	-0.08138399
221	0x3e37e21d	0.17957349
222	0x3d2e3a28	0.04253593
223	0x3d83da55	0.06438128
224	0x3d6a9039	0.057266448
225	0x3e1ae7c4	0.15127474
226	0x3dc77565	0.09739188
227	0x3e2c412c	0.16821736
228	0xbe5501df	-0.20801495
229	0xbe938e20	-0.2881937
230	0x3de37308	0.11105925
231	0x3e0aee28	0.13567412
232	0xbe6e0edf	-0.2324786
233	0x3dacf56c	0.08445248
234	0x3c2a9f6b	0.010413985
235	0xbe7e466e	-0.24831554
236	0x3caf4ace	0.021397974
237	0xb96d482c	-0.00022628967
238	0x3dedca15	0.1161081
239	0xbdb38dc5	-0.08767275
240	0x3e821623	0.25407514
241	0x3d4eeda0	0.050519586
242	0xbd2fbf6e	-0.04290717
243	0xbdf8feba	-0.1215796
244	0x3e955f37	0.29174206
245	0xbe8964df	-0.2683477
246	0x3e02404c	0.1271984
247	0x3d732351	0.059359852
248	0xbe20c4c7	-0.15700065
249	0x3d954aa3	0.072896264
250	0xbd334711	-0.043768946
251	0x3da8dfd0	0.08245814
252	0xbe133245	-0.14374645
253	0xbde56c9e	-0.11202358
254	0xbd4cf5d8	-0.050039142
255	0x3d9823fa	0.07428737

encoder.net.0.bias f4 [60]
0	0xbdba9b71	-0.09111679
1	0x3d022099	0.03176937
2	0x3d20f408	0.039295226
3	0x3c31da8a	0.010855326
4	0xbd708901	-0.058724407
5	0xbcb6360f	-0.022242574
6	0xbc3e388d	-0.011610162
7	0xbcd85934	-0.026409723
8	0x3d05950e	0.032612853
9	0xbd5a93e0	-0.05336368
10	0xbccb4d1e	-0.024817046
11	0xbced12f1	-0.028939696
12	0xbc5259a4	-0.012838755
13	0x3dbe261c	0.092846125
14	0xbcb927ec	-0.022602044
15	0x3c442bd4	0.01197334
16	0x3d2d358e	0.0422874
17	0xbd0e9f77	-0.034820046
18	0xbc2ac1fa	-0.010422224
19	0x3c77287b	0.015085335
20	0xbb17ec3f	-0.0023181585
21	0x3d33aab6	0.043863975
22	0xbcf27b24	-0.029599734
23	0x3d025553	0.031819653
24	0x3d4f4b26	0.050608777
25	0x3ce673f6	0.028131466
26	0x3c8898ab	0.01667436
27	0x3cbb46e4	0.022860952
28	0xbadeef64	-0.00170086
29	0x3cfe0d3c	0.03101217
30	0xbd00a4f9	-0.03140733
31	0x3cd703d9	0.026246952
32	0xbcd9cc6a	-0.02658673
33	0x3c956deb	0.01824089
34	0xbd0cf95e	-0.034417503
35	0x3d09c559	0.03363547
36	0x3d301b53	0.04299481
37	0xbc33f88c	-0.010984551
38	0xbcb690ea	-0.022285897
39	0x3d0faaab	0.03507487
40	0xbcc5c3c1	-0.024141194
41	0xbca7069f	-0.0203889
42	0x3cdb2efc	0.026755802
43	0x3d2b1516	0.041768156
44	0xbce813ef	-0.028329818
45	0xbc9a7582	-0.01885486
46	0x3cde26f5	0.027118186
47	0xbca94e64	-0.020667262
48	0xbd1ad63c	-0.037801966
49	0x3cae758f	0.02129629
50	0xbd1c18a8	-0.03810945
51	0xbc8bf262	-0.01708335
52	0x3d01a998	0.031655878
53	0x3cb78b5d	0.02240532
54	0xbc9af4b5	-0.018915514
55	0xbd90fd1c	-0.07079527
56	0xbd215bfe	-0.03939437
57	0x3c17d5a2	0.009267243
58	0x3c90da23	0.01768214
59	0xbc8b0346	-0.016969334

encoder.net.2.weight f4 [60, 60]
0	0xbde4fa90	-0.111806035
1	0xbe68dba7	-0.2274004
2	0xbd949f12	-0.07256903
3	0xbdbb5525	-0.091470994
4	0xbe2138b2	-0.15744284
5	0xbe5a9c90	-0.21348786
6	0xbdfcb524	-0.12339237
7	0x3ded25ab	0.1157945
8	0x3d6e7932	0.05822105
9	0xbdad6e82	-0.08468343
10	0xbdd98d4d	-0.10622654
11	0xbeaac29a	-0.33351594
12	0x3b1e43e8	0.0024149362
13	0x3d8b7f2c	0.068113655
14	0x3e3dc7b5	0.18533213
15	0xbe1ccccd	-0.153125
16	0x3dfd8e67	0.12380677
17	0x3dabd0f4	0.08389464
18	0xbd255907	-0.040368106
19	0xbd795cd9	-0.060879562
20	0x3e413031	0.1886604
21	0x3d8b4bd0	0.068015695
22	0x3e266d27	0.16252576
23	0x3dc584c1	0.096444614
24	0xbc2e2450	-0.010628775
25	0xbd2539f5	-0.040338475
26	0xbdc3d29e	-0.095616564
27	0xbdee3a68	-0.11632234
28	0xbc43fe5c	-0.0119624995
29	0x3d417222	0.047227986
30	0xbda98c9a	-0.08278771
31	0xbdf2b599	-0.11851043
32	0x3dc434e0	0.095803976
33	0x3d359bef	0.044338163
34	0xbdaa3c64	-0.083123
35	0x3e0fe6d0	0.14052892
36	0xbd37b996	-0.044854723
37	0xbd45a9ab	-0.04825751
38	0xbe34af1a	-0.17644921
39	0x3d48b9b1	0.049005214
40	0xbe0a3e39	-0.13500299
41	0x3db93745	0.09043745
42	0xbb943acf	-0.004523612
43	0x3e804707	0.2505419
44	0x3e4499d1	0.19199301
45	0x3dc56425	0.09638242
46	0xbd7a1ac0	-0.061060667
47	0xbdad01e2	-0.08447625
48	0xbb49d902	-0.0030799513
49	0xbdd3d458	-0.10343236
50	0x3d7a28a8	0.06107393
51	0x3d43f089	0.047836814
52	0x3d6bfa84	0.057611957
53	0xbd8db9fb	-0.069202386
54	0xbb6d6c88	-0.003622802
55	0x3e13970a	0.14413086
56	0xbd18cf8a	-0.0373073
57	0xbe0731e9	-0.13202633
58	0x3e81e1e9	0.25367668
59	0x3e8910c3	0.267706
60	0x3ca55816	0.020183604
61	0x3df6c9ce	0.1205021
62	0xbe889bfa	-0.266815
63	0xbe835762	-0.25652605
64	0x3dce7572	0.10080995
65	0xbe0c5436	-0.13703999
66	0xbd1dfb00	-0.03856945
67	0x3e4bc775	0.19900306
68	0xbe3c9320	-0.18415499
69	0xbe1451bb	-0.14484303
70	0x3d39991b	0.04531203
71	0x3ddb516f	0.107088916
72	0xbe6293c9	-0.22126688
73	0xbdc5130d	-0.09622774
74	0xbd7a51b7	-0.061113086
75	0xbd21c586	-0.039495014
76	0x3e6d3272	0.23163775
77	0x3dd2c1c9	0.10290868
78	0x3d96466e	0.07337652
79	0x3de3b6ee	0.111188754
80	0x3e33631c	0.17518276
81	0x3cb814be	0.022470828
82	0xbdaa690e	-0.08320819
83	0xbe03a442	-0.12855628
84	0x3bb800f9	0.0056153503
85	0xbdecbc03	-0.11559298
86	0xbdc93df2	-0.09826268
87	0x3d775285	0.06038143
88	0x3dbff51c	0.09372923
89	0xbe17b2f4	-0.14814359
90	0xbd15f89e	-0.036614053
91	0x3c8c6ec9	0.01714267
92	0x3ca0876a	0.01959582
93	0xbe172e48	-0.14763749
94	0xbd126a17	-0.035745706
95	0xbca8356c	-0.020533286
96	0x3e280c23	0.1641088
97	0x3e391990	0.18076158
98	0x3ce6d443	0.028177386
99	0x3ebedc80	0.37277603
100	0xbc90c679	-0.017672764
101	0xbd350137	-0.04419061
102	0x3d82bf46	0.06384139
103	0x3d8190f7	0.06326478
104	0x3e0fcfc2	0.14044097
105	0x3df285da	0.118419364
106	0xbbfda375	-0.007740433
107	0xbd5b6b79	-0.05356929
108	0x3c939fff	0.018020628
109	0x3d08dd63	0.033414256
110	0x3d32eb6b	0.043681543
111	0xbc33485f	-0.010942548
112	0x3e2d32a3	0.16913848
113	0xbdc9034d	-0.09815083
114	0xbcd01402	-0.025400165
115	0xbe90df40	-0.28295326
116	0xbe2c3613	-0.16817503
117	0x3d20298f	0.039102133
118	0x3d71c404	0.059024826
119	0xbe3c463c	-0.18386167
120	0x3d3bc9a1	0.045846585
121	0xbddb57a7	-0.10710078
122	0xbd4d0221	-0.05005086
123	0x3cc981bb	0.024597993
124	0xbcee25fb	-0.029070845
125	0xbe5469ff	-0.2074356
126	0xbd1e3482	-0.038624294
127	0xbd835012	-0.064117566
128	0xbdeb1de7	-0.11480313
129	0x3da1999c	0.07890627
130	0xbdddcc66	-0.108300015
131	0xbce7e2cd	-0.02830639
132	0x3dcf5532	0.101236716
133	0xbda9d08b	-0.082917295
134	0x3dac3f39	0.08410496
135	0xbdd77d35	-0.10521928
136	0x3da61d21	0.08111025
137	0x3cd0fc6b	0.025510987
138	0x3d41c0d7	0.047303047
139	0x3e5ca235	0.21546252
140	0xbdf91fb9	-0.12164254
141	0x3c95a6f2	0.018268082
142	0xbd480d04	-0.048840538
143	0xbd47681a	-0.048683263
144	0xbd0dac44	-0.034588113
145	0x3ca534b7	0.020166738
146	0x3db70cdf	0.08938002
147	0xbd8a1a91	-0.067433484
148	0x3e39265d	0.1808104
149	0xbcac81bc	-0.021057956
150	0x3d1d2beb	0.03837196
151	0xbce54b58	-0.027990028
152	0x3dd330cb	0.10312041
153	0xbc69a6fd	-0.0142610045
154	0x3da6da5c	0.081471175
155	0xbc592de2	-0.013255568
156	0x3b45b27a	0.0030166195
157	0xbd45e452	-0.048313446
158	0xbe55846a	-0.20851293
159	0x3ddd67bc	0.108108014
160	0x3dc6fc66	0.0971611
161	0x3cdf3894	0.027248658
162	0x3d946fa5	0.07247857
163	0xbd373540	-0.044728518
164	0x3dba485a	0.09095831
165	0xbdc57ab4	-0.096425444
166	0xbcbcb464	-0.023035236
167	0x3e741713	0.23836927
168	0x3e1e2df3	0.15447216
169	0x3deffffa	0.117187455
170	0x3d285904	0.041100517
171	0xbeb862c4	-0.36012852
172	0x3bd40474	0.0064702574
173	0x3da3f029	0.08004791
174	0xbda3cfd0	-0.079986215
175	0xbd6b6c4a	-0.05747632
176	0x3e57603d	0.21032806
177	0x3dcff01b	0.10153218
178	0x3e15e505	0.14638145
179	0x3de7b919	0.113146015
180	0xbea2f519	-0.3182762
181	0xbd8f0e5f	-0.06985163
182	0x3cf9fc39	0.030515777
183	0x3d247cd4	0.040158108
184	0x3c7e6592	0.015527146
185	0x3e031703	0.12801747
186	0x3c6970bd	0.01424807
187	0xbe1aebb5	-0.15128978
188	0xbd396c9b	-0.04526959
189	0xbe90c2b6	-0.28273553
190	0xbc51f8e1	-0.012815685
191	0x3d50658e	0.0508781
192	0xbc910998	-0.01770477
193	0xbea072ec	-0.31337678
194	0x3d3905ff	0.045171734
195	0x3e0d0d8d	0.137747
196	0x3e2290b0	0.15875506
197	0x3d9e769e	0.07737468
198	0xbe340331	-0.17579342
199	0xbd307941	-0.043084387
200	0xbd6cd06d	-0.057815958
201	0xbd867b39	-0.065664716
202	0x3e3b543c	0.18293852
203	0x3ddd8ab3	0.108174704
204	0xbdb71391	-0.08939279
205	0x3dada4fe	0.084787354
206	0xbdd13929	-0.102159806
207	0x3e5a34f4	0.21309263
208	0xbc927487	-0.01787783
209	0xbd6d51ce	-0.057939343
210	0xbcdeb349	-0.0271851
211	0xbdf2b097	-0.11850088
212	0x3df14012	0.117797986
213	0x3d85e581	0.06537915
214	0x3e07d088	0.13263142
215	0xbd110c69	-0.035412226
216	0x3d800f5d	0.0625293
217	0x3e5ec599	0.21755065
218	0x3e5bd8b6	0.21469387
219	0x3e111dac	0.14171475
220	0xbe23c4d4	-0.15993053
221	0xbced4fb7	-0.028968675
222	0x3e19b33d	0.1500978
223	0x3d341374	0.043963864
224	0x3d9d0bab	0.07668241
225	0xbd8c0cef	-0.068384044
226	0xbe041fd2	-0.12902763
227	0xbc755911	-0.014974848
228	0x3cf1d3c8	0.02951993
229	0x3c4e52db	0.0125929965
230	0xbdd3970f	-0.103315465
231	0xbda140ca	-0.07873686
232	0x3d250a4e	0.04029303
233	0x3e460989	0.19339575
234	0xbc1eae0d	-0.009685052
235	0x3d002ca0	0.031292558
236	0x3d89e3ca	0.067329004
237	0xbe2a1454	-0.16609317
238	0xbd3dd3e3	-0.04634465
239	0x3debc9f1	0.11513127
240	0xbd9e318b	-0.07724293
241	0x3e20929d	0.15680929
242	0x3e4b8223	0.19873862
243	0x3da247f1	0.07923878
244	0xbe582497	-0.21107708
245	0x3c895f03	0.016768938
246	0xbe87540a	-0.26431304
247	0xbd438d9f	-0.047742482
248	0xbe5a2499	-0.21303023
249	0xbe17b451	-0.14814879
250	0xbc3113b6	-0.010807922
251	0xbe27f065	-0.16400297
252	0x3d7095f1	0.058736745
253	0x3e14672f	0.14492486
254	0x3be229eb	0.0069019697
255	0x3e5ac0f3	0.21362667

encoder.net.2.bias f4 [60]
0	0xbc661134	-0.0140421875
1	0xbd42966c	-0.047506735
2	0x3c7169ef	0.014734729
3	0x3d307b13	0.043086123
4	0x3c8559b7	0.016278131
5	0xbd392792	-0.045203753
6	0xbd48cecc	-0.049025342
7	0xbcd64a05	-0.026158342
8	0xbaee8702	-0.0018198194
9	0x3d278bca	0.040904798
10	0xbcf8cc2e	-0.030370798
11	0xbc9bd756	-0.019023579
12	0x3d1e81e0	0.038698077
13	0xbc6e0af0	-0.014528975
14	0xbbedae6b	-0.0072534583
15	0xbcdaa1b0	-0.026688427
16	0xbd0b8ad5	-0.034067947
17	0x3cb34222	0.02188212
18	0xbc9394eb	-0.018015346
19	0xbca47405	-0.020074854
20	0x3d1727da	0.03690324
21	0x3c8ceff6	0.017204266
22	0x3d0de59d	0.034642804
23	0x3d0c48f1	0.03424925
24	0x3d0aa9b0	0.033853233
25	0x3cfa7efc	0.030578129
26	0xbca62897	-0.020283027
27	0x3c771e51	0.015082912
28	0xbd7b42b6	-0.061342917
29	0x3cb866f9	0.022510039
30	0x3d0fc66f	0.03510135
31	0xbcec04b4	-0.028810836
32	0x3d2bf230	0.041979015
33	0x3d0f2f7d	0.034957398
34	0xbcf1a8ec	-0.029499494
35	0x3cf38f86	0.029731523
36	0x3cb0f57f	0.021601437
37	0x3d0fe655	0.03513177
38	0x3cc4789a	0.023983289
39	0xbd17ba67	-0.037043
40	0x3cafa2ad	0.021439875
41	0xbbbf9497	-0.0058465707
42	0xbc14002c	-0.009033244
43	0xbce09a56	-0.027417343
44	0xbd1c2832	-0.03812427
45	0x3ceb23f8	0.028703675
46	0x3c04bf4f	0.008102252
47	0x3cc7c2ca	0.024384875
48	0x3d14618e	0.036225848
49	0xbc29adaa	-0.010356346
50	0xbc600dc7	-0.01367516
51	0xbcd07565	-0.025446603
52	0x3ce82aec	0.02834078
53	0xbcf2c6b9	-0.029635774
54	0x3ca9f6f0	0.020747632
55	0x3c8e679a	0.017383385
56	0x3cd7f016	0.0263596
57	0x3d54cb99	0.05195198
58	0x3cb10650	0.021609455
59	0x3d00df8f	0.031463202

encoder.net.5.weight f4 [32, 60]
0	0x3e05889d	0.13040395
1	0x3dd76692	0.105176106
2	0x3dccaa42	0.099934116
3	0xbddc7ab8	-0.10765594
4	0xbe868b27	-0.2627804
5	0xbe9cf203	-0.3065339
6	0x3b8888ec	0.004166713
7	0xbe2307d5	-0.15920956
8	0xbd5934d4	-0.053028896
9	0xbcd0a5e1	-0.025469722
10	0xbe5a751e	-0.21333739
11	0x3b95bbab	0.004569491
12	0xbd936a38	-0.07197994
13	0x3e9ccaeb	0.30623564
14	0xbdbb591a	-0.09147854
15	0x3cebabdc	0.028768472
16	0x3e12f254	0.14350253
17	0xbe741f57	-0.2384008
18	0x3e392f7b	0.18084519
19	0xbea6d858	-0.32586932
20	0x3d92e3a7	0.071723275
21	0xbc910167	-0.017700864
22	0x3ce2f390	0.02770403
23	0xbde40f7a	-0.111357644
24	0xbe758c41	-0.23979284
25	0x3d8a179a	0.06742783
26	0x3e1964ce	0.1497986
27	0xbe0cdac6	-0.1375533
28	0xbde5b1f3	-0.11215582
29	0x3e207eaf	0.15673326
30	0xbe2e96a6	-0.17049655
31	0x3ebb7f5a	0.366206
32	0xbd9a364a	-0.07529886
33	0x3cb4e223	0.022080487
34	0xbcd702eb	-0.026246509
35	0x3e84911e	0.25891966
36	0x3e4da56d	0.20082636
37	0xbca6a87a	-0.020344008
38	0x3df3d377	0.11905568
39	0xbd80cd13	-0.06289115
40	0xbd96c86d	-0.07362447
41	0x3cfdd0b5	0.030983308
42	0xbcabd992	-0.020977769
43	0xbdb81323	-0.08988025
44	0x3ddcd340	0.1078248
45	0xbcea5541	-0.028605105
46	0xbdec9295	-0.11551396
47	0x3e2e9821	0.1705022
48	0xbd74dd6b	-0.059781473
49	0xbcabf0d8	-0.020988867
50	0xbd05fa01	-0.032709125
51	0xbdee61ea	-0.116397694
52	0x3d9603ad	0.0732492
53	0x3c4f4459	0.012650573
54	0xbdad0f34	-0.084501654
55	0xbd336aa7	-0.043802883
56	0xbe0e38be	-0.13888833
57	0xbdc1ce8e	-0.09463225
58	0xbc54a4ed	-0.0129787745
59	0x3e2982ac	0.16553754
60	0x3d7fdb50	0.062465012
61	0x3d491d8e	0.04910045
62	0x3c0c1b8c	0.00855149
63	0xbd7b221b	-0.061311822
64	0x3d1a33ec	0.037647173
65	0x3e50e8d5	0.20401318
66	0x3dfe577d	0.12419031
67	0x3d836f4c	0.064177126
68	0xbdcab520	-0.09897828
69	0xbe187d3d	-0.14891525
70	0x3d97a27e	0.0740404
71	0xbe0f641c	-0.14003032
72	0xbd01a527	-0.031651642
73	0x3d2fa7fc	0.04288481
74	0xbd1d19ee	-0.038354807
75	0x3e5ce803	0.2157288
76	0x3dbb04d2	0.09131779
77	0xbe84ffdf	-0.25976464
78	0x3d8be31f	0.06830429
79	0x3d919a85	0.071095504
80	0xbde9f71b	-0.11424085
81	0xbdc80b37	-0.09767764
82	0xbd01af0e	-0.031661086
83	0x3da432e4	0.08017519
84	0xbe12052d	-0.14259787
85	0x3e042e77	0.1290835
86	0x3e51b30a	0.20478454
87	0xbe92326b	-0.2855409
88	0x3db46384	0.088080436
89	0xbe54fe45	-0.20800121
90	0x3c397c4d	0.0113211395
91	0x3e78e189	0.24304785
92	0x3dee6745	0.11640791
93	0x3c5ace05	0.013354783
94	0xbdb93528	-0.09043342
95	0xbdbc32c9	-0.09189374
96	0xbd075f97	-0.033050146
97	0xbd3e7457	-0.04649767
98	0x3e949c0f	0.29025313
99	0xbd6149a1	-0.05500186
100	0x3d867264	0.06564787
101	0xbd11d850	-0.035606682
102	0xbe1058d6	-0.14096388
103	0xbe1df30b	-0.15424745
104	0x3d829fd4	0.06378141
105	0xbc6aae13	-0.014323729
106	0xbd331404	-0.04372026
107	0x3e8570a0	0.2606249
108	0xbe04f92d	-0.12985678
109	0x3c15ea75	0.009150137
110	0xbde05867	-0.109543614
111	0xbcbce1f2	-0.023056958
112	0xbe724506	-0.23659143
113	0x3dbc77eb	0.0920256
114	0x3e2f5e66	0.17125854
115	0x3e95c436	0.2925126
116	0x3dbdc572	0.09266175
117	0xbe3750c5	-0.17901905
118	0x3daa0af0	0.083028674
119	0xbe9ae5ac	-0.3025335
120	0xbd0bc35e	-0.034121864
121	0xbd09b002	-0.03361512
122	0xbe0dadd8	-0.13835847
123	0xbca7fe64	-0.020507045
124	0xbbfc7b07	-0.0077050957
125	0xbd48378e	-0.048881106
126	0x3e24ea1b	0.16104929
127	0x3db1a2c9	0.08673627
128	0xbdd42328	-0.10358268
129	0x3d9bdc06	0.076103255
130	0x3e1f2e94	0.15545112
131	0xbe1a9928	-0.15097487
132	0x3d8ef6a9	0.069806404
133	0x3df69c5a	0.120415404
134	0x3e1e9ade	0.15488765
135	0x3df64556	0.120249435
136	0x3e554925	0.20828684
137	0x3d40a3f9	0.047031377
138	0x3be6b44c	0.007040536
139	0xbcfbef33	-0.030753708
140	0xbe1448c1	-0.14480878
141	0xbe04927c	-0.12946504
142	0xbe0ce228	-0.13758147
143	0xbc7581cb	-0.014984558
144	0xbe2530fc	-0.16131967
145	0xbbc4c108	-0.0060044564
146	0x3d32c256	0.043642364
147	0xbe234c7d	-0.15947147
148	0xbe3932d6	-0.18085799
149	0xbe0cf791	-0.13766314
150	0xbe82c11c	-0.25537956
151	0x3e22cd03	0.15898518
152	0x3d1a73f5	0.03770824
153	0xbe53567a	-0.20638457
154	0xbe3c09e6	-0.18363151
155	0xbe79f49a	-0.24409714
156	0x3d86795d	0.06566117
157	0xbdfb19ab	-0.12260755
158	0x3d3a513b	0.045487624
159	0xbe1fcc14	-0.15605193
160	0x3d1aedb2	0.03782434
161	0xbe7461d4	-0.23865443
162	0xbdf0f415	-0.11765305
163	0x3da47717	0.08030527
164	0x3e04cc23	0.12968497
165	0xbdb04c3e	-0.08608292
166	0xbc8b9694	-0.017039575
167	0x3c4ba1f6	0.012428751
168	0xbda28e12	-0.07937254
169	0xbd228950	-0.039681733
170	0x3da3e945	0.08003477
171	0xbd081a5d	-0.033228267
172	0x3d566c00	0.05234909
173	0x3d36eae7	0.044657614
174	0xbe91fef9	-0.2851484
175	0x3c580aae	0.01318614
176	0x3e03f272	0.12885454
177	0x3e9adf9c	0.30248725
178	0xbc8b0f30	-0.016975015
179	0xbe08dc08	-0.13365185
180	0xbe117d0f	-0.14207862
181	0x3e6fb1f1	0.23407723
182	0xbbbb8a2d	-0.005723259
183	0xbe8b91eb	-0.27259764
184	0x3d61966e	0.0550751
185	0xbd26cd8d	-0.040723372
186	0x3c9c6d2a	0.019095022
187	0x3e9c674f	0.30547568
188	0xbc1e9e9c	-0.00968137
189	0xbcd9cbb1	-0.026586385
190	0x3debfa6e	0.11522375
191	0xbd59e1cb	-0.05319385
192	0xbe497640	-0.19674015
193	0xbc86abd4	-0.016439356
194	0x3d117e9b	0.03552113
195	0xbdee6507	-0.11640363
196	0x3dc35196	0.09537046
197	0x3ec56dff	0.38560483
198	0x3d600169	0.054688845
199	0xbdf419b7	-0.11918967
200	0x3dd00170	0.10156524
201	0x3cd0ddc0	0.025496364
202	0xbe0b16ef	-0.13582967
203	0xbd94c457	-0.07264011
204	0x3d7f5662	0.06233824
205	0x3e928ee5	0.28624645
206	0x3d443063	0.047897708
207	0xbe196fa4	-0.14983994
208	0xbd250527	-0.040288117
209	0x3bccb861	0.0062475656
210	0x3e461076	0.19342217
211	0x3e19f0ed	0.15033312
212	0xbdadfc6d	-0.08495412
213	0xbdb54b71	-0.0885228
214	0xbd9dea87	-0.07710748
215	0x3d474997	0.048654165
216	0x3d7260ba	0.059174277
217	0xbe28c85e	-0.16482684
218	0xbd122934	-0.035683826
219	0xbd7e5294	-0.06209047
220	0x3e2dd9db	0.16977637
221	0xbe866869	-0.26251534
222	0x3d864558	0.06556195
223	0x3cbe1eae	0.023207989
224	0xbdb74097	-0.089478664
225	0x3e58a80b	0.21157853
226	0x3d72e46f	0.059299883
227	0xbd6fe4fa	-0.05856798
228	0xbe3b54df	-0.18294095
229	0x3e2d7d5e	0.16942355
230	0x3d21279c	0.039344415
231	0x3dd2e3ad	0.10297332
232	0x3cbf4893	0.023350036
233	0xbe0eb064	-0.13934475
234	0x3d84049b	0.06446191
235	0xbdb3c3fa	-0.08777614
236	0x3cd7ba9f	0.026334105
237	0xbd8e3bfa	-0.06945033
238	0xbd1311e4	-0.035905734
239	0xbddd2fe1	-0.10800148
240	0x3c4e6ac1	0.012598694
241	0xbd000f0d	-0.031264354
242	0x3e56b224	0.20966393
243	0x3ab1745e	0.0013538708
244	0xbd1cc469	-0.03827325
245	0x3e5c375a	0.2150549
246	0xbd73b940	-0.05950284
247	0xbe541967	-0.20712815
248	0x3d185fea	0.037200846
249	0xbe048e86	-0.12944993
250	0xbcd7ac23	-0.026327198
251	0x3e75c663	0.2400146
252	0x3cf742fe	0.030183312
253	0x3e8f1a27	0.2794964
254	0x3d42f8ce	0.04760056
255	0xbe51e0f5	-0.2049597

encoder.net.5.bias f4 [32]
0	0x3d3a99f0	0.045556962
1	0xbd32a571	-0.04361481
2	0xbd362e10	-0.044477522
3	0x3d445c59	0.047939632
4	0xbd3cb023	-0.046066415
5	0xbd2216ec	-0.03957264
6	0x3d568428	0.052372128
7	0x3d34c8b0	0.044136703
8	0x3d685e26	0.056730412
9	0xbd8dc9a8	-0.069232285
10	0xbd1c6133	-0.038178634
11	0xbd46b77c	-0.048514828
12	0xbcb66a83	-0.022267586
13	0xbd134c67	-0.035961535
14	0xbca74473	-0.020418381
15	0xbce79c3c	-0.02827274
16	0x3d160cc9	0.036633287
17	0x3d84bbfd	0.064811684
18	0xbd30613f	-0.04306149
19	0xbd1e74d9	-0.038685653
20	0x3c854cc0	0.016271949
21	0x3d52216b	0.0513014
22	0x3d95c544	0.07313016
23	0x3d800130	0.062502265
24	0x3d70d2b9	0.05879471
25	0xbccc0b81	-0.02490783
26	0xbd8ffab8	-0.07030243
27	0x3d58ee75	0.052961785
28	0x3d17ff3c	0.037108645
29	0xbd103b5a	-0.035212852
30	0xbd50a1cc	-0.05093555
31	0xbd98404f	-0.07434141

predictor.net.1.weight f4 [32, 32]
0	0xbe54c75f	-0.20779179
1	0xbdaaad40	-0.08333826
2	0xbe818850	-0.2529931
3	0x3e15b3c7	0.14619361
4	0xbc50f35c	-0.012753334
5	0xbdf82443	-0.121162914
6	0x3dde0c42	0.10842182
7	0x3e0f0fbe	0.13970849
8	0x3df94694	0.12171665
9	0xbe35b4af	-0.17744707
10	0xbc1fd0d5	-0.009754379
11	0xbe1c002b	-0.15234439
12	0x3de35b2c	0.11101374
13	0x3e83869b	0.25688633
14	0x3d80b606	0.06284718
15	0xbd352e5a	-0.044233657
16	0x3dc152b0	0.094395995
17	0xbe782ed3	-0.24236612
18	0xbdda03b3	-0.10645237
19	0xbdc2747a	-0.094948724
20	0x3dcb2354	0.09918848
21	0xbdcab18a	-0.09897144
22	0x3e3950fd	0.18097301
23	0x3e8215b6	0.2540719
24	0xbd97d468	-0.0741356
25	0xbdcc384e	-0.09971677
26	0xbd75298c	-0.059854075
27	0x3e06476f	0.13113187
28	0xbdf26ec7	-0.11837535
29	0xbe6e637a	-0.23280135
30	0xbe340db1	-0.17583348
31	0x3ce85d9a	0.028364945
32	0x3d2b462a	0.04181496
33	0x3db28cb8	0.08718246
34	0x3ebf4199	0.37354735
35	0xbda60812	-0.08107008
36	0x3cf48cd5	0.02985231
37	0xbe1876d3	-0.14889078
38	0x3d930531	0.071787246
39	0xbe1e458e	-0.1545622
40	0x3eb7a285	0.3586618
41	0x3e97a486	0.2961771
42	0xbdd6946c	-0.10477528
43	0xbe358db8	-0.17729843
44	0xbc5a2fe6	-0.013317084
45	0x3e25fc44	0.16209513
46	0xbe450037	-0.19238363
47	0xbc40bfa9	-0.011764445
48	0xbce99b61	-0.028516473
49	0x3e1f95f2	0.15584543
50	0x3db70dc6	0.08938174
51	0x3ecc9006	0.3995363
52	0xbe1aab9d	-0.15104528
53	0xbeb7e1ff	-0.3591461
54	0x3e2ab2d5	0.16669782
55	0x3ed6d444	0.4195882
56	0x3e5181c5	0.2045966
57	0x3df99ff0	0.12188709
58	0x3c026eb7	0.007960967
59	0xbd9cec3d	-0.076622464
60	0x3e5d0339	0.2158326
61	0xbe3fa492	-0.18715122
62	0x3de1d240	0.1102643
63	0xbdaf208a	-0.08551128
64	0xbe002403	-0.12513737
65	0x3c49bc3a	0.012312943
66	0xbe10d4d3	-0.14143686
67	0xbec682af	-0.3877158
68	0x3e302696	0.1720222
69	0xbe080a21	-0.13285114
70	0xbd8b4416	-0.06800096
71	0x3e474925	0.19461496
72	0x3e5df560	0.21675634
73	0xbe9a2a3d	-0.3011035
74	0x3e227bc8	0.15867531
75	0xbd13621e	-0.035982244
76	0xbdba253b	-0.090891324
77	0x3db7bd67	0.089716725
78	0x3e565fcb	0.2093498
79	0x3ea1d9b0	0.31611395
80	0xbe92178b	-0.28533587
81	0x3c5b0de4	0.013370011
82	0xbd824f06	-0.06362729
83	0xbd05d727	-0.03267589
84	0xbb86e232	-0.00411632
85	0xbdc8a12c	-0.09796366
86	0xbe3beba4	-0.18351609
87	0x3e1fec92	0.15617588
88	0x3d17ce06	0.037061714
89	0xbd955809	-0.07292182
90	0x3e44d6cf	0.19222568
91	0xbe6a793d	-0.22897811
92	0xbca20031	-0.019775482
93	0xbda3498b	-0.079730116
94	0xbe3ea1e5	-0.18616445
95	0x3c6bc0c8	0.014389224
96	0x3dcbd3b2	0.09952487
97	0xbd82ddaf	-0.06389939
98	0xbe78924d	-0.2427456
99	0x3d29be60	0.04144132
100	0xbe50c5cb	-0.20387952
101	0xbe26db18	-0.16294515
102	0x3e75fd8f	0.24022506
103	0x3e99fec1	0.30077174
104	0x3e4d4982	0.20047572
105	0xbe059a4d	-0.13047142
106	0xbdcf2345	-0.10114149
107	0xbe679b9f	-0.22617958
108	0x3d8201c2	0.063479915
109	0x3cf9cfdf	0.030494628
110	0x3d336b80	0.043803692
111	0xbcbf9cde	-0.02339023
112	0x3de07142	0.10959102
113	0x3d9e275c	0.07722351
114	0xbeb22cef	-0.34799907
115	0x3ce9bcef	0.028532473
116	0xbe3fb1c0	-0.1872015
117	0x3e1bcdd4	0.15215236
118	0x3e90e10e	0.28296703
119	0x3e405431	0.18782116
120	0x3e922e7e	0.28551096
121	0xbe0209ca	-0.12699047
122	0xbe2c1c22	-0.16807607
123	0x3d8bbcd2	0.06823124
124	0x3e01cd45	0.1267596
125	0xbd6a33c1	-0.057178263
126	0xbd57740e	-0.052600913
127	0xbe7c065a	-0.24611798
128	0xbd91347c	-0.07090089
129	0xbe0d6c70	-0.13810897
130	0xbdad4e3d	-0.084621884
131	0x3dbff152	0.093722
132	0x3d44805e	0.047973983
133	0xbd461ba4	-0.048366204
134	0x3d64e4de	0.055882327
135	0x3e40ec0c	0.18840045
136	0xbecfaeab	-0.4056295
137	0xbeb71a4e	-0.35762256
138	0x3dc157e4	0.09440592
139	0x3e2241ce	0.15845415
140	0x3e23e1e4	0.16004139
141	0x3e24d3b3	0.16096382
142	0x3e1b3187	0.15155612
143	0xbdc64397	-0.096808605
144	0x3d824dcc	0.06362495
145	0x3dc78a31	0.09743155
146	0x3e24d8fb	0.16098396
147	0x3d4bc347	0.049746778
148	0xbe23e1bd	-0.16004081
149	0x3ebde24f	0.37086722
150	0x3df76f5c	0.12081787
151	0xbe1806c8	-0.14846337
152	0x3e6a6881	0.22891428
153	0x3d2c0b3f	0.042002913
154	0xbd4ba7e6	-0.049720667
155	0x3e66aa5c	0.22525924
156	0xbe182383	-0.14857297
157	0x3d43c36d	0.047793794
158	0xbdfe6740	-0.12422037
159	0xbab0d109	-0.0013490032
160	0xbf06956c	-0.5257175
161	0x3e5f19d5	0.21787198
162	0x3eb98cc5	0.3624021
163	0xbee6d33f	-0.45083043
164	0xbd20c3b0	-0.039249122
165	0x3e836e46	0.2567007
166	0xbcc5f5dd	-0.024165088
167	0xbe20881a	-0.15676919
168	0xbd8578e4	-0.06517199
169	0x3cd0a1d8	0.025467798
170	0x3ddaafb2	0.106780425
171	0x3d44e072	0.04806561
172	0xbb610483	-0.0034334965
173	0x3e4b9fa4	0.19885117
174	0xbd83e04b	-0.06439265
175	0x3d86b5c2	0.06577636
176	0xbd9f0171	-0.07763947
177	0xbe0fc6cb	-0.14040677
178	0x3de216d8	0.11039513
179	0x3eccce64	0.40001214
180	0xbda7c1db	-0.08191272
181	0x3da467b0	0.08027589
182	0xbdc31927	-0.09526282
183	0xbec7eef5	-0.39049497
184	0x3d41b057	0.04728731
185	0xb909ce4d	-0.00013142191
186	0xbe370a6a	-0.17875066
187	0xbdcd701e	-0.1003115
188	0xbe70e99a	-0.23526612
189	0xbd93a612	-0.0720941
190	0xbe8c3ef3	-0.27391776
191	0xbe36dba5	-0.17857225
192	0xbb033607	-0.0020021216
193	0xbdaa8794	-0.08326641
194	0xbd7f79e5	-0.062372107
195	0xbcf07979	-0.029354798
196	0x3cc4569c	0.02396708
197	0xb8e1c043	-0.000107646476
198	0xbe4c27dd	-0.19937082
199	0x3dc768e3	0.097368024
200	0xbd85610a	-0.06512649
201	0xbdd4b119	-0.10385341
202	0xbe85e5e3	-0.26151952
203	0xbe506ad3	-0.2035325
204	0xbe2e7f33	-0.1704071
205	0xbc1dcac5	-0.009630864
206	0x3e1f43e6	0.15553245
207	0xbed13aff	-0.40865323
208	0x3e95c6ee	0.29253334
209	0xbe2b2ee3	-0.16717105
210	0x3e2a5f49	0.16637911
211	0x3e89f72a	0.26946384
212	0x3ebaa03a	0.36450368
213	0x3d393adb	0.045222145
214	0xbe911300	-0.28334808
215	0xbe24ae2a	-0.16082063
216	0x3ea6314d	0.3245949
217	0x3e46f3a8	0.19428885
218	0x3d3ed42e	0.04658907
219	0xbda314a3	-0.079629205
220	0x3c1d4236	0.009598305
221	0x3e3f2173	0.18665104
222	0x3d3f029b	0.046633344
223	0xbecfefa9	-0.40612534
224	0x3e14b937	0.14523779
225	0x3d5edc87	0.05440953
226	0x3d3d3109	0.04618934
227	0xbe2a02c4	-0.16602618
228	0x3cf22977	0.029560788
229	0xbdadda67	-0.084889226
230	0x3e62f211	0.22162654
231	0xbe7049a1	-0.23465587
232	0xbea37f50	-0.3193307
233	0x3adf4150	0.0017033014
234	0xbdf77223	-0.12082317
235	0x3e8bc375	0.2729756
236	0xbddf641b	-0.109077655
237	0x3e9173b0	0.28408575
238	0x3dc272c7	0.09494548
239	0x3d0280ad	0.031860996
240	0xbc6772c1	-0.014126481
241	0xbdd7b4d6	-0.105325386
242	0xbd6cada5	-0.057782788
243	0x3e886052	0.26635987
244	0x3c1ad84e	0.009450985
245	0x3ec3abad	0.38216916
246	0xbe281b4d	-0.16416664
247	0xbdab08e2	-0.08351304
248	0x3e806ec9	0.25084522
249	0x3def9806	0.11698918
250	0x3e114650	0.14186978
251	0x3e12c0c5	0.14331348
252	0x3e37a964	0.17935711
253	0x3e63aefd	0.22234721
254	0xbe013b7e	-0.1262035
255	0xbca51548	-0.02015175

predictor.net.1.bias f4 [32]
0	0xbe0fc6ed	-0.14040728
1	0x3e362df3	0.17790966
2	0x3e1045f6	0.14089188
3	0x3e0f0ea0	0.13970423
4	0xbe10c80a	-0.14138809
5	0x3e7d777e	0.24752614
6	0x3ddec1ea	0.1087683
7	0xbded28f8	-0.1158008
8	0xbe10085e	-0.14065692
9	0xbf19aa39	-0.60025364
10	0x3de4bbbb	0.11168619
11	0x3e09007b	0.1337909
12	0x3e32fefc	0.17480081
13	0xbddb9627	-0.10721999
14	0xbe0612f0	-0.13093162
15	0x3e837e9c	0.25682533
16	0x3e6b5d0a	0.2298471
17	0x3e0611c7	0.13092719
18	0x3e04862a	0.12941805
19	0x3defa8e6	0.11702137
20	0xbdf5c6a4	-0.12000778
21	0x3e09d852	0.13461426
22	0xbe00a882	-0.1256428
23	0xbd738514	-0.059453085
24	0x3d6b1d8d	0.05740123
25	0xbe3623e6	-0.17787132
26	0x3de5c9b2	0.11220111
27	0x3e0f459f	0.13991402
28	0x3e51580e	0.20443746
29	0xbe249b4e	-0.16074869
30	0x3de76658	0.112988174
31	0x3df439d2	0.11925091

predictor.net.3.weight f4 [1, 32]
0	0xbe3b3a70	-0.18284011
1	0x3d4ebb36	0.050471507
2	0x3e1385a8	0.14406455
3	0x3ede579e	0.43426222
4	0xbd62980d	-0.05532079
5	0x3dc521e4	0.09625605
6	0x3e062763	0.13100962
7	0xbeab7f9e	-0.33495802
8	0xbe11e064	-0.14245754
9	0xbda590b8	-0.080842435
10	0x3e5ca40d	0.21546955
11	0x3e39990e	0.18124792
12	0x3dd97d93	0.106196545
13	0xbe96e7f3	-0.29473838
14	0xbe4a9525	-0.19783457
15	0x3c85d7e1	0.01633829
16	0x3e3918c7	0.18075858
17	0x3e2b762c	0.16744298
18	0x3ecb98b1	0.39764932
19	0x3d051b2a	0.03249661
20	0xbde59c97	-0.11211508
21	0x3e82e5bd	0.255659
22	0xbeaba189	-0.3352168
23	0xbb574355	-0.003284653
24	0x3b0c08c6	0.0021367534
25	0xbe13b4b1	-0.14424397
26	0x3f01e1b1	0.50735
27	0x3e4597c3	0.19296174
28	0x3d8e6968	0.069536984
29	0xbdcad29c	-0.09903452
30	0x3e4ec6f9	0.2019309
31	0x3eed9f3a	0.46410543

net.0.weight f4 [60, 35]
0	0xbd714ceb	-0.058911245
1	0x3e99d007	0.30041525
2	0x3cd387cc	0.025821589
3	0xbcb38edc	-0.021918707
4	0x3e4df4b0	0.20112872
5	0x3e4984f4	0.19679624
6	0xbd90e86d	-0.07075582
7	0x3e2fb4f1	0.17158867
8	0xbcc69a01	-0.024243357
9	0xbe207baa	-0.15672174
10	0xbe5ffd44	-0.21873957
11	0x3c296ed0	0.010341361
12	0x3e397ff1	0.18115212
13	0xbe0347a3	-0.12820296
14	0x3e49c97b	0.19705765
15	0x3df18f38	0.11794895
16	0xbc84bf07	-0.01620437
17	0xbdefe8de	-0.11714338
18	0x3d013ef6	0.031554185
19	0x3dbb1901	0.091356285
20	0xbd15c288	-0.036562473
21	0xbca6b856	-0.02035157
22	0xbe0ba086	-0.13635454
23	0xbe209c5b	-0.15684645
24	0x3e2e6f74	0.17034703
25	0xbe119e4b	-0.1422054
26	0x3df0f74e	0.117659196
27	0x3e472216	0.19446597
28	0x3df51759	0.11967344
29	0xbd359952	-0.04433567
30	0x3eaa85e2	0.3330527
31	0x3e85db25	0.26143757
32	0xbd70db32	-0.05880279
33	0x3d86c916	0.06581323
34	0xbc897a16	-0.016781848
35	0x3e842073	0.25806007
36	0xbd999f9d	-0.07501147
37	0xbe435950	-0.19077039
38	0xbe0ae072	-0.13562182
39	0x3d224cde	0.039624088
40	0xbe025163	-0.12726359
41	0x3e14e18b	0.14539163
42	0xbd0d07f2	-0.034431405
43	0xbd941a76	-0.072316095
44	0x3bbc490a	0.0057460116
45	0xbe3ecded	-0.18633242
46	0x3d30b60d	0.043142367
47	0xbd0e4287	-0.034731414
48	0xbda458a1	-0.08024717
49	0xbe578f24	-0.21050698
50	0x3e3bad8a	0.18327919
51	0x3d69e357	0.057101574
52	0x3e040b1d	0.12894864
53	0xbdc03367	-0.09384804
54	0xbd45a380	-0.04825163
55	0x3aa31200	0.0012441278
56	0xbd02853b	-0.03186534
57	0xbdcf4092	-0.10119738
58	0x3ce6ac8b	0.028158447
59	0x3d77c5e4	0.060491458
60	0xbe2a88ba	-0.1665372
61	0x3e0f49b5	0.13992961
62	0x3cc7f742	0.024409894
63	0xbdda1911	-0.10649312
64	0xbcdb763a	-0.026789773
65	0x3db536a2	0.08848311
66	0xbe46a5cd	-0.19399185
67	0x3ded4ee2	0.11587311
68	0xbb9b4fa1	-0.004739717
69	0xbded4487	-0.11585336
70	0xbe526050	-0.20544553
71	0xbcf8fd7d	-0.03039431
72	0x3d025ec8	0.03182867
73	0xbc952190	-0.01820448
74	0xbd12f565	-0.035878558
75	0xbe6f1489	-0.23347677
76	0x3dda21ed	0.10651002
77	0x3e2e21e5	0.17005117
78	0xbb1befda	-0.0023794086
79	0x3ddd6d69	0.10811884
80	0xbd91cc49	-0.071190424
81	0x3e46c6ca	0.1941177
82	0x3dfd6455	0.123726524
83	0x3db60782	0.08888151
84	0x3e05f1b3	0.13080482
85	0xbbbb2c4b	-0.0057120672
86	0xbd961f9d	-0.073302485
87	0x3c46b8a3	0.012128982
88	0x3cc31662	0.023814384
89	0xbdcaadae	-0.09896408
90	0xbdfe8533	-0.124277495
91	0xbe97bcd7	-0.2963626
92	0x3d92d5e2	0.07169701
93	0x3dd73a60	0.10509181
94	0x3b457ecf	0.0030135398
95	0x3c994c2b	0.018713078
96	0xbc57b521	-0.013165743
97	0xbd37c4d1	-0.044865433
98	0xbdaec758	-0.085341156
99	0xbe0ec698	-0.13942945
100	0x3e31bab7	0.17356382
101	0xbccd378c	-0.0250509
102	0x3dc51d8e	0.09624778
103	0x3d7d17f8	0.061790437
104	0xbe1a4fdc	-0.15069526
105	0x3ae30bb9	0.0017322219
106	0xbd00899f	-0.031381246
107	0x3d09a1b1	0.033601467
108	0xbd550440	-0.052006006
109	0x3d8383d3	0.06421628
110	0xbee4d2a9	-0.4469197
111	0xbe5bb87e	-0.21457097
112	0x3dd7e48f	0.10541641
113	0xbcfd929d	-0.0309537
114	0xbdac3d2b	-0.08410104
115	0x3c7aefe4	0.015315983
116	0xbe08aa9e	-0.13346335
117	0x3e94023d	0.28907958
118	0xbe838ba8	-0.25692487
119	0x3cb7c30c	0.022431873
120	0x3e06ab39	0.13151254
121	0x3e589d13	0.21153669
122	0xbdb89f91	-0.0901481
123	0x3cb8ffa6	0.02258284
124	0x3d3ecec7	0.046583917
125	0xbebec1e3	-0.372573
126	0x3e07698d	0.13223858
127	0x3d73c05f	0.05950963
128	0xbe6a8630	-0.22902751
129	0x3db1a319	0.086736865
130	0xbe441d96	-0.19151911
131	0xbdec8f86	-0.115508124
132	0x3a5f7444	0.00085241
133	0x3e797cd6	0.24364027
134	0xbd7d10b8	-0.061783522
135	0xbe0b9a44	-0.13633066
136	0x3da3dd30	0.080011725
137	0x3e0d6db6	0.13811383
138	0x3e08deee	0.13366291
139	0x3da8d073	0.082428835
140	0x3ce90f73	0.02844975
141	0xbe52b480	-0.20576668
142	0x3e194cdc	0.14970726
143	0xbda00d98	-0.07815093
144	0x3cdd25c5	0.026995549
145	0xbdfa5bc3	-0.122245334
146	0x3df0b09f	0.11752438
147	0xbe815123	-0.25257215
148	0xbe2de510	-0.16981912
149	0x3e04fb11	0.12986399
150	0xbcf90e62	-0.030402366
151	0x3de98178	0.11401647
152	0xbd97f273	-0.074192904
153	0xbd2cbeb2	-0.04217405
154	0x3d6ecd84	0.058301464
155	0xbc6d149d	-0.014470247
156	0xbd46c179	-0.048524354
157	0x3d63bfe7	0.055602934
158	0xbe7933ed	-0.24336214
159	0x3be14869	0.006875087
160	0x3dfc4d66	0.1231945
161	0x3e50c3d0	0.20387197
162	0x3d94201d	0.072326876
163	0x3d998b92	0.07497324
164	0x3e38d729	0.18050827
165	0x3d9ca76b	0.0764912
166	0xbdc85f9d	-0.09783862
167	0x3c4aaa01	0.012369634
168	0xbd4d007b	-0.050049286
169	0xbc5fcec5	-0.013660138
170	0x3dc3a5fa	0.09553142
171	0x3dea2b37	0.11434024
172	0xbdb712a1	-0.089391
173	0xbd906546	-0.070505664
174	0x3d675eef	0.05648702
175	0x3c3be563	0.011468264
176	0x3e40e3cb	0.18836896
177	0x3d89cf50	0.06728995
178	0x3d02adcc	0.031904027
179	0x3df00820	0.117203
180	0xbdc91d12	-0.09819998
181	0xbc73f057	-0.014888844
182	0x3e3c02aa	0.18360391
183	0xb9740244	-0.00023270497
184	0x3e7ed457	0.24885689
185	0xbda8689b	-0.08223077
186	0xbe2d37cd	-0.16915818
187	0xbe0aa788	-0.1354047
188	0xbe4406a1	-0.19143154
189	0x3da27145	0.07931761
190	0xbd57f398	-0.052722543
191	0x3eb00f36	0.34386605
192	0x3ca851bb	0.020546785
193	0x3ead09ae	0.33796448
194	0x3d1eae49	0.03874043
195	0x3e9b53bf	0.3033733
196	0xbd013db5	-0.03155299
197	0xbdcc1c48	-0.09966332
198	0x3929b3f6	0.00016184137
199	0xbe9b699d	-0.30354014
200	0xbe5432ba	-0.20722476
201	0xbdea6b3c	-0.114462346
202	0x3c31c7ea	0.010850886
203	0x3d3e1c14	0.046413496
204	0xbd8564cd	-0.06513367
205	0x3afa6c13	0.0019105695
206	0x3de2fc37	0.110832624
207	0xbd855d92	-0.06511988
208	0x3df3384c	0.11875972
209	0xbdfca0de	-0.123353705
210	0x3d0559cf	0.03255635
211	0xbe753550	-0.23946118
212	0xbe3459e9	-0.17612423
213	0x3dc3e7e9	0.09565718
214	0xbe1ec100	-0.15503311
215	0x3e49dc80	0.1971302
216	0xbe81fbac	-0.25387323
217	0x3cd0799e	0.025448617
218	0xbdb00002	-0.085937515
219	0xbb828392	-0.0039829696
220	0x3dbfbedc	0.093625754
221	0x3b934de7	0.0044953707
222	0xbd5e997e	-0.0543456
223	0x3e60c12d	0.2194869
224	0xbd236e25	-0.039899964
225	0xbd3f34f5	-0.046681363
226	0x3d8893ff	0.06668853
227	0xbd1a1077	-0.03761336
228	0xbd144996	-0.03620299
229	0xbe22d5b9	-0.15901841
230	0xbc4725ca	-0.012155006
231	0x3d8e7580	0.06956005
232	0xbcdfffb5	-0.02734361
233	0x3e87cb0b	0.26522097
234	0xbd8c2e6c	-0.06844792
235	0x3d73cf5d	0.05952393
236	0xbe70631c	-0.23475307
237	0x3e6b5613	0.22982053
238	0xbe05e065	-0.13073881
239	0x3e20167b	0.15633576
240	0xbe5c8aaf	-0.21537279
241	0x3a34d11d	0.00068976154
242	0xbcd7da6f	-0.026349274
243	0xbe5ae660	-0.21376944
244	0xbe3adc09	-0.18247999
245	0x3e182304	0.14857107
246	0x3cb4542f	0.022012798
247	0x3d1b99b5	0.037988383
248	0x3e5860d7	0.21130691
249	0x3d3c0b20	0.045909047
250	0x3e56f662	0.20992425
251	0x3e61c2f5	0.22047026
252	0x3da5ae71	0.08089913
253	0x3cac9249	0.021065848
254	0xbd391a18	-0.0451909
255	0xbd0ac0fe	-0.033875458

net.0.bias f4 [60]
0	0x3d68bfce	0.056823544
1	0x3b3ce1bb	0.002882107
2	0xbc44d92f	-0.012014671
3	0xbcd2aecc	-0.025718115
4	0xbe1a046d	-0.15040751
5	0x3da5f0ff	0.08102607
6	0x3dc6b2dd	0.09702084
7	0xbdaeab20	-0.08528733
8	0xbe441906	-0.1915017
9	0xbe1b2777	-0.15151773
10	0xbd545062	-0.05183447
11	0x3df6d36c	0.12052044
12	0xbe013744	-0.12618738
13	0x3df16d78	0.11788458
14	0xbdbb0157	-0.09131115
15	0xbe06a462	-0.13148645
16	0xbcd56610	-0.026049644
17	0xbd21169f	-0.039328214
18	0xbe2e8912	-0.17044476
19	0xbc4c6632	-0.012475537
20	0x3d63705b	0.055527072
21	0xbcd58d85	-0.026068458
22	0xbde8a6e7	-0.11359959
23	0xbc8bc192	-0.017060075
24	0xbdb3fee2	-0.087888494
25	0xbd46c954	-0.048531845
26	0xbd98d000	-0.07461548
27	0x3e0f2faf	0.13983034
28	0xbd7ec5b0	-0.06220025
29	0x3b207183	0.002448172
30	0x3e1b4e2f	0.15166543
31	0x3e236f75	0.15960486
32	0x3de83e6a	0.113400295
33	0x3dbf4073	0.093384646
34	0x3df3315d	0.1187465
35	0x3da1648a	0.078805044
36	0xbdfbf45a	-0.12302466
37	0xbe0963e5	-0.13417013
38	0x3c668345	0.014069383
39	0x3da4e1f3	0.08050909
40	0xbe070511	-0.13185526
41	0x3defd0f7	0.11709779
42	0x3dba677f	0.091017716
43	0x3c99f497	0.018793387
44	0xbd46cbb4	-0.04853411
45	0x3dad42a4	0.08459976
46	0xbddc932e	-0.1077026
47	0x3dc7e1a6	0.09759836
48	0x3e28e0fc	0.16492075
49	0x3e033912	0.1281474
50	0xbdcc29d3	-0.09968915
51	0x3e0d3439	0.13789453
52	0x3e2a44c1	0.1662779
53	0xbd970b08	-0.07375151
54	0x3d2b24b4	0.04178305
55	0xbe0629ec	-0.1310193
56	0x3d9e07f1	0.077163585
57	0xbda53f88	-0.08068758
58	0x3dc9bdba	0.098506406
59	0xbdf8e9d3	-0.121539734

net.2.weight f4 [60, 60]
0	0x3e56503a	0.20929042
1	0x3dbfef4f	0.09371816
2	0xbe82745b	-0.25479397
3	0xbd111a55	-0.035425503
4	0xbc377d03	-0.011199239
5	0xbd37bb40	-0.04485631
6	0xbdc39cef	-0.09551417
7	0xbd68769c	-0.05675374
8	0xbd249c0a	-0.040187873
9	0xbdc1ee73	-0.09469309
10	0x3e87542e	0.26431412
11	0x3d358403	0.04431535
12	0xbe31bec9	-0.17357935
13	0x3d85ccae	0.0653318
14	0x3d80f9fc	0.06297681
15	0xbdbe3ebe	-0.09289311
16	0xbd8b2412	-0.06793989
17	0xbdbfe0ea	-0.09369071
18	0xbe1cbe45	-0.15306957
19	0x3dc2cd2a	0.09511788
20	0x3e937985	0.2880365
21	0xbddfd584	-0.10929397
22	0x3e22167e	0.15828893
23	0x3df77edf	0.120847456
24	0xbe5b4185	-0.21411712
25	0xbd40e0fe	-0.04708957
26	0xbd4d0512	-0.050053664
27	0x3c2daa0f	0.010599627
28	0x3dd85bac	0.1056436
29	0xbcf48c2b	-0.029851994
30	0xbd753e35	-0.05987378
31	0x3d802fca	0.06259115
32	0xbdb2533b	-0.08707281
33	0x3e23f220	0.16010332
34	0x3e227bb2	0.15867499
35	0xbd370855	-0.04468568
36	0xbccde16e	-0.025131907
37	0xbbcc5d82	-0.006236733
38	0x3c9b5707	0.018962396
39	0x3e2c2825	0.16812189
40	0x3e00529a	0.1253151
41	0x3e0bd3e9	0.13655056
42	0xbe3066e6	-0.17226753
43	0x3de112d1	0.10989917
44	0x3d36b8ae	0.044609718
45	0xbd8e19df	-0.06938528
46	0xbea74522	-0.32669932
47	0x3beac1c3	0.0071642115
48	0x3e6e290c	0.23257846
49	0xbe161347	-0.14655791
50	0xbcb7311e	-0.022362288
51	0xbd3a2e6d	-0.04545443
52	0x3cca1c2f	0.024671642
53	0xbe6a59f5	-0.22885878
54	0xbd708dbc	-0.05872892
55	0x3dbeb911	0.09312642
56	0xbdabe0a4	-0.08392456
57	0xbd11762f	-0.0355131
58	0xbe0cd35a	-0.13752499
59	0xbdc1ec60	-0.09468913
60	0xbe8016bf	-0.25017354
61	0xbd640826	-0.055671833
62	0x3e102e89	0.14080252
63	0xbe21b9cc	-0.15793532
64	0x3dfaf976	0.12254612
65	0x3da908c7	0.08253627
66	0x3d9a10ac	0.07522711
67	0x3d423bda	0.04742036
68	0xbe745f7b	-0.23864548
69	0xbe0a6767	-0.13516007
70	0xbbb5174d	-0.0055264593
71	0xbe16fc32	-0.14744642
72	0xbd9569eb	-0.07295593
73	0x3e4c4a91	0.1995032
74	0xbd82c0cb	-0.063844286
75	0xbd26f26c	-0.040758535
76	0x3da0b33f	0.078466885
77	0xbd9c402d	-0.07629428
78	0x3e47955f	0.19490574
79	0xbbb49523	-0.0055109425
80	0x3db4571c	0.08805677
81	0xbd72043e	-0.059086077
82	0x3e273368	0.16328204
83	0xbe03df07	-0.12878047
84	0xbe1cba45	-0.15305431
85	0xbd80e47b	-0.06293579
86	0x3c2eee34	0.010676909
87	0xbdb8af0d	-0.09017763
88	0xbdc3272a	-0.09528954
89	0xbc7fe4f9	-0.015618556
90	0x3c911be8	0.017713502
91	0x3d59e2a2	0.05319465
92	0xbd96dc92	-0.07366289
93	0x399685ee	0.00028710015
94	0x3d559572	0.052144475
95	0x3cd6e38a	0.026231546
96	0xbd1a0a52	-0.0376075
97	0x3c08a24a	0.008339474
98	0xbdb8b9be	-0.090198025
99	0xbdd762cc	-0.10516891
100	0xbc8b69d1	-0.01701823
101	0x3c1d12f2	0.009587036
102	0x3d2541b6	0.04034587
103	0x3e13e2cc	0.14441985
104	0x3ae1105a	0.0017171011
105	0x3dbbba19	0.09166355
106	0x3e3b958f	0.18318771
107	0x3e6c4384	0.2307263
108	0x3abe838c	0.0014535054
109	0xbd6bf5c6	-0.057607435
110	0xbcfd5cb5	-0.030927995
111	0x3b6b0508	0.0035861153
112	0x3e0d468f	0.13796447
113	0xbe62082d	-0.22073431
114	0xbd644622	-0.055730946
115	0x3d1163d8	0.03549561
116	0xbba1a2a4	-0.0049327184
117	0x3e0a5c76	0.13511834
118	0xbdc6482c	-0.096817344
119	0x3d383df9	0.044980977
120	0x3ca6e457	0.020372553
121	0x3decb0e8	0.1155718
122	0xbd207914	-0.03917797
123	0xbe02bb1d	-0.1276669
124	0xbe312635	-0.17299731
125	0x3d44e443	0.04806925
126	0x3d9b2245	0.07574896
127	0x3e079d48	0.13243592
128	0xbd1afd5a	-0.03783927
129	0x3cae75af	0.02129635
130	0xbcbf0705	-0.023318777
131	0xbd49ba34	-0.049249843
132	0xbd956e1e	-0.07296394
133	0xbdfc6460	-0.123238325
134	0x3e632fee	0.22186252
135	0x3e29b19f	0.16571663
136	0x3d274df7	0.040845837
137	0xbd4bf142	-0.04979063
138	0xbd7c6ad8	-0.06162533
139	0xbbfdbfc1	-0.007743806
140	0xbc1f6caf	-0.009730502
141	0x3e48bc09	0.1960298
142	0x3e49a1ed	0.19690676
143	0xbda4c58e	-0.08045493
144	0x3c37aef9	0.01121115
145	0x3e12a03d	0.14318939
146	0xbe1b6eaf	-0.15178941
147	0xbd7a51e6	-0.06111326
148	0x3e805401	0.2506409
149	0xbc6f9b37	-0.014624408
150	0x3d8a28c4	0.06746057
151	0xbd6dd44d	-0.058063794
152	0xbe8edf07	-0.2790453
153	0x3d3abccb	0.045590203
154	0x3ead703a	0.33874685
155	0x3d43402d	0.047668625
156	0x3d2ef6d5	0.042715866
157	0x3e5433b1	0.20722844
158	0xbe56edbc	-0.20989126
159	0xbd186012	-0.037200995
160	0xbe64f718	-0.22359884
161	0xbc59de42	-0.013297619
162	0x3e28db2d	0.16489859
163	0xbdaecdb6	-0.0853533
164	0xbd38240b	-0.04495625
165	0xbe3fa53b	-0.18715374
166	0xbe42a39f	-0.19007729
167	0x3b9628e7	0.0045825127
168	0xbe812113	-0.25220546
169	0xbe55aab6	-0.20865902
170	0x3bb91f14	0.0056494568
171	0x3d3f61e2	0.046724208
172	0xbe6ee16c	-0.23328179
173	0x3d58424f	0.05279761
174	0xbdbe91de	-0.09305166
175	0xb9ecdf06	-0.00045179593
176	0x3d679107	0.056534793
177	0x3d0328e5	0.032021422
178	0x3c455591	0.012044326
179	0xbd260b48	-0.040538102
180	0xbe09e79f	-0.13467263
181	0x3d5090d0	0.050919354
182	0xbdbf92d3	-0.09354176
183	0xbd24d1ab	-0.040239017
184	0xbd04ad9a	-0.03239212
185	0x3e53dc4c	0.20689505
186	0xbd857f19	-0.065183826
187	0xbd2ed48f	-0.04268318
188	0x3cd960c4	0.0265354
189	0xbd2f27bf	-0.042762514
190	0xbbe815bc	-0.007082669
191	0x3d419bfd	0.047267903
192	0x3d06ecea	0.032940783
193	0x3bedba94	0.007254908
194	0x3dcaa353	0.09894433
195	0x3e77bf9c	0.24194187
196	0x3d40a32b	0.04703061
197	0x3d65de47	0.056120183
198	0x3b02c264	0.0019952292
199	0xbe316c45	-0.17326458
200	0xbd965547	-0.07340484
201	0x3b85af0a	0.004079704
202	0xbe4b3215	-0.19843324
203	0x3e4404ea	0.191425
204	0x3e148cfb	0.14506905
205	0xbda1cd3d	-0.07900474
206	0xbe04f9ae	-0.1298587
207	0xbd08db85	-0.033412475
208	0xbe52542a	-0.20539919
209	0xbc6ddf56	-0.0145185795
210	0x3d828f3e	0.063749775
211	0xbe618f0b	-0.22027223
212	0x3e036a4c	0.12833518
213	0xbeab9075	-0.3350865
214	0x3db84c4c	0.089989275
215	0xbb16e141	-0.0023022445
216	0x3dd2254d	0.10261021
217	0x3d5ca5d0	0.05386907
218	0xbcd4263e	-0.025897142
219	0x3dc5b8c7	0.09654384
220	0xbb901f39	-0.0043982533
221	0x3dbdb164	0.0926235
222	0x3de5bf16	0.112180874
223	0xbe113944	-0.14182001
224	0x3e0ee8fa	0.13956061
225	0x3e56a5c5	0.20961674
226	0x3da62852	0.08113159
227	0xbe730fcb	-0.23736493
228	0x3ebce820	0.36895847
229	0x3c17833f	0.0092476
230	0xbcd670a8	-0.026176766
231	0x3d67ac74	0.05656095
232	0xbdf1b242	-0.11801578
233	0xbd3c8cb5	-0.046032626
234	0xbdb76470	-0.08954704
235	0x3d26d627	0.040731575
236	0xbca7a064	-0.020462222
237	0x3ddc66fc	0.1076183
238	0xbcf7f391	-0.030267509
239	0x3e3936f2	0.18087366
240	0x3dbd76de	0.09251188
241	0x3c35e7a2	0.011102589
242	0xbc314296	-0.010819098
243	0xbd08e18c	-0.033418223
244	0x3d0f3305	0.034960765
245	0xbd237868	-0.03990975
246	0x3e28b0e7	0.16473733
247	0x3e0cc672	0.13747576
248	0xbdbf8a3e	-0.093525395
249	0xbe30ed02	-0.17277911
250	0x3dd6d9f3	0.10490789
251	0x3e324cf5	0.1741217
252	0x3dfe42ad	0.12415061
253	0x3d30d163	0.043168437
254	0xbe53a209	-0.2066728
255	0xbdfcdd48	-0.123468935

net.2.bias f4 [60]
0	0x3cb35a72	0.021893714
1	0xbc4672ac	-0.012112301
2	0x3da6718d	0.08127127
3	0xbaf1a18d	-0.0018434987
4	0xbca50c60	-0.020147502
5	0xbd6538a1	-0.05596221
6	0xbd9143a1	-0.07092977
7	0xbd6e9af9	-0.058253262
8	0x3b2a6c96	0.0026004664
9	0xbde76049	-0.11297662
10	0x3d902b6c	0.07039532
11	0x3d72b6b7	0.05925628
12	0x3d894f8f	0.06704628
13	0x3cee4c54	0.02908913
14	0x3def4e93	0.11684909
15	0x3d4d5446	0.050129198
16	0x3dd041c8	0.10168797
17	0x3c13a823	0.009012255
18	0x3d5536d8	0.052054256
19	0xbd9e695e	-0.07734941
20	0xbdc3400f	-0.095337026
21	0x3d7b5b81	0.06136656
22	0x3d8469bc	0.0646548
23	0x3d957789	0.0729819
24	0x3dcc3d98	0.099726856
25	0x3de06d9e	0.10958408
26	0xbdcda5e3	-0.10041406
27	0x3cffec80	0.031240702
28	0x3da53c1b	0.08068105
29	0x3c8d41af	0.017243234
30	0x3c468c2d	0.012118381
31	0xbce977e5	-0.028499553
32	0xbd4f9827	-0.050682213
33	0x3c57b3ed	0.013165456
34	0xbdac8dca	-0.084254816
35	0xbd5b2b9d	-0.05350839
36	0xbda284b1	-0.07935465
37	0x3d9b2363	0.07575109
38	0xbc58e16a	-0.013237337
39	0xbd174cbf	-0.036938425
40	0x3dadfb7f	0.08495235
41	0x3cb7f89e	0.022457417
42	0x3d82e12d	0.06390605
43	0x3d75fea6	0.060057305
44	0xbcbd7867	-0.023128701
45	0x3daca19e	0.084292635
46	0xbd85c7f1	-0.065322764
47	0xbd1045c5	-0.035222787
48	0x3db8c228	0.09021407
49	0xbd5e4990	-0.054269373
50	0x3dcada4d	0.09904919
51	0x3c6d9e25	0.014503037
52	0x3daa96d3	0.08329549
53	0xbc21fcff	-0.009886979
54	0xba00d190	-0.000491404
55	0x3e073d3f	0.13206957
56	0xbd2a7830	-0.041618526
57	0x3d998eae	0.07497917
58	0xbdbe6b67	-0.09297829
59	0x3d9e48e4	0.077287465
