results of reviewer/XJTU results/3-3/Experiment3/model.pth (torch, 59838 bytes, 14 tensors)

encoder.net.0.weight f4 [60, 17]
000000 97 6f 04 3e 1a 41 91 bc 0f 60 a5 3e cb 2a 44 be
       0.12933193 -0.017731238 0.3229985 -0.19156949
000010 ab 4f 80 3e e6 8c 9c bb 4c fa 6c 3e 96 32 22 be
       0.25060782 -0.0047775386 0.23142356 -0.1583961
000020 9c 20 87 bc cb bd c3 3d 28 d2 57 3e 07 72 0a be
       -0.016495042 0.095576845 0.21076262 -0.1352006
000030 3b 2c 5c be a0 8d 18 bd d9 fd be 3e 93 2a 83 3d
       -0.21501248 -0.03724444 0.37303045 0.06404605
000040 24 26 25 3e 25 4f 28 3e 65 e8 35 3d e4 79 4c 3e
       0.1612783 0.16436441 0.04441108 0.19968373
000050 76 bf b1 bd 9e 42 8e bc 04 32 1e be f3 34 b9 be
       -0.086790964 -0.01736575 -0.15448767 -0.3617321
000060 22 1c 35 3d e6 0c d8 bc 2e 85 a4 3d c6 8f 98 bc
       0.044216283 -0.026373338 0.080332145 -0.018623244
000070 1f 31 c4 bd ce 94 19 3e 15 7e cd 3d 4c d6 3a 3d
       -0.095796816 0.1499817 0.10033814 0.045614526
000080 9f 0f f6 bd 59 6e 14 bd 02 43 af 3c a9 b3 8d be
       -0.12014698 -0.03623805 0.021394257 -0.27676132
000090 3e 2b be bd 2a 4b 89 3e 7a a2 16 3e d3 cb 69 be
       -0.092855915 0.26815158 0.14710417 -0.22831659
0000a0 c0 78 27 3e 27 21 f5 bd 10 6d 55 3e a8 ab b4 bd
       0.16354656 -0.11969214 0.20842385 -0.08821803
0000b0 0b 27 03 bd c1 24 a8 bd 6c 29 d3 bc b5 b8 4a 3e
       -0.032019656 -0.08210135 -0.025776587 0.19797023
0000c0 e5 32 c0 3d 2d a4 23 be 8f 50 e0 bc 85 e6 eb 3c
       0.09384707 -0.15980597 -0.027382163 0.028796444
0000d0 76 9a b7 3d d5 d0 1f be 61 ac 59 3e 9f d0 66 3d
       0.08965008 -0.15607007 0.21257164 0.0563513
0000e0 32 06 5e be 28 78 81 3e 35 26 48 3d 15 a5 02 be
       -0.21682051 0.25286984 0.048864562 -0.12758286
0000f0 ba 92 95 3d f5 8d 8c be 44 11 0a be 26 b2 21 3e
       0.073033765 -0.27452055 -0.13483149 0.15790614
000100 af 4b b9 3d f5 8b 0c be 93 bb 15 3e 3a 0a 3b 3d
       0.090476386 -0.13725264 0.14622335 0.04566405
000110 8e 97 b2 bd 96 72 81 3e fe da 05 be 49 25 57 bd
       -0.08720313 0.25282735 -0.1307182 -0.052525792
000120 04 20 50 3d fc 03 7b 3e 72 2b 37 3e 52 cc 62 3d
       0.050811782 0.24513239 0.17887667 0.055370636
000130 4d 33 35 3e 50 66 a8 bb 86 5d 16 bc e8 e0 83 3d
       0.17695351 -0.0051391497 -0.009177571 0.06439382
000140 f8 89 bc bd 3d 60 ed 3d 1b ea 28 3c f0 92 3f 3d
       -0.09206003 0.115906216 0.010309721 0.04677099
000150 2f 00 28 3d e2 68 33 3e 27 24 42 3e 56 43 c2 bd
       0.0410158 0.17520478 0.18959104 -0.094854996
000160 0e b0 c1 ba 3f 9a 00 3e 51 0b 22 3d cb e4 d1 bd
       -0.00147772 0.1255884 0.039561573 -0.10248717
000170 3a 1f 33 be 20 0c 43 3e cc 3d 29 3b 68 d8 03 3e
       -0.1749238 0.19047594 0.0025824187 0.12875521
000180 6e 2b 3b 3d 97 55 dc bb ff 4a 11 be a7 98 b6 bc
       0.045695715 -0.0067240703 -0.14188765 -0.022289587
000190 81 1c 22 3e e6 1a 82 3d 45 23 26 bd 50 06 4f be
       0.15831186 0.06352787 -0.04056098 -0.20217252
0001a0 25 8c e3 bd 0f 45 6b bd a6 88 8b 3d 19 89 ae 3e
       -0.11110715 -0.057438906 0.06813173 0.34088972
0001b0 69 17 8a 3e 85 e4 d5 bd 5b 10 34 bd 6c 2b 38 3d
       0.26970986 -0.10443977 -0.04396091 0.044963285
0001c0 0b f9 ae 3d ee f9 01 3b d0 db 8b be 8d 65 f9 3d
       0.08543595 0.0019832808 -0.2731614 0.121775724
0001d0 2b 25 34 be 0f 20 68 bd 92 88 6f bd 8e d1 f0 bd
       -0.17592303 -0.0566712 -0.058479853 -0.117587194
0001e0 55 c5 c2 bd f3 85 aa 3e b8 f1 b6 be 5e cd bc 3d
       -0.09510294 0.3330532 -0.35731292 0.09218858
0001f0 86 d0 76 3e 06 7c ae 3e b1 63 51 3e d2 6f 56 3c
       0.24102983 0.34078997 0.20448186 0.0130881835
000200 45 f4 bb bb dc b4 f1 3d ec dd 1d 3d aa 6b da 3d
       -0.0057359063 0.11802074 0.03854172 0.106650665
000210 6c 55 9e be 7b 50 26 be 53 c2 6b be 0d e0 5c 3d
       -0.30924547 -0.16241638 -0.23023348 0.05392461
000220 16 11 83 3e e0 b6 df 3d e2 76 15 be 5e 88 ea 3c
       0.25598973 0.109235525 -0.14596131 0.028629478
000230 db 78 8b be df 0d 80 be 0e 46 12 bd 5f 01 dc bd
       -0.27240643 -0.25010583 -0.03571134 -0.10742449
000240 a8 d8 6f be ae 8a 06 3c 9d ee 2c 3b f1 f7 37 3d
       -0.23422492 0.008211775 0.0026387342 0.04491419
000250 64 b2 0f bd ab bf a3 be 36 f6 50 3e 35 d1 cd 3d
       -0.035082236 -0.3198217 0.20406422 0.10049669
000260 91 66 f8 3c fb 18 33 3d 2d d6 9a be 6b 27 32 3d
       0.030322345 0.043724995 -0.30241528 0.043494623
000270 1a f6 e2 3c f4 2c f0 3c f8 0c 30 3e 53 49 18 be
       0.027705241 0.02931831 0.17192447 -0.14871721
000280 c3 14 80 3d 88 12 95 bb 53 0f ed 3d 82 be 9b 3e
       0.0625396 -0.0045493282 0.115751885 0.30418783
000290 b8 a5 dc 3d a4 da 5b 3d 56 0b 1d 3d 90 fc 49 3e
       0.10773796 0.05367531 0.03834089 0.19725251
0002a0 6b b7 2e be e4 4e 08 bd 24 85 09 be 3c 63 20 3d
       -0.17062156 -0.03327836 -0.13429695 0.039157137
0002b0 5c cd 70 bd 70 c2 47 3c ed bb 3b 3d 5a 23 8b 3d
       -0.058789596 0.012192354 0.045833517 0.06793852
0002c0 17 9a bc 3e 44 57 da bd a6 4c 61 3e d2 18 3d bd
       0.3683631 -0.10661176 0.22001895 -0.04616625
0002d0 28 52 11 3e 06 f7 25 3e a4 8d b3 3d 86 94 17 3e
       0.14191496 0.16207513 0.0876725 0.14802751
0002e0 40 a7 86 be 74 f6 75 be dc 45 4f 3e 33 77 9c be
       -0.26299477 -0.24019796 0.20241493 -0.30559692
0002f0 43 9f 49 3d 30 bb ec 3c 20 91 49 be cb 30 2d bd
       0.04922415 0.028897852 -0.19684267 -0.04228286
000300 34 fd 02 be 86 67 2c 3b 35 3c c3 bd aa e3 a5 bd
       -0.12791902 0.0026306822 -0.09532968 -0.08100064
000310 12 f2 78 be f4 3a 1b bc dc 7c ce 3d c7 db 20 bd
       -0.24311092 -0.009474505 0.10082409 -0.039272096
000320 e3 66 08 bd 31 89 3d bc f5 ed 06 3e 5d 65 e9 bd
       -0.033301245 -0.0115683535 0.13176711 -0.11396287
000330 57 50 be 3d 82 f9 57 3e a5 83 84 be 72 68 f9 3e
       0.09292667 0.21091273 -0.25881687 0.48712498
000340 f3 a4 a8 3c a9 4a 3e bd 64 78 92 3d ed 66 97 bd
       0.020586466 -0.04645792 0.07151869 -0.073926784
000350 92 31 18 be 87 bb 55 be dc 31 99 be c4 db 88 3d
       -0.1486266 -0.20872317 -0.29920852 0.06682542
000360 29 61 05 3e 32 88 1f be ff d7 86 3a db d9 4a 3e
       0.13025345 -0.15579298 0.001028776 0.19809668
000370 b1 13 07 be 85 95 57 3e 5f 8b b1 3c 64 d0 c2 bd
       -0.13191105 0.21053131 0.021672903 -0.095124036
000380 68 21 70 3d 1e a7 09 be 7e 36 32 bc f2 fd a7 bd
       0.05862561 -0.13442656 -0.01087725 -0.08202733
000390 48 f0 70 3e fe 1d 0a 3e 77 3c 6e bc 3e 71 2d bd
       0.2352916 0.13488004 -0.014540783 -0.042344324
0003a0 d9 ca e7 3c c9 4c 71 3d 7b c1 39 3d 66 c9 c0 bd
       0.028294967 0.05891112 0.045350533 -0.09413414
0003b0 56 1c 4c 3e f8 93 0d be 4c 87 41 be 5f c0 46 bd
       0.19932684 -0.13825977 -0.18899268 -0.048523303
0003c0 cb c9 e1 3d 32 e9 c7 3e c0 bf 12 be fe f1 41 3d
       0.11024817 0.390451 -0.1433096 0.047349922
0003d0 33 b5 b8 3c 41 0b bd 3d b6 71 8e bc 22 c3 58 3e
       0.02254734 0.09230662 -0.017388206 0.21168187
0003e0 e3 02 2d bd 87 93 24 3e d8 ef cb 3d b0 80 90 3e
       -0.04223908 0.16071902 0.09957856 0.2822318
0003f0 26 a5 88 be 27 57 0c 3e 11 f1 02 bd e9 1b ff 3c
       -0.26688498 0.13705121 -0.03196818 0.031141238

encoder.net.0.bias f4 [60]
000000 9e f9 0c 3d be 84 89 3d 9f 08 f8 3c 96 da 0a bd
       0.03441774 0.06714772 0.030277548 -0.033899866
000010 6d ff 20 3d e9 8d 44 3d 8d 62 54 3c 15 74 04 3c
       0.039306093 0.0479869 0.012962949 0.008084317
000020 05 b0 ea bc c4 d0 d7 3c 86 6f ee bc a8 7d 01 3d
       -0.028648386 0.026344664 -0.029105913 0.031613976
000030 71 a9 13 3d 0d ed f5 3c 84 5e a8 bb ac 91 23 3c
       0.036050264 0.030020261 -0.0051382203 0.009983461
000040 31 e6 b4 3c 5e 52 04 bd 1c b4 ea 3c 55 52 b9 3c
       0.02208242 -0.032305114 0.028650336 0.022622267
000050 3b da 1b 3d 60 f3 e4 bc 24 ea b9 bc 9d 60 03 bd
       0.038049918 -0.027948081 -0.022694655 -0.03207456
000060 9a 1c 79 bd e0 b0 c8 3c 3e 42 16 bd 1a 45 a6 3c
       -0.060818292 0.024498403 -0.036684267 0.020296622
000070 e9 9c 21 bc 72 c4 02 bd 18 06 c2 3c ef 17 ef bc
       -0.00986407 -0.031925626 0.023684546 -0.029186217
000080 f2 e9 ef 3b a9 70 bb bc 35 63 49 bd 85 49 07 3d
       0.0073215896 -0.022880869 -0.049166877 0.033029098
000090 a5 dd 08 3d 45 a7 00 3d 62 b8 de bc 42 13 eb 3c
       0.0334145 0.03140952 -0.02718753 0.028695706
0000a0 36 cf 79 3c 04 40 e8 3c 13 b0 08 bd 60 8b d9 3c
       0.015247157 0.028350838 -0.033371042 0.026555717
0000b0 79 92 de 3c 2e 22 05 3d d0 ab 1b bd 61 41 fe 3c
       0.027169453 0.0325033 -0.03800565 0.031037034
0000c0 22 f7 b8 bc a3 c6 33 bc de 2b cb bc d0 a8 41 3c
       -0.02257878 -0.010972652 -0.024801191 0.011820033
0000d0 53 66 0a bd bc 1d e7 bc d8 87 17 3d d6 92 c7 bc
       -0.03378899 -0.02821242 0.036994785 -0.024362009
0000e0 2c ee 09 3d c0 a2 b7 3b a8 70 f6 bb ea 66 dc 3c
       0.033674404 0.005604118 -0.007520754 0.026904542

encoder.net.2.weight f4 [60, 60]
000000 d4 30 37 bd c3 e5 33 3e 0c 7c 8e bd a8 45 61 3d
       -0.0447243 0.17568116 -0.06957254 0.05499807
000010 f7 e3 ad 3d 04 0d 04 be e5 20 1b be ba 8c 87 bd
       0.084907465 -0.1289559 -0.15149267 -0.06618638
000020 25 b9 1b bc d7 da 5a bd a1 d9 09 3d 48 18 6a 3d
       -0.009504591 -0.05343136 0.033654813 0.057152063
000030 c9 8d 0c 3c 86 39 23 be 97 e6 6c bd c1 77 b5 3c
       0.008578726 -0.15939912 -0.057837095 0.02215183
000040 1a a1 06 be 2d 74 36 bc 2c 63 17 be ec 47 e8 bd
       -0.13147393 -0.011136097 -0.14783925 -0.11341843
000050 b5 8c 95 be 08 45 d1 3d 6d ee 28 3e bf ad 4f 3d
       -0.29208913 0.10218245 0.16497202 0.050702807
000060 af e4 28 3d 5c f9 5c be be 1f 80 bd 1e 77 97 bc
       0.041233715 -0.21579498 -0.06256054 -0.018489417
000070 34 fe 7b 3d 33 20 f6 3d 47 4f 94 bc 39 ad 1f 3e
       0.061521724 0.1201786 -0.018104209 0.15593423
000080 23 a7 0a be 5f 3c 77 3c 3d ef 4f 3c d3 fd a3 bd
       -0.1354032 0.015090077 0.012691316 -0.080073975
000090 5f 9a 84 bd 18 9d 0b be d9 4b ec 3d 41 33 a1 bc
       -0.064747564 -0.13634145 0.11537904 -0.01967776
0000a0 45 ab 6c 3e 07 fe 46 bc 35 f8 18 bd 87 1c a4 bd
       0.23112209 -0.012145526 -0.037346084 -0.08013254
0000b0 a8 6f a0 bd 6b dc 5f 3d 35 9b 0d be 10 d6 24 3e
       -0.07833797 0.054653566 -0.13828738 0.16097283
0000c0 7d b4 40 be 21 e1 f9 3d a8 5b 8c bc 65 d8 0f be
       -0.18818851 0.12201143 -0.017133549 -0.14047392
0000d0 5c de 5e 3d 5d 72 3d bd 46 13 08 be c4 80 23 3e
       0.054411277 -0.046251643 -0.13288602 0.15967089
0000e0 72 90 aa bd 0e e2 73 bd 10 37 2d be 03 61 f0 bc
       -0.08328332 -0.059541754 -0.16915536 -0.029343134
0000f0 8c 06 cb 3d 68 77 53 be 43 d3 5e 3d 4a f5 6a 3e
       0.09913358 -0.20651019 0.054400694 0.22945133
000100 2a 56 b5 3d 09 cb 97 bc 85 a8 16 be bf c5 28 be
       0.08854325 -0.018529432 -0.14712723 -0.16481684
000110 e8 06 ba 3d 9e 5e b4 3c d6 23 b3 bd cc a4 ae bd
       0.090833485 0.022017773 -0.087470695 -0.08527526
000120 26 cf ce bd a1 b6 0e bc 71 cf 6b be ea 5f 7f bd
       -0.10098104 -0.008710534 -0.23028351 -0.06234733
000130 62 fe a0 bc 75 cd c7 bd 21 bd 14 bd 56 31 fb 3b
       -0.01965255 -0.09755985 -0.03631318 0.0076657934
000140 d0 3a b0 bc 1a 60 06 bd 7a 68 15 be 53 b0 3a 3d
       -0.021512419 -0.032806493 -0.14590636 0.045578312
000150 5e 05 0a be 75 23 ae bd 19 0c e1 3d 85 fe 89 bc
       -0.1347861 -0.08502857 0.109886356 -0.016844997
000160 e1 a0 85 bb 86 b2 06 3d 55 c0 d3 3c 1e cd a2 3d
       -0.004078016 0.032885097 0.025848547 0.07949279
000170 f8 de 2e 3e 07 26 3a 3d 0b 3e 1a 3e ca 3f 01 3d
       0.17077243 0.045446422 0.1506273 0.031554975
000180 1b 99 3c bd 2b e0 03 be a8 7b b6 3d f5 05 07 3d
       -0.04604445 -0.12878482 0.08910304 0.032964665
000190 9e 88 f8 bd 2a 13 e0 bc ca a7 17 be a6 4f e7 3d
       -0.12135433 -0.027352888 -0.148101 0.112944886
0001a0 91 e6 09 be 71 9c 08 3e 5d 50 c5 bc 01 b9 e2 bd
       -0.1346686 0.13340928 -0.024086172 -0.11070443
0001b0 80 82 79 bd 60 d4 bf bd ad 44 bc 3d e4 8b 25 bd
       -0.06091547 -0.09366679 0.09192786 -0.040416613
0001c0 2f 94 3f bc 10 bc 42 be ee 0f 80 3d fe ef 2e be
       -0.011693045 -0.19017053 0.06253038 -0.17083737
0001d0 10 a5 a0 3d 78 76 08 3e 9b b8 f1 3d a4 5e 8f be
       0.07843983 0.13326442 0.11802789 -0.28001893
0001e0 69 1a 37 3d 5e b0 a5 be 37 42 4a bb 71 31 fd bd
       0.04470292 -0.3236112 -0.003086222 -0.12362946
0001f0 df 18 ba bd 3e 8e 2f be d2 54 39 3e a7 01 f1 bc
       -0.09086775 -0.17144105 0.18098763 -0.029419733
000200 94 49 13 be 43 1a 81 bb a9 44 c1 bd 89 6c 77 3c
       -0.14383537 -0.003939898 -0.09436924 0.01510156
000210 34 39 d5 bd 25 ca fb 3d d5 06 75 be ce 23 47 3d
       -0.10411301 0.122944154 -0.23928387 0.04861813
000220 cc 9a a3 3b f0 d4 f5 3d 18 02 8b bd ab ff fd bd
       0.0049928185 0.12003505 -0.06787509 -0.124022804
000230 09 44 51 be 00 c7 f7 bd a5 76 44 3e c3 37 c2 3d
       -0.2043611 -0.12098503 0.19185884 0.09483292
000240 b8 d4 31 3d 1d 09 ec 3d 6b f2 c2 3d 9e d2 40 3e
       0.043415755 0.11525176 0.09518894 0.18830344
000250 7b d0 7c be 1e bd a6 3d 0e d8 2b 3d 20 18 22 be
       -0.24688904 0.0814154 0.041954093 -0.15829515
000260 7d 13 73 3d b0 ea ab bd c0 8f 44 be 4a 52 d7 bd
       0.059344757 -0.083943725 -0.19195461 -0.10513742
000270 30 58 2f bd 4f a0 cc 3d 6c 81 e0 3b 41 9e b9 3d
       -0.04280871 0.09991514 0.006851366 0.09063388
000280 a6 d9 98 bd 9b 80 d4 bd f6 11 8c 3e 32 94 25 bc
       -0.07463388 -0.10376092 0.27357453 -0.010106133
000290 22 c9 c9 3b 56 e6 e6 3d 1e 61 21 3c f5 a5 fb 3c
       0.00615801 0.11274402 0.009849815 0.030718783
0002a0 cf e3 82 bd aa 85 0d be 2a 4c 40 3d 00 d0 ff 3a
       -0.06391107 -0.1382052 0.046947636 0.0019516945
0002b0 e1 8e a1 3d 9a 40 95 bc 4e 8a 17 be 28 47 1c 3d
       0.0788858 -0.018219281 -0.14798853 0.038153797
0002c0 5e c1 e3 bd dd a8 c8 bc d7 f3 10 3e ca f7 5f 3d
       -0.11120866 -0.024494583 0.14155518 0.05467967
0002d0 83 81 cc 3d fb 1d f5 bd 72 ef d5 bc 2d cd 3e be
       0.0998564 -0.11968609 -0.026115153 -0.18632956
0002e0 1a dc 7c bc a6 74 58 3d 79 ef a7 3e 9e d5 74 bd
       -0.015433336 0.05284562 0.3279989 -0.059774034
0002f0 33 5d db 3d cc 9e 86 3d 2f b3 b4 3d 14 dc c5 3b
       0.10711136 0.06573257 0.08823239 0.0060381982
000300 b1 69 b2 bd 92 1d 5d 3e 76 f3 ed bc 47 06 36 3d
       -0.08711565 0.21593311 -0.029046755 0.04443958
000310 9b 47 05 bd 5a 18 35 bd 80 e6 19 3d 34 67 fb bd
       -0.03253899 -0.044212677 0.037573338 -0.12275544
000320 db ab 05 be 25 1a 09 be c8 50 8e 3c dc 46 8d bd
       -0.13053839 -0.1338888 0.017372504 -0.06898281
000330 52 5f 26 3e dd a4 bc bc 3c 9d 06 3d 18 2d 34 3e
       0.162473 -0.023027832 0.032864794 0.17595327
000340 34 f7 ac bd 4f 05 ac bc d1 29 40 bc b4 2d e8 bd
       -0.08445588 -0.020998625 -0.01172872 -0.11336842
000350 9d 70 26 be b2 b4 63 bc d2 77 ae 3d 1f ef 10 be
       -0.16253896 -0.013898062 0.08518948 -0.14153717
000360 71 a9 89 bd 3c 0b 0e be 1b 31 35 3d d4 ae 25 bc
       -0.067217715 -0.13871473 0.044236284 -0.010112483
000370 9e f0 1e be e1 7e 0c be 69 58 aa 3d 11 b7 3d 3e
       -0.15521476 -0.13720275 0.08317644 0.18526866
000380 2f 66 d1 bd 12 6c fd bd dd 35 e6 bc 28 61 4e 3c
       -0.10224568 -0.123741284 -0.028101856 0.012596406
000390 12 7c d2 3d 93 5c 26 3e aa f6 be bd fa df 13 3d
       0.10277571 0.16246252 -0.09324391 0.036102273
0003a0 14 21 4c bd 54 ed fe bc 24 0c 30 be 5a ad 16 be
       -0.049836233 -0.031119026 -0.17192131 -0.14714566
0003b0 1f 09 e9 3c 27 de 6f 3d e6 a1 0d 3c 4b 45 a1 3d
       0.028446732 0.05856147 0.008644557 0.07874545
0003c0 35 a2 a1 bc fb b6 6c 3e b2 f1 2d bd 44 94 eb 3d
       -0.019730667 0.23116677 -0.042466827 0.11502889
0003d0 bc ec 8d bc a6 28 1b 3d 33 b6 21 3e c4 6d 5b 3d
       -0.017324798 0.037880562 0.1579216 0.053571478
0003e0 be 37 cd 3d 43 2d da 3c d3 90 ad bc 35 75 38 be
       0.100203976 0.02663291 -0.021187222 -0.18013461
0003f0 31 47 4d bd 9a 0d a8 3d c2 89 0c bd 4c b5 f8 bd
       -0.05011672 0.08205719 -0.034311064 -0.12143955

encoder.net.2.bias f4 [60]
000000 31 76 01 bd 38 fa 41 bc 11 80 38 bd 92 49 3f bd
       -0.031606857 -0.011839442 -0.04504401 -0.04670102
000010 36 15 e5 bc c3 dd 11 bd 5e 54 02 bd 08 d0 05 bd
       -0.027964216 -0.03561188 -0.03181874 -0.032669097
000020 d1 8e 07 bd 29 0e 3b 3d 72 c7 0c 3d 27 eb 44 bb
       -0.033095185 0.0456678 0.034369893 -0.0030047388
000030 3c 58 e5 bc 2a 36 d1 bc f8 5e 9d 3c f5 5b d4 3c
       -0.027996175 -0.025538523 0.019210324 0.025922755
000040 ad 1c f0 bc f9 ed 5b bd 6a 6b f2 bc 46 25 e2 bc
       -0.029310549 -0.053693745 -0.029592235 -0.027605664
000050 02 6e f2 3c c1 35 e7 bc d7 ec 17 3d 38 df fd bc
       0.029593471 -0.028223874 0.037091102 -0.030990228
000060 d7 b8 d1 3c 01 76 db 3c 00 55 e5 bc dd 11 ed bc
       0.025600834 0.026789667 -0.027994633 -0.028939182
000070 ca 0c 0b bd 43 25 f2 bc 09 7a 0e 3d ce 2e 0e bc
       -0.033947743 -0.029558783 0.03478435 -0.008678151
000080 2d 34 18 bd 0a 0a ab bc 1a 4e d2 3c 25 24 d4 bc
       -0.037159134 -0.02087881 0.025672007 -0.025896141
000090 1b 6b 09 3d 14 78 fd bc da 12 f7 3c 7d d6 66 bc
       0.03354941 -0.030941047 0.030160356 -0.014089224
0000a0 22 51 ad 3c 63 5f 4e bc d3 c9 d4 3c 88 0c f9 bc
       0.021156851 -0.012595984 0.025975144 -0.030401483
0000b0 c5 36 15 3d 71 00 69 3c e0 0d f3 3c d5 7f f0 bc
       0.036429185 0.014221297 0.029669702 -0.02935783
0000c0 25 26 03 3d ec 0b 27 bd 68 0e f7 3c 8b 0c ea bc
       0.0320188 -0.040782854 0.030158237 -0.028570434
0000d0 be 56 c6 3b b4 f8 b7 3c d2 1b 40 3d db 69 fb 3c
       0.006052821 0.022457458 0.04690153 0.030690124
0000e0 62 c3 33 3d 8c 90 ef bc c5 2a 01 bd 72 c2 24 3c
       0.043887503 -0.02924373 -0.03153493 0.010056125

encoder.net.5.weight f4 [32, 60]
000000 9f 9f 00 3e 5d bf ac 3d 52 98 62 bc af 04 16 3e
       0.1256089 0.08434937 -0.013830261 0.14650224
000010 15 58 31 3e 71 53 f4 bc 3c e6 57 bd 3f 18 ab 3c
       0.17318757 -0.029824944 -0.052709803 0.020885585
000020 67 a9 4b 3e d7 af 9c 3a 98 bf 28 be de e0 20 be
       0.1988884 0.001195426 -0.16479337 -0.1571078
000030 41 b5 d4 3d 16 0b 6b be cb 0b 5e be 88 e6 82 3d
       0.10386134 -0.22953448 -0.21684186 0.063916266
000040 ec 19 1b be d9 b1 43 3e 55 80 4f be 36 2e 2a 3e
       -0.15146607 0.19110812 -0.20263799 0.1661919
000050 db 4f a1 3c 91 ab 70 3e be 93 af bd 02 4e 8a 3d
       0.019691398 0.23502947 -0.085731015 0.0675316
000060 f4 1e da bd a7 5e 6b 3c 1f 33 70 bc 91 04 38 bd
       -0.10650435 0.014365829 -0.014660626 -0.04492623
000070 65 f6 81 3d 8b 14 c7 bc 9f d1 bb bd cd b1 70 be
       0.06345824 -0.024301788 -0.091708414 -0.23505326
000080 1d 21 27 be 25 5b b9 3d 06 2b c2 bc 14 dc a7 bd
       -0.16321225 0.090505876 -0.023702156 -0.081962734
000090 24 31 f4 bd 58 03 0b be 3e b1 c4 bd ab 02 b5 bd
       -0.11923435 -0.13575494 -0.09604119 -0.088383995
0000a0 38 1a aa 3d c6 f6 df 3d ef b5 ee bd bc 92 1a bd
       0.08305782 0.1093574 -0.11655795 -0.037737593
0000b0 58 fa 36 3e 02 80 77 3e d9 33 bb bd 42 c3 28 bc
       0.17868936 0.24169925 -0.091407485 -0.010300459
0000c0 42 fa ee 3c 81 f4 ab 3a c0 6a 05 3e 96 c1 81 bd
       0.029172067 0.0013119132 0.13029003 -0.06335752
0000d0 d6 eb 98 3d 17 dc 94 3d 02 2b 94 bd b2 05 cf 3d
       0.07466857 0.07268541 -0.072347656 0.10108508
0000e0 05 0b 66 bb 72 9f 5d 3d 26 c9 e4 3d b5 5e 94 bc
       -0.0035101783 0.054107137 0.111711785 -0.018111566
0000f0 bc 5e 4e 3e da 6c 08 be e7 16 82 bd 3c 7d aa be
       0.20153326 -0.13322774 -0.063520245 -0.3329867
000100 23 0f 88 bc 95 4c 21 bb 1d 1d 68 3d d2 39 7d 3d
       -0.01660878 -0.0024612297 0.05666839 0.06182272
000110 c7 80 62 3e a6 17 32 be 64 dc 4d 3e 4b c6 b0 3a
       0.22119437 -0.17391834 0.20103604 0.001348683
000120 0a 26 2c be 80 8d 3c 3d 9c 76 3a be c4 18 af be
       -0.16811386 0.046033382 -0.18209308 -0.34198582
000130 30 a4 00 be 69 9f 98 3d 96 7c 1c be 47 72 95 bc
       -0.12562633 0.0745228 -0.15281901 -0.018242968
000140 91 8a 0c 3d 65 3a 5f 3e ba 28 02 be ad db 61 bd
       0.034311835 0.2179962 -0.12710848 -0.05514114
000150 54 5f c2 3d f9 69 53 3d f3 a7 4c 3e b4 2b 77 bd
       0.09490839 0.051614735 0.19985943 -0.060344413
000160 20 bb a6 bd b3 6f df 3d 06 92 d4 bd e1 50 67 bd
       -0.0814116 0.10909977 -0.10379414 -0.056473617
000170 8c 8a db 3d a1 22 40 be d7 ae ad bd 8b 56 13 be
       0.10719785 -0.1876321 -0.08480614 -0.14388482
000180 cd ee ed bd 86 24 ee 3c 1c 1b d3 3d 26 80 ba 3d
       -0.11617813 0.02907015 0.10307905 0.091064736
000190 ed 73 68 3c 60 4e 91 bd 73 c3 f5 3d 97 3c 38 be
       0.014187795 -0.07095027 0.120001696 -0.17991863
0001a0 da 8c 11 3d 7e a4 02 3e 91 e6 90 3e b2 60 22 3b
       0.035534717 0.12758061 0.28300908 0.0024776873
0001b0 c4 d9 28 bd 96 49 66 bd 1c e6 e1 bd 53 8f 03 3e
       -0.041223302 -0.05622252 -0.11030218 0.12847643
0001c0 23 ba 26 be 84 fe 1b 3e a6 b5 92 be 89 c9 30 be
       -0.16281943 0.15233809 -0.28654212 -0.1726438
0001d0 9f 70 32 3d 6f ea 8b bd 2e 50 27 3d 8d 77 6c be
       0.043564435 -0.06831824 0.04084795 -0.2309248
0001e0 a3 10 9c bd 74 fc bd bd f8 7b 2f 3d da 35 93 3d
       -0.07620361 -0.09276667 0.042842835 0.07188006
0001f0 e5 6a 55 3e a2 1e 5a 3d 45 ce 00 be ac 95 b4 3d
       0.20841558 0.05325187 -0.12578686 0.0881761
000200 c5 0d a2 bd 31 5e 8a bd 5c b6 e4 3c 53 a8 cf ba
       -0.079127826 -0.06756247 0.027918987 -0.0015843011
000210 8a 70 14 bd e6 1f 13 3e fc b3 07 3b 0d 7b 82 be
       -0.036240138 0.14367637 0.0020706644 -0.25484505
000220 ac e7 aa bd 12 c1 d7 3c 2d 5b f0 bc d1 7e c8 bd
       -0.08344969 0.02633718 -0.029340351 -0.09789813
000230 ca 87 57 bd f8 ee 78 3c de 1f 1b 3c ce 2f cf 3d
       -0.052619733 0.015193693 0.009468047 0.1011654
000240 3f 65 f5 bd 69 b0 f7 bd 0b d0 2e 37 c4 d3 b6 3e
       -0.11982202 -0.120941944 1.0419647e-05 0.3570844
000250 73 aa 51 be 97 f9 d7 bd 21 97 43 bd 3e 27 e1 3d
       -0.20475177 -0.10545652 -0.04775155 0.10993813
000260 4d c1 a1 3d 71 6f da bd 2b 34 14 be 9f a4 32 be
       0.07898197 -0.10665787 -0.14473026 -0.1744561
000270 cd fe 0a 3e 9c 9d 20 3c da 94 fd bd fd 1a d5 3c
       0.13573761 0.009803202 -0.12381907 0.026013846
000280 22 ca f3 bd 7d 77 66 be 4b 9f ec 3c 84 fc e4 3d
       -0.11903788 -0.22506519 0.02888455 0.11180976
000290 48 98 b0 bd 04 1a bd bd 84 b1 48 3e 48 f5 d0 bb
       -0.08622795 -0.09233478 0.19598967 -0.006376896
0002a0 ac 39 84 bd f7 6d 0c be 54 eb a0 3d 9d 3b 87 bd
       -0.064563125 -0.13713823 0.07857385 -0.06603167
0002b0 e0 21 7b 3c 43 15 ac 3c 2b 4f 8f 3d 17 1b de 3d
       0.015327901 0.021006232 0.06997522 0.10845011
0002c0 be 0e fe bc a3 77 36 3e 78 0b 4a 3e bf 4f 8e 3e
       -0.031012889 0.17819075 0.19730937 0.27795216
0002d0 78 1d c2 be 62 4a d7 3d 66 25 92 bd 7d 7b 2d be
       -0.37913108 0.10512234 -0.071360394 -0.16941638
0002e0 03 2a 57 3b c5 bb 8c bd 88 33 1c be c6 08 cf 3d
       0.0032831437 -0.06871752 -0.15254033 0.10109095
0002f0 b1 57 27 3d ae a6 c2 3e 99 c5 8b 3d 8e f5 ce 3d
       0.040855113 0.38017792 0.06824798 0.101054296
000300 19 70 10 be 93 1a 66 3d bd 12 6f 3c e9 2c 08 bd
       -0.14105262 0.056177687 0.01459187 -0.033245955
000310 a7 d1 62 be 9e 20 cc bc 65 4e 63 be 6b 00 ca 3d
       -0.22150289 -0.024917897 -0.22197874 0.09863361
000320 c3 7f 14 3b ac 9b 8e bb 07 79 79 3d e0 94 22 be
       0.002265916 -0.0043520536 0.060906436 -0.15877104
000330 7d ab 9a bd 9a 2c b0 3d 13 d0 08 be 87 be dd bd
       -0.0755224 0.08602257 -0.13360624 -0.10827356
000340 02 3d 66 be 29 f6 2f 3e c8 aa e6 bd 6e 0a f3 3d
       -0.2248421 0.17183746 -0.11263043 0.11867224
000350 58 88 08 bd bb 95 91 3d dc f9 19 3e b9 c6 36 be
       -0.033333153 0.07108637 0.1503672 -0.17849244
000360 39 56 c3 3d fc 1d 2a 3e d8 55 48 3e a1 b3 76 bb
       0.0953793 0.16613 0.19563997 -0.0037643688
000370 e1 6b 1e be d7 31 18 be a2 af b2 bd 6e 10 40 be
       -0.1547084 -0.14862762 -0.087249056 -0.18756267
000380 dc 4b 9b bd 45 fa 35 be eb c9 1f 3e 5d 64 5b be
       -0.075828284 -0.17771251 0.1560437 -0.21425004
000390 58 42 be 3d 17 df ed 3c 6a 9f 73 bd cc 45 50 be
       0.09289998 0.029037042 -0.0594782 -0.20339125
0003a0 70 07 0a b8 fb dc bd bd eb 20 11 bc e3 f5 3d be
       -3.290869e-05 -0.09270664 -0.008857946 -0.1855083
0003b0 e2 6a 8e bc 90 96 b4 3d 38 90 fa bd 80 d0 8c bd
       -0.01738495 0.0881778 -0.12234539 -0.06875706
0003c0 7b 51 10 be b2 75 42 bc 4d 21 d4 3d de 2e cf 3d
       -0.14093582 -0.011868881 0.10357914 0.10116361
0003d0 e7 9f 0a 3e dc 00 ae 3b 21 90 0e 3e e0 43 19 3d
       0.1353756 0.005310161 0.13922168 0.037418246
0003e0 74 38 05 be 54 6c ac bd 50 33 8c 3b 37 4f 80 bc
       -0.13009816 -0.084190995 0.004278578 -0.015662773
0003f0 26 a8 07 be b0 db 1a 3e 58 ae 8c 3b 47 8e cf 3d
       -0.13247737 0.15122867 0.0042932443 0.10134559

encoder.net.5.bias f4 [32]
000000 af ae 9d bd 72 4f 70 bd ab 59 6f bd 0f f1 12 3d
       -0.07699334 -0.058669515 -0.058435123 0.035874423
000010 5d cb 61 bd 4c bf 31 bd 77 b2 25 3d f1 61 19 bd
       -0.055125583 -0.043395326 0.0404534 -0.03744692
000020 59 c9 1c 3d 13 e8 87 bc b6 32 29 bd 07 f2 31 3d
       0.038277958 -0.016590154 -0.041308127 0.043443706
000030 85 24 15 3d 87 bd fd bc 21 35 05 3d 1c 2d 66 3d
       0.03641178 -0.030974163 0.03252137 0.056195363
000040 3b 8b 2d bd e4 80 20 3d d4 7e 01 bd d8 00 64 3d
       -0.04236911 0.03918542 -0.031615093 0.055664867
000050 f6 7f 2f 3d e7 71 5f bd 17 c0 03 3d 89 6c 01 bd
       0.042846642 -0.054551985 0.032165613 -0.031597648
000060 85 05 19 bd b6 0e 06 bd ca bd 23 bd b2 d7 45 3d
       -0.03735878 -0.032728873 -0.03997592 0.048301406
000070 de b1 26 3b 04 5d 6d bd ef 7b 1e bd bc 61 1e 3d
       0.0025435607 -0.057950035 -0.03869241 0.038667426

predictor.net.1.weight f4 [32, 32]
000000 72 23 4a 3e f7 b8 9d 3d 52 50 f5 3d 31 cb e1 bc
       0.19740084 0.07701295 0.119782105 -0.02756271
000010 0d 1a 19 3e ea 8d b4 3d 7d 6e 1d 3d 5f 89 f5 3d
       0.14951344 0.088161305 0.038435448 0.11989092
000020 74 dd 01 be d7 b7 e5 be 86 16 ac 3c 99 4d c7 bd
       -0.12682134 -0.4486682 0.021006834 -0.097315975
000030 fc 25 2c be 44 7f f5 3b dd bf 02 be 51 ae 56 be
       -0.16811365 0.007491978 -0.12768503 -0.20964934
000040 41 4c de bc 55 0e cb bd 76 16 eb 3c f4 24 ca be
       -0.02713597 -0.09914843 0.028697234 -0.39481318
000050 95 e6 f4 bd 69 4a 13 3e 39 8f bc 3d 09 ad 85 3e
       -0.119580425 0.14383854 0.09207005 0.26108578
000060 ba 9e da 3c 6e ca 63 3c e0 ce 27 3e 0d f7 a0 3e
       0.026687015 0.0139032435 0.1638751 0.31438485
000070 86 3b d0 bc 83 46 85 ba 7c 72 f2 3c e5 8d 6c 3c
       -0.025419008 -0.0010168109 0.029595606 0.014438127
000080 8a 57 c7 be 34 8f ad bd ed c8 14 be cf 3d 74 bc
       -0.38933975 -0.084745795 -0.14529772 -0.014907314
000090 5f 79 35 3e d9 f9 53 bd 3e 11 68 3e f9 58 1e 3d
       0.1772208 -0.051751945 0.22662827 0.03865907
0000a0 14 71 36 3d de 1f 4a bd 06 30 80 3e a7 d2 98 bc
       0.044541433 -0.049346797 0.2503664 -0.018655134
0000b0 37 9a 0f be e1 ee 2d 3e 16 08 86 3d 10 13 49 be
       -0.14023672 0.16985656 0.06544511 -0.19636178
0000c0 ce 49 30 be 75 37 6e bd cf 8e 0e 3e c1 2a 8b 3c
       -0.17215654 -0.058158357 0.13921665 0.01698816
0000d0 e8 d5 f5 bd 56 f5 99 3d 70 f6 c5 bd 40 73 8b 3d
       -0.1200369 0.07517497 -0.09666145 0.068090916
0000e0 52 ff 90 3d 8e a5 e7 bd 3f 62 f4 bd c5 c3 7e 3c
       0.070799485 -0.11310874 -0.119328015 0.015549605
0000f0 db aa 2d be e6 33 c9 3d ec 43 f1 3d 02 6d 08 3e
       -0.16959707 0.09824352 0.11780533 0.13322833
000100 4f e9 a9 bd 30 47 94 3e 82 65 00 3e 9f 2f 0e 3e
       -0.08296453 0.28960562 0.12538722 0.13885354
000110 d8 7f be be 9b 3e 1c 3d 5f fb 57 bd 10 ab be 3d
       -0.37206912 0.038145643 -0.05272996 0.09309971
000120 94 b2 88 be a6 2a 45 3d d7 fd 14 bf 04 9d 9c be
       -0.26698744 0.048136376 -0.5819983 -0.30588543
000130 31 9f a0 bd 78 96 ad bd 49 9c 1b bd de 0e 36 be
       -0.07842863 -0.08475965 -0.037990842 -0.17779109
000140 8b 12 23 3e 5d b1 9f bb 9f 0f c4 bd 60 94 91 3d
       0.15925042 -0.0048734383 -0.09573292 0.071083784
000150 85 78 23 3e d8 f8 64 bd 99 39 2b 3d 16 e1 38 3d
       0.15963943 -0.05590138 0.041802976 0.045136534
000160 0b 34 9f be 91 98 ae bd 49 41 e9 be 00 3a 8e 3e
       -0.31094393 -0.085251935 -0.4555762 0.27778625
000170 d7 be 3f 3b ec d3 f6 be 92 78 4c be a3 98 65 bd
       0.0029258037 -0.4820856 -0.19967869 -0.05605377
000180 92 31 1b 3e a5 ca 1a be 85 e1 d8 bd fc d7 8f bd
       0.15155628 -0.15116365 -0.105898894 -0.070236176
000190 91 67 67 be bf 02 c8 bc 8f 49 94 be 2d 45 4a be
       -0.22598101 -0.024415372 -0.2896237 -0.19752951
0001a0 b0 5a 25 3e 6b 17 21 3e c4 2a 29 be 08 fd 16 be
       0.16147876 0.1573159 -0.1652022 -0.14744961
0001b0 8e a3 5e be 3e d6 c5 3d 9e 97 2d bd 37 da 12 3e
       -0.21742079 0.09660004 -0.04238092 0.14341055
0001c0 35 b2 79 bd 2d 24 61 3c 6b 28 70 3d 45 cf d0 3c
       -0.060960967 0.013741535 0.058632296 0.025489459
0001d0 53 ab 50 3c 32 8c a0 be 92 35 01 3e 59 9e 72 3e
       0.012736159 -0.3135696 0.12618092 0.23693217
0001e0 f1 22 d0 bd 3c 22 1f bd d7 e7 cb bc 1a 6c f1 3d
       -0.101629145 -0.038851008 -0.024890823 0.11788197
0001f0 13 f6 97 3e bf bc 77 3e ee 3c a2 3c cf 44 7c 3d
       0.29679927 0.24193095 0.019804444 0.06158906
000200 ce 9b fd 3b 13 b0 03 bd 12 f7 f8 3e 10 99 27 bd
       0.0077395206 -0.03215034 0.48626 -0.040917456
000210 13 2f 31 3e 25 3f 57 be f4 cc f8 bc 6f da 5c be
       0.17303114 -0.21020181 -0.030371167 -0.21567701
000220 4e 7e 06 be 48 05 6c 3e 05 00 e0 3d 66 0b 56 be
       -0.13134119 0.2304889 0.10937504 -0.20902786
000230 3e f9 64 be 25 96 31 be b7 25 b1 3d 30 fc 15 be
       -0.22360703 -0.17342432 0.08649772 -0.14646983
000240 67 2d ca bd d0 07 d1 3c 37 7d c5 b9 b6 d1 2d 3e
       -0.09871941 0.02551642 -0.0003766806 0.1697453
000250 65 90 5b 3d a5 a3 34 bd be 35 e8 3d 20 b2 44 be
       0.053604502 -0.044101376 0.113383755 -0.19208574
000260 77 61 95 3d e1 2e 25 be d5 27 06 bd 3d 59 0a 3e
       0.072939806 -0.16131164 -0.03275283 0.13510604
000270 8f 51 44 be 1c d8 0a 3e a9 fb 60 be 55 90 12 3d
       -0.19171737 0.13559002 -0.21971 0.035782177
000280 88 52 66 3d 9b 4b 6f be e6 a5 79 bd 0c f3 84 bd
       0.05623105 -0.23368685 -0.06094923 -0.0649167
000290 9f 13 26 3a 80 f8 68 3d c5 54 dc bd c2 24 30 bd
       0.0006335321 0.056877613 -0.10758356 -0.043003805
0002a0 b6 d4 54 bd 3f 0a 2b 3e 75 b7 77 bd 23 ff 21 3e
       -0.05196067 0.16703127 -0.060477693 0.15819983
0002b0 eb 39 b0 bb 8c 86 93 be 26 62 0e be 50 78 04 be
       -0.005377998 -0.2881359 -0.13904628 -0.1293652
0002c0 79 85 28 be a2 ad a8 bd d6 26 16 bd 34 26 ef be
       -0.16457166 -0.08236243 -0.03665813 -0.46708834
0002d0 5f 9a 54 be 5d a6 d5 3d 33 91 b1 bd 46 71 ee bb
       -0.20762013 0.10432122 -0.08670273 -0.007276687
0002e0 6f ad 64 be 94 83 26 be bd ea 4c 3c f1 57 96 3c
       -0.22331785 -0.1626113 0.012507138 0.01835248
0002f0 95 0c 12 be 46 f3 5a 3c 2e 4f 17 3e ea a6 61 3e
       -0.14262612 0.013363665 0.14776298 0.22036329
000300 65 59 99 be fe 1a fa 3c 61 1b 93 bd 86 02 f2 3c
       -0.29951015 0.030530449 -0.071829565 0.029542219
000310 34 c3 b1 be c4 06 d4 3d 4d 98 c3 3d 27 ab 13 3d
       -0.3471924 0.10352853 0.095505334 0.036051895
000320 b3 3e a3 be 34 42 0f be ef 76 06 bd 70 a8 4c 3d
       -0.31883773 -0.13990098 -0.032828268 0.049965322
000330 95 c2 1f be 9b 20 3f 3d 4c e2 87 bc 4d 57 56 bd
       -0.15601571 0.046661954 -0.016587399 -0.05232935
000340 b4 c4 8d be 8e e3 c0 bc 46 92 5d 3e fa 23 52 3e
       -0.27689135 -0.023546007 0.2163783 0.20521536
000350 21 78 3f be 89 a5 1c 3e 30 ce da bc 35 07 2b be
       -0.1869817 0.15297522 -0.026709646 -0.16701968
000360 bf d8 0b be b5 5c 25 3e ab b0 4e 3c cd d7 05 3d
       -0.13656901 0.16148646 0.012615363 0.032676507
000370 97 d9 24 be 88 65 e6 bd 19 95 86 3b cb 3c 56 3e
       -0.16098629 -0.11249834 0.0041071293 0.20921628
000380 dc 96 b4 be 83 7a 07 bd ee 6a e7 3d 1b 13 fb ba
       -0.35271347 -0.03307582 0.11299692 -0.0019155474
000390 e7 dd 40 be ae 6e 4f 3d e1 14 e9 bd 35 67 29 3d
       -0.18834649 0.05064266 -0.113809355 0.04135819
0003a0 bf 2d 87 3c fc cc 03 3e 6d 75 0c 3e 9e 8d 81 3c
       0.016501306 0.12871164 0.1371667 0.015814599
0003b0 f8 4f 2c 3d 5f 70 64 3e bc 0f 01 be 3d 83 8e 3e
       0.04206845 0.22308491 -0.12603658 0.27834502
0003c0 41 3e c4 bd 6b 10 b3 3e 43 7e ce 3b 0d 64 e5 bd
       -0.095821865 0.34973463 0.0063016727 -0.11200724
0003d0 81 f2 e6 bd 17 26 71 be 81 5f 3a bd 51 79 80 3e
       -0.11276723 -0.23549686 -0.045501236 0.25092557
0003e0 72 f2 20 3e bc b7 3d 3e db 89 e6 bc ed 3e 6f 3e
       0.15717486 0.1852712 -0.028141906 0.23363848
0003f0 28 6d 00 3e 30 5d b3 bc 41 b5 8c bd 2b be 1f 3e
       0.1254164 -0.021895021 -0.06870509 0.15599887

predictor.net.1.bias f4 [32]
000000 fb 7b cc 3d 05 ec b8 bd 9e 1a 0d be 33 55 bd bd
       0.09984585 -0.09029392 -0.13779685 -0.09244766
000010 92 08 bb 3d 09 0f ca bd ef 84 bf bd dc fc cc 3d
       0.09132494 -0.09866149 -0.09351527 0.100091666
000020 27 c7 ba bd 8f f1 cf 3d 76 ef 2d 3e 1e b4 95 3d
       -0.091200165 0.101534955 0.16985878 0.07309745
000030 ff 38 fe 3d f3 3b b1 bd bf d4 38 be a2 2b 8c bd
       0.12413215 -0.086540125 -0.18049906 -0.0684426
000040 06 6a a0 3d c1 ce c3 bd f2 11 b7 bd 06 f6 fa bd
       0.07832722 -0.095609196 -0.0893897 -0.122539565
000050 c7 4f 9e be e0 80 b1 3d b7 60 ab bd f3 24 d0 bd
       -0.3092024 0.08667159 -0.08368056 -0.101632975
000060 a2 59 ae 3d 3e 20 d6 3d 13 53 c3 bd 48 43 c5 3d
       0.0851319 0.104553685 -0.095373295 0.096319735
000070 75 db e2 3d d7 66 f7 3d ad 61 f2 bd 9a b2 d9 bd
       0.11077014 0.12080162 -0.118350364 -0.10629769

predictor.net.3.weight f4 [1, 32]
000000 a2 a8 62 3e 49 44 07 bf 37 e9 1d be f3 fe 0e bf
       0.22134641 -0.5283857 -0.15420996 -0.5585777
000010 30 4f e6 3e 5e 33 80 be 1c 8c 93 be b1 e5 33 3e
       0.4498229 -0.2503919 -0.28817832 0.17568089
000020 a5 1d 0a bf 2b c3 3e 3e 10 5d 3e 3e 05 80 c1 3d
       -0.53951484 0.18629138 0.18590188 0.09448246
000030 e8 8a fd 3d f6 8e 23 be 11 1f 1d be 94 ee 1c bd
       0.1238001 -0.15972504 -0.15343882 -0.038313463
000040 11 c7 cd 3d 5d fc f5 be 76 7b b5 be 2c 22 90 be
       0.100477345 -0.480441 -0.35445756 -0.2815107
000050 8f 99 18 be 94 b8 7f 3e 67 d9 28 be e0 76 80 bd
       -0.14902328 0.24972755 -0.16489182 -0.062726736
000060 39 37 1b 3e b7 97 6d 3e c5 9f bd be cb c6 3e 3e
       0.15157785 0.23202406 -0.37035957 0.18630521
000070 7a 33 77 3e da f4 2d 3e 61 f7 9b be 41 86 32 be
       0.2414073 0.16987935 -0.30462173 -0.17434026

net.0.weight f4 [60, 35]
000000 c2 60 82 bd 89 13 c3 3d b9 71 aa 3d f2 bd 9e bd
       -0.06366111 0.095252104 0.08322472 -0.07751073
000010 42 35 57 3e 97 40 05 bb 42 b1 4e 3d c0 40 a3 3d
       0.2101641 -0.0020332688 0.050462015 0.079713345
000020 bd fe 23 bd 3d ca b7 3e b7 ef 60 3e 80 5d f0 bd
       -0.04003786 0.35896483 0.21966444 -0.11736584
000030 45 d4 59 bc e3 f9 38 bd 3d 64 9d bd 2b 19 3a be
       -0.013295238 -0.045160186 -0.076851346 -0.18173663
000040 76 ef 0d bc 07 ff 28 be fd 23 94 3a 74 97 0c be
       -0.008663049 -0.16503535 0.0011302229 -0.1372965
000050 6b 9d ce 3e 57 6c 9f 3b 7e bb c4 3c f3 ee 90 be
       0.40354475 0.00486521 0.024015184 -0.28307304
000060 e2 cc 90 3d 70 df 35 be 05 6a 96 bd 4c 9c 1f be
       0.07070328 -0.17761016 -0.0734444 -0.15586966
000070 31 59 b7 bd fe 95 17 be d9 8b 52 bc 18 ad 9f 3b
       -0.08952559 -0.14803311 -0.012850725 0.0048729293
000080 77 56 3b 3e 17 3d 0d 3e 15 bd ca 3c e4 0c b4 3d
       0.18294702 0.13792835 0.024748364 0.08791521
000090 e2 db 8b be b6 d0 35 3e d0 4a ec bc eb d5 ae 3d
       -0.27316195 0.17755398 -0.028844267 0.08536895
0000a0 3a c6 18 3e a0 c0 57 bd 1e 22 1e bc 19 b2 02 3e
       0.14919367 -0.052673936 -0.009651689 0.12763251
0000b0 a9 c5 3e be 9b f2 a3 3d 74 fd 8d 3e 21 ad 43 3e
       -0.18630089 0.08005258 0.27732432 0.19109012
0000c0 83 62 cb ba 47 03 48 3e 28 13 76 3e 12 2f 60 3d
       -0.001551703 0.195325 0.24030745 0.05473239
0000d0 f3 42 5e bd fc 4f 3d bd fd 00 93 3d 3f 75 13 3e
       -0.054263067 -0.046218857 0.07177923 0.14400195
0000e0 b3 b0 ca bd 39 0c d4 bc 90 25 b4 bd 6a 1a 2c 3e
       -0.09896984 -0.025884734 -0.08796227 0.16806951
0000f0 43 e8 a1 bd db 03 38 3d af c1 28 3d 88 97 19 bd
       -0.079056285 0.04492555 0.041200336 -0.037498027
000100 77 53 30 3e 34 d0 70 3c 39 15 ef bc 92 ba f4 bd
       0.1721934 0.014698077 -0.029184924 -0.11949648
000110 a9 00 db bc 30 9a 69 be a6 34 ed 3a 22 be 36 3d
       -0.026733713 -0.22812724 0.0018097355 0.04461492
000120 3a 6f 16 3d 35 0a 07 be 74 58 8a 3e eb 28 70 3e
       0.036727168 -0.13187487 0.2702061 0.23453109
000130 16 09 6b 3c 9d 5a c8 3d ae ba 23 be 6e d1 02 3e
       0.014345428 0.09782908 -0.15989181 0.12775204
000140 e7 e9 92 bc 1c a1 86 bd 00 0e 00 bc 6c a2 72 be
       -0.017933799 -0.06573698 -0.007815838 -0.23694772
000150 4d 72 6a 3e 51 c3 d4 bd 80 42 49 bc fc 03 0c 3e
       0.22895165 -0.10388816 -0.012283921 0.13673395
000160 21 b5 15 be 42 92 f6 3d ae 90 46 3d f5 5e 0a 3e
       -0.14619876 0.12039615 0.04847782 0.13512786
000170 29 41 1f 3e b9 a8 80 3c 0c ff d7 bd 65 2a 59 bc
       0.155522 0.015705453 -0.10546693 -0.013254737
000180 fc d3 60 3e 9e fd 78 3e 05 ba 16 be 7a c2 13 bd
       0.21955866 0.24315497 -0.14719398 -0.03607414
000190 19 cd b6 bd 89 f9 90 be 75 33 4a be d0 dd 42 3d
       -0.08925838 -0.2831538 -0.19746192 0.047574818
0001a0 5e 45 8e 3d d5 20 7d 3d 16 11 4a be 64 7c 41 bc
       0.069468245 0.06179889 -0.1973308 -0.011809442
0001b0 e6 a9 49 be 02 19 98 3c c7 8d 24 be 23 e2 73 bd
       -0.19693717 0.018566612 -0.16069709 -0.059541833
0001c0 0b ab 25 bd 54 6a 6c 3d b1 e2 1a 3d 05 c8 ff bd
       -0.040446322 0.05771859 0.037813846 -0.124893226
0001d0 16 ff 4f 3e be 31 1a be 9c 07 13 be 06 08 c8 3d
       0.20312151 -0.15058038 -0.14358371 0.09767155
0001e0 2c 76 81 3d a1 c9 5f 3e 75 0c 82 be 84 89 1e be
       0.063213676 0.21854259 -0.2540013 -0.15482146
0001f0 ee c6 5b 3c 54 aa 68 be 59 91 90 3a d7 c4 29 3e
       0.013414128 -0.22721225 0.0011029645 0.16578995
000200 ac a6 8f be 3c ce da bd 86 9f 1e be 7d 22 f3 bd
       -0.28056848 -0.10683867 -0.15490541 -0.118718125
000210 3c 9c c9 3d ed 97 55 be 12 17 4c 3e 52 45 8c bc
       0.098442525 -0.20858736 0.19930676 -0.017122898
000220 50 5a 06 be a3 95 21 bd c5 b1 ea bd 63 ac 83 3d
       -0.13120389 -0.039449345 -0.11459688 0.064293645
000230 b4 50 b8 bd 48 33 b6 3d 9f 9e 9d 3d a7 33 07 3b
       -0.08999768 0.088965 0.0769627 0.0020630152
000240 f9 8e 2d be 3b 2b 8f 3e a0 5f 6c be 90 0d 59 be
       -0.16949071 0.2796267 -0.23083353 -0.2119658
000250 1b 6f fc bd 67 1a 5b 3b f6 e1 dd 3d 76 60 2e be
       -0.12325879 0.0033432485 0.10834114 -0.17028984
000260 ab ff d9 3d 82 f7 ba 3e 35 4e a4 3c 12 ed 06 be
       0.10644468 0.36516958 0.020056823 -0.13176373
000270 e2 53 60 bd 29 f3 2b 3d 31 3c 1d be e1 d0 f1 bd
       -0.054767497 0.041979942 -0.15354992 -0.118074186
000280 69 c1 86 bd 49 d1 4a 3e b8 1a 38 3e 9d 25 51 bd
       -0.06579859 0.19806398 0.17978942 -0.05106126
000290 5a ac b7 3c 40 45 01 be e3 cd bc be ae b5 68 3e
       0.02242105 -0.12624073 -0.3687583 0.22725555
0002a0 62 59 e2 bd 60 94 80 bd c3 0f 9a bc 62 ec 8f bd
       -0.11052205 -0.062783 -0.018806344 -0.07027508
0002b0 dc 54 07 be 3d fd 86 3d 18 49 9f 3e 2d 47 92 bd
       -0.13215965 0.0659127 0.31110454 -0.07142482
0002c0 6d b5 22 be 85 3d ad 3c cb 53 aa bd ca 2c 41 3d
       -0.15889521 0.021147499 -0.083167635 0.047161855
0002d0 84 6d 7d bd 01 63 40 3d c3 57 3f bd c7 f6 35 bd
       -0.06187202 0.046969417 -0.046714555 -0.0444248
0002e0 73 9a 13 3d 6f 12 96 3b 6c 60 35 3d 57 13 0d be
       0.036035966 0.004579834 0.04428141 -0.13776909
0002f0 37 33 c9 bd c4 e4 50 3d 9b b0 be 3d d8 d2 94 3e
       -0.098242216 0.050999418 0.093110286 0.2906711
000300 f8 6c 50 bd a2 66 17 be 92 e1 7f be 34 4f 18 3e
       -0.05088517 -0.14785245 -0.24988392 0.14873964
000310 a8 0d a0 bc 0a 9c 53 3d 23 11 22 3d 37 02 9f bd
       -0.019537762 0.051662482 0.039567124 -0.07764094
000320 b6 c8 66 3e 5a d5 3d 3e 47 91 99 3e 64 bd 79 3e
       0.22537503 0.18538418 0.2999365 0.24388653
000330 3d 16 95 3e 04 66 eb 3d 24 77 00 be e7 99 17 3e
       0.2911853 0.11494067 -0.12545449 0.14804803
000340 e3 a9 c6 3d 5e 18 5b 3e 9c 51 8d bd c8 b4 85 3d
       0.09700372 0.21396014 -0.069003314 0.06528622
000350 8d 57 c1 3d 2e 09 35 3e 4c d9 de bc ae 6c 1b 3e
       0.09440527 0.17679283 -0.027203225 0.15178177
000360 c0 44 38 3e 2b 76 22 bd 50 5b 41 3e 36 1e 10 bd
       0.17994976 -0.039663475 0.18882489 -0.03518506
000370 da e4 d8 3a 66 18 f4 3d 41 49 0e 3e 66 2c 44 3e
       0.0016547695 0.11918716 0.13895132 0.19157562
000380 16 55 2e 3d c7 00 18 3d ef 18 16 be d3 93 53 3d
       0.042561613 0.037110116 -0.14657949 0.051654648
000390 99 6b a8 3d 6c 92 19 bc 94 b8 c5 bd 2b e4 41 3d
       0.082236476 -0.009373289 -0.09654346 0.04733674
0003a0 67 b0 bd be 4a 1a d9 3d 99 7b 7c bd 2f 7c 48 be
       -0.37048647 0.10600717 -0.06164131 -0.19578622
0003b0 1c 9f d8 3c 8b 32 f7 3d 93 36 21 3d 46 67 e5 bd
       0.026443057 0.12070187 0.039358687 -0.112013385
0003c0 17 2b f7 3c f2 46 00 3e 87 46 51 3c 41 25 b2 bd
       0.030171914 0.12527063 0.012773163 -0.08698512
0003d0 a0 fc ba bc ac d3 33 bb 69 8b d1 bd 42 0b 76 be
       -0.02282554 -0.0027439399 -0.102316685 -0.24027732
0003e0 48 2e 8a bd a0 cd 0a bd 44 3f b3 3a a2 7b 1d be
       -0.06747109 -0.033887506 0.0013675471 -0.15379193
0003f0 99 51 91 3c 30 4e 4a be 19 c1 1c be cb a2 69 bc
       0.017739104 -0.19756389 -0.15308036 -0.014260004

net.0.bias f4 [60]
000000 0a 73 2e be e1 3a 89 bd 68 6b c7 3c 61 90 e6 bc
       -0.17036071 -0.067006834 0.024343207 -0.028145017
000010 07 cc 55 3d 7c 8b 1f be f0 b0 de 3d 48 11 9f 3d
       0.05219653 -0.15580553 0.10873592 0.07766968
000020 76 51 66 3d 5e de b7 3d 0c 86 0d be 9c 58 78 bc
       0.05623003 0.0897796 -0.13820666 -0.015157845
000030 5b 25 1a bd 9c 28 c3 bd 94 f2 07 3e f5 7b 81 3d
       -0.03763328 -0.0952923 0.1327613 0.06322471
000040 86 b1 e4 bd e4 ea 23 bd 10 0c ae bd a1 ed 38 3d
       -0.111666724 -0.04001893 -0.084983945 0.045148496
000050 95 b2 94 bd 58 56 f7 bd 37 76 15 3e 7f 28 42 3d
       -0.07260624 -0.12077016 0.14595877 0.0474019
000060 7c 73 cc bd e1 89 0c be d0 38 23 3e 24 10 a8 3d
       -0.099829644 -0.13724472 0.15939641 0.082062036
000070 c1 46 fe bd 47 e3 88 3b cb ff 07 3e 52 85 67 3d
       -0.12415839 0.004177484 0.13281171 0.05652363
000080 eb 53 be 3d 84 84 28 bd 80 bd c8 bd fa e4 ba 3d
       0.0929335 -0.041142 -0.09801769 0.09125705
000090 66 92 26 be 67 f0 c5 3d 69 68 db 3d 53 92 2a 3e
       -0.16266784 0.09664994 0.10713274 0.16657381
0000a0 44 b2 dd 3d bb e5 05 be 01 68 1b 3d 3d bb e8 3c
       0.10825017 -0.13075916 0.037940983 0.028409595
0000b0 06 d0 ac 3d 65 e0 df bd 2b 02 af 3c c5 e0 30 bd
       0.08438115 -0.10931472 0.021363338 -0.043183107
0000c0 0b 9b 3c 3d b6 51 19 be bc f9 9d bc 60 e2 be 3b
       0.046046298 -0.14972576 -0.019284122 0.005825326
0000d0 d8 94 13 3e 0f 6a 4c bd 26 6b 04 be af 61 c9 bd
       0.14412248 -0.049905833 -0.12931499 -0.09833085
0000e0 e0 1f 15 bd fb 28 ba bd 96 14 4b 3e 0d 34 04 3d
       -0.03640735 -0.09089848 0.19832072 0.032276202

net.2.weight f4 [60, 60]
000000 74 f0 90 3d 2a 1a 85 be 06 81 1b be 42 13 b9 3e
       0.07077113 -0.25996524 -0.15185937 0.36147505
000010 00 8e 28 3d 3e 17 c8 3d f9 70 2c 3d 3a 06 3c bd
       0.041151047 0.09770058 0.042099927 -0.045904376
000020 5c 20 0b 3e 48 59 5f be dc d0 b2 3d ad b2 82 bc
       0.13586563 -0.21811402 0.08731243 -0.01595434
000030 19 13 da bd 4e 47 0e 3d 0d 35 0a be fd 60 fe bd
       -0.10648174 0.03473597 -0.134968 -0.12420843
000040 cb 67 61 bd 37 62 e3 3c 31 13 8c 3d 0d 15 e8 bb
       -0.055030625 0.027756793 0.06839598 -0.0070825876
000050 e0 ee 4e 3c f6 e0 ed bd f9 b4 fa bd 9b 22 a4 3c
       0.012630194 -0.116151735 -0.12241549 0.020036032
000060 38 6b 9e bc cc 74 50 be 77 a6 6b be 4c 08 89 3e
       -0.019338235 -0.20357054 -0.2301272 0.26764143
000070 47 a3 38 3c 61 53 a3 3d f4 95 8a 3d 75 03 57 3e
       0.011269397 0.07974888 0.067668825 0.20997413
000080 d3 0d c8 bd 62 92 1a bd f0 80 2a be 2b 33 dd 3d
       -0.09768262 -0.037737258 -0.16650748 0.10800775
000090 24 ed 8c be f4 3a d9 bd 72 3c e9 3d 05 ea e7 bd
       -0.27524674 -0.106069475 0.11388482 -0.113239326
0000a0 35 1f 34 bd ee 01 6c 3d 5a bf f1 bd 53 2f c5 3d
       -0.043975074 0.057619028 -0.118040755 0.09628167
0000b0 28 85 10 bd e5 26 55 3c 08 c5 40 be 1a 0b 53 bd
       -0.035283238 0.013009761 -0.18825161 -0.05152426
0000c0 22 fe a2 3d e0 70 b1 bd 16 18 a4 bd d3 fd bd 3b
       0.07958628 -0.08664107 -0.080124065 0.0057980805
0000d0 4e 64 21 3d 31 30 42 3c e8 83 15 3e 86 f0 ad 3b
       0.0394023 0.01185231 0.146011 0.0053082136
0000e0 ff cc ad 3d ba bf d0 bc ff 01 ac bc 87 f2 9f bc
       0.084863655 -0.025482047 -0.020997046 -0.019524826
0000f0 e9 c2 eb 3c 9d b1 56 3e e3 03 db bc 34 a0 f3 3c
       0.028779464 0.20966192 -0.026735252 0.029739477
000100 3e 6c 46 3c 51 7f 4d bc 9b 68 76 bd 98 b1 18 be
       0.012110768 -0.012542562 -0.060158353 -0.14911497
000110 6b fc 83 3d b4 0d f8 39 cf 0a dc bc 23 74 96 3c
       0.06444629 0.00047312456 -0.026860623 0.018365925
000120 00 1c de 3d bb 8e 5c be 86 30 2b bb e4 a7 85 bc
       0.10845184 -0.21538822 -0.0026121452 -0.016315408
000130 ed 16 dc 3d 3d 35 43 bb f0 1d a8 3d d5 98 7d 3b
       0.1074656 -0.002978637 0.08208835 0.0038695831
000140 0f e6 29 3e 2e 8a 74 3d 3b 37 18 be ab 18 1b be
       0.16591667 0.05970209 -0.14864819 -0.15146129
000150 e0 0a 92 bd 85 ae 11 3e fb a3 c8 3d af 6e 23 3d
       -0.071309805 0.1422673 0.09796902 0.039900478
000160 26 1a a5 bd 8f 72 e5 bd 6f 34 ce 3d 64 e6 35 3e
       -0.08061628 -0.11203491 0.10068595 0.17763668
000170 60 72 c9 3d 46 67 92 3d b1 69 0f 3d 03 8e 10 bd
       0.098362684 0.07148604 0.035012905 -0.035291683
000180 fc 4c 97 bd 1f e5 7e bd 0e 2f 8f bd 1d c5 2c 3e
       -0.073877305 -0.062230226 -0.06991397 0.16872068
000190 e8 a6 9d ba 43 50 49 be a7 1b 8c be f3 32 30 3d
       -0.0012027891 -0.19659524 -0.27364847 0.04301734
0001a0 c8 88 74 be 02 03 74 3d 08 a5 d2 3d 6a 3b 92 bc
       -0.23880303 0.05957318 0.102853835 -0.017850596
0001b0 7f 6e 85 3e c1 dd 61 bd 0e 6c 63 bd ec 0b 13 3d
       0.26060864 -0.05514312 -0.05552297 0.03590004
0001c0 51 84 1b be 4c e5 56 bd cb dc a4 3d 4e 34 cb bd
       -0.15187193 -0.05246477 0.080499254 -0.09922086
0001d0 c6 4b ee bd d4 2d 93 3d 84 2a 70 be 75 0c af bd
       -0.116355464 0.071864754 -0.23453718 -0.08547298
0001e0 35 73 8c 3e 49 95 c1 bd 63 01 e7 bd b6 7b d0 bd
       0.27431646 -0.09452302 -0.11279561 -0.10179846
0001f0 90 8d 46 be 0e ae 19 3c da 33 36 3e d1 c4 a3 bd
       -0.1938994 0.009379877 0.17793217 -0.07996524
000200 d3 5c 6f 3d bc 9b 32 3e 98 95 b0 3d 6c 2e 27 3d
       0.058438133 0.1744222 0.08622283 0.040815756
000210 f9 8c ad bd 84 c6 8e bd 0f 6d d2 3d de 4d d6 bc
       -0.08474154 -0.069714576 0.102747075 -0.026160177
000220 d0 61 ce 3e c1 39 37 be 4d 54 91 3e 99 dc 88 3d
       0.40309 -0.17893125 0.2838463 0.06682701
000230 10 93 5c be 4b f0 9c 3d 1a d7 c2 bd 9e 0d 1a be
       -0.21540475 0.0766302 -0.095136836 -0.15044257
000240 5d 83 a0 bd 18 ff e6 bd 88 e9 1c be ce 24 0d be
       -0.078375556 -0.11279124 -0.1532346 -0.13783571
000250 a8 7d b5 3d 4f a6 05 be e1 83 0a be 51 b2 88 3c
       0.08861858 -0.13051723 -0.1352687 0.01668659
000260 13 99 4e be 2a 53 11 bd 3f 7f 54 3c c6 09 0f be
       -0.2017558 -0.035479702 0.012969791 -0.13968572
000270 92 71 2d 3e de 9a a3 3e 84 6f 7f 3d b6 7a cc be
       0.16937855 0.31954092 0.06236221 -0.3993737
000280 e8 97 b1 3d 08 e9 bf bd 83 ef 77 bc 6a 9c a2 3c
       0.08671552 -0.09370619 -0.015132788 0.019849975
000290 79 3f 4a be 05 1a 00 3e 78 42 93 bd 15 8f b4 3c
       -0.19750775 0.12509926 -0.07190412 0.022040883
0002a0 74 e2 40 3e be 67 37 3e 21 aa c6 bc 78 f6 02 3d
       0.18836385 0.17910668 -0.024251046 0.031973332
0002b0 a8 e3 95 bd cf 2a ed 3d 1a 42 65 be 9c 4f 0a 3e
       -0.073188126 0.11580431 -0.22388497 0.13506931
0002c0 69 ea c3 bc ca a7 54 3c b4 37 b2 bd 94 42 48 bd
       -0.023915486 0.012979457 -0.08702031 -0.04889162
0002d0 e1 92 ee bb d6 a5 31 be 23 5b 72 bd 51 23 2c 3d
       -0.007280693 -0.17348418 -0.059168946 0.042025868
0002e0 ed 03 d6 bd c9 96 0f bd 0f e8 4d be 67 b1 d1 3d
       -0.104499675 -0.03505591 -0.20108055 0.10238915
0002f0 de 2e 67 3d e2 56 02 be 20 ad 88 3d 11 e0 a9 bc
       0.05644118 -0.12728456 0.06673646 -0.020736726
000300 9e 63 77 bd 19 19 61 bd 31 e5 d3 3c 3c 3a cc bc
       -0.060397737 -0.054955576 0.025866123 -0.024930112
000310 f1 73 f3 3b bb f4 9f 3c 22 ba 28 3e 22 d5 73 be
       0.007429593 0.019525876 0.16477254 -0.23811772
000320 e8 a1 ca bc eb 64 9d be a7 99 21 bb 04 d8 4c bd
       -0.024735406 -0.30741057 -0.0024658234 -0.050010696
000330 a2 13 26 be b1 f1 1c be b4 dc 40 3e ef b2 95 bd
       -0.16218427 -0.15326573 0.18834192 -0.073095195
000340 0c 63 ae bc 79 fe 0d be 27 5a f2 3d de c5 2b be
       -0.021287464 -0.13866605 0.118336014 -0.16774699
000350 c6 1d c6 bd 7b 0d b5 3b 7a 57 36 bd 66 48 17 be
       -0.096736476 0.0055252886 -0.044517018 -0.14773712
000360 01 82 db 3d 7f e5 74 bd 5f d9 62 3c d6 be 0b 3e
       0.10718156 -0.059789177 0.013845771 0.13647017
000370 e8 a3 ed bd 97 13 f6 bd 6b e5 38 3e 5b 98 f8 3d
       -0.11603528 -0.12015455 0.18056266 0.121384345
000380 4b f3 29 3e 3c 93 5e 3e f0 fc 13 3c 61 c1 0d 3d
       0.16596715 0.21735853 0.009032473 0.03460825
000390 22 9e 24 be a5 c7 89 be 78 84 82 3d f1 ec 1c 3e
       -0.16075948 -0.2691013 0.06372923 0.15324761
0003a0 3d 66 18 be df 01 78 bc a3 e9 b8 3e 71 a2 28 3e
       -0.14882751 -0.015137165 0.3611575 0.16468216
0003b0 2a 29 d6 bd b6 8a 69 3e 1f 75 6d 3e 62 2c 1a 3e
       -0.1045707 0.2280682 0.2318921 0.15055993
0003c0 c3 e0 d9 3d f1 32 ee 3d 06 59 36 3e 97 55 30 3e
       0.10638573 0.1163081 0.17807397 0.1722015
0003d0 fe 1c 0b ba 16 ae 32 3e 48 fb 5c 3e 2d e7 16 be
       -0.00053067494 0.17449221 0.21580231 -0.14736624
0003e0 65 b9 0e bd 30 df 46 3e 53 10 c2 bc dc 5a 39 be
       -0.034844775 0.19421077 -0.023689425 -0.18101066
0003f0 52 4d 31 3d 40 8d 75 bc 19 2f 74 be 2d 35 48 3e
       0.04328663 -0.01498729 -0.23846091 0.19551535
