results of reviewer/XJTU results/1-1/Experiment9/model.pth (torch, 59838 bytes, 14 tensors)

encoder.net.0.weight f4 [60, 17]
00000000: de1c ab3d 622f 90bc 3f11 633c 2991 0fbd
00000010: f840 8dbd 1072 1c3e 64d0 35bc da3c 043e
00000020: d78d 00bd 3bb0 dbbd a641 e6bd 3b6d 163c
00000030: 63ae 873d 3188 9f3d 09df febd 2dd2 293e
00000040: 958c fdbd 118d 1abc a20d 2abd 35ed 79bd
00000050: e36d 633e c13f 7d3e d682 02be 54c6 c9bd
00000060: a2f4 04be e6d2 f0bd 4eb9 70be 4ba4 abbc
00000070: d271 b9be c12d eebc fae8 373e 0e86 e8bd
00000080: 8769 853d 69a6 e6bc 0ea9 10bd 459a 6b3e
00000090: 3a9b 473e 5bb8 a3be 99ba 89bd 6f22 773d
000000a0: 1c22 763e cab2 28be 5dda a0bd 0541 d73e
000000b0: 7ace 2e3e 62be 003d 532c 1e3e 4264 3039
000000c0: 0549 36be 761f 9c3d bfea de3e c6df 393e
000000d0: e1a4 1ebd 130f 593c 78c2 c4bd 2702 8d3d
000000e0: 37d8 843c 16b1 2b3d 8d75 923d 336e 473e
000000f0: 35bf 003e 5319 35be 0149 c43c bf93 f2bd
00000100: cd5c 963d 5f9e 9fbd 3d7d 793e 58a3 f9bd
00000110: dff0 f13d a4dd 173d 9b73 713d 44fd 47bc
00000120: d396 4e3d d307 acbd 2594 313c e04a 8a3e
00000130: 50d2 b0bc 86ee c83b 4940 113e ed0d b2be
00000140: d06b d1bc 047e eb3c 1e86 8f3e cf98 61bd
00000150: 3662 03be 9597 dabd 2bdd a1be 1fae dcbd
00000160: 5c64 9d3d 4b64 d83d 8422 cebd a48d f23d
00000170: 30d4 a9be 7514 5ebe ab40 fabd 405d 153e
00000180: 464d 0c3e 6100 bc3c d951 ba3c 017d 6b3e
00000190: 8dd3 88bc be58 2f3c ae5e 043e bdf2 e93d
000001a0: 2b65 42be ab83 4b3e 8667 bd3e 2b7a c9bb
000001b0: 210f 0f3e d8c7 9cbe b9cb ab3d b081 d73c
000001c0: d6dc 31be 4b4c 3dbe 78fc cbbd b64b 623b
000001d0: f944 6b3d 6178 dbbc fb8a 2fbd 60f2 3fbe
000001e0: 6866 05be 9350 3fbd 168c 34bc f963 34bd
000001f0: 6b50 1abe 48b9 7c3e 3685 48be 0084 bebd
00000200: 0fe5 ef3c 7ef7 443c 13e1 1f3e fd99 e2bd
00000210: 1c75 433d 5221 853e 4a16 24bd 3706 0c3e
00000220: ad7d b6bd 4604 003e 202b 97be b2a9 3e3d
00000230: ee14 2b3e 1401 4c3d 6879 4fbe a408 27be
00000240: 535e 1e3d bece 9b3d 7ced 953e 7b16 913d
00000250: 9246 123e e362 2f3c b55a 3b3e 206d 3ebe
00000260: 85b3 3abe b9d7 c13d 639a c1ba 3b40 8b3d
00000270: 9995 733d 6433 71bd 3d32 3c3d a4b7 8e3d
00000280: 0c8e 1fbe 118d 9ebd 1655 113e 32bd b53c
00000290: 6625 1ebe 7078 cebe eb2f c6bc 88c4 e33d
000002a0: c2ea 11be 261c 2cbd 0a15 42be 31ed 113d
000002b0: 47b5 8bbe d131 ecbd 6f06 013e b886 98bd
000002c0: d749 dfbd 814c 07bc aa08 77be 634c 963d
000002d0: 4fbb 493d e79c 0ebd e329 81be 900a 0dbd
000002e0: efa0 383c d1ab a63d b914 c43d cfbd c53d
000002f0: fec2 6c3d 77b2 9d3c 5911 82bd 8d4d b4bc
00000300: 4fbd 7e3d bbd5 a83d 403a 673e 0a99 76bd
00000310: f2ad 7abd 3eb0 f63e 10b8 323e 72cf 763d
00000320: 2cb9 813e 26ee 20be 4947 a93d 682e b6bd
00000330: c037 a9bc ff01 07be 50e7 e23c 55f0 453e
00000340: f756 463e a964 3b3e 5730 6b3e 8fc2 31be
00000350: f336 bcbe 9fa1 80bd 1651 f53b 028f 5c3e
00000360: b97b 6a3e 9d4b c8be 0a0d 3abd 7276 97bd
00000370: 93f7 e2bd 79da 52bc 0a3b d5bd a8cb 93be
00000380: 6fbc 14bd 69e5 a93d eba3 933c 7645 eabd
00000390: 4578 353e 3aab 3ebe 341f bc3d 4747 c6bc
000003a0: 2d78 3fbd 4471 82be bed7 153e 1d06 b63c
000003b0: a191 b53e cfa2 253c 0674 873d ba40 51bb
000003c0: ed77 6bbe 1f1b 3bbe ec1f 5d3e 2155 8e3d
000003d0: 1017 f4bd e6ec 9f3d d555 553e 59d0 ac3d
000003e0: 81a1 2fbd 6a80 54be a97b 11bc 422a abbe
000003f0: 8b0a 903e df64 8b3d 5d5d c23c efe1 45bc
0.08355115 -0.017600719 0.013859092 -0.035050545 -0.068971574 0.15277886 -0.0110970475 0.12913838
-0.03138527 -0.10726973 -0.1124299 0.009181316 0.066250585 0.07789648 -0.12444884 0.16584082
-0.123803295 -0.009433047 -0.041516908 -0.061017234 0.22209887 0.24731351 -0.12745222 -0.09852281
-0.12983945 -0.11758976 -0.23508188 -0.020952364 -0.3621965 -0.029074552 0.17959967 -0.11353694
0.06514268 -0.028155522 -0.035317473 0.23008068 0.19492808 -0.3197659 -0.06725044 0.060335573
0.24036449 -0.16474453 -0.078541495 0.42041793 0.17070952 0.031431563 0.15446596 0.00016822017
-0.17801292 0.07623188 0.43538472 0.18151769 -0.03873146 0.013248223 -0.096074045 0.06885176
0.01621638 0.04191693 0.07151327 0.19475631 0.1257294 -0.17685442 0.023960592 -0.118445866
0.07341919 -0.07793879 0.24364181 -0.121893585 0.11813521 0.037076607 0.05894814 -0.012206379
0.050436806 -0.0839993 0.010838543 0.2701025 -0.02158466 0.00613195 0.14184679 -0.3477625
-0.025564104 0.028746612 0.2803201 -0.05507737 -0.12830433 -0.10673443 -0.3161405 -0.107753985
0.07685158 0.10566004 -0.10065177 0.11843422 -0.331697 -0.21687491 -0.12219366 0.14586353
0.13701352 0.0229494 0.022744106 0.22996904 -0.016702438 0.01070231 0.12926742 0.11423252
-0.18983905 0.19874446 0.36993045 -0.0061485968 0.13970615 -0.3062122 0.083884664 0.026306957
-0.17369398 -0.18486135 -0.09960264 0.003452999 0.057438824 -0.0267908 -0.04285715 -0.18744802
-0.13027346 -0.0467077 -0.011019727 -0.044040654 -0.1506974 0.24680054 -0.19582066 -0.09302521
0.029284028 0.012021897 0.15613203 -0.11064527 0.047719106 0.26001984 -0.04006032 0.13674246
-0.089106895 0.1250163 -0.2952509 0.046548553 0.16707203 0.049805716 -0.20261157 -0.1631189
0.038664173 0.07607792 0.2928275 0.07084366 0.14284733 0.010704729 0.1829632 -0.18596315
-0.18232544 0.09464974 -0.0014770742 0.0679936 0.05946884 -0.0588869 0.04594635 0.069686204
-0.1558153 -0.0774175 0.14192614 0.022184942 -0.15443954 -0.40326262 -0.024192771 0.1112147
-0.14249709 -0.042019032 -0.18953338 0.035626594 -0.2728674 -0.11532939 0.1260011 -0.074475706
-0.10902756 -0.008257986 -0.24124399 0.07338788 0.049250897 -0.034817602 -0.2522727 -0.0344339
0.011268838 0.0813824 0.09574265 0.09655344 0.057803147 0.019250138 -0.06350965 -0.022009635
0.062192257 0.08243891 0.22580814 -0.060204543 -0.061201043 0.48181337 0.17453027 0.06025643
0.25336587 -0.15715846 0.0826555 -0.0889557 -0.020656466 -0.13184355 0.027698189 0.1932996
0.19369112 0.18300118 0.22967659 -0.17359374 -0.36760673 -0.06280827 0.007486473 0.21538928
0.22898759 -0.39120188 -0.04542259 -0.073956385 -0.11082377 -0.012869471 -0.104116514 -0.28866315
-0.036312517 0.0829571 0.018022498 -0.1143903 0.1772166 -0.18620005 0.09185639 -0.02420391
-0.046745468 -0.2547704 0.1463308 0.022219712 0.3546267 0.010109617 0.066139266 -0.003192945
-0.22994967 -0.18272065 0.21594208 0.06949831 -0.11918461 0.07808857 0.20833524 0.08438177
-0.04287863 -0.20752111 -0.008879581 -0.33430678 0.28133044 0.06806349 0.02372616 -0.012077793

encoder.net.0.bias f4 [60]
00000000: 5f4f 9a3c 386a 11bd 08f2 ba3c dbfe 8bbd
00000010: 3357 14bd 734f d93b c133 6dbb a637 053d
00000020: 8771 4fbc bd57 b03c 07d5 5d3d a250 3e3c
00000030: 8e31 ecba 4cbf 18bc 3157 cf3c 4890 a0bb
00000040: 114f 613c cb39 403d e32c a6bc 9971 c5bb
00000050: d8a1 bbbc 9115 6e3c 33fc 093d 41f6 c53c
00000060: 9af6 f0bc 64f3 323d 4fbf 9d3c fc38 d23c
00000070: b70b 223d c30e ffbb e715 213d aa9a b6bd
00000080: 33ca a9bc 953b f03c 06b3 bcbc d0a3 e73c
00000090: 9a2a 553c 1e09 37bc 7efb 09bd dd7c 123d
000000a0: 0e6d 01bd f13e d1bb 680f 96bd 3b48 cabc
000000b0: 1ac0 2fbd 97e9 ab3c 217f 1c3c e131 1f3d
000000c0: c3f8 28bd 4c67 8f3c b4da adbc 7b9d 2cbd
000000d0: c3c2 e53c 1fef d8bc bc66 ae3b ae7c f9bc
000000e0: d3ee 103c 2ed5 21bc e1a6 c7bc fba5 7dbc
0.018836675 -0.03550169 0.022820488 -0.06835719 -0.036215972 0.0066317855 -0.0036194178 0.032523774
-0.012661344 0.021526212 0.054158237 0.011615904 -0.001802014 -0.0093229525 0.02531013 -0.004900012
0.013751761 0.046930116 -0.020285076 -0.006025505 -0.022904322 0.014531509 0.03368778 0.024165275
-0.029414464 0.043689147 0.019256262 0.025661938 0.039561953 -0.007783742 0.03932753 -0.089162186
-0.020726299 0.029325286 -0.023034584 0.028276354 0.013010645 -0.011171607 -0.033687107 0.03576361
-0.031598143 -0.006385677 -0.07327157 -0.024692645 -0.04290781 0.020985408 0.009551794 0.038865928
-0.041252863 0.01750531 -0.02122245 -0.042142373 0.028046971 -0.02648121 0.0053223055 -0.03045496
0.008846003 -0.009877486 -0.024371566 -0.015481467

encoder.net.2.weight f4 [60, 60]
00000000: 0cb3 2cbe 8967 b23d f66b 153e 86bd 88bd
00000010: c736 353e ee31 75bd 32d2 63bd e189 8d3c
00000020: 6c9b eabd 5fe0 fdbc c27e 1ebe bfb8 c9bd
00000030: 42a7 5a3c fc1c 0d3e 0a83 c73d 977f a43d
00000040: 8dc8 af3b e482 4c3d 0608 313d 0ce5 88bd
00000050: 643e 093c e91f 443d 38ae 5d3d 08d0 9bbe
00000060: 5d43 673d 66ec 99bd eecd a63c 1985 a3be
00000070: 39a3 c33c 9cfc 3a3d c03d 89bc e889 413d
00000080: b6c4 13bd eb49 2dbd f970 a83c 7e5c 21be
00000090: 8880 d9bd ad7d 21bd 87e5 25be 7835 ed3d
000000a0: 553b 323e 4cff 63bd dc8f d63d 52e3 0ebe
000000b0: 0a48 ebbd 7a5b 3ebc 6ed4 14be 4bcf 483c
000000c0: 735f 54bd a972 7bbe e463 11be dbed 1fbd
000000d0: aae9 9c3d c560 9cbc 8666 013e 1486 1e3e
000000e0: b947 47be e977 593d a0aa d7bc a2f0 9dbd
000000f0: eab1 673b e583 393c 0945 bebd 196e fbbd
00000100: 7114 28be 4371 8ebd 5018 543d e347 2ebd
00000110: df66 f2bd 9519 163e afce d5bd 3546 423b
00000120: ad89 933d 3394 533d 60db 2d3c 5bdf abbe
00000130: f6e6 6e3d 55f1 7f3d 1416 86bc 2fe3 fb3b
00000140: 074f 69bd b36c 84bd c5ea 693d 13fd 913e
00000150: ecf9 1bbd 7096 c2bc 36ca 0ebd f89d 383d
00000160: db45 023e 6800 67be 275d 723d 3b9e 513d
00000170: 68eb 043e 76c1 65bd 9880 2a3e 2c5a 383e
00000180: 1761 303e fa9a 2dbd cec3 153e df47 c3bd
00000190: a992 3f3d f098 4bbd a0b7 9cbd 9547 453e
000001a0: 9cf2 82ba e22c b9bd e072 78be bc0b 803e
000001b0: 3b94 99bd 1cb3 df3d 8374 bdbd b3bf d23c
000001c0: 643a 9c3d 929f 8e3d 5a7f 063e 93ed 863e
000001d0: 5c4f a43d b011 3c3e 7324 16be 97ec 21be
000001e0: c825 0fbe f86b 0abd 695d 00bd fd45 48be
000001f0: ad41 803e 3bca 4f3e 1fc6 f1bd dcb2 a5bd
00000200: be15 6f3e 59c4 4dbc 3255 803d de16 b5bd
00000210: 9ffd 7bbe c315 79be 660d 483d c376 61be
00000220: fdee d0bc 498c 6dbe fe1c 0d3e f47d 533e
00000230: 3ecc 303e b9b2 d43d 109e f1bb 314b 983d
00000240: 2f6a 403d b3e1 d73d d30e f53d b0c0 c33d
00000250: 6a9c a93d 2f18 b63d 4ec4 8c3d b381 b5bd
00000260: 96c9 2bbe 7043 a93d 14cd 993d 6113 a83d
00000270: 7229 3a3e 6bff 833e 15e8 0e3d 0bb8 8d3d
00000280: 45f9 a13d ae8d 92bd 8914 bcbd 35f9 e1bd
00000290: 9d75 bdbc ecec a0bd c0a0 97bd a6d3 633c
000002a0: 51b3 d9bb 8565 c3bc 002d 0fbe d591 efbd
000002b0: 103b 4d3e 53a9 0abe bbc5 843d 3be0 6c3e
000002c0: 5422 d0bd f5f6 4cbe d5c9 b8bd 2bbe 2f3d
000002d0: f1b7 a3be 33c3 e13d dabe 073e 33eb 853d
000002e0: e688 4f3e 712b f83d 5a66 d7bd 1ea7 e1bd
000002f0: 49a6 6c3e f9b0 99bb e62f dabe fb52 9fbc
00000300: 6459 cebd 4029 573d b797 8d3c 3285 023e
00000310: b72d f4bd 99a0 d63d 6d01 433d 2c8f 433d
00000320: 9be9 233e 0944 fdbc c35f 73be d59a fe3d
00000330: e7e8 ea3d b589 173e d90e f03c 8c3f 61be
00000340: 0db0 4fbd 4131 913d 2c9b e93d ad68 1b3e
00000350: 35a9 1d3d a59b 893d a223 c13d 7d57 78bd
00000360: d6ec 7dbd d1fe 89bd 5da2 92bd 3fcd 86bd
00000370: cbcd 9dbd 4541 633d 4ab9 8f3e 6798 10be
00000380: 3408 1b3e 591a 34bd 8b82 953d a258 e23d
00000390: d1d5 863d dc9b d03c f79b a43d 5074 6ebd
000003a0: 821d b0bd 2ad2 1f3e 8118 53bd f9dc 5d3e
000003b0: d00f 483e 84c9 15bd 7088 593d ea5b 3cbe
000003c0: 7c14 383d 6728 c83d 4639 a4bd 24a5 e53d
000003d0: 9f6f 90bd dcc6 c63c d2f4 a13c bfb8 3fbe
000003e0: aa31 f63d 8dac 933e fa47 953e 109c 8abd
000003f0: f73e 083d 7c14 2b3c 4aad 1a3e 3d22 68bd
-0.16865176 0.08711154 0.14591965 -0.06676774 0.17696677 -0.05986207 -0.05562038 0.01727766
-0.114554256 -0.030990778 -0.15478042 -0.09849691 0.013345541 0.13780588 0.097417906 0.08032148
0.0053644837 0.049929515 0.043220542 -0.06684312 0.0083766915 0.047881994 0.054121226 -0.30432153
0.056460727 -0.075157925 0.020361867 -0.31937483 0.023881542 0.045651063 -0.016753078 0.04725066
-0.03607627 -0.04230682 0.020561682 -0.15757939 -0.106202185 -0.039426494 -0.16200839 0.11582464
0.17405446 -0.055663392 0.10476658 -0.13953903 -0.1148835 -0.011618489 -0.1453416 0.012256454
-0.05184884 -0.24555458 -0.14198261 -0.039045196 0.076617554 -0.019089112 0.12636766 0.15480834
-0.19460954 0.05309287 -0.026326478 -0.07711913 0.0035353848 0.01132295 -0.09290511 -0.12276859
-0.16414048 -0.06955197 0.051781 -0.042549025 -0.11836027 0.14658196 -0.104398124 0.0029643897
0.07203994 0.051655006 0.010611385 -0.33568844 0.05832573 0.06248601 -0.01636795 0.0076869945
-0.056960132 -0.06466045 0.05710866 0.28513393 -0.03808014 -0.023753375 -0.034860812 0.045072526
0.1272196 -0.22558749 0.05917087 0.05117629 0.12980425 -0.0560927 0.16650617 0.18003148
0.17224537 -0.042384125 0.14625475 -0.09535193 0.046770725 -0.0497064 -0.07652211 0.19265588
-0.0009990516 -0.09041764 -0.24262571 0.25008953 -0.07498976 0.10922834 -0.092507385 0.025726175
0.07628325 0.06964029 0.13134518 0.2635313 0.08022949 0.18366122 -0.14662342 -0.15812908
-0.13979256 -0.033794373 -0.031339083 -0.19557948 0.25050107 0.20291989 -0.11805367 -0.08090755
0.23348138 -0.01255902 0.0626625 -0.08842252 -0.24608468 -0.24324708 0.048840903 -0.2201796
-0.025504583 -0.23198046 0.13780591 0.20653516 0.17265412 0.10385651 -0.007373579 0.074362166
0.046976265 0.105410956 0.11965718 0.095582366 0.08281787 0.088913314 0.0687338 -0.08862629
-0.16776118 0.08264816 0.07509819 0.08206821 0.18179873 0.25780806 0.0348893 0.06919869
0.079088725 -0.071559295 -0.09183604 -0.110338606 -0.023127371 -0.07857689 -0.074037075 0.013905441
-0.0066436906 -0.02385212 -0.1398201 -0.11697737 0.20042062 -0.13541155 0.064830266 0.23132412
-0.101627976 -0.20016082 -0.090228714 0.042905968 -0.31976274 0.110235594 0.13256398 0.06539001
0.20267066 0.12117661 -0.10517569 -0.11018203 0.23110308 -0.0046902862 -0.4261467 -0.019448748
-0.10075644 0.052529573 0.017284257 0.12746122 -0.11922782 0.1047985 0.04760878 0.04774396
0.16007082 -0.03091623 -0.23766999 0.124318756 0.11470204 0.14798625 0.029303955 -0.21996897
-0.050705004 0.070894726 0.1140655 0.1517665 0.038491447 0.0671914 0.094306245 -0.06063031
-0.061993442 -0.067380555 -0.071598746 -0.06582116 -0.077052675 0.055482168 0.28071052 -0.14120637
0.15139848 -0.04397044 0.0730029 0.110520616 0.06583751 0.025464945 0.080375604 -0.058216393
-0.08599378 0.15607515 -0.05153704 0.21666326 0.19537282 -0.036569133 0.053108633 -0.18394437
0.04494141 0.09773331 -0.080187365 0.11213139 -0.0705254 0.024264745 0.01977006 -0.18722819
0.120211914 0.28842583 0.29156476 -0.06768048 0.033263173 0.010441896 0.15105167 -0.056673277

encoder.net.2.bias f4 [60]
00000000: 16f6 ebbc 785b 7cba 34ac 073d b3ad 3dbd
00000010: 3b2a 0c3d cb85 543c e75d 323d d223 a83c
00000020: 088a 5fba 6fd1 ff3c bcf1 85bb 4308 a9bc
00000030: 8486 953c c4d5 a5bc 4b88 14bd b3ac 343d
00000040: 3829 643c 98b7 22bd 88de c93c c597 02bd
00000050: 539c 3ebd bae5 c2bc c22d 043d 4095 84bc
00000060: e939 1d3b 3190 113d 0021 63bd 4a7e deb9
00000070: 3bb2 a4bc d82c afbc 7467 dbbc ed96 f33b
00000080: 78c0 3abc a699 f03c 0d1b 82bd f37e bb3c
00000090: 1c3f 4a3c 71e6 103d 0149 193d 4161 8abd
000000a0: e70b 003d da67 f13c 77e3 b63c 133d f43c
000000b0: b69b 57bd 097d 5fbd 046d 033a eb70 f1bc
000000c0: 059d db3c 7686 bc3c 69ee f43c 4d06 adbc
000000d0: 1639 b5bc ffdf 1b3c 4471 a63b 1570 eaba
000000e0: 582f 5d3c 778d 0cbd 2d39 fabc e285 423d
-0.028803866 -0.0009626667 0.03312321 -0.04630823 0.03421996 0.012971352 0.043546584 0.020524893
-0.0008527343 0.031227795 -0.004087655 -0.020633822 0.018252619 -0.020243533 -0.03626279 0.04411001
0.013925843 -0.03972587 0.024642244 -0.03188302 -0.0465358 -0.023791183 0.0322702 -0.01618445
0.0023990816 0.035537902 -0.055451393 -0.00042437232 -0.020104518 -0.021383688 -0.026782729 0.0074337632
-0.011398427 0.02937014 -0.06352816 0.022887683 0.012344148 0.035376016 0.037423138 -0.06756831
0.03126135 0.029468466 0.02232526 0.029814279 -0.052638732 -0.054562602 0.0005013498 -0.029472789
0.026808271 0.023013335 0.02989884 -0.021121169 -0.022121947 0.009513854 0.0050794203 -0.0017886186
0.013500057 -0.0343146 -0.030544842 0.04749096

encoder.net.5.weight f4 [32, 60]
00000000: f03a 633e 9e4c 36bd 9e9f ab3d dc59 53bd
00000010: d2ed 2b3b 1f38 2f3e e814 ffbd a6e1 6b3e
00000020: bc0d 8fbc 961d 423d 0305 44be d98f c53d
00000030: 66f6 42bd a737 c53c 19cd 32bc 99db 8fbd
00000040: a631 b3be b822 103e 1778 8a3d abb9 c6bc
00000050: 4047 d0bd 3191 e63d 5ce9 4abe 65c3 503d
00000060: 1096 a73d db78 0d3e 21aa 993c 2193 94be
00000070: 9e18 c73d 42da 20bd 9624 1ebe 78ca d83a
00000080: 513a 88bd 0814 60bd 74f7 44be 1f8e dc3c
00000090: 19b5 a93d c940 d93c f52c 44be c337 1b3e
000000a0: a7de b33d bc3f 9c3c d894 213d 2dbd e63d
000000b0: f751 05be b07c 55bd 03b4 0dbe 8dbd d0bd
000000c0: a8a6 d2be 0da9 3cbe 9313 3c3d e0c6 6dbc
000000d0: 2798 27bc dae1 e63d 57c6 783d a2e6 ab3e
000000e0: 4c87 fe3c 43d1 e1bd 7054 5fbd 0a4d 34be
000000f0: a4c7 5cbd f3e2 573d 505a 74be b844 c33d
00000100: e654 203d 1589 913d ce19 a2be 631c 4c3d
00000110: 649d 273e d76c 5e3e 500d 69be d264 a6be
00000120: 8f48 e0bd 2a4a d83d 55a7 dd3d 6d6e 0ebc
00000130: 4567 d7bd 8fd6 df3d 18cf 1d3c c844 23bd
00000140: 38ad 4bbd d41e 35be 363c a4bd 7c21 e4bc
00000150: 2f29 e5bc d073 bbbd a134 2d3e 1f89 e7bd
00000160: 223f a8bd 9074 2ebd 1f58 4dbd 444d 2fba
00000170: 9cf3 e3bd 2108 f5bc 73c7 8d3e a8e1 34be
00000180: d9f5 b03d 2c62 9e3e 83cb d33c a088 3abe
00000190: 5d2c 463d 35ce 2bbe caef 973e ae42 003d
000001a0: 83c1 403d 878d ca3e 426f f73d a8db 3e3d
000001b0: 267f f2bd 1038 43be 2a3c 683e f4c9 193e
000001c0: 0062 ebbd 8101 cbbd c912 5abe 86c7 0abe
000001d0: 642b 8fbe bee7 2bbe cd53 d1bb d61d 883d
000001e0: 0803 b6bd b149 41bb 21fd 26bd ee40 e53b
000001f0: 477c 02be b2a8 a93e 2d53 86bc 94ba f53c
00000200: 9387 d83d 8ad0 47bd 7b5f dd3d f272 2dbd
00000210: ce45 383e 6490 873e 93dd 443d 6098 cabc
00000220: 793a d83d 85b8 2ebe df0e 4dbc b37b 37bc
00000230: d734 9c3d 574c d93d 4df9 4bbe f98e 463e
00000240: 502e 09bd 7601 d33d 788c 13be e0de 27be
00000250: 0c6c 333e 9e2d d43c 65d3 593e 9f10 843e
00000260: e699 183e 921b 0bbd facf e3bd f28e b6be
00000270: ebdc 63be 4c2f 133e 1c15 e23d 7b48 053c
00000280: 509e 343c b981 4abe 99aa 463b f470 d83c
00000290: 770b c7bd 845d 5abe 9a68 503e 211d 893d
000002a0: da86 e23d f01a 8bbd a9db b0be 4d34 053e
000002b0: 9153 24bd cf9b 913e 2e4f 923e ee7e 1bbd
000002c0: 3ad3 b13c 9185 d3bd 6f44 07be 243e 903d
000002d0: 8a21 213d 7e7d 803d b0f7 92bd 617b 843e
000002e0: 0392 b4bd e25e 72be 00e6 1e3d 2b9a ff3d
000002f0: f780 67bd 5052 88be 2f48 113e 132d b3bc
00000300: 32ee f5bd 5ca5 9abd 8785 54be ed92 a23d
00000310: 4a14 883d b61d 0a3d c225 773e 72ed eb3a
00000320: 7c03 38be ffea 983d 8b61 213d 257a d2bd
00000330: d21f 833d c6d9 923d f6aa 37be 9f80 9f3d
00000340: 1f1c 24bd 45b0 1fbd ee6c 89be 3ac4 483e
00000350: eb13 9bbe 6908 c33b d56e 34bd b8fc 49bd
00000360: e7a8 15bc 5360 24be e2a9 60bc 7f2c 7ebe
00000370: f7a1 023d d322 c63e a06c 3c3d 7faf fabc
00000380: 8912 153e b9ed 1dbd 9a51 3abe ff9d 3dbb
00000390: 36da 8b3e cdf8 77bc 0c5c b83d cc18 923e
000003a0: 73b4 ab3d e63b 943d ce28 c03c 6680 73bd
000003b0: 5921 aa3d 8851 14be 6c5b 203d dbc7 c0bd
000003c0: 21e9 8fbe aaa7 443e cf5b 4f3c 8963 243e
000003d0: f539 a23d b7e9 2f3d 1973 53be c9b4 1b3d
000003e0: d500 1ebe a0bb f1bd 0f61 02be 67a7 06be
000003f0: 7328 29be b695 583e ecf2 06be fbc0 9cbd
0.22190452 -0.04450666 0.08380054 -0.05159937 0.0026234281 0.17111252 -0.124551594 0.23035297
-0.017462604 0.047391497 -0.19142537 0.096465774 -0.047598265 0.024074389 -0.010913157 -0.07024307
-0.34998816 0.14075744 0.067611866 -0.024258455 -0.1016984 0.11258162 -0.19815582 0.050967593
0.08182919 0.13815634 0.018757882 -0.290185 0.09721492 -0.039270647 -0.15443644 0.0016539833
-0.06651748 -0.054706603 -0.19235021 0.026923237 0.08286495 0.02652015 -0.19157775 0.1515799
0.08782702 0.01907336 0.03944859 0.11266551 -0.13019548 -0.052120864 -0.138382 -0.10192404
-0.41142774 -0.18423863 0.045917105 -0.0145127475 -0.010229147 0.112735465 0.060736027 0.33574396
0.031070374 -0.11026242 -0.054523885 -0.17607513 -0.05390133 0.05270667 -0.23862576 0.095345914
0.039143465 0.071062244 -0.31660312 0.04983176 0.16368634 0.21721207 -0.22758985 -0.32498795
-0.109513395 0.10561021 0.10822932 -0.00869332 -0.10517744 0.10929596 0.0096318945 -0.039860517
-0.04972574 -0.17687541 -0.08019297 -0.027847998 -0.02797374 -0.09152949 0.16914608 -0.11305451
-0.08215167 -0.04259163 -0.050132867 -0.00066872337 -0.11130449 -0.029911103 0.2769123 -0.17664206
0.08640642 0.30934274 0.025853878 -0.18216181 0.048382152 -0.1677788 0.29675132 0.03131359
0.047059547 0.39561102 0.120817676 0.0465962 -0.11840658 -0.19064355 0.22679201 0.15018445
-0.114933014 -0.09912396 -0.21296228 -0.13552675 -0.27962792 -0.16787621 -0.0063881637 0.06646316
-0.08887297 -0.0029493386 -0.040768746 0.0069962656 -0.1274272 0.33136517 -0.016397083 0.029996194
0.10572734 -0.048782863 0.10809227 -0.04234595 0.17995378 0.2647735 0.048062872 -0.024730861
0.10558028 -0.17062576 -0.012515753 -0.011198926 0.07627266 0.10610264 -0.1991932 0.19390477
-0.033491433 0.10303013 -0.14409053 -0.16393614 0.17521685 0.025900658 0.21272047 0.2579393
0.14902458 -0.03396184 -0.11123653 -0.35655934 -0.22252242 0.14373511 0.110391825 0.0081349565
0.011024073 -0.19776048 0.0030314086 0.026421048 -0.097189836 -0.21324736 0.20352402 0.06695009
0.11060877 -0.06792247 -0.34542587 0.13008232 -0.040118758 0.28439185 0.28576034 -0.037962846
0.021707166 -0.1032821 -0.13209699 0.070431024 0.039338626 0.06273936 -0.07176149 0.2587538
-0.08816912 -0.23669007 0.038793564 0.12480577 -0.056519475 -0.266253 0.14187692 -0.021872079
-0.12008323 -0.07551071 -0.20754062 0.0793818 0.06644495 0.03371974 0.24135497 0.0017999841
-0.17970079 0.07466697 0.039399665 -0.102772035 0.064025536 0.07170443 -0.1793631 0.077882044
-0.04006588 -0.038986463 -0.2684092 0.19606104 -0.30288634 0.0059519303 -0.04405101 -0.049313277
-0.009134508 -0.1605237 -0.013712378 -0.24821661 0.031892743 0.38698444 0.04600203 -0.030601261
0.14557852 -0.038556788 -0.18195191 -0.0028933284 0.2731492 -0.015135002 0.090019315 0.28534544
0.08384027 0.07237987 0.023456957 -0.059448622 0.08307142 -0.14484227 0.039149687 -0.094131194
-0.2810755 0.19204584 0.012656166 0.16053595 0.07921211 0.042947497 -0.20649375 0.038014207
-0.15430005 -0.11803365 -0.12732337 -0.13149796 -0.16519336 0.2115086 -0.13178605 -0.076539956

encoder.net.5.bias f4 [32]
00000000: 5255 693d e990 f73b 9f40 01bd 5b3c ef3c
00000010: 3fe7 643d 5ab6 3f3d 2287 1abd 980a f93c
00000020: 6506 2e3d 0758 4b3d 325d 123d b81a 683c
00000030: 5858 69bd 322a 3bbd c019 143d 5a3c 623d
00000040: 7d89 d2bd 0690 2dbd 389d 993d 4134 2e3d
00000050: 5a83 45bd 3c1d 39bd fcc2 313d a64e c7bd
00000060: 21a7 173d 8bc6 4e3d de20 7dbd 96b5 b6bc
00000070: 9c96 48bd a60d 573d b664 be3c f926 a9bd
0.056966133 0.0075551164 -0.031555768 0.029203584 0.055884596 0.046804763 -0.03772653 0.03040056
0.042486567 0.049644496 0.03573341 0.0141665265 -0.056969017 -0.045694537 0.03615737 0.055233337
-0.1028013 -0.04237368 0.0750069 0.042530302 -0.04822097 -0.045193896 0.043398842 -0.09731798
0.03702462 0.050482314 -0.061798923 -0.022303384 -0.048971757 0.05250325 0.023241382 -0.082593866

predictor.net.1.weight f4 [32, 32]
00000000: 52ac adbe 4954 d33e a347 febd ee16 103e
00000010: 150e 5b3d 1a05 80be 5bb6 8b3e 5efa 443e
00000020: 7180 9dbd 3c8e c73d ec46 e1bd dc9f f63d
00000030: 12ec 97bd 3c99 343d 75c2 503d f267 3ebe
00000040: cdd2 40be 108e 1abe f416 95bd 92b6 6cbc
00000050: d190 27be fd5e 113e d384 6fbc 3e06 0b3e
00000060: 6347 b33d 0672 4ebe 0c9e bcbe 9c78 b3be
00000070: feef 81bd 07c8 1dbe 1930 00be a7bc b43e
00000080: 344a f5bc 0be2 39bd 4b70 92be 3217 4abd
00000090: d619 fabd cd43 3e3d 1cbf bc3d b39f 21be
000000a0: 7108 fe3d d524 ce3d de22 20be 15f6 00bc
000000b0: fd94 5d3e 19cd b3bd f375 9d3d 0108 a0bd
000000c0: 2e7e b1bd db83 f73d 56b9 03be 5095 093e
000000d0: 5c48 2c3e 2ee8 92be cb5e 0fbc 5621 a23e
000000e0: 506d 283e 092b 2c3d e4b8 01bd edb3 373e
000000f0: 446e 92bc fa4e 2ebe 49d5 98bd 399d 9bbe
00000100: f231 963d 3225 7bbd fa19 1cbe 0976 d6be
00000110: 1cdd 7d3e bd0d 053d 94f4 283d 4b6b 963d
00000120: a9c7 7a3d 6164 993c 2b49 34bd 627d 2cbb
00000130: b4f2 cbbd 7ce0 f4bd 66bf 893e ccb3 cebc
00000140: 6632 4b3e b9c8 ad3d ac5e bb3c 8492 4e3e
00000150: 4374 15bc 8e6c ad3e 3b8f a83e 5114 c23d
00000160: 7a59 bb3c a076 ff3d 854a 413e 1fef 25be
00000170: aefb 4abe 9a7c 8a3e cf99 1abe 3bc1 c7bd
00000180: 1f42 b5be 74c3 083d 2c4d 44bd 59ab ebbd
00000190: 6339 5e3d 2494 8bbd c262 0e3e 007f 28be
000001a0: b1f8 aabd 6b48 063e f0b5 f43c 79ab 82bd
000001b0: 03b7 13bd c4eb 89bd 35fe df3d 1987 a53e
000001c0: 7370 753e 4f8c b93d aa43 d1bd f215 ab3d
000001d0: 2587 a93e 2475 23be 99fd be3e 70b3 0b3b
000001e0: 28de c13b 767f 133e 22d1 c03e b5b7 07be
000001f0: 6de2 adbe 373e 423d 9aeb 3b3e 4570 b8bd
00000200: de03 713d 8ba6 5a3e d77b 9a3e b756 9f3d
00000210: 329c 5cbe 1956 99be a384 9fbd 7c0b 7dbe
00000220: b746 afbc 5889 363d 6bfa 9dbd 018f 5f3b
00000230: df7f 043c 053e b23e 46d4 e8be 0b44 1f3e
00000240: ec38 a03b d7d1 b83e 3447 8a3b 9444 38be
00000250: bb69 a4be 8006 7d3e 2caa 533c 4243 c83e
00000260: 854e b9bd bf67 9abe 7e8e 4b3d f35b 083e
00000270: f432 17be 2d0b debc b283 073e 10c7 2bbe
00000280: 7e53 a3bd 9d94 79bd d0e0 b7bd 5bc2 f9bd
00000290: b64f 84be b118 ffbc f360 643d 6588 7b3e
000002a0: 5487 383e c9da cfbd 5208 dfbd a9e2 e2bc
000002b0: e5cd 953d d3a1 f23d 6e1f c93d 2732 1cbe
000002c0: 0762 21bd 7c3f 8d3d 49cc 19be 9ddc dd3d
000002d0: f067 583e ec01 f13d 9cf7 083e 353e 2fbe
000002e0: 9714 bd3c 73eb 963e 5471 9e3e 9e24 9fbe
000002f0: 8e4c c03d f3c8 cebd a9e9 033e f300 013e
00000300: eb00 d8bc 7270 1c3e 0fd0 8dbd 7eb8 513d
00000310: 2fa2 2c3e 510c e9bd 8a8f 933d dc54 84bd
00000320: bde6 c03d a2fc ae3c 1d0d 0f3e 9010 073d
00000330: 4c83 ae3e 4148 debd 001e 4a3e bc6e 91be
00000340: 3fde d23d 84b9 153e c30d 5ebe e54d c4bd
00000350: 3a1a 773d 18ad c53d eb6f 973d d832 11be
00000360: 67c4 19be c473 1fbe b165 093e 0125 a0bc
00000370: cd13 493c 42e0 0fbe f15b 2a3e 3c23 553e
00000380: f154 4ebe 2e0b 713d 5611 f9bc 5bfd 3f3e
00000390: 046f 7b3d 035c 543e 440c 243e ce0c 803e
000003a0: 7ae2 103d 345b 503d 33de 423e 7462 303e
000003b0: 51d8 423d 98d2 d0bd efe3 01be 2dc2 85bd
000003c0: 8160 0e3d fb0e 8bbe c5fb fa3c 0be7 223e
000003d0: e876 853b 3165 e3bd e5b8 2dbe 71d1 9c3e
000003e0: 0a79 a03d e394 ed3d 9e17 84be 61a2 4fbd
000003f0: 99dc 653d 8418 d0be 95ad 3abd cb97 003e
-0.33920532 0.41275242 -0.12416007 0.14071247 0.053480227 -0.25003892 0.27287564 0.19236133
-0.07690514 0.09743926 -0.109998554 0.120422095 -0.07418074 0.04409145 0.0509667 -0.1859434
-0.18830414 -0.15093255 -0.072797686 -0.014447825 -0.16363837 0.14196391 -0.01461907 0.135766
0.0875385 -0.20160684 -0.3683933 -0.35052955 -0.06344603 -0.15408336 -0.12518348 0.3530018
-0.02994261 -0.045381587 -0.28601298 -0.049338527 -0.12211959 0.04645138 0.09216139 -0.15783577
0.12403954 0.10065619 -0.15638301 -0.0078711705 0.21638866 -0.08779354 0.07688513 -0.078140266
-0.08666645 0.12085696 -0.12863669 0.13435864 0.16824478 -0.28692764 -0.008750628 0.31666058
0.1644795 0.04203323 -0.031670466 0.1793973 -0.017874844 -0.17022315 -0.07462556 -0.3039339
0.07333745 -0.06131477 -0.15244284 -0.4188693 0.24791378 0.032483805 0.041248873 0.07344683
0.061225567 0.018724622 -0.04401509 -0.0026319851 -0.09958401 -0.119568795 0.26903838 -0.025232218
0.19843444 0.084855504 0.022872292 0.20173079 -0.009121957 0.33871883 0.32921776 0.09476531
0.022869814 0.12473798 0.18876083 -0.16204499 -0.1982257 0.27048188 -0.15097736 -0.09753653
-0.3540201 0.033389524 -0.04792516 -0.11507291 0.054253947 -0.06815365 0.1390486 -0.16454697
-0.08348215 0.13113563 0.02987191 -0.06380362 -0.036063205 -0.06734422 0.10937158 0.32329634
0.23968677 0.09059965 -0.10217984 0.08353795 0.3311092 -0.15962654 0.37302855 0.002131667
0.0059163757 0.14404091 0.37659556 -0.13253672 -0.33961812 0.047422614 0.18351594 -0.09005789
0.05884158 0.21352594 0.30172607 0.077802114 -0.21543959 -0.299485 -0.0778897 -0.24711412
-0.021396024 0.044564575 -0.07713779 0.0034112337 0.0080871275 0.34812942 -0.45474452 0.155533
0.004889598 0.36097595 0.004219914 -0.1799491 -0.32111916 0.24709511 0.01291899 0.39113814
-0.090481795 -0.30157277 0.049696438 0.13316326 -0.14765531 -0.027104938 0.13233832 -0.16775155
-0.07974909 -0.060932744 -0.089784265 -0.121952735 -0.25842065 -0.031139703 0.05575652 0.24563749
0.18020374 -0.10149152 -0.10890259 -0.02769597 0.07314662 0.11847272 0.09820448 -0.15253507
-0.039400127 0.06896874 -0.15019335 0.10833094 0.21133399 0.11767945 0.13375705 -0.17113574
0.023081107 0.29476508 0.30945837 -0.31082624 0.09389602 -0.10096922 0.12882103 0.12598018
-0.026367625 0.1527727 -0.0692445 0.051201336 0.16858743 -0.11379302 0.07205112 -0.06461498
0.0941901 0.0213607 0.13969846 0.03297478 0.34084547 -0.10853625 0.19738007 -0.28404796
0.10296296 0.1462155 -0.21684937 -0.0958517 0.060327746 0.09652156 0.073943935 -0.14179552
-0.15016328 -0.15571505 0.13417698 -0.019548895 0.012272787 -0.14050391 0.16636635 0.20814222
-0.2014959 0.058848552 -0.030403774 0.18748991 0.06138517 0.20738225 0.16020304 0.2500977
0.035372235 0.050868228 0.19030075 0.17225057 0.047569577 -0.101964176 -0.12684606 -0.06531177
0.034760002 -0.27159867 0.030637631 0.15908448 0.0040730126 -0.11103285 -0.16965063 0.3062854
0.07835586 0.116006635 -0.25799268 -0.050691966 0.05611858 -0.40643704 -0.045575697 0.12557904

predictor.net.1.bias f4 [32]
00000000: d24a e33d 8b0c c53d 8975 05be ef8a 09be
00000010: 876f 0f3e 3792 be3d d111 d83d 655d d9bd
00000020: 9fb6 8e3e 21ce d8bd 35fe 043e 6033 cb3d
00000030: 1f8a c7bd ca59 d6bd a356 c9bd 133e ca3d
00000040: 70be dbbd 6759 b83e 3120 973d 840f e83d
00000050: 0268 df3d a96c d4bd c2c1 f63d 7c2a dcbd
00000060: 6a87 18be a9fd dcbd 4b77 d93d 90b7 f73d
00000070: 3164 e4bd 982d d7bd e236 0ebe 9611 ecbd
0.11098255 0.09621533 -0.13033117 -0.13431905 0.14007388 0.09305232 0.10550273 -0.10613517
0.27873704 -0.10586191 0.12987597 0.099219084 -0.097431414 -0.10466345 -0.09830978 0.09875121
-0.107296824 0.3600571 0.07379187 0.11331084 0.1090851 -0.10372288 0.12048675 -0.10750291
-0.14895406 -0.10790569 0.106184565 0.12095559 -0.111519225 -0.10506743 -0.13888124 -0.11526792

predictor.net.3.weight f4 [1, 32]
00000000: 5a95 f53d 2770 6f3e d833 01be a844 2bbd
00000010: b2f3 1a3e bf80 913d 078c ac3e 4ad1 0ebe
00000020: edbf fa3d 9c52 9bbe 693a ae3e d87e f53e
00000030: 37d6 8ebe 7912 9dbe a115 8abe baab 383e
00000040: 4e33 90be e87e 1c3e 5e98 af3c 9357 443e
00000050: baee 7f3e 922d 15be 6a7b 0d3e 71f7 2abe
00000060: b07e 3abe de28 aebe c322 bf3e 94b8 0d3f
00000070: bafc 6cbe 9e29 3ebd 19aa 18bd ef3a 67be
0.11991377 0.23382626 -0.12617433 -0.041813523 0.15132025 0.071046345 0.33700582 -0.13947025
0.12243638 -0.30336463 0.34028938 0.47948337 -0.27897808 -0.30678156 -0.26969627 0.18034258
-0.28164142 0.15282786 0.021434959 0.19174032 0.2499341 -0.14568165 0.1381661 -0.16695954
-0.1821239 -0.34015554 0.3733121 0.5535977 -0.23143283 -0.046426408 -0.037271593 -0.22581075

net.0.weight f4 [60, 35]
00000000: b9ce a13b ed60 78bc 2bed 05be 714a 09be
00000010: 6dcf 203e 01d5 c23c 8907 8cbe 36c4 493e
00000020: edab e8bd 4bd4 dcbd b658 6a3c 8aa3 e53c
00000030: 1541 32bc 9ac5 373e e140 d1bd 6f85 26bd
00000040: 6add 413d 1c01 a33e 3288 123d cd2e 3fbe
00000050: 957f 9d3c bed6 63be 87cf 503e c295 06bc
00000060: 0176 5cbd fe00 c13d 8202 bf3d 0708 b23d
00000070: 444d 33bd 0d9f 87be d618 11be 05f0 95bd
00000080: b876 dcbd ccb3 19bd ae63 43bd fc12 1f3e
00000090: c04e f23d e19c a9bd c267 cd3d 7d37 fbbc
000000a0: b800 a93c 5a9a 3fbd fb49 4f3e b0b3 86bd
000000b0: eed2 2abd 7c82 063c 8917 0c3d 9aa3 b0be
000000c0: 652a 063e 8e48 d03d d4e7 b23d d2d9 fbbd
000000d0: 8c9f 383e 8282 64be be2c 453e a95f 89bd
000000e0: 2e29 52be 0d04 febd f350 83be 0e85 d43d
000000f0: 684c 30be 89ec ae3e fe10 c4bc bd27 a03e
00000100: 9ce6 d3bd 5d4d 1fbe 566e 09be 3753 83be
00000110: 7363 51bd f2bb 96bd 6225 1a3e 896f 753d
00000120: 7c57 bf3d 32b2 1bbe 5273 61be 237d 4c3d
00000130: 1a28 14be e7be 063c 9ab0 673e 64c8 14be
00000140: 41a1 6a3e 9366 363d 2aa5 463e 5263 f13d
00000150: d900 763b 6521 edbd c6fd 96bc 8f45 37bc
00000160: 9106 28be e82a f9bd b6ee 2d3e d85f 23bd
00000170: 23e2 2f3e 4de7 01bd 821a 033e e1e8 d5bb
00000180: 1d30 503e c964 cfbd e2e5 0f3d 7335 113d
00000190: 475b da3d 0354 98bd 9d5b 9abd 2d49 02bd
000001a0: 1bbf 8cbd f60f 633d d84c 4cbd 74bb c73a
000001b0: 99f2 76be 9acd 8cbe 6b8c 0f3d a048 9e3e
000001c0: cf02 333e 2afc 20be abb6 7fbc 6f22 bd3d
000001d0: 0d93 9abb 4735 2b3e c79e 6b3e 5bfa b4bd
000001e0: 6210 aabc cc7d 823d c6cc 8b3d 50e9 d13c
000001f0: 4c3f a2be dfc4 bd3e 0e8c 7bbd ae63 ed3d
00000200: 2ec1 4f3d 65f8 e9bb 198d 0b3e 8761 3d3d
00000210: 96e0 bebc 5ff7 bfbd ca53 8a3c 9f58 373d
00000220: 61aa a8bd a3f9 3ebe 840c 013e 0eeb 0a3e
00000230: 380b 96bc baa4 7dbe e157 b4be f072 093d
00000240: 0f74 fe3d bc2f 17be b556 f2bd 2724 233c
00000250: 4b5e 8b3d 996b 34bd e58f b73d 3885 9d3c
00000260: 8d7d eb3d b500 9e3c 5381 b13b 5e90 db3b
00000270: 5e34 8ebc 2ec2 ffbd ea13 02be d739 24be
00000280: 0fdb 2c3d ad03 78be 31e0 19be 6427 a2bd
00000290: fb8f 8bbe 3600 56b8 203c 753d b1dd d43c
000002a0: e982 f3bd 273e b73c 1a59 64be 49e0 83bb
000002b0: b9cd 923e c8c5 14be 4bb8 2a3e 0ab7 923d
000002c0: 4b31 7a3d e659 e5bb 440f 22bc a948 51bc
000002d0: 03ed 993c 8f61 74be c8b5 6dbe 746f 67bd
000002e0: add2 ed3c bbbd eaba ef71 79bd b1d5 bbbd
000002f0: d2b6 6cbe d92e 30be 7c5f 123f 8cd0 393e
00000300: 2570 adbd 37bb 153e e8bd b5bc 221d 1c3e
00000310: c4cd 0a3d bebe ab3d b27c e83c 1948 ce3d
00000320: 5aa8 903c 0973 453e c984 02bc b27b 16be
00000330: 28d2 4d3e eb92 0c3e 15eb 1a3e 9525 c93c
00000340: 0712 413d 3207 a93e 6b12 793d 773d 33bd
00000350: edb9 8e3d da05 a53e bef2 9c3d 8863 b33d
00000360: 3ec2 043c cc40 9ebc f0cb 6f3e a835 c23d
00000370: 4bb6 f4bc 34f7 dfbc 99ae a1bc 69e9 9abd
00000380: 039c 1bbe 0997 bebc f323 b8bd b056 a23d
00000390: 2348 e63b 08ab 54bb e8cb 1fbe 80a6 04be
000003a0: f8eb 50be 8c73 dcbc 7885 c83d b1a6 51be
000003b0: 1db9 ac3c 7b5b dbbc 3b1f 933e 06f5 99be
000003c0: 06e6 7e3e 3d5b bc3c f15d 363e 22a5 fbbd
000003d0: 08e5 c13c db61 ff3d be18 2abe 7519 843d
000003e0: 9388 c6bd 448d 213e da02 cbbc 3d9b 303e
000003f0: 5031 163d 532d f1bd 7fe4 e7bc 5ccb 75be
0.0049379733 -0.015159828 -0.13078754 -0.13407303 0.15704127 0.023783209 -0.273495 0.19703755
-0.11360917 -0.10782679 0.014303377 0.028032083 -0.010879775 0.17946473 -0.10217453 -0.040654596
0.047330298 0.31836784 0.035774417 -0.18670197 0.019225875 -0.22249886 0.20391665 -0.008214416
-0.053823475 0.09424017 0.0932665 0.08692937 -0.043774858 -0.26488534 -0.1416963 -0.07321171
-0.10764831 -0.037524983 -0.047702484 0.15534586 0.118314266 -0.082818754 0.10029556 -0.030666107
0.020630226 -0.04677806 0.20243065 -0.065772414 -0.041705064 0.008209821 0.034202132 -0.34499818
0.1310211 0.10170089 0.08735624 -0.12297405 0.18029612 -0.2231541 0.19255349 -0.06707699
-0.20523521 -0.124031164 -0.25647697 0.10376941 -0.17216647 0.34164837 -0.023933884 0.31280318
-0.103467196 -0.15556855 -0.13420996 -0.25649425 -0.051120233 -0.073600665 0.15053323 0.05992082
0.09342858 -0.15204695 -0.22016647 0.049924027 -0.14468423 0.008224226 0.22625962 -0.14529568
0.22913076 0.044531416 0.19398943 0.11786522 0.0037537126 -0.11578635 -0.018431555 -0.011186018
-0.16408755 -0.12166387 0.16985592 -0.039886326 0.17176108 -0.031714726 0.1280308 -0.0065280055
0.20330854 -0.10126645 0.035131343 0.035451364 0.10661941 -0.07437899 -0.07537005 -0.031808067
-0.06872388 0.055435143 -0.04987797 0.001523836 -0.24115981 -0.27500612 0.035046022 0.30914783
0.1748154 -0.15721193 -0.015607516 0.09235083 -0.004717237 0.16719542 0.23009787 -0.08836814
-0.020759765 0.0637165 0.06826167 0.025623947 -0.31688917 0.37064263 -0.061412863 0.11591278
0.05072134 -0.0071402066 0.13628043 0.046235587 -0.02330045 -0.09373354 0.016885657 0.04476225
-0.08235622 -0.18649916 0.1260243 0.13566229 -0.018315896 -0.2476987 -0.35223296 0.03355688
0.1242448 -0.14764303 -0.11832944 0.00995735 0.06805094 -0.044047926 0.089629926 0.019228563
0.11498556 0.019287447 0.005417028 0.0067005595 -0.017358955 -0.12488209 -0.12702909 -0.16037689
0.042201098 -0.24220152 -0.15026928 -0.079176694 -0.27258286 -5.1021772e-05 0.059871793 0.025984617
-0.118902035 0.022368504 -0.22299615 -0.0040245396 0.2867258 -0.14528573 0.16671865 0.07163818
0.061082166 -0.006999242 -0.009891335 -0.012773671 0.018789774 -0.2386534 -0.23213875 -0.056502774
0.029031122 -0.0017909327 -0.06089967 -0.09171618 -0.23116615 -0.17205371 0.5717695 0.1814596
-0.084686555 0.14622198 -0.02218528 0.15245488 0.03388764 0.083859906 0.028379772 0.10072345
0.017658401 0.19282164 -0.007966229 -0.14695624 0.200997 0.1372792 0.15128739 0.024554053
0.047136333 0.33013302 0.06080858 -0.04375979 0.06969056 0.32231027 0.07663487 0.087592185
0.008102952 -0.019318007 0.2341764 0.0948289 -0.02987208 -0.027339555 -0.019736575 -0.07564051
-0.15196232 -0.023265379 -0.08991232 0.079266906 0.0070276423 -0.0032450575 -0.15605128 -0.1295414
-0.20402515 -0.026910566 0.09791082 -0.20473744 0.021084363 -0.02677702 0.28734764 -0.3006975
0.24892434 0.022992725 0.17809273 -0.12287356 0.02366878 0.12469836 -0.16611001 0.06450168
-0.09694018 0.15776545 -0.024781633 0.17246719 0.03666812 -0.11776223 -0.028307198 -0.24003357

net.0.bias f4 [60]
00000000: 7d0d 04be e292 f6bd 4982 94bb 83a6 19be
00000010: 1731 173e 1bf4 c23d 8784 3fbe 8f6b 2abe
00000020: 5847 073c 13fb 31be 9df9 1b3d f40c babd
00000030: ed20 263d 2e6a 56bd d2a5 343d 1337 95bd
00000040: eb0a 05be 24fb d9bd 9bf8 1b3e abc6 f1bd
00000050: a0e9 8b3d d3ec 0a3d c577 693d 3f7a 063e
00000060: 2a83 b4bd 8e33 453d 2d4b f63d 7557 a53d
00000070: 5851 e5bd 9e70 8fbd ad22 813d a6ef ddbd
00000080: 0816 95bd c00c ed3a b2d1 2c3c f0a6 3d3d
00000090: 2021 81bd c53a 43be c42f c53d 5572 27bd
000000a0: aec6 80bd 79cf 41bd 649d d3ba 8001 bdbd
000000b0: c3a8 263e 0745 153e 643c 7abd 0adc f8bd
000000c0: b687 d53d 6e06 923c ed9b e7b9 482d b43c
000000d0: 4581 353d 5de5 eebd f514 f7bd 90ef 97bc
000000e0: 4d96 993d 7231 dbbc b52b c93a 2e27 863d
-0.1289577 -0.120397344 -0.0045321328 -0.15004925 0.1476482 0.09519216 -0.18702899 -0.16642593
0.008256756 -0.17380933 0.038079847 -0.09084502 0.040558744 -0.052347355 0.04410345 -0.07285895
-0.12992446 -0.106436044 0.15231554 -0.11805471 0.0683167 0.03391726 0.056998987 0.1313257
-0.0881408 0.04814487 0.120260574 0.08073322 -0.11197156 -0.07003902 0.06305442 -0.10836725
-0.07279593 0.0018085465 0.010548042 0.046301782 -0.06305146 -0.19065388 0.09628251 -0.04088052
-0.06287895 -0.047317002 -0.0016144929 -0.09228802 0.16275315 0.14577113 -0.06109275 -0.12151344
0.104262754 0.017825332 -0.00044175927 0.021994248 0.044312734 -0.11664841 -0.12064544 -0.01854685
0.07499371 -0.026756976 0.0015348109 0.06550442

net.2.weight f4 [60, 60]
00000000: 806b 10be 4b1b a43e a11e ab3d 2e9d fd3c
00000010: 1cb1 ba3d a4d8 c7bd 1fc2 223e a230 7dbe
00000020: f523 3238 1ecc 033e 92d8 473d 53bb f53d
00000030: ad33 0ebe 0d3c 5fbc 20e9 703d 9cd0 4b3e
00000040: b8bd 8c3c 4c02 943d 13b5 a5bd 4d46 6b3d
00000050: d2f5 873d ef3f 283e 56a2 2cbe d0a9 d8bd
00000060: c45a c33d bd20 993d 9e64 06be fdf4 bc3d
00000070: e486 d1bc 5825 b43d f1c8 cdbd f565 89bd
00000080: 372c 03be 23d9 d73d 1661 51be 3442 96bd
00000090: 18ea 953d ecc8 853d 1a5a da3d b57a 9c3d
000000a0: 6871 7cbd 7771 73bd c788 b63c ec47 b63c
000000b0: 6e77 a03d e417 d2bd 5f57 3d3d e73d 143d
000000c0: 7256 d53d a3a8 38bd fdad 66bb c6f0 313e
000000d0: 72e9 20be b677 5fbe 08a7 dd3d becc 0a3b
000000e0: a6ce 7b3c 8d18 e63d 9eec e93b 109a a1bc
000000f0: 9381 aebd 9690 0b3d ef32 aebc 85a0 203b
00000100: 0073 9b3d a5a3 e43d 618f 8dbe c9c2 943c
00000110: 885d 23bd cbb1 9dbd ba46 b43d e65a 903d
00000120: d9f0 54be 367f 1c3d af1b 08bd f4fe da3d
00000130: 3457 453e 7381 913d b5a9 d5bc abff 063b
00000140: d691 dd3d cb6e 5c3d fc53 cbbc 46f7 ed3d
00000150: 0710 503c 283a 933e f3c8 3cbe 361e 6c3d
00000160: d00c 56bd 6182 0dbe 09f5 61bd 5877 2b3e
00000170: 9ea0 243e 5206 dfbb 6002 3f3e 235b b13c
00000180: 26c0 293e 4697 e93d 04c2 16bc 1322 37be
00000190: 2cac d13b e7ee 873d 34b8 b9bd 09a1 263e
000001a0: 6579 58bd 7b62 01be 63f5 9abd 454a 863d
000001b0: 62ce 7bbd 2890 d63d f7b7 bc3d 23e8 37be
000001c0: 66ab b4bd a117 923d a1d7 9fbb 94c2 b83c
000001d0: d59b ca3c 7898 dabd b1fe f5bc f56d af3e
000001e0: 8100 ee3d b9b5 753d 8db9 bcbd c9b9 263d
000001f0: 3179 473d 79d3 953d 1273 853e 3bcf 233d
00000200: 30a8 f63d 193e a93d 3622 363e 4892 143d
00000210: e3df a03c f244 fd3d 0d13 b9ba 3bd5 dc3d
00000220: 229d bf3d b7cf c5bd e676 cdbd e654 8d3c
00000230: bc5f 7fbe 203b 5ebb 1c41 543d d2b5 343e
00000240: 6c96 e53d 99d1 0a3d f760 afbd 1263 0bbe
00000250: 416b 943d 92ed 1cbe 41bf 0bbb 5242 1bbe
00000260: a542 26be 44ea 15be ad52 9b3d f320 f5bc
00000270: 6dbf a33e 5078 793e ad89 8bbd a0e5 9cbd
00000280: 2970 3e3d 463c e23d 7ef7 063e 9265 fabd
00000290: bc0b 1abd f324 7e3c 17b3 95bd f36a 2ebc
000002a0: 9651 81bd 30d1 febd 61fd 02be 2b79 4ebd
000002b0: 6305 1f3b 8a24 eb3c 379d 81bd 294c ef3d
000002c0: c92b 31be ad00 babd 112c a4bc 8e82 b4bc
000002d0: ecd9 dabd ff31 163e 3ccd c03c 7c30 5b3b
000002e0: 2a88 a2bb 3ad7 813d a542 193e c6c1 febd
000002f0: aa0f febc 11b3 d73c ac07 5bbd 780b d23d
00000300: e433 29be 3f9d a33d c814 4fbd e054 5b3e
00000310: 065a 0bbc 6a93 c63b 29ca 83bb 4f21 883d
00000320: 8174 cfbd 096f cc3c 0408 dcbd a945 133d
00000330: 15fd d43a 5d16 9a3d c896 6cbd 0d18 3a3c
00000340: 9173 9ebd 4303 cc3c 74e9 0ebe a4b3 163e
00000350: fdfe fcbc 39fd c8bd bc73 b33d 148c 3cbe
00000360: 8ad3 c73c 32bb 3cbe 686a af3c 3684 e2bd
00000370: 9d42 cbbd f4db 713d f4fe abbd cc4d 20bd
00000380: 5c9e 343d aac0 bcba 34d7 003e a454 91be
00000390: 0233 d1bc 6444 103b f6fc 603e af33 f8bc
000003a0: 130e 20be dac0 58bd 416b 16bd 27d7 a23c
000003b0: 1657 c13d e6d8 503e 3273 1d3e 1b8d 913d
000003c0: 76cf 113e f2a8 82be 2dbd 46be a39f a43d
000003d0: ca16 5a3d b314 b23d 6016 a03d ac3c debd
000003e0: 3d2c 623c 36cc abbd a66b 07be b986 de3d
000003f0: 932e 743a e842 42bd 9109 1d3e b352 d4bd
-0.14103508 0.32052073 0.083554514 0.030958738 0.09115812 -0.09758118 0.15894364 -0.24725583
4.2471995e-05 0.12870833 0.048790522 0.1199862 -0.138869 -0.013625157 0.058816075 0.19903797
0.017180309 0.072270006 -0.08091178 0.05744009 0.066386834 0.16430639 -0.16858801 -0.10579264
0.095387965 0.074769475 -0.1312432 0.09226415 -0.025577016 0.08796185 -0.10048092 -0.067089
-0.12809835 0.105394624 -0.20447192 -0.07336846 0.073200405 0.065324634 0.10661717 0.07640592
-0.06163159 -0.05943438 0.022282017 0.022251092 0.078352794 -0.10258463 0.0462259 0.036191847
0.10416879 -0.0450827 -0.003519892 0.17377004 -0.15714052 -0.2182301 0.10822874 0.0021179165
0.015369093 0.112351514 0.0071388027 -0.019726783 -0.08520808 0.034073435 -0.021264521 0.002450974
0.07590294 0.11164025 -0.27648452 0.018159287 -0.03988412 -0.07699927 0.088025525 0.070485875
-0.20795001 0.038207255 -0.033229526 0.1069316 0.19271547 0.071047686 -0.0260819 0.0020599167
0.108188316 0.053816598 -0.02482032 0.11619429 0.012699134 0.28755307 -0.18436031 0.057646
-0.052258313 -0.13819267 -0.055165324 0.16744745 0.16076896 -0.0068061734 0.1865325 0.021649903
0.16577205 0.11405806 -0.00920153 -0.17884092 0.0063986983 0.06637364 -0.09068337 0.16272368
-0.052850146 -0.12635224 -0.07566335 0.065571345 -0.06147612 0.104767144 0.09214776 -0.17959647
-0.08821754 0.07133413 -0.004878 0.02255372 0.02473251 -0.10673612 -0.030028673 0.34263578
0.1162119 0.059987757 -0.092150785 0.040704522 0.04869956 0.07315726 0.26064354 0.039992552
0.12043798 0.08263797 0.17786488 0.036272317 0.019638008 0.12366666 -0.0014120057 0.10782858
0.093561426 -0.09658759 -0.10032444 0.017252397 -0.24938864 -0.0033909753 0.051819906 0.17647484
0.11210331 0.033891294 -0.085634165 -0.13612011 0.072470196 -0.15325001 -0.0021323713 -0.15162018
-0.1623636 -0.14640146 0.075841285 -0.029922938 0.31981984 0.24362302 -0.06813369 -0.07660985
0.046493683 0.110466525 0.13180348 -0.12226404 -0.037608847 0.015511739 -0.07309549 -0.010645616
-0.063143894 -0.12442243 -0.12791969 -0.050408524 0.0024264685 0.028703947 -0.063288145 0.11684448
-0.17301859 -0.0908216 -0.020040544 -0.02203491 -0.106860965 0.1466751 0.023535363 0.0033445647
-0.0049600797 0.06339879 0.14966829 -0.12439303 -0.031013329 0.026330503 -0.053474113 0.10256094
-0.16523701 0.07988977 -0.050556928 0.21419096 -0.00850535 0.0060600536 -0.004021902 0.06646978
-0.10129643 0.02495529 -0.10743716 0.035955105 0.0016249741 0.07523797 -0.057760984 0.011358273
-0.07736886 0.024903899 -0.13956243 0.14716965 -0.030883307 -0.098139234 0.08762309 -0.1841281
0.024392862 -0.18430784 0.021413043 -0.110603735 -0.09924815 0.059047654 -0.08398238 -0.039136693
0.044096336 -0.001440068 0.12582093 -0.28384888 -0.025537018 0.002201342 0.21971497 -0.030298082
-0.15630369 -0.052918293 -0.03672338 0.019877983 0.094404384 0.2039524 0.15375975 0.07106992
0.14239296 -0.2551952 -0.19408102 0.08038261 0.05324439 0.08695354 0.07816768 -0.10851416
0.013804493 -0.083885595 -0.13224658 0.1086554 0.00093148014 -0.047427088 0.1533568 -0.10367336

net.2.bias f4 [60]
00000000: 3c36 603d 8032 05bd e999 d2bd 8a0d 353c
00000010: b038 e33d 1c5f 86bc bd9f 08be 64a3 7ebd
00000020: 5809 36bd f04a bfbd bf0d d1bd 0620 6d3d
00000030: 51b8 373d 27eb 803d 581f fd3b 974f 9b3d
00000040: 3424 2cbd 4e3d f03d 89c2 763d 1c8b fbbd
00000050: a48f a1bd 6b69 b8bb e043 50bd 0766 db3c
00000060: f36b d1bb c2fc 063d 9de9 adbd 41f1 223e
00000070: d0c1 92bb 49ed 15be 4ba1 fa3c 63c6 cc3d
00000080: c26c 913d 167d a7bd 15ae 4c3d 9aa4 13bc
00000090: 8c47 0b3d c793 2dbd e263 d5bc b608 513d
000000a0: 4661 70bd 14ed ef3d 3d46 eb3b 6731 e0bd
000000b0: 10b2 c8bd f21a d13d 280e 4fbd c809 523c
000000c0: 7ce5 ddbd 7705 8dbd 2a0d 9bbd 2128 573b
000000d0: ddcb 1c3d 56d4 08bc 4180 90bc d4af a6bd
000000e0: 8c98 473d 6739 a6bd 8598 553d 170e 4a3d
0.054739222 -0.032518864 -0.10283262 0.011050591 0.11094797 -0.016402774 -0.13342185 -0.06216754
-0.044442505 -0.09340465 -0.102077 0.057891868 0.044853512 0.06294852 0.0077246837 0.0758354
-0.042026713 0.11730443 0.060244117 -0.122823924 -0.078887254 -0.005627801 -0.05084598 0.026782049
-0.0063910424 0.032955892 -0.08491824 0.15912344 -0.0044786707 -0.14641298 0.030594489 0.09998777
0.07100822 -0.08178155 0.049970705 -0.009011412 0.03400378 -0.04237726 -0.026048604 0.051033698
-0.058686517 0.11715141 0.007180004 -0.10946923 -0.09799588 0.102102175 -0.05055061 0.012819715
-0.10834786 -0.06885808 -0.0757087 0.0032830315 0.038280357 -0.008351406 -0.017639281 -0.08139005
0.048729464 -0.081164174 0.052147407 0.049329843

net.5.weight f4 [1, 60]
00000000: 1d24 533e cd85 223d 18a5 d2bd 50ae e33d
00000010: 3355 243e df7c 9bbc ac60 f7bd 508b d33c
00000020: e8a1 4dbe 3827 ad3d e838 28be c5fd 0fbc
00000030: e525 1cbe 5724 cf3d 769b 78bd 0488 a93d
00000040: 3b7d 2abe 8347 4d3b 170b 393d 5c76 8cbb
00000050: 21b2 733e 64de 3d3e a32a 92bb 3199 973d
00000060: 8906 163e a40b 68be 729c ec3b db13 7e3b
00000070: 2313 113b e8ab d6bc f58c 8cbe f2ec d9be
00000080: ab52 bf3e df7d 76bc 7ddd 973d 1af8 cd3a
00000090: b27a 16be 36d2 3fbd 7ceb 82bd 00dc 3fbe
000000a0: e9eb 0fbc c45a aebb 2d3a 9fbe 9676 00be
000000b0: 356b 81bb 251c 103d 8599 a2bb ffd2 9e3e
000000c0: 0464 c1bd e079 bfbc 2768 5d3c ab6f 9b3b
000000d0: c983 253e acd7 e03d bdcd 41bb a655 8cba
000000e0: 434b 643b 7310 433e c170 bc3a 8398 25bb
0.20619245 0.039678384 -0.102853954 0.11117232 0.16048126 -0.018980442 -0.120789856 0.025823265
-0.20081294 0.08454746 -0.16427958 -0.008788531 -0.1524883 0.10114353 -0.060695134 0.08277896
-0.16649334 0.0031323142 0.04517659 -0.0042865705 0.2379842 0.18541867 -0.004460649 0.07402266
0.1465093 -0.2266069 0.007220798 0.003876916 0.002213665 -0.026205018 -0.27451292 -0.42563587
0.37367758 -0.015044658 0.074152924 0.0015714199 -0.14695242 -0.046831332 -0.06392571 -0.18736267
-0.008784273 -0.0053208787 -0.31099072 -0.12545237 -0.0039495477 0.03518309 -0.0049621486 0.31020352
-0.094429046 -0.023373544 0.013513601 0.0047435365 0.16163553 0.10978636 -0.0029572092 -0.0010706678
0.0034834899 0.19049244 0.0014376865 -0.0025267906
