results of reviewer/XJTU results/5-5/Experiment3/model.pth (torch, 59838 bytes, 14 tensors)

encoder.net.0.weight f4 [60, 17]
000000 9c 90 d3 3e 96 ac f9 b9 80 e4 39 3d cc 02 f3 3c
       0.41321266 -0.00047621568 0.04538393 0.02966442
000010 76 c5 08 bd 1c bc 2c 3e 1e 8f 47 be aa 8a 5a bc
       -0.03339144 0.16868633 -0.19488189 -0.013338724
000020 11 55 21 be de c4 34 bd 61 02 03 3d 7a 16 3c 3d
       -0.15755107 -0.04413306 0.03198469 0.045919873
000030 ba 8d ca bd b0 05 23 3c 47 da 18 bc 05 52 d0 bd
       -0.098903134 0.0099500865 -0.009329385 -0.10171894
000040 61 bb 2e 3e bf 8d 82 3d 68 d2 76 3d 3a 2c 12 bd
       0.17063667 0.06374692 0.060259253 -0.03568671
000050 84 62 ac bd 13 1d 35 3e e9 5c 8f be 3d cc e7 3d
       -0.08417228 0.17686872 -0.28000572 0.11318252
000060 c9 f3 92 bd c1 4f d6 bd c9 e4 39 bd 09 1c 87 be
       -0.071754046 -0.104644306 -0.045384202 -0.26388577
000070 71 63 b6 3c 64 89 28 3e e3 b6 d7 bc 08 ac b7 bd
       0.022264214 0.1645866 -0.026332324 -0.08968359
000080 a6 ec e0 bd 50 57 0d 3c c5 aa 81 be 13 71 55 be
       -0.10982637 0.008626774 -0.253256 -0.20843916
000090 66 f2 89 bd bd 3b f8 bd 5c ed 5f 3e e7 8f bc bd
       -0.06735687 -0.12120769 0.21867889 -0.09207135
0000a0 73 1d 0f be ab 94 9c bd 8b b9 06 3d 30 2b 73 bc
       -0.13976078 -0.07645544 0.03289179 -0.01484184
0000b0 16 54 32 be 72 d9 1d 3e ab 7f a7 bd 7b f2 49 bd
       -0.17414889 0.1541498 -0.081786476 -0.049303513
0000c0 cf 94 6d 3c 35 b0 66 3d 33 b9 de bd 22 3d f5 3b
       0.014500811 0.056320388 -0.10875168 0.0074840942
0000d0 95 81 b6 bd 34 41 4e be dc 71 3e 3e 23 19 0a 3c
       -0.089114346 -0.2014206 0.18598121 0.008428845
0000e0 bd dc d1 bd df cf 02 3e 45 f6 2d be 1e 74 c2 bb
       -0.102471806 0.12774609 -0.16988476 -0.0059342524
0000f0 91 13 8f 3d bc a0 91 3d 9e 92 75 3e da 4c fd bd
       0.06986154 0.07110736 0.23981711 -0.12368174
000100 6a d4 49 bd c8 a6 7c bd 27 06 e3 bd 98 55 5c 3c
       -0.04927484 -0.061682492 -0.11085158 0.0134481415
000110 4c fe 57 bc 71 bc 5a 3e 94 ac d8 37 c4 d9 54 be
       -0.013183188 0.21360947 2.582957e-05 -0.20786196
000120 ca d9 5f bd 7e a8 30 3e 7f c8 0e be 68 7c a6 be
       -0.05465106 0.17251775 -0.1394367 -0.3251679
000130 d2 57 5d 3d 4b 7b 39 be b6 78 5f be c9 20 32 3e
       0.05403883 -0.18113439 -0.21823391 0.17395319
000140 37 ef 2a be 67 95 be bd 89 93 b2 be bd 65 b3 3d
       -0.16692816 -0.0930584 -0.34878185 0.087596394
000150 12 72 3a be 4d a2 2d be 96 9d fb bc e8 9e 70 3d
       -0.18207577 -0.16956444 -0.030714791 0.058745295
000160 fd 2e 38 be 8b fa 07 3d 96 89 1c 3d 40 7d 69 3e
       -0.17986675 0.03319792 0.03821715 0.22801685
000170 a0 eb 2f bd 59 b1 79 be af 52 ae 3d ac 01 1d be
       -0.04294932 -0.24384059 0.085118644 -0.15332669
000180 49 3e 8f bd b5 08 5a 3e e4 ac ab be 38 a6 89 3e
       -0.06994302 0.21292384 -0.33530343 0.26884627
000190 78 0a 2d 3e 4c db 2d 3b 61 aa 24 3e 9d f2 3b be
       0.16898525 0.0026528416 0.1608062 -0.18354268
0001a0 b3 31 02 3e 69 9a 20 be 17 35 36 be c6 1c ce bd
       0.12714271 -0.15683903 -0.1779369 -0.10064082
0001b0 d8 e9 35 be 61 87 88 3e 3f d3 05 3e b8 84 92 be
       -0.17764986 0.26665786 0.13068865 -0.2861688
0001c0 ba ec dc bb 56 76 0c 3e 12 de 90 be 13 4b 18 be
       -0.006742087 0.13717017 -0.28294426 -0.14872389
0001d0 4e d7 32 be 6c 6a be be b6 dd 6a 3e 98 40 5c 3d
       -0.17464945 -0.37190568 0.22936139 0.05377254
0001e0 62 34 18 be 20 8b 03 bd d3 8c 85 3e 70 0f 05 3e
       -0.14863732 -0.0321151 0.26084003 0.1299417
0001f0 f5 20 9c 3c 64 c8 c5 3b 6c f7 d6 3d 78 62 2e 3e
       0.019058684 0.0060358513 0.10496411 0.1702975
000200 95 3f 98 be 56 54 a9 bd 08 a2 98 bd 64 70 08 3d
       -0.2973601 -0.08268039 -0.0745278 0.03331031
000210 fe b5 8d 3c 2b 88 bc 3e f3 d8 7c be a2 3d 8c 3e
       0.017298695 0.36822638 -0.24692135 0.27390772
000220 23 ce 05 bd 80 ed e5 bd c2 6c ea bd 1b 42 d5 bc
       -0.03266729 -0.1122694 -0.11446525 -0.026032498
000230 97 f3 4a bc b1 3b 84 be 5c e3 39 be fa 26 9d bc
       -0.012387178 -0.2582679 -0.18153137 -0.019183625
000240 d9 6e a7 3d 0b 74 98 3e c3 bf 04 bc c0 2d a9 3d
       0.081754394 0.29776034 -0.00810236 0.08260679
000250 53 4f c9 3d 01 17 76 be e5 58 5c 3c 86 31 5e bd
       0.09829583 -0.24032213 0.0134489285 -0.054246448
000260 4b f3 16 3e 02 db 7a 3b 75 ed 1c 3e a3 55 5c 3d
       0.14741246 0.0038277511 0.15324958 0.053792607
000270 a0 df 8b bd 87 2a 1e 3d 9d 87 f4 bd 5a a4 ea 3d
       -0.068297625 0.038614776 -0.11939929 0.11457129
000280 28 8b e9 3d 15 85 13 be 9b 1d 2f be e3 e0 95 bd
       0.11403495 -0.14406236 -0.17101137 -0.07318284
000290 21 f2 88 3e 50 df 64 bd e5 11 d4 bd 35 ce 57 3e
       0.2674723 -0.05587703 -0.103549756 0.21074755
0002a0 fe 86 a2 bd 32 e3 a0 3e ae 6e 1d 3e bb 47 6f be
       -0.07935904 0.31423336 0.15374252 -0.23367207
0002b0 4f c0 c2 3d 8b 86 37 3e 78 9b 5b 3e 91 33 6c bd
       0.09509336 0.17922418 0.21446025 -0.057666365
0002c0 79 69 c4 3d 57 f5 58 3e 66 7c 2a be df e2 b0 bd
       0.0959043 0.2118734 -0.16649017 -0.08637022
0002d0 cc 42 c0 bc e1 58 6d bd 2e 15 cf bc 45 0f 9a bb
       -0.023469351 -0.05794609 -0.025278654 -0.0047015273
0002e0 eb 05 c4 bc ff b2 5a 3d 68 d5 c8 3e dd 0d d6 bd
       -0.023928603 0.05339336 0.39225316 -0.10451863
0002f0 55 c7 e6 bd 73 4a 85 3d 00 53 d5 bd 76 27 41 3e
       -0.11268488 0.06508341 -0.104162216 0.1886271
000300 43 e1 27 bd 62 10 2c 3b 8c a4 42 3d 69 7a 58 3d
       -0.04098631 0.0026254882 0.047520205 0.052851114
000310 8d 2c 6f bd 4d 55 4f bc b5 b4 46 be 72 9f 8f 3e
       -0.058392096 -0.012654615 -0.19404872 0.28051335
000320 54 ef b6 be 04 e2 b8 3c 27 0b 82 3e b6 67 64 bc
       -0.35729468 0.02256871 0.25399134 -0.013940742
000330 bd 3b 34 3d c1 ae 28 be d5 32 09 3e 98 d5 12 be
       0.044002283 -0.16472913 0.13398297 -0.14339292
000340 a1 96 c7 bd dd db 6a 3e af 8f 52 be 13 63 5d be
       -0.09745527 0.22935434 -0.20562623 -0.21619825
000350 8d 6b 03 3d 78 59 4d be 11 07 32 3d 4b 04 6f be
       0.03208499 -0.20053661 0.04346377 -0.23341481
000360 dc d6 6b 3e 47 a6 61 3d 7a 68 36 3e 3d ad 22 be
       0.23031181 0.055090215 0.17813292 -0.15886398
000370 ee 2a bc bc 9a af 9e be fa e3 12 3e f3 80 86 3d
       -0.02296969 -0.30993348 0.14344779 0.06567564
000380 3d d4 58 3c fa e1 cb 3c 32 cb 32 bd b7 d6 92 3e
       0.013234195 0.024888027 -0.043650813 0.2867944
000390 1f ed 9b bc 65 23 22 bc b3 4a 35 3e 59 c0 d9 bd
       -0.019033967 -0.009896134 0.17704277 -0.106323905
0003a0 c1 d6 b7 3d 7b 2b 3c bd aa cc 25 bc 44 13 c0 bd
       0.08976508 -0.045939904 -0.0101195965 -0.093786746
0003b0 eb 72 62 bd 40 fe e2 3d 38 fc 17 bd c8 65 c5 3c
       -0.055285376 0.110836506 -0.03710577 0.024096385
0003c0 4f 7d 32 3e b6 93 28 bb 1e 50 db bc 25 4c f7 3d
       0.17430614 -0.0025722808 -0.026771601 0.1207507
0003d0 66 48 68 be 0b 0c f0 3d 7f af 6d 3e 86 f3 fc 3d
       -0.22683868 0.11721047 0.23211478 0.12351136
0003e0 54 a9 43 be 7f 54 85 3d 0e 34 77 bc 06 68 42 be
       -0.19107562 0.06510257 -0.015088094 -0.18984994
0003f0 ea 1f f7 3d fa d5 a8 3d d2 34 66 bd 8d 62 da bd
       0.12066634 0.08243938 -0.056202717 -0.10663328

encoder.net.0.bias f4 [60]
000000 89 36 1c bb c1 11 9e ba 2d ef d8 3c c8 6e 80 3c
       -0.0023836216 -0.0012059734 0.026481235 0.015677825
000010 5d 0b 51 3d f6 cf 70 3c 08 18 c7 bc b6 6d 9f bc
       0.051036227 0.014698019 -0.024303451 -0.019461494
000020 8e b6 0a bd 5a f1 c0 3c 0b db 20 bd da 63 1e bd
       -0.033865504 0.023552585 -0.039271396 -0.038669445
000030 86 21 14 bd f1 f3 c6 3c 24 5a 7f bc 47 6d 5f 3d
       -0.036164783 0.024286242 -0.015585456 0.054547574
000040 f7 f1 71 bc 59 c9 f0 3c 5f a4 f5 bc 20 7a bd bc
       -0.014767162 0.029392885 -0.029985605 -0.023129523
000050 39 56 23 bc 14 34 c8 3c 6b 99 a8 bc d8 10 df 3c
       -0.009969288 0.024438895 -0.020580968 0.027229711
000060 f8 40 df 3c e9 90 dd 3c 53 1d 84 3d 9e cd c9 3b
       0.02725266 0.027046638 0.06450906 0.0061585447
000070 e3 a7 a1 bc af e3 23 ba d5 cc fe 3c d8 1d 0e bd
       -0.019733375 -0.0006251884 0.03110353 -0.03469643
000080 9d cb 01 bd d0 46 0d 3d 48 70 df 3c 23 c1 7a 3d
       -0.03168832 0.03449136 0.02727522 0.061219346
000090 71 2e a3 3c cd 79 47 bc dd dd fe 3c b3 2c f0 3c
       0.019919606 -0.012175036 0.031111652 0.02931819
0000a0 a7 c6 95 3c 1f b0 ce 3b 92 4c b5 bc ae 67 df 3c
       0.018283201 0.0063076164 -0.022131238 0.027271118
0000b0 0e 32 e0 3a 68 bc 7b bb 15 bd 39 3d ae d9 c8 bc
       0.0017104761 -0.003841186 0.04534634 -0.02451786
0000c0 a6 a1 02 bd 43 d1 63 3c 85 5e 1c bd 88 56 ca 3c
       -0.03189244 0.013904872 -0.03817608 0.024699464
0000d0 df 4b ca 3c 37 67 1c bd 74 3d 26 bc 01 ff 80 3c
       0.024694381 -0.03818437 -0.0101464875 0.015746595
0000e0 4b 8b 42 bb dc ce 94 bc 54 b5 07 3c 76 a1 92 3c
       -0.0029685076 -0.018165044 0.008282978 0.017899256

encoder.net.2.weight f4 [60, 60]
000000 88 9e 0d 3d 06 79 ab 3b c5 03 d0 3c 8c 3f 4a 3e
       0.034575015 0.005232933 0.025392422 0.19750804
000010 06 c3 0b be 52 c6 12 bd 70 60 49 3e b8 9f ba 3d
       -0.13648614 -0.035833664 0.19665694 0.09112495
000020 20 a7 87 bd 82 ec e3 bc 28 bc 48 bd 1c 1e 51 bd
       -0.066236734 -0.027822737 -0.049007565 -0.051054105
000030 e6 61 79 bd ed 77 d4 bd 2d 3a 3d 3c 6f d9 71 3c
       -0.06088438 -0.103744365 0.011549515 0.014761313
000040 81 50 9b bd f6 70 3c 3d ce 81 b2 3d 92 c4 bd 3d
       -0.07583714 0.046006165 0.087161645 0.092660084
000050 84 03 c0 3c c3 e0 03 be 71 e8 2c bc 11 63 27 3e
       0.023439176 -0.12878709 -0.010553465 0.16346385
000060 eb e6 54 3d 71 84 9a 3c e9 67 fd bc 96 d7 29 3e
       0.051978033 0.018861981 -0.030933337 0.16586146
000070 c9 e1 23 3d ff 3b 07 be 35 bc 40 be 09 7d 03 bd
       0.040010247 -0.1320648 -0.18821795 -0.032101665
000080 41 3b 54 bd 6f 78 01 3d 6b 5f 66 3e 87 59 01 ba
       -0.05181432 0.031608995 0.22497337 -0.00049343
000090 c8 48 a8 3d 98 83 78 be 34 ab 03 be d4 55 ad 3d
       0.08217007 -0.24268949 -0.12858278 0.08463636
0000a0 4d 2a 99 3a 6c ce 0e 3e 28 3f a7 bd f6 28 1d be
       0.001168558 0.13945931 -0.08166343 -0.15347657
0000b0 bb 84 3c 3e 5e ed 95 3d 01 03 17 be fd 7a 28 3d
       0.18410008 0.07320665 -0.1474724 0.041132916
0000c0 88 11 77 be bc 68 1a be ed c3 b3 bd 8f f0 9d 3e
       -0.24127781 -0.15079015 -0.08777604 0.30847594
0000d0 7e 41 85 3d f0 5a 16 be d5 ac 64 be 3c 84 2b bd
       0.06506632 -0.14683127 -0.22331555 -0.041874155
0000e0 09 41 8e 3d 1d ac 9f bd b2 ac 67 be 6c 66 d4 bd
       0.06945998 -0.077965 -0.22624472 -0.10371098
0000f0 2f 58 de 3d 19 bf 3a 3d cf 5d dc 3c 85 c9 75 be
       0.108566634 0.0455924 0.0269002 -0.24002655
000100 26 92 3c bd e1 ba 81 bd 56 67 0b be d1 c3 43 bd
       -0.046037816 -0.063344724 -0.13613638 -0.047794167
000110 c2 6a 05 3d 84 3a 41 be 52 9c 22 bc fc b9 68 3e
       0.032572515 -0.18869978 -0.009924965 0.22727197
000120 89 22 11 3d ea 1e 4d 3e 2a 53 1c be 29 18 79 bc
       0.035433326 0.20031324 -0.152661 -0.015203514
000130 2d ed 26 be fe 94 b0 bd 53 34 29 bd bf 8d 93 3d
       -0.16301413 -0.08622168 -0.041309666 0.0720477
000140 9f 6f 9b bc 39 f7 83 3d b8 aa 41 3d 66 9b 2d 3d
       -0.018974124 0.06443638 0.04728195 0.042384528
000150 6d 6a 1b 3c c4 dd 02 3d ea 3b 19 3e 01 49 67 3c
       0.009485823 0.031949773 0.14964262 0.014116527
000160 a8 17 83 bc 99 4a 50 bd d1 f0 27 3e 95 95 ad bd
       -0.016002491 -0.050852392 0.16400458 -0.08475796
000170 7d b6 bb bc 3f 22 2f be b5 8e 3e bd f2 c9 0d 3e
       -0.022914166 -0.17102908 -0.046522815 0.13846567
000180 56 c5 7d be f5 ce 4d 3e dd 44 2f bd da 9d fd bc
       -0.24782309 0.20098479 -0.042790283 -0.030959059
000190 18 79 06 3d 49 56 3e 3d b7 fd 97 3c 98 d8 3d be
       0.032830328 0.046469007 0.018553598 -0.18539655
0001a0 c6 a7 0d bd ef 88 41 bd 48 19 43 bc a5 e1 98 3d
       -0.03458383 -0.04724973 -0.011907883 0.07464913
0001b0 69 7a 3c 3e 0b 66 bd bd 2f 73 c5 bb c5 94 60 be
       0.18406071 -0.09247979 -0.006025694 -0.21931751
0001c0 06 31 92 bd 96 07 da ba 80 49 2e be 2c f9 09 be
       -0.07138257 -0.0016634341 -0.17020226 -0.13473958
0001d0 8c 5b 56 bc ae d2 ca bc 13 5a 72 3c de 59 d2 bb
       -0.01308335 -0.024758663 0.014791983 -0.0064194044
0001e0 0c bf 44 3e 0b c1 c5 bd 45 f5 41 be 5d cc 23 3c
       0.19213504 -0.09655961 -0.18941219 0.0099974545
0001f0 00 d0 cf 3d 77 dd 09 be ea 65 b8 bd 53 e4 9e bd
       0.10147095 -0.13463388 -0.090038136 -0.07758393
000200 4f 93 51 bd ae 20 8a bd 01 d2 75 3d 56 4f f3 3d
       -0.051165875 -0.067445144 0.06001473 0.118803665
000210 61 a9 a0 bd 03 49 e7 bc 84 a1 09 3d da dd 01 3e
       -0.078448065 -0.028233057 0.0336013 0.12682286
000220 cd 03 e6 3c 87 b1 50 3d 27 53 d2 bd 66 5b 30 be
       0.028077984 0.050950553 -0.10269766 -0.17222366
000230 e3 c2 f0 3d 19 5a ef 3b f1 fd 02 be ae 31 39 3d
       0.11755922 0.0073044416 -0.12792183 0.045213394
000240 d5 b0 9a bd 03 de 03 3e 29 cb 12 3d 73 e4 a7 bd
       -0.07553259 0.1287766 0.03583828 -0.0819787
000250 71 5a 31 bd b6 52 1b 3e 1b c2 56 3b 0e 53 f3 3d
       -0.043299142 0.1516827 0.0032769504 0.11881076
000260 79 79 8e bd 77 e6 80 bd c4 33 6a 3e 10 48 7e be
       -0.06956763 -0.06293958 0.2287131 -0.24832177
000270 d7 e7 07 be e8 c2 27 bd 9d 07 5a 3c 6b 42 82 bc
       -0.13272034 -0.04095736 0.013307479 -0.015900811
000280 cf e9 0b be 35 f8 4c 3d cb 10 50 3d 89 06 76 bc
       -0.1366341 0.050041396 0.050797265 -0.015016207
000290 49 ac 07 be 7d 1b d1 bc 9e ca f4 bd c7 29 91 3d
       -0.13249315 -0.025525803 -0.11952709 0.070880465
0002a0 18 e8 60 3d 33 33 8a 3c 06 f4 01 bc b2 18 c9 3d
       0.05490884 0.016870117 -0.007931715 0.098191634
0002b0 b3 b6 33 be cb 93 26 3e 75 fd 87 bd 41 96 df bd
       -0.17550163 0.16267316 -0.0664014 -0.109173305
0002c0 11 c1 00 be 07 b9 5c 3e d8 dc 54 3e c6 7e f6 bb
       -0.12573649 0.21554957 0.2078737 -0.007522437
0002d0 52 b5 d7 bb f2 05 d4 3d bb fe 89 3e 19 3c 1f 3e
       -0.0065828944 0.103526965 0.26952156 0.15550269
0002e0 30 3e f0 bb a6 d2 2f 3e 2c 06 b7 3c 30 26 00 bd
       -0.007331632 0.171702 0.02234181 -0.03128642
0002f0 df 02 4e be ea a6 04 3e 7e 2f b8 3c 84 2b 22 3d
       -0.20118283 0.12954298 0.022483584 0.03959228
000300 0d 3f 58 bd 77 20 41 be ab 71 0f be 1f 68 c3 3d
       -0.052794505 -0.1886004 -0.14008205 0.09541344
000310 9b f3 86 bd 24 af 92 bc be 20 36 3e 35 97 ca 3e
       -0.06589433 -0.01790578 0.17785928 0.39568487
000320 01 64 4e bc ce 35 15 be 8a 6d 07 be 7a ed d2 bd
       -0.012597085 -0.14571306 -0.1322538 -0.10299201
000330 83 57 1e bd 4b 54 9d 3d e8 ec ad bd f7 44 99 bd
       -0.038657676 0.07682093 -0.08492452 -0.07483857
000340 40 d2 3a bb 16 a5 ce 3d c2 d8 94 bb 98 ee 07 bd
       -0.0028506666 0.100900814 -0.004542441 -0.033186525
000350 6b e1 d6 bd 66 d5 ce bc 51 57 d1 bd 5e b3 bd 3a
       -0.10492214 -0.02524824 -0.102217324 0.0014473011
000360 8e 0e 08 3e 43 95 e6 bd 3a 27 68 3d 85 a4 8c be
       0.13286802 -0.11258938 0.056678034 -0.27469268
000370 95 4f 1d 3e ef 66 20 3d 60 2b b1 bd da 38 63 3d
       0.1536239 0.039160665 -0.08650851 0.05547414
000380 f2 f3 07 bc e7 97 9a 3d 76 ea df 3d 7f d0 ee 3d
       -0.008297907 0.07548504 0.10933392 0.11660861
000390 84 8d 16 3e b8 bd 22 bd 67 c4 12 3e 90 24 49 bd
       0.14702421 -0.03973171 0.14332734 -0.049107134
0003a0 10 dc 90 bd e4 8f e7 3d 7d 1f fb bc 7f 76 92 3c
       -0.070732236 0.11306742 -0.030654663 0.017878769
0003b0 17 28 8c bd 6e 1b 60 be d2 3b f5 bd 5d 08 4f bd
       -0.06843584 -0.21885464 -0.119743004 -0.050545085
0003c0 e6 03 97 bd d5 f4 03 3e 84 f5 6d be 3c f4 13 bd
       -0.073737904 0.12886365 -0.23238188 -0.036121592
0003d0 e0 69 ae bb d6 b2 69 bd 8f 6c 15 3c dd 0c e0 bd
       -0.00532268 -0.057055317 0.009120121 -0.109399535
0003e0 91 c6 2d be 63 6f 53 be 72 2c 89 3d 84 d4 9b bc
       -0.16970278 -0.2064796 0.066979304 -0.019022234
0003f0 b2 43 75 3d 26 db ca 3d 8d f3 62 3d 85 fb 07 3e
       0.059879012 0.099050805 0.05540805 0.13279541

encoder.net.2.bias f4 [60]
000000 3f e6 fa 3c 36 5b 0a bd 3e 2e 72 bd 28 67 cc bc
       0.030627368 -0.03377839 -0.05912613 -0.024951532
000010 54 c6 ab 3c 29 fc 19 bd 0f 84 39 bc 1b 84 a0 ba
       0.020968594 -0.037593994 -0.011322989 -0.0012246402
000020 07 98 06 3d 5e 26 0c bb 90 9d 43 bc 86 aa d7 3c
       0.03285983 -0.0021385173 -0.011939421 0.02632643
000030 e0 26 db bc 8a 32 31 bd 64 bf 81 3c 60 2a 92 3b
       -0.026751935 -0.04326109 0.015838332 0.004460618
000040 b0 c2 ea bc cc 34 c7 3c 1b ae b9 3c 23 e6 cd 3c
       -0.028657287 0.024317168 0.022666028 0.025134152
000050 d2 02 ba 3c 51 b9 b8 3c 14 f9 02 bd ad 72 c6 bc
       0.022706423 0.022549303 -0.03197582 -0.024224604
000060 f6 2c f8 bc 7b c2 f7 bc b8 c3 11 3d 07 72 b9 bc
       -0.030294877 -0.030244103 0.035587043 -0.02263738
000070 62 d4 f2 bc 34 df df 3c 21 77 ba 3c ed dc bc 3c
       -0.029642288 0.027328111 0.022761883 0.023054564
000080 ee 7d 17 bd d3 cd 04 bd 02 5a 09 bd 69 ad c5 bc
       -0.03698533 -0.03242285 -0.033533104 -0.02413054
000090 76 eb 8e bc 22 1a 06 bd 38 9c f7 3c 8b 9a 94 bc
       -0.01744626 -0.032739766 0.030225858 -0.018140098
0000a0 2d 47 0d bd 93 b9 6b 3d fd d9 2b bd 73 10 bf 3c
       -0.034491707 0.057550024 -0.041955937 0.023323273
0000b0 a9 b6 ac 3c 67 19 4e 3d a0 cf bd bc 2d 89 ae bc
       0.021083193 0.050317194 -0.023170292 -0.021305645
0000c0 ef 2d ae bc 9f 84 f5 bc 82 fc ad 3b 7a 51 bb 3c
       -0.021262137 -0.029970465 0.0053096423 0.022866
0000d0 00 29 21 bd 00 b1 c4 bc 17 01 95 bc e5 91 1c 3d
       -0.03934574 -0.024010181 -0.018188996 0.038225073
0000e0 f3 bd f0 3c 83 17 e6 ba bc 7d e3 3c d1 28 4e bd
       0.02938745 -0.0017554614 0.027769916 -0.050331894

encoder.net.5.weight f4 [32, 60]
000000 5b 55 3c 3e a1 7d 16 be df 32 3c 3e dd 6a 2c be
       0.18391936 -0.14696361 0.18378781 -0.1683764
000010 f2 8d 15 3c 3e ea 59 3e 75 97 a5 bd 67 c1 9a 3c
       0.009128081 0.21280763 -0.08085529 0.01889105
000020 94 67 d3 3d 25 39 3a be fd 69 34 3c d3 36 01 be
       0.1032249 -0.18185861 0.011011598 -0.1261857
000030 8b 13 1d be 8f 8a b0 bd 35 1d c4 3d 6b 58 41 bd
       -0.15339486 -0.08620178 0.09575883 -0.047203463
000040 60 85 59 3d ee 4d 5e 3d 6c d7 9d bd f0 df cb 3d
       0.053105712 0.05427354 -0.07707104 0.09954822
000050 40 24 18 3e 4e 31 af 3d 48 41 19 be 8c c0 ce bd
       0.14857578 0.08554326 -0.14966309 -0.10095319
000060 12 74 c4 bd 92 2f a9 3d 36 59 ad bc 4d 0f 54 3d
       -0.09592451 0.082610264 -0.021160703 0.051772404
000070 04 b4 25 be b8 63 0d 3e ab ac f2 bc ec 40 0f be
       -0.16181952 0.13807571 -0.02962335 -0.1398961
000080 5b c9 6f be ae 40 b9 bd 38 78 22 3e c1 98 88 bd
       -0.23416655 -0.0904554 0.15866172 -0.066697605
000090 6a 71 24 be 3a 70 2f 3e 29 13 59 3e 48 aa 45 be
       -0.16058889 0.17132655 0.21198715 -0.19303238
0000a0 b2 99 0e bc 1d fd 16 bd b7 52 19 3d 29 27 8c bd
       -0.008703636 -0.03686248 0.0374324 -0.06843407
0000b0 05 06 a5 3e f2 e2 9c bd 4a f9 25 be 28 e1 8f bd
       0.32231155 -0.07660474 -0.16208377 -0.07025367
0000c0 bd e7 9f bd ec e8 fe bd 0f bf 9e bd be 13 1b 3d
       -0.078078724 -0.1244677 -0.07751285 0.037860624
0000d0 51 65 07 bc ad 7e 29 3e f1 6d b3 bd 60 f0 25 3d
       -0.008263902 0.16552229 -0.08761204 0.040512443
0000e0 dc 1d 9b be d4 39 1c 3e 4f 58 5e bd 6e 8c 42 3d
       -0.30296218 0.15256435 -0.054283436 0.047497205
0000f0 d1 c4 82 bd 87 f9 3e bd 1e fd 64 3e 46 9c 63 bd
       -0.06385196 -0.046624687 0.22362182 -0.055568956
000100 f9 45 7c 3e a9 01 56 bd e5 e5 15 be ee 58 9a 3d
       0.24636067 -0.052247677 -0.14638479 0.07536493
000110 1c b3 9f 3e fc 5a 5c be ab 37 eb bd 1d 04 56 3d
       0.31191337 -0.21519083 -0.11485227 0.052250016
000120 d1 32 5e 3e 85 29 d8 3c cc 3a 20 be 10 b3 10 be
       0.21699072 0.026386986 -0.15647429 -0.14130807
000130 0e b8 5c be 99 7f 10 3e ce 4a 9f 3b b8 0a 13 3e
       -0.21554586 0.14111175 0.0048612123 0.14359558
000140 c9 ea 6f be a3 ac 95 3c 07 61 1f 3c 53 fa 9a 3c
       -0.23429407 0.018270796 0.009727723 0.018918192
000150 2f 52 25 bd 43 ec c7 3d 11 85 4a be 70 49 d0 bc
       -0.04036158 0.0976186 -0.19777323 -0.025425643
000160 46 41 de 3d 88 43 0a 3e be 2f 83 3d 65 f5 02 bd
       0.10852294 0.13502324 0.064055905 -0.031972308
000170 08 df e2 bc e6 90 54 3d 9e 0c d6 3d cb f0 d9 bc
       -0.02769424 0.051896 0.10451625 -0.026604077
000180 07 31 d7 bd 0e f1 e9 bd bb 55 66 be ec df 90 3d
       -0.10507398 -0.11422931 -0.22493641 0.0707396
000190 a0 18 2b 3e ab 1d ae 3d 52 b9 8c 3d 64 31 f0 bd
       0.16708612 0.085017525 0.068712845 -0.117281705
0001a0 b0 1e c8 3d 7c 2a 16 bd a9 a0 ad bd 6a 25 25 be
       0.09771478 -0.03666161 -0.08477909 -0.16127554
0001b0 bd c9 9e 3e 4a 35 7d 3d 2c 22 73 bd 5a 8c bc bc
       0.3101329 0.0618184 -0.05935876 -0.023016144
0001c0 4d a5 b3 bd 02 85 13 3e 10 6f af 3d 69 c9 6f be
       -0.08771763 0.14406207 0.08566105 -0.23416676
0001d0 5e 72 89 bd fb 3f 13 be c9 b1 f0 3d 06 4f 68 bc
       -0.06711267 -0.14379875 0.1175266 -0.014178997
0001e0 04 66 07 be 48 5a af 3d 9c e8 b3 3c d2 0a df bd
       -0.1322251 0.08562142 0.021961503 -0.10890736
0001f0 0b 3d ad be 3e f4 86 3d b2 99 cf 3d 91 e9 a5 bd
       -0.33835635 0.06589554 0.10136737 -0.0810119
000200 57 e2 c0 bd 75 b8 f0 bc 86 50 eb 3c 6a 8e 99 3d
       -0.09418171 -0.029384831 0.02872492 0.074978665
000210 79 64 07 3e c0 8e 8c 3e 78 b4 a4 bd 36 66 b5 be
       0.13221921 0.2745266 -0.08042234 -0.35429543
000220 cb be b8 3d a0 44 ed 3d 60 b6 99 3d fd 89 af bd
       0.09020766 0.11585355 0.075054884 -0.08571241
000230 09 27 84 be 67 d4 3c 3e 9e 9a f6 bc 5a 69 7d 3d
       -0.2581103 0.184404 -0.030103024 0.06186805
000240 25 dc fc 3d da 16 79 3d e4 47 ca bd 4c 96 02 be
       0.12346677 0.06081281 -0.09876993 -0.12752646
000250 90 e4 78 3d 6f 98 88 bd 29 85 08 3e 47 71 90 bd
       0.06076485 -0.066696994 0.13332047 -0.07052856
000260 e4 cd dc 3d 02 e7 dd 3d c5 fc d9 3d a8 eb 83 3e
       0.10781458 0.10835077 0.10643915 0.2576573
000270 30 a1 48 3d ee 8f b7 3d 60 d9 88 be c3 77 1b 3d
       0.048981845 0.08962999 -0.26728344 0.03795601
000280 ea e9 b6 bc c0 03 a6 3e 1b 1f 03 bd 8e da 23 be
       -0.022328336 0.32424736 -0.032012086 -0.16001341
000290 e3 c1 7b be 9a bf 82 3c 92 38 97 3c da 49 40 3e
       -0.2458568 0.015960503 0.018459592 0.18778172
0002a0 36 c6 37 3d 2e 60 82 3b 56 e4 90 3c 1c 12 4b be
       0.044866763 0.0039787507 0.017687004 -0.19831127
0002b0 4b d7 f8 3d 0b 6e bf bd 22 6b ff 3d ef 96 e5 bd
       0.12150439 -0.09347161 0.12471606 -0.11210429
0002c0 87 37 17 be 2f 32 7d be 0b e9 0d 3e d6 4b 33 3d
       -0.14767276 -0.24726175 0.1385843 0.043773495
0002d0 9e 76 c8 3d 0b c7 42 3c 2c 4a 91 bd b6 a9 b0 bc
       0.097882494 0.011888276 -0.07094225 -0.0215653
0002e0 b3 01 30 bd 2c a7 9c be 8e bd 99 3c 07 9f 21 3e
       -0.04297037 -0.30596292 0.018767145 0.1578332
0002f0 3c f2 26 be 49 13 cf be 9a 67 41 be 2c bb 1c 3c
       -0.16303343 -0.404444 -0.18887177 0.00956611
000300 19 f7 83 bd 9b 26 89 3d 3a 23 09 3e 1c 17 04 be
       -0.064436145 0.066968165 0.13392344 -0.1289944
000310 b1 89 3f be 8b 00 c8 3c ec 06 5e 3e 3f b1 9d bd
       -0.18704869 0.024414321 0.21682328 -0.07699823
000320 c2 b4 8e be 4b 50 83 3d 68 43 41 3d 31 ad d4 3c
       -0.27872282 0.06411799 0.047183424 0.02596149
000330 4d 2e 70 3d 3a 17 ae bd 11 50 76 3d b1 42 5e 3e
       0.058637906 -0.08500524 0.06013495 0.21705128
000340 72 e8 60 3c 1c f6 0c 3c 2b 41 0e be 94 f9 3e 3d
       0.013727294 0.008603599 -0.13892047 0.046624735
000350 ac 6f 61 3c f1 92 34 3d a4 ed 2e 3e bd 0d 34 bd
       0.013759535 0.044085447 0.1708284 -0.043958414
000360 8c c9 89 3e 66 e0 69 bd 2f e4 aa 3b 75 66 48 bd
       0.2691158 -0.05709877 0.00521519 -0.048925836
000370 0a 04 60 3e f6 66 b6 bd 8a e1 55 3d e2 cf aa 3d
       0.21876541 -0.08906357 0.052217044 0.08340432
000380 1e 27 82 be 51 0c 87 be 61 07 15 be 04 61 f8 bd
       -0.2542047 -0.26376584 -0.14553596 -0.12127879
000390 bc d0 f6 3d 7e 2a 1e 3e ce e8 1a 3b 73 e6 b8 bd
       0.12051532 0.15445897 0.0023637298 -0.0902833
0003a0 66 09 95 3d b9 48 c5 bc f3 a7 0c 3e 92 0b 73 3e
       0.07277183 -0.024082528 0.13735943 0.23734882
0003b0 19 16 1c be 26 22 23 bc 91 bd 61 3e b7 5f af 3d
       -0.15242805 -0.009956872 0.2204497 0.08563178
0003c0 9a 5e 27 3d 52 0c 16 3e dc f8 32 3e 63 55 8c bb
       0.040861703 0.14653137 0.17477745 -0.00428264
0003d0 63 89 b5 3d 73 d6 62 bc 10 82 5f 3d 07 d2 ad be
       0.08864095 -0.013845074 0.054567397 -0.339493
0003e0 f1 93 57 3b e3 fb 1b 3e 2e be 0e bd 24 33 1d 3b
       0.0032894576 0.15232806 -0.03484934 0.002398678
0003f0 07 b3 3a 3d 28 18 ea 3d 41 b2 2f 3e e4 7f 97 be
       0.04558089 0.11430389 0.17157842 -0.2958976

encoder.net.5.bias f4 [32]
000000 63 04 f9 3c 58 fa 6f bd 8a 67 24 bd 8a 82 f1 bc
       0.0303976 -0.058588356 -0.040137805 -0.029481191
000010 65 96 21 3d 71 2b ea bc ce 90 26 3d 27 2f df 3c
       0.039450068 -0.028585168 0.04066544 0.027244164
000020 2c 81 0a 3d 63 d4 25 3d 96 a2 17 bd 27 31 55 bd
       0.033814594 0.04048575 -0.03702029 -0.05204883
000030 e8 30 0d bd 5f a7 b6 bc fc 5c 47 3d d3 97 e9 bc
       -0.03447047 -0.022296606 0.04867266 -0.028514778
000040 0a 15 d8 3b ad 4a 66 3d ff 5e 99 3c 58 8c f2 3c
       0.006594305 0.05622356 0.018722055 0.029607937
000050 a8 bf 28 3d 16 ee 59 3d 40 a6 40 bd c3 48 7c 3d
       0.041198403 0.053205572 -0.04703355 0.06159283
000060 67 8c dc bd d3 5e 06 3d 76 2c 63 bd 4c 3d 4c bd
       -0.10768967 0.032805275 -0.055462323 -0.049863145
000070 8d 2f f1 bc 1e 8c 77 3d 6d 44 28 3d 64 35 ab ba
       -0.02944162 0.06043636 0.04108088 -0.0013062176

predictor.net.1.weight f4 [32, 32]
000000 1f ee 18 3e 3e eb 9e be bc e2 85 be 5d dc 08 be
       0.14934586 -0.3103885 -0.26149547 -0.13365312
000010 a5 93 14 be 36 20 44 be 74 86 0f 3d 6a 3a 3c 3e
       -0.14509447 -0.19152912 0.035040334 0.18381658
000020 ac 3d 4f 3e 7f 81 4b 3e 31 35 e9 3d c3 c5 14 3e
       0.2023837 0.19873618 0.113870986 0.14528565
000030 c6 6f 64 3e 1c cd 04 be a6 ff 8a 3d 61 5e d3 bd
       0.22308263 -0.12968868 0.06787042 -0.10320736
000040 0f e5 96 3d 8a 54 97 bd 1c 88 3d 3d 25 03 80 be
       0.07367908 -0.073891714 0.046272382 -0.250024
000050 f0 33 06 bd 11 47 8a bd 66 94 22 be 06 f4 c1 bc
       -0.032764375 -0.06751836 -0.15876922 -0.02367593
000060 d9 0e 64 3e 28 3e 69 3e a1 40 08 bd 35 90 dd 3c
       0.22271289 0.22777617 -0.03326476 0.027046302
000070 d1 3f 01 be b3 4d 44 3e e9 6f 15 3e d1 87 66 be
       -0.12622 0.19170265 0.14593472 -0.22512747
000080 74 25 08 be d1 3b 71 3e fe 0a 8c be 8f f7 31 3d
       -0.13295537 0.23557974 -0.27352136 0.04344898
000090 4c 59 1e 3e 95 b1 f4 bc 09 de b0 3d 30 e4 da bd
       0.15463752 -0.029869834 0.086361 -0.106880546
0000a0 e7 9b 7e 3d 6e 31 86 be aa fa 9c be 3b 69 a4 bd
       0.0621604 -0.26209587 -0.30659992 -0.080278836
0000b0 88 2c 43 be ca 31 8e 3e 0a ea 86 be 3d 3d 0d bd
       -0.19059956 0.2777236 -0.26350433 -0.03448223
0000c0 90 46 2d bd 88 86 80 3d ae 8b e0 bd 64 a5 fe 3d
       -0.04230362 0.0627566 -0.10964142 0.124338895
0000d0 44 fd 03 be 24 de 34 3e e6 4e d3 bc be c6 06 bd
       -0.12889582 0.17662865 -0.025794458 -0.03290438
0000e0 e3 af dd 3e f9 ba 71 bd 9d 29 f5 3d 53 8c 8b 3e
       0.43298253 -0.0590162 0.11970828 0.27255496
0000f0 05 2f a0 3d 8e 3c d6 3d d4 a3 00 be d5 f6 fb 3d
       0.07821468 0.10460769 -0.12562495 0.12302939
000100 cd b5 dd 3d 76 c3 d0 3c 9f 31 45 bd af d8 57 3e
       0.10825691 0.025483828 -0.048143025 0.21078752
000110 10 b2 d8 bd 75 f4 54 bd 65 4b 8a 3e 04 fc b6 3c
       -0.10580838 -0.051990945 0.27010646 0.022336967
000120 48 76 d7 bd 87 41 11 3e 46 43 8e 3d a6 9b 47 3e
       -0.10520607 0.14185153 0.06946425 0.19492969
000130 b4 09 5c 3d 1e 8d 58 be e8 99 95 3d 77 9b 93 bd
       0.05372019 -0.21147582 0.07304746 -0.07207387
000140 d8 85 e8 3c 51 57 c2 3e 42 bb be bd c0 61 3f bc
       0.028384134 0.37957242 -0.0931306 -0.01168102
000150 91 29 01 3e 9f 4e ac be f8 ce bd bd 1e 86 30 be
       0.12613513 -0.33653733 -0.09267992 -0.17238662
000160 50 d9 94 3e a4 22 ed bd ca c5 9f 3d 3a ad 8a bd
       0.29072046 -0.11578873 0.07801397 -0.067713216
000170 e4 b0 9d ba 69 f6 a9 bd 97 a8 0c 3e 21 f4 82 bd
       -0.0012030867 -0.08298952 0.13736187 -0.0639422
000180 4b 8d f3 3d 23 1f 1f 3c 7d 86 94 be 51 98 82 3d
       0.11892184 0.009712013 -0.29008856 0.06376708
000190 de 4f 5c 3e 7b 50 04 3e ad 5b 57 3e cb ec 41 3d
       0.21514842 0.12921326 0.21031065 0.047344964
0001a0 0d 65 55 3d f7 74 a9 bc b7 c5 20 be 5a 0d 77 be
       0.052098323 -0.020685656 -0.15700422 -0.24126187
0001b0 6b cd 06 3e a1 59 1a bc e5 34 96 3d da 08 b2 bd
       0.13164298 -0.009420783 0.073343076 -0.086930946
0001c0 00 1e 00 3e 31 ce 86 bc dc 0b 04 3e 00 ea 8a 3d
       0.12511444 -0.016455742 0.12895149 0.06782913
0001d0 65 26 18 3e 80 5b 37 3e e8 8e 8d be f6 38 17 3d
       0.14858396 0.17905998 -0.2764809 0.036919557
0001e0 cc 9c 07 be 1d 11 7f 3e da ff 16 be 1f 94 47 be
       -0.13243407 0.24908872 -0.14746037 -0.19490097
0001f0 8e 00 7f 3e 9a b4 44 3e c5 ce 89 3e a1 a3 31 3e
       0.24902555 0.19209519 0.26915565 0.17347576
000200 81 a8 36 be ae fc f4 bd 96 24 76 3d 3f 4e 8a 3e
       -0.17837717 -0.11962257 0.060093485 0.27012822
000210 76 a9 ef bb 1f c1 25 3e 58 c5 03 be 70 dc 2b 3e
       -0.0073139025 0.16186951 -0.1286825 0.16783309
000220 6f 42 18 be be 7a 61 3e 3c 58 8e 3e 6a 88 86 3e
       -0.14869092 0.22019479 0.27801692 0.2627595
000230 a7 c9 35 3e 8c 4b 53 bd ab a2 2f 3e fd 15 64 39
       0.17752706 -0.05158572 0.17151897 0.00021751966
000240 1b 8e 32 be c1 62 0f be fb ea 6c 3d ff 07 af 3e
       -0.17437021 -0.14002515 0.057841282 0.34185788
000250 96 eb f0 bd 6b 61 4d 3e 03 04 b3 3e 19 5b 2a 3e
       -0.117636845 0.20056693 0.34963998 0.16636313
000260 91 46 06 be 7f e1 59 be f5 42 3d 3d fe a5 58 bd
       -0.13112856 -0.21277426 0.046206433 -0.052892677
000270 08 7f db 3d 0d b5 50 bc 15 55 63 bd ef a1 0b be
       0.10717589 -0.012738478 -0.055501062 -0.13635992
000280 c9 2d 92 bd 5c 8f 47 3e b9 5f b0 3e 06 fb 8c bc
       -0.07137639 0.19488281 0.3444803 -0.017209541
000290 8f 55 dc bd 10 80 ad 3c 20 fa 84 be d0 e0 39 bc
       -0.107585065 0.021179229 -0.2597208 -0.011345103
0002a0 f9 94 9e be 9e 71 e9 bd 0e e0 db bd cd 83 b7 3e
       -0.30973032 -0.11398624 -0.107360944 0.35842744
0002b0 6d e5 1d be 76 95 88 bd f2 a9 86 be 05 81 3d bc
       -0.1541955 -0.066691324 -0.26301533 -0.011566405
0002c0 4f 8d 24 3e c8 94 3b 3d 92 40 b6 bd 2e f0 f3 3c
       0.1606953 0.045796186 -0.088990346 0.029777613
0002d0 4b 3c 9d be a6 ea 19 be 5d 6f fd 3c 78 12 cc be
       -0.30710062 -0.15030918 0.030936891 -0.3985784
0002e0 17 9f a0 3e 72 ef de 3d 61 ed 11 3e bc a1 0c 3e
       0.31371376 0.10885514 0.14250709 0.13733572
0002f0 85 7d 26 3e 36 9b 51 be b0 53 8d bd db 37 e0 bd
       0.1625882 -0.20469365 -0.06900728 -0.109481536
000300 85 43 0d bd 8f 90 92 bd 07 ce d9 3d 2e 69 8d 3e
       -0.03448822 -0.071564786 0.10635 0.27619308
000310 a9 c6 28 be f6 b3 d7 3c 9a 7d 97 be b0 71 4e bd
       -0.16482033 0.02633093 -0.29588014 -0.05040139
000320 9a f4 d3 bd da e4 16 3e 39 36 41 be 45 cf 21 3d
       -0.103493884 0.14735737 -0.1886834 0.03950431
000330 f1 d9 8b 3c df 11 4c 3e 52 b4 3f 3e 81 ea ea 3d
       0.017071696 0.19928692 0.1872113 0.11470509
000340 c1 3c ee bd 99 f1 d9 bd 54 8f d8 bd 68 8b 1a 3e
       -0.11632682 -0.10641784 -0.10574213 0.15092242
000350 6d 28 2d 3e 93 2e 14 bd c7 0e 3b 3e 0a 4d ec bc
       0.16909952 -0.03617723 0.18267356 -0.028845329
000360 eb 9a 5d 3e d8 a7 11 be 58 b5 0a bd 02 dc 29 bd
       0.21641128 -0.14224184 -0.03386435 -0.04146958
000370 14 29 76 bd 00 ff b4 bd 5e b8 b3 bc 5d 48 7c be
       -0.06009777 -0.088377 -0.021938499 -0.2463698
000380 b8 d9 ae 3d db 0f 9e bd 15 1e df bd ab b6 1d be
       0.0853762 -0.07717868 -0.108944096 -0.15401714
000390 4d b6 89 3e b5 9e 18 3e 56 d0 2f 3c 2d 4e 2c be
       0.26896897 0.14904292 0.0107308235 -0.16826697
0003a0 51 fa e8 bc 7c 34 dc be c1 68 fa 3e 13 af a2 bd
       -0.028439673 -0.43008792 0.48908046 -0.07943549
0003b0 f3 41 f6 bd ed 1e 80 3d f7 61 f2 bd 6a 8b d1 be
       -0.120242976 0.062558986 -0.118350916 -0.40926677
0003c0 1a 95 de bd e2 1b 6c 3d 76 4a 83 be 90 55 5f 3e
       -0.108682826 0.05764378 -0.25642747 0.21809983
0003d0 65 4c 92 bd 57 da e5 3d 1f fb f9 be e7 94 a9 3c
       -0.07143477 0.11223286 -0.48824403 0.020700885
0003e0 a8 0b 63 3e 17 35 1a be 64 3d 33 be 79 db 9d bd
       0.22172415 -0.15059315 -0.17503887 -0.07707877
0003f0 a2 64 f6 3d ff e8 8a bd ef 0f 4b be ca 06 cd 3c
       0.12030913 -0.06782722 -0.19830297 0.025027651

predictor.net.1.bias f4 [32]
000000 2b c1 d5 3d 0f 24 00 be 11 5f ee bd 20 fd f0 3d
       0.104372345 -0.12513755 -0.11639226 0.1176703
000010 f4 24 df bd 90 91 04 be ae 80 ef 3d e5 9b d9 bd
       -0.1089572 -0.12946153 0.116944656 -0.10625438
000020 6e a2 de bd 03 4f 90 be d8 1c 00 be bc 4d f1 3d
       -0.10870825 -0.2818528 -0.12511003 0.11782405
000030 fd d5 57 be 83 13 ef 3d b7 5f ec 3d 8a d5 b6 3d
       -0.21077724 0.116736434 0.11541694 0.08927448
000040 16 a8 05 be db 37 db bd d1 e5 e1 3d a9 d3 e8 bd
       -0.13052401 -0.10704013 0.11030162 -0.11368496
000050 aa 1d 17 3e 72 b8 fa 3d 78 46 e4 bd 72 99 d0 3d
       0.1475741 0.122422114 -0.11146253 0.10185517
000060 9f d0 02 3e 7c 5e bd 3d fa b2 5e bd 71 f6 dc 3d
       0.12774895 0.09246537 -0.054369904 0.107891925
000070 62 5c e4 3d f3 b1 84 be 33 21 21 3e 59 f9 7a 3e
       0.11150433 -0.25917014 0.15735321 0.24509181

predictor.net.3.weight f4 [1, 32]
000000 dc 11 5c 3e ee fa ee bd 79 fd 87 be 03 c4 a6 3e
       0.21491188 -0.11668955 -0.26560572 0.3257142
000010 94 1b f2 be 47 a3 94 be bf d2 d6 3e 84 f1 a3 bd
       -0.47286665 -0.2903082 0.41957662 -0.0800505
000020 ea 1f be be 73 1e d6 bd 68 a0 7e be 77 57 4b 3e
       -0.37133723 -0.104550265 -0.24865878 0.19857584
000030 fe 22 01 be ea f0 86 3e 00 6f 85 3e 45 ed 49 3d
       -0.12611005 0.26355678 0.2606125 0.049298543
000040 0f 6d 31 be 7f af 9e be a8 0e 58 3e 50 36 c0 be
       -0.17326759 -0.30993268 0.21099341 -0.37541437
000050 ac 00 bc 3d b7 44 c0 3d 45 66 9d be 31 28 7c 3d
       0.09179816 0.09388106 -0.30742088 0.061561767
000060 14 f3 5e 3e 71 df a8 3d ac eb 74 bc 0e eb 55 3e
       0.21772414 0.08245743 -0.014948767 0.20890447
000070 56 07 79 3e a9 b3 a8 bd fa 54 74 3e 5c d8 a5 3d
       0.24319205 -0.082373925 0.23860541 0.08097908

net.0.weight f4 [60, 35]
000000 cc 1f a7 3c cd 23 ee 3d 59 95 8d 3d ad 18 85 3c
       0.020400904 0.11627922 0.069132514 0.016247118
000010 20 c4 8c bc 0a 2d 06 3e af 40 2b be 65 62 18 3e
       -0.017183363 0.13103119 -0.16723894 0.14881285
000020 5c 02 a9 bd c7 2f 1d 3e 49 11 88 bd c2 0f fb bd
       -0.08252403 0.15350257 -0.06643922 -0.12258865
000030 cc 45 80 3c 41 88 d2 3d aa 11 c3 3c 20 cb e2 3c
       0.015658282 0.102798946 0.023812134 0.027684748
000040 b2 55 af 3d c9 f1 d6 3c bd 3b b4 bd d5 43 14 bd
       0.08561267 0.026238339 -0.08800457 -0.036197502
000050 8f ff 5e 3e a7 90 80 3c 2c 4a 85 3e 83 95 1d 3e
       0.21777175 0.015693976 0.2603315 0.15389065
000060 3f 86 1b 3e 8a 8c ea 3d 6c a6 52 3e 63 c4 89 3b
       0.1518793 0.11452587 0.20571297 0.0042043193
000070 ef e7 f8 3c 7c b5 1b be a8 dc 5c bc b0 5f b5 bd
       0.030384032 -0.1520595 -0.013480343 -0.088561416
000080 8b 30 28 be 28 c3 61 be 8c d4 15 3e 4f 4b 02 3d
       -0.16424768 -0.22047102 0.14631861 0.0318101
000090 1b d4 39 3b 2f 60 38 3e bf 5b d4 3c 21 28 16 3d
       0.0028355184 0.18005441 0.025922654 0.036659364
0000a0 56 b8 32 bd 82 d7 7e 3e ed 0a 4b bd 73 b5 26 3d
       -0.043632828 0.24886897 -0.049570967 0.040700387
0000b0 83 0f ac bd a0 d2 95 3d d9 55 b8 bd 18 b5 64 be
       -0.08401396 0.07315564 -0.09000749 -0.22334707
0000c0 2d 42 42 3d 8b 4a b5 bc 6b c7 25 3e 7b cd b4 3c
       0.04742639 -0.022130271 0.16189353 0.022070637
0000d0 f7 f8 fd bd 3c 33 98 bd 35 2b 69 3e b2 08 1f be
       -0.12401002 -0.07431647 0.22770388 -0.15530661
0000e0 22 79 96 be e4 90 e5 bd 6a bb 99 bd 41 99 b3 bd
       -0.29389292 -0.11209276 -0.075064495 -0.08769465
0000f0 56 cd 25 bd fa bb 02 3e 71 66 86 be d9 d0 37 bc
       -0.040479027 0.1276702 -0.26250032 -0.011219227
000100 fa 21 b2 3c eb b6 0c 3e 20 4f 31 be dd a3 5a bd
       0.021744717 0.13741653 -0.1731534 -0.05337893
000110 e2 c4 4a bd a3 2c 8b 3d cd 41 2d bd 4a 49 21 bd
       -0.04950417 0.06795623 -0.04229908 -0.039376535
000120 5a 66 84 3d b7 f0 48 bd c8 5a 51 bd b1 e7 8a bd
       0.064648345 -0.04905769 -0.051111966 -0.06782473
000130 93 2e 81 3e 29 6f f7 3d 0a 0a d6 bd 5a 6a 9a bd
       0.25230846 0.12081749 -0.104511335 -0.07539816
000140 b4 0f 65 3d df f6 5e be 32 ab 01 3e af a1 21 be
       0.05592318 -0.21773861 0.12662962 -0.15784334
000150 6e a8 9b be eb 64 18 3e cc 56 96 3d fa 9b 52 be
       -0.3040194 0.14882247 0.07340774 -0.20567313
000160 27 08 26 3e 2d ce ed 3d 1d 12 e5 bd 66 cb 8e 3e
       0.16214047 0.116115905 -0.111850955 0.27889556
000170 be 95 ee 3c 16 e2 99 3d 0f d0 5b 3d b8 8b 5d 3e
       0.029124137 0.075138256 0.053665217 0.2163533
000180 bc 3b 8a bd 5e dc 80 be 95 a7 d5 3d e6 06 00 bd
       -0.06749675 -0.25168127 0.10432354 -0.03125658
000190 29 93 5b 3e 8e 00 2f 3c 0e f7 97 3e 89 3d d0 3c
       0.21442856 0.010681285 0.29680675 0.025419967
0001a0 22 b2 4f be 3d 03 b2 3c 1c 9d 84 bc 07 3c d2 3d
       -0.20282796 0.02173006 -0.016188197 0.102653556
0001b0 00 66 10 3d c2 0a 8d bc f5 30 63 3b 64 e7 b5 bd
       0.035253525 -0.017217044 0.0034666632 -0.08882025
0001c0 60 df 2e be 1d d2 4d 3d 84 e2 64 3e 1a e8 2b 3e
       -0.17077398 0.050249208 0.22352034 0.16787758
0001d0 41 d8 dc bd 91 f0 f9 bd 30 9e 27 3d a5 ea 96 3e
       -0.10783435 -0.122040875 0.040922344 0.29475895
0001e0 eb 7f 0c be 0c f9 c8 3c cf bd 13 3b 6a 92 66 3e
       -0.13720672 0.024532817 0.0022543555 0.2251679
0001f0 72 59 4a 3e 19 84 04 3e d1 cc 0a be d3 d8 9f bd
       0.19760683 0.12941016 -0.13554694 -0.07805028
000200 0e 78 8a be 5e fd 0b be 1a e1 1a be b4 c3 14 be
       -0.2704472 -0.1367087 -0.15124932 -0.1452778
000210 5e 9c 21 be 58 58 cf bd 85 02 22 3e 65 36 0a bd
       -0.15782306 -0.10124272 0.15821274 -0.03374328
000220 f3 67 5e 3e 52 20 e1 3d b5 8a 5a be c6 c4 59 3e
       0.21719341 0.10992493 -0.21341975 0.2126647
000230 bd de 8f bd 2e 5c a3 bd 26 f4 b1 3d 50 b5 76 ba
       -0.07024906 -0.07976566 0.08689146 -0.0009411173
000240 5b c8 b3 bd 82 4e a1 3e be a7 2a 3d 6d 06 c7 3d
       -0.08778449 0.3150521 0.041663878 0.097180225
000250 2c 3c 17 3e 8f 87 5d bd 42 55 13 3e ff 08 23 bc
       0.14769047 -0.054084357 0.14387992 -0.009950875
000260 17 7f 62 be 42 26 ce bd 52 63 24 be 98 cc 97 be
       -0.22118793 -0.10065891 -0.16053513 -0.2964828
000270 0e 0e 25 3e ba 9b 98 bd 6a c5 1d be 70 98 24 3e
       0.16118643 -0.074515775 -0.15407339 0.16073775
000280 f6 a2 05 3c b6 17 1e 3d 40 8e 95 bd 4e 31 00 3e
       0.008156529 0.03859683 -0.07302523 0.12518808
000290 7b 36 4a bd e7 b2 3e 3c c9 f4 92 3d f8 0e ea bd
       -0.049368363 0.011639333 0.07175595 -0.11428636
0002a0 49 5e 83 be d9 7a fa 3d 08 ee 88 3d 85 46 bb bd
       -0.2565787 0.122304626 0.06686026 -0.0914431
0002b0 84 02 24 bd 2f 5b 7f be aa 31 54 be af f9 05 be
       -0.04004146 -0.24937128 -0.2072207 -0.13083528
0002c0 cb 92 4f bd 20 a8 99 be e0 10 ce 3d 42 6c 0a be
       -0.050677102 -0.30011082 0.100618124 -0.1351786
0002d0 79 e0 54 3c 5d d5 c4 3c b2 23 02 3e 61 08 5d 3d
       0.012992972 0.02402752 0.12708929 0.05396307
0002e0 0c 54 de bc e0 4b 4a bb 57 c2 4d bd 96 ca 41 3d
       -0.027139686 -0.003086798 -0.050234165 0.04731234
0002f0 7d 28 61 bd dc 72 35 bd 60 4e 1c 3e 07 6b c9 3b
       -0.054970253 -0.04429899 0.15264273 0.006146792
000300 5c 8b 95 3d 63 13 2e be 30 1d aa 3d c5 52 87 3d
       0.07301971 -0.16999583 0.08306348 0.06607584
000310 7f 69 2a be 22 9f 9d be 12 b1 b3 3e 83 b9 61 bd
       -0.16641806 -0.3078547 0.3509603 -0.05510856
000320 0d d4 a1 3e 48 0b fd 3e a5 5e 42 bd 5b bd 14 be
       0.31607094 0.4942267 -0.04745354 -0.14525358
000330 6f 11 9b 3e 14 76 2a 3d 63 79 a8 bd 39 f3 dd bd
       0.30286738 0.041616514 -0.08226278 -0.10837407
000340 d2 90 6d be 1c 61 4a bd d4 97 ad bc ea 8c 66 bc
       -0.23199776 -0.049409017 -0.021190561 -0.0140716825
000350 75 c6 2e be 3a 71 a7 3d b1 2b 91 3d 86 c3 f8 bd
       -0.17067893 0.08175893 0.070884116 -0.12146668
000360 cf a0 f4 bd c5 a9 5b 3c e7 54 34 bd 3e ef 6f 3e
       -0.11944734 0.013407175 -0.04402628 0.23431107
000370 51 3d 07 bd b4 32 49 be f7 98 86 3e 8c 82 66 be
       -0.03301746 -0.19648248 0.26288578 -0.22510737
000380 33 60 ad bd 9b da 02 bd 64 e2 ae 3e d8 2c 93 bd
       -0.08465614 -0.03194676 0.34157097 -0.07186288
000390 3c 86 3c 3c 8b 7e 90 3e ce 73 0b 3e 2e 62 3e 3d
       0.011506613 0.28221545 0.13618395 0.04648035
0003a0 c6 0d a9 3d be 4d f9 bb 1a d2 a9 3d 32 25 3f 3e
       0.0825458 -0.0076081445 0.08292027 0.18666533
0003b0 a4 01 4b bd ec 5a 3a 3d a6 d6 8c bc 39 70 75 3e
       -0.04956211 0.045496866 -0.017192196 0.23968591
0003c0 bb 0b 8f 3e 72 fd 4b 3e ea 91 55 bb 81 9e ab bd
       0.27938637 0.199209 -0.0032588192 -0.083798416
0003d0 ac f4 a3 3d 27 41 a1 bd 36 d2 02 bd 73 9f 74 bb
       0.08005652 -0.07873755 -0.031938754 -0.0037326484
0003e0 a8 f0 40 bd 3f a7 5e bd 5a 8b 34 be ca 61 19 bd
       -0.047104508 -0.054358717 -0.17631283 -0.037446775
0003f0 f9 f3 1b 3e d4 cb 9d bd 5b f2 64 be cf 7a 1c ba
       0.15229787 -0.07704893 -0.22358076 -0.00059692276

net.0.bias f4 [60]
000000 e1 2f d6 bd 52 bf 08 be cf 28 14 3e 0a c2 13 be
       -0.10458351 -0.13354233 0.14468692 -0.14429489
000010 ab e5 77 3d 10 ff 11 3e e1 70 11 3e 4f a8 13 bd
       0.060521763 0.14257455 0.14203216 -0.036049183
000020 5d fb 26 be a5 8d 66 3c dd 41 0c 3e 6d b4 6f 3d
       -0.16306825 0.014071857 0.13697 0.058521677
000030 ed f0 0c be e5 bf cf bd 13 70 dc bd 7f 86 e4 3d
       -0.13763781 -0.10144023 -0.10763564 0.111584656
000040 d5 6b 1b 3c 14 e4 05 3e c1 2b 1e be 0f 93 23 bd
       0.009486158 0.13075286 -0.15446378 -0.039935168
000050 be 72 04 bd a1 b6 e8 3d 61 58 38 3e 7e ed 0f 3e
       -0.03233599 0.11362959 0.18002464 0.1405544
000060 b7 a6 b0 3d 42 4c 21 3e ba 2f 0d be 9f bb 02 be
       0.08625548 0.15751746 -0.13787737 -0.12766884
000070 bb c9 47 bc 65 c1 14 be 69 04 6b bc 93 f8 fd bd
       -0.012194092 -0.14526899 -0.014344313 -0.124009274
000080 3b db ee bd e7 db 57 3d bf 24 1c bd 9f d9 1f be
       -0.11662909 0.05269995 -0.03812098 -0.1561036
000090 1e 21 6f bd 14 92 18 3e 7f 5d 09 3e 3c 35 31 3d
       -0.058381192 0.14899474 0.13414572 0.04326366
0000a0 54 7b 29 bd 2f 83 01 be e9 80 34 be a0 f3 02 3e
       -0.04137738 -0.12647699 -0.176273 0.12788248
0000b0 54 96 34 be 2b 2b c8 3d db 32 02 3e 4d 59 fe bd
       -0.1763547 0.09773859 0.12714712 -0.124193765
0000c0 80 1b 2e bd 1c a5 a6 3c d4 27 e5 bd 42 69 15 be
       -0.042506695 0.020342402 -0.11189237 -0.14590934
0000d0 3d 74 08 be a4 8b e2 bd ef 57 14 3e a5 8f 04 bc
       -0.13325591 -0.110617906 0.14486669 -0.008090888
0000e0 35 45 fb bb 34 35 17 3e f9 a9 60 3d a9 97 ba bd
       -0.007668162 0.14766389 0.0548496 -0.09110958

net.2.weight f4 [60, 60]
000000 c5 df 84 3e 06 78 6d 3d 44 f8 a1 3d ed 88 ef 3c
       0.25951973 0.05797579 0.07908681 0.029240096
000010 be 05 30 3e 8e db 35 bd e1 7e 81 bd 1e 68 27 3d
       0.1718969 -0.044398837 -0.06323028 0.04087078
000020 13 e7 ab 3c db b6 c6 bd 79 d3 63 bd ee 4e 79 3d
       0.020984208 -0.09702846 -0.055621598 0.06086629
000030 f9 2f d3 3d 54 52 b6 3d 60 f2 86 be 19 4b f2 bd
       0.103118844 0.089024216 -0.26356792 -0.1183073
000040 05 37 cf bc f1 a2 ec 3d bb af eb 3c 46 0d 96 3d
       -0.02529479 0.11554516 0.028770318 0.073267505
000050 00 8d ee bd d0 7e 49 ba 7d cb 46 3d 62 55 b6 3d
       -0.11647987 -0.0007686438 0.048533905 0.08903004
000060 d2 8d 60 3d 3c be 9d bd b6 8b 65 3e 06 77 4a bd
       0.05482275 -0.077023 0.22416577 -0.049429916
000070 07 3e 5a 3e dd 27 76 bd 88 8b 33 be 27 f7 cd 3e
       0.21312724 -0.06009661 -0.17533696 0.40227625
000080 82 3e fa bc d8 d1 73 3e 31 a7 15 39 98 fa 62 3d
       -0.030547384 0.23810518 0.00014272031 0.055414766
000090 81 44 20 be eb 7a a8 3d be c8 0c 3e e6 42 40 bd
       -0.15651132 0.0822657 0.13748452 -0.0469388
0000a0 6c f5 84 bc c8 0d 39 3c e2 6d 4f bd 11 95 20 bd
       -0.016230308 0.01129479 -0.0506419 -0.03920466
0000b0 7a 1f 8a 3d 5f 7d 10 be 6f 4b 7b 3d 8a c0 a3 3e
       0.06744285 -0.14110325 0.061351236 0.31982833
0000c0 f1 ca 18 be 1c 05 a4 be b6 1d c0 bb cd 1e 16 be
       -0.14921166 -0.32035148 -0.005862917 -0.14660187
0000d0 9e 44 18 bc 91 2d 33 bd 53 7b a3 3b b4 19 9d 3d
       -0.009293703 -0.043744627 0.0049890666 0.07670918
0000e0 1e 53 9d bd 63 76 27 bd cb c7 30 3e 55 a2 6c bd
       -0.07681869 -0.040884387 0.17263715 -0.057772
0000f0 d7 9b 6a bd c4 6d 85 be a6 34 af bc ee 92 a2 3d
       -0.057277527 -0.26060307 -0.02138741 0.07938181
000100 de 66 8d be ac db f2 3c 1e 6f 65 3e aa 1a 2a 3e
       -0.27617544 0.029645763 0.22405669 0.16611734
000110 38 0e 88 be 5f 45 d7 3d 95 c7 ab 3d 58 81 02 bd
       -0.26573348 0.10511278 0.083876766 -0.031861633
000120 69 50 54 bd ca cb 52 bd e8 80 43 bd 5d d7 09 3e
       -0.051834498 -0.05146388 -0.047730356 0.13461061
000130 18 3a 73 39 16 8e 8e bd 1c 77 b2 bc fc 71 5c be
       0.00023195927 -0.069606945 -0.021785311 -0.21527857
000140 16 ed 8d 3c 77 30 dd 3d 59 57 80 be a3 47 f1 bd
       0.017324965 0.108002596 -0.2506664 -0.11781242
000150 14 4b 2b 3e de 17 ca bd 24 08 41 bd da b3 6c 3e
       0.16727859 -0.098678336 -0.047126904 0.23115483
000160 58 0b 92 bd 89 22 dd 3c eb 0b 54 bd 5b ef 83 be
       -0.0713107 0.026994007 -0.05176918 -0.2576855
000170 1b f6 d9 3d b7 04 18 3e 07 7e ce 3c 9c b7 ed 3d
       0.10642644 0.14845549 0.025206579 0.11607286
000180 2e 0e 57 3e c5 93 44 3e 1c 2a ea 3c 47 66 b4 3d
       0.21001503 0.19196995 0.028584532 0.0880857
000190 c0 08 46 be 15 43 03 3d 0a 28 2d be 65 23 17 be
       -0.19339275 0.032046396 -0.16909805 -0.14759596
0001a0 e7 86 bc bb 47 80 c5 bb 18 ca 39 be d2 9b 52 bd
       -0.0057533863 -0.0060272547 -0.18143499 -0.051418133
0001b0 0a 61 96 bc d4 68 92 bd ed 93 3a 3c 73 34 e3 bd
       -0.018356819 -0.07148901 0.011387807 -0.11093988
0001c0 ee 90 96 bd 07 0c 07 be 25 46 8f bd 42 e1 d1 3d
       -0.07351862 -0.13188182 -0.06995801 0.10248043
0001d0 90 2e 42 3e f3 ad 18 be 94 4e 72 3d 31 2a 42 3e
       0.18963075 -0.14910106 0.05915697 0.18961407
0001e0 87 8a 59 be f6 0a 11 3e 7e 9c 98 be e7 5e 2f 3d
       -0.2124425 0.14164338 -0.29806894 0.042815115
0001f0 d6 3f a9 bd 96 57 31 bd c1 15 86 3c c9 4a 53 3e
       -0.08264129 -0.04329642 0.016367795 0.20633997
000200 59 e5 50 3e 1b 45 74 be f3 1a 5b bd c5 fc 4c ba
       0.20399989 -0.23854487 -0.053492498 -0.0007819648
000210 a7 82 0c be e6 4c 2a bd 1a f3 33 3e d2 9a c5 3d
       -0.13721715 -0.041577242 0.17573205 0.0964867
000220 fa 23 f2 3d ab b4 be bc 09 fe a9 3d e6 da fe bd
       0.11823268 -0.023279509 0.083004065 -0.12444095
000230 14 79 d3 3d a1 04 89 3c a7 b1 40 be 29 d7 c8 bd
       0.10325828 0.01672584 -0.18817769 -0.098066635
000240 1f 2e b5 be 11 18 0d be 3f 23 e6 3c 59 aa 5a 3e
       -0.3538675 -0.13778712 0.028092979 0.21354045
000250 b8 fc d0 bc b1 4f e5 3c cb 8a b9 3b 90 75 04 3e
       -0.02551113 0.027992101 0.0056622974 0.12935472
000260 7f d6 98 bd e6 47 04 3e 45 90 a2 bd d6 f9 53 be
       -0.07462787 0.12918052 -0.079376735 -0.20700774
000270 ad 69 28 3d 1d bd 56 be d7 46 e8 3d 1c f9 79 bd
       0.041116405 -0.20970578 0.11341637 -0.061028585
000280 29 8a c0 3d 7a 20 35 3d 05 30 50 bd 27 43 70 3c
       0.09401352 0.044220425 -0.050827045 0.014664448
000290 0f 3d 29 3d 70 31 90 3d 79 e1 30 3e d0 34 f6 3d
       0.041317996 0.070406795 0.17273511 0.12021792
0002a0 89 07 0b be f5 40 bb 3d 06 36 69 3d 38 f4 ab 3d
       -0.13577093 0.09143249 0.056936286 0.083961904
0002b0 9a 75 58 bc b6 f5 34 be bb bd 4b 3e 9c 51 74 bd
       -0.013211632 -0.17671856 0.19896595 -0.05964814
0002c0 24 0c 15 3e 53 ae 88 3d f2 29 96 bd b0 13 2b be
       0.14555413 0.06673875 -0.07332219 -0.16706729
0002d0 6d 2a 74 3e 76 97 da 3d a1 ee 76 bd e1 a8 04 3e
       0.23844309 0.1067342 -0.060286168 0.12955047
0002e0 5e 94 4c be ea a0 3a 3e 90 7d c1 bd ef 98 82 be
       -0.19978473 0.18225446 -0.09447777 -0.25507304
0002f0 d8 04 8c be b8 d7 61 bd 48 3e bc bc 1e c8 4b be
       -0.27347445 -0.055137366 -0.022978917 -0.19900557
000300 02 9b 9d 3c b9 71 4f 3d b3 20 29 3d 57 ea 96 3c
       0.019238953 0.050645564 0.04129095 0.018422289
000310 83 2c 94 3d 85 3c f1 3c ff 15 cf 3d 47 dc fd bd
       0.072350524 0.029447803 0.10111617 -0.1239553
000320 1b 75 36 3e b7 7e 46 3e ec f1 85 be 62 9f be bd
       0.1781811 0.19384275 -0.26161134 -0.093077436
000330 07 f9 7e b6 55 d7 61 3d 75 32 88 bc ed ed bc 3d
       -3.7993902e-06 0.055136997 -0.016625622 0.09225068
000340 38 55 42 be 05 a3 a3 bc 96 13 ad 3d 67 00 23 3d
       -0.18977821 -0.019975195 0.08451001 0.039795306
000350 44 3f 10 be 96 1c 2c 3d 69 bb 92 bd 90 82 ea ba
       -0.14086634 0.04201945 -0.07164652 -0.0017891694
000360 ad bd 17 be d6 8d 3e be b1 ed 82 3b 91 3d 1c 3e
       -0.1481845 -0.18608794 0.00399562 0.1525786
000370 cf 36 0d be dc 0f 12 3e c0 b6 43 bc d9 f5 56 be
       -0.13790439 0.14263862 -0.011945426 -0.20992221
000380 cd f0 b8 3d 81 14 10 3e 4c 01 d7 3d 01 46 e2 3c
       0.09030304 0.14070322 0.10498294 0.027621271
000390 c9 19 01 be 48 db e5 bc 6e fc 94 3c a1 9e 6e bd
       -0.12607493 -0.028058663 0.018186774 -0.05825675
0003a0 a1 34 48 3c 42 f3 66 bd a2 1c 52 bd c1 c8 cd 3d
       0.012219579 -0.056384332 -0.051296838 0.100480564
0003b0 9d 51 45 3d b8 03 49 3e 37 28 08 3e 6f c2 2c 3e
       0.048173536 0.19630325 0.13296591 0.16871046
0003c0 d2 db 7a 3e 5d e9 68 bd 9a 44 e7 bd 86 97 12 3e
       0.24497917 -0.056863178 -0.112923816 0.14315614
0003d0 c9 1e c6 bd c6 ee bb bd 8f 48 8d 3d d4 26 84 3e
       -0.096738406 -0.09176402 0.06898605 0.25810874
0003e0 43 28 b6 bd ae b8 c4 3c cd 1d d0 bc 18 c4 d6 bd
       -0.08894398 0.024013843 -0.025404835 -0.10486621
0003f0 15 94 bc bc 57 cc 06 be 61 f6 ee bd 8b d2 1f 3e
       -0.02301983 -0.13163887 -0.11668087 0.1560766
